KNet/Linear_SS_No_MM_/model_KNet_Linear_Dynamics_T100_v_negative_10dB_best_MSE.pt (torch, 38469 bytes, 42 tensors)

weight_ih_l0 f4 [12, 10]
00000000: b7fe d2bd 0748 253c 943a dabe 538e dc3e
00000010: bd05 d63e 26ef 863e 40b3 b4bd 3005 933e
00000020: 4162 7abe 38b7 b83e 68bd c4be 2cdd d6be
00000030: cea0 2fbd 356f e93e 4f12 90be 7722 99be
00000040: fcc0 c33e 62d0 89bd cdd8 13be 68cb 713a
00000050: a068 ad3e 7bd6 8abe 36fd 603e 7ebf 8fbd
00000060: 8f22 88be 5515 263e 8018 a4be 30bf 80bd
00000070: 61b6 f83e 7463 173e aad5 7bbe f64a 553e
00000080: bb8a 4d3e bff3 df3e 4874 dfbe 2388 d3be
00000090: f2ce 6a3e 2fe9 e43e f4d4 00be 6c4e 6bbe
000000a0: 714e 8a3e 070e 033e 8373 79be 4060 583e
000000b0: 6ff6 e03e a14f dbbe c4f8 2cbe 4f2d ddbe
000000c0: 447d 423e a132 8c3c 4065 f4be 34a1 a93e
000000d0: 8b50 9b38 072b 56bb 6aa5 b5be af92 4ebe
000000e0: 59d4 163d 9298 a93e 074c a43e 208e 88be
000000f0: 9d4b 173e cb88 423e d241 4cbc 3565 b2bb
00000100: 1b84 953e 13ae d33d e046 793d 646e 90bd
00000110: fe53 42be 966f 093e 9900 17bd cd0f b0bd
00000120: ba7d 1d3e 6831 573e 3801 c33d 5a24 a9be
00000130: eaa9 ea3d f014 d73d 9067 4f3e 1481 a83e
00000140: fe39 e73e 28e6 f4bb ee05 e4be 21fc de3e
00000150: c121 733e 0e30 40be ad5a f53e 8c07 823e
00000160: 4c1c 70be a7ca aabd 377f f63d debc d0be
00000170: de75 893e f8bc 203e 6d3a 1abe 547d 863d
00000180: 30fc c63e c3c2 87be 3bf8 073e 734e 753e
00000190: 6e33 1d3e 3657 be3e e777 4c3e 0366 00be
000001a0: 022f f4be 1ee7 4d3d 2d62 733e a18e 3f3e
000001b0: 1771 953e 6321 2f3d 1563 d8be 6fcb 883e
000001c0: 79b3 93be f361 f7bd a176 a8bd ef7c 01be
000001d0: ab3c 4abd f8bd 20be 5f7d dfbe e6eb cc3c
-0.10302489 0.010087973 -0.42622817 0.43077335 0.41801253 0.2635433 -0.08823252 0.28714895
-0.24451543 0.36077285 -0.38425756 -0.41965616 -0.042877965 0.45592657 -0.28138968 -0.29909107
0.38233173 -0.06729199 -0.14438172 0.00092237303 0.33868885 -0.2711676 0.21971592 -0.07018946
-0.26588866 0.16219075 -0.32049942 -0.06286466 0.48576644 0.14784032 -0.24593225 0.20829377
0.20072453 0.4374065 -0.43643403 -0.41314802 0.22930506 0.44709155 -0.12581235 -0.22979134
0.2701297 0.1279832 -0.2436047 0.21130466 0.43938014 -0.4283419 -0.16891772 -0.4319863
0.18993098 0.017113985 -0.47733498 0.331308 7.405978e-05 -0.0032679455 -0.35477763 -0.20173143
0.036823604 0.33124214 0.32089254 -0.26670933 0.14774938 0.18997495 -0.012466865 -0.0054441937
0.2920235 0.103359364 0.060858607 -0.07052305 -0.18977353 0.13421473 -0.036865804 -0.08596764
0.15379992 0.2101494 0.09521717 -0.33035547 0.1145819 0.105020404 0.2025435 0.3291098
0.45161432 -0.007473726 -0.44535774 0.43551734 0.23743345 -0.18768331 0.47920743 0.25396383
-0.23448294 -0.08339434 0.12035983 -0.40769094 0.26847738 0.15697086 -0.1506135 0.06566873
0.3886428 -0.2651578 0.13278286 0.23955707 0.1535165 0.37175912 0.19967614 -0.12538914
-0.47692114 0.05026924 0.2376792 0.18706752 0.29187843 0.04275645 -0.42263094 0.26717708
-0.28847864 -0.12079229 -0.08225752 -0.12645315 -0.049374264 -0.15697467 -0.43650338 0.025014829

weight_hh_l0 f4 [12, 4]
00000000: 517a e73e 8372 903e 9af3 04bd bd90 26be
00000010: cd88 2abe f43b fdbd 2155 883e 772b 123e
00000020: 1fa8 c5be 9b9b 0dbe 3d0d 97be 110d 123d
00000030: 78f9 ec3d 5ace 0abd d06c 2bbd c9b9 c83e
00000040: 1426 e93e c362 a5be 6581 503e 85f6 cdbe
00000050: a87c 963e 7d9c a23e d572 d43e c8c3 ac3e
00000060: 72ba 26be 2eba 123d 204a b0be ccea 733e
00000070: c978 59be 309f 63be ca7b a3be c24a db3e
00000080: 82ad b3be a542 ae3e e352 febe 31e6 793e
00000090: f881 873e 8eac b4be 0938 bcbe 2f4d b0be
000000a0: 9169 783e f0e7 d2be f74b ea3e 068f a6be
000000b0: 6421 00bf e65e efbe d339 b63e 9817 e83d
0.45210508 0.28212366 -0.03245888 -0.16266151 -0.16653748 -0.12364951 0.26627448 0.14274393
-0.3860483 -0.1382889 -0.29502288 0.035656992 0.1157102 -0.0338882 -0.04185182 0.39204243
0.45536864 -0.32301912 0.2036186 -0.40227142 0.2939198 0.31760016 0.4149386 0.3374312
-0.1628206 0.035822086 -0.34431553 0.23820037 -0.21237482 -0.22228694 -0.3193038 0.42830473
-0.35093313 0.3403522 -0.49672613 0.24404217 0.26466346 -0.352879 -0.367615 -0.34433886
0.2425902 -0.4119258 0.45761082 -0.32530993 -0.5005095 -0.4675209 0.3559099 0.11332625

bias_ih_l0 f4 [12]
00000000: ab86 f4be 415e 893e 0e68 bb3e a7f6 a13e
00000010: 7bb8 2e3e 5a8c 0abe 1211 01be 14e1 873d
00000020: c6a6 6bbe 0feb 643e 914c f9be ba37 8c3e
-0.47758994 0.26829723 0.36602825 0.31633493 0.17062561 -0.13530102 -0.12604168 0.06634727
-0.23012838 0.22355293 -0.48691228 0.27386266

bias_hh_l0 f4 [12]
00000000: d786 8f3e 1a19 bcbe 55b8 8ebe b4e0 a63e
00000010: 7bb3 4d3e 1f0d 673e d769 83be 6f0e cd3e
00000020: f174 d4bd 47c8 e93d e6e4 ebbb e064 8cbe
0.28032562 -0.367379 -0.2787501 0.3259331 0.20087998 0.22563599 -0.25666687 0.40050074
-0.10373867 0.11415153 -0.0071989177 -0.27420712

weight_ih_l0 f4 [12, 14]
00000000: 0738 74bd ae96 a73e 4368 d23e 406e 94be
00000010: e577 95be 6d47 4d3d f24e ba3e 52b1 a63c
00000020: 7972 c3be 7496 3a3e 8568 f4bd 7477 e23d
00000030: ed02 523d cdd8 29bd 8e5d e0be 6dfa 333e
00000040: 6e8f a6be 877c cdbe ceaa 373e 59c3 f1be
00000050: fabd 973e ae31 863e 31c4 b53e 1aeb 3abe
00000060: a2aa ebbe 5652 a8bd 46aa c63e 06f8 c7be
00000070: 2c50 a53d eb0c 683d e34f da3e 9929 9bbe
00000080: a681 59be 2385 cb3e 034f ddbe c8d8 9b3e
00000090: bfeb 3a3e 4263 5cbd f993 7a3e 3c17 f1bd
000000a0: 732e 8c3e aab6 0e3d 5859 70be 7721 cebe
000000b0: bae4 5cbd 1463 453d dcbc cf3e 8049 5abe
000000c0: 4783 61be 4a5e 643d 5fc3 353e e5a2 bc3e
000000d0: ff21 ae3c 75f4 39be e5f1 703e db76 0c3e
000000e0: 96c8 e0bd bbf7 ad3e 497f 6f3e e842 8abe
000000f0: d51b c93e ae66 a63e 5e0a d3bd 3c65 c0be
00000100: 63f5 a63e 8759 993e b4da 90be e71b e7be
00000110: 7967 d2be 3d0e c43e 50d7 ec3e 3217 b2bc
00000120: b6fd 86bd 5631 443e e6b6 b3be 7b19 d5be
00000130: 9159 0bbd acdd dabe 43a5 3ebe d856 9f3e
00000140: c1e7 f43e 0691 cebc 137e 493e 2d27 cebd
00000150: c99d 5c3e 5f3b 323e 94d1 ec3e 9ad1 273e
00000160: 8a0e 6c3e a112 9c3e 2ac8 07be 5734 cb3e
00000170: b068 acbc 5d08 b2be 7d9c 453e ebf5 06be
00000180: 1996 f2be 492e 70be e16b aa3e 2670 f5be
00000190: 1025 dfbe a007 a43e bcb5 b13e bba6 353e
000001a0: f445 ecbd 561b 8dbe 6947 cebe ca6a 8abe
000001b0: e9d6 eb3d 43a7 af3e 6241 fbbe ca4b 8eb9
000001c0: 74a5 d8be aedd fc3d dfcc 21be 87c0 c53e
000001d0: 6d48 243a 07ad f63e 9b7e 6a3d cc8e a23e
000001e0: bb20 663e 7100 f0be 03ff 67be 9065 abbe
000001f0: 7ab6 4cbe 942d c63e f0c0 ccbe 45a7 ed3e
00000200: 5856 3ebe def9 993e 08fa af3e d29a e0be
00000210: bd45 283e 9ad4 c53e a235 0bbd 84ca f73e
00000220: 5621 9abd a26c cf3e 11c9 df3e a177 573e
00000230: db07 febd 1320 c43d f653 ec3e 76ec c5be
00000240: 3250 20be 5940 af3e fbfc cdbe d276 d63e
00000250: 8cdd 363e 22c7 dc3e ed1a b7bc b7a8 743e
00000260: 8d8c a7be dab1 893c 343e d2be 9657 e23e
00000270: f3f3 fd3e ccdd 813e e874 893d 6a93 bcbe
00000280: 39c3 db3e 3dd1 cd3d 6961 f7be ebae f43d
00000290: f05d 9a3a 95c6 dc3e 12f5 a03e f314 c2be
-0.059623744 0.32732147 0.4109517 -0.28990364 -0.29193035 0.050116945 0.36388355 0.020348225
-0.38173273 0.18221456 -0.11933998 0.1105794 0.05127232 -0.041466523 -0.43821377 0.17575999
-0.32531303 -0.4013407 0.1793625 -0.4721935 0.29637128 0.26209778 0.35501245 -0.18253747
-0.4602862 -0.08218829 0.38801783 -0.39056414 0.08071932 0.056652945 0.42639074 -0.30305174
-0.21240863 0.39750013 -0.43224344 0.30438828 0.18253992 -0.053805597 0.2447051 -0.1177201
0.27379188 0.03484217 -0.23471582 -0.40259907 -0.05392907 0.04819019 0.40573776 -0.213171
-0.22022735 0.055753984 0.1775031 0.3684303 0.021256445 -0.18159659 0.23529775 0.13717215
-0.10975759 0.33978066 0.23388399 -0.2700417 0.39279047 0.32500213 -0.10304712 -0.37577236
0.3260909 0.29951116 -0.28291857 -0.45138475 -0.41094568 0.38292113 0.4625802 -0.021739576
-0.0659136 0.19159445 -0.35100478 -0.41621003 -0.034020964 -0.42747247 -0.1861773 0.31120944
0.47833064 -0.025215637 0.19677 -0.10066066 0.21544565 0.17405461 0.46253645 0.1638855
0.23052421 0.30482963 -0.1325995 0.3968837 -0.021046013 -0.34772006 0.19297977 -0.13179748
-0.4738014 -0.23455156 0.3328543 -0.47937125 -0.43582964 0.32037067 0.34708965 0.17739384
-0.1153678 -0.27559918 -0.40288857 -0.270346 0.115156 0.34307298 -0.4907332 -0.00027140818
-0.4231373 0.123469695 -0.15800808 0.3862345 0.0006266896 0.48178884 0.057249647 0.3174957
0.22473423 -0.46875337 -0.22655873 -0.33475924 -0.19991484 0.38706648 -0.3999095 0.4641668
-0.18587625 0.30073446 0.34370446 -0.4386812 0.16432853 0.38638765 -0.033986695 0.48396695
-0.075258896 0.40512568 0.4370809 0.21041729 -0.12403842 0.0957643 0.46157807 -0.38656968
-0.15655592 0.3422878 -0.4023207 0.41887528 0.17857951 0.43120676 -0.022351706 0.23892485
-0.3272442 0.016808439 -0.41063082 0.44207448 0.4960018 0.2536453 0.06711751 -0.36831218
0.4292238 0.10049675 -0.48316506 0.119474255 0.0011777263 0.43120256 0.31436974 -0.37906608

weight_hh_l0 f4 [12, 4]
00000000: 38dd 4f3e 3b1e debe b698 0c3d 9cd1 76be
00000010: 702b 2cbc ae3a d63d 3755 98be 666a 90be
00000020: 9af4 b23e 1e9d 99be 4377 d2b7 f2a7 debe
00000030: 6997 99be 4e36 e73e f9ca 84be 3778 17be
00000040: 6dd4 89be 7c38 a8be b823 6dbe 0467 b3be
00000050: 6126 bc3e 207d 023f 5ed3 26be 5b85 a0bb
00000060: 5c15 d3be 17db 12bd f684 60be 6eaf 963e
00000070: 8640 df3e 06d7 eb3e 71a6 45b8 b663 11be
00000080: ae04 a3be 6fdf 5b3e 33de d53e 598f 83be
00000090: 9ddf b13e 21a2 053e 5a70 0b3e bd1a 043e
000000a0: bda5 693e 7065 873e 0da7 c43d 0d1f ef3e
000000b0: 3017 84be f812 c33e 73c6 d73e 4ad6 a33e
0.20299232 -0.4338244 0.034325324 -0.24103397 -0.010508403 0.10460411 -0.29752514 -0.28206176
0.3495224 -0.30002683 -2.5089486e-05 -0.43487507 -0.2999833 0.4515862 -0.25936106 -0.14791952
-0.2691988 -0.32855594 -0.23158157 -0.35039532 0.3674803 0.50972176 -0.16291568 -0.0048987097
-0.41227233 -0.03585347 -0.2192572 0.29430717 0.43603915 0.46062487 -4.712347e-05 -0.14198193
-0.31839508 0.21471952 0.41771087 -0.25695303 0.34740916 0.13050129 0.13617077 0.12900825
0.2281713 0.26444578 0.09602175 0.46703377 -0.2579894 0.3810041 0.42143592 0.31999427

bias_ih_l0 f4 [12]
00000000: c553 173e 1a73 dbbe 6409 1cbe 00d9 fcbe
00000010: 84c5 d3bd 8743 39be a99f a1be 382c a7be
00000020: c327 093e 4807 2bbe 494b a43e 3e7b 32be
0.1477805 -0.42861253 -0.15237957 -0.49384308 -0.103404075 -0.18092166 -0.31567124 -0.32650924
0.13394074 -0.16701996 0.32088688 -0.17429826

bias_hh_l0 f4 [12]
00000000: 2e6b 84be 8ee6 6a3e da62 8e3e 9915 e93d
00000010: 3fd9 08be a4e3 403d b04c 9c3e b25c cbbe
00000020: 1b0d e0bc 8f50 edbe d65b 6dbe b869 e23e
-0.25863022 0.22939512 0.27809793 0.113810726 -0.13364123 0.047092095 0.30527258 -0.39719158
-0.02735 -0.46350524 -0.23179564 0.44221282

weight_ih_l0 f4 [12, 24]
00000000: 9544 a53e bd0a 623d dab7 ea3e ee1b 12be
00000010: 2b59 e2be 91ed 7ebe d2da 343e 0a1a 90be
00000020: cf06 33be 5c3c 2fbe b152 763d b98e e73e
00000030: 05c6 52be 57ed eebe 5fcd 80be 4fc8 b03e
00000040: 9139 d03e 64b4 af3e 7cbb a93d 2e13 7c3d
00000050: 56e4 f4bd 7516 8f3e e0b8 ccbe 07ed acbe
00000060: 1db7 503e be0d 13be e896 493d 1913 bebe
00000070: 9086 073e d19f 35be 2e44 87be 0684 913e
00000080: 7b1f 3fbe d50a bcbd 065e fbbe 4f47 bf3d
00000090: eb98 56be a312 ebbe 6f4f 6f3e 00fc 5bbe
000000a0: f47a d8bd de81 0bbe 30c2 f0be 6298 f33e
000000b0: 7993 463d ec95 babe 4b4b 3bbd 197c b33d
000000c0: 30b1 adbe 1d26 40be 01f2 f23d e8f0 08be
000000d0: 28ec 29be 38dc b83d 39c2 5a3e 4bb0 9c3c
000000e0: b97e e8bd 2342 c33e 5f72 f8be 352c 99bc
000000f0: adfa bc3e fb57 cbbe c475 9e3e 3031 cb3c
00000100: ef8c 9a3e 4829 dc3e 9c08 94be 519a e73d
00000110: fdbd 763e 83b1 ad3e c565 da3d 2029 a8be
00000120: d29e b63e 54b8 67be e2d3 ab3e 20a1 9f3e
00000130: e2c3 afbc b66f e4bc b7a1 adbd e9fd ffbd
00000140: a386 823d 3d60 52be 7ef5 b2bd 8312 f9be
00000150: 52b9 ec3e 0ba6 a73e 105f f53e 7acd 17be
00000160: 1e02 8d3e 89f8 bf3e 1be4 193e 6e7f d5be
00000170: b545 b0be d221 a03e 47a3 94bd d1c2 173d
00000180: d150 463e 579f 74be 9a90 9c3e 54cc e6be
00000190: c3e6 c3be b8a2 eebe d98a ac3b 3552 1f3e
000001a0: 9f35 82be f8c5 cabe 4252 fbbd f4a7 38be
000001b0: cbb3 aabc f571 793e f9cc 943e 4b0c 5d3d
000001c0: b13c aa3e de76 e8be 23eb ce3e 3cec 9bbc
000001d0: 6ffd d53d b750 5f3e 0085 fabc 897d 7a3e
000001e0: 105b 8c3d 0d43 e43e e2f9 acbd 015a bc3d
000001f0: b1bb 0f3e 042d d9be 4188 e93e f52b dc3e
00000200: a3b6 94bd a5a2 55be 5bf5 b03d 9f67 c53e
00000210: fb33 87be 69b5 963e 84d6 2ebc 6105 cdbe
00000220: e0cc 143e 5a16 1d3d 0f35 d0bd 0691 95be
00000230: f00e 333c 5667 a7be 696c 3f3d 6d89 36bd
00000240: b41d bc3d be4f 9b3e 6d57 07be 4034 83be
00000250: 0141 72b9 0117 e4be 9117 d93b 8cc0 a43d
00000260: 5b2b a23b 5639 e9be 5bac 783e fc1c a5be
00000270: 0833 3b3e de5d e13c 53c6 85be b7fb 973e
00000280: fb42 c5bc b1ab 5ebe 5f82 603e 91d1 563e
00000290: d0d1 41bd 8df4 0b3e b572 e73e 71b0 25be
000002a0: 2367 293d 6754 823c 9e7b be3e afcb ee3d
000002b0: 5c92 aa3d 5e68 fdbe 92d6 b03e d3a7 b13e
000002c0: e24d 9a3e 0e5a 333e beaa b9be 17d4 d83d
000002d0: ab95 9a3d 8dab e3be 5c39 9abe 7719 a43e
000002e0: 4b89 cc3e 5ac1 363d 84a7 e03d 1f9d 673e
000002f0: 6fa5 f5be 67d6 55be e747 8ebd 8f11 7bbe
00000300: f0ac c6be 3816 8c3e 7f68 fd3e ffde 3c3e
00000310: 6a3c babd 81d9 4c3e 7ca2 ecbd a331 443e
00000320: a930 b4bd e2e5 edbd 0dd8 72be e27a 453e
00000330: 78c7 d93d ec05 2fbe e460 ccbe 4740 97be
00000340: 3491 9a3e 64c8 d5be 4a65 ecbe 6f57 d53e
00000350: 5c95 eb3d b750 25bd d3c0 b0be 6651 1dbe
00000360: 3672 8ebe 6ce0 42be def1 7bbe deea 92bd
00000370: d42f 1e3e c3a2 abbe 58ac f1be aa9c d8be
00000380: 92c3 a4be 1d10 963e a2f0 a3be 166a cf3e
00000390: bb3a a43e 3845 00bf 7f7e 6abe f96e 9f3e
000003a0: 69e5 14be 6664 bd3e 459d f4be 7f45 ad3e
000003b0: 3ee7 a63e e08c 3ebe af8d 9a3e 98fb a1be
000003c0: cd40 153e b60b ce3e 4893 6c3e 8fed fabd
000003d0: 478f 29bd 08f3 e83e 5cb5 623e d8b3 d43e
000003e0: 250f cebe 2b14 8f3c 4c55 94be 2a19 f13e
000003f0: 0136 c3be c2dc 31be c08e c7be e992 34be
0.32278886 0.055186022 0.45843393 -0.14268467 -0.44208655 -0.24895312 0.17661598 -0.28144866
-0.17483066 -0.17112869 0.060137454 0.45226076 -0.20583351 -0.4666545 -0.25156686 0.34527823
0.4066892 0.34317315 0.08287713 0.06154173 -0.11957614 0.2794682 -0.39984798 -0.33774588
0.20382352 -0.14360711 0.04921618 -0.37123945 0.13234925 -0.17736746 -0.26419204 0.28421038
-0.18664353 -0.091817535 -0.49095172 0.09339773 -0.20956771 -0.45912656 0.23370145 -0.21482849
-0.105703264 -0.13623759 -0.47023153 0.47577196 0.048480485 -0.36442506 -0.0457261 0.08763904
-0.33924246 -0.18764539 0.11862565 -0.13373148 -0.16593993 0.090263784 0.21363153 0.019127032
-0.113522954 0.38136396 -0.48524758 -0.018697837 0.3691 -0.3971556 0.30949223 0.024803728
0.3018565 0.43000245 -0.28912818 0.113087304 0.24095912 0.33924493 0.10663942 -0.32843876
0.35668045 -0.2262891 0.3356009 0.31177616 -0.021455709 -0.0278853 -0.0847811 -0.124996014
0.06373336 -0.20544524 -0.0873823 -0.48646936 0.46235138 0.32743868 0.4792409 -0.14824477
0.27540678 0.37494305 0.15028422 -0.41698784 -0.34428182 0.31275803 -0.07257705 0.037051026
0.19366767 -0.23888908 0.30579072 -0.45077765 -0.38261995 -0.4660852 0.0052655754 0.15558703
-0.25431535 -0.39604163 -0.12271549 -0.18032819 -0.020837685 0.24359877 0.29062632 0.0539668
0.3324943 -0.45403188 0.4041377 -0.019033544 0.10448729 0.21808134 -0.030580997 0.2446195
0.06853306 0.44582406 -0.08446099 0.091968544 0.14036442 -0.42417157 0.45611766 0.43002287
-0.07261398 -0.20862825 0.08640548 0.3855562 -0.26406845 0.2943528 -0.010671262 -0.40043166
0.14531279 0.038351394 -0.1016637 -0.29212207 0.010928854 -0.32696027 0.046734247 -0.044564653
0.09185353 0.30334276 -0.13216944 -0.256258 -0.00023103134 -0.445488 0.006625124 0.08044538
0.004949016 -0.45551556 0.24284498 -0.32248676 0.18281186 0.02751058 -0.26127872 0.2968423
-0.02407979 -0.21745183 0.21924733 0.2097838 -0.047319233 0.13667507 0.45204702 -0.16180588
0.041358124 0.015909387 0.37203687 0.11659943 0.08328697 -0.49493688 0.34538704 0.34698352
0.30137545 0.17514822 -0.36263078 0.10587328 0.07548078 -0.4446682 -0.30121887 0.32050678
0.39948496 0.04461799 0.10969451 0.2261853 -0.47977778 -0.20882569 -0.06947308 -0.24518417
-0.38803816 0.27360702 0.49493787 0.18444441 -0.09093554 0.20004846 -0.11554429 0.1915956
-0.08798344 -0.11616112 -0.2371523 0.19285157 0.10633749 -0.17092103 -0.39917672 -0.29541227
0.30188906 -0.41754448 -0.46171027 0.4166827 0.115030974 -0.04036018 -0.34522113 -0.15363082
-0.2782151 -0.19030923 -0.24603984 -0.071737036 0.15447932 -0.33522615 -0.472018 -0.42307025
-0.32180458 0.29309168 -0.32019526 0.40510625 0.32076058 -0.5010562 -0.22899817 0.31139353
-0.14540638 0.3699066 -0.47776237 0.33842084 0.325983 -0.18608427 0.3018622 -0.31637263
0.14575501 0.4024331 0.23103058 -0.12252342 -0.041396406 0.45497918 0.22139496 0.4154346
-0.4024593 0.017465672 -0.28971326 0.4708951 -0.3812714 -0.17369369 -0.38976097 -0.17634167

weight_hh_l0 f4 [12, 4]
00000000: 6084 083e 9526 efbe c14d 353e 9ee2 9cbd
00000010: 61b5 773d 8fe2 6dbd d923 33bd 6651 babe
00000020: db71 cbba 32be f13e af72 c73e 9bdb d8be
00000030: 09d8 ebbe d57a fc3d 13d9 a83e 1698 b23d
00000040: 3032 b13e 2903 3b3e fdec 39bd 4005 fa3e
00000050: 210b 94be ba8f d0be 48dd d13d 1296 2bbe
00000060: a6fd 883e 4134 d2be 78d3 403e 1bb0 dc3d
00000070: 3a94 283e 8b66 80be 50b2 893e cf79 88bc
00000080: 5be0 08bd c2d0 e1bd f3f7 ef3e 5abf 0e3e
00000090: 5136 adbe 1371 bd3e 31eb 4f3e 0317 e33e
000000a0: befe 673e bdf3 9cbe 59f6 4b3e dbba dd3e
000000b0: 9166 b1bc 39fb d13e fdc6 6f3e 0fd2 bc3e
0.13331747 -0.46709123 0.17705442 -0.07660411 0.06047571 -0.05807739 -0.04373536 -0.36390227
-0.0015521602 0.4721542 0.38954684 -0.42355046 -0.4606326 0.12328116 0.32978114 0.08720414
0.34608603 0.18262924 -0.045392025 0.4883213 -0.2891474 -0.40734655 0.10247284 -0.16756466
0.26756018 -0.41055492 0.18830669 0.10775777 0.16462794 -0.25078234 0.26893854 -0.016659645
-0.033417087 -0.110261455 0.46868858 0.13940182 -0.33830503 0.3700033 0.20304562 0.44353494
0.2265577 -0.30654708 0.19918193 0.43306622 -0.021655353 0.4101198 0.23415752 0.36879012

bias_ih_l0 f4 [12]
00000000: e47d 0f3e b2fd fabd b1e8 d43e c56f e83e
00000010: 4236 953d 0e77 adbd e176 63be 54f9 a63e
00000020: f207 a3be c1e0 bc3e b1c9 7bbe ae26 a03e
0.14012867 -0.1225542 0.4158378 0.45397773 0.072857395 -0.084699735 -0.22213317 0.32612097
-0.31842 0.36890224 -0.24588658 0.3127951

bias_hh_l0 f4 [12]
00000000: 14f2 19be b4a4 8bbc cc4f f4ba 4901 e5be
00000010: 25e6 083e 8002 d43e 351a c93e 44b9 90be
00000020: 81c8 be3e 2085 f5be 655a 533e c5bc ecbe
-0.15033752 -0.01704631 -0.0018639504 -0.44727543 0.13369043 0.41408157 0.39277807 -0.28266346
0.37262347 -0.4795313 0.20639952 -0.4623777

weight f4 [4, 4]
00000000: 6af5 083e 31b6 0b3e 2f28 c43c d033 eb3e
00000010: f967 9f3e 1c1e 98bd e5a6 42be 63c8 473e
00000020: 9618 66bd 2fd2 16be c846 5dbe a124 e33a
00000030: 2c53 f83e e5bb d53e 4870 f1be 538c 003f
0.13374868 0.1364372 0.023944942 0.45937967 0.31134012 -0.07427618 -0.19008978 0.19510035
-0.05617579 -0.14728616 -0.21609032 0.0017329642 0.48500955 0.41744915 -0.47155976 0.5021412

bias f4 [4]
00000000: 94b8 af3d e7ce cb3d 9932 dd3e f46c 603e
0.08580127 0.09951573 0.43202665 0.21916562

weight f4 [320, 8]
00000000: 20eb 33bc 97ae 5eb9 dde6 983e 40af 08bd
00000010: 0547 0b3e 925e e4bd d29f 9b37 92a1 9ebd
00000020: f57e 4b3d a304 eebd 7e3c 54be fc20 753e
00000030: e6a0 c2bd ed04 f33d f65e b0be a0b7 6cbe
00000040: dfa0 7e3d c455 5f3e 8541 6c3e a794 8b3e
00000050: 84a0 a83e 62c0 0c3e e846 95bd 6c93 e23c
00000060: 6582 8cbe 0689 a23e f838 1fbe 8bd6 a3be
00000070: cfc3 16bd e888 fabd 2edd 07be 8d5a 213e
00000080: ba03 903e 9938 343e 9d75 a5be cf44 e4bd
00000090: dc2b 12bd b600 cb3d 3a38 43be 6c63 8abe
000000a0: f479 fa3b bbc2 493e 9df2 fb3d cfb0 9a3c
000000b0: 8181 ccb7 f5aa 9abe 64fb e0b6 1fd7 a23d
000000c0: d9a0 d43d 1bc2 8bbe b52e 343e a06c 893e
000000d0: 29cb 7b3e 45bc 90bd b3c3 9c3e 14c5 823e
000000e0: 65a9 a3bd 6056 463e 5b6b 58be 06e0 83be
000000f0: 134f a73d 8150 92be 06a0 83be 217c 92bd
00000100: 1295 853d 3171 88bd 7965 dfb7 84e9 6d3e
00000110: 59ac 4d3e cedd 1eb9 6dc1 823e f56d 84bd
00000120: dc0b 9a3e 93b6 77be 47d2 a33e 5bec 193e
00000130: 993e 953e b1c9 9b3b f672 6cbe c9a3 3e3e
00000140: 03e7 393e 91ec 863e f0a4 cebd e56e 8c3d
00000150: 63aa 09be ad8b 583e 00db dcbd e457 abbe
00000160: 98fe 3f3e a4db 44be cb1e a9be 85d8 5a3e
00000170: d771 9c3d d52e a33e d779 ef3d 451d c53d
00000180: 0283 5a3e 7f84 f83c e541 823e e690 133e
00000190: f0c4 973d e3b4 263e 1f54 11be 8307 c1bd
000001a0: f1c5 b63c 9979 98be 3b6e 4fbe 7313 80be
000001b0: bb50 4bbe edca 0d3e cda2 d73d 807f 00bd
000001c0: af0e bbbc f1b6 133e 7083 3ebe 2570 a7bd
000001d0: 8eba 84be a785 a8be 77d2 923e cec1 8e3e
000001e0: 27a3 ee3c 6b35 503e 1c89 9bbe 27b4 903e
000001f0: 2333 2cbe cfa5 003a 7fae a33d 41f3 42bd
00000200: 71ed 173e 717f d23d 2f45 98be f525 b73c
00000210: 734d 36bc d93a 6f3e bb0d 30b9 3a2e 653d
00000220: aaea 07bc a985 9ebd 826c 67be 02a7 97be
00000230: 54ad b13e 420b b53d 867c 0abe 3f1f d73d
00000240: 8dad ef3d ff37 693e 5df6 883e 37b0 8c3e
00000250: 72d3 10be 7f64 933e a5a0 1ebe f5ba 923d
00000260: 5e97 73be 7bc2 243e 04e7 79be dc65 a4be
00000270: 2c8b 9a3e 7c5e a93e 313a 353e b3b9 813c
00000280: 1d6a bcbd 6a3f 413d 1040 e9bc 42cf 2abe
00000290: afc8 4cbd 0bfa 9abc 9dd2 1d3d b494 cebd
000002a0: d785 133c 2c25 933e 7019 a53d 55af 8f3e
000002b0: 4793 683e 56cc 24be ebd3 5a3e f857 2b3e
000002c0: ca4c ee3d 4022 93be 1e55 99be 47bc e8bd
000002d0: 68d8 833e 9e4a a6be 1b69 1fbe 2bc8 abbc
000002e0: 79e5 03be d639 4ebe 7081 e73d 12c8 50be
000002f0: 1ffb 0f3e 30eb 9b3e 30fc ae3d ee18 bcbc
00000300: 6f19 d8bd 0c95 ff3d 2a91 883e a877 20be
00000310: 2ee5 613e f9bc 653c b680 a2be 881c a0be
00000320: 6ed6 283e 2ca4 a1be e3cf 643e 6005 6d3e
00000330: fd59 9bbd 866d 803e 451e 5dbe 745b ae3e
00000340: 7413 8fbe ea59 f83c 273f 3fbe 8fec 883e
00000350: 20dd 9ebe 9b6e 88be 0f69 6fbe 5bb9 1abe
00000360: 192e 96bd 5855 a43c 4219 2abe 30c7 47be
00000370: d3f9 593e b965 1e3e 650e 853e 4026 04be
00000380: aaff 8b3d bc93 3ebd 549b 61bd e657 893d
00000390: e98a bd3d 5a5b 88be e9be 25be 7454 323e
000003a0: 6577 b6bc 1adf b23e 2c54 81be dcfa 583e
000003b0: 53ae 293e 1fa9 5fbe a2ec 9b3e efde b13e
000003c0: 09c1 6fbe cb7c 193e 50f2 75bd 1158 9ebe
000003d0: 0af0 c6bd 5b5d 8b3e 645e 84be 1fc8 8bbd
000003e0: efee 2f3e 4a49 2f3d be4e 183b 9025 283e
000003f0: da53 ecbd 74da aa3e 1f1b 5d3e 3940 00be
-0.010981351 -0.0002123661 0.29863635 -0.033370256 0.1360131 -0.1115085 1.8551862e-05 -0.07745661
0.049681623 -0.11621978 -0.20726201 0.23938364 -0.09503345 0.11866174 -0.3444745 -0.23116922
0.062165137 0.2181006 0.23071869 0.2726185 0.32934964 0.13745263 -0.07288915 0.027658187
-0.27443233 0.31745166 -0.15549076 -0.3199962 -0.03680783 -0.12233144 -0.13267967 0.15757199
0.28127843 0.17599715 -0.32316294 -0.11145937 -0.03568636 0.09912245 -0.19064417 -0.27028978
0.0076439325 0.1970319 0.12302134 0.018883137 -2.4379e-05 -0.30208555 -6.704986e-06 0.07951187
0.10382242 -0.27296528 0.17595942 0.26840687 0.24589218 -0.070671596 0.30618057 0.25540984
-0.07991294 0.19368887 -0.21134703 -0.25756854 0.08169379 -0.28577045 -0.25708026 -0.07152582
0.065225735 -0.066622145 -2.6630923e-05 0.2323361 0.20085277 -0.00015150683 0.25538197 -0.06466285
0.30087173 -0.2419074 0.31996366 0.15031569 0.2914932 0.004754268 -0.23090729 0.18617167
0.1815453 0.2635236 -0.10090053 0.06857089 -0.13443904 0.21147032 -0.107839584 -0.33465493
0.18749464 -0.19224411 -0.33031306 0.21371658 0.07638901 0.31871668 0.11693161 0.09624723
0.21339038 0.030336617 0.254409 0.14410743 0.0741061 0.1627994 -0.14192246 -0.09425261
0.022311183 -0.29780272 -0.20256893 -0.2501484 -0.19855015 0.13846941 0.10529099 -0.031371593
-0.02283415 0.14425255 -0.18604827 -0.08175687 -0.2592358 -0.3291447 0.28676197 0.27882236
0.029130531 0.20332877 -0.30378044 0.28262445 -0.16816382 0.000490752 0.07992267 -0.047595266
0.1483667 0.10278214 -0.29740283 0.022356967 -0.011126864 0.23362292 -0.00016789783 0.05595229
-0.008295694 -0.077403374 -0.22599986 -0.29619604 0.3470255 0.08840038 -0.13524064 0.105040066
0.11703024 0.22775267 0.2675046 0.2747819 -0.1414316 0.2878761 -0.15490969 0.071645655
-0.23788211 0.16089813 -0.24404532 -0.32108963 0.30184305 0.33079898 0.1769798 0.015835619
-0.09199927 0.047179617 -0.02847293 -0.16680625 -0.049996074 -0.018918058 0.038530935 -0.100869566
0.009004078 0.28739297 0.080614924 0.28063455 0.22712432 -0.16093573 0.21369903 0.16732776
0.1163574 -0.28737068 -0.29947752 -0.11364036 0.25751042 -0.32478803 -0.15567438 -0.020969471
-0.12880506 -0.2013925 0.11303985 -0.20388821 0.14060639 0.3045287 0.08544195 -0.022961106
-0.10551726 0.124796 0.2667325 -0.15670645 0.22060081 0.014022105 -0.31738824 -0.31271768
0.16488048 -0.31570566 0.22344927 0.23146582 -0.07585523 0.2508356 -0.21593578 0.34054148
-0.2794453 0.030316312 -0.18676434 0.2674298 -0.3102808 -0.26646885 -0.2337992 -0.1510977
-0.07333011 0.020060226 -0.16611198 -0.19509578 0.21286707 0.15468492 0.25987545 -0.12905216
0.068358734 -0.04652761 -0.055079773 0.067062184 0.09255011 -0.26632196 -0.16186108 0.17415029
-0.022273729 0.34935838 -0.2525953 0.21189445 0.16570406 -0.21841858 0.30453974 0.34740397
-0.23413481 0.14989011 -0.06004554 -0.30926564 -0.097137526 0.27219662 -0.25853264 -0.068252794
0.1718099 0.042794503 0.0023240293 0.16420579 -0.11539431 0.33369792 0.21592377 -0.12524499

bias f4 [320]
00000000: 2efb 6cbe 7328 923e d0e8 fe3d 79d7 4ebe
00000010: ace7 0abe 80b3 9bbe 942f 983d 2173 97be
00000020: 8966 81be 8a0f e73d 27f9 aa3e 49fd 7e3e
00000030: 29ee 853c 903f 30be 0cb8 6d3d fc8d 98be
00000040: 332d 92be c96e 7ebd 977c 563d 5688 11be
00000050: 3711 91be 4d4e a6be 85d1 833e 6e73 23be
00000060: a627 53be c715 c63d accb 0a3e 6e88 0ebe
00000070: 92e7 a93e 5bd1 8d3e 2818 a53e 410c 043d
00000080: 408e c23c 2e8c a93e d3c7 173c a6e7 00be
00000090: d5ba 723d 7669 f63d 549c 1c3e 68b5 8dbe
000000a0: 8eee bc3c 4fe1 303e 7401 353e 092b 91be
000000b0: e7be 0e3e 23c8 d53d 51fb e03d d191 4fbd
000000c0: 678a b9bd 550d 11be 35ee 97bd 2b51 8dbe
000000d0: e024 c3bc 730d a93e 3b8b fbbd 019a fbbd
000000e0: 1e9b 813e 3bc6 b73d ad71 ad3e 21a4 9e3e
000000f0: 08d0 81be ae15 353d 665c 10be d06a 7abe
00000100: 01fa 8cbe 52e3 11be a035 2a3e b9bf a93e
00000110: 6907 1a3e 58a7 283d a081 06be 37d5 2ebe
00000120: 29d9 853e 113f 81be 199c 9bbd 3a7c 2abe
00000130: a1c0 5b3e 3bd1 70be 7d04 4d3e 58fd 87be
00000140: 75e2 ffbc 4cf5 ab3e d833 893e eeb8 573e
00000150: c833 5d3e 04d5 b33d dfe2 85bd 2a49 3dbe
00000160: 6949 683d 2ec4 37be 12a5 603e 8132 bebd
00000170: 6325 29be 8c64 a63d 419a f23d cbfe 92be
00000180: 63cd a9be 7363 ab3e 5218 b33e 3ae7 86be
00000190: 6c3c cabb 8fae 67bd 60f6 ea3d fc37 353e
000001a0: 0cda d93d ac31 8cbe a63b 873c f654 1abe
000001b0: 9c80 4abe 2ce9 35be 20ab 903c e03a 21be
000001c0: 2c4c a43e d7d3 2a3d fe6e 46be 94fc 8fbe
000001d0: e779 aa3e 862b 913c 76c6 e73d a98e 7b3e
000001e0: f60e 9d3e dd73 09be ea4a 61be d487 483e
000001f0: a162 47be efd1 6ebe 0fc4 7dbe 4acd 09be
00000200: 3f98 97bd 3bca f63d 4042 f4bd c6e2 c13d
00000210: cd17 8dbe baf1 a23e bbf1 49be f645 50be
00000220: 120b 9f3d 0c44 fbbd d8a3 79bd 32e9 cebd
00000230: 7255 8f3e 56cf 5abc 8d08 3ebe aa17 cb3b
00000240: 3802 94bd 29b3 493d 837f 0a3d 6d5a 0dbc
00000250: f70e 5ebe 7636 2e3e 7821 713e 232b 23bc
00000260: e7a7 47be 623f 0abe 232c 8e3e 2fbc 10be
00000270: 91b8 9d3e ab4c 073d d260 333d 55a3 ad3e
00000280: 5731 cabd d099 f4bd 824f 97be 3f7c 98be
00000290: 0665 843e 58c1 c33d 6b3a 5b3e 07b2 9e3e
000002a0: be74 1ebe 5e1a 17be 9c56 c03d a03b b03d
000002b0: 060b 07be d685 293e 9969 43be 89fc 7abe
000002c0: d2f5 68be bce3 67be f185 943e 14f6 96be
000002d0: 1863 c03d 7c08 a13d 6953 cd3c ff64 d53d
000002e0: 45b8 23be fb43 97be 46dd 803e 5fae cc3d
000002f0: 4ffd 833d ed58 91be ba11 5a3e 3f4c 8b3e
00000300: 4d0c ce3c b6f8 e3bd 7774 923e f88e 263d
00000310: ec10 d13d e3f7 6ebe 3108 9f3e 0d62 8fbe
00000320: 7049 6fbe e6ef b03e 4164 65be a20f 683e
00000330: ac59 e63d e3e5 e4bb abe4 173e a58e 8cbe
00000340: be31 e9bd 268b 9c3d 503c dd3d 63b6 ac3c
00000350: 0ea4 443e e803 133b 36e1 663e 0af2 243e
00000360: f489 9c3e 7107 02be 8c10 6f3e 7f7d 78be
00000370: 8e54 233e 4395 45be 5476 213e 4c62 43be
00000380: 0310 b13e b777 62be b05a 993e b077 ec3d
00000390: 01c0 8dbd d1c2 0ebd f386 2abe 7ff6 a03e
000003a0: 9c9d e8bd 12c6 6abd fbe3 31be 83c5 92bd
000003b0: 23bb 53be ee12 593e 4b9d 66be bb3d 913e
000003c0: af88 2a3e 831a e13b 1ae0 0a3e 2860 39be
000003d0: 9a7e 6c3e 6181 6dbe e899 2b3e 8814 d33c
000003e0: 8e26 27bd 0c9d 2bbc 8fd3 8c3e 76b9 b7bd
000003f0: d66a 86be 347e 5fbd 24ac 78be 9aec 323e
-0.23142692 0.28546485 0.12446749 -0.20199384 -0.13564938 -0.30410385 0.0743095 -0.29580024
-0.2527354 0.11282261 0.33393213 0.24901308 0.016348915 -0.17211747 0.05803685 -0.29795825
-0.2855011 -0.06211737 0.052364912 -0.14212164 -0.28333446 -0.32481614 0.25745788 -0.15962002
-0.20620593 0.096721224 0.13554257 -0.13919231 0.33184487 0.27698788 0.32244992 0.03223825
0.02374947 0.3311476 0.00926395 -0.12588367 0.05926021 0.12031834 0.1529401 -0.27677464
0.02306297 0.17273448 0.17676336 -0.28353146 0.13940011 0.10438564 0.10985435 -0.05067617
-0.09059601 -0.14165242 -0.07418481 -0.2760099 -0.023821294 0.33018073 -0.122824155 -0.12285233
0.25313658 0.08973356 0.3387579 0.30984595 -0.25354028 0.04421013 -0.14097747 -0.24454808
-0.27534488 -0.14246872 0.16622019 0.33154085 0.15041889 0.041175216 -0.13135386 -0.17073523
0.26142243 -0.25243428 -0.07598133 -0.16648951 0.21460201 -0.23517315 0.20021243 -0.26560473
-0.031235913 0.33585584 0.26797366 0.21066639 0.21601784 0.08780864 -0.06537413 -0.18484941
0.056710634 -0.1794593 0.2193797 -0.092869766 -0.16518168 0.081246465 0.11845828 -0.28710017
-0.3316451 0.3347431 0.34979492 -0.26348287 -0.0061717536 -0.056562956 0.114727736 0.17697138
0.10637292 -0.27381647 0.016507935 -0.15071473 -0.19775623 -0.1776473 0.017659724 -0.15745115
0.32089365 0.041705932 -0.19378278 -0.2812239 0.3329613 0.017720949 0.1131715 0.2456614
0.30675477 -0.13423105 -0.22001234 0.19583064 -0.19471218 -0.23322271 -0.24781822 -0.13457218
-0.074020855 0.12050291 -0.11926699 0.09467082 -0.2755722 0.31825048 -0.19721119 -0.20339188
0.07765783 -0.12268838 -0.06094727 -0.10103072 0.27994877 -0.013355097 -0.1855795 0.0061978893
-0.07226986 0.049243126 0.03381301 -0.008627516 -0.21685396 0.17012963 0.23547924 -0.009959015
-0.19497643 -0.13500741 0.2776805 -0.14134286 0.30804875 0.0330321 0.043793507 0.33913675
-0.09872692 -0.119434 -0.29552847 -0.29782292 0.25858325 0.09558362 0.21409003 0.309952
-0.15474221 -0.14756152 0.093915194 0.086051226 -0.13187799 0.1655496 -0.19083251 -0.24510397
-0.22750023 -0.22645468 0.2900844 -0.29484618 0.09393901 0.078629464 0.025064187 0.10419654
-0.15988262 -0.29544052 0.25168818 0.09994196 0.06444799 -0.28388157 0.21295825 0.2720661
0.02515235 -0.11131422 0.2860448 0.04066369 0.10208306 -0.23336749 0.31060937 -0.28004494
-0.23367858 0.34558028 -0.22401525 0.22662213 0.11247572 -0.0069854124 0.14833324 -0.2745258
-0.11386441 0.07643728 0.10802519 0.021083063 0.19203207 0.0022432748 0.22546849 0.16107956
0.30574 -0.12698151 0.23346156 -0.24266623 0.15950224 -0.1929522 0.15767795 -0.19080466
0.34582528 -0.2211598 0.29952002 0.11546266 -0.069213875 -0.03485376 -0.16653042 0.31438062
-0.113581866 -0.0573178 -0.17372124 -0.071665786 -0.20676856 0.21198627 -0.2252094 0.2836741
0.16653703 0.0068696155 0.1356205 -0.18103087 0.2309517 -0.23193885 0.1675793 0.025766626
-0.040808253 -0.010474455 0.27505156 -0.08970921 -0.26253384 -0.054563716 -0.24284416 0.17473069

weight f4 [4, 320]
00000000: 816b 12b8 5c37 5ebc 63a1 3d3d ac2e 93ba
00000010: fcd5 4cba 48e5 7a3b 2f91 bebc 43b1 a43b
00000020: 4096 5838 6904 443d e960 ff3b a6a0 2dbd
00000030: 7ce4 6c3d 2fd0 8fbc d8a9 2dbc 494e 14b8
00000040: 04b5 073b 1d65 083d b58b 9bbc 185b 003d
00000050: 6f30 1ab8 255b 04bd 20bf 1d3d 8418 123d
00000060: 2b8c 653d 054c 15bd 4e86 2f3d 884a fcba
00000070: bab0 9dbc 39ee 7a3d 0e8f 493d 7fb0 aabc
00000080: 6ddc 5d3d 64c5 113d ead7 93bc 0cd8 723d
00000090: a91f b2bc 49a5 d53c aa0c 85bc 16bd 61b8
000000a0: 0fc0 77bb e1e5 9dbc 403c c5bc 630d 45b8
000000b0: c499 803c 80ad 7fbc 54a1 2cbc c509 943d
000000c0: 306c a5bc 7517 53bd 66e0 c0bc b951 493c
000000d0: 9dc5 1dbd 8337 ba3c 842f 4d3d 7203 553d
000000e0: 7e4d db3c 81d8 adbc 31a0 143d 39d4 d83b
000000f0: c339 a1bc 7277 2dbd dce6 3a3d 83f4 3b3d
00000100: 05b5 b2ba cc13 1eba ec99 28bc 76ed 323d
00000110: 5701 6ebc aacc c6bc e007 a8bb c256 0fba
00000120: 90b2 b83c 928e e9bc 6848 863c 057b 48b8
00000130: 14dd 543d b573 0f3d 00e0 583c 98cf 563a
00000140: f6c7 b93c 13e5 153d 2251 2b3d 1d09 c7bc
00000150: c077 58bc e116 ff3b bee3 5eb8 8feb 193d
00000160: 2ea4 633b 3255 0fbd 39e2 f2bc 4106 febc
00000170: 8805 d237 f648 25bd ebc1 b63c 4ed4 eebc
00000180: b0f4 833c a766 263d 96b5 f83c bef6 f738
00000190: 37d7 76bc 8564 c4bc 999b 9f3c 51b7 853d
000001a0: 619f fbbb ba87 feb7 0d61 163d 2db1 663c
000001b0: 3732 9bbc 1e96 70bc de01 4a3d c04f 5a3d
000001c0: 6f5c 9cbc d6fe cfbc ebc9 9b38 4209 f2bc
000001d0: de5b 523d 5f5f 22bd a1e7 933c 662e 5ebb
000001e0: 178d 8f3d 58d9 803c 3f72 6a3d ab70 e0bb
000001f0: 0c8d 65bc c82d 263d fc66 cfbc 3a1b 48bd
00000200: e849 c63c d7a7 213c a9f3 0f3d 9d00 81bc
00000210: 7429 1eba d837 593b fdc9 753d 4e28 f738
00000220: dbca 4e3d 6ef2 db3a 3525 6d3d 3692 d1b7
00000230: 7025 703d ec87 9d3b 6b7c 263d 0e2e 123d
00000240: 1008 23ba bc3a fe3c 10b0 743d 0932 913c
00000250: 0c74 28b8 64fa 8a3d 3d7c 043c 5470 b0bc
00000260: 00a5 a0bc 569c e5b7 0af2 893c 78c9 9eba
00000270: 1304 c83c 7846 b03c 44b9 9fbc 5964 773d
00000280: b911 e0bc 2420 b7b7 5fed 03bd 9e57 efbc
00000290: dba1 293c d4f2 813d 18ea 853c ed91 c4bc
000002a0: 9f75 11b7 4898 4abd fba0 473c dc6c 033c
000002b0: 008f f3ba f2ac 0fbd 35f8 ccba 54ea eebc
000002c0: f61c 12bb 3880 a138 f1af 503d 480c fe38
000002d0: 1e2e 1c3c 3b6a be3b aaad 7f3d b6a3 093d
000002e0: e75d bcbb 7826 43bd 30b6 773d 98d9 27bd
000002f0: 8958 76bc b080 673a 0a51 0abd c8e3 0bbd
00000300: 76b9 143d 3863 2abd 4e3b 9bbc 109e 06bd
00000310: 606d 083d 8087 ec3b a06b 57bc e703 ddb6
00000320: afcf 43bc 86dc 473d 25aa 3f3d 54c2 0d3d
00000330: cf2c 9cbc 83f0 793c 2a0a 6c3d eea6 e03b
00000340: 0df7 29bc a018 3b3b e557 1c3c bb3f 32bd
00000350: aa28 833c d1d4 19bd d509 62ba 4130 f73c
00000360: 2f01 243c e9ff 96bc 851a a0bc 61e2 4eb8
00000370: cc06 1cbd abf9 d2b7 1621 a93b b443 393d
00000380: 3c42 1e3d c4ff 483d d864 e53a 7aeb 193b
00000390: 86c4 cb3c af73 f23b f3f1 03bd ca1d 023d
000003a0: 77a4 80ba a88a 4038 88b0 feb8 8fcb 1bb8
000003b0: fb19 2d38 c29c 0bbc aa23 6735 4b33 08bc
000003c0: 2ab3 8b3d 3e38 e2bb 0dbc 55bb ce79 af3c
000003d0: 1e88 393d a384 36bd 184f ebbc dfba 633c
000003e0: a579 3c3d c62c bc3a 9e90 0a3d a938 bfbc
000003f0: a9f6 6d38 4014 6cbc 2fe3 d237 b242 2437
-3.4909233e-05 -0.013563003 0.04629649 -0.0011229119 -0.00078138686 0.0038283635 -0.023262588 0.005026014
5.1638344e-05 0.04785577 0.007793535 -0.042389534 0.057835087 -0.017555324 -0.010599576 -3.535886e-05
0.002070726 0.033299554 -0.018987516 0.031336874 -3.676157e-05 -0.032313485 0.03851235 0.03566791
0.056041878 -0.03644945 0.042852692 -0.0019248286 -0.019249309 0.061262343 0.049208693 -0.020836113
0.054165293 0.035588637 -0.018047292 0.05928807 -0.021743612 0.02607979 -0.01624139 -5.382028e-05
-0.0037803685 -0.019274654 -0.024076581 -4.6980927e-05 0.015698321 -0.0156053305 -0.0105365105 0.07228426
-0.02019319 -0.051536042 -0.023544502 0.012287551 -0.038518537 0.022731548 0.050094143 0.05200524
0.02677035 -0.021221401 0.036285583 0.006617096 -0.019680863 -0.04235024 0.04563032 0.04588748
-0.001363427 -0.00060301716 -0.010290604 0.04368349 -0.014526687 -0.024267513 -0.005127892 -0.0005467945
0.022546083 -0.028510366 0.016391948 -4.7798287e-05 0.05196865 0.035022456 0.0132369995 0.0008194386
0.022678357 0.036595415 0.04182542 -0.024296338 -0.013212144 0.00778471 -5.3141026e-05 0.03757816
0.003473531 -0.034993358 -0.029648887 -0.031008841 2.5036526e-05 -0.040352784 0.022309264 -0.02915397
0.016107887 0.04062524 0.030360024 0.00011823837 -0.01506596 -0.023973713 0.019483374 0.065291055
-0.0076789116 -3.0342362e-05 0.03671365 0.014080328 -0.018944843 -0.014684228 0.049318187 0.05329871
-0.019087045 -0.02539007 7.428586e-05 -0.02954543 0.051357143 -0.039641734 0.018054785 -0.0033902167
0.070093326 0.015728638 0.05723786 -0.0068493686 -0.014010679 0.040571004 -0.025317661 -0.04885409
0.024205163 0.009866676 0.03514448 -0.015747363 -0.00060333987 0.0033144858 0.060007084 0.00011785385
0.050486427 0.0016780624 0.05789681 -2.4982826e-05 0.058629453 0.004807463 0.040645998 0.035688452
-0.0006219158 0.031033866 0.05973822 0.017724054 -4.01624e-05 0.067860395 0.008086261 -0.021537937
-0.019609928 -2.7371727e-05 0.016839046 -0.0012114486 0.024416005 0.021517977 -0.019497521 0.060398433
-0.0273522 -2.1830267e-05 -0.032208797 -0.029216584 0.010353531 0.06345144 0.016346976 -0.023995364
-8.670059e-06 -0.049461633 0.012184377 0.00802156 -0.0018582046 -0.035077043 -0.0015637936 -0.02916447
-0.0022295094 7.700961e-05 0.05094904 0.000121139514 0.00953248 0.0058110035 0.06242148 0.033603393
-0.0057484987 -0.04764411 0.060476482 -0.040978998 -0.015035757 0.00088311266 -0.03376869 -0.034152776
0.03630968 -0.04159853 -0.018949177 -0.032865584 0.033307433 0.0072183013 -0.013148218 -6.5867675e-06
-0.011951371 0.048794292 0.04679312 0.034609154 -0.019064335 0.015255096 0.05762688 0.006855837
-0.010373843 0.0028548613 0.00954244 -0.04351781 0.016010601 -0.037556473 -0.0008622681 0.030174376
0.010010048 -0.018432574 -0.019543895 -4.932506e-05 -0.03809242 -2.5150212e-05 0.005161415 0.045230582
0.038637385 0.049072042 0.0017501367 0.0023486302 0.024873983 0.0073990445 -0.032213163 0.03176669
-0.0009814639 4.59055e-05 -0.00012144545 -3.714446e-05 4.127061e-05 -0.008521261 8.6106104e-07 -0.00831301
0.06821282 -0.0069036772 -0.0032613308 0.021420386 0.045295827 -0.044560086 -0.028724238 0.013899534
0.046014447 0.0014356605 0.033829324 -0.023342447 5.6734923e-05 -0.014409125 2.5139741e-05 9.7906905e-06

bias f4 [4]
00000000: 5583 bbbb aea7 503d e361 90bc 93ff 4d3d
-0.005722443 0.05094116 -0.017624801 0.050292563

weight f4 [4, 8]
00000000: 4360 adbd edf1 f53d 7efa 373e 6a15 d7bd
00000010: 8ebd a43e 7e05 633e 4b1d c238 59ef 59be
00000020: 6054 423e f92e 723b d90b 163e 529e 49be
00000030: 7e53 86be 0f16 0cbd 1582 a43d ff00 643e
00000040: 4fd0 89be 790d d03d 45c3 363e 0a7b e2bd
00000050: b8e8 89bd 5a1b d8bd 160e f03d 9407 76bd
00000060: 6823 f4bd 14b7 aebe ea3e 9fbd 68a4 26bc
00000070: 39f1 a2bd a2f5 9ebe f315 bb3d 3e85 2a3d
-0.08465626 0.12009034 0.17966649 -0.10502131 0.3217587 0.22170064 9.256097e-05 -0.2128271
0.18977499 0.0036954267 0.14652957 -0.196893 -0.26235574 -0.034200724 0.08032624 0.22266005
-0.2691674 0.1015882 0.17847927 -0.11058624 -0.06733841 -0.10552092 0.11721437 -0.06006582
-0.11920816 -0.34124053 -0.07775672 -0.010171033 -0.07956166 -0.31046778 0.09135046 0.041630976

bias f4 [4]
00000000: 45ac 1dbc d3c3 65be 605f a73e 4c5a 853e
-0.009623592 -0.22437982 0.32689953 0.26045454

weight f4 [4, 8]
00000000: b2e1 ae3a 55a7 cabb 54cc 193e 65b4 803e
00000010: 95e3 803e 09f4 c2b8 e7a3 0b3e e92c 32b8
00000020: 5a6f 89be 8678 88bd aecb b7bd fda7 83be
00000030: a00d 1a3e 825d 3c3d 4877 0f3c 9c25 4b3e
00000040: e1c7 73bd 3882 64be 23c5 453e c962 58bd
00000050: e607 5cbe e737 723e 391d 82be 0a38 0f3d
00000060: a54d 9d3e 61f8 83be 77d3 5d3e 1b2f 8bbe
00000070: 5642 373e 4535 0b3a 4279 95be 497a 773c
0.0013342409 -0.0061844983 0.15019351 0.2513763 0.2517363 -9.296096e-05 0.13636743 -4.2480333e-05
-0.26842767 -0.06663613 -0.08974396 -0.25714102 0.1504426 0.045987613 0.008756466 0.19838566
-0.05951679 -0.223153 0.19313483 -0.052828584 -0.21487388 0.23654138 -0.2541292 0.034965552
0.307233 -0.25775436 0.21662699 -0.27184376 0.17896399 0.0005310367 -0.29194075 0.015104839

bias f4 [4]
00000000: 0bee 1fbe 7a41 bc3d 1103 89be b531 b5bd
-0.1561815 0.09192176 -0.26760152 -0.088473715

weight f4 [10, 2]
00000000: fe9e 0ebf 6a9c fb3d 7c53 69be f12e d23d
00000010: 2682 12be 4566 4b3e 6746 9b3e 8d6e 89be
00000020: 1f47 043f 37c9 123f d4e1 96be 5c60 d5bd
00000030: 0201 e2bc 2b09 0e3f 11ef 1cbf 7f3e 103f
00000040: e690 d3be b7dc 2a3e a551 863e 4106 15be
-0.5571135 0.12285693 -0.22785753 0.102628596 -0.1430746 0.19863231 0.3032715 -0.26842156
0.5167102 0.5733828 -0.29469168 -0.1041877 -0.027588371 0.5548274 -0.61302286 0.5634536
-0.41321486 0.16685759 0.26234165 -0.14553167

bias f4 [10]
00000000: 183a 233f dc93 bebd f5a9 e6be 321d 2d3f
00000010: 54cd 1bbf 6279 11be b0eb d6bc e320 32bf
00000020: a9f7 9bbe f756 aabe
0.6376052 -0.09305546 -0.45051542 0.67622674 -0.6086018 -0.1420646 -0.026235431 -0.6958143
-0.30462387 -0.33269474

weight f4 [10, 2]
00000000: 59e5 c7bd 1b87 bebe 0f7d 95be 55a9 843e
00000010: 5ddd 83bc 0ddb 0e3e 315d 303f 3ef2 27bf
00000020: 4c36 3e3e 259c 8ebe 2484 e33e 14cd c63e
00000030: 5617 d93e cdf3 bcbe 1456 dcbe f7af b83e
00000040: 8d23 ad3e efb6 22bd 7dec e33e 4733 523d
-0.097605415 -0.37212452 -0.29196975 0.2591044 -0.016096765 0.13950749 0.688922 -0.6560401
0.185754 -0.27853504 0.44436753 0.38828337 0.42400616 -0.36904755 -0.43034422 0.3607175
0.33816186 -0.03972524 0.44516364 0.051318433

bias f4 [10]
00000000: 53dc 933e 289f 20bd 69c5 22bf 09ba f8be
00000010: b71b 253f e82f da3e 7c0d 8abe 9775 a53e
00000020: d082 273e 6830 04bf
0.28879032 -0.039214283 -0.63582474 -0.48579434 0.64495414 0.42614675 -0.26963413 0.32316276
0.16358495 -0.5163636

weight f4 [20, 4]
00000000: b79e 01bf 7e0c d9be bbe7 8f3e 04ea ac3d
00000010: 017c ecbe 21f6 5cbb e432 d2bb c6fc 94bd
00000020: 0cf5 05be 1ba8 863e a9c0 a5be be2f c4bb
00000030: 3c19 cb3d 98de 7a3e 0f70 b7be 9f89 39be
00000040: 0c09 fdbe 8b50 e83e 3f13 af3e b14c 963e
00000050: 47a2 2fbe 5128 993d 888f 353e 1b31 093e
00000060: 0289 e73e 6490 603e f1e0 bf3e 77cf ce3e
00000070: 25e4 883e 7498 f7be b0f5 503e a8a9 183d
00000080: 0bb8 68be f2cd dfbd ed13 ea3e 3141 92be
00000090: 5c8d 5cbe 9c5e be3e 0455 a8be 3f0a eabe
000000a0: 0bd9 ebbe 75cb ccbe a063 933e 1df8 403e
000000b0: 4343 92be 0d28 ebbe de24 a2be beff b4be
000000c0: bcde b73e 7c30 16be a322 5abe f1d1 6d3e
000000d0: c932 07bd 1e18 95be 1e11 e93d 747c d9bd
000000e0: 1f9d be3e 4a02 6dbe ab02 98be e2fb e5be
000000f0: 2cc7 b4be c4c3 983e 432c ecbd 16b5 f33e
00000100: bdae 093e 74ea 313d 485e d1be 817b d8be
00000110: a4d6 d03e 3007 8ebe 6a42 59be e988 a33e
00000120: 445c 563d d21b ff3e 6fd0 fdbe 9386 9c3e
00000130: 807a 9bbe 9594 563e c0c9 d1be 50be bbbe
-0.50632805 -0.42392343 0.28106484 0.084430724 -0.46188357 -0.003371604 -0.006414758 -0.07274775
-0.13081759 0.2630013 -0.3237355 -0.0059871366 0.099169225 0.24498975 -0.3582768 -0.18118905
-0.49420965 0.4537395 0.3419437 0.29355386 -0.17151748 0.07478393 0.17730534 0.13397638
0.45221716 0.2193008 0.37476304 0.40392658 0.2673656 -0.483585 0.20406222 0.03727117
-0.22726457 -0.10927953 0.45718327 -0.28565362 -0.215383 0.37181556 -0.32877362 -0.45710942
-0.46064028 -0.39998975 0.28786945 0.18844648 -0.28566942 -0.45928994 -0.31668752 -0.35351366
0.3591212 -0.14666933 -0.21302275 0.23224618 -0.033007417 -0.29119962 0.11380218 -0.10619441
0.3722925 -0.23145404 -0.29689535 -0.44918734 -0.35308206 0.29836857 -0.1153188 0.47599095
0.13445564 0.043436483 -0.40892243 -0.42281726 0.40788758 -0.2773986 -0.21216741 0.31940392
0.052334085 0.49825913 -0.49573085 0.30571422 -0.30366898 0.20955117 -0.40974236 -0.36668634

bias f4 [20]
00000000: 78a9 10bc 4b08 2f3e 2336 9f3e 55f6 98be
00000010: ae2a 57be 025e 86bd 0769 9cbe 9b18 debd
00000020: 7f41 fa3e bd4b eabe e165 863e e5d9 c0bc
00000030: b721 d13e 41e7 d23e 91ca 95bd fd8d 7c3d
00000040: ca39 013e 6a72 dd3e 784f 623e 54ae f2be
-0.008829467 0.17093007 0.3109599 -0.29875436 -0.21012375 -0.06560899 -0.3054888 -0.10844537
0.48878095 -0.4576091 0.26249602 -0.0235414 0.40846035 0.41192058 -0.07314027 0.061658848
0.12619701 0.43251354 0.22100627 -0.47398627

G f4 [2, 1]
00000000: 0000 0000 0000 803f
0.0 1.0

m1x_posterior f4 [2]
00000000: f089 103e 4ff0 a23f
0.14115119 1.2729586

m1x_posterior_previous f4 [2]
00000000: a964 23c0 eb7f a13f
-2.5530188 1.2617162

m1x_prior_previous f4 [2]
00000000: 6749 a5bf b28a 253f
-1.2913026 0.6466476

y_previous f4 [2]
00000000: 2cb2 b03f b7c4 ea3f
1.3804374 1.8341283

KGain_array f4 [100, 2, 2]
00000000: dfc2 f93e 5dba ef3d b436 073e 562d 483e
00000010: 333e f83e dce1 f53d d439 113e ea9d 3e3e
00000020: ed77 0c3f 9ab2 bc3d 18f9 cd3d 7c7e 5d3e
00000030: 9bc9 053f e175 ee3d b4a0 153e 7710 4d3e
00000040: 7d03 0a3f 3582 c63d 2718 ae3d d5bf 583e
00000050: b35a 043f a22a e63d 2acc 123e ddb8 3d3e
00000060: b508 043f 3a3d da3d d1ce d23d 62da 4e3e
00000070: 231c 0b3f 9e4f c03d c33c cd3d c952 603e
00000080: 94c7 053f 89cd db3d 7d0b fa3d d5f7 433e
00000090: b771 fd3e a21e ef3d 1125 023e 431b 523e
000000a0: cfe6 eb3e 24ed f93d d694 113e 73d8 433e
000000b0: 1f0e f33e ba77 013e 1f21 e93d dbd0 5e3e
000000c0: 6f6e f93e ec26 c73d b5c8 de3d 1957 563e
000000d0: 4320 ea3e 7ab2 ed3d 5d0d 013e 44d9 633e
000000e0: fb2d e13e 2ad4 033e e052 033e ed06 5d3e
000000f0: e172 e43e 7626 083e 2e31 123e edd8 443e
00000100: 9f0b f73e 909f 003e 0548 fe3d 2a4e 443e
00000110: 831c 003f e125 ee3d 7d04 fe3d e716 593e
00000120: 86d3 f63e 5c67 f43d 786c 133e e705 443e
00000130: cd27 fa3e 2cbb f03d 132d f33d 0164 633e
00000140: eb23 fc3e 7943 cc3d 5d5c e73d 4481 503e
00000150: ef83 033f c0c4 e93d de28 133e fcf5 3e3e
00000160: 1b94 ff3e 97ae e23d 09ae f23d 415c 5c3e
00000170: 755c f53e d2e2 de3d 7115 ef3d e537 4c3e
00000180: f5ee ee3e 8dcb 073e ea7b 0e3e 988c 4b3e
00000190: 93c4 e53e 18a8 053e 60e9 123e 360d 443e
000001a0: 85f0 ee3e 0c2c 153e 6273 0f3e 79cf 4b3e
000001b0: a27f fb3e 9d49 f73d 22f8 023e 9520 483e
000001c0: d4f3 0a3f 2a31 bd3d f977 d83d 77fc 583e
000001d0: ce4e fa3e bd1b ed3d 7c47 0c3e 2948 583e
000001e0: 4b66 063f 0835 bd3d ed8d f93d 4a8e 5a3e
000001f0: b9f4 023f 9e4b eb3d 52bc 163e 262a 533e
00000200: 5d94 093f 7c79 c13d c17a c53d cf57 583e
00000210: 55bb 023f 6a94 d93d 3534 053e ab5f 593e
00000220: ad63 f33e 5cae e63d 43ca ff3d 262d 4d3e
00000230: 9a70 f23e 153e 0a3e 9308 003e fbb4 5d3e
00000240: a110 eb3e 1a6d e23d 9d98 ef3d 79c8 663e
00000250: 07ea e53e 264f fb3d a38b f83d a1c1 683e
00000260: 5f9d ee3e 3147 e33d b39d df3d bce5 5a3e
00000270: cb4a f83e a4cf 013e 552e 143e 289e 4f3e
00000280: a25b 003f 3cfd e83d 9ba8 ed3d 5c15 403e
00000290: fcef 013f 273a e73d 5d92 f93d 604d 593e
000002a0: aec4 e93e 4089 f23d e669 013e 0026 5b3e
000002b0: 8258 e73e 7441 013e 3546 103e 112a 4e3e
000002c0: a20e f73e 920c 053e 3bac bc3d 2b1b 553e
000002d0: 5860 f33e 381c 023e 9f8e 133e 5979 433e
000002e0: 94b8 013f 06c9 e93d 25a3 fa3d 6c9d 3e3e
000002f0: a272 053f 0f31 e63d 7e9b 093e 300f 3e3e
00000300: ecbe 043f a274 f53d c5b8 143e ffef 383e
00000310: 5b9c 103f cf26 c03d 939d e23d bece 4b3e
00000320: bc0a 023f 1217 eb3d 82e5 0a3e 4fa2 453e
00000330: 25f7 063f 743c be3d f487 c63d 1a8c 573e
00000340: 9caf 043f 8abf e43d 5140 0c3e 77df 3f3e
00000350: 7740 fe3e 35fc fc3d 29d6 0c3e 8a29 463e
00000360: e750 023f 9b3e e73d 71ac d03d d5bc 493e
00000370: a948 113f 20ce bc3d 09cb d03d 70fb 4e3e
00000380: a1ca 083f 1a9a e23d 7ea2 0b3e 80bc 383e
00000390: c97d 0f3f acc6 c03d c078 ae3d 4c96 593e
000003a0: ddaa 093f eb70 e23d ef30 133e 2490 3f3e
000003b0: 9991 023f 1df0 ec3d d1f3 f33d 9dd2 443e
000003c0: 6df3 f73e 61af ff3d 56ea 0b3e 4c7f 503e
000003d0: 4503 ea3e 9182 003e d3c3 0e3e 08e8 453e
000003e0: c10b f93e 39a1 e53d df1b eb3d 3ca7 4f3e
000003f0: 31ba f43e 7653 fe3d bdf2 053e e568 583e
0.48781487 0.11705468 0.13204461 0.19548544 0.48484954 0.1200597 0.14182216 0.18614927
0.5487049 0.09213753 0.100572765 0.21630281 0.5226075 0.11643577 0.14612085 0.20025812
0.5391157 0.09692804 0.085007004 0.21166928 0.51700896 0.112386 0.14335695 0.18527551
0.51575786 0.10656209 0.10293353 0.20200494 0.5433981 0.09390186 0.10021355 0.2190658
0.5225766 0.10732562 0.122092225 0.19137509 0.4950082 0.116757646 0.12709452 0.20518212
0.4607453 0.12203434 0.14216933 0.19125538 0.4747171 0.12643328 0.113832705 0.2175936
0.48717067 0.09724221 0.108781256 0.20931663 0.4572774 0.11606307 0.12602754 0.22250849
0.43980393 0.12873903 0.12824583 0.21584673 0.44618896 0.13295922 0.14276573 0.19223376
0.48251054 0.12560868 0.124160804 0.19170442 0.50043505 0.116283186 0.124032 0.21200143
0.48208255 0.11933777 0.14396846 0.19142877 0.4885849 0.1175445 0.118738316 0.22206117
0.49246153 0.09973807 0.11296914 0.20361811 0.5137319 0.1141448 0.14371058 0.18648523
0.49917683 0.110684566 0.11849601 0.21519567 0.47922102 0.10883106 0.116740115 0.19943197
0.46666685 0.13261242 0.13914457 0.19877851 0.44876537 0.13052404 0.14346838 0.19145665
0.46667877 0.14567584 0.14008859 0.19903363 0.49120814 0.120745875 0.12789968 0.19543679
0.542783 0.09237893 0.10569758 0.21190058 0.48888248 0.11577556 0.13699144 0.21121277
0.52499837 0.092386305 0.12185273 0.21343341 0.5115467 0.11489032 0.14720276 0.20621547
0.5374201 0.094469994 0.09642554 0.21127246 0.51067096 0.10624011 0.13008197 0.212279
0.47536984 0.11263725 0.1248975 0.20036754 0.47351533 0.13500245 0.12503271 0.2165107
0.45911124 0.11055966 0.116990305 0.22537412 0.4490511 0.12270956 0.121360086 0.22730114
0.4660444 0.11097563 0.109187506 0.21376699 0.48494563 0.12676865 0.144708 0.20275176
0.5013982 0.113764256 0.116044246 0.18758148 0.5075681 0.112903886 0.1218612 0.21220922
0.45657867 0.118425846 0.12638053 0.21401215 0.45184714 0.12622625 0.14089282 0.20133235
0.4825335 0.12993076 0.09212538 0.20811145 0.47534442 0.12706077 0.14409874 0.19089259
0.5067227 0.11415295 0.122381486 0.18614739 0.5212804 0.11239826 0.13438222 0.18560481
0.51853824 0.119851366 0.14523609 0.18060301 0.5648858 0.09382402 0.11065211 0.19903085
0.5079763 0.1147901 0.13564113 0.19300197 0.5272086 0.09288874 0.096939 0.21049538
0.5183046 0.11169346 0.1369641 0.18737589 0.49658558 0.12352792 0.1375357 0.19351783
0.509047 0.11291238 0.101891406 0.1970094 0.56751496 0.09219003 0.10194976 0.20213103
0.5343419 0.11064549 0.13636205 0.18040657 0.5605131 0.09412894 0.08519125 0.2124874
0.5377634 0.11056694 0.14374135 0.18707329 0.51003414 0.115692355 0.11911739 0.19220968
0.48427907 0.12484623 0.13663611 0.2036106 0.4570562 0.12549807 0.13941889 0.19326794
0.4864178 0.112123914 0.11479925 0.20278639 0.47798303 0.12418263 0.13080879 0.21133764

prior_Q f4 [2, 2]
00000000: 0000 803f 0000 0000 0000 0000 0000 803f
1.0 0.0 0.0 1.0

prior_Sigma f4 [2, 2]
00000000: 0000 803f 0000 0000 0000 0000 0000 803f
1.0 0.0 0.0 1.0

prior_S f4 [2, 2]
00000000: 0000 803f 0000 0000 0000 0000 0000 803f
1.0 0.0 0.0 1.0

h_Q f4 [1, 1, 4]
00000000: 9658 b33e 7010 0a3f 76d6 09bf 25ca 0dbf
0.35028523 0.5393133 -0.53842866 -0.55386573

h_Sigma f4 [1, 1, 4]
00000000: 0000 0000 ea4e 543e 0000 0000 0000 0000
0.0 0.20733228 0.0 0.0

h_S f4 [1, 1, 4]
00000000: f470 56be db99 6f3e 6664 c7be f374 f43d
-0.20941526 0.23398535 -0.38943785 0.11936369

KGain f4 [2, 2]
00000000: 791e f43e e0bf 083e eaca 173e a190 463e
0.476795 0.13354445 0.148235 0.19391109

x_out f4 [2]
00000000: f089 103e 4ff0 a23f
0.14115119 1.2729586
