KNet/Linear_SS_No_MM_/model_KNet_Linear_Dynamics_T100_v_positive_40dB.pt (torch, 38469 bytes, 42 tensors)

weight_ih_l0 f4 [12, 10]
0	0xbdd47e8b	-0.10375699
1	0x3b88a32e	0.004169843
2	0xbed9b81c	-0.42523277
3	0x3ede82bb	0.43459114
4	0x3ed4b18b	0.41541705
5	0x3e890983	0.2676507
6	0xbda89578	-0.08231634
7	0x3e93cd59	0.28867605
8	0xbe848f25	-0.2589046
9	0x3eb834dc	0.35977829
10	0xbecce8a7	-0.4002125
11	0xbed2bf1b	-0.41161427
12	0xbd2bb28f	-0.041918334
13	0x3edff8fd	0.4374465
14	0xbe901f8d	-0.2814907
15	0xbe964a37	-0.29353496
16	0x3eba611f	0.36402223
17	0xbd70e6c7	-0.058813836
18	0xbe0bff60	-0.13671637
19	0x3955eea0	0.00020402158
20	0x3eb14243	0.34620866
21	0xbe86f197	-0.26356193
22	0x3e5ff962	0.21872476
23	0xbd7301ca	-0.059327878
24	0xbe857160	-0.2606306
25	0x3e256df0	0.16155219
26	0xbea0128b	-0.31264147
27	0xbd4ee1e6	-0.050508402
28	0x3ef8b29c	0.48573768
29	0x3e1660b4	0.14685327
30	0xbe7127cc	-0.23550338
31	0x3e5ec7b4	0.21755868
32	0x3e4c871d	0.19973417
33	0x3ee4def0	0.44701338
34	0xbeda01b0	-0.42579412
35	0xbece136c	-0.40249193
36	0x3e75bd9b	0.2399811
37	0x3eeb8278	0.45997977
38	0xbdebefcc	-0.11520347
39	0xbe6a4a7f	-0.2287998
40	0x3e844ad4	0.2583834
41	0x3ded3cf1	0.11583889
42	0xbe786f77	-0.2426127
43	0x3e617b64	0.22019726
44	0x3ee70d97	0.45127556
45	0xbedaa1c9	-0.42701557
46	0xbe3c1b7d	-0.18369861
47	0xbee4d097	-0.4469039
48	0x3e34f95e	0.17673251
49	0x3c84b1e5	0.016198108
50	0xbef1a31e	-0.4719476
51	0x3ea8f5a3	0.32999906
52	0xb9c0bab4	-0.00036760198
53	0xbbf7882e	-0.0075540757
54	0xbeb2f0b8	-0.3494928
55	0xbe491030	-0.19635081
56	0x3d30d790	0.043174326
57	0x3ea95ae6	0.33077163
58	0x3ea3a481	0.31961444
59	0xbe880c03	-0.26571664
60	0x3e1db4d3	0.1540101
61	0x3e468931	0.19388272
62	0xbc3d9676	-0.011571517
63	0xbc650b19	-0.013979697
64	0x3e9157c6	0.28387278
65	0x3dd6269e	0.104565844
66	0x3d8a3a4a	0.06749399
67	0xbd7c6da9	-0.061628018
68	0xbe39c55f	-0.18141697
69	0x3e086d2a	0.13322893
70	0xbd2285b5	-0.039678294
71	0xbdbb3589	-0.091410704
72	0x3e1c7ada	0.15281239
73	0x3e6322f0	0.22181296
74	0x3dd535f7	0.104106836
75	0xbea78f54	-0.32726538
76	0x3de6d0e3	0.11270311
77	0x3dc17b67	0.09447365
78	0x3e46c38c	0.19410533
79	0x3ea7fec9	0.32811573
80	0x3eed6057	0.46362564
81	0x3b4279dd	0.0029674687
82	0xbee38370	-0.44436216
83	0x3ee43fb7	0.4457986
84	0x3e7c47c7	0.24636756
85	0xbe32e40b	-0.17469804
86	0x3efa2658	0.4885738
87	0x3e87b5a9	0.26505783
88	0xbe636926	-0.2220808
89	0xbda8ca02	-0.08241655
90	0x3dd163d4	0.10224119
91	0xbed394c6	-0.41324443
92	0x3e88f3bf	0.26748464
93	0x3e111c01	0.14170839
94	0xbe2106a9	-0.15725197
95	0x3d50a8a6	0.050942086
96	0x3ebf5ab7	0.37373897
97	0xbe855194	-0.26038802
98	0x3dfbb8a4	0.12291077
99	0x3e744a6f	0.23856519
100	0x3e14aadd	0.14518304
101	0x3eb9c8fc	0.3628615
102	0x3e4b744d	0.19868584
103	0xbe0a32ea	-0.13495985
104	0xbef74744	-0.4829656
105	0x3d25b122	0.04045213
106	0x3e6c1193	0.23053579
107	0x3e360eef	0.17779134
108	0x3e90b7e8	0.2826531
109	0x3d2b333e	0.041796915
110	0xbeddb51f	-0.43302247
111	0x3e83eb85	0.25765625
112	0xbe93314a	-0.28748542
113	0xbe051ea5	-0.12999971
114	0xbdbe93a4	-0.09305504
115	0xbe0cb7a1	-0.13741924
116	0xbd74efbc	-0.05979894
117	0xbe2ce350	-0.16883588
118	0xbee4291f	-0.44562623
119	0x3cc53f21	0.024077954

weight_hh_l0 f4 [12, 4]
0	0x3ee2bf4a	0.44286567
1	0x3e8c045b	0.27347073
2	0xbd26eb5f	-0.04075181
3	0xbe1ea371	-0.15492035
4	0xbe3afbde	-0.18260142
5	0xbe0e7683	-0.13912396
6	0x3e8e6909	0.2781451
7	0x3e228852	0.15872315
8	0xbebd5602	-0.3697968
9	0xbdf99174	-0.12185946
10	0xbe9f29c5	-0.31086555
11	0x3c9c89f2	0.019108746
12	0x3e016057	0.12634407
13	0xbcc1d547	-0.023661269
14	0xbd54e7c1	-0.05197883
15	0x3ec341d4	0.3813616
16	0x3ee86d3b	0.45395836
17	0xbe9eb731	-0.3099914
18	0x3e573f2e	0.21020195
19	0xbecab956	-0.39594525
20	0x3e902660	0.28154278
21	0x3e9b3b4d	0.3031868
22	0x3ed1095b	0.4082745
23	0x3eac8a44	0.33699238
24	0xbe2506a7	-0.16115819
25	0x3cfc3d42	0.030790929
26	0xbeb2023a	-0.34767324
27	0x3e7527bb	0.23940937
28	0xbe59db50	-0.21275067
29	0xbe56a03d	-0.20959564
30	0xbe9f6089	-0.31128338
31	0x3ed1467b	0.40874085
32	0xbeae0dd9	-0.3399494
33	0x3eb3ca37	0.35115215
34	0xbf01fad7	-0.50773376
35	0x3e6e3dae	0.23265716
36	0x3e7f3c01	0.24925233
37	0xbebc1cad	-0.36740628
38	0xbeb49c47	-0.3527548
39	0xbea812fb	-0.3282698
40	0x3e6ff04b	0.23431508
41	0xbed70b77	-0.42000934
42	0x3eef02bf	0.46681783
43	0xbea24292	-0.31691414
44	0xbf02bab5	-0.5106614
45	0xbef46b15	-0.47737947
46	0x3ebb45e4	0.3657676
47	0x3dfd6eb1	0.12374628

bias_ih_l0 f4 [12]
0	0xbef1aa95	-0.47200456
1	0x3e816337	0.25271007
2	0x3ec37691	0.38176396
3	0x3ea73b02	0.32662207
4	0x3e30aad2	0.17252663
5	0xbe069b06	-0.13145074
6	0xbe03d12a	-0.12872759
7	0x3d85ad54	0.065272
8	0xbe608929	-0.21927322
9	0x3e55898d	0.20853253
10	0xbefe042c	-0.49612558
11	0x3e871fd4	0.2639147

bias_hh_l0 f4 [12]
0	0x3e8cd561	0.27506545
1	0xbec3d79b	-0.3825043
2	0xbe861b5f	-0.26192757
3	0x3eac252c	0.3362211
4	0x3e4f2b79	0.20231427
5	0x3e5ba631	0.21450116
6	0xbe8440b0	-0.25830603
7	0x3ecb86a0	0.39751148
8	0xbdbe6273	-0.092961214
9	0x3dca6c16	0.09883897
10	0xbc7d2b61	-0.015452237
11	0xbe916c63	-0.28403005

weight_ih_l0 f4 [12, 14]
0	0xbd708e5b	-0.05872951
1	0x3ea24c14	0.31698668
2	0x3ecf991e	0.40546507
3	0xbe8c663e	-0.27421755
4	0xbe913b48	-0.2836554
5	0x3d0d173f	0.034445997
6	0x3eb9cc94	0.36288893
7	0x3c024977	0.007952086
8	0xbec0324e	-0.3753838
9	0x3e2f1b91	0.1710036
10	0xbe010e20	-0.12603045
11	0x3dc7601d	0.09735129
12	0x3d2834a5	0.04106583
13	0xbd25ebcc	-0.040508077
14	0xbee0551c	-0.43814933
15	0x3e310135	0.17285617
16	0xbea4c257	-0.3217952
17	0xbecc15e7	-0.3986046
18	0x3e41dd0a	0.18931976
19	0xbeea76cb	-0.45793757
20	0x3e973bc5	0.29537788
21	0x3e814ec8	0.25255418
22	0x3eb5143b	0.35366997
23	0xbe43e4c5	-0.19130237
24	0xbee50800	-0.44732666
25	0xbdad2f3d	-0.084562756
26	0x3ec3ede9	0.3826745
27	0xbec7759c	-0.38956916
28	0x3d937642	0.0720029
29	0x3d446b08	0.047953635
30	0x3edf4228	0.4360516
31	0xbe9766d1	-0.2957063
32	0xbe5f6716	-0.21816668
33	0x3ecb42d2	0.39699417
34	0xbedccc89	-0.43124798
35	0x3e93c0b7	0.28857967
36	0x3e31d2af	0.17365526
37	0xbd8ded1a	-0.06929989
38	0x3e68635f	0.22694157
39	0xbdffdd8f	-0.12493431
40	0x3e857689	0.26066998
41	0x3d0ad09c	0.03389035
42	0xbe7982e0	-0.24366331
43	0xbed2c38d	-0.41164818
44	0xbd32740e	-0.04356771
45	0x3d6a5d85	0.057218093
46	0x3ecc2aeb	0.39876494
47	0xbe5de67a	-0.21669951
48	0xbe607f72	-0.21923617
49	0x3d4a94ba	0.049458243
50	0x3e2bd089	0.16778769
51	0x3eb550e3	0.35413274
52	0x3c6f92ab	0.014622371
53	0xbe40ab81	-0.18815424
54	0x3e636f1b	0.22210352
55	0x3e0b745b	0.13618605
56	0xbdff62d9	-0.124700256
57	0x3ea6d234	0.32582247
58	0x3e7d651c	0.24745601
59	0xbe830dc4	-0.2559644
60	0x3ec014ab	0.37515768
61	0x3e9dafa5	0.3079807
62	0xbdd107a4	-0.102065355
63	0xbec1695c	-0.37775695
64	0x3e9fda40	0.312212
65	0x3e92a3a2	0.28640467
66	0xbe92e62a	-0.28691226
67	0xbeef148f	-0.46695372
68	0xbed8c291	-0.42335942
69	0x3ec38bd7	0.38192627
70	0x3ee697e5	0.4503776
71	0xbd0b706c	-0.03404276
72	0xbd58c13a	-0.05291865
73	0x3e50b6df	0.2038226
74	0xbeb814a5	-0.3595325
75	0xbed2e260	-0.41188335
76	0xbd077488	-0.033070117
77	0xbed3f782	-0.4139977
78	0xbe4980aa	-0.19677988
79	0x3e984c2e	0.2974562
80	0x3ef3255e	0.47489446
81	0xbd57ea55	-0.05271371
82	0x3e43ebcb	0.19132917
83	0xbdcc24a9	-0.0996793
84	0x3e52c7e1	0.2058406
85	0x3e28696b	0.16446464
86	0x3ef252f3	0.4732891
87	0x3e31dff1	0.17370583
88	0x3e656631	0.22402264
89	0x3e9b8e4e	0.30382007
90	0xbe06c5c9	-0.13161387
91	0x3ec5ceb3	0.3863426
92	0xbd01dc66	-0.03170433
93	0xbebac64b	-0.3647941
94	0x3e39c788	0.18142521
95	0xbe07d1b5	-0.1326359
96	0xbefadc76	-0.48996323
97	0xbe6f2a51	-0.23355986
98	0x3ea629ce	0.3245377
99	0xbef9b80e	-0.48773235
100	0xbedaa4d5	-0.42703882
101	0x3ea85295	0.32875505
102	0x3eae2905	0.3401567
103	0x3e2a2666	0.1661621
104	0xbdea4242	-0.11438419
105	0xbe8f5211	-0.279923
106	0xbed2da79	-0.41182306
107	0xbe9360ab	-0.2878469
108	0x3ddbde67	0.10735779
109	0x3eaabffc	0.33349597
110	0xbf00a61f	-0.5025348
111	0x39bf8dbd	0.00036535962
112	0xbede57c2	-0.4342633
113	0x3de6eb26	0.1127532
114	0xbe16dca9	-0.14732613
115	0x3ecb94f9	0.39762095
116	0xbc0b27ab	-0.008493344
117	0x3eef5fa0	0.46752644
118	0x3d6686d8	0.05628094
119	0x3ea1e442	0.3161946
120	0x3e5c277a	0.21499434
121	0xbef69a73	-0.4816471
122	0xbe68c8bd	-0.22732826
123	0xbeb1c164	-0.34717858
124	0xbe56f39b	-0.20991366
125	0x3ec5ab2c	0.38607156
126	0xbecbc179	-0.39796045
127	0x3eeeaa6c	0.46614397
128	0xbe40f810	-0.18844628
129	0x3e990d7e	0.29893106
130	0x3eaa5ca6	0.3327381
131	0xbedc187a	-0.42987424
132	0x3e2742aa	0.16334024
133	0x3ec29e75	0.38011518
134	0xbd0dba49	-0.034601483
135	0x3efc29a0	0.49250507
136	0xbd9cf001	-0.076629646
137	0x3ed0ae30	0.40757895
138	0x3ee2213e	0.44165987
139	0x3e5673e6	0.20942649
140	0xbdee446b	-0.116341434
141	0x3dd6448e	0.104622945
142	0x3ee7b9d5	0.45258966
143	0xbec9fe2c	-0.3945173
144	0xbe1a603f	-0.15075777
145	0x3eaf6930	0.3425994
146	0xbecd7a8c	-0.40132558
147	0x3edac6a0	0.42729664
148	0x3e400af6	0.18754181
149	0x3ee4b843	0.4467183
150	0xbc4316fd	-0.011907336
151	0x3e7bfc17	0.24607883
152	0xbea061c2	-0.31324583
153	0x3c82336c	0.01589366
154	0xbed6c2ec	-0.4194559
155	0x3eddc484	0.43313992
156	0x3f019cb6	0.50629747
157	0x3e86f27b	0.26356873
158	0x3d7700da	0.060303546
159	0xbebf8362	-0.37404925
160	0x3edb40c0	0.42822838
161	0x3dc12885	0.094315566
162	0xbefc53e7	-0.49282762
163	0x3dd72005	0.10504154
164	0xbbb365d9	-0.0054747877
165	0x3ed960b9	0.42456606
166	0x3e9a2d69	0.3011277
167	0xbec1928e	-0.37807125

weight_hh_l0 f4 [12, 4]
0	0x3e4a19df	0.19736432
1	0xbedf2fff	-0.43591306
2	0x3d08b34b	0.033374112
3	0xbe5dc5c7	-0.21657477
4	0xbc0b0630	-0.008485362
5	0x3dcfc47e	0.101449
6	0xbe97d301	-0.2965317
7	0xbe8f13fb	-0.2794493
8	0x3eab67c1	0.33477595
9	0xbe9e79ea	-0.30952388
10	0x39c05462	0.00036683964
11	0xbed6e0ea	-0.4196847
12	0xbe928f74	-0.2862507
13	0x3ee23d15	0.44187227
14	0xbe8448e2	-0.25836855
15	0xbe0be1a9	-0.13660301
16	0xbe8bb478	-0.27286124
17	0xbeaf7399	-0.34267882
18	0xbe6c1fc7	-0.23058997
19	0xbeb3e61b	-0.35136494
20	0x3eb7edd7	0.35923645
21	0x3efe35e0	0.49650478
22	0xbe25d051	-0.16192748
23	0x3c3846d7	0.011247358
24	0xbecb56e0	-0.39714718
25	0xbd39a243	-0.04532076
26	0xbe5f8123	-0.21826605
27	0x3e8f28ae	0.27960724
28	0x3ed39ed6	0.4133212
29	0x3ee7b59a	0.45255738
30	0x39b5d84c	0.00034684164
31	0xbe17cf6d	-0.1482522
32	0xbea2ffe4	-0.31835854
33	0x3e50495a	0.20340481
34	0x3ed55bbf	0.4167156
35	0xbe8452ae	-0.2584433
36	0x3ea48981	0.32136157
37	0x3e075759	0.13216914
38	0x3e0a6de1	0.13518478
39	0x3dd0f4fb	0.10202976
40	0x3e5fb418	0.21846044
41	0x3e8bfc2f	0.27340838
42	0x3dc2a4fa	0.09504123
43	0x3ee79220	0.45228672
44	0xbe81cee7	-0.25353166
45	0x3ebe4ba7	0.37167093
46	0x3ed743fd	0.42044058
47	0x3e99cbcb	0.30038294

bias_ih_l0 f4 [12]
0	0x3e0df767	0.13863908
1	0xbedc63de	-0.43044943
2	0xbe25060a	-0.16115585
3	0xbf00be1b	-0.5029008
4	0xbdf08dbc	-0.11745784
5	0xbe45885c	-0.19290298
6	0xbea67a6f	-0.32515284
7	0xbeab7cc9	-0.3349364
8	0x3dfc93db	0.12332889
9	0xbe28f622	-0.16500142
10	0x3ea834ef	0.32852885
11	0xbe3ca910	-0.18423867

bias_hh_l0 f4 [12]
0	0xbe832918	-0.2561729
1	0x3e682499	0.22670211
2	0x3e8a0a84	0.26961148
3	0x3dd690b9	0.104768224
4	0xbe173de8	-0.14769709
5	0x3d0f4281	0.034975532
6	0x3e977d05	0.2958757
7	0xbecfad91	-0.40562108
8	0xbd1d3f60	-0.038390517
9	0xbeec6f10	-0.46178484
10	0xbe644563	-0.22292094
11	0x3edd7486	0.43252963

weight_ih_l0 f4 [12, 24]
0	0x3ea0a2ae	0.31374115
1	0x3d483785	0.048881073
2	0x3ee3523a	0.4439867
3	0xbe03bca4	-0.1286493
4	0xbeeef1c7	-0.46668836
5	0xbe884e34	-0.26622164
6	0x3e26810b	0.16260163
7	0xbe8fe8ce	-0.28107303
8	0xbe3c552b	-0.18391864
9	0xbe41a8d8	-0.18912065
10	0x3d57eaf2	0.052714296
11	0x3eddcde0	0.43321133
12	0xbe65a1e2	-0.22425035
13	0xbef6792c	-0.48139322
14	0xbe8e1bd1	-0.27755597
15	0x3ea61194	0.32435286
16	0x3eca49eb	0.3950952
17	0x3ea69fe7	0.3254387
18	0x3d7e509b	0.06208859
19	0x3d44db50	0.048060715
20	0xbe0c62d9	-0.13709582
21	0x3e89acca	0.2688964
22	0xbed07c42	-0.407198
23	0xbeb5b68f	-0.35490844
24	0x3e4c390f	0.19943641
25	0xbe10cd07	-0.14140712
26	0x3d2f00f5	0.042725522
27	0xbebe25c0	-0.37138176
28	0x3e0413b1	0.12898137
29	0xbe3c4bbb	-0.18388264
30	0xbe899199	-0.26868895
31	0x3e8d0c6c	0.2754854
32	0xbe49f387	-0.19721805
33	0xbdcbef93	-0.099578045
34	0xbefe4265	-0.4966003
35	0x3db05f6c	0.0861195
36	0xbe5f8d47	-0.21831237
37	0xbef033e6	-0.46914595
38	0x3e6adf7f	0.2293682
39	0xbe5ba321	-0.21448947
40	0xbde29244	-0.11063054
41	0xbe1339a0	-0.14377451
42	0xbef8cc1b	-0.4859322
43	0x3ef0600c	0.46948278
44	0x3d168af5	0.036753614
45	0xbebd1d64	-0.36936486
46	0xbd4f097f	-0.050546166
47	0x3da9ad53	0.08285012
48	0xbea5b6d1	-0.3236604
49	0xbe2e8d3c	-0.17046064
50	0x3dfb22e5	0.12262515
51	0xbdd976f3	-0.10618391
52	0xbe241c5f	-0.16026448
53	0x3dbedba7	0.09319239
54	0x3e5d2df0	0.21599555
55	0x3c5fe70d	0.013665927
56	0xbdda8a6e	-0.106709346
57	0x3ebff3a9	0.37490585
58	0xbef1935e	-0.47182745
59	0xbbea1fbe	-0.0071448972
60	0x3ebc3c67	0.36764833
61	0xbec6716f	-0.38758418
62	0x3ea03415	0.31289735
63	0x3d0b8d33	0.034070205
64	0x3e9ef116	0.3104331
65	0x3edbfad7	0.42964813
66	0xbe8fac48	-0.28061128
67	0x3df1d62d	0.11808429
68	0x3e744b65	0.23856886
69	0x3eb3243e	0.34988588
70	0x3de5bae4	0.11217287
71	0xbea349df	-0.31892297
72	0x3eb63499	0.35587004
73	0xbe654dfa	-0.22393027
74	0x3ead6a2c	0.33870065
75	0x3e9ec0dc	0.31006515
76	0xbc99d74e	-0.018779423
77	0xbca59bb2	-0.020215843
78	0xbd9316c1	-0.07182074
79	0xbdf98e47	-0.121853404
80	0x3da75a29	0.081714936
81	0xbe3d49d5	-0.18485196
82	0xbd9fae47	-0.07796913
83	0xbef84350	-0.48488855
84	0x3ee8ed7e	0.45493692
85	0x3ea6e6f1	0.3259807
86	0x3ef8bdd5	0.4858233
87	0xbe12b7c9	-0.14327921
88	0x3e92de76	0.2868535
89	0x3ebe96f5	0.37224546
90	0x3e150bd6	0.14555296
91	0xbecf95bb	-0.40543923
92	0xbeadd8a1	-0.33954337
93	0x3ea5ddae	0.3239569
94	0xbd7ad67d	-0.06123971
95	0x3d16e62d	0.036840606
96	0x3e390c22	0.18071035
97	0xbe69347d	-0.22773929
98	0x3e9f8544	0.3115636
99	0xbee012d9	-0.4376438
100	0xbec9c026	-0.3940441
101	0xbef429b3	-0.47688064
102	0x3c274a73	0.010210621
103	0x3e1fa243	0.15589242
104	0xbe762abf	-0.24039744
105	0xbec9c1b1	-0.39405587
106	0xbdf508d0	-0.119645715
107	0xbe47de6b	-0.1951844
108	0xbd03fe4c	-0.03222494
109	0x3e807630	0.2509017
110	0x3e8f2acb	0.27962336
111	0x3d21015c	0.039307937
112	0x3eac7362	0.3368178
113	0xbeef431d	-0.4673089
114	0x3ec4449c	0.38333595
115	0xbc5d8c79	-0.013522261
116	0x3dd388c3	0.103288196
117	0x3e61773e	0.22018144
118	0xbccd8ef8	-0.025092587
119	0x3e7e9bb3	0.24864082
120	0x3d77b306	0.060473464
121	0x3ee125d8	0.43974185
122	0xbd91bf9a	-0.07116623
123	0x3d9d61ab	0.07684644
124	0x3e05440b	0.13014238
125	0xbed160cf	-0.40894172
126	0x3ef1d30e	0.47231334
127	0x3ee1ffa8	0.44140363
128	0xbd63e57d	-0.05563878
129	0xbe58d3ac	-0.21174496
130	0x3db2ff9b	0.08740159
131	0x3ec232fb	0.3792952
132	0xbe88dec6	-0.26732463
133	0x3e9f5623	0.31120405
134	0xbc334f51	-0.0109442035
135	0xbece2526	-0.40262717
136	0x3e110a9d	0.14164205
137	0x3d0b3b42	0.03399206
138	0xbdffcf37	-0.12490695
139	0xbe8a4dda	-0.2701252
140	0x3bcde094	0.0062828753
141	0xbea9680d	-0.33087197
142	0x3d8893ca	0.066688135
143	0xbce296ab	-0.027659735
144	0x3db5bf2f	0.08874356
145	0x3e9af0f5	0.3026196
146	0xbe146d37	-0.14494787
147	0xbe816c5e	-0.2527799
148	0x3c04fc0a	0.008116731
149	0xbede4da9	-0.43418625
150	0xbb874a7f	-0.0041287537
151	0x3db2e836	0.08735697
152	0xbbc518c7	-0.0060149166
153	0xbeec5989	-0.4616206
154	0x3e6d7e98	0.23192823
155	0xbea41bde	-0.3205251
156	0x3e3c9836	0.18417439
157	0x3d046a4f	0.032327946
158	0xbe82751f	-0.2547998
159	0x3ea03f78	0.31298423
160	0xbd199119	-0.03749189
161	0xbe5b932b	-0.21442859
162	0x3e6753ca	0.22590557
163	0x3e462ec1	0.19353773
164	0xbd131d3b	-0.03591655
165	0x3dfdbbb9	0.12389321
166	0x3ede59e9	0.4342797
167	0xbe1e65e8	-0.15468562
168	0x3d0c659a	0.034276582
169	0x3caf743d	0.021417731
170	0x3eb3fab7	0.35152218
171	0x3e006489	0.12538351
172	0x3d8b2741	0.067945965
173	0xbef9e848	-0.4881003
174	0x3eb06eb7	0.3445947
175	0x3eae70cd	0.34070435
176	0x3e986440	0.29763985
177	0x3e1f5df2	0.15563181
178	0xbeb94195	-0.36182848
179	0x3dc40b34	0.09572449
180	0x3d83a941	0.06428767
181	0xbee12580	-0.43973923
182	0xbea01700	-0.31267548
183	0x3e9d2c47	0.30697843
184	0x3ec7f3cb	0.39053187
185	0x3cfc16c4	0.030772574
186	0x3dbf183c	0.09330794
187	0x3e5e8344	0.21729761
188	0xbef84b48	-0.48494935
189	0xbe5e516d	-0.21710749
190	0xbd9d31e6	-0.07675533
191	0xbe76bbff	-0.24095152
192	0xbecdb77f	-0.4017906
193	0x3e8637c0	0.2621441
194	0x3ef71511	0.4825826
195	0x3e3543df	0.17701672
196	0xbdd6c2a4	-0.104863435
197	0x3e3ae0e0	0.18249846
198	0xbe0015c0	-0.12508297
199	0x3e3617ff	0.17782591
200	0xbdd17470	-0.10227287
201	0xbe05e922	-0.13077214
202	0xbe7a8c97	-0.24467693
203	0x3e3647ef	0.17800878
204	0x3dbcf8bf	0.09227132
205	0xbe416382	-0.18885615
206	0xbed400ce	-0.41406864
207	0xbea27726	-0.31731528
208	0x3e9535ce	0.29142612
209	0xbedd0997	-0.4317138
210	0xbef54df2	-0.4791103
211	0x3ecec17d	0.40381995
212	0x3dc78140	0.09741449
213	0xbd501d4f	-0.0508092
214	0xbeb7db38	-0.35909438
215	0xbe306d21	-0.1722913
216	0xbe8b365c	-0.2718991
217	0xbe3526a5	-0.17690523
218	0xbe7059d9	-0.23471774
219	0xbd7c2722	-0.061560757
220	0x3e233a4b	0.15940206
221	0xbea6ee62	-0.32603747
222	0xbeeba6bb	-0.46025643
223	0xbed22e8a	-0.4105113
224	0xbe9e83ec	-0.30960023
225	0x3e9a1e97	0.30101463
226	0xbea0085a	-0.31256372
227	0x3ed36bb6	0.41293114
228	0x3eaa7f99	0.33300474
229	0xbef83f19	-0.4848564
230	0xbe635cbe	-0.22203347
231	0x3ea0b7e6	0.31390303
232	0xbe0d7bf9	-0.13816823
233	0x3ec32b71	0.3811908
234	0xbeea358a	-0.45743972
235	0x3eb36d22	0.350442
236	0x3eab56a7	0.33464548
237	0xbe376135	-0.17908175
238	0x3e9fb7c6	0.31194896
239	0xbe9ce0f9	-0.3064039
240	0x3e0ac35c	0.13551086
241	0x3ec73d22	0.38913828
242	0x3e6c3521	0.23067142
243	0xbddd46bd	-0.10804508
244	0xbd1ff28f	-0.03904968
245	0x3ee87120	0.45398808
246	0x3e5e1a87	0.21689807
247	0x3ed3ff89	0.41405895
248	0xbed463e6	-0.41482466
249	0x3c030b68	0.007998325
250	0xbe9a7f54	-0.3017527
251	0x3ef527a0	0.47881794
252	0xbebe62c2	-0.3718472
253	0xbe33028d	-0.17481442
254	0xbec80916	-0.39069432
255	0xbe339e28	-0.175408

weight_hh_l0 f4 [12, 4]
0	0x3e16c470	0.14723372
1	0xbef8bf7e	-0.48583597
2	0x3e440ec1	0.19146253
3	0xbd98daeb	-0.0746363
4	0x3d8d5581	0.06901074
5	0xbd85df65	-0.0653675
6	0xbd192208	-0.03738597
7	0xbeb7ccd4	-0.3589846
8	0xba0ea56d	-0.00054415205
9	0x3eefcdc0	0.46836662
10	0x3ec6fe0f	0.38865706
11	0xbed17a11	-0.40913442
12	0xbef0a193	-0.4699827
13	0x3df62b98	0.120200336
14	0x3ea65f6b	0.32494673
15	0x3d9dbb98	0.07701796
16	0x3eac9687	0.33708593
17	0x3e3a090f	0.18167518
18	0xbd0cc8b9	-0.03437111
19	0x3efb0ad8	0.4903171
20	0xbe9e4144	-0.3090917
21	0xbec9c023	-0.394044
22	0x3dc032df	0.09384703
23	0xbe1cd115	-0.15314133
24	0x3e8f5649	0.27995518
25	0xbedbfaeb	-0.42964873
26	0x3e4e4473	0.20143299
27	0x3de0faf4	0.109853655
28	0x3e332848	0.17495835
29	0xbe7d1cd3	-0.24718027
30	0x3e90ac95	0.2825667
31	0x3aab4d3d	0.0013069283
32	0xbca5fc32	-0.020261858
33	0xbe0499b6	-0.12949261
34	0x3ef5ecc2	0.48032194
35	0x3e1248ea	0.14285627
36	0xbeb3f753	-0.3514963
37	0x3ec28e72	0.37999302
38	0x3e46350f	0.19356178
39	0x3ee75a67	0.4518616
40	0x3e6864bd	0.22694679
41	0xbe99f01f	-0.3006601
42	0x3e506d5f	0.20354222
43	0x3ee271f4	0.44227564
44	0xbc8cccc4	-0.017187484
45	0x3ed5cd9f	0.4175844
46	0x3e712046	0.23547468
47	0x3ec07d4f	0.37595603

bias_ih_l0 f4 [12]
0	0x3e015526	0.12630138
1	0xbe0416d4	-0.12899333
2	0x3ed70bd6	0.42001218
3	0x3eea95c8	0.458174
4	0x3d91efee	0.07125841
5	0xbd9b4d56	-0.0758311
6	0xbe70e2f0	-0.2352407
7	0x3e9c269d	0.3049821
8	0xbea96bad	-0.33089963
9	0x3ec27e98	0.37987208
10	0xbe7ccdf7	-0.24687944
11	0x3e9ffbb5	0.31246725

bias_hh_l0 f4 [12]
0	0xbe28251f	-0.1642041
1	0xbcc069af	-0.023487894
2	0x3b43d8a4	0.0029883767
3	0xbee2ab28	-0.44271207
4	0x3e07389b	0.13205187
5	0x3ed87e6b	0.4228395
6	0x3ec225bb	0.3791941
7	0xbe9b82d0	-0.3037324
8	0x3eb8bb32	0.3608032
9	0xbef07482	-0.46963888
10	0x3e528e09	0.20561995
11	0xbeec427d	-0.46144477

weight f4 [4, 4]
0	0x3e07b31c	0.13251919
1	0x3e0bd398	0.13654935
2	0x3cceecac	0.025259338
3	0x3ee99c90	0.4562726
4	0x3e937fb5	0.2880837
5	0xbd84416d	-0.064577915
6	0xbe3ad41f	-0.1824498
7	0x3e40f299	0.18842544
8	0xbd3549ba	-0.044259764
9	0xbe231b91	-0.15928484
10	0xbe68e096	-0.22741923
11	0x3c659b93	0.014014143
12	0x3ef1ce9b	0.4722794
13	0x3eca6ff6	0.39538544
14	0xbeeba227	-0.4602215
15	0x3efc1623	0.4923564

bias f4 [4]
0	0x3db26691	0.08710969
1	0x3dbfb91c	0.09361479
2	0x3ed79789	0.421078
3	0x3e567ef7	0.2094687

weight f4 [320, 8]
0	0xbc256502	-0.010094883
1	0x39b3184c	0.00034159643
2	0x3e9864a6	0.2976429
3	0xbd04cb0d	-0.032420207
4	0x3e0a448d	0.13502713
5	0xbde25b28	-0.11052543
6	0x399644e8	0.0002866157
7	0xbd9ca1c0	-0.07648039
8	0x3cece659	0.028918432
9	0xbdc64518	-0.09681147
10	0xbe3f758d	-0.18697186
11	0x3e631e17	0.22179447
12	0xbde92a8f	-0.113850705
13	0x3e1169ed	0.14200564
14	0xbeb8b4a5	-0.3607532
15	0xbe6d0a6b	-0.23148505
16	0x3dc1f97d	0.09471414
17	0x3e3f79f7	0.1869887
18	0x3e55663a	0.20839778
19	0x3e9260ab	0.28589377
20	0x3eb22b66	0.34798735
21	0x3ddb47c9	0.10707051
22	0xbd685c9b	-0.05672894
23	0x3cf37989	0.029721038
24	0xbe8771dc	-0.26454055
25	0x3e9b6143	0.30347642
26	0xbe230408	-0.15919507
27	0xbe9c44b7	-0.30521175
28	0xbcf03266	-0.029320907
29	0xbe04f73e	-0.1298494
30	0xbe007e01	-0.12548067
31	0x3e08362f	0.1330192
32	0x3e8f9fd2	0.2805162
33	0x3e3a0ef4	0.18169767
34	0xbea0c9c2	-0.3140393
35	0xbdfd9582	-0.12382032
36	0xbd39394f	-0.04522067
37	0x3dda71d1	0.1066624
38	0xbe4f631e	-0.20252654
39	0xbe8f73d5	-0.2801806
40	0x3bde4f4b	0.006784355
41	0x3e48bf29	0.19604172
42	0x3df9ee6a	0.12203677
43	0x3c9323d6	0.017961424
44	0x39c03e18	0.00036667357
45	0xbe9a28bc	-0.30109203
46	0xb9acf625	-0.00032989788
47	0x3da0d701	0.07853509
48	0x3da144a6	0.07874422
49	0xbe84f6d0	-0.25969553
50	0x3e254d5f	0.16142796
51	0x3e7d201c	0.2471928
52	0x3e6e311e	0.23260924
53	0xbd6827a4	-0.05667843
54	0x3e8f5656	0.27995557
55	0x3e7a6a91	0.24454714
56	0xbda76368	-0.08173257
57	0x3e4860c3	0.19568162
58	0xbe5bd5e3	-0.2146831
59	0xbe883a2f	-0.2660689
60	0x3db3ef3a	0.08785863
61	0xbe951923	-0.2912074
62	0xbe896410	-0.26834154
63	0xbdae09b1	-0.08497942
64	0x3d83975f	0.06425356
65	0xbd867336	-0.065649435
66	0x39c0798e	0.0003671166
67	0x3e6ce591	0.23134448
68	0x3e4ca8bb	0.1998624
69	0x39a07d01	0.00030610713
70	0x3e823f5a	0.25438958
71	0xbd827060	-0.0636909
72	0x3ea57000	0.32312012
73	0xbe86dfcb	-0.26342615
74	0x3e98a736	0.29815072
75	0x3e2aae53	0.16668062
76	0x3e9f2a18	0.31086802
77	0xbc89cd0c	-0.016821407
78	0xbe5b111f	-0.2139325
79	0x3e3d1689	0.18465628
80	0x3e2aee21	0.16692401
81	0x3e8e9fac	0.27856195
82	0xbdb485c1	-0.08814574
83	0x3d6884eb	0.056767385
84	0xbe1639fd	-0.14670558
85	0x3e68483c	0.22683805
86	0xbdf26e22	-0.118374124
87	0xbead6668	-0.33867192
88	0x3e28499f	0.16434334
89	0xbe309f36	-0.17248234
90	0xbe9f23a9	-0.31081894
91	0x3e464aa1	0.19364406
92	0x3d596f85	0.05308487
93	0x3eb2f464	0.3495208
94	0x3db73e74	0.08947459
95	0x3dc88e6d	0.097927906
96	0x3e53d55f	0.20686863
97	0x3d0ca487	0.034336593
98	0x3e80a3c5	0.25124946
99	0x3e1073b1	0.14106633
100	0x3d90fb21	0.07079149
101	0x3e2f862d	0.17141028
102	0xbe0f0b2a	-0.13969103
103	0xbdd29e78	-0.10284132
104	0x3c8659fe	0.016400333
105	0xbea0121b	-0.31263813
106	0xbe529840	-0.20565891
107	0xbe7d65a7	-0.24745809
108	0xbe485043	-0.19561867
109	0x3e0e7541	0.13911916
110	0x3ddc81fc	0.1076698
111	0xbc98375e	-0.018581089
112	0xbc2a4ea2	-0.010394724
113	0x3e00138b	0.12507455
114	0xbe3abbdf	-0.1823573
115	0xbd9f85ed	-0.07789216
116	0xbe8089cf	-0.2510514
117	0xbea7b3ec	-0.32754457
118	0x3e8fc12b	0.28077063
119	0x3e869bb5	0.2629067
120	0x3ce6e729	0.028186398
121	0x3e4f31c5	0.2023383
122	0xbe9b06e1	-0.30278686
123	0x3e9031fc	0.28163135
124	0xbe2b2ffe	-0.16717526
125	0xb909766d	-0.00013109455
126	0x3da1ae52	0.07894577
127	0xbd3f0154	-0.046632126
128	0x3e16eaae	0.1473796
129	0x3dd07cbd	0.10180042
130	0xbe97c2f9	-0.2964094
131	0x3caf8551	0.021425875
132	0xbc27c368	-0.01023946
133	0x3e6e36e3	0.23263125
134	0x39c002f0	0.00036623282
135	0x3d613725	0.05498423
136	0xbc81102d	-0.015754784
137	0xbda65c22	-0.08123042
138	0xbe6398da	-0.22226277
139	0xbe9cf785	-0.30657592
140	0x3eaef474	0.34170878
141	0x3dcb21a8	0.09918529
142	0xbe1782e9	-0.14796032
143	0x3ddf14b1	0.108926184
144	0x3dc1cb6c	0.09462628
145	0x3e7ea17f	0.24866293
146	0x3e9400b0	0.28906775
147	0x3e81b6a7	0.25334665
148	0xbe261d09	-0.16222014
149	0x3e9e6ee9	0.30943993
150	0xbe3597df	-0.17733715
151	0x3d85e285	0.06537346
152	0xbe60559c	-0.21907657
153	0x3e1450e6	0.14483985
154	0xbe6b4da2	-0.22978833
155	0xbe99e51c	-0.3005761
156	0x3e926e1e	0.28599638
157	0x3e996dcf	0.2996659
158	0x3e1dc89c	0.15408558
159	0x3c881ed0	0.016616255
160	0xbdba6874	-0.09101954
161	0x3d3d4dc9	0.04621676
162	0xbce18643	-0.027529841
163	0xbe29cc23	-0.16581778
164	0xbd48d51f	-0.049031373
165	0xbc936cd9	-0.017996239
166	0x3d19e870	0.037575185
167	0xbdcc922b	-0.09988817
168	0x3a991e35	0.0011681976
169	0x3e899a01	0.26875308
170	0x3d89c1a1	0.06726385
171	0x3e84e4e4	0.2595588
172	0x3e5a9275	0.21344931
173	0xbe035e56	-0.12828955
174	0x3e495e85	0.19664963
175	0x3e209a4d	0.15683861
176	0x3ddf3a98	0.10899848
177	0xbe918f0c	-0.2842945
178	0xbe94bed0	-0.29051828
179	0xbdf563a9	-0.11981899
180	0x3e7ca69c	0.24672931
181	0xbea6d705	-0.32585922
182	0xbe27b873	-0.16378956
183	0xbcfe84e8	-0.031069234
184	0xbdfbfee6	-0.123044774
185	0xbe524625	-0.2053457
186	0x3de191c6	0.11014132
187	0xbe500ea3	-0.20318083
188	0x3dfa374f	0.122175805
189	0x3e9a47f4	0.3013302
190	0x3d8cbcbc	0.06871936
191	0xbc0afb36	-0.008482745
192	0xbddeef76	-0.10885517
193	0x3e03d696	0.12874827
194	0x3e8c0112	0.27344567
195	0xbe26d3e8	-0.16291773
196	0x3e5bc7f9	0.21463002
197	0x3c960d46	0.018316876
198	0xbea65576	-0.32487077
199	0xbea5e3d5	-0.32400385
200	0x3e3570cb	0.17718808
201	0xbea87dff	-0.32908627
202	0x3e59e90f	0.21280311
203	0x3e76df45	0.24108608
204	0xbd84c142	-0.064821735
205	0x3e73acd9	0.23796405
206	0xbe531a35	-0.20615466
207	0x3eac1c3f	0.336153
208	0xbe8ee163	-0.2790633
209	0x3cf9fc73	0.030515885
210	0xbe3fbfa1	-0.18725444
211	0x3e87eaf9	0.26546457
212	0xbe9ef1d0	-0.31043863
213	0xbe873d31	-0.26413873
214	0xbe6fa11c	-0.23401302
215	0xbe2429af	-0.16031526
216	0xbd9d0058	-0.07666081
217	0x3ca0a0e9	0.019607978
218	0xbe27ca70	-0.16385818
219	0xbe488702	-0.19582751
220	0x3e5baa51	0.2145169
221	0x3e1d11e6	0.15338859
222	0x3e866d3d	0.26255217
223	0xbe046eb6	-0.12932858
224	0x3da27da7	0.079341225
225	0xbd66c867	-0.056343462
226	0xbd82a1cd	-0.06378517
227	0x3d8c7e8e	0.06860076
228	0x3dc96a9e	0.09834789
229	0xbe8c8472	-0.27444798
230	0xbe1e8b04	-0.15482718
231	0x3e307564	0.17232281
232	0xbcee18c3	-0.029064542
233	0x3eb21d97	0.347882
234	0xbe7ad032	-0.24493483
235	0x3e4bbd5f	0.19896458
236	0x3e1bedff	0.15227507
237	0xbe514127	-0.2043501
238	0x3e965020	0.29358006
239	0x3eb31c84	0.34982693
240	0xbe76098d	-0.24027081
241	0x3e20f87f	0.15719794
242	0xbd684ca0	-0.0567137
243	0xbe9ffa93	-0.3124586
244	0xbdcf202b	-0.101135574
245	0x3e8f525e	0.2799253
246	0xbe874cd1	-0.26425794
247	0xbd91da21	-0.07121683
248	0x3e38d44c	0.18049735
249	0x3d1e52ed	0.038653303
250	0xba743725	-0.00093160785
251	0x3e308366	0.17237625
252	0xbde79aa7	-0.113087945
253	0x3ea568e1	0.3230658
254	0x3e64d489	0.223467
255	0xbe0aa7df	-0.135406

bias f4 [320]
0	0xbe6bf73d	-0.23043533
1	0x3e9bf12c	0.30457437
2	0x3ddaa0bb	0.10675188
3	0xbe548bc8	-0.20756447
4	0xbdfdb338	-0.12387699
5	0xbe9b3145	-0.30311027
6	0x3da48091	0.080323346
7	0xbe9c5104	-0.3053056
8	0xbe80e479	-0.2517431
9	0x3dbf900d	0.093536474
10	0x3eb084f7	0.34476444
11	0x3e89225d	0.2678403
12	0x3c9e2052	0.01930252
13	0xbe3270a2	-0.17425779
14	0x3d688005	0.056762714
15	0xbe980bc6	-0.29696482
16	0xbe91ab06	-0.28450793
17	0xbd501cbb	-0.05080865
18	0x3d96c1e5	0.07361201
19	0xbe0af1e4	-0.13568836
20	0xbe908f0c	-0.28234136
21	0xbea1a2a6	-0.31569403
22	0x3e874ed5	0.26427332
23	0xbe10d38a	-0.14143196
24	0xbe4b9b31	-0.1988342
25	0x3db5ff79	0.08886618
26	0x3e0b3ef7	0.13598238
27	0xbe098de3	-0.13433032
28	0x3ea5c59d	0.3237733
29	0x3e91dee8	0.28490376
30	0x3ea3fc21	0.32028297
31	0x3cf5e88b	0.030018112
32	0x3c964ba4	0.018346615
33	0x3eabd07d	0.335575
34	0x3b0cfb83	0.0021512217
35	0xbde9b9a1	-0.11412359
36	0x3d836a25	0.0641673
37	0x3de0e8f1	0.1098193
38	0x3e12acdc	0.14323753
39	0xbe8d3342	-0.2757817
40	0x3c7050e9	0.014667728
41	0x3e3fac6b	0.18718116
42	0x3e46969e	0.19393393
43	0xbe90a8de	-0.28253835
44	0x3e03e6b6	0.12880978
45	0x3df5790b	0.11985978
46	0x3e1051f4	0.14093763
47	0xbd36a5a4	-0.04459156
48	0xbdcce417	-0.10004442
49	0xbdf8d968	-0.12150842
50	0xbd97f7b4	-0.074202925
51	0xbe784903	-0.24246602
52	0xbc5132c0	-0.012768447
53	0x3eae74f0	0.3407359
54	0xbde4d75a	-0.111738876
55	0xbe0a6ac7	-0.13517295
56	0x3e7c2150	0.24622083
57	0x3ddcd8c3	0.107835315
58	0x3eb179b0	0.34663153
59	0x3e9a4289	0.30128887
60	0xbe7ac9df	-0.2449107
61	0x3d6200b9	0.05517647
62	0xbdf2d2e4	-0.118566304
63	0xbe703b45	-0.2346011
64	0xbe8c77dc	-0.27435195
65	0xbe10e598	-0.14150083
66	0x3e40be1a	0.18822518
67	0x3eadf392	0.33974892
68	0x3e123298	0.14277112
69	0x3d1aab97	0.037761297
70	0xbe141868	-0.14462435
71	0xbe2dd207	-0.1697465
72	0x3e833a6c	0.2563051
73	0xbe84798c	-0.25873983
74	0xbd70772e	-0.05870741
75	0xbe29791d	-0.16550107
76	0x3e44c14b	0.1921436
77	0xbe69d6e1	-0.22835876
78	0x3e4226e7	0.18960153
79	0xbe84fd6e	-0.25974602
80	0xbd018437	-0.03162023
81	0x3eaf17cd	0.34197846
82	0x3e81abf7	0.2532651
83	0x3e55c0e9	0.2087437
84	0x3e57a3e4	0.21058613
85	0x3dd43593	0.10361781
86	0xbd5c69e8	-0.053811938
87	0xbe477794	-0.19479209
88	0x3d3cd25b	0.046099048
89	0xbe17963a	-0.148034
90	0x3e5b97e5	0.21444662
91	0xbda7f721	-0.08201433
92	0xbe28224c	-0.16419333
93	0x3dbc1e36	0.0918545
94	0x3e0437ce	0.12911913
95	0xbe92b5f1	-0.28654435
96	0xbea1ffed	-0.31640568
97	0x3eac552a	0.33658725
98	0x3eb82217	0.35963508
99	0xbe85f8d5	-0.26166406
100	0xbc806a34	-0.015675642
101	0xbd1fbfde	-0.03900134
102	0x3df47840	0.11936998
103	0x3e1fe6dc	0.1561541
104	0x3dcc5ec6	0.09979014
105	0xbe8baf88	-0.27282357
106	0x3c56866e	0.013093574
107	0xbe0e71be	-0.13910577
108	0xbe342a0e	-0.17594168
109	0xbe21e297	-0.15809093
110	0x3cab1e4c	0.02088847
111	0xbe310a97	-0.17289196
112	0x3ea069d6	0.31330746
113	0x3d4cde7f	0.050016876
114	0xbe456b77	-0.19279276
115	0xbe94e832	-0.290834
116	0x3e9fe136	0.3122651
117	0x3c397b41	0.01132089
118	0x3ddec9fe	0.10878371
119	0x3e86c5da	0.26322824
120	0x3ea148b9	0.31500795
121	0xbe0395db	-0.12850134
122	0xbe61fd2e	-0.22069237
123	0x3e57a738	0.21059883
124	0xbe5771f5	-0.21039565
125	0xbe7a396b	-0.24435966
126	0xbe6c97c5	-0.2310477
127	0xbdcbccc6	-0.09951167
128	0xbda1040d	-0.07862101
129	0x3ddd743c	0.108131856
130	0xbde2b01e	-0.11068748
131	0x3ddd83fa	0.10816188
132	0xbe8c95a8	-0.2745793
133	0x3ea80231	0.32814172
134	0xbe58a135	-0.21155246
135	0xbe4f4250	-0.2024014
136	0x3dace469	0.08442003
137	0xbddda406	-0.108223006
138	0xbd6b520b	-0.05745129
139	0xbdcce328	-0.10004264
140	0x3e879e76	0.26488084
141	0xbc9f1d6b	-0.019423207
142	0xbe4a26c3	-0.19741349
143	0xbbf53c30	-0.0074839815
144	0xbd5bc090	-0.05365044
145	0x3d82365f	0.06358027
146	0x3d2758e7	0.04085627
147	0xbc4681e8	-0.012115933
148	0xbe5d0b2b	-0.21586291
149	0x3e2e1917	0.17001759
150	0x3e60d0de	0.21954677
151	0xbcbf4405	-0.023347864
152	0xbe339a01	-0.17539217
153	0xbe093cf1	-0.13402154
154	0x3e928479	0.28616694
155	0xbe10a534	-0.1412552
156	0x3ea32e8a	0.31871444
157	0x3cff0f17	0.031135125
158	0x3d6323c8	0.055454046
159	0x3eb05fe0	0.34448147
160	0xbdbddf9e	-0.09271167
161	0xbdf295d8	-0.11844987
162	0xbe918238	-0.28419662
163	0xbe8f2315	-0.27956453
164	0x3e896c94	0.2684065
165	0x3db0c319	0.08630962
166	0x3e65a2d1	0.22425391
167	0x3ea0e175	0.3142201
168	0xbe1d71d9	-0.1537546
169	0xbe093d1a	-0.13402215
170	0x3db262bc	0.08710238
171	0x3dc64d36	0.096826956
172	0xbdef35a2	-0.116801515
173	0x3e277d94	0.16356498
174	0xbe42661c	-0.18984264
175	0xbe71fd7c	-0.23631853
176	0xbe6571f0	-0.22406745
177	0xbe67c521	-0.22633792
178	0x3e97041d	0.29495326
179	0xbe8eed49	-0.2791541
180	0x3dcb4910	0.09926045
181	0x3d994d96	0.074855015
182	0x3d016105	0.031586666
183	0x3de174e1	0.11008621
184	0xbe22b547	-0.15889464
185	0xbe9718d9	-0.29511145
186	0x3e8491a3	0.25892362
187	0x3dc05d26	0.09392767
188	0x3d94509b	0.07241937
189	0xbe90d6c1	-0.28288844
190	0x3e561a8d	0.20908566
191	0x3e9b2991	0.3030515
192	0x3c7cbc56	0.015425762
193	0xbdd9f686	-0.10642724
194	0x3e98697c	0.29767978
195	0x3d150b3c	0.036387667
196	0x3ddfb268	0.109227
197	0xbe83ef54	-0.2576853
198	0x3e9e172a	0.30877048
199	0xbe8edfe4	-0.2790519
200	0xbe5c4b1f	-0.21513031
201	0x3ea79c49	0.32736424
202	0xbe5584a2	-0.20851377
203	0x3e724157	0.23657738
204	0x3e0146c4	0.12624651
205	0x3b171212	0.0023051542
206	0x3e04e22c	0.12976903
207	0xbe95ef74	-0.2928425
208	0xbdfc19dc	-0.1230962
209	0x3db30503	0.0874119
210	0x3dc65f90	0.09686196
211	0x3d2a9d49	0.041653905
212	0x3e4252ac	0.1897685
213	0x3ae9bef2	0.0017833395
214	0x3e724378	0.2365855
215	0x3e2f020d	0.17090626
216	0x3ea2c463	0.31790456
217	0xbe0a5858	-0.13510263
218	0x3e694b64	0.22782665
219	0xbe777975	-0.24167426
220	0x3e1c56bf	0.15267466
221	0xbe51c0b7	-0.20483671
222	0x3e25e2fa	0.16199866
223	0xbe3aecb9	-0.18254365
224	0x3ea928d7	0.3303897
225	0xbe71acc3	-0.2360106
226	0x3e9f09c9	0.31062153
227	0x3ddc4d8d	0.10756979
228	0xbdab3e77	-0.083615236
229	0xbd0f46d2	-0.03497965
230	0xbe232003	-0.1593018
231	0x3e9be904	0.30451214
232	0xbde6c833	-0.11268654
233	0xbd66ce46	-0.05634906
234	0xbe3eaba6	-0.18620166
235	0xbd90c69d	-0.070691325
236	0xbe52b773	-0.20577793
237	0x3e694122	0.22778752
238	0xbe659969	-0.22421803
239	0x3e8f825c	0.28029144
240	0x3e31c66c	0.17360848
241	0x3c60fd0a	0.013732204
242	0x3e1c7f94	0.15283042
243	0xbe2e9b5b	-0.17051451
244	0x3e719fc7	0.23596106
245	0xbe71dc61	-0.23619224
246	0x3e29788e	0.16549894
247	0x3d12fc82	0.03588534
248	0xbd010000	-0.03149414
249	0x3c02e73b	0.0079897
250	0x3e91da48	0.28486848
251	0xbd9489b3	-0.072528265
252	0xbe85e8bc	-0.26154125
253	0xbd84f697	-0.06492346
254	0xbe77a819	-0.24185218
255	0x3e33dabc	0.1756391

weight f4 [4, 320]
0	0x39c0b5a4	0.00036756427
1	0xbca39ea9	-0.019973116
2	0x3d34e1e3	0.044160735
3	0x3c993f66	0.018706989
4	0xbb9a7e2e	-0.004714749
5	0x3b460e87	0.0030221061
6	0xbc7b9c73	-0.015357125
7	0x3c135ad5	0.008993824
8	0xb9c0ea2c	-0.00036795565
9	0x3d30a324	0.043124333
10	0x3aedea58	0.0018151505
11	0xbd448991	-0.047982756
12	0x3d62ea7a	0.055399396
13	0xbc3cb5fb	-0.011517997
14	0x3ab8b5e4	0.0014092294
15	0x39c0b7f3	0.00036758147
16	0x3aab62b2	0.0013075678
17	0x3ca85524	0.02054841
18	0xbca17e6a	-0.0197136
19	0x3cf87783	0.030330425
20	0x39c0fbaa	0.00036808598
21	0xbcb2d876	-0.021831732
22	0x3cbf4099	0.023346232
23	0x3c6bc2ce	0.014389707
24	0x3d5cc55c	0.053899154
25	0xbd1adfbf	-0.037811037
26	0x3d1aac13	0.03776176
27	0xb8015d24	-3.084274e-05
28	0xbcb8d224	-0.02256114
29	0x3d6b53e4	0.05745305
30	0x3d437791	0.04772145
31	0xbc8b15a8	-0.0169781
32	0x3d3857b2	0.045005508
33	0x3cca2b8d	0.02467897
34	0xbc097ad5	-0.008391102
35	0x3d8466be	0.06464909
36	0xbcc01216	-0.023446124
37	0x3cc8469a	0.024447728
38	0xbca5b77b	-0.020229092
39	0x39c0a917	0.00036747076
40	0xbbb03f23	-0.0053786202
41	0xbca90aff	-0.020635126
42	0xbccd984b	-0.025097033
43	0x39b57b5e	0.00034614926
44	0x3c616eef	0.013759359
45	0xbcdb3b34	-0.026761629
46	0xbc754a17	-0.014971278
47	0x3d91f593	0.07126918
48	0xbcd37553	-0.02581278
49	0xbd5c160a	-0.053731956
50	0xbc9c6fe4	-0.019096322
51	0x3c73a59a	0.014871025
52	0xbd0796cb	-0.03310279
53	0x3c9f16d1	0.01942006
54	0x3d511f7d	0.05105542
55	0x3d59e076	0.05319258
56	0x3c9ea3a9	0.019365149
57	0xbcf8c369	-0.030366616
58	0x3cd9effd	0.026603693
59	0x3ab79954	0.0014007487
60	0xbcb4c7a9	-0.022067862
61	0xbd27fb5f	-0.04101121
62	0x3d8d6e47	0.06905799
63	0x3d4ffbc0	0.050777197
64	0xba5b9b6b	-0.0008377346
65	0x39c0069b	0.00036626015
66	0xbc4416bf	-0.011968314
67	0x3d07498d	0.033029128
68	0xbc9109e0	-0.017704904
69	0xbcf51fb9	-0.029922353
70	0x3ba1a3e1	0.004932866
71	0xb94824d7	-0.0001908721
72	0x3cadcf5f	0.021217046
73	0xbd101d9a	-0.03518448
74	0x3c101aa4	0.008795414
75	0x39b78f84	0.00035011407
76	0x3d219622	0.03944982
77	0x3cfed7fe	0.031108852
78	0x3bc0f93c	0.005889086
79	0x3c15de41	0.009147228
80	0x3b0f6b4f	0.002188403
81	0x3d02b319	0.031909082
82	0x3d20c28d	0.039248038
83	0xbcd48fd0	-0.025947481
84	0xbc80785d	-0.015682394
85	0x3b966725	0.0045899325
86	0x3b5c2b26	0.0033595054
87	0x3d17f459	0.037098262
88	0xbb4b4f8e	-0.003102276
89	0xbd00b08d	-0.031418372
90	0xbd0b5b9f	-0.034022924
91	0xbd1968e1	-0.037453536
92	0xb9c052ee	-0.0003668288
93	0xbd1ca7b6	-0.03824588
94	0x3c91f41e	0.0178166
95	0xbc967e37	-0.01837073
96	0x3c9cf218	0.019158408
97	0x3d168d6e	0.03675597
98	0x3cb44ed2	0.02201024
99	0xb9a41e20	-0.00031302962
100	0xbcb4a24b	-0.022050044
101	0xbcc948e2	-0.024570886
102	0x3c225ba9	0.009909549
103	0x3d6d51d8	0.05793938
104	0xbc165997	-0.009176633
105	0x39c0bb51	0.00036760655
106	0x3d221ea4	0.039580002
107	0x3c8d1e4e	0.017226364
108	0xbbc36945	-0.005963477
109	0xbc571f87	-0.013130075
110	0x3d03a80e	0.03214269
111	0x3d65caea	0.056101717
112	0xbcb09f68	-0.021560386
113	0xbc85d743	-0.016337996
114	0xb9c0cea4	-0.00036775053
115	0xbcdcfa91	-0.026974948
116	0x3d3aec7f	0.045635697
117	0xbcf2bb6d	-0.029630387
118	0x3c1d729b	0.009609844
119	0xbbbe41e5	-0.005806195
120	0x3d8666dd	0.06562588
121	0x3caeaa94	0.021321572
122	0x3d7a6b35	0.061137397
123	0xbc2abfcb	-0.010421704
124	0xbcca0340	-0.024659753
125	0x3d3bce8d	0.04585128
126	0xbc59675a	-0.01326927
127	0xbd00ee6c	-0.031477377
128	0x3ccf5f24	0.025313921
129	0x3c16e9a6	0.00921098
130	0x3cf3918d	0.02973249
131	0xbc875e84	-0.01652456
132	0x37ac7e8b	2.0562924e-05
133	0x3aedc447	0.001814016
134	0x3d75c6ea	0.060004152
135	0xb9a608a5	-0.00031668428
136	0x3d4c1a44	0.049829736
137	0x3c783f4a	0.015151808
138	0x3d5876d4	0.0528477
139	0xb9614cdb	-0.00021486303
140	0x3d52c3d9	0.051456306
141	0x3c25cec3	0.010120097
142	0x3d67dc1e	0.056606404
143	0x3cc26547	0.023729933
144	0xbb9d86b6	-0.0048073186
145	0x3d2b56ec	0.041830942
146	0x3d4c8d9c	0.049939737
147	0x3ca4589f	0.02006179
148	0x39c11f38	0.00036835088
149	0x3d8765b7	0.066111974
150	0x3c38dcc6	0.011283105
151	0xbcec8ea8	-0.028876618
152	0xbcf475a3	-0.02984125
153	0x39c067ea	0.00036698516
154	0x3c5daff8	0.013530724
155	0xba36ca63	-0.0006972907
156	0x3c75a010	0.014991775
157	0x3c65093c	0.013979252
158	0xbc74c40b	-0.014939318
159	0x3d60a4b5	0.054844577
160	0xbc999adb	-0.018750599
161	0xb9b6f6d4	-0.00034897646
162	0xbd40628a	-0.046968974
163	0xbc74d04b	-0.014942239
164	0xbaee02df	-0.0018158815
165	0x3d515916	0.05111035
166	0x3c313d5a	0.01081785
167	0xbcfcce59	-0.030860113
168	0xb9b93fa8	-0.00035333377
169	0xbd5bfd98	-0.053708643
170	0x3b52d863	0.0032172434
171	0xbb3950e0	-0.0028276965
172	0x3ade66c9	0.0016967888
173	0xbd561ef9	-0.05227563
174	0xba565d71	-0.0008177376
175	0xbce80108	-0.028320804
176	0x3c23202c	0.009956401
177	0x3b05e061	0.002042793
178	0x3d271e55	0.04080041
179	0xb9c0a329	-0.00036742658
180	0x3c09f1e3	0.008419487
181	0x3b6769ea	0.0035310932
182	0x3d7cbabf	0.061701532
183	0x3d05e729	0.032691155
184	0xbba0ec3e	-0.0049109748
185	0xbd07f729	-0.033194695
186	0x3d665590	0.056233943
187	0xbd3ae9eb	-0.045633238
188	0xbcb4a036	-0.02204905
189	0x398bcefa	0.00026666356
190	0xbd0cc411	-0.03436667
191	0xbd1caf19	-0.038252924
192	0x3c9ae82d	0.018909538
193	0xbd280b5d	-0.041026462
194	0xbccd73f5	-0.025079707
195	0xbd1d52ff	-0.03840923
196	0x3d04f867	0.032463457
197	0x3b1270f7	0.0022345164
198	0xbc93c8c5	-0.01804007
199	0x39bf8249	0.0003652743
200	0xbbe04a38	-0.006844785
201	0x3d32004f	0.043457326
202	0x3d4673e7	0.048450377
203	0x3cde4760	0.027133644
204	0xbcc19a21	-0.023633065
205	0x3c3b3684	0.011426572
206	0x3d5798e3	0.05263604
207	0x3cc16906	0.02360965
208	0xbc414c27	-0.011797941
209	0x3a9f5d70	0.0012158584
210	0x39ec8488	0.0004511217
211	0xbd34afa3	-0.044112813
212	0x3c8b43e0	0.017000139
213	0xbd0f34c1	-0.03496242
214	0xbb875e5a	-0.0041311206
215	0x3ce25d63	0.02763242
216	0x3bfffd2d	0.0078121633
217	0xbc11096a	-0.008852342
218	0xbcca7c60	-0.02471751
219	0x39c1055c	0.00036815822
220	0xbd22ad47	-0.03971603
221	0x384c78b0	4.874979e-05
222	0xbb96f558	-0.004606884
223	0x3d4b87e1	0.04969013
224	0x3d1591a7	0.036515858
225	0x3d2e074d	0.04248743
226	0xbb547d29	-0.0032423234
227	0xbae0d0fd	-0.0017152127
228	0x3cbfe011	0.023422273
229	0xbaf63144	-0.0018782993
230	0xbcf4182a	-0.029796679
231	0x3ced8ae1	0.028996887
232	0xb9c75613	-0.00038020368
233	0xb9708976	-0.00022939392
234	0x382d3f0b	4.1305128e-05
235	0x39c0be6c	0.0003676297
236	0xb9c10fa8	-0.00036823493
237	0xbc2f5b09	-0.010702857
238	0xb9b4cf41	-0.00034486692
239	0xbc9defe6	-0.019279432
240	0x3d87a79f	0.06623768
241	0xbc83a736	-0.016070943
242	0xbbd0f0cb	-0.006376361
243	0x3c7607f4	0.015016545
244	0x3d1c34aa	0.038136162
245	0xbd28e59a	-0.04123459
246	0xbcdc9185	-0.026924858
247	0x3c8175b8	0.015803203
248	0x3d3ae01e	0.04562389
249	0x3b7379f3	0.0037151545
250	0x3cec7fa4	0.028869458
251	0xbcead086	-0.028663885
252	0xb9c03f04	-0.00036668044
253	0xbc93c87c	-0.018039934
254	0xb9c055c0	-0.00036684982
255	0xbc15636c	-0.009117942

bias f4 [4]
0	0xbc2ce402	-0.010552408
1	0x3d7e22f0	0.062045038
2	0xbc72a1a6	-0.014809048
3	0x3d757f99	0.05993614

weight f4 [4, 8]
0	0xbd65dfa9	-0.056121502
1	0x3db3c899	0.08778495
2	0x3e3fe8ed	0.18741198
3	0xbda9158e	-0.08256064
4	0x3e919d85	0.2844049
5	0x3e3edf2d	0.18639822
6	0xbcda982e	-0.026683893
7	0xbe6cd90f	-0.23129676
8	0x3e4150e6	0.18878517
9	0x3b3d84af	0.0028918197
10	0x3e150921	0.14554264
11	0xbe489ac0	-0.19590282
12	0xbe85d165	-0.26136318
13	0xbd0830cc	-0.03324966
14	0x3da281da	0.079349235
15	0x3e62fd23	0.22166876
16	0xbe801eff	-0.25023648
17	0x3d92e1ea	0.07171996
18	0x3e3b102d	0.1826789
19	0xbdff21b0	-0.12457597
20	0xbda0bf20	-0.07848954
21	0xbde3bbfa	-0.11119838
22	0x3de1e3ca	0.110297754
23	0xbd953045	-0.07284597
24	0xbddc886d	-0.10768209
25	0xbebd0dcc	-0.3692459
26	0xbda7b102	-0.081880584
27	0xbcd3ed07	-0.02586986
28	0xbdb48245	-0.088139094
29	0xbe9e7a31	-0.309526
30	0x3dbf1279	0.09329695
31	0x3d0859b5	0.033288676

bias f4 [4]
0	0xbd13f538	-0.03612253
1	0xbe64bff3	-0.22338848
2	0x3ea20060	0.3164091
3	0x3e8553e5	0.2604057

weight f4 [4, 8]
0	0x3a5e248a	0.00084740727
1	0xbbaf05f9	-0.005341288
2	0x3e18c987	0.14920627
3	0x3e803256	0.25038403
4	0x3e806186	0.25074404
5	0x39c13aff	0.00036855784
6	0x3e0aa16d	0.13538142
7	0x39b39910	0.0003425558
8	0xbe8d2044	-0.2756368
9	0xbd609cf1	-0.05483717
10	0xbdb18eb3	-0.08669796
11	0xbe80bfbc	-0.25146282
12	0x3def1655	0.11674181
13	0x3d386cc3	0.0450256
14	0x3bd8dcad	0.0066181035
15	0x3e5078e6	0.20358619
16	0xbd6fcefe	-0.058547013
17	0xbe637e5b	-0.2221617
18	0x3e44c19e	0.19214484
19	0xbd546d76	-0.051862203
20	0xbe5b041f	-0.21388291
21	0x3e7133ea	0.2355496
22	0xbe819b28	-0.25313687
23	0x3d0b51d5	0.034013588
24	0x3e96cfc5	0.2945539
25	0xbe8308a6	-0.25592536
26	0x3e6104f2	0.21974543
27	0xbe8d2362	-0.27566057
28	0x3e2ea4a8	0.17054999
29	0x379f08bd	1.8958346e-05
30	0xbe890c22	-0.2676707
31	0x3cae5475	0.021280507

bias f4 [4]
0	0xbe1eeb1f	-0.15519379
1	0x3dbf46df	0.093396895
2	0xbe8880f3	-0.2666088
3	0xbd977055	-0.073944725

weight f4 [10, 2]
0	0xbf0d4f0d	-0.55198747
1	0x3def31c7	0.11679416
2	0xbe61d439	-0.22053613
3	0x3dbca847	0.09211784
4	0xbe117f82	-0.14208797
5	0x3e4a62ae	0.19764206
6	0x3e9e6614	0.30937254
7	0xbe8758b1	-0.26434854
8	0x3f0701fa	0.5273739
9	0x3f151bd6	0.582456
10	0xbe8f2042	-0.27954298
11	0xbdcfeb44	-0.10152295
12	0xbd32c33b	-0.043643218
13	0x3f117eb7	0.56833977
14	0xbf1ec496	-0.62018716
15	0x3f129e25	0.5727256
16	0xbece3bb5	-0.40279928
17	0x3e22475b	0.15847532
18	0x3e85cf8c	0.26134908
19	0xbe14038e	-0.14454481

bias f4 [10]
0	0x3f25f962	0.6483365
1	0xbdcc59ae	-0.099780425
2	0xbee62775	-0.44951978
3	0x3f2fafb3	0.6862747
4	0xbf196c9b	-0.59931344
5	0xbe203cba	-0.15648165
6	0xbc3ef9ac	-0.011656206
7	0xbf2fed14	-0.6872113
8	0xbea0a511	-0.31375936
9	0xbea9d4aa	-0.33170062

weight f4 [10, 2]
0	0xbdcf6ca5	-0.10128144
1	0xbeb92a8a	-0.36165267
2	0xbe8db706	-0.27678698
3	0x3e8af6eb	0.27141508
4	0xbc78c913	-0.015184659
5	0x3e0dd87f	0.13852118
6	0x3f2dfe35	0.67966014
7	0xbf25bcbd	-0.64741117
8	0x3e47becb	0.19506375
9	0xbe916474	-0.28396952
10	0x3eea045d	0.45706454
11	0x3ecf053b	0.40433678
12	0x3ed88dad	0.4229559
13	0xbeba64d3	-0.36405048
14	0xbed4f045	-0.4158956
15	0x3ebc9c33	0.3683792
16	0x3ea8588f	0.32880065
17	0xbcc76b66	-0.024343204
18	0x3ee369ff	0.44416806
19	0x3d4e3edf	0.050352927

bias f4 [10]
0	0x3e8e5476	0.27798814
1	0xbd13d5a5	-0.03609242
2	0xbf228414	-0.63482785
3	0xbef77508	-0.48331475
4	0x3f279bea	0.6547228
5	0x3eddf726	0.43352622
6	0xbe8a7459	-0.2704189
7	0x3ea866a7	0.32890818
8	0x3e190b33	0.14945678
9	0xbf03ef1f	-0.51536745

weight f4 [20, 4]
0	0xbf03c752	-0.51476014
1	0xbede4c88	-0.43417764
2	0x3e8d0fa3	0.27550992
3	0x3d7db2e5	0.061938185
4	0xbee79e74	-0.45238078
5	0xbca6037c	-0.020265333
6	0x3b683e6f	0.0035437604
7	0xbd62be21	-0.055357102
8	0xbdfcee5f	-0.12350153
9	0x3e8386c5	0.25688758
10	0xbea3eb2a	-0.32015353
11	0x3ba35803	0.004984857
12	0x3de8b1dc	0.11362049
13	0x3e72a4c0	0.2369566
14	0xbeb1925a	-0.3468197
15	0xbe3e8648	-0.18605912
16	0xbefafde8	-0.4902184
17	0x3ee43aac	0.44576013
18	0x3eb77a46	0.35835475
19	0x3e9b4062	0.30322558
20	0xbe39c657	-0.18142067
21	0x3d9a7a01	0.07542802
22	0x3e340d5d	0.17583223
23	0x3e0a231b	0.13489954
24	0x3ee6c95f	0.4507551
25	0x3e5b345f	0.21406697
26	0x3ec2d56f	0.38053462
27	0x3ece4526	0.4028713
28	0x3e8b5b36	0.27218026
29	0xbef8a2c1	-0.4856167
30	0x3e5819c8	0.21103585
31	0x3ca887d3	0.020572579
32	0xbe6db31b	-0.23212855
33	0xbde5c2e2	-0.112188116
34	0x3ee85e39	0.45384386
35	0xbe935b3b	-0.2878054
36	0xbe562566	-0.20912704
37	0x3eb8c593	0.36088237
38	0xbea7a236	-0.32740945
39	0xbee99231	-0.45619348
40	0xbef29902	-0.4738236
41	0xbecbfcea	-0.39841396
42	0x3e8b3efb	0.27196488
43	0x3e4e1153	0.20123796
44	0xbe967094	-0.29382765
45	0xbeed0374	-0.46291697
46	0xbea11b4f	-0.31466147
47	0xbebf1692	-0.37321907
48	0x3eb580f6	0.35449952
49	0xbe1c016e	-0.1523492
50	0xbe5b4f6e	-0.21417019
51	0x3e6c4685	0.23073776
52	0xbd11ba77	-0.035578217
53	0xbe92c9b6	-0.28669518
54	0x3de20dc7	0.11037784
55	0xbdef41c3	-0.11682465
56	0x3ebbb94f	0.36664817
57	0xbe70f272	-0.23529986
58	0xbe8e9042	-0.27844435
59	0xbeef3260	-0.4671812
60	0xbeb289be	-0.34870714
61	0x3e920219	0.28517225
62	0xbdd498a1	-0.10380674
63	0x3ee8a861	0.45440963
64	0x3e06a6c3	0.13149552
65	0x3d300faa	0.04298369
66	0xbed25556	-0.4108073
67	0xbede4a00	-0.43415833
68	0x3ed0243e	0.4065265
69	0xbe9202b4	-0.28517687
70	0xbe597335	-0.21235354
71	0x3eab7053	0.33484134
72	0x3d340629	0.043951187
73	0x3f03c201	0.514679
74	0xbf0459c3	-0.51699466
75	0x3ea2118a	0.31654006
76	0xbe9bb983	-0.30414972
77	0x3e516e2e	0.20452186
78	0xbecf73e9	-0.4051812
79	0xbebea624	-0.3723613

bias f4 [20]
0	0x3b61f00d	0.0034475357
1	0x3e23d80c	0.16000384
2	0x3e9bd5a3	0.3043643
3	0xbe9f0ca4	-0.31064332
4	0xbe57b499	-0.21064986
5	0xbd6f06e5	-0.058356185
6	0xbe9df2d7	-0.30849335
7	0xbdd2fdcb	-0.103023134
8	0x3eff8b63	0.4991103
9	0xbeed9050	-0.46399164
10	0x3e91c491	0.2847028
11	0xbc498634	-0.012300063
12	0x3ecbcdbf	0.3980541
13	0x3ed8da8c	0.42354238
14	0xbd8e2124	-0.06939915
15	0x3cec1507	0.02881862
16	0x3e06800a	0.1313478
17	0x3edd3398	0.43203425
18	0x3e6d1713	0.23153333
19	0xbef2ce21	-0.4742289

G f4 [2, 1]
0	0x00000000	0.0
1	0x3f800000	1.0

m1x_posterior f4 [2]
0	0x3fd7f39e	1.6871221
1	0x3ee31044	0.44348347

m1x_posterior_previous f4 [2]
0	0x401a0a80	2.4068909
1	0xbfc75f46	-1.557595

m1x_prior_previous f4 [2]
0	0x3f596b74	0.84929585
1	0xbeeab704	-0.45842755

y_previous f4 [2]
0	0x3feee861	1.8664666
1	0x3ea1bfe0	0.31591702
