KNet/Linear_SS_No_MM_/model_KNet_Linear_Dynamics_T100_v_positive_30dB_best_LQR.pt (torch, 38469 bytes, 42 tensors)

weight_ih_l0 f4 [12, 10]
000000 11 1d d5 bd d0 42 0d 3b 1c b8 d9 be 00 c3 db 3e
       -0.104059346 0.0021554716 -0.42523277 0.4292221
000010 27 ad d2 3e 48 cc 88 3e 61 ba a9 bd 34 f8 93 3e
       0.4114773 0.26718354 -0.08287502 0.289003
000020 82 82 85 be dc 34 b8 3e 83 85 cb be 03 4f d6 be
       -0.26076132 0.35977829 -0.397503 -0.41857156
000030 8f b2 2b bd 52 bf e1 3e b7 c1 8b be 13 61 99 be
       -0.041918334 0.44091278 -0.2729623 -0.29956874
000040 f1 ad bb 3e 41 4d 97 bd 77 7a 14 be a0 ee 55 39
       0.36656144 -0.07387782 -0.14499842 0.00020402158
000050 57 09 ae 3e 3c 92 89 be 62 f9 5f 3e 0f 1e 7c bd
       0.339915 -0.2686938 0.21872476 -0.061552104
000060 da 0d 86 be e1 3b 25 3e a6 d1 a2 be e5 7b 69 bd
       -0.26182443 0.16136123 -0.31800574 -0.05700292
000070 9f 2d f6 3e b4 60 16 3e 36 27 71 be 80 34 5e 3e
       0.4808168 0.14685327 -0.23550114 0.21699715
000080 1d 87 4c 3e 67 ca e4 3e ab 47 dc be 51 24 ce be
       0.19973417 0.4468567 -0.43023428 -0.40262082
000090 f2 5c 75 3e 57 a7 ea 3e be e4 ed bd 7f 4a 6a be
       0.23961237 0.45830795 -0.11615895 -0.2287998
0000a0 f1 64 84 3e 6c ca ee 3d 77 6f 78 be 5b 2b 62 3e
       0.25858262 0.11659703 -0.2426127 0.22086851
0000b0 62 79 e5 3e bf ec da be ee 81 3a be 7f 97 e3 be
       0.4481917 -0.42758748 -0.18213627 -0.4445152
0000c0 f1 91 35 3e e5 b1 84 3c 97 91 f3 be 13 40 a7 3e
       0.17731453 0.016198108 -0.47572014 0.32666072
0000d0 b4 ba c0 b9 f7 2f 45 bc 6c 60 b6 be c6 dd 4e be
       -0.00036760198 -0.0120353615 -0.3562044 -0.20201787
0000e0 06 ea 38 3d ba cc a7 3e ac 73 a2 3e 03 0c 88 be
       0.045145057 0.3277338 0.31728876 -0.26571664
0000f0 26 82 1b 3e 9f d4 44 3e 76 96 3d bc ca df 10 bc
       0.15186366 0.19221734 -0.011571517 -0.008842418
000100 65 f0 8f 3e 29 22 d2 3d 14 7c 8c 3d 67 45 82 bd
       0.28113094 0.10260422 0.068596035 -0.06360894
000110 67 22 3b be 2a 6d 08 3e 51 00 32 bd d1 ef bd bd
       -0.18274842 0.13322893 -0.043457333 -0.09274257
000120 da 7a 1c 3e a4 2b 60 3e 2c 43 d2 3d 66 98 a7 be
       0.15281239 0.21891648 0.10266718 -0.32733458
000130 52 3c e1 3d 35 58 bf 3d 1c 38 45 3e c9 fe a7 3e
       0.10997833 0.09342996 0.19259685 0.32811573
000140 98 f0 ec 3e eb ee 03 3b 70 83 e3 be 4b cf e3 3e
       0.46277308 0.002013142 -0.44436216 0.4449409
000150 46 0d 7d 3e f1 20 35 be 55 1d fa 3e 54 58 87 3e
       0.24712095 -0.17688347 0.48850504 0.26434577
000160 c9 74 65 be 02 ca a8 bd 15 3d d8 3d 06 fb d5 be
       -0.22407831 -0.08241655 0.105585255 -0.41793078
000170 bf f3 88 3e c6 d4 12 3e 55 31 19 be ad 3d 4d 3d
       0.26748464 0.14338979 -0.14960225 0.050107647
000180 e6 ab c0 3e f6 ff 8c be f3 7f f5 3d 6f 4a 74 3e
       0.37631148 -0.27539033 0.11987295 0.23856519
000190 69 ee 15 3e f2 0f bb 3e 4d 74 4b 3e 9d 31 09 be
       0.14641728 0.36535603 0.19868584 -0.13397832
0001a0 a4 0a f8 be f3 9c 2e 3d f3 8d 6c 3e ca f4 37 3e
       -0.48445618 0.042630147 0.23101024 0.17964473
0001b0 6b 2e 92 3e 3e 33 2b 3d 5b a8 dd be 01 fd 83 3e
       0.2855104 0.041796915 -0.43292508 0.25778964
0001c0 4a 31 93 be 9a f8 04 be 3a 1c b3 bd cf 6a 0b be
       -0.28748542 -0.12985459 -0.08745618 -0.13614963
0001d0 3d d9 73 bd d2 03 2c be e8 e5 e3 be 21 3f c5 3c
       -0.059533346 -0.16798332 -0.44511342 0.024077954

weight_hh_l0 f4 [12, 4]
000000 3c 57 e2 3e d4 d0 8d 3e f8 eb 18 bd 76 32 1c be
       0.4420718 0.27698386 -0.037334412 -0.15253624
000010 e6 2a 39 be c8 b4 0c be 74 1e 8b 3e 75 28 20 3e
       -0.1808277 -0.13740838 0.2717167 0.15640433
000020 2a 43 c1 be 64 73 05 be 28 bc 9a be 8e 4c e1 3c
       -0.37746555 -0.130323 -0.30221677 0.027502324
000030 4b 4e 01 3e 5c c1 c2 bc 18 90 54 bd 24 4e c3 3e
       0.12627523 -0.023773842 -0.05189523 0.38145554
000040 85 f7 e9 3e a3 b7 9e be b6 ba 5a 3e ad c0 cc be
       0.45696655 -0.3099948 0.21360287 -0.3999075
000050 38 c4 8f 3e cc 7f 9b 3e 89 f6 ce 3e 46 7d ac 3e
       0.2807939 0.3037094 0.40422466 0.33689326
000060 fd 47 27 be e0 fe c2 3c 25 85 b0 be f8 cb 71 3e
       -0.16336055 0.023803174 -0.3447658 0.23612964
000070 20 c2 51 be 95 a8 51 be 69 57 9d be cd 04 d1 3e
       -0.20484209 -0.20474465 -0.3073075 0.40823975
000080 e7 68 ae be b6 63 b3 3e 3f b3 01 bf ad fe 6e 3e
       -0.3406441 0.3503701 -0.5066413 0.23339339
000090 f6 db 80 3e d5 4d bb be 52 99 b8 be 21 54 a9 be
       0.25167817 -0.3658282 -0.36054474 -0.33071998
0000a0 fc fa 70 3e fd 7d d6 be d9 6a ee 3e bf ce a2 be
       0.23533243 -0.41892996 0.46565893 -0.3179836
0000b0 d3 b3 02 bf 0c 53 f4 be c6 2c bb 3e 05 0d fd 3d
       -0.5105564 -0.4771961 0.36557597 0.12355999

bias_ih_l0 f4 [12]
000000 1c f0 ee be 9d d3 82 3e 65 55 bf 3e 86 22 a7 3e
       -0.46667564 0.25552073 0.37369838 0.32643527
000010 c0 a9 35 3e 4e b8 0a be e2 a6 05 be aa a4 94 3d
       0.17740536 -0.13546869 -0.13051942 0.0725797
000020 ea 62 61 be 2e 42 58 3e 50 78 fd be f1 39 87 3e
       -0.22010389 0.21118996 -0.49505854 0.26411393

bias_hh_l0 f4 [12]
000000 e6 0d 8f 3e cf e8 c2 be b4 92 8a be 94 0c ac 3e
       0.2794029 -0.38068244 -0.2706505 0.33603346
000010 52 16 54 3e 5b f3 58 3e 3a dd 84 be be cc ce 3e
       0.2071164 0.21186583 -0.25950032 0.4039058
000020 7a 0a c0 bd a9 06 cf 3d 2d 12 6b bc 24 51 91 be
       -0.09376998 0.10108692 -0.014347595 -0.28382218

weight_ih_l0 f4 [12, 14]
000000 d5 aa 50 bd 75 4a a1 3e 9e 60 cf 3e b2 2a 8b be
       -0.050944168 0.3150212 0.405034 -0.2718101
000010 39 31 91 be d6 80 f5 3c 94 cc b9 3e 37 35 e9 3b
       -0.28357866 0.02996866 0.36288893 0.0071169394
000020 d5 57 be be fa 29 2d 3e 2c 20 00 be 3f 93 c2 3d
       -0.37176386 0.16910544 -0.12512273 0.09500741
000030 51 d7 1e 3d cc eb 25 bd 3c 4f d8 be 4a 36 3e 3e
       0.03877956 -0.040508077 -0.4224795 0.18575397
000040 a3 70 a6 be 5c af d2 be 0f fa 4b 3e 7d 66 e3 be
       -0.3250781 -0.41149414 0.19919609 -0.4441413
000050 c5 3b 97 3e 9d 1c 77 3e 1d 59 bb 3e 49 8a 46 be
       0.29537788 0.24132009 0.36591426 -0.19388689
000060 87 8a e8 be 97 50 80 bd cb 7d bd 3e 9c 75 c7 be
       -0.45418188 -0.06265371 0.37010035 -0.38956916
000070 50 75 92 3d 7e 28 43 3d a7 4f df 3e ec 20 97 be
       0.07151282 0.04764604 0.43615457 -0.29517305
000080 eb 2a 5f be fb 2d c4 3e 89 cc dc be ce ac 91 3e
       -0.21793716 0.3831633 -0.43124798 0.28452152
000090 13 38 31 3e bc cc 80 bd d3 d7 66 3e ee 0a fc bd
       0.17306547 -0.0628905 0.22543268 -0.12306772
0000a0 24 3a 85 3e 9c d0 0a 3d 68 d2 78 be a1 60 d2 be
       0.2602092 0.03389035 -0.24299014 -0.41089347
0000b0 6d 9c 38 bd f0 b5 67 3d a5 85 cc 3e 1a fd 59 be
       -0.045071054 0.056569993 0.39945713 -0.21287957
0000c0 72 7f 60 be f1 35 6e 3d 0a 99 2c 3e b8 1f b9 3e
       -0.21923617 0.05815691 0.16855255 0.36157012
0000d0 1f d8 c2 3c 68 95 3f be 43 07 6b 3e 5b 74 0b 3e
       0.023784695 -0.18709338 0.22951989 0.13618605
0000e0 b5 00 fc bd 0e a0 a7 3e b1 52 7b 3e 98 d5 83 be
       -0.12304822 0.327393 0.24543263 -0.25748897
0000f0 8d 90 be 3e 7e a2 9d 3e a4 07 d1 bd d4 da c1 be
       0.37219658 0.30788034 -0.102065355 -0.37862265
000100 33 d4 a0 3e c4 b4 93 3e 85 d7 92 be 7f ab ee be
       0.31411895 0.2884885 -0.28680053 -0.46615216
000110 a5 1c d7 be d7 8b c3 3e 42 8c e0 3e 2b 17 40 bd
       -0.42014042 0.38192627 0.43857008 -0.046897095
000120 0d ba 10 bd fa 1d 5c 3e 9e ee bc be 12 e1 cf be
       -0.03533368 0.2149581 -0.369008 -0.40601403
000130 88 74 07 bd b8 a9 db be cb 7b 56 be a5 82 93 3e
       -0.033070117 -0.42902923 -0.20945661 0.2881061
000140 43 c8 e8 3e a1 9f 4b bd c6 59 31 3e a9 24 cc bd
       0.45465288 -0.04971278 0.17319402 -0.0996793
000150 b5 98 52 3e 9c 5e 28 3e 96 66 f2 3e a0 ed 31 3e
       0.20566066 0.1644234 0.47343892 0.17375803
000160 0a ee 65 3e 7e f0 95 3e c9 c5 06 be cc 51 c5 3e
       0.22454086 0.29285043 -0.13161387 0.3853897
000170 91 bf 02 bd c5 8f b7 be fe 62 3b 3e 8b e9 0d be
       -0.031920973 -0.35851875 0.18299481 -0.13858621
000180 fc d5 f8 be 51 2a 6f be 11 8c a6 3e 45 45 f9 be
       -0.48600757 -0.23355986 0.32528737 -0.4868566
000190 28 d5 da be aa e9 a7 3e 69 3d ae 3e f8 59 23 3e
       -0.4274075 0.3279546 0.34031227 0.15952289
0001a0 42 42 ea bd 1c e0 8a be 46 73 d2 be 13 90 8f be
       -0.11438419 -0.27124107 -0.41103572 -0.28039607
0001b0 8f 12 ec 3d 82 a5 ac 3e 9a f0 fd be bd 8d bf 39
       0.11526977 0.33720022 -0.49597627 0.00036535962
0001c0 63 ef dd be c0 8e e8 3d b9 82 18 be 6a 34 cb 3e
       -0.433467 0.113553524 -0.14893617 0.39688426
0001d0 42 81 11 bc b7 a2 ef 3e d8 86 66 3d 0a e0 a1 3e
       -0.008880915 0.4680383 0.05628094 0.3161624
0001e0 b4 e0 5c 3e 17 36 f5 be b1 17 68 be 74 2d b1 be
       0.21570092 -0.4789283 -0.22665288 -0.3460499
0001f0 71 27 54 be 2c ab c5 3e 3c 37 d3 be cc 49 e7 3e
       -0.2071817 0.38607156 -0.41253078 0.4517349
000200 e6 91 39 be 4a 86 a0 3e 3e 65 a5 3e c7 a1 e5 be
       -0.18122062 0.31352454 0.32303804 -0.4484999
000210 aa 42 27 3e bd 07 ca 3e 69 72 42 bd 63 30 fd 3e
       0.16334024 0.3945903 -0.04747239 0.4945098
000220 e4 d3 80 bd 42 6e c5 3e bd 40 e7 3e e6 73 56 3e
       -0.06290415 0.38560683 0.4516658 0.20942649
000230 56 49 ed bd 0d d1 d6 3d 34 8e e7 3e f0 2f ca be
       -0.11586253 0.10489092 0.4522568 -0.39489698
000240 c2 43 1a be 6a 9f b2 3e 8c 7a cd be 9c f1 d9 3e
       -0.1506491 0.34887248 -0.40132558 0.42567146
000250 cd 93 40 3e 60 65 e1 3e 1f b2 63 bc 37 2e 7a 3e
       0.18806382 0.44022655 -0.013897448 0.24431692
000260 9b 39 a0 be 6c 33 82 3c 4a 78 d6 be 4e 16 de 3e
       -0.3129395 0.01589366 -0.41888648 0.43376392
000270 e5 3d 01 3f 15 25 86 3e af f5 79 3d 82 44 c1 be
       0.5048507 0.26200166 0.061025318 -0.3774758
000280 c0 40 db 3e 23 45 d3 3d 0f f6 fb be 31 49 e6 3d
       0.42822838 0.10315921 -0.49211165 0.11244429
000290 96 0f 76 3b ff d8 d9 3e 48 fa 9d 3e 8e 92 c1 be
       0.003754591 0.42548367 0.30855012 -0.37807125

weight_hh_l0 f4 [12, 4]
000000 18 26 4a 3e 84 88 de be 4b b3 08 3d dd 8d 56 be
       0.19741094 -0.43463528 0.033374112 -0.20952554
000010 c2 a4 1e bb bb 47 e5 3d 01 d3 97 be f8 11 8c be
       -0.002420709 0.11195322 -0.2965317 -0.2735746
000020 07 d4 a7 3e d9 03 9e be 62 54 c0 39 86 39 d5 be
       0.32778952 -0.3086231 0.00036683964 -0.4164545
000030 b1 e7 93 be 2b 0f e3 3e e2 48 84 be a9 e7 0d be
       -0.28887704 0.4434751 -0.25836855 -0.13857903
000040 37 ec 8a be aa 4f ae be c7 1f 6c be e2 26 b3 be
       -0.27133343 -0.34045154 -0.23058997 -0.34990603
000050 06 86 b9 3e 22 fe f7 3e 51 d0 25 be 23 d4 50 3c
       0.36235064 0.48436075 -0.16192748 0.01274589
000060 0c 6d c7 be d7 9c 38 bd 23 81 5f be f2 78 8d 3e
       -0.38950384 -0.04507145 -0.21826605 0.27631336
000070 67 5b cf 3e 1c 15 e8 3e 4c d8 b5 39 3a ec 1a be
       0.40499422 0.45328605 0.00034684164 -0.15129176
000080 bd 17 a2 be 04 4b 51 3e bf 5b d5 3e 87 d8 83 be
       -0.31658736 0.20438772 0.4167156 -0.25751135
000090 9f f2 9f 3e b1 e6 f2 3d e1 6d 0a 3e 79 f8 cc 3d
       0.31239793 0.11860407 0.13518478 0.1000833
0000a0 c4 69 57 3e fb fd 8b 3e fa a4 c2 3d df 2d e4 3e
       0.2103644 0.2734221 0.09504123 0.44566247
0000b0 02 78 81 be 48 c6 be 3e fd 43 d7 3e 38 7a 96 3e
       -0.2528687 0.37260652 0.42044058 0.2939012

bias_ih_l0 f4 [12]
000000 51 92 0e 3e 94 80 d4 be bc 46 25 be 06 8e 00 bf
       0.13923003 -0.41504347 -0.16140264 -0.5021671
000010 6c 2d ed bd c8 2d 52 be d3 7b a6 be ae 0d ab be
       -0.11580929 -0.20525277 -0.32516345 -0.33408874
000020 bd 41 fe 3d 4e 92 37 be 26 5a a8 3e 1b fe 3a be
       0.12414882 -0.17926905 0.32881278 -0.18260996

bias_hh_l0 f4 [12]
000000 4e a3 7d be c0 21 76 3e 07 dc 89 3e 84 fc d7 3d
       -0.24769327 0.24036312 0.2692568 0.105462104
000010 41 8d 15 be bc 32 b9 3c c7 77 97 3e d0 3d cf be
       -0.14604665 0.0226072 0.2958357 -0.40476847
000020 50 96 19 bd 1f a2 f3 be 0d f1 63 be 3d d9 dd 3e
       -0.037496865 -0.47584626 -0.22259922 0.43329802

weight_ih_l0 f4 [12, 24]
000000 2c 70 a0 3e e3 4b 46 3d 15 0f e4 3e 4e 2d 09 be
       0.3133558 0.048412215 0.44542757 -0.13396189
000010 38 14 ee be a1 76 88 be b2 5f 23 3e ee ef 8e be
       -0.464998 -0.26653007 0.15954474 -0.27917427
000020 97 e0 40 be c8 c9 3f be ec c3 5c 3d e5 ec de 3e
       -0.18835674 -0.18729317 0.053897783 0.4354011
000030 21 18 64 be df 06 f6 be 67 3e 8b be 0c 63 a6 3e
       -0.2227483 -0.48052117 -0.27196047 0.32497442
000040 68 f9 ca 3e db 20 a7 3e 94 37 81 3d 5f c0 45 3d
       0.39643407 0.32642254 0.06309429 0.048279162
000050 a4 5d 12 be ca e6 89 3e 06 cc d2 be b6 76 b5 be
       -0.14293534 0.2693389 -0.41171283 -0.35442132
000060 07 62 46 3e cf ee 10 be 11 db 26 3d 11 d8 bd be
       0.19373332 -0.14153598 0.04073626 -0.37078908
000070 6f 4c 04 3e 69 d4 3d be f9 20 8b be 1c 9e 8e 3e
       0.12919782 -0.1853806 -0.27173594 0.27855003
000080 a2 ee 49 be 71 ab cb bd f7 9a fe be 61 05 a7 3d
       -0.19719937 -0.09944809 -0.49727604 0.08155323
000090 23 14 60 be 49 74 ee be cd be 69 3e 2b 99 5d be
       -0.21882682 -0.46573094 0.22826691 -0.2164046
0000a0 5a 3f e5 bd 24 bb 14 be d6 50 f6 be 54 65 ef 3e
       -0.11193724 -0.14524513 -0.48108548 0.46756995
0000b0 d2 93 26 3d ea bc bd be 7a 5c 55 bd f6 5b ad 3d
       0.040668316 -0.37058192 -0.052090146 0.08464806
0000c0 20 f7 a4 be e2 e3 2d be e1 4e fa 3d b3 04 e3 bd
       -0.3221979 -0.16981462 0.12222076 -0.11084881
0000d0 a6 a0 27 be 6d 80 b9 3d ff 12 5e 3e 6a 38 88 3c
       -0.16369876 0.090576984 0.21686934 0.016628463
0000e0 ef e8 e4 bd 0f bf c0 3e 4d ea ee be ce a6 4b bc
       -0.11177241 0.37645766 -0.46663132 -0.012429906
0000f0 70 5e bc 3e 16 1d ca be d2 af 9f 3e 07 fd ce 3c
       0.367908 -0.39475316 0.31188828 0.025267137
000100 54 63 9e 3e 0b 91 dc 3e d8 ad 92 be bd 48 f5 3d
       0.30935156 0.4307941 -0.28648257 0.11976764
000110 cb d6 74 3e ba 89 af 3e ae e5 e8 3d 51 44 a7 be
       0.23910062 0.34284765 0.11371933 -0.3266931
000120 b0 75 b5 3e 3d ad 69 be 0f 6e b0 3e 2b 69 9f 3e
       0.3544135 -0.22819991 0.34458968 0.31134924
000130 4f da b5 bc 77 db ad bc 2f 41 94 bd 7c 59 d6 bd
       -0.022198824 -0.021222813 -0.07238995 -0.104662865
000140 c2 88 a2 3d ab 88 3e be cc b6 a3 bd bc 74 f6 be
       0.07936241 -0.18606822 -0.0799385 -0.48135936
000150 4f 6e eb 3e ca 81 a6 3e 05 c7 f6 3e bb d2 16 be
       0.45982596 0.32520896 0.48198715 -0.14728825
000160 4c 3d 92 3e ec e2 c0 3e f9 73 1f 3e b3 a6 cd be
       0.2856239 0.37673128 0.15571584 -0.40166244
000170 7c 60 ad be a4 1b a5 3e 40 d3 69 bd 04 c5 19 3d
       -0.33862674 0.3224765 -0.05708623 0.037541404
000180 05 5a 36 3e 2f 47 68 be 92 c4 9f 3e 8f da e1 be
       0.17807777 -0.22683404 0.3120466 -0.4411206
000190 5c 06 c9 be 71 23 f3 be 9d 3d 2f 3c e3 03 23 3e
       -0.39262664 -0.47487977 0.010695842 0.15919451
0001a0 0a 30 77 be b3 70 c8 be 85 07 f5 bd fe 3f 47 be
       -0.24139419 -0.39148483 -0.11964325 -0.19458005
0001b0 7f b0 00 bd 93 09 80 3e c6 e5 8f 3e 97 7a 27 3d
       -0.03141832 0.25007305 0.2810499 0.040888395
0001c0 af 1a ac 3e 13 d3 ee be be 54 c5 3e e7 7e 5c bc
       0.33614108 -0.46645412 0.38541216 -0.01345799
0001d0 d5 ad d3 3d ee 73 60 3e 59 36 cd bc ef f6 7c 3e
       0.1033589 0.21919224 -0.025050329 0.24703573
0001e0 61 b7 4b 3d 8e 19 de 3e 33 65 a4 bd eb c3 98 3d
       0.04973543 0.43378872 -0.08027115 0.074592434
0001f0 39 aa 06 3e 89 f3 d1 be 95 7b f2 3e f7 05 dd 3e
       0.13150872 -0.41006115 0.4735991 0.43168613
000200 e8 70 61 bd 6c 2b 4e be 80 7f c6 3d a2 cd be 3e
       -0.055039316 -0.20133752 0.096922874 0.3726626
000210 fb 1a 8c be fb dc 9e 3e a2 43 8d bc 5f 59 cf be
       -0.27364334 0.3102797 -0.017244164 -0.40497872
000220 8a 7f 12 3e 84 11 de 3c 25 de 05 be 0f df 88 be
       0.14306465 0.027107961 -0.13073023 -0.2673268
000230 f4 15 0a bb 37 58 a9 be c7 64 85 3d 19 8d ed bc
       -0.0021070214 -0.33075115 0.065133624 -0.028997945
000240 70 95 b2 3d 85 94 9a 3e 9c 0c 14 be b7 b2 81 be
       0.08719909 0.30191436 -0.14457935 -0.2533166
000250 d3 7d 1c 3c b1 b6 e0 be b2 6e c9 bb e0 c9 b3 3d
       0.009551483 -0.43889382 -0.006147229 0.08778739
000260 fa e5 0d bc 7b f2 ed be 89 08 6d 3e 8e 7c a2 be
       -0.008660788 -0.4647406 0.23147787 -0.31735653
000270 e2 9f 40 3e 3a 77 e6 3c 62 39 80 be 69 5e a0 3e
       0.1881099 0.028133024 -0.2504378 0.3132203
000280 79 22 1c bd 68 5a 55 be 1b 88 6c 3e c8 6f 46 3e
       -0.038118813 -0.20835268 0.23098795 0.19378579
000290 06 a7 12 bd ea 13 fc 3d 22 b2 de 3e c6 e9 23 be
       -0.035803817 0.12308486 0.4349528 -0.16007146
0002a0 0a d2 09 3d f1 87 b8 3c bf fb b1 3e 58 2d e6 3d
       0.033647574 0.02252576 0.3476238 0.112391174
0002b0 91 a5 90 3d da 7b 00 bf fb 87 ac 3e 4f 07 a8 3e
       0.07062829 -0.5018898 0.33697495 0.32818076
0002c0 a6 da 90 3e 08 8f 18 3e c7 be b9 be 1e ee c7 3d
       0.28291816 0.14898312 -0.36278364 0.09762214
0002d0 38 31 86 3d a8 b5 e1 be e8 72 a0 be 49 99 98 3e
       0.065523565 -0.44083905 -0.31337667 0.29804447
0002e0 59 3f c7 3e 01 85 05 3d bb 69 ba 3d fc 8c 5e 3e
       0.38915518 0.032597546 0.09102198 0.21733469
0002f0 f8 c5 f9 be 04 7e 5f be 9d 1a a3 bd 34 97 78 be
       -0.4878385 -0.21825415 -0.079640605 -0.2427643
000300 4d a0 cc be 7a f4 85 3e c3 80 f7 3e 62 48 35 3e
       -0.3996605 0.26163083 0.48340425 0.17703393
000310 62 a6 d5 bd 35 a9 3c 3e 88 7f 03 be 8a 1b 38 3e
       -0.10432126 0.18423922 -0.12841618 0.17979255
000320 31 e2 cc bd ed 94 04 be 09 60 78 be ed 95 38 3e
       -0.1000408 -0.12947436 -0.24255385 0.18025942
000330 c2 8b bf 3d 37 5a 42 be a2 9d d3 be 34 77 a2 be
       0.093528286 -0.18979727 -0.41331202 -0.3173157
000340 a5 b1 95 3e 06 71 dc be 18 f1 f4 be 92 da ce 3e
       0.29237095 -0.4305498 -0.4784019 0.4040113
000350 86 6a cb 3d 75 12 4c bd 55 a7 b6 be f4 ca 30 be
       0.09932427 -0.04982229 -0.3567454 -0.1726492
000360 31 36 8a be 25 60 30 be 2c 52 6e be c5 f6 78 bd
       -0.2699447 -0.17224176 -0.23273534 -0.060782213
000370 c8 d1 22 3e 79 c9 a4 be 03 37 ec be 95 d4 d3 be
       0.15900338 -0.3218496 -0.4613572 -0.41373125
000380 86 73 9e be 70 67 9a 3e 1d fb 9e be 22 3d d6 3e
       -0.30947512 0.30157042 -0.3105096 0.41843516
000390 fb 8f aa 3e c8 98 f8 be af de 62 be 01 26 a2 3e
       0.33312973 -0.48554063 -0.2215526 0.3166962
0003a0 5d 7a 0b be 37 9e c3 3e 21 9d ec be 65 5d b4 3e
       -0.13620897 0.38206646 -0.4621363 0.35227504
0003b0 96 9a ab 3e 28 8d 35 be 33 00 a1 3e a5 88 9d be
       0.33516377 -0.17729628 0.31445464 -0.30768314
0003c0 0c a0 0b 3e 83 a6 c7 3e fd 62 6b 3e 95 82 df bd
       0.13635272 0.38994226 0.2298698 -0.109135784
0003d0 d0 69 1d bd 63 2a e8 3e 1c 25 5d 3e 97 8c d0 3e
       -0.03843099 0.45344839 0.21596187 0.40732262
0003e0 a8 3c d1 be a8 10 02 3c 12 b5 99 be 3b c3 f2 3e
       -0.4086659 0.0079385415 -0.30020958 0.47414574
0003f0 4d b5 bf be a9 5e 33 be 2d 5b c8 be 31 00 35 be
       -0.3744301 -0.17516579 -0.39132062 -0.17675854

weight_hh_l0 f4 [12, 4]
000000 df f6 18 3e cf c9 f7 be 6b 34 43 3e 58 f7 94 bd
       0.14937924 -0.48396155 0.19062965 -0.072737396
000010 a3 f8 90 3d 97 c9 96 bd b2 c7 13 bd 4d 8b b8 be
       0.07078674 -0.07362669 -0.036079116 -0.36043778
000020 29 5a 6b ba 58 01 f1 3e 47 3c c8 3e c4 f5 d2 be
       -0.00089779735 0.47071338 0.39108488 -0.4120313
000030 ff cb ef be 45 46 00 3e 39 d6 a4 3e 31 02 96 3d
       -0.46835324 0.12526806 0.3219469 0.07324637
000040 e7 ca ab 3e 1a 54 3c 3e 20 19 12 bd 97 48 f9 3e
       0.3355324 0.18391457 -0.035668492 0.48688194
000050 5f 56 9a be c3 29 cb be 8e 2a c8 3d 2d 67 17 be
       -0.3014402 -0.396803 0.09773742 -0.14785452
000060 fb 8e 8f 3e c5 bc de be c8 a5 4d 3e 17 10 e0 3d
       0.28038773 -0.43503395 0.20082772 0.10940569
000070 58 d6 42 3e 8b ad 83 be 52 2b 92 3e 8f 6c 6e bb
       0.19027078 -0.2571834 0.28548676 -0.0036380624
000080 3f 4b ab bc d8 58 ff bd 0e 3f f5 3e 2b 42 15 3e
       -0.020909904 -0.124681175 0.4789967 0.14576022
000090 f9 5e b4 be 3a 6c c6 3e c6 a9 45 3e 60 b6 e6 3e
       -0.35228708 0.38754445 0.19303045 0.45061016
0000a0 fd 5f 69 3e 11 27 9b be e1 ae 49 3e d0 43 e1 3e
       0.22790523 -0.30303243 0.19695617 0.4399705
0000b0 21 ae 93 bc 58 61 d3 3e 9d c5 74 3e 30 b1 c2 3e
       -0.018027367 0.41285205 0.23903508 0.38025808

bias_ih_l0 f4 [12]
000000 aa 1d 02 3e db ff 05 be 8f ca d6 3e 9c e5 ec 3e
       0.12706628 -0.13085882 0.41951415 0.46268928
000010 37 b6 93 3d 08 03 a8 bd 51 59 70 be 5a 7f 9c 3e
       0.07212489 -0.08203703 -0.23471572 0.30565912
000020 a5 f4 a8 be 37 6b c3 3e 76 0f 7d be 35 c2 9c 3e
       -0.3299915 0.38167736 -0.24712929 0.30616918

bias_hh_l0 f4 [12]
000000 79 49 27 be 34 cb cf bc df 3b 0d 3b 39 6b e0 be
       -0.16336621 -0.02536545 0.0021550579 -0.43831804
000010 cb 17 08 3e b1 4f d5 3e 7e 50 c2 3e 0d 2a 9b be
       0.13290326 0.41662362 0.37952036 -0.3030552
000020 f1 48 b9 3e 26 91 ef be ee 3b 52 3e 30 a5 ef be
       0.36188462 -0.46790427 0.20530674 -0.46805716

weight f4 [4, 4]
000000 01 bf 07 3e 91 3e 0b 3e 6a f7 cd 3c 07 29 ea 3e
       0.13256456 0.13598086 0.02514239 0.45734426
000010 64 2e 99 3e 1a 23 75 bd be e5 37 be 32 75 41 3e
       0.29918206 -0.05984793 -0.17958733 0.18892363
000020 ff ad 38 bd 8d ff 20 be 19 5f 68 be 0e 99 67 3c
       -0.04508781 -0.15722485 -0.22692527 0.014135612
000030 1f a2 f2 3e d8 66 ca 3e d7 fa ea be 1f 24 fb 3e
       0.47389314 0.3953159 -0.458945 0.49050996

bias f4 [4]
000000 ac 0f b2 3d 3a a1 b9 3d 55 be d7 3e 36 b8 56 3e
       0.086943954 0.09063955 0.421374 0.20968708

weight f4 [320, 8]
000000 02 65 25 bc 4c 18 b3 39 a6 64 98 3e 0d cb 04 bd
       -0.010094883 0.00034159643 0.2976429 -0.032420207
000010 8d 44 0a 3e 28 5b e2 bd e8 44 96 39 c0 a1 9c bd
       0.13502713 -0.11052543 0.0002866157 -0.07648039
000020 2b d9 fe 3c 5e fb cc bd 19 1c 41 be e0 c5 63 3e
       0.031109413 -0.10008882 -0.18858375 0.22243452
000030 07 2b e7 bd 57 3e 16 3e 27 fa b7 be 79 ff 70 be
       -0.11287504 0.14672218 -0.3593304 -0.23534955
000040 69 c2 b9 3d 08 f2 42 3e d7 3a 57 3e 8d da 91 3e
       0.09070284 0.1903764 0.2101854 0.28487054
000050 33 d4 b1 3e 52 8d d8 3d 1a 48 6d bd 7e fd ed 3c
       0.34732208 0.1057383 -0.05793009 0.029051539
000060 8b 45 71 be 47 66 8d 3e 96 c6 14 be 60 d5 8e be
       -0.23561685 0.27617094 -0.1452888 -0.27897167
000070 d2 54 2e bc 5b 8d e6 bd ff 6a d4 bd 20 2c f2 3d
       -0.01064034 -0.1125743 -0.103719704 0.118248224
000080 2f f3 92 3e 85 52 3d 3e 84 c2 a2 be 73 b0 e8 bd
       0.2870116 0.1848851 -0.3178903 -0.1136178
000090 8d 27 1b bd 2f c4 be 3d 18 63 45 be 03 29 8b be
       -0.037879515 0.09314763 -0.19276083 -0.27179727
0000a0 4b 4f de 3b 29 bf 48 3e 6a ee f9 3d d6 23 93 3c
       0.006784355 0.19604172 0.12203677 0.017961424
0000b0 18 3e c0 39 bc 28 9a be 25 f6 ac b9 01 d7 a0 3d
       0.00036667357 -0.30109203 -0.00032989788 0.07853509
0000c0 74 e8 af 3d 14 a2 84 be 54 06 1c 3e fb 6a 80 3e
       0.08589259 -0.25904906 0.15236789 0.2508162
0000d0 69 e4 6c 3e 83 b3 74 bd e1 06 91 3e 83 27 79 3e
       0.23134007 -0.05974151 0.2832556 0.24331479
0000e0 31 94 a1 bd fd 41 45 3e 93 75 57 be 3e 56 83 be
       -0.078895934 0.19263454 -0.21040945 -0.25651735
0000f0 a8 65 a5 3d e1 c6 91 be ba 15 83 be 1c 62 90 bd
       0.0807603 -0.28472045 -0.25602514 -0.07049963
000100 5f 97 83 3d 36 73 86 bd 8e 79 c0 39 91 e5 6c 3e
       0.06425356 -0.065649435 0.0003671166 0.23134448
000110 bb a8 4c 3e 01 7d a0 39 5a 3f 82 3e 60 70 82 bd
       0.1998624 0.00030610713 0.25438958 -0.0636909
000120 5c b2 a3 3e 91 3f 85 be f1 0d 9a 3e ee 11 29 3e
       0.31972015 -0.2602506 0.3008876 0.16510746
000130 f0 20 9e 3e fe 09 7a bc a9 8a 5d be bb 62 3f 3e
       0.30884504 -0.015261171 -0.21634926 0.18690006
000140 c4 e1 2c 3e af 9d 89 3e 49 a8 b6 bd e7 61 6d 3d
       0.16882998 0.26878116 -0.089188166 0.057954695
000150 fd ad 15 be f0 86 67 3e 42 5f f0 bd 7e df af be
       -0.14617153 0.22610068 -0.11736919 -0.34350199
000160 49 9f 26 3e 31 35 31 be bf 61 9c be 15 99 3d 3e
       0.162717 -0.17305447 -0.30543324 0.18515427
000170 f0 01 43 3d 99 33 b3 3e ff 08 bf 3d 9c 7e c4 3d
       0.04760927 0.35000303 0.09327888 0.09594461
000180 6c ea 53 3e 3e f6 02 3d 60 f2 83 3e 8f a5 08 3e
       0.20694894 0.031973116 0.25770855 0.13344406
000190 73 43 8e 3d fa 80 29 3e 7f dc 14 be e8 d8 d4 bd
       0.06946459 0.16553107 -0.14537238 -0.10392934
0001a0 70 77 f4 3b 50 16 ab be 6c 14 3c be d7 4a 89 be
       0.007460527 -0.3341546 -0.18367165 -0.2681491
0001b0 ee 9a 5c be ed 2e 20 3e a7 4e b0 3d 2e 68 ad bb
       -0.21543476 0.15642901 0.08608752 -0.00529196
0001c0 da d3 aa bb 4d 16 ef 3d 17 ed 40 be 66 0f 92 bd
       -0.005213243 0.116741754 -0.18840443 -0.07131843
0001d0 1f 0f 73 be 59 0e a4 be 53 6b 92 3e 8e 3f 89 3e
       -0.23736237 -0.32042196 0.28597507 0.268063
0001e0 29 e7 e6 3c c5 31 4f 3e e1 06 9b be fc 31 90 3e
       0.028186398 0.2023383 -0.30278686 0.28163135
0001f0 fe 2f 2b be 6d 76 09 b9 52 ae a1 3d 54 01 3f bd
       -0.16717526 -0.00013109455 0.07894577 -0.046632126
000200 ae ea 16 3e bd 7c d0 3d f9 c2 97 be 51 85 af 3c
       0.1473796 0.10180042 -0.2964094 0.021425875
000210 68 c3 27 bc e3 36 6e 3e f0 02 c0 39 25 37 61 3d
       -0.01023946 0.23263125 0.00036623282 0.05498423
000220 33 8e 78 bc f0 8d a7 bd de 88 54 be 12 85 9f be
       -0.015170622 -0.08181369 -0.20755336 -0.31156212
000230 e6 c4 af 3e 01 aa d8 3d f1 4f 1c be 1d 7a f7 3d
       0.3432991 0.10579301 -0.1526487 0.12083838
000240 a5 c1 c9 3d c8 d4 7a 3e f5 b5 92 3e 08 e3 82 3e
       0.09851388 0.24495232 0.28654447 0.25563836
000250 16 7e 23 be 11 5a a4 3e 0d a2 31 be f2 b3 77 3d
       -0.15966067 0.32099965 -0.17346974 0.060474344
000260 1d 3e 68 be 44 e3 16 3e bf 61 6d be 90 1f 9d be
       -0.22679944 0.14735132 -0.23181818 -0.30688143
000270 26 71 94 3e 82 61 a0 3e 34 84 2c 3e 85 f5 cc 3c
       0.28992575 0.31324393 0.16847306 0.025019417
000280 74 68 ba bd c9 4d 3d 3d 43 86 e1 bc 23 cc 29 be
       -0.09101954 0.04621676 -0.027529841 -0.16581778
000290 1f d5 48 bd d9 6c 93 bc 70 e8 19 3d 2b 92 cc bd
       -0.049031373 -0.017996239 0.037575185 -0.09988817
0002a0 77 6f b8 3a 6c 01 8c 3e ff b6 87 3d bd 25 86 3e
       0.0014071305 0.27344835 0.066267006 0.26200667
0002b0 8b 3a 5a 3e 54 9f 06 be 22 1d 4d 3e f5 70 21 3e
       0.21311395 -0.13146716 0.20030645 0.15765746
0002c0 32 21 e0 3d 2e d1 90 be 6f ac 94 be 01 56 fb bd
       0.109438315 -0.2828459 -0.29037806 -0.12272263
0002d0 b2 18 7f 3e b2 4e a5 be f5 fb 27 be 17 44 03 bd
       0.24911764 -0.32286602 -0.16404708 -0.032047357
0002e0 dd c4 02 be 3f a5 5b be cd fc f2 3d f9 b3 57 be
       -0.1277041 -0.21449755 0.11864624 -0.21064748
0002f0 6b 4e 02 3e 31 bd 9e 3e d7 c3 98 3d de 12 3a bc
       0.12725227 0.31003717 0.074592285 -0.011357037
000300 ab a2 e5 bd b1 05 03 3e 29 a8 8b 3e 31 1e 27 be
       -0.11212667 0.1279514 0.27276734 -0.16320111
000310 08 8d 5c 3e 7f a4 a3 3c 35 cb a5 be 36 f1 a4 be
       0.21538174 0.019975899 -0.32381597 -0.3221528
000320 7d 87 32 3e fe c4 a6 be ee 06 5c 3e b2 89 74 3e
       0.17434497 -0.32572168 0.21487018 0.23880652
000330 68 d6 88 bd c6 d3 7d 3e 89 11 55 be 44 bd ab 3e
       -0.0668152 0.24787816 -0.2080747 0.33542836
000340 a7 be 8e be 93 f2 97 3c a9 5e 40 be e9 b4 89 3e
       -0.2787983 0.018548286 -0.1878611 0.26895836
000350 15 16 9d be 5a 35 89 be d5 8b 6f be 58 2f 24 be
       -0.3068091 -0.26798517 -0.23393185 -0.16033685
000360 92 f0 93 bd 4b 59 58 3c e1 3b 27 be ad 07 44 be
       -0.072236195 0.013204883 -0.16331436 -0.19143553
000370 34 a9 56 3e 53 db 1a 3e 1b 10 84 3e 99 dd f6 bd
       0.20962983 0.15122728 0.25793537 -0.12053985
000380 e0 9b a0 3d 98 b2 5a bd 0b e8 80 bd 10 3d 98 3d
       0.07842231 -0.053392977 -0.06294259 0.07433522
000390 07 b2 d0 3d 40 19 8c be 3a 3f 1f be 03 15 39 3e
       0.10190206 -0.27363014 -0.15551463 0.18074422
0003a0 95 03 ad bc 08 3f a6 3e aa 43 7c be da cd 50 3e
       -0.021119872 0.32469964 -0.24635187 0.20391026
0003b0 63 0f 20 3e 16 13 4f be cd a1 97 3e 9b b1 ac 3e
       0.1563087 -0.20222124 0.29615632 0.33729252
0003c0 0f a2 75 be 01 9d 1d 3e ce bc 63 bd 03 e5 a2 be
       -0.23987602 0.15391923 -0.05559998 -0.31815347
0003d0 7e 94 dc bd 3a 87 8c 3e 94 3d 86 be 9b af aa bd
       -0.1077051 0.2744692 -0.26218855 -0.08334275
0003e0 4f 58 37 3e 97 9d 2f 3d c5 8b a1 bb 68 85 34 3e
       0.17904781 0.0428749 -0.004929992 0.17629015
0003f0 6c 70 dd bd 13 d0 a5 3e 77 c8 62 3e ef e9 08 be
       -0.108124584 0.3238531 0.22146784 -0.13370489

bias f4 [320]
000000 3d f7 6b be 3e 51 9b 3e f3 68 dc 3d 57 c6 52 be
       -0.23043533 0.3033542 0.10762205 -0.20583473
000010 29 0c 06 be 45 31 9b be f5 7e 8f 3d 87 f8 96 be
       -0.13090576 -0.30311027 0.07006637 -0.29486486
000020 79 e4 80 be a7 24 c4 3d 4a 2d b0 3e df a7 8c 3e
       -0.2517431 0.095773034 0.34409553 0.27471825
000030 fe 8b be 3c fe 40 1b be e2 11 37 3d c6 0b 98 be
       0.023260113 -0.15161511 0.04469479 -0.29696482
000040 06 ab 91 be d7 0a 18 bd fa b2 90 3d 5d 69 03 be
       -0.28450793 -0.037119713 0.07065387 -0.12833162
000050 0c 8f 90 be e4 1b 9c be b8 48 88 3e 37 b0 13 be
       -0.28234136 -0.3049003 0.2661798 -0.1442269
000060 1c a2 4c be e6 e1 b9 3d a4 ff 0a 3e d8 7f 04 be
       -0.19983715 0.0907629 0.13574082 -0.12939394
000070 41 85 a6 3e 99 32 8e 3e 0b 99 a6 3e 34 2d c9 3c
       0.3252354 0.27772978 0.32538638 0.024557687
000080 be 39 9c 3c ad e2 ac 3e a2 30 94 3b 59 88 f2 bd
       0.019070502 0.3376669 0.004522399 -0.118424125
000090 33 25 84 3d c7 8f dd 3d 6d c2 14 3e 42 33 8d be
       0.06452408 0.10818439 0.14527293 -0.2757817
0000a0 61 4e 70 3c 66 c2 43 3e 32 c9 43 3e de a8 90 be
       0.0146671245 0.19117126 0.19119719 -0.28253835
0000b0 74 c2 03 3e 3e 17 f5 3d 90 6a 0d 3e 15 a3 20 bd
       0.12867147 0.11967324 0.13810182 -0.039218027
0000c0 b2 91 c3 bd 9d 3c 04 be 88 e2 95 bd 8c 94 7e be
       -0.095492736 -0.12913747 -0.07318598 -0.24861354
0000d0 6d a0 08 bc 95 a1 ad 3e db 23 e6 bd f8 eb 0b be
       -0.00833903 0.3391234 -0.11237308 -0.13664234
0000e0 ce b9 7b 3e d2 36 db 3d 59 8f b0 3e 70 5f 99 3e
       0.24582598 0.107038155 0.34484366 0.29955626
0000f0 40 63 7b be 98 dd 3c 3d 39 4a f5 bd ed 19 75 be
       -0.2454958 0.046109766 -0.119770475 -0.23935671
000100 dc 77 8c be 98 e5 10 be 7e ab 48 3e c0 4e ae 3e
       -0.27435195 -0.14150083 0.19596669 0.34044456
000110 cf 7d 13 3e c2 4f 2e 3d 89 3d 14 be 07 d2 2d be
       0.14403461 0.04255653 -0.14476599 -0.1697465
000120 16 59 83 3e 4e d6 83 be 8b 9d 56 bd 1d 79 29 be
       0.25653905 -0.2574944 -0.05239634 -0.16550107
000130 03 7a 40 3e 38 35 65 be cb f6 44 3e 63 9e 80 be
       0.18796544 -0.22383583 0.19234769 -0.2512084
000140 77 93 c8 bc 30 84 b2 3e a5 18 82 3e c0 4e 57 3e
       -0.02448438 0.34866476 0.25409427 0.21026134
000150 4c 4a 50 3e 81 66 d4 3d 35 92 91 bd 80 c2 45 be
       0.20340842 0.103711136 -0.07107965 -0.19312477
000160 ec 6c 33 3d d6 79 1c be e4 9c 58 3e 93 f2 a3 bd
       0.043805048 -0.15280852 0.21153599 -0.08005252
000170 4c 22 28 be 45 c7 cb 3d 0f 67 02 3e 38 33 94 be
       -0.16419333 0.09950117 0.12734626 -0.28945327
000180 11 8b a0 be e6 55 ae 3e a9 57 b7 3e d5 f8 85 be
       -0.313561 0.3404991 0.35809067 -0.26166406
000190 96 a0 32 bc 22 0a f4 bc 07 13 e3 3d 78 0e 21 3e
       -0.0109025445 -0.029789988 0.110876136 0.15728176
0001a0 99 ad c7 3d 88 af 8b be 98 b2 a3 3c cf 39 15 be
       0.09749908 -0.27282357 0.019982621 -0.14572833
0001b0 24 ef 2d be 32 7b 22 be 37 ec b7 3c 15 84 30 be
       -0.16985756 -0.15867308 0.022451503 -0.17237885
0001c0 a4 dc a0 3e d6 27 69 3d 77 6b 45 be 12 df 93 be
       0.31418335 0.056922756 -0.19279276 -0.28881127
0001d0 4e d8 9f 3e c9 01 83 3b fb 58 e2 3d c9 e6 84 3e
       0.31219715 0.0039980155 0.11052128 0.25957325
0001e0 89 d2 9f 3e 99 67 03 be 4f a7 59 be aa 15 58 3e
       0.31215313 -0.12832488 -0.2125523 0.21102014
0001f0 8e 16 5c be 93 ee 7b be 16 25 65 be 7a a3 ca bd
       -0.21492979 -0.24602728 -0.22377428 -0.09894462
000200 79 77 9a bd 4d bd e0 3d 12 bb f3 bd 3c 08 e3 3d
       -0.07542319 0.10973606 -0.11900915 0.11085555
000210 a8 95 8c be 90 ae a8 3e cc 8f 57 be 50 42 4f be
       -0.2745793 0.3294568 -0.21050948 -0.2024014
000220 63 58 ab 3d e5 d5 de bd a8 fa 69 bd 8a c9 cc bd
       0.08366468 -0.10880641 -0.05712381 -0.09999378
000230 e2 14 87 3e 6b 57 d0 bb ae db 4c be f3 cc 2b bc
       0.2638312 -0.0063580773 -0.20005676 -0.010485875
000240 9d 62 64 bd cd 31 73 3d cf ce 21 3d 51 1a e6 bb
       -0.055758107 0.059373666 0.03950387 -0.00702218
000250 2b 0b 5d be c6 86 23 3e 44 9d 65 3e bf 48 c5 bc
       -0.21586291 0.1596938 0.22423273 -0.02408254
000260 d2 54 32 be f1 3c 09 be 75 45 93 3e 7b 02 10 be
       -0.17415169 -0.13402154 0.2876393 -0.14063446
000270 4a 2c a2 3e 7e a2 eb 3c 80 89 7a 3d 7b 03 b1 3e
       0.31674415 0.028764006 0.061166286 0.34572968
000280 e5 84 b3 bd d8 95 f2 bd a0 0d 93 be f2 f8 8c be
       -0.08765582 -0.11844987 -0.28721333 -0.2753368
000290 6e 18 8a 3e 3d 5e ac 3d e2 e2 64 3e 5f 0e a1 3e
       0.26971763 0.08416412 0.22352174 0.31456277
0002a0 d9 71 1d be b6 48 0e be 3d b8 ac 3d 5e 67 c8 3d
       -0.1537546 -0.13894925 0.08433578 0.09785341
0002b0 ba c3 f0 bd 5b 5d 25 3e 1c 66 42 be 45 af 72 be
       -0.11756082 0.16148894 -0.18984264 -0.23699673
0002c0 ff 82 65 be d7 df 66 be 19 60 98 3e 53 ae 98 be
       -0.22413252 -0.22546326 0.29760817 -0.298205
0002d0 23 34 d6 3d 7c 72 a7 3d 52 65 08 3d d1 ac e5 3d
       0.10459163 0.08176133 0.03329975 0.11214603
0002e0 36 b5 22 be 97 d9 92 be 1b d1 83 3e 0a 9a c1 3d
       -0.15889439 -0.28681633 0.25745472 0.09453209
0002f0 ab 87 97 3d c1 d6 90 be 08 5c 53 3e 88 3a 99 3e
       0.073989235 -0.28288844 0.20640576 0.29927468
000300 38 29 ce 3c c0 91 dc bd da 19 98 3e 5f fd ed 3c
       0.025166139 -0.10769987 0.29707223 0.02905148
000310 28 bb e8 3d 68 5c 82 be f3 15 9b 3e e4 df 8e be
       0.11363822 -0.25461125 0.30290183 -0.2790519
000320 26 db 5f be 19 49 a8 3e ad f9 56 be 40 8f 70 3e
       -0.21860942 0.3286827 -0.20993681 0.23492146
000330 18 03 02 3e c4 5c 21 3b 8e 90 06 3e 00 f8 92 be
       0.12696493 0.0024621943 0.1314108 -0.28704834
000340 32 1e 09 be 3d 16 b2 3d 32 ea c7 3d e1 51 29 3d
       -0.13390425 0.08695648 0.09761466 0.04133785
000350 d9 ee 3f 3e 5d 49 d6 38 67 ea 71 3e c7 6e 2d 3e
       0.18743457 0.0001021798 0.23624574 0.1693679
000360 98 b3 a1 3e 9d 81 09 be 8c 78 6a 3e 75 79 77 be
       0.31582332 -0.1342835 0.22897547 -0.24167426
000370 b5 84 1c 3e 6a 9a 44 be a5 51 25 3e 86 90 3d be
       0.15284999 -0.1919953 0.16144426 -0.18512163
000380 77 34 aa 3e 45 00 73 be 18 bb 9e 3e 5a b8 cb 3d
       0.33243152 -0.23730572 0.31002116 0.09947272
000390 54 7e a8 bd 70 8b 11 bd c4 b4 29 be 2e d0 9b 3e
       -0.0822722 -0.03553337 -0.16572863 0.30432266
0003a0 41 a1 e6 bd 46 ce 66 bd bf e0 30 be 9d c6 90 bd
       -0.112612255 -0.05634906 -0.17273234 -0.070691325
0003b0 73 b7 52 be 03 e4 66 3e 69 99 65 be f0 8e 8e 3e
       -0.20577793 0.22547917 -0.22421803 0.27843428
0003c0 1a ee 2f 3e 6a 8d 71 3c b5 68 1a 3e 4d dd 2d be
       0.17180672 0.014743188 0.15079005 -0.16978951
0003d0 fd d2 6d 3e f3 2d 6d be c4 da 27 3e e4 d2 0f 3d
       0.23225017 -0.2316206 0.16392046 0.03511323
0003e0 1f b0 07 bd 23 c7 05 3c 23 03 91 3e d3 fa 83 bd
       -0.033126947 0.008165154 0.28322706 -0.06444325
0003f0 bc e8 85 be 73 6c 75 bd 19 a8 77 be bf 01 34 3e
       -0.26154125 -0.05991788 -0.24185218 0.17578791

weight f4 [4, 320]
000000 a4 b5 c0 39 4d 55 8c bc 47 9e 34 3d 8c 21 b7 bb
       0.00036756427 -0.017130518 0.044096258 -0.005588716
000010 c3 a2 25 bc 87 0e 46 3b 0a fe b2 bb a3 5e 9d 3b
       -0.010109606 0.0030221061 -0.0054624127 0.0048025413
000020 2c ea c0 b9 d7 41 30 3d a6 e4 9b 3b 59 a4 3d bd
       -0.00036795565 0.04303154 0.0047574816 -0.046299312
000030 75 49 63 3d 59 62 b3 ba 30 4d 61 bb f3 b7 c0 39
       0.055489976 -0.0013685926 -0.0034378283 0.00036758147
000040 b2 62 ab 3a c4 9c 04 3d 85 f4 a1 bc a6 58 33 3d
       0.0013075678 0.032376066 -0.019769916 0.043785714
000050 aa fb c0 39 27 78 92 bc 44 be fa 3c b6 c7 63 3c
       0.00036808598 -0.017879559 0.030608304 0.013902595
000060 db 80 5f 3d 38 0b 1c bd 67 9d 1f 3d 0c 99 c6 3a
       0.054566246 -0.038096637 0.03896847 0.0015151813
000070 55 1c c0 bc 26 6b 79 3d 7b d9 40 3d 08 04 96 bc
       -0.02345101 0.0608932 0.047082406 -0.01831247
000080 04 99 41 3d 70 2c 03 3d 6d f1 9a ba 9d b9 81 3d
       0.047265068 0.0320248 -0.0011821218 0.06334231
000090 32 7c c7 bc 25 72 be 3c 06 34 9b bc 17 a9 c0 39
       -0.024351213 0.023247788 -0.018945705 0.00036747076
0000a0 18 a7 d5 bb de 29 a9 bc 8f b4 c9 bc 5e 7b b5 39
       -0.0065201633 -0.020649847 -0.02462223 0.00034614926
0000b0 af 09 5a 3c 3f 2c b3 bc 44 10 80 bc a5 2d 95 3d
       0.013307973 -0.021871684 -0.015632756 0.07284097
0000c0 15 8b c3 bc f2 df 2b bd ac 1e 63 bc db 26 4e 3c
       -0.02387003 -0.041961618 -0.013862293 0.012582506
0000d0 a3 30 9b bc c1 2d 99 3c 1b df 44 3d d6 7c 57 3d
       -0.01894409 0.018698575 0.048064332 0.052609287
0000e0 ea 31 c1 3c 69 3e c6 bc 84 b6 03 3d 7e a2 4a 3b
       0.023583371 -0.024199681 0.032156482 0.0030919607
0000f0 28 8b ee bc c9 11 28 bd 2b 5a 87 3d 59 0a 4e 3d
       -0.02911909 -0.041032586 0.06608995 0.050302837
000100 6b 9b 5b ba 9b 06 c0 39 13 b7 63 bc 99 bb 25 3d
       -0.0008377346 0.00036626015 -0.013898629 0.04046211
000110 62 be 83 bc df 74 e7 bc 57 27 d8 3b d7 24 48 b9
       -0.016081993 -0.02825397 0.0065964865 -0.0001908721
000120 62 cb a7 3c 5d 75 00 bd 37 6e 88 3c 84 8f b7 39
       0.020482723 -0.031361926 0.016654117 0.00035011407
000130 f9 e2 41 3d b4 14 05 3d 91 07 f4 3b 27 ea 2b 3c
       0.0473356 0.032490447 0.007447191 0.010492838
000140 38 f4 d3 3b 4b cd 15 3d 08 c5 1f 3d 43 26 da bc
       0.006468322 0.036572736 0.039006263 -0.026629573
000150 de 27 1d bc f0 1e a3 3b 1d bd 47 3b f4 e8 02 3d
       -0.009592025 0.0049780533 0.003047771 0.031960443
000160 99 cb ef 3a 77 26 05 bd b8 6d 0c bd 2e 69 18 bd
       0.001829493 -0.032507386 -0.034284323 -0.037209682
000170 ee 52 c0 b9 04 99 17 bd cc 41 8d 3c 15 c1 ad bc
       -0.0003668288 -0.03701116 0.017243288 -0.021210233
000180 53 1f 6f 3c 5d 29 2c 3d 87 eb dc 3c 20 1e a4 b9
       0.014594871 0.042031635 0.026967777 -0.00031302962
000190 61 92 6d bc a8 16 de bc ed 94 b0 3c fd db 80 3d
       -0.0145002315 -0.027110413 0.021555388 0.062919594
0001a0 24 22 1b bc 51 bb c0 39 71 1c 24 3d 5a 75 89 3c
       -0.009468589 0.00036760655 0.040066186 0.01677959
0001b0 76 0f aa bb d0 28 72 bc e7 31 17 3d 5f 45 55 3d
       -0.0051898314 -0.014780238 0.036912825 0.05206811
0001c0 8e f9 b5 bc 54 64 fa bb a4 ce c0 b9 ca 36 e3 bc
       -0.022213724 -0.0076413546 -0.00036775053 -0.027736086
0001d0 bc 13 40 3d 73 87 c3 bc 67 3d 80 3c 80 2d c4 bb
       0.04689382 -0.023868298 0.015654279 -0.0059868693
0001e0 81 4d 86 3d 03 3c ae 3c 70 e3 77 3d a8 fe 8c bb
       0.065577514 0.02126885 0.060519636 -0.0043028183
0001f0 ca a8 fd bc d8 0b 33 3d 87 1c 59 bc ec 01 03 bd
       -0.030964274 0.043712467 -0.01325143 -0.031984255
000200 7a 59 d4 3c 9c f1 0b 3c 6b 20 c7 3c 1b 4a 70 bc
       0.025921572 0.008541491 0.02430745 -0.014666106
000210 8b 7e ac 37 e0 e1 88 3a 89 da 75 3d a5 08 a6 b9
       2.0562924e-05 0.0010443293 0.060022864 -0.00031668428
000220 ad 88 4b 3d b1 2a 5d 3c 74 aa 58 3d e9 35 e2 3a
       0.04969089 0.013498948 0.05289693 0.0017258498
000230 4b 02 6a 3d 52 a6 83 3c af 7b 44 3d 3e 1e e6 3c
       0.057131093 0.016070519 0.047969516 0.028090592
000240 ce e2 d4 ba 45 b2 18 3d e6 19 65 3d ab cc a9 3c
       -0.001624191 0.037279386 0.0559329 0.020727476
000250 38 1f c1 39 f4 fc 85 3d e9 8f 19 3c 63 34 ef bc
       0.00036835088 0.065423876 0.00937269 -0.029199785
000260 74 08 d9 bc ea 67 c0 39 63 87 57 3c ae 82 ec 37
       -0.026493289 0.00036698516 0.013154837 2.8194245e-05
000270 54 cf b8 3c a6 95 9e 3c 25 41 4a bc 06 ab 6e 3d
       0.0225598 0.019358467 -0.012344633 0.05826857
000280 82 47 33 bc d4 f6 b6 b9 4f 5c 29 bd 35 3e 74 bc
       -0.010942342 -0.00034897646 -0.041347798 -0.014907409
000290 2b b1 17 b8 4c 65 69 3d 41 35 8d 3c 99 58 fd bc
       -3.6166206e-05 0.05698137 0.017237308 -0.030926036
0002a0 a8 3f b9 b9 2b 55 3c bd d9 44 16 3c de 55 94 3b
       -0.00035333377 -0.04597966 0.009171688 0.0045268377
0002b0 81 c3 69 3a bc f7 39 bd 71 5d 56 ba b9 f1 05 bd
       0.0008917377 -0.045402274 -0.0008177376 -0.032701228
0002c0 c3 dd bc 3b 03 c2 c0 b9 f6 11 3b 3d cc 2d d4 36
       0.0057637407 -0.00036765644 0.045671426 6.323424e-06
0002d0 ba 55 4e 3c 05 22 59 3b 99 ae 79 3d be 80 04 3d
       0.012593681 0.003313185 0.060957525 0.03234934
0002e0 73 ec a0 bb 8b 2f c5 bc af cf 6d 3d 47 98 3a bd
       -0.0049109994 -0.024070522 0.05805939 -0.04555538
0002f0 38 5a a0 bc fa ce 8b 39 6d 4d fc bc 58 d2 16 bd
       -0.01957427 0.00026666356 -0.030798638 -0.036821693
000300 12 ce ea 3c 53 6b 24 bd b2 e6 cb bc 2f 6c 0a bd
       0.028662715 -0.040141415 -0.024890278 -0.03379458
000310 24 88 fb 3c 2b 88 8d 3b 0b a7 9a bc 49 82 bf 39
       0.030704565 0.004319211 -0.01887848 0.0003652743
000320 5f 76 17 bc 9b 5c 4a 3d a4 79 38 3d 68 24 02 3d
       -0.00924453 0.04940472 0.04503788 0.031773
000330 a3 8a 89 bc 2c 1c 9a 3c e4 97 56 3d ab 6f c1 3c
       -0.01678974 0.018812262 0.052390948 0.023612818
000340 fb f6 a8 bb 0f ea 04 3b f5 4c 82 3b a3 43 35 bd
       -0.0051563955 0.0020281111 0.003976459 -0.044253957
000350 86 38 77 3c e8 89 fa bc 50 6d 95 bb d5 4f 0a 3d
       0.01508916 -0.030583337 -0.00456015 0.03376754
000360 ce 18 fb 3b 28 6e 39 bc 6d 5a d0 bc 5c 05 c1 39
       0.007662869 -0.011317767 -0.025433743 0.00036815822
000370 32 65 0c bd 50 2e a3 b9 84 e5 47 3a 17 6f 2b 3d
       -0.034276195 -0.00031124288 0.0007625448 0.04185399
000380 33 a6 13 3d 8d d6 32 3d 9d 50 3a ba ec ac 0e ba
       0.03604717 0.043661643 -0.0007107349 -0.00054426375
000390 b5 68 0c 3d 70 1a f7 3b 68 87 f4 bc 7a 4e e9 3c
       0.034279544 0.0075409934 -0.029849723 0.028479803
0003a0 4a d6 17 ba 76 89 70 b9 c3 36 a5 39 6c be c0 39
       -0.00057921244 -0.00022939392 0.00031512053 0.0003676297
0003b0 a8 0f c1 b9 69 1f 2a bc 41 cf b4 b9 6d af 64 bc
       -0.00036823493 -0.010383465 -0.00034486692 -0.01395784
0003c0 58 1d 88 3d 73 a2 81 bc 05 68 e6 bb d6 64 c5 3c
       0.06646222 -0.015824532 -0.007031443 0.024095934
0003d0 24 5c 2f 3d cf 2c 3b bd 14 b7 b6 bc 7f 8c 7d 3c
       0.04281248 -0.04569703 -0.022304095 0.015475391
0003e0 eb 85 39 3d 06 e5 ad b6 ed 0a fe 3c f3 76 da bc
       0.04529373 -5.1824636e-06 0.03101107 -0.026668048
0003f0 04 3f c0 b9 a8 b5 68 bc c0 55 c0 b9 ab 40 4a bb
       -0.00036668044 -0.0142034665 -0.00036684982 -0.00308613

bias f4 [4]
000000 a4 7c 12 bc 94 8f 81 3d a0 11 7f bc e4 44 74 3d
       -0.008940849 0.063262135 -0.015568167 0.05963601

weight f4 [4, 8]
000000 7f 21 5e bd 0d a2 b2 3d 4e bb 54 3e 64 77 ba bd
       -0.054231163 0.08722315 0.20774576 -0.09104803
000010 c3 ee 90 3e 06 61 42 3e 0d 18 f9 bc 2d 99 80 be
       0.2830716 0.18982324 -0.030406976 -0.25116864
000020 e6 50 41 3e af 84 3d 3b 21 09 15 3e c0 9a 48 be
       0.18878517 0.0028918197 0.14554264 -0.19590282
000030 65 d1 85 be cc 30 08 bd da 81 a2 3d 23 fd 62 3e
       -0.26136318 -0.03324966 0.079349235 0.22166876
000040 fc 3e 85 be c2 57 ba 3d 13 e3 42 3e 07 84 f0 bd
       -0.26024616 0.0909877 0.19031934 -0.11743932
000050 36 db a5 bd e8 c5 e1 bd b6 f3 e3 3d e2 16 9a bd
       -0.08098452 -0.11024076 0.111304685 -0.07523896
000060 eb 9e c0 bd 0f 56 ba be 5e 89 71 bd 85 7b 09 bc
       -0.09405311 -0.36393782 -0.058968894 -0.008391266
000070 0a 28 eb bd 07 5c ac be ed 40 84 3d 71 90 45 3b
       -0.11482246 -0.3366396 0.06457696 0.0030145908

bias f4 [4]
000000 6a 8e 1e bd f3 bf 64 be ae 3b a2 3e de cf 70 3e
       -0.038710035 -0.22338848 0.31686157 0.23516795

weight f4 [4, 8]
000000 8a 24 5e 3a f9 05 af bb 87 c9 18 3e 56 32 80 3e
       0.00084740727 -0.005341288 0.14920627 0.25038403
000010 86 61 80 3e ff 3a c1 39 6d a1 0a 3e 10 99 b3 39
       0.25074404 0.00036855784 0.13538142 0.0003425558
000020 1c 44 7e be 06 36 8b bd dd 6a e3 bd e8 f9 76 be
       -0.24830669 -0.067974135 -0.11104367 -0.24118769
000030 9d 9d f9 3d c3 6c 38 3d d5 de 4c bc 9d 53 3d 3e
       0.121882655 0.0450256 -0.012504299 0.18488927
000040 fe ce 6f bd 5b 7e 63 be 9e c1 44 3e 76 6d 54 bd
       -0.058547013 -0.2221617 0.19214484 -0.051862203
000050 1f 04 5b be ea 33 71 3e 28 9b 81 be d5 51 0b 3d
       -0.21388291 0.2355496 -0.25313687 0.034013588
000060 5d fb 98 3e e4 7c 85 be e2 60 64 3e e5 07 8e be
       0.29879275 -0.26071846 0.22302583 -0.27740398
000070 55 8d 2e 3e bd 08 9f 37 7f 04 92 be dc c6 53 3c
       0.17046101 1.8958346e-05 -0.28519055 0.01292583

bias f4 [4]
000000 1f eb 1e be cf 9c 92 3d f3 80 88 be 1e 5c a4 bd
       -0.15519379 0.07158815 -0.2666088 -0.080253825

weight f4 [10, 2]
000000 09 95 0d bf 21 a6 e7 3d 81 07 64 be bb 99 bd 3d
       -0.55305535 0.113109834 -0.22268488 0.092578374
000010 82 7f 11 be ae 62 4a 3e 46 b2 9d 3e c7 80 8a be
       -0.14208797 0.19764206 0.30800074 -0.27051374
000020 47 ef 06 3f 01 1c 15 3f e6 8a 90 be fc 60 d8 bd
       0.5270886 0.58245856 -0.2823097 -0.10565373
000030 94 f3 0e bd 87 df 11 3f fd fb 1e bf 52 63 12 3f
       -0.034900263 0.569817 -0.62103254 0.571828
000040 9d fe cf be 93 5f 24 3e 8c cf 85 3e 8e 03 14 be
       -0.40623942 0.16052084 0.26134908 -0.14454481

bias f4 [10]
000000 a4 dc 25 3f 59 dd ca bd 75 27 e6 be 59 83 2f 3f
       0.64789796 -0.099055 -0.44951978 0.68559796
000010 33 6b 19 bf 88 73 1d be a3 7e 23 bc 36 f7 2f bf
       -0.599292 -0.15376103 -0.009978923 -0.6873659
000020 85 e9 9e be aa d4 a9 be
       -0.31037536 -0.33170062

weight f4 [10, 2]
000000 70 c4 a5 bd ec 92 b8 be bd 07 9c be 30 54 76 3e
       -0.08094108 -0.36049592 -0.30474654 0.24055552
000010 13 c9 78 bc 7f d8 0d 3e 3a 7c 2b 3f 06 d8 25 bf
       -0.015184659 0.13852118 0.6698643 -0.6478275
000020 bf d6 43 3e f8 70 92 be 0f e2 e9 3e 70 99 cf 3e
       0.19124888 -0.28601813 0.45680282 0.4054675
000030 c9 3a dc 3e fd 83 bd be dc c3 d4 be e9 f7 c0 3e
       0.430136 -0.37014762 -0.4155568 0.3768914
000040 ee 74 ab 3e c8 62 3f bd ff 69 e3 3e df 3e 4e 3d
       0.33487648 -0.046725065 0.44416806 0.050352927

bias f4 [10]
000000 c6 19 8f 3e c1 ca 38 bd 14 84 22 bf 2b 42 fc be
       0.2794935 -0.045115236 -0.63482785 -0.49269232
000010 70 4a 27 3f af 4a de 3e af 55 87 be 54 21 9f 3e
       0.6534796 0.43416354 -0.2643256 0.31080115
000020 0b 5c 1a 3e 1f ef 03 bf
       0.15074174 -0.51536745

weight f4 [20, 4]
000000 f5 b3 03 bf 2a f2 de be fe 2b 8e 3e f0 62 81 3d
       -0.5144647 -0.43544132 0.27767938 0.06317699
000010 b4 37 e6 be fd 78 b2 bc e2 5e 04 bc 3a 4a 85 bd
       -0.44964373 -0.021786207 -0.008079262 -0.06508298
000020 6a 4c f6 bd 0d 25 8c 3e f1 bd aa be b0 b4 50 3c
       -0.120262936 0.27372018 -0.3334804 0.012738392
000030 45 6f e6 3d f6 d7 6f 3e df fd b0 be e8 08 3e be
       0.11251692 0.23422226 -0.34568688 -0.18558085
000040 54 2c f9 be 26 58 e1 3e e2 0a b2 3e d8 d0 a3 3e
       -0.48666632 0.44012564 0.34773928 0.31995273
000050 e0 cd 3a be 48 f2 b3 3d 0b d8 32 3e ca 68 11 3e
       -0.18242598 0.08786446 0.17465226 0.1420013
000060 b6 3c e4 3e 80 ef 57 3e b6 1c c1 3e a0 0f ce 3e
       0.4457757 0.21087456 0.37717217 0.40246296
000070 33 f2 82 3e 05 45 fa be 61 a0 59 3e 1b 6c 94 3c
       0.25575408 -0.48880783 0.21252586 0.018117955
000080 db 3c 6e be d5 b0 eb bd c5 d8 e7 3e fb b0 94 be
       -0.23265402 -0.115083374 0.4528257 -0.29041275
000090 c1 4e 59 be 71 62 be 3e 03 cc aa be c5 4b e9 be
       -0.21221448 0.3718448 -0.33358774 -0.4556562
0000a0 48 77 f0 be 94 9b c8 be 1a 0c 8b 3e 90 94 58 3e
       -0.46966004 -0.39181197 0.2715767 0.21150422
0000b0 85 8a 96 be 13 e8 ed be 39 fb 9f be a2 72 bf be
       -0.29402557 -0.4646612 -0.31246355 -0.37392145
0000c0 c9 ad b7 3e 5c 3d 1a be 84 64 58 be 02 f3 6c 3e
       0.35874775 -0.15062469 -0.21132094 0.23139575
0000d0 7c 5e 2c bd c9 55 96 be 01 59 e4 3d b8 f8 f8 bd
       -0.042082295 -0.29362324 0.11149789 -0.12156814
0000e0 43 c1 b9 3e 77 f4 72 be cd 3a 92 be fc 83 ee be
       0.3628026 -0.23726068 -0.28560486 -0.4658507
0000f0 6b f7 b4 be 1f 57 8e 3e 80 de c2 bd a4 ac e9 3e
       -0.35345015 0.27800843 -0.09515095 0.45639527
000100 1b 78 09 3e 58 57 3c 3d 51 75 d1 be 42 17 df be
       0.13424723 0.045981735 -0.40909818 -0.43572432
000110 fb 2b d3 3e 18 ef 88 be c5 9e 68 be 6a 4b af 3e
       0.41244492 -0.26744914 -0.22716816 0.34237224
000120 99 ba 39 3d 4c 93 03 3f 87 ce 02 bf 0a 66 a1 3e
       0.04534397 0.5139663 -0.51096386 0.31523162
000130 ab 95 9b be 5a a5 4b 3e c1 48 d0 be 0a 60 ba be
       -0.30387625 0.19887295 -0.40680507 -0.36401397

bias f4 [20]
000000 2b 00 3f 3b 21 89 21 3e 59 ab 9b 3e 14 f0 9f be
       0.0029144387 0.15774967 0.30404165 -0.31237853
000010 f7 59 5a be 58 0a 6b bd 4c 3f a0 be 05 26 d9 bd
       -0.21323381 -0.05738291 -0.31298292 -0.10602955
000020 2b 15 fa 3e 5d e3 ee be cd 1c 91 3e 5f 7c 33 bc
       0.48844275 -0.4665784 0.28342286 -0.010954945
000030 aa 4d cc 3e b0 ad d8 3e 58 08 90 bd 12 e6 0c 3d
       0.39903003 0.42320013 -0.070328414 0.0343991
000040 e7 97 0c 3e 52 14 df 3e 92 0c 6c 3e bc 4a f3 be
       0.13729821 0.4357019 0.2305167 -0.47517955

G f4 [2, 1]
000000 00 00 00 00 00 00 80 3f
       0.0 1.0

m1x_posterior f4 [2]
000000 e8 e5 e1 be 83 c5 c0 be
       -0.44120717 -0.3765069

m1x_posterior_previous f4 [2]
000000 d4 48 0e be 89 88 40 3e
       -0.13894969 0.18802084

m1x_prior_previous f4 [2]
000000 d4 fe 48 3d e0 a4 62 bc
       0.049071148 -0.013833255

y_previous f4 [2]
000000 e0 2f 58 bf 48 8b 82 be
       -0.8444805 -0.25496888
