KNet/Linear_SS_No_MM_/model_KNet_Linear_Dynamics_T100_v_0dB_best_LQR.pt (torch, 38469 bytes, 42 tensors)

weight_ih_l0 f4 [12, 10]
00000000: fe9e d9bd 07b1 723a a5f9 d9be fd30 da3e
00000010: 9c38 d73e db67 883e 7c2c afbd 36f2 923e
00000020: 2b08 81be 6576 b83e d67c c8be d84d d4be
00000030: b9be 2dbd ebfe e43e a285 90be d46d 96be
00000040: f665 bc3e 372f 76bd 3fe0 10be 72b3 363a
00000050: b811 ae3e 4bdb 85be 737c 603e 225c 8cbd
00000060: 3834 86be 5c88 1f3e 2dc0 a0be 0654 65bd
00000070: b1ea f73e c4e3 163e 60c7 73be 3849 5a3e
00000080: 2e0a 4d3e 41fe e13e 7517 dabe 3c88 cdbe
00000090: ad7b 703e f4ed e53e 4792 edbd 90cd 6abe
000000a0: fc39 863e 7c19 f23d 88f2 78be a558 5a3e
000000b0: ddc9 de3e 5693 dabe 890c 33be 3144 dfbe
000000c0: 70df 343e d8c9 883c 68f3 f6be 1239 aa3e
000000d0: 79c5 5d38 ba22 20bc 34e4 b4be 495d 51be
000000e0: 259d 063d bed1 a93e 6ea3 a43e 8c4d 88be
000000f0: d4e5 183e bff0 3b3e e0c5 45bc 6de1 cbbb
00000100: b1f3 903e 93e1 c63d caf0 833d 6cfe 83bd
00000110: 784c 38be 3af0 083e aabe 1ebd 1d97 aebd
00000120: eafd 1c3e 5fa5 5b3e 55ee c03d 3ae7 a4be
00000130: 43f7 e43d c1d8 c63d 902d 493e 5240 a83e
00000140: 878e eb3e df0f 9d39 f9c4 e3be 5f98 e13e
00000150: 084c 753e 32db 35be 7c44 f83e 1333 853e
00000160: 4822 66be 1fd0 a9bd 8757 e23d 90b8 d3be
00000170: 4835 893e 44b4 1a3e b27a 1bbe 76d0 693d
00000180: 0323 c33e 2a8c 85be 0157 fc3d 80cd 743e
00000190: 137a 183e 3312 bb3e 5ef7 4b3e a2e4 02be
000001a0: f304 f1be bd3d 373d 1754 703e 573c 393e
000001b0: 37c8 913e 683f 2d3d 7436 dcbe c29a 843e
000001c0: d372 93be a26e ffbd 1f70 b3bd 8859 0abe
000001d0: d212 63bd 23a6 26be 6878 e2be 4757 c93c
-0.106260285 0.00092579465 -0.42573276 0.426155 0.42035377 0.26641735 -0.085534066 0.28700417
-0.25201544 0.36027828 -0.39157742 -0.4146564 -0.042418215 0.44725737 -0.28226954 -0.29380667
0.3679654 -0.06010362 -0.14148043 0.00069694885 0.33997893 -0.2614387 0.21922474 -0.068535104
-0.26211715 0.1557936 -0.31396618 -0.055988334 0.48421243 0.14735323 -0.23806524 0.21316993
0.20023414 0.44139293 -0.4259602 -0.40143 0.23484679 0.44908106 -0.11600166 -0.22929978
0.26216114 0.11821267 -0.24311268 0.21322878 0.43513384 -0.42690533 -0.1748525 -0.43606713
0.1766336 0.01669781 -0.4823258 0.33246666 5.2874417e-05 -0.009773904 -0.35330355 -0.20445742
0.03286471 0.33167833 0.32155937 -0.26621664 0.14931422 0.18353556 -0.012071103 -0.006221941
0.28310922 0.097109936 0.06442411 -0.064450115 -0.1799792 0.13372889 -0.03875605 -0.08524916
0.15331236 0.21449803 0.09420458 -0.32207662 0.11179974 0.09709311 0.19646287 0.32861573
0.46007177 0.00029957198 -0.44486216 0.44061562 0.23954785 -0.17759398 0.4848975 0.2601553
-0.22474015 -0.08291649 0.11051851 -0.41351748 0.26798463 0.15107828 -0.15183523 0.05708357
0.3811265 -0.260835 0.12321282 0.23906517 0.14890318 0.36537322 0.19918582 -0.12782529
-0.47074088 0.044736613 0.23469578 0.18089424 0.28473064 0.042296797 -0.43010294 0.2589932
-0.2879854 -0.124722734 -0.0876162 -0.13510716 -0.05543787 -0.16274314 -0.44232488 0.02457775

weight_hh_l0 f4 [12, 4]
00000000: 1457 e23e 9ab8 8c3e ac90 f0bc c018 16be
00000010: 2609 35be 7588 07be b745 893e 884c 1c3e
00000020: 3a66 c2be 5618 0bbe e4e7 95be afc7 0b3d
00000030: c796 f93d 5a1f e6bc ea20 40bd bf57 c53e
00000040: 5242 e63e 206d a3be b634 553e b5c9 ccbe
00000050: b27c 913e ed34 9d3e 7364 d33e f608 b13e
00000060: 888f 28be ed91 d43c fd35 a9be e271 7b3e
00000070: 3923 58be 7c83 5fbe 75a5 9fbe 413b d73e
00000080: ed3b b0be 7a6f b13e 76af 00bf f7c6 723e
00000090: ccc2 823e 7764 b8be 3ca1 b9be 382a abbe
000000a0: c9e8 743e b835 d4be 20c5 eb3e 50d1 a4be
000000b0: 9d7f 01bf cfe7 f1be 5076 b83e 28a8 f33d
0.4420706 0.2748459 -0.02936586 -0.14657879 -0.17679271 -0.13235648 0.26811 0.1526357
-0.37968618 -0.13583502 -0.2927848 0.03412598 0.121869616 -0.028091121 -0.04690639 0.38543507
0.44972473 -0.31919193 0.20820889 -0.3999764 0.28415447 0.30704442 0.41287574 0.3457715
-0.16461003 0.02594849 -0.33049002 0.24555162 -0.21107186 -0.21827501 -0.3118092 0.42037395
-0.3442072 0.34655362 -0.5026773 0.23708712 0.25539243 -0.3601415 -0.36255825 -0.33430648
0.23916925 -0.41447234 0.46048832 -0.32190943 -0.5058535 -0.47247168 0.36027765 0.11897308

bias_ih_l0 f4 [12]
00000000: 6f38 eebe 37ae 843e e9ff ba3e 60d7 a43e
00000010: ae4f 2c3e 5a3b 12be 3ba7 07be 35ae 863d
00000020: 310b 65be 7151 5b3e b137 fbbe 396f 893e
-0.4652743 0.25914165 0.3652337 0.32195568 0.1682727 -0.14280453 -0.13247387 0.06576196
-0.2236755 0.21417786 -0.49065927 0.2684267

bias_hh_l0 f4 [12]
00000000: 92d6 8b3e ba55 c0be ce44 8dbe c0c0 a93e
00000010: 2212 4b3e bab0 5c3e 7e22 86be ca76 cb3e
00000020: b093 c7bd 7880 d93d dacc 27bc 95f8 8ebe
0.27312142 -0.37565404 -0.27591556 0.3315487 0.19831136 0.21551791 -0.2619819 0.39739066
-0.09744966 0.106202066 -0.0102417115 -0.27924028

weight_ih_l0 f4 [12, 14]
00000000: 91f6 7cbd 67cc a13e 8574 cf3e d663 8cbe
00000010: 62d0 91be eca6 163d 1d0e ba3e 0a1d 2e3c
00000020: 3c14 bfbe 9729 303e 7af4 00be 9f54 c73d
00000030: 5cc9 283d f5f7 27bd 26d1 dbbe ba22 3b3e
00000040: 03d1 a7be 93ed d0be e428 413e 79e4 ebbe
00000050: 4e7d 973e 095c 823e a8c5 b93e 8259 3dbe
00000060: 4096 e9be 1470 95bd 0016 c03e 25b7 c7be
00000070: 1427 9d3d 5cb9 593d 4f65 db3e 5c79 99be
00000080: 4ca0 5dbe 21f6 c83e 120e ddbe 54d0 933e
00000090: 4473 363e 8a5e 74bd a217 6a3e 7be1 f5bd
000000a0: 6250 893e bfdc 0c3d 1917 74be 5bb9 cfbe
000000b0: 5d56 53bd 68ec 553d 9684 cc3e da4e 5ebe
000000c0: 8302 61be 559d 4c3d 5fe1 303e 59de bc3e
000000d0: e671 803c 1773 3cbe 5ddc 703e 6bf7 0b3e
000000e0: 5297 f1bd f9dc a93e a0e4 763e 0b0e 86be
000000f0: 0acd be3e 9ac3 9f3e c20d d2bd 5464 c1be
00000100: 2144 a33e f735 963e 58a0 92be 4558 ecbe
00000110: 0078 d4be 60cd c33e a4e3 e63e f87e 06bd
00000120: 9d00 5cbd f06a 4f3e a2bb b7be c617 d6be
00000130: aa80 09bd 18f5 d6be ab46 48be 9fd7 983e
00000140: 366a f33e fe82 4ebd bc68 453e c72a cdbd
00000150: 4f74 583e fa60 2e3e 2d11 ef3e 5a10 2c3e
00000160: d91d 663e 2908 993e d948 07be 2c33 c53e
00000170: 538e d2bc 251e b6be d983 393e 6101 0bbe
00000180: c6f3 f5be 62ad 6fbe dd56 a73e b118 f8be
00000190: 1430 dcbe b703 a73e c9ab ae3e 8d9a 333e
000001a0: 6148 ebbd 8d79 8fbe 4654 d1be c71f 8cbe
000001b0: 20c1 db3d c7f4 ab3e 627d fbbe 9b83 a2b8
000001c0: 7c4d dcbe ab33 ee3d 29b5 1bbe 5fb2 c93e
000001d0: 73d8 cdbb 3b68 f13e 0a93 683d cb72 a13e
000001e0: a521 603e 6ec7 f1be 8b11 69be bd93 afbe
000001f0: a01e 4dbe b5ec c53e 34a5 d0be 3a92 e93e
00000200: b9b9 3abe e2f9 9d3e a0e9 aa3e 2a3f e1be
00000210: bac5 273e bf18 c63e 3e4c 31bd 9e99 f93e
00000220: 8d6f 96bd 8ccf ca3e a07f e13e f7f6 563e
00000230: 14c1 f8bd 54fe ca3d 7d99 ea3e 0a56 c7be
00000240: 91fd 1abe 02ed b13e 15bc cdbe 0454 db3e
00000250: 34cc 3a3e 52cb df3e ff3c 40bc 2785 773e
00000260: d5f6 a4be 5c4b 863c eb3a d4be 0483 e03e
00000270: 1117 ff3e 09f4 833e 71af 7a3d 481f bfbe
00000280: 4982 db3e ee5a c23d babc f9be b298 f53d
00000290: 33ec 8dbb 0c47 db3e f5f9 a03e 17d4 c1be
-0.06175858 0.3160126 0.40518585 -0.2741992 -0.28479296 0.036780283 0.36338893 0.010627041
-0.37320125 0.17203365 -0.1259326 0.09732937 0.041207656 -0.041007955 -0.42933005 0.18274966
-0.3277665 -0.40806255 0.18863255 -0.46072748 0.29587787 0.25460842 0.36283612 -0.18491176
-0.45622444 -0.07296768 0.37516785 -0.39006916 0.07673469 0.053155288 0.4285073 -0.29975402
-0.2164318 0.3925028 -0.43174797 0.2886988 0.17817408 -0.059660472 0.22860578 -0.120058976
0.2681914 0.034390207 -0.23836936 -0.40571102 -0.051596034 0.052227408 0.39944905 -0.21709767
-0.21973614 0.04995473 0.17273472 0.36888388 0.015679311 -0.18403278 0.23521562 0.13668601
-0.1179644 0.331764 0.24110651 -0.2618259 0.37265807 0.3120392 -0.1025653 -0.37771857
0.31887916 0.29338047 -0.28637958 -0.46161094 -0.41497803 0.38242626 0.4509555 -0.03283593
-0.053711522 0.20255637 -0.3588534 -0.41815013 -0.03356997 -0.41983867 -0.19558208 0.29852006
0.4754197 -0.050417893 0.19278234 -0.10017925 0.21138118 0.17029181 0.46692792 0.16803113
0.22472323 0.29889038 -0.13211383 0.38515604 -0.025702631 -0.35569873 0.18116702 -0.13574745
-0.48037547 -0.23405984 0.3268346 -0.48456338 -0.4300543 0.32620022 0.34115437 0.17539425
-0.114884146 -0.28022423 -0.40884608 -0.27367994 0.10730195 0.33585188 -0.49119097 -7.7492754e-05
-0.43027866 0.11630949 -0.15205826 0.393939 -0.0062819063 0.47149834 0.056780852 0.31532893
0.21887834 -0.47222465 -0.22760598 -0.34292403 -0.20031214 0.38657156 -0.4075104 0.45619375
-0.1823491 0.30854708 0.33381367 -0.43993503 0.1638402 0.38690755 -0.0432856 0.48750013
-0.073454954 0.3961147 0.44042683 0.20992647 -0.12146202 0.099117905 0.45820227 -0.3893283
-0.1513579 0.34751135 -0.40182558 0.42837536 0.1824196 0.4370981 -0.011733293 0.24171887
-0.32219568 0.016393356 -0.414512 0.43849957 0.49822286 0.25772122 0.06120247 -0.37328553
0.42872837 0.0949 -0.487768 0.11992015 -0.0043311357 0.42827642 0.31440702 -0.37857124

weight_hh_l0 f4 [12, 4]
00000000: 142d 4c3e 8fca dfbe 6dbf 0a3d 0ce6 62be
00000010: ca04 11bc bbbe e33d 8a14 98be c367 90be
00000020: 21cc a83e b7da 99be 0fa2 53b8 04d5 d6be
00000030: d1b6 90be 1486 e43e 6b8a 84be 0e40 12be
00000040: 8932 8abe 83cc abbe d8a2 6cbe 5d9e b3be
00000050: 6cc7 b53e 1901 fe3e 6153 26be 8e4e 98b9
00000060: 173a c8be 861d 21bd 3404 60be f007 913e
00000070: bd51 d53e f337 e83e c695 01b8 d1d9 14be
00000080: 618a a2be 86ef 533e 489d d53e 7820 84be
00000090: 7ca1 a43e c80b fa3d f1f0 0a3e a638 e13d
000000a0: 6db3 573e 790b 893e 18ab c33d 7b59 e63e
000000b0: d8e9 80be 9fed c03e 8685 d73e 9e6c 9b3e
0.19939071 -0.43709227 0.033873964 -0.22158068 -0.008851239 0.11120363 -0.2970317 -0.28204164
0.32968238 -0.3004968 -5.045725e-05 -0.41959393 -0.28264478 0.44633543 -0.25886855 -0.14282247
-0.2699168 -0.33554468 -0.23108995 -0.3508176 0.3550371 0.49610212 -0.16242744 -0.00029050227
-0.3910682 -0.039334796 -0.21876603 0.28326368 0.41663924 0.45355186 -3.0895484e-05 -0.14536215
-0.317462 0.2069684 0.4172156 -0.25806022 0.32154453 0.12209278 0.13568474 0.10997133
0.21064539 0.26766565 0.09554118 0.44990143 -0.2517841 0.3768129 0.42094058 0.30356306

bias_ih_l0 f4 [12]
00000000: 3384 0b3e 6041 d7be 4f56 1fbe 699a febe
00000010: e883 e3bd 0756 44be ef7f a3be 6806 aabe
00000020: c312 023e 56fc 32be f37b a53e 0041 36be
0.13624649 -0.42042065 -0.15560268 -0.4972718 -0.111091435 -0.19173442 -0.31933543 -0.33208013
0.1270247 -0.17479071 0.32321128 -0.17798233

bias_hh_l0 f4 [12]
00000000: b8dc 81be cc42 723e 6a6e 8c3e 606c e13d
00000010: 15b6 10be eccb 133d d660 9a3e 4e33 cebe
00000020: 7536 0dbd ae56 f1be 6bc5 69be 7a7a e03e
-0.25363708 0.23658293 0.2742799 0.11006999 -0.14131959 0.036083147 0.30152005 -0.40273517
-0.034475762 -0.47136444 -0.22829215 0.43843442

weight_ih_l0 f4 [12, 24]
00000000: 9938 a03e 05c2 453d d1fa e63e cfa0 03be
00000010: 8725 e6be 351c 87be 2e94 273e 0e7a 8fbe
00000020: c1d7 3ebe a422 39be deb6 5f3d 6728 e03e
00000030: 9176 60be 3947 f4be 5b49 86be 5c7a a93e
00000040: 6df8 ca3e 65ef aa3e b733 923d b065 4a3d
00000050: fbc8 06be f82d 8a3e a07f cfbe 58a0 b4be
00000060: a578 4a3e dfcc 0fbe 5351 3b3d 7cb5 bebe
00000070: 5803 083e 3508 37be 56f3 87be 5bf3 8c3e
00000080: 9003 46be 25a0 c5bd 6a66 fbbe a7e1 b53d
00000090: 8642 5abe 52b5 ebbe 678e 6e3e abab 61be
000000a0: 39db ddbd da77 0ebe 0675 f5be 0adf f13e
000000b0: d4f7 243d 2ece bbbe 7bec 43bd fa0e b53d
000000c0: fde2 a7be f593 31be 196e e93d 99f8 e4bd
000000d0: d1c0 22be b605 a93d 727a 533e 3ea3 f13b
000000e0: 752e ebbd dce4 c03e 1268 f6be bf01 4cbc
000000f0: 21a1 b83e 97ba cbbe 4be8 993e fd31 a13c
00000100: a928 993e 413f d83e 8edd 91be 277c db3d
00000110: 75b7 6c3e 1d24 ad3e 9668 d53d a4dc a7be
00000120: ad89 b63e 73b9 66be e21c b13e 9d46 a33e
00000130: ba53 8cbc 2686 98bc 0aab 90bd 76fa e4bd
00000140: bf7b 933d 6eaf 4bbe 6543 a7bd a041 f7be
00000150: eccd eb3e 9e09 a83e 50a8 f83e 7f61 0ebe
00000160: 07eb 903e 0f4f c23e 9496 1f3e 8815 cebe
00000170: 7f48 aabe 3cfe a33e 3090 6abd 96f1 1d3d
00000180: 7885 3d3e 66cc 6bbe 878a 9d3e c329 e5be
00000190: b9bb c6be db28 efbe 1b64 f93b f716 1e3e
000001a0: 5d91 7bbe d8a7 c8be af9f f1bd f72f 41be
000001b0: 35f3 cdbc cbc9 793e 26e6 913e 6305 483d
000001c0: 90f4 ad3e 7c20 ebbe 096e ca3e 2a74 84bc
000001d0: 855a d83d 64f7 633e e22c e4bc fdc5 7a3e
000001e0: 9fa4 893d 3aad dc3e 4105 acbd 7728 b23d
000001f0: a977 0b3e 21b8 d8be 3927 ed3e 551f db3e
00000200: 84ef 7dbd 35fd 4ebe c8da bd3d 0241 c23e
00000210: ff4f 88be 61dc 983e 1fa8 3fbc 6230 cebe
00000220: 7864 0b3e 877c 0e3d 20bf f1bd d142 8cbe
00000230: 1063 ca3b 215f abbe cdaf 813d 7ea0 23bd
00000240: 583b b83d 6339 9a3e bd1e 0fbe 9df0 81be
00000250: 5bc4 353c 3c3b e3be 4351 a338 99af a43d
00000260: 2510 54bb 700f eabe 0dac 6b3e b22d a5be
00000270: 3746 3e3e 8081 a43c feea 81be 7b31 9a3e
00000280: 8046 0bbd 785d 59be 72f2 623e 406b 4c3e
00000290: ef23 33bd ff76 023e 995a e13e d2be 29be
000002a0: f9a2 033d de7b 803c ef2d b53e 42c5 f33d
000002b0: a271 963d 79ca fabe c4c4 b03e 27d5 ab3e
000002c0: 0625 983e e6d3 233e 97c4 babe 9978 c53d
000002d0: 7359 8e3d 848d e1be 4207 9ebe fd1b 9f3e
000002e0: a0e0 c73e 018b 0d3d 6399 c53d 9043 653e
000002f0: c9c3 f5be 5e15 5ebe b917 94bd 9399 78be
00000300: 913b cabe a951 863e 87ed f73e 50e7 3d3e
00000310: 05ac cbbd c4ab 443e 0f78 f7bd fe9b 383e
00000320: 3fe6 c7bd 46d1 ffbd 04d2 76be 1e65 3c3e
00000330: 4f1e c63d 33e7 3fbe a37b d1be da29 9cbe
00000340: d752 963e 6697 dabe f211 f1be 4f56 d03e
00000350: 6ef8 de3d 8954 45bd 9180 b3be 97d8 2fbe
00000360: 2521 8dbe 45c2 42be 3f4c 74be 3fa2 8cbd
00000370: 8cb6 1e3e 4799 a7be 5a0c edbe e97b d3be
00000380: ec1d a0be 9b3e 993e 73f4 a1be c5e9 d23e
00000390: 2a15 a83e 7024 fcbe 83fc 67be 9d40 a33e
000003a0: 1317 10be 8c8c c03e 8ad9 edbe 98f6 b03e
000003b0: 490d ab3e 440e 3abe f7f3 9d3e 32f2 a0be
000003c0: 60a2 143e d851 c93e d536 723e d8e8 f0bd
000003d0: 3785 19bd d9ee eb3e d948 663e 9c84 d53e
000003e0: 763c ccbe c836 b43c 322d 96be 8fd6 f33e
000003f0: e4ae bebe 26f3 28be 8f81 c5be 7f74 30be
0.3129318 0.048280735 0.45113233 -0.12854312 -0.44950506 -0.26388708 0.1636512 -0.28022808
-0.18636991 -0.1807962 0.054617755 0.43780825 -0.2192023 -0.4771059 -0.2622784 0.33101165
0.3964266 0.3338577 0.0713877 0.049413383 -0.13162605 0.26988196 -0.40527058 -0.35278583
0.19772585 -0.14042996 0.045731854 -0.37247837 0.13282526 -0.17874224 -0.26552838 0.27529415
-0.19337296 -0.09649686 -0.49101573 0.088809304 -0.21314439 -0.46036774 0.2329651 -0.22038142
-0.10832829 -0.13912907 -0.47940844 0.47240478 0.04027541 -0.3668074 -0.047832947 0.08840747
-0.32790366 -0.17341597 0.113979526 -0.11180229 -0.15893866 0.082530424 0.20652178 0.0073741963
-0.1148347 0.37674606 -0.48126274 -0.012451588 0.36060432 -0.39790794 0.30060038 0.019677157
0.29913834 0.4223576 -0.28489345 0.107170396 0.23116858 0.33816615 0.10420339 -0.32785523
0.35651913 -0.22531681 0.34592348 0.3188981 -0.017129768 -0.018618654 -0.07063873 -0.11180584
0.07201337 -0.1989114 -0.08167151 -0.48292255 0.46055543 0.32819837 0.48565912 -0.1390438
0.28304312 0.37950942 0.15584785 -0.40250802 -0.33258435 0.32029903 -0.057266414 0.038560472
0.18507946 -0.2302719 0.3076975 -0.44758424 -0.38815096 -0.46710858 0.0076108105 0.15438448
-0.2456717 -0.39190555 -0.11798035 -0.18865953 -0.025140384 0.24393384 0.28495902 0.048833262
0.3397565 -0.4592322 0.39537075 -0.016168673 0.1056414 0.22262341 -0.027853433 0.24489589
0.06720852 0.4310091 -0.083994396 0.08699124 0.13619865 -0.4232798 0.46318987 0.42797342
-0.061995998 -0.20213778 0.09270245 0.37940222 -0.26623532 0.29855636 -0.011697798 -0.40271288
0.13612545 0.034786727 -0.11804032 -0.27394727 0.00617636 -0.33471015 0.063323595 -0.03994798
0.08995694 0.30121908 -0.1397657 -0.25378886 0.011094178 -0.4438113 7.787582e-05 0.08041305
-0.0032358256 -0.45714903 0.23014851 -0.32261425 0.18581472 0.020081282 -0.25374597 0.30115876
-0.03400278 -0.21227062 0.22162798 0.19962788 -0.04373544 0.12740706 0.44014433 -0.16576698
0.032137845 0.015684064 0.35386607 0.11902858 0.073458925 -0.489826 0.3452512 0.3356106
0.29715747 0.15998802 -0.3647811 0.09642143 0.06950655 -0.4405328 -0.30864912 0.3107604
0.39038563 0.034556393 0.09648397 0.22389054 -0.48000935 -0.21687838 -0.07231087 -0.24277334
-0.3949857 0.26234177 0.48423406 0.1854527 -0.099449195 0.19206148 -0.12083446 0.18028256
-0.09760713 -0.124910876 -0.24103552 0.18397948 0.0967375 -0.18740539 -0.4091464 -0.3050068
0.29360077 -0.42693633 -0.47084004 0.40690848 0.10887228 -0.048176322 -0.35059026 -0.17172466
-0.2756435 -0.1901942 -0.2385721 -0.068668835 0.15499324 -0.3273413 -0.46298486 -0.41305473
-0.3127283 0.29930577 -0.31631812 0.41193977 0.32828647 -0.4924655 -0.2265492 0.31885234
-0.14071302 0.3760723 -0.46455032 0.34563136 0.33408573 -0.18169504 0.30850193 -0.3143478
0.14515066 0.39320254 0.2365373 -0.117631614 -0.03748056 0.46080664 0.22488727 0.41702735
-0.39889878 0.021998778 -0.29331356 0.47624633 -0.37242806 -0.16499004 -0.38575408 -0.1723194

weight_hh_l0 f4 [12, 4]
00000000: d1b5 0d3e d78f f5be 028d 403e 3fe2 9abd
00000010: ac0b 843d 878c 89bd 596b 26bd 939f b9be
00000020: 2e9a 673b 09d9 ea3e 899b c83e 12cd d3be
00000030: ff4d f1be c23b f83d 8f56 a53e d63b 8f3d
00000040: 5abe ae3e 3fad 343e 74df 22bd 4cad f33e
00000050: c0bd 96be 904e cebe e015 cd3d 0c42 22be
00000060: f252 8d3e a0f7 d9be efe8 453e a587 e03d
00000070: 7d69 303e 6935 80be 651c 8f3e f641 afbb
00000080: 2c25 bebc 640f fdbd e6d1 f33e bff5 133e
00000090: f408 b1be c7f7 c13e 7259 4a3e 2bfc e53e
000000a0: 4de0 623e 8682 98be 57a7 483e 0826 e03e
000000b0: 7805 84bc dfaa d43e cd8f 733e 7bc0 c33e
0.13838889 -0.47961304 0.1880379 -0.07562684 0.06447539 -0.067162566 -0.04062972 -0.36254558
0.00353397 0.4586871 0.39181164 -0.41367394 -0.4712982 0.12120773 0.322926 0.06993835
0.34129602 0.17644213 -0.039763883 0.47593153 -0.29441643 -0.40294313 0.10013938 -0.15845507
0.27602345 -0.42571735 0.19327138 0.10963372 0.1722774 -0.2504075 0.2795135 -0.0053484393
-0.023211084 -0.12356451 0.47621077 0.14449213 -0.34577143 0.37884352 0.19760683 0.4491895
0.22155876 -0.2978708 0.19595085 0.43779016 -0.016115889 0.41536614 0.23785324 0.38232788

bias_ih_l0 f4 [12]
00000000: 602b 083e 9ec0 00be 994f d23e 2c91 ed3e
00000010: e5e8 8e3d 6d1d adbd a590 6abe 8730 9f3e
00000020: f851 a8be 5472 c03e 3c75 76be ce76 9c3e
0.13297796 -0.12573478 0.41076353 0.4639982 0.06978015 -0.08452878 -0.2290674 0.3109171
-0.32875037 0.37587225 -0.24068159 0.3055939

bias_hh_l0 f4 [12]
00000000: d10e 21be c311 a6bc 637e 66bb 00b8 dfbe
00000010: c9b8 053e ac0c d43e ae22 c53e c859 98be
00000020: 9404 ba3e 2361 f2be 678b 583e 86fa efbe
-0.15728308 -0.020272141 -0.0035170547 -0.43695068 0.13058771 0.41415918 0.3850302 -0.29755998
0.36331618 -0.47339734 0.21146928 -0.46870822

weight f4 [4, 4]
00000000: bac0 073e 1e97 093e e52f bd3c e0ac eb3e
00000010: fb7e 943e 4887 81bd 3ae2 3dbe 27ce 4d3e
00000020: c0dd 4dbd a95d 1abe 38c0 63be b6ce 2e3c
00000030: 0293 f43e 4dab ca3e 5a3e e9be 79a7 f93e
0.13257113 0.13436553 0.023094127 0.4603033 0.29003128 -0.06324631 -0.1854333 0.20098172
-0.050260305 -0.15074791 -0.22241294 0.010669401 0.47768408 0.39583817 -0.45555383 0.48760584

bias f4 [4]
00000000: 4c09 a63d 98c8 bc3d 6b8f d93e 60c4 633e
0.08107242 0.09217948 0.42492232 0.2224288

weight f4 [320, 8]
00000000: 2f94 2dbc 507c fbb8 2fa6 983e 2ed7 06bd
00000010: 9dc7 0a3e 4761 e3bd 7192 7fb7 dca7 9dbd
00000020: 6633 453d cea0 e4bd 36bf 49be 9e7e 683e
00000030: 6eb4 d6bd 6e2f 063e 7275 b4be 5fb2 70be
00000040: 00df a63d 8c9a 4a3e 5eb9 5c3e 6f48 913e
00000050: ceec ae3e ae26 e93d a490 7cbd 5c36 003d
00000060: 4d15 82be 5808 963e 89fb 23be bf45 98be
00000070: f748 b0bc fc5a 04be 9883 f3bd 10cb 063e
00000080: 4bc4 8d3e bfb4 373e b02a a2be f60f dcbd
00000090: 7fd5 eebc 5b96 c63d 5623 40be d705 88be
000000a0: d9ab ee3b 3a42 493e 89f4 fa3d d83b 973c
000000b0: 1fca 51b8 456a 9abe 60c4 cb37 1ddd a13d
000000c0: ed82 c23d dff6 87be 5625 2b3e 2050 803e
000000d0: 0fbd 763e b27f 7abd 2f35 943e dcf9 813e
000000e0: dfe3 a0bd 38ba 443e 12f8 58be 6c10 83be
000000f0: 4b44 a83d ec8b 91be afd0 82be 0c6b 8fbd
00000100: 799d 843d 5179 87bd f1f2 56b8 a268 6d3e
00000110: cc2b 4d3e e86a 2db9 e380 823e 7a76 83bd
00000120: 1b1a a03e 62cd 80be 50f5 9c3e dfc2 233e
00000130: c061 9a3e 8d80 99bb 7cee 62be 9334 433e
00000140: 2f53 363e 3711 863e 5b6a c4bd a256 7b3d
00000150: c60c 0fbe e9c1 5d3e b2f2 e5bd ebb2 afbe
00000160: 3d42 353e a02e 36be b0d6 a4be a535 4d3e
00000170: 9a57 813d 0ba3 ae3e 3a74 cb3d 2175 be3d
00000180: 103f 533e d174 fe3c cda1 823e c11c 0d3e
00000190: f3ce 8b3d c57b 2e3e 9405 14be 57e1 c7bd
000001a0: 1e40 353c c70a a1be 1f14 4ebe 41e9 80be
000001b0: 2a4d 4bbe 299e 133e 4b57 d03d b8fe c2bc
000001c0: 503c 07bc bd5f f93d 0183 41be 535b 92bd
000001d0: 9344 79be 1fe8 a5be 699e 903e dca5 8b3e
000001e0: 5fff ea3c d6b4 4f3e 6a48 9bbe 8573 903e
000001f0: 0eb3 2bbe 1f3c ba39 6eb4 a23d 810d 41bd
00000200: be6d 173e db82 d13d 8204 98be 6a9d b33c
00000210: 9bf2 2fbc f4b9 6e3e 91e6 9cb8 5743 633d
00000220: cfbe 6ebc 5bfa a7bd 0472 5ebe 8e2e 9ebe
00000230: c039 ae3e b5b0 c83d 6b56 18be 9d24 eb3d
00000240: 96f8 f13d 501f 6f3e 7507 8c3e a88f 863e
00000250: a943 17be c2f3 993e 83d2 25be 3276 763d
00000260: 829e 60be 4acf 0e3e 581f 6abe 8e95 97be
00000270: cb3c 8f3e e57f 993e 74df 253e ffeb 763c
00000280: 926e bbbd f659 3f3d 779e e5bc 334f 2abe
00000290: 4ee1 4abd db84 97bc 96f4 1b3d 4998 cdbd
000002a0: 022c f93a 4e9d 8c3e 1e68 913d 7248 883e
000002b0: 4f61 5e3e 3d83 12be 33c2 483e f679 243e
000002c0: e70e de3d 89c3 8cbe 7301 95be 94ea f5bd
000002d0: 9723 7e3e 2430 a4be 0f98 26be 464b 00bd
000002e0: 1a32 10be fa23 5bbe 67db 033e 13c1 64be
000002f0: 2f88 073e 01e3 a33e 3c55 923d a02a 03bc
00000300: c300 e2bd af9c 013e c419 8b3e 7b97 21be
00000310: afbb 5d3e 6f57 913c eb57 a5be 9070 a2be
00000320: b607 2a3e 73e2 9fbe c169 623e 9877 703e
00000330: 9ab4 8dbd 2ba4 7d3e fc20 58be 4bfe ae3e
00000340: 4ad0 92be b85a e33c 1fed 3bbe 01da 853e
00000350: 4cb4 a0be 69eb 86be 32bf 73be cd31 1ebe
00000360: 409a 94bd 4407 633c a8a9 27be e492 47be
00000370: 465a 5a3e 00bb 1b3e 5ebc 853e 4a74 f8bd
00000380: 57c5 973d a7c2 44bd cae5 75bd 39f0 893d
00000390: ca67 c33d ca5c 8bbe f056 21be e653 313e
000003a0: 340d 9cbc 802f a93e 0eae 80be 42ea 543e
000003b0: 72b8 273e a594 54be 23ed 9a3e 3d47 b13e
000003c0: 40d6 77be a4bc 1b3e 1483 5dbd 68a1 a1be
000003d0: 5b8a d5bd 4b55 903e edf3 87be 6c92 94bd
000003e0: 0565 2f3e 94ee 373d 576a 8b3b 231b 2f3e
000003f0: 9e48 efbd 1778 a83e d3a2 5d3e 6b23 03be
-0.010594412 -0.00011991768 0.29814288 -0.032920055 0.13552709 -0.111025386 -1.52332805e-05 -0.07698032
0.04814472 -0.111634836 -0.19701847 0.2270455 -0.10483633 0.1310403 -0.35245854 -0.23505543
0.081480026 0.19785517 0.21555087 0.28375575 0.34165043 0.11384331 -0.061661378 0.03130184
-0.25406876 0.2930324 -0.16013922 -0.29740712 -0.021519167 -0.12925333 -0.11890334 0.131634
0.27688822 0.17940043 -0.31673193 -0.10745232 -0.029154537 0.09696647 -0.1876348 -0.26566955
0.0072836694 0.1965417 0.12253673 0.018461153 -5.0017723e-05 -0.30159202 2.429093e-05 0.07903502
0.09497628 -0.26555535 0.16713461 0.2506113 0.24095558 -0.061156936 0.28946826 0.2538594
-0.07855963 0.19211662 -0.21188381 -0.25598466 0.08216151 -0.28427064 -0.25549838 -0.070028394
0.06475348 -0.06614936 -5.1247833e-05 0.23184446 0.20036238 -0.00016538391 0.25488958 -0.06419082
0.31269917 -0.25156695 0.3065591 0.15992306 0.30152702 -0.004684514 -0.22161287 0.19063024
0.1780517 0.2618501 -0.09590598 0.061361916 -0.13969716 0.21656002 -0.11227931 -0.3431619
0.17701049 -0.17791224 -0.32195044 0.20039995 0.06315537 0.34108767 0.09934278 0.09299684
0.20629525 0.031061562 0.2551407 0.137805 0.06826582 0.17039402 -0.14455253 -0.09759777
0.01106265 -0.31453535 -0.20124863 -0.2517796 -0.19853655 0.14415802 0.101729 -0.0238031
-0.008254126 0.12176464 -0.1889763 -0.07146325 -0.24342565 -0.32403657 0.28245857 0.27274978
0.028686224 0.20283827 -0.30328685 0.28213134 -0.16767523 0.00035521478 0.079445705 -0.04713202
0.14787957 0.10230037 -0.2969094 0.021925647 -0.010738994 0.23313123 -7.481606e-05 0.055484142
-0.0145718595 -0.082020484 -0.21723181 -0.30894893 0.34028435 0.09799329 -0.14876716 0.11481593
0.11814992 0.23351789 0.2734944 0.26281476 -0.14771904 0.30068785 -0.16193585 0.060171314
-0.21935466 0.13946262 -0.22863519 -0.2960629 0.2797607 0.29980388 0.16198522 0.015070914
-0.09151949 0.046716653 -0.028029663 -0.16631775 -0.049531274 -0.018495968 0.038075052 -0.10038812
0.0019010308 0.27463764 0.07099937 0.2661777 0.21716808 -0.14307876 0.19605331 0.1606215
0.10842686 -0.2749293 -0.29102668 -0.12007633 0.24818264 -0.32067978 -0.16268943 -0.031321786
-0.14081612 -0.21400443 0.12876664 -0.22339277 0.13235544 0.32009128 0.071451634 -0.008005768
-0.110353015 0.12657426 0.27168095 -0.15780441 0.21653627 0.017741887 -0.3229364 -0.31726503
0.16604504 -0.31227455 0.22110654 0.23483121 -0.06919213 0.24769656 -0.21106333 0.34178385
-0.28674537 0.027753219 -0.18352173 0.26142886 -0.31387556 -0.2635148 -0.23803404 -0.15448685
-0.07255983 0.013856713 -0.16373312 -0.19489628 0.21323499 0.15208054 0.26120275 -0.121315554
0.074106865 -0.048037197 -0.060033597 0.06735272 0.095412806 -0.2721923 -0.1575582 0.17317161
-0.019049264 0.33044052 -0.25132793 0.20792487 0.16378954 -0.20759828 0.30259046 0.34624663
-0.24202824 0.1520868 -0.054080084 -0.31568456 -0.1042678 0.28190073 -0.26553288 -0.0725449
0.1712838 0.04490526 0.00425462 0.17100196 -0.116837725 0.3290412 0.21644144 -0.1280648

bias f4 [320]
00000000: 4e7a 6cbe 7716 983e 9c09 e43d 05ec 56be
00000010: 35f0 0bbe ce72 9bbe e0f8 a43d 79bd 97be
00000020: 0226 81be 3622 ce3d 53d4 ad3e fcbf 843e
00000030: 329e b73c fd6d 2ebe 9666 493d 4f4d 98be
00000040: 8fec 91be 6d43 4ebd 00bb 733d dd21 0bbe
00000050: 95d0 90be 24a3 a3be 4db2 873e 80dc 11be
00000060: 43eb 4dbe e7bb bc3d 2325 0f3e 09e4 04be
00000070: 99f3 a83e 7b9e 8d3e bfd2 a53e f711 0a3d
00000080: 0974 b03c 7335 aa3e b2e7 4d3c 265a 05be
00000090: 5490 813d b3e9 e43d af5f 173e cb74 8dbe
000000a0: 886c 6d3c 63ac 3c3e 8d9a 373e 67ea 90be
000000b0: 1b14 073e 0112 ea3d 7ed0 0a3e c2da 46bd
000000c0: ad7d babd 86f2 f8bd 4833 a0bd badf 83be
000000d0: a75b 63bc eb5c ab3e 6195 e9bd 33ea 08be
000000e0: 60db 7c3e 1dd2 d43d ba49 af3e 271c 9b3e
000000f0: 09e5 7cbe 178b 223d cdfc f4bd 9799 72be
00000100: 65b9 8cbe a868 11be f89d 403e a9a2 ad3e
00000110: 4d7c 1a3e 8814 133d 7ef6 02be 1755 2ebe
00000120: 09e5 833e e98c 80be f99c 8fbd 2dfc 29be
00000130: e0a9 4d3e 2e50 72be 9e90 453e ccc3 80be
00000140: 3e8f 06bd fad2 ae3e 17ff 843e 365c 583e
00000150: abce 573e d416 c43d b1d5 6abd acba 42be
00000160: f965 273d 6d8e 23be 30da 5b3e e537 afbd
00000170: 5ca5 28be be8d c73d bae7 f93d 5f61 94be
00000180: 053d aabe 55b0 ac3e 9de0 b53e 5e3a 86be
00000190: f3cb 6fbc bf86 57bd d36a d63d 8eca 293e
000001a0: c6bc cd3d 11f1 8bbe 80ca 963c f83b 15be
000001b0: b561 32be fb47 28be 42bf bf3c b9d8 1fbe
000001c0: 9436 a23e 7653 453d 88ee 45be ff68 90be
000001d0: 6d9d a03e bde0 163c 303b e63d ebbb 803e
000001e0: 3cdc 9d3e 46d4 0abe 053d 5dbe 4f5c 533e
000001f0: 5bdb 58be e75e 73be 1c5d 74be d68d f2bd
00000200: d8aa 92bd c919 f13d 7917 efbd 8040 d83d
00000210: 31d7 8cbe 153b a73e 0410 52be 61c5 4fbe
00000220: a9a5 a83d 065f e6bd 3348 5dbd 230b cebd
00000230: 0da7 893e edc5 adbc 7bb6 4bbe ff00 08bc
00000240: 4a98 7bbd 9ae0 663d 8106 1d3d d41a 17bc
00000250: 3c8e 5dbe 4776 323e 2751 5f3e ba7f b9bc
00000260: 4c22 44be 01c0 09be 2af1 903e 0d41 10be
00000270: e4d8 9f3e 089a 063d d11b 5f3d d3ff af3e
00000280: 5ff6 b4bd f79b f3bd 1428 97be a085 92be
00000290: e942 8a3e 8ca8 ae3d 40b5 603e 9d50 a03e
000002a0: e9f4 1dbe 044a 12be 94ed b33d f835 bc3d
000002b0: 6e14 01be 9665 263e 2de9 42be 71b5 72be
000002c0: 5021 68be e862 67be f5ae 933e 3ceb 8fbe
000002d0: 6285 c33d 3373 a03d a752 053d 0e12 e43d
000002e0: 5738 23be 7768 95be 6f76 833e f606 c53d
000002f0: 12fa 783d 4a18 91be d4cf 543e 394d 933e
00000300: 3bba ed3c e3af e9bd c1ba 953e 47fc 0c3d
00000310: 0f79 dd3d d0d9 78be a061 9e3e 6d21 8fbe
00000320: 5a7a 68be ce71 aa3e c014 5dbe 25ac 6c3e
00000330: 093e fe3d 3b6d 0c3a 7039 0c3e 0a4e 8cbe
00000340: fe78 fbbd 6e44 aa3d 96b3 c93d cfa7 153d
00000350: 8165 463e 279d 8e3b 0a1f 6f3e 9f80 293e
00000360: e73e 9d3e afbe 00be 07ba 683e 86fc 77be
00000370: 7d78 1b3e e7d0 43be 7da4 243e 449c 40be
00000380: 8fc9 ae3e ca3f 66be bc5c 9c3e 80c1 dd3d
00000390: 5006 a9bd 9a85 16bd 1785 2fbe c916 9d3e
000003a0: 4430 e5bd 78da 68bd cf63 31be b8cc 91bd
000003b0: 843a 53be fc17 5d3e 7a1c 66be 893f 8e3e
000003c0: 2d13 2f3e 078e 5d3c 4df3 113e 2fcc 34be
000003d0: 17d8 713e d763 6ebe a7a4 2e3e 53f8 023d
000003e0: d4fb 15bd 1dbd f13b 6aec 8e3e 77d9 a1bd
000003f0: 452a 86be f908 56bd 2a2b 78be f843 333e
-0.2309353 0.2970464 0.11134645 -0.20988472 -0.1366585 -0.30361027 0.08055282 -0.29636744
-0.2522431 0.10065119 0.33951053 0.25927722 0.0224143 -0.17034145 0.0491701 -0.29746482
-0.28500792 -0.05035727 0.05950451 -0.13587137 -0.28284135 -0.31960404 0.2650322 -0.1424427
-0.20109276 0.09215527 0.1397901 -0.12977614 0.3299835 0.27659974 0.3238735 0.03370854
0.021539705 0.33243904 0.0125674475 -0.1302267 0.063263565 0.11177387 0.14782594 -0.27628168
0.014491208 0.18425135 0.1793005 -0.28303835 0.13191263 0.11429215 0.13556096 -0.048548467
-0.09106002 -0.12155633 -0.07822281 -0.25756627 -0.013876832 0.33469328 -0.11405445 -0.1337059
0.2469306 0.103916384 0.34235936 0.30294916 -0.24696745 0.039683428 -0.119622804 -0.23691402
-0.27485195 -0.1420008 0.1881026 0.33913162 0.1508648 0.035908252 -0.12789342 -0.17024647
0.25760677 -0.25107506 -0.07012362 -0.16600104 0.20084333 -0.23663399 0.19293448 -0.2514938
-0.03285145 0.34145337 0.25975868 0.21128926 0.21074931 0.095746666 -0.0573327 -0.19016522
0.040868733 -0.159723 0.2146995 -0.08555583 -0.1646933 0.09743832 0.122024015 -0.28980538
-0.3324968 0.3372828 0.3552293 -0.26216406 -0.014636028 -0.05261874 0.10469594 0.16581175
0.10045771 -0.27332357 0.018407106 -0.14573658 -0.17420085 -0.16433708 0.023406629 -0.15610017
0.31682265 0.048175298 -0.19329274 -0.28205106 0.31370106 0.009208855 0.11241758 0.2514337
0.30832088 -0.13557538 -0.21605308 0.20640682 -0.21177427 -0.23766671 -0.23863643 -0.11843459
-0.07161492 0.11772496 -0.11674399 0.105591774 -0.27507928 0.32662264 -0.20513922 -0.20290138
0.08234722 -0.11248593 -0.054023933 -0.10060718 0.26885262 -0.021212542 -0.1989383 -0.008301019
-0.06142453 0.05636654 0.03833628 -0.009222705 -0.2163629 0.17427932 0.21808301 -0.022643913
-0.19153708 -0.1345215 0.28308994 -0.14087315 0.31220162 0.03286174 0.054469887 0.34374866
-0.08836054 -0.11894982 -0.29522765 -0.28617573 0.27004173 0.085282415 0.21944141 0.31311503
-0.15425457 -0.14286047 0.08785549 0.09189981 -0.1260545 0.1624969 -0.19034262 -0.23702027
-0.22668958 -0.22596323 0.2884442 -0.28109157 0.09546925 0.078344725 0.032549527 0.11136256
-0.1593946 -0.29181263 0.25676295 0.09620468 0.06078536 -0.28338844 0.20782405 0.28769854
0.029019466 -0.11410501 0.29244044 0.034420278 0.10814106 -0.24301839 0.30933857 -0.2795519
-0.22702923 0.3328995 -0.21589947 0.23112543 0.12414176 0.0005356853 0.13693786 -0.2740329
-0.12278937 0.08313833 0.098487064 0.036536988 0.19374658 0.00435223 0.23351684 0.16552971
0.30712053 -0.1257274 0.22727214 -0.24217424 0.15182681 -0.19122659 0.16078372 -0.1880961
0.34138152 -0.22485271 0.305395 0.10827923 -0.08253157 -0.036748506 -0.17140613 0.30681446
-0.111908466 -0.056848973 -0.1732323 -0.07119125 -0.2062779 0.2159118 -0.224718 0.27782848
0.17097159 0.0135226315 0.14252968 -0.17656015 0.23617588 -0.23280273 0.17054997 0.0319751
-0.036617115 0.0073772804 0.27914745 -0.07902806 -0.26204124 -0.05225465 -0.24235216 0.17506397

weight f4 [4, 320]
00000000: 552e 5db8 9cb8 50bc 5151 533d 1e09 1a3b
00000010: 2fcb 08ba 60bb 663b 83cb 7cbc f291 8e3b
00000020: b413 6438 2c64 4b3d 3352 0f3c 122b 22bd
00000030: 7598 833d 382f 30bc 1e59 0dbc de72 5db8
00000040: 778f ec3a fcdf cd3c eca5 41bc 01d1 023d
00000050: 47e5 66b8 a13f b3bc ba3a 133d a42d e03c
00000060: d4c1 803d 84a3 f6bc a6b0 383d e622 cdba
00000070: 1fcc 8ebc 6de8 653d da96 523d cfda 87bc
00000080: df57 593d a61d 143d d9ee 18bc e5eb 823d
00000090: 6605 6cbc 3426 ea3c 132c 79bc 19c4 5bb8
000000a0: 15c3 5fba 4280 60bc 7f0f 96bc d824 00b8
000000b0: 50dd 943c 90d9 8fbc 0e0b 19bc e32e 913d
000000c0: e854 8cbc 1967 59bd 4a4c 9bbc f9b7 2c3c
000000d0: d81f d6bc a437 c63c e11d 473d 8e60 543d
000000e0: 2d9f df3c eeba afbc b88c 103d 06b2 e13b
000000f0: 3429 02bd 2564 0cbd c791 803d fc75 633d
00000100: 18da aeba 0994 4db8 831c eebb fde6 3a3d
00000110: 3491 bebc 0dc0 f6bc 8fbd 813a ea37 33ba
00000120: cce1 d13c 69b8 dbbc 5134 133c 0df0 08b8
00000130: 858c 413d 13ea f03c 6136 4e3c 0605 eb3b
00000140: f709 5e3c f67b 263d 53b1 403d 63bf a5bc
00000150: 2565 03bc e761 513c c625 e03a 426a 2a3d
00000160: 9678 29bb 9b62 febc 102d e0bc 98f1 00bd
00000170: 8482 5338 c4f0 17bd 59b9 c63c de7b 89bc
00000180: 1169 5c3c 83ce 333d 7eb7 f83c 42aa 2439
00000190: 1e61 3dbc bcae aebc 1f38 d63b e5cc 853d
000001a0: ba51 28ba 5fd8 5db8 1581 3b3d 39be b23c
000001b0: 3489 15bb 86d2 19bc c645 373d 80c9 783d
000001c0: ced6 8abc f742 a5bc c73b 6038 cec7 b6bc
000001d0: 7c19 573d 2e78 02bd f380 8a3c 36f9 273b
000001e0: 9243 963d 9ccc 963c 891e 863d 91fa 15bb
000001f0: a2e0 d4bc 4536 493d d5f9 89bc 19aa 2abd
00000200: 030f fe3c 84f1 523c ca24 a73c 92c1 5ebc
00000210: eee3 f5b9 6fe0 ae3b 8eb7 6a3d ccf7 1f39
00000220: 1949 703d 57e8 5f3c 85f4 823d 5d2f 00bb
00000230: 9962 733d be28 113c 1a57 513d 9293 0c3d
00000240: f312 dd3a 19af 1d3d ebc4 723d ee82 de3c
00000250: 1f47 6eb8 f3e5 963d f4c4 053c d933 bfbc
00000260: e0f6 9fbc 5e55 55b8 e695 943c 4727 d3ba
00000270: 7f28 e43c 0180 ba3c d9f9 69bc 7630 7c3d
00000280: c289 b3bc df45 0638 27e7 18bd 439f c1bc
00000290: 3c4d cbba 562c 813d 2842 a23c 0f17 afbc
000002a0: d63c 1138 a04b 45bd 0bdb 323c dd94 c03a
000002b0: e045 573b 9344 12bd 3739 acba f803 10bd
000002c0: bead 10bb c53f 9138 3ba5 4e3d f8ff cdb7
000002d0: 3046 6f3c f580 563c 2113 8e3d 8779 253d
000002e0: cf46 b1bb d868 11bd cae9 7d3d 9111 26bd
000002f0: a93e 7bbc 3e46 473a 2941 f2bc b1f2 04bd
00000300: 021b 183d f043 1dbd 5995 97bc 3ce7 00bd
00000310: 09f1 173d f96e d0bb d87e 2dbc 2a15 45b8
00000320: e575 e9ba f151 543d c947 463d bafa 0e3d
00000330: bba6 71bc 3d4c a43c 95d3 7b3d 621e d53b
00000340: 2be6 55bc c4f3 013c 6862 2c3c 7d7c 16bd
00000350: ecc6 b63c 9b9f 1dbd e45e 3c3b 1a28 0e3d
00000360: c9b0 823c 815c a1bc 550e b6bc 9fa2 68b8
00000370: 0985 10bd 5250 30b8 8495 763b 070f 503d
00000380: 5e39 2d3d d9e0 3a3d 40dd 2a3b 30d3 843b
00000390: f33a ef3c cfd6 b93b 556a ecbc 0d9b 113d
000003a0: da26 28ba f108 1937 22fc 21b9 bf36 5eb8
000003b0: 7dab 6a38 151c 45bb 5822 fb37 de32 1dbc
000003c0: 37cd 983d f10f 00bc 743a 243b 48de ad3c
000003d0: 58ef 3d3d 683a 10bd c2c1 f0bc bc54 ab3c
000003e0: fd15 553d ed8d bb3b 834d 0f3d c8db d0bc
000003f0: 32dd 5138 aae1 12bc bfbf 5338 b775 8eba
-5.2733656e-05 -0.012739327 0.05159122 0.002350397 -0.0005218265 0.00352069 -0.01542938 0.004350894
5.4377786e-05 0.04965608 0.008747625 -0.039591856 0.06425563 -0.010753445 -0.008627204 -5.2797484e-05
0.0018048127 0.025131218 -0.011819344 0.031937603 -5.5049804e-05 -0.021880927 0.035944678 0.027365513
0.0628697 -0.030107267 0.04509034 -0.0015650659 -0.017431317 0.05612986 0.051413395 -0.016583828
0.053062316 0.036161087 -0.0093342895 0.063926496 -0.014405584 0.02858267 -0.015208262 -5.23963e-05
-0.00085358444 -0.013702454 -0.018317936 -3.055189e-05 0.018171936 -0.017559797 -0.009341015 0.07089021
-0.01713033 -0.053076837 -0.018957276 0.010541909 -0.026138231 0.024196453 0.04861248 0.051849894
0.02729758 -0.02145144 0.03529045 0.006887677 -0.031777576 -0.034275193 0.06277805 0.05553244
-0.0013340143 -4.9013677e-05 -0.0072665825 0.045630444 -0.023262598 -0.030120874 0.0009898412 -0.000683664
0.025620364 -0.026821332 0.008984641 -3.264849e-05 0.04725315 0.02940849 0.012586207 0.0071722297
0.0135521805 0.040645562 0.04704411 -0.020232862 -0.00801972 0.012779689 0.0017101101 0.04160524
-0.0025859228 -0.031052878 -0.027365237 -0.0314804 5.0427872e-05 -0.037094846 0.024258303 -0.016782697
0.013452784 0.043898117 0.030360933 0.00015703685 -0.011558799 -0.021323554 0.006537452 0.06533221
-0.00064208696 -5.2892017e-05 0.0457774 0.02181922 -0.0022817375 -0.009388572 0.044744276 0.06073904
-0.01694813 -0.020173533 5.3461434e-05 -0.022312071 0.05251454 -0.031852894 0.01690719 0.002563072
0.07337107 0.018408112 0.06548793 -0.0022884945 -0.02598602 0.04912402 -0.016842762 -0.041666124
0.031013018 0.012874965 0.020403285 -0.013595955 -0.00046899862 0.005336813 0.057303958 0.00015255733
0.05866346 0.013666234 0.06394295 -0.001955948 0.059420202 0.008859811 0.051108457 0.03432042
0.0016866609 0.038497064 0.059269827 0.027162042 -5.680986e-05 0.07368078 0.008164633 -0.023340153
-0.019526899 -5.086266e-05 0.018137883 -0.0016109728 0.027851341 0.022766115 -0.01428076 0.061569653
-0.021916274 3.2013162e-05 -0.03732982 -0.023635512 -0.0015510689 0.063072845 0.019806936 -0.0213733
3.4627352e-05 -0.048167825 0.010916482 0.0014692802 0.0032848045 -0.03570993 -0.001313961 -0.035160035
-0.0022076215 6.926017e-05 0.050450545 -2.45571e-05 0.014604136 0.013092269 0.06937242 0.0403991
-0.0054100524 -0.035500377 0.061990537 -0.040544096 -0.015334764 0.00076017145 -0.029572086 -0.03245801
0.03713513 -0.03839487 -0.018503832 -0.031470522 0.037095103 -0.006360885 -0.010589324 -4.698817e-05
-0.0017811625 0.051835958 0.048408303 0.03490708 -0.014749224 0.020055884 0.061481077 0.006503866
-0.013055365 0.007931653 0.010521509 -0.036739815 0.02231165 -0.03848229 0.0028743083 0.034706213
0.015953438 -0.01969743 -0.02222363 -5.5464563e-05 -0.035283122 -4.2036474e-05 0.003762574 0.05079558
0.042291038 0.045624588 0.0026071817 0.004053496 0.029202914 0.005671359 -0.028859297 0.03554826
-0.0006414481 9.1215925e-06 -0.00015448083 -5.297991e-05 5.594966e-05 -0.0030076553 2.9937524e-05 -0.009594647
0.074610166 -0.007816301 0.0025059255 0.021224156 0.046370834 -0.03521195 -0.029389266 0.020914428
0.052022923 0.005723706 0.03498603 -0.025495425 5.0035487e-05 -0.008964935 5.0484898e-05 -0.0010868822

bias f4 [4]
00000000: 448b 99bb f30b 643d f925 8dbc 9af5 693d
-0.004685791 0.05567546 -0.01723002 0.05711899

weight f4 [4, 8]
00000000: 44d3 7ebd b182 b93d 783f 493e cfc7 b9bd
00000010: a339 943e 0770 433e 3819 f0bc 572e 73be
00000020: f7d3 413e 9f30 5e3b 318c 153e d11d 49be
00000030: ee12 86be ee3c 0abd f687 a33d 3480 633e
00000040: b801 86be 2d5e b43d b902 443e 979a 01be
00000050: 729e aebd 54f5 d7bd 317b e93d 75c8 95bd
00000060: bce4 d0bd d92f b8be 2b6e 83bd 73f0 aabc
00000070: 3c5f ddbd d33b a5be ec30 973d ff4d 683c
-0.062213197 0.090581305 0.19653118 -0.090713136 0.28950223 0.19085704 -0.0293089 -0.23748146
0.18928514 0.0033903492 0.1460426 -0.1964028 -0.26186317 -0.033749513 0.07984917 0.22216874
-0.26173186 0.08807025 0.19141664 -0.12656628 -0.08526315 -0.105448395 0.1140045 -0.07313625
-0.101998776 -0.35974005 -0.06417497 -0.020866608 -0.1080918 -0.32272205 0.07382378 0.014178752

bias f4 [4]
00000000: 3400 03bd 0443 65be bf2a a63e 72fa 7c3e
-0.031982616 -0.22388846 0.32454488 0.24704912

weight f4 [4, 8]
00000000: 8d1f b03a 1b61 bfbb 974c 193e df73 803e
00000010: 0fa3 803e 2698 79b8 7d24 0b3e 7365 f2b7
00000020: 08d6 83be 9f92 8fbd f090 d9bd 9e85 80be
00000030: 23a6 fe3d ef78 3a3d c06c 2dbb b70f 493e
00000040: 31db 71bd 6c01 64be af44 453e a679 56bd
00000050: 3087 5bbe fbb6 713e b1dc 81be f85d 0d3d
00000060: b4aa a63e a0b9 86be 2f69 6e3e 52cd 92be
00000070: 169c 303e 9784 053a 17ae 92be bd20 df3c
0.0013437137 -0.0058404333 0.14970623 0.25088403 0.25124404 -5.9507925e-05 0.13588138 -2.8895889e-05
-0.2574923 -0.07010388 -0.10623348 -0.25101942 0.12434032 0.045525488 -0.0026462525 0.19634901
-0.059046928 -0.22266167 0.19264482 -0.052362107 -0.21438289 0.23604958 -0.25363687 0.034513444
0.3255211 -0.26313496 0.23282312 -0.28672272 0.17247042 0.0005093305 -0.28648445 0.02723729

bias f4 [4]
00000000: 2f6e 1fbe aa36 a23d 7cc2 88be 3b20 a2bd
-0.15569375 0.079205826 -0.2671088 -0.07916304

weight f4 [10, 2]
00000000: c8ac 0ebf 524a f63d 68d4 65be 0c3b c23d
00000010: 9202 12be bfe5 4a3e 964a 983e ee32 87be
00000020: 2eab 043f a78e 133f f094 90be 26b2 c4bd
00000030: 213c 2abd 6b03 103f 6e15 1dbf 7be0 103f
00000040: ff6b d0be 3294 263e 1511 863e 9e86 14be
-0.55732393 0.12025894 -0.22444308 0.094839185 -0.14258793 0.19814204 0.29744405 -0.26406044
0.518237 0.57639545 -0.2823863 -0.096042916 -0.04156125 0.56255215 -0.61360824 0.5659253
-0.40707394 0.1626747 0.26184908 -0.14504477

bias f4 [10]
00000000: a2da 243f b93d c5bd fe68 e6be 0779 2e3f
00000010: 8fe1 1abf af66 1cbe 94b7 8fbc ed81 31bf
00000020: 11a3 9dbe 3316 aabe
0.6439611 -0.09630913 -0.45001978 0.68153423 -0.60500425 -0.15273546 -0.017543592 -0.69338876
-0.30788472 -0.33220062

weight f4 [10, 2]
00000000: 9f32 d3bd d50c babe 55a6 91be bb64 853e
00000010: 727c 80bc 8f5b 0e3e 7a9a 2c3f 740d 27bf
00000020: 9d1c 463e 596a 91be 8779 e53e fa00 c83e
00000030: c84f da3e 6f86 bdbe 9f4e d6be 67c5 bf3e
00000040: 5fa1 b03e db30 e9bc 88ab e33e 0e4b 503d
-0.103123896 -0.36337915 -0.28447214 0.26053414 -0.01568434 0.13902114 0.6742321 -0.652549
0.19346853 -0.2840145 0.4481928 0.39063245 0.42638993 -0.37016627 -0.41856858 0.37455294
0.34498116 -0.028465679 0.44466805 0.050852828

bias f4 [10]
00000000: 39c1 8f3e 1c99 4abd d8a4 22bf 53a2 f8be
00000010: c20d 263f 0ba5 da3e 6634 88be 23b9 a63e
00000020: 848e 233e e30f 04bf
0.28077105 -0.049462423 -0.6353278 -0.48561344 0.6486474 0.42704043 -0.26602477 0.32563123
0.15972334 -0.5158674

weight f4 [20, 4]
00000000: 87c1 02bf e777 dabe 1284 943e 52ea 8c3d
00000010: 700a eabe 7dfb 86bc 23c6 94bc ff7f 5fbd
00000020: 795c 04be 65e1 843e 5755 b0be 10b1 bb3b
00000030: e988 d33d 980b 733e c81d b4be eec1 3cbe
00000040: 8df9 f8be 87d1 e33e 14b2 ae3e fe21 9e3e
00000050: 4a96 36be 02f5 a33d 00bc 353e 19e9 013e
00000060: 9757 e63e 4bf4 663e c49f c03e 9cb0 cd3e
00000070: 8c76 8c3e cbc9 f8be 8365 583e e5db da3c
00000080: 4d67 72be 8840 e3bd 1890 eb3e 6920 9bbe
00000090: 2e91 59be 0292 ba3e e2c2 aabe c3a4 e5be
000000a0: a6cf eebe 7317 cdbe 0ac0 8b3e afc8 4c3e
000000b0: eeb2 94be 09b7 eabe 6178 9dbe 0de4 bbbe
000000c0: c038 b83e d2ff 0dbe d52f 5ebe ae36 713e
000000d0: 806e 14bd 6acf 92be 84fd ee3d 5881 febd
000000e0: fed8 b83e ba2d 6cbe 705f 94be 1f71 edbe
000000f0: abd3 b2be 9430 953e b213 d3bd a46e ea3e
00000100: a1cf 0c3e 9cfd 2b3d ab85 d0be 9e20 dbbe
00000110: ad31 ce3e 014d 8ebe c0db 68be 58d4 ab3e
00000120: 9720 3c3d 8792 023f 631f febe c51f 9f3e
00000130: 88ef 9fbe 38d2 573e 2a55 d4be d3e7 bebe
-0.5107655 -0.42669603 0.29007012 0.068806306 -0.45711088 -0.01647734 -0.018160885 -0.054565426
-0.129259 0.25953212 -0.3444011 0.0057278946 0.10328848 0.23734891 -0.3517897 -0.18433353
-0.48627892 0.44495794 0.34120238 0.3088531 -0.17830768 0.08005716 0.17747498 0.12686576
0.449887 0.22554128 0.37621891 0.40173805 0.27434194 -0.48591456 0.21132474 0.026716182
-0.23672219 -0.11096293 0.46008372 -0.30298164 -0.21246788 0.3643952 -0.3335181 -0.44852266
-0.46642798 -0.40056953 0.27294952 0.1999843 -0.29042763 -0.4584277 -0.30755904 -0.36697426
0.35980797 -0.13867119 -0.21697934 0.23556015 -0.036238194 -0.2867387 0.11669448 -0.12427014
0.36103052 -0.23064318 -0.28979063 -0.46375367 -0.34927115 0.29138625 -0.10306491 0.45787537
0.13751079 0.041989908 -0.4072698 -0.42798322 0.40272275 -0.27793124 -0.22740078 0.33560443
0.045929518 0.51004833 -0.4963332 0.31078926 -0.31237435 0.21076286 -0.41471225 -0.37286243

bias f4 [20]
00000000: b77a 00bb a5b0 293e 62b2 9e3e 73b1 9bbe
00000010: 0460 5abe c982 7cbd ed0c 9ebe ee27 d8bd
00000020: 3e26 fb3e 8c8f ebbe 51a1 8c3e 2536 94bc
00000030: 011d d03e aae2 d63e 7138 8cbd 2882 2d3d
00000040: 598b 033e 569b e03e 5caa 683e 26de eebe
-0.0019604394 0.16571291 0.3099547 -0.3040882 -0.2132569 -0.061648164 -0.30869237 -0.10554491
0.49052614 -0.46007955 0.27466825 -0.018092224 0.40647128 0.41969806 -0.06846703 0.042360455
0.12846126 0.43868512 0.22721237 -0.4665386

G f4 [2, 1]
00000000: 0000 0000 0000 803f
0.0 1.0

m1x_posterior f4 [2]
00000000: 1c7a 6fbe ccf4 fabd
-0.23386425 -0.122537225

m1x_posterior_previous f4 [2]
00000000: 9f1a 0840 cb8c 07c0
2.1266248 -2.1179683

m1x_prior_previous f4 [2]
00000000: 00d4 0d3c 8084 cdbd
0.008656502 -0.10035038

y_previous f4 [2]
00000000: c079 e3be 40b8 04bd
-0.44428825 -0.032402277

KGain_array f4 [100, 2, 2]
00000000: c8fe 023f 9a39 873e 157c 0e3e 4473 163f
00000010: 79b6 fe3e adcb 8c3e 5c8b 043e c048 133f
00000020: 1da8 fc3e 28dc 943e 3a18 f63d 2852 183f
00000030: be24 033f 4982 753e e56c cc3d 2b33 1c3f
00000040: 58e5 fc3e ad6f 8f3e a9d0 083e a8a5 113f
00000050: 0c91 053f 2b36 8a3e a880 e53d fcf0 133f
00000060: 8336 133f 2839 623e 7f36 bf3d 6bec 0a3f
00000070: a5e0 0a3f f9de 873e d839 213e c94e 0c3f
00000080: 4ea2 0f3f fe04 713e b0a9 e13d 127c 073f
00000090: e571 0e3f b72a 7a3e d65e f73d 51a0 113f
000000a0: 301e 003f ae8f 733e 708c 043e b89b 0b3f
000000b0: 90b6 023f 2fa5 5e3e a696 f13d 6423 113f
000000c0: 61a5 063f 6f98 7f3e 68ff 163e 3b7e 0b3f
000000d0: 897c 0c3f 98fc 803e 7de1 063e 66cb 0f3f
000000e0: ac31 083f b11e 833e 0832 f13d 5ecb 153f
000000f0: e16c 0e3f b44b 6b3e 3447 ef3d 4f95 0b3f
00000100: 0b6c 103f 4242 853e ac5d 113e 7aa1 123f
00000110: c138 1c3f a445 513e c0f3 903d be7c 103f
00000120: 69fe 173f e483 813e b196 143e b7ac 0f3f
00000130: 822f 213f 762f 513e e428 7b3d 3f5b 0e3f
00000140: d8be 323f e9e1 5c3e 9636 913d 5787 1d3f
00000150: eaab 293f 1e46 693e 02e6 e23d a80e 103f
00000160: 673f 213f 7967 613e 0c27 cc3d 3dc8 0c3f
00000170: 63f8 1f3f 6f1a 5d3e ca37 863d 9bb2 093f
00000180: e282 213f 505f 6a3e 86ce ec3d 90a9 0b3f
00000190: 8a05 123f f1c1 6f3e c251 e03d a415 0c3f
000001a0: cd70 0e3f 9c68 643e 3c32 ef3d 19d6 023f
000001b0: edb8 0d3f e935 743e 74b5 ec3d 8bd6 0b3f
000001c0: 2448 0a3f 81a3 703e 8e3c 0f3e 60ac 023f
000001d0: fbad 103f 3999 6d3e 4284 e23d 8a20 103f
000001e0: b7c8 fe3e 8d4f 7a3e 0005 083e 3bdc 0a3f
000001f0: f1bf fd3e c72e 833e 136d 023e 4fa5 0d3f
00000200: 5791 f53e 8b0a 8a3e 5460 023e 3491 083f
00000210: 602c fb3e d069 943e 3e08 e43d aebc 0f3f
00000220: 78de 053f 582b 8c3e 733c 003e 890e 093f
00000230: f91a 123f 323d 693e ccf9 d33d 7ec0 0b3f
00000240: 1395 103f 4bcb 7e3e 4390 113e 1a6b 083f
00000250: 27d6 173f 132b 6d3e c44d df3d 5668 093f
00000260: 6bb8 283f 2793 583e 23d6 973d 3a16 123f
00000270: acc3 133f bdd0 713e 0804 023e 2d4d 0c3f
00000280: ff4e 0b3f fb20 5d3e 559f c43d 74bc 0a3f
00000290: 87ed ff3e 5bab 7a3e b2bc fc3d 2929 0a3f
000002a0: f58d 033f 49e0 763e 12b4 013e e116 fb3e
000002b0: 1de9 153f a334 683e 748e b23d d289 0a3f
000002c0: 8ce5 0a3f d8a7 7c3e ea4d 0c3e 49a7 053f
000002d0: a03a 103f 90be 653e afa9 b53d 2d40 0d3f
000002e0: 6738 0d3f 11d4 6f3e 7155 083e 15d9 063f
000002f0: 65b1 1c3f 5013 653e 8c5b a73d 9a25 0d3f
00000300: e36f 0c3f 0fcc 7d3e f4cc fe3d 9d9e 113f
00000310: c38c 093f 62ba 753e 8eb5 fd3d f567 fe3e
00000320: e54e 0d3f 6b56 773e 8c95 ee3d afb5 0b3f
00000330: 7a51 003f 2bea 713e eb30 023e dcd6 043f
00000340: 50b6 003f 0489 803e d57b d33d 3dff 0c3f
00000350: fd63 003f 0c1f 633e 2aef f43d 5923 103f
00000360: eb08 013f f961 7f3e 6c5a 0b3e 7b65 103f
00000370: 7ba9 0b3f 9449 643e 98ed e93d 0eae 133f
00000380: 561a 043f d87c 783e 4d18 043e a48b 123f
00000390: 1db0 073f a912 813e 43ec 093e 206c 073f
000003a0: e1ea 0e3f 3413 843e f02e 113e f744 043f
000003b0: baff 0d3f fc01 753e 2a2c ed3d 3b8d 0b3f
000003c0: e940 fd3e 2f85 7f3e ea8c 093e dd7a 093f
000003d0: 33c6 013f bf32 793e ed5a 043e 47ab 013f
000003e0: 17a4 0a3f a28f 873e 4c55 173e a297 013f
000003f0: 3b3c 163f b980 673e 5672 b43d ebee 083f
0.51170015 0.26411134 0.13914521 0.5876963 0.4974859 0.27499142 0.12943786 0.5753288
0.4934701 0.29074216 0.120163396 0.5950036 0.5122794 0.23975481 0.099817075 0.61015576
0.49393725 0.2801489 0.13360848 0.56893396 0.5217445 0.26994452 0.1120618 0.5778959
0.57505053 0.22092116 0.09336566 0.54266995 0.5424903 0.26537302 0.15744722 0.54807717
0.5610703 0.2353706 0.110186934 0.5292369 0.5564254 0.24430357 0.120786354 0.5688525
0.5004606 0.23785278 0.12944198 0.5453448 0.5105982 0.217427 0.11796312 0.56694627
0.525961 0.24960493 0.14745867 0.5448949 0.54877526 0.25192714 0.13171954 0.56169736
0.53200793 0.25609353 0.11777121 0.5851344 0.55634886 0.22978097 0.11683503 0.545247
0.5641486 0.26027113 0.14195889 0.57277644 0.610241 0.20436722 0.070777416 0.5644034
0.59372574 0.25295937 0.14510609 0.56122917 0.62963116 0.20428261 0.061318293 0.5560798
0.69822454 0.21570553 0.070904896 0.6153464 0.66277945 0.22780654 0.11079027 0.56272364
0.6298737 0.22012128 0.09968385 0.5499304 0.62488383 0.21592115 0.0655361 0.53788155
0.63090336 0.22887921 0.11562829 0.54555607 0.570397 0.23413827 0.10953094 0.5472052
0.5564087 0.2230553 0.11679503 0.5110794 0.553603 0.2384869 0.11558047 0.5462424
0.5401633 0.23499872 0.13987944 0.51044273 0.56515473 0.23202981 0.110603824 0.5629965
0.49762508 0.24444409 0.13283157 0.54242295 0.49560502 0.25621626 0.12736921 0.55330366
0.47962448 0.2696117 0.12732059 0.5334656 0.49057293 0.2898698 0.111343846 0.5614728
0.52292585 0.2737682 0.1252306 0.53537804 0.57072407 0.2277725 0.10350379 0.54590595
0.5647747 0.24882238 0.14215188 0.53288424 0.59311146 0.23160963 0.109035045 0.5367483
0.659064 0.21149884 0.0741389 0.57065165 0.57720447 0.23614784 0.1269685 0.5480526
0.54417413 0.21594612 0.09600703 0.54193807 0.49985906 0.2447943 0.12340678 0.53969055
0.51388484 0.24108995 0.12666348 0.49040893 0.5855883 0.2267633 0.08718577 0.5411655
0.5425651 0.24673402 0.13701597 0.5220838 0.56339455 0.22435975 0.08870255 0.5517605
0.5516419 0.2342074 0.13313843 0.5267499 0.6120818 0.22370648 0.08171758 0.551355
0.54858226 0.24784873 0.124414355 0.5688265 0.5373041 0.2399688 0.123881444 0.49688688
0.5519851 0.2415406 0.116496176 0.545741 0.50124323 0.23624484 0.12713973 0.5189035
0.50278187 0.25104535 0.103263535 0.5507696 0.5015257 0.22179812 0.119596794 0.56303936
0.5040423 0.24939717 0.13608712 0.56404847 0.5455548 0.22293693 0.114222705 0.5768746
0.51602685 0.24266374 0.12899895 0.57244325 0.530031 0.2520955 0.13469033 0.5289936
0.55827147 0.257959 0.14178061 0.5166773 0.5546833 0.23926538 0.11580689 0.54512376
0.49463585 0.2495315 0.1343266 0.537031 0.50693053 0.24335764 0.1292531 0.50651973
0.5415663 0.2647677 0.14778632 0.50622 0.58685654 0.22607698 0.0881087 0.5348956

prior_Q f4 [2, 2]
00000000: 0000 803f 0000 0000 0000 0000 0000 803f
1.0 0.0 0.0 1.0

prior_Sigma f4 [2, 2]
00000000: 0000 803f 0000 0000 0000 0000 0000 803f
1.0 0.0 0.0 1.0

prior_S f4 [2, 2]
00000000: 0000 803f 0000 0000 0000 0000 0000 803f
1.0 0.0 0.0 1.0

h_Q f4 [1, 1, 4]
00000000: e371 e73e c87c 0b3f 1e56 f8be ecd7 24bf
0.45204076 0.54487276 -0.48503202 -0.6439197

h_Sigma f4 [1, 1, 4]
00000000: 0000 0000 7071 3b3e 0000 0000 c069 a83a
0.0 0.18304992 0.0 0.0012848899

h_S f4 [1, 1, 4]
00000000: e897 e8be 74a9 bb3e f514 adbe 5ae4 513c
-0.45428395 0.3665272 -0.3380505 0.012810791

KGain f4 [2, 2]
00000000: c659 123f 8373 773e f4eb 083e 3497 103f
0.57168233 0.24165158 0.13371259 0.5648072

x_out f4 [2]
00000000: 1c7a 6fbe ccf4 fabd
-0.23386425 -0.122537225
