KNet/Linear_SS_No_MM_/model_KNet_Linear_Dynamics_T100_v_positive_10dB_best_LQR.pt (torch, 38469 bytes, 42 tensors)

weight_ih_l0 f4 [12, 10]
0	0xbdd53463	-0.104103826
1	0x3bcb6181	0.0062066917
2	0xbed9f9a5	-0.42573276
3	0x3edc7f43	0.43065843
4	0x3ed40e01	0.41416934
5	0x3e89a2cc	0.26882017
6	0xbda9c06f	-0.08288657
7	0x3e94c5b1	0.29057077
8	0xbe857bb4	-0.2607094
9	0x3eb87665	0.36027828
10	0xbecb7a7c	-0.39741886
11	0xbed4c114	-0.41553557
12	0xbd2dbeb9	-0.042418215
13	0x3ee61af1	0.4494243
14	0xbe8fb6ed	-0.2806925
15	0xbe963890	-0.2934003
16	0x3ebc61ea	0.36793453
17	0xbd8781c0	-0.06616545
18	0xbe12047c	-0.14259523
19	0x3a36b372	0.00069694885
20	0x3eb0a79b	0.34502873
21	0xbe87568b	-0.26433215
22	0x3e607c73	0.21922474
23	0xbd818c88	-0.06325632
24	0xbe87e61e	-0.26542753
25	0x3e254665	0.16140135
26	0xbea37aff	-0.31929776
27	0xbd59543d	-0.05305885
28	0x3ef8c046	0.48584193
29	0x3e16e3c4	0.14735323
30	0xbe7272c1	-0.23676588
31	0x3e5daa7d	0.21647067
32	0x3e4d0a2e	0.20023414
33	0x3ee3c35f	0.44484994
34	0xbedad449	-0.42740086
35	0xbecebb2f	-0.40377185
36	0x3e7429dd	0.23844095
37	0x3eea0d0d	0.45713082
38	0xbdf074c0	-0.11741018
39	0xbe6acd90	-0.22929978
40	0x3e84a923	0.2591029
41	0x3df17b45	0.1179109
42	0xbe78f288	-0.24311268
43	0x3e5e9f60	0.21740484
44	0x3ee3ba5a	0.44478112
45	0xbedc03da	-0.42971689
46	0xbe3aea6d	-0.18253489
47	0xbee37d1d	-0.4443139
48	0x3e3708c1	0.17874433
49	0x3c88c9d8	0.01669781
50	0xbef3f8b3	-0.4765068
51	0x3ea8ef4b	0.32995066
52	0x385dc579	5.2874417e-05
53	0xbc510705	-0.012758021
54	0xbeb3bcd3	-0.35105
55	0xbe4f822e	-0.20264503
56	0x3d25f6d8	0.04051861
57	0x3ea9ac75	0.33139387
58	0x3ea3ce6d	0.31993428
59	0xbe884d8c	-0.26621664
60	0x3e1bc473	0.15211658
61	0x3e44e7b4	0.19229013
62	0xbc45c5e0	-0.012071103
63	0xbc2dcab8	-0.010607414
64	0x3e91ecca	0.28500968
65	0x3dd6f53a	0.10495992
66	0x3d890e6d	0.066922046
67	0xbd8478c2	-0.06468345
68	0xbe3bac09	-0.18327345
69	0x3e08f03a	0.13372889
70	0xbd38712c	-0.045029804
71	0xbdbb994f	-0.09160101
72	0x3e1cfdea	0.15331236
73	0x3e5dd094	0.21661597
74	0x3dce3a3f	0.10069703
75	0xbea7e299	-0.32790068
76	0x3de2c55d	0.110728
77	0x3dc4fcd9	0.09618539
78	0x3e479dfa	0.19493857
79	0x3ea84052	0.32861573
80	0x3eec8e4d	0.46202317
81	0x3ab4e799	0.0013801932
82	0xbee3c4f9	-0.44486216
83	0x3ee2f45f	0.44327065
84	0x3e793ad0	0.24338841
85	0xbe3573c9	-0.1771995
86	0x3ef976af	0.4872336
87	0x3e86b572	0.26310307
88	0xbe663d68	-0.22484362
89	0xbda9d01f	-0.08291649
90	0x3dd8d7af	0.105880134
91	0xbed52d85	-0.4163629
92	0x3e893548	0.26798463
93	0x3e1c03c1	0.15235807
94	0xbe1d4207	-0.15357219
95	0x3d653a47	0.05596378
96	0x3ec14a64	0.37752068
97	0xbe890f96	-0.26769704
98	0x3dfa4f78	0.12222189
99	0x3e74cd80	0.23906517
100	0x3e16657b	0.14687149
101	0x3ebb3c3e	0.365694
102	0x3e4bf75e	0.19918582
103	0xbe06b58a	-0.13155189
104	0xbef254da	-0.47330362
105	0x3d2df8f3	0.042473745
106	0x3e6ddfb7	0.23229872
107	0x3e39126f	0.18073438
108	0x3e9251be	0.2857799
109	0x3d2d3f68	0.042296797
110	0xbedd02f1	-0.43166307
111	0x3e84815f	0.25879952
112	0xbe9372d3	-0.2879854
113	0xbe02da13	-0.12778501
114	0xbdb89304	-0.09012416
115	0xbe0add11	-0.13560893
116	0xbd6ea5f4	-0.058263734
117	0xbe2a6bba	-0.16642657
118	0xbee37704	-0.4442674
119	0x3cc95747	0.02457775

weight_hh_l0 f4 [12, 4]
0	0x3ee28e17	0.4424903
1	0x3e90fd68	0.28318334
2	0xbd167432	-0.036731906
3	0xbe1dcddc	-0.1541056
4	0xbe373056	-0.17889532
5	0xbe085c0e	-0.13316366
6	0x3e89b633	0.2689682
7	0x3e1e4aad	0.15458174
8	0xbec2170b	-0.37908205
9	0xbe06f80a	-0.13180557
10	0xbe9a1b01	-0.30098727
11	0x3ced8a59	0.028996633
12	0x3dff2cc4	0.1245971
13	0xbcd08132	-0.02545223
14	0xbd4d284a	-0.05008725
15	0x3ec42ec8	0.3831694
16	0x3ee7b7b8	0.45257354
17	0xbea14264	-0.31495965
18	0x3e4e995d	0.20175691
19	0xbeca37f7	-0.39495823
20	0x3e915d13	0.28391322
21	0x3e9cd192	0.3062864
22	0x3ecfa078	0.40552115
23	0x3eacbd67	0.33738253
24	0xbe2621b6	-0.16223797
25	0x3cfb8925	0.030705044
26	0xbeacb584	-0.33732235
27	0x3e76fa2e	0.24118873
28	0xbe57d1f0	-0.21076179
29	0xbe5933ba	-0.21211138
30	0xbe9b1a77	-0.3029363
31	0x3ed36bff	0.41293332
32	0xbeaf2457	-0.34207413
33	0x3eb2adf9	0.34898356
34	0xbf015b53	-0.50529975
35	0x3e7076f7	0.23482881
36	0x3e81e5ff	0.25370786
37	0xbeb95624	-0.36198533
38	0xbeba1b42	-0.3634892
39	0xbeaa65d3	-0.3328081
40	0x3e723b43	0.23655419
41	0xbed5dc18	-0.4176948
42	0x3eedab1e	0.46419615
43	0xbea36c69	-0.31918648
44	0xbf023f13	-0.50877494
45	0xbef36b4d	-0.47542801
46	0x3eba2fd7	0.36364624
47	0x3df9626f	0.12176978

bias_ih_l0 f4 [12]
0	0xbeee07bd	-0.4649028
1	0x3e846b4a	0.25863105
2	0x3ebe9ebf	0.3723049
3	0x3ea645a4	0.32475007
4	0x3e2e2655	0.1700681
5	0xbe0786bd	-0.13234992
6	0xbe051317	-0.12995563
7	0x3d8575d3	0.06516614
8	0xbe62ca65	-0.2214752
9	0x3e5a238b	0.21302621
10	0xbefcc6c2	-0.4937039
11	0x3e881ece	0.26586002

bias_hh_l0 f4 [12]
0	0x3e915e9b	0.2839249
1	0xbec13cb0	-0.37741613
2	0xbe8b5832	-0.27215725
3	0x3eab2fc3	0.33434877
4	0x3e4cc71c	0.19997829
5	0x3e5e2634	0.21694261
6	0xbe8512e0	-0.25990963
7	0x3ecb729b	0.39735875
8	0xbdc2f0d7	-0.09518593
9	0x3dd5b03e	0.10434006
10	0xbc569636	-0.0130973365
11	0xbe9064d9	-0.2820194

weight_ih_l0 f4 [12, 14]
0	0xbd63c06a	-0.055603422
1	0x3ea1d6e7	0.3160927
2	0x3ecfabf0	0.40560865
3	0xbe8c543e	-0.27408022
4	0xbe91857d	-0.28422156
5	0x3cf92e22	0.030417506
6	0x3eba0e1d	0.36338893
7	0x3bff8946	0.0077983467
8	0xbebe877f	-0.3721275
9	0x3e2c27dc	0.1681208
10	0xbe016a54	-0.12638217
11	0x3dc088f2	0.0940112
12	0x3d174f04	0.03694059
13	0xbd27f7f5	-0.041007955
14	0xbedb00fa	-0.42774183
15	0x3e389115	0.18024094
16	0xbea6da84	-0.3258859
17	0xbecfcd76	-0.40586442
18	0x3e4442ed	0.19166155
19	0xbee730d9	-0.45154455
20	0x3e977d4e	0.29587787
21	0x3e800767	0.25005648
22	0x3ebaa19e	0.3645143
23	0xbe444093	-0.19165258
24	0xbee4b261	-0.44667342
25	0xbda08532	-0.07837905
26	0x3ec283f0	0.37991285
27	0xbec7b725	-0.39006916
28	0x3d96d294	0.07364383
29	0x3d4ba158	0.049714416
30	0x3ede41f8	0.43409705
31	0xbe983b2d	-0.29732648
32	0xbe5e03e7	-0.21681176
33	0x3ec6f149	0.3885596
34	0xbedd0e12	-0.43174797
35	0x3e93951e	0.28824705
36	0x3e33671b	0.175198
37	0xbd87789d	-0.06614802
38	0x3e6a36b7	0.22872435
39	0xbdf9af53	-0.121916436
40	0x3e86d110	0.26331377
41	0x3d0cdcbf	0.034390207
42	0xbe775874	-0.24154836
43	0xbed18de6	-0.40928572
44	0xbd5bcd11	-0.053662363
45	0x3d61bb0b	0.05511002
46	0x3eccd86e	0.40008873
47	0xbe59d788	-0.21273625
48	0xbe610283	-0.21973614
49	0x3d60b633	0.05486126
50	0x3e2dd6e1	0.16976501
51	0x3ebab292	0.36464363
52	0x3ca5c208	0.020234123
53	0xbe3cd6c7	-0.18441306
54	0x3e6d4997	0.23172604
55	0x3e0bf76b	0.13668601
56	0xbdfb991e	-0.12285064
57	0x3ea7bcb3	0.32761154
58	0x3e7aec12	0.24504116
59	0xbe83efd3	-0.2576891
60	0x3ebee4b3	0.3728386
61	0x3e9c44b5	0.3052117
62	0xbdd20dc2	-0.1025653
63	0xbec1d064	-0.37854302
64	0x3ea10b76	0.31454057
65	0x3e942c4a	0.2894004
66	0xbe933f56	-0.2875926
67	0xbeef17b4	-0.46697772
68	0xbed6e72c	-0.41973245
69	0x3ec3cd60	0.38242626
70	0x3ee4bcfc	0.44675434
71	0xbd1a84f8	-0.037724465
72	0xbd395ad5	-0.04525264
73	0x3e541149	0.20709719
74	0xbeb984d9	-0.36234167
75	0xbece1a66	-0.40254515
76	0xbd0980aa	-0.03356997
77	0xbed47d79	-0.41501978
78	0xbe4ca32d	-0.19984122
79	0x3e98dc28	0.29855466
80	0x3ef1a1b4	0.47193682
81	0xbd58deba	-0.052946784
82	0x3e3acd78	0.18242443
83	0xbdcd2ac7	-0.10017925
84	0x3e54ade2	0.20769456
85	0x3e2a6fb6	0.16644177
86	0x3ef1432c	0.4712156
87	0x3e2fe638	0.17177665
88	0x3e670db1	0.22563817
89	0x3e97a55d	0.2961835
90	0xbe0748d9	-0.13211383
91	0x3ec4ea49	0.38459995
92	0xbcf4160f	-0.029795675
93	0xbeb960c6	-0.36206645
94	0x3e38c9c8	0.18045723
95	0xbe0cfc65	-0.13768156
96	0xbef96bbb	-0.48715004
97	0xbe6fad62	-0.23405984
98	0x3ea70165	0.3261825
99	0xbef8cbad	-0.48592892
100	0xbedeb0b9	-0.43494204
101	0x3ea77451	0.3270593
102	0x3eaec361	0.34133437
103	0x3e2aceed	0.16680498
104	0xbdeb4861	-0.114884146
105	0xbe8d0c36	-0.2754838
106	0xbed1ff98	-0.41015315
107	0xbe8e886e	-0.27838463
108	0x3de72a72	0.11287393
109	0x3eac6912	0.33673912
110	0xbefd3530	-0.4945464
111	0xb8a2839b	-7.7492754e-05
112	0xbeddc29e	-0.43312544
113	0x3de95e9e	0.11395
114	0xbe191175	-0.14948066
115	0x3ecb064e	0.39653248
116	0xbc0ad23e	-0.008472977
117	0x3eecf2f1	0.462791
118	0x3d68930a	0.056780852
119	0x3ea17ef1	0.3154216
120	0x3e5d8e9e	0.21636435
121	0xbef4d06b	-0.4781526
122	0xbe69256f	-0.22768186
123	0xbeb1d261	-0.3473082
124	0xbe537e7b	-0.20653717
125	0x3ec5ecb5	0.38657156
126	0xbed09fd7	-0.40746948
127	0x3ee9ea66	0.45686644
128	0xbe40cfae	-0.18829224
129	0x3e9df61f	0.30851838
130	0x3ea94b72	0.33065373
131	0xbedc1034	-0.42981112
132	0x3e27c5ba	0.1638402
133	0x3ec475b7	0.3837106
134	0xbd3cf01b	-0.04612742
135	0x3efc7783	0.4930993
136	0xbd947eee	-0.072507724
137	0x3ecd73aa	0.40127307
138	0x3ee2a8a5	0.4426929
139	0x3e56f6f7	0.20992647
140	0xbdf1b8ff	-0.11802863
141	0x3dd28bc6	0.10280566
142	0x3ee8aa49	0.45442417
143	0xbec919f1	-0.39277604
144	0xbe1bcaa1	-0.15214016
145	0x3eb29a39	0.34883288
146	0xbecdbc15	-0.40182558
147	0x3edbbc39	0.4291704
148	0x3e3e659b	0.18593447
149	0x3ee3150a	0.4435199
150	0xbc3065cf	-0.010766461
151	0x3e78f2b8	0.2431134
152	0xbea1d483	-0.31607446
153	0x3c864b5c	0.016393356
154	0xbed5b3e6	-0.41738814
155	0x3edef2c0	0.4354458
156	0x3efe099e	0.49616712
157	0x3e855f70	0.26049376
158	0x3d7c2d2e	0.061566524
159	0xbebd49b0	-0.36970282
160	0x3edb8249	0.42872837
161	0x3dcc218d	0.09967337
162	0xbefb53a4	-0.4908725
163	0x3deccfc4	0.11563066
164	0x38fe139f	0.000121153185
165	0x3edb4235	0.4282395
166	0x3e9f2342	0.31081587
167	0xbec1d417	-0.37857124

weight_hh_l0 f4 [12, 4]
0	0x3e4565be	0.19277093
1	0xbedf4570	-0.43607664
2	0x3d0abf6d	0.033873964
3	0xbe607d84	-0.2192288
4	0xbc0bee7d	-0.008540747
5	0x3ddc4094	0.10754505
6	0xbe98148a	-0.2970317
7	0xbe8fc16e	-0.28077263
8	0x3eac79c1	0.3368664
9	0xbe9d46b4	-0.30718005
10	0xb853a20f	-5.045725e-05
11	0xbed1ca73	-0.4097477
12	0xbe905b8e	-0.2819485
13	0x3ee3d354	0.44497168
14	0xbe848a6b	-0.25886855
15	0xbe03a99b	-0.12857668
16	0xbe8891b8	-0.26673675
17	0xbeae5ce3	-0.34055242
18	0xbe6ca2d8	-0.23108995
19	0xbeb0c62f	-0.34526202
20	0x3eb66c5b	0.35629544
21	0x3efc5398	0.49282527
22	0xbe265361	-0.16242744
23	0x3c0519a0	0.008123785
24	0xbecc85d6	-0.3994586
25	0xbd311434	-0.043232158
26	0xbe600434	-0.21876603
27	0x3e8bab64	0.27279198
28	0x3ed51726	0.41619223
29	0x3ee8a43c	0.454378
30	0xb80195c6	-3.0895484e-05
31	0xbe0f0328	-0.13966048
32	0xbe9ffea1	-0.31248954
33	0x3e519926	0.20468578
34	0x3ed59d48	0.4172156
35	0xbe8143f0	-0.25247145
36	0x3ea4b02c	0.32165658
37	0x3df915c4	0.121623546
38	0x3e0af0f1	0.13568474
39	0x3dd99b6f	0.1062535
40	0x3e61d704	0.22054678
41	0x3e8b034e	0.2715096
42	0x3dc3ab18	0.09554118
43	0x3ee92f17	0.4554374
44	0xbe79fb03	-0.2441216
45	0x3ebf7f59	0.37401846
46	0x3ed78586	0.42094058
47	0x3e9cc674	0.30620158

bias_ih_l0 f4 [12]
0	0x3e093c12	0.13401821
1	0xbed73081	-0.42029193
2	0xbe232e8d	-0.15935726
3	0xbf0024bc	-0.5005605
4	0xbdecca9b	-0.115620814
5	0xbe4932d1	-0.19648291
6	0xbea57604	-0.323166
7	0xbeaa8c0e	-0.33309978
8	0x3dff1ba0	0.12456441
9	0xbe32b2ae	-0.17450973
10	0x3ea7477a	0.3267172
11	0xbe39496f	-0.18094419

bias_hh_l0 f4 [12]
0	0xbe7edd29	-0.24889053
1	0x3e709154	0.23492938
2	0x3e8aee25	0.27134815
3	0x3ddb4f54	0.1070849
4	0xbe155c06	-0.14585885
5	0x3d00717d	0.03135823
6	0x3e987f5a	0.29784662
7	0xbecebc9f	-0.4037828
8	0xbd183011	-0.037155215
9	0xbef1bef0	-0.47215986
10	0xbe661a22	-0.22470906
11	0x3edeb1ca	0.43495017

weight_ih_l0 f4 [12, 24]
0	0x3ea1c8b9	0.31598452
1	0x3d4977dc	0.049186572
2	0x3ee4e462	0.44705492
3	0xbe084cff	-0.13310622
4	0xbeede117	-0.46460792
5	0xbe882b9b	-0.26595768
6	0x3e2878ed	0.1645238
7	0xbe8e495a	-0.27790338
8	0xbe4233ea	-0.18965116
9	0xbe3fd13c	-0.1873216
10	0x3d625c82	0.055264004
11	0x3edfbf89	0.43700817
12	0xbe63fa4c	-0.2226345
13	0xbef6eab0	-0.48225927
14	0xbe8c8c8b	-0.27450976
15	0x3ea6ead3	0.32601032
16	0x3ecbf2b0	0.39833593
17	0x3ea7b8e0	0.32758236
18	0x3d84a777	0.06477254
19	0x3d4ced3e	0.05003094
20	0xbe0a0b33	-0.13480835
21	0x3e8ade79	0.27122858
22	0xbecf4fbd	-0.40490523
23	0xbeb5b7c0	-0.35491753
24	0x3e45e91b	0.19327204
25	0xbe0efee7	-0.13964425
26	0x3d24c4ac	0.040226623
27	0xbebe67fd	-0.37188712
28	0x3e054de2	0.13017991
29	0xbe33b896	-0.17550883
30	0xbe8a5932	-0.27021176
31	0x3e90d24e	0.2828545
32	0xbe47bba7	-0.19505177
33	0xbdc6379b	-0.09678575
34	0xbefe02f1	-0.4961162
35	0x3da9cb3d	0.08290718
36	0xbe62545b	-0.22102492
37	0xbeedb7da	-0.4642933
38	0x3e69efb7	0.2284535
39	0xbe54c749	-0.20779146
40	0xbde3f3c0	-0.11130476
41	0xbe166e48	-0.14690506
42	0xbef6545b	-0.48111233
43	0x3ef027cc	0.46905363
44	0x3d6e2ae6	0.05814638
45	0xbebd7b2c	-0.37008035
46	0xbd4c72a0	-0.049914002
47	0x3db42f74	0.087981135
48	0xbea57a2e	-0.32319778
49	0xbe2ef258	-0.17084634
50	0x3dfafd83	0.12255385
51	0xbde5162e	-0.11185871
52	0xbe265937	-0.1624497
53	0x3dbe033d	0.092779614
54	0x3e5e556c	0.21712273
55	0x3ca8da10	0.020611793
56	0xbde9522c	-0.11392626
57	0x3ec1a9bc	0.3782481
58	0xbeef4b8d	-0.46737328
59	0xbbf0ae93	-0.0073450296
60	0x3ebdd707	0.37078115
61	0xbec964ff	-0.39334866
62	0x3ea0ab3f	0.3138065
63	0x3cef5617	0.029215856
64	0x3e9d6781	0.3074303
65	0x3edd8943	0.43268785
66	0xbe90c483	-0.28274927
67	0x3df08f12	0.117460385
68	0x3e791fb7	0.24328505
69	0x3eb16f55	0.34655252
70	0x3de47148	0.11154419
71	0xbea66041	-0.3249531
72	0x3eb860b5	0.36011282
73	0xbe64b771	-0.22335602
74	0x3eafbbe2	0.3432303
75	0x3ea18883	0.31549463
76	0xbc7c40e0	-0.015396327
77	0xbc8350e4	-0.016029783
78	0xbd8ad10a	-0.06778152
79	0xbde3e1e8	-0.111270726
80	0x3daf27c6	0.08552508
81	0xbe3f2207	-0.18665324
82	0xbda79c12	-0.08184065
83	0xbef6e2a8	-0.482198
84	0x3eea8b50	0.45809412
85	0x3ea8013c	0.32813442
86	0x3efae8ed	0.49005833
87	0xbe101d3a	-0.14073649
88	0x3e9187a5	0.284238
89	0x3ebf61cb	0.37379298
90	0x3e1e6b01	0.15470506
91	0xbecf7c93	-0.4052473
92	0xbeab1b62	-0.3341933
93	0x3ea477bc	0.321226
94	0xbd608530	-0.054814517
95	0x3d2955ae	0.041341476
96	0x3e3a15f0	0.18172431
97	0xbe69062f	-0.22756265
98	0x3e9f70b9	0.31140688
99	0xbee19196	-0.44056386
100	0xbec9334f	-0.39296958
101	0xbef2b05c	-0.47400177
102	0x3c280cb0	0.010256931
103	0x3e1f2ec5	0.15545185
104	0xbe778e1c	-0.24175304
105	0xbec9409a	-0.393071
106	0xbdf44e0b	-0.11928948
107	0xbe47a66b	-0.19497077
108	0xbcfec39a	-0.03109913
109	0x3e811368	0.25210118
110	0x3e8fbea5	0.28075138
111	0x3d268aa5	0.040659565
112	0x3eac5a74	0.3366276
113	0xbeeecefc	-0.46642292
114	0x3ec5aa22	0.38606364
115	0xbc73a6db	-0.014871324
116	0x3dd6716e	0.10470854
117	0x3e5bc0f5	0.21460326
118	0xbcddfed3	-0.027099049
119	0x3e7feadf	0.2499194
120	0x3d545f98	0.051848978
121	0x3edbde8f	0.42943236
122	0xbdab0939	-0.083513685
123	0x3d9a208c	0.07525739
124	0x3e079997	0.13242184
125	0xbed61245	-0.41810814
126	0x3eea734e	0.45791095
127	0x3ed9213c	0.42408168
128	0xbd6adb0d	-0.05733781
129	0xbe4f3bdb	-0.20237677
130	0x3dbadf9c	0.09124681
131	0x3ebe06c6	0.37114543
132	0xbe8c1f5b	-0.27367672
133	0x3e9a02d9	0.30080298
134	0xbc86c24a	-0.016450066
135	0xbed188ed	-0.4092478
136	0x3e103bae	0.14085266
137	0x3cdd0c56	0.026983421
138	0xbe032aef	-0.12809347
139	0xbe908899	-0.28229216
140	0xbac9ece2	-0.001540568
141	0xbea9c7bd	-0.331602
142	0x3d57851f	0.05261719
143	0xbd1bf1b9	-0.03807232
144	0x3db87913	0.09007468
145	0x3e9b25db	0.3030232
146	0xbe1230d3	-0.14276437
147	0xbe820b15	-0.2539908
148	0x3c175ba7	0.00923816
149	0xbee14ef1	-0.4400554
150	0x3b8337fb	0.004004476
151	0x3dbae8c2	0.09126426
152	0xbc0e3239	-0.008678966
153	0xbeee047c	-0.46487796
154	0x3e6fe6d1	0.23427893
155	0xbea3ef9d	-0.32018748
156	0x3e3ae13a	0.1824998
157	0x3d04bd4e	0.032407098
158	0xbe80fc67	-0.25192568
159	0x3e9ed0b9	0.31018618
160	0xbd0e0ca0	-0.03468001
161	0xbe5765f0	-0.2103498
162	0x3e69b3cb	0.22822492
163	0x3e4871af	0.19574617
164	0xbd12ae5b	-0.03581081
165	0x3e0192fb	0.12653725
166	0x3ee07539	0.43839434
167	0xbe1fe47d	-0.15614505
168	0x3d0e2a7e	0.034708492
169	0x3c809384	0.015695341
170	0x3eb2f85b	0.34955105
171	0x3de77504	0.11301616
172	0x3d8dc2e8	0.06921941
173	0xbf00b6d6	-0.50278986
174	0x3eac3e25	0.33641163
175	0x3eaad070	0.3336215
176	0x3e913fef	0.2836909
177	0x3e1d14bd	0.15339942
178	0xbeb7e9d1	-0.35920575
179	0x3dc8fbe4	0.09813669
180	0x3d86fae2	0.06590821
181	0xbee296b2	-0.44255596
182	0xbea00066	-0.31250304
183	0x3e9aa35f	0.30202767
184	0x3ec8ab96	0.3919341
185	0x3d078b80	0.033092022
186	0x3db91c1a	0.09038563
187	0x3e5e63ba	0.2171773
188	0xbefac04d	-0.4897484
189	0xbe5ca821	-0.21548511
190	0xbda1f83e	-0.079086766
191	0xbe7c2fa2	-0.24627545
192	0xbecc5157	-0.39905807
193	0x3e8656e3	0.26238164
194	0x3ef7fdb2	0.48435742
195	0x3e35e2ee	0.17762348
196	0xbdd5fc02	-0.10448457
197	0x3e3d199c	0.184668
198	0xbdf94cd2	-0.121728554
199	0x3e3f75ff	0.18697356
200	0xbdcdd605	-0.100505866
201	0xbe04fa15	-0.12986024
202	0xbe7705ae	-0.2412326
203	0x3e397a5c	0.18113083
204	0x3dbef929	0.09324867
205	0xbe40e9bb	-0.18839161
206	0xbed36af5	-0.4129254
207	0xbea1d3b0	-0.31606817
208	0x3e96a885	0.29425445
209	0xbedc307a	-0.43005735
210	0xbef44b48	-0.47713685
211	0x3ecfcac8	0.40584397
212	0x3dd8e0a3	0.10589721
213	0xbd44377d	-0.04790448
214	0xbeb5c7a8	-0.35503888
215	0xbe2fd9e3	-0.17172961
216	0xbe891a9a	-0.26778108
217	0xbe416c4c	-0.18888968
218	0xbe6d9f8d	-0.23205395
219	0xbd856ab4	-0.06514493
220	0x3e21f604	0.15816504
221	0xbea9ecf3	-0.3318859
222	0xbef23595	-0.47306505
223	0xbed6808c	-0.41894948
224	0xbe9fbee1	-0.31200317
225	0x3e990aa9	0.29890946
226	0xbea1902f	-0.31555316
227	0x3ed6dfc8	0.41967607
228	0x3eab2fbb	0.33434853
229	0xbefd89b0	-0.4951911
230	0xbe637d5b	-0.22215788
231	0x3e9da66a	0.30791026
232	0xbe0b9dae	-0.13634369
233	0x3ec44e65	0.3834106
234	0xbeed5b9c	-0.46358955
235	0x3eb3f3c6	0.35146922
236	0x3ea4375e	0.32073492
237	0xbe35c25f	-0.17749928
238	0x3ea06ac3	0.31331453
239	0xbea25a96	-0.31709737
240	0x3e11a79d	0.14224096
241	0x3ec78cd6	0.38974637
242	0x3e6c9f2e	0.23107597
243	0xbdd77751	-0.10520805
244	0xbd2ad93f	-0.04171109
245	0x3ee7df43	0.45287523
246	0x3e5eb83e	0.2174997
247	0x3ed1f320	0.41005802
248	0xbed08ebb	-0.40733895
249	0x3c0a29a2	0.008432778
250	0xbe9879ce	-0.2978043
251	0x3ef3e553	0.47635898
252	0xbebed906	-0.3727495
253	0xbe3490b1	-0.1763332
254	0xbec87291	-0.39149907
255	0xbe36b89e	-0.17843863

weight_hh_l0 f4 [12, 4]
0	0x3e110e93	0.14165716
1	0xbef38f65	-0.4757034
2	0x3e4220d7	0.1895784
3	0xbd8d0ed8	-0.06887597
4	0x3d9151f7	0.07095712
5	0xbd8332aa	-0.06406148
6	0xbd0d7bff	-0.03454208
7	0xbeb92b36	-0.3616578
8	0xbb196c65	-0.0023410555
9	0x3ef1434c	0.47121656
10	0x3ec84667	0.39116213
11	0xbed2960b	-0.411301
12	0xbef3216f	-0.47486445
13	0x3df807f9	0.12110896
14	0x3ea50edd	0.32237902
15	0x3d9d770d	0.07688723
16	0x3eac2ed1	0.33629468
17	0x3e38464c	0.17995566
18	0xbd0e07cf	-0.034675416
19	0x3ef523fc	0.47879016
20	0xbe9964b4	-0.29959643
21	0xbecb1cef	-0.39670512
22	0x3dd0178c	0.10160741
23	0xbe180263	-0.1484466
24	0x3e8ea07f	0.27856824
25	0xbeddbd9a	-0.43308717
26	0x3e4ae274	0.19812948
27	0x3dd84eaf	0.10561883
28	0x3e3e4b48	0.18583405
29	0xbe821632	-0.2540756
30	0x3e90b687	0.28264257
31	0xbb6b9032	-0.0035944101
32	0xbcb49530	-0.022043794
33	0xbdf3bbb6	-0.119010374
34	0x3ef4b903	0.47797403
35	0x3e14a4c2	0.14515975
36	0xbeb427b5	-0.35186544
37	0x3ec619b4	0.38691485
38	0x3e44ed67	0.19231187
39	0x3ee34317	0.44387123
40	0x3e68cae1	0.22733642
41	0xbe9bab34	-0.30404055
42	0x3e4db03a	0.20086756
43	0x3ee0b82a	0.43890506
44	0xbc6e6a16	-0.01455166
45	0x3ed57e13	0.4169775
46	0x3e731f06	0.23742303
47	0x3ec404c1	0.38284877

bias_ih_l0 f4 [12]
0	0x3e038cd3	0.12846689
1	0xbe06b406	-0.13154611
2	0x3ed6eca1	0.4197741
3	0x3eec8455	0.4619471
4	0x3d8db6be	0.06919621
5	0xbdb12885	-0.086503066
6	0xbe6e704c	-0.23285025
7	0x3e9db37e	0.30801004
8	0xbea873a1	-0.32900718
9	0x3ec3da92	0.38252693
10	0xbe7bd3fa	-0.24592581
11	0x3e9da651	0.30790952

bias_hh_l0 f4 [12]
0	0xbe25e8c5	-0.16202076
1	0xbcd55eba	-0.026046146
2	0x3b0d4bba	0.002156003
3	0xbee0ce9d	-0.43907633
4	0x3e051f4d	0.13000222
5	0x3ed309e9	0.41218498
6	0x3ec32a7a	0.38118345
7	0xbe99faa6	-0.30074042
8	0x3eb9e85b	0.36310086
9	0xbeef5893	-0.46747264
10	0x3e53695d	0.20645662
11	0xbeee6ffa	-0.46569806

weight f4 [4, 4]
0	0x3e0723ab	0.131972
1	0x3e0c8b27	0.13724957
2	0x3cd3bd16	0.025847
3	0x3ee8de80	0.45482254
4	0x3e97a17d	0.29615393
5	0xbd6a4f41	-0.05720449
6	0xbe3a8ee5	-0.18218572
7	0x3e44e9f3	0.1922987
8	0xbd3f7ea8	-0.04675165
9	0xbe2034c2	-0.15645126
10	0xbe66f2be	-0.22553536
11	0x3c55f365	0.013058518
12	0x3ef62965	0.48078457
13	0x3ecb4bdc	0.39706314
14	0xbeeabe44	-0.45848286
15	0x3efb6a40	0.491045

bias f4 [4]
0	0x3db367cb	0.08760031
1	0x3dc28845	0.094986476
2	0x3ed85cac	0.42258203
3	0x3e569b10	0.20957589

weight f4 [320, 8]
0	0xbc2d942f	-0.010594412
1	0xb8fb7c50	-0.00011991768
2	0x3e98a62f	0.29814288
3	0xbd06d72e	-0.032920055
4	0x3e0ac79d	0.13552709
5	0xbde36147	-0.111025386
6	0xb77f9271	-1.52332805e-05
7	0xbd9da7dc	-0.07698032
8	0x3d1d1526	0.038350247
9	0xbdce0932	-0.100603476
10	0xbe425d4b	-0.18980901
11	0x3e642dbf	0.22283076
12	0xbde665c7	-0.11249881
13	0x3e10ef1d	0.14153714
14	0xbeb799d4	-0.3585955
15	0xbe7633a8	-0.24043143
16	0x3db96f54	0.09054437
17	0x3e43cf0c	0.19121951
18	0x3e584a93	0.21122198
19	0x3e914e9d	0.2838029
20	0x3eb16dba	0.34654027
21	0x3de63fee	0.11242662
22	0xbd721ab6	-0.059107505
23	0x3d03e1bb	0.032197695
24	0xbe7b0d3b	-0.24516766
25	0x3e914126	0.28370017
26	0xbe1f393c	-0.15549177
27	0xbe938799	-0.2881439
28	0xbcbc71fc	-0.02300357
29	0xbdffda1f	-0.12492775
30	0xbdf28345	-0.11841444
31	0x3e019885	0.12655838
32	0x3e9115b9	0.28336886
33	0x3e4008e8	0.18753397
34	0xbea2e210	-0.31813097
35	0xbdf37b9a	-0.118888095
36	0xbd2e5a1f	-0.042566415
37	0x3dd0f836	0.102035925
38	0xbe4aadac	-0.19792813
39	0xbe8bb687	-0.27287695
40	0x3beeabd9	0.0072836694
41	0x3e49423a	0.1965417
42	0x3dfaf489	0.12253673
43	0x3c973bd8	0.018461153
44	0xb851ca1f	-5.0017723e-05
45	0xbe9a6a45	-0.30159202
46	0x37cbc460	2.429093e-05
47	0x3da1dd1d	0.07903502
48	0x3da16d2b	0.0788215
49	0xbe85372f	-0.26018664
50	0x3e1b1323	0.15144019
51	0x3e806bc3	0.25082216
52	0x3e6423ac	0.22279233
53	0xbd88441e	-0.06653617
54	0x3e94c744	0.29058278
55	0x3e6ea8d9	0.23306598
56	0xbdaa773a	-0.08323522
57	0x3e477614	0.19478637
58	0xbe5a64a5	-0.21327455
59	0xbe863218	-0.26210093
60	0x3db5b769	0.08872873
61	0xbe94309a	-0.2894333
62	0xbe869f40	-0.26293373
63	0xbda67097	-0.081269436
64	0x3d849d79	0.06475348
65	0xbd877951	-0.06614936
66	0xb856f2f1	-5.1247833e-05
67	0x3e6d68a2	0.23184446
68	0x3e4d2bcc	0.20036238
69	0xb92d6ae8	-0.00016538391
70	0x3e8280e3	0.25488958
71	0xbd83767a	-0.06419082
72	0x3ea342c7	0.31886885
73	0xbe855a94	-0.26045668
74	0x3e9a7f9f	0.30175492
75	0x3e28b2ab	0.16474406
76	0x3e9e0736	0.30864877
77	0xbc83eb4a	-0.016103406
78	0xbe5e2070	-0.21692061
79	0x3e3dc518	0.18532217
80	0x3e2e6deb	0.17034118
81	0x3e8954a1	0.2682238
82	0xbdb92bc5	-0.090415515
83	0x3d6fcc6d	0.058544565
84	0xbe151aed	-0.14561053
85	0x3e6878c3	0.22702317
86	0xbdeecabf	-0.116597645
87	0xbeb1f9de	-0.34760946
88	0x3e3049e4	0.17215687
89	0xbe302cd1	-0.17204596
90	0xbea07fb4	-0.3134743
91	0x3e45d0bd	0.19317909
92	0x3d64badb	0.05584226
93	0x3eb681ad	0.3564581
94	0x3dbf0c11	0.09328473
95	0x3dc075e4	0.09397486
96	0x3e55763b	0.20845883
97	0x3d03659f	0.032079335
98	0x3e833279	0.25624445
99	0x3e0f9aa6	0.14023837
100	0x3d905658	0.07047719
101	0x3e28e55f	0.16493748
102	0xbe139a8c	-0.14414424
103	0xbdce7559	-0.10080976
104	0x3b022180	0.0019856393
105	0xbeaa81f8	-0.33302283
106	0xbe3fcd05	-0.18730552
107	0xbe87faef	-0.26558635
108	0xbe5b0073	-0.2138689
109	0x3e202596	0.15639338
110	0x3db61bd2	0.08892025
111	0xbc06e0d2	-0.008232312
112	0xbc2de8fc	-0.01061463
113	0x3df0a68c	0.11750516
114	0xbe41321a	-0.18866768
115	0xbd80090f	-0.06251728
116	0xbe6eb497	-0.23311077
117	0xbe9f0ec0	-0.3106594
118	0x3e922526	0.28543967
119	0x3e8bb513	0.27286586
120	0x3ceaff5f	0.028686224
121	0x3e4fb4d6	0.20283827
122	0xbe9b486a	-0.30328685
123	0x3e907385	0.28213134
124	0xbe2bb30e	-0.16767523
125	0x39ba3c1f	0.00035521478
126	0x3da2b46e	0.079445705
127	0xbd410d81	-0.04713202
128	0x3e176dbe	0.14787957
129	0x3dd182db	0.10230037
130	0xbe980482	-0.2969094
131	0x3cb39d6a	0.021925647
132	0xbc2ff29b	-0.010738994
133	0x3e6eb9f4	0.23313123
134	0xb89ce691	-7.481606e-05
135	0x3d634357	0.055484142
136	0xbc9a8b07	-0.018865122
137	0xbdb8da1d	-0.09025977
138	0xbe5f58d9	-0.21811236
139	0xbea194aa	-0.31558734
140	0x3eab6497	0.3347518
141	0x3dc597ee	0.09648119
142	0xbe1c37ed	-0.15255709
143	0x3de4c626	0.11170606
144	0x3dd8d022	0.10586573
145	0x3e7a6e71	0.24456193
146	0x3e91a3b4	0.28445208
147	0x3e8308b1	0.2559257
148	0xbe230d76	-0.15923104
149	0x3e9dbc80	0.30807877
150	0xbe2a59ac	-0.1663577
151	0x3d5d5199	0.054032896
152	0xbe57a08b	-0.21057336
153	0x3e12c427	0.14332639
154	0xbe64f691	-0.22359683
155	0xbe958f4f	-0.29210898
156	0x3e91d906	0.28485888
157	0x3e9d5571	0.3072925
158	0x3e24597f	0.16049765
159	0x3ca8c285	0.020600567
160	0xbdbb6e92	-0.09151949
161	0x3d3f59f6	0.046716653
162	0xbce59e77	-0.028029663
163	0xbe2a4f33	-0.16631775
164	0xbd4ae14e	-0.049531274
165	0xbc9784db	-0.018495968
166	0x3d1bf496	0.038075052
167	0xbdcd9849	-0.10038812
168	0xb7f051c3	-2.8648303e-05
169	0x3e88a67e	0.26689523
170	0x3d67936e	0.056537084
171	0x3e8150ae	0.25256866
172	0x3e4ded9b	0.2011017
173	0xbe07725e	-0.13227221
174	0x3e469686	0.19393358
175	0x3e153c57	0.14573799
176	0x3deeb156	0.11654918
177	0xbe93bab8	-0.28853393
178	0xbe94e3fa	-0.29080182
179	0xbdf4a70f	-0.119459264
180	0x3e7e410e	0.24829504
181	0xbea6e88b	-0.3259929
182	0xbe27e56b	-0.1639611
183	0xbcf6381c	-0.030056052
184	0xbe041624	-0.12899071
185	0xbe51e14f	-0.20496105
186	0x3deb1c9b	0.114800654
187	0xbe55fc3a	-0.20896998
188	0x3df7ba3a	0.12096067
189	0x3e9cd36e	0.30630058
190	0x3d8a4607	0.06751638
191	0xbb2e824b	-0.0026627954
192	0xbde2e065	-0.11077956
193	0x3e01e06c	0.12683266
194	0x3e8ad24f	0.27113578
195	0xbe24c695	-0.16091378
196	0x3e5e683c	0.2171945
197	0x3c97f19b	0.018547824
198	0xbea4ea65	-0.3221008
199	0xbea47825	-0.32122913
200	0x3e30df37	0.1727265
201	0xbea68d06	-0.32529467
202	0x3e5de750	0.2167027
203	0x3e6e4a48	0.23270524
204	0xbd8b17fe	-0.067916855
205	0x3e7cdf25	0.24694498
206	0xbe56e8eb	-0.20987289
207	0x3eab8b23	0.3350459
208	0xbe93efc9	-0.2889388
209	0x3c8d3508	0.017237201
210	0xbe3c785e	-0.18405291
211	0x3e889e0c	0.2668308
212	0xbe9e99a2	-0.30976588
213	0xbe8700bf	-0.26367757
214	0xbe73daf2	-0.2381399
215	0xbe21a84d	-0.15786858
216	0xbd94dfb7	-0.07269233
217	0x3c6c7c23	0.014433893
218	0xbe27aec5	-0.16375263
219	0xbe471cd9	-0.19444598
220	0x3e5b5bde	0.21421763
221	0x3e1db726	0.15401897
222	0x3e85b144	0.26111805
223	0xbe022fe4	-0.12713581
224	0x3d9e6d38	0.077356756
225	0xbd5ac30c	-0.053408667
226	0xbd7db6ca	-0.0619419
227	0x3d974805	0.073867835
228	0x3dcfe1ea	0.101505116
229	0xbe8c5174	-0.27405894
230	0xbe20175e	-0.15633914
231	0x3e3ad345	0.18244655
232	0xbcab47c9	-0.020908253
233	0x3ea67e86	0.32518405
234	0xbe7d7821	-0.24752857
235	0x3e43d745	0.19125088
236	0x3e22c50e	0.15895483
237	0xbe518635	-0.20461352
238	0x3e984c84	0.29745877
239	0x3ead14af	0.33804843
240	0xbe73e339	-0.23817147
241	0x3e1d910d	0.15387364
242	0xbd69d0eb	-0.057084005
243	0xbea13b5b	-0.31490597
244	0xbdcf7671	-0.10130013
245	0x3e8cacd4	0.27475607
246	0xbe85aece	-0.26109928
247	0xbd954de8	-0.0729025
248	0x3e3709dd	0.17874856
249	0x3d26ee95	0.040754873
250	0xbba79db3	-0.0051152348
251	0x3e30effb	0.17279045
252	0xbdd91ad5	-0.10600821
253	0x3ea5c9cc	0.3238052
254	0x3e639484	0.22224623
255	0xbe076256	-0.13221106

bias f4 [320]
0	0xbe6c7a4e	-0.2309353
1	0x3e9aeeb2	0.30260235
2	0x3ddee257	0.10883015
3	0xbe542f89	-0.20721258
4	0xbe0358f0	-0.12826896
5	0xbe9b72ce	-0.30361027
6	0x3d8127c9	0.063064165
7	0xbe9e2f18	-0.30895305
8	0xbe812602	-0.2522431
9	0x3dc557aa	0.09635861
10	0x3eafb6c7	0.34319136
11	0x3e888dd9	0.2667072
12	0x3cc54a33	0.024083233
13	0xbe1fab02	-0.15592578
14	0x3d3a686a	0.045509733
15	0xbe984d4f	-0.29746482
16	0xbe91ec8f	-0.28500792
17	0xbd4da7c5	-0.050208826
18	0x3d8edab7	0.0697531
19	0xbe023291	-0.12714602
20	0xbe90d095	-0.28284135
21	0xbe9da53a	-0.3079012
22	0x3e87397b	0.26411042
23	0xbe0aeba5	-0.13566454
24	0xbe4e59f2	-0.20151499
25	0x3dbd7ade	0.09251951
26	0x3e0bb0d4	0.13641673
27	0xbe0a39d4	-0.13498622
28	0x3ea6f2d1	0.3260713
29	0x3e8eb83e	0.2787494
30	0x3ea5fc75	0.32419172
31	0x3cea010e	0.028564956
32	0x3ca1ed86	0.01976658
33	0x3eac3147	0.33631346
34	0x3ab29123	0.0013623576
35	0xbdf211d3	-0.11819806
36	0x3d812831	0.06306494
37	0x3dd0b64c	0.1019102
38	0x3e158745	0.14602382
39	0xbe8d74cb	-0.27628168
40	0x3c800d84	0.015631445
41	0x3e3d94dc	0.18513817
42	0x3e42ce7f	0.19024085
43	0xbe90ea67	-0.28303835
44	0x3e04c456	0.12965521
45	0x3df3fa33	0.11912956
46	0x3e0c957e	0.13728902
47	0xbd3684ec	-0.044560358
48	0xbdc19f06	-0.094541594
49	0xbdff3ade	-0.124624
50	0xbd999089	-0.07498271
51	0xbe807a7d	-0.2509345
52	0xbc6d903c	-0.01449972
53	0x3ead199d	0.33808604
54	0xbde820e0	-0.113343954
55	0xbe0d1deb	-0.13780944
56	0x3e7b3e81	0.24535562
57	0x3ddcc671	0.10780037
58	0x3eb003d7	0.3437793
59	0x3e98a0e8	0.29810262
60	0xbe7d0964	-0.24710613
61	0x3d3af4f4	0.04564376
62	0xbdf2dbc6	-0.11858325
63	0xbe75cd21	-0.24004032
64	0xbe8cb965	-0.27485195
65	0xbe1168a8	-0.1420008
66	0x3e3fdb46	0.1873599
67	0x3eade267	0.33961794
68	0x3e14d061	0.14532615
69	0x3d254285	0.04034664
70	0xbe0dbb77	-0.13841043
71	0xbe2e5517	-0.17024647
72	0x3e82de70	0.2556033
73	0xbe82416f	-0.25440547
74	0xbd7d329e	-0.06181585
75	0xbe29fc2d	-0.16600104
76	0x3e480cfd	0.19536205
77	0xbe6f97a0	-0.23397684
78	0x3e456994	0.19278556
79	0xbe80ba99	-0.25142363
80	0xbd2440b6	-0.040100776
81	0x3eb210ac	0.34778345
82	0x3e82701f	0.25476167
83	0x3e55d26c	0.20881051
84	0x3e510231	0.20410992
85	0x3dd4236b	0.10358318
86	0xbd833f66	-0.06408577
87	0xbe51ac8b	-0.20475976
88	0x3d37a5ce	0.044835858
89	0xbe22ab95	-0.15885766
90	0x3e5a5367	0.21320878
91	0xbda8b0c1	-0.08236838
92	0xbe28a55c	-0.1646933
93	0x3dd754f7	0.10514253
94	0x3e01778c	0.1264326
95	0xbe95804a	-0.2919944
96	0xbea3592c	-0.3190397
97	0x3eade704	0.33965313
98	0x3eb6e50c	0.35721624
99	0xbe863a5e	-0.26216406
100	0xbc52be23	-0.012862715
101	0xbd234d05	-0.039868373
102	0x3de1abb3	0.11019077
103	0x3e217c46	0.15770063
104	0x3dbd0616	0.092296764
105	0xbe8bf111	-0.27332357
106	0x3c94a841	0.018146636
107	0xbe113aa5	-0.14182527
108	0xbe30fac0	-0.17283154
109	0xbe22a0e0	-0.15881681
110	0x3c979b22	0.01850659
111	0xbe31088d	-0.17288418
112	0x3ea16018	0.31518626
113	0x3d442beb	0.047893446
114	0xbe45ee88	-0.19329274
115	0xbe9356cd	-0.2877716
116	0x3ea0d034	0.31408846
117	0x3bd9cea5	0.0066469484
118	0x3ddd48f5	0.10804931
119	0x3e84a574	0.2590748
120	0x3e9f826c	0.31154191
121	0xbe0422c4	-0.12903887
122	0xbe58e832	-0.21182325
123	0x3e585e14	0.21129638
124	0xbe5e9f6a	-0.21740499
125	0xbe780dc0	-0.24223995
126	0xbe6bb914	-0.2301982
127	0xbdcc31d4	-0.099704415
128	0xbd9e372a	-0.077253655
129	0x3de4bfe3	0.11169412
130	0xbe005a6f	-0.12534498
131	0x3ddb6818	0.10713214
132	0xbe8cd731	-0.27507928
133	0x3eab4951	0.33454373
134	0xbe57839a	-0.21046296
135	0xbe4fc561	-0.20290138
136	0x3da9581e	0.0826876
137	0xbdd8e3c6	-0.10590319
138	0xbd7076e8	-0.058707148
139	0xbdd94222	-0.10608317
140	0x3e8866cc	0.26640928
141	0xbc67551c	-0.014119413
142	0xbe4c6a33	-0.19962387
143	0xbc1672a2	-0.009182604
144	0xbd6926fe	-0.05692195
145	0x3d75d80f	0.060020503
146	0x3d1c6514	0.038182333
147	0xbc1038dc	-0.008802619
148	0xbe5d8e3c	-0.2163629
149	0x3e2bf0b4	0.1679104
150	0x3e61bff6	0.22045884
151	0xbcbc467b	-0.022982826
152	0xbe329161	-0.1743827
153	0xbe09c001	-0.1345215
154	0x3e92ad47	0.28647825
155	0xbe1148ec	-0.14187974
156	0x3ea1445b	0.31497464
157	0x3ce44297	0.027863784
158	0x3d64bbd1	0.05584318
159	0x3eb07343	0.34462938
160	0xbdc02e9d	-0.09383891
161	0xbdf39bf7	-0.11894982
162	0xbe91d011	-0.28479055
163	0xbe8fdee1	-0.2809973
164	0x3e899f3b	0.26879296
165	0x3da1cde4	0.07900599
166	0x3e63f533	0.22261505
167	0x3ea09930	0.31366873
168	0xbe1df4e9	-0.15425457
169	0xbe096d09	-0.134205
170	0x3daec3b7	0.085334234
171	0x3dc5dbd8	0.096610725
172	0xbdf27cb6	-0.11840193
173	0x3e26cd2b	0.16289203
174	0xbe42e92d	-0.19034262
175	0xbe72cb59	-0.23710383
176	0xbe65a6a4	-0.2242685
177	0xbe6762e8	-0.22596323
178	0x3e95061f	0.29106233
179	0xbea03c1f	-0.3129587
180	0x3dcf4ba3	0.101218484
181	0x3da7a6e5	0.081861295
182	0x3d053c58	0.03252825
183	0x3dec87f9	0.11549372
184	0xbe233857	-0.1593946
185	0xbe963e8d	-0.29344597
186	0x3e834ca6	0.25644416
187	0x3dc3907b	0.09549042
188	0x3d8ee99c	0.06978151
189	0xbe91184a	-0.28338844
190	0x3e53d74c	0.20687598
191	0x3e98ec10	0.298676
192	0x3ce1e48e	0.027574804
193	0xbdda9f17	-0.10674875
194	0x3e97aa5c	0.2962216
195	0x3cf5f6fd	0.030025
196	0x3ddb0212	0.10693754
197	0xbe7c666d	-0.24648447
198	0x3e9b7eb5	0.30370107
199	0xbe8f216d	-0.2795519
200	0xbe631fd5	-0.22180112
201	0x3ea82f4a	0.3284858
202	0xbe569795	-0.20956261
203	0x3e6f9934	0.23398286
204	0x3e09a1a3	0.13440566
205	0x3aaeff76	0.001335128
206	0x3e03b11d	0.12860532
207	0xbe96312c	-0.2933439
208	0xbe065914	-0.13119918
209	0x3db05387	0.086096816
210	0x3dc915a0	0.09818578
211	0x3d2ac0d0	0.041687787
212	0x3e45353d	0.1925859
213	0x3aa98195	0.0012932295
214	0x3e7118e6	0.23544654
215	0x3e2c3e8c	0.16820735
216	0x3ea142f2	0.31496388
217	0xbe093307	-0.13398372
218	0x3e6e2649	0.23256792
219	0xbe77fc86	-0.24217424
220	0x3e1f08fd	0.15530773
221	0xbe5522a4	-0.20813996
222	0x3e2231e7	0.15839349
223	0xbe3e9e29	-0.18615021
224	0x3eaa85e9	0.3330529
225	0xbe71f127	-0.23627149
226	0x3e9e473d	0.30913725
227	0x3dce99a4	0.100878984
228	0xbdb1f828	-0.0868991
229	0xbd0f0171	-0.034913484
230	0xbe26e6a1	-0.16298915
231	0x3e9b6539	0.30350664
232	0xbde77639	-0.11301846
233	0xbd68da78	-0.056848973
234	0xbe3163cf	-0.1732323
235	0xbd91ccb8	-0.07119125
236	0xbe533a84	-0.2062779
237	0x3e660755	0.22463734
238	0xbe661c7a	-0.224718
239	0x3e8b6643	0.27226457
240	0x3e2f12e3	0.17097048
241	0x3c7257d5	0.014791449
242	0x3e1b057c	0.15138811
243	0xbe306834	-0.1722725
244	0x3e6dbacc	0.23215789
245	0xbe6d738b	-0.23188607
246	0x3e2cfbea	0.16892973
247	0x3d0ba601	0.03409386
248	0xbd0c3754	-0.034232453
249	0x3c01f4aa	0.007931868
250	0x3e907262	0.28212267
251	0xbd81835d	-0.06323884
252	0xbe862a45	-0.26204124
253	0xbd7553a5	-0.059894223
254	0xbe782b2a	-0.24235216
255	0x3e339b8b	0.17539804

weight f4 [4, 320]
0	0xb85d2e55	-5.2733656e-05
1	0xbc874348	-0.016511574
2	0x3d355f6b	0.04428045
3	0x3c0386b2	0.008027719
4	0xbc5cc9f0	-0.01347588
5	0x3b66bb60	0.00352069
6	0xbc1b0ddb	-0.009463753
7	0x3b61fe47	0.0034483836
8	0x386413b4	5.4377786e-05
9	0x3d3309bc	0.043710455
10	0x3ba6135b	0.0050682253
11	0xbd42b3ef	-0.04753488
12	0x3d5fc85b	0.054634433
13	0xba3679a4	-0.0006960875
14	0xbad2f3b3	-0.0016094357
15	0xb85d72de	-5.2797484e-05
16	0x3aec8f77	0.0018048127
17	0x3d022fdb	0.03178392
18	0xbca7ee79	-0.020499455
19	0x3d2bdc46	0.041958116
20	0xb866e547	-5.5049804e-05
21	0xbc356b46	-0.011072939
22	0x3d084cf6	0.03327652
23	0x3c165dd0	0.00917764
24	0x3d6050dc	0.054764614
25	0xbd1c76e2	-0.038199313
26	0x3d22e885	0.03977253
27	0xba83319f	-0.0010009295
28	0xbcb9d1d5	-0.022683064
29	0x3d783b5c	0.060603485
30	0x3d429574	0.04750581
31	0xbca2460c	-0.019808792
32	0x3d444ffd	0.047927845
33	0x3d0c29d0	0.034219563
34	0xb995e71f	-0.00028591693
35	0x3d85a90d	0.065263845
36	0xbcc7c22c	-0.02438458
37	0x3cc76ee2	0.024344865
38	0xbc8e3d45	-0.0173632
39	0xb85bc419	-5.23963e-05
40	0xbb9bcc40	-0.004754573
41	0xbcacae90	-0.021079332
42	0xbcd1ad5d	-0.025595361
43	0xb80024d8	-3.055189e-05
44	0x3c588645	0.013215606
45	0xbcaf6b46	-0.021413457
46	0xbc75a95d	-0.014993993
47	0x3d8cd97b	0.068774186
48	0xbcd21313	-0.02564386
49	0xbd40dd12	-0.04708583
50	0xbcb37576	-0.021906596
51	0x3c128fe9	0.008945444
52	0xbcc18adb	-0.023625782
53	0x3c9dbf31	0.019256206
54	0x3d314e57	0.0432876
55	0x3d5b90af	0.053604778
56	0x3cc76fc6	0.02434529
57	0xbcc33186	-0.023827326
58	0x3ce6c136	0.028168302
59	0x3b652c42	0.0034969007
60	0xbcd9d1c0	-0.026589274
61	0xbd2975d8	-0.04137215
62	0x3d6dffa9	0.058105145
63	0x3d4e4217	0.050355997
64	0xbaaeda18	-0.0013340143
65	0xb84d9409	-4.9013677e-05
66	0xbc7f2c4a	-0.015574524
67	0x3d14d072	0.0363316
68	0xbc8008ae	-0.015629139
69	0xbcea9c5a	-0.028639007
70	0x3c8b68c3	0.017017728
71	0xba3337ea	-0.000683664
72	0x3caa1b0d	0.020764852
73	0xbd145c7b	-0.03622101
74	0x3bcd7491	0.0062699993
75	0xb808f00d	-3.264849e-05
76	0x3d38b183	0.045091163
77	0x3cfc15ff	0.030772207
78	0x3c0a92c4	0.008457843
79	0x3ca6f5f2	0.020380948
80	0x3ca17ec6	0.01971377
81	0x3d16fd8b	0.03686289
82	0x3d1f9084	0.03895618
83	0xbcd753bc	-0.026285045
84	0xbc788874	-0.015169252
85	0x3bd143ab	0.0063862405
86	0x3a6ce83f	0.0009037293
87	0x3d153ca8	0.0364348
88	0x3a6b278c	0.00089704315
89	0xbd00f82e	-0.031486683
90	0xbd0c2dc9	-0.03422335
91	0xbd1b14c0	-0.037861586
92	0x38538284	5.0427872e-05
93	0xbd1c629a	-0.03817997
94	0x3c928265	0.017884443
95	0xbcd1885a	-0.025577713
96	0x3c26078f	0.010133638
97	0x3d1ce0f3	0.038300466
98	0x3cb56724	0.022143908
99	0x3924aa42	0.00015703685
100	0xbc905ffb	-0.017623892
101	0xbcd7b18f	-0.026329784
102	0x3c54eff5	0.012996663
103	0x3d834cbf	0.064111225
104	0xbc20adbb	-0.009807046
105	0xb85dd85f	-5.2892017e-05
106	0x3d1f4b3b	0.038890105
107	0x3c89f7cd	0.016841793
108	0x3a080dcf	0.0005190046
109	0xbc80b63d	-0.015711898
110	0x3d21cce5	0.039502043
111	0x3d567992	0.052362032
112	0xbcb23334	-0.021752931
113	0xbc35de78	-0.011100404
114	0x38603bc7	5.3461434e-05
115	0xbcdae8fc	-0.026722424
116	0x3d420517	0.047368135
117	0xbcb1fd6d	-0.021727288
118	0x3c1f7669	0.009732821
119	0xbbd2731c	-0.0064224135
120	0x3d85bf9e	0.06530689
121	0x3ca4013e	0.020020124
122	0x3d7a4f2f	0.06111067
123	0xbc22b0f5	-0.009929885
124	0xbcc4abfd	-0.024007792
125	0x3d3789c4	0.044809118
126	0xbc2e2543	-0.010629001
127	0xbd0307f6	-0.031990014
128	0x3cce3bb6	0.025174957
129	0x3c139024	0.009006534
130	0x3cc8eb99	0.024526404
131	0xbc93ea0f	-0.018055944
132	0xb9f5e3ee	-0.00046899862
133	0x3a297b0b	0.0006465173
134	0x3d597846	0.053093217
135	0x391ff7cc	0.00015255733
136	0x3d4d5b5a	0.050135948
137	0x3c21d0c8	0.0098764375
138	0x3d57f34c	0.05272226
139	0xb9b40f7b	-0.0003434381
140	0x3d59a05d	0.05313145
141	0x3c6322ce	0.013863279
142	0x3d595f50	0.053069413
143	0x3d0946bb	0.03351472
144	0xba661439	-0.0008776817
145	0x3d01ec7a	0.031719662
146	0x3d50222b	0.050813835
147	0x3c9c823f	0.019105075
148	0xb86e471f	-5.680986e-05
149	0x3d867cbf	0.06566762
150	0x3c803dbf	0.015654443
151	0xbcde76c3	-0.02715624
152	0xbcf2c825	-0.029636452
153	0xb855555e	-5.086266e-05
154	0x3c5cef10	0.013484731
155	0xbaa7d4f3	-0.0012804553
156	0x3c9e6459	0.019334959
157	0x3ca9a457	0.020708246
158	0xbcbfa619	-0.023394631
159	0x3d7691fa	0.060197808
160	0xbbddc411	-0.0067677577
161	0x380645df	3.2013162e-05
162	0xbd42eed0	-0.04759103
163	0xbc911bcf	-0.017713455
164	0xbb4cf64c	-0.0031274734
165	0x3d7728bd	0.060341585
166	0x3c4e285c	0.012582865
167	0xbcf951c0	-0.03043449
168	0x38113cd6	3.4627352e-05
169	0xbd567c97	-0.052364912
170	0x3b8c21a1	0.00427647
171	0x3bb23b3e	0.005439191
172	0x3afa2378	0.0019084057
173	0xbd2e92a3	-0.042620312
174	0xbaac3937	-0.001313961
175	0xbd175798	-0.03694877
176	0x3a8800b4	0.0010376186
177	0x38913fc5	6.926017e-05
178	0x3d3b59a6	0.045739792
179	0xb9fd710d	-0.0004834015
180	0x3bd6c476	0.0065541817
181	0x3b42980a	0.0029692673
182	0x3d7fa3ce	0.062412076
183	0x3d029f3b	0.031890135
184	0xbbb146cf	-0.0054100524
185	0xbc7e9aa7	-0.015539802
186	0x3d6fd595	0.058553297
187	0xbd369762	-0.044577964
188	0xbc930a63	-0.017949289
189	0x3a47463e	0.00076017145
190	0xbd17d948	-0.03707245
191	0xbd157cd2	-0.03649599
192	0x3d0a0163	0.03369273
193	0xbd2596cc	-0.040427014
194	0xbccb3045	-0.02480329
195	0xbd057c80	-0.032589436
196	0x3d0508b4	0.032479003
197	0x3b918df8	0.004441973
198	0xbc8fd009	-0.017555254
199	0xb845152a	-4.698817e-05
200	0xbc2936ea	-0.010328034
201	0x3d3c17ca	0.045921125
202	0x3d20db11	0.039271418
203	0x3d0ae289	0.033907447
204	0xbcbdead6	-0.023183268
205	0x3c5061fb	0.012718673
206	0x3d591bb8	0.05300495
207	0x3c97d9f6	0.018536549
208	0xbc2f34e6	-0.010693764
209	0x39870998	0.00025756354
210	0x3ba48d17	0.005021702
211	0xbd373c9a	-0.04473553
212	0x3caf0ee8	0.021369413
213	0xbd03173f	-0.03200459
214	0xbb80fd7e	-0.0039364686
215	0x3cedadd0	0.029013544
216	0x3bef791e	0.0073081395
217	0xbc6e686e	-0.014551265
218	0xbcc0b4d2	-0.023523722
219	0xb868a29f	-5.5464563e-05
220	0xbd2a19b4	-0.04152842
221	0x3a96fd8a	0.0011519652
222	0xbb797fd1	-0.003807057
223	0x3d30a5f9	0.043127034
224	0x3d115a96	0.03548678
225	0x3d28a16c	0.04116957
226	0x3a3028ed	0.00067199656
227	0x39116a45	0.00013867866
228	0x3cddb8ab	0.027065596
229	0xbae6829a	-0.001758653
230	0xbd133776	-0.035941564
231	0x3ceced6d	0.028921807
232	0xb88fce7b	-6.857231e-05
233	0x371908f1	9.1215925e-06
234	0xb921fc22	-0.00015448083
235	0xb85e36bf	-5.297991e-05
236	0x386aab7d	5.594966e-05
237	0xbc3b80a1	-0.011444242
238	0x37fb2258	2.9937524e-05
239	0xbc530574	-0.012879718
240	0x3d874bfe	0.06606291
241	0xbc6bf84d	-0.014402461
242	0xbbfedbf9	-0.0077776876
243	0x3c96605d	0.018356496
244	0x3d1c49a3	0.038156163
245	0xbd41115e	-0.047135703
246	0xbcbd9d78	-0.023146376
247	0x3c7e3bfe	0.015517233
248	0x3d36ccb0	0.0446288
249	0xb80a2976	-3.2940377e-05
250	0x3d0227d5	0.031776268
251	0xbd0bc1f5	-0.03412052
252	0x3851dd32	5.0035487e-05
253	0xbc9bfe40	-0.019042134
254	0x3853bfbf	5.0484898e-05
255	0xbc0a7945	-0.0084517645

bias f4 [4]
0	0xbc0c5794	-0.008565802
1	0x3d7a8754	0.061164215
2	0xbc7cb53b	-0.015424068
3	0x3d70c61f	0.058782693

weight f4 [4, 8]
0	0xbd82a9fd	-0.06380079
1	0x3db88d80	0.09011364
2	0x3e4a800f	0.19775413
3	0xbdb80319	-0.08984966
4	0x3e948b41	0.29012492
5	0x3e46bfc2	0.19409087
6	0xbcd53af8	-0.026029095
7	0xbe752461	-0.23939659
8	0x3e41d3f7	0.18928514
9	0x3b5e309f	0.0033903492
10	0x3e158c31	0.1460426
11	0xbe491dd1	-0.1964028
12	0xbe8612ee	-0.26186317
13	0xbd0a3cee	-0.033749513
14	0x3da387f6	0.07984917
15	0x3e638034	0.22216874
16	0xbe8038f7	-0.2504346
17	0x3da8251b	0.08210202
18	0x3e4bb46f	0.19893049
19	0xbdf2b21a	-0.118503764
20	0xbdc209f2	-0.09474553
21	0xbdf622a4	-0.12018326
22	0x3dce0cc8	0.100610316
23	0xbdb0f022	-0.08639552
24	0xbdc45538	-0.09586567
25	0xbeb9f4cf	-0.36319587
26	0xbd82b218	-0.06381625
27	0xbc7123fa	-0.01471805
28	0xbde5f088	-0.11227518
29	0xbeab493d	-0.33454314
30	0x3d8dd4b5	0.06925336
31	0x3c25dfcd	0.010124159

bias f4 [4]
0	0xbd011f83	-0.031524193
1	0xbe654304	-0.22388846
2	0x3ea10f7b	0.31457123
3	0x3e7b0060	0.24511862

weight f4 [4, 8]
0	0x3ab01f8d	0.0013437137
1	0xbbbf611b	-0.0058404333
2	0x3e194c97	0.14970623
3	0x3e8073df	0.25088403
4	0x3e80a30f	0.25124404
5	0xb8799826	-5.9507925e-05
6	0x3e0b247d	0.13588138
7	0xb7f26573	-2.8895889e-05
8	0xbe81b4f8	-0.2533338
9	0xbd9525e7	-0.0728262
10	0xbde1582b	-0.11003145
11	0xbe77a37b	-0.24183457
12	0x3dfcb2ba	0.12338777
13	0x3d3a78ef	0.045525488
14	0xbbb49c1e	-0.0055117747
15	0x3e460a21	0.19339801
16	0xbd71db31	-0.059046928
17	0xbe64016c	-0.22266167
18	0x3e4544af	0.19264482
19	0xbd5679a6	-0.052362107
20	0xbe5b8730	-0.21438289
21	0x3e71b6fb	0.23604958
22	0xbe81dcb1	-0.25363687
23	0x3d0d5df8	0.034513444
24	0x3e96fd5c	0.29490173
25	0xbe838ba1	-0.25692466
26	0x3e622c0a	0.22087112
27	0xbe8d65c7	-0.27616712
28	0x3e2f2cce	0.17106935
29	0x3a058497	0.0005093305
30	0xbe8d1624	-0.27555954
31	0x3ca6e24d	0.02037158

bias f4 [4]
0	0xbe1f6e2f	-0.15569375
1	0x3da0c479	0.07849974
2	0xbe88c27c	-0.2671088
3	0xbd980ddc	-0.074245185

weight f4 [10, 2]
0	0xbf0f245f	-0.5591487
1	0x3dea8229	0.11450607
2	0xbe64c272	-0.223398
3	0x3dc17695	0.09446446
4	0xbe120292	-0.14258793
5	0x3e4ae5bf	0.19814204
6	0x3e9a3147	0.3011572
7	0xbe89fde4	-0.26951516
8	0x3f05decf	0.52293104
9	0x3f1478a9	0.5799661
10	0xbe909e69	-0.28245857
11	0xbdd0ffe3	-0.102050565
12	0xbd3243ed	-0.04352181
13	0x3f1138ab	0.56727093
14	0xbf1f458b	-0.6221549
15	0x3f120c23	0.5704977
16	0xbecffcdd	-0.40622607
17	0x3e25ba56	0.16184363
18	0x3e861115	0.26184908
19	0xbe14869e	-0.14504477

bias f4 [10]
0	0x3f257561	0.6463223
1	0xbdc8e2dd	-0.09808896
2	0xbee668fe	-0.45001978
3	0x3f2f22db	0.6841256
4	0xbf1a3766	-0.6024078
5	0xbe1d5a39	-0.15366448
6	0xbc5cb1b2	-0.0134701
7	0xbf308d9f	-0.68966097
8	0xbe9ec843	-0.31012163
9	0xbeaa1633	-0.33220062

weight f4 [10, 2]
0	0xbdbb25c5	-0.09138063
1	0xbeb9dfc4	-0.36303532
2	0xbe8fd93e	-0.2809543
3	0x3e851732	0.2599426
4	0xbc807c72	-0.01568434
5	0x3e0e5b8f	0.13902114
6	0x3f2bf734	0.6717408
7	0xbf252670	-0.64511776
8	0x3e4099d2	0.18808678
9	0xbe925f1c	-0.28588188
10	0x3ee89f82	0.45434195
11	0x3ece4b10	0.40291643
12	0x3edbf70e	0.42961925
13	0xbebeaca9	-0.37241104
14	0xbedba243	-0.42897233
15	0x3ebbdbf6	0.36691254
16	0x3eaeae73	0.3411747
17	0xbcf2d2f5	-0.029641608
18	0x3ee3ab88	0.44466805
19	0x3d504b0e	0.050852828

bias f4 [10]
0	0x3e8f5aa4	0.2799884
1	0xbd34e383	-0.044162285
2	0xbf22a4d8	-0.6353278
3	0xbefdd038	-0.4957292
4	0x3f26bc90	0.65131474
5	0x3eddb57b	0.4330252
6	0xbe8742dc	-0.26418197
7	0x3ea1bcf0	0.3158946
8	0x3e1cfbc9	0.15330423
9	0xbf040fe3	-0.5158674

weight f4 [20, 4]
0	0xbf03d24d	-0.5149277
1	0xbeddc7de	-0.4331655
2	0x3e90fa39	0.28315905
3	0x3d79de68	0.06100312
4	0xbee76f29	-0.45201996
5	0xbc91ffdf	-0.017822204
6	0xbc4b8028	-0.012420692
7	0xbd730c17	-0.0593377
8	0xbe007e82	-0.12548259
9	0x3e8b9d1c	0.27268302
10	0xbeaf5781	-0.34246448
11	0x3c219c96	0.009863993
12	0x3de349c1	0.11098052
13	0x3e731ae4	0.23740727
14	0xbeb52274	-0.35377848
15	0xbe3a1a7a	-0.18174163
16	0xbef7db8d	-0.4840969
17	0x3ee4930f	0.44643447
18	0x3eb496bf	0.3527126
19	0x3ea0bef6	0.31395692
20	0xbe39d31b	-0.18146937
21	0x3da00f27	0.0781539
22	0x3e36d134	0.17853242
23	0x3e086c55	0.13322575
24	0x3ee4f216	0.44715947
25	0x3e65a357	0.2242559
26	0x3ec20015	0.37890688
27	0x3eceac8a	0.40366012
28	0x3e85e941	0.2615452
29	0xbefb0a8b	-0.4903148
30	0x3e5681ad	0.20947905
31	0x3c93367e	0.01797032
32	0xbe6dfd96	-0.23241267
33	0xbdf05de9	-0.11736662
34	0x3eea4ce7	0.45761797
35	0xbe94fb97	-0.29098198
36	0xbe620690	-0.22072816
37	0x3ebb39c2	0.36567503
38	0xbeada5a4	-0.33915436
39	0xbeed4c96	-0.46347493
40	0xbef353f5	-0.47524992
41	0xbec903ee	-0.3926081
42	0x3e8fa54b	0.28055796
43	0x3e52b968	0.2057854
44	0xbe963e1f	-0.2934427
45	0xbef06ab8	-0.4695642
46	0xbe9e65c2	-0.3093701
47	0xbebf7b30	-0.37398672
48	0x3eb6c12a	0.35694247
49	0xbe14d8a4	-0.14535767
50	0xbe5d6177	-0.21619211
51	0x3e6d2037	0.2315682
52	0xbd175b1f	-0.036952134
53	0xbe977828	-0.2958386
54	0x3dee1df2	0.11626805
55	0xbdfcb777	-0.12339681
56	0x3ebfcc67	0.37460634
57	0xbe72c1fa	-0.23706809
58	0xbe9353bd	-0.28774825
59	0xbeef6dd9	-0.46763495
60	0xbeb0122e	-0.3438887
61	0x3e8e390a	0.27777892
62	0xbdbfc218	-0.09363192
63	0x3eeb15ce	0.45915073
64	0x3e07c92e	0.13260338
65	0x3d302abd	0.04300951
66	0xbed138c8	-0.40863633
67	0xbedeafcf	-0.43493506
68	0x3ece5dfa	0.40306073
69	0xbe8bdd86	-0.27317446
70	0xbe659617	-0.22420536
71	0x3eae6f53	0.3406931
72	0x3d34684e	0.044044785
73	0x3f01ce5c	0.50705504
74	0xbf00f43b	-0.50372666
75	0x3ea0393a	0.3129366
76	0xbe9b9b3f	-0.3039188
77	0x3e525f45	0.20544155
78	0xbed05e1f	-0.4069681
79	0xbebb47fe	-0.36578363

bias f4 [20]
0	0x3b4e2152	0.0031452966
1	0x3e2426ee	0.16030475
2	0x3ea320cf	0.31860968
3	0xbe9bab8c	-0.30404317
4	0xbe5c767c	-0.21529573
5	0xbd6fe754	-0.05857022
6	0xbe9e0c7f	-0.3086891
7	0xbdd33eee	-0.10314737
8	0x3ef79742	0.48357588
9	0xbee88700	-0.45415497
10	0x3e903b4a	0.28170234
11	0xbc46330c	-0.012097131
12	0x3eccebe3	0.40023717
13	0x3ed84768	0.4224198
14	0xbd872906	-0.065996215
15	0x3cf48221	0.029847207
16	0x3e078033	0.13232498
17	0x3eddcb10	0.43318987
18	0x3e6ab3e5	0.22920187
19	0xbef3370c	-0.47502935

G f4 [2, 1]
0	0x00000000	0.0
1	0x3f800000	1.0

m1x_posterior f4 [2]
0	0xbe9bfdbc	-0.3046702
1	0x400fdbc3	2.2477882

m1x_posterior_previous f4 [2]
0	0xc002bede	-2.0428996
1	0x3ecb516d	0.3971056

m1x_prior_previous f4 [2]
0	0xbfd2a961	-1.645794
1	0x3f44e05a	0.76904833

y_previous f4 [2]
0	0xb9fa7000	-0.00047767162
1	0x40213f08	2.5194721
