KNet/Linear_SS_No_MM_/pipeline_KNet_Linear_Dynamics_T100_v_positive_5dB.pt (torch, 199497 bytes, 351 tensors)

G f4 [2, 1]
0	0x00000000	0.0
1	0x3f800000	1.0

Q f4 [2, 2]
0	0x3f800000	1.0
1	0x00000000	0.0
2	0x00000000	0.0
3	0x3f800000	1.0

R f4 [2, 2]
0	0x3ea1e89b	0.31622776
1	0x00000000	0.0
2	0x00000000	0.0
3	0x3ea1e89b	0.31622776

prior_Q f4 [2, 2]
0	0x3f800000	1.0
1	0x00000000	0.0
2	0x00000000	0.0
3	0x3f800000	1.0

prior_Sigma f4 [2, 2]
0	0x3f800000	1.0
1	0x00000000	0.0
2	0x00000000	0.0
3	0x3f800000	1.0

prior_S f4 [2, 2]
0	0x3f800000	1.0
1	0x00000000	0.0
2	0x00000000	0.0
3	0x3f800000	1.0

m1x_0 f4 [2]
0	0x41200000	10.0
1	0x00000000	0.0

x_prev f4 [2]
0	0x41200000	10.0
1	0x00000000	0.0

m2x_0 f4 [2, 2]
0	0x00000000	0.0
1	0x00000000	0.0
2	0x00000000	0.0
3	0x00000000	0.0

QT f4 [2, 2]
0	0x3f800000	1.0
1	0x00000000	0.0
2	0x00000000	0.0
3	0x3f800000	1.0

Qx f4 [2, 2]
0	0x3f800000	1.0
1	0x00000000	0.0
2	0x00000000	0.0
3	0x3f800000	1.0

L f4 [1, 2]
0	0x3f1444c0	0.57917404
1	0x3fc5ea40	1.5462112

L f4 [1, 2]
0	0x3f144ae4	0.57926774
1	0x3fc5e428	1.5460253

L f4 [1, 2]
0	0x3f1444c0	0.57917404
1	0x3fc5ea40	1.5462112

L f4 [1, 2]
0	0x3f144ae4	0.57926774
1	0x3fc5e428	1.5460253

L f4 [1, 2]
0	0x3f1444c0	0.57917404
1	0x3fc5ea40	1.5462112

L f4 [1, 2]
0	0x3f144ae4	0.57926774
1	0x3fc5e428	1.5460253

L f4 [1, 2]
0	0x3f1444c0	0.57917404
1	0x3fc5ea40	1.5462112

L f4 [1, 2]
0	0x3f144ae4	0.57926774
1	0x3fc5e428	1.5460253

L f4 [1, 2]
0	0x3f1444c0	0.57917404
1	0x3fc5ea40	1.5462112

L f4 [1, 2]
0	0x3f144ae4	0.57926774
1	0x3fc5e428	1.5460253

L f4 [1, 2]
0	0x3f1444c0	0.57917404
1	0x3fc5ea40	1.5462112

L f4 [1, 2]
0	0x3f144ae4	0.57926774
1	0x3fc5e428	1.5460253

L f4 [1, 2]
0	0x3f1444c0	0.57917404
1	0x3fc5ea40	1.5462112

L f4 [1, 2]
0	0x3f144ae4	0.57926774
1	0x3fc5e428	1.5460253

L f4 [1, 2]
0	0x3f1444c0	0.57917404
1	0x3fc5ea40	1.5462112

L f4 [1, 2]
0	0x3f144ae4	0.57926774
1	0x3fc5e428	1.5460253

L f4 [1, 2]
0	0x3f1444c0	0.57917404
1	0x3fc5ea40	1.5462112

L f4 [1, 2]
0	0x3f144ae4	0.57926774
1	0x3fc5e428	1.5460253

L f4 [1, 2]
0	0x3f1444c0	0.57917404
1	0x3fc5ea40	1.5462112

L f4 [1, 2]
0	0x3f144ae4	0.57926774
1	0x3fc5e428	1.5460253

L f4 [1, 2]
0	0x3f1444c0	0.57917404
1	0x3fc5ea40	1.5462112

L f4 [1, 2]
0	0x3f144ae4	0.57926774
1	0x3fc5e428	1.5460253

L f4 [1, 2]
0	0x3f1444c0	0.57917404
1	0x3fc5ea40	1.5462112

L f4 [1, 2]
0	0x3f144ae4	0.57926774
1	0x3fc5e428	1.5460253

L f4 [1, 2]
0	0x3f1444c0	0.57917404
1	0x3fc5ea40	1.5462112

L f4 [1, 2]
0	0x3f144ae4	0.57926774
1	0x3fc5e428	1.5460253

L f4 [1, 2]
0	0x3f1444c0	0.57917404
1	0x3fc5ea40	1.5462112

L f4 [1, 2]
0	0x3f144ae4	0.57926774
1	0x3fc5e428	1.5460253

L f4 [1, 2]
0	0x3f1444c0	0.57917404
1	0x3fc5ea40	1.5462112

L f4 [1, 2]
0	0x3f144ae4	0.57926774
1	0x3fc5e428	1.5460253

L f4 [1, 2]
0	0x3f1444c0	0.57917404
1	0x3fc5ea40	1.5462112

L f4 [1, 2]
0	0x3f144ae4	0.57926774
1	0x3fc5e428	1.5460253

L f4 [1, 2]
0	0x3f1444c0	0.57917404
1	0x3fc5ea40	1.5462112

L f4 [1, 2]
0	0x3f144ae4	0.57926774
1	0x3fc5e428	1.5460253

L f4 [1, 2]
0	0x3f1444c0	0.57917404
1	0x3fc5ea40	1.5462112

L f4 [1, 2]
0	0x3f144ae4	0.57926774
1	0x3fc5e428	1.5460253

L f4 [1, 2]
0	0x3f1444c0	0.57917404
1	0x3fc5ea40	1.5462112

L f4 [1, 2]
0	0x3f144ae4	0.57926774
1	0x3fc5e428	1.5460253

L f4 [1, 2]
0	0x3f1444c0	0.57917404
1	0x3fc5ea40	1.5462112

L f4 [1, 2]
0	0x3f144ae4	0.57926774
1	0x3fc5e428	1.5460253

L f4 [1, 2]
0	0x3f1444c0	0.57917404
1	0x3fc5ea40	1.5462112

L f4 [1, 2]
0	0x3f144ae4	0.57926774
1	0x3fc5e428	1.5460253

L f4 [1, 2]
0	0x3f1444c0	0.57917404
1	0x3fc5ea40	1.5462112

L f4 [1, 2]
0	0x3f144ae4	0.57926774
1	0x3fc5e428	1.5460253

L f4 [1, 2]
0	0x3f1444c0	0.57917404
1	0x3fc5ea40	1.5462112

L f4 [1, 2]
0	0x3f144ae4	0.57926774
1	0x3fc5e428	1.5460253

L f4 [1, 2]
0	0x3f1444c0	0.57917404
1	0x3fc5ea40	1.5462112

L f4 [1, 2]
0	0x3f144ae4	0.57926774
1	0x3fc5e428	1.5460253

L f4 [1, 2]
0	0x3f1444c0	0.57917404
1	0x3fc5ea40	1.5462112

L f4 [1, 2]
0	0x3f144ae4	0.57926774
1	0x3fc5e428	1.5460253

L f4 [1, 2]
0	0x3f1444c0	0.57917404
1	0x3fc5ea40	1.5462112

L f4 [1, 2]
0	0x3f144ae4	0.57926774
1	0x3fc5e428	1.5460253

L f4 [1, 2]
0	0x3f1444c0	0.57917404
1	0x3fc5ea40	1.5462112

L f4 [1, 2]
0	0x3f144ae4	0.57926774
1	0x3fc5e428	1.5460253

L f4 [1, 2]
0	0x3f1444c0	0.57917404
1	0x3fc5ea40	1.5462112

L f4 [1, 2]
0	0x3f144ae4	0.57926774
1	0x3fc5e428	1.5460253

L f4 [1, 2]
0	0x3f1444c0	0.57917404
1	0x3fc5ea40	1.5462112

L f4 [1, 2]
0	0x3f144ae4	0.57926774
1	0x3fc5e428	1.5460253

L f4 [1, 2]
0	0x3f1444c0	0.57917404
1	0x3fc5ea40	1.5462112

L f4 [1, 2]
0	0x3f144ae4	0.57926774
1	0x3fc5e428	1.5460253

L f4 [1, 2]
0	0x3f1444c0	0.57917404
1	0x3fc5ea40	1.5462112

L f4 [1, 2]
0	0x3f144ae4	0.57926774
1	0x3fc5e428	1.5460253

L f4 [1, 2]
0	0x3f1444c0	0.57917404
1	0x3fc5ea40	1.5462112

L f4 [1, 2]
0	0x3f144ae4	0.57926774
1	0x3fc5e428	1.5460253

L f4 [1, 2]
0	0x3f1444c0	0.57917404
1	0x3fc5ea40	1.5462112

L f4 [1, 2]
0	0x3f144ae4	0.57926774
1	0x3fc5e428	1.5460253

L f4 [1, 2]
0	0x3f1444c0	0.57917404
1	0x3fc5ea40	1.5462112

L f4 [1, 2]
0	0x3f144ae4	0.57926774
1	0x3fc5e428	1.5460253

L f4 [1, 2]
0	0x3f1444c0	0.57917404
1	0x3fc5ea40	1.5462112

L f4 [1, 2]
0	0x3f144ae4	0.57926774
1	0x3fc5e428	1.5460253

L f4 [1, 2]
0	0x3f1444c0	0.57917404
1	0x3fc5ea40	1.5462112

L f4 [1, 2]
0	0x3f144ae4	0.57926774
1	0x3fc5e428	1.5460253

L f4 [1, 2]
0	0x3f1444c0	0.57917404
1	0x3fc5ea40	1.5462112

L f4 [1, 2]
0	0x3f144ae4	0.57926774
1	0x3fc5e428	1.5460253

L f4 [1, 2]
0	0x3f1444c0	0.57917404
1	0x3fc5ea40	1.5462112

L f4 [1, 2]
0	0x3f144ae4	0.57926774
1	0x3fc5e428	1.5460253

L f4 [1, 2]
0	0x3f1444c0	0.57917404
1	0x3fc5ea40	1.5462112

L f4 [1, 2]
0	0x3f144ae4	0.57926774
1	0x3fc5e428	1.5460253

L f4 [1, 2]
0	0x3f1444c0	0.57917404
1	0x3fc5ea40	1.5462112

L f4 [1, 2]
0	0x3f144ae4	0.57926774
1	0x3fc5e428	1.5460253

L f4 [1, 2]
0	0x3f1444c0	0.57917404
1	0x3fc5ea40	1.5462112

L f4 [1, 2]
0	0x3f144ae4	0.57926774
1	0x3fc5e428	1.5460253

L f4 [1, 2]
0	0x3f1444c0	0.57917404
1	0x3fc5ea40	1.5462112

L f4 [1, 2]
0	0x3f144ae4	0.57926774
1	0x3fc5e428	1.5460253

L f4 [1, 2]
0	0x3f1444c0	0.57917404
1	0x3fc5ea40	1.5462112

L f4 [1, 2]
0	0x3f144ae4	0.57926774
1	0x3fc5e428	1.5460253

L f4 [1, 2]
0	0x3f1444c0	0.57917404
1	0x3fc5ea40	1.5462112

L f4 [1, 2]
0	0x3f144ae4	0.57926774
1	0x3fc5e428	1.5460253

L f4 [1, 2]
0	0x3f1444c0	0.57917404
1	0x3fc5ea40	1.5462112

L f4 [1, 2]
0	0x3f144ae4	0.57926774
1	0x3fc5e428	1.5460253

L f4 [1, 2]
0	0x3f1444c0	0.57917404
1	0x3fc5ea40	1.5462112

L f4 [1, 2]
0	0x3f144ae4	0.57926774
1	0x3fc5e428	1.5460253

L f4 [1, 2]
0	0x3f1444c0	0.57917404
1	0x3fc5ea40	1.5462112

L f4 [1, 2]
0	0x3f144ae4	0.57926774
1	0x3fc5e428	1.5460253

L f4 [1, 2]
0	0x3f1444c0	0.57917404
1	0x3fc5ea40	1.5462112

L f4 [1, 2]
0	0x3f144ae4	0.57926774
1	0x3fc5e428	1.5460253

L f4 [1, 2]
0	0x3f143b80	0.5790329
1	0x3fc5de00	1.5458374

L f4 [1, 2]
0	0x3f13a2cc	0.57670283
1	0x3fc585f0	1.54315

L f4 [1, 2]
0	0x3f0fcae0	0.5616894
1	0x3fc35140	1.525917

L f4 [1, 2]
0	0x3ee9a000	0.45629883
1	0x3fb4948c	1.4107833

S f4 [2, 2]
0	0x402acba4	2.6686792
1	0x3fdd05ac	1.7267356
2	0x3fdd05ac	1.7267356
3	0x403858b0	2.880413

S f4 [2, 2]
0	0x402ac260	2.6681137
1	0x3fdcd7e0	1.725338
2	0x3fdcd7e0	1.725338
3	0x403835c0	2.8782806

S f4 [2, 2]
0	0x402acba4	2.6686792
1	0x3fdd05ac	1.7267356
2	0x3fdd05ac	1.7267356
3	0x403858b0	2.880413

S f4 [2, 2]
0	0x402ac260	2.6681137
1	0x3fdcd7e0	1.725338
2	0x3fdcd7e0	1.725338
3	0x403835c0	2.8782806

S f4 [2, 2]
0	0x402acba4	2.6686792
1	0x3fdd05ac	1.7267356
2	0x3fdd05ac	1.7267356
3	0x403858b0	2.880413

S f4 [2, 2]
0	0x402ac260	2.6681137
1	0x3fdcd7e0	1.725338
2	0x3fdcd7e0	1.725338
3	0x403835c0	2.8782806

S f4 [2, 2]
0	0x402acba4	2.6686792
1	0x3fdd05ac	1.7267356
2	0x3fdd05ac	1.7267356
3	0x403858b0	2.880413

S f4 [2, 2]
0	0x402ac260	2.6681137
1	0x3fdcd7e0	1.725338
2	0x3fdcd7e0	1.725338
3	0x403835c0	2.8782806

S f4 [2, 2]
0	0x402acba4	2.6686792
1	0x3fdd05ac	1.7267356
2	0x3fdd05ac	1.7267356
3	0x403858b0	2.880413

S f4 [2, 2]
0	0x402ac260	2.6681137
1	0x3fdcd7e0	1.725338
2	0x3fdcd7e0	1.725338
3	0x403835c0	2.8782806

S f4 [2, 2]
0	0x402acba4	2.6686792
1	0x3fdd05ac	1.7267356
2	0x3fdd05ac	1.7267356
3	0x403858b0	2.880413

S f4 [2, 2]
0	0x402ac260	2.6681137
1	0x3fdcd7e0	1.725338
2	0x3fdcd7e0	1.725338
3	0x403835c0	2.8782806

S f4 [2, 2]
0	0x402acba4	2.6686792
1	0x3fdd05ac	1.7267356
2	0x3fdd05ac	1.7267356
3	0x403858b0	2.880413

S f4 [2, 2]
0	0x402ac260	2.6681137
1	0x3fdcd7e0	1.725338
2	0x3fdcd7e0	1.725338
3	0x403835c0	2.8782806

S f4 [2, 2]
0	0x402acba4	2.6686792
1	0x3fdd05ac	1.7267356
2	0x3fdd05ac	1.7267356
3	0x403858b0	2.880413

S f4 [2, 2]
0	0x402ac260	2.6681137
1	0x3fdcd7e0	1.725338
2	0x3fdcd7e0	1.725338
3	0x403835c0	2.8782806

S f4 [2, 2]
0	0x402acba4	2.6686792
1	0x3fdd05ac	1.7267356
2	0x3fdd05ac	1.7267356
3	0x403858b0	2.880413

S f4 [2, 2]
0	0x402ac260	2.6681137
1	0x3fdcd7e0	1.725338
2	0x3fdcd7e0	1.725338
3	0x403835c0	2.8782806

S f4 [2, 2]
0	0x402acba4	2.6686792
1	0x3fdd05ac	1.7267356
2	0x3fdd05ac	1.7267356
3	0x403858b0	2.880413

S f4 [2, 2]
0	0x402ac260	2.6681137
1	0x3fdcd7e0	1.725338
2	0x3fdcd7e0	1.725338
3	0x403835c0	2.8782806

S f4 [2, 2]
0	0x402acba4	2.6686792
1	0x3fdd05ac	1.7267356
2	0x3fdd05ac	1.7267356
3	0x403858b0	2.880413

S f4 [2, 2]
0	0x402ac260	2.6681137
1	0x3fdcd7e0	1.725338
2	0x3fdcd7e0	1.725338
3	0x403835c0	2.8782806

S f4 [2, 2]
0	0x402acba4	2.6686792
1	0x3fdd05ac	1.7267356
2	0x3fdd05ac	1.7267356
3	0x403858b0	2.880413

S f4 [2, 2]
0	0x402ac260	2.6681137
1	0x3fdcd7e0	1.725338
2	0x3fdcd7e0	1.725338
3	0x403835c0	2.8782806

S f4 [2, 2]
0	0x402acba4	2.6686792
1	0x3fdd05ac	1.7267356
2	0x3fdd05ac	1.7267356
3	0x403858b0	2.880413

S f4 [2, 2]
0	0x402ac260	2.6681137
1	0x3fdcd7e0	1.725338
2	0x3fdcd7e0	1.725338
3	0x403835c0	2.8782806

S f4 [2, 2]
0	0x402acba4	2.6686792
1	0x3fdd05ac	1.7267356
2	0x3fdd05ac	1.7267356
3	0x403858b0	2.880413

S f4 [2, 2]
0	0x402ac260	2.6681137
1	0x3fdcd7e0	1.725338
2	0x3fdcd7e0	1.725338
3	0x403835c0	2.8782806

S f4 [2, 2]
0	0x402acba4	2.6686792
1	0x3fdd05ac	1.7267356
2	0x3fdd05ac	1.7267356
3	0x403858b0	2.880413

S f4 [2, 2]
0	0x402ac260	2.6681137
1	0x3fdcd7e0	1.725338
2	0x3fdcd7e0	1.725338
3	0x403835c0	2.8782806

S f4 [2, 2]
0	0x402acba4	2.6686792
1	0x3fdd05ac	1.7267356
2	0x3fdd05ac	1.7267356
3	0x403858b0	2.880413

S f4 [2, 2]
0	0x402ac260	2.6681137
1	0x3fdcd7e0	1.725338
2	0x3fdcd7e0	1.725338
3	0x403835c0	2.8782806

S f4 [2, 2]
0	0x402acba4	2.6686792
1	0x3fdd05ac	1.7267356
2	0x3fdd05ac	1.7267356
3	0x403858b0	2.880413

S f4 [2, 2]
0	0x402ac260	2.6681137
1	0x3fdcd7e0	1.725338
2	0x3fdcd7e0	1.725338
3	0x403835c0	2.8782806

S f4 [2, 2]
0	0x402acba4	2.6686792
1	0x3fdd05ac	1.7267356
2	0x3fdd05ac	1.7267356
3	0x403858b0	2.880413

S f4 [2, 2]
0	0x402ac260	2.6681137
1	0x3fdcd7e0	1.725338
2	0x3fdcd7e0	1.725338
3	0x403835c0	2.8782806

S f4 [2, 2]
0	0x402acba4	2.6686792
1	0x3fdd05ac	1.7267356
2	0x3fdd05ac	1.7267356
3	0x403858b0	2.880413

S f4 [2, 2]
0	0x402ac260	2.6681137
1	0x3fdcd7e0	1.725338
2	0x3fdcd7e0	1.725338
3	0x403835c0	2.8782806

S f4 [2, 2]
0	0x402acba4	2.6686792
1	0x3fdd05ac	1.7267356
2	0x3fdd05ac	1.7267356
3	0x403858b0	2.880413

S f4 [2, 2]
0	0x402ac260	2.6681137
1	0x3fdcd7e0	1.725338
2	0x3fdcd7e0	1.725338
3	0x403835c0	2.8782806

S f4 [2, 2]
0	0x402acba4	2.6686792
1	0x3fdd05ac	1.7267356
2	0x3fdd05ac	1.7267356
3	0x403858b0	2.880413

S f4 [2, 2]
0	0x402ac260	2.6681137
1	0x3fdcd7e0	1.725338
2	0x3fdcd7e0	1.725338
3	0x403835c0	2.8782806

S f4 [2, 2]
0	0x402acba4	2.6686792
1	0x3fdd05ac	1.7267356
2	0x3fdd05ac	1.7267356
3	0x403858b0	2.880413

S f4 [2, 2]
0	0x402ac260	2.6681137
1	0x3fdcd7e0	1.725338
2	0x3fdcd7e0	1.725338
3	0x403835c0	2.8782806

S f4 [2, 2]
0	0x402acba4	2.6686792
1	0x3fdd05ac	1.7267356
2	0x3fdd05ac	1.7267356
3	0x403858b0	2.880413

S f4 [2, 2]
0	0x402ac260	2.6681137
1	0x3fdcd7e0	1.725338
2	0x3fdcd7e0	1.725338
3	0x403835c0	2.8782806

S f4 [2, 2]
0	0x402acba4	2.6686792
1	0x3fdd05ac	1.7267356
2	0x3fdd05ac	1.7267356
3	0x403858b0	2.880413

S f4 [2, 2]
0	0x402ac260	2.6681137
1	0x3fdcd7e0	1.725338
2	0x3fdcd7e0	1.725338
3	0x403835c0	2.8782806

S f4 [2, 2]
0	0x402acba4	2.6686792
1	0x3fdd05ac	1.7267356
2	0x3fdd05ac	1.7267356
3	0x403858b0	2.880413

S f4 [2, 2]
0	0x402ac260	2.6681137
1	0x3fdcd7e0	1.725338
2	0x3fdcd7e0	1.725338
3	0x403835c0	2.8782806

S f4 [2, 2]
0	0x402acba4	2.6686792
1	0x3fdd05ac	1.7267356
2	0x3fdd05ac	1.7267356
3	0x403858b0	2.880413

S f4 [2, 2]
0	0x402ac260	2.6681137
1	0x3fdcd7e0	1.725338
2	0x3fdcd7e0	1.725338
3	0x403835c0	2.8782806

S f4 [2, 2]
0	0x402acba4	2.6686792
1	0x3fdd05ac	1.7267356
2	0x3fdd05ac	1.7267356
3	0x403858b0	2.880413

S f4 [2, 2]
0	0x402ac260	2.6681137
1	0x3fdcd7e0	1.725338
2	0x3fdcd7e0	1.725338
3	0x403835c0	2.8782806

S f4 [2, 2]
0	0x402acba4	2.6686792
1	0x3fdd05ac	1.7267356
2	0x3fdd05ac	1.7267356
3	0x403858b0	2.880413

S f4 [2, 2]
0	0x402ac260	2.6681137
1	0x3fdcd7e0	1.725338
2	0x3fdcd7e0	1.725338
3	0x403835c0	2.8782806

S f4 [2, 2]
0	0x402acba4	2.6686792
1	0x3fdd05ac	1.7267356
2	0x3fdd05ac	1.7267356
3	0x403858b0	2.880413

S f4 [2, 2]
0	0x402ac260	2.6681137
1	0x3fdcd7e0	1.725338
2	0x3fdcd7e0	1.725338
3	0x403835c0	2.8782806

S f4 [2, 2]
0	0x402acba4	2.6686792
1	0x3fdd05ac	1.7267356
2	0x3fdd05ac	1.7267356
3	0x403858b0	2.880413

S f4 [2, 2]
0	0x402ac260	2.6681137
1	0x3fdcd7e0	1.725338
2	0x3fdcd7e0	1.725338
3	0x403835c0	2.8782806

S f4 [2, 2]
0	0x402acba4	2.6686792
1	0x3fdd05ac	1.7267356
2	0x3fdd05ac	1.7267356
3	0x403858b0	2.880413

S f4 [2, 2]
0	0x402ac260	2.6681137
1	0x3fdcd7e0	1.725338
2	0x3fdcd7e0	1.725338
3	0x403835c0	2.8782806

S f4 [2, 2]
0	0x402acba4	2.6686792
1	0x3fdd05ac	1.7267356
2	0x3fdd05ac	1.7267356
3	0x403858b0	2.880413

S f4 [2, 2]
0	0x402ac260	2.6681137
1	0x3fdcd7e0	1.725338
2	0x3fdcd7e0	1.725338
3	0x403835c0	2.8782806

S f4 [2, 2]
0	0x402acba4	2.6686792
1	0x3fdd05ac	1.7267356
2	0x3fdd05ac	1.7267356
3	0x403858b0	2.880413

S f4 [2, 2]
0	0x402ac260	2.6681137
1	0x3fdcd7e0	1.725338
2	0x3fdcd7e0	1.725338
3	0x403835c0	2.8782806

S f4 [2, 2]
0	0x402acba4	2.6686792
1	0x3fdd05ac	1.7267356
2	0x3fdd05ac	1.7267356
3	0x403858b0	2.880413

S f4 [2, 2]
0	0x402ac260	2.6681137
1	0x3fdcd7e0	1.725338
2	0x3fdcd7e0	1.725338
3	0x403835c0	2.8782806

S f4 [2, 2]
0	0x402acba4	2.6686792
1	0x3fdd05ac	1.7267356
2	0x3fdd05ac	1.7267356
3	0x403858b0	2.880413

S f4 [2, 2]
0	0x402ac260	2.6681137
1	0x3fdcd7e0	1.725338
2	0x3fdcd7e0	1.725338
3	0x403835c0	2.8782806

S f4 [2, 2]
0	0x402acba4	2.6686792
1	0x3fdd05ac	1.7267356
2	0x3fdd05ac	1.7267356
3	0x403858b0	2.880413

S f4 [2, 2]
0	0x402ac260	2.6681137
1	0x3fdcd7e0	1.725338
2	0x3fdcd7e0	1.725338
3	0x403835c0	2.8782806

S f4 [2, 2]
0	0x402acba4	2.6686792
1	0x3fdd05ac	1.7267356
2	0x3fdd05ac	1.7267356
3	0x403858b0	2.880413

S f4 [2, 2]
0	0x402ac260	2.6681137
1	0x3fdcd7e0	1.725338
2	0x3fdcd7e0	1.725338
3	0x403835c0	2.8782806

S f4 [2, 2]
0	0x402acba4	2.6686792
1	0x3fdd05ac	1.7267356
2	0x3fdd05ac	1.7267356
3	0x403858b0	2.880413

S f4 [2, 2]
0	0x402ac260	2.6681137
1	0x3fdcd7e0	1.725338
2	0x3fdcd7e0	1.725338
3	0x403835c0	2.8782806

S f4 [2, 2]
0	0x402acba4	2.6686792
1	0x3fdd05ac	1.7267356
2	0x3fdd05ac	1.7267356
3	0x403858b0	2.880413

S f4 [2, 2]
0	0x402ac260	2.6681137
1	0x3fdcd7e0	1.725338
2	0x3fdcd7e0	1.725338
3	0x403835c0	2.8782806

S f4 [2, 2]
0	0x402acba4	2.6686792
1	0x3fdd05ac	1.7267356
2	0x3fdd05ac	1.7267356
3	0x403858b0	2.880413

S f4 [2, 2]
0	0x402ac260	2.6681137
1	0x3fdcd7e0	1.725338
2	0x3fdcd7e0	1.725338
3	0x403835c0	2.8782806

S f4 [2, 2]
0	0x402acba4	2.6686792
1	0x3fdd05ac	1.7267356
2	0x3fdd05ac	1.7267356
3	0x403858b0	2.880413

S f4 [2, 2]
0	0x402ac260	2.6681137
1	0x3fdcd7e0	1.725338
2	0x3fdcd7e0	1.725338
3	0x403835c0	2.8782806

S f4 [2, 2]
0	0x402acba4	2.6686792
1	0x3fdd05ac	1.7267356
2	0x3fdd05ac	1.7267356
3	0x403858b0	2.880413

S f4 [2, 2]
0	0x402ac260	2.6681137
1	0x3fdcd7e0	1.725338
2	0x3fdcd7e0	1.725338
3	0x403835c0	2.8782806

S f4 [2, 2]
0	0x402acba4	2.6686792
1	0x3fdd05ac	1.7267356
2	0x3fdd05ac	1.7267356
3	0x403858b0	2.880413

S f4 [2, 2]
0	0x402ac260	2.6681137
1	0x3fdcd7e0	1.725338
2	0x3fdcd7e0	1.725338
3	0x403835c0	2.8782806

S f4 [2, 2]
0	0x402acba4	2.6686792
1	0x3fdd05ac	1.7267356
2	0x3fdd05ac	1.7267356
3	0x403858b0	2.880413

S f4 [2, 2]
0	0x402ac260	2.6681137
1	0x3fdcd7e0	1.725338
2	0x3fdcd7e0	1.725338
3	0x403835c0	2.8782806

S f4 [2, 2]
0	0x402acba4	2.6686792
1	0x3fdd05ac	1.7267356
2	0x3fdd05ac	1.7267356
3	0x403858b0	2.880413

S f4 [2, 2]
0	0x402ac260	2.6681137
1	0x3fdcd7e0	1.725338
2	0x3fdcd7e0	1.725338
3	0x403835c0	2.8782806

S f4 [2, 2]
0	0x402acba4	2.6686792
1	0x3fdd05ac	1.7267356
2	0x3fdd05ac	1.7267356
3	0x403858b0	2.880413

S f4 [2, 2]
0	0x402ac260	2.6681137
1	0x3fdcd7e0	1.725338
2	0x3fdcd7e0	1.725338
3	0x403835c0	2.8782806

S f4 [2, 2]
0	0x402acba4	2.6686792
1	0x3fdd05ac	1.7267356
2	0x3fdd05ac	1.7267356
3	0x403858b0	2.880413

S f4 [2, 2]
0	0x402ac260	2.6681137
1	0x3fdcd7e0	1.725338
2	0x3fdcd7e0	1.725338
3	0x403835c0	2.8782806

S f4 [2, 2]
0	0x402acba4	2.6686792
1	0x3fdd05ac	1.7267356
2	0x3fdd05ac	1.7267356
3	0x403858b0	2.880413

S f4 [2, 2]
0	0x402abe2c	2.6678572
1	0x3fdcdc34	1.7254701
2	0x3fdcdc34	1.7254701
3	0x40383ba0	2.8786392

S f4 [2, 2]
0	0x402a96be	2.6654506
1	0x3fdc9940	1.7234268
2	0x3fdc9940	1.7234268
3	0x40382e80	2.8778381

S f4 [2, 2]
0	0x4029a66c	2.6507826
1	0x3fda9aac	1.7078452
2	0x3fda9aac	1.7078452
3	0x40371750	2.860798

S f4 [2, 2]
0	0x4022cc00	2.5437012
1	0x3fcb65ba	1.589042
2	0x3fcb65ba	1.589042
3	0x402ea5a8	2.7288609

S f4 [2, 2]
0	0x40000000	2.0
1	0x3f800000	1.0
2	0x3f800000	1.0
3	0x4005d000	2.0908203

L_infinite f4 [1, 2]
0	0x3f14448b	0.5791709
1	0x3fc5d71b	1.545627

weight_ih_l0 f4 [12, 10]
0	0xbdd835c0	-0.10557127
1	0x3ba2c4b7	0.004967298
2	0xbed9b81c	-0.42523277
3	0x3edbc89b	0.42926487
4	0x3ed64a2d	0.41853467
5	0x3e8b32c9	0.27187183
6	0xbdab7941	-0.08372737
7	0x3e94b8d3	0.2904726
8	0xbe8530f7	-0.2601392
9	0x3eb834dc	0.35977829
10	0xbecb4b82	-0.39706045
11	0xbed62a9e	-0.4182939
12	0xbd2bb28f	-0.041918334
13	0x3ee2eeb6	0.44322747
14	0xbe8d1de6	-0.27561873
15	0xbe98ae04	-0.29820263
16	0x3ebc70a1	0.3680468
17	0xbd7aa1b4	-0.06118937
18	0xbe157b27	-0.1459776
19	0x3955eea0	0.00020402158
20	0x3eb184fc	0.34671772
21	0xbe8b6cb4	-0.2723137
22	0x3e5ff962	0.21872476
23	0xbd67d29c	-0.056597337
24	0xbe873b8a	-0.26412612
25	0x3e1d766b	0.15377204
26	0xbea29695	-0.3175551
27	0xbd65ebe4	-0.056133166
28	0x3ef4efd1	0.47839215
29	0x3e1660b4	0.14685327
30	0xbe73681b	-0.23770182
31	0x3e5d9b31	0.21641232
32	0x3e4c871d	0.19973417
33	0x3ee3b499	0.44473723
34	0xbedcac60	-0.43100262
35	0xbecf8272	-0.4052921
36	0x3e7308f2	0.23733881
37	0x3eeac65e	0.45854467
38	0xbdf1bc90	-0.118035436
39	0xbe6a4a7f	-0.2287998
40	0x3e888c1e	0.266694
41	0x3dfe7314	0.12424293
42	0xbe786f77	-0.2426127
43	0x3e5fe66e	0.21865246
44	0x3ee69f8b	0.45043597
45	0xbed9e46d	-0.42557088
46	0xbe396c37	-0.18107687
47	0xbee492d7	-0.4464328
48	0x3e3d10c0	0.18463421
49	0x3c84b1e5	0.016198108
50	0xbef446da	-0.47710305
51	0x3ea75917	0.32685158
52	0xb9c0bab4	-0.00036760198
53	0xbc04d6ba	-0.008107835
54	0xbeb922b9	-0.36159304
55	0xbe5a3f2d	-0.21313162
56	0x3d38160f	0.04494291
57	0x3ea9b2ca	0.33144218
58	0x3ea1f751	0.31634
59	0xbe880c03	-0.26571664
60	0x3e1ae974	0.15128118
61	0x3e454fba	0.19268695
62	0xbc3d9676	-0.011571517
63	0xbc4dbbc9	-0.0125569785
64	0x3e9282d2	0.28615433
65	0x3dd22573	0.10261049
66	0x3d88446f	0.06653678
67	0xbd81813c	-0.063234776
68	0xbe3c305d	-0.18377824
69	0x3e086d2a	0.13322893
70	0xbd172880	-0.03690386
71	0xbdad7fba	-0.084716275
72	0x3e1c7ada	0.15281239
73	0x3e5fadb4	0.21843606
74	0x3dcee406	0.10102086
75	0xbea41cd4	-0.32053244
76	0x3de73e6e	0.112912044
77	0x3dc93c7d	0.0982599
78	0x3e4fd4c1	0.20296003
79	0x3ea7fec9	0.32811573
80	0x3eec3c4e	0.4613976
81	0x3aacf476	0.0013195414
82	0xbee38370	-0.44436216
83	0x3ee308df	0.44342706
84	0x3e796de8	0.24358332
85	0xbe3627b2	-0.1778858
86	0x3ef8f77e	0.48626322
87	0x3e87171c	0.2638482
88	0xbe663361	-0.22480537
89	0xbda8ca02	-0.08241655
90	0x3dda8432	0.106697455
91	0xbed63c25	-0.41842762
92	0x3e88f3bf	0.26748464
93	0x3e146cdd	0.14494653
94	0xbe18904d	-0.14898796
95	0x3d53fe28	0.051756054
96	0x3ec14ebd	0.37755385
97	0xbe85fdee	-0.26170295
98	0x3df7e6a5	0.12104539
99	0x3e744a6f	0.23856519
100	0x3e1697da	0.14706364
101	0x3ebb11ad	0.36536923
102	0x3e4b744d	0.19868584
103	0xbe083607	-0.1330186
104	0xbef59ff5	-0.479736
105	0x3d3193dc	0.0433539
106	0x3e6e3a2d	0.2326438
107	0x3e366ee0	0.17815733
108	0x3e9205a5	0.2851993
109	0x3d2b333e	0.041796915
110	0xbedca0ca	-0.43091422
111	0x3e84c1da	0.25929147
112	0xbe93314a	-0.28748542
113	0xbe02d42b	-0.12776248
114	0xbdb5fe0a	-0.08886345
115	0xbe09fcb5	-0.13475306
116	0xbd69d6b8	-0.057089537
117	0xbe2baf8f	-0.16766189
118	0xbee37fc1	-0.44433406
119	0x3cc53f21	0.024077954

weight_hh_l0 f4 [12, 4]
0	0x3ee241c8	0.44190812
1	0x3e8ff3f6	0.28115815
2	0xbd18ecfb	-0.037335377
3	0xbe1c3dcb	-0.15257947
4	0xbe383f12	-0.1799281
5	0xbe0ba74d	-0.13638039
6	0x3e8e051f	0.27738282
7	0x3e1f1c0d	0.15538044
8	0xbebf5def	-0.37376353
9	0xbe00eaa8	-0.12589514
10	0xbe9d71f1	-0.30750993
11	0x3cbd1424	0.023080893
12	0x3dfdeca8	0.12398654
13	0xbcd4a47b	-0.025957337
14	0xbd4accdb	-0.04951177
15	0x3ec479b8	0.38374114
16	0x3eea5821	0.45770362
17	0xbea08e2b	-0.31358466
18	0x3e531a3e	0.2061548
19	0xbec9fcf4	-0.394508
20	0x3e9103e5	0.28323284
21	0x3e9baa7b	0.30403504
22	0x3ed30f7a	0.41222745
23	0x3eaf75b9	0.34269503
24	0xbe26af04	-0.162777
25	0x3cf3ddb1	0.029768797
26	0xbeb21695	-0.34782854
27	0x3e777540	0.24165821
28	0xbe5c1871	-0.21493699
29	0xbe5d6209	-0.21619429
30	0xbea07217	-0.31337044
31	0x3ed26b68	0.4109757
32	0xbeaf4e6a	-0.34239513
33	0x3eb29bc3	0.34884462
34	0xbf0155e2	-0.5052167
35	0x3e70aeba	0.23504153
36	0x3e81b36b	0.25332198
37	0xbebab7f6	-0.36468476
38	0xbeb652dd	-0.35610095
39	0xbeaa2fa1	-0.33239463
40	0x3e7206d3	0.23635416
41	0xbed60e86	-0.41807956
42	0x3eedeb7b	0.4646872
43	0xbea33ad2	-0.31880814
44	0xbf022417	-0.5083632
45	0xbef34802	-0.47515875
46	0x3eba0c05	0.36337295
47	0x3df8b7aa	0.12144406

bias_ih_l0 f4 [12]
0	0xbeefae01	-0.46812442
1	0x3e83ae9a	0.25719148
2	0x3ec1d431	0.37857202
3	0x3ea6113f	0.32435033
4	0x3e30ed86	0.17278108
5	0xbe0b3214	-0.13593322
6	0xbe0564d0	-0.13026738
7	0x3d79e1f0	0.061006486
8	0xbe62eb97	-0.22160183
9	0x3e5990c1	0.21246625
10	0xbefd0519	-0.49417952
11	0x3e884412	0.26614434

bias_hh_l0 f4 [12]
0	0x3e903e43	0.28172502
1	0xbec2919b	-0.38001713
2	0xbe884c9d	-0.2662095
3	0x3eaafb84	0.33395016
4	0x3e4faaca	0.20279995
5	0x3e5f5875	0.21811087
6	0xbe8529ac	-0.26008356
7	0x3ec9785d	0.39349642
8	0xbdc329a1	-0.095294245
9	0x3dd18e68	0.1023224
10	0xbc5d43b1	-0.013504908
11	0xbe904787	-0.2817957

weight_ih_l0 f4 [12, 14]
0	0xbd6687eb	-0.056281965
1	0x3ea36515	0.31913057
2	0x3ecc2102	0.39868933
3	0xbe8bc560	-0.27299023
4	0xbe910199	-0.2832153
5	0x3d1545b8	0.036443442
6	0x3eb9cc94	0.36288893
7	0x3c57b81e	0.013166456
8	0xbebb78e5	-0.36615673
9	0x3e35ac8b	0.17741601
10	0xbdf896f7	-0.12138169
11	0x3dcc17b7	0.09965461
12	0x3d3b2260	0.04568708
13	0xbd25ebcc	-0.040508077
14	0xbed8076a	-0.42193156
15	0x3e4271d1	0.1898873
16	0xbeab8e16	-0.3350684
17	0xbed402cd	-0.41408387
18	0x3e47d0cb	0.19513242
19	0xbee92724	-0.45537674
20	0x3e973bc5	0.29537788
21	0x3e839d4c	0.25705945
22	0x3ebca1d1	0.36842206
23	0xbe3d1a85	-0.18467148
24	0xbee5b724	-0.44866288
25	0xbd74cfe2	-0.059768565
26	0x3ec0e4c8	0.37674546
27	0xbec7759c	-0.38956916
28	0x3d97ac69	0.074059315
29	0x3d4c08aa	0.04981295
30	0x3ede58db	0.43427166
31	0xbe986a49	-0.2976859
32	0xbe5cdfc4	-0.21569735
33	0x3eca3c69	0.39499214
34	0xbedccc89	-0.43124798
35	0x3e96a925	0.29425922
36	0x3e33f5c4	0.17574221
37	0xbd8778a0	-0.06614804
38	0x3e7019e8	0.23447382
39	0xbdfaee9c	-0.122525424
40	0x3e8755e7	0.26432726
41	0x3d0ad09c	0.03389035
42	0xbe775f47	-0.24157439
43	0xbed1c069	-0.4096711
44	0xbd3f083f	-0.046638723
45	0x3d621d11	0.0552035
46	0x3ecd494f	0.40094993
47	0xbe5cb8e7	-0.2155491
48	0xbe607f72	-0.21923617
49	0x3d5fdd74	0.054654554
50	0x3e2e0b04	0.1699639
51	0x3eb70767	0.35747835
52	0x3ca42d75	0.020041207
53	0xbe3e8d43	-0.18608575
54	0x3e674cd2	0.22587898
55	0x3e0b745b	0.13618605
56	0xbdf8ba47	-0.121449046
57	0x3ea85783	0.32879266
58	0x3e73f44e	0.23823664
59	0xbe84a66b	-0.25908217
60	0x3ec58c54	0.38583624
61	0x3e9f4432	0.31106716
62	0xbdd107a4	-0.102065355
63	0xbebcab51	-0.36849454
64	0x3ea0b808	0.31390405
65	0x3e976500	0.29569244
66	0xbe8e54eb	-0.27799162
67	0xbeee56bc	-0.46550548
68	0xbed3e17e	-0.41382974
69	0x3ec38bd7	0.38192627
70	0x3ee486dd	0.44634143
71	0xbd1ef81e	-0.03881084
72	0xbd53c8e1	-0.051705245
73	0x3e554b50	0.2082951
74	0xbebba0b5	-0.36646047
75	0xbed3722d	-0.41298047
76	0xbd077488	-0.033070117
77	0xbed57678	-0.41691947
78	0xbe4e8c58	-0.20170724
79	0x3e9d5c57	0.30734512
80	0x3ef385f3	0.47563133
81	0xbd3cab61	-0.046061877
82	0x3e449c9f	0.19200371
83	0xbdcc24a9	-0.0996793
84	0x3e55262d	0.20815344
85	0x3e2a9da0	0.16661692
86	0x3ef12f72	0.4710651
87	0x3e2f8fe8	0.1714474
88	0x3e68a807	0.22720347
89	0x3e99e92a	0.30060703
90	0xbe06c5c9	-0.13161387
91	0x3ec881d0	0.3916154
92	0xbcefe64a	-0.029284615
93	0xbeb98d54	-0.36240637
94	0x3e3f60c2	0.18689254
95	0xbe0cd0be	-0.13751504
96	0xbef8ef78	-0.486202
97	0xbe6f2a51	-0.23355986
98	0x3ea78509	0.32718685
99	0xbef87023	-0.48523054
100	0xbedc0de2	-0.42979342
101	0x3ea701f0	0.32618666
102	0x3eaf394d	0.34223405
103	0x3e30a2fb	0.17249672
104	0xbdea4242	-0.11438419
105	0xbe8d8e08	-0.27647424
106	0xbed1761b	-0.4091042
107	0xbe913f16	-0.28368443
108	0x3de676a3	0.11253097
109	0x3eaab703	0.33342752
110	0xbefefa82	-0.49800497
111	0x39bf8dbd	0.00036535962
112	0xbedd1757	-0.4318187
113	0x3ded9bae	0.11601959
114	0xbe20e70a	-0.15713134
115	0x3eca48f1	0.39508775
116	0xbbb06d1e	-0.0053841015
117	0x3ef080ec	0.4697336
118	0x3d6686d8	0.05628094
119	0x3ea601ec	0.3242334
120	0x3e652f58	0.22381341
121	0xbef1693d	-0.47150603
122	0xbe60f3f6	-0.21968064
123	0xbeb0dcf0	-0.34543562
124	0xbe4cf6b3	-0.20015983
125	0x3ec5ab2c	0.38607156
126	0xbed479b6	-0.41499108
127	0x3ee5a244	0.4485036
128	0xbe336612	-0.17519405
129	0x3ea14342	0.31496626
130	0x3ea755ac	0.3268255
131	0xbee3523b	-0.44398674
132	0x3e2742aa	0.16334024
133	0x3ec32e64	0.3812133
134	0xbd45e858	-0.048317283
135	0x3ef91c92	0.4865461
136	0xbda14b21	-0.07875658
137	0x3ec3f990	0.3827634
138	0x3ee429d0	0.4456315
139	0x3e5673e6	0.20942649
140	0xbdf2a6de	-0.11848234
141	0x3dd23c2e	0.102653846
142	0x3ee8bebd	0.45458022
143	0xbec8eddd	-0.39243975
144	0xbe1d2137	-0.15344702
145	0x3eb11108	0.34583306
146	0xbecd7a8c	-0.40132558
147	0x3ed8e796	0.42364186
148	0x3e3dd0f7	0.18536745
149	0x3ee30b9b	0.44344792
150	0xbc8576ac	-0.016291939
151	0x3e7978f1	0.24362542
152	0xbea244d5	-0.3169314
153	0x3c82336c	0.01589366
154	0xbed5b543	-0.41739854
155	0x3edec52e	0.4350981
156	0x3f00d5bb	0.50326127
157	0x3e856c30	0.26059103
158	0x3d7f8f52	0.06239254
159	0xbebe3379	-0.37148646
160	0x3edb40c0	0.42822838
161	0x3dcb8f37	0.099394254
162	0xbefb3bb6	-0.49068993
163	0x3dddf381	0.1083746
164	0xb917ca48	-0.00014475838
165	0x3eda6f29	0.42662933
166	0x3e9c1b2d	0.30489483
167	0xbec1928e	-0.37807125

weight_hh_l0 f4 [12, 4]
0	0x3e5490a7	0.20758305
1	0xbedde9f3	-0.43342552
2	0x3d08b34b	0.033374112
3	0xbe5858e5	-0.2112766
4	0xbb536bfc	-0.0032260409
5	0x3dec5082	0.11538793
6	0xbe97d301	-0.2965317
7	0xbe8cb49c	-0.27481544
8	0x3eac24c1	0.3362179
9	0xbe9d6d41	-0.30747417
10	0x39c05462	0.00036683964
11	0xbed71c17	-0.42013618
12	0xbe965208	-0.2935946
13	0x3ee3b9db	0.44477734
14	0xbe8448e2	-0.25836855
15	0xbe0f4e8e	-0.1399481
16	0xbe8f3dbb	-0.27976784
17	0xbeade14f	-0.3396096
18	0xbe6c1fc7	-0.23058997
19	0xbeb6df51	-0.35717252
20	0x3ebb0953	0.3653055
21	0x3efbdf0d	0.49193612
22	0xbe25d051	-0.16192748
23	0x3c7a3bb2	0.0152730215
24	0xbecb8e2e	-0.39756912
25	0xbd308c4c	-0.043102548
26	0xbe5f8123	-0.21826605
27	0x3e94d917	0.29071876
28	0x3ed7736a	0.4208024
29	0x3ee905d4	0.4551226
30	0x39b5d84c	0.00034684164
31	0xbe1158f9	-0.14194097
32	0xbea723fe	-0.32644647
33	0x3e520d3b	0.2051286
34	0x3ed55bbf	0.4167156
35	0xbe86e0bf	-0.26343343
36	0x3ea03b24	0.3129512
37	0x3df26db3	0.1183733
38	0x3e0a6de1	0.13518478
39	0x3dd06a70	0.10176551
40	0x3e5d1062	0.21588281
41	0x3e8aedf3	0.27134666
42	0x3dc2a4fa	0.09504123
43	0x3ee75f21	0.45189765
44	0xbe8171c7	-0.25282118
45	0x3ebf5ae4	0.37374032
46	0x3ed743fd	0.42044058
47	0x3ea114a9	0.31461075

bias_ih_l0 f4 [12]
0	0x3e109b4e	0.14121744
1	0xbed3a374	-0.41335642
2	0xbe2320b5	-0.15930445
3	0xbf003d0d	-0.50093156
4	0xbdea767b	-0.114483796
5	0xbe4a08c7	-0.19729911
6	0xbea55faf	-0.32299563
7	0xbeaa2e84	-0.33238614
8	0x3dffd5d3	0.124919556
9	0xbe3a1710	-0.1817286
10	0x3ea73263	0.3265563
11	0xbe39a5dc	-0.18129677

bias_hh_l0 f4 [12]
0	0xbe7f1c8c	-0.24913234
1	0x3e78a5e6	0.24282035
2	0x3e8b029b	0.27150425
3	0x3dda9ddc	0.106746405
4	0xbe143244	-0.144723
5	0x3cfb765b	0.030696085
6	0x3e9897f1	0.29803422
7	0xbece5fa7	-0.40307352
8	0xbd14fa83	-0.03637172
9	0xbef43bb1	-0.4770179
10	0xbe6657b1	-0.22494389
11	0x3ede862a	0.43461734

weight_ih_l0 f4 [12, 24]
0	0x3ea19748	0.3156073
1	0x3d49e2c4	0.049288526
2	0x3ee8329b	0.4535111
3	0xbe088f8a	-0.13336006
4	0xbeea9867	-0.458194
5	0xbe87ea88	-0.2654612
6	0x3e29197d	0.1651363
7	0xbe937350	-0.28798914
8	0xbe3f59c6	-0.1868659
9	0xbe3c7a97	-0.1840614
10	0x3d6002bf	0.05469012
11	0x3ee01813	0.43768367
12	0xbe632051	-0.22180296
13	0xbef724b8	-0.48270202
14	0xbe893386	-0.26797122
15	0x3ea7289a	0.32648164
16	0x3ecbc57a	0.397991
17	0x3eab20c8	0.33423448
18	0x3d89b11c	0.06723234
19	0x3d4ee1c1	0.050508264
20	0xbe08d92c	-0.13364094
21	0x3e8aa6b1	0.270803
22	0xbecf2a4f	-0.40461966
23	0xbeb6c607	-0.35697958
24	0x3e4f209e	0.20227286
25	0xbe1038ff	-0.14084242
26	0x3d367a75	0.044550378
27	0xbebe472f	-0.37163684
28	0x3e04ecfe	0.1298103
29	0xbe3a8a64	-0.18216854
30	0xbe887fdd	-0.26660052
31	0x3e8e535f	0.27797982
32	0xbe44b293	-0.19208746
33	0xbdbbf03a	-0.09176679
34	0xbefdd17b	-0.49573883
35	0x3dba3866	0.090927884
36	0xbe5c62eb	-0.21522109
37	0xbeefc22e	-0.46827835
38	0x3e6c6b14	0.23087722
39	0xbe66874f	-0.22512554
40	0xbddfb283	-0.1092272
41	0xbe10fcd5	-0.14158948
42	0xbef6f9d0	-0.48237467
43	0x3ef12265	0.47096553
44	0x3d261114	0.04054363
45	0xbebc65f8	-0.36796546
46	0xbd49b1b0	-0.04924172
47	0x3dab7721	0.083723314
48	0xbea8a634	-0.32939303
49	0xbe31c6d6	-0.17361006
50	0x3de84a33	0.113422774
51	0xbde7b5bb	-0.11313959
52	0xbe1f9560	-0.15584326
53	0x3da63ace	0.08116685
54	0x3e4fea88	0.2030431
55	0x3c2a004d	0.010376048
56	0xbddeb61b	-0.108745776
57	0x3ec2d329	0.38051727
58	0xbef23435	-0.47305456
59	0xbc635797	-0.0138758635
60	0x3eb9fc4b	0.36325297
61	0xbecae986	-0.3963129
62	0x3e99e1a8	0.30054975
63	0x3c9e7f67	0.01934786
64	0x3e9693ff	0.29409787
65	0x3ed85432	0.42251736
66	0xbe8fc826	-0.2808239
67	0x3dd78518	0.105234325
68	0x3e6b20fd	0.22961803
69	0x3eaabb39	0.33345965
70	0x3dd0a5a4	0.101878434
71	0xbea800d6	-0.32813138
72	0x3eb2f8d3	0.34955463
73	0xbe6b1bf6	-0.22959885
74	0x3eab6a9a	0.33479768
75	0x3e9fa2e3	0.3117896
76	0xbccac62f	-0.024752704
77	0xbcebee64	-0.028800197
78	0xbda69c9d	-0.0813534
79	0xbdff8f45	-0.12478498
80	0x3d8dabd5	0.0691754
81	0xbe4dcf2b	-0.2009856
82	0xbdb05342	-0.0860963
83	0xbefa4f43	-0.48888597
84	0x3ee9aa83	0.45637903
85	0x3ea485b9	0.32133272
86	0x3ef49ec2	0.47777373
87	0xbe1999ee	-0.15000126
88	0x3e8f846d	0.2803072
89	0x3ebe350e	0.37149853
90	0x3e180263	0.1484466
91	0xbed0f5ec	-0.40812624
92	0xbeb02592	-0.34403664
93	0x3ea28b52	0.31746918
94	0xbd84e71a	-0.064893916
95	0x3cfc362d	0.030787552
96	0x3e3bd258	0.18341959
97	0xbe68f698	-0.22750318
98	0x3e9f7101	0.31140903
99	0xbedf34c7	-0.43594953
100	0xbec868b4	-0.39142382
101	0xbef1bcd9	-0.47214392
102	0x3c38aa39	0.011271053
103	0x3e25e13a	0.16199198
104	0xbe7792e4	-0.24177128
105	0xbecb2044	-0.39673054
106	0xbdea4456	-0.11438815
107	0xbe46310d	-0.19354649
108	0xbcf3960b	-0.029734632
109	0x3e808050	0.25097895
110	0x3e904d6d	0.2818407
111	0x3d2e5c7b	0.042568665
112	0x3eaeeb65	0.34163967
113	0xbeeded3c	-0.46470058
114	0x3ec67196	0.38758534
115	0xbc7ca592	-0.015420334
116	0x3ddf634e	0.10907613
117	0x3e6705ea	0.2256085
118	0xbcaf1c36	-0.021375757
119	0x3e80f833	0.2518936
120	0x3d7e0074	0.06201215
121	0x3ee44be2	0.44589144
122	0xbd93953b	-0.07206198
123	0x3da2ec96	0.079552814
124	0x3e0d8eeb	0.1382405
125	0xbed27b11	-0.41109517
126	0x3ef488c6	0.477606
127	0x3ee185d9	0.4404743
128	0xbd651616	-0.055929266
129	0xbe5ef294	-0.21772224
130	0x3dab83e9	0.08374769
131	0x3ec35f0e	0.38158458
132	0xbe8813b2	-0.26577526
133	0x3e9e7559	0.30948904
134	0xbc2e92f0	-0.01065515
135	0xbece3f63	-0.40282735
136	0x3e155d0c	0.14586276
137	0x3d138365	0.03601398
138	0xbdf9b049	-0.12191827
139	0xbe8aee7b	-0.2713507
140	0x3b7d70c5	0.0038671952
141	0xbea80e40	-0.32823372
142	0x3d7ff849	0.062492643
143	0xbcef8dcc	-0.029242419
144	0x3dba3e43	0.09093907
145	0x3e9adde2	0.30247408
146	0xbe12f331	-0.14350583
147	0xbe85b1a0	-0.2611208
148	0x3bd3fb81	0.0064691906
149	0xbee219aa	-0.44160205
150	0xbadb68b1	-0.0016739574
151	0x3db0612d	0.08612285
152	0x3b2069a0	0.002447702
153	0xbeea6cc5	-0.4578611
154	0x3e6ecdfc	0.23320764
155	0xbea3af50	-0.3196969
156	0x3e3c720f	0.18402885
157	0x3ca22b5e	0.01979607
158	0xbe835ec9	-0.25658253
159	0x3e9b3973	0.30317268
160	0xbd27b1f3	-0.04094119
161	0xbe5cfc62	-0.21580651
162	0x3e5feef0	0.21868491
163	0x3e49bbaf	0.19700502
164	0xbd32caf0	-0.043650568
165	0x3df4974d	0.11942921
166	0x3edf9a99	0.43672636
167	0xbe2c6d05	-0.16838463
168	0x3d13a47e	0.036045544
169	0x3cfed4ff	0.031107424
170	0x3eba3e09	0.36375454
171	0x3e0aee28	0.13567412
172	0x3d92ba77	0.071644716
173	0xbef947a9	-0.48687485
174	0x3eb5a23c	0.35475338
175	0x3eb169a7	0.3465092
176	0x3e9e9883	0.30975732
177	0x3e2aa60c	0.16664904
178	0xbebd09b2	-0.3692146
179	0x3dc81198	0.09768981
180	0x3d882949	0.066484995
181	0xbee2238a	-0.4416774
182	0xbe9e9cb5	-0.30978933
183	0x3e9e5591	0.30924657
184	0x3ecb7daf	0.39744326
185	0x3d0b0d31	0.033948127
186	0x3dcf55e7	0.101238064
187	0x3e6e7668	0.23287356
188	0xbef41124	-0.47669327
189	0xbe57a498	-0.21058881
190	0xbd8064cc	-0.062692255
191	0xbe7843a4	-0.24244553
192	0xbecc9a29	-0.39961365
193	0x3e86c44e	0.26321644
194	0x3ef80573	0.48441657
195	0x3e36628c	0.1781103
196	0xbdd30b4d	-0.1030489
197	0x3e3d9e4f	0.18517421
198	0xbdf7350f	-0.12070667
199	0x3e3a00e6	0.18164405
200	0xbdcc46fa	-0.09974475
201	0xbe018eaa	-0.12652078
202	0xbe78c1cd	-0.24292679
203	0x3e3870ac	0.18011731
204	0x3dc12e01	0.09432603
205	0xbe461a42	-0.19345954
206	0xbed2f07d	-0.41199103
207	0xbe9e549e	-0.30923933
208	0x3e961fc7	0.2932112
209	0xbedc092c	-0.42975748
210	0xbef37e04	-0.4755708
211	0x3ed01152	0.40638214
212	0x3dcf593c	0.10124442
213	0xbd48a0fa	-0.048981644
214	0xbeb6bcfd	-0.35691062
215	0xbe2f88d8	-0.17142045
216	0xbe8ac38b	-0.27102312
217	0xbe369fda	-0.17834416
218	0xbe743208	-0.2384721
219	0xbd75ac2a	-0.05997864
220	0x3e21410a	0.15747467
221	0xbea6291e	-0.32453245
222	0xbeec6e56	-0.4617793
223	0xbed39c78	-0.41330314
224	0xbe9fa64e	-0.31181568
225	0x3e990aaa	0.2989095
226	0xbea48c13	-0.32138118
227	0x3ed0a856	0.4075343
228	0x3ea807f8	0.3281858
229	0xbef90f68	-0.48644567
230	0xbe6746ad	-0.22585554
231	0x3ea4e924	0.32209122
232	0xbe101ae5	-0.1407276
233	0x3ec137e6	0.3773796
234	0xbeecd439	-0.46255663
235	0x3eb1ccf8	0.3472669
236	0x3eb03b71	0.3442035
237	0xbe39f817	-0.18161045
238	0x3e9dc4e7	0.30814287
239	0xbe9da8d9	-0.30792883
240	0x3e13cf4a	0.14434543
241	0x3ec8ce47	0.39219877
242	0x3e731496	0.23738322
243	0xbde56e58	-0.11202687
244	0xbd0f25bf	-0.034948107
245	0x3eed24e3	0.46317205
246	0x3e675e76	0.22594628
247	0x3ed1e237	0.409929
248	0xbece7634	-0.40324557
249	0x3c7f016c	0.015564304
250	0xbe997e93	-0.2997938
251	0x3ef243a4	0.4731723
252	0xbebdf04f	-0.37097403
253	0xbe2ae768	-0.16689837
254	0xbec47c38	-0.3837602
255	0xbe2c3b52	-0.16819504

weight_hh_l0 f4 [12, 4]
0	0x3e0f6c25	0.14006098
1	0xbef57183	-0.47938165
2	0x3e41634a	0.18885532
3	0xbda95582	-0.082682624
4	0x3d872247	0.06598335
5	0xbd8778fb	-0.06614872
6	0xbd21677b	-0.039405327
7	0xbeb87175	-0.3602406
8	0x3c1ef839	0.009702736
9	0x3eec1782	0.46111685
10	0x3ec8cb4f	0.39217612
11	0xbed25c96	-0.41086262
12	0xbeeb875a	-0.46001703
13	0x3def89da	0.11696215
14	0x3ea8743a	0.32901174
15	0x3da0e056	0.07855289
16	0x3eacd667	0.33757326
17	0x3e3b998a	0.18320289
18	0xbd176586	-0.036962055
19	0x3ef9ab0d	0.48763314
20	0xbe9d7e12	-0.30760247
21	0xbec81a94	-0.39082778
22	0x3dc15524	0.094400674
23	0xbe1c8780	-0.15286064
24	0x3e8e3111	0.2777181
25	0xbed8ca14	-0.42341673
26	0x3e4ae885	0.19815262
27	0x3ddd73d8	0.10813111
28	0x3e320620	0.17385149
29	0xbe7e2836	-0.24820027
30	0x3e8eec6c	0.2791475
31	0xbbd59e6e	-0.0065191304
32	0xbcb599e4	-0.022168107
33	0xbe06d182	-0.13165858
34	0x3ef4f1db	0.4784077
35	0x3e0b521d	0.13605542
36	0xbeb1328d	-0.3460888
37	0x3ec5f148	0.38660645
38	0x3e4a86c6	0.19777974
39	0x3ee78732	0.45220333
40	0x3e61f0d4	0.22064525
41	0xbe97cec8	-0.2964995
42	0x3e48fe16	0.19628176
43	0x3ee208a9	0.44147232
44	0xbccfd258	-0.025368854
45	0x3ed5e4f6	0.41776246
46	0x3e6e39e5	0.23264273
47	0x3ec0438d	0.37551537

bias_ih_l0 f4 [12]
0	0x3e097143	0.13422112
1	0xbe0222a0	-0.12708521
2	0x3ed15d95	0.4089171
3	0x3ee8388a	0.45355636
4	0x3d966f78	0.0734548
5	0xbd9dc597	-0.07703703
6	0xbe6f2b1c	-0.23356289
7	0x3e9cfdfe	0.3066253
8	0xbea86b94	-0.32894576
9	0x3ec0134f	0.3751473
10	0xbe75d22f	-0.2400596
11	0x3ea125ac	0.31474054

bias_hh_l0 f4 [12]
0	0xbe201598	-0.15633237
1	0xbcb0bad0	-0.021573454
2	0xbb8eb22c	-0.004354736
3	0xbee49d67	-0.44651338
4	0x3e097dd7	0.1342691
5	0x3ed7e55b	0.42167172
6	0x3ec2fede	0.38085073
7	0xbe9aa984	-0.30207455
8	0x3eb9b2aa	0.36269122
9	0xbef29e4d	-0.473864
10	0x3e596979	0.21231641
11	0xbeeb798f	-0.4599118

weight f4 [4, 4]
0	0x3e05ff5d	0.13085695
1	0x3e0d55ae	0.13802215
2	0x3cdc7727	0.026912285
3	0x3eeb67a9	0.45977524
4	0x3e92a8f0	0.28644514
5	0xbd7c57a1	-0.061607007
6	0xbe477373	-0.19477634
7	0x3e4ea145	0.20178707
8	0xbd4075b6	-0.046987258
9	0xbe1f4b30	-0.15556026
10	0xbe663ac6	-0.22483358
11	0x3c3e8c0a	0.011630068
12	0x3ef1c9f1	0.47224382
13	0x3eca8d0d	0.39560738
14	0xbeeafe7b	-0.45897278
15	0x3efb99f7	0.49140903

bias f4 [4]
0	0x3da8dee9	0.08245642
1	0x3dbc86d4	0.09205404
2	0x3ed8c34c	0.423365
3	0x3e54dd54	0.20787555

weight f4 [320, 8]
0	0xbc256502	-0.010094883
1	0x39b3184c	0.00034159643
2	0x3e9864a6	0.2976429
3	0xbd04cb0d	-0.032420207
4	0x3e0a448d	0.13502713
5	0xbde25b28	-0.11052543
6	0x399644e8	0.0002866157
7	0xbd9ca1c0	-0.07648039
8	0x3ced7afd	0.02898931
9	0xbdc40d77	-0.09572881
10	0xbe40075f	-0.18752812
11	0x3e63c90e	0.22244665
12	0xbde78036	-0.11303751
13	0x3e1198b9	0.14218415
14	0xbeb880f1	-0.36035874
15	0xbe6a801f	-0.22900437
16	0x3dbfe4bd	0.093698
17	0x3e3e0ad9	0.18558826
18	0x3e5724da	0.21010152
19	0x3e916b61	0.28402236
20	0x3eb1067b	0.34575257
21	0x3de01b6b	0.109427296
22	0xbd709fe7	-0.058746245
23	0x3cd2d0b8	0.02573429
24	0xbe73169e	-0.23739097
25	0x3e8e3ce8	0.27780843
26	0xbe126a79	-0.14298429
27	0xbe91efc8	-0.2850325
28	0xbcb98467	-0.022646142
29	0xbdda56b5	-0.10661069
30	0xbdeae9d2	-0.11470379
31	0x3e021be5	0.12705953
32	0x3e8d7cc5	0.27634254
33	0x3e2c7e28	0.16845
34	0xbea1487b	-0.3150061
35	0xbdba7dfd	-0.091060616
36	0xbc8a5dc8	-0.016890422
37	0x3db39092	0.08767809
38	0xbe2e849a	-0.17042771
39	0xbe7f8947	-0.24954711
40	0x3bde4f4b	0.006784355
41	0x3e48bf29	0.19604172
42	0x3df9ee6a	0.12203677
43	0x3c9323d6	0.017961424
44	0x39c03e18	0.00036667357
45	0xbe9a28bc	-0.30109203
46	0xb9acf625	-0.00032989788
47	0x3da0d701	0.07853509
48	0x3db6573b	0.08903357
49	0xbe87c685	-0.26518646
50	0x3e2af60c	0.16695422
51	0x3e82f2f6	0.2557599
52	0x3e75090b	0.23929231
53	0xbd63cb5b	-0.055613857
54	0x3e9289d6	0.28620785
55	0x3e818d12	0.2530294
56	0xbda0f14f	-0.07858526
57	0x3e43e68c	0.19130915
58	0xbe586e04	-0.21135718
59	0xbe8295db	-0.25504956
60	0x3da758bc	0.081712216
61	0xbe9144cc	-0.283728
62	0xbe8265c0	-0.25468254
63	0xbd8e58d6	-0.06950538
64	0x3d83975f	0.06425356
65	0xbd867336	-0.065649435
66	0x39c0798e	0.0003671166
67	0x3e6ce591	0.23134448
68	0x3e4ca8bb	0.1998624
69	0x39a07d01	0.00030610713
70	0x3e823f5a	0.25438958
71	0xbd827060	-0.0636909
72	0x3ea5c2d9	0.3237522
73	0xbe883556	-0.26603192
74	0x3e994001	0.29931644
75	0x3e29f60c	0.16597766
76	0x3e9ea033	0.30981597
77	0xbc86c150	-0.0164496
78	0xbe5bfdcf	-0.21483539
79	0x3e37d413	0.17951994
80	0x3e2d44f8	0.1692084
81	0x3e8bda4b	0.27314982
82	0xbdb8833d	-0.09009407
83	0x3d733069	0.05937234
84	0xbe147855	-0.14499028
85	0x3e67f701	0.22652818
86	0xbdefac4c	-0.11702785
87	0xbeab2338	-0.33425307
88	0x3e20f02f	0.15716623
89	0xbe3a49c0	-0.18192196
90	0xbea25286	-0.31703585
91	0x3e52b613	0.20577268
92	0x3d77b806	0.060478233
93	0x3eb3f868	0.35150456
94	0x3dd55050	0.10415709
95	0x3dd58a36	0.10426752
96	0x3e5bdf6e	0.2147195
97	0x3ccd40a0	0.02505523
98	0x3e7fb949	0.24973024
99	0x3e11b563	0.1422935
100	0x3d9371c3	0.07199433
101	0x3e2ca7b2	0.16860846
102	0xbe0d2661	-0.13784172
103	0xbdc4a8f3	-0.09602537
104	0x3c39859c	0.011323359
105	0xbea04533	-0.31302795
106	0xbe543aa8	-0.207255
107	0xbe7cc142	-0.24683097
108	0xbe477367	-0.19477616
109	0x3e0d4998	0.13797605
110	0x3ddc3fea	0.10754378
111	0xbc8ac878	-0.016941294
112	0xbc94a072	-0.018142913
113	0x3e04b662	0.12960199
114	0xbe3f92b2	-0.18708304
115	0xbd9aee19	-0.07564945
116	0xbe802f98	-0.2503631
117	0xbeac4665	-0.33647457
118	0x3e919510	0.28434038
119	0x3e896431	0.26834252
120	0x3ce6e729	0.028186398
121	0x3e4f31c5	0.2023383
122	0xbe9b06e1	-0.30278686
123	0x3e9031fc	0.28163135
124	0xbe2b2ffe	-0.16717526
125	0xb909766d	-0.00013109455
126	0x3da1ae52	0.07894577
127	0xbd3f0154	-0.046632126
128	0x3e16eaae	0.1473796
129	0x3dd07cbd	0.10180042
130	0xbe97c2f9	-0.2964094
131	0x3caf8551	0.021425875
132	0xbc27c368	-0.01023946
133	0x3e6e36e3	0.23263125
134	0x39c002f0	0.00036623282
135	0x3d613725	0.05498423
136	0xbc3e56ad	-0.011617345
137	0xbdbdb632	-0.092632666
138	0xbe5c1ac2	-0.21494582
139	0xbea1d0ed	-0.3160471
140	0x3eabd488	0.33560586
141	0x3dd771cc	0.10519752
142	0xbe1e60f8	-0.15466678
143	0x3de910e1	0.113801725
144	0x3dccbdbf	0.09997129
145	0x3e80735b	0.2508801
146	0x3e946fb9	0.28991488
147	0x3e822447	0.25418302
148	0xbe268ba4	-0.16264206
149	0x3e99a08f	0.3000531
150	0xbe33ce64	-0.175592
151	0x3d896811	0.06709302
152	0xbe618412	-0.22023037
153	0x3e14b6fd	0.1452293
154	0xbe6baec8	-0.23015893
155	0xbe98872e	-0.29790634
156	0x3e908e29	0.2823346
157	0x3e9f29df	0.31086633
158	0x3e2116b9	0.15731324
159	0x3c83edd6	0.01610462
160	0xbdba6874	-0.09101954
161	0x3d3d4dc9	0.04621676
162	0xbce18643	-0.027529841
163	0xbe29cc23	-0.16581778
164	0xbd48d51f	-0.049031373
165	0xbc936cd9	-0.017996239
166	0x3d19e870	0.037575185
167	0xbdcc922b	-0.09988817
168	0x3b810c38	0.003938224
169	0x3e8b3722	0.271905
170	0x3d928df2	0.0715598
171	0x3e87a0d5	0.26489893
172	0x3e5f6814	0.21817046
173	0xbe0b5cba	-0.13609591
174	0x3e48e37e	0.19618031
175	0x3e2503bb	0.16114704
176	0x3dda19ce	0.10649453
177	0xbe9619a8	-0.2931645
178	0xbe96e5a9	-0.29472092
179	0xbdf03f1a	-0.11730786
180	0x3e80b6b4	0.2513939
181	0xbea3996b	-0.31952986
182	0xbe234f43	-0.15948205
183	0xbd01698b	-0.031594794
184	0xbe019db3	-0.12657814
185	0xbe5fac79	-0.21843137
186	0x3deb2e0e	0.114833936
187	0xbe5546cf	-0.20827793
188	0x3df80016	0.121093914
189	0x3e9cad1d	0.30600825
190	0x3d88f941	0.066881664
191	0xba8b9473	-0.00106491
192	0xbdd6d426	-0.10489683
193	0x3df895d7	0.12137955
194	0x3e87d9db	0.26533398
195	0xbe1e8de8	-0.1548382
196	0x3e627b7d	0.2211742
197	0x3cdd04a3	0.02697975
198	0xbea27b4a	-0.31734687
199	0xbea168d3	-0.31525287
200	0x3e30cee0	0.17266417
201	0xbea470f3	-0.32117423
202	0x3e5dfbb9	0.21678056
203	0x3e747edd	0.2387652
204	0xbd8b7584	-0.06809524
205	0x3e7638e6	0.24045143
206	0xbe55fcdd	-0.20897241
207	0x3eabd246	0.33558863
208	0xbe8e1a1e	-0.277543
209	0x3ca66657	0.020312471
210	0xbe413e60	-0.1887145
211	0x3e8930fa	0.2679518
212	0xbe9dcc1e	-0.30819792
213	0xbe892937	-0.26789257
214	0xbe6e6299	-0.232798
215	0xbe1d3f02	-0.15356067
216	0xbd995889	-0.0748759
217	0x3c836ddb	0.016043594
218	0xbe271be9	-0.1631924
219	0xbe44f720	-0.19234896
220	0x3e57066d	0.20998545
221	0x3e1abff1	0.15112282
222	0x3e84663e	0.25859255
223	0xbdfab51d	-0.12241576
224	0x3d9e37be	0.07725476
225	0xbd41fec8	-0.04736212
226	0xbd66a23f	-0.056307074
227	0x3d88f110	0.06686604
228	0x3dc20a8a	0.094746664
229	0xbe8e210a	-0.27759582
230	0xbe20498a	-0.15653053
231	0x3e2a5653	0.16634493
232	0xbc0ac247	-0.008469171
233	0x3ea22740	0.3167057
234	0xbe852ab3	-0.2600914
235	0x3e5b7e2e	0.21434852
236	0x3e310732	0.17287901
237	0xbe510910	-0.20413613
238	0x3e9ee67c	0.3103522
239	0x3eb299f2	0.34883076
240	0xbe6ed055	-0.2332166
241	0x3e163d79	0.14671887
242	0xbd810044	-0.06298879
243	0xbe9efcee	-0.31052345
244	0xbdca93f1	-0.09891499
245	0x3e8e6e67	0.27818605
246	0xbe82dc08	-0.25558496
247	0xbd8f7824	-0.07005337
248	0x3e31c5a4	0.1736055
249	0x3d517720	0.051138997
250	0x3ac200ad	0.0014801227
251	0x3e2ff396	0.17182764
252	0xbdeaa15f	-0.1145656
253	0x3ea6863c	0.32524288
254	0x3e5e4ce2	0.21709016
255	0xbe0bed4d	-0.13664742

bias f4 [320]
0	0xbe6bf73d	-0.23043533
1	0x3e9becfa	0.30454236
2	0x3dddff26	0.10839681
3	0xbe48abe8	-0.19596827
4	0xbe005b8b	-0.12534921
5	0xbe9b3145	-0.30311027
6	0x3da5d97a	0.08098121
7	0xbe97952b	-0.29605994
8	0xbe80e479	-0.2517431
9	0x3dc109a4	0.09425667
10	0x3eafc724	0.3433162
11	0x3e83243c	0.25613582
12	0x3c955744	0.018230088
13	0xbe3373a0	-0.17524576
14	0x3d58b9c4	0.052911535
15	0xbe980bc6	-0.29696482
16	0xbe91ab06	-0.28450793
17	0xbd38f309	-0.04515365
18	0x3d9838c1	0.074327
19	0xbe0c4227	-0.1369711
20	0xbe908f0c	-0.28234136
21	0xbe9e9666	-0.3097412
22	0x3e860bd3	0.26180896
23	0xbe0b290c	-0.13589877
24	0xbe5370e4	-0.20648533
25	0x3dbbcb1b	0.09169599
26	0x3e09af1b	0.13445704
27	0xbe01f165	-0.12689741
28	0x3eaa0b38	0.33211684
29	0x3e89391c	0.26801383
30	0x3ea2be99	0.3178604
31	0x3cfd6c8f	0.030935554
32	0x3ca318af	0.019909231
33	0x3ea89b3c	0.32930934
34	0x3c5670d6	0.013088426
35	0xbde867ec	-0.113479465
36	0x3d855098	0.06509513
37	0x3de5abba	0.11214395
38	0x3e154a3e	0.14579102
39	0xbe8d3342	-0.2757817
40	0x3cad2b94	0.021138944
41	0x3e4400a0	0.19140863
42	0x3e4046a7	0.18776952
43	0xbe90a8de	-0.28253835
44	0x3e04b4db	0.12959616
45	0x3df47462	0.11936261
46	0x3e05a7ef	0.13052343
47	0xbd40a653	-0.04703362
48	0xbdcab506	-0.09897809
49	0xbe0543bb	-0.13014118
50	0xbd9a6ee0	-0.07540679
51	0xbe78ac3e	-0.24284455
52	0xbc8ceec8	-0.017203704
53	0x3ead2fd8	0.33825564
54	0xbde9e602	-0.11420824
55	0xbe0889a0	-0.1333375
56	0x3e7c3d77	0.24632822
57	0x3dd483b7	0.10376685
58	0x3eb00867	0.3438141
59	0x3e9b6020	0.30346775
60	0xbe7c9c12	-0.24668911
61	0x3d54b1b5	0.051927287
62	0xbdfb9206	-0.12283711
63	0xbe7807d8	-0.24221742
64	0xbe8c77dc	-0.27435195
65	0xbe10ef31	-0.14153744
66	0x3e3ce950	0.18448377
67	0x3eacf409	0.33779934
68	0x3e14415f	0.14478062
69	0x3d176287	0.036959197
70	0xbe0bff3a	-0.1367158
71	0xbe2dd207	-0.1697465
72	0x3e82c8a9	0.25543717
73	0xbe81ce8d	-0.25352898
74	0xbd813499	-0.0630886
75	0xbe29791d	-0.16550107
76	0x3e48f1a6	0.19623432
77	0xbe6c4d16	-0.23076281
78	0x3e45b50f	0.1930735
79	0xbe861729	-0.26189545
80	0xbc9bff06	-0.019042503
81	0x3eae4ce6	0.34043044
82	0x3e825ee9	0.25463036
83	0x3e536746	0.20644864
84	0x3e597f04	0.21239859
85	0x3dd36315	0.10321633
86	0xbd90ea2b	-0.07075914
87	0xbe4714c6	-0.19441518
88	0x3d36d63c	0.044637904
89	0xbe17529b	-0.14777605
90	0x3e5d597e	0.2161617
91	0xbdb099fc	-0.0862312
92	0xbe28224c	-0.16419333
93	0x3db8cf5b	0.09023925
94	0x3e01a44c	0.1266033
95	0xbe93a519	-0.28836897
96	0xbea1bf34	-0.3159119
97	0x3eaa6ef2	0.3328777
98	0x3eb6cc1f	0.35702607
99	0xbe85f8d5	-0.26166406
100	0xbc866a2e	-0.016408052
101	0xbd2ca514	-0.04214962
102	0x3dd77d08	0.10521895
103	0x3e20a0fd	0.15686412
104	0x3dcfe0fd	0.10150335
105	0xbe8baf88	-0.27282357
106	0x3c916273	0.01774714
107	0xbe11828a	-0.14209953
108	0xbe3541cc	-0.17700881
109	0xbe24da71	-0.16098954
110	0x3cb8cb3d	0.022557849
111	0xbe29c915	-0.16580613
112	0x3ea45863	0.32098684
113	0x3d7405a8	0.059575707
114	0xbe456b77	-0.19279276
115	0xbe93caa5	-0.28865543
116	0x3e9f7bd6	0.31149167
117	0x3c86610c	0.016403697
118	0x3de1ade1	0.11019493
119	0x3e8691c4	0.26283085
120	0x3e9fd740	0.3121891
121	0xbe06a85d	-0.13150163
122	0xbe64e0d2	-0.22351387
123	0x3e55fef9	0.20898046
124	0xbe47d72d	-0.19515677
125	0xbe792ae9	-0.24332775
126	0xbe792daa	-0.24333826
127	0xbdf147b6	-0.11781256
128	0xbda957ae	-0.08268677
129	0x3de23fca	0.11047323
130	0xbde80030	-0.11328161
131	0x3dda79f9	0.10667796
132	0xbe8c95a8	-0.2745793
133	0x3ea752cf	0.32680365
134	0xbe5be204	-0.21472937
135	0xbe4f4250	-0.2024014
136	0x3da8b274	0.08237162
137	0xbde08cc9	-0.10964353
138	0xbd8202e6	-0.06348209
139	0xbdcce6a6	-0.1000493
140	0x3e889d1c	0.26682365
141	0xbc8bc6be	-0.017062541
142	0xbe438413	-0.19093351
143	0xbc033fb0	-0.00801079
144	0xbd5ef99e	-0.054437272
145	0x3d6fbd5d	0.0585302
146	0x3d1d9746	0.038474344
147	0xbc274dc7	-0.010211415
148	0xbe5d0b2b	-0.21586291
149	0x3e2c4576	0.16823372
150	0x3e5ecc72	0.21757677
151	0xbcae07f7	-0.021244032
152	0xbe3c801d	-0.18408246
153	0xbe093cf1	-0.13402154
154	0x3e91c21f	0.28468415
155	0xbe1ec499	-0.15504684
156	0x3e9eb94c	0.31000745
157	0x3d26e8b3	0.040749263
158	0x3d602469	0.054722223
159	0x3eafb739	0.34319475
160	0xbdb6a459	-0.089180656
161	0xbdf295d8	-0.11844987
162	0xbe958bfa	-0.29208356
163	0xbe901890	-0.2814374
164	0x3e88a58f	0.2668881
165	0x3db160ca	0.08661039
166	0x3e63dba4	0.22251755
167	0x3ea12556	0.31473798
168	0xbe1d71d9	-0.1537546
169	0xbe0f771a	-0.14010277
170	0x3dbda4a0	0.09259915
171	0x3dc0ae07	0.09408193
172	0xbdf35cb4	-0.11882916
173	0x3e271425	0.16316278
174	0xbe42661c	-0.18984264
175	0xbe790123	-0.2431684
176	0xbe6621e4	-0.22473866
177	0xbe66dfd7	-0.22546326
178	0x3e990da7	0.29893228
179	0xbe96cd38	-0.29453444
180	0x3dc73d39	0.09728474
181	0x3d954071	0.07287682
182	0x3cf1e128	0.029526308
183	0x3ddf1709	0.108930655
184	0xbe22b547	-0.15889464
185	0xbe93f7ed	-0.2890009
186	0x3e834122	0.2563563
187	0x3dc1706d	0.09445272
188	0x3d8f0a67	0.06984406
189	0xbe90d6c1	-0.28288844
190	0x3e56c6d3	0.20974283
191	0x3e9599bf	0.2921886
192	0x3cc81585	0.024424324
193	0xbdd091fd	-0.10184095
194	0x3e97bc23	0.29635724
195	0x3d1a6d5f	0.03770196
196	0x3dda259a	0.10651703
197	0xbe7d3947	-0.24728881
198	0x3e9eebaa	0.31039172
199	0xbe8edfe4	-0.2790519
200	0xbe654c13	-0.22392301
201	0x3ea8dcb1	0.32980874
202	0xbe585d46	-0.21129331
203	0x3e6fa2bc	0.23401922
204	0x3dfd4edf	0.12368559
205	0x3a4611fb	0.000755578
206	0x3e109737	0.14120184
207	0xbe95efad	-0.2928442
208	0xbdfdfb6a	-0.12401469
209	0x3db36b62	0.08760716
210	0x3dc9c4f2	0.098520175
211	0x3d297d29	0.041379128
212	0x3e3514ab	0.17683665
213	0x3a7c0253	0.00096133834
214	0x3e6abdde	0.22923991
215	0x3e2c94e2	0.1685367
216	0x3ea164b6	0.3152215
217	0xbe09bca6	-0.1345087
218	0x3e6bf944	0.23044306
219	0xbe777975	-0.24167426
220	0x3e1eece7	0.15520059
221	0xbe43aae3	-0.19108157
222	0x3e29a1d3	0.16565637
223	0xbe3e4be3	-0.18583636
224	0x3eaa5083	0.3326455
225	0xbe6be22d	-0.23035498
226	0x3e9e429b	0.3091019
227	0x3de07c76	0.10961239
228	0xbdb0f75c	-0.0864093
229	0xbcf24cc3	-0.029577618
230	0xbe2d3653	-0.16915254
231	0x3ea0146e	0.31265587
232	0xbde699fd	-0.1125984
233	0xbd66ce46	-0.05634906
234	0xbe30e0bf	-0.17273234
235	0xbd90c69d	-0.070691325
236	0xbe52b773	-0.20577793
237	0x3e680e82	0.22661784
238	0xbe659969	-0.22421803
239	0x3e8ee285	0.27907196
240	0x3e2ea986	0.17056856
241	0x3c504d71	0.012713776
242	0x3e0d1fe7	0.13781701
243	0xbe30c83c	-0.17263883
244	0x3e6fb94a	0.23410526
245	0xbe6f6f5c	-0.23382324
246	0x3e325215	0.17414124
247	0x3ce07fee	0.027404752
248	0xbd0b4cff	-0.034008976
249	0x3be6c16c	0.0070421007
250	0x3e909f13	0.28246364
251	0xbd851dbf	-0.06499814
252	0xbe85e8bc	-0.26154125
253	0xbd75fd63	-0.0600561
254	0xbe77a819	-0.24185218
255	0x3e342415	0.17591889
