KNet/Linear_SS_No_MM_/pipeline_KNet_Linear_Dynamics_T100_v_positive_20dB.pt (torch, 199497 bytes, 351 tensors)

G f4 [2, 1]
0.0 1.0
00000000: 0000 0000 0000 803f

Q f4 [2, 2]
1.0 0.0 0.0 1.0
00000000: 0000 803f 0000 0000 0000 0000 0000 803f

R f4 [2, 2]
0.010000001 0.0 0.0 0.010000001
00000000: 0bd7 233c 0000 0000 0000 0000 0bd7 233c

prior_Q f4 [2, 2]
1.0 0.0 0.0 1.0
00000000: 0000 803f 0000 0000 0000 0000 0000 803f

prior_Sigma f4 [2, 2]
1.0 0.0 0.0 1.0
00000000: 0000 803f 0000 0000 0000 0000 0000 803f

prior_S f4 [2, 2]
1.0 0.0 0.0 1.0
00000000: 0000 803f 0000 0000 0000 0000 0000 803f

m1x_0 f4 [2]
10.0 0.0
00000000: 0000 2041 0000 0000

x_prev f4 [2]
10.0 0.0
00000000: 0000 2041 0000 0000

m2x_0 f4 [2, 2]
0.0 0.0 0.0 0.0
00000000: 0000 0000 0000 0000 0000 0000 0000 0000

QT f4 [2, 2]
1.0 0.0 0.0 1.0
00000000: 0000 803f 0000 0000 0000 0000 0000 803f

Qx f4 [2, 2]
1.0 0.0 0.0 1.0
00000000: 0000 803f 0000 0000 0000 0000 0000 803f

L f4 [1, 2]
0.57917404 1.5462112
00000000: c044 143f 40ea c53f

L f4 [1, 2]
0.57926774 1.5460253
00000000: e44a 143f 28e4 c53f

L f4 [1, 2]
0.57917404 1.5462112
00000000: c044 143f 40ea c53f

L f4 [1, 2]
0.57926774 1.5460253
00000000: e44a 143f 28e4 c53f

L f4 [1, 2]
0.57917404 1.5462112
00000000: c044 143f 40ea c53f

L f4 [1, 2]
0.57926774 1.5460253
00000000: e44a 143f 28e4 c53f

L f4 [1, 2]
0.57917404 1.5462112
00000000: c044 143f 40ea c53f

L f4 [1, 2]
0.57926774 1.5460253
00000000: e44a 143f 28e4 c53f

L f4 [1, 2]
0.57917404 1.5462112
00000000: c044 143f 40ea c53f

L f4 [1, 2]
0.57926774 1.5460253
00000000: e44a 143f 28e4 c53f

L f4 [1, 2]
0.57917404 1.5462112
00000000: c044 143f 40ea c53f

L f4 [1, 2]
0.57926774 1.5460253
00000000: e44a 143f 28e4 c53f

L f4 [1, 2]
0.57917404 1.5462112
00000000: c044 143f 40ea c53f

L f4 [1, 2]
0.57926774 1.5460253
00000000: e44a 143f 28e4 c53f

L f4 [1, 2]
0.57917404 1.5462112
00000000: c044 143f 40ea c53f

L f4 [1, 2]
0.57926774 1.5460253
00000000: e44a 143f 28e4 c53f

L f4 [1, 2]
0.57917404 1.5462112
00000000: c044 143f 40ea c53f

L f4 [1, 2]
0.57926774 1.5460253
00000000: e44a 143f 28e4 c53f

L f4 [1, 2]
0.57917404 1.5462112
00000000: c044 143f 40ea c53f

L f4 [1, 2]
0.57926774 1.5460253
00000000: e44a 143f 28e4 c53f

L f4 [1, 2]
0.57917404 1.5462112
00000000: c044 143f 40ea c53f

L f4 [1, 2]
0.57926774 1.5460253
00000000: e44a 143f 28e4 c53f

L f4 [1, 2]
0.57917404 1.5462112
00000000: c044 143f 40ea c53f

L f4 [1, 2]
0.57926774 1.5460253
00000000: e44a 143f 28e4 c53f

L f4 [1, 2]
0.57917404 1.5462112
00000000: c044 143f 40ea c53f

L f4 [1, 2]
0.57926774 1.5460253
00000000: e44a 143f 28e4 c53f

L f4 [1, 2]
0.57917404 1.5462112
00000000: c044 143f 40ea c53f

L f4 [1, 2]
0.57926774 1.5460253
00000000: e44a 143f 28e4 c53f

L f4 [1, 2]
0.57917404 1.5462112
00000000: c044 143f 40ea c53f

L f4 [1, 2]
0.57926774 1.5460253
00000000: e44a 143f 28e4 c53f

L f4 [1, 2]
0.57917404 1.5462112
00000000: c044 143f 40ea c53f

L f4 [1, 2]
0.57926774 1.5460253
00000000: e44a 143f 28e4 c53f

L f4 [1, 2]
0.57917404 1.5462112
00000000: c044 143f 40ea c53f

L f4 [1, 2]
0.57926774 1.5460253
00000000: e44a 143f 28e4 c53f

L f4 [1, 2]
0.57917404 1.5462112
00000000: c044 143f 40ea c53f

L f4 [1, 2]
0.57926774 1.5460253
00000000: e44a 143f 28e4 c53f

L f4 [1, 2]
0.57917404 1.5462112
00000000: c044 143f 40ea c53f

L f4 [1, 2]
0.57926774 1.5460253
00000000: e44a 143f 28e4 c53f

L f4 [1, 2]
0.57917404 1.5462112
00000000: c044 143f 40ea c53f

L f4 [1, 2]
0.57926774 1.5460253
00000000: e44a 143f 28e4 c53f

L f4 [1, 2]
0.57917404 1.5462112
00000000: c044 143f 40ea c53f

L f4 [1, 2]
0.57926774 1.5460253
00000000: e44a 143f 28e4 c53f

L f4 [1, 2]
0.57917404 1.5462112
00000000: c044 143f 40ea c53f

L f4 [1, 2]
0.57926774 1.5460253
00000000: e44a 143f 28e4 c53f

L f4 [1, 2]
0.57917404 1.5462112
00000000: c044 143f 40ea c53f

L f4 [1, 2]
0.57926774 1.5460253
00000000: e44a 143f 28e4 c53f

L f4 [1, 2]
0.57917404 1.5462112
00000000: c044 143f 40ea c53f

L f4 [1, 2]
0.57926774 1.5460253
00000000: e44a 143f 28e4 c53f

L f4 [1, 2]
0.57917404 1.5462112
00000000: c044 143f 40ea c53f

L f4 [1, 2]
0.57926774 1.5460253
00000000: e44a 143f 28e4 c53f

L f4 [1, 2]
0.57917404 1.5462112
00000000: c044 143f 40ea c53f

L f4 [1, 2]
0.57926774 1.5460253
00000000: e44a 143f 28e4 c53f

L f4 [1, 2]
0.57917404 1.5462112
00000000: c044 143f 40ea c53f

L f4 [1, 2]
0.57926774 1.5460253
00000000: e44a 143f 28e4 c53f

L f4 [1, 2]
0.57917404 1.5462112
00000000: c044 143f 40ea c53f

L f4 [1, 2]
0.57926774 1.5460253
00000000: e44a 143f 28e4 c53f

L f4 [1, 2]
0.57917404 1.5462112
00000000: c044 143f 40ea c53f

L f4 [1, 2]
0.57926774 1.5460253
00000000: e44a 143f 28e4 c53f

L f4 [1, 2]
0.57917404 1.5462112
00000000: c044 143f 40ea c53f

L f4 [1, 2]
0.57926774 1.5460253
00000000: e44a 143f 28e4 c53f

L f4 [1, 2]
0.57917404 1.5462112
00000000: c044 143f 40ea c53f

L f4 [1, 2]
0.57926774 1.5460253
00000000: e44a 143f 28e4 c53f

L f4 [1, 2]
0.57917404 1.5462112
00000000: c044 143f 40ea c53f

L f4 [1, 2]
0.57926774 1.5460253
00000000: e44a 143f 28e4 c53f

L f4 [1, 2]
0.57917404 1.5462112
00000000: c044 143f 40ea c53f

L f4 [1, 2]
0.57926774 1.5460253
00000000: e44a 143f 28e4 c53f

L f4 [1, 2]
0.57917404 1.5462112
00000000: c044 143f 40ea c53f

L f4 [1, 2]
0.57926774 1.5460253
00000000: e44a 143f 28e4 c53f

L f4 [1, 2]
0.57917404 1.5462112
00000000: c044 143f 40ea c53f

L f4 [1, 2]
0.57926774 1.5460253
00000000: e44a 143f 28e4 c53f

L f4 [1, 2]
0.57917404 1.5462112
00000000: c044 143f 40ea c53f

L f4 [1, 2]
0.57926774 1.5460253
00000000: e44a 143f 28e4 c53f

L f4 [1, 2]
0.57917404 1.5462112
00000000: c044 143f 40ea c53f

L f4 [1, 2]
0.57926774 1.5460253
00000000: e44a 143f 28e4 c53f

L f4 [1, 2]
0.57917404 1.5462112
00000000: c044 143f 40ea c53f

L f4 [1, 2]
0.57926774 1.5460253
00000000: e44a 143f 28e4 c53f

L f4 [1, 2]
0.57917404 1.5462112
00000000: c044 143f 40ea c53f

L f4 [1, 2]
0.57926774 1.5460253
00000000: e44a 143f 28e4 c53f

L f4 [1, 2]
0.57917404 1.5462112
00000000: c044 143f 40ea c53f

L f4 [1, 2]
0.57926774 1.5460253
00000000: e44a 143f 28e4 c53f

L f4 [1, 2]
0.57917404 1.5462112
00000000: c044 143f 40ea c53f

L f4 [1, 2]
0.57926774 1.5460253
00000000: e44a 143f 28e4 c53f

L f4 [1, 2]
0.57917404 1.5462112
00000000: c044 143f 40ea c53f

L f4 [1, 2]
0.57926774 1.5460253
00000000: e44a 143f 28e4 c53f

L f4 [1, 2]
0.57917404 1.5462112
00000000: c044 143f 40ea c53f

L f4 [1, 2]
0.57926774 1.5460253
00000000: e44a 143f 28e4 c53f

L f4 [1, 2]
0.57917404 1.5462112
00000000: c044 143f 40ea c53f

L f4 [1, 2]
0.57926774 1.5460253
00000000: e44a 143f 28e4 c53f

L f4 [1, 2]
0.57917404 1.5462112
00000000: c044 143f 40ea c53f

L f4 [1, 2]
0.57926774 1.5460253
00000000: e44a 143f 28e4 c53f

L f4 [1, 2]
0.57917404 1.5462112
00000000: c044 143f 40ea c53f

L f4 [1, 2]
0.57926774 1.5460253
00000000: e44a 143f 28e4 c53f

L f4 [1, 2]
0.57917404 1.5462112
00000000: c044 143f 40ea c53f

L f4 [1, 2]
0.57926774 1.5460253
00000000: e44a 143f 28e4 c53f

L f4 [1, 2]
0.57917404 1.5462112
00000000: c044 143f 40ea c53f

L f4 [1, 2]
0.57926774 1.5460253
00000000: e44a 143f 28e4 c53f

L f4 [1, 2]
0.5790329 1.5458374
00000000: 803b 143f 00de c53f

L f4 [1, 2]
0.57670283 1.54315
00000000: cca2 133f f085 c53f

L f4 [1, 2]
0.5616894 1.525917
00000000: e0ca 0f3f 4051 c33f

L f4 [1, 2]
0.45629883 1.4107833
00000000: 00a0 e93e 8c94 b43f

S f4 [2, 2]
2.6686792 1.7267356 1.7267356 2.880413
00000000: a4cb 2a40 ac05 dd3f ac05 dd3f b058 3840

S f4 [2, 2]
2.6681137 1.725338 1.725338 2.8782806
00000000: 60c2 2a40 e0d7 dc3f e0d7 dc3f c035 3840

S f4 [2, 2]
2.6686792 1.7267356 1.7267356 2.880413
00000000: a4cb 2a40 ac05 dd3f ac05 dd3f b058 3840

S f4 [2, 2]
2.6681137 1.725338 1.725338 2.8782806
00000000: 60c2 2a40 e0d7 dc3f e0d7 dc3f c035 3840

S f4 [2, 2]
2.6686792 1.7267356 1.7267356 2.880413
00000000: a4cb 2a40 ac05 dd3f ac05 dd3f b058 3840

S f4 [2, 2]
2.6681137 1.725338 1.725338 2.8782806
00000000: 60c2 2a40 e0d7 dc3f e0d7 dc3f c035 3840

S f4 [2, 2]
2.6686792 1.7267356 1.7267356 2.880413
00000000: a4cb 2a40 ac05 dd3f ac05 dd3f b058 3840

S f4 [2, 2]
2.6681137 1.725338 1.725338 2.8782806
00000000: 60c2 2a40 e0d7 dc3f e0d7 dc3f c035 3840

S f4 [2, 2]
2.6686792 1.7267356 1.7267356 2.880413
00000000: a4cb 2a40 ac05 dd3f ac05 dd3f b058 3840

S f4 [2, 2]
2.6681137 1.725338 1.725338 2.8782806
00000000: 60c2 2a40 e0d7 dc3f e0d7 dc3f c035 3840

S f4 [2, 2]
2.6686792 1.7267356 1.7267356 2.880413
00000000: a4cb 2a40 ac05 dd3f ac05 dd3f b058 3840

S f4 [2, 2]
2.6681137 1.725338 1.725338 2.8782806
00000000: 60c2 2a40 e0d7 dc3f e0d7 dc3f c035 3840

S f4 [2, 2]
2.6686792 1.7267356 1.7267356 2.880413
00000000: a4cb 2a40 ac05 dd3f ac05 dd3f b058 3840

S f4 [2, 2]
2.6681137 1.725338 1.725338 2.8782806
00000000: 60c2 2a40 e0d7 dc3f e0d7 dc3f c035 3840

S f4 [2, 2]
2.6686792 1.7267356 1.7267356 2.880413
00000000: a4cb 2a40 ac05 dd3f ac05 dd3f b058 3840

S f4 [2, 2]
2.6681137 1.725338 1.725338 2.8782806
00000000: 60c2 2a40 e0d7 dc3f e0d7 dc3f c035 3840

S f4 [2, 2]
2.6686792 1.7267356 1.7267356 2.880413
00000000: a4cb 2a40 ac05 dd3f ac05 dd3f b058 3840

S f4 [2, 2]
2.6681137 1.725338 1.725338 2.8782806
00000000: 60c2 2a40 e0d7 dc3f e0d7 dc3f c035 3840

S f4 [2, 2]
2.6686792 1.7267356 1.7267356 2.880413
00000000: a4cb 2a40 ac05 dd3f ac05 dd3f b058 3840

S f4 [2, 2]
2.6681137 1.725338 1.725338 2.8782806
00000000: 60c2 2a40 e0d7 dc3f e0d7 dc3f c035 3840

S f4 [2, 2]
2.6686792 1.7267356 1.7267356 2.880413
00000000: a4cb 2a40 ac05 dd3f ac05 dd3f b058 3840

S f4 [2, 2]
2.6681137 1.725338 1.725338 2.8782806
00000000: 60c2 2a40 e0d7 dc3f e0d7 dc3f c035 3840

S f4 [2, 2]
2.6686792 1.7267356 1.7267356 2.880413
00000000: a4cb 2a40 ac05 dd3f ac05 dd3f b058 3840

S f4 [2, 2]
2.6681137 1.725338 1.725338 2.8782806
00000000: 60c2 2a40 e0d7 dc3f e0d7 dc3f c035 3840

S f4 [2, 2]
2.6686792 1.7267356 1.7267356 2.880413
00000000: a4cb 2a40 ac05 dd3f ac05 dd3f b058 3840

S f4 [2, 2]
2.6681137 1.725338 1.725338 2.8782806
00000000: 60c2 2a40 e0d7 dc3f e0d7 dc3f c035 3840

S f4 [2, 2]
2.6686792 1.7267356 1.7267356 2.880413
00000000: a4cb 2a40 ac05 dd3f ac05 dd3f b058 3840

S f4 [2, 2]
2.6681137 1.725338 1.725338 2.8782806
00000000: 60c2 2a40 e0d7 dc3f e0d7 dc3f c035 3840

S f4 [2, 2]
2.6686792 1.7267356 1.7267356 2.880413
00000000: a4cb 2a40 ac05 dd3f ac05 dd3f b058 3840

S f4 [2, 2]
2.6681137 1.725338 1.725338 2.8782806
00000000: 60c2 2a40 e0d7 dc3f e0d7 dc3f c035 3840

S f4 [2, 2]
2.6686792 1.7267356 1.7267356 2.880413
00000000: a4cb 2a40 ac05 dd3f ac05 dd3f b058 3840

S f4 [2, 2]
2.6681137 1.725338 1.725338 2.8782806
00000000: 60c2 2a40 e0d7 dc3f e0d7 dc3f c035 3840

S f4 [2, 2]
2.6686792 1.7267356 1.7267356 2.880413
00000000: a4cb 2a40 ac05 dd3f ac05 dd3f b058 3840

S f4 [2, 2]
2.6681137 1.725338 1.725338 2.8782806
00000000: 60c2 2a40 e0d7 dc3f e0d7 dc3f c035 3840

S f4 [2, 2]
2.6686792 1.7267356 1.7267356 2.880413
00000000: a4cb 2a40 ac05 dd3f ac05 dd3f b058 3840

S f4 [2, 2]
2.6681137 1.725338 1.725338 2.8782806
00000000: 60c2 2a40 e0d7 dc3f e0d7 dc3f c035 3840

S f4 [2, 2]
2.6686792 1.7267356 1.7267356 2.880413
00000000: a4cb 2a40 ac05 dd3f ac05 dd3f b058 3840

S f4 [2, 2]
2.6681137 1.725338 1.725338 2.8782806
00000000: 60c2 2a40 e0d7 dc3f e0d7 dc3f c035 3840

S f4 [2, 2]
2.6686792 1.7267356 1.7267356 2.880413
00000000: a4cb 2a40 ac05 dd3f ac05 dd3f b058 3840

S f4 [2, 2]
2.6681137 1.725338 1.725338 2.8782806
00000000: 60c2 2a40 e0d7 dc3f e0d7 dc3f c035 3840

S f4 [2, 2]
2.6686792 1.7267356 1.7267356 2.880413
00000000: a4cb 2a40 ac05 dd3f ac05 dd3f b058 3840

S f4 [2, 2]
2.6681137 1.725338 1.725338 2.8782806
00000000: 60c2 2a40 e0d7 dc3f e0d7 dc3f c035 3840

S f4 [2, 2]
2.6686792 1.7267356 1.7267356 2.880413
00000000: a4cb 2a40 ac05 dd3f ac05 dd3f b058 3840

S f4 [2, 2]
2.6681137 1.725338 1.725338 2.8782806
00000000: 60c2 2a40 e0d7 dc3f e0d7 dc3f c035 3840

S f4 [2, 2]
2.6686792 1.7267356 1.7267356 2.880413
00000000: a4cb 2a40 ac05 dd3f ac05 dd3f b058 3840

S f4 [2, 2]
2.6681137 1.725338 1.725338 2.8782806
00000000: 60c2 2a40 e0d7 dc3f e0d7 dc3f c035 3840

S f4 [2, 2]
2.6686792 1.7267356 1.7267356 2.880413
00000000: a4cb 2a40 ac05 dd3f ac05 dd3f b058 3840

S f4 [2, 2]
2.6681137 1.725338 1.725338 2.8782806
00000000: 60c2 2a40 e0d7 dc3f e0d7 dc3f c035 3840

S f4 [2, 2]
2.6686792 1.7267356 1.7267356 2.880413
00000000: a4cb 2a40 ac05 dd3f ac05 dd3f b058 3840

S f4 [2, 2]
2.6681137 1.725338 1.725338 2.8782806
00000000: 60c2 2a40 e0d7 dc3f e0d7 dc3f c035 3840

S f4 [2, 2]
2.6686792 1.7267356 1.7267356 2.880413
00000000: a4cb 2a40 ac05 dd3f ac05 dd3f b058 3840

S f4 [2, 2]
2.6681137 1.725338 1.725338 2.8782806
00000000: 60c2 2a40 e0d7 dc3f e0d7 dc3f c035 3840

S f4 [2, 2]
2.6686792 1.7267356 1.7267356 2.880413
00000000: a4cb 2a40 ac05 dd3f ac05 dd3f b058 3840

S f4 [2, 2]
2.6681137 1.725338 1.725338 2.8782806
00000000: 60c2 2a40 e0d7 dc3f e0d7 dc3f c035 3840

S f4 [2, 2]
2.6686792 1.7267356 1.7267356 2.880413
00000000: a4cb 2a40 ac05 dd3f ac05 dd3f b058 3840

S f4 [2, 2]
2.6681137 1.725338 1.725338 2.8782806
00000000: 60c2 2a40 e0d7 dc3f e0d7 dc3f c035 3840

S f4 [2, 2]
2.6686792 1.7267356 1.7267356 2.880413
00000000: a4cb 2a40 ac05 dd3f ac05 dd3f b058 3840

S f4 [2, 2]
2.6681137 1.725338 1.725338 2.8782806
00000000: 60c2 2a40 e0d7 dc3f e0d7 dc3f c035 3840

S f4 [2, 2]
2.6686792 1.7267356 1.7267356 2.880413
00000000: a4cb 2a40 ac05 dd3f ac05 dd3f b058 3840

S f4 [2, 2]
2.6681137 1.725338 1.725338 2.8782806
00000000: 60c2 2a40 e0d7 dc3f e0d7 dc3f c035 3840

S f4 [2, 2]
2.6686792 1.7267356 1.7267356 2.880413
00000000: a4cb 2a40 ac05 dd3f ac05 dd3f b058 3840

S f4 [2, 2]
2.6681137 1.725338 1.725338 2.8782806
00000000: 60c2 2a40 e0d7 dc3f e0d7 dc3f c035 3840

S f4 [2, 2]
2.6686792 1.7267356 1.7267356 2.880413
00000000: a4cb 2a40 ac05 dd3f ac05 dd3f b058 3840

S f4 [2, 2]
2.6681137 1.725338 1.725338 2.8782806
00000000: 60c2 2a40 e0d7 dc3f e0d7 dc3f c035 3840

S f4 [2, 2]
2.6686792 1.7267356 1.7267356 2.880413
00000000: a4cb 2a40 ac05 dd3f ac05 dd3f b058 3840

S f4 [2, 2]
2.6681137 1.725338 1.725338 2.8782806
00000000: 60c2 2a40 e0d7 dc3f e0d7 dc3f c035 3840

S f4 [2, 2]
2.6686792 1.7267356 1.7267356 2.880413
00000000: a4cb 2a40 ac05 dd3f ac05 dd3f b058 3840

S f4 [2, 2]
2.6681137 1.725338 1.725338 2.8782806
00000000: 60c2 2a40 e0d7 dc3f e0d7 dc3f c035 3840

S f4 [2, 2]
2.6686792 1.7267356 1.7267356 2.880413
00000000: a4cb 2a40 ac05 dd3f ac05 dd3f b058 3840

S f4 [2, 2]
2.6681137 1.725338 1.725338 2.8782806
00000000: 60c2 2a40 e0d7 dc3f e0d7 dc3f c035 3840

S f4 [2, 2]
2.6686792 1.7267356 1.7267356 2.880413
00000000: a4cb 2a40 ac05 dd3f ac05 dd3f b058 3840

S f4 [2, 2]
2.6681137 1.725338 1.725338 2.8782806
00000000: 60c2 2a40 e0d7 dc3f e0d7 dc3f c035 3840

S f4 [2, 2]
2.6686792 1.7267356 1.7267356 2.880413
00000000: a4cb 2a40 ac05 dd3f ac05 dd3f b058 3840

S f4 [2, 2]
2.6681137 1.725338 1.725338 2.8782806
00000000: 60c2 2a40 e0d7 dc3f e0d7 dc3f c035 3840

S f4 [2, 2]
2.6686792 1.7267356 1.7267356 2.880413
00000000: a4cb 2a40 ac05 dd3f ac05 dd3f b058 3840

S f4 [2, 2]
2.6681137 1.725338 1.725338 2.8782806
00000000: 60c2 2a40 e0d7 dc3f e0d7 dc3f c035 3840

S f4 [2, 2]
2.6686792 1.7267356 1.7267356 2.880413
00000000: a4cb 2a40 ac05 dd3f ac05 dd3f b058 3840

S f4 [2, 2]
2.6681137 1.725338 1.725338 2.8782806
00000000: 60c2 2a40 e0d7 dc3f e0d7 dc3f c035 3840

S f4 [2, 2]
2.6686792 1.7267356 1.7267356 2.880413
00000000: a4cb 2a40 ac05 dd3f ac05 dd3f b058 3840

S f4 [2, 2]
2.6681137 1.725338 1.725338 2.8782806
00000000: 60c2 2a40 e0d7 dc3f e0d7 dc3f c035 3840

S f4 [2, 2]
2.6686792 1.7267356 1.7267356 2.880413
00000000: a4cb 2a40 ac05 dd3f ac05 dd3f b058 3840

S f4 [2, 2]
2.6681137 1.725338 1.725338 2.8782806
00000000: 60c2 2a40 e0d7 dc3f e0d7 dc3f c035 3840

S f4 [2, 2]
2.6686792 1.7267356 1.7267356 2.880413
00000000: a4cb 2a40 ac05 dd3f ac05 dd3f b058 3840

S f4 [2, 2]
2.6681137 1.725338 1.725338 2.8782806
00000000: 60c2 2a40 e0d7 dc3f e0d7 dc3f c035 3840

S f4 [2, 2]
2.6686792 1.7267356 1.7267356 2.880413
00000000: a4cb 2a40 ac05 dd3f ac05 dd3f b058 3840

S f4 [2, 2]
2.6681137 1.725338 1.725338 2.8782806
00000000: 60c2 2a40 e0d7 dc3f e0d7 dc3f c035 3840

S f4 [2, 2]
2.6686792 1.7267356 1.7267356 2.880413
00000000: a4cb 2a40 ac05 dd3f ac05 dd3f b058 3840

S f4 [2, 2]
2.6681137 1.725338 1.725338 2.8782806
00000000: 60c2 2a40 e0d7 dc3f e0d7 dc3f c035 3840

S f4 [2, 2]
2.6686792 1.7267356 1.7267356 2.880413
00000000: a4cb 2a40 ac05 dd3f ac05 dd3f b058 3840

S f4 [2, 2]
2.6681137 1.725338 1.725338 2.8782806
00000000: 60c2 2a40 e0d7 dc3f e0d7 dc3f c035 3840

S f4 [2, 2]
2.6686792 1.7267356 1.7267356 2.880413
00000000: a4cb 2a40 ac05 dd3f ac05 dd3f b058 3840

S f4 [2, 2]
2.6681137 1.725338 1.725338 2.8782806
00000000: 60c2 2a40 e0d7 dc3f e0d7 dc3f c035 3840

S f4 [2, 2]
2.6686792 1.7267356 1.7267356 2.880413
00000000: a4cb 2a40 ac05 dd3f ac05 dd3f b058 3840

S f4 [2, 2]
2.6681137 1.725338 1.725338 2.8782806
00000000: 60c2 2a40 e0d7 dc3f e0d7 dc3f c035 3840

S f4 [2, 2]
2.6686792 1.7267356 1.7267356 2.880413
00000000: a4cb 2a40 ac05 dd3f ac05 dd3f b058 3840

S f4 [2, 2]
2.6678572 1.7254701 1.7254701 2.8786392
00000000: 2cbe 2a40 34dc dc3f 34dc dc3f a03b 3840

S f4 [2, 2]
2.6654506 1.7234268 1.7234268 2.8778381
00000000: be96 2a40 4099 dc3f 4099 dc3f 802e 3840

S f4 [2, 2]
2.6507826 1.7078452 1.7078452 2.860798
00000000: 6ca6 2940 ac9a da3f ac9a da3f 5017 3740

S f4 [2, 2]
2.5437012 1.589042 1.589042 2.7288609
00000000: 00cc 2240 ba65 cb3f ba65 cb3f a8a5 2e40

S f4 [2, 2]
2.0 1.0 1.0 2.0908203
00000000: 0000 0040 0000 803f 0000 803f 00d0 0540

L_infinite f4 [1, 2]
0.5791709 1.545627
00000000: 8b44 143f 1bd7 c53f

weight_ih_l0 f4 [12, 10]
-0.106022425 0.004343665 -0.42573276 0.43970293 0.413011 0.2722576 -0.087232 0.28796157
-0.25832742 0.36027828 -0.39953437 -0.4183383 -0.042418215 0.43951586 -0.28129518 -0.3026299
0.3682131 -0.06293466 -0.14496988 0.00069694885 0.34659716 -0.26448435 0.21922474 -0.054002568
-0.27015677 0.16472407 -0.32127288 -0.047914553 0.4867197 0.14735323 -0.2354693 0.21873203
0.20023414 0.4471686 -0.42944282 -0.40453517 0.23932078 0.46230385 -0.11548908 -0.22929978
0.25826558 0.11619572 -0.24311268 0.21433248 0.45045602 -0.43218422 -0.18367948 -0.44811058
0.17653926 0.01669781 -0.477087 0.3327094 5.2874417e-05 -0.006961476 -0.35203642 -0.20613474
0.048667334 0.32835352 0.31464115 -0.26621664 0.15467493 0.19590586 -0.012071103 -0.01563902
0.28580195 0.10705259 0.062415235 -0.05883908 -0.18125299 0.13372889 -0.044842634 -0.09235433
0.15331236 0.22357763 0.10259061 -0.32766378 0.11241155 0.09425905 0.19504589 0.32861573
0.46398145 0.0039652684 -0.44486216 0.44614786 0.23975912 -0.1759823 0.48894224 0.2672866
-0.22203362 -0.08291649 0.103635706 -0.42020318 0.26798463 0.1413483 -0.15927997 0.051162377
0.37566334 -0.26464206 0.1187572 0.23906517 0.14424989 0.36222643 0.19918582 -0.13570781
-0.47587743 0.04145775 0.2300764 0.17574832 0.28206497 0.042296797 -0.43313545 0.25687915
-0.2879854 -0.13021554 -0.09098736 -0.13592236 -0.059123132 -0.17140675 -0.4469544 0.02457775
00000000: 4922 d9bd 4e55 8e3b a5f9 d9be be20 e13e
00000010: 2e76 d33e 5965 8b3e b1a6 b2bd b36f 933e
00000020: 7e43 84be 6576 b83e c58f ccbe 7030 d6be
00000030: b9be 2dbd 3908 e13e ec05 90be 4ef2 9abe
00000040: 6d86 bc3e e3e3 80bd fc72 14be 72b3 363a
00000050: 2f75 b13e 7e6a 87be 737c 603e cc31 5dbd
00000060: fd51 8abe 6dad 283e e17d a4be 0d42 44bd
00000070: 5333 f93e c4e3 163e dd1e 71be 4afb 5f3e
00000080: 2e0a 4d3e 48f3 e43e eedf dbbe 3c1f cfbe
00000090: 8210 753e 17b3 ec3e 8a85 ecbd 90cd 6abe
000000a0: 633b 843e 06f8 ed3d 88f2 78be f979 5b3e
000000b0: 2ca2 e63e 4047 ddbe 7916 3cbe c06e e5be
000000c0: b5c6 343e d8c9 883c bf44 f4be e358 aa3e
000000d0: 79c5 5d38 181d e4bb 1e3e b4be fc14 53be
000000e0: 6657 473d f41d a83e a518 a13e 8c4d 88be
000000f0: 1b63 1e3e 8c9b 483e e0c5 45bc 671d 80bc
00000100: a254 923e 633e db3d 1ea7 7f3d 3f01 71bd
00000110: 629a 39be 3af0 083e e9ac 37bd 4424 bdbd
00000120: eafd 1c3e 89f1 643e 071b d23d 8cc3 a7be
00000130: 0738 e63d e40a c13d 1cba 473e 5240 a83e
00000140: fa8e ed3e 15ef 813b f9c4 e3be 7e6d e43e
00000150: 6a83 753e b434 34be a356 fa3e cad9 883e
00000160: c85c 63be 1fd0 a9bd f53e d43d df24 d7be
00000170: 4835 893e 9cbd 103e 4a1a 23be a48f 513d
00000180: f256 c03e 2a7f 87be fa36 f33d 80cd 743e
00000190: 3eb6 133e be75 b93e 5ef7 4b3e fdf6 0abe
000001a0: 35a6 f3be 9acf 293d 2699 6b3e 5ef7 333e
000001b0: d26a 903e 683f 2d3d eec3 ddbe aa85 833e
000001c0: d372 93be 3957 05be 9557 babd 3b2f 0bbe
000001d0: 192b 72bd 4085 2fbe 35d7 e4be 4757 c93c

weight_hh_l0 f4 [12, 4]
0.44208586 0.27697954 -0.045842793 -0.15163541 -0.18297678 -0.13935004 0.2798769 0.15874337
-0.3716045 -0.123697266 -0.31000808 0.020809207 0.12636676 -0.023661004 -0.05180634 0.3813843
0.45120725 -0.31815764 0.21205114 -0.39337242 0.28634816 0.30794448 0.40665072 0.3367909
-0.16395986 0.025546974 -0.3489382 0.24315548 -0.21449271 -0.2141894 -0.31067368 0.4174588
-0.33962235 0.3515085 -0.5079411 0.23229122 0.2499086 -0.3679504 -0.35307115 -0.32855624
0.23351611 -0.420743 0.46729186 -0.31604546 -0.51078 -0.47749758 0.36571994 0.1238499
00000000: 1459 e23e 43d0 8d3e a7c5 3bbd 5046 1bbe
00000010: 445e 3bbe c7b1 0ebe 064c 8f3e 9f8d 223e
00000020: f242 bebe fe54 fdbd 61b9 9ebe 1278 aa3c
00000030: 4a66 013e b9d4 c1bc e332 54bd ce44 c33e
00000040: a304 e73e 8fe5 a2be ef23 593e 1c68 c9be
00000050: 3a9c 923e e6aa 9d3e 8634 d03e db6f ac3e
00000060: 18e5 27be e347 d13c 07a8 b2be c0fd 783e
00000070: faa3 5bbe 7754 5bbe 9f10 9fbe 29bd d53e
00000080: fbe2 adbe ecf8 b33e 6e08 02bf c0dd 6d3e
00000090: 0ae8 7f3e ff63 bcbe bec5 b4be 8638 a8be
000000a0: d91e 6f3e a06b d7be e140 ef3e b6d0 a1be
000000b0: 7ac2 02bf 907a f4be a53f bb3e 04a5 fd3d

bias_ih_l0 f4 [12]
-0.47015926 0.25394148 0.38094875 0.3266725 0.16729417 -0.13213374 -0.13250154 0.064238355
-0.21891695 0.20913666 -0.4968816 0.26380944
00000000: b7b8 f0be 9e04 823e b70b c33e 9e41 a73e
00000010: 2a4f 2b3e 114e 07be 7cae 07be 668f 833d
00000020: c42b 60be ec27 563e 4467 febe 0812 873e

bias_hh_l0 f4 [12]
0.2776005 -0.38309962 -0.26395744 0.33627224 0.19701749 0.21930668 -0.2620798 0.39538363
-0.09260395 0.09887522 -0.016238278 -0.28416273
00000000: a721 8e3e a225 c4be 6e25 87be e02b ac3e
00000010: f4be 493e ee91 603e 532f 86be b96f ca3e
00000020: 24a7 bdbd 177f ca3d 2306 85bc c77d 91be

weight_ih_l0 f4 [12, 14]
-0.05163647 0.3234347 0.3992094 -0.27973935 -0.2778242 0.037427936 0.36338893 0.015252538
-0.36512303 0.17711815 -0.1225934 0.09815007 0.045563914 -0.041007955 -0.42745015 0.18396634
-0.32945463 -0.4094716 0.19098438 -0.45910132 0.29587787 0.25472257 0.36430666 -0.19173105
-0.44943878 -0.07069729 0.37968162 -0.39006916 0.07214502 0.048019607 0.43619227 -0.29581445
-0.21716973 0.40011674 -0.43174797 0.2921478 0.17382087 -0.06915031 0.23157226 -0.11748171
0.26099938 0.034390207 -0.24411874 -0.41215837 -0.044133175 0.05775129 0.39903975 -0.21770163
-0.21973614 0.050617136 0.1672594 0.3542684 0.015764063 -0.1871622 0.22219546 0.13668601
-0.12041361 0.33101422 0.24107088 -0.25980455 0.38203815 0.309362 -0.1025653 -0.37256554
0.3180526 0.29247847 -0.28091618 -0.4673541 -0.41727665 0.38242626 0.44930965 -0.035415184
-0.052710142 0.20530395 -0.3614914 -0.40959698 -0.03356997 -0.4148551 -0.19820756 0.30650142
0.4760997 -0.047671 0.19255269 -0.10017925 0.20662178 0.16514057 0.47269323 0.17299978
0.22601117 0.3048201 -0.13211383 0.3883626 -0.030947072 -0.36418536 0.18330441 -0.13204506
-0.48936975 -0.23405984 0.32439458 -0.48800224 -0.42711598 0.329034 0.3396742 0.17298391
-0.114884146 -0.28102103 -0.4120153 -0.28665432 0.108078904 0.3329163 -0.5031634 -7.7492754e-05
-0.4285515 0.1186399 -0.15418352 0.3921188 -0.0028419788 0.46836814 0.056780852 0.32430995
0.22126575 -0.4741462 -0.22012463 -0.3465727 -0.20296118 0.38657156 -0.40924957 0.4546324
-0.1766458 0.3101192 0.331726 -0.43820375 0.1638402 0.3863606 -0.044838946 0.49340954
-0.07343104 0.3936464 0.44342992 0.20992647 -0.11652626 0.104495846 0.45265454 -0.39438602
-0.15196997 0.34217897 -0.40182558 0.4270881 0.18734393 0.44649807 -0.012635677 0.23857217
-0.31354403 0.016393356 -0.41990617 0.43265063 0.50574815 0.26311767 0.060458586 -0.37373397
0.42872837 0.09533607 -0.4933834 0.10517878 -0.004409152 0.4256089 0.301217 -0.37857124
00000000: c380 53bd 3c99 a53e 2d65 cc3e ff39 8fbe
00000010: f93e 8ebe 094e 193d 1d0e ba3e c8e5 793c
00000020: 68f1 babe 765e 353e 4012 fbbd e702 c93d
00000030: 3aa1 3a3d f5f7 27bd bfda dabe ac61 3c3e
00000040: 47ae a8be 43a6 d1be 6991 433e 540f ebbe
00000050: 4e7d 973e ff6a 823e 6786 ba3e 2555 44be
00000060: d71c e6be bec9 90bd a165 c23e 25b7 c7be
00000070: c5c0 933d 35b0 443d 9854 df3e fe74 97be
00000080: be61 5ebe 1adc cc3e 120e ddbe 6594 953e
00000090: 19fe 313e ad9e 8dbd 4721 6d3e 409a f0bd
000000a0: b6a1 853e bfdc 0c3d 43fa 79be 6c06 d3be
000000b0: fdc4 34bd 9e8c 6c3d f04e cc3e 2ded 5ebe
000000c0: 8302 61be ea53 4f3d 0c46 2b3e ab62 b53e
000000d0: a323 813c 73a7 3fbe 3587 633e 6bf7 0b3e
000000e0: 699b f6bd b27a a93e 49db 763e 1a05 85be
000000f0: 819a c33e b264 9e3e c20d d2bd e9c0 bebe
00000100: cad7 a23e bdbf 953e 3fd4 8fbe 0949 efbe
00000110: 49a5 d5be 60cd c33e ea0b e63e 830f 11bd
00000120: 97e6 57bd 333b 523e 6715 b9be b2b6 d1be
00000130: aa80 09bd e367 d4be ecf6 4abe c1ed 9c3e
00000140: 57c3 f33e ab42 43bd 882c 453e c72a cdbd
00000150: a994 533e 9c1a 293e d904 f23e db26 313e
00000160: 796f 673e 6111 9c3e d948 07be 76d7 c63e
00000170: b784 fdbc 8176 babe 27b4 3b3e d236 07be
00000180: ac8e fabe 62ad 6fbe 0c17 a63e 6edb f9be
00000190: f2ae dabe 2577 a83e c7e9 ad3e b222 313e
000001a0: 6148 ebbd fde1 8fbe abf3 d2be 5bc4 92be
000001b0: 7958 dd3d 0174 aa3e 51cf 00bf 9b83 a2b8
000001c0: 1a6b dbbe 7af9 f23d 49e2 1dbe ccc3 c83e
000001d0: 7e40 3abb f3cd ef3e 0a93 683d f40b a63e
000001e0: 7d93 623e 4ac3 f2be 5a68 61be fa71 b1be
000001f0: 0ed5 4fbe b5ec c53e 2989 d1be 94c5 e83e
00000200: a3e2 34be f2c7 9e3e fed7 a93e 3e5c e0be
00000210: bac5 273e 0ed1 c53e 0ba9 37bd 2da0 fc3e
00000220: 0363 96bd 058c c93e 3f09 e33e f7f6 563e
00000230: 52a5 eebd eb01 d63d 56c2 e73e f7ec c9be
00000240: 049e 1bbe 1532 af3e 15bc cdbe 4bab da3e
00000250: 16d7 3f3e 659b e43e df05 4fbc 434c 743e
00000260: d888 a0be 5c4b 863c f1fd d6be 6284 dd3e
00000270: b678 013f 5cb7 863e 6ca3 773d 0f5a bfbe
00000280: 4982 db3e 8f3f c33d c09c fcbe f967 d73d
00000290: a67a 90bb 69e9 d93e 1d39 9a3e 17d4 c1be

weight_hh_l0 f4 [12, 4]
0.19742426 -0.43109748 0.033873964 -0.20973736 -0.00609803 0.111590624 -0.2970317 -0.27792537
0.33270204 -0.30921236 -5.045725e-05 -0.41223338 -0.28455782 0.4423589 -0.25886855 -0.13324822
-0.2738087 -0.3372886 -0.23108995 -0.3513421 0.36095583 0.4955142 -0.16242744 0.011608729
-0.39422724 -0.04457516 -0.21876603 0.2768202 0.41654703 0.45249513 -3.0895484e-05 -0.13876462
-0.31880242 0.20900795 0.4172156 -0.2593873 0.3154826 0.121024236 0.13568474 0.10153263
0.21484552 0.27313977 0.09554118 0.4502021 -0.24636126 0.37120908 0.42094058 0.3075412
00000000: 9629 4a3e cfb8 dcbe 6dbf 0a3d 64c5 56be
00000010: fcd1 c7bb a089 e43d 8a14 98be 3c4c 8ebe
00000020: ec57 aa3e 1551 9ebe 0fa2 53b8 4110 d3be
00000030: 90b1 91be de7c e23e 6b8a 84be 3972 08be
00000040: a730 8cbe 17b1 acbe d8a2 6cbe 1de3 b3be
00000050: 34cf b83e 0ab4 fd3e 6153 26be 8a32 3e3c
00000060: 27d8 c9be 7194 36bd 3404 60be 61bb 8d3e
00000070: a745 d53e 71ad e73e c695 01b8 5018 0ebe
00000080: 123a a3be 2e06 563e 489d d53e 6ace 84be
00000090: ef86 a13e 8edb f73d f1f0 0a3e 57f0 cf3d
000000a0: 7700 5c3e fad8 8b3e 18ab c33d e480 e63e
000000b0: 2046 7cbe 1e0f be3e 8685 d73e 0a76 9d3e

bias_ih_l0 f4 [12]
0.14315012 -0.41879407 -0.16116475 -0.5034518 -0.11247706 -0.19424666 -0.32452825 -0.33513802
0.12908138 -0.17637156 0.32844573 -0.18378419
00000000: f295 123e 2d6c d6be 5f08 25be 38e2 00bf
00000010: 5f5a e6bd 99e8 46be 9128 a6be 3697 abbe
00000020: e92d 043e bf9a 34be 0a2a a83e ec31 3cbe

bias_hh_l0 f4 [12]
-0.24729958 0.23793143 0.2696634 0.10423789 -0.14271557 0.033716355 0.296505 -0.4058275
-0.032855403 -0.47299346 -0.22308482 0.43202245
00000000: 1a3c 7dbe 4ca4 733e 5211 8a3e ad7a d53d
00000010: 0824 12be 291a 0a3d 81cf 973e 9fc8 cfbe
00000020: 6393 06bd 332c f2be 5970 64be 0c32 dd3e

weight_ih_l0 f4 [12, 24]
0.3147748 0.047340445 0.44442934 -0.13268094 -0.46786612 -0.26729888 0.16010906 -0.2879906
-0.18537198 -0.18481335 0.052301142 0.43316713 -0.22604823 -0.48307928 -0.27826163 0.32500595
0.3958047 0.324362 0.06092287 0.048621416 -0.14272507 0.2685712 -0.4136149 -0.35648295
0.20327413 -0.14237404 0.043963857 -0.37271833 0.12875761 -0.17921852 -0.26535696 0.27769515
-0.1947235 -0.093373634 -0.49286184 0.08866536 -0.21442088 -0.46857387 0.22985174 -0.22104907
-0.11028681 -0.14327872 -0.48359066 0.47166732 0.042681653 -0.36917168 -0.049263403 0.08535826
-0.3279704 -0.17337537 0.12377716 -0.113850534 -0.16267085 0.09264654 0.21733369 0.022780571
-0.10743113 0.38287857 -0.48243123 -0.012567883 0.3713833 -0.39692312 0.3137026 0.029447425
0.3112602 0.43374118 -0.2825943 0.11839968 0.2435466 0.35077274 0.112513214 -0.3288413
0.36551407 -0.22536166 0.33991012 0.3160601 -0.01960432 -0.018115371 -0.07617082 -0.114122175
0.07544413 -0.18804199 -0.08193823 -0.48397815 0.4608989 0.32681894 0.48601922 -0.14486414
0.28417408 0.37843534 0.1473541 -0.4073491 -0.34148118 0.32124174 -0.061891276 0.03809421
0.18642488 -0.22237237 0.31581995 -0.43462247 -0.39164096 -0.4724407 0.011247276 0.16018707
-0.2418361 -0.3970866 -0.11223495 -0.19986923 -0.030017905 0.25628644 0.27981132 0.044000354
0.34086704 -0.4649906 0.3814169 -0.013943309 0.10838831 0.22390436 -0.025370741 0.25471222
0.058023173 0.44085568 -0.0753179 0.07791452 0.13276307 -0.41156313 0.47795892 0.44142723
-0.060667194 -0.21427278 0.086373046 0.3779615 -0.27019218 0.30938047 -0.014274781 -0.40450215
0.14340387 0.032080133 -0.12666358 -0.27213693 0.0050276862 -0.33136836 0.06439726 -0.029148035
0.092565045 0.30261484 -0.14567868 -0.25352517 0.007940602 -0.4419619 -0.0035413043 0.092139386
-0.008427891 -0.4708969 0.23549175 -0.31934822 0.17749631 0.030332912 -0.2545646 0.30778828
-0.035314143 -0.21478328 0.22807671 0.19243172 -0.03689301 0.12656751 0.43493605 -0.15862224
0.034197666 0.020205751 0.35649 0.12026363 0.06777112 -0.49776375 0.3396912 0.33538547
0.29328817 0.15692493 -0.35911942 0.09433298 0.06439989 -0.44183627 -0.3136101 0.30480516
0.38803926 0.030814279 0.09119212 0.2183938 -0.4897226 -0.21979633 -0.07740838 -0.24355727
-0.40105295 0.26225433 0.4816179 0.1771886 -0.10673374 0.18325579 -0.1285807 0.18026918
-0.10471869 -0.13321061 -0.24505267 0.17691411 0.090817235 -0.19452086 -0.41528642 -0.31770852
0.29111657 -0.4328698 -0.480636 0.40431356 0.098704986 -0.05111071 -0.35798767 -0.1777792
-0.27704206 -0.17538129 -0.2363948 -0.059038345 0.15748788 -0.32612818 -0.46458125 -0.41252095
-0.31281263 0.2975388 -0.31840536 0.41101962 0.32731557 -0.48654383 -0.22377837 0.32341644
-0.13863383 0.37852827 -0.46032524 0.3473289 0.3410833 -0.17920429 0.3094172 -0.30834952
0.13646993 0.39113185 0.228897 -0.10991643 -0.041663263 0.4531485 0.21575174 0.40463325
-0.41527274 0.0025945534 -0.30309805 0.46932188 -0.375801 -0.17420194 -0.3917704 -0.17710736
00000000: 2a2a a13e 0ee8 413d 3e8c e33e 83dd 07be
00000010: 268c efbe 66db 88be a1f3 233e 8173 93be
00000020: 27d2 3dbe b63f 3dbe b939 563d 15c8 dd3e
00000030: 3079 67be 2b56 f7be 4f78 8ebe 2e67 a63e
00000040: eaa6 ca3e c712 a63e 428a 793d 4027 473d
00000050: 8526 12be 2a82 893e 55c5 d3be ef84 b6be
00000060: 1827 503e 80ca 11be 7213 343d f0d4 bebe
00000070: 09d9 033e 0f85 37be dedc 87be 0f2e 8e3e
00000080: 9965 47be ad3a bfbd 6358 fcbe 2f96 b53d
00000090: 2691 5bbe eae8 efbe 415e 6b3e b05a 62be
000000a0: 0dde e1bd a8b7 12be 3299 f7be 617e f13e
000000b0: f5d2 2e3d 1204 bdbe 6cc8 49bd 50d0 ae3d
000000c0: bceb a7be 5089 31be e17e fd3d 782a e9bd
000000d0: 3093 26be 78bd bd3d b98c 5e3e 529e ba3c
000000e0: da04 dcbd a908 c43e 3a01 f7be 86e9 4dbc
000000f0: f425 be3e 8239 cbbe a19d a03e ba3b f13c
00000100: 7f5d 9f3e 5313 de3e 33b0 90be 887b f23d
00000110: 4864 793e 7c98 b33e 546d e63d e35d a8be
00000120: a924 bb3e 35c5 66be b308 ae3e a1d2 a13e
00000130: 3d99 a0bc b066 94bc 72ff 9bbd e3b8 e9bd
00000140: 7482 9a3d 148e 40be 3bcf a7bd fccb f7be
00000150: f1fa eb3e d054 a73e 83d7 f83e 4457 14be
00000160: 447f 913e 47c2 c13e fee3 163e 1090 d0be
00000170: 9fd6 aebe cc79 a43e b581 7dbd ad08 1c3d
00000180: 2ae6 3e3e 95b5 63be 27b3 a13e d686 debe
00000190: 2a85 c8be bfe3 f1be 7f46 383c 1408 243e
000001a0: e2a3 77be ef4e cbbe 70db e5bd 85aa 4cbe
000001b0: 1ce8 f5bc fa37 833e 6e43 8f3e b739 343d
000001c0: 2086 ae3e 3f13 eebe 1349 c33e 7a72 64bc
000001d0: b1fa dd3d 2f47 653e 4dd6 cfbc a469 823e
000001e0: b5a9 6d3d d6b7 e13e 4540 9abd a691 9f3d
000001f0: 0bf3 073e 67b8 d2be 08b7 f43e c002 e23e
00000200: 2a7e 78bd 536a 5bbe 5ae4 b03d 2b84 c13e
00000210: a156 8abe 1e67 9e3e c5e0 69bc e81a cfbe
00000220: 77d8 123e 7566 033d 19b4 01be 8855 8bbe
00000230: 4abf a43b 1da9 a9be b6e2 833d dcc7 eebc
00000240: be92 bd3d 55f0 9a3e cb2c 15be 0dce 81be
00000250: 4c19 023c d548 e2be 3a15 68bb 93b3 bc3d
00000260: 2315 0abc 6619 f1be c024 713e 9c81 a3be
00000270: 98c1 353e ba7c f83c 4b56 82be 6d96 9d3e
00000280: 90a5 10bd 26f0 5bbe f18c 693e d20c 453e
00000290: 201d 17bd ea9a 013e f0af de3e de6d 22be
000002a0: da12 0c3d 8886 a53c db85 b63e c74c f63d
000002b0: 96cb 8a3d e4da febe 01ec ad3e a5b7 ab3e
000002c0: de29 963e eeb0 203e 80de b7be a631 c13d
000002d0: 17e4 833d 5d38 e2be 8191 a0be 6c0f 9c3e
000002e0: 15ad c63e 3a6e fc3c efc2 ba3d a0a2 5f3e
000002f0: ecbc fabe 4a12 61be 4988 9ebd 1467 79be
00000300: d056 cdbe 3346 863e 9f96 f63e ee70 353e
00000310: 3897 dabd 68a7 3b3e a9aa 03be 7c98 383e
00000320: c176 d6bd 5d68 08be 16ef 7abe f928 353e
00000330: 63fe b93d 7a30 47be 6ca0 d4be b1aa a2be
00000340: 3b0d 953e 1ca1 ddbe ec15 f6be 3002 cf3e
00000350: d725 ca3d 7759 51bd 294a b7be c00b 36be
00000360: 75d8 8dbe 2797 33be 7a11 72be 31d2 71bd
00000370: 8144 213e 46fa a6be 98dd edbe f235 d3be
00000380: fa28 a0be 0157 983e 0706 a3be 2a71 d23e
00000390: e895 a73e 461c f9be 2826 65be d796 a53e
000003a0: 07f6 0dbe 75ce c13e c0af ebbe 18d5 b13e
000003b0: 78a2 ae3e 5481 37be ee6b 9e3e fddf 9dbe
000003c0: c6be 0b3e 6f42 c83e fa63 6a3e de1b e1bd
000003d0: 19a7 2abd 1503 e83e 06ee 5c3e 172c cf3e
000003e0: a19e d4be 6209 2a3b ab2f 9bbe f54a f03e
000003f0: fd68 c0be fe61 32be 2196 c8be a25b 35be

weight_hh_l0 f4 [12, 4]
0.1488384 -0.48034436 0.19227278 -0.06881673 0.06615622 -0.070581816 -0.037459925 -0.36223263
-0.0027072234 0.47382998 0.3908951 -0.4102544 -0.47167042 0.122233674 0.3211398 0.075082935
0.33109716 0.18475267 -0.03722164 0.47742757 -0.30657226 -0.3975767 0.09724475 -0.15441962
0.2826407 -0.43324205 0.20227551 0.10861215 0.1790925 -0.2611528 0.28471485 -0.0030427636
-0.019790381 -0.12737067 0.4809837 0.14511374 -0.34863842 0.3804413 0.19599667 0.44376162
0.22797194 -0.30507043 0.20439814 0.44355428 -0.015814306 0.4157433 0.24139723 0.37904224
00000000: 1869 183e b2ef f5be 28e3 443e c9ef 8cbd
00000010: ea7c 873d 338d 90bd 946f 19bd 8e76 b9be
00000020: ac6b 31bb d899 f23e 6723 c83e dd0c d2be
00000030: c97e f1be a655 fa3d 706c a43e 15c5 993d
00000040: 9185 a93e ce2f 3d3e b875 18bd 6371 f43e
00000050: 0af7 9cbe 2c8f cbbe 4128 c73d 2d20 1ebe
00000060: 48b6 903e e7d1 ddbe 5021 4f3e 0c70 de3d
00000070: 0664 373e d2b5 85be 25c6 913e 1a69 47bb
00000080: 701f a2bc 756d 02be 7f43 f63e b298 143e
00000090: bc80 b2be 34c9 c23e 5ab3 483e b934 e33e
000000a0: 7a71 693e 3132 9cbe bf4d 513e 8c19 e33e
000000b0: 018d 81bc 4edc d43e d630 773e d311 c23e

bias_ih_l0 f4 [12]
0.1257832 -0.12776233 0.42123938 0.45874697 0.07258628 -0.07993711 -0.23554946 0.3094269
-0.33172917 0.37838036 -0.24841228 0.30669972
00000000: 50cd 003e 21d4 02be b0ac d73e e2e0 ea3e
00000010: 1ea8 943d 11b6 a3bd e133 71be 346d 9e3e
00000020: 68d8 a9be 12bb c13e ca5f 7ebe bf07 9d3e

bias_hh_l0 f4 [12]
-0.1647349 -0.022253962 0.0031178487 -0.44232836 0.1333699 0.41869795 0.3789884 -0.299281
0.36013776 -0.47098076 0.20392747 -0.46888795
00000000: 44b0 28be f14d b6bc d254 4c3b dd78 e2be
00000010: 1e92 083e 945f d63e c40a c23e 5c3b 99be
00000020: fa63 b83e 6424 f1be 5dd2 503e 1512 f0be

weight f4 [4, 4]
0.13192144 0.13690889 0.02586195 0.46212232 0.28153732 -0.06733152 -0.19446512 0.20240904
-0.0440882 -0.15868378 -0.22731574 0.014300904 0.46944207 0.39585206 -0.4577047 0.4924741
00000000: 6a16 073e d831 0c3e 71dc d33c 4c9b ec3e
00000010: a925 903e 1ce5 89bd dd21 47be 5144 4f3e
00000020: d495 34bd 007e 22be 75c5 68be 574e 6a3c
00000030: b65a f03e 1fad ca3e 4558 eabe 9125 fc3e

bias f4 [4]
0.089286976 0.09274441 0.4209354 0.21291327
00000000: 17dc b63d c8f0 bd3d d884 d73e f005 5a3e

weight f4 [320, 8]
-0.010594412 -0.00011991768 0.29814288 -0.032920055 0.13552709 -0.111025386 -1.52332805e-05 -0.07698032
0.027433567 -0.09865597 -0.18583296 0.2202318 -0.11558206 0.1444559 -0.361967 -0.23825747
0.09384867 0.19016904 0.20851833 0.28593972 0.3473228 0.10904157 -0.056914322 0.03082176
-0.22485015 0.2660372 -0.1286934 -0.2693967 -0.013166968 -0.0959959 -0.10186437 0.10445113
0.2873151 0.18917173 -0.31688344 -0.12111936 -0.0437644 0.115526386 -0.20049134 -0.28207934
0.0072836694 0.1965417 0.12253673 0.018461153 -5.0017723e-05 -0.30159202 2.429093e-05 0.07903502
0.082517 -0.25695157 0.16796306 0.24874929 0.23647568 -0.057930574 0.28726947 0.25584444
-0.07883958 0.19212982 -0.21180551 -0.25597414 0.08210834 -0.28433344 -0.2555343 -0.070071794
0.06475348 -0.06614936 -5.1247833e-05 0.23184446 0.20036238 -0.00016538391 0.25488958 -0.06419082
0.32338125 -0.2662777 0.29831228 0.16820009 0.31207606 -0.02369769 -0.2133005 0.1798116
0.16668072 0.2769765 -0.087845 0.056747522 -0.14775294 0.22909832 -0.11906671 -0.34461161
0.1611633 -0.17511843 -0.3127889 0.19617362 0.05446577 0.34908667 0.09358771 0.09458576
0.2118106 0.02990239 0.25074944 0.14118063 0.07102727 0.16982093 -0.13882536 -0.10022397
0.009766048 -0.31535506 -0.20442574 -0.24958074 -0.19760025 0.14135139 0.10517961 -0.016120592
-0.01433476 0.1226549 -0.18394187 -0.078023374 -0.2467018 -0.32309648 0.28336194 0.26748937
0.028686224 0.20283827 -0.30328685 0.28213134 -0.16767523 0.00035521478 0.079445705 -0.04713202
0.14787957 0.10230037 -0.2969094 0.021925647 -0.010738994 0.23313123 -7.481606e-05 0.055484142
-0.0074655646 -0.08844197 -0.21057485 -0.3149266 0.34096733 0.10278894 -0.15510537 0.11928518
0.09243551 0.25579134 0.2912911 0.25217044 -0.16420135 0.3042485 -0.1794356 0.056936603
-0.21472356 0.14108442 -0.2305802 -0.29464254 0.2795193 0.30715945 0.15859294 0.009610036
-0.09151949 0.046716653 -0.028029663 -0.16631775 -0.049531274 -0.018495968 0.038075052 -0.10038812
0.0030467145 0.27303448 0.069904596 0.26579618 0.2158723 -0.13758606 0.20152539 0.1599248
0.10810352 -0.28150132 -0.29466537 -0.118271224 0.25110653 -0.3206878 -0.15987532 -0.030635
-0.12304395 -0.21824917 0.10856114 -0.20221756 0.13580386 0.30042824 0.08544846 -0.028375024
-0.10504247 0.12140714 0.26581663 -0.15631863 0.22175702 0.023523249 -0.31756935 -0.31541273
0.17324325 -0.3237616 0.21593443 0.23567702 -0.06650379 0.23977831 -0.20844066 0.33290896
-0.27900174 0.023447186 -0.18729393 0.2662254 -0.30976665 -0.2656256 -0.23388445 -0.15787669
-0.082344055 0.022899793 -0.16408497 -0.19919178 0.21779117 0.1572986 0.2655192 -0.13118598
0.08006127 -0.05718567 -0.06165451 0.06884581 0.09717188 -0.27957094 -0.15601335 0.17461747
-0.027828401 0.33657303 -0.24274215 0.19795361 0.15824068 -0.19540021 0.2935482 0.34673262
-0.2403468 0.15572686 -0.06126475 -0.3114413 -0.09998446 0.27892008 -0.25715578 -0.07287606
0.18156093 0.042706788 -0.0016459143 0.17371984 -0.11201862 0.32191223 0.21921168 -0.13303912
00000000: 2f94 2dbc 507c fbb8 2fa6 983e 2ed7 06bd
00000010: 9dc7 0a3e 4761 e3bd 7192 7fb7 dca7 9dbd
00000020: 5cbc e03c 240c cabd ff4a 3ebe 7284 613e
00000030: 49b6 ecbd 3fec 133e bd53 b9be c4f9 73be
00000040: bb33 c03d acbb 423e d485 553e b166 923e
00000050: 4bd4 b13e 3051 df3d fe1e 69bd ea7d fc3c
00000060: 1e3f 66be 0736 883e 34c8 03be 5dee 89be
00000070: 44ba 57bc 8099 c4bd 449e d0bd 79ea d53d
00000080: f71a 933e 3cb6 413e 8c3e a2be 6d0d f8bd
00000090: 4d42 33bd 1999 ec3d 9a4d 4dbe b46c 90be
000000a0: d9ab ee3b 3a42 493e 89f4 fa3d d83b 973c
000000b0: 1fca 51b8 456a 9abe 60c4 cb37 1ddd a13d
000000c0: acfe a83d 288f 83be 82fe 2b3e 22b8 7e3e
000000d0: ae26 723e 9c48 6dbd fc14 933e 0bfe 823e
000000e0: a576 a1bd aebd 443e 8be3 58be 0b0f 83be
000000f0: 6b28 a83d 2794 91be 64d5 82be cd81 8fbd
00000100: 799d 843d 5179 87bd f1f2 56b8 a268 6d3e
00000110: cc2b 4d3e e86a 2db9 e380 823e 7a76 83bd
00000120: 3a92 a53e 8d55 88be 63bc 983e a53c 2c3e
00000130: 6fc8 9f3e a821 c2bc 726b 5abe 8820 383e
00000140: 5aae 2a3e ddcf 8d3e 14e8 b3bd 1770 683d
00000150: 8c4c 17be c098 6a3e 3fd9 f3bd ef70 b0be
00000160: fe07 253e 3f52 33be de25 a0be bde1 483e
00000170: 8017 5f3d 7dbb b23e eaaa bf3d 2eb6 c13d
00000180: e1e4 583e dbf5 f43c 3b62 803e a891 103e
00000190: bf76 913d 8ae5 2d3e 3c28 0ebe 3a42 cdbd
000001a0: c601 203c 3876 a1be fb54 51be 1892 7fbe
000001b0: b857 4abe 6bbe 103e 6868 d73d 550f 84bc
000001c0: 57dc 6abc 7e32 fb3d 425b 3cbe b8ca 9fbd
000001d0: 669f 7cbe e76c a5be d114 913e 5ef4 883e
000001e0: 5fff ea3c d6b4 4f3e 6a48 9bbe 8573 903e
000001f0: 0eb3 2bbe 1f3c ba39 6eb4 a23d 810d 41bd
00000200: be6d 173e db82 d13d 8204 98be 6a9d b33c
00000210: 9bf2 2fbc f4b9 6e3e 91e6 9cb8 5743 633d
00000220: b2a1 f4bb 1021 b5bd efa0 57be 0f3e a1be
00000230: 4593 ae3e 0283 d23d f1d3 1ebe ca4b f43d
00000240: d44e bd3d 15f7 823e 1b24 953e 7c1c 813e
00000250: 6624 28be 76c6 9b3e f7bd 37be 5b36 693d
00000260: 7ee0 5bbe 6f78 103e 371d 6cbe 63db 96be
00000270: 271d 8f3e 0144 9d3e 3066 223e 6a73 1d3c
00000280: 926e bbbd f659 3f3d 779e e5bc 334f 2abe
00000290: 4ee1 4abd db84 97bc 96f4 1b3d 4998 cdbd
000002a0: 63ab 473b 2dcb 8b3e 242a 8f3d 7016 883e
000002b0: a10d 5d3e 5ce3 0cbe ac5c 4e3e 54c3 233e
000002c0: 6165 dd3d f120 90be 61de 96be 2f38 f2bd
000002d0: 0991 803e 3131 a4be 5bb6 23be 40f6 fabc
000002e0: 77fe fbbd b67c 5fbe 4e55 de3d 1f12 4fbe
000002f0: 2b10 0b3e bbd1 993e 9aff ae3d bd72 e8bc
00000300: 8220 d7bd 4ea4 f83d 1e19 883e fe11 20be
00000310: 4614 633e d4b3 c03c 7398 a2be c77d a1be
00000320: ae66 313e 15c4 a5be ea1d 5d3e 5155 713e
00000330: 2433 88bd 7288 753e 7871 55be 0b73 aa3e
00000340: 51d9 8ebe 5014 c03c fbc9 3fbe b24e 883e
00000350: bc99 9ebe 1400 88be 687f 6fbe 6daa 21be
00000360: 00a4 a8bd 5998 bb3c e405 28be eef8 4bbe
00000370: a604 5f3e e212 213e 22f2 873e 9e55 06be
00000380: 2af7 a33d 853b 6abd 7189 7cbd 08ff 8c3d
00000390: 0d02 c73d ec23 8fbe f7c1 1fbe ecce 323e
000003a0: 63f8 e3bc 4d53 ac3e 6691 78be 5ab4 4a3e
000003b0: d809 223e fe16 48be f34b 963e f086 b13e
000003c0: 791d 76be dd76 1f3e bff0 7abd 3c75 9fbe
000003d0: a7c4 ccbd 9dce 8e3e eca9 83be 0b40 95bd
000003e0: 1ceb 393e 50ed 2e3d b8bb d7ba 9de3 313e
000003f0: 056a e5bd aed1 a43e 0779 603e 683b 08be

bias f4 [320]
-0.2309353 0.30608574 0.106660016 -0.18550244 -0.12598304 -0.30361027 0.08549003 -0.29633546
-0.2522431 0.092856266 0.3454468 0.26666716 0.019138744 -0.17247382 0.055433758 -0.29746482
-0.28500792 -0.03921159 0.075008206 -0.1340437 -0.28284135 -0.3049284 0.26244307 -0.16381511
-0.2065278 0.090784006 0.13587765 -0.13655432 0.32974437 0.28644347 0.31876263 0.02883662
0.025193384 0.32980153 0.011227124 -0.115618706 0.06749005 0.11024658 0.14472353 -0.27628168
0.016984338 0.19068426 0.19505015 -0.28303835 0.12852485 0.1179981 0.13182044 -0.045064446
-0.09816475 -0.12047241 -0.07330619 -0.24812806 -0.011873221 0.34014657 -0.11021503 -0.13425541
0.25233483 0.10887471 0.34605405 0.30129722 -0.24952452 0.05580238 -0.11834621 -0.23745601
-0.27485195 -0.1420008 0.18621193 0.33838323 0.14520723 0.038006008 -0.13541189 -0.17024647
0.25804958 -0.25674292 -0.057924815 -0.16600104 0.19032788 -0.22663525 0.1921577 -0.2542378
-0.030370383 0.34223184 0.2527375 0.20432438 0.21026917 0.105207354 -0.054140367 -0.20247759
0.04405227 -0.15086386 0.21439548 -0.081697196 -0.1646933 0.09397591 0.12868522 -0.2886138
-0.32965502 0.33491045 0.35963896 -0.26216406 -0.013935609 -0.03994618 0.11095408 0.15498371
0.09948962 -0.27332357 0.011622178 -0.14010139 -0.17401215 -0.15705709 0.022354139 -0.1693334
0.31886676 0.057089243 -0.19328617 -0.2899976 0.31410596 0.015870648 0.10767742 0.26317245
0.314857 -0.12640862 -0.22174716 0.20981735 -0.21408951 -0.24834514 -0.23984967 -0.116154276
-0.065399595 0.110036775 -0.116924204 0.10709718 -0.27507928 0.32854643 -0.2125523 -0.20290138
0.08610566 -0.110306635 -0.06336651 -0.10077272 0.25878102 -0.022762753 -0.19908069 -0.008378668
-0.053030837 0.064650774 0.03989188 -0.014584647 -0.2163629 0.16925424 0.2164957 -0.021766877
-0.1800176 -0.1345215 0.28638572 -0.15302147 0.31215683 0.038074665 0.05606892 0.34466216
-0.080004945 -0.11894982 -0.28867877 -0.28165427 0.2667901 0.08212793 0.22488996 0.3156871
-0.15425457 -0.13621533 0.09003469 0.09481697 -0.11722079 0.16335459 -0.19034262 -0.23570082
-0.2245076 -0.22596323 0.29340184 -0.29811108 0.09960565 0.07259612 0.03143365 0.10987886
-0.1593946 -0.27946177 0.2584803 0.09582132 0.07477013 -0.28338844 0.2090398 0.29546142
0.031234043 -0.100356564 0.29834864 0.036392793 0.109321326 -0.24691606 0.3086639 -0.2795519
-0.21661362 0.32786387 -0.20798104 0.23602955 0.12525645 0.0038708793 0.13872598 -0.28754747
-0.13682644 0.08906143 0.09850149 0.042595465 0.18667349 -0.0018033715 0.23432823 0.17020273
0.31763214 -0.13516998 0.2297663 -0.24217424 0.15377434 -0.20330408 0.17001921 -0.18285891
0.33052802 -0.24275205 0.31126758 0.10733258 -0.08534492 -0.03363389 -0.16113237 0.3121296
-0.115787394 -0.056848973 -0.1732323 -0.07119125 -0.2062779 0.22781038 -0.224718 0.282226
0.17334023 0.0131968735 0.1453011 -0.16861777 0.23479083 -0.2334089 0.17874756 0.030055054
-0.03234513 0.007971142 0.28411812 -0.068740055 -0.26204124 -0.06434783 -0.24235216 0.17780997
00000000: 4e7a 6cbe 45b7 9c3e 9170 da3d 5af4 3dbe
00000010: b301 01be ce72 9bbe 6615 af3d 48b9 97be
00000020: 0226 81be 6d2b be3d 67de b03e 9988 883e
00000030: dbc8 9c3c fa9c 30be 820e 633d 4f4d 98be
00000040: 8fec 91be 559c 20bd e79d 993d c042 09be
00000050: 95d0 90be 931f 9cbe f05e 863e 26bf 27be
00000060: 067c 53be f7ec b93d 8323 0b3e e5d4 0bbe
00000070: 41d4 a83e b8a8 923e db34 a33e c63a ec3c
00000080: 5b62 ce3c bfdb a83e f9f1 373c 80c9 ecbd
00000090: 3938 8a3d f5c8 e13d 6832 143e cb74 8dbe
000000a0: bd22 8b3c bc42 433e 3abb 473e 67ea 90be
000000b0: 059c 033e fda8 f13d f0fb 063e 7f95 38bd
000000c0: 9a0a c9bd 3dba f6bd 8e21 96bd 4815 7ebe
000000d0: e687 42bc b127 ae3e 6bb8 e1bd 407a 09be
000000e0: 0832 813e b4f9 de3d ff2d b13e a143 9a3e
000000f0: 5b83 7fbe 0991 643d 7f5f f2bd ab27 73be
00000100: 65b9 8cbe a868 11be 57ae 3e3e 9140 ad3e
00000110: 34b1 143e 30ac 1b3d 6aa9 0abe 1755 2ebe
00000120: 131f 843e cf73 83be 9242 6dbd 2dfc 29be
00000130: 50e5 423e 1213 68be fdc4 443e 752b 82be
00000140: 4fcb f8bc 0339 af3e cf66 813e 693a 513e
00000150: cd50 573e f476 d73d 4ac2 5dbd 4956 4fbe
00000160: 2770 343d 0e7c 1abe 7d8a 5b3e dc50 a7bd
00000170: 5ca5 28be 7176 c03d 0fc6 033e 30c5 93be
00000180: 8bc8 a8be 6279 ab3e 9922 b83e 5e3a 86be
00000190: 2e52 64bc 9b9e 23bd e53b e33d 0db4 1e3e
000001a0: 37c1 cb3d 11f1 8bbe f36a 3e3c bd76 0fbe
000001b0: 3e30 32be 93d3 20be 0720 b73c bc65 2dbe
000001c0: 8142 a33e 69d6 693d cfec 45be 917a 94be
000001d0: 7fd2 a03e 2903 823c fb85 dc3d 8abe 863e
000001e0: f034 a13e 4371 01be b011 63be 5cda 563e
000001f0: 483a 5bbe 304e 7ebe 279b 75be 4be2 edbd
00000200: 39f0 85bd f65a e13d f575 efbd c455 db3d
00000210: 31d7 8cbe 3d37 a83e 4fa7 59be 61c5 4fbe
00000220: 2a58 b03d 72e8 e1bd 4dc6 81bd ee61 cebd
00000230: f27e 843e f478 babc cfdb 4bbe ae46 09bc
00000240: dd36 59bd a067 843d ab65 233d 71f4 6ebc
00000250: 3c8e 5dbe fc50 2d3e 0cb1 5d3e 7350 b2bc
00000260: 8956 38be 01c0 09be 26a1 923e a9b1 1cbe
00000270: 05d3 9f3e 2ef4 1b3d 86a8 653d 8f77 b03e
00000280: a2d9 a3bd f79b f3bd b4cd 93be fd34 90be
00000290: b698 883e b032 a83d 8e49 663e bda1 a13e
000002a0: e9f4 1dbe 087c 0bbe 1c64 b83d 662f c23d
000002b0: 7411 f0bd 6d46 273e 2de9 42be 8e5b 71be
000002c0: 52e5 65be e862 67be c438 963e 04a2 98be
000002d0: 0cfe cb3d 46ad 943d 92c0 003d 2b08 e13d
000002e0: 5738 23be 9d15 8fbe 8857 843e f83d c43d
000002f0: 1521 993d 4a18 91be 880e 563e b846 973e
00000300: 89de ff3c be87 cdbd 27c1 983e 9c10 153d
00000310: dce3 df3d 90d7 7cbe 3209 9e3e 6d21 8fbe
00000320: f6cf 5dbe c6dd a73e fbf8 54be bbb1 713e
00000330: 3a43 003e 94ae 7d3b 2f0e 0e3e 6c39 93be
00000340: 3b1c 0cbe d765 b63d 26bb c93d 9578 2e3d
00000350: 5627 3f3e 1b5f ecba bdf3 6f3e a049 2e3e
00000360: aea0 a23e 006a 0abe db47 6b3e 86fc 77be
00000370: 0577 1d3e f22e 50be 8419 2e3e 5e3f 3bbe
00000380: f83a a93e fe93 78be 775e 9f3e 2fd1 db3d
00000390: 51c9 aebd b1c3 09bd e2ff 24be 73cf 9f3e
000003a0: f121 edbd 78da 68bd cf63 31be b8cc 91bd
000003b0: 843a 53be 2047 693e 7a1c 66be ed7f 903e
000003c0: 1a80 313e b337 583c d0c9 143e 23aa 2cbe
000003d0: 026d 703e be02 6fbe 9a09 373e 0436 f63c
000003e0: 547c 04bd 6599 023c ee77 913e 96c7 8cbd
000003f0: 452a 86be ccc8 83bd 2a2b 78be d113 363e
