KNet/Linear_SS_No_MM_/pipeline_KNet_Linear_Dynamics_T100_v_negative_5dB.pt (torch, 199497 bytes, 351 tensors)

G f4 [2, 1]
000000 00 00 00 00 00 00 80 3f
       0.0 1.0

Q f4 [2, 2]
000000 00 00 80 3f 00 00 00 00 00 00 00 00 00 00 80 3f
       1.0 0.0 0.0 1.0

R f4 [2, 2]
000000 c2 62 4a 40 00 00 00 00 00 00 00 00 c2 62 4a 40
       3.1622777 0.0 0.0 3.1622777

prior_Q f4 [2, 2]
000000 00 00 80 3f 00 00 00 00 00 00 00 00 00 00 80 3f
       1.0 0.0 0.0 1.0

prior_Sigma f4 [2, 2]
000000 00 00 80 3f 00 00 00 00 00 00 00 00 00 00 80 3f
       1.0 0.0 0.0 1.0

prior_S f4 [2, 2]
000000 00 00 80 3f 00 00 00 00 00 00 00 00 00 00 80 3f
       1.0 0.0 0.0 1.0

m1x_0 f4 [2]
000000 00 00 20 41 00 00 00 00
       10.0 0.0

x_prev f4 [2]
000000 00 00 20 41 00 00 00 00
       10.0 0.0

m2x_0 f4 [2, 2]
000000 00 00 00 00 00 00 00 00 00 00 00 00 00 00 00 00
       0.0 0.0 0.0 0.0

QT f4 [2, 2]
000000 00 00 80 3f 00 00 00 00 00 00 00 00 00 00 80 3f
       1.0 0.0 0.0 1.0

Qx f4 [2, 2]
000000 00 00 80 3f 00 00 00 00 00 00 00 00 00 00 80 3f
       1.0 0.0 0.0 1.0

L f4 [1, 2]
000000 c0 44 14 3f 40 ea c5 3f
       0.57917404 1.5462112

L f4 [1, 2]
000000 e4 4a 14 3f 28 e4 c5 3f
       0.57926774 1.5460253

L f4 [1, 2]
000000 c0 44 14 3f 40 ea c5 3f
       0.57917404 1.5462112

L f4 [1, 2]
000000 e4 4a 14 3f 28 e4 c5 3f
       0.57926774 1.5460253

L f4 [1, 2]
000000 c0 44 14 3f 40 ea c5 3f
       0.57917404 1.5462112

L f4 [1, 2]
000000 e4 4a 14 3f 28 e4 c5 3f
       0.57926774 1.5460253

L f4 [1, 2]
000000 c0 44 14 3f 40 ea c5 3f
       0.57917404 1.5462112

L f4 [1, 2]
000000 e4 4a 14 3f 28 e4 c5 3f
       0.57926774 1.5460253

L f4 [1, 2]
000000 c0 44 14 3f 40 ea c5 3f
       0.57917404 1.5462112

L f4 [1, 2]
000000 e4 4a 14 3f 28 e4 c5 3f
       0.57926774 1.5460253

L f4 [1, 2]
000000 c0 44 14 3f 40 ea c5 3f
       0.57917404 1.5462112

L f4 [1, 2]
000000 e4 4a 14 3f 28 e4 c5 3f
       0.57926774 1.5460253

L f4 [1, 2]
000000 c0 44 14 3f 40 ea c5 3f
       0.57917404 1.5462112

L f4 [1, 2]
000000 e4 4a 14 3f 28 e4 c5 3f
       0.57926774 1.5460253

L f4 [1, 2]
000000 c0 44 14 3f 40 ea c5 3f
       0.57917404 1.5462112

L f4 [1, 2]
000000 e4 4a 14 3f 28 e4 c5 3f
       0.57926774 1.5460253

L f4 [1, 2]
000000 c0 44 14 3f 40 ea c5 3f
       0.57917404 1.5462112

L f4 [1, 2]
000000 e4 4a 14 3f 28 e4 c5 3f
       0.57926774 1.5460253

L f4 [1, 2]
000000 c0 44 14 3f 40 ea c5 3f
       0.57917404 1.5462112

L f4 [1, 2]
000000 e4 4a 14 3f 28 e4 c5 3f
       0.57926774 1.5460253

L f4 [1, 2]
000000 c0 44 14 3f 40 ea c5 3f
       0.57917404 1.5462112

L f4 [1, 2]
000000 e4 4a 14 3f 28 e4 c5 3f
       0.57926774 1.5460253

L f4 [1, 2]
000000 c0 44 14 3f 40 ea c5 3f
       0.57917404 1.5462112

L f4 [1, 2]
000000 e4 4a 14 3f 28 e4 c5 3f
       0.57926774 1.5460253

L f4 [1, 2]
000000 c0 44 14 3f 40 ea c5 3f
       0.57917404 1.5462112

L f4 [1, 2]
000000 e4 4a 14 3f 28 e4 c5 3f
       0.57926774 1.5460253

L f4 [1, 2]
000000 c0 44 14 3f 40 ea c5 3f
       0.57917404 1.5462112

L f4 [1, 2]
000000 e4 4a 14 3f 28 e4 c5 3f
       0.57926774 1.5460253

L f4 [1, 2]
000000 c0 44 14 3f 40 ea c5 3f
       0.57917404 1.5462112

L f4 [1, 2]
000000 e4 4a 14 3f 28 e4 c5 3f
       0.57926774 1.5460253

L f4 [1, 2]
000000 c0 44 14 3f 40 ea c5 3f
       0.57917404 1.5462112

L f4 [1, 2]
000000 e4 4a 14 3f 28 e4 c5 3f
       0.57926774 1.5460253

L f4 [1, 2]
000000 c0 44 14 3f 40 ea c5 3f
       0.57917404 1.5462112

L f4 [1, 2]
000000 e4 4a 14 3f 28 e4 c5 3f
       0.57926774 1.5460253

L f4 [1, 2]
000000 c0 44 14 3f 40 ea c5 3f
       0.57917404 1.5462112

L f4 [1, 2]
000000 e4 4a 14 3f 28 e4 c5 3f
       0.57926774 1.5460253

L f4 [1, 2]
000000 c0 44 14 3f 40 ea c5 3f
       0.57917404 1.5462112

L f4 [1, 2]
000000 e4 4a 14 3f 28 e4 c5 3f
       0.57926774 1.5460253

L f4 [1, 2]
000000 c0 44 14 3f 40 ea c5 3f
       0.57917404 1.5462112

L f4 [1, 2]
000000 e4 4a 14 3f 28 e4 c5 3f
       0.57926774 1.5460253

L f4 [1, 2]
000000 c0 44 14 3f 40 ea c5 3f
       0.57917404 1.5462112

L f4 [1, 2]
000000 e4 4a 14 3f 28 e4 c5 3f
       0.57926774 1.5460253

L f4 [1, 2]
000000 c0 44 14 3f 40 ea c5 3f
       0.57917404 1.5462112

L f4 [1, 2]
000000 e4 4a 14 3f 28 e4 c5 3f
       0.57926774 1.5460253

L f4 [1, 2]
000000 c0 44 14 3f 40 ea c5 3f
       0.57917404 1.5462112

L f4 [1, 2]
000000 e4 4a 14 3f 28 e4 c5 3f
       0.57926774 1.5460253

L f4 [1, 2]
000000 c0 44 14 3f 40 ea c5 3f
       0.57917404 1.5462112

L f4 [1, 2]
000000 e4 4a 14 3f 28 e4 c5 3f
       0.57926774 1.5460253

L f4 [1, 2]
000000 c0 44 14 3f 40 ea c5 3f
       0.57917404 1.5462112

L f4 [1, 2]
000000 e4 4a 14 3f 28 e4 c5 3f
       0.57926774 1.5460253

L f4 [1, 2]
000000 c0 44 14 3f 40 ea c5 3f
       0.57917404 1.5462112

L f4 [1, 2]
000000 e4 4a 14 3f 28 e4 c5 3f
       0.57926774 1.5460253

L f4 [1, 2]
000000 c0 44 14 3f 40 ea c5 3f
       0.57917404 1.5462112

L f4 [1, 2]
000000 e4 4a 14 3f 28 e4 c5 3f
       0.57926774 1.5460253

L f4 [1, 2]
000000 c0 44 14 3f 40 ea c5 3f
       0.57917404 1.5462112

L f4 [1, 2]
000000 e4 4a 14 3f 28 e4 c5 3f
       0.57926774 1.5460253

L f4 [1, 2]
000000 c0 44 14 3f 40 ea c5 3f
       0.57917404 1.5462112

L f4 [1, 2]
000000 e4 4a 14 3f 28 e4 c5 3f
       0.57926774 1.5460253

L f4 [1, 2]
000000 c0 44 14 3f 40 ea c5 3f
       0.57917404 1.5462112

L f4 [1, 2]
000000 e4 4a 14 3f 28 e4 c5 3f
       0.57926774 1.5460253

L f4 [1, 2]
000000 c0 44 14 3f 40 ea c5 3f
       0.57917404 1.5462112

L f4 [1, 2]
000000 e4 4a 14 3f 28 e4 c5 3f
       0.57926774 1.5460253

L f4 [1, 2]
000000 c0 44 14 3f 40 ea c5 3f
       0.57917404 1.5462112

L f4 [1, 2]
000000 e4 4a 14 3f 28 e4 c5 3f
       0.57926774 1.5460253

L f4 [1, 2]
000000 c0 44 14 3f 40 ea c5 3f
       0.57917404 1.5462112

L f4 [1, 2]
000000 e4 4a 14 3f 28 e4 c5 3f
       0.57926774 1.5460253

L f4 [1, 2]
000000 c0 44 14 3f 40 ea c5 3f
       0.57917404 1.5462112

L f4 [1, 2]
000000 e4 4a 14 3f 28 e4 c5 3f
       0.57926774 1.5460253

L f4 [1, 2]
000000 c0 44 14 3f 40 ea c5 3f
       0.57917404 1.5462112

L f4 [1, 2]
000000 e4 4a 14 3f 28 e4 c5 3f
       0.57926774 1.5460253

L f4 [1, 2]
000000 c0 44 14 3f 40 ea c5 3f
       0.57917404 1.5462112

L f4 [1, 2]
000000 e4 4a 14 3f 28 e4 c5 3f
       0.57926774 1.5460253

L f4 [1, 2]
000000 c0 44 14 3f 40 ea c5 3f
       0.57917404 1.5462112

L f4 [1, 2]
000000 e4 4a 14 3f 28 e4 c5 3f
       0.57926774 1.5460253

L f4 [1, 2]
000000 c0 44 14 3f 40 ea c5 3f
       0.57917404 1.5462112

L f4 [1, 2]
000000 e4 4a 14 3f 28 e4 c5 3f
       0.57926774 1.5460253

L f4 [1, 2]
000000 c0 44 14 3f 40 ea c5 3f
       0.57917404 1.5462112

L f4 [1, 2]
000000 e4 4a 14 3f 28 e4 c5 3f
       0.57926774 1.5460253

L f4 [1, 2]
000000 c0 44 14 3f 40 ea c5 3f
       0.57917404 1.5462112

L f4 [1, 2]
000000 e4 4a 14 3f 28 e4 c5 3f
       0.57926774 1.5460253

L f4 [1, 2]
000000 c0 44 14 3f 40 ea c5 3f
       0.57917404 1.5462112

L f4 [1, 2]
000000 e4 4a 14 3f 28 e4 c5 3f
       0.57926774 1.5460253

L f4 [1, 2]
000000 c0 44 14 3f 40 ea c5 3f
       0.57917404 1.5462112

L f4 [1, 2]
000000 e4 4a 14 3f 28 e4 c5 3f
       0.57926774 1.5460253

L f4 [1, 2]
000000 c0 44 14 3f 40 ea c5 3f
       0.57917404 1.5462112

L f4 [1, 2]
000000 e4 4a 14 3f 28 e4 c5 3f
       0.57926774 1.5460253

L f4 [1, 2]
000000 c0 44 14 3f 40 ea c5 3f
       0.57917404 1.5462112

L f4 [1, 2]
000000 e4 4a 14 3f 28 e4 c5 3f
       0.57926774 1.5460253

L f4 [1, 2]
000000 c0 44 14 3f 40 ea c5 3f
       0.57917404 1.5462112

L f4 [1, 2]
000000 e4 4a 14 3f 28 e4 c5 3f
       0.57926774 1.5460253

L f4 [1, 2]
000000 c0 44 14 3f 40 ea c5 3f
       0.57917404 1.5462112

L f4 [1, 2]
000000 e4 4a 14 3f 28 e4 c5 3f
       0.57926774 1.5460253

L f4 [1, 2]
000000 c0 44 14 3f 40 ea c5 3f
       0.57917404 1.5462112

L f4 [1, 2]
000000 e4 4a 14 3f 28 e4 c5 3f
       0.57926774 1.5460253

L f4 [1, 2]
000000 c0 44 14 3f 40 ea c5 3f
       0.57917404 1.5462112

L f4 [1, 2]
000000 e4 4a 14 3f 28 e4 c5 3f
       0.57926774 1.5460253

L f4 [1, 2]
000000 80 3b 14 3f 00 de c5 3f
       0.5790329 1.5458374

L f4 [1, 2]
000000 cc a2 13 3f f0 85 c5 3f
       0.57670283 1.54315

L f4 [1, 2]
000000 e0 ca 0f 3f 40 51 c3 3f
       0.5616894 1.525917

L f4 [1, 2]
000000 00 a0 e9 3e 8c 94 b4 3f
       0.45629883 1.4107833

S f4 [2, 2]
000000 a4 cb 2a 40 ac 05 dd 3f ac 05 dd 3f b0 58 38 40
       2.6686792 1.7267356 1.7267356 2.880413

S f4 [2, 2]
000000 60 c2 2a 40 e0 d7 dc 3f e0 d7 dc 3f c0 35 38 40
       2.6681137 1.725338 1.725338 2.8782806

S f4 [2, 2]
000000 a4 cb 2a 40 ac 05 dd 3f ac 05 dd 3f b0 58 38 40
       2.6686792 1.7267356 1.7267356 2.880413

S f4 [2, 2]
000000 60 c2 2a 40 e0 d7 dc 3f e0 d7 dc 3f c0 35 38 40
       2.6681137 1.725338 1.725338 2.8782806

S f4 [2, 2]
000000 a4 cb 2a 40 ac 05 dd 3f ac 05 dd 3f b0 58 38 40
       2.6686792 1.7267356 1.7267356 2.880413

S f4 [2, 2]
000000 60 c2 2a 40 e0 d7 dc 3f e0 d7 dc 3f c0 35 38 40
       2.6681137 1.725338 1.725338 2.8782806

S f4 [2, 2]
000000 a4 cb 2a 40 ac 05 dd 3f ac 05 dd 3f b0 58 38 40
       2.6686792 1.7267356 1.7267356 2.880413

S f4 [2, 2]
000000 60 c2 2a 40 e0 d7 dc 3f e0 d7 dc 3f c0 35 38 40
       2.6681137 1.725338 1.725338 2.8782806

S f4 [2, 2]
000000 a4 cb 2a 40 ac 05 dd 3f ac 05 dd 3f b0 58 38 40
       2.6686792 1.7267356 1.7267356 2.880413

S f4 [2, 2]
000000 60 c2 2a 40 e0 d7 dc 3f e0 d7 dc 3f c0 35 38 40
       2.6681137 1.725338 1.725338 2.8782806

S f4 [2, 2]
000000 a4 cb 2a 40 ac 05 dd 3f ac 05 dd 3f b0 58 38 40
       2.6686792 1.7267356 1.7267356 2.880413

S f4 [2, 2]
000000 60 c2 2a 40 e0 d7 dc 3f e0 d7 dc 3f c0 35 38 40
       2.6681137 1.725338 1.725338 2.8782806

S f4 [2, 2]
000000 a4 cb 2a 40 ac 05 dd 3f ac 05 dd 3f b0 58 38 40
       2.6686792 1.7267356 1.7267356 2.880413

S f4 [2, 2]
000000 60 c2 2a 40 e0 d7 dc 3f e0 d7 dc 3f c0 35 38 40
       2.6681137 1.725338 1.725338 2.8782806

S f4 [2, 2]
000000 a4 cb 2a 40 ac 05 dd 3f ac 05 dd 3f b0 58 38 40
       2.6686792 1.7267356 1.7267356 2.880413

S f4 [2, 2]
000000 60 c2 2a 40 e0 d7 dc 3f e0 d7 dc 3f c0 35 38 40
       2.6681137 1.725338 1.725338 2.8782806

S f4 [2, 2]
000000 a4 cb 2a 40 ac 05 dd 3f ac 05 dd 3f b0 58 38 40
       2.6686792 1.7267356 1.7267356 2.880413

S f4 [2, 2]
000000 60 c2 2a 40 e0 d7 dc 3f e0 d7 dc 3f c0 35 38 40
       2.6681137 1.725338 1.725338 2.8782806

S f4 [2, 2]
000000 a4 cb 2a 40 ac 05 dd 3f ac 05 dd 3f b0 58 38 40
       2.6686792 1.7267356 1.7267356 2.880413

S f4 [2, 2]
000000 60 c2 2a 40 e0 d7 dc 3f e0 d7 dc 3f c0 35 38 40
       2.6681137 1.725338 1.725338 2.8782806

S f4 [2, 2]
000000 a4 cb 2a 40 ac 05 dd 3f ac 05 dd 3f b0 58 38 40
       2.6686792 1.7267356 1.7267356 2.880413

S f4 [2, 2]
000000 60 c2 2a 40 e0 d7 dc 3f e0 d7 dc 3f c0 35 38 40
       2.6681137 1.725338 1.725338 2.8782806

S f4 [2, 2]
000000 a4 cb 2a 40 ac 05 dd 3f ac 05 dd 3f b0 58 38 40
       2.6686792 1.7267356 1.7267356 2.880413

S f4 [2, 2]
000000 60 c2 2a 40 e0 d7 dc 3f e0 d7 dc 3f c0 35 38 40
       2.6681137 1.725338 1.725338 2.8782806

S f4 [2, 2]
000000 a4 cb 2a 40 ac 05 dd 3f ac 05 dd 3f b0 58 38 40
       2.6686792 1.7267356 1.7267356 2.880413

S f4 [2, 2]
000000 60 c2 2a 40 e0 d7 dc 3f e0 d7 dc 3f c0 35 38 40
       2.6681137 1.725338 1.725338 2.8782806

S f4 [2, 2]
000000 a4 cb 2a 40 ac 05 dd 3f ac 05 dd 3f b0 58 38 40
       2.6686792 1.7267356 1.7267356 2.880413

S f4 [2, 2]
000000 60 c2 2a 40 e0 d7 dc 3f e0 d7 dc 3f c0 35 38 40
       2.6681137 1.725338 1.725338 2.8782806

S f4 [2, 2]
000000 a4 cb 2a 40 ac 05 dd 3f ac 05 dd 3f b0 58 38 40
       2.6686792 1.7267356 1.7267356 2.880413

S f4 [2, 2]
000000 60 c2 2a 40 e0 d7 dc 3f e0 d7 dc 3f c0 35 38 40
       2.6681137 1.725338 1.725338 2.8782806

S f4 [2, 2]
000000 a4 cb 2a 40 ac 05 dd 3f ac 05 dd 3f b0 58 38 40
       2.6686792 1.7267356 1.7267356 2.880413

S f4 [2, 2]
000000 60 c2 2a 40 e0 d7 dc 3f e0 d7 dc 3f c0 35 38 40
       2.6681137 1.725338 1.725338 2.8782806

S f4 [2, 2]
000000 a4 cb 2a 40 ac 05 dd 3f ac 05 dd 3f b0 58 38 40
       2.6686792 1.7267356 1.7267356 2.880413

S f4 [2, 2]
000000 60 c2 2a 40 e0 d7 dc 3f e0 d7 dc 3f c0 35 38 40
       2.6681137 1.725338 1.725338 2.8782806

S f4 [2, 2]
000000 a4 cb 2a 40 ac 05 dd 3f ac 05 dd 3f b0 58 38 40
       2.6686792 1.7267356 1.7267356 2.880413

S f4 [2, 2]
000000 60 c2 2a 40 e0 d7 dc 3f e0 d7 dc 3f c0 35 38 40
       2.6681137 1.725338 1.725338 2.8782806

S f4 [2, 2]
000000 a4 cb 2a 40 ac 05 dd 3f ac 05 dd 3f b0 58 38 40
       2.6686792 1.7267356 1.7267356 2.880413

S f4 [2, 2]
000000 60 c2 2a 40 e0 d7 dc 3f e0 d7 dc 3f c0 35 38 40
       2.6681137 1.725338 1.725338 2.8782806

S f4 [2, 2]
000000 a4 cb 2a 40 ac 05 dd 3f ac 05 dd 3f b0 58 38 40
       2.6686792 1.7267356 1.7267356 2.880413

S f4 [2, 2]
000000 60 c2 2a 40 e0 d7 dc 3f e0 d7 dc 3f c0 35 38 40
       2.6681137 1.725338 1.725338 2.8782806

S f4 [2, 2]
000000 a4 cb 2a 40 ac 05 dd 3f ac 05 dd 3f b0 58 38 40
       2.6686792 1.7267356 1.7267356 2.880413

S f4 [2, 2]
000000 60 c2 2a 40 e0 d7 dc 3f e0 d7 dc 3f c0 35 38 40
       2.6681137 1.725338 1.725338 2.8782806

S f4 [2, 2]
000000 a4 cb 2a 40 ac 05 dd 3f ac 05 dd 3f b0 58 38 40
       2.6686792 1.7267356 1.7267356 2.880413

S f4 [2, 2]
000000 60 c2 2a 40 e0 d7 dc 3f e0 d7 dc 3f c0 35 38 40
       2.6681137 1.725338 1.725338 2.8782806

S f4 [2, 2]
000000 a4 cb 2a 40 ac 05 dd 3f ac 05 dd 3f b0 58 38 40
       2.6686792 1.7267356 1.7267356 2.880413

S f4 [2, 2]
000000 60 c2 2a 40 e0 d7 dc 3f e0 d7 dc 3f c0 35 38 40
       2.6681137 1.725338 1.725338 2.8782806

S f4 [2, 2]
000000 a4 cb 2a 40 ac 05 dd 3f ac 05 dd 3f b0 58 38 40
       2.6686792 1.7267356 1.7267356 2.880413

S f4 [2, 2]
000000 60 c2 2a 40 e0 d7 dc 3f e0 d7 dc 3f c0 35 38 40
       2.6681137 1.725338 1.725338 2.8782806

S f4 [2, 2]
000000 a4 cb 2a 40 ac 05 dd 3f ac 05 dd 3f b0 58 38 40
       2.6686792 1.7267356 1.7267356 2.880413

S f4 [2, 2]
000000 60 c2 2a 40 e0 d7 dc 3f e0 d7 dc 3f c0 35 38 40
       2.6681137 1.725338 1.725338 2.8782806

S f4 [2, 2]
000000 a4 cb 2a 40 ac 05 dd 3f ac 05 dd 3f b0 58 38 40
       2.6686792 1.7267356 1.7267356 2.880413

S f4 [2, 2]
000000 60 c2 2a 40 e0 d7 dc 3f e0 d7 dc 3f c0 35 38 40
       2.6681137 1.725338 1.725338 2.8782806

S f4 [2, 2]
000000 a4 cb 2a 40 ac 05 dd 3f ac 05 dd 3f b0 58 38 40
       2.6686792 1.7267356 1.7267356 2.880413

S f4 [2, 2]
000000 60 c2 2a 40 e0 d7 dc 3f e0 d7 dc 3f c0 35 38 40
       2.6681137 1.725338 1.725338 2.8782806

S f4 [2, 2]
000000 a4 cb 2a 40 ac 05 dd 3f ac 05 dd 3f b0 58 38 40
       2.6686792 1.7267356 1.7267356 2.880413

S f4 [2, 2]
000000 60 c2 2a 40 e0 d7 dc 3f e0 d7 dc 3f c0 35 38 40
       2.6681137 1.725338 1.725338 2.8782806

S f4 [2, 2]
000000 a4 cb 2a 40 ac 05 dd 3f ac 05 dd 3f b0 58 38 40
       2.6686792 1.7267356 1.7267356 2.880413

S f4 [2, 2]
000000 60 c2 2a 40 e0 d7 dc 3f e0 d7 dc 3f c0 35 38 40
       2.6681137 1.725338 1.725338 2.8782806

S f4 [2, 2]
000000 a4 cb 2a 40 ac 05 dd 3f ac 05 dd 3f b0 58 38 40
       2.6686792 1.7267356 1.7267356 2.880413

S f4 [2, 2]
000000 60 c2 2a 40 e0 d7 dc 3f e0 d7 dc 3f c0 35 38 40
       2.6681137 1.725338 1.725338 2.8782806

S f4 [2, 2]
000000 a4 cb 2a 40 ac 05 dd 3f ac 05 dd 3f b0 58 38 40
       2.6686792 1.7267356 1.7267356 2.880413

S f4 [2, 2]
000000 60 c2 2a 40 e0 d7 dc 3f e0 d7 dc 3f c0 35 38 40
       2.6681137 1.725338 1.725338 2.8782806

S f4 [2, 2]
000000 a4 cb 2a 40 ac 05 dd 3f ac 05 dd 3f b0 58 38 40
       2.6686792 1.7267356 1.7267356 2.880413

S f4 [2, 2]
000000 60 c2 2a 40 e0 d7 dc 3f e0 d7 dc 3f c0 35 38 40
       2.6681137 1.725338 1.725338 2.8782806

S f4 [2, 2]
000000 a4 cb 2a 40 ac 05 dd 3f ac 05 dd 3f b0 58 38 40
       2.6686792 1.7267356 1.7267356 2.880413

S f4 [2, 2]
000000 60 c2 2a 40 e0 d7 dc 3f e0 d7 dc 3f c0 35 38 40
       2.6681137 1.725338 1.725338 2.8782806

S f4 [2, 2]
000000 a4 cb 2a 40 ac 05 dd 3f ac 05 dd 3f b0 58 38 40
       2.6686792 1.7267356 1.7267356 2.880413

S f4 [2, 2]
000000 60 c2 2a 40 e0 d7 dc 3f e0 d7 dc 3f c0 35 38 40
       2.6681137 1.725338 1.725338 2.8782806

S f4 [2, 2]
000000 a4 cb 2a 40 ac 05 dd 3f ac 05 dd 3f b0 58 38 40
       2.6686792 1.7267356 1.7267356 2.880413

S f4 [2, 2]
000000 60 c2 2a 40 e0 d7 dc 3f e0 d7 dc 3f c0 35 38 40
       2.6681137 1.725338 1.725338 2.8782806

S f4 [2, 2]
000000 a4 cb 2a 40 ac 05 dd 3f ac 05 dd 3f b0 58 38 40
       2.6686792 1.7267356 1.7267356 2.880413

S f4 [2, 2]
000000 60 c2 2a 40 e0 d7 dc 3f e0 d7 dc 3f c0 35 38 40
       2.6681137 1.725338 1.725338 2.8782806

S f4 [2, 2]
000000 a4 cb 2a 40 ac 05 dd 3f ac 05 dd 3f b0 58 38 40
       2.6686792 1.7267356 1.7267356 2.880413

S f4 [2, 2]
000000 60 c2 2a 40 e0 d7 dc 3f e0 d7 dc 3f c0 35 38 40
       2.6681137 1.725338 1.725338 2.8782806

S f4 [2, 2]
000000 a4 cb 2a 40 ac 05 dd 3f ac 05 dd 3f b0 58 38 40
       2.6686792 1.7267356 1.7267356 2.880413

S f4 [2, 2]
000000 60 c2 2a 40 e0 d7 dc 3f e0 d7 dc 3f c0 35 38 40
       2.6681137 1.725338 1.725338 2.8782806

S f4 [2, 2]
000000 a4 cb 2a 40 ac 05 dd 3f ac 05 dd 3f b0 58 38 40
       2.6686792 1.7267356 1.7267356 2.880413

S f4 [2, 2]
000000 60 c2 2a 40 e0 d7 dc 3f e0 d7 dc 3f c0 35 38 40
       2.6681137 1.725338 1.725338 2.8782806

S f4 [2, 2]
000000 a4 cb 2a 40 ac 05 dd 3f ac 05 dd 3f b0 58 38 40
       2.6686792 1.7267356 1.7267356 2.880413

S f4 [2, 2]
000000 60 c2 2a 40 e0 d7 dc 3f e0 d7 dc 3f c0 35 38 40
       2.6681137 1.725338 1.725338 2.8782806

S f4 [2, 2]
000000 a4 cb 2a 40 ac 05 dd 3f ac 05 dd 3f b0 58 38 40
       2.6686792 1.7267356 1.7267356 2.880413

S f4 [2, 2]
000000 60 c2 2a 40 e0 d7 dc 3f e0 d7 dc 3f c0 35 38 40
       2.6681137 1.725338 1.725338 2.8782806

S f4 [2, 2]
000000 a4 cb 2a 40 ac 05 dd 3f ac 05 dd 3f b0 58 38 40
       2.6686792 1.7267356 1.7267356 2.880413

S f4 [2, 2]
000000 60 c2 2a 40 e0 d7 dc 3f e0 d7 dc 3f c0 35 38 40
       2.6681137 1.725338 1.725338 2.8782806

S f4 [2, 2]
000000 a4 cb 2a 40 ac 05 dd 3f ac 05 dd 3f b0 58 38 40
       2.6686792 1.7267356 1.7267356 2.880413

S f4 [2, 2]
000000 60 c2 2a 40 e0 d7 dc 3f e0 d7 dc 3f c0 35 38 40
       2.6681137 1.725338 1.725338 2.8782806

S f4 [2, 2]
000000 a4 cb 2a 40 ac 05 dd 3f ac 05 dd 3f b0 58 38 40
       2.6686792 1.7267356 1.7267356 2.880413

S f4 [2, 2]
000000 60 c2 2a 40 e0 d7 dc 3f e0 d7 dc 3f c0 35 38 40
       2.6681137 1.725338 1.725338 2.8782806

S f4 [2, 2]
000000 a4 cb 2a 40 ac 05 dd 3f ac 05 dd 3f b0 58 38 40
       2.6686792 1.7267356 1.7267356 2.880413

S f4 [2, 2]
000000 60 c2 2a 40 e0 d7 dc 3f e0 d7 dc 3f c0 35 38 40
       2.6681137 1.725338 1.725338 2.8782806

S f4 [2, 2]
000000 a4 cb 2a 40 ac 05 dd 3f ac 05 dd 3f b0 58 38 40
       2.6686792 1.7267356 1.7267356 2.880413

S f4 [2, 2]
000000 60 c2 2a 40 e0 d7 dc 3f e0 d7 dc 3f c0 35 38 40
       2.6681137 1.725338 1.725338 2.8782806

S f4 [2, 2]
000000 a4 cb 2a 40 ac 05 dd 3f ac 05 dd 3f b0 58 38 40
       2.6686792 1.7267356 1.7267356 2.880413

S f4 [2, 2]
000000 60 c2 2a 40 e0 d7 dc 3f e0 d7 dc 3f c0 35 38 40
       2.6681137 1.725338 1.725338 2.8782806

S f4 [2, 2]
000000 a4 cb 2a 40 ac 05 dd 3f ac 05 dd 3f b0 58 38 40
       2.6686792 1.7267356 1.7267356 2.880413

S f4 [2, 2]
000000 2c be 2a 40 34 dc dc 3f 34 dc dc 3f a0 3b 38 40
       2.6678572 1.7254701 1.7254701 2.8786392

S f4 [2, 2]
000000 be 96 2a 40 40 99 dc 3f 40 99 dc 3f 80 2e 38 40
       2.6654506 1.7234268 1.7234268 2.8778381

S f4 [2, 2]
000000 6c a6 29 40 ac 9a da 3f ac 9a da 3f 50 17 37 40
       2.6507826 1.7078452 1.7078452 2.860798

S f4 [2, 2]
000000 00 cc 22 40 ba 65 cb 3f ba 65 cb 3f a8 a5 2e 40
       2.5437012 1.589042 1.589042 2.7288609

S f4 [2, 2]
000000 00 00 00 40 00 00 80 3f 00 00 80 3f 00 d0 05 40
       2.0 1.0 1.0 2.0908203

L_infinite f4 [1, 2]
000000 8b 44 14 3f 1b d7 c5 3f
       0.5791709 1.545627

weight_ih_l0 f4 [12, 10]
000000 cd 4f e5 bd bc 88 e4 3a 1d 43 dc be 6e 85 da 3e
       -0.111968614 0.001743577 -0.43019953 0.42679924
000010 17 62 d8 3e 4b 5c 8a 3e 0c cf bb bd 92 e6 95 3e
       0.42262337 0.2702354 -0.091703504 0.29277474
000020 4c 83 83 be 17 bf ba 3e 57 f6 c6 be b7 67 d6 be
       -0.2568611 0.36473915 -0.38859817 -0.41876003
000030 0a 00 3f bd c7 8d e6 3e 02 88 92 be 6f 63 9b be
       -0.046630897 0.45030043 -0.2861939 -0.303493
000040 62 d2 be 3e 46 5e 76 bd 7e b5 11 be 7b 15 56 3b
       0.37269884 -0.0601485 -0.1422939 0.0032666612
000050 eb bc ad 3e 02 9d 8a be 76 07 65 3e 48 c8 8a bd
       0.33933195 -0.27072912 0.22366127 -0.06776482
000060 5e 6c 8c be b1 87 25 3e 54 3f a7 be d5 b0 6e bd
       -0.27426428 0.16165043 -0.32665503 -0.05827411
000070 e2 9e fa 3e 10 67 1b 3e dd 6f 77 be 71 96 55 3e
       0.48949343 0.15176034 -0.24163766 0.2085817
000080 aa 93 51 3e 89 5d e0 3e 8d 26 dd be 76 e6 d1 be
       0.20466486 0.43821362 -0.43193474 -0.4099614
000090 f3 95 71 3e 1d 85 e6 3e cd 77 00 be 46 59 6f be
       0.23592357 0.45023432 -0.125457 -0.23373899
0000a0 51 cd 87 3e 82 04 fd 3d 1f 7f 7d be 68 da 57 3e
       0.2652383 0.123543754 -0.24755524 0.21079409
0000b0 49 37 e4 3e 35 d4 de be f0 36 32 be a3 68 e0 be
       0.4457343 -0.43521276 -0.1740377 -0.4382983
0000c0 90 98 3b 3e f0 cb a8 3c 77 0e f6 be 74 7d ad 3e
       0.18319917 0.020605057 -0.4805791 0.33884776
0000d0 a9 63 7b b8 6e ec ba bb 2f b6 b7 be 77 54 58 be
       -5.993588e-05 -0.005704454 -0.35881183 -0.21125971
0000e0 6d fd 33 3d dd cd ad 3e 63 1a a8 3e 7b 94 8a be
       0.043942858 0.33946124 0.3283263 -0.27066407
0000f0 66 c8 16 3e a0 2b 40 3e 4b bb 81 bc de 9b ff bb
       0.14724883 0.18766642 -0.015836379 -0.0078005632
000100 49 fb 94 3e be 8b cf 3d 52 ff 81 3d 01 6b 8e bd
       0.29097965 0.101340756 0.063475266 -0.06954003
000110 61 31 42 be 2d 71 0d 3e f5 9c 08 bd 33 53 a6 bd
       -0.18964149 0.13812704 -0.03335281 -0.08121338
000120 1d 82 21 3e a4 ad 5d 3e b0 12 c4 3d dc fb a6 be
       0.1577229 0.2164827 0.09573877 -0.32614028
000130 03 4b ec 3d 55 b9 d7 3d 9a 9d 4f 3e 86 88 aa 3e
       0.11537745 0.10533396 0.20274964 0.33307284
000140 22 09 ea 3e cd d0 5d bb a0 0e e6 be e1 cd df 3e
       0.45710093 -0.0033846379 -0.44933033 0.4371176
000150 ab d9 70 3e 7e be 3b be 5c 76 f7 3e 75 59 84 3e
       0.23520534 -0.18334386 0.4833249 0.258495
000160 a8 17 6d be 1b b4 b2 bd 4e 43 ec 3d 1e ae cf be
       -0.23153555 -0.08725759 0.11536275 -0.40562528
000170 41 7c 8b 3e cc bd 1c 3e a9 43 1b be 19 2d 81 3d
       0.27243236 0.15306777 -0.15162529 0.0630743
000180 55 18 c3 3e 2c 56 84 be 30 7c 09 3e d8 59 79 3e
       0.381045 -0.25846994 0.1342628 0.24350679
000190 3d ae 1a 3e 2b 75 bd 3e c1 80 50 3e 99 28 03 be
       0.15105529 0.37003455 0.20361616 -0.12808456
0001a0 5a ad ef be e1 a8 4a 3d 78 a9 70 3e a2 77 3c 3e
       -0.46811944 0.04947746 0.23502147 0.18405011
0001b0 3a 55 95 3e ff 7f 3e 3d c3 7b da be 94 6e 87 3e
       0.29166585 0.046508785 -0.42672548 0.26451552
0001c0 42 ba 95 be 4f 1e f9 bd a6 e7 aa bd 42 d7 01 be
       -0.29243666 -0.12163984 -0.08344965 -0.1267977
0001d0 48 b4 66 bd 89 90 25 be 75 9d de be 8e 8b ea 3c
       -0.056324273 -0.16168417 -0.43479505 0.028630998

weight_hh_l0 f4 [12, 4]
000000 0e 7b e6 3e 87 b2 8b 3e cd ca df bc 3a 4f 1c be
       0.45015758 0.27284643 -0.027318383 -0.15264598
000010 f0 95 2f be 79 fa 02 be fd 09 87 3e 33 62 17 3e
       -0.1714704 -0.1279086 0.26374808 0.14783554
000020 36 c8 c4 be 66 10 0c be 52 c6 97 be e8 24 0b 3d
       -0.38434 -0.1367813 -0.29643494 0.033970743
000030 c6 17 f4 3d dc 68 fd bc 8b 50 30 bd 5b 7f c6 3e
       0.11918597 -0.03093379 -0.04304556 0.3876904
000040 5e 7a e8 3e 3d 56 a5 be 42 39 55 3e 7e 11 ce be
       0.4540586 -0.32292357 0.20822623 -0.4024772
000050 b7 ce 98 3e 1e ff a4 3e fe f2 d2 3e f7 c5 ae 3e
       0.2984521 0.3222589 0.41201013 0.3413541
000060 14 e1 2d be 0c 79 d5 3c c9 62 ac be 4e 3f 7e 3e
       -0.16980392 0.026058696 -0.33669117 0.24828836
000070 ad 36 53 be 40 e6 59 be d7 2e a5 be d8 07 d7 3e
       -0.20626326 -0.2127924 -0.32262298 0.41998172
000080 25 eb b1 be 88 c2 af 3e cb 80 ff be 30 bc 75 3e
       -0.34749714 0.34328103 -0.4990295 0.23997569
000090 9d bb 84 3e 3b 0f b7 be a9 e6 bb be c9 aa ac be
       0.25924388 -0.35753807 -0.36699417 -0.3372405
0000a0 b5 42 76 3e cb d6 d3 be d1 8a eb 3e fb 6c a5 be
       0.24048884 -0.41374812 0.46004346 -0.32309708
0000b0 9b d8 00 bf c0 90 f0 be c9 97 b6 3e 35 8d ef 3d
       -0.50330514 -0.46985435 0.35662678 0.11696855

bias_ih_l0 f4 [12]
000000 48 4c f6 be cc 42 87 3e c8 3e bc 3e 3f 62 a3 3e
       -0.48105073 0.2641815 0.36766648 0.31910893
000010 ca 30 2e 3e 42 92 06 be 68 9f 0a be 90 0a 92 3d
       0.17010799 -0.1314173 -0.13537371 0.07130921
000020 22 4b 68 be 8d b5 61 3e f4 d7 fa be 66 cf 8a 3e
       -0.22684911 0.22041912 -0.48992884 0.27111357

bias_hh_l0 f4 [12]
000000 2f ad 8a 3e 9f fd bd be b2 dd 8d be 88 4b a8 3e
       0.27085254 -0.3710756 -0.27708203 0.32870126
000010 da 23 4d 3e 7a fb 6b 3e c9 2a 88 be 80 4e cf 3e
       0.20033208 0.2304515 -0.26595142 0.40489578
000020 20 35 ce bd 48 8a df 3d c2 fd 16 bc ee a0 8d be
       -0.100687265 0.10915047 -0.009215774 -0.27661842

weight_ih_l0 f4 [12, 14]
000000 eb 5e 6f bd 39 5c a5 3e 6a 07 d2 3e fb fb 91 be
       -0.05844013 0.32296923 0.4102128 -0.28512558
000010 8e 0b 95 be ce 79 33 3d da 56 bc 3e 37 1e 7d 3c
       -0.29110378 0.043817334 0.36785012 0.015449098
000020 87 b6 c2 be 60 06 37 3e de 83 07 be 94 ac d7 3d
       -0.38029882 0.17873526 -0.13233897 0.105309635
000030 fe e5 42 3d 89 30 39 bd 2b fe de be 4d 52 36 3e
       0.04758262 -0.045212302 -0.4355329 0.17804833
000040 e8 80 a7 be 52 ea ce be 6c c1 3c 3e db e4 ee be
       -0.32715535 -0.40413147 0.1843316 -0.46658978
000050 e8 c4 99 3e eb 0f 86 3e fb 8f b7 3e 99 a6 41 be
       0.3003304 0.2618402 0.35852036 -0.18911208
000060 c5 d5 ea be c9 1f a3 bd a4 3b c5 3e 39 00 ca be
       -0.45866218 -0.07965047 0.38522065 -0.39453295
000070 32 32 a0 3d ae 62 5f 3d d9 7d da 3e 75 a4 9a be
       0.07822074 0.054537468 0.4267414 -0.30203596
000080 e9 0b 59 be 95 37 cc 3e 99 57 df be e3 9c 96 3e
       -0.2119595 0.39886156 -0.4362152 0.2941657
000090 33 1c 38 3e 0f b3 70 bd ac 20 70 3e c8 9b ed bd
       0.17979507 -0.058764514 0.23449963 -0.116019785
0000a0 fa db 88 3e 7f e4 1d 3d 9a f2 72 be bd 85 cf be
       0.2673033 0.03854799 -0.23725358 -0.40531722
0000b0 91 cc 54 bd d4 0d 50 3d 8e 8f cf 3e b1 fd 59 be
       -0.051952902 0.050794438 0.4053921 -0.21288182
0000c0 8d 8d 65 be 1d 10 46 3d 02 54 32 3e a8 c1 b9 3e
       -0.22417279 0.04835521 0.17414859 0.3628056
0000d0 03 66 63 3c 55 ff 38 be 27 aa 6a 3e e9 78 10 3e
       0.013879302 -0.18066151 0.2291647 0.14108624
0000e0 58 d1 e8 bd 4a 87 ac 3e 9f 0a 70 3e 1f a5 88 be
       -0.11368054 0.33696967 0.23441552 -0.26688477
0000f0 ba ae bc 3e 20 3b a5 3e 94 00 db bd f4 e7 c5 be
       0.36852056 0.3227167 -0.1069347 -0.3865353
000100 3c 3e a5 3e fb 93 98 3e 3d db 96 be e2 81 e8 be
       0.32274044 0.298004 -0.2946414 -0.45411593
000110 ca 6d d3 be 5a 16 c6 3e fe cc e8 3e 01 a3 f0 bc
       -0.412947 0.38688928 0.45468897 -0.029374601
000120 37 46 71 bd 73 cb 4c 3e 17 1b b6 be 71 e7 d8 be
       -0.058904853 0.19999485 -0.35567543 -0.42364076
000130 43 81 1a bd 5a 94 d9 be 14 5b 45 be ef b2 99 3e
       -0.03772093 -0.42495996 -0.19273025 0.30019328
000140 6c a2 f7 3e 04 8e 39 bd 93 7f 48 3e 15 1c d6 bd
       0.48366106 -0.045301452 0.19579916 -0.10454575
000150 e3 f0 58 3e 28 b9 2e 3e 30 25 ee 3e 1a 32 2b 3e
       0.21185641 0.17062819 0.46512747 0.16718331
000160 59 58 6b 3e 95 e4 9c 3e 7c c9 0b be 72 c7 c4 3e
       0.2298292 0.30643144 -0.13651079 0.38433415
000170 ac 03 d5 bc 54 ff b5 be 21 7e 37 3e d8 d2 05 be
       -0.026002727 -0.35546362 0.17919208 -0.13068712
000180 5b 7e f7 be 69 39 74 be 3e 44 aa 3e 48 e2 f5 be
       -0.4833859 -0.23850025 0.3325519 -0.480242
000190 0f 8a de be ce 69 a4 3e 5d e6 b1 3e 65 50 36 3e
       -0.43464705 0.32111973 0.34746066 0.17804106
0001a0 12 42 f4 bd 4e e5 90 be 9a f4 ce be 45 9b 8b be
       -0.119266644 -0.28299946 -0.4042099 -0.272669
0001b0 18 93 dc 3d 97 dc af 3e 4e 86 fe be 18 6d 1e bb
       0.107702434 0.34347984 -0.4971184 -0.0024173912
0001c0 b2 00 db be e1 be f3 3d b6 b3 1e be 61 66 c8 3e
       -0.42773968 0.11901642 -0.15498242 0.3914061
0001d0 5b 1b 16 bc 2f 68 f5 3e 7e 17 7a 3d 42 3f a0 3e
       -0.0091617955 0.47931048 0.06105756 0.31298262
0001e0 7e b9 61 3e 35 66 f0 be 21 80 6d be 1f 2e ad be
       0.22043416 -0.46952978 -0.23193409 -0.3382425
0001f0 21 b3 4d be be 35 c8 3e 81 26 ce be 21 41 ec 3e
       -0.20087864 0.39103502 -0.4026375 0.4614344
000200 59 1c 3c be cd 92 9b 3e f7 47 ad 3e 02 64 e0 be
       -0.18370189 0.30385438 0.33843967 -0.438263
000210 5c 4b 2c 3e d4 09 c5 3e ee 50 1d bd fd 15 fb 3e
       0.16825622 0.3848406 -0.03840726 0.49040213
000220 80 ef 9d bd 83 23 ce 3e c7 be e0 3e 42 81 5b 3e
       -0.077116966 0.40261468 0.43895552 0.21436027
000230 0d 80 fb bd 4a be c8 3d 26 cd eb 3e d3 7a c6 be
       -0.12280283 0.0980192 0.46054953 -0.38765582
000240 e2 ad 20 be 00 b3 ae 3e 4b 05 d0 be 3c cf dc 3e
       -0.15691331 0.3412094 -0.40629038 0.43126857
000250 46 83 39 3e dd 6a df 3e ea a5 13 bc 3a 1f 73 3e
       0.18116483 0.43636218 -0.009011725 0.2374238
000260 ba 24 a4 be 7d 3d a6 3c 7a 7e d3 be dc fd e0 3e
       -0.3205927 0.020292992 -0.4130743 0.4394368
000270 01 f1 fe 3e 5d 29 83 3e f8 09 89 3d 71 75 bc be
       0.49793246 0.25617495 0.066913545 -0.3680835
000280 c8 cb dd 3e 45 6a be 3d 28 13 f9 be e1 c9 e8 3d
       0.43319535 0.09297613 -0.48647428 0.1136663
000290 bf 20 cf bb e3 36 dd 3e 4b c3 9d 3e 06 1d c4 be
       -0.0063210423 0.43205938 0.3081306 -0.38303393

weight_hh_l0 f4 [12, 4]
000000 80 64 55 3e cf 5c e1 be b7 c2 1b 3d 5e 6d 6a be
       0.20839119 -0.4401612 0.03802749 -0.22893283
000010 33 a4 4d bc 7d f7 da 3d 2c 5c 9a be c8 75 92 be
       -0.012551355 0.10691736 -0.30148447 -0.28605485
000020 89 a7 af 3e 39 c6 99 be fd b6 bb b8 0b 6f d5 be
       0.34307507 -0.30034044 -8.950939e-05 -0.41686282
000030 c1 bd 97 be d9 03 e6 3e 29 d1 86 be 57 b5 15 be
       -0.29636958 0.4492481 -0.26331452 -0.14619957
000040 6c 8f 8e be 35 af a9 be ab 2e 71 be fc d5 b7 be
       -0.27843797 -0.33141485 -0.23552959 -0.35905445
000050 11 b6 bc 3e 8c 30 00 3f d5 d8 2a be b2 0f d1 3b
       0.36857656 0.50074077 -0.16684277 0.006380045
000060 50 89 cf be 02 18 1f bd 2e 8f 64 be 9c 6e 8f 3e
       -0.4053445 -0.038841255 -0.22320244 0.28014076
000070 69 17 db 3e 58 70 eb 3e 46 5b 33 b8 4c 8a 16 be
       0.42791298 0.4598415 -4.276193e-05 -0.14701194
000080 cc 2f a7 be be 32 57 3e aa e6 d7 3e 9c 22 88 be
       -0.32653654 0.2101545 0.4216817 -0.26588905
000090 c6 b3 a9 3e 76 87 02 3e 41 72 0f 3e 31 06 eb 3d
       0.3314497 0.12746987 0.14008428 0.1147579
0000a0 f7 25 67 3e 67 93 88 3e 41 99 cc 3d db 86 ec 3e
       0.22573076 0.2667496 0.09990168 0.46196637
0000b0 b4 a3 84 be 45 a7 c1 3e f1 ce d9 3e ff 6e 9f 3e
       -0.25906146 0.3782293 0.42540696 0.3113937

bias_ih_l0 f4 [12]
000000 d9 8b 13 3e fa 15 da be 84 9f 1d be 5b 23 fe be
       0.14408816 -0.42594892 -0.15392882 -0.4963635
000010 cc 48 d9 bd d2 0d 41 be 76 0f a3 be ce 76 a7 be
       -0.10609588 -0.18852928 -0.31847733 -0.32707828
000020 5f fe 04 3e 55 f8 2d be e1 a6 a4 3e ee f9 34 be
       0.1298766 -0.16989262 0.32158569 -0.17673466

bias_hh_l0 f4 [12]
000000 59 c5 83 be 5b 75 6d 3e e1 6b 8d 3e 21 f0 e3 3d
       -0.25736502 0.23189299 0.27621368 0.11129785
000010 ed 99 0b be 9a 63 21 3d e9 d4 9a 3e 27 a7 cb be
       -0.13632937 0.039401628 0.30240563 -0.39775965
000020 58 28 ff bc c9 e3 ee be 84 1b 6b be 49 d9 e0 3e
       -0.031147167 -0.4665816 -0.22959715 0.43915775

weight_ih_l0 f4 [12, 24]
000000 8a 65 a3 3e f3 be 5d 3d 7e df e5 3e 84 0e 0e be
       0.31913406 0.05413718 0.44897074 -0.13872725
000010 a5 99 e4 be d9 49 84 be 09 a8 28 3e 0f 9a 92 be
       -0.4464847 -0.2583759 0.1647035 -0.28633162
000020 41 8c 3e be 95 1e 3b be 9d 1e 65 3d 9c 16 e5 3e
       -0.1860819 -0.18273385 0.0559374 0.44743812
000030 52 df 58 be 40 a4 f1 be 65 8b 83 be c7 42 ad 3e
       -0.2117894 -0.47195625 -0.25692287 0.3384001
000040 8f 15 cc 3e 74 11 ad 3e b1 8b 9e 3d 46 dc 46 3d
       0.39860198 0.33802378 0.07741488 0.048549913
000050 ec f7 00 be be 2d 8b 3e da 04 d3 be c9 7f b2 be
       -0.12594575 0.27183336 -0.4121464 -0.34863117
000060 aa 3c 54 3e 12 76 13 be ac dd 51 3d 61 95 c0 be
       0.20726267 -0.14400509 0.051236793 -0.37613967
000070 72 2d 0b 3e e5 f7 30 be 24 1d 85 be 60 f0 91 3e
       0.13591555 -0.17282064 -0.25998795 0.28503704
000080 2b 1d 42 be bf b2 be bd d1 de f9 be 19 af bf 3d
       -0.18956439 -0.09311437 -0.48802808 0.09359569
000090 6d e5 55 be 36 bc ed be 59 48 73 3e d6 c1 5b be
       -0.208883 -0.46432656 0.23758067 -0.21460661
0000a0 8b 24 d3 bd a7 90 09 be 5d 32 f3 be 9e 2d f4 3e
       -0.103097044 -0.13434087 -0.47499362 0.47691053
0000b0 eb b1 46 3d 10 35 b9 be 0f 5d 34 bd 52 6b b9 3d
       0.04850952 -0.36173296 -0.04403406 0.09053673
0000c0 6a b2 ab be b1 91 3c be 98 54 ee 3d 42 47 07 be
       -0.33534557 -0.18414952 0.11637229 -0.13210776
0000d0 17 06 29 be f4 46 ad 3d 53 20 55 3e a6 70 5c 3c
       -0.1650623 0.08460799 0.20813112 0.013454592
0000e0 f9 bc f4 bd 2a 2a c5 3e 7c 9f f8 be 83 9e 6c bc
       -0.11950106 0.3850873 -0.48559177 -0.014442089
0000f0 86 ee bc 3e b3 67 ce be 61 06 9e 3e 6d f5 ad 3c
       0.3690073 -0.4031349 0.30864242 0.021235192
000100 26 d1 9a 3e c0 04 dc 3e 8c c5 91 be 37 52 e0 3d
       0.30237693 0.42972374 -0.2847103 0.10953181
000110 2d 94 71 3e 0b fd ae 3e 31 80 d3 3d cc 48 ac be
       0.23591681 0.3417743 0.10327185 -0.3364929
000120 c6 ea b6 3e 7b 91 6a be f2 17 ab 3e 3a 63 a2 3e
       0.35725993 -0.22907059 0.33416706 0.3171633
000130 ec 10 a0 bc a7 8a be bc c6 78 9c bd 36 29 f3 bd
       -0.019539319 -0.023259474 -0.07640223 -0.11873095
000140 60 3f 82 3d 91 6b 4e be 8e e6 bb bd 5b c4 fa be
       0.06359744 -0.20158221 -0.09174834 -0.48977932
000150 1e a4 e8 3e fb 8a a9 3e 80 5b f6 3e 13 64 11 be
       0.4543771 0.33113846 0.48116684 -0.14198332
000160 53 65 8e 3e 4d b2 bd 3e a1 2d 23 3e c1 01 d3 be
       0.2781168 0.37050095 0.15935375 -0.41212276
000170 a3 b6 ab be 55 75 a1 3e f9 70 87 bd a8 52 1f 3d
       -0.33537778 0.3153483 -0.06613345 0.038897187
000180 c8 cf 47 3e d2 dd 6c be 14 0b 9d 3e 57 a5 e4 be
       0.19512856 -0.23131493 0.30672514 -0.44657394
000190 9e 28 c4 be 7f 1f ee be 8a 78 71 3c 2b 82 24 3e
       -0.38312238 -0.46508405 0.014738211 0.1606528
0001a0 d5 41 75 be 28 42 c6 be 0e 58 ea bd 1c d2 3e be
       -0.23950894 -0.38722348 -0.11442576 -0.18634838
0001b0 a9 c7 b3 bc 45 01 7e 3e 89 a5 94 3e 81 e9 58 3d
       -0.021945791 0.24805172 0.29032543 0.05295706
0001c0 de 8e ac 3e 26 79 e9 be 78 57 cf 3e 3c ae e1 bb
       0.3370275 -0.4560024 0.4049642 -0.0068872254
0001d0 b9 13 ea 3d 93 80 61 3e 54 da a0 bc 07 c2 7d 3e
       0.11429543 0.22021703 -0.019635357 0.24781047
0001e0 2b cc 8a 3d a3 9b e3 3e 24 28 a9 bd 19 4d af 3d
       0.06777223 0.4445468 -0.08259609 0.08559627
0001f0 83 99 0a 3e 28 d4 d8 be 99 18 ec 3e a3 49 dd 3e
       0.13535123 -0.42349362 0.46112517 0.43220243
000200 94 50 82 bd bb ce 46 be d8 45 c9 3d 83 7f c3 3e
       -0.06363025 -0.19414799 0.09827775 0.3818322
000210 6a c5 88 be 81 ae 9a 3e 1a 49 62 bc f8 54 cf be
       -0.26713115 0.3021126 -0.013811374 -0.40494514
000220 e7 87 0d 3e 6d 7a 0c 3d 12 5e eb bd 51 f4 8f be
       0.13821374 0.03429644 -0.11492552 -0.28116086
000230 a2 4c 06 3c a7 78 a9 be 96 23 5f 3d 63 bb 18 bd
       0.008196982 -0.33099863 0.054477297 -0.03728808
000240 1c a2 c2 3d 65 74 9d 3e 2b 3d 12 be 42 d9 84 be
       0.09503576 0.30752864 -0.14281146 -0.25947005
000250 bb 67 d4 3a e0 46 e5 be c8 49 ae ba bc 76 ac 3d
       0.001620523 -0.44780636 -0.0013297135 0.08421084
000260 be 30 c9 3a 2e 48 eb be 06 a6 74 3e b0 a0 a4 be
       0.0015349609 -0.45953506 0.23891458 -0.32153845
000270 91 a0 38 3e fd 73 b4 3c 37 4f 86 be c2 4f 98 3e
       0.18030001 0.022027964 -0.2623231 0.2974835
000280 47 45 04 bd 76 25 60 be a6 ab 5e 3e 7c 92 4e 3e
       -0.03229263 -0.2188929 0.21745166 0.20173067
000290 a3 be 45 bd 32 70 04 3e 74 de e1 3e ee e6 2a be
       -0.04827751 0.12933424 0.4411503 -0.16689655
0002a0 56 8b 0f 3d 9c 92 72 3c 87 17 b8 3e e9 ab f8 3d
       0.03504499 0.014805462 0.3595545 0.12142164
0002b0 56 f9 9f 3d 39 3e fb be 67 fa b1 3e 80 9b b0 3e
       0.07811229 -0.4907091 0.34761354 0.34493637
0002c0 d1 da 9c 3e 52 6f 2c 3e 06 bb be be d1 4a c7 3d
       0.30635694 0.1683934 -0.37252063 0.09731067
0002d0 ca c5 8a 3d 4c 07 e4 be 98 c1 9a be c9 3a a1 3e
       0.067760065 -0.44536817 -0.30225825 0.31490162
0002e0 ed d8 c7 3e cb 88 15 3d 58 fa c9 3d 66 6e 6a 3e
       0.3903269 0.03650741 0.098622024 0.22893676
0002f0 81 1e f6 be 89 df 5e be 93 b5 8e bd 42 f5 7a be
       -0.48070148 -0.2176496 -0.06968226 -0.24507621
000300 05 1a c7 be 62 ec 89 3e 8d b9 f9 3e b3 3a 3d 3e
       -0.3888704 0.26938158 0.48774377 0.18479423
000310 de fa bf bd 7a 24 44 3e 2c 25 01 be e4 af 3c 3e
       -0.09374021 0.1915454 -0.12611836 0.18426472
000320 b8 05 c9 bd 83 3a 01 be d2 14 76 be c5 e0 42 3e
       -0.09815544 -0.12619977 -0.2403138 0.19031055
000330 50 1d d3 3d 41 e6 3b be 82 f2 cd be 2e 08 9c be
       0.10308325 -0.18349554 -0.4022408 -0.3047499
000340 9f 65 97 3e 20 00 d7 be e0 66 ee be 3e 3d cb 3e
       0.29569718 -0.41992283 -0.46562862 0.39695162
000350 80 e4 e0 3d dd c9 39 bd 07 8b b6 be 2e a0 28 be
       0.10981083 -0.045358527 -0.35652944 -0.16467354
000360 81 ee 8f be 3f 06 46 be fd 24 7a be 46 6a 94 bd
       -0.28111652 -0.1933832 -0.24428172 -0.072468325
000370 15 e1 1c 3e 2f 0e ab be a3 83 f1 be 3f 10 d7 be
       0.15320237 -0.3340926 -0.47170743 -0.42004582
000380 dc e1 a1 be b3 fb 97 3e 4c 4c a4 be bc f0 d0 3e
       -0.3161763 0.2968422 -0.3208946 0.40808666
000390 09 00 a6 3e 3e d3 fc be db 47 6b be 27 b3 a0 3e
       0.32421902 -0.49379915 -0.2297663 0.31386682
0003a0 08 cf 15 be 55 55 be 3e 10 ce f0 be 40 7e ae 3e
       -0.14629757 0.37174478 -0.47032213 0.34080696
0003b0 ce bc a8 3e 70 a7 3f be 3a 29 9b 3e fc 37 a1 be
       0.32956547 -0.18716216 0.3030489 -0.31488025
0003c0 72 da 13 3e da 0e cb 3e ef 37 6f 3e 0e 84 00 be
       0.14438799 0.39659768 0.2336118 -0.12550375
0003d0 c4 df 28 bd b2 17 ea 3e 90 75 64 3e f1 3e d6 3e
       -0.041229025 0.45721203 0.22310472 0.41844895
0003e0 af d0 cc be 5f 64 80 3c 0c b0 95 be c8 ec f2 3e
       -0.40002963 0.01567286 -0.29235876 0.47446275
0003f0 7d 80 c1 be 20 9d 2e be 83 10 c7 be 1d 42 34 be
       -0.3779334 -0.17052126 -0.38879785 -0.17603345

weight_hh_l0 f4 [12, 4]
000000 74 b3 12 3e 93 a2 f4 be 6c b1 3b 3e 47 c5 97 bd
       0.14326268 -0.47780284 0.183294 -0.074106745
000010 1f b8 71 3d 81 06 84 bd 84 8e 39 bd 00 cc bc be
       0.059013482 -0.06446553 -0.04530193 -0.3687439
000020 a8 a4 b7 ba 8c 35 f0 3e 68 b1 c8 3e ef b8 d9 be
       -0.0014010863 0.46915853 0.3919785 -0.42523906
000030 17 a2 ee be a3 98 f0 3d 5a 3c aa 3e fb 55 97 3d
       -0.4660804 0.11747863 0.3324917 0.07389446
000040 67 4f ad 3e 7e 48 37 3e e3 66 2f bd 22 66 f6 3e
       0.33849642 0.17898747 -0.04282273 0.48124796
000050 1b 4a 97 be f8 d9 ce be 7a 70 cb 3d 5a a3 2f be
       -0.29548725 -0.40400672 0.099335626 -0.17152157
000060 31 c6 8e 3e bd 6d da be 75 6d 48 3e 74 d4 de 3d
       0.27885583 -0.4266185 0.19573005 0.10880366
000070 ff a1 2e 3e 34 ca 80 be 3b 34 8d 3e 53 14 30 bc
       0.17053984 -0.2515427 0.2757891 -0.010747033
000080 90 9a da bc 94 f8 f8 bd 2a 04 f1 3e 0d 01 10 3e
       -0.02668503 -0.121567875 0.4707349 0.14062901
000090 29 8a ae be 60 9d c1 3e 20 26 4e 3e d7 ec e7 3e
       -0.34089783 0.3781538 0.20131731 0.45297882
0000a0 5c 39 66 3e 16 cf 9a be 0a 3b 4b 3e c0 b5 de 3e
       0.22482818 -0.3023612 0.1984674 0.4349804
0000b0 50 8c a1 bc bd 17 d6 3e a8 75 6a 3e bb f7 c1 3e
       -0.019720227 0.41814986 0.22896445 0.37884316

bias_ih_l0 f4 [12]
000000 94 4f 06 3e 8c b1 f6 bd d3 e9 d3 3e 28 82 e7 3e
       0.13116294 -0.12045583 0.4138933 0.4521649
000010 92 6f 92 3d 30 fa a9 bd f4 aa 6d be c4 a7 a1 3e
       0.071501866 -0.082996726 -0.23209745 0.31573308
000020 ec 66 a6 be de b4 bd 3e 9c 5d 79 be 5c e7 a0 3e
       -0.32500398 0.37052053 -0.24352115 0.31426513

bias_hh_l0 f4 [12]
000000 14 07 23 be f6 dc 74 bc a6 31 71 bb 41 e8 e5 be
       -0.15920669 -0.014945259 -0.0036803274 -0.44903758
000010 15 84 07 3e 94 e5 d4 3e 0d f7 c3 3e 1f 0e 96 be
       0.13233979 0.41581404 0.38274422 -0.2930765
000020 7e 26 bc 3e cb fd f4 be 55 bc 55 3e 6f 0c ec be
       0.36748117 -0.4784988 0.20872624 -0.46103236

weight f4 [4, 4]
000000 50 63 03 3e 1b 59 10 3e 52 56 f6 3c 71 be e6 3e
       0.12830853 0.14096491 0.030070458 0.4506717
000010 fa 18 98 3e 80 76 91 bd 7a fa 46 be 53 a5 4e 3e
       0.29706556 -0.0710268 -0.19431487 0.20180254
000020 17 b2 53 bd ea 73 1b be 64 c5 62 be f8 63 2f 3c
       -0.05168351 -0.15180936 -0.22145611 0.010704987
000030 76 62 f5 3e 40 54 ce 3e 35 e5 f0 be ec 11 01 3f
       0.47926682 0.40298653 -0.4704987 0.5041797

bias f4 [4]
000000 be 2d bc 3d 56 cd bd 3d 83 05 da 3e 7f e6 61 3e
       0.09188412 0.0926768 0.4258233 0.22060584

weight f4 [320, 8]
000000 04 44 6a bc 5f 39 e3 b9 d3 ed 9a 3e e7 d1 17 bd
       -0.014298443 -0.0004333956 0.3025957 -0.037065413
000010 e6 48 0f 3e fa 58 ec bd aa c1 01 b8 00 86 a6 bd
       0.13992652 -0.115404084 -3.093636e-05 -0.08131027
000020 41 81 30 3d 9c ac dc bd 9c 70 4c be 14 ff 6e 3e
       0.043092016 -0.1077511 -0.19964832 0.23339492
000030 59 92 ce bd d1 fe 01 3e 6e 60 b3 be e0 83 6b be
       -0.10086507 0.12694861 -0.35034508 -0.22999525
000040 94 f3 97 3d 44 51 50 3e 8a cf 63 3e 07 32 8d 3e
       0.07419506 0.203435 0.22247139 0.2757723
000050 91 e1 aa 3e 18 8c 04 3e a0 34 8a bd ee 99 ee 3c
       0.3337522 0.12944067 -0.06748319 0.029126134
000060 65 7d 8a be 67 eb 9e 3e e9 d5 22 be 55 30 9f be
       -0.27048793 0.31038973 -0.15901913 -0.31091562
000070 10 28 de bc cf 1d 0e be 63 4f 02 be 68 39 08 3e
       -0.027118713 -0.13878559 -0.12725596 0.13303149
000080 a7 82 90 3e 86 1e 3d 3e e7 98 a4 be 5f 5d e9 bd
       0.2822468 0.18468675 -0.32147905 -0.11394762
000090 27 be 1b bd 9f 0f ca 3d a2 75 45 be 83 07 89 be
       -0.03802314 0.09866261 -0.19283155 -0.26763543
0000a0 ac fd 30 3c 62 cb 4d 3e ed f8 01 3e d8 92 b7 3c
       0.010802668 0.20097116 0.12692614 0.022408888
0000b0 d7 a7 bb b8 fe b1 9c be ec 94 6e 38 5e bd aa 3d
       -8.9481175e-05 -0.30604547 5.6882316e-05 0.083369
0000c0 93 84 cc 3d 30 0d 8d be 5c f2 27 3e 57 92 88 3e
       0.09986224 -0.27549124 0.16401047 0.26674148
0000d0 70 aa 6f 3e 98 f0 a6 bd 72 c9 9a 3e a8 35 79 3e
       0.2340486 -0.08151358 0.30231816 0.24336874
0000e0 0d 29 ab bd cd 17 4a 3e 88 b5 5c be 49 c3 85 be
       -0.08357439 0.19735642 -0.21553624 -0.26125553
0000f0 44 af af 3d f5 36 94 be f9 85 85 be 5d d1 99 bd
       0.08578351 -0.2894818 -0.26078776 -0.07510636
000100 95 6c 8d 3d 66 4a 90 bd 87 07 bb b8 83 f4 71 3e
       0.06905476 -0.070454404 -8.918257e-05 0.2362843
000110 4a b5 51 3e f7 87 86 39 85 c7 84 3e c3 44 8c bd
       0.20479313 0.00025659773 0.2593347 -0.06849053
000120 e7 e9 9c 3e f9 2c 80 be 20 d2 a0 3e 8c ea 1c 3e
       0.30647203 -0.2503431 0.31410313 0.15323848
000130 8b e5 96 3e 12 c2 60 3a 40 e7 67 be 1c fa 3d 3e
       0.29472002 0.00085738406 -0.22646809 0.1855244
000140 c1 c3 35 3e ee 3e 89 3e c9 b6 c7 bd aa ec 87 3d
       0.17750455 0.26805824 -0.097516604 0.06636937
000150 3d 90 0b be 0f e0 5c 3e 7c be e3 bd 34 65 ac be
       -0.13629241 0.21569847 -0.111203164 -0.33670962
000160 fc 49 3f 3e 96 42 3e be 41 1e a8 be da 2e 57 3e
       0.18680567 -0.18580088 -0.32835582 0.21013966
000170 14 5a 97 3d 3f b9 aa 3e f0 8d e7 3d fd f4 c0 3d
       0.07390228 0.33344457 0.11306369 0.09421728
000180 36 23 54 3e 9a 47 06 3d 12 7f 82 3e b2 dd 0e 3e
       0.20716557 0.03278313 0.25487572 0.13951758
000190 5a 61 8d 3d c9 c5 2e 3e 3e 16 16 be c2 75 c3 bd
       0.06903334 0.17067637 -0.14656922 -0.09543945
0001a0 95 1f 8e 3c e4 1b 9d be 83 a8 55 be bc eb 78 be
       0.017349044 -0.3068534 -0.20865063 -0.24308676
0001b0 ac 23 44 be 06 0f 09 3e a1 9d e3 3d c8 d3 d0 bc
       -0.19154233 0.13384637 0.1111405 -0.02549161
0001c0 40 2a 97 bc 7a 21 03 3e 16 aa 41 be be 10 a5 bd
       -0.018452764 0.12805739 -0.18912539 -0.08059834
0001d0 97 bf 82 be 58 e7 a4 be dd 13 94 3e 2a d8 8f 3e
       -0.25536796 -0.3220775 0.28921404 0.28094608
0001e0 fc 4e 06 3d 8c 3e 54 3e 2c 90 9d be d5 ba 92 3e
       0.03279017 0.20726985 -0.30774057 0.28658167
0001f0 2c 39 30 be bc d5 b2 3a 18 95 ab 3d bd 68 52 bd
       -0.1720931 0.001364402 0.08378047 -0.051369417
000200 1e f1 1b 3e 80 75 da 3d 23 4c 9a be 2c 7d d4 3c
       0.15228698 0.106669426 -0.30136213 0.025938593
000210 85 bd 6c bc ea 45 73 3e b9 71 f0 b9 fd c2 74 3d
       -0.014449482 0.23757139 -0.00045861097 0.059756268
000220 af e3 7d bc fd b8 aa bd e6 06 54 be 42 44 a3 be
       -0.0154961785 -0.08336065 -0.20705757 -0.31888014
000230 a6 aa ab 3e d8 32 cd 3d ba d4 1d be 54 40 f9 3d
       0.33528632 0.10019463 -0.1541318 0.12170473
000240 e2 e1 e8 3d 3d aa 73 3e 91 a9 8c 3e 88 af 88 3e
       0.11371209 0.2379541 0.2747312 0.2669642
000250 20 5c 16 be f5 3c 97 3e 52 17 26 be ec a9 96 3d
       -0.1468358 0.29538694 -0.16219833 0.07356629
000260 7b c3 63 be fc fd 18 3e 2b 4b 78 be 6b 4a 9d be
       -0.22242539 0.14940637 -0.24247424 -0.3072084
000270 34 54 96 3e 6c a8 a1 3e 53 8f 25 3e 61 37 57 3c
       0.29361117 0.31573808 0.16167955 0.013135762
000280 c6 59 c4 bd 1a b3 50 3d de 96 03 bd 26 d5 2e be
       -0.095874354 0.050952055 -0.0321263 -0.17073497
000290 16 48 5c bd 6a dd b7 bc 47 19 2d 3d b8 89 d6 bd
       -0.053779684 -0.022444446 0.042260434 -0.104754865
0002a0 b6 48 f6 3b cc a3 8c 3e 75 3f 9c 3d 4c 5f 8b 3e
       0.007515992 0.27468717 0.07629291 0.27221143
0002b0 f3 92 63 3e 5f af 13 be 21 6e 50 3e 17 d6 28 3e
       0.22224025 -0.14422368 0.20354511 0.16487919
0002c0 0d 87 ed 3d b8 14 93 be 7e 1e 97 be 60 fa f0 bd
       0.115980245 -0.28726745 -0.2951545 -0.11766505
0002d0 7f f1 80 3e 19 13 a7 be ce 2d 23 be c6 8d ea bc
       0.25184247 -0.32631758 -0.15935442 -0.028632056
0002e0 1c 5f ed bd 7b af 51 be 1a ec dd 3d b0 38 4e be
       -0.11590406 -0.20477097 0.108360484 -0.20138812
0002f0 d5 f5 03 3e 08 65 99 3e 56 3f 99 3d 31 e8 90 bc
       0.12886746 0.29959893 0.074827835 -0.017688842
000300 49 0d de bd cd 75 00 3e b7 66 8a 3e de 7f 24 be
       -0.10842378 0.12544937 0.2703149 -0.16064402
000310 af a7 5e 3e 3d 57 6c 3c 34 af a4 be 08 31 a3 be
       0.21743654 0.014425096 -0.3216492 -0.31873345
000320 79 f9 2b 3e 3c e1 a3 be d0 db 62 3e d3 20 70 3e
       0.16794385 -0.32007778 0.22154164 0.23450021
000330 42 80 97 bd 1c 4c 7f 3e 42 7a 5a be 7c 74 ad 3e
       -0.0739751 0.24931377 -0.213357 0.33877933
000340 70 6d 92 be cd 05 e9 3c 7e ea 3e be 09 fa 87 3e
       -0.2859912 0.028445149 -0.18644139 0.2655795
000350 46 50 9f be d0 2b 87 be 26 5d 70 be 5c bb 1a be
       -0.3111593 -0.26400614 -0.23473033 -0.15110534
000360 1d 60 9e bd 34 7d a9 3c 19 59 2c be 8a 39 4c be
       -0.07733176 0.020689584 -0.16830863 -0.19943824
000370 2b 59 5e 3e 6e dc 22 3e 9c 0b 88 3e 0c 42 01 be
       0.21713702 0.159044 0.26571357 -0.12622851
000380 6b 5c 97 3d 8d 92 44 bd e3 4f 78 bd a2 e4 90 3d
       0.07390674 -0.047991324 -0.06062306 0.07074858
000390 86 c0 cc 3d 9d a5 89 be c0 e5 1f be 10 79 30 3e
       0.099976584 -0.26884165 -0.15614986 0.17233682
0003a0 0c c7 b3 bc 09 c6 af 3e 97 da 7e be 5c 35 4c 3e
       -0.021945499 0.34330776 -0.24888073 0.1994223
0003b0 36 de 25 3e f7 5a 5a be d9 0f 98 3e 57 48 ae 3e
       0.16198048 -0.21323763 0.2969959 0.34039566
0003c0 20 60 77 be 14 88 20 3e 1c 51 59 bd bc 8c a0 be
       -0.24157763 0.1567691 -0.053055868 -0.31357372
0003d0 6a 2e d2 bd 4c e2 8f 3e 35 3b 87 be f8 0d 8e bd
       -0.10262759 0.28102338 -0.2641236 -0.06936258
0003e0 46 f2 30 3e 24 92 2a 3d 41 69 88 3a 71 a6 29 3e
       0.1727992 0.041643277 0.0010407345 0.16567399
0003f0 00 b7 f4 bd 5c 4b aa 3e 92 25 5f 3e 37 af 05 be
       -0.11948967 0.3326062 0.21791676 -0.1305512
