KNet/Linear_SS_No_MM_/pipeline_KNet_Linear_Dynamics_T100_v_positive_25dB.pt (torch, 199497 bytes, 351 tensors)

G f4 [2, 1]
00000000: 0000 0000 0000 803f
0.0 1.0

Q f4 [2, 2]
00000000: 0000 803f 0000 0000 0000 0000 0000 803f
1.0 0.0 0.0 1.0

R f4 [2, 2]
00000000: 363e 4f3b 0000 0000 0000 0000 363e 4f3b
0.0031622774 0.0 0.0 0.0031622774

prior_Q f4 [2, 2]
00000000: 0000 803f 0000 0000 0000 0000 0000 803f
1.0 0.0 0.0 1.0

prior_Sigma f4 [2, 2]
00000000: 0000 803f 0000 0000 0000 0000 0000 803f
1.0 0.0 0.0 1.0

prior_S f4 [2, 2]
00000000: 0000 803f 0000 0000 0000 0000 0000 803f
1.0 0.0 0.0 1.0

m1x_0 f4 [2]
00000000: 0000 2041 0000 0000
10.0 0.0

x_prev f4 [2]
00000000: 0000 2041 0000 0000
10.0 0.0

m2x_0 f4 [2, 2]
00000000: 0000 0000 0000 0000 0000 0000 0000 0000
0.0 0.0 0.0 0.0

QT f4 [2, 2]
00000000: 0000 803f 0000 0000 0000 0000 0000 803f
1.0 0.0 0.0 1.0

Qx f4 [2, 2]
00000000: 0000 803f 0000 0000 0000 0000 0000 803f
1.0 0.0 0.0 1.0

L f4 [1, 2]
00000000: c044 143f 40ea c53f
0.57917404 1.5462112

L f4 [1, 2]
00000000: e44a 143f 28e4 c53f
0.57926774 1.5460253

L f4 [1, 2]
00000000: c044 143f 40ea c53f
0.57917404 1.5462112

L f4 [1, 2]
00000000: e44a 143f 28e4 c53f
0.57926774 1.5460253

L f4 [1, 2]
00000000: c044 143f 40ea c53f
0.57917404 1.5462112

L f4 [1, 2]
00000000: e44a 143f 28e4 c53f
0.57926774 1.5460253

L f4 [1, 2]
00000000: c044 143f 40ea c53f
0.57917404 1.5462112

L f4 [1, 2]
00000000: e44a 143f 28e4 c53f
0.57926774 1.5460253

L f4 [1, 2]
00000000: c044 143f 40ea c53f
0.57917404 1.5462112

L f4 [1, 2]
00000000: e44a 143f 28e4 c53f
0.57926774 1.5460253

L f4 [1, 2]
00000000: c044 143f 40ea c53f
0.57917404 1.5462112

L f4 [1, 2]
00000000: e44a 143f 28e4 c53f
0.57926774 1.5460253

L f4 [1, 2]
00000000: c044 143f 40ea c53f
0.57917404 1.5462112

L f4 [1, 2]
00000000: e44a 143f 28e4 c53f
0.57926774 1.5460253

L f4 [1, 2]
00000000: c044 143f 40ea c53f
0.57917404 1.5462112

L f4 [1, 2]
00000000: e44a 143f 28e4 c53f
0.57926774 1.5460253

L f4 [1, 2]
00000000: c044 143f 40ea c53f
0.57917404 1.5462112

L f4 [1, 2]
00000000: e44a 143f 28e4 c53f
0.57926774 1.5460253

L f4 [1, 2]
00000000: c044 143f 40ea c53f
0.57917404 1.5462112

L f4 [1, 2]
00000000: e44a 143f 28e4 c53f
0.57926774 1.5460253

L f4 [1, 2]
00000000: c044 143f 40ea c53f
0.57917404 1.5462112

L f4 [1, 2]
00000000: e44a 143f 28e4 c53f
0.57926774 1.5460253

L f4 [1, 2]
00000000: c044 143f 40ea c53f
0.57917404 1.5462112

L f4 [1, 2]
00000000: e44a 143f 28e4 c53f
0.57926774 1.5460253

L f4 [1, 2]
00000000: c044 143f 40ea c53f
0.57917404 1.5462112

L f4 [1, 2]
00000000: e44a 143f 28e4 c53f
0.57926774 1.5460253

L f4 [1, 2]
00000000: c044 143f 40ea c53f
0.57917404 1.5462112

L f4 [1, 2]
00000000: e44a 143f 28e4 c53f
0.57926774 1.5460253

L f4 [1, 2]
00000000: c044 143f 40ea c53f
0.57917404 1.5462112

L f4 [1, 2]
00000000: e44a 143f 28e4 c53f
0.57926774 1.5460253

L f4 [1, 2]
00000000: c044 143f 40ea c53f
0.57917404 1.5462112

L f4 [1, 2]
00000000: e44a 143f 28e4 c53f
0.57926774 1.5460253

L f4 [1, 2]
00000000: c044 143f 40ea c53f
0.57917404 1.5462112

L f4 [1, 2]
00000000: e44a 143f 28e4 c53f
0.57926774 1.5460253

L f4 [1, 2]
00000000: c044 143f 40ea c53f
0.57917404 1.5462112

L f4 [1, 2]
00000000: e44a 143f 28e4 c53f
0.57926774 1.5460253

L f4 [1, 2]
00000000: c044 143f 40ea c53f
0.57917404 1.5462112

L f4 [1, 2]
00000000: e44a 143f 28e4 c53f
0.57926774 1.5460253

L f4 [1, 2]
00000000: c044 143f 40ea c53f
0.57917404 1.5462112

L f4 [1, 2]
00000000: e44a 143f 28e4 c53f
0.57926774 1.5460253

L f4 [1, 2]
00000000: c044 143f 40ea c53f
0.57917404 1.5462112

L f4 [1, 2]
00000000: e44a 143f 28e4 c53f
0.57926774 1.5460253

L f4 [1, 2]
00000000: c044 143f 40ea c53f
0.57917404 1.5462112

L f4 [1, 2]
00000000: e44a 143f 28e4 c53f
0.57926774 1.5460253

L f4 [1, 2]
00000000: c044 143f 40ea c53f
0.57917404 1.5462112

L f4 [1, 2]
00000000: e44a 143f 28e4 c53f
0.57926774 1.5460253

L f4 [1, 2]
00000000: c044 143f 40ea c53f
0.57917404 1.5462112

L f4 [1, 2]
00000000: e44a 143f 28e4 c53f
0.57926774 1.5460253

L f4 [1, 2]
00000000: c044 143f 40ea c53f
0.57917404 1.5462112

L f4 [1, 2]
00000000: e44a 143f 28e4 c53f
0.57926774 1.5460253

L f4 [1, 2]
00000000: c044 143f 40ea c53f
0.57917404 1.5462112

L f4 [1, 2]
00000000: e44a 143f 28e4 c53f
0.57926774 1.5460253

L f4 [1, 2]
00000000: c044 143f 40ea c53f
0.57917404 1.5462112

L f4 [1, 2]
00000000: e44a 143f 28e4 c53f
0.57926774 1.5460253

L f4 [1, 2]
00000000: c044 143f 40ea c53f
0.57917404 1.5462112

L f4 [1, 2]
00000000: e44a 143f 28e4 c53f
0.57926774 1.5460253

L f4 [1, 2]
00000000: c044 143f 40ea c53f
0.57917404 1.5462112

L f4 [1, 2]
00000000: e44a 143f 28e4 c53f
0.57926774 1.5460253

L f4 [1, 2]
00000000: c044 143f 40ea c53f
0.57917404 1.5462112

L f4 [1, 2]
00000000: e44a 143f 28e4 c53f
0.57926774 1.5460253

L f4 [1, 2]
00000000: c044 143f 40ea c53f
0.57917404 1.5462112

L f4 [1, 2]
00000000: e44a 143f 28e4 c53f
0.57926774 1.5460253

L f4 [1, 2]
00000000: c044 143f 40ea c53f
0.57917404 1.5462112

L f4 [1, 2]
00000000: e44a 143f 28e4 c53f
0.57926774 1.5460253

L f4 [1, 2]
00000000: c044 143f 40ea c53f
0.57917404 1.5462112

L f4 [1, 2]
00000000: e44a 143f 28e4 c53f
0.57926774 1.5460253

L f4 [1, 2]
00000000: c044 143f 40ea c53f
0.57917404 1.5462112

L f4 [1, 2]
00000000: e44a 143f 28e4 c53f
0.57926774 1.5460253

L f4 [1, 2]
00000000: c044 143f 40ea c53f
0.57917404 1.5462112

L f4 [1, 2]
00000000: e44a 143f 28e4 c53f
0.57926774 1.5460253

L f4 [1, 2]
00000000: c044 143f 40ea c53f
0.57917404 1.5462112

L f4 [1, 2]
00000000: e44a 143f 28e4 c53f
0.57926774 1.5460253

L f4 [1, 2]
00000000: c044 143f 40ea c53f
0.57917404 1.5462112

L f4 [1, 2]
00000000: e44a 143f 28e4 c53f
0.57926774 1.5460253

L f4 [1, 2]
00000000: c044 143f 40ea c53f
0.57917404 1.5462112

L f4 [1, 2]
00000000: e44a 143f 28e4 c53f
0.57926774 1.5460253

L f4 [1, 2]
00000000: c044 143f 40ea c53f
0.57917404 1.5462112

L f4 [1, 2]
00000000: e44a 143f 28e4 c53f
0.57926774 1.5460253

L f4 [1, 2]
00000000: c044 143f 40ea c53f
0.57917404 1.5462112

L f4 [1, 2]
00000000: e44a 143f 28e4 c53f
0.57926774 1.5460253

L f4 [1, 2]
00000000: c044 143f 40ea c53f
0.57917404 1.5462112

L f4 [1, 2]
00000000: e44a 143f 28e4 c53f
0.57926774 1.5460253

L f4 [1, 2]
00000000: c044 143f 40ea c53f
0.57917404 1.5462112

L f4 [1, 2]
00000000: e44a 143f 28e4 c53f
0.57926774 1.5460253

L f4 [1, 2]
00000000: c044 143f 40ea c53f
0.57917404 1.5462112

L f4 [1, 2]
00000000: e44a 143f 28e4 c53f
0.57926774 1.5460253

L f4 [1, 2]
00000000: c044 143f 40ea c53f
0.57917404 1.5462112

L f4 [1, 2]
00000000: e44a 143f 28e4 c53f
0.57926774 1.5460253

L f4 [1, 2]
00000000: c044 143f 40ea c53f
0.57917404 1.5462112

L f4 [1, 2]
00000000: e44a 143f 28e4 c53f
0.57926774 1.5460253

L f4 [1, 2]
00000000: c044 143f 40ea c53f
0.57917404 1.5462112

L f4 [1, 2]
00000000: e44a 143f 28e4 c53f
0.57926774 1.5460253

L f4 [1, 2]
00000000: c044 143f 40ea c53f
0.57917404 1.5462112

L f4 [1, 2]
00000000: e44a 143f 28e4 c53f
0.57926774 1.5460253

L f4 [1, 2]
00000000: c044 143f 40ea c53f
0.57917404 1.5462112

L f4 [1, 2]
00000000: e44a 143f 28e4 c53f
0.57926774 1.5460253

L f4 [1, 2]
00000000: 803b 143f 00de c53f
0.5790329 1.5458374

L f4 [1, 2]
00000000: cca2 133f f085 c53f
0.57670283 1.54315

L f4 [1, 2]
00000000: e0ca 0f3f 4051 c33f
0.5616894 1.525917

L f4 [1, 2]
00000000: 00a0 e93e 8c94 b43f
0.45629883 1.4107833

S f4 [2, 2]
00000000: a4cb 2a40 ac05 dd3f ac05 dd3f b058 3840
2.6686792 1.7267356 1.7267356 2.880413

S f4 [2, 2]
00000000: 60c2 2a40 e0d7 dc3f e0d7 dc3f c035 3840
2.6681137 1.725338 1.725338 2.8782806

S f4 [2, 2]
00000000: a4cb 2a40 ac05 dd3f ac05 dd3f b058 3840
2.6686792 1.7267356 1.7267356 2.880413

S f4 [2, 2]
00000000: 60c2 2a40 e0d7 dc3f e0d7 dc3f c035 3840
2.6681137 1.725338 1.725338 2.8782806

S f4 [2, 2]
00000000: a4cb 2a40 ac05 dd3f ac05 dd3f b058 3840
2.6686792 1.7267356 1.7267356 2.880413

S f4 [2, 2]
00000000: 60c2 2a40 e0d7 dc3f e0d7 dc3f c035 3840
2.6681137 1.725338 1.725338 2.8782806

S f4 [2, 2]
00000000: a4cb 2a40 ac05 dd3f ac05 dd3f b058 3840
2.6686792 1.7267356 1.7267356 2.880413

S f4 [2, 2]
00000000: 60c2 2a40 e0d7 dc3f e0d7 dc3f c035 3840
2.6681137 1.725338 1.725338 2.8782806

S f4 [2, 2]
00000000: a4cb 2a40 ac05 dd3f ac05 dd3f b058 3840
2.6686792 1.7267356 1.7267356 2.880413

S f4 [2, 2]
00000000: 60c2 2a40 e0d7 dc3f e0d7 dc3f c035 3840
2.6681137 1.725338 1.725338 2.8782806

S f4 [2, 2]
00000000: a4cb 2a40 ac05 dd3f ac05 dd3f b058 3840
2.6686792 1.7267356 1.7267356 2.880413

S f4 [2, 2]
00000000: 60c2 2a40 e0d7 dc3f e0d7 dc3f c035 3840
2.6681137 1.725338 1.725338 2.8782806

S f4 [2, 2]
00000000: a4cb 2a40 ac05 dd3f ac05 dd3f b058 3840
2.6686792 1.7267356 1.7267356 2.880413

S f4 [2, 2]
00000000: 60c2 2a40 e0d7 dc3f e0d7 dc3f c035 3840
2.6681137 1.725338 1.725338 2.8782806

S f4 [2, 2]
00000000: a4cb 2a40 ac05 dd3f ac05 dd3f b058 3840
2.6686792 1.7267356 1.7267356 2.880413

S f4 [2, 2]
00000000: 60c2 2a40 e0d7 dc3f e0d7 dc3f c035 3840
2.6681137 1.725338 1.725338 2.8782806

S f4 [2, 2]
00000000: a4cb 2a40 ac05 dd3f ac05 dd3f b058 3840
2.6686792 1.7267356 1.7267356 2.880413

S f4 [2, 2]
00000000: 60c2 2a40 e0d7 dc3f e0d7 dc3f c035 3840
2.6681137 1.725338 1.725338 2.8782806

S f4 [2, 2]
00000000: a4cb 2a40 ac05 dd3f ac05 dd3f b058 3840
2.6686792 1.7267356 1.7267356 2.880413

S f4 [2, 2]
00000000: 60c2 2a40 e0d7 dc3f e0d7 dc3f c035 3840
2.6681137 1.725338 1.725338 2.8782806

S f4 [2, 2]
00000000: a4cb 2a40 ac05 dd3f ac05 dd3f b058 3840
2.6686792 1.7267356 1.7267356 2.880413

S f4 [2, 2]
00000000: 60c2 2a40 e0d7 dc3f e0d7 dc3f c035 3840
2.6681137 1.725338 1.725338 2.8782806

S f4 [2, 2]
00000000: a4cb 2a40 ac05 dd3f ac05 dd3f b058 3840
2.6686792 1.7267356 1.7267356 2.880413

S f4 [2, 2]
00000000: 60c2 2a40 e0d7 dc3f e0d7 dc3f c035 3840
2.6681137 1.725338 1.725338 2.8782806

S f4 [2, 2]
00000000: a4cb 2a40 ac05 dd3f ac05 dd3f b058 3840
2.6686792 1.7267356 1.7267356 2.880413

S f4 [2, 2]
00000000: 60c2 2a40 e0d7 dc3f e0d7 dc3f c035 3840
2.6681137 1.725338 1.725338 2.8782806

S f4 [2, 2]
00000000: a4cb 2a40 ac05 dd3f ac05 dd3f b058 3840
2.6686792 1.7267356 1.7267356 2.880413

S f4 [2, 2]
00000000: 60c2 2a40 e0d7 dc3f e0d7 dc3f c035 3840
2.6681137 1.725338 1.725338 2.8782806

S f4 [2, 2]
00000000: a4cb 2a40 ac05 dd3f ac05 dd3f b058 3840
2.6686792 1.7267356 1.7267356 2.880413

S f4 [2, 2]
00000000: 60c2 2a40 e0d7 dc3f e0d7 dc3f c035 3840
2.6681137 1.725338 1.725338 2.8782806

S f4 [2, 2]
00000000: a4cb 2a40 ac05 dd3f ac05 dd3f b058 3840
2.6686792 1.7267356 1.7267356 2.880413

S f4 [2, 2]
00000000: 60c2 2a40 e0d7 dc3f e0d7 dc3f c035 3840
2.6681137 1.725338 1.725338 2.8782806

S f4 [2, 2]
00000000: a4cb 2a40 ac05 dd3f ac05 dd3f b058 3840
2.6686792 1.7267356 1.7267356 2.880413

S f4 [2, 2]
00000000: 60c2 2a40 e0d7 dc3f e0d7 dc3f c035 3840
2.6681137 1.725338 1.725338 2.8782806

S f4 [2, 2]
00000000: a4cb 2a40 ac05 dd3f ac05 dd3f b058 3840
2.6686792 1.7267356 1.7267356 2.880413

S f4 [2, 2]
00000000: 60c2 2a40 e0d7 dc3f e0d7 dc3f c035 3840
2.6681137 1.725338 1.725338 2.8782806

S f4 [2, 2]
00000000: a4cb 2a40 ac05 dd3f ac05 dd3f b058 3840
2.6686792 1.7267356 1.7267356 2.880413

S f4 [2, 2]
00000000: 60c2 2a40 e0d7 dc3f e0d7 dc3f c035 3840
2.6681137 1.725338 1.725338 2.8782806

S f4 [2, 2]
00000000: a4cb 2a40 ac05 dd3f ac05 dd3f b058 3840
2.6686792 1.7267356 1.7267356 2.880413

S f4 [2, 2]
00000000: 60c2 2a40 e0d7 dc3f e0d7 dc3f c035 3840
2.6681137 1.725338 1.725338 2.8782806

S f4 [2, 2]
00000000: a4cb 2a40 ac05 dd3f ac05 dd3f b058 3840
2.6686792 1.7267356 1.7267356 2.880413

S f4 [2, 2]
00000000: 60c2 2a40 e0d7 dc3f e0d7 dc3f c035 3840
2.6681137 1.725338 1.725338 2.8782806

S f4 [2, 2]
00000000: a4cb 2a40 ac05 dd3f ac05 dd3f b058 3840
2.6686792 1.7267356 1.7267356 2.880413

S f4 [2, 2]
00000000: 60c2 2a40 e0d7 dc3f e0d7 dc3f c035 3840
2.6681137 1.725338 1.725338 2.8782806

S f4 [2, 2]
00000000: a4cb 2a40 ac05 dd3f ac05 dd3f b058 3840
2.6686792 1.7267356 1.7267356 2.880413

S f4 [2, 2]
00000000: 60c2 2a40 e0d7 dc3f e0d7 dc3f c035 3840
2.6681137 1.725338 1.725338 2.8782806

S f4 [2, 2]
00000000: a4cb 2a40 ac05 dd3f ac05 dd3f b058 3840
2.6686792 1.7267356 1.7267356 2.880413

S f4 [2, 2]
00000000: 60c2 2a40 e0d7 dc3f e0d7 dc3f c035 3840
2.6681137 1.725338 1.725338 2.8782806

S f4 [2, 2]
00000000: a4cb 2a40 ac05 dd3f ac05 dd3f b058 3840
2.6686792 1.7267356 1.7267356 2.880413

S f4 [2, 2]
00000000: 60c2 2a40 e0d7 dc3f e0d7 dc3f c035 3840
2.6681137 1.725338 1.725338 2.8782806

S f4 [2, 2]
00000000: a4cb 2a40 ac05 dd3f ac05 dd3f b058 3840
2.6686792 1.7267356 1.7267356 2.880413

S f4 [2, 2]
00000000: 60c2 2a40 e0d7 dc3f e0d7 dc3f c035 3840
2.6681137 1.725338 1.725338 2.8782806

S f4 [2, 2]
00000000: a4cb 2a40 ac05 dd3f ac05 dd3f b058 3840
2.6686792 1.7267356 1.7267356 2.880413

S f4 [2, 2]
00000000: 60c2 2a40 e0d7 dc3f e0d7 dc3f c035 3840
2.6681137 1.725338 1.725338 2.8782806

S f4 [2, 2]
00000000: a4cb 2a40 ac05 dd3f ac05 dd3f b058 3840
2.6686792 1.7267356 1.7267356 2.880413

S f4 [2, 2]
00000000: 60c2 2a40 e0d7 dc3f e0d7 dc3f c035 3840
2.6681137 1.725338 1.725338 2.8782806

S f4 [2, 2]
00000000: a4cb 2a40 ac05 dd3f ac05 dd3f b058 3840
2.6686792 1.7267356 1.7267356 2.880413

S f4 [2, 2]
00000000: 60c2 2a40 e0d7 dc3f e0d7 dc3f c035 3840
2.6681137 1.725338 1.725338 2.8782806

S f4 [2, 2]
00000000: a4cb 2a40 ac05 dd3f ac05 dd3f b058 3840
2.6686792 1.7267356 1.7267356 2.880413

S f4 [2, 2]
00000000: 60c2 2a40 e0d7 dc3f e0d7 dc3f c035 3840
2.6681137 1.725338 1.725338 2.8782806

S f4 [2, 2]
00000000: a4cb 2a40 ac05 dd3f ac05 dd3f b058 3840
2.6686792 1.7267356 1.7267356 2.880413

S f4 [2, 2]
00000000: 60c2 2a40 e0d7 dc3f e0d7 dc3f c035 3840
2.6681137 1.725338 1.725338 2.8782806

S f4 [2, 2]
00000000: a4cb 2a40 ac05 dd3f ac05 dd3f b058 3840
2.6686792 1.7267356 1.7267356 2.880413

S f4 [2, 2]
00000000: 60c2 2a40 e0d7 dc3f e0d7 dc3f c035 3840
2.6681137 1.725338 1.725338 2.8782806

S f4 [2, 2]
00000000: a4cb 2a40 ac05 dd3f ac05 dd3f b058 3840
2.6686792 1.7267356 1.7267356 2.880413

S f4 [2, 2]
00000000: 60c2 2a40 e0d7 dc3f e0d7 dc3f c035 3840
2.6681137 1.725338 1.725338 2.8782806

S f4 [2, 2]
00000000: a4cb 2a40 ac05 dd3f ac05 dd3f b058 3840
2.6686792 1.7267356 1.7267356 2.880413

S f4 [2, 2]
00000000: 60c2 2a40 e0d7 dc3f e0d7 dc3f c035 3840
2.6681137 1.725338 1.725338 2.8782806

S f4 [2, 2]
00000000: a4cb 2a40 ac05 dd3f ac05 dd3f b058 3840
2.6686792 1.7267356 1.7267356 2.880413

S f4 [2, 2]
00000000: 60c2 2a40 e0d7 dc3f e0d7 dc3f c035 3840
2.6681137 1.725338 1.725338 2.8782806

S f4 [2, 2]
00000000: a4cb 2a40 ac05 dd3f ac05 dd3f b058 3840
2.6686792 1.7267356 1.7267356 2.880413

S f4 [2, 2]
00000000: 60c2 2a40 e0d7 dc3f e0d7 dc3f c035 3840
2.6681137 1.725338 1.725338 2.8782806

S f4 [2, 2]
00000000: a4cb 2a40 ac05 dd3f ac05 dd3f b058 3840
2.6686792 1.7267356 1.7267356 2.880413

S f4 [2, 2]
00000000: 60c2 2a40 e0d7 dc3f e0d7 dc3f c035 3840
2.6681137 1.725338 1.725338 2.8782806

S f4 [2, 2]
00000000: a4cb 2a40 ac05 dd3f ac05 dd3f b058 3840
2.6686792 1.7267356 1.7267356 2.880413

S f4 [2, 2]
00000000: 60c2 2a40 e0d7 dc3f e0d7 dc3f c035 3840
2.6681137 1.725338 1.725338 2.8782806

S f4 [2, 2]
00000000: a4cb 2a40 ac05 dd3f ac05 dd3f b058 3840
2.6686792 1.7267356 1.7267356 2.880413

S f4 [2, 2]
00000000: 60c2 2a40 e0d7 dc3f e0d7 dc3f c035 3840
2.6681137 1.725338 1.725338 2.8782806

S f4 [2, 2]
00000000: a4cb 2a40 ac05 dd3f ac05 dd3f b058 3840
2.6686792 1.7267356 1.7267356 2.880413

S f4 [2, 2]
00000000: 60c2 2a40 e0d7 dc3f e0d7 dc3f c035 3840
2.6681137 1.725338 1.725338 2.8782806

S f4 [2, 2]
00000000: a4cb 2a40 ac05 dd3f ac05 dd3f b058 3840
2.6686792 1.7267356 1.7267356 2.880413

S f4 [2, 2]
00000000: 60c2 2a40 e0d7 dc3f e0d7 dc3f c035 3840
2.6681137 1.725338 1.725338 2.8782806

S f4 [2, 2]
00000000: a4cb 2a40 ac05 dd3f ac05 dd3f b058 3840
2.6686792 1.7267356 1.7267356 2.880413

S f4 [2, 2]
00000000: 60c2 2a40 e0d7 dc3f e0d7 dc3f c035 3840
2.6681137 1.725338 1.725338 2.8782806

S f4 [2, 2]
00000000: a4cb 2a40 ac05 dd3f ac05 dd3f b058 3840
2.6686792 1.7267356 1.7267356 2.880413

S f4 [2, 2]
00000000: 60c2 2a40 e0d7 dc3f e0d7 dc3f c035 3840
2.6681137 1.725338 1.725338 2.8782806

S f4 [2, 2]
00000000: a4cb 2a40 ac05 dd3f ac05 dd3f b058 3840
2.6686792 1.7267356 1.7267356 2.880413

S f4 [2, 2]
00000000: 60c2 2a40 e0d7 dc3f e0d7 dc3f c035 3840
2.6681137 1.725338 1.725338 2.8782806

S f4 [2, 2]
00000000: a4cb 2a40 ac05 dd3f ac05 dd3f b058 3840
2.6686792 1.7267356 1.7267356 2.880413

S f4 [2, 2]
00000000: 60c2 2a40 e0d7 dc3f e0d7 dc3f c035 3840
2.6681137 1.725338 1.725338 2.8782806

S f4 [2, 2]
00000000: a4cb 2a40 ac05 dd3f ac05 dd3f b058 3840
2.6686792 1.7267356 1.7267356 2.880413

S f4 [2, 2]
00000000: 60c2 2a40 e0d7 dc3f e0d7 dc3f c035 3840
2.6681137 1.725338 1.725338 2.8782806

S f4 [2, 2]
00000000: a4cb 2a40 ac05 dd3f ac05 dd3f b058 3840
2.6686792 1.7267356 1.7267356 2.880413

S f4 [2, 2]
00000000: 60c2 2a40 e0d7 dc3f e0d7 dc3f c035 3840
2.6681137 1.725338 1.725338 2.8782806

S f4 [2, 2]
00000000: a4cb 2a40 ac05 dd3f ac05 dd3f b058 3840
2.6686792 1.7267356 1.7267356 2.880413

S f4 [2, 2]
00000000: 2cbe 2a40 34dc dc3f 34dc dc3f a03b 3840
2.6678572 1.7254701 1.7254701 2.8786392

S f4 [2, 2]
00000000: be96 2a40 4099 dc3f 4099 dc3f 802e 3840
2.6654506 1.7234268 1.7234268 2.8778381

S f4 [2, 2]
00000000: 6ca6 2940 ac9a da3f ac9a da3f 5017 3740
2.6507826 1.7078452 1.7078452 2.860798

S f4 [2, 2]
00000000: 00cc 2240 ba65 cb3f ba65 cb3f a8a5 2e40
2.5437012 1.589042 1.589042 2.7288609

S f4 [2, 2]
00000000: 0000 0040 0000 803f 0000 803f 00d0 0540
2.0 1.0 1.0 2.0908203

L_infinite f4 [1, 2]
00000000: 8b44 143f 1bd7 c53f
0.5791709 1.545627

weight_ih_l0 f4 [12, 10]
00000000: 794b d3bd 3fb6 323b a5f9 d9be 5fc6 df3e
00000010: 7f25 d53e eb17 8a3e a265 b1bd 34a1 943e
00000020: 0c72 85be 6576 b83e 6895 cdbe 5841 d4be
00000030: b9be 2dbd a9bf e03e 8ffd 8fbe dba0 99be
00000040: 19b0 bd3e da1f 7cbd 39f5 11be 72b3 363a
00000050: c270 b13e ac08 88be 737c 603e cea7 6fbd
00000060: 9ce1 85be f258 293e e809 a1be 7ede 4dbd
00000070: acb5 f83e c4e3 163e 6e6e 71be 2dbe 5f3e
00000080: 2e0a 4d3e 9c12 e53e db3d dcbe e844 cfbe
00000090: 981c 743e 3e05 ec3e 4a33 efbd 90cd 6abe
000000a0: be6f 843e 4124 ee3d 88f2 78be a395 643e
000000b0: 6fe6 e53e 9d25 dcbe f3d8 3abe e4b9 e6be
000000c0: f4c6 353e d8c9 883c 992c f5be d840 aa3e
000000d0: 79c5 5d38 6efb 98bc d44a b4be 41db 51be
000000e0: 6c28 1b3d 352f ab3e 1bea a43e 8c4d 88be
000000f0: f7db 1d3e 1046 483e e0c5 45bc 6f39 7cbc
00000100: e91a 933e ee4e dd3d 907d 793d 0e9c 77bd
00000110: a774 3bbe 3af0 083e e494 3abd 4738 bfbd
00000120: eafd 1c3e 2d9c 663e b5d6 d63d ba41 a9be
00000130: f535 ec3d 9ff5 c03d 706f 483e 5240 a83e
00000140: f580 ed3e 07e7 793b f9c4 e3be 95a8 e43e
00000150: 0bff 7b3e 7d20 34be edf6 f93e 72b7 883e
00000160: 2703 64be 1fd0 a9bd bb20 d03d 516a d4be
00000170: 4835 893e eed6 0f3e d6ce 20be e700 513d
00000180: eb9a c13e 631e 86be 863a fc3d 80cd 743e
00000190: ee8f 143e 3c1d ba3e 5ef7 4b3e 3fb2 0abe
000001a0: e300 f7be 1253 2b3d f4a6 6c3e 37a4 333e
000001b0: b838 913e 683f 2d3d 429a ddbe 1afc 833e
000001c0: d372 93be b98a 05be 1017 bbbd 4aeb 0bbe
000001d0: 2b12 6ebd dd69 2cbe 1a79 e4be 4757 c93c
-0.1031713 0.0027269272 -0.42573276 0.43706033 0.4163017 0.26971373 -0.08661963 0.29029238
-0.26063573 0.36027828 -0.4015305 -0.41456103 -0.042418215 0.43896225 -0.28123137 -0.30005535
0.37048414 -0.061553814 -0.14253701 0.00069694885 0.3465634 -0.26569116 0.21922474 -0.05850964
-0.2614869 0.16537836 -0.3145287 -0.050261013 0.48576105 0.14735323 -0.23577282 0.2184989
0.20023414 0.4474076 -0.43015942 -0.4048226 0.23839033 0.4609775 -0.116797045 -0.22929978
0.25866503 0.11628009 -0.24311268 0.22322707 0.4490237 -0.42997447 -0.18246822 -0.45063698
0.17751676 0.01669781 -0.47885588 0.33252597 5.2874417e-05 -0.018674579 -0.3521334 -0.20493795
0.037880346 0.33434454 0.32209858 -0.26621664 0.15415941 0.19557977 -0.012071103 -0.015394553
0.28731468 0.1080607 0.06091076 -0.06045156 -0.18306218 0.13372889 -0.04555215 -0.09336906
0.15331236 0.22520514 0.10490171 -0.33057958 0.11533729 0.094218485 0.1957376 0.32861573
0.4638745 0.0038132088 -0.44486216 0.44659868 0.2460901 -0.17590518 0.48821202 0.26702458
-0.22266828 -0.08291649 0.10162493 -0.41487363 0.26798463 0.14046833 -0.15703902 0.05102625
0.37813506 -0.26195058 0.1231585 0.23906517 0.1450803 0.3635043 0.19918582 -0.13544558
-0.48242864 0.04182727 0.23110563 0.17543112 0.28363585 0.042296797 -0.43281752 0.25778276
-0.2879854 -0.130412 -0.09135258 -0.13663974 -0.058122795 -0.16837259 -0.44623643 0.02457775

weight_hh_l0 f4 [12, 4]
00000000: e2b8 e33e 773f 8d3e 4ed7 2bbd 71f0 1ebe
00000010: ddac 3cbe b1e6 0fbe 76ce 8f3e 2f0d 243e
00000020: 257b bebe 493c febd 4fc7 9ebe f6ea ac3c
00000030: cd58 013e e294 c1bc 8d5e 55bd 034f c33e
00000040: 93e2 eb3e 8948 9fbe 078a 593e dbea ccbe
00000050: 3682 8e3e 2402 9a3e aeda d33e 9b59 b03e
00000060: 6385 2abe 27a4 cb3c 487f b1be 1f92 783e
00000070: eafe 5abe 5605 5bbe e1aa 9fbe c92e d43e
00000080: f6d1 adbe 5d17 b43e 5f21 02bf 9fab 6d3e
00000090: 64f0 7e3e 03dc bcbe d18e b4be c69b a7be
000000a0: 39ad 6f3e 2e37 d7be 892b ef3e 7618 a2be
000000b0: b3bf 02bf 4a83 f4be 2c66 bb3e 7f9f fd3d
0.44476992 0.27587482 -0.041953377 -0.15521409 -0.18425317 -0.14052846 0.28087205 0.16020654
-0.37203327 -0.12413842 -0.31011435 0.021108132 0.12631531 -0.023630563 -0.052092124 0.3814622
0.460713 -0.31110027 0.2124406 -0.4002293 0.27833718 0.30079758 0.41377777 0.34443364
-0.16652445 0.024858547 -0.3466742 0.24274491 -0.21386304 -0.21388754 -0.31185058 0.41441944
-0.3394925 0.35174075 -0.5083217 0.2321 0.24896389 -0.36886606 -0.3526521 -0.32736033
0.23405923 -0.42034286 0.46712902 -0.31659287 -0.5107376 -0.47756416 0.36601388 0.12383937

bias_ih_l0 f4 [12]
00000000: 26ed f2be a365 813e 27ec c23e 4746 a73e
00000010: b22d 353e 354c 11be d6ad 06be 73a6 813d
00000020: 2bf9 5fbe 8ccd 543e 7031 febe e411 873e
-0.47446555 0.25272855 0.38070795 0.32670805 0.17693213 -0.14189227 -0.1315225 0.06330576
-0.21872394 0.20781535 -0.49647093 0.26380837

bias_hh_l0 f4 [12]
00000000: bdc6 8d3e b4d2 c4be 175c 87be 9b30 ac3e
00000010: 9ac2 533e c664 553e 96ad 85be c087 ca3e
00000020: c731 bdbd ed81 c83d 0381 81bc 3282 91be
0.27690688 -0.38442004 -0.26437446 0.33630833 0.20679703 0.20839223 -0.26108998 0.39556694
-0.0923801 0.097904064 -0.015808588 -0.28419644

weight_ih_l0 f4 [12, 14]
00000000: e3eb 7fbd 6846 a33e bfb9 d03e 6a77 8dbe
00000010: bc0e 91be 364a 1b3d 1d0e ba3e dfff 053c
00000020: 5bc5 c0be 0bb5 303e 6fde 03be 13c8 ca3d
00000030: 4d9c 293d f5f7 27bd 2d3e dabe cd5c 353e
00000040: f8b1 a2be 42aa cebe 5999 443e 46a0 e9be
00000050: 4e7d 973e 2f11 813e be4c ba3e 4fd3 42be
00000060: f12b e5be 7de2 a2bd 82da c33e 25b7 c7be
00000070: 4f30 943d b4b1 453d 884a df3e b991 97be
00000080: ba10 5fbe 0214 cc3e 120e ddbe 8353 953e
00000090: 8f0b 323e f895 8cbd 1732 6d3e 9860 f2bd
000000a0: 2fe5 853e bfdc 0c3d 54b7 79be 78ec d2be
000000b0: 140c 35bd 4fa4 6b3d 3b8c cc3e 4d71 5fbe
000000c0: 8302 61be 059a 4a3d 4876 2b3e 4c52 b53e
000000d0: 6f90 6e3c 8358 3fbe 7042 633e 6bf7 0b3e
000000e0: 21c6 fcbd 005a a73e 99a5 7c3e c39d 83be
000000f0: fbba bf3e c68e 9e3e c20d d2bd 5d2e c3be
00000100: 975d a03e 4bff 923e 99b3 94be a794 eebe
00000110: 66bb d8be 60cd c33e 62b7 e53e 3b29 13bd
00000120: 954f 53bd a0f2 523e 328f b9be e3f6 d3be
00000130: aa80 09bd 0a5e d4be 89d8 4bbe 731c 9b3e
00000140: bcea f33e 885f 62bd 509a 443e c72a cdbd
00000150: 26d1 533e 1f5b 293e 51fc f13e 95f6 303e
00000160: 0ba9 663e 6cb3 9b3e d948 07be b0e9 c53e
00000170: 9027 fdbc 0b47 babe f400 3a3e a063 07be
00000180: fd4f fabe 62ad 6fbe af65 a63e 7e9c f9be
00000190: 3dcc dabe 8239 a83e 0042 ae3e 5df4 343e
000001a0: 6148 ebbd fefe 8fbe 38b8 d2be d6a5 92be
000001b0: a64a dd3d c215 ab3e a5da 00bf 9b83 a2b8
000001c0: ce55 debe d6b2 e63d 1304 17be f8ac cb3e
000001d0: 2db7 1bbc 1491 ef3e 0a93 683d 3b61 a03e
000001e0: 65c5 5b3e 58ee f5be 015b 6cbe ea2c b1be
000001f0: 33d5 56be b5ec c53e e91b d0be 710d eb3e
00000200: 3d59 42be a981 9d3e 6046 a93e 0f58 ddbe
00000210: bac5 273e 155f c53e 488e 3dbd 43ae fb3e
00000220: 8c2f 93bd 1314 ce3e 483d e23e f7f6 563e
00000230: 7ce2 eebd acb2 d53d 3fcd e73e 80e3 c9be
00000240: 9b06 1bbe 3cd1 af3e 15bc cdbe b76e db3e
00000250: c6e9 3f3e 6b62 e43e 4cc9 36bc a42c 753e
00000260: 5cb1 a0be 5c4b 863c 88d4 d6be d6a7 dd3e
00000270: 9171 013f 9094 863e 9f8d 793d c8be bfbe
00000280: 4982 db3e c806 c13d f980 fcbe c030 d73d
00000290: 3eb5 b5bb 0f17 da3e e415 9a3e 17d4 c1be
-0.06248082 0.31889653 0.40766713 -0.27630168 -0.28331554 0.03791257 0.36338893 0.00817868
-0.3765057 0.17256562 -0.1287782 0.099014424 0.041408826 -0.041007955 -0.4262556 0.17711182
-0.31776404 -0.4036427 0.19199122 -0.4563009 0.29587787 0.25208423 0.36386675 -0.1902592
-0.44760087 -0.079533555 0.38252646 -0.39006916 0.07235777 0.048265174 0.4361155 -0.29603365
-0.21783724 0.39859015 -0.43174797 0.29165277 0.17387222 -0.06864542 0.23163639 -0.1183483
0.26151416 0.034390207 -0.2438634 -0.41196036 -0.04420097 0.057529744 0.39950737 -0.21820565
-0.21973614 0.04946329 0.1674434 0.3541435 0.014560803 -0.18686108 0.22193313 0.13668601
-0.123424776 0.32685852 0.24672545 -0.257063 0.37447342 0.30968302 -0.1025653 -0.3812131
0.31321403 0.28710398 -0.29043272 -0.46597788 -0.42330474 0.38242626 0.44866472 -0.035927992
-0.051589567 0.20600367 -0.36242062 -0.41399297 -0.03356997 -0.41477996 -0.1990682 0.30295143
0.47640026 -0.055266887 0.1919949 -0.10017925 0.20685253 0.16538666 0.47262815 0.17281564
0.22525422 0.30410326 -0.13211383 0.38654852 -0.030902654 -0.36382326 0.18164426 -0.13221598
-0.4888915 -0.23405984 0.32499453 -0.48752207 -0.42733946 0.32856375 0.3403473 0.17671342
-0.114884146 -0.2812423 -0.41156173 -0.28642148 0.10805254 0.33415037 -0.50333625 -7.7492754e-05
-0.4342484 0.11264579 -0.14747648 0.39780402 -0.009504122 0.46790373 0.056780852 0.3132418
0.21462019 -0.48033404 -0.2308159 -0.3460458 -0.20979767 0.38657156 -0.40646294 0.45908692
-0.18979354 0.30762985 0.33061504 -0.43231246 0.1638402 0.38549104 -0.046278268 0.4915639
-0.07186803 0.4024969 0.4418738 0.20992647 -0.11664292 0.104344696 0.45273778 -0.3943138
-0.15139239 0.3433932 -0.40182558 0.42857906 0.18741521 0.44606337 -0.011156391 0.2394281
-0.31385314 0.016393356 -0.41959023 0.4329211 0.50563914 0.2628522 0.060926076 -0.37450242
0.42872837 0.094251215 -0.49317148 0.10507345 -0.0055452874 0.42595717 0.30094826 -0.37857124

weight_hh_l0 f4 [12, 4]
00000000: 2da5 463e 538c dfbe 6dbf 0a3d 25dd 5abe
00000010: 1c06 0cbc 4c05 d63d 8a14 98be b328 90be
00000020: 80df a73e 5e9b 9ebe 0fa2 53b8 6b44 d4be
00000030: d17e 90be 1e93 e23e 6b8a 84be f014 04be
00000040: 019a 89be 3210 afbe d8a2 6cbe a1fd b1be
00000050: 8136 b63e 2fa5 fd3e 6153 26be c46e 133c
00000060: 0e20 c7be 27c2 36bd 3404 60be 5666 8d3e
00000070: df70 d33e c2d4 e73e c695 01b8 02ff 0bbe
00000080: 78ba a0be 2f0c 503e 489d d53e d5ad 82be
00000090: 5461 a33e 5ca0 fb3d f1f0 0a3e f43c d13d
000000a0: 0d2b 543e 41f1 8b3e 18ab c33d bf1d e33e
000000b0: 7f57 77be b70f be3e 8685 d73e 7daf 993e
0.19398947 -0.43661746 0.033873964 -0.21373422 -0.008546378 0.10450229 -0.2970317 -0.2815605
0.32787704 -0.3097791 -5.045725e-05 -0.4145845 -0.28221753 0.44252867 -0.25886855 -0.12898612
-0.26875308 -0.34192044 -0.23108995 -0.34763816 0.35588458 0.49540088 -0.16242744 0.008998577
-0.38891643 -0.04461875 -0.21876603 0.2761714 0.4129705 0.4527951 -3.0895484e-05 -0.13671497
-0.31392264 0.20317148 0.4172156 -0.25523248 0.31910193 0.122864455 0.13568474 0.10216704
0.20719548 0.273325 0.09554118 0.44358632 -0.24154471 0.37121364 0.42094058 0.300167

bias_ih_l0 f4 [12]
00000000: 4f13 0d3e 13f9 d7be 6fd9 24be 08d6 00bf
00000010: 6095 eebd 0c90 47be 0710 a6be 0f59 abbe
00000020: 4f36 fc3d 52c4 30be 861b a83e 73f1 3bbe
0.13776897 -0.42182216 -0.1609857 -0.50326586 -0.11649585 -0.19488543 -0.32434103 -0.33466384
0.12315046 -0.1726239 0.328335 -0.18353824

bias_hh_l0 f4 [12]
00000000: ee9f 84be b1d7 6d3e 8d2e 8a3e 2ee8 d53d
00000010: fa41 16be 1e83 073d 57e9 973e a28a cfbe
00000020: 666c 1dbd 2ead f1be 148a 64be 9b4a dd3e
-0.25903267 0.23226811 0.2698864 0.104446754 -0.14673606 0.033084027 0.29670212 -0.40535456
-0.038433455 -0.47202438 -0.22318298 0.43220982

weight_ih_l0 f4 [12, 24]
00000000: edfb a13e cd81 3e3d 71a8 e33e 3513 06be
00000010: c19f efbe 5412 89be 4efd 263e 6b46 91be
00000020: d366 43be fe38 41be 2c9d 593d 1877 de3e
00000030: 9a07 67be e5c6 f7be 8602 8ebe ddf6 a53e
00000040: 4be7 ca3e 3d4c a63e 1a11 7b3d 2513 483d
00000050: 69e2 0dbe 11c5 893e ac71 d0be 7cab b6be
00000060: 452a 4a3e 30d0 0fbe 21c2 313d ee18 bfbe
00000070: 1568 043e cbd6 39be 3d7d 88be b822 8e3e
00000080: c4e5 47be 4e5a c8bd 6196 febe addc a73d
00000090: 9949 5fbe f0ef f0be 20e5 6b3e f061 64be
000000a0: cf39 e2bd 4d97 12be b84d f8be db26 f13e
000000b0: 694d 243d 320e bdbe 9589 4bbd 4f4d ac3d
000000c0: 6e48 a9be f4c4 2bbe 650c 003e 6c46 eabd
000000d0: c407 25be 14aa ce3d 9fa4 633e fbed c13c
000000e0: 6c35 e9bd ba0c c23e a4db f6be 85e9 08bc
000000f0: 8351 c03e 2202 c8be d37a a23e 0a73 1a3d
00000100: 05f3 9f3e 33dc df3e d400 93be 9856 f33d
00000110: 53ee 803e 1939 b43e 087a e73d 4d13 a5be
00000120: 2f16 b83e f156 67be 189a b23e 2f63 a23e
00000130: 7fe0 a4bc 7611 98bc c562 8bbd c7fc f3bd
00000140: f1b3 9f3d bd68 40be f89a a4bd 9b67 f7be
00000150: acc7 eb3e a7cd a73e 48c6 f83e 4186 14be
00000160: 1d94 913e 9da8 c13e 0cff 153e f1f9 ccbe
00000170: 28e8 acbe 1ba1 a43e 4ad1 66bd ddf1 1d3d
00000180: dafb 383e 5999 60be dfcc 9e3e 3d0f e2be
00000190: ff0b cbbe 1d86 f1be 6c00 773c ca6e 203e
000001a0: 3c94 78be cc4e cbbe 42fe eabd 262d 4bbe
000001b0: a942 12bd f66a 833e 6f82 8d3e 707e 333d
000001c0: 10d7 b03e 8dc6 f0be 276d c33e d614 01bc
000001d0: 3a7e dd3d d081 5c3e 3db3 9bbc 11c2 803e
000001e0: 2a21 6d3d 4e33 df3e 00be a2bd 6d2e a73d
000001f0: e00b 033e 350d d2be a3ba f63e 20b5 e23e
00000200: 2015 69bd 572d 56be a10e ae3d 2ee9 bd3e
00000210: 359f 8cbe 02ef 9e3e 85fc 96bc 59df cfbe
00000220: 54b3 0d3e 8689 e03c ea57 01be 9110 8bbe
00000230: 87e1 033b 1083 acbe 84b0 843d 8f87 ecbc
00000240: 4f10 be3d 5dd1 9b3e f44a 14be 4f9d 81be
00000250: 46fe 323c 071d dfbe 38a0 ff3b ae64 bf3d
00000260: f4d2 06bc b030 eebe a851 6f3e 0cdf a3be
00000270: 627c 3d3e 2c60 1f3d d207 7fbe 7938 a03e
00000280: 8ff2 13bd 86ee 57be 4208 6c3e 7e56 453e
00000290: e6bc 0abd 9394 003e 7f8e de3e 93c2 19be
000002a0: f5e0 083d a596 ac3c a366 b33e 83c2 f43d
000002b0: e351 8b3d bf1a 00bf e21f ae3e 6296 ae3e
000002c0: 2cb6 953e 2963 223e 7bfd b7be 4a4c c23d
000002d0: e483 813d ab5d e2be 72c4 a0be 81d0 9a3e
000002e0: 6740 c73e e6ec fc3c ed24 b13d 0d9c 603e
000002f0: 587e fbbe 100a 60be cfed 9bbd 786b 79be
00000300: 1be7 ccbe 8fef 853e 5fbb f63e 7140 353e
00000310: 7c27 dabd a413 3c3e b4d9 03be 4efb 3c3e
00000320: 8b02 d1bd 62a4 05be 4759 7abe aade 353e
00000330: 9431 ba3d e144 47be 8b62 d4be d0b7 a2be
00000340: 4932 953e 9384 ddbe d30a f6be 7735 ce3e
00000350: b04f c93d 6229 50bd 6913 b7be 11f1 35be
00000360: 9200 8bbe 916e 3dbe a7c9 71be 440a 82bd
00000370: be94 233e 252e a6be ae5e ecbe c0c3 d2be
00000380: 4931 9fbe a60d 9a3e 3595 9fbe 1110 d63e
00000390: dd48 aa3e 368d f8be 412a 64be 8c39 a53e
000003a0: ebe4 0dbe 47a5 c23e 6bd4 eabe 0052 b23e
000003b0: 58f0 ae3e 40b5 37be a4cb 9e3e d645 9dbe
000003c0: d3d4 0a3e b03f c83e 493f 693e 069e e5bd
000003d0: 1be0 3abd 94f2 e63e 9197 5c3e 7f00 d23e
000003e0: 8140 d1be 8cce ed3b 6c7c 99be 2f39 f23e
000003f0: 8f4c c2be 01a2 3cbe c624 cabe 147d 40be
0.31637517 0.046510506 0.44464448 -0.13093264 -0.4680157 -0.26771796 0.16307566 -0.28374037
-0.19082193 -0.18869397 0.053128406 0.43450236 -0.22561494 -0.48393932 -0.277363 0.32414904
0.39629588 0.3248004 0.061295606 0.048846383 -0.138559 0.26908162 -0.40711725 -0.35677707
0.19742687 -0.14044261 0.043398026 -0.37323707 0.12930329 -0.18148343 -0.2665805 0.27760863
-0.19521242 -0.09782849 -0.49724105 0.081963874 -0.21805419 -0.47058058 0.23036623 -0.22302985
-0.11046182 -0.14315529 -0.48496795 0.47099957 0.040112887 -0.36924893 -0.049691755 0.08413183
-0.33063072 -0.1677435 0.12504728 -0.11439213 -0.16116244 0.100910336 0.22230767 0.023673048
-0.113871425 0.37900335 -0.48214447 -0.008356457 0.37562189 -0.39064127 0.31734332 0.037707366
0.31240097 0.43722686 -0.2871157 0.11881751 0.25181827 0.35199812 0.113025725 -0.32241288
0.35954425 -0.2259176 0.3488319 0.31716296 -0.02012658 -0.018563014 -0.06805948 -0.11913448
0.07797993 -0.18789954 -0.080373704 -0.48321232 0.46050775 0.32774088 0.48588777 -0.14504339
0.28433314 0.37823954 0.14648074 -0.4003444 -0.3377087 0.32154164 -0.056351937 0.038560737
0.18064824 -0.21933497 0.3101568 -0.4415225 -0.3965759 -0.47172633 0.015075784 0.15667263
-0.24275297 -0.39708555 -0.11474277 -0.19841442 -0.035708103 0.25667542 0.27638575 0.043821752
0.3453908 -0.47026482 0.38169214 -0.007878503 0.108150914 0.21533895 -0.019006366 0.2514806
0.057892956 0.4359383 -0.07946396 0.08163152 0.12797499 -0.410257 0.48189268 0.44278812
-0.056904912 -0.20915733 0.08498884 0.37091964 -0.27465215 0.31041723 -0.018430958 -0.40600088
0.1383794 0.027409326 -0.12631193 -0.27161077 0.0020123438 -0.33693743 0.0647898 -0.028873233
0.09280454 0.3043317 -0.14481717 -0.2531533 0.010924881 -0.43576834 0.007801082 0.09345375
-0.008229006 -0.4652152 0.23370993 -0.3200611 0.1850448 0.038910076 -0.24905327 0.31293085
-0.036119994 -0.21087083 0.23050025 0.19271275 -0.033871554 0.12556677 0.4346809 -0.1501563
0.03341766 0.021067927 0.35039243 0.11951163 0.06802728 -0.5004081 0.340087 0.34099108
0.2924055 0.15858139 -0.35935578 0.09487207 0.06323984 -0.44212088 -0.31399876 0.302372
0.38916323 0.03087468 0.08649621 0.21934529 -0.4911983 -0.21878839 -0.07613718 -0.24357402
-0.4002007 0.2615933 0.48189828 0.17700364 -0.10652062 0.18366867 -0.12876016 0.1845524
-0.10205563 -0.13050988 -0.24448119 0.17760721 0.090914875 -0.19459869 -0.41481432 -0.31780863
0.29139927 -0.4326521 -0.48055133 0.40275165 0.09829652 -0.050820716 -0.35756996 -0.17767741
-0.27148873 -0.18499209 -0.2361208 -0.06349614 0.1597471 -0.3245708 -0.46165985 -0.4116497
-0.3109229 0.30088538 -0.31168523 0.41809133 0.33258715 -0.48545235 -0.22281744 0.32270467
-0.13856857 0.38016722 -0.45865187 0.34828186 0.34167743 -0.17940235 0.3101474 -0.30717343
0.13557748 0.3911109 0.22778048 -0.11211781 -0.04562388 0.45106947 0.21542193 0.41016003
-0.40869525 0.0072572883 -0.2997774 0.47309253 -0.37949035 -0.18421175 -0.3948118 -0.18797714

weight_hh_l0 f4 [12, 4]
00000000: 2d50 183e 4193 f7be e58d 443e 1754 8fbd
00000010: a3d9 883d 3bf7 95bd dcb0 1cbd 4767 b9be
00000020: b496 b8bb 78c8 f73e 61a0 c73e 0385 d2be
00000030: 63c3 f1be 4fa7 f53d fb5f a33e db48 923d
00000040: c22e aa3e e68b 3a3e a818 0abd de59 f43e
00000050: 6cfd 9bbe fc94 c8be b64e cf3d 2880 1ebe
00000060: 3ef8 8f3e a3d4 d3be 4921 4c3e 8a0a df3d
00000070: 73ef 373e f88b 86be b9df 913e fa7b b7bb
00000080: 4748 a4bc 4764 05be 8229 f63e 68c3 133e
00000090: cf7f b2be 34b8 c53e b14e 473e ae94 e33e
000000a0: f072 6b3e eac4 9cbe 11d4 523e b717 e33e
000000b0: a7c4 8abc ddf2 d53e b7ed 753e 91db c43e
0.14874335 -0.48354533 0.19194753 -0.06998461 0.06682136 -0.07322546 -0.038254604 -0.36211607
-0.0056331996 0.48395133 0.38989547 -0.41117105 -0.4721938 0.11994802 0.31909165 0.07142802
0.33238798 0.1821743 -0.03371492 0.47724813 -0.30466783 -0.39176166 0.10122435 -0.15478575
0.2811908 -0.41373166 0.19934572 0.10890682 0.17962436 -0.26278663 0.28491 -0.005599496
-0.020053996 -0.13026534 0.48078543 0.1443001 -0.34863135 0.38617098 0.19463612 0.4444937
0.22993064 -0.30618984 0.2058871 0.4435403 -0.016939474 0.41786852 0.24016462 0.38448766

bias_ih_l0 f4 [12]
00000000: dc00 013e 825a 03be fb42 d83e 01eb ee3e
00000010: 1918 863d dac9 a8bd 566c 70be b34f 9d3e
00000020: 84b3 a9be 78cc c13e 0d8a 7fbe bac8 9b3e
0.12597984 -0.12827495 0.42238602 0.4666367 0.06547565 -0.08241625 -0.23478827 0.30724868
-0.33144772 0.3785131 -0.24955006 0.3042658

bias_hh_l0 f4 [12]
00000000: dd82 28be ce76 babc 43e8 873b 4478 debe
00000010: b649 013e f41c d53e 3f5c c23e 316b 9abe
00000020: 0886 b83e cf0c f1be 0ea8 4f3e 3254 f0be
-0.1645617 -0.022761729 0.004147561 -0.4345113 0.12625775 0.41623652 0.37961003 -0.30159906
0.36039758 -0.47080085 0.20278952 -0.46939236

weight f4 [4, 4]
00000000: b761 0a3e b142 093e c777 ba3c 4af8 ed3e
00000010: 886e 923e 8ed5 96bd 588b 45be 34c0 4d3e
00000020: 704b 37bd c7bf 22be 8fc1 68be 7e64 713c
00000030: 069c f53e 90b7 ca3e 53e5 e8be f5d0 f83e
0.13513838 0.13404347 0.022762192 0.46478492 0.28599954 -0.07364951 -0.19291437 0.20092851
-0.044749677 -0.1589347 -0.22730087 0.014733432 0.479706 0.39593172 -0.4548746 0.48596922

bias f4 [4]
00000000: bdc7 ae3d 4af0 c13d bb79 d73e 884e 5b3e
0.08534191 0.094696596 0.4208506 0.21416676

weight f4 [320, 8]
00000000: 2f94 2dbc 507c fbb8 2fa6 983e 2ed7 06bd
00000010: 9dc7 0a3e 4761 e3bd 7192 7fb7 dca7 9dbd
00000020: 53b4 0b3d 14e4 c5bd c29f 3ebe ede3 613e
00000030: f8a1 ecbd 9eed 133e ae69 b9be 282e 73be
00000040: 382e bc3d b3ff 3d3e d291 573e 3416 923e
00000050: ef69 b13e 6b3b e53d 25f1 6dbd 5e3f f23c
00000060: 8dbf 70be fd89 8d3e 9dda 11be ab82 8fbe
00000070: 3c95 4cbc 22be efbd 6ab9 d8bd 361e de3d
00000080: 080a 8f3e 1411 403e dda4 a1be a3cc fcbd
00000090: b993 41bd f104 e63d dc40 4fbe 8949 93be
000000a0: d9ab ee3b 3a42 493e 89f4 fa3d d83b 973c
000000b0: 1fca 51b8 456a 9abe 60c4 cb37 1ddd a13d
000000c0: ebbb af3d 6d3d 86be 8855 273e 39ff 7b3e
000000d0: 117a 753e 0459 79bd ca67 923e fe8c 7a3e
000000e0: 25c4 a1bd 8b28 453e 2488 58be 1848 83be
000000f0: ac72 a73d f2c2 91be 420a 83be 9642 90bd
00000100: 799d 843d 5179 87bd f1f2 56b8 a268 6d3e
00000110: cc2b 4d3e e86a 2db9 e380 823e 7a76 83bd
00000120: af71 a43e 88e3 85be fea8 993e a390 2a3e
00000130: 2f04 9f3e 1d07 69bc 2f05 5cbe 466d 403e
00000140: b716 2b3e 2046 8e3e 7c23 b4bd e701 693d
00000150: 6265 17be d43a 6b3e 1ff6 f3bd b425 b0be
00000160: 2f93 2d3e e780 36be f18a a0be 5141 483e
00000170: db20 633d 98c8 b33e b027 c83d ef1e c33d
00000180: 2ca8 543e 90ea 093d 1ce1 803e dfb0 0f3e
00000190: 6465 8f3d 1cd2 2e3e 1f0f 10be fa9e c8bd
000001a0: 2ac9 b43a 5f71 a2be 147e 4dbe 1962 81be
000001b0: 279f 4dbe feff 143e d10e cf3d 9d79 44bc
000001c0: 469d adbc e2cd ec3d cb8b 3bbe 4df8 9cbd
000001d0: a622 80be c72b a3be 0ff0 8e3e 68d2 873e
000001e0: 5fff ea3c d6b4 4f3e 6a48 9bbe 8573 903e
000001f0: 0eb3 2bbe 1f3c ba39 6eb4 a23d 810d 41bd
00000200: be6d 173e db82 d13d 8204 98be 6a9d b33c
00000210: 9bf2 2fbc f4b9 6e3e 91e6 9cb8 5743 633d
00000220: ac50 48bc d304 a2bd 6e48 52be 5f24 9fbe
00000230: 7022 b03e 4b98 d23d 9b07 1cbe f0c7 ff3d
00000240: 048a c33d ce84 7f3e 0b43 943e ffde 813e
00000250: e1ed 26be 4599 9b3e 05fe 35be 47ca 663d
00000260: 5c11 58be 853c 0c3e 765a 6abe f5bf 96be
00000270: 82fc 8c3e 0e45 9c3e 1a45 1d3e d75f 0b3c
00000280: 926e bbbd f659 3f3d 779e e5bc 334f 2abe
00000290: 4ee1 4abd db84 97bc 96f4 1b3d 4998 cdbd
000002a0: e887 cb3a 0e80 8a3e 4412 8d3d 52f7 863e
000002b0: 624d 5c3e 0f9a 06be c862 493e e71d 223e
000002c0: aafc e93d 5d72 8cbe 1f73 95be 6bc9 f6bd
000002d0: 3e36 803e d235 a4be cc03 27be 7525 fbbc
000002e0: b5f4 01be 0f15 53be 915c f33d 9c3b 59be
000002f0: 4b78 f43d ee05 9f3e ac73 873d 7e64 98ba
00000300: e135 dfbd dee9 023e 4bad 8b3e b123 26be
00000310: a94d 5d3e d9ab 813c c8cd a5be a2f9 a4be
00000320: 7608 323e b188 a6be bbf4 5c3e d4a5 713e
00000330: ee6c 88bd a745 763e 2978 55be d241 ae3e
00000340: 3d1d 93be 5d09 fe3c 922e 3ebe 965c 863e
00000350: 7417 a0be 10a9 87be c92e 71be d926 22be
00000360: 123a 98bd 6507 823c c4e6 27be 61dc 4dbe
00000370: a282 613e 4120 233e 9298 883e b0d1 00be
00000380: 40d7 a13d 3703 66bd 108e 83bd 68e7 8d3d
00000390: d4ca cb3d 446d 8fbe fadf 1dbe 4751 313e
000003a0: 7afd 99bc 017b a83e dce3 7fbe 1753 4c3e
000003b0: 92ff 223e a314 50be e661 9a3e 6a52 af3e
000003c0: 9066 75be 6d8b 1f3e 8fa3 6dbd 1296 9fbe
000003d0: 5a00 cebd cb13 8f3e 5bda 86be 17ad 91bd
000003e0: 782a 3a3e cf03 1d3d b5c3 d9bb 6fea 323e
000003f0: 152b e2bd d479 a43e f311 683e 7075 0bbe
-0.010594412 -0.00011991768 0.29814288 -0.032920055 0.13552709 -0.111025386 -1.52332805e-05 -0.07698032
0.034107517 -0.09662643 -0.1861563 0.22059603 -0.115543306 0.14446113 -0.3621344 -0.23748076
0.09188503 0.18554573 0.2105172 0.28532565 0.34651133 0.11192974 -0.0580913 0.029571231
-0.23510571 0.2764434 -0.1424355 -0.2802938 -0.012486752 -0.11706187 -0.1058224 0.10845606
0.2793734 0.18756515 -0.31571093 -0.12343719 -0.04726002 0.11231411 -0.20239586 -0.2876704
0.0072836694 0.1965417 0.12253673 0.018461153 -5.0017723e-05 -0.30159202 2.429093e-05 0.07903502
0.085807644 -0.2621874 0.16341221 0.24609078 0.23972346 -0.060875908 0.2859481 0.24467847
-0.0789874 0.19253747 -0.21145684 -0.2564094 0.08176169 -0.28469044 -0.25593764 -0.0704395
0.06475348 -0.06614936 -5.1247833e-05 0.23184446 0.20036238 -0.00016538391 0.25488958 -0.06419082
0.32117984 -0.26150155 0.30011743 0.16656737 0.3105788 -0.014222887 -0.21486352 0.18791685
0.16707884 0.27787876 -0.087958306 0.05688658 -0.14784768 0.2297166 -0.11912178 -0.34403765
0.16950677 -0.1782261 -0.31356004 0.19556166 0.055451255 0.35113978 0.09773195 0.095273845
0.20767277 0.03367096 0.25171745 0.14032315 0.070017606 0.17072338 -0.14068268 -0.097959474
0.0013792862 -0.3172712 -0.20067626 -0.25270155 -0.20080243 0.14550778 0.10110248 -0.0119918855
-0.021193158 0.115627065 -0.18315046 -0.07664547 -0.25026435 -0.31869337 0.27917525 0.26527715
0.028686224 0.20283827 -0.30328685 0.28213134 -0.16767523 0.00035521478 0.079445705 -0.04713202
0.14787957 0.10230037 -0.2969094 0.021925647 -0.010738994 0.23313123 -7.481606e-05 0.055484142
-0.012226265 -0.079110764 -0.20535442 -0.31082436 0.34401274 0.10282954 -0.15237276 0.12489307
0.09547809 0.24953005 0.289574 0.25365445 -0.16301681 0.30390373 -0.17772682 0.05634525
-0.21100372 0.13694961 -0.2288607 -0.29443327 0.27536398 0.30521435 0.15358391 0.008506737
-0.09151949 0.046716653 -0.028029663 -0.16631775 -0.049531274 -0.018495968 0.038075052 -0.10038812
0.0015528174 0.27050823 0.068882495 0.26360565 0.21513894 -0.13144706 0.19666588 0.1583172
0.11425145 -0.27431002 -0.29189393 -0.12050136 0.25041384 -0.32072312 -0.16310042 -0.03065751
-0.12691005 -0.20613502 0.1188289 -0.21214145 0.119370066 0.31059211 0.066138595 -0.0011626629
-0.108989485 0.12784526 0.2728065 -0.16224553 0.21611656 0.015829014 -0.3238356 -0.32221705
0.1738604 -0.32526162 0.21577732 0.23598415 -0.06661402 0.24050008 -0.20846619 0.34034592
-0.28733245 0.031010324 -0.18572453 0.26242512 -0.31267893 -0.26496172 -0.23553003 -0.15835132
-0.07432951 0.015872667 -0.16396624 -0.20103599 0.22022489 0.15930273 0.26678902 -0.1257999
0.07902384 -0.05615541 -0.06423581 0.06928903 0.09950796 -0.2801305 -0.15417472 0.17316161
-0.018797625 0.32906345 -0.24989265 0.19953571 0.15917805 -0.20320372 0.30152816 0.34242564
-0.23964906 0.1558053 -0.05801731 -0.31169182 -0.10058661 0.27944788 -0.26338467 -0.071130924
0.18180263 0.03833371 -0.0066456445 0.17472242 -0.110433735 0.32124197 0.22663097 -0.13619018

bias f4 [320]
00000000: 4e7a 6cbe 0d7d 9c3e 4a1f dd3d e4c0 4abe
00000010: eea8 fdbd ce72 9bbe 671e a73d 1186 97be
00000020: 0226 81be 4df5 c13d 2ec9 b03e bd80 883e
00000030: 063a a13c 0926 2dbe 311b 633d 4f4d 98be
00000040: 8fec 91be 90d8 14bd 0612 963d 1331 0cbe
00000050: 95d0 90be 541c 9cbe 9fa9 873e 981b 0abe
00000060: 1388 4cbe 3490 ba3d e14d 0d3e 9751 07be
00000070: b811 a73e 5ee8 8e3e 315b a33e 55e6 e33c
00000080: 6097 dc3c 09bc a83e 7f1a 6b3c de40 ecbd
00000090: 4ad6 863d 260f df3d fc86 143e cb74 8dbe
000000a0: 1ed7 673c d6c8 3e3e 6b38 463e 67ea 90be
000000b0: a036 043e 6a19 f63d 3d92 093e a6c0 33bd
000000c0: 00de ccbd cec4 0bbe 09eb 95bd a03f 78be
000000d0: daf0 81bc 1e0d ae3e 23a5 e3bd 3454 0abe
000000e0: 3af0 7e3e ebac e13d 8a2f b13e f4c2 993e
000000f0: 4c8a 79be 1fe1 673d 5237 f0bd d191 73be
00000100: 65b9 8cbe a868 11be b2f9 3c3e 548e ad3e
00000110: 2a82 153e fc80 1b3d 049e 0fbe 1755 2ebe
00000120: e7a0 843e 529e 83be 21fd 71bd 2dfc 29be
00000130: d212 463e 5e53 67be 1928 413e 33ca 80be
00000140: 6199 06bd 2484 af3e 0b94 813e e3db 503e
00000150: f1d7 563e 97ff d63d de78 60bd 9550 50be
00000160: c475 353d 31d0 18be 5e92 5a3e face 9cbd
00000170: 5ca5 28be 567d cf3d 4b88 033e 18e7 94be
00000180: 7a63 a1be 8482 ab3e 46f8 b73e 5e3a 86be
00000190: 2c67 38bc cc5e 20bd ceb9 e73d 1253 1f3e
000001a0: 956f ca3d 11f1 8bbe bc74 9c3c a95b 0fbe
000001b0: 3945 30be 420c 21be 0068 b33c fe91 29be
000001c0: 7b66 a13e 6f5f 583d 88ee 45be a641 94be
000001d0: 3853 9f3e 8c73 5a3c 5cb5 db3d e25d 863e
000001e0: 572e a13e a02e 01be cc31 5ebe 853f 593e
000001f0: 6990 5bbe f067 7bbe b03b 6cbe 658b cfbd
00000200: 38fd 87bd 6553 e23d 0791 e7bd 21f4 d93d
00000210: 31d7 8cbe 3fb7 a83e 9488 59be 61c5 4fbe
00000220: d1a0 af3d 911c d9bd 9596 71bd b42c cfbd
00000230: 5fdb 873e d007 91bc 90b6 4cbe 13a2 f4bb
00000240: d1f4 5ebd 978b 783d d9f7 223d 5a2a e6bb
00000250: 3c8e 5dbe 5d80 2f3e 0d30 683e ce63 b5bc
00000260: 80f0 37be 01c0 09be 6f8c 933e 6c50 23be
00000270: cab5 a13e 05c1 033d 9be8 663d 83d1 b03e
00000280: 4eaa 9ebd f79b f3bd 567b 94be ab90 8ebe
00000290: 737b 893e c1ee aa3d 523c 663e 08dd a13e
000002a0: e9f4 1dbe b977 09be 42c3 aa3d aa6c c33d
000002b0: 7b4c efbd 564d 273e 2de9 42be f56a 71be
000002c0: b1bb 62be f37f 67be 8b01 963e d22e 8fbe
000002d0: 57e5 cd3d d81f 9c3d f52e 043d a4b0 e23d
000002e0: 5738 23be 478f 91be c24b 843e bc6a be3d
000002f0: 7ec4 983d 4a18 91be 1e78 553e 0d19 9b3e
00000300: 920b 073d 7757 d7bd e3bd 983e 7466 143d
00000310: b721 d83d 4c6f 80be f992 9d3e 6d21 8fbe
00000320: be07 5ebe 5b1b a83e 6023 55be ae8d 713e
00000330: c74f 023e 8149 5e3b 9ebe 063e 8a39 93be
00000340: 3b37 09be 5e5c b53d d73d cc3d 502d 313d
00000350: 789f 463e ec99 a93a be1a 733e e81a 2e3e
00000360: e278 a23e 4388 09be f664 673e 86fc 77be
00000370: 963e 1d3e 8a86 44be 270c 263e 8764 3abe
00000380: ec78 a93e 54a8 70be dc4f 9f3e 074b da3d
00000390: ab42 b1bd 2cf7 0cbd 3d03 25be 5a67 9d3e
000003a0: f5ca e7bd 78da 68bd cf63 31be b8cc 91bd
000003b0: 843a 53be 5d2a 683e 7a1c 66be 24c6 8f3e
000003c0: d387 313e ee3f 6c3c 7f23 1b3e 9004 2ebe
000003d0: bbc0 703e 82aa 71be 0634 2d3e 0bf5 123d
000003e0: 7810 05bd 77da 273c d156 913e ce38 88bd
000003f0: 452a 86be 3ae2 82bd 2a2b 78be f2c1 363e
-0.2309353 0.30564156 0.107969835 -0.19800144 -0.123857364 -0.30361027 0.08160096 -0.29594472
-0.2522431 0.094706155 0.34528488 0.2666072 0.019680988 -0.1690904 0.055445854 -0.29746482
-0.28500792 -0.036339343 0.073276564 -0.13690595 -0.28284135 -0.30490363 0.26496598 -0.13487089
-0.19973783 0.09109536 0.1379924 -0.13214718 0.32630706 0.27911657 0.3190551 0.027819792
0.02692765 0.3295596 0.014349579 -0.1153581 0.06583841 0.10891561 0.14504617 -0.27628168
0.014150409 0.186313 0.19357459 -0.28303835 0.12911463 0.12016566 0.13434692 -0.043884896
-0.10003281 -0.13649294 -0.0732022 -0.24243021 -0.015861917 0.33994383 -0.11115482 -0.13508683
0.24896327 0.110193096 0.34606582 0.3003155 -0.24369162 0.056611177 -0.117293015 -0.23786093
-0.27485195 -0.1420008 0.18454626 0.3389765 0.14600435 0.037964806 -0.14025122 -0.17024647
0.2590401 -0.25706726 -0.059079293 -0.16600104 0.19343117 -0.22590396 0.18862952 -0.25154266
-0.032861117 0.34280503 0.2530826 0.2039638 0.20980813 0.10497969 -0.054802768 -0.2034324
0.044301763 -0.14923169 0.21344897 -0.07656665 -0.1646933 0.10131328 0.1284496 -0.2908256
-0.31521207 0.33498013 0.35931605 -0.26216406 -0.011255067 -0.039152905 0.11314736 0.15559033
0.09884564 -0.27332357 0.019098632 -0.1399981 -0.17213906 -0.15727332 0.021900177 -0.16559598
0.315235 0.052825388 -0.19329274 -0.28956336 0.31118178 0.013333213 0.10727951 0.26243502
0.31480667 -0.12615442 -0.21698684 0.21215637 -0.21441807 -0.24551368 -0.23069644 -0.10134009
-0.066400945 0.110510625 -0.11306959 0.10642267 -0.27507928 0.32952306 -0.21243507 -0.20290138
0.08575595 -0.10601152 -0.058981497 -0.10115948 0.26534554 -0.01770392 -0.19991517 -0.00746561
-0.054432694 0.06068 0.039787147 -0.0070240917 -0.2163629 0.1713881 0.2267458 -0.022142317
-0.17962837 -0.1345215 0.2881808 -0.15948647 0.31584007 0.0321665 0.056374174 0.34534845
-0.07747327 -0.11894982 -0.29000348 -0.27844748 0.26851997 0.0834632 0.22483948 0.31613946
-0.15425457 -0.13424577 0.08338024 0.095422104 -0.11684509 0.16338095 -0.19034262 -0.23575957
-0.22141911 -0.22607403 0.29298052 -0.2796541 0.10053509 0.07623261 0.032271344 0.11068848
-0.1593946 -0.28429624 0.2583905 0.09297702 0.07459353 -0.28338844 0.20846602 0.3029255
0.03297002 -0.105147295 0.29832372 0.03623052 0.105533056 -0.25084913 0.30776194 -0.2795519
-0.21682641 0.3283337 -0.20814276 0.23589203 0.12725745 0.0033918323 0.13158652 -0.28754836
-0.13399975 0.08855508 0.099727325 0.043256104 0.1939677 0.0012939549 0.2374067 0.17002451
0.3173285 -0.13430886 0.22597107 -0.24217424 0.15355906 -0.19191948 0.16215573 -0.1820241
0.3310007 -0.23501712 0.31115615 0.106588416 -0.08655294 -0.03441541 -0.16114517 0.30742913
-0.11318008 -0.056848973 -0.1732323 -0.07119125 -0.2062779 0.2267241 -0.224718 0.28080857
0.17336969 0.014419539 0.1515026 -0.16993928 0.23511021 -0.236002 0.16914377 0.035878222
-0.03248641 0.010244957 0.28386548 -0.0665146 -0.26204124 -0.063908055 -0.24235216 0.17847422
