KNet/Linear_SS_No_MM_/pipeline_KNet_Linear_Dynamics_T100_v_positive_35dB.pt (torch, 199497 bytes, 351 tensors)

G f4 [2, 1]
00000000: 0000 0000 0000 803f
0.0 1.0

Q f4 [2, 2]
00000000: 0000 803f 0000 0000 0000 0000 0000 803f
1.0 0.0 0.0 1.0

R f4 [2, 2]
00000000: 60cb a539 0000 0000 0000 0000 60cb a539
0.0003162278 0.0 0.0 0.0003162278

prior_Q f4 [2, 2]
00000000: 0000 803f 0000 0000 0000 0000 0000 803f
1.0 0.0 0.0 1.0

prior_Sigma f4 [2, 2]
00000000: 0000 803f 0000 0000 0000 0000 0000 803f
1.0 0.0 0.0 1.0

prior_S f4 [2, 2]
00000000: 0000 803f 0000 0000 0000 0000 0000 803f
1.0 0.0 0.0 1.0

m1x_0 f4 [2]
00000000: 0000 2041 0000 0000
10.0 0.0

x_prev f4 [2]
00000000: 0000 2041 0000 0000
10.0 0.0

m2x_0 f4 [2, 2]
00000000: 0000 0000 0000 0000 0000 0000 0000 0000
0.0 0.0 0.0 0.0

QT f4 [2, 2]
00000000: 0000 803f 0000 0000 0000 0000 0000 803f
1.0 0.0 0.0 1.0

Qx f4 [2, 2]
00000000: 0000 803f 0000 0000 0000 0000 0000 803f
1.0 0.0 0.0 1.0

L f4 [1, 2]
00000000: c044 143f 40ea c53f
0.57917404 1.5462112

L f4 [1, 2]
00000000: e44a 143f 28e4 c53f
0.57926774 1.5460253

L f4 [1, 2]
00000000: c044 143f 40ea c53f
0.57917404 1.5462112

L f4 [1, 2]
00000000: e44a 143f 28e4 c53f
0.57926774 1.5460253

L f4 [1, 2]
00000000: c044 143f 40ea c53f
0.57917404 1.5462112

L f4 [1, 2]
00000000: e44a 143f 28e4 c53f
0.57926774 1.5460253

L f4 [1, 2]
00000000: c044 143f 40ea c53f
0.57917404 1.5462112

L f4 [1, 2]
00000000: e44a 143f 28e4 c53f
0.57926774 1.5460253

L f4 [1, 2]
00000000: c044 143f 40ea c53f
0.57917404 1.5462112

L f4 [1, 2]
00000000: e44a 143f 28e4 c53f
0.57926774 1.5460253

L f4 [1, 2]
00000000: c044 143f 40ea c53f
0.57917404 1.5462112

L f4 [1, 2]
00000000: e44a 143f 28e4 c53f
0.57926774 1.5460253

L f4 [1, 2]
00000000: c044 143f 40ea c53f
0.57917404 1.5462112

L f4 [1, 2]
00000000: e44a 143f 28e4 c53f
0.57926774 1.5460253

L f4 [1, 2]
00000000: c044 143f 40ea c53f
0.57917404 1.5462112

L f4 [1, 2]
00000000: e44a 143f 28e4 c53f
0.57926774 1.5460253

L f4 [1, 2]
00000000: c044 143f 40ea c53f
0.57917404 1.5462112

L f4 [1, 2]
00000000: e44a 143f 28e4 c53f
0.57926774 1.5460253

L f4 [1, 2]
00000000: c044 143f 40ea c53f
0.57917404 1.5462112

L f4 [1, 2]
00000000: e44a 143f 28e4 c53f
0.57926774 1.5460253

L f4 [1, 2]
00000000: c044 143f 40ea c53f
0.57917404 1.5462112

L f4 [1, 2]
00000000: e44a 143f 28e4 c53f
0.57926774 1.5460253

L f4 [1, 2]
00000000: c044 143f 40ea c53f
0.57917404 1.5462112

L f4 [1, 2]
00000000: e44a 143f 28e4 c53f
0.57926774 1.5460253

L f4 [1, 2]
00000000: c044 143f 40ea c53f
0.57917404 1.5462112

L f4 [1, 2]
00000000: e44a 143f 28e4 c53f
0.57926774 1.5460253

L f4 [1, 2]
00000000: c044 143f 40ea c53f
0.57917404 1.5462112

L f4 [1, 2]
00000000: e44a 143f 28e4 c53f
0.57926774 1.5460253

L f4 [1, 2]
00000000: c044 143f 40ea c53f
0.57917404 1.5462112

L f4 [1, 2]
00000000: e44a 143f 28e4 c53f
0.57926774 1.5460253

L f4 [1, 2]
00000000: c044 143f 40ea c53f
0.57917404 1.5462112

L f4 [1, 2]
00000000: e44a 143f 28e4 c53f
0.57926774 1.5460253

L f4 [1, 2]
00000000: c044 143f 40ea c53f
0.57917404 1.5462112

L f4 [1, 2]
00000000: e44a 143f 28e4 c53f
0.57926774 1.5460253

L f4 [1, 2]
00000000: c044 143f 40ea c53f
0.57917404 1.5462112

L f4 [1, 2]
00000000: e44a 143f 28e4 c53f
0.57926774 1.5460253

L f4 [1, 2]
00000000: c044 143f 40ea c53f
0.57917404 1.5462112

L f4 [1, 2]
00000000: e44a 143f 28e4 c53f
0.57926774 1.5460253

L f4 [1, 2]
00000000: c044 143f 40ea c53f
0.57917404 1.5462112

L f4 [1, 2]
00000000: e44a 143f 28e4 c53f
0.57926774 1.5460253

L f4 [1, 2]
00000000: c044 143f 40ea c53f
0.57917404 1.5462112

L f4 [1, 2]
00000000: e44a 143f 28e4 c53f
0.57926774 1.5460253

L f4 [1, 2]
00000000: c044 143f 40ea c53f
0.57917404 1.5462112

L f4 [1, 2]
00000000: e44a 143f 28e4 c53f
0.57926774 1.5460253

L f4 [1, 2]
00000000: c044 143f 40ea c53f
0.57917404 1.5462112

L f4 [1, 2]
00000000: e44a 143f 28e4 c53f
0.57926774 1.5460253

L f4 [1, 2]
00000000: c044 143f 40ea c53f
0.57917404 1.5462112

L f4 [1, 2]
00000000: e44a 143f 28e4 c53f
0.57926774 1.5460253

L f4 [1, 2]
00000000: c044 143f 40ea c53f
0.57917404 1.5462112

L f4 [1, 2]
00000000: e44a 143f 28e4 c53f
0.57926774 1.5460253

L f4 [1, 2]
00000000: c044 143f 40ea c53f
0.57917404 1.5462112

L f4 [1, 2]
00000000: e44a 143f 28e4 c53f
0.57926774 1.5460253

L f4 [1, 2]
00000000: c044 143f 40ea c53f
0.57917404 1.5462112

L f4 [1, 2]
00000000: e44a 143f 28e4 c53f
0.57926774 1.5460253

L f4 [1, 2]
00000000: c044 143f 40ea c53f
0.57917404 1.5462112

L f4 [1, 2]
00000000: e44a 143f 28e4 c53f
0.57926774 1.5460253

L f4 [1, 2]
00000000: c044 143f 40ea c53f
0.57917404 1.5462112

L f4 [1, 2]
00000000: e44a 143f 28e4 c53f
0.57926774 1.5460253

L f4 [1, 2]
00000000: c044 143f 40ea c53f
0.57917404 1.5462112

L f4 [1, 2]
00000000: e44a 143f 28e4 c53f
0.57926774 1.5460253

L f4 [1, 2]
00000000: c044 143f 40ea c53f
0.57917404 1.5462112

L f4 [1, 2]
00000000: e44a 143f 28e4 c53f
0.57926774 1.5460253

L f4 [1, 2]
00000000: c044 143f 40ea c53f
0.57917404 1.5462112

L f4 [1, 2]
00000000: e44a 143f 28e4 c53f
0.57926774 1.5460253

L f4 [1, 2]
00000000: c044 143f 40ea c53f
0.57917404 1.5462112

L f4 [1, 2]
00000000: e44a 143f 28e4 c53f
0.57926774 1.5460253

L f4 [1, 2]
00000000: c044 143f 40ea c53f
0.57917404 1.5462112

L f4 [1, 2]
00000000: e44a 143f 28e4 c53f
0.57926774 1.5460253

L f4 [1, 2]
00000000: c044 143f 40ea c53f
0.57917404 1.5462112

L f4 [1, 2]
00000000: e44a 143f 28e4 c53f
0.57926774 1.5460253

L f4 [1, 2]
00000000: c044 143f 40ea c53f
0.57917404 1.5462112

L f4 [1, 2]
00000000: e44a 143f 28e4 c53f
0.57926774 1.5460253

L f4 [1, 2]
00000000: c044 143f 40ea c53f
0.57917404 1.5462112

L f4 [1, 2]
00000000: e44a 143f 28e4 c53f
0.57926774 1.5460253

L f4 [1, 2]
00000000: c044 143f 40ea c53f
0.57917404 1.5462112

L f4 [1, 2]
00000000: e44a 143f 28e4 c53f
0.57926774 1.5460253

L f4 [1, 2]
00000000: c044 143f 40ea c53f
0.57917404 1.5462112

L f4 [1, 2]
00000000: e44a 143f 28e4 c53f
0.57926774 1.5460253

L f4 [1, 2]
00000000: c044 143f 40ea c53f
0.57917404 1.5462112

L f4 [1, 2]
00000000: e44a 143f 28e4 c53f
0.57926774 1.5460253

L f4 [1, 2]
00000000: c044 143f 40ea c53f
0.57917404 1.5462112

L f4 [1, 2]
00000000: e44a 143f 28e4 c53f
0.57926774 1.5460253

L f4 [1, 2]
00000000: c044 143f 40ea c53f
0.57917404 1.5462112

L f4 [1, 2]
00000000: e44a 143f 28e4 c53f
0.57926774 1.5460253

L f4 [1, 2]
00000000: c044 143f 40ea c53f
0.57917404 1.5462112

L f4 [1, 2]
00000000: e44a 143f 28e4 c53f
0.57926774 1.5460253

L f4 [1, 2]
00000000: c044 143f 40ea c53f
0.57917404 1.5462112

L f4 [1, 2]
00000000: e44a 143f 28e4 c53f
0.57926774 1.5460253

L f4 [1, 2]
00000000: c044 143f 40ea c53f
0.57917404 1.5462112

L f4 [1, 2]
00000000: e44a 143f 28e4 c53f
0.57926774 1.5460253

L f4 [1, 2]
00000000: c044 143f 40ea c53f
0.57917404 1.5462112

L f4 [1, 2]
00000000: e44a 143f 28e4 c53f
0.57926774 1.5460253

L f4 [1, 2]
00000000: c044 143f 40ea c53f
0.57917404 1.5462112

L f4 [1, 2]
00000000: e44a 143f 28e4 c53f
0.57926774 1.5460253

L f4 [1, 2]
00000000: c044 143f 40ea c53f
0.57917404 1.5462112

L f4 [1, 2]
00000000: e44a 143f 28e4 c53f
0.57926774 1.5460253

L f4 [1, 2]
00000000: 803b 143f 00de c53f
0.5790329 1.5458374

L f4 [1, 2]
00000000: cca2 133f f085 c53f
0.57670283 1.54315

L f4 [1, 2]
00000000: e0ca 0f3f 4051 c33f
0.5616894 1.525917

L f4 [1, 2]
00000000: 00a0 e93e 8c94 b43f
0.45629883 1.4107833

S f4 [2, 2]
00000000: a4cb 2a40 ac05 dd3f ac05 dd3f b058 3840
2.6686792 1.7267356 1.7267356 2.880413

S f4 [2, 2]
00000000: 60c2 2a40 e0d7 dc3f e0d7 dc3f c035 3840
2.6681137 1.725338 1.725338 2.8782806

S f4 [2, 2]
00000000: a4cb 2a40 ac05 dd3f ac05 dd3f b058 3840
2.6686792 1.7267356 1.7267356 2.880413

S f4 [2, 2]
00000000: 60c2 2a40 e0d7 dc3f e0d7 dc3f c035 3840
2.6681137 1.725338 1.725338 2.8782806

S f4 [2, 2]
00000000: a4cb 2a40 ac05 dd3f ac05 dd3f b058 3840
2.6686792 1.7267356 1.7267356 2.880413

S f4 [2, 2]
00000000: 60c2 2a40 e0d7 dc3f e0d7 dc3f c035 3840
2.6681137 1.725338 1.725338 2.8782806

S f4 [2, 2]
00000000: a4cb 2a40 ac05 dd3f ac05 dd3f b058 3840
2.6686792 1.7267356 1.7267356 2.880413

S f4 [2, 2]
00000000: 60c2 2a40 e0d7 dc3f e0d7 dc3f c035 3840
2.6681137 1.725338 1.725338 2.8782806

S f4 [2, 2]
00000000: a4cb 2a40 ac05 dd3f ac05 dd3f b058 3840
2.6686792 1.7267356 1.7267356 2.880413

S f4 [2, 2]
00000000: 60c2 2a40 e0d7 dc3f e0d7 dc3f c035 3840
2.6681137 1.725338 1.725338 2.8782806

S f4 [2, 2]
00000000: a4cb 2a40 ac05 dd3f ac05 dd3f b058 3840
2.6686792 1.7267356 1.7267356 2.880413

S f4 [2, 2]
00000000: 60c2 2a40 e0d7 dc3f e0d7 dc3f c035 3840
2.6681137 1.725338 1.725338 2.8782806

S f4 [2, 2]
00000000: a4cb 2a40 ac05 dd3f ac05 dd3f b058 3840
2.6686792 1.7267356 1.7267356 2.880413

S f4 [2, 2]
00000000: 60c2 2a40 e0d7 dc3f e0d7 dc3f c035 3840
2.6681137 1.725338 1.725338 2.8782806

S f4 [2, 2]
00000000: a4cb 2a40 ac05 dd3f ac05 dd3f b058 3840
2.6686792 1.7267356 1.7267356 2.880413

S f4 [2, 2]
00000000: 60c2 2a40 e0d7 dc3f e0d7 dc3f c035 3840
2.6681137 1.725338 1.725338 2.8782806

S f4 [2, 2]
00000000: a4cb 2a40 ac05 dd3f ac05 dd3f b058 3840
2.6686792 1.7267356 1.7267356 2.880413

S f4 [2, 2]
00000000: 60c2 2a40 e0d7 dc3f e0d7 dc3f c035 3840
2.6681137 1.725338 1.725338 2.8782806

S f4 [2, 2]
00000000: a4cb 2a40 ac05 dd3f ac05 dd3f b058 3840
2.6686792 1.7267356 1.7267356 2.880413

S f4 [2, 2]
00000000: 60c2 2a40 e0d7 dc3f e0d7 dc3f c035 3840
2.6681137 1.725338 1.725338 2.8782806

S f4 [2, 2]
00000000: a4cb 2a40 ac05 dd3f ac05 dd3f b058 3840
2.6686792 1.7267356 1.7267356 2.880413

S f4 [2, 2]
00000000: 60c2 2a40 e0d7 dc3f e0d7 dc3f c035 3840
2.6681137 1.725338 1.725338 2.8782806

S f4 [2, 2]
00000000: a4cb 2a40 ac05 dd3f ac05 dd3f b058 3840
2.6686792 1.7267356 1.7267356 2.880413

S f4 [2, 2]
00000000: 60c2 2a40 e0d7 dc3f e0d7 dc3f c035 3840
2.6681137 1.725338 1.725338 2.8782806

S f4 [2, 2]
00000000: a4cb 2a40 ac05 dd3f ac05 dd3f b058 3840
2.6686792 1.7267356 1.7267356 2.880413

S f4 [2, 2]
00000000: 60c2 2a40 e0d7 dc3f e0d7 dc3f c035 3840
2.6681137 1.725338 1.725338 2.8782806

S f4 [2, 2]
00000000: a4cb 2a40 ac05 dd3f ac05 dd3f b058 3840
2.6686792 1.7267356 1.7267356 2.880413

S f4 [2, 2]
00000000: 60c2 2a40 e0d7 dc3f e0d7 dc3f c035 3840
2.6681137 1.725338 1.725338 2.8782806

S f4 [2, 2]
00000000: a4cb 2a40 ac05 dd3f ac05 dd3f b058 3840
2.6686792 1.7267356 1.7267356 2.880413

S f4 [2, 2]
00000000: 60c2 2a40 e0d7 dc3f e0d7 dc3f c035 3840
2.6681137 1.725338 1.725338 2.8782806

S f4 [2, 2]
00000000: a4cb 2a40 ac05 dd3f ac05 dd3f b058 3840
2.6686792 1.7267356 1.7267356 2.880413

S f4 [2, 2]
00000000: 60c2 2a40 e0d7 dc3f e0d7 dc3f c035 3840
2.6681137 1.725338 1.725338 2.8782806

S f4 [2, 2]
00000000: a4cb 2a40 ac05 dd3f ac05 dd3f b058 3840
2.6686792 1.7267356 1.7267356 2.880413

S f4 [2, 2]
00000000: 60c2 2a40 e0d7 dc3f e0d7 dc3f c035 3840
2.6681137 1.725338 1.725338 2.8782806

S f4 [2, 2]
00000000: a4cb 2a40 ac05 dd3f ac05 dd3f b058 3840
2.6686792 1.7267356 1.7267356 2.880413

S f4 [2, 2]
00000000: 60c2 2a40 e0d7 dc3f e0d7 dc3f c035 3840
2.6681137 1.725338 1.725338 2.8782806

S f4 [2, 2]
00000000: a4cb 2a40 ac05 dd3f ac05 dd3f b058 3840
2.6686792 1.7267356 1.7267356 2.880413

S f4 [2, 2]
00000000: 60c2 2a40 e0d7 dc3f e0d7 dc3f c035 3840
2.6681137 1.725338 1.725338 2.8782806

S f4 [2, 2]
00000000: a4cb 2a40 ac05 dd3f ac05 dd3f b058 3840
2.6686792 1.7267356 1.7267356 2.880413

S f4 [2, 2]
00000000: 60c2 2a40 e0d7 dc3f e0d7 dc3f c035 3840
2.6681137 1.725338 1.725338 2.8782806

S f4 [2, 2]
00000000: a4cb 2a40 ac05 dd3f ac05 dd3f b058 3840
2.6686792 1.7267356 1.7267356 2.880413

S f4 [2, 2]
00000000: 60c2 2a40 e0d7 dc3f e0d7 dc3f c035 3840
2.6681137 1.725338 1.725338 2.8782806

S f4 [2, 2]
00000000: a4cb 2a40 ac05 dd3f ac05 dd3f b058 3840
2.6686792 1.7267356 1.7267356 2.880413

S f4 [2, 2]
00000000: 60c2 2a40 e0d7 dc3f e0d7 dc3f c035 3840
2.6681137 1.725338 1.725338 2.8782806

S f4 [2, 2]
00000000: a4cb 2a40 ac05 dd3f ac05 dd3f b058 3840
2.6686792 1.7267356 1.7267356 2.880413

S f4 [2, 2]
00000000: 60c2 2a40 e0d7 dc3f e0d7 dc3f c035 3840
2.6681137 1.725338 1.725338 2.8782806

S f4 [2, 2]
00000000: a4cb 2a40 ac05 dd3f ac05 dd3f b058 3840
2.6686792 1.7267356 1.7267356 2.880413

S f4 [2, 2]
00000000: 60c2 2a40 e0d7 dc3f e0d7 dc3f c035 3840
2.6681137 1.725338 1.725338 2.8782806

S f4 [2, 2]
00000000: a4cb 2a40 ac05 dd3f ac05 dd3f b058 3840
2.6686792 1.7267356 1.7267356 2.880413

S f4 [2, 2]
00000000: 60c2 2a40 e0d7 dc3f e0d7 dc3f c035 3840
2.6681137 1.725338 1.725338 2.8782806

S f4 [2, 2]
00000000: a4cb 2a40 ac05 dd3f ac05 dd3f b058 3840
2.6686792 1.7267356 1.7267356 2.880413

S f4 [2, 2]
00000000: 60c2 2a40 e0d7 dc3f e0d7 dc3f c035 3840
2.6681137 1.725338 1.725338 2.8782806

S f4 [2, 2]
00000000: a4cb 2a40 ac05 dd3f ac05 dd3f b058 3840
2.6686792 1.7267356 1.7267356 2.880413

S f4 [2, 2]
00000000: 60c2 2a40 e0d7 dc3f e0d7 dc3f c035 3840
2.6681137 1.725338 1.725338 2.8782806

S f4 [2, 2]
00000000: a4cb 2a40 ac05 dd3f ac05 dd3f b058 3840
2.6686792 1.7267356 1.7267356 2.880413

S f4 [2, 2]
00000000: 60c2 2a40 e0d7 dc3f e0d7 dc3f c035 3840
2.6681137 1.725338 1.725338 2.8782806

S f4 [2, 2]
00000000: a4cb 2a40 ac05 dd3f ac05 dd3f b058 3840
2.6686792 1.7267356 1.7267356 2.880413

S f4 [2, 2]
00000000: 60c2 2a40 e0d7 dc3f e0d7 dc3f c035 3840
2.6681137 1.725338 1.725338 2.8782806

S f4 [2, 2]
00000000: a4cb 2a40 ac05 dd3f ac05 dd3f b058 3840
2.6686792 1.7267356 1.7267356 2.880413

S f4 [2, 2]
00000000: 60c2 2a40 e0d7 dc3f e0d7 dc3f c035 3840
2.6681137 1.725338 1.725338 2.8782806

S f4 [2, 2]
00000000: a4cb 2a40 ac05 dd3f ac05 dd3f b058 3840
2.6686792 1.7267356 1.7267356 2.880413

S f4 [2, 2]
00000000: 60c2 2a40 e0d7 dc3f e0d7 dc3f c035 3840
2.6681137 1.725338 1.725338 2.8782806

S f4 [2, 2]
00000000: a4cb 2a40 ac05 dd3f ac05 dd3f b058 3840
2.6686792 1.7267356 1.7267356 2.880413

S f4 [2, 2]
00000000: 60c2 2a40 e0d7 dc3f e0d7 dc3f c035 3840
2.6681137 1.725338 1.725338 2.8782806

S f4 [2, 2]
00000000: a4cb 2a40 ac05 dd3f ac05 dd3f b058 3840
2.6686792 1.7267356 1.7267356 2.880413

S f4 [2, 2]
00000000: 60c2 2a40 e0d7 dc3f e0d7 dc3f c035 3840
2.6681137 1.725338 1.725338 2.8782806

S f4 [2, 2]
00000000: a4cb 2a40 ac05 dd3f ac05 dd3f b058 3840
2.6686792 1.7267356 1.7267356 2.880413

S f4 [2, 2]
00000000: 60c2 2a40 e0d7 dc3f e0d7 dc3f c035 3840
2.6681137 1.725338 1.725338 2.8782806

S f4 [2, 2]
00000000: a4cb 2a40 ac05 dd3f ac05 dd3f b058 3840
2.6686792 1.7267356 1.7267356 2.880413

S f4 [2, 2]
00000000: 60c2 2a40 e0d7 dc3f e0d7 dc3f c035 3840
2.6681137 1.725338 1.725338 2.8782806

S f4 [2, 2]
00000000: a4cb 2a40 ac05 dd3f ac05 dd3f b058 3840
2.6686792 1.7267356 1.7267356 2.880413

S f4 [2, 2]
00000000: 60c2 2a40 e0d7 dc3f e0d7 dc3f c035 3840
2.6681137 1.725338 1.725338 2.8782806

S f4 [2, 2]
00000000: a4cb 2a40 ac05 dd3f ac05 dd3f b058 3840
2.6686792 1.7267356 1.7267356 2.880413

S f4 [2, 2]
00000000: 60c2 2a40 e0d7 dc3f e0d7 dc3f c035 3840
2.6681137 1.725338 1.725338 2.8782806

S f4 [2, 2]
00000000: a4cb 2a40 ac05 dd3f ac05 dd3f b058 3840
2.6686792 1.7267356 1.7267356 2.880413

S f4 [2, 2]
00000000: 60c2 2a40 e0d7 dc3f e0d7 dc3f c035 3840
2.6681137 1.725338 1.725338 2.8782806

S f4 [2, 2]
00000000: a4cb 2a40 ac05 dd3f ac05 dd3f b058 3840
2.6686792 1.7267356 1.7267356 2.880413

S f4 [2, 2]
00000000: 60c2 2a40 e0d7 dc3f e0d7 dc3f c035 3840
2.6681137 1.725338 1.725338 2.8782806

S f4 [2, 2]
00000000: a4cb 2a40 ac05 dd3f ac05 dd3f b058 3840
2.6686792 1.7267356 1.7267356 2.880413

S f4 [2, 2]
00000000: 60c2 2a40 e0d7 dc3f e0d7 dc3f c035 3840
2.6681137 1.725338 1.725338 2.8782806

S f4 [2, 2]
00000000: a4cb 2a40 ac05 dd3f ac05 dd3f b058 3840
2.6686792 1.7267356 1.7267356 2.880413

S f4 [2, 2]
00000000: 60c2 2a40 e0d7 dc3f e0d7 dc3f c035 3840
2.6681137 1.725338 1.725338 2.8782806

S f4 [2, 2]
00000000: a4cb 2a40 ac05 dd3f ac05 dd3f b058 3840
2.6686792 1.7267356 1.7267356 2.880413

S f4 [2, 2]
00000000: 60c2 2a40 e0d7 dc3f e0d7 dc3f c035 3840
2.6681137 1.725338 1.725338 2.8782806

S f4 [2, 2]
00000000: a4cb 2a40 ac05 dd3f ac05 dd3f b058 3840
2.6686792 1.7267356 1.7267356 2.880413

S f4 [2, 2]
00000000: 60c2 2a40 e0d7 dc3f e0d7 dc3f c035 3840
2.6681137 1.725338 1.725338 2.8782806

S f4 [2, 2]
00000000: a4cb 2a40 ac05 dd3f ac05 dd3f b058 3840
2.6686792 1.7267356 1.7267356 2.880413

S f4 [2, 2]
00000000: 60c2 2a40 e0d7 dc3f e0d7 dc3f c035 3840
2.6681137 1.725338 1.725338 2.8782806

S f4 [2, 2]
00000000: a4cb 2a40 ac05 dd3f ac05 dd3f b058 3840
2.6686792 1.7267356 1.7267356 2.880413

S f4 [2, 2]
00000000: 60c2 2a40 e0d7 dc3f e0d7 dc3f c035 3840
2.6681137 1.725338 1.725338 2.8782806

S f4 [2, 2]
00000000: a4cb 2a40 ac05 dd3f ac05 dd3f b058 3840
2.6686792 1.7267356 1.7267356 2.880413

S f4 [2, 2]
00000000: 60c2 2a40 e0d7 dc3f e0d7 dc3f c035 3840
2.6681137 1.725338 1.725338 2.8782806

S f4 [2, 2]
00000000: a4cb 2a40 ac05 dd3f ac05 dd3f b058 3840
2.6686792 1.7267356 1.7267356 2.880413

S f4 [2, 2]
00000000: 60c2 2a40 e0d7 dc3f e0d7 dc3f c035 3840
2.6681137 1.725338 1.725338 2.8782806

S f4 [2, 2]
00000000: a4cb 2a40 ac05 dd3f ac05 dd3f b058 3840
2.6686792 1.7267356 1.7267356 2.880413

S f4 [2, 2]
00000000: 2cbe 2a40 34dc dc3f 34dc dc3f a03b 3840
2.6678572 1.7254701 1.7254701 2.8786392

S f4 [2, 2]
00000000: be96 2a40 4099 dc3f 4099 dc3f 802e 3840
2.6654506 1.7234268 1.7234268 2.8778381

S f4 [2, 2]
00000000: 6ca6 2940 ac9a da3f ac9a da3f 5017 3740
2.6507826 1.7078452 1.7078452 2.860798

S f4 [2, 2]
00000000: 00cc 2240 ba65 cb3f ba65 cb3f a8a5 2e40
2.5437012 1.589042 1.589042 2.7288609

S f4 [2, 2]
00000000: 0000 0040 0000 803f 0000 803f 00d0 0540
2.0 1.0 1.0 2.0908203

L_infinite f4 [1, 2]
00000000: 8b44 143f 1bd7 c53f
0.5791709 1.545627

weight_ih_l0 f4 [12, 10]
00000000: 81df d5bd 0064 dd3b 1cb8 d9be 7ae0 df3e
00000010: 7771 d43e f6c1 893e 2cb0 aebd 8cfd 933e
00000020: 07a1 85be dc34 b83e 6c62 cdbe e03c d5be
00000030: 8fb2 2bbd c2dc e03e a293 8fbe c452 99be
00000040: 116f bb3e 7bc2 83bd a718 13be a0ee 5539
00000050: 60e4 b13e bee1 86be 62f9 5f3e 1a5a 76bd
00000060: e40c 87be 0f46 293e 7b59 a1be d61b 4cbd
00000070: 66b7 f83e b460 163e 4d46 70be 6bf4 603e
00000080: 1d87 4c3e b615 e53e 58b3 dbbe 1212 cebe
00000090: 553e 753e a7cb ec3e e409 eabd 7f4a 6abe
000000a0: 1e6c 843e 7b45 ed3d 776f 78be 87ac 633e
000000b0: 8ba0 e53e bd59 dbbe e6bb 3bbe df13 e6be
000000c0: 8d8e 353e e5b1 843c 5f9f f3be 5395 aa3e
000000d0: b4ba c0b9 ee62 1dbc 9ca0 b3be 60c0 59be
000000e0: 0ec1 233d 8328 ab3e a143 a53e 030c 88be
000000f0: 8797 1f3e 6f39 493e 7696 3dbc e985 84bc
00000100: 8a2d 923e b535 de3d fd69 7d3d 58fd 77bd
00000110: 629b 38be 2a6d 083e bf57 3dbd 5745 c0bd
00000120: da7a 1c3e 2920 633e ce9a d53d d8dc a8be
00000130: d347 ec3d 144b be3d 749e 463e c9fe a73e
00000140: dc97 ed3e 39c9 803b 7083 e3be cd84 e43e
00000150: 48b6 7c3e 26de 33be e403 fa3e 2b99 883e
00000160: bfa5 62be 02ca a8bd 67a9 d23d 6037 d5be
00000170: bff3 883e b30e 103e 9743 23be 2b5b 4c3d
00000180: 37ee be3e ff67 87be f597 fb3d 6f4a 743e
00000190: b0df 123e a453 b93e 4d74 4b3e ab54 0bbe
000001a0: a750 f7be e5c4 1f3d 365e 6b3e 92e3 333e
000001b0: ddf3 8f3e 3e33 2b3d 1d2f debe 274f 833e
000001c0: 4a31 93be d286 05be e504 bdbd 27df 0cbe
000001d0: 8b64 72bd 4ae9 2dbe ee34 e5be 213f c53c
-0.104430206 0.0067563057 -0.42523277 0.4372595 0.41492817 0.26905793 -0.08529696 0.28904378
-0.26099417 0.35977829 -0.40114152 -0.41648006 -0.041918334 0.43918425 -0.28042322 -0.29945958
0.36608174 -0.064335786 -0.14364873 0.00020402158 0.3474455 -0.26344103 0.21872476 -0.06014452
-0.26377022 0.16530631 -0.3151358 -0.049831234 0.48577422 0.14685327 -0.23464318 0.21968238
0.19973417 0.44743127 -0.42910266 -0.40248162 0.23949559 0.46249124 -0.11427668 -0.2287998
0.25863737 0.11585518 -0.2426127 0.22233783 0.44849047 -0.42841902 -0.18333396 -0.44937035
0.1773016 0.016198108 -0.47582528 0.3331705 -0.00036760198 -0.009606106 -0.35083473 -0.21264791
0.039979033 0.33429345 0.3227816 -0.26571664 0.15585147 0.19650815 -0.011571517 -0.016177135
0.2855037 0.108500876 0.061868656 -0.06054434 -0.18028024 0.13322893 -0.04622626 -0.093882255
0.15281239 0.22180237 0.10429917 -0.3298099 0.11537137 0.09291664 0.19396383 0.32811573
0.46404922 0.0039302376 -0.44436216 0.4463257 0.2467891 -0.17565212 0.48831093 0.26679358
-0.2213354 -0.08241655 0.10286217 -0.4164381 0.26748464 0.14068107 -0.15943752 0.049891632
0.37291119 -0.2644653 0.12284843 0.23856519 0.14343143 0.36196625 0.19868584 -0.13606517
-0.4830372 0.039006133 0.22985157 0.1756728 0.2811574 0.041796915 -0.4339532 0.25646326
-0.28748542 -0.13039711 -0.09229449 -0.13757001 -0.059177916 -0.16983524 -0.44766945 0.024077954

weight_hh_l0 f4 [12, 4]
00000000: 0b54 e43e 0657 903e 99e8 27bd a71b 25be
00000010: a907 3cbe 0706 0fbe f832 8f3e 8604 233e
00000020: f84b bfbe 5d2e 02be c343 9cbe 3f5c c33c
00000030: d6e4 013e 5aa6 bebc a708 56bd 2c0c c33e
00000040: 3a35 ed3e ceb2 9ebe 1b2b 5a3e 79bd cabe
00000050: 7642 903e 4f4c 9a3e 246b d33e f2e4 ae3e
00000060: a4aa 2dbe 6cda b43c 1f20 afbe f448 7c3e
00000070: 764c 5cbe ab3a 57be 1b7b 9fbe 613e d23e
00000080: 9ad4 adbe da09 b43e ef1e 02bf 00cb 6d3e
00000090: 5e70 7e3e 9874 bcbe 820a b5be a928 a8be
000000a0: c964 6e3e 8ecc d7be 6da6 ef3e 8275 a1be
000000b0: 90dc 02bf c7a1 f4be 7d6c bb3e 6d5a fe3d
0.4459537 0.28191394 -0.040993307 -0.1612383 -0.18362297 -0.13967143 0.27968574 0.15919694
-0.37362647 -0.12712999 -0.30520448 0.023847697 0.1268495 -0.023272682 -0.052254345 0.38095224
0.4632967 -0.30995792 0.21305506 -0.3959768 0.28175706 0.30136344 0.4129268 0.34159046
-0.16959625 0.022076808 -0.34204194 0.24637204 -0.21513543 -0.21018474 -0.3114861 0.41063216
-0.33951265 0.35163766 -0.5082845 0.2322197 0.24847552 -0.36807704 -0.3535958 -0.3284352
0.23280634 -0.4214825 0.4680666 -0.31534964 -0.511178 -0.47779676 0.36606207 0.12419591

bias_ih_l0 f4 [12]
00000000: 47e8 f1be a8e5 813e 9d53 c13e bf7b a73e
00000010: 22f7 343e a80e 07be 0ddb 0abe cc4a 7a3d
00000020: f308 60be 64c4 553e 7cc1 febe b4e1 863e
-0.47247526 0.25370526 0.37759104 0.32711598 0.17672399 -0.13189185 -0.13560124 0.061106488
-0.21878414 0.20875698 -0.49756992 0.26344073

bias_hh_l0 f4 [12]
00000000: 535f 903e 6f53 c4be 05e9 88be 1366 ac3e
00000010: 8f7e 533e 0cc8 5a3e 25cb 87be 9ff1 c83e
00000020: 605f bdbd 073c ca3d 6beb 8abc d4a8 91be
0.28197727 -0.38344905 -0.2674028 0.33671626 0.20653747 0.21365374 -0.26522174 0.39246842
-0.09246707 0.098747306 -0.01695796 -0.28449118

weight_ih_l0 f4 [12, 14]
00000000: 7a13 64bd 2041 a23e 62ba cf3e 0f3b 8cbe
00000010: 25dd 90be 287f 173d 94cc b93e 8731 c83b
00000020: ac4a bebe 1424 2e3e 737c 03be a14f c83d
00000030: db02 1e3d cceb 25bd 22e8 d9be cd9d 3d3e
00000040: 3209 aabe 9b25 d2be 8ffb 443e 4bc3 e9be
00000050: c53b 973e 5deb 813e 401c bb3e 159b 46be
00000060: 9579 e5be 7849 92bd 1a9b c13e 9c75 c7be
00000070: 4534 923d 6c01 423d 178f df3e af10 97be
00000080: a703 60be ba87 cc3e 89cc dcbe 27b7 943e
00000090: 25fe 303e c4f3 8cbd 461a 6c3e 860b fdbd
000000a0: 386b 853e 9cd0 0a3d dad4 7abe fd63 d3be
000000b0: 4831 33bd 83c7 6f3d 95fc cb3e 4f4b 60be
000000c0: 727f 60be 58be 463d 5984 2a3e f884 b43e
000000d0: f5aa 653c 7e9b 41be 0dcb 623e 5b74 0b3e
000000e0: 3ebd fcbd 7d63 a73e bc30 7c3e a5a5 83be
000000f0: dd2c bf3e 028a 9f3e a407 d1bd e14f c3be
00000100: 325e a03e 752b 933e d968 94be 145c eebe
00000110: c183 d8be d78b c33e 72fb e43e 311c 1abd
00000120: b6a2 47bd 153a 543e 06c8 b9be 03d7 d4be
00000130: 8874 07bd c13a d4be 99d2 4cbe 3fab 983e
00000140: ca38 f33e 5e8e 5ebd 8696 413e a924 ccbd
00000150: e68a 523e 2535 283e 334e f23e 9337 323e
00000160: 3778 653e be8a 9c3e c9c5 06be 8585 c53e
00000170: ef43 04bd 656a babe 195a 393e c321 09be
00000180: 71f9 fabe 512a 6fbe 1ad7 a53e 780d fabe
00000190: 7c83 dabe afab a83e 3ac4 ad3e 1634 2f3e
000001a0: 4242 eabd d1b6 90be f731 d3be 4c1f 93be
000001b0: 5ef6 da3d ac76 aa3e ddfc 00bf bd8d bf39
000001c0: 6b09 debe 75b0 e73d 313f 17be 634f cb3e
000001d0: f419 09bc 9b2a f13e d886 663d 327a a03e
000001e0: e739 5c3e 16e5 f5be ede1 6bbe 1dea b0be
000001f0: a161 56be 2cab c53e 3061 d2be 8903 e83e
00000200: 6cf0 33be ea7d 9f3e a621 a93e 5a4a debe
00000210: aa42 273e 5e82 c03e cb96 3cbd c9a4 fd3e
00000220: c5e1 a8bd 97c3 c93e a44a e33e e673 563e
00000230: 69c3 ecbd b29e d73d 6484 e73e 6265 cabe
00000240: b008 1abe 3f82 af3e 8c7a cdbe f6bc db3e
00000250: d6fe 403e 1f80 e43e 5f46 31bc ca95 7a3e
00000260: ec32 a0be 6c33 823c 826a d7be 8528 dd3e
00000270: 4e92 013f bb1d 873e a70a 753d f6f4 bfbe
00000280: c040 db3e 8920 bf3d a3fd fcbe 38f0 d53d
00000290: aa70 c7bb 98ec d83e 8ad9 993e 8e92 c1be
-0.055682637 0.3169031 0.40571886 -0.27388808 -0.2829372 0.0369865 0.36288893 0.0061094197
-0.37166345 0.1700595 -0.12840442 0.09780813 0.038576942 -0.040508077 -0.42559916 0.18517227
-0.3321014 -0.41044316 0.19236587 -0.4565681 0.29537788 0.2537488 0.3654499 -0.19395097
-0.44819322 -0.07142919 0.37813646 -0.38956916 0.07138876 0.047364637 0.43663856 -0.29504916
-0.21876393 0.399473 -0.43124798 0.29045984 0.17284448 -0.06882432 0.23056898 -0.123557135
0.26058364 0.03389035 -0.24495259 -0.41287223 -0.04374817 0.05853988 0.39841142 -0.21903728
-0.21923617 0.04852137 0.16652049 0.35257697 0.01401781 -0.18906972 0.2214777 0.13618605
-0.123407826 0.3269309 0.24627966 -0.25712314 0.37338915 0.3115998 -0.102065355 -0.3814688
0.31321865 0.28744093 -0.28986242 -0.46554625 -0.4228802 0.38192627 0.44723088 -0.03762454
-0.048739158 0.20725282 -0.36285418 -0.4157029 -0.033070117 -0.41451076 -0.20002212 0.2981815
0.47504264 -0.05433499 0.18905076 -0.0996793 0.20560798 0.16426523 0.47325286 0.17404012
0.2240914 0.30574602 -0.13161387 0.3857843 -0.03229135 -0.36409298 0.18100776 -0.13391785
-0.49018434 -0.23355986 0.32390672 -0.488384 -0.4267844 0.32943484 0.3393877 0.17109713
-0.11438419 -0.28264478 -0.41249058 -0.28734815 0.10691522 0.33293664 -0.5038584 0.00036535962
-0.4336656 0.113129534 -0.147702 0.39709005 -0.008368004 0.47102818 0.05628094 0.31343228
0.21506463 -0.4802634 -0.23035403 -0.34553614 -0.2093568 0.38607156 -0.41089773 0.45315197
-0.17572182 0.31150752 0.33033484 -0.434161 0.16334024 0.37599462 -0.046042245 0.49539784
-0.08246187 0.39407036 0.44392884 0.20942649 -0.11560709 0.105283156 0.45218194 -0.39530474
-0.15042377 0.34279057 -0.40132558 0.42917603 0.18847212 0.44629 -0.01082 0.24471202
-0.3128885 0.01589366 -0.42073447 0.43194976 0.5061387 0.2638987 0.059824612 -0.37491578
0.42822838 0.093323775 -0.4941226 0.10446209 -0.0060864286 0.42368007 0.30048782 -0.37807125

weight_hh_l0 f4 [12, 4]
00000000: 6b0d 4c3e 2b4e dfbe 4bb3 083d 8bfd 58be
00000010: a791 4abb 1c42 e63d 01d3 97be 5b2d 8dbe
00000020: 7a92 a73e 10f6 9ebe 6254 c039 59c2 d3be
00000030: 6623 94be b320 e23e e248 84be 3e1a 0ebe
00000040: 0ca4 8cbe ecfc aebe c71f 6cbe 717d b4be
00000050: bf9a b73e 2867 fc3e 51d0 25be d145 6c3c
00000060: 710c c8be 2f4c 3bbd 2381 5fbe 2da6 8b3e
00000070: c649 d23e 8573 e73e 4cd8 b539 b895 16be
00000080: 506c a3be b1ab 503e bf5b d53e ea49 85be
00000090: cc52 9e3e d96b f53d e16d 0a3e bf4b bb3d
000000a0: b7b5 5d3e 9e66 8c3e faa4 c23d ca62 e53e
000000b0: 7580 81be adaa bd3e fd43 d73e 131c 983e
0.19926994 -0.43614325 0.033374112 -0.21190469 -0.003090957 0.11243078 -0.2965317 -0.27573666
0.3272894 -0.31047106 0.00036683964 -0.41359213 -0.28933257 0.44165573 -0.25836855 -0.13877198
-0.27468908 -0.3417734 -0.23058997 -0.35251954 0.3586025 0.49297452 -0.16192748 0.014420942
-0.39071992 -0.04572695 -0.21826605 0.2727522 0.4107191 0.45205322 0.00034684164 -0.1470555
-0.31918573 0.20377995 0.4167156 -0.26032954 0.30922544 0.11983461 0.13518478 0.09145307
0.2165135 0.2742204 0.09504123 0.44801933 -0.25293317 0.37044278 0.42044058 0.2970892

bias_ih_l0 f4 [12]
00000000: cab0 0c3e e680 d5be 00bd 25be d011 01bf
00000010: a45d eebd d228 49be 40a0 a6be fbd0 abbe
00000020: 104b fd3d ec2d 36be fd93 a83e 6aee 3cbe
0.13739315 -0.41699904 -0.16185379 -0.50417805 -0.11638954 -0.19644478 -0.32544136 -0.33557877
0.12367833 -0.17790955 0.32925406 -0.18450323

bias_hh_l0 f4 [12]
00000000: 544c 81be 3b1f 753e 68bc 893e c202 d43d
00000010: 2c26 16be 001c 013d 3859 973e 7402 d0be
00000020: 4454 1bbd 43e6 f2be 7c8e 63be 93d4 dc3e
-0.25253546 0.23937695 0.26901555 0.103520885 -0.14662999 0.031520844 0.29560256 -0.40626872
-0.03792216 -0.474413 -0.22222322 0.4313093

weight_ih_l0 f4 [12, 24]
00000000: 1f02 a13e 5c0c 313d 787a e33e f5bd 09be
00000010: 004a efbe 9f42 8bbe 8017 213e 6cb8 93be
00000020: 10fb 3cbe e097 41be 0b82 533d 2875 dd3e
00000030: 9e2c 67be 32c7 f9be 9df6 8dbe 1c12 a23e
00000040: 7769 ca3e 7933 a63e a6d1 7a3d b9b4 393d
00000050: 9363 11be a339 893e c162 d2be 0300 b9be
00000060: d83d 4b3e db00 0fbe 3782 3a3d f27a bebe
00000070: 09c7 053e 2f0b 36be 6e0f 87be 7058 8e3e
00000080: f750 47be 70d1 c7bd 5619 fdbe f838 ae3d
00000090: 0047 5dbe 3347 f1be 96b4 6d3e 644a 5ebe
000000a0: 7d83 debd 485b 10be 5200 f8be 1059 f23e
000000b0: ecf9 353d 1821 bcbe 391b 44bd 16dd ad3d
000000c0: e344 a8be 79a9 32be 5664 023e 7c25 e7bd
000000d0: 7e38 23be 0b12 c73d b6e8 623e 435a d23c
000000e0: 8922 e8bd 5907 c23e db24 f3be 9a11 39bb
000000f0: 286e c13e c693 cabe c370 a33e 6abc 053d
00000100: b26a a03e 7b4c e13e 245a 8fbe a92a f83d
00000110: cd55 7e3e 1c7e b43e 0f5a ed3d dba1 a7be
00000120: dd9f b93e b9b7 65be e340 b13e 8d51 a23e
00000130: 2b13 90bc 0dc5 84bc b637 8ebd 0f24 e7bd
00000140: d668 993d 88d8 41be 53bd a6bd a472 f7be
00000150: 18cf eb3e 2f18 a93e 8d26 fa3e 51d1 12be
00000160: a010 913e cfca c13e a2f7 173e c673 cebe
00000170: dced abbe 3b14 a43e 049c 76bd 5b6b 283d
00000180: e503 3d3e 7181 61be db02 9f3e 9d06 dfbe
00000190: d1fe cabe a99f f2be 2bf6 643c 2324 263e
000001a0: c734 78be a62a cbbe 3ee2 f3bd 03a8 4abe
000001b0: 9edc 12bd 8f9d 823e f5e1 8d3e 4013 313d
000001c0: e446 ad3e 9fb3 f0be 2ca7 c43e 9133 11bc
000001d0: 7423 db3d e777 5f3e 4b75 acbc 9330 813e
000001e0: 41b8 5f3d 52c4 df3e d111 9fbd b871 a33d
000001f0: 2c9c 053e 588b d2be 41e4 f03e 321e e13e
00000200: 48b4 72bd 7511 55be 3826 b23d 1f99 bf3e
00000210: d12c 8cbe 7ae8 9d3e 3f24 85bc 453d d0be
00000220: db2c 0e3e 4ff3 e03c ba53 09be b1fc 8dbe
00000230: 5f4c 9f3b 6321 acbe 8433 763d 7ef4 fbbc
00000240: bcea b63d 0827 9b3e 751d 13be 2998 81be
00000250: 9306 2e3c 316a e1be 637c 8d3b d487 c23d
00000260: affd 16bc 93bf eebe 28e2 6d3e af2e a5be
00000270: 5243 3d3e 64dd 0a3d 1e53 7ebe 5f63 9d3e
00000280: 5ed8 1abd b567 58be f74a 6c3e 1935 473e
00000290: 2d0d 07bd b526 fd3d d24d df3e 0924 1fbe
000002a0: 7624 153d 08e9 c63c ef40 b23e c10c 033e
000002b0: 65f9 883d b1b1 00bf c52b ad3e caed ab3e
000002c0: dfea 953e 92ac 1d3e 88d0 b5be a627 c73d
000002d0: b9f8 833d 9779 e2be 0fa3 a0be df4f 9b3e
000002e0: 1a50 c83e 87f5 033d 006c b33d 8fde 603e
000002f0: e4ed fabe a0bb 5dbe 6eff 9cbd cd17 7abe
00000300: ac4c cdbe a600 833e 4fc3 f63e 22f3 353e
00000310: 89b7 d9bd 7969 3c3e 569d 02be 516d 373e
00000320: 43da d1bd 3227 06be 030a 7bbe abeb 343e
00000330: b5ff b93d 8004 48be 2b75 d4be 04dd a2be
00000340: 0f21 953e f9a7 ddbe b73f f6be 6a7f cc3e
00000350: 1797 ca3d 53ec 50bd 2e4c b6be ef9d 37be
00000360: 6649 8bbe 624a 39be fe60 74be 4673 71bd
00000370: 4125 223e 8751 a8be d897 efbe e7af d3be
00000380: ee59 9fbe b6f1 993e 9751 a1be ab9c d43e
00000390: fc4c a93e 026d f9be 03d3 65be d58e a23e
000003a0: 001d 10be 8e85 c13e 8570 ebbe f3a2 b03e
000003b0: 169d ab3e a8db 39be 435d 9d3e ef16 9ebe
000003c0: ae0f 0a3e 63ac c73e 51e5 673e deb7 e0bd
000003d0: a13b 3fbd 1629 e53e d7df 593e d7bb d03e
000003e0: b9f9 d3be f1bf eb3b 88ab 99be 2b0d f13e
000003f0: a6d9 c2be f35b 38be d5d8 cabe 836e 3bbe
0.3144693 0.043224677 0.44429374 -0.13451369 -0.46736145 -0.27199265 0.15731621 -0.2885164
-0.18455148 -0.18905592 0.05163769 0.43253446 -0.22575614 -0.48784786 -0.27727214 0.3165444
0.39533588 0.32461146 0.061235093 0.045338366 -0.14198141 0.26801786 -0.41090968 -0.3613282
0.1984781 -0.1396517 0.04553434 -0.37203175 0.13064207 -0.17777704 -0.2637896 0.27801847
-0.1946448 -0.09756744 -0.49433392 0.0850696 -0.21609116 -0.47124633 0.2321342 -0.21708065
-0.10864923 -0.14097321 -0.48437744 0.47333574 0.044427797 -0.36744 -0.047877524 0.084894344
-0.32865056 -0.17447461 0.12733588 -0.112864465 -0.15939519 0.09720238 0.22159085 0.025677806
-0.11334712 0.3789623 -0.47489056 -0.002823925 0.37779355 -0.39565867 0.31921968 0.03265039
0.31331402 0.44003662 -0.2799846 0.12117512 0.24837418 0.35252464 0.11589443 -0.32740673
0.36254779 -0.22433366 0.34619817 0.31702843 -0.017587265 -0.016207242 -0.0694422 -0.112861745
0.07490699 -0.18930256 -0.081415795 -0.4832965 0.46056437 0.33026263 0.48857537 -0.1433766
0.28332996 0.37850043 0.14840558 -0.40322703 -0.3357991 0.32046685 -0.06020738 0.041118007
0.18458517 -0.22022034 0.31056866 -0.43559733 -0.39647534 -0.47387436 0.013974707 0.16224723
-0.24238883 -0.39680976 -0.11908387 -0.19790654 -0.03585493 0.25510833 0.27711454 0.04323125
0.33843148 -0.4701204 0.38408792 -0.008862392 0.107001215 0.21823083 -0.021052023 0.25232372
0.054619078 0.43704468 -0.0776707 0.079806745 0.13047856 -0.41121936 0.47049144 0.4396835
-0.05925396 -0.2080744 0.08698696 0.3742151 -0.27377942 0.30841428 -0.016252635 -0.40671745
0.13884299 0.027459769 -0.13410845 -0.2773185 0.004861399 -0.33619222 0.060107723 -0.030756231
0.08931491 0.30303216 -0.14366706 -0.253114 0.010621685 -0.4402633 0.0043178066 0.094985634
-0.009215756 -0.46630535 0.23230803 -0.3226218 0.18482712 0.03390254 -0.24836394 0.30739877
-0.037804 -0.21133311 0.23075472 0.19453849 -0.03297155 0.123608984 0.4361406 -0.1554109
0.036411725 0.02428104 0.34815165 0.12797834 0.06688193 -0.50271136 0.33822456 0.33579856
0.29280755 0.15397862 -0.3551066 0.09724359 0.064439245 -0.4423339 -0.31374404 0.30334374
0.39123613 0.032216575 0.08760834 0.219599 -0.4900962 -0.21653605 -0.07665907 -0.24423142
-0.40097558 0.25586432 0.48195884 0.17768529 -0.1063071 0.1839961 -0.12755331 0.17912795
-0.10246708 -0.1310089 -0.24515538 0.17668025 0.09081975 -0.19532967 -0.41495642 -0.31809247
0.29126784 -0.43292215 -0.48095486 0.3994096 0.09892099 -0.051006626 -0.35604995 -0.1793134
-0.27204436 -0.18094781 -0.23865125 -0.058947824 0.15834524 -0.328747 -0.46795535 -0.4134514
-0.31123298 0.30067223 -0.3150756 0.41525778 0.33066547 -0.4871598 -0.22443776 0.31749597
-0.14073563 0.37797207 -0.45984283 0.3449932 0.33518285 -0.18150198 0.30735216 -0.30876872
0.13482544 0.38998708 0.22646071 -0.1097257 -0.046687726 0.4475791 0.21276794 0.4076831
-0.4140146 0.007194512 -0.3001368 0.4708036 -0.38056678 -0.18003826 -0.39618555 -0.18303876

weight_hh_l0 f4 [12, 4]
00000000: 7ff7 173e e7a7 f5be 54b5 443e 1f54 8ebd
00000010: 81e7 833d 6beb 96bd 0ab3 24bd dbfa b9be
00000020: 5205 d2bb c81f f63e 605b c63e 5a82 d3be
00000030: 02a5 f2be 709a fb3d d194 a53e b144 9b3d
00000040: 07b1 a93e d7d2 3b3e faae 0abd c4ad f33e
00000050: ba83 9cbe 52b2 cabe 3cfd d13d 6c38 1ebe
00000060: c0ec 8e3e d476 d8be 13fe 4a3e 59fb e13d
00000070: 3d35 383e 5811 85be b49f 913e 3180 b2bb
00000080: 697b a2bc 2f65 05be 8857 f63e f565 153e
00000090: ab31 b1be 25d2 c13e 1d44 493e 019a e33e
000000a0: 8f9a 6d3e 3837 9fbe 89ba 533e 2ce1 e33e
000000b0: 8e85 73bc da26 d43e bffc 753e 14e7 c33e
0.14840506 -0.47979662 0.19209796 -0.069496386 0.0644064 -0.07369121 -0.040209807 -0.363242
-0.0064093256 0.48071122 0.3874159 -0.41310388 -0.47391516 0.12285316 0.323401 0.07581461
0.33142874 0.18342148 -0.033858277 0.4759351 -0.3056925 -0.39589173 0.10253379 -0.1545121
0.27915 -0.4227816 0.19823484 0.11034269 0.17989059 -0.25989795 0.28442156 -0.0054474105
-0.019834237 -0.1302688 0.48113656 0.14589675 -0.34608206 0.3785564 0.1965489 0.44453433
0.2320349 -0.31096816 0.20676626 0.4450773 -0.014863385 0.4143589 0.24022196 0.38262236

bias_ih_l0 f4 [12]
00000000: 5989 013e cc2f 01be 8c6f d93e 3fd6 ec3e
00000010: ec67 8a3d 0472 a7bd 7a69 6fbe b85d 9d3e
00000020: d3b3 a9be 8e8c c03e 9a5e 80be 28ea 9b3e
0.1265005 -0.1261589 0.42467916 0.46257207 0.06758103 -0.08176044 -0.2338008 0.30735564
-0.33145007 0.37607235 -0.25072175 0.30452085

bias_hh_l0 f4 [12]
00000000: 9af8 27be b821 a9bc 53f6 cd3b 2495 e0be
00000010: c86f 033e 4d70 d53e b6eb c23e aa56 9abe
00000020: 3777 b83e 0933 f2be 167c 4e3e 1a21 f0be
-0.16403428 -0.020645961 0.0062854677 -0.43863785 0.1283561 0.4168724 0.38070458 -0.30144244
0.36028454 -0.47304562 0.20164523 -0.46900254

weight f4 [4, 4]
00000000: 3ba2 073e 239d 0b3e e2d7 cf3c 00d5 e93e
00000010: b79d 933e d5c9 7cbd 611c 40be d52d 4d3e
00000020: abea 37bd 982c 22be 2577 68be fb54 6e3c
00000030: c470 f33e 4a7c ca3e ec37 eabe e0d4 f83e
0.1324548 0.13634162 0.025371496 0.4567032 0.28831264 -0.06171592 -0.18760826 0.20037015
-0.04490153 -0.15837324 -0.227017 0.014546628 0.4754697 0.3954795 -0.4574579 0.4859991

bias f4 [4]
00000000: 562b b33d e725 b73d a19e d73e 053a 583e
0.087485 0.08942776 0.42113212 0.21115883

weight f4 [320, 8]
00000000: 0265 25bc 4c18 b339 a664 983e 0dcb 04bd
00000010: 8d44 0a3e 285b e2bd e844 9639 c0a1 9cbd
00000020: 85c1 e93c 47f8 c3bd ff55 3ebe 6d78 613e
00000030: 6813 edbd 52c4 133e c65f b9be 0101 74be
00000040: 204c b93d 5695 433e ffe6 563e 2fb2 913e
00000050: 9662 b13e 94d1 e73d 0fef 6cbd 18ef f33c
00000060: 9f5a 84be 606f 993e 6957 1bbe 2437 9dbe
00000070: 31d0 06bd e1a1 f7bd 6689 03be 5ae3 0e3e
00000080: 536a 913e bf5e 3a3e 03f7 a2be 417b f5bd
00000090: 89fb 2fbd 9e6d dc3d d45e 4cbe e740 90be
000000a0: 4b4f de3b 29bf 483e 6aee f93d d623 933c
000000b0: 183e c039 bc28 9abe 25f6 acb9 01d7 a03d
000000c0: 2461 a63d d64c 86be 461d 233e 9cda 813e
000000d0: ea87 723e 300f 60bd 863a 933e 12d9 7c3e
000000e0: 3653 a0bd b16c 443e 723f 58be eae8 82be
000000f0: 0ceb a63d bc62 91be 5fab 82be 6bc2 8ebd
00000100: 5f97 833d 3673 86bd 8e79 c039 91e5 6c3e
00000110: bba8 4c3e 017d a039 5a3f 823e 6070 82bd
00000120: 2d8d a53e b617 88be 7e9b 983e 54ec 2a3e
00000130: 64b8 9f3e 39ba 8fbc c63b 5abe 8515 403e
00000140: c85b 293e 8cd9 8e3e 7be0 b2bd 2d91 673d
00000150: 2cd3 17be c8ee 6a3e c387 f4bd e09a b0be
00000160: 191a 253e c9dc 30be 5c17 a0be 708e 473e
00000170: 69d2 583d 1e14 b33e 90df b93d 7c69 bb3d
00000180: b85a 553e c287 053d e18a 803e 9898 103e
00000190: adba 913d da12 2d3e 9cce 0fbe 952f c9bd
000001a0: 1dc4 253c 6a3e a1be 72e1 4fbe a658 80be
000001b0: 8043 4abe 5bb5 0f3e 5801 d53d 27f9 9ebc
000001c0: ff44 8bbc 806e f03d 00bb 3bbe cca5 9dbd
000001d0: e49e 7ebe 4323 a3be 0949 903e d37d 893e
000001e0: 29e7 e63c c531 4f3e e106 9bbe fc31 903e
000001f0: fe2f 2bbe 6d76 09b9 52ae a13d 5401 3fbd
00000200: aeea 163e bd7c d03d f9c2 97be 5185 af3c
00000210: 68c3 27bc e336 6e3e f002 c039 2537 613d
00000220: f981 83bc 3fd5 b6bd 2f81 54be 0cfe a0be
00000230: 9827 ad3e 74a7 d93d c6fb 1dbe eb6a f33d
00000240: 803c c13d b04a 823e 1cd0 943e e066 813e
00000250: 75c2 26be 1bce 9c3e c95a 35be 3a25 603d
00000260: d118 5dbe 9e8a 0c3e 9710 6abe 1a2b 9bbe
00000270: 637c 8e3e ae1a 993e 7f40 243e 3692 423c
00000280: 7468 babd c94d 3d3d 4386 e1bc 23cc 29be
00000290: 1fd5 48bd d96c 93bc 70e8 193d 2b92 ccbd
000002a0: d795 6cb9 2ea7 8b3e 7b37 893d c81c 863e
000002b0: 857a 5a3e 3dbd 05be 30bb 4d3e 3514 203e
000002c0: d5be ed3d 26a1 90be e372 98be 1bee efbd
000002d0: 4da0 823e b2f5 a4be 3792 21be d397 e5bc
000002e0: 9e81 07be e4af 53be 9b88 fa3d 33d2 5cbe
000002f0: ca15 f53d e159 a03e 8ce2 853d 1f8c e1ba
00000300: 8d21 e1bd 3bbd 003e 269f 8a3e b1df 23be
00000310: be8d 5d3e 6bc9 693c 0c51 a5be ae65 a4be
00000320: fde3 343e d658 a8be 1a84 5a3e 74ea 763e
00000330: a2e3 84bd f220 743e 5eac 53be e90b af3e
00000340: 302b 8fbe 17f4 e03c 32d6 41be 9c83 893e
00000350: e060 9dbe 9d19 89be 30d8 6dbe 83be 1dbe
00000360: 8ccf a4bd cbb5 d73c 4449 27be 77d6 57be
00000370: 932a 6c3e 743c 2f3e a3cf 8d3e cc92 0ebe
00000380: 460d a13d a270 63bd 9582 82bd 8a9a 8d3d
00000390: ce74 cb3d 6eae 8ebe de68 1ebe e535 323e
000003a0: a85d 7bbc 1788 a23e 6ed4 80be ed80 543e
000003b0: 976f 283e 6fdb 4dbe a6fe 993e c308 b13e
000003c0: 8a39 76be 262a 203e 9d4c 6cbd 4b8b 9fbe
000003d0: 312e cdbd 2761 8e3e 8e27 86be fcc2 92bd
000003e0: ed28 3a3e aff1 153d 568e 84bb 7fec 313e
000003f0: 9e52 e3bd 7403 a53e 0a39 663e 66ef 0abe
-0.010094883 0.00034159643 0.2976429 -0.032420207 0.13502713 -0.11052543 0.0002866157 -0.07648039
0.02853466 -0.095688395 -0.18587492 0.22018595 -0.11575967 0.14430359 -0.36205882 -0.23828508
0.09047723 0.19099936 0.20986556 0.28456256 0.34645528 0.11319271 -0.05784517 0.029777095
-0.25850388 0.29967785 -0.15170063 -0.3070613 -0.03291339 -0.12091423 -0.12845382 0.13953915
0.2840143 0.18200205 -0.3182908 -0.119863994 -0.042964492 0.10763095 -0.19958049 -0.28174517
0.006784355 0.19604172 0.12203677 0.017961424 0.00036667357 -0.30109203 -0.00032989788 0.07853509
0.08123997 -0.26230496 0.15929136 0.25362098 0.2368466 -0.054701984 0.28755587 0.24692181
-0.07828371 0.19182087 -0.21117952 -0.25568324 0.081503004 -0.2839564 -0.2552137 -0.06970676
0.06425356 -0.065649435 0.0003671166 0.23134448 0.1998624 0.00030610713 0.25438958 -0.0636909
0.3233427 -0.2658059 0.2980613 0.16691715 0.31195366 -0.017544853 -0.21311864 0.18758209
0.16538918 0.2790035 -0.087342225 0.056534935 -0.1482665 0.2294265 -0.11939957 -0.3449316
0.16123237 -0.17271723 -0.31267822 0.1948793 0.052935038 0.34976286 0.09075844 0.09150979
0.20835388 0.032600172 0.25105956 0.1412071 0.07115684 0.16901723 -0.14043659 -0.09823529
0.010117558 -0.3149293 -0.20300844 -0.25067633 -0.19752312 0.14034025 0.10400647 -0.019405914
-0.017000673 0.11739826 -0.18333054 -0.07697639 -0.248653 -0.3186284 0.2818072 0.2685381
0.028186398 0.2023383 -0.30278686 0.28163135 -0.16717526 -0.00013109455 0.07894577 -0.046632126
0.1473796 0.10180042 -0.2964094 0.021425875 -0.01023946 0.23263125 0.00036623282 0.05498423
-0.016053187 -0.08927392 -0.20752405 -0.31443822 0.3381927 0.10627642 -0.15428075 0.11885627
0.094353676 0.25447607 0.29065025 0.252738 -0.16285117 0.30625996 -0.17710413 0.054723002
-0.21591498 0.13724753 -0.22857891 -0.3030632 0.27829275 0.29903167 0.16040228 0.01187568
-0.09101954 0.04621676 -0.027529841 -0.16581778 -0.049031373 -0.017996239 0.037575185 -0.09988817
-0.00022562534 0.27275985 0.06700035 0.26193833 0.213358 -0.1306047 0.20090938 0.15632708
0.11608664 -0.28247947 -0.29775152 -0.11715337 0.25512925 -0.322187 -0.15778433 -0.028026497
-0.13233039 -0.20672566 0.12233087 -0.2156456 0.119670466 0.31318572 0.06537351 -0.0017207897
-0.109927274 0.12572186 0.27074546 -0.160033 0.21636102 0.014269213 -0.32288396 -0.32108825
0.17665096 -0.32880276 0.21339455 0.24112874 -0.0648873 0.23840693 -0.20671222 0.34188774
-0.27962637 0.027460141 -0.18929365 0.26858222 -0.30737972 -0.26777354 -0.23227 -0.15404706
-0.08047399 0.026331803 -0.16336542 -0.21077906 0.23063116 0.17112905 0.27697477 -0.13923186
0.0786386 -0.055527337 -0.06372563 0.069142416 0.09934388 -0.27867454 -0.15469691 0.17403372
-0.015342154 0.31744453 -0.2516207 0.20752306 0.16448818 -0.20103239 0.30077094 0.34576997
-0.24045387 0.15641078 -0.05769025 -0.3116096 -0.10018576 0.27808496 -0.26202053 -0.071660966
0.18179674 0.03660744 -0.004045288 0.17375372 -0.11099742 0.32229197 0.22482696 -0.13567886

bias f4 [320]
00000000: 3df7 6bbe 57a6 9c3e e4ec dc3d e517 4cbe
00000010: bf43 02be 4531 9bbe 34be a43d a361 97be
00000020: 79e4 80be 7958 be3d 710a b13e 93bd 883e
00000030: 6fb9 9a3c 3a5e 2fbe ab89 643d c60b 98be
00000040: 06ab 91be 30f8 1cbd f58e 963d 826e 08be
00000050: 0c8f 90be 067e 9abe 214b 853e 71c2 09be
00000060: daa7 4fbe cc13 b73d 9cfe 083e f1e7 12be
00000070: 053e a73e 2bd0 8a3e aa63 a33e f8a3 e93c
00000080: ae8b c13c fbde a83e 07c9 f53b 88ed e7bd
00000090: 8a55 853d 9bbc e43d 4fc6 123e 4233 8dbe
000000a0: 06f4 703c d656 423e 259a 463e dea8 90be
000000b0: 00cc 033e fc6a ec3d 14df 073e 14fa 3bbd
000000c0: c6fb ccbd 2b9b f7bd 3ad2 92bd 1c88 7cbe
000000d0: 9e2f 51bc a7fc ae3e 372f e5bd 16b1 08be
000000e0: 9afa 7f3e bb4b de3d b920 b23e c7e8 9a3e
000000f0: 7ae1 7bbe d5f4 6b3d a612 ecbd b5c6 70be
00000100: dc77 8cbe 98e5 10be a693 403e 3b0c ad3e
00000110: 9dda 113e 72b5 193d 8b75 13be 07d2 2dbe
00000120: 5a7e 833e e60d 85be 65c6 68bd 1d79 29be
00000130: 6dc6 473e eac0 66be 89e6 473e 85ec 82be
00000140: 8558 03bd 011e af3e e371 813e 00d5 4e3e
00000150: 8de2 573e bc4e d73d 2ace 62bd ef67 50be
00000160: 28ac 243d 92f1 1dbe a83b 5d3e f551 a8bd
00000170: 4c22 28be d698 ce3d 8262 053e 9f85 94be
00000180: 64a8 a4be d223 ac3e 4a2c b83e d5f8 85be
00000190: cbf4 3fbc fba6 1ebd 33bc f53d 28c4 1e3e
000001a0: 7606 ce3d 88af 8bbe 9ae9 673c ea59 0fbe
000001b0: d9a6 2dbe 774a 20be 93e9 bc3c 27f9 29be
000001c0: 61ae a13e 594e 6f3d b469 45be 6b11 95be
000001d0: c8af a23e 6b01 933c a906 df3d c536 863e
000001e0: d21d a23e b98e 00be 9743 5ebe 643c 553e
000001f0: 6056 5cbe 4a0e 7cbe 88be 72be 9935 e5bd
00000200: 30bd 94bd 9134 de3d 4ac0 edbd ce49 d83d
00000210: a895 8cbe be07 a83e f4c9 59be 5042 4fbe
00000220: 9319 af3d dd44 dbbd 3fd9 79bd 8cf0 d0bd
00000230: 5929 863e 4ae9 3fbc fdd7 4cbe cd6a f5bb
00000240: 1f0a 5cbd a50a 883d e7d6 293d 86c6 37bc
00000250: 2b0b 5dbe aeec 2b3e 87a6 643e ccc4 a6bc
00000260: fbc1 35be f13c 09be a2f3 913e 073e 1cbe
00000270: da0c a23e 8794 033d b679 613d 7f0c b03e
00000280: 9390 a1bd d895 f2bd 9fd4 92be 413e 8ebe
00000290: fd70 873e 2ce4 ac3d 259b 663e ebfa a03e
000002a0: d971 1dbe 90ba 09be f08f ae3d 6bce c53d
000002b0: 7cdb ebbd 039f 283e 1c66 42be ebb8 75be
000002c0: 8b0f 63be d7df 66be 52eb 963e 49ed 8ebe
000002d0: b30d cd3d 1b7a 9d3d f3b7 f73c 9361 df3d
000002e0: 47b5 22be 6026 95be a86a 843e b9ec bf3d
000002f0: 0a40 9d3d c1d6 90be bc6f 573e b923 983e
00000300: b08f e83c bc67 d6bd 66d5 983e 8af8 163d
00000310: 9ed3 dc3d 0aaf 81be a0c1 9d3e e4df 8ebe
00000320: 0caf 5ebe 59d4 a73e 666e 55be a731 733e
00000330: ad8c fd3d 5201 5c3b eb4b 083e 10ef 95be
00000340: 5366 01be 8180 b33d 1004 c93d 250d 2e3d
00000350: 041c 453e 0d24 083a 6fb3 723e 180e 303e
00000360: 4877 a33e 28ad 0bbe fb5d 6e3e 7579 77be
00000370: c113 1c3e 5c76 4fbe 1893 283e e48f 3cbe
00000380: 698d a83e 2774 73be 1e78 9f3e b525 dd3d
00000390: 38f6 b1bd 123b 06bd 750c 25be d66c 9e3e
000003a0: 67b9 e6bd 46ce 66bd bfe0 30be 9dc6 90bd
000003b0: 73b7 52be 1d29 6a3e 6999 65be 6f9e 903e
000003c0: dfee 323e 31c9 4e3c b180 153e 440d 34be
000003d0: 40c8 723e 0b8f 6cbe 9b4f 313e 003a 123d
000003e0: aea0 fbbc fd51 e93b 7957 923e 305c 7cbd
000003f0: bce8 85be 6e44 8bbd 19a8 77be d155 343e
-0.23043533 0.30595657 0.10787371 -0.1993099 -0.12721156 -0.30311027 0.08044091 -0.29566678
-0.2517431 0.092942186 0.3457828 0.26707134 0.01888725 -0.17125788 0.055795353 -0.29696482
-0.28450793 -0.038322628 0.07351486 -0.13323405 -0.28234136 -0.30174273 0.2603388 -0.1345308
-0.20278874 0.08939323 0.13378376 -0.14346291 0.32664505 0.27111945 0.31911975 0.02852057
0.023626175 0.3298262 0.007500771 -0.11324602 0.06510456 0.11168786 0.14333461 -0.2757817
0.014706617 0.18978438 0.19394739 -0.28253835 0.12870789 0.11543843 0.13268691 -0.04589279
-0.100089595 -0.12090143 -0.07169004 -0.24661297 -0.0127677005 0.34177133 -0.11190646 -0.13348803
0.2499794 0.10854288 0.3479059 0.3025572 -0.24597731 0.057606537 -0.115269944 -0.235133
-0.27435195 -0.14150083 0.18806323 0.33798394 0.1424355 0.037526555 -0.14400308 -0.1697465
0.25682336 -0.25987166 -0.05682983 -0.16550107 0.19509287 -0.22534528 0.19521536 -0.25571075
-0.03206684 0.3420258 0.252822 0.2019844 0.21082516 0.10513064 -0.055372395 -0.20352148
0.040203243 -0.15424183 0.21604788 -0.08218757 -0.16419333 0.10087745 0.13025859 -0.29008195
-0.32159722 0.3362108 0.3597129 -0.26166406 -0.011716078 -0.038733464 0.11998787 0.15504515
0.10059826 -0.27282357 0.014154816 -0.13999143 -0.16958179 -0.15653406 0.023060596 -0.1659895
0.31578353 0.058424328 -0.19278604 -0.2911485 0.31774735 0.017945012 0.10889942 0.2621366
0.31663376 -0.12554444 -0.21705471 0.20823818 -0.21517324 -0.24614826 -0.23705494 -0.111918636
-0.07262647 0.1084987 -0.11608942 0.10560952 -0.2745793 0.32818407 -0.21268445 -0.2024014
0.085498 -0.10706494 -0.060998198 -0.10202131 0.2620342 -0.011713335 -0.20004268 -0.0074895383
-0.05372059 0.06642655 0.041464712 -0.011216765 -0.21586291 0.16789505 0.2232915 -0.020357512
-0.17749779 -0.13402154 0.2850619 -0.15258037 0.3165043 0.03212407 0.055047713 0.34384534
-0.078889035 -0.11844987 -0.28677842 -0.2778187 0.2645339 0.08441958 0.2252012 0.31441435
-0.1537546 -0.13450074 0.08523548 0.09658512 -0.11516473 0.16466908 -0.18984264 -0.23996322
-0.22173898 -0.22546326 0.2947641 -0.2791541 0.100123785 0.076893054 0.030239081 0.10907283
-0.15889464 -0.2913084 0.25862622 0.09371323 0.0767823 -0.28288844 0.21038717 0.29714754
0.028388828 -0.104690045 0.2985031 0.03685812 0.1078255 -0.25328857 0.30811787 -0.2790519
-0.21746463 0.32779196 -0.20842895 0.2374941 0.123803474 0.0033570123 0.1331021 -0.29283953
-0.1263669 0.087647445 0.09815228 0.042493004 0.19248968 0.000519336 0.23701261 0.17192876
0.31926942 -0.13640273 0.23278038 -0.24167426 0.1524191 -0.20259994 0.16462362 -0.18414265
0.32920387 -0.23774777 0.3114633 0.10798208 -0.086895406 -0.032771178 -0.16118033 0.3094241
-0.112658314 -0.05634906 -0.17273234 -0.070691325 -0.20577793 0.22867246 -0.22421803 0.28245875
0.17473935 0.01262121 0.14599873 -0.17583185 0.23709202 -0.23101442 0.17315523 0.035699844
-0.030716266 0.0071203695 0.2858236 -0.061611354 -0.26154125 -0.06800161 -0.24185218 0.17610861
