KNet/Linear_SS_No_MM_/pipeline_KNet_Linear_Dynamics_T100_v_positive_5dB_.pt (torch, 199497 bytes, 351 tensors)

G f4 [2, 1]
0.0 1.0
00000000: 0000 0000 0000 803f

Q f4 [2, 2]
1.0 0.0 0.0 1.0
00000000: 0000 803f 0000 0000 0000 0000 0000 803f

R f4 [2, 2]
0.31622776 0.0 0.0 0.31622776
00000000: 9be8 a13e 0000 0000 0000 0000 9be8 a13e

prior_Q f4 [2, 2]
1.0 0.0 0.0 1.0
00000000: 0000 803f 0000 0000 0000 0000 0000 803f

prior_Sigma f4 [2, 2]
1.0 0.0 0.0 1.0
00000000: 0000 803f 0000 0000 0000 0000 0000 803f

prior_S f4 [2, 2]
1.0 0.0 0.0 1.0
00000000: 0000 803f 0000 0000 0000 0000 0000 803f

m1x_0 f4 [2]
10.0 0.0
00000000: 0000 2041 0000 0000

x_prev f4 [2]
10.0 0.0
00000000: 0000 2041 0000 0000

m2x_0 f4 [2, 2]
0.0 0.0 0.0 0.0
00000000: 0000 0000 0000 0000 0000 0000 0000 0000

QT f4 [2, 2]
1.0 0.0 0.0 1.0
00000000: 0000 803f 0000 0000 0000 0000 0000 803f

Qx f4 [2, 2]
1.0 0.0 0.0 1.0
00000000: 0000 803f 0000 0000 0000 0000 0000 803f

L f4 [1, 2]
0.57917404 1.5462112
00000000: c044 143f 40ea c53f

L f4 [1, 2]
0.57926774 1.5460253
00000000: e44a 143f 28e4 c53f

L f4 [1, 2]
0.57917404 1.5462112
00000000: c044 143f 40ea c53f

L f4 [1, 2]
0.57926774 1.5460253
00000000: e44a 143f 28e4 c53f

L f4 [1, 2]
0.57917404 1.5462112
00000000: c044 143f 40ea c53f

L f4 [1, 2]
0.57926774 1.5460253
00000000: e44a 143f 28e4 c53f

L f4 [1, 2]
0.57917404 1.5462112
00000000: c044 143f 40ea c53f

L f4 [1, 2]
0.57926774 1.5460253
00000000: e44a 143f 28e4 c53f

L f4 [1, 2]
0.57917404 1.5462112
00000000: c044 143f 40ea c53f

L f4 [1, 2]
0.57926774 1.5460253
00000000: e44a 143f 28e4 c53f

L f4 [1, 2]
0.57917404 1.5462112
00000000: c044 143f 40ea c53f

L f4 [1, 2]
0.57926774 1.5460253
00000000: e44a 143f 28e4 c53f

L f4 [1, 2]
0.57917404 1.5462112
00000000: c044 143f 40ea c53f

L f4 [1, 2]
0.57926774 1.5460253
00000000: e44a 143f 28e4 c53f

L f4 [1, 2]
0.57917404 1.5462112
00000000: c044 143f 40ea c53f

L f4 [1, 2]
0.57926774 1.5460253
00000000: e44a 143f 28e4 c53f

L f4 [1, 2]
0.57917404 1.5462112
00000000: c044 143f 40ea c53f

L f4 [1, 2]
0.57926774 1.5460253
00000000: e44a 143f 28e4 c53f

L f4 [1, 2]
0.57917404 1.5462112
00000000: c044 143f 40ea c53f

L f4 [1, 2]
0.57926774 1.5460253
00000000: e44a 143f 28e4 c53f

L f4 [1, 2]
0.57917404 1.5462112
00000000: c044 143f 40ea c53f

L f4 [1, 2]
0.57926774 1.5460253
00000000: e44a 143f 28e4 c53f

L f4 [1, 2]
0.57917404 1.5462112
00000000: c044 143f 40ea c53f

L f4 [1, 2]
0.57926774 1.5460253
00000000: e44a 143f 28e4 c53f

L f4 [1, 2]
0.57917404 1.5462112
00000000: c044 143f 40ea c53f

L f4 [1, 2]
0.57926774 1.5460253
00000000: e44a 143f 28e4 c53f

L f4 [1, 2]
0.57917404 1.5462112
00000000: c044 143f 40ea c53f

L f4 [1, 2]
0.57926774 1.5460253
00000000: e44a 143f 28e4 c53f

L f4 [1, 2]
0.57917404 1.5462112
00000000: c044 143f 40ea c53f

L f4 [1, 2]
0.57926774 1.5460253
00000000: e44a 143f 28e4 c53f

L f4 [1, 2]
0.57917404 1.5462112
00000000: c044 143f 40ea c53f

L f4 [1, 2]
0.57926774 1.5460253
00000000: e44a 143f 28e4 c53f

L f4 [1, 2]
0.57917404 1.5462112
00000000: c044 143f 40ea c53f

L f4 [1, 2]
0.57926774 1.5460253
00000000: e44a 143f 28e4 c53f

L f4 [1, 2]
0.57917404 1.5462112
00000000: c044 143f 40ea c53f

L f4 [1, 2]
0.57926774 1.5460253
00000000: e44a 143f 28e4 c53f

L f4 [1, 2]
0.57917404 1.5462112
00000000: c044 143f 40ea c53f

L f4 [1, 2]
0.57926774 1.5460253
00000000: e44a 143f 28e4 c53f

L f4 [1, 2]
0.57917404 1.5462112
00000000: c044 143f 40ea c53f

L f4 [1, 2]
0.57926774 1.5460253
00000000: e44a 143f 28e4 c53f

L f4 [1, 2]
0.57917404 1.5462112
00000000: c044 143f 40ea c53f

L f4 [1, 2]
0.57926774 1.5460253
00000000: e44a 143f 28e4 c53f

L f4 [1, 2]
0.57917404 1.5462112
00000000: c044 143f 40ea c53f

L f4 [1, 2]
0.57926774 1.5460253
00000000: e44a 143f 28e4 c53f

L f4 [1, 2]
0.57917404 1.5462112
00000000: c044 143f 40ea c53f

L f4 [1, 2]
0.57926774 1.5460253
00000000: e44a 143f 28e4 c53f

L f4 [1, 2]
0.57917404 1.5462112
00000000: c044 143f 40ea c53f

L f4 [1, 2]
0.57926774 1.5460253
00000000: e44a 143f 28e4 c53f

L f4 [1, 2]
0.57917404 1.5462112
00000000: c044 143f 40ea c53f

L f4 [1, 2]
0.57926774 1.5460253
00000000: e44a 143f 28e4 c53f

L f4 [1, 2]
0.57917404 1.5462112
00000000: c044 143f 40ea c53f

L f4 [1, 2]
0.57926774 1.5460253
00000000: e44a 143f 28e4 c53f

L f4 [1, 2]
0.57917404 1.5462112
00000000: c044 143f 40ea c53f

L f4 [1, 2]
0.57926774 1.5460253
00000000: e44a 143f 28e4 c53f

L f4 [1, 2]
0.57917404 1.5462112
00000000: c044 143f 40ea c53f

L f4 [1, 2]
0.57926774 1.5460253
00000000: e44a 143f 28e4 c53f

L f4 [1, 2]
0.57917404 1.5462112
00000000: c044 143f 40ea c53f

L f4 [1, 2]
0.57926774 1.5460253
00000000: e44a 143f 28e4 c53f

L f4 [1, 2]
0.57917404 1.5462112
00000000: c044 143f 40ea c53f

L f4 [1, 2]
0.57926774 1.5460253
00000000: e44a 143f 28e4 c53f

L f4 [1, 2]
0.57917404 1.5462112
00000000: c044 143f 40ea c53f

L f4 [1, 2]
0.57926774 1.5460253
00000000: e44a 143f 28e4 c53f

L f4 [1, 2]
0.57917404 1.5462112
00000000: c044 143f 40ea c53f

L f4 [1, 2]
0.57926774 1.5460253
00000000: e44a 143f 28e4 c53f

L f4 [1, 2]
0.57917404 1.5462112
00000000: c044 143f 40ea c53f

L f4 [1, 2]
0.57926774 1.5460253
00000000: e44a 143f 28e4 c53f

L f4 [1, 2]
0.57917404 1.5462112
00000000: c044 143f 40ea c53f

L f4 [1, 2]
0.57926774 1.5460253
00000000: e44a 143f 28e4 c53f

L f4 [1, 2]
0.57917404 1.5462112
00000000: c044 143f 40ea c53f

L f4 [1, 2]
0.57926774 1.5460253
00000000: e44a 143f 28e4 c53f

L f4 [1, 2]
0.57917404 1.5462112
00000000: c044 143f 40ea c53f

L f4 [1, 2]
0.57926774 1.5460253
00000000: e44a 143f 28e4 c53f

L f4 [1, 2]
0.57917404 1.5462112
00000000: c044 143f 40ea c53f

L f4 [1, 2]
0.57926774 1.5460253
00000000: e44a 143f 28e4 c53f

L f4 [1, 2]
0.57917404 1.5462112
00000000: c044 143f 40ea c53f

L f4 [1, 2]
0.57926774 1.5460253
00000000: e44a 143f 28e4 c53f

L f4 [1, 2]
0.57917404 1.5462112
00000000: c044 143f 40ea c53f

L f4 [1, 2]
0.57926774 1.5460253
00000000: e44a 143f 28e4 c53f

L f4 [1, 2]
0.57917404 1.5462112
00000000: c044 143f 40ea c53f

L f4 [1, 2]
0.57926774 1.5460253
00000000: e44a 143f 28e4 c53f

L f4 [1, 2]
0.57917404 1.5462112
00000000: c044 143f 40ea c53f

L f4 [1, 2]
0.57926774 1.5460253
00000000: e44a 143f 28e4 c53f

L f4 [1, 2]
0.57917404 1.5462112
00000000: c044 143f 40ea c53f

L f4 [1, 2]
0.57926774 1.5460253
00000000: e44a 143f 28e4 c53f

L f4 [1, 2]
0.57917404 1.5462112
00000000: c044 143f 40ea c53f

L f4 [1, 2]
0.57926774 1.5460253
00000000: e44a 143f 28e4 c53f

L f4 [1, 2]
0.57917404 1.5462112
00000000: c044 143f 40ea c53f

L f4 [1, 2]
0.57926774 1.5460253
00000000: e44a 143f 28e4 c53f

L f4 [1, 2]
0.57917404 1.5462112
00000000: c044 143f 40ea c53f

L f4 [1, 2]
0.57926774 1.5460253
00000000: e44a 143f 28e4 c53f

L f4 [1, 2]
0.57917404 1.5462112
00000000: c044 143f 40ea c53f

L f4 [1, 2]
0.57926774 1.5460253
00000000: e44a 143f 28e4 c53f

L f4 [1, 2]
0.57917404 1.5462112
00000000: c044 143f 40ea c53f

L f4 [1, 2]
0.57926774 1.5460253
00000000: e44a 143f 28e4 c53f

L f4 [1, 2]
0.57917404 1.5462112
00000000: c044 143f 40ea c53f

L f4 [1, 2]
0.57926774 1.5460253
00000000: e44a 143f 28e4 c53f

L f4 [1, 2]
0.5790329 1.5458374
00000000: 803b 143f 00de c53f

L f4 [1, 2]
0.57670283 1.54315
00000000: cca2 133f f085 c53f

L f4 [1, 2]
0.5616894 1.525917
00000000: e0ca 0f3f 4051 c33f

L f4 [1, 2]
0.45629883 1.4107833
00000000: 00a0 e93e 8c94 b43f

S f4 [2, 2]
2.6686792 1.7267356 1.7267356 2.880413
00000000: a4cb 2a40 ac05 dd3f ac05 dd3f b058 3840

S f4 [2, 2]
2.6681137 1.725338 1.725338 2.8782806
00000000: 60c2 2a40 e0d7 dc3f e0d7 dc3f c035 3840

S f4 [2, 2]
2.6686792 1.7267356 1.7267356 2.880413
00000000: a4cb 2a40 ac05 dd3f ac05 dd3f b058 3840

S f4 [2, 2]
2.6681137 1.725338 1.725338 2.8782806
00000000: 60c2 2a40 e0d7 dc3f e0d7 dc3f c035 3840

S f4 [2, 2]
2.6686792 1.7267356 1.7267356 2.880413
00000000: a4cb 2a40 ac05 dd3f ac05 dd3f b058 3840

S f4 [2, 2]
2.6681137 1.725338 1.725338 2.8782806
00000000: 60c2 2a40 e0d7 dc3f e0d7 dc3f c035 3840

S f4 [2, 2]
2.6686792 1.7267356 1.7267356 2.880413
00000000: a4cb 2a40 ac05 dd3f ac05 dd3f b058 3840

S f4 [2, 2]
2.6681137 1.725338 1.725338 2.8782806
00000000: 60c2 2a40 e0d7 dc3f e0d7 dc3f c035 3840

S f4 [2, 2]
2.6686792 1.7267356 1.7267356 2.880413
00000000: a4cb 2a40 ac05 dd3f ac05 dd3f b058 3840

S f4 [2, 2]
2.6681137 1.725338 1.725338 2.8782806
00000000: 60c2 2a40 e0d7 dc3f e0d7 dc3f c035 3840

S f4 [2, 2]
2.6686792 1.7267356 1.7267356 2.880413
00000000: a4cb 2a40 ac05 dd3f ac05 dd3f b058 3840

S f4 [2, 2]
2.6681137 1.725338 1.725338 2.8782806
00000000: 60c2 2a40 e0d7 dc3f e0d7 dc3f c035 3840

S f4 [2, 2]
2.6686792 1.7267356 1.7267356 2.880413
00000000: a4cb 2a40 ac05 dd3f ac05 dd3f b058 3840

S f4 [2, 2]
2.6681137 1.725338 1.725338 2.8782806
00000000: 60c2 2a40 e0d7 dc3f e0d7 dc3f c035 3840

S f4 [2, 2]
2.6686792 1.7267356 1.7267356 2.880413
00000000: a4cb 2a40 ac05 dd3f ac05 dd3f b058 3840

S f4 [2, 2]
2.6681137 1.725338 1.725338 2.8782806
00000000: 60c2 2a40 e0d7 dc3f e0d7 dc3f c035 3840

S f4 [2, 2]
2.6686792 1.7267356 1.7267356 2.880413
00000000: a4cb 2a40 ac05 dd3f ac05 dd3f b058 3840

S f4 [2, 2]
2.6681137 1.725338 1.725338 2.8782806
00000000: 60c2 2a40 e0d7 dc3f e0d7 dc3f c035 3840

S f4 [2, 2]
2.6686792 1.7267356 1.7267356 2.880413
00000000: a4cb 2a40 ac05 dd3f ac05 dd3f b058 3840

S f4 [2, 2]
2.6681137 1.725338 1.725338 2.8782806
00000000: 60c2 2a40 e0d7 dc3f e0d7 dc3f c035 3840

S f4 [2, 2]
2.6686792 1.7267356 1.7267356 2.880413
00000000: a4cb 2a40 ac05 dd3f ac05 dd3f b058 3840

S f4 [2, 2]
2.6681137 1.725338 1.725338 2.8782806
00000000: 60c2 2a40 e0d7 dc3f e0d7 dc3f c035 3840

S f4 [2, 2]
2.6686792 1.7267356 1.7267356 2.880413
00000000: a4cb 2a40 ac05 dd3f ac05 dd3f b058 3840

S f4 [2, 2]
2.6681137 1.725338 1.725338 2.8782806
00000000: 60c2 2a40 e0d7 dc3f e0d7 dc3f c035 3840

S f4 [2, 2]
2.6686792 1.7267356 1.7267356 2.880413
00000000: a4cb 2a40 ac05 dd3f ac05 dd3f b058 3840

S f4 [2, 2]
2.6681137 1.725338 1.725338 2.8782806
00000000: 60c2 2a40 e0d7 dc3f e0d7 dc3f c035 3840

S f4 [2, 2]
2.6686792 1.7267356 1.7267356 2.880413
00000000: a4cb 2a40 ac05 dd3f ac05 dd3f b058 3840

S f4 [2, 2]
2.6681137 1.725338 1.725338 2.8782806
00000000: 60c2 2a40 e0d7 dc3f e0d7 dc3f c035 3840

S f4 [2, 2]
2.6686792 1.7267356 1.7267356 2.880413
00000000: a4cb 2a40 ac05 dd3f ac05 dd3f b058 3840

S f4 [2, 2]
2.6681137 1.725338 1.725338 2.8782806
00000000: 60c2 2a40 e0d7 dc3f e0d7 dc3f c035 3840

S f4 [2, 2]
2.6686792 1.7267356 1.7267356 2.880413
00000000: a4cb 2a40 ac05 dd3f ac05 dd3f b058 3840

S f4 [2, 2]
2.6681137 1.725338 1.725338 2.8782806
00000000: 60c2 2a40 e0d7 dc3f e0d7 dc3f c035 3840

S f4 [2, 2]
2.6686792 1.7267356 1.7267356 2.880413
00000000: a4cb 2a40 ac05 dd3f ac05 dd3f b058 3840

S f4 [2, 2]
2.6681137 1.725338 1.725338 2.8782806
00000000: 60c2 2a40 e0d7 dc3f e0d7 dc3f c035 3840

S f4 [2, 2]
2.6686792 1.7267356 1.7267356 2.880413
00000000: a4cb 2a40 ac05 dd3f ac05 dd3f b058 3840

S f4 [2, 2]
2.6681137 1.725338 1.725338 2.8782806
00000000: 60c2 2a40 e0d7 dc3f e0d7 dc3f c035 3840

S f4 [2, 2]
2.6686792 1.7267356 1.7267356 2.880413
00000000: a4cb 2a40 ac05 dd3f ac05 dd3f b058 3840

S f4 [2, 2]
2.6681137 1.725338 1.725338 2.8782806
00000000: 60c2 2a40 e0d7 dc3f e0d7 dc3f c035 3840

S f4 [2, 2]
2.6686792 1.7267356 1.7267356 2.880413
00000000: a4cb 2a40 ac05 dd3f ac05 dd3f b058 3840

S f4 [2, 2]
2.6681137 1.725338 1.725338 2.8782806
00000000: 60c2 2a40 e0d7 dc3f e0d7 dc3f c035 3840

S f4 [2, 2]
2.6686792 1.7267356 1.7267356 2.880413
00000000: a4cb 2a40 ac05 dd3f ac05 dd3f b058 3840

S f4 [2, 2]
2.6681137 1.725338 1.725338 2.8782806
00000000: 60c2 2a40 e0d7 dc3f e0d7 dc3f c035 3840

S f4 [2, 2]
2.6686792 1.7267356 1.7267356 2.880413
00000000: a4cb 2a40 ac05 dd3f ac05 dd3f b058 3840

S f4 [2, 2]
2.6681137 1.725338 1.725338 2.8782806
00000000: 60c2 2a40 e0d7 dc3f e0d7 dc3f c035 3840

S f4 [2, 2]
2.6686792 1.7267356 1.7267356 2.880413
00000000: a4cb 2a40 ac05 dd3f ac05 dd3f b058 3840

S f4 [2, 2]
2.6681137 1.725338 1.725338 2.8782806
00000000: 60c2 2a40 e0d7 dc3f e0d7 dc3f c035 3840

S f4 [2, 2]
2.6686792 1.7267356 1.7267356 2.880413
00000000: a4cb 2a40 ac05 dd3f ac05 dd3f b058 3840

S f4 [2, 2]
2.6681137 1.725338 1.725338 2.8782806
00000000: 60c2 2a40 e0d7 dc3f e0d7 dc3f c035 3840

S f4 [2, 2]
2.6686792 1.7267356 1.7267356 2.880413
00000000: a4cb 2a40 ac05 dd3f ac05 dd3f b058 3840

S f4 [2, 2]
2.6681137 1.725338 1.725338 2.8782806
00000000: 60c2 2a40 e0d7 dc3f e0d7 dc3f c035 3840

S f4 [2, 2]
2.6686792 1.7267356 1.7267356 2.880413
00000000: a4cb 2a40 ac05 dd3f ac05 dd3f b058 3840

S f4 [2, 2]
2.6681137 1.725338 1.725338 2.8782806
00000000: 60c2 2a40 e0d7 dc3f e0d7 dc3f c035 3840

S f4 [2, 2]
2.6686792 1.7267356 1.7267356 2.880413
00000000: a4cb 2a40 ac05 dd3f ac05 dd3f b058 3840

S f4 [2, 2]
2.6681137 1.725338 1.725338 2.8782806
00000000: 60c2 2a40 e0d7 dc3f e0d7 dc3f c035 3840

S f4 [2, 2]
2.6686792 1.7267356 1.7267356 2.880413
00000000: a4cb 2a40 ac05 dd3f ac05 dd3f b058 3840

S f4 [2, 2]
2.6681137 1.725338 1.725338 2.8782806
00000000: 60c2 2a40 e0d7 dc3f e0d7 dc3f c035 3840

S f4 [2, 2]
2.6686792 1.7267356 1.7267356 2.880413
00000000: a4cb 2a40 ac05 dd3f ac05 dd3f b058 3840

S f4 [2, 2]
2.6681137 1.725338 1.725338 2.8782806
00000000: 60c2 2a40 e0d7 dc3f e0d7 dc3f c035 3840

S f4 [2, 2]
2.6686792 1.7267356 1.7267356 2.880413
00000000: a4cb 2a40 ac05 dd3f ac05 dd3f b058 3840

S f4 [2, 2]
2.6681137 1.725338 1.725338 2.8782806
00000000: 60c2 2a40 e0d7 dc3f e0d7 dc3f c035 3840

S f4 [2, 2]
2.6686792 1.7267356 1.7267356 2.880413
00000000: a4cb 2a40 ac05 dd3f ac05 dd3f b058 3840

S f4 [2, 2]
2.6681137 1.725338 1.725338 2.8782806
00000000: 60c2 2a40 e0d7 dc3f e0d7 dc3f c035 3840

S f4 [2, 2]
2.6686792 1.7267356 1.7267356 2.880413
00000000: a4cb 2a40 ac05 dd3f ac05 dd3f b058 3840

S f4 [2, 2]
2.6681137 1.725338 1.725338 2.8782806
00000000: 60c2 2a40 e0d7 dc3f e0d7 dc3f c035 3840

S f4 [2, 2]
2.6686792 1.7267356 1.7267356 2.880413
00000000: a4cb 2a40 ac05 dd3f ac05 dd3f b058 3840

S f4 [2, 2]
2.6681137 1.725338 1.725338 2.8782806
00000000: 60c2 2a40 e0d7 dc3f e0d7 dc3f c035 3840

S f4 [2, 2]
2.6686792 1.7267356 1.7267356 2.880413
00000000: a4cb 2a40 ac05 dd3f ac05 dd3f b058 3840

S f4 [2, 2]
2.6681137 1.725338 1.725338 2.8782806
00000000: 60c2 2a40 e0d7 dc3f e0d7 dc3f c035 3840

S f4 [2, 2]
2.6686792 1.7267356 1.7267356 2.880413
00000000: a4cb 2a40 ac05 dd3f ac05 dd3f b058 3840

S f4 [2, 2]
2.6681137 1.725338 1.725338 2.8782806
00000000: 60c2 2a40 e0d7 dc3f e0d7 dc3f c035 3840

S f4 [2, 2]
2.6686792 1.7267356 1.7267356 2.880413
00000000: a4cb 2a40 ac05 dd3f ac05 dd3f b058 3840

S f4 [2, 2]
2.6681137 1.725338 1.725338 2.8782806
00000000: 60c2 2a40 e0d7 dc3f e0d7 dc3f c035 3840

S f4 [2, 2]
2.6686792 1.7267356 1.7267356 2.880413
00000000: a4cb 2a40 ac05 dd3f ac05 dd3f b058 3840

S f4 [2, 2]
2.6681137 1.725338 1.725338 2.8782806
00000000: 60c2 2a40 e0d7 dc3f e0d7 dc3f c035 3840

S f4 [2, 2]
2.6686792 1.7267356 1.7267356 2.880413
00000000: a4cb 2a40 ac05 dd3f ac05 dd3f b058 3840

S f4 [2, 2]
2.6681137 1.725338 1.725338 2.8782806
00000000: 60c2 2a40 e0d7 dc3f e0d7 dc3f c035 3840

S f4 [2, 2]
2.6686792 1.7267356 1.7267356 2.880413
00000000: a4cb 2a40 ac05 dd3f ac05 dd3f b058 3840

S f4 [2, 2]
2.6681137 1.725338 1.725338 2.8782806
00000000: 60c2 2a40 e0d7 dc3f e0d7 dc3f c035 3840

S f4 [2, 2]
2.6686792 1.7267356 1.7267356 2.880413
00000000: a4cb 2a40 ac05 dd3f ac05 dd3f b058 3840

S f4 [2, 2]
2.6681137 1.725338 1.725338 2.8782806
00000000: 60c2 2a40 e0d7 dc3f e0d7 dc3f c035 3840

S f4 [2, 2]
2.6686792 1.7267356 1.7267356 2.880413
00000000: a4cb 2a40 ac05 dd3f ac05 dd3f b058 3840

S f4 [2, 2]
2.6681137 1.725338 1.725338 2.8782806
00000000: 60c2 2a40 e0d7 dc3f e0d7 dc3f c035 3840

S f4 [2, 2]
2.6686792 1.7267356 1.7267356 2.880413
00000000: a4cb 2a40 ac05 dd3f ac05 dd3f b058 3840

S f4 [2, 2]
2.6681137 1.725338 1.725338 2.8782806
00000000: 60c2 2a40 e0d7 dc3f e0d7 dc3f c035 3840

S f4 [2, 2]
2.6686792 1.7267356 1.7267356 2.880413
00000000: a4cb 2a40 ac05 dd3f ac05 dd3f b058 3840

S f4 [2, 2]
2.6681137 1.725338 1.725338 2.8782806
00000000: 60c2 2a40 e0d7 dc3f e0d7 dc3f c035 3840

S f4 [2, 2]
2.6686792 1.7267356 1.7267356 2.880413
00000000: a4cb 2a40 ac05 dd3f ac05 dd3f b058 3840

S f4 [2, 2]
2.6681137 1.725338 1.725338 2.8782806
00000000: 60c2 2a40 e0d7 dc3f e0d7 dc3f c035 3840

S f4 [2, 2]
2.6686792 1.7267356 1.7267356 2.880413
00000000: a4cb 2a40 ac05 dd3f ac05 dd3f b058 3840

S f4 [2, 2]
2.6681137 1.725338 1.725338 2.8782806
00000000: 60c2 2a40 e0d7 dc3f e0d7 dc3f c035 3840

S f4 [2, 2]
2.6686792 1.7267356 1.7267356 2.880413
00000000: a4cb 2a40 ac05 dd3f ac05 dd3f b058 3840

S f4 [2, 2]
2.6681137 1.725338 1.725338 2.8782806
00000000: 60c2 2a40 e0d7 dc3f e0d7 dc3f c035 3840

S f4 [2, 2]
2.6686792 1.7267356 1.7267356 2.880413
00000000: a4cb 2a40 ac05 dd3f ac05 dd3f b058 3840

S f4 [2, 2]
2.6681137 1.725338 1.725338 2.8782806
00000000: 60c2 2a40 e0d7 dc3f e0d7 dc3f c035 3840

S f4 [2, 2]
2.6686792 1.7267356 1.7267356 2.880413
00000000: a4cb 2a40 ac05 dd3f ac05 dd3f b058 3840

S f4 [2, 2]
2.6678572 1.7254701 1.7254701 2.8786392
00000000: 2cbe 2a40 34dc dc3f 34dc dc3f a03b 3840

S f4 [2, 2]
2.6654506 1.7234268 1.7234268 2.8778381
00000000: be96 2a40 4099 dc3f 4099 dc3f 802e 3840

S f4 [2, 2]
2.6507826 1.7078452 1.7078452 2.860798
00000000: 6ca6 2940 ac9a da3f ac9a da3f 5017 3740

S f4 [2, 2]
2.5437012 1.589042 1.589042 2.7288609
00000000: 00cc 2240 ba65 cb3f ba65 cb3f a8a5 2e40

S f4 [2, 2]
2.0 1.0 1.0 2.0908203
00000000: 0000 0040 0000 803f 0000 803f 00d0 0540

L_infinite f4 [1, 2]
0.5791709 1.545627
00000000: 8b44 143f 1bd7 c53f

weight_ih_l0 f4 [12, 10]
-0.10145352 0.016179169 -0.46408644 0.4395794 0.44535413 0.29723123 -0.08548588 0.31975695
-0.27145663 0.39860702 -0.38116333 -0.4252776 -0.0798719 0.46056744 -0.29019836 -0.30654782
0.3914444 -0.06183157 -0.14352056 0.034568246 0.3294197 -0.29056278 0.25745326 -0.07150669
-0.28782675 0.16005495 -0.33513847 -0.07550696 0.4921706 0.18546596 -0.25331488 0.20230928
0.23843929 0.42979273 -0.45106488 -0.42549318 0.22175911 0.44831017 -0.13584208 -0.26753905
0.2788801 0.1395782 -0.28136578 0.20399883 0.46136376 -0.44005245 -0.16373667 -0.4379084
0.20353815 0.053324018 -0.4903457 0.35462317 0.00827343 0.0011803146 -0.38609946 -0.22542468
0.033377253 0.35873142 0.34695914 -0.30448955 0.13551506 0.17942551 -0.04835913 0.0015358095
0.3101801 0.09572532 0.05091908 -0.08358393 -0.20443285 0.17180747 -0.026679242 -0.076490276
0.19143833 0.20507196 0.094843365 -0.32639718 0.1252512 0.11921326 0.21884444 0.366929
0.4457039 -0.015223033 -0.48322192 0.42839864 0.23073241 -0.19444713 0.47130677 0.24791703
-0.24230987 -0.12078748 0.123387955 -0.40344882 0.30625877 0.16064522 -0.14512047 0.06822284
0.3953044 -0.25823972 0.13864353 0.2773144 0.1626319 0.38222906 0.23738955 -0.11800771
-0.4692884 0.05876503 0.24796703 0.19748995 0.30257335 0.07974837 -0.41542086 0.27589902
-0.32627407 -0.11259069 -0.07511573 -0.11973029 -0.041175924 -0.15056366 -0.42965657 0.061578132
00000000: ddc6 cfbd 2d8a 843c bd9c edbe 8d10 e13e
00000010: 7505 e43e b12e 983e 3913 afbd 2fb7 a33e
00000020: 5dfc 8abe 3816 cc3e d727 c3be fcbd d9be
00000030: e193 a3bd 7fcf eb3e e194 94be d6f3 9cbe
00000040: 676b c83e 1a43 7dbd 0ef7 12be 6f97 0d3d
00000050: b3a9 a83e a5c4 94be ead0 833e 1972 92bd
00000060: 075e 93be 72e5 233e 4597 abbe 65a3 9abd
00000070: c9fd fb3e caea 3d3e 7db2 81be 2a2a 4f3e
00000080: 6e29 743e cb0d dc3e faf1 e6be 3eda d9be
00000090: d214 633e e988 e53e 301a 0bbe e1fa 88be
000000a0: 5fc9 8e3e 96ed 0e3e 2d0f 90be 12e5 503e
000000b0: df37 ec3e 8e4e e1be 96aa 27be 8835 e0be
000000c0: 4e6c 503e 496a 5a3d 970e fbbe 2b91 b53e
000000d0: 488d 073c c9b4 9a3a d4ae c5be bad5 66be
000000e0: 96b6 083d a5ab b73e a1a4 b13e 0ee6 9bbe
000000f0: 76c4 0a3e 52bb 373e 3914 46bd 374d c93a
00000100: edcf 9e3e a30b c43d 8690 503d 0d2e abbd
00000110: d856 51be 4cee 2f3e 6d8e dabc efa6 9cbd
00000120: 6908 443e 62fe 513e 3d3d c23d 881d a7be
00000130: da41 003e 1526 f43d c218 603e 1ede bb3e
00000140: 4d33 e43e 076a 79bc dd68 f7be 1157 db3e
00000150: 1e45 6c3e 261d 47be 1f4f f13e f6dd 7d3e
00000160: 1420 78be 6d5f f7bd d3b2 fc3d d890 cebe
00000170: f3cd 9c3e 2e80 243e 769a 14be 6bb8 8b3d
00000180: 5765 ca3e ff37 84be 92f8 0d3e 27fc 8d3e
00000190: fa88 263e 87b3 c33e 3f16 733e 07ae f1bd
000001a0: 9246 f0be 9ab3 703d 12eb 7d3e ce3a 4a3e
000001b0: e5ea 9a3e 1d53 a33d 0bb2 d4be a342 8d3e
000001c0: 650d a7be f395 e6bd 47d6 99bd 2735 f5bd
000001d0: 16a8 28bd 5c2d 1abe f2fb dbbe 5a39 7c3d

weight_hh_l0 f4 [12, 4]
0.47174123 0.29046932 -0.03045919 -0.16950017 -0.16502053 -0.12122562 0.2634841 0.13998583
-0.3902386 -0.14114693 -0.29400906 0.037984826 0.108755134 -0.04120756 -0.034560762 0.39924428
0.45174024 -0.33177277 0.19823971 -0.39823827 0.30310664 0.32584974 0.42138633 0.349309
-0.17046309 0.026275968 -0.33447015 0.24939534 -0.21353576 -0.22097701 -0.32576704 0.42991385
-0.35772082 0.33375838 -0.49020094 0.25026277 0.26963618 -0.3494669 -0.37209573 -0.3485292
0.25162688 -0.40298456 0.44969454 -0.33414993 -0.49312395 -0.4600099 0.348456 0.10615673
00000000: 1188 f13e 65b8 943e 8d85 f9bc 7491 2dbe
00000010: 24fb 28be 2345 f8bd 63e7 863e 7258 0f3e
00000020: 5bcd c7be d288 10be 5b88 96be fa95 1b3d
00000030: 03bb de3d 42c9 28bd 968f 0dbd bf69 cc3e
00000040: 7f4a e73e 1fde a9be 5aff 4a3e e3e5 cbbe
00000050: cb30 9b3e c7d5 a63e f3bf d73e a1d8 b23e
00000060: e08d 2ebe b340 d73c ac3f abbe 7e61 7f3e
00000070: 1ea9 5abe cc47 62be f0ca a6be ab1d dc3e
00000080: 2f27 b7be 61e2 aa3e 9efb fabe 7122 803e
00000090: c10d 8a3e 53ed b2be 5583 bebe 6b72 b2be
000000a0: 3dd5 803e fe53 cebe 5d3e e63e b315 abbe
000000b0: be7a fcbe 6b86 ebbe d368 b23e b368 d93d

bias_ih_l0 f4 [12]
-0.48105058 0.27384713 0.36454836 0.30919084 0.16606101 -0.13524756 -0.13580507 0.06756755
-0.23685092 0.22862646 -0.4790356 0.28145745
00000000: 434c f6be b135 8c3e 15a6 ba3e 434e 9e3e
00000010: e60b 2a3e 567e 0abe 7c10 0bbe db60 8a3d
00000020: 0c89 72be 0e1d 6a3e 2744 f5be 311b 903e

bias_hh_l0 f4 [12]
0.28686777 -0.365094 -0.28154007 0.31879374 0.19639769 0.22993186 -0.26674533 0.40232953
-0.11050216 0.11820469 0.0017085437 -0.2665439
00000000: 55e0 923e 9aed babe 0526 90be ef38 a33e
00000010: 7a1c 493e 4273 6b3e d892 88be 23fe cd3e
00000020: f54e e2bd 4d15 f23d 37f1 df3a 7178 88be

weight_ih_l0 f4 [12, 14]
-0.050173797 0.3429804 0.412661 -0.29960778 -0.2913599 0.06233313 0.40171906 0.031108344
-0.37823182 0.19502065 -0.13727239 0.12199821 0.062426172 -0.07843645 -0.4269075 0.18792889
-0.33087835 -0.41391614 0.19203553 -0.46770895 0.3341718 0.26726905 0.367955 -0.1806877
-0.46383724 -0.06806796 0.39329675 -0.4284102 0.08934549 0.06523297 0.4196724 -0.3132256
-0.20159149 0.41639033 -0.47010365 0.3088846 0.19031027 -0.05166214 0.24944809 -0.1054282
0.27766356 0.071681194 -0.2265873 -0.39477596 -0.061463125 0.040152572 0.41762337 -0.20327324
-0.2579652 0.058158614 0.18443707 0.37073585 0.02315942 -0.16936734 0.23739526 0.17477243
-0.1064331 0.34405044 0.22920284 -0.27416506 0.39198938 0.3288251 -0.14053717 -0.3784751
0.3303201 0.30468985 -0.2870122 -0.4486314 -0.40605038 0.4207643 0.4494491 -0.03577707
-0.0526016 0.20636776 -0.36406824 -0.42891297 -0.07084129 -0.4384614 -0.1998078 0.30981782
0.48506775 -0.040929236 0.19330058 -0.13814065 0.22343275 0.1820012 0.4559168 0.1563079
0.24159607 0.3160359 -0.17018792 0.3963534 -0.015099906 -0.34670076 0.1908991 -0.12049348
-0.47364104 -0.2723041 0.34339723 -0.46946302 -0.44568294 0.31043383 0.35917065 0.1886917
-0.1529041 -0.27477226 -0.39409068 -0.2726745 0.11696855 0.35720214 -0.49104702 -0.033519704
-0.4176654 0.12924597 -0.16455308 0.3811405 0.0078028077 0.4862369 0.094435215 0.32281712
0.23078582 -0.46411932 -0.22276005 -0.32787633 -0.19482222 0.42491114 -0.41218072 0.4520183
-0.18068326 0.31299075 0.33117023 -0.446906 0.20198749 0.3836728 -0.04731249 0.48171368
-0.07869693 0.3909159 0.43316916 0.24814405 -0.13348013 0.08748951 0.46985957 -0.37751535
-0.1681985 0.33147767 -0.44017106 0.42072746 0.17124024 0.42900464 -0.019681191 0.22621205
-0.3291686 0.053000882 -0.40223184 0.45025292 0.48841003 0.24545267 0.07892612 -0.3578916
0.467083 0.10268561 -0.4762081 0.12151549 0.002900577 0.44355848 0.31623265 -0.41690776
00000000: 0a83 4dbd 219b af3e 4d48 d33e 3166 99be
00000010: 202d 95be 0651 7f3d 1fae cd3e edd6 fe3c
00000020: 9aa7 c1be 7eb3 473e 2291 0cbe 33da f93d
00000030: 96b2 7f3d 4aa3 a0bd 9f93 dabe 6e70 403e
00000040: e368 a9be d1ec d3be f6a4 443e 8c77 efbe
00000050: 9118 ab3e 7dd7 883e 9964 bc3e 3206 39be
00000060: 137c edbe 3767 8bbd 315e c93e 9558 dbbe
00000070: c5fa b63d dd98 853d 4ddf d63e 1b5f a0be
00000080: 006e 4ebe 1d31 d53e 6db1 f0be 1f26 9e3e
00000090: b2e0 423e ae9b 53bd 526f 7f3e bdea d7bd
000000a0: eb29 8e3e 97cd 923d 8006 68be 1320 cabe
000000b0: c2c0 7bbd 0677 243d bbd2 d53e dc26 50be
000000c0: 0414 84be ba37 6e3d 12dd 3c3e 17d1 bd3e
000000d0: d3b8 bd3c a26e 2dbe be17 733e 8bf7 323e
000000e0: 99f9 d9bd 6127 b03e 26b4 6a3e 5d5f 8cbe
000000f0: d5b2 c83e c35b a83e fae8 0fbe 7dc7 c1be
00000100: b71f a93e 4f00 9c3e 43f3 92be 04b3 e5be
00000110: d6e5 cfbe 6b6e d73e 311e e63e fa8a 12bd
00000120: c674 57bd 1252 533e 2767 babe 7b9a dbbe
00000130: 3d15 91bd 037e e0be 6a9a 4cbe 71a0 9e3e
00000140: cd5a f83e 6aa5 27bd 96f0 453e be74 0dbe
00000150: 8ecb 643e 865e 3a3e ed6d e93e 2e0f 203e
00000160: f664 773e 75cf a13e be45 2ebe d5ee ca3e
00000170: 9965 77bc c382 b1be 0e7b 433e 49c5 f6bd
00000180: 1481 f2be 716b 8bbe c3d1 af3e 755d f0be
00000190: 8e30 e4be 2ff1 9e3e 37e5 b73e 6638 413e
000001a0: e492 1cbe f3ae 8cbe 41c6 c9be fe9b 8bbe
000001b0: 358d ef3d 33e3 b63e 846a fbbe f54b 09bd
000001c0: 3dd8 d5be 0e59 043e 9a80 28be d924 c33e
000001d0: b2ae ff3b 0bf4 f83e 4067 c13d 4948 a53e
000001e0: 1e53 6c3e 0ca1 edbe 361b 64be 68df a7be
000001f0: 7a7f 47be f48d d93e 5a09 d3be f16e e73e
00000200: 0805 39be 5340 a03e 258f a93e ddd0 e4be
00000210: cfd5 4e3e c370 c43e beca 41bd 2da3 f63e
00000220: db2b a1bd 2126 c83e 59c8 dd3e 7919 7e3e
00000230: 04af 08be b32d b33d 6f91 f03e b149 c1be
00000240: 3a3c 2cbe 71b7 a93e 1a5e e1be 9769 d73e
00000250: 9a59 2f3e 7fa6 db3e 733a a1bc 22a4 673e
00000260: c988 a8be 7417 593d 55f1 cdbe 8d87 e63e
00000270: e110 fa3e f257 7b3e 05a4 a13d 913d b7be
00000280: 8125 ef3e d54c d23d 8cd1 f3be 1ddd f83d
00000290: 9b17 3e3b 191a e33e 3fe9 a13e ef74 d5be

weight_hh_l0 f4 [12, 4]
0.21411231 -0.44480821 0.07115267 -0.23642331 -0.036005072 0.11668237 -0.3353265 -0.31157357
0.36109462 -0.29390773 -1.3906468e-05 -0.4430336 -0.3161374 0.46036842 -0.29713544 -0.15913603
-0.27864727 -0.32465622 -0.26933113 -0.3602222 0.38863358 0.4971901 -0.200572 0.0063979393
-0.42082813 -0.0279037 -0.2569941 0.2961891 0.43273923 0.47151223 0.00047155103 -0.14901641
-0.3283439 0.22019276 0.4555664 -0.26656285 0.3433875 0.11859957 0.17376864 0.120337985
0.23211232 0.25665125 0.13348095 0.47255883 -0.26710722 0.38863763 0.45929262 0.3178676
00000000: 4240 5b3e e7bd e3be 7eb8 913d f418 72be
00000010: 0e7a 13bd 2bf7 ee3d eaaf abbe 9286 9fbe
00000020: 65e1 b83e 137b 96be d34f 69b7 4dd5 e2be
00000030: c3dc a1be 69b5 eb3e 2322 98be 8ef4 22be
00000040: dbaa 8ebe 5739 a6be c5e5 89be 0b6f b8be
00000050: fbfa c63e b38f fe3e bf62 4dbe cea5 d13b
00000060: c976 d7be 4d96 e4bc bb94 83be 19a6 973e
00000070: ff8f dd3e 0d6a f13e 823a f739 c297 18be
00000080: b11c a8be 367a 613e 0040 e93e ed7a 88be
00000090: 7dd0 af3e 55e4 f23d 68f0 313e c373 f63d
000000a0: daae 6d3e cb67 833e 3baf 083e 3bf3 f13e
000000b0: 47c2 88be 83fb c63e 6728 eb3e 8bbf a23e

bias_ih_l0 f4 [12]
0.15848306 -0.41693795 -0.14417338 -0.48597142 -0.09937719 -0.19496328 -0.30776194 -0.31649563
0.13985118 -0.17919964 0.31146362 -0.16615722
00000000: 6249 223e e478 d5be 30a2 13be 3fd1 f8be
00000010: 4586 cbbd 74a4 47be f992 9dbe b70b a2be
00000020: 2635 0f3e 1c80 37be 2978 9f3e 1e25 2abe

bias_hh_l0 f4 [12]
-0.2513749 0.24147382 0.28699306 0.12183378 -0.12962222 0.033191822 0.31334075 -0.38719815
-0.021779662 -0.47578806 -0.23984352 0.4494438
00000000: 36b4 80be ea44 773e c1f0 923e fd83 f93d
00000010: b0bb 04be 26f4 073d 336e a03e d63e c6be
00000020: 436b b2bc 7e9a f3be 8a99 75be 7f1d e63e

weight_ih_l0 f4 [12, 24]
0.34217182 0.06793883 0.4654406 -0.14238751 -0.44900694 -0.25379768 0.17745724 -0.27788824
-0.16942012 -0.16994846 0.07233075 0.4554548 -0.20565638 -0.47443014 -0.25776386 0.3404092
0.41589507 0.3459399 0.08284972 0.062113367 -0.12323334 0.28846404 -0.39214334 -0.34561667
0.21756914 -0.14934886 0.060650267 -0.38150933 0.14570013 -0.16237536 -0.248225 0.29729053
-0.17745265 -0.083020516 -0.4814797 0.09879299 -0.20167282 -0.46701872 0.24719515 -0.20314524
-0.09324431 -0.12646943 -0.46779945 0.49023566 0.05803231 -0.3521341 -0.031742983 0.090397336
-0.3478332 -0.19580597 0.12172326 -0.13631514 -0.16524646 0.08972552 0.21380088 0.019330883
-0.11166371 0.4049088 -0.4877728 -0.0041088527 0.37506947 -0.41112354 0.31611636 0.0250906
0.3088816 0.4372473 -0.28732783 0.11474528 0.24204859 0.3484821 0.10797318 -0.3424618
0.36847737 -0.23970559 0.34447166 0.33610347 -0.015275366 -0.01879198 -0.07394641 -0.11323374
0.07512698 -0.19548628 -0.0818016 -0.48141813 0.46724907 0.33724752 0.48627135 -0.13984653
0.28432927 0.3810694 0.16033015 -0.40684146 -0.33328795 0.3214887 -0.062142067 0.04387518
0.20294032 -0.24640998 0.29472175 -0.46100962 -0.37926936 -0.46192613 -0.0043206876 0.14493302
-0.25671527 -0.39453736 -0.13482797 -0.18254605 -0.019023245 0.24059168 0.2954143 0.059137203
0.31821248 -0.45139018 0.4055232 -0.028041935 0.103822075 0.2017586 -0.039945073 0.24619326
0.07087853 0.45607468 -0.082236744 0.085089765 0.14434078 -0.42070717 0.45715818 0.42914537
-0.07739074 -0.21213445 0.08677795 0.38705358 -0.2620672 0.30419692 -0.006800241 -0.39923218
0.13490114 0.039693974 -0.11216963 -0.29384804 0.0052308673 -0.3327665 0.04447063 -0.03549335
0.0951185 0.31117985 -0.14521614 -0.27830085 -0.004798525 -0.45503548 -0.0079332525 0.07884029
-0.009918368 -0.47084638 0.23376402 -0.32114002 0.17942765 0.022421146 -0.26638803 0.29883024
-0.03574627 -0.2182537 0.22227082 0.19300649 -0.048467778 0.1259642 0.4353799 -0.16736713
0.04928579 0.019120788 0.36614916 0.12903789 0.084519126 -0.49797603 0.34340772 0.33894935
0.3012838 0.17359397 -0.35845527 0.10807022 0.07618471 -0.45270887 -0.29830295 0.30797574
0.40515772 0.044688784 0.106789075 0.22444478 -0.4888165 -0.20356688 -0.072030194 -0.25182137
-0.38251162 0.28117684 0.5003845 0.19847807 -0.08964779 0.20161459 -0.10858335 0.19957128
-0.08353648 -0.11452953 -0.22666377 0.19471273 0.108173706 -0.1753692 -0.3983738 -0.30014828
0.30974516 -0.41508582 -0.46127763 0.41755435 0.11758546 -0.032602124 -0.33707586 -0.15857148
-0.28979298 -0.19933715 -0.2539665 -0.07574133 0.1437513 -0.34470472 -0.48380917 -0.42911044
-0.32839802 0.2864615 -0.3286539 0.40228173 0.31595388 -0.4924756 -0.23933035 0.3028908
-0.15629312 0.36328468 -0.47842622 0.32793173 0.32224432 -0.19704583 0.29102078 -0.31369895
0.14296404 0.40471086 0.2320849 -0.12250172 -0.043382667 0.45532623 0.22057155 0.41005787
-0.41172373 0.005030847 -0.2991847 0.4681382 -0.37841967 -0.17007917 -0.3911002 -0.17731765
00000000: 2531 af3e 8323 8b3d 3b4e ee3e 08ce 11be
00000010: 3de4 e5be c5f1 81be 5ab7 353e 5e47 8ebe
00000020: 787c 2dbe f806 2ebe 2522 943d 5f31 e93e
00000030: 9697 52be 82e8 f2be a0f9 83be 1d4a ae3e
00000040: 33f0 d43e 091f b13e 1dad a93d 966a 7e3d
00000050: c361 fcbd 8fb1 933e 03c7 c8be abf4 b0be
00000060: 72ca 5e3e e8ee 18be 6a6c 783d 3155 c3be
00000070: 6a32 153e ba45 26be b22e 7ebe 7736 983e
00000080: 26b6 35be a906 aabd 8284 f6be fb53 ca3d
00000090: 5283 4ebe 141d efbe ba20 7d3e 4e05 50be
000000a0: dff6 bebd 3481 01be 6983 efbe 2b00 fb3e
000000b0: 4ab3 6d3d ec4a b4be ee04 02bd 3d22 b93d
000000c0: 3117 b2be 5c81 48be 0b4a f93d 3296 0bbe
000000d0: 5e36 29be 03c2 b73d 9eee 5a3e cd5b 9e3c
000000e0: f1af e4bd 3550 cf3e 5bbd f9be 8ea3 86bb
000000f0: 1b09 c03e c97e d2be 01da a13e cd8a cd3c
00000100: bb25 9e3e e1de df3e a21c 93be 93ff ea3d
00000110: 96db 773e 3f6c b23e 0b21 dd3d 2757 afbe
00000120: 11a9 bc3e 6275 75be 975e b03e c115 ac3e
00000130: 8745 7abc a3f1 99bc 3771 97bd 17e7 e7bd
00000140: 2ddc 993d 8e2d 48be 9987 a7bd 707c f6be
00000150: 453b ef3e b5ab ac3e 8ff8 f83e ee33 0fbe
00000160: 9b93 913e 871b c33e 962d 243e 864d d0be
00000170: b8a4 aabe 2b9a a43e ae88 7ebd 76b6 333d
00000180: 96cf 4f3e e652 7cbe c5e5 963e 7409 ecbe
00000190: 982f c2be 9581 ecbe 8e94 8dbb 5269 143e
000001a0: 2f70 83be cd00 cabe 5810 0abe 5aed 3abe
000001b0: a3d6 9bbc aa5d 763e 8b40 973e da39 723d
000001c0: bfec a23e 9d1c e7be bda0 cf3e 33b8 e5bc
000001d0: aba0 d43d ce99 4e3e 729d 23bd 161a 7c3e
000001e0: c328 913d 9f82 e93e bd6b a8bd 8b43 ae3d
000001f0: 12ce 133e ee66 d7be a310 ea3e f1b8 db3e
00000200: 097f 9ebd c639 59be a3b8 b13d e32b c63e
00000210: ac2d 86be b3bf 9b3e 8ed4 debb 2968 ccbe
00000220: 8623 0a3e 2696 223d 31b9 e5bd 4073 96be
00000230: b267 ab3b 5f60 aabe d626 363d 7a61 11bd
00000240: 7dcd c23d f752 9f3e 8ab3 14be 737d 8ebe
00000250: f23c 9dbb 69fa e8be 79fa 01bc 0577 a13d
00000260: a780 22bc c712 f1be d65f 6f3e 776c a4be
00000270: e2bb 373e 8dac b73c 0364 88be 4700 993e
00000280: ae6a 12bd e67d 5fbe f69a 633e 7ea3 453e
00000290: 2686 46bd c2fc 003e 1dea de3e 4a62 2bbe
000002a0: e6df 493d 33a3 9c3c e777 bb3e 8222 043e
000002b0: 5d18 ad3d b7f6 febe 23d3 af3e c58a ad3e
000002c0: df41 9a3e 9ec2 313e 7387 b7be eb53 dd3d
000002d0: bb06 9c3d 75c9 e7be 2abb 98be ffae 9d3e
000002e0: d570 cf3e 960b 373d 3bb4 da3d dad4 653e
000002f0: 2846 fabe d673 50be 9184 93bd bbee 80be
00000300: 90d8 c3be 69f6 8f3e 3319 003f d63d 4b3e
00000310: 4399 b7bd 0e74 4e3e f360 debd 6a5c 4c3e
00000320: 2d15 abbd 758e eabd 8c1a 68be c662 473e
00000330: 2d8a dd3d fc93 33be a7f7 cbbe 09ad 99be
00000340: eb96 9e3e 2186 d4be 952c ecbe afc9 d53e
00000350: a5d0 f03d ce89 05bd 3595 acbe 9060 22be
00000360: bf5f 94be 0a1f 4cbe e607 82be 451e 9bbd
00000370: 8a33 133e 237d b0be d6b5 f7be 5db4 dbbe
00000380: c923 a8be 15ab 923e 5345 a8be dff7 cd3e
00000390: b5c4 a13e c325 fcbe 0413 75be 8114 9b3e
000003a0: 4e0b 20be 7300 ba3e 48f4 f4be abe6 a73e
000003b0: 35fd a43e 62c6 49be ad00 953e 269d a0be
000003c0: 2a65 123e 4336 cf3e aaa7 6d3e 2fe2 fabd
000003d0: 06b2 31bd 8520 e93e 82dd 613e 1bf3 d13e
000003e0: 74cd d2be ced9 a43b bd2e 99be cfaf ef3e
000003f0: 39c0 c1be 3c29 2ebe 493e c8be c292 35be

weight_hh_l0 f4 [12, 4]
0.12825242 -0.4734727 0.17252812 -0.08934302 0.049185954 -0.057971336 -0.055320926 -0.37883523
-0.0002335544 0.4795557 0.3945481 -0.4252948 -0.4699265 0.12312456 0.3217362 0.07328942
0.3573986 0.17890987 -0.04401719 0.49504265 -0.29637107 -0.40101746 0.09771607 -0.15596637
0.28158054 -0.42444178 0.2006515 0.109430276 0.17431453 -0.25884143 0.2706515 -0.020496065
-0.038640894 -0.11469532 0.46326974 0.12668619 -0.33053097 0.36676326 0.21185693 0.46120045
0.22645667 -0.30544043 0.20186505 0.43844435 -0.016273862 0.4120644 0.24114582 0.38224104
00000000: 9a54 033e 046b f2be 36ab 303e 79f9 b6bd
00000010: 3677 493d 5a73 6dbd 3298 62bd b1f6 c1be
00000020: 48e6 74b9 5388 f53e 3502 ca3e 3dc0 d9be
00000030: 359a f0be bb28 fc3d 9bba a43e c318 963d
00000040: f3fc b63e 2634 373e 5e4b 34bd 3b76 fd3e
00000050: f3bd 97be 2952 cdbe 5d1f c83d a6b5 1fbe
00000060: 532b 903e 6f50 d9be 9677 4d3e fb1c e03d
00000070: 827f 323e dd86 84be d592 8a3e 5de7 a7bc
00000080: ea45 1ebd 61e5 eabd b131 ed3e 06ba 013e
00000090: 5b3b a9be 65c8 bb3e 06f1 583e 7722 ec3e
000000a0: 42e4 673e b062 9cbe b6b5 4e3e c77b e03e
000000b0: c350 85bc 1bfa d23e eeee 763e 19b5 c33e

bias_ih_l0 f4 [12]
0.1461545 -0.111094646 0.41943005 0.46258393 0.059775375 -0.082406916 -0.23454106 0.32280877
-0.313115 0.36080608 -0.24529508 0.30517897
00000000: 86a9 153e 9785 e3bd 89bf d63e cdd7 ec3e
00000010: 06d7 743d f5c4 a8bd 882b 70be 3147 a53e
00000020: 9c50 a0be 93bb b83e a22e 7bbe 6b40 9c3e

bias_hh_l0 f4 [12]
-0.1445288 -0.0055632824 0.00038715563 -0.43882763 0.12062403 0.41649213 0.38060895 -0.28641456
0.37864903 -0.48839617 0.20697 -0.46966878
00000000: 5cff 13be 324c b6bb 26fb ca39 04ae e0be
00000010: bb09 f73d 753e d53e 2ddf c23e eea4 92be
00000020: 49de c13e 100f fabe f2ef 533e 6d78 f0be

weight f4 [4, 4]
0.13585958 0.13280001 0.021161461 0.46198115 0.3036498 -0.080977194 -0.18069148 0.18708017
-0.061752416 -0.14306095 -0.21058273 -0.002748138 0.49059448 0.42027232 -0.4669629 0.4985744
00000000: c61e 0b3e bafc 073e cd5a ad3c cb88 ec3e
00000010: fd77 9b3e 5fd7 a5bd 3007 39be f291 3f3e
00000020: 1af0 7cbd 927e 12be 00a3 57be 1b1a 34bb
00000030: 332f fb3e ef2d d73e c315 efbe 2545 ff3e

bias f4 [4]
0.084021844 0.108775236 0.43798026 0.22491226
00000000: a513 ac3d 8dc5 de3d f33e e03e 664f 663e

weight f4 [320, 8]
-0.04674253 -0.021893457 0.33643824 -0.07017529 0.1736105 -0.14903128 0.0013563858 -0.11481261
0.047560975 -0.107712686 -0.20567808 0.23944502 -0.09635643 0.13033037 -0.34306088 -0.21460773
0.07181316 0.20248017 0.22878274 0.26890054 0.33050075 0.12582237 -0.07557032 0.012912729
-0.27164376 0.31247792 -0.1597066 -0.3142432 -0.02959529 -0.13010047 -0.12803413 0.14150903
0.29222685 0.18424723 -0.3336423 -0.10556982 -0.029066985 0.10546994 -0.1848364 -0.26492545
0.043025967 0.23474193 0.16058235 0.05518804 -5.8082875e-05 -0.33988965 0.0070619667 0.11688122
0.10015691 -0.28666314 0.17362252 0.26993045 0.24312186 -0.06913839 0.309561 0.25349107
-0.11436386 0.22847064 -0.24115415 -0.29240668 0.111233465 -0.32060382 -0.291909 -0.10597986
0.10248857 -0.10389698 0.0014031148 0.27008638 0.23856774 0.012595708 0.29315317 -0.10192071
0.30304417 -0.251298 0.31775507 0.14980452 0.2931999 -0.0049636886 -0.23224957 0.17384149
0.18544884 0.26204997 -0.10546919 0.074379504 -0.13030766 0.21684225 -0.101625055 -0.32289416
0.17027052 -0.17504643 -0.3194253 0.20256855 0.06449358 0.34058502 0.106675036 0.10007783
0.22373371 0.019083977 0.24139005 0.1506074 0.07976791 0.15499018 -0.12923951 -0.08559638
0.01583654 -0.31796813 -0.20083097 -0.2526983 -0.20029613 0.14109509 0.10028989 -0.031691197
-0.013881642 0.13338706 -0.19147831 -0.0784422 -0.25297022 -0.33200428 0.29186386 0.27746245
0.06582475 0.24104698 -0.34158552 0.32041606 -0.20582967 -0.025580162 0.117294624 -0.08466165
0.18599346 0.14027108 -0.3352041 0.0588195 -0.046901725 0.27137446 -0.021811914 0.093123734
-0.012555449 -0.0779709 -0.22793655 -0.29858533 0.35039544 0.088138685 -0.13851787 0.109686
0.11428443 0.23918588 0.2710555 0.2713039 -0.1441965 0.30403516 -0.15873908 0.07829381
-0.24538878 0.17208858 -0.25900838 -0.3270605 0.30805972 0.33310255 0.18820624 0.016224375
-0.12943906 0.08424006 -0.065147944 -0.2044697 -0.08709538 -0.05522473 0.07544686 -0.13835043
0.0086337095 0.30257323 0.08221983 0.2859316 0.228325 -0.16042183 0.22981042 0.16878675
0.122292146 -0.29368243 -0.3072309 -0.10674947 0.26440406 -0.32682544 -0.14765559 -0.018665649
-0.13783228 -0.21996078 0.11690043 -0.20824262 0.14228998 0.30722678 0.08852782 -0.020818502
-0.0935056 0.11129011 0.2551072 -0.1456706 0.23215175 0.008747608 -0.3065204 -0.3033799
0.15780489 -0.3102576 0.23189461 0.22281104 -0.08365638 0.25826177 -0.22453976 0.33255208
-0.27115557 0.016739558 -0.19565745 0.27558184 -0.30198696 -0.2795588 -0.22577065 -0.14250086
-0.11037406 0.04938231 -0.20195125 -0.229961 0.24735862 0.18978368 0.29647276 -0.15658875
0.06250383 -0.04092496 -0.047221363 0.058211133 0.0865081 -0.26295 -0.17103305 0.15957569
-0.019484477 0.3375688 -0.2551955 0.21507043 0.16644578 -0.21453765 0.30615488 0.34920138
-0.22316107 0.14187282 -0.07162337 -0.30193704 -0.090874605 0.26382574 -0.24651986 -0.05976226
0.16788724 0.047216494 0.006253484 0.16551313 -0.12017412 0.33695823 0.21091147 -0.13896498
00000000: 1875 3fbd e859 b3bc a241 ac3e 10b8 8fbd
00000010: f3c6 313e a89b 18be c1c8 b13a e022 ebbd
00000020: 4ccf 423d 7898 dcbd 469d 52be 1331 753e
00000030: 8556 c5bd 5375 053e ada5 afbe 21c2 5bbe
00000040: c712 933d f656 4f3e 0646 6a3e 55ad 893e
00000050: 6537 a93e 94d7 003e 9dc4 9abd e98f 533c
00000060: e414 8bbe 1bfd 9f3e 208a 23be 7ce4 a0be
00000070: d271 f2bc 0f39 05be 611b 03be bee7 103e
00000080: c29e 953e 4eab 3c3e 2ad3 aabe fd34 d8bd
00000090: e31d eebc a000 d83d c145 3dbe 4fa4 87be
000000a0: ff3b 303d 3060 703e b36f 243e db0c 623d
000000b0: 039e 73b8 0406 aebe 1268 e73b 6c5f ef3d
000000c0: 111f cd3d 83c5 92be 1aca 313e 5334 8a3e
000000d0: f0f4 783e 6e98 8dbd c87e 9e3e 95c9 813e
000000e0: 9937 eabd 35f4 693e 1df1 76be 54b6 95be
000000f0: 5fce e33d 2f26 a4be 1975 95be f80b d9bd
00000100: 87e5 d13d f1c7 d4bd b8e8 b73a c348 8a3e
00000110: 1a4b 743e 3a5e 4e3c 2c18 963e cebb d0bd
00000120: 9b28 9b3e 22aa 80be cbb0 a23e 5b66 193e
00000130: 4c1e 963e 70a6 a2bb d5d2 6dbe 8103 323e
00000140: 4de6 3d3e 6a2b 863e 3b00 d8bd 4854 983d
00000150: 5f6f 05be e50b 5e3e cc20 d0bd 6252 a5be
00000160: 655b 2e3e 5f3f 33be b78b a3be 216e 4f3e
00000170: 3615 843d 2961 ae3e 7178 da3d 9bf5 cc3d
00000180: 731a 653e 0056 9c3c f42e 773e d438 1a3e
00000190: 5c5d a33d bfb5 1e3e 5d57 04be 284d afbd
000001a0: a2bb 813c b8cc a2be a2a6 4dbe ac61 81be
000001b0: 6e1a 4dbe 3b7b 103e c964 cd3d a1ce 01bd
000001c0: d46f 63bc 9e96 083e e412 44be 4ea6 a0bd
000001d0: 5085 81be 77fc a9be 2e6f 953e 8f0f 8e3e
000001e0: 20cf 863d 05d5 763e 4ce4 aebe 930d a43e
000001f0: 03c5 52be 7d8d d1bc 2a38 f03d 1663 adbd
00000200: 1275 3e3e 39a3 0f3e df9f abbe b7ec 703d
00000210: 061c 40bd 98f1 8a3e e6ae b2bc a8b7 be3d
00000220: 5fb5 4dbc 35af 9fbd 3368 69be 2de0 98be
00000230: 0867 b33e 0e82 b43d a1d7 0dbe 0ea3 e03d
00000240: f50d ea3d 25ed 743e c9c7 8a3e 58e8 8a3e
00000250: 3fa8 13be 7faa 9b3e 7f8c 22be 8158 a03d
00000260: 3247 7bbe fd37 303e bf9c 84be 7974 a7be
00000270: 01ba 9d3e 6b8c aa3e 23b9 403e fbe8 843c
00000280: ac8b 04be 0d86 ac3d 496c 85bd 8160 51be
00000290: 105f b2bd 5433 62bd e283 9a3d bcab 0dbe
000002a0: 6774 0d3c e1ea 9a3e df62 a83d a065 923e
000002b0: 07ce 693e 9f45 24be 6c53 6b3e 6fd6 2c3e
000002c0: 4e74 fa3d 8b5d 96be 5e4d 9dbe 779f dabd
000002d0: f85f 873e aa55 a7be 0733 17be b4e8 98bc
000002e0: e823 0dbe 663d 61be 7e69 ef3d 8e3d 55be
000002f0: 77b4 113e d44c 9d3e 134e b53d 908b aabc
00000300: dd7f bfbd 12ec e33d 699d 823e ac2a 15be
00000310: 30b9 6d3e 2152 0f3c 3ef0 9cbe 9c54 9bbe
00000320: 9b97 213e 16da 9ebe c875 6d3e 9428 643e
00000330: 0954 abbd e33a 843e c0ed 65be 4444 aa3e
00000340: e7d4 8abe 6621 893c 6d5a 48be 1019 8d3e
00000350: 099e 9abe 5522 8fbe 6c30 67be bfeb 11be
00000360: cc0b e2bd 1b45 4a3d 4fcc 4ebe e57a 6bbe
00000370: 944b 7d3e a756 423e 47cb 973e cd58 20be
00000380: 0202 803d eea0 27bd 306b 41bd cc6e 6e3d
00000390: 292b b13d 62a1 86be 4a23 2fbe cf67 233e
000003a0: e99d 9fbc d1d5 ac3e fca8 82be 6c3b 5c3e
000003b0: c370 2a3e c2af 5bbe 55c0 9c3e 86ca b23e
000003c0: 5684 64be 1c47 113e 46af 92bd 7e97 9abe
000003d0: 771c babd 2b14 873e b46f 7cbe 46c9 74bd
000003e0: a2ea 2b3e 1566 413d 07ea cc3b 467c 293e
000003f0: d91d f6bd ca85 ac3e 2df9 573e d64c 0ebe

bias f4 [320]
-0.26917636 0.28598687 0.12567529 -0.20664993 -0.14209011 -0.34190905 0.07510776 -0.32565102
-0.29050425 0.1119691 0.32749495 0.25979125 0.009523809 -0.16697764 0.054795694 -0.3357598
-0.32329458 -0.05893837 0.05465442 -0.14475457 -0.32112658 -0.32832494 0.25041002 -0.15768348
-0.21743928 0.10737877 0.12699078 -0.1585157 0.34137475 0.27653703 0.30886525 0.037232343
0.013450143 0.31722078 0.0069148527 -0.13038403 0.0668458 0.12080141 0.16198501 -0.31456214
0.031443305 0.17387417 0.17503755 -0.32132366 0.1461324 0.103899285 0.11920114 -0.055991527
-0.08573146 -0.13481069 -0.06942095 -0.26538238 -0.020591043 0.32282585 -0.12773225 -0.12805264
0.25028697 0.08969154 0.32871267 0.31165037 -0.25436443 0.052312065 -0.13323459 -0.25182745
-0.3131315 -0.18010081 0.18407734 0.32685274 0.16027784 0.05420031 -0.13857684 -0.20840557
0.2633353 -0.24114707 -0.0673968 -0.20415242 0.20022988 -0.2465422 0.20208043 -0.26955667
-0.030756442 0.33133936 0.27083144 0.21964021 0.22043914 0.08629682 -0.09229554 -0.19126815
0.05703018 -0.16210791 0.22400741 -0.089637674 -0.20284218 0.09707318 0.11123159 -0.27944008
-0.33507586 0.32344186 0.34140304 -0.30043367 -0.0037697311 -0.04589833 0.114851326 0.17378777
0.10960893 -0.3116018 0.003466506 -0.15727325 -0.18798326 -0.17565696 0.005125171 -0.15849818
0.33076358 0.043056894 -0.23148838 -0.2738455 0.32513484 0.014783037 0.117198765 0.24612413
0.29704568 -0.12288565 -0.23008463 0.19780241 -0.22508676 -0.24526374 -0.2487403 -0.12692311
-0.07857396 0.12716278 -0.12882939 0.10528886 -0.31335896 0.3174021 -0.20279598 -0.24111013
0.06788274 -0.12708943 -0.07471575 -0.13851233 0.2662252 -0.012256228 -0.20391408 0.009805073
-0.07290582 0.04257006 0.022785291 -0.021175155 -0.25458807 0.16149817 0.22839183 -0.010354417
-0.18589085 -0.17260219 0.2751761 -0.14853562 0.29779887 0.027489534 0.05751381 0.3344854
-0.09352576 -0.15698378 -0.3078471 -0.30419078 0.25345007 0.088703535 0.20694548 0.3190629
-0.19238256 -0.14268734 0.10113375 0.07705829 -0.13365786 0.1746983 -0.22853407 -0.2608398
-0.23370017 -0.2641991 0.2830448 -0.31793705 0.087831385 0.0816088 0.020832524 0.099911645
-0.19753309 -0.30052093 0.2407696 0.11075124 0.07084349 -0.32167402 0.21815145 0.28376094
0.023780527 -0.09857316 0.27996847 0.046325907 0.097043805 -0.25192627 0.319449 -0.31783482
-0.23398182 0.34613866 -0.22469468 0.21857165 0.11376928 -0.014256707 0.13677803 -0.32637584
-0.12093866 0.073579684 0.116079256 0.02338793 0.18833786 0.015655056 0.219604 0.15295002
0.29993105 -0.11941276 0.23959677 -0.28042632 0.17162994 -0.22776483 0.15945308 -0.1986542
0.34850872 -0.24022634 0.29334432 0.11773476 -0.07080899 -0.034747534 -0.15457134 0.30914098
-0.14332654 -0.09450408 -0.22186016 -0.10898086 -0.24449095 0.209818 -0.26295254 0.28871804
0.15532175 0.00042611657 0.14094651 -0.18687026 0.2182665 -0.2280207 0.18008488 0.017897207
-0.04947211 -0.0037234302 0.2669172 -0.08425986 -0.30031067 -0.049610432 -0.28060442 0.18217891
00000000: 7cd1 89be df6c 923e 06b1 003e 0a9c 53be
00000010: 1280 11be b40e afbe 19d2 993d bbbb a6be
00000020: f9bc 94be 0e50 e53d 6bad a73e 5c03 853e
00000030: c009 1c3c 30fc 2abe 7371 603d b5e8 abbe
00000040: de86 a5be 5c69 71bd 50dd 5f3d 8b3a 14be
00000050: b46a a4be 351a a8be be35 803e c777 21be
00000060: 67a8 5ebe 67e9 db3d df09 023e f151 22be
00000070: acc8 ae3e 4396 8d3e 9623 9e3e f180 183d
00000080: fd5d 5c3c c36a a23e fd95 e23b 6483 05be
00000090: 73e6 883d bb66 f73d 66df 253e 4a0e a1be
000000a0: b2ca 003d 120c 323e 0b3d 333e 8984 a4be
000000b0: bba3 153e 26c9 d43d ba1f f43d 5f57 65bd
000000c0: fa93 afbd d00b 0abe 922c 8ebd 33e0 87be
000000d0: 8cae a8bc 6e49 a53e 3ecc 02be 3b20 03be
000000e0: 9d25 803e 33b0 b73d 074d a83e a390 9f3e
000000f0: 0e3c 82be 2d45 563d a66e 08be 87ef 80be
00000100: c652 a0be 596c 38be c57e 3c3e 3e59 a73e
00000110: e01f 243e 2501 5e3d 16e7 0dbe 4568 55be
00000120: e2d3 863e 42ef 76be 5507 8abd 550d 51be
00000130: 1009 4d3e 8f75 7cbe 2cee 4e3e 5503 8abe
00000140: eff4 fbbc 50a5 a93e 6baa 8a3e 5de9 603e
00000150: ccba 613e 63bc b03d 7205 bdbd ccdb 43be
00000160: 7a98 693d 9eff 25be 3362 653e f593 b7bd
00000170: dcb5 4fbe 4ece c63d 63cd e33d c512 8fbe
00000180: 108f abbe 2c9a a53e 61cc ae3e 71d2 99be
00000190: 980d 77bb e3ff 3bbd 2c37 eb3d 6cf5 313e
000001a0: a67a e03d 458a 9fbe 522e 633b 3d0c 21be
000001b0: af7e 40be 6bdf 33be 0df1 a73b 594d 22be
000001c0: d859 a93e 6d5c 303d 4a0b 6dbe 7a35 8cbe
000001d0: 1378 a63e 8d34 723c e805 f03d f707 7c3e
000001e0: 5f16 983e 79ab fbbd 4e9b 6bbe b78c 4a3e
000001f0: 257d 66be 6b26 7bbe c7b5 7ebe 22f8 01be
00000200: 62eb a0bd f636 023e daeb 03be b0a1 d73d
00000210: 9670 a0be 8782 a23e c0a9 4fbe 93e5 76be
00000220: 1b06 8b3d bb23 02be 9204 99bd 2dd6 0dbe
00000230: ab4e 883e 59ce 48bc dace 50be 75a5 203c
00000240: a64f 95bd f15d 2e3d 38a8 ba3c 8577 adbc
00000250: 5e59 82be c75f 253e 8cdf 693e 93a5 29bc
00000260: 2c5a 3ebe a1be 30be e2e3 8c3e b919 18be
00000270: 1879 983e bb31 e13c 9a93 6b3d ac41 ab3e
00000280: 6f8a bfbd 5bc0 20be 239e 9dbe e5be 9bbe
00000290: 35c4 813e 33aa b53d 84e9 533e 365c a33e
000002a0: efff 44be a11c 12be 361f cf3d bdd0 9d3d
000002b0: 9bdd 08be 1ce4 323e d604 6abe cb8c 85be
000002c0: 194f 6fbe 1b45 87be 3feb 903e a5c8 a2be
000002d0: f1e0 b33d 8422 a73d f8a8 aa3c 7a9e cc3d
000002e0: 1d46 4abe e1dd 99be 4e8c 763e 8cd1 e23d
000002f0: 6416 913d 75b2 a4be 1863 5f3e 1d49 913e
00000300: 61cf c23c bae0 c9bd 0758 8f3e 3cc0 3d3d
00000310: e7be c63d 7bfc 80be d28e a33e 3fbb a2be
00000320: ee98 6fbe 1639 b13e 5d16 66be 3fd1 5f3e
00000330: deff e83d f794 69bc 8a0f 0c3e bc1a a7be
00000340: b0ae f7bd f2b0 963d f6ba ed3d 0b98 bf3c
00000350: a4db 403e 083f 803c dfdf 603e ee9e 1c3e
00000360: 9090 993e ad8e f4bd db58 753e 0a94 8fbe
00000370: c2bf 2f3e 2f3b 69be ab47 233e 026c 4bbe
00000380: bc6f b23e e5fd 75be 3a31 963e ec1e f13d
00000390: 4e04 91bd 6e53 0ebd f347 1ebe ba47 9e3e
000003a0: 31c4 12be 5b8b c1bd 4f2f 63be 5b31 dfbd
000003b0: d65b 7abe 88da 563e b7a1 86be dad2 933e
000003c0: aa0c 1f3e 6668 df39 4854 103e eb5a 3fbe
000003d0: 4181 5f3e 427e 69be 2c68 383e 2a9d 923c
000003e0: 44a3 4abd cb04 74bb 5fa9 883e 6f90 acbd
000003f0: 52c2 99be 4f34 4bbd 62ab 8fbe 1c8d 3a3e
