KNet/model_KNet_MM_Linear_Dynamics_T100_r2_positive_15dB.pt (torch, 37253 bytes, 42 tensors)

weight_ih_l0 f4 [12, 10]
-0.093862526 0.014030423 -0.43368512 0.4539479 0.4538282 0.2876173 -0.07679656 0.32485208
-0.27436885 0.36822218 -0.39795056 -0.4410406 -0.050009426 0.44492665 -0.30697328 -0.32133758
0.37335062 -0.07799925 -0.15885021 0.006004047 0.345853 -0.27377623 0.22713384 -0.05598997
-0.26944572 0.17601986 -0.31756294 -0.05821008 0.5094249 0.15522033 -0.2366338 0.21877822
0.2081349 0.44571877 -0.43259978 -0.40914822 0.23923303 0.4643695 -0.11952131 -0.2372127
0.26484448 0.12226965 -0.2510304 0.2204409 0.45508322 -0.4431076 -0.18133573 -0.45576265
0.1858726 0.023860417 -0.4779863 0.36488634 2.567175e-06 0.0047346707 -0.37044746 -0.23361082
0.050769903 0.36900407 0.35144162 -0.27414128 0.15177117 0.19613092 -0.0190359 -0.014984957
0.2959848 0.11007995 0.06771592 -0.06624806 -0.18730746 0.14158322 -0.04204437 -0.09129765
0.16118433 0.20399176 0.10515532 -0.3412313 0.10920383 0.10420258 0.20433205 0.33655432
0.46198702 0.0008532508 -0.4528165 0.44392478 0.2489562 -0.17856868 0.48842213 0.26357564
-0.22637963 -0.09068959 0.10772282 -0.41905287 0.27590975 0.14493631 -0.16174798 0.053434003
0.377374 -0.27406192 0.123452134 0.24698155 0.1460369 0.36560202 0.20708607 -0.13364679
-0.48712033 0.042739216 0.23056903 0.1800518 0.2860151 0.049887028 -0.43203357 0.2594972
-0.29591557 -0.12846836 -0.093416005 -0.13601851 -0.058596916 -0.16653772 -0.44588763 0.031944633
00000000: ff3a c0bd dcdf 653c fa0b debe dc6b e83e
00000010: 2b5c e83e 9342 933e 8447 9dbd 0353 a63e
00000020: 137a 8cbe 9e87 bc3e 2dc0 cbbe 13d0 e1be
00000030: afd6 4cbd 6dcd e33e 9a2b 9dbe 5c86 a4be
00000040: d027 bf3e 12be 9fbd a1a9 22be 99bd c43b
00000050: a513 b13e 662c 8cbe c695 683e bd55 65bd
00000060: caf4 89be 8d3e 343e 9c97 a2be b16d 6ebd
00000070: ac69 023f 14f2 1e3e 2250 72be 6607 603e
00000080: 5121 553e 4035 e43e b87d ddbe e07b d1be
00000090: 81f9 743e d7c1 ed3e 97c7 f4bd e3e7 72be
000000a0: b299 873e 8368 fa3d 0e87 80be 42bb 613e
000000b0: ab00 e93e 00df e2be 13b0 39be b959 e9be
000000c0: 6355 3e3e ec76 c33c 9fba f4be 62d2 ba3e
000000d0: bb47 2c36 4c25 9b3b 4aab bdbe ad37 6fbe
000000e0: 1af4 4f3d 1aee bc3e 28f0 b33e 3f5c 8cbe
000000f0: e769 1b3e 8bd6 483e 2df1 9bbc 7783 75bc
00000100: 528b 973e 9971 e13d a5ae 8a3d 10ad 87bd
00000110: 87cd 3fbe 31fb 103e b836 2cbd 43fa babd
00000120: 810d 253e 37e3 503e ac5b d73d deb5 aebe
00000130: 42a6 df3d 2a68 d53d 6c3c 513e d950 ac3e
00000140: 9089 ec3e b1ac 5f3a 90d7 e7be 1c4a e33e
00000150: 60ee 7e3e b5da 36be 7712 fa3e 63f3 863e
00000160: 10d0 67be 77bb b9bd c89d dc3d 198e d6be
00000170: 0b44 8d3e 2f6a 143e 43a1 25be 9ddd 5a3d
00000180: 2a37 c13e d851 8cbe 79d4 fc3d bbe8 7c3e
00000190: b28a 153e 3030 bb3e 5f0e 543e b4da 08be
000001a0: d667 f9be 510f 2f3d 4a1a 6c3e 805f 383e
000001b0: 9270 923e 5756 4c3d 8133 ddbe d1dc 843e
000001c0: 3f82 97be 368d 03be e450 bfbd 7048 0bbe
000001d0: 5203 70bd dd88 2abe 624b e4be 60d8 023d

weight_hh_l0 f4 [12, 4]
0.4861842 0.30530453 -0.045521468 -0.18310548 -0.18112981 -0.13714789 0.27929968 0.15603699
-0.37431902 -0.12542401 -0.30967015 0.022210315 0.12500997 -0.025102176 -0.050626554 0.38304526
0.46272543 -0.31633145 0.19731379 -0.39239255 0.30916962 0.33096457 0.41284078 0.35325128
-0.17586708 0.026749412 -0.3469333 0.23769495 -0.22178984 -0.22595325 -0.31341442 0.42009518
-0.341854 0.34941283 -0.50580895 0.2345598 0.25355396 -0.36529633 -0.35634392 -0.33263773
0.23554733 -0.41884276 0.46551207 -0.31823587 -0.5093062 -0.4760263 0.36444384 0.122241504
00000000: 23ed f83e e050 9c3e b874 3abd 0180 3bbe
00000010: 187a 39be 7f70 0cbe 5e00 8f3e 29c8 1f3e
00000020: bea6 bfbe 276f 00be 168d 9ebe 68f2 b53c
00000030: 9d02 003e 14a3 cdbc ca5d 4fbd 821e c43e
00000040: 59ea ec3e 32f6 a1be a00c 4a3e ade7 c8be
00000050: 7b4b 9e3e 3074 a93e de5f d33e 5add b43e
00000060: 8016 34be 9521 db3c 3ea1 b1be 4e66 733e
00000070: e01c 63be 4a60 67be db77 a0be b716 d73e
00000080: 7d07 afbe 3de6 b23e b27c 01bf 7230 703e
00000090: d3d1 813e 1f08 bbbe b672 b6be 7e4f aabe
000000a0: 5233 713e 8f72 d6be 9957 ee3e d0ef a2be
000000b0: e461 02bf b8b9 f3be 6298 ba3e c159 fa3d

bias_ih_l0 f4 [12]
-0.46631894 0.25788817 0.380312 0.32531253 0.17640491 -0.12896222 -0.13833617 0.059019662
-0.22114338 0.21258983 -0.49491313 0.2653952
00000000: 5bc1 eebe eb09 843e 41b8 c23e 5d8f a63e
00000010: 7da3 343e ac0e 04be ffa7 0dbe 9abe 713d
00000020: 6973 62be 26b1 593e 4165 fdbe e1e1 873e

bias_hh_l0 f4 [12]
0.30159268 -0.38105214 -0.26577568 0.33491543 0.20674142 0.23620965 -0.26927567 0.39378104
-0.09480434 0.102309406 -0.014184472 -0.28258684
00000000: 5b6a 9a3e 4419 c3be c013 88be 097a ab3e
00000010: 06b4 533e f1e0 713e 80de 89be ab9d c93e
00000020: c728 c2bd 9887 d13d fd65 68bc 39af 90be

weight_ih_l0 f4 [12, 14]
-0.05743946 0.32902515 0.42638448 -0.2869186 -0.3000865 0.04921615 0.3713333 0.020688044
-0.39133057 0.18027033 -0.1477386 0.11554385 0.049011372 -0.048587408 -0.42283395 0.19198348
-0.3348639 -0.41807458 0.20709383 -0.46841404 0.30380982 0.26248243 0.3724714 -0.18822454
-0.46868783 -0.067818984 0.38655874 -0.39801723 0.07214037 0.047936782 0.43698505 -0.29569662
-0.2184645 0.4016865 -0.43970093 0.29608527 0.17343388 -0.069476165 0.23619212 -0.12327144
0.26082382 0.041904006 -0.24275884 -0.4107503 -0.04558639 0.05621453 0.40154138 -0.2159867
-0.2276454 0.04659041 0.16865267 0.3545305 0.011317081 -0.1861123 0.2220044 0.14454328
-0.12254073 0.3276239 0.24578172 -0.25740448 0.37688056 0.31286874 -0.110378645 -0.39004347
0.31435958 0.28763843 -0.2990167 -0.464649 -0.42230132 0.3903733 0.4415056 -0.04360771
-0.045245748 0.21478465 -0.37298757 -0.4319267 -0.041074164 -0.42889002 -0.20751667 0.30296493
0.4941076 -0.056170072 0.18585457 -0.107988484 0.20593731 0.16471489 0.47327876 0.17360075
0.22490345 0.30092245 -0.13996646 0.38372916 -0.032000255 -0.36461902 0.17786315 -0.14122422
-0.49049658 -0.24197449 0.3267141 -0.48581275 -0.42946714 0.326838 0.34275156 0.17604783
-0.122716144 -0.286367 -0.4104247 -0.28843474 0.1050947 0.3406181 -0.50641215 -0.005063239
-0.43233848 0.11474961 -0.15009375 0.39570537 -0.006324824 0.47268838 0.064462595 0.31207865
0.21646968 -0.4789641 -0.23375882 -0.34321123 -0.20898375 0.3945192 -0.41641504 0.44787022
-0.1765765 0.31718943 0.31610882 -0.4460142 0.17172001 0.38842413 -0.051918037 0.48913622
-0.07379981 0.3900891 0.4398176 0.21783167 -0.11581926 0.10486924 0.45241922 -0.39485916
-0.15130547 0.34620687 -0.40977514 0.43348694 0.1882697 0.4469892 -0.0064602024 0.24667805
-0.31223673 0.023545343 -0.41842377 0.4342654 0.5043009 0.26152334 0.062825836 -0.37060124
0.43668103 0.09109234 -0.49201277 0.10530541 -0.008966467 0.4269003 0.30083477 -0.38651776
00000000: a445 6bbd fc75 a83e 114f da3e ffe6 92be
00000010: f0a4 99be e096 493d 661f be3e f979 a93c
00000020: 7b5c c8be c998 383e ca48 17be 41a2 ec3d
00000030: 26c0 483d 9703 47bd b17d d8be 5197 443e
00000040: 4873 abbe df0d d6be 6810 543e f7d3 efbe
00000050: f68c 9b3e 1964 863e 92b4 be3e efbd 40be
00000060: daf7 efbe aee4 8abd 07eb c53e eac8 cbbe
00000070: 55be 933d 5c59 443d 81bc df3e 8c65 97be
00000080: 28b5 5fbe daa9 cd3e 7b20 e1be 7d98 973e
00000090: a798 313e 8549 8ebd 59dc 713e bd75 fcbd
000000a0: b38a 853e 89a3 2b3d c695 78be dd4d d2be
000000b0: cbb8 3abd 3541 663d d596 cd3e 9e2b 5dbe
000000c0: e01b 69be 96d5 3e3d 49b3 2c3e 0685 b53e
000000d0: 476b 393c 3994 3ebe 1f55 633e 2703 143e
000000e0: a2f6 fabd 52be a73e 34ae 7b3e 85ca 83be
000000f0: 7df6 c03e 5530 a03e 330e e2bd c7b3 c7be
00000100: bdf3 a03e 5845 933e b818 99be 79e6 edbe
00000110: e137 d8be 02df c73e 060d e23e 009e 32bd
00000120: 9b53 39bd 82f0 5b3e 3af8 bebe 7f25 ddbe
00000130: 623d 28bd 7997 dbbe 407f 54be 381e 9b3e
00000140: acfb fc3e 9712 66bd a950 3e3e 1129 ddbd
00000150: 3be1 523e 05ab 283e 9851 f23e 65c4 313e
00000160: 174d 663e 8212 9a3e 5e53 0fbe 2678 c43e
00000170: b312 03bd 58af babe c221 363e 159d 10be
00000180: 5e22 fbbe 29c8 77be 1247 a73e 73bc f8be
00000190: 1ee3 dbbe 4f57 a73e 227d af3e e245 343e
000001a0: 9a52 fbbd b29e 92be 3023 d2be b8ad 93be
000001b0: e43b d73d 7f65 ae3e 3aa4 01bf 87e9 a5bb
000001c0: 785b ddbe d801 eb3d 2db2 19be e599 ca3e
000001d0: 7840 cfbb 3604 f23e f704 843d c6c8 9f3e
000001e0: 3aaa 5d3e c83a f5be 795e 6fbe 62b9 afbe
000001f0: d6ff 55be 6cfe c93e 5a34 d5be 3f4f e53e
00000200: 78d0 34be a766 a23e 04d9 a13e f95b e4be
00000210: 5fd7 2f3e 87df c63e 02a8 54bd 1070 fa3e
00000220: 5b24 97bd c2b9 c73e c62f e13e 440f 5f3e
00000230: a632 edbd afc5 d63d 7ea3 e73e fb2a cabe
00000240: d2ef 1abe 0742 b13e 0cce d1be 00f2 dd3e
00000250: c6c9 403e c5db e43e 1bb0 d3bb 2c99 7c3e
00000260: 7edd 9fbe 2ae2 c03c a43b d6be 0958 de3e
00000270: dd19 013f 63e6 853e d5aa 803d 72bf bdbe
00000280: a894 df3e 9f8e ba3d 19e9 fbbe 5daa d73d
00000290: 17e8 12bc ad92 da3e 0407 9a3e a8e5 c5be

weight_hh_l0 f4 [12, 4]
0.21929474 -0.45906597 0.04138177 -0.23123638 -0.031324957 0.120729804 -0.30496398 -0.30882117
0.3571305 -0.31136042 7.250902e-05 -0.44720158 -0.3211041 0.44430983 -0.26679116 -0.16449562
-0.28383115 -0.34126446 -0.23900351 -0.3655131 0.39321536 0.48932073 -0.17030627 0.01099728
-0.4168678 -0.0453068 -0.22667494 0.29869413 0.427749 0.45511267 8.335172e-05 -0.15403058
-0.33352396 0.20549768 0.425167 -0.27185407 0.33878332 0.11431292 0.14354105 0.11583634
0.22817044 0.2739694 0.10334187 0.46952382 -0.2720828 0.37268284 0.4288924 0.31245267
00000000: cd8e 603e b20a ebbe ee7f 293d 3bc9 6cbe
00000010: 994e 00bd 3041 f73d 3d24 9cbe cf1d 9ebe
00000020: cfd9 b63e a26a 9fbe fc0f 9838 9bf7 e4be
00000030: c267 a4be 947c e33e da98 88be 8a71 28be
00000040: 5152 91be 37ba aebe 56bd 74be 8824 bbbe
00000050: 8653 c93e 3f88 fa3e c464 2ebe ef2d 343c
00000060: b26f d5be a093 39bd 7a1d 68be 70ee 983e
00000070: eb01 db3e 8704 e93e 1dcd ae38 31ba 1dbe
00000080: a7c3 aabe fc6d 523e 7daf d93e 7530 8bbe
00000090: 0275 ad3e e41c ea3d 6dfc 123e 9a3b ed3d
000000a0: 83a5 693e b845 8c3e e7a4 d33d 6d65 f03e
000000b0: 704e 8bbe 49d0 be3e c997 db3e ccf9 9f3e

bias_ih_l0 f4 [12]
0.14446628 -0.41281942 -0.16140497 -0.50197655 -0.115644515 -0.2028001 -0.32509416 -0.33293954
0.12531956 -0.18343998 0.32892498 -0.18217838
00000000: f8ee 133e 115d d3be 5847 25be 8981 00bf
00000010: 08d7 ecbd d4aa 4fbe be72 a6be 0d77 aabe
00000020: c553 003e b1d7 3bbe db68 a83e f88c 3abe

bias_hh_l0 f4 [12]
-0.26538953 0.24559163 0.26976123 0.10582862 -0.14588958 0.025354946 0.2960085 -0.40364206
-0.03639877 -0.48014793 -0.22256398 0.43353528
00000000: 23e1 87be 5f7c 7b3e 251e 8a3e adbc d83d
00000010: 1464 15be 2db5 cf3c 6d8e 973e 2caa cebe
00000020: e016 15bd f3d5 f5be d0e7 63be 56f8 dd3e

weight_ih_l0 f4 [12, 24]
0.3255422 0.05574223 0.44965962 -0.1509958 -0.465818 -0.2695968 0.16140872 -0.28811488
-0.18436056 -0.1857941 0.057091136 0.43845928 -0.2206664 -0.48752645 -0.2735222 0.3244121
0.4002998 0.3296464 0.065517925 0.047374874 -0.14071247 0.27282387 -0.40780827 -0.36306718
0.21682517 -0.15763842 0.05915785 -0.38916722 0.13662502 -0.17268327 -0.25051725 0.2839139
-0.17881607 -0.082870185 -0.4797033 0.104007244 -0.21299185 -0.48619416 0.2441257 -0.21845354
-0.09328915 -0.13245404 -0.48400518 0.48886505 0.04203942 -0.35204983 -0.032537363 0.075013995
-0.33384502 -0.19078337 0.1362378 -0.13131584 -0.1519179 0.10373899 0.22921543 0.0269452
-0.09338585 0.4227264 -0.47912496 0.008049032 0.38852593 -0.40480354 0.33043733 0.03137134
0.32279313 0.45068198 -0.28144908 0.13233572 0.24834567 0.36215407 0.12602788 -0.33618018
0.37770453 -0.23624927 0.35266837 0.3316391 -0.0048959022 -0.008955515 -0.06534959 -0.110722125
0.08397371 -0.18693765 -0.07318415 -0.47118455 0.47629794 0.33810082 0.49685484 -0.13073884
0.29252663 0.39065543 0.16964056 -0.3985073 -0.32563153 0.3297676 -0.053917173 0.0490652
0.20402902 -0.24665962 0.29476228 -0.4638481 -0.39560914 -0.47379762 0.007912211 0.15288362
-0.24268791 -0.38294083 -0.12589219 -0.19601057 -0.033940528 0.24807374 0.27879477 0.041230313
0.31732544 -0.4683384 0.3882049 -0.014335334 0.08884047 0.19940841 -0.027016211 0.23803084
0.07304393 0.45258534 -0.08082597 0.08193949 0.14408651 -0.4158925 0.46293184 0.44407326
-0.07511767 -0.21161538 0.087082304 0.3826863 -0.25998402 0.3221715 -0.0043835384 -0.4129883
0.13595705 0.034832314 -0.12299368 -0.29135066 -0.0046103694 -0.33160427 0.046664707 -0.025115473
0.0886873 0.3076869 -0.15573113 -0.28243405 0.0033023434 -0.456696 -0.016502993 0.08187702
-0.01839451 -0.48064998 0.22292984 -0.31163168 0.17791028 0.026983622 -0.2670411 0.30752555
-0.04646799 -0.20826308 0.22826405 0.18400049 -0.040491518 0.11497028 0.4260117 -0.16771619
0.048779067 0.023277897 0.35741478 0.13413309 0.07275062 -0.5076718 0.33501628 0.3390772
0.2938719 0.16866624 -0.3419885 0.0931073 0.08291223 -0.45158073 -0.3094433 0.2945569
0.3944381 0.036390424 0.11304763 0.21640974 -0.4950459 -0.21485068 -0.08008957 -0.25255758
-0.40052715 0.2683641 0.48436418 0.18840471 -0.10759153 0.18501052 -0.124980465 0.18758671
-0.098828495 -0.12970124 -0.24224271 0.17750326 0.09218198 -0.18986122 -0.41491082 -0.3167284
0.29376036 -0.43155912 -0.47931466 0.40243495 0.099494904 -0.048656296 -0.35314247 -0.17642368
-0.28905565 -0.19098066 -0.24454318 -0.06835828 0.1584918 -0.32974952 -0.47717756 -0.4148714
-0.32686153 0.28635305 -0.33041668 0.4020263 0.32995436 -0.47337162 -0.23101695 0.31851515
-0.15598354 0.37599954 -0.46231726 0.32950926 0.33823487 -0.19687876 0.29208535 -0.29769325
0.13364099 0.40916303 0.22265968 -0.118521184 -0.053027384 0.45514017 0.21573277 0.41044933
-0.42202446 -0.004446427 -0.30766177 0.4588368 -0.38669077 -0.16822301 -0.40180066 -0.17689364
00000000: 78ad a63e f751 643d c939 e63e a59e 1abe
00000010: b27f eebe 9708 8abe 5448 253e cb83 93be
00000020: 04c9 3cbe cf40 3ebe 65d8 693d bc7d e03e
00000030: 5ff6 61be 119d f9be 1a0b 8cbe 5819 a63e
00000040: 18f4 cc3e 6ac7 a83e 432e 863d 280c 423d
00000050: ee16 10be 92af 8b3e 3fcc d0be f1e3 b9be
00000060: 6b07 5e3e f76b 21be 804f 723d ed40 c7be
00000070: 6ee7 0b3e e2d3 30be cc43 80be 2a5d 913e
00000080: 8f1b 37be d8b7 a9bd ac9b f5be c001 d53d
00000090: 891a 5abe 71ee f8be 16fc 793e 49b2 5fbe
000000a0: 620e bfbd 08a2 07be 87cf f7be 854c fa3e
000000b0: 8731 2c3d e03f b4be e645 05bd f0a0 993d
000000c0: bced aabe b75c 43be ec81 0b3e a977 06be
000000d0: 5e90 1bbe 1c75 d43d 73b7 6a3e 2ebc dc3c
000000e0: 1541 bfbd 986f d83e de4f f5be 16e0 033c
000000f0: dfec c63e 6942 cfbe 152f a93e 3c7f 003d
00000100: 2445 a53e cabf e63e 181a 90be 0483 073e
00000110: 544e 7e3e 426c b93e 740d 013e cf1f acbe
00000120: 7d62 c13e 54eb 71be f390 b43e 9acc a93e
00000130: ce6d a0bb 27ba 12bc 01d6 85bd 48c2 e2bd
00000140: 69fa ab3d 956c 3fbe 92e1 95bd 1a3f f1be
00000150: 53dd f33e 8d1b ad3e c263 fe3e 67e0 05be
00000160: 0dc6 953e fd03 c83e 41b6 2d3e 2609 ccbe
00000170: 2db9 a6be 4dd7 a83e 41d8 5cbd 97f8 483d
00000180: fcec 503e 5794 7cbe 15eb 963e 807d edbe
00000190: 488d cabe 9a95 f2be 38a2 013c 868d 1c3e
000001a0: 2e83 78be d210 c4be e2e9 00be ffb6 48be
000001b0: 3905 0bbd 0b07 7e3e 30be 8e3e 1ee1 283d
000001c0: 7b78 a23e 0dca efbe cbc2 c63e c0de 6abc
000001d0: fef1 b53d b831 4c3e 1a51 ddbc 5bbe 733e
000001e0: 0e98 953d 44b9 e73e 1688 a5bd e4cf a73d
000001f0: 6a8b 133e ddef d4be 6705 ed3e 925d e33e
00000200: 4bd7 99bd b4b1 58be 3558 b23d 75ef c33e
00000210: a01c 85be aaf3 a43e c9a3 8fbb 3473 d3be
00000220: 5338 0b3e 54ac 0e3d 1ce4 fbbd ea2b 95be
00000230: 9512 97bb 09c8 a9be 7e23 3f3d f7be cdbc
00000240: b0a1 b53d 2389 9d3e fb77 1fbe 329b 90be
00000250: 216c 583b 0fd4 e9be 4931 87bc 24af a73d
00000260: 15b0 96bc c117 f6be b847 643e 308e 9fbe
00000270: 1d2e 363e c20c dd3c 9cb9 88be fd73 9d3e
00000280: 3855 3ebd eb42 55be 0dbe 693e a06a 3c3e
00000290: 6fda 25bd 8a75 eb3d 351e da3e cbbd 2bbe
000002a0: 8fcc 473d 4ab1 be3c 12ff b63e 2f5a 093e
000002b0: 47fe 943d c7f6 01bf 4187 ab3e 879b ad3e
000002c0: 6176 963e d8b6 2c3e 1e19 afbe 0aaf be3d
000002d0: e3cd a93d 9735 e7be 5a6f 9ebe 29d0 963e
000002e0: caf3 c93e 200e 153d 8485 e73d 849a 5d3e
000002f0: a876 fdbe d101 5cbe 0006 a4bd 3a4f 81be
00000300: e511 cdbe 0567 893e 95fe f73e 2aed 403e
00000310: f358 dcbd 6673 3d3e c2f5 ffbd bb16 403e
00000320: 9866 cabd 67d0 04be 790e 78be 6ac3 353e
00000330: e8c9 bc3d fb6a 42be 316f d4be 3a2a a2be
00000340: c267 963e 51f5 dcbe bb68 f5be f40b ce3e
00000350: fcc3 cb3d d34b 47bd 17cf b4be 69a8 34be
00000360: 1aff 93be 6f90 43be 8769 7abe 6dff 8bbd
00000370: ad4b 223e eed4 a8be 9e50 f4be 066a d4be
00000380: 655a a7be de9c 923e 602c a9be 64d6 cd3e
00000390: c7ef a83e c45d f2be b58f 6cbe 6b14 a33e
000003a0: 26ba 1fbe 0383 c03e d9b4 ecbe 70b5 a83e
000003b0: 1f2d ad3e 969a 49be 368c 953e 406b 98be
000003c0: 2fd9 083e d17d d13e e600 643e 3cbb f2bd
000003d0: 3e33 59bd 2208 e93e 0de9 5c3e 6a26 d23e
000003e0: 9713 d8be 55b3 91bb d885 9dbe a8ec ea3e
000003f0: 55fc c5be a742 2cbe d1b8 cdbe 9b23 35be

weight_hh_l0 f4 [12, 4]
0.14477538 -0.47264874 0.18809794 -0.0725317 0.050601833 -0.060284752 -0.054826334 -0.38127849
-0.0011224926 0.4841528 0.3838855 -0.42572734 -0.47842023 0.12096491 0.31349987 0.06332117
0.3409744 0.19231677 -0.04999539 0.4815244 -0.29841098 -0.40064865 0.09556675 -0.14694773
0.29798207 -0.43377525 0.21037944 0.11815947 0.18832912 -0.27098906 0.28634697 -0.017707255
-0.02211289 -0.110469095 0.47920516 0.14382766 -0.3374872 0.37266 0.21035698 0.46509585
0.23505796 -0.30872494 0.21098913 0.44817713 -0.0070229364 0.40896785 0.24937232 0.39206997
00000000: ff3f 143e 04ff f1be bf9c 403e 808b 94bd
00000010: de43 4f3d 25ed 76bd 9491 60bd ef36 c3be
00000020: 9a20 93ba e0e2 f73e a48c c43e eff8 d9be
00000030: 7ff3 f4be 73bc f73d 0e83 a03e 88ae 813d
00000040: 3294 ae3e b0ee 443e f7c7 4cbd 5e8a f63e
00000050: 53c9 98be d221 cdbe 80b8 c33d 7779 16be
00000060: 1b91 983e ca17 debe b56d 573e 98fd f13d
00000070: 59d9 403e 14bf 8abe 129c 923e ce0e 91bc
00000080: 1726 b5bc 9f3d e2bd 615a f53e 8f47 133e
00000090: 1fcb acbe 4bcd be3e d267 573e 0b21 ee3e
000000a0: 09b3 703e 3211 9ebe 890d 583e 7977 e53e
000000b0: a920 e6bb 3c64 d13e 755b 7f3e 65bd c83e

bias_ih_l0 f4 [12]
0.13038021 -0.11219099 0.4342027 0.47082803 0.058454454 -0.0808676 -0.24505444 0.31366852
-0.3291692 0.3677164 -0.2547269 0.29697958
00000000: 6482 053e 64c4 e5bd d14f de3e 5f10 f13e
00000010: f06d 6f3d ea9d a5bd 8def 7abe 2999 a03e
00000020: de88 a8be 5345 bc3e 906b 82be b50d 983e

bias_hh_l0 f4 [12]
-0.16030298 -0.0066596414 0.015160158 -0.43058354 0.11930308 0.4180311 0.37009525 -0.2955547
0.36265832 -0.48347506 0.19740431 -0.47792402
00000000: 7726 24be 1f39 dabb 5062 783c 7275 dcbe
00000010: 2c55 f43d 2c08 d63e 207d bd3e f252 97be
00000020: 5aae b93e 0b8a f7be 5b24 4a3e 75b2 f4be

weight f4 [4, 4]
0.11937221 0.14962128 0.038123716 0.44533643 0.31384158 -0.06735268 -0.19695151 0.2029054
-0.045420807 -0.1564021 -0.22569874 0.012506656 0.49956542 0.42114606 -0.47077495 0.50997514
00000000: 6b79 f43d 5236 193e 9d27 1c3d 2303 e43e
00000010: d8af a03e 34f0 89bd a8ad 49be 6fc6 4f3e
00000020: 2b0b 3abd df27 20be 921d 67be b8e8 4c3c
00000030: 0ac7 ff3e 75a0 d73e 6a09 f1be bb8d 023f

bias f4 [4]
0.09970476 0.09096218 0.42288315 0.22036147
00000000: 0232 cc3d 614a ba3d 2484 d83e 70a6 613e

weight f4 [320, 8]
-0.017474074 0.0005916355 0.30607533 -0.040416356 0.14338322 -0.118851975 -9.6291355e-05 -0.084737584
0.030586652 -0.09210693 -0.18928261 0.22332282 -0.11293395 0.1258699 -0.35922706 -0.23178409
0.08941556 0.18672368 0.2127263 0.28431284 0.34548062 0.1370824 -0.059879698 0.029541204
-0.26048 0.30299538 -0.17047799 -0.30481672 -0.020020027 -0.11904065 -0.11861012 0.15363385
0.29149252 0.17709191 -0.31837192 -0.12040448 -0.044297352 0.10010168 -0.1994156 -0.27992082
0.013906661 0.20444071 0.13037856 0.025680311 7.057272e-05 -0.30952528 4.8306196e-05 0.086798005
0.09260577 -0.285009 0.18189959 0.25973597 0.24644138 -0.0663185 0.30837372 0.2613609
-0.08724098 0.20120195 -0.21867451 -0.26510805 0.08890502 -0.293296 -0.2646106 -0.07888169
0.072470054 -0.07387126 7.521194e-05 0.23975828 0.2082632 -0.0003272174 0.26281098 -0.071905166
0.32038334 -0.2665156 0.30193183 0.16527371 0.30913028 6.209646e-05 -0.21669334 0.19021684
0.1677223 0.27741566 -0.08931622 0.058465216 -0.14662302 0.2124274 -0.117554076 -0.3397836
0.15354505 -0.17942135 -0.3021144 0.18562603 0.053455796 0.35086975 0.08938968 0.10189261
0.21661305 0.02665793 0.24939002 0.14237288 0.07134381 0.15865113 -0.13727197 -0.09484146
0.009880564 -0.33394155 -0.18729767 -0.26735908 -0.21379611 0.15494794 0.08807126 -0.029641822
-0.004476078 0.13307191 -0.20239434 -0.0677654 -0.2528167 -0.33053663 0.29805043 0.27009058
0.03612428 0.21074028 -0.31122053 0.29006016 -0.17555767 0.00092838565 0.0872098 -0.054758154
0.15574709 0.11011324 -0.30484164 0.02923604 -0.017627629 0.24104553 0.00053475215 0.0631594
-0.02046988 -0.0749681 -0.21805538 -0.3114588 0.35679352 0.09142719 -0.14353818 0.11751803
0.097100385 0.25373793 0.28676555 0.25552168 -0.16005768 0.30020666 -0.17448393 0.061795894
-0.24458672 0.16611384 -0.26472765 -0.3222274 0.30275416 0.3333403 0.19266462 0.01119996
-0.099312164 0.054339956 -0.035457447 -0.17419924 -0.057172976 -0.025716165 0.04562775 -0.1081977
0.014069175 0.30804244 0.08772929 0.29140761 0.23390305 -0.16237487 0.23321055 0.17429087
0.11472461 -0.2852386 -0.29842103 -0.11557584 0.2551501 -0.3239668 -0.1566172 -0.027680214
-0.14711347 -0.22731185 0.12236883 -0.2133727 0.1472258 0.31263188 0.088380426 -0.032835692
-0.11112037 0.12656745 0.2709613 -0.16100721 0.21621524 -0.0059813177 -0.3220099 -0.31974983
0.17357242 -0.32482234 0.21765327 0.23684849 -0.069319494 0.26280126 -0.21051848 0.3473185
-0.2662269 0.012495429 -0.19884782 0.27801487 -0.29907292 -0.26832443 -0.22314346 -0.13863838
-0.0946302 0.030801222 -0.18280533 -0.21169113 0.22910786 0.17149943 0.27817073 -0.13784353
0.07910146 -0.055363085 -0.062259078 0.07286562 0.10174378 -0.2594125 -0.15628976 0.17528738
-0.013251372 0.32830897 -0.26208505 0.2218753 0.17148364 -0.2128495 0.31102926 0.34956664
-0.23646975 0.15067813 -0.061951302 -0.31125832 -0.10053989 0.26606688 -0.25580513 -0.069907755
0.18391514 0.06288871 -0.008772704 0.18186286 -0.10482432 0.32072634 0.22677998 -0.13550317
00000000: ca25 8fbc fc17 1b3a e8b5 9c3e 9f8b 25bd
00000010: 0dd3 123e aa68 f3bd 07f0 c9b8 e68a adbd
00000020: dc90 fa3c 8fa2 bcbd 4dd3 41be bdae 643e
00000030: ea49 e7bd 0ae4 003e 9cec b7be cf58 6dbe
00000040: 811f b73d 7e34 3f3e ecd4 593e 7491 913e
00000050: d6e2 b03e 545f 0c3e 6a44 75bd 6500 f23c
00000060: a25d 85be 3622 9b3e c891 2ebe f010 9cbe
00000070: 0a01 a4bc 96cb f3bd dde9 f2bd 3152 1d3e
00000080: 823e 953e 9557 353e a501 a3be a096 f6bd
00000090: 2471 35bd 1c02 cd3d 9a33 4cbe c851 8fbe
000000a0: c4d8 633c e858 513e f581 053e 845f d23c
000000b0: 7100 9438 197a 9ebe 629c 4a38 27c3 b13d
000000c0: 18a8 bd3d b3ec 91be e343 3a3e 1dfc 843e
000000d0: 215b 7c3e fed1 87bd 29e3 9d3e 19d1 853e
000000e0: 66ab b2bd e207 4e3e 36ec 5fbe 3ebc 87be
000000f0: d613 b63d e52a 96be 0a7b 87be b98c a1bd
00000100: 2e6b 943d d149 97bd 1abb 9d38 3283 753e
00000110: f342 553e 608e abb9 298f 863e 0443 93bd
00000120: 4909 a43e bc74 88be cf96 9a3e 833d 293e
00000130: 5346 9e3e c839 8238 dce4 5dbe 34c8 423e
00000140: 65bf 2b3e 6d09 8e3e 6ceb b6bd 3979 6f3d
00000150: 5824 16be 9186 593e 31c0 f0bd 1ef8 adbe
00000160: ea3a 1d3e 3bba 37be bdae 9abe c014 3e3e
00000170: 77f4 5a3d 33a5 b33e f011 b73d 13ad d03d
00000180: d0cf 5d3e bb61 da3c 1960 7f3e 32ca 113e
00000190: b41c 923d 7175 223e 0691 0cbe 3d3c c2bd
000001a0: 17e2 213c 63fa aabe f6ca 3fbe 4ae3 88be
000001b0: 5eed 5abe acaa 1e3e b45e b43d 68d3 f2bc
000001c0: 10ac 92bb 0144 083e 7640 4fbe 96c8 8abd
000001d0: 3171 81be 193c a9be 119a 983e 5049 8a3e
000001e0: 0ef7 133d 4dcc 573e 4c58 9fbe c482 943e
000001f0: 64c5 33be e85e 733a 0d9b b23d 164a 60bd
00000200: 2a7c 1f3e 0d83 e13d 3414 9cbe 6b80 ef3c
00000210: d167 90bc a4d4 763e 9c2e 0c3a b759 813d
00000220: 73b0 a7bc e088 99bd e949 5fbe 8777 9fbe
00000230: a4ad b63e 2e3e bb3d acfb 12be 4bad f03d
00000240: 91dc c63d f0e9 813e efd2 923e bdd3 823e
00000250: 29e6 23be b0b4 993e eaab 32be b11d 7d3d
00000260: f174 7abe bf19 2a3e 628a 87be fdfa a4be
00000270: 9802 9b3e 94ab aa3e e049 453e 0980 373c
00000280: 2d64 cbbd 9393 5e3d d43b 11bd 4961 32be
00000290: 362e 6abd b5aa d2bc 2ae4 3a3d c196 ddbd
000002a0: 6682 663c bdb7 9d3e 6aab b33d 6133 953e
000002b0: 4884 6f3e 9945 26be bfce 6e3e 4e79 323e
000002c0: bcf4 ea3d cb0a 92be a4ca 98be 07b3 ecbd
000002d0: 09a3 823e fade a5be 4260 20be 9ec1 e2bc
000002e0: eaa4 16be 70c4 68be 829c fa3d 607e 5abe
000002f0: 5cc2 163e 4911 a03e cc00 b53d b87e 06bd
00000300: 1493 e3bd e69a 013e 71bb 8a3e 13df 24be
00000310: 8767 5d3e eefe c3bb 7bde a4be 40b6 a3be
00000320: f8bc 313e 1d4f a6be 80e0 5e3e 6988 723e
00000330: 61f7 8dbd e38d 863e 2892 57be bbd3 b13e
00000340: e44e 88be a1b9 4c3c c39e 4bbe f757 8e3e
00000350: 1620 99be d261 89be b87f 64be 38f7 0dbe
00000360: 7acd c1bd d852 fc3c 5231 3bbe 8fc5 58be
00000370: 409b 6a3e 8c9d 2f3e 656c 8e3e db26 0dbe
00000380: f2ff a13d 67c4 62bd 6003 7fbd 923a 953d
00000390: 0b5f d03d b7d1 84be 6c0a 20be 897e 333e
000003a0: 481c 59bc 1d18 a83e 0330 86be 4733 633e
000003b0: 6899 2f3e 38f5 59be 3a3f 9f3e 66fa b23e
000003c0: 2025 72be 5e4b 1a3e a6c0 7dbd 405d 9fbe
000003d0: dce7 cdbd eb39 883e e4f8 82be cc2b 8fbd
000003e0: 4054 3c3e cccb 803d 63bb 0fbc 423a 3a3e
000003f0: 22ae d6bd 3e36 a43e 0339 683e 58c1 0abe

bias f4 [320]
-0.2388488 0.30215707 0.10998695 -0.21712933 -0.1272976 -0.31154397 0.082954854 -0.30313927
-0.26016375 0.09637783 0.34344602 0.27695882 0.017630845 -0.15518032 0.045035526 -0.30539712
-0.29293737 -0.048836116 0.07034269 -0.14980717 -0.29077026 -0.32282093 0.25926635 -0.16931999
-0.20194651 0.09329382 0.12437295 -0.13980383 0.32661277 0.26960284 0.31832218 0.022224268
0.02792068 0.33171734 0.0044756704 -0.12330944 0.06409857 0.105358 0.14665632 -0.28420895
0.016718438 0.1892057 0.19023432 -0.2909673 0.13047825 0.120888166 0.13680819 -0.03965557
-0.100839235 -0.12608477 -0.07292513 -0.2514252 -0.013477416 0.33856252 -0.10943934 -0.123568505
0.23763576 0.105532944 0.34457576 0.29635823 -0.25241762 0.061751787 -0.12093967 -0.23557775
-0.2827789 -0.14986315 0.20094939 0.34233826 0.14628686 0.038466137 -0.14358416 -0.17813061
0.24837397 -0.25317293 -0.059180498 -0.17388237 0.18516773 -0.22264166 0.204087 -0.27386183
-0.042406086 0.34678766 0.2551426 0.20670573 0.2055286 0.10250939 -0.074293375 -0.18326601
0.045359526 -0.15938962 0.22484463 -0.07367278 -0.17257369 0.11395905 0.12689681 -0.26444933
-0.3234575 0.33910626 0.3572338 -0.30667517 -0.011500788 -0.028478539 0.10770125 0.15813172
0.09451066 -0.28125015 0.00319864 -0.14156155 -0.18415172 -0.15586373 0.020983426 -0.17255227
0.31596652 0.05101356 -0.20300394 -0.29011217 0.30802467 0.012876962 0.102629334 0.26160723
0.31249583 -0.11364757 -0.2367733 0.21390559 -0.2016647 -0.24014473 -0.2257192 -0.11890718
-0.08122536 0.1117954 -0.1135301 0.11852756 -0.28300625 0.33293688 -0.21986794 -0.2108034
0.08284522 -0.113486715 -0.07771079 -0.1160777 0.25083208 -0.01629225 -0.21342745 -0.004670462
-0.056897998 0.05978567 0.038522847 -0.025348347 -0.22427079 0.14625339 0.22115666 -0.025418565
-0.17119567 -0.14237659 0.28974903 -0.16257803 0.31296635 0.026271539 0.06487377 0.35021627
-0.08561725 -0.12678722 -0.28943816 -0.27930817 0.26330736 0.0737316 0.2228657 0.31622875
-0.16212729 -0.13295801 0.08605927 0.09436151 -0.11781885 0.15989685 -0.19823846 -0.22165996
-0.22415937 -0.23387492 0.27163237 -0.31830725 0.1030664 0.091917016 0.03855498 0.10829172
-0.17630826 -0.30252022 0.25665632 0.0961073 0.07606116 -0.2913175 0.21064357 0.29954556
0.017335407 -0.084379524 0.29598284 0.03106891 0.099746406 -0.26146612 0.3045192 -0.28748006
-0.21859194 0.33150023 -0.20910655 0.23430961 0.13103501 0.0018609118 0.12189769 -0.28735343
-0.124595255 0.08924907 0.1005345 0.038779367 0.19078122 0.007890916 0.23489673 0.16865988
0.315545 -0.13426152 0.2403881 -0.25009164 0.155146 -0.20274243 0.15749148 -0.17957854
0.33306575 -0.25231373 0.30924147 0.10254373 -0.09119874 -0.038671337 -0.16856016 0.29593515
-0.101749755 -0.06453105 -0.1811183 -0.07893082 -0.21418147 0.22537072 -0.23262921 0.28109843
0.1709816 0.01607186 0.15535508 -0.16931745 0.23465994 -0.23302883 0.17248058 0.033160828
-0.033864897 0.012300673 0.28260738 -0.07196767 -0.26996472 -0.05512713 -0.25026962 0.1681221
00000000: c894 74be 55b4 9a3e d740 e13d 2757 5ebe
00000010: 4d5a 02be b182 9fbe 3ce4 a93d 1235 9bbe
00000020: 2f34 85be bd61 c53d 28d8 af3e 8ccd 8d3e
00000030: 906e 903c 97e7 1ebe 2c77 383d 035d 9cbe
00000040: e3fb 95be 6108 48bd d40f 903d 0d67 19be
00000050: d7df 94be c948 a5be 8fbe 843e 3862 2dbe
00000060: 11cb 4ebe d510 bf3d 3fb7 fe3d bc28 0fbe
00000070: ca39 a73e 6209 8a3e 20fb a23e ab0f b63c
00000080: e9b9 e43c dbd6 a93e a5a8 923b a989 fcbd
00000090: 1c46 833d efc5 d73d 132d 163e d683 91be
000000a0: 1bf5 883c 24bf 413e c9cc 423e aaf9 94be
000000b0: 179c 053e 3794 f73d 7217 0c3e e16d 22bd
000000c0: cd84 cebd 5e1c 01be c559 95bd ceba 80be
000000d0: 61d0 5cbc 1158 ad3e bc21 e0bd 7c11 fdbd
000000e0: ca56 733e a821 d83d 3c6c b03e 44bc 973e
000000f0: e23c 81be 71ef 7c3d 38af f7bd 4b3b 71be
00000100: 65c8 90be ba75 19be adc5 4d3e f646 af3e
00000110: 39cc 153e ab8e 1d3d ba07 13be df67 36be
00000120: bf55 7e3e e29f 81be 4067 72bd 380e 32be
00000130: 9c9c 3d3e 2dfc 63be 2ffc 503e 9e37 8cbe
00000140: 01b2 2dbd 278e b13e 0da2 823e abaa 533e
00000150: 1776 523e 71f0 d13d 2027 98bd 16aa 3bbe
00000160: e9ca 393d 0837 23be ac3d 663e c1e1 96bd
00000170: 28b7 30be 5d63 e93d 3df1 013e e765 87be
00000180: 399c a5be 569f ad3e 59e7 b63e 8704 9dbe
00000190: cd6d 3cbc d34b e9bc 7992 dc3d 48ed 213e
000001a0: ce8e c13d 0500 90be 46a0 513b 83f5 10be
000001b0: 4592 3cbe be9a 1fbe 6fe5 ab3c 8bb1 30be
000001c0: 5dc6 a13e 98f3 503d 44e0 4fbe 9589 94be
000001d0: 69b5 9d3e e5f9 523c 542f d23d 62f1 853e
000001e0: 74ff 9f3e 0fc0 e8bd b374 72be 110a 5b3e
000001f0: 3181 4ebe 80e8 75be ef22 67be 9c85 f3bd
00000200: 7b59 a6bd fdf4 e43d 7882 e8bd 94be f23d
00000210: 32e6 90be b476 aa3e 1025 61be d9dc 57be
00000220: c1aa a93d b96b e8bd d626 9fbd 25ba edbd
00000230: 106d 803e 5377 85bc ba8c 5abe ad0a 99bb
00000240: e00d 69bd d2e1 743d 22ca 1d3d 56a7 cfbc
00000250: 3ea7 65be 73c3 153e e476 623e 983a d0bc
00000260: eb4d 2fbe 2bcb 11be fc59 943e db7a 26be
00000270: 203d a03e 6937 d73c 8adc 843d 8c4f b33e
00000280: 1958 afbd 82d4 01be 3d31 94be 7b01 8fbe
00000290: 39d0 863e 9800 973d e836 643e bce8 a13e
000002a0: b204 26be 2526 08be d83f b03d 9b40 c13d
000002b0: 024b f1bd 00bc 233e 06ff 4abe d4fa 62be
000002c0: 098a 65be e87c 6fbe 6613 8b3e 2bf9 a2be
000002d0: 7a14 d33d fd3e bc3d d4eb 1d3d 0dc8 dd3d
000002e0: 278a 34be eee3 9abe 7568 833e e7d3 c43d
000002f0: f4c5 9b3d 9127 95be f3b2 573e 095e 993e
00000300: fc02 8e3c 2ccf acbd 108b 973e 3a84 fe3c
00000310: d847 cc3d e3de 85be f1e9 9b3e 9630 93be
00000320: 91d6 5fbe 66ba a93e 0720 56be dcee 6f3e
00000330: 0b2e 063e d7e9 f33a 7fa5 f93d fd1f 93be
00000340: cc2b ffbd 37c8 b63d 08e5 cd3d 1dd7 1e3d
00000350: 275c 433e e748 013c c588 703e 2db5 2c3e
00000360: 1d8f a13e da7b 09be 4c28 763e 030c 80be
00000370: 98de 1e3e b69b 4fbe 7245 213e 70e3 37be
00000380: 9887 aa3e 442f 81be e654 9e3e 7202 d23d
00000390: 68c6 babd d665 1ebd 099b 2cbe d084 973e
000003a0: 2d62 d0bd db28 84bd 1377 39be 7ba6 a1bd
000003b0: 6352 5bbe 95c7 663e 5a36 6ebe 22ec 8f3e
000003c0: cd15 2f3e 22a9 833c 6715 1f3e 8e61 2dbe
000003d0: b24a 703e 1c9f 6ebe c09e 303e a6d3 073d
000003e0: ebb5 0abd c388 493c eab1 903e c963 93bd
000003f0: d138 8abe fccc 61bd 5723 80be 3328 2c3e

weight f4 [4, 320]
7.278131e-05 -0.025308916 0.041397005 0.010723131 -0.016685955 0.009637302 -0.0085404 0.010876712
-0.000106703796 0.04000636 -0.0038024462 -0.048965976 0.048637837 -0.018831551 -0.01686102 7.304139e-05
0.00751454 0.039899662 -0.027563363 0.034290712 8.8540706e-05 -0.020006526 0.027146809 0.03671935
0.05473591 -0.045875404 0.03265744 -0.00044417425 -0.030404262 0.056553897 0.038514707 -0.024242558
0.049059387 0.03225138 -0.0036013275 0.05274368 -0.026632864 0.015382956 -0.027386626 0.000109795394
-0.011895741 -0.026852112 -0.033188358 8.323507e-05 0.0051610144 -0.027897693 -0.021191875 0.061664365
-0.024301758 -0.053010833 -0.0230701 0.011826391 -0.0204298 0.011820164 0.042206433 0.048357986
0.015219008 -0.03336498 0.023368457 -0.0042710504 -0.026461544 -0.04853185 0.043556 0.047345664
0.000915035 -9.151419e-06 -0.018142344 0.034848902 -0.021855518 -0.036458205 0.007669125 0.0036952025
0.012954162 -0.03316607 0.024011541 8.383354e-05 0.04203825 0.025897218 0.0015346259 0.012078213
0.017049287 0.028151147 0.034110073 -0.03368696 -0.018796891 0.001858113 0.00021791224 0.0305638
-0.013445017 -0.039327547 -0.03974589 -0.035652407 -7.2398565e-05 -0.04135719 0.011976008 -0.02358415
0.0075178165 0.0342214 0.018587148 -0.01697577 -0.013514717 -0.031544656 0.010313192 0.053532038
-0.016162518 8.047894e-05 0.03158758 0.008767799 -0.008160269 -0.017214965 0.03463884 0.0522567
-0.029201433 -0.011633468 0.0006663803 -0.027680365 0.03983122 -0.028226953 0.0069407606 -0.013612898
0.060208473 0.013887368 0.050406434 -0.013542175 -0.023719328 0.040515516 0.002310342 -0.03752845
0.018452512 -0.00047386665 0.030058743 -0.022111539 -0.00082860864 -0.0074576917 0.056494217 0.00037708532
0.042451207 0.012205581 0.05312826 0.0044651576 0.04847699 0.016306462 0.04933285 0.02224495
-0.0062085004 0.025372984 0.047392346 0.012247597 0.0001258313 0.06000182 0.011464134 -0.02707325
-0.028458374 6.91837e-05 0.0060640816 -0.020634478 0.01631673 0.01159948 -0.020546325 0.049539044
-0.016434908 3.006556e-05 -0.043120317 -0.025719156 0.0018612467 0.058969364 0.008128325 -0.03459109
-0.00017344212 -0.059624217 0.00068048114 -0.01160216 -0.0010591669 -0.046828426 -0.0068649515 -0.015350025
0.0004016749 -3.3352342e-05 0.037875198 -0.008034992 0.0025247657 -0.0021917624 0.052984223 0.023766449
-0.024547547 -0.036606446 0.04928781 -0.052201606 -0.026996048 0.0005131908 -0.039998904 -0.045249417
0.03851709 -0.045212228 -0.030242028 -0.04379794 0.027510365 0.0019299166 -0.02282251 0.00016066512
-0.009323862 0.04298054 0.038165946 0.022864915 -0.026009312 0.009075041 0.04830688 0.021228092
-0.020653576 -0.00834711 -0.0010048958 -0.050491553 0.011202739 -0.035227515 -0.010395132 0.0241257
0.0011830186 -0.01517464 -0.03191304 0.00010370985 -0.045036856 0.0003035896 -0.008125164 0.038534697
0.028254274 0.046793956 -0.009341534 -0.0075696623 0.026380582 -0.00071823184 -0.03973108 0.022074591
-0.00029426915 6.20453e-05 -0.00037329533 7.4105825e-05 -9.395245e-05 -0.017183268 3.8752736e-05 -0.021534378
0.059757046 -0.017376278 -0.010261181 0.01069314 0.034004122 -0.052202538 -0.028019177 0.009318172
0.037515543 -0.0044875904 0.022482619 -0.030675918 -0.00012235739 -0.016896794 -7.261192e-05 -0.010681825
00000000: 2ba2 9838 a554 cfbc e88f 293d 12b0 2f3c
00000010: fcb0 88bc c6e5 1d3c 09ed 0bbc 3d34 323c
00000020: 2ac6 dfb8 b5dd 233d 7632 79bb 8c90 48bd
00000030: 7838 473d a044 9abc 1f20 8abc cc2d 9938
00000040: 883c f63b d46d 233d 90cc e1bc 6b74 0c3d
00000050: eeae b938 bae4 a3bc fc62 de3c 0767 163d
00000060: c332 603d d9e7 3bbd cfc3 053d 0fe0 e8b9
00000070: 5c12 f9bc 0fa5 673d 99c1 1d3d 5498 c6bc
00000080: 7ff2 483d 061a 043d 4004 6cbb c209 583d
00000090: 2a2d dabc cb08 7c3c eb59 e0bc f441 e638
000000a0: 5be6 42bc f6f8 dbbc 84f0 07bd 7d8e ae38
000000b0: ba1d a93b b489 e4bc 959a adbc c693 7c3d
000000c0: 7b14 c7bc e321 59bd 82fd bcbc 7bc3 413c
000000d0: 655c a7bc 5ca9 413c a7e0 2c3d 0613 463d
000000e0: 2559 793c b8a9 08bd 356f bf3c 2bf4 8bbb
000000f0: e1c5 d8bc 55c9 46bd c767 323d 87ed 413d
00000100: f6de 6f3a 0c89 19b7 419f 94bc b9bd 0e3d
00000110: 580a b3bc 3355 15bd 494d fb3b 362b 723b
00000120: b23d 543c 25d9 07bd dab3 c43c cacf af38
00000130: 4d30 2c3d 6726 d43c 8025 c93a b2e3 453c
00000140: f2aa 8b3c 3c9d e63c 01b7 0b3d 56fb 09bd
00000150: f0fb 99bc ed8b f33a 5f7f 6439 ef60 fa3c
00000160: 7d48 5cbc ec15 21bd 96cc 22bd 4208 12bd
00000170: afd4 97b8 2866 29bd 0537 443c 8c33 c1bc
00000180: 0458 f63b bd2b 0c3d 1344 983c c510 8bbc
00000190: d56c 5dbc f834 01bd aaf8 283c 6944 5b3d
000001a0: 4267 84bc cdc6 a838 fa61 013d d0a6 0f3c
000001b0: a6b2 05bc 6606 8dbc 75e1 0d3d 1f0b 563d
000001c0: d837 efbc 4d9a 3ebc 06b0 2e3a efc1 e2bc
000001d0: 1026 233d 363c e7bc 526f e33b a208 5fbc
000001e0: 299d 763d d887 633c fa76 4e3d 00e0 5dbc
000001f0: 094f c2bc 99f3 253d 1b69 173b 6fb7 19bd
00000200: b929 973c 4e71 f8b9 c13d f63c 4223 b5bc
00000210: fc36 59ba a75f f4bb 7b66 673d 89b3 c539
00000220: 51e1 2d3d ebf9 473c 059d 593d 7550 923b
00000230: cf8f 463d 2195 853c 3e11 4a3d 0b3b b63c
00000240: ad70 cbbb 01db cf3c 7a1e 423d 25aa 483c
00000250: 95f1 0339 78c4 753d 10d4 3b3c b8c8 ddbc
00000260: 8921 e9bc b716 9138 34b5 c63b a309 a9bc
00000270: aaaa 853c bf0b 3e3c c450 a8bc 74e9 4a3d
00000280: 80a2 86bc 4c35 fc37 ee9e 30bd fbb0 d2bc
00000290: 13f5 f33a dc89 713d ab2c 053c 63af 0dbd
000002a0: 04de 35b9 8638 74bd 5162 323a fc16 3ebc
000002b0: bed3 8aba 2acf 3fbd 63f3 e0bb ac7e 7bbc
000002c0: e497 d239 cee3 0bb8 0623 1b3d 33a5 03bc
000002d0: 8a76 253b aca3 0fbb fc05 593d dbb1 c23c
000002e0: f017 c9bc a4f0 15bd 04e2 493d 5ad1 55bd
000002f0: d126 ddbc a787 063a e4d5 23bd 7457 39bd
00000300: 19c4 1d3d 7530 39bd 21be f7bc 7865 33bd
00000310: 6b5d e13c 41f5 fc3a 46f6 babc 3778 2839
00000320: 1dc3 18bc 5d0c 303d e553 1c3d 344f bb3c
00000330: 7b11 d5bc 7baf 143c 6fdd 453d 89e6 ad3c
00000340: b031 a9bc 51c2 08bc b5b6 83ba 3bd0 4ebd
00000350: b18b 373c ba4a 10bd 5850 2abc 43a3 c53c
00000360: 840f 9b3a 0e9f 78bc 3fb7 02bd cd7e d938
00000370: 9178 38bd 1b2b 9f39 681f 05bc 8fd6 1d3d
00000380: 8275 e73c 05ab 3f3d 3c0d 19bc ee0a f8bb
00000390: 171c d83c b947 3cba 0fbd 22bd c6d5 b43c
000003a0: 2348 9ab9 511e 8238 dab6 c3b9 4369 9b38
000003b0: 5608 c5b8 edc3 8cbc 6f8a 2238 dd68 b0bc
000003c0: cec3 743d b258 8ebc 831e 28bc 4832 2f3c
000003d0: e847 0b3d 54d2 55bd 7988 e5bc 3fab 183c
000003e0: e6a9 193d a30c 93bb 782d b83c 104c fbbc
000003f0: 104d 00b9 256b 8abc 3a47 98b8 d202 2fbc

bias f4 [4]
-0.017167188 0.06144319 -0.0138504645 0.05853253
00000000: 34a2 8cbc dbab 7b3d 0fed 62bc cebf 6f3d

weight f4 [4, 8]
-0.06362521 0.092420876 0.20367377 -0.10744785 0.2925892 0.20142081 -0.019304994 -0.24366169
0.19718042 0.009481842 0.15390852 -0.20430171 -0.2697866 -0.04125584 0.08761435 0.23007898
-0.2642838 0.08860883 0.18712099 -0.120183386 -0.07873971 -0.12011045 0.11618244 -0.07238093
-0.111765474 -0.35211673 -0.07186798 -0.014006775 -0.08891174 -0.32393384 0.083844975 0.03139913
00000000: ef4d 82bd 2847 bd3d db8f 503e 9e0d dcbd
00000010: 40ce 953e 4241 4e3e 8225 9ebc 7382 79be
00000020: aae9 493e ba59 1b3c 329a 1d3e 7834 51be
00000030: 7821 8abe e2fb 28bd 276f b33d d399 6b3e
00000040: 3550 87be 8c78 b53d a59c 3f3e b522 f6bd
00000050: 4942 a1bd 78fc f5bd 0ff1 ed3d 743c 94bd
00000060: 4ce5 e4bd a548 b4be 852f 93bd ac7c 65bc
00000070: 5c17 b6bd a8da a5be eab6 ab3d 609c 003d

bias f4 [4]
-0.030678367 -0.23179935 0.32092264 0.25327346
00000000: 3351 fbbc cf5c 6dbe f94f a43e 0fad 813e

weight f4 [4, 8]
-0.0014791708 -0.01230775 0.1575753 0.25880414 0.2591643 -0.00021626815 0.14373787 1.6369838e-06
-0.26393607 -0.059337463 -0.097496875 -0.24821453 0.13262886 0.05314042 0.001452157 0.1936512
-0.06673942 -0.2305721 0.20054185 -0.06002059 -0.22228996 0.2439649 -0.26155788 0.042028647
0.34223005 -0.2785898 0.23758204 -0.2899476 0.19897576 -0.0011331185 -0.28296056 0.030572087
00000000: bce0 c1ba 72a6 49bc 6b5b 213e fa81 843e
00000010: 2fb1 843e 0ac6 62b9 0530 133e 56b6 db35
00000020: a122 87be d70b 73bd 71ac c7bd f32b 7ebe
00000030: dccf 073e c5a9 593d 4e56 be3a 804c 463e
00000040: adae 88bd 181b 6cbe d85a 4d3e 26d8 75bd
00000050: fb9f 63be efd1 793e eaea 85be 3b26 2c3d
00000060: c738 af3e 52a3 8ebe b548 733e 0374 94be
00000070: 4dc0 4b3e 2685 94ba 35e0 90be 5072 fa3c

bias f4 [4]
-0.16356757 0.084597796 -0.27503365 -0.07440712
00000000: 427e 27be 9c41 ad3d 36d1 8cbe c362 98bd

weight f4 [10, 2]
-0.5462963 0.11855492 -0.22216535 0.09353465 -0.15045078 0.20604178 0.3161097 -0.28439018
0.5290965 0.5849789 -0.2839958 -0.09544835 -0.037081074 0.5742803 -0.62242544 0.5740322
-0.40687433 0.16133328 0.2697725 -0.15290983
00000000: 13da 0bbf eccc f23d 507f 63be 188f bf3d
00000010: c50f 1abe 9efc 523e 21d9 a13e 979b 91be
00000020: de72 073f 2dc1 153f e667 91be 6d7a c3bd
00000030: 53e2 17bd 0904 133f 4657 1fbf c6f3 123f
00000040: d551 d0be 8d34 253e 9f1f 8a3e 6594 1cbe

bias f4 [10]
0.64662206 -0.09964533 -0.4579746 0.68479663 -0.5981201 -0.15315902 -0.00702463 -0.68698114
-0.3105382 -0.3401399
00000000: 0689 253f da12 ccbd a67b eabe d54e 2f3f
00000010: 661e 19bf b8d5 1cbe de2e e6bb ffdd 2fbf
00000020: ddfe 9ebe d126 aebe

weight f4 [10, 2]
-0.10604395 -0.36555097 -0.27866483 0.25880808 -0.0228105 0.14688069 0.68041813 -0.64485705
0.21173388 -0.26151177 0.45630592 0.4005721 0.44080886 -0.376918 -0.42127433 0.37393156
0.3260218 -0.042826157 0.45262238 0.05850257
00000000: 922d d9bd 7f29 bbbe 28ad 8ebe 7e82 843e
00000010: 16dd babc e467 163e e22f 2e3f 5a15 25bf
00000020: c4d0 583e dfe4 85be eea0 e93e c917 cd3e
00000030: b3b1 e13e 65fb c0be 45b1 d7be f573 bf3e
00000040: 54ec a63e 7b6a 2fbd 1fbe e73e 64a0 6f3d

bias f4 [10]
0.2797323 -0.053372037 -0.6432955 -0.49111208 0.6532363 0.43318987 -0.25762868 0.34423685
0.1475942 -0.52382797
00000000: 1239 8f3e a39c 5abd 04af 24bf 0b73 fbbe
00000010: 7f3a 273f 10cb dd3e e8e7 83be d03f b03e
00000020: ef22 173e 9719 06bf

weight f4 [20, 4]
-0.5103853 -0.4355343 0.26858044 0.078323655 -0.45808244 -0.012587861 -0.027224911 -0.06885298
-0.13426319 0.2774809 -0.34315217 0.0036149248 0.112710655 0.23691191 -0.34523344 -0.17588866
-0.50254154 0.4611469 0.35813797 0.3142223 -0.16023226 0.0885234 0.18500352 0.1449591
0.45014676 0.23586349 0.37197062 0.40619144 0.25602198 -0.4701332 0.20174922 0.020389706
-0.23472778 -0.11880626 0.4486278 -0.2999208 -0.21412043 0.39008337 -0.33035102 -0.45491993
-0.4611462 -0.3995469 0.28751042 0.2161841 -0.29033202 -0.47198713 -0.31887236 -0.373532
0.35722265 -0.14921933 -0.21936882 0.24075495 -0.033091377 -0.27248764 0.11730971 -0.12233667
0.3749467 -0.22758865 -0.2834674 -0.4634655 -0.35648608 0.27483132 -0.11863039 0.4525715
0.12038129 0.04200732 -0.41612905 -0.4586009 0.41183203 -0.27718374 -0.22249712 0.3415015
0.053382177 0.5093941 -0.48582292 0.31738678 -0.30748367 0.20974524 -0.40865156 -0.36646238
00000000: 9ca8 02bf 5afe debe 6083 893e 2768 a03d
00000010: c889 eabe 513d 4ebc c706 dfbc cb02 8dbd
00000020: 4a7c 09be fa11 8e3e a4b1 afbe 60e8 6c3b
00000030: d8d4 e63d 0999 723e 70c2 b0be 281c 34be
00000040: 90a6 00bf 721b ec3e dc5d b73e bfe1 a03e
00000050: ed13 24be c24b b53d 9071 3d3e 2970 143e
00000060: a379 e63e 3386 713e ef72 be3e 53f8 cf3e
00000070: 5015 833e 4cb5 f0be 5997 4e3e 5008 a73c
00000080: 7b5c 70be b250 f3bd 8bb2 e53e 388f 99be
00000090: 6342 5bbe 02b9 c73e c523 a9be 44eb e8be
000000a0: 5b1b ecbe 6991 ccbe 9134 933e 5d5f 5d3e
000000b0: 66a6 94be 4ca8 f1be 3d43 a3be 963f bfbe
000000c0: e3e5 b63e f4cc 18be 38a2 60be 7788 763e
000000d0: d38a 07bd 8083 8bbe 1340 f03d a68b fabd
000000e0: 04f9 bf3e 000d 69be a422 91be 5a4b edbe
000000f0: 5885 b6be b1b6 8c3e 7df4 f2bd 74b7 e73e
00000100: 778a f63d de0f 2c3d de0e d5be bdcd eabe
00000110: a6db d23e 07eb 8dbe 49d6 63be 49d9 ae3e
00000120: 45a7 5a3d a767 023f c8bd f8be 8580 a23e
00000130: 806e 9dbe 75c7 563e c73a d1be f5a0 bbbe

bias f4 [20]
0.0020114651 0.16336337 0.32907245 -0.30722225 -0.19530311 -0.061029598 -0.30787283 -0.124226265
0.47134787 -0.4590019 0.27844572 -0.013060214 0.40049025 0.42156932 -0.07496593 0.030904528
0.14321075 0.44959694 0.22503209 -0.4717572
00000000: c9d2 033b ba48 273e 2f7c a83e 3c4c 9dbe
00000010: 8afd 47be 2cfa 79bd 82a1 9dbe 576a febd
00000020: 8254 f13e 4c02 ebbe 7090 8e3e 82fa 55bc
00000030: 0f0d cd3e efd7 d73e bd87 99bd 7e2b fd3c
00000040: d7a5 123e 9231 e63e d06e 663e 298a f1be

G f4 [2, 1]
0.0 1.0
00000000: 0000 0000 0000 803f

m1x_posterior f4 [2]
16.92079 -4.8040905
00000000: c75d 8741 1cbb 99c0

m1x_posterior_previous f4 [2]
-14.746767 30.109076
00000000: c2f2 6bc1 63df f041

m1x_prior_previous f4 [2]
15.3623085 -7.8979893
00000000: 04cc 7541 54bc fcc0

y_previous f4 [2]
16.368483 -4.3106613
00000000: a7f2 8241 f0f0 89c0

KGain_array f4 [20, 2, 2]
0.09844916 0.42550513 0.33872518 0.70005065 0.08837394 0.41190043 0.34449154 0.7810434
0.09077556 0.4852087 0.3526069 0.71162856 0.06717937 0.41719368 0.36977905 0.78407204
0.06412209 0.42040932 0.3678029 0.7731273 0.06372184 0.4196013 0.3658539 0.7975479
0.06271632 0.41607854 0.34145755 0.81160235 0.06384497 0.5059912 0.36814535 0.730087
0.04699576 0.42099822 0.34107184 0.8518061 0.06684285 0.4936237 0.3448643 0.74212915
0.08096884 0.46619752 0.31980327 0.768225 0.068410024 0.46903494 0.33481154 0.7100524
0.08128231 0.4015136 0.3263327 0.791553 0.09571458 0.45766428 0.2940603 0.6944311
0.088066146 0.45367718 0.30898544 0.6789533 0.06958347 0.4070466 0.30788833 0.71082765
0.11635261 0.46927008 0.29534462 0.7512911 0.10212291 0.46569166 0.31426385 0.70218664
0.091437735 0.41724247 0.3386347 0.68879205 0.07400686 0.4136833 0.35774064 0.76211303
00000000: b79f c93d cfdb d93e 636d ad3e 8536 333f
00000010: 65fd b43d 9de4 d23e 3261 b03e 76f2 473f
00000020: 89e8 b93d 466d f83e e488 b43e 4a2d 363f
00000030: 5695 893d 699a d53e ae53 bd3e f2b8 483f
00000040: 7152 833d e43f d73e a950 bc3e aceb 453f
00000050: 9980 823d fbd5 d63e 3451 bb3e 192c 4c3f
00000060: 6a71 803d 3f08 d53e 86d3 ae3e 2cc5 4f3f
00000070: 27c1 823d a488 013f 8c7d bc3e fbe6 3a3f
00000080: a07e 403d 148d d73e f8a0 ae3e f70f 5a3f
00000090: e7e4 883d 3fbc fc3e 0e92 b03e 2dfc 3d3f
000000a0: fed2 a53d 71b1 ee3e 41bd a33e 65aa 443f
000000b0: 8e1a 8c3d 5925 f03e 6b6c ab3e fec5 353f
000000c0: 5777 a63d 3193 cd3e 1415 a73e 38a3 4a3f
000000d0: 0106 c43d f952 ea3e 128f 963e 3dc6 313f
000000e0: 065c b43d 6048 e83e 5733 9e3e e2cf 2d3f
000000f0: c781 8e3d 6968 d03e 8aa3 9d3e cdf8 353f
00000100: 474a ee3d 2b44 f03e 6937 973e 9d54 403f
00000110: d125 d13d 236f ee3e 31e7 a03e 81c2 333f
00000120: b543 bb3d cea0 d53e 8761 ad3e ad54 303f
00000130: e990 973d 4cce d33e c829 b73e d719 433f

prior_Q f4 [2, 2]
1.0 0.0 0.0 1.0
00000000: 0000 803f 0000 0000 0000 0000 0000 803f

prior_Sigma f4 [2, 2]
1.0 0.0 0.0 1.0
00000000: 0000 803f 0000 0000 0000 0000 0000 803f

prior_S f4 [2, 2]
1.0 0.0 0.0 1.0
00000000: 0000 803f 0000 0000 0000 0000 0000 803f

h_Q f4 [1, 1, 4]
0.41758442 0.5273576 -0.50854516 -0.6280169
00000000: a0cd d53e e800 073f 0430 02bf b7c5 20bf

h_Sigma f4 [1, 1, 4]
0.0 0.19357952 0.0 0.0
00000000: 0000 0000 b639 463e 0000 0000 0000 0000

h_S f4 [1, 1, 4]
-0.42908552 0.1044536 -0.68579525 -0.20283103
00000000: 19b1 dbbe c5eb d53d 4790 2fbf f0b2 4fbe

KGain f4 [2, 2]
0.07400686 0.4136833 0.35774064 0.76211303
00000000: e990 973d 4cce d33e c829 b73e d719 433f

x_out f4 [2]
16.92079 -4.8040905
00000000: c75d 8741 1cbb 99c0
