KNet/model_KNet_MM_Linear_Dynamics_T100_r2_positive_20dB_best_LQR.pt (torch, 37189 bytes, 42 tensors)

weight_ih_l0 f4 [12, 10]
000000 47 fd d4 bd d2 f8 06 3c 1c b8 d9 be 6f 82 e7 3e
       -0.10399871 0.008238034 -0.42523277 0.452167
000010 a2 71 ea 3e 07 5c 92 3e fd 07 a0 bd 3e ba a3 3e
       0.4578982 0.28585836 -0.07814024 0.3197803
000020 ff f0 8e be dc 34 b8 3e f9 bc cb be bc 08 e2 be
       -0.2791824 0.35977829 -0.39792612 -0.4414729
000030 8f b2 2b bd b5 a5 e3 3e 6e 4c 9d be 98 a4 a4 be
       -0.041918334 0.44462362 -0.30722374 -0.32156825
000040 b6 52 bf 3e 65 75 a1 bd 38 45 23 be a0 ee 55 39
       0.3736779 -0.07883719 -0.15944374 0.00020402158
000050 08 27 b1 3e 7d 06 8c be 62 f9 5f 3e d8 5f 66 bd
       0.3460009 -0.273487 0.21872476 -0.056243747
000060 64 f5 8a be ef 26 35 3e 65 80 a2 be d4 de 6e bd
       -0.27140343 0.17690633 -0.31738582 -0.058317974
000070 5d 28 02 3f b4 60 16 3e 93 0d 72 be 97 26 60 3e
       0.5084284 0.14685327 -0.2363799 0.21889721
000080 1d 87 4c 3e 1a 71 e4 3e c3 9d dd be b3 72 d1 be
       0.19973417 0.4461754 -0.43284425 -0.4090782
000090 d9 b0 75 3e f2 11 ee 3e 94 3c f5 bd 7f 4a 6a be
       0.23993243 0.46498066 -0.11974445 -0.2287998
0000a0 1f 2f 8e 3e ce 1b f1 3d 77 6f 78 be e7 f1 5f 3e
       0.27770326 0.117728814 -0.2426127 0.21869622
0000b0 6c 96 e8 3e 5a 57 e2 be 16 d6 39 be 0a 9b e9 be
       0.45427263 -0.4420727 -0.18148074 -0.45626098
0000c0 27 fd 3b 3e e5 b1 84 3c 84 9e f3 be 82 0f ba 3e
       0.18358289 0.016198108 -0.47581875 0.36339957
0000d0 b4 ba c0 b9 f7 57 fb 3b 0b 23 bd be e0 4d 6e be
       -0.00036760198 0.0076703983 -0.36940798 -0.23271894
0000e0 4e 99 4e 3d c1 a9 bf 3e c2 a5 ae 3e 03 0c 88 be
       0.05043917 0.374342 0.34110838 -0.26571664
0000f0 a2 c5 1c 3e db 29 48 3e 76 96 3d bc 18 b2 58 bc
       0.15309766 0.19547217 -0.011571517 -0.013226055
000100 4d c6 9b 3e 93 e4 df 3d 1f f9 8a 3d 5e 5f 89 bd
       0.3042473 0.10932269 0.06785797 -0.06707643
000110 5b a1 41 be 2a 6d 08 3e 87 c5 2c bd 21 7c c4 bd
       -0.18909208 0.13322893 -0.042180564 -0.09593988
000120 da 7a 1c 3e 26 cc 4a 3e 3d 5b c6 3d 4d 56 af be
       0.15281239 0.19804439 0.09685371 -0.3424553
000130 28 99 dc 3d 72 7c cd 3d 14 03 4e 3e c9 fe a7 3e
       0.107714 0.10033502 0.20118362 0.32811573
000140 17 86 ec 3e 9d 6b 2b 3a 70 83 e3 be d2 6d e3 3e
       0.46196052 0.0006539168 -0.44436216 0.44419724
000150 f3 8c 7e 3e 8d d9 36 be 53 30 fa 3e d6 d3 86 3e
       0.24858455 -0.17856427 0.48864993 0.26333493
000160 e2 4d 68 be 02 ca a8 bd 73 72 dc 3d 32 d6 d6 be
       -0.2268596 -0.08241655 0.10764017 -0.41960293
000170 bf f3 88 3e b9 37 14 3e 4c 06 26 be 4f ae 59 3d
       0.26748464 0.14474382 -0.1621334 0.05314475
000180 0d 67 c1 3e 60 d5 8c be a0 63 fb 3d 6f 4a 74 3e
       0.37773934 -0.27506542 0.12274861 0.23856519
000190 ac 29 16 3e 39 ca bb 3e 4d 74 4b 3e 6d c7 08 be
       0.14664334 0.3667772 0.19868584 -0.13357325
0001a0 33 de f8 be d1 92 32 3d e4 68 6c 3e 54 d5 39 3e
       -0.48607025 0.043597046 0.23086888 0.18147784
0001b0 5a 41 93 3e 3e 33 2b 3d d2 4b dd be 86 cf 84 3e
       0.28760797 0.041796915 -0.4322191 0.25939578
0001c0 4a 31 93 be 94 f3 03 be 53 0a bf bd 6c 5b 0a be
       -0.28748542 -0.12885886 -0.09328141 -0.13511437
0001d0 59 87 72 bd 52 16 2b be fd 2f e4 be 21 3f c5 3c
       -0.05921111 -0.16707733 -0.44567862 0.024077954

weight_hh_l0 f4 [12, 4]
000000 2b bf f7 3e 77 78 9b 3e 73 5e 34 bd fd f8 3a be
       0.48388037 0.30365345 -0.044035386 -0.18259044
000010 e1 af 39 be c0 c3 0c be a9 21 8f 3e 0e 39 20 3e
       -0.18133499 -0.13746548 0.27955368 0.15646765
000020 29 cf bf be 39 77 00 be f9 78 9e be 50 b9 b3 3c
       -0.37462738 -0.1254548 -0.3095167 0.02193895
000030 c1 7b 00 3e b5 13 c9 bc 01 3c 51 bd 03 c1 c3 3e
       0.12547208 -0.02454553 -0.051082615 0.38233194
000040 e8 55 ed 3e 56 83 a3 be be 73 46 3e 27 35 c6 be
       0.46354604 -0.3193614 0.1938009 -0.38712427
000050 4f 67 a1 3e 78 80 ad 3e 4d d0 d0 3e 93 b6 b5 3e
       0.3152413 0.33887076 0.4078392 0.35490856
000060 f5 26 38 be 43 10 c4 3c 64 18 ac be 0a d5 71 3e
       -0.17983611 0.023933535 -0.3361236 0.23616424
000070 4d 20 65 be 24 81 6d be 1d b8 a0 be af 30 d6 3e
       -0.22375603 -0.23193794 -0.31390467 0.41834018
000080 60 f6 ae be 56 1d b3 3e 39 92 01 bf 81 75 6f 3e
       -0.34172344 0.3498332 -0.50613743 0.23384668
000090 07 d9 81 3e 56 30 bb be d4 5c b6 be 44 f7 a9 be
       0.2536089 -0.36560315 -0.35617697 -0.3319646
0000a0 9c 7a 71 3e 66 73 d6 be 15 55 ee 3e a3 d4 a2 be
       0.23581928 -0.41884917 0.46549287 -0.31802854
0000b0 8d 76 02 bf a2 fc f3 be f0 c7 ba 3e cb ec fb 3d
       -0.50962144 -0.4765368 0.36480665 0.12301024

bias_ih_l0 f4 [12]
000000 1d a6 ef be bd ea 83 3e 0d a3 c2 3e b5 cd a6 3e
       -0.46806422 0.2576503 0.38015023 0.32578817
000010 f1 be 35 3e cd db fa bd cc ef 11 be 25 cb 6a 3d
       0.1774862 -0.12248955 -0.14251631 0.05732264
000020 21 2f 62 be cc 94 59 3e 3a 56 fd be ef ac 87 3e
       -0.22088291 0.21248168 -0.49479848 0.26499125

bias_hh_l0 f4 [12]
000000 29 86 99 3e 80 38 c3 be fd 28 88 be 61 b8 ab 3e
       0.2998517 -0.38129044 -0.26593772 0.33539107
000010 84 cf 54 3e e6 82 78 3e 6b 02 8c be 47 bf c8 3e
       0.20782286 0.24268684 -0.27345595 0.39208433
000020 c5 98 c1 bd 7f 46 d1 3d 9b 8b 66 bc 73 e2 90 be
       -0.094529666 0.10218524 -0.0140713705 -0.28297767

weight_ih_l0 f4 [12, 14]
000000 55 84 55 bd f0 1a a8 3e 81 5b da 3e d9 6f 92 be
       -0.052128155 0.32833052 0.42647937 -0.28600958
000010 78 f7 95 be e3 96 3f 3d 94 cc b9 3e 01 52 94 3c
       -0.29290366 0.046774756 0.36288893 0.018105509
000020 ef 95 c5 be 5c 37 39 3e 46 b9 19 be d9 a2 fb 3d
       -0.38590953 0.18087524 -0.15012082 0.1228692
000030 d0 f2 49 3d cc eb 25 bd 86 d2 d6 be 93 e9 47 3e
       0.04930383 -0.040508077 -0.41957492 0.19522695
000040 ea 03 ad be ae cc d7 be f9 0d 56 3e b8 0a ed be
       -0.3379205 -0.42148346 0.20903768 -0.4629724
000050 c5 3b 97 3e 49 ed 86 3e 54 56 c0 3e a2 e6 3e be
       0.29537788 0.2635291 0.37565863 -0.18642667
000060 5f 56 ef be d8 51 84 bd 81 bc c7 3e 9c 75 c7 be
       -0.46745583 -0.06460923 0.39011005 -0.38956916
000070 ee d1 92 3d a4 2d 43 3d 67 c7 df 3e de 3e 97 be
       0.07168947 0.04765095 0.4370682 -0.2954015
000080 3f fd 5f be c3 c5 cb 3e 89 cc dc be f5 bc 95 3e
       -0.2187395 0.39799318 -0.43124798 0.29245725
000090 0d 1c 31 3e ab 66 8b bd 45 f4 6d 3e 13 54 fa bd
       0.17295857 -0.06806692 0.23237713 -0.12223067
0000a0 cd 87 85 3e 9c d0 0a 3d 45 8a 78 be f3 59 d2 be
       0.2608017 0.03389035 -0.24271496 -0.4108425
0000b0 39 b3 3a bd 4b 38 67 3d 6a 7a cd 3e 4b ae 5f be
       -0.045581076 0.05645017 0.40132457 -0.21843831
0000c0 72 7f 60 be 97 0a 39 3d db 86 2c 3e a5 49 b6 3e
       -0.21923617 0.045176115 0.16848318 0.3560306
0000d0 3e 80 1b 3c e1 6a 3e be f2 74 63 3e 5b 74 0b 3e
       0.009491025 -0.18595459 0.2221258 0.13618605
0000e0 4b b7 fa bd d4 db a7 3e b7 04 7a 3e 6a d4 83 be
       -0.122419916 0.32784903 0.24415861 -0.25747997
0000f0 c6 88 c1 3e c5 8e 9d 3e a4 07 d1 bd 69 db c8 be
       0.37799662 0.30772987 -0.102065355 -0.39229897
000100 8e 18 a1 3e dc 29 94 3e e8 30 9a be 51 c8 ed be
       0.31464046 0.28938186 -0.30115438 -0.46441892
000110 77 e6 d7 be d7 8b c3 3e 57 da e0 3e 59 b3 3b bd
       -0.42168018 0.38192627 0.4391658 -0.045825336
000120 6d ba 2d bd 04 f5 5d 3e 6a cc bf be 16 6d df be
       -0.042414118 0.21675497 -0.37460643 -0.43637913
000130 88 74 07 bd 07 b9 e1 be b1 0f 57 be 6f 2e 9c 3e
       -0.033070117 -0.44086477 -0.2100208 0.30504176
000140 1f 49 f6 3e 99 4a 6d bd 52 46 3c 3e a9 24 cc bd
       0.48102662 -0.05793247 0.183862 -0.0996793
000150 8a 35 52 3e 48 21 28 3e e6 78 f2 3e 86 5b 32 3e
       0.20528236 0.16418946 0.47357863 0.17417726
000160 2b 26 66 3e f2 cb 97 3e c9 c5 06 be 91 9a c3 3e
       0.22475497 0.29647785 -0.13161387 0.38203862
000170 ba 91 05 bd 9b 33 ba be 9e 41 34 3e 2b a0 0d be
       -0.03260968 -0.36367497 0.17603156 -0.1383063
000180 bb 4f fb be 51 2a 6f be 30 47 a7 3e 2a ff f8 be
       -0.49084267 -0.23355986 0.326715 -0.48632175
000190 b9 a2 db be 3c ca a7 3e c4 22 af 3e a0 91 31 3e
       -0.42897585 0.3277148 0.34206212 0.17340708
0001a0 42 42 ea bd b6 03 94 be 76 66 d2 be 6c e3 92 be
       -0.11438419 -0.2890908 -0.41093796 -0.28689134
0001b0 e5 a7 d0 3d 9c 2a ae 3e ac ad 01 bf bd 8d bf 39
       0.10188273 0.34016883 -0.5065563 0.00036535962
0001c0 db 7a dd be 47 30 ea 3d a4 65 19 be 4d e5 ca 3e
       -0.43257794 0.114349894 -0.14980179 0.39628068
0001d0 54 8d d3 bb c4 6a f0 3e d8 86 66 3d 2d 2f 9e 3e
       -0.0064560566 0.46956456 0.05628094 0.30895367
0001e0 4b 4f 5d 3e 8a be f4 be c9 6f 72 be 99 94 af be
       0.21612279 -0.4780162 -0.23675455 -0.3429306
0001f0 87 30 56 be 2c ab c5 3e b3 d9 d6 be 11 a7 e3 3e
       -0.20916949 0.38607156 -0.41962966 0.444634
000200 f4 a3 31 be d2 27 a4 3e b1 dc a0 3e 91 3c e7 be
       -0.173477 0.3206163 0.31418374 -0.45163396
000210 aa 42 27 3e 7c 59 c6 3e 61 b9 61 bd 2a 93 f9 3e
       0.16334024 0.38740146 -0.05510843 0.4874509
000220 00 b5 99 bd 23 99 c5 3e f0 55 df 3e e6 73 56 3e
       -0.07505226 0.38593397 0.43620253 0.20942649
000230 13 59 ec bd e1 65 d7 3d c5 98 e7 3e f2 5c ca be
       -0.11540427 0.10517479 0.4523374 -0.39524037
000240 f2 67 1a be 77 47 b3 3e 8c 7a cd be 4c d1 df 3e
       -0.15078714 0.3501546 -0.40132558 0.43714368
000250 f3 4c 41 3e a5 20 e4 3e 02 f8 2a bb ca 0a 7b 3e
       0.1887701 0.44556156 -0.0026087766 0.24515834
000260 ed d8 9f be 6c 33 82 3c 5e 33 d6 be 85 4c de 3e
       -0.3122019 0.01589366 -0.41836065 0.43417755
000270 e4 19 01 3f 12 06 86 3e c0 42 80 3d 75 f1 be be
       0.5043013 0.26176506 0.062627316 -0.37293592
000280 c0 40 db 3e 45 aa b7 3d 8e fd fb be 86 c0 da 3d
       0.42822838 0.08968023 -0.49216884 0.10681252
000290 63 df 30 bc 4b a4 da 3e ba 17 9a 3e 8e 92 c1 be
       -0.010795447 0.4270347 0.30096227 -0.37807125

weight_hh_l0 f4 [12, 4]
000000 c3 b9 65 3e 5c 2d eb be 4b b3 08 3d ae 9f 67 be
       0.22434144 -0.45933044 0.033374112 -0.22619507
000010 ea f4 d4 bc 5e 24 fe 3d 01 d3 97 be 3a 26 98 be
       -0.02599569 0.1240928 -0.2965317 -0.29716665
000020 ca 8e b3 3e cf 89 9f be 62 54 c0 39 04 a4 e8 be
       0.35069877 -0.31159827 0.00036683964 -0.45437634
000030 d3 a3 a6 be 36 72 e3 3e e2 48 84 be 59 17 2e be
       -0.32546863 0.44423074 -0.25836855 -0.17001094
000040 b0 e7 93 be 01 95 ae be c7 1f 6c be e6 49 be be
       -0.288877 -0.34098056 -0.23058997 -0.37165755
000050 50 0c cc 3e a3 5d f9 3e 51 d0 25 be 06 7a 83 3c
       0.39853144 0.48704252 -0.16192748 0.016049396
000060 f5 2d d2 be a8 a2 3b bd 23 81 5f be 1e 5a 99 3e
       -0.41050687 -0.045809418 -0.21826605 0.29951566
000070 8e c5 d8 3e 77 b8 e8 3e 4c d8 b5 39 fa 3b 23 be
       0.42338222 0.45453236 0.00034684164 -0.15940848
000080 32 59 ad be ab 06 52 3e bf 5b d5 3e 54 5d 8e be
       -0.33857113 0.20510356 0.4167156 -0.2780558
000090 bb bb aa 3e 91 39 e3 3d e1 6d 0a 3e 4c 47 df 3d
       0.33346352 0.11094964 0.13518478 0.10902271
0000a0 41 09 63 3e 23 72 8c 3e fa a4 c2 3d f8 fe ee 3e
       0.22171499 0.2743083 0.09504123 0.466789
0000b0 3a 8a 8d be 06 c5 be 3e fd 43 d7 3e f2 26 9d 3e
       -0.2764452 0.37259692 0.42044058 0.30693775

bias_ih_l0 f4 [12]
000000 a1 f2 19 3e 42 bf d1 be 1a 94 25 be 04 83 00 bf
       0.15033962 -0.4096623 -0.16169778 -0.50199914
000010 07 5d ec bd 57 fc 51 be 06 b5 a6 be 8e 99 aa be
       -0.11541181 -0.20506416 -0.32559985 -0.33320278
000020 dd 02 00 3e 55 0f 3f be 85 8d a8 3e 38 90 3a be
       0.12501092 -0.18658192 0.3292047 -0.18219078

bias_hh_l0 f4 [12]
000000 50 df 84 be 1f b8 7e 3e ca f7 89 3e ce b0 d8 3d
       -0.25951624 0.24874924 0.2694686 0.10580598
000010 13 27 15 be f1 28 bd 3c 25 4c 97 3e ac cc ce be
       -0.14565687 0.023090811 0.2955028 -0.40390527
000020 9a 5e 16 bd e8 75 f7 be ab 8b 63 be 7e f5 dd 3e
       -0.036711313 -0.48332143 -0.22221248 0.43351358

weight_ih_l0 f4 [12, 24]
000000 d5 2b a7 3e db 73 6f 3d 67 f6 e5 3e 49 6d 13 be
       0.3265063 0.058460098 0.44914553 -0.14397158
000010 2a 2e ee be 5d 8d 89 be 3a 47 25 3e ad 44 94 be
       -0.46519595 -0.26865664 0.16140452 -0.28958645
000020 36 4b 3d be 68 82 3e be 50 41 6d 3d f4 e5 de 3e
       -0.18485722 -0.18604434 0.057923615 0.43534815
000030 3b 84 62 be 1d 2c f8 be 21 f7 8b be 7a bc a6 3e
       -0.22120754 -0.48471156 -0.27336982 0.3256567
000040 fa b9 cc 3e 30 8a a8 3e 59 d2 87 3d 46 90 46 3d
       0.3998564 0.3291793 0.066319175 0.048477434
000050 6f ab 0e be 9a 74 8b 3e 97 e2 d0 be e7 0a b8 be
       -0.13932584 0.27237397 -0.40797874 -0.35945818
000060 ed 38 5b 3e 44 56 26 be 99 76 51 3d e1 5d c9 be
       0.21408434 -0.16243845 0.051138494 -0.39329436
000070 f5 69 03 3e 29 3f 39 be ee de 83 be 14 85 8e 3e
       0.12833388 -0.180905 -0.2575602 0.27835906
000080 7b 66 39 be 6c 3f ae bd 3a be f6 be d7 8b be 3d
       -0.181055 -0.085081905 -0.48192006 0.09304016
000090 b6 d7 60 be 86 64 f8 be 65 25 73 3e 08 56 63 be
       -0.21957287 -0.48514193 0.23744734 -0.22200787
0000a0 76 d9 c7 bd f1 15 12 be 03 e8 f8 be 8a 89 f9 3e
       -0.09758274 -0.14266182 -0.4861451 0.48737746
0000b0 44 ac 20 3d 24 7a b6 be 17 d8 0d bd 00 c8 91 3d
       0.039226785 -0.3564006 -0.034629907 0.07118225
0000c0 6c 5b ab be ad d1 3e be 72 12 0c 3e 06 26 02 be
       -0.33468187 -0.18634672 0.13678911 -0.12709817
0000d0 3c 7f 22 be 51 4a c5 3d 83 1a 6b 3e 11 b0 cd 3c
       -0.15868849 0.09633315 0.22959332 0.025108369
0000e0 06 ac ca bd 2f b7 d5 3e 45 73 f3 be 19 e9 36 3c
       -0.09896092 0.4174132 -0.4754888 0.011163973
0000f0 ef 8b c7 3e cd 25 d1 be 55 9e a6 3e 58 36 fa 3c
       0.38973948 -0.40849152 0.32542673 0.030543491
000100 1f e7 a4 3e b6 21 e8 3e 21 2d 92 be 35 0c 03 3e
       0.3220758 0.4533822 -0.28550056 0.12797625
000110 39 62 7d 3e a6 34 b9 3e 22 a2 f8 3d de ac ac be
       0.247445 0.3617298 0.121402994 -0.33725637
000120 36 45 c1 3e b3 58 77 be be d3 b4 3e 57 64 a7 3e
       0.37748116 -0.2415493 0.35317796 0.3269374
000130 e1 a0 e4 bb 97 2e 31 bc e5 be 86 bd 66 6a e7 bd
       -0.006977186 -0.010814331 -0.06579379 -0.11299591
000140 ba 87 a9 3d 1b ab 40 be 4f 6c 97 bd 0f 03 f1 be
       0.08277841 -0.18815272 -0.07393705 -0.47072646
000150 98 6d f4 3e a1 8b ab 3e db d7 ff 3e 08 25 0d be
       0.47739863 0.33504966 0.49969372 -0.13783658
000160 96 66 95 3e 47 9c c8 3e 76 8c 24 3e 86 80 cc be
       0.2917983 0.3918173 0.16069207 -0.39941806
000170 4c 9b aa be da 78 a8 3e f5 52 60 bd 5e 89 31 3d
       -0.33321607 0.32904702 -0.054766614 0.043343894
000180 65 5d 40 3e cb 4f 7e be 09 3a 91 3e a6 c7 ec be
       0.18785627 -0.24835126 0.2836459 -0.4624607
000190 84 67 cc be f1 d8 f1 be a4 41 3e bb 12 75 21 3e
       -0.39922726 -0.47235826 -0.0029030824 0.15767315
0001a0 b7 ba 7c be c3 d6 c5 be e7 c4 0b be ca 99 4b be
       -0.24680601 -0.38640413 -0.13649331 -0.19882885
0001b0 8f 00 0b bd 1a bc 81 3e ea a6 8c 3e 89 73 12 3d
       -0.03393608 0.25338823 0.27471095 0.035754714
0001c0 67 db 9d 3e 18 1e f0 be 5b 5b c5 3e 9c 21 d5 bc
       0.30831453 -0.4689796 0.3854626 -0.026017003
0001d0 b4 a7 aa 3d 41 b4 41 3e 6e 33 1e bd af a8 71 3e
       0.08332768 0.18916418 -0.038623266 0.23599504
0001e0 16 a3 8d 3d 00 57 ea 3e c5 aa ac bd 57 8a bc 3d
       0.06915872 0.457695 -0.08431009 0.09206074
0001f0 9d 31 07 3e 7d 4d d6 be 01 1b f1 3e e5 b7 e5 3e
       0.1320252 -0.41855994 0.47090915 0.44866863
000200 13 2e 8d bd 15 25 56 be 0d 3f b6 3d 30 c7 bc 3e
       -0.068935536 -0.20912583 0.08898745 0.36870718
000210 47 bb 8a be 29 f4 a5 3e fc a0 87 bc 96 e7 d4 be
       -0.27096006 0.32412842 -0.016556256 -0.41582936
000220 79 9b 07 3e 73 f9 ea 3c 36 36 06 be f9 23 94 be
       0.13242902 0.0286834 -0.13106617 -0.28933695
000230 b7 a2 4c bc f3 1a ac be 42 9f 5b 3d 2b 8b 9a bc
       -0.012489966 -0.3361431 0.053618677 -0.018865189
000240 0b 72 bf 3d c2 69 a0 3e 62 0a 17 be 5c 8e 8b be
       0.09347924 0.31330687 -0.14750054 -0.2725705
000250 25 cb 04 3b 27 cb e7 be e9 85 71 bc 02 59 a3 3d
       0.0020262685 -0.4527218 -0.014741399 0.07975961
000260 04 83 89 bc d0 2a f5 be bb 34 6c 3e f0 c6 a4 be
       -0.016786106 -0.47884226 0.2306699 -0.32183027
000270 8b b3 33 3e e2 27 bc 3c 2e fd 88 be a7 ae 9a 3e
       0.17548959 0.022968236 -0.2675566 0.30211374
000280 a1 d4 17 bd d3 63 59 be 49 ce 6c 3e b4 1b 40 3e
       -0.037068013 -0.21229486 0.23125567 0.18760568
000290 f8 6b 45 bd c8 a3 ff 3d 9f ba dc 3e 55 4b 2c be
       -0.04819867 0.12482411 0.4311113 -0.16825612
0002a0 e5 0f 4c 3d 2c 49 e4 3c 19 ad bb 3e a9 05 0e 3e
       0.049819846 0.027866922 0.366555 0.13869347
0002b0 8f 76 99 3d 66 f3 00 bf 2a f4 ae 3e 7c 5b ad 3e
       0.074933164 -0.50371397 0.34170657 0.3385886
0002c0 5d e0 98 3e 0a 95 30 3e 1c 08 b2 be 84 3e ce 3d
       0.29858676 0.17244354 -0.34771812 0.10070518
0002d0 d9 b9 ae 3d 13 f9 e6 be 14 ea 9c be d1 bc 9c 3e
       0.085315414 -0.45111904 -0.30647337 0.30612805
0002e0 10 fc cf 3e 64 b9 26 3d 03 ba da 3d cd 3e 64 3e
       0.40621996 0.040704146 0.1068001 0.22289582
0002f0 81 4c fc be 97 81 4f be b1 57 94 bd ce 4c 80 be
       -0.49277118 -0.20264278 -0.07243288 -0.25058597
000300 8d 4b cc be 03 94 89 3e 4e 89 f7 3e 42 00 49 3e
       -0.3990139 0.26870736 0.48346943 0.19629005
000310 98 3e da bd 97 7e 3e 3e e6 72 00 be f4 c9 3f 3e
       -0.1065647 0.18602978 -0.1254383 0.18729383
000320 40 40 c9 bd c0 06 04 be 89 6b 77 be 1b d6 32 3e
       -0.09826708 -0.128932 -0.24162115 0.17464487
000330 53 32 ba 3d 93 de 3e be 65 57 d4 be 92 c1 a1 be
       0.0909163 -0.18639593 -0.41472927 -0.31592995
000340 56 a4 96 3e 9e 76 dd be 09 07 f5 be 51 80 ce 3e
       0.29422253 -0.4325456 -0.4785693 0.40332273
000350 56 c6 cd 3d 71 59 45 bd f0 78 b4 be 40 c1 31 be
       0.10047595 -0.048181 -0.35248518 -0.17358875
000360 ac b8 91 be 0c 3f 3e be 03 ea 72 be 01 45 82 bd
       -0.28461206 -0.18578738 -0.23722081 -0.06360818
000370 b5 ce 25 3e 37 05 a7 be a9 eb ee be b1 c5 d1 be
       0.16192134 -0.32621166 -0.4666417 -0.4097114
000380 36 66 a5 be 56 24 94 3e 88 61 a7 be 68 fb d3 3e
       -0.32304543 0.28933972 -0.32691598 0.41402745
000390 04 da aa 3e 3f aa f1 be e0 c1 63 be dd 67 a4 3e
       0.33369458 -0.472002 -0.22241926 0.3211049
0003a0 43 bd 19 be 59 11 c3 3e 2a a8 eb be 13 a1 a9 3e
       -0.15013604 0.38099173 -0.46026736 0.33130702
0003b0 3d 6e ae 3e 5d a9 43 be ac a4 97 3e d3 05 97 be
       0.3406848 -0.19107576 0.29617822 -0.2949663
0003c0 28 27 0d 3e 5a 5d d1 3e da 60 68 3e 23 21 ea bd
       0.13784468 0.40891534 0.22693196 -0.114321016
0003d0 90 40 33 bd 3b 16 e9 3e cd 76 5f 3e 61 1e d1 3e
       -0.043762743 0.45524773 0.21822663 0.4084349
0003e0 8e bb d6 be 10 3e 49 bb 33 aa 9d be 68 ae ea 3e
       -0.41939968 -0.0030707158 -0.30793914 0.45836186
0003f0 61 d6 c2 be b8 a6 2c be 23 5b c9 be b1 1b 36 be
       -0.38054183 -0.16860473 -0.39327344 -0.17784001

weight_hh_l0 f4 [12, 4]
000000 34 4f 15 3e 4d d5 f4 be 5e a6 41 3e 41 32 a0 bd
       0.14580995 -0.47818986 0.1891112 -0.07822085
000010 12 a5 78 3d 8e a5 86 bd db a8 4a bd 88 03 c4 be
       0.0607043 -0.06574546 -0.04947744 -0.38283944
000020 f4 9b ba ba 13 52 f6 3e cd 6a c5 3e 6a 43 da be
       -0.0014237151 0.48109493 0.38558045 -0.42629558
000030 16 4b f5 be 56 c5 04 3e 32 d2 a0 3e 7b 5b 83 3d
       -0.4790885 0.12965903 0.31410366 0.06413933
000040 5c ce af 3e 8f a7 43 3e 07 37 fc bc ac 77 fa 3e
       0.34337127 0.19106887 -0.030787958 0.48919427
000050 ea 14 95 be 0b a5 ca be 47 6a c9 3d 74 e5 0f be
       -0.2911752 -0.39579043 0.09834724 -0.14052373
000060 b4 ef 95 3e cf 8b de be ed 8e 56 3e 16 b8 fa 3d
       0.2928444 -0.4346604 0.2095296 0.12242143
000070 c3 59 3f 3e 23 4a 8c be 34 ae 8f 3e b5 59 a4 bc
       0.18686585 -0.27400312 0.28062594 -0.020062307
000080 ae 1f ab bc 66 a4 ea bd 59 cb f5 3e ad 76 15 3e
       -0.02088913 -0.11457138 0.48006704 0.14596052
000090 ac 6e b2 be 05 2e c1 3e 16 39 4f 3e 01 b2 ed 3e
       -0.3485006 0.37730423 0.2023662 0.4642487
0000a0 bb 05 6e 3e ab 0f a0 be 7b 38 58 3e f8 a8 e8 3e
       0.23244374 -0.31261954 0.21115296 0.45441413
0000b0 fa f6 c3 bb 30 fb ce 3e 1c 08 80 3e 05 47 c8 3e
       -0.0059803696 0.40426016 0.25006187 0.39116684

bias_ih_l0 f4 [12]
000000 db fe 04 3e de 2c f4 bd 9e 64 de 3e ea 49 f1 3e
       0.12987845 -0.1192262 0.4343614 0.47126704
000010 ac cc 42 3d 17 f4 ab bd 40 20 73 be 4d 67 a5 3e
       0.04755847 -0.08396166 -0.23742771 0.32305375
000020 83 f3 a8 be d5 d7 c0 3e f3 c1 80 be 7f ad 97 3e
       -0.32998285 0.37664667 -0.25147972 0.29624555

bias_hh_l0 f4 [12]
000000 07 aa 24 be 4f 60 60 bc bf fb 7a 3c e6 3b dc be
       -0.16080485 -0.013694837 0.01531881 -0.4301445
000010 87 04 de 3d ac 72 d4 3e d1 64 c1 3e cf 84 92 be
       0.10840707 0.41493738 0.3777223 -0.2861695
000020 b3 48 b9 3e 2a fd f2 be 6c ec 4d 3e 3d 1d f5 be
       0.36188278 -0.47458774 0.20109719 -0.4787387

weight f4 [4, 4]
000000 b6 4c fa 3d 5b 66 16 3e 3c aa 11 3d 6e 59 e5 3e
       0.12221663 0.14687483 0.03556274 0.44794792
000010 ae 0d a1 3e d2 a2 8c bd 38 86 47 be b4 ab 4e 3e
       0.3145575 -0.06866993 -0.19484794 0.20182687
000020 d6 a6 36 bd 30 06 1f be 58 d6 68 be c4 1f 71 3c
       -0.0445927 -0.15529704 -0.22738016 0.014717046
000030 e4 0c fe 3e 12 d4 d1 3e 71 f7 f3 be d8 c4 00 3f
       0.4961921 0.4098211 -0.4764972 0.5030036

bias f4 [4]
000000 d7 2d c7 3d ee d3 c1 3d 0a 94 d7 3e 4b 0f 5d 3e
       0.0972554 0.094642505 0.42105132 0.21587865

weight f4 [320, 8]
000000 02 65 25 bc 4c 18 b3 39 a6 64 98 3e 0d cb 04 bd
       -0.010094883 0.00034159643 0.2976429 -0.032420207
000010 8d 44 0a 3e 28 5b e2 bd e8 44 96 39 c0 a1 9c bd
       0.13502713 -0.11052543 0.0002866157 -0.07648039
000020 b3 cb ff 3c 90 76 bf bd 9b b3 41 be 85 0d 64 3e
       0.031225061 -0.09348786 -0.1891617 0.22270782
000030 1b 29 e9 bd 0c 9b 04 3e 93 0e b8 be e6 3b 6c be
       -0.11384793 0.1294977 -0.3594862 -0.23069724
000040 12 82 b6 3d ed fe 3e 3e 55 7a 59 3e f2 a5 91 3e
       0.08911528 0.18651934 0.21238072 0.2844692
000050 8b 88 b1 3e 2c 1a 09 3e c4 b0 73 bd 12 cb fe 3c
       0.34674487 0.1338889 -0.05949475 0.03110269
000060 fc 3a 80 be 66 6c 95 3e 28 53 21 be 59 63 96 be
       -0.25045002 0.29184264 -0.15754378 -0.2937267
000070 f0 89 19 bc e9 49 dd bd ab 1e dc bd b0 29 10 3e
       -0.009371266 -0.10805113 -0.10748037 0.14078403
000080 97 19 90 3e a3 67 31 3e 42 86 9c be 2a b7 08 be
       0.28144524 0.1732469 -0.3057118 -0.13351122
000090 47 1b 67 bd 45 fa f3 3d 03 be 59 be 6d 11 95 be
       -0.056422498 0.119129695 -0.2126389 -0.29114857
0000a0 4b 4f de 3b 29 bf 48 3e 6a ee f9 3d d6 23 93 3c
       0.006784355 0.19604172 0.12203677 0.017961424
0000b0 18 3e c0 39 bc 28 9a be 25 f6 ac b9 01 d7 a0 3d
       0.00036667357 -0.30109203 -0.00032989788 0.07853509
0000c0 39 48 b7 3d 2a d8 8c be d5 29 3d 3e 8e a5 85 3e
       0.08949322 -0.2750867 0.18472989 0.2610287
0000d0 af 34 82 3e 90 c6 a0 bd 0c 27 99 3e 32 a7 87 3e
       0.2543082 -0.07850373 0.29912603 0.26494747
0000e0 9f be a1 bd 93 6e 45 3e c0 50 57 be 5a 6c 83 be
       -0.07897686 0.19280462 -0.21026897 -0.25668603
0000f0 c4 24 a5 3d 06 da 91 be 2a 2b 83 be f1 ac 90 bd
       0.08063653 -0.2848665 -0.2561887 -0.07064236
000100 5f 97 83 3d 36 73 86 bd 8e 79 c0 39 91 e5 6c 3e
       0.06425356 -0.065649435 0.0003671166 0.23134448
000110 bb a8 4c 3e 01 7d a0 39 5a 3f 82 3e 60 70 82 bd
       0.1998624 0.00030610713 0.25438958 -0.0636909
000120 80 51 a3 3e 1c f4 87 be 7b 68 9a 3e f3 11 2a 3e
       0.31898117 -0.26553428 0.30157837 0.1660841
000130 f7 e0 9e 3e c4 31 7f bb df 59 5d be 81 f0 41 3e
       0.3103101 -0.0038939575 -0.21616314 0.18939401
000140 fd 5a 2c 3e b6 61 8d 3e e0 95 b6 bd a3 e9 6c 3d
       0.16831584 0.2761361 -0.08915305 0.05784
000150 35 16 17 be a2 29 5d 3e 60 5a f1 bd 1b 6a ad be
       -0.14754565 0.21597913 -0.11784816 -0.33870015
000160 36 aa 1c 3e f2 ed 32 be 42 2f 9a be d1 27 3c 3e
       0.15299305 -0.17473581 -0.3011418 0.18374564
000170 52 dc 56 3d 55 01 b5 3e aa 18 b3 3d c0 4f d3 3d
       0.052456208 0.3535258 0.08744939 0.103179455
000180 5b d8 5d 3e 28 63 d0 3c ae de 7f 3e f6 bf 10 3e
       0.21664564 0.025437906 0.2498729 0.14135727
000190 10 7b 90 3d da 19 27 3e 40 34 0d be 41 bb c5 bd
       0.07054722 0.16318455 -0.13789463 -0.096548565
0001a0 40 ea 88 3b 38 16 ac be 51 21 3c be 29 36 8a be
       0.0041783154 -0.33610702 -0.18372084 -0.26994446
0001b0 4a bc 5c be 96 5a 22 3e 50 57 a9 3d d9 80 a3 bc
       -0.21556202 0.15854868 0.08268607 -0.0199589
0001c0 3e 4e 9a bb 2c cc 05 3e 95 3f 4f be fb 77 8a bd
       -0.004709034 0.13066167 -0.20239098 -0.06761166
0001d0 84 78 83 be f7 82 ad be 48 b5 9a 3e 2b 7b 8a 3e
       -0.25677884 -0.3388898 0.30216432 0.27047095
0001e0 29 e7 e6 3c c5 31 4f 3e e1 06 9b be fc 31 90 3e
       0.028186398 0.2023383 -0.30278686 0.28163135
0001f0 fe 2f 2b be 6d 76 09 b9 52 ae a1 3d 54 01 3f bd
       -0.16717526 -0.00013109455 0.07894577 -0.046632126
000200 ae ea 16 3e bd 7c d0 3d f9 c2 97 be 51 85 af 3c
       0.1473796 0.10180042 -0.2964094 0.021425875
000210 68 c3 27 bc e3 36 6e 3e f0 02 c0 39 25 37 61 3d
       -0.01023946 0.23263125 0.00036623282 0.05498423
000220 fc ea cb bc e0 cc 8b bd 8c b3 5d be 51 bd 9f be
       -0.024892323 -0.06826186 -0.21650523 -0.31199124
000230 3e 95 b8 3e fc 53 a8 3d 83 8a 1a be 6d 30 f8 3d
       0.36051363 0.08219144 -0.150919 0.121186115
000240 da ad c8 3d 86 35 81 3e be ba 92 3e a0 cd 82 3e
       0.097987846 0.25236148 0.28658098 0.25547504
000250 3f 6b 24 be ff ca 9a 3e 89 32 31 be c9 d7 83 3d
       -0.16056536 0.30233 -0.17304434 0.06437642
000260 ef be 7f be 2c 93 34 3e 6f a7 82 be 4e de a8 be
       -0.24975179 0.17634267 -0.25518367 -0.32982105
000270 86 8c 9f 3e fa 0c ab 3e 50 26 3d 3e eb 72 9a 3c
       0.31161898 0.33408338 0.18471646 0.018853625
000280 74 68 ba bd c9 4d 3d 3d 43 86 e1 bc 23 cc 29 be
       -0.09101954 0.04621676 -0.027529841 -0.16581778
000290 1f d5 48 bd d9 6c 93 bc 70 e8 19 3d 2b 92 cc bd
       -0.049031373 -0.017996239 0.037575185 -0.09988817
0002a0 4e 74 9f 3c d4 86 a0 3e d4 e9 be 3d 45 02 98 3e
       0.019464638 0.31352866 0.09321943 0.29689232
0002b0 a8 ea 74 3e 81 5d 2d be 89 5b 61 3e a5 0c 38 3e
       0.2391764 -0.169302 0.22007574 0.17973574
0002c0 71 f8 e7 3d 8f a9 92 be d0 62 98 be d1 fe f0 bd
       0.11326683 -0.28644988 -0.29762888 -0.11767352
0002d0 a4 43 81 3e 90 e5 a3 be 23 56 21 be 96 00 e4 bc
       0.25246918 -0.3201108 -0.15755515 -0.02783231
0002e0 17 5d 12 be 1c 42 6f be 37 e2 ff 3d c5 3f 5f be
       -0.14293323 -0.23365062 0.12494319 -0.2180167
0002f0 a1 27 19 3e b8 70 a2 3e d8 bc bb 3d 87 4d d5 bc
       0.14956523 0.31726623 0.091668785 -0.026037944
000300 2d 78 e0 bd 1f 78 00 3e e5 39 8a 3e 49 ea 23 be
       -0.10960422 0.12545823 0.26997295 -0.16007341
000310 d9 e8 5d 3e 68 69 8e bb 64 69 a4 be b1 d0 a3 be
       0.21670856 -0.0043460615 -0.32111657 -0.31995156
000320 97 4c 30 3e d0 d2 a5 be e9 97 5f 3e 30 2e 73 3e
       0.17216717 -0.323874 0.21835293 0.23748088
000330 19 12 8c bd 4f e8 84 3e 8e 2c 58 be 25 c9 b1 3e
       -0.06839389 0.25958487 -0.21110746 0.34723774
000340 cb 2b 84 be e0 45 75 3b 6e 74 54 be df ba 91 3e
       -0.2581466 0.0037425682 -0.2074754 0.28462884
000350 7e 04 95 be 5b 5a 89 be 22 f4 5c be d5 d3 06 be
       -0.2910499 -0.26826748 -0.21577504 -0.13166745
000360 60 d4 cf bd d5 10 19 3d 48 18 44 be d0 35 69 be
       -0.10147929 0.037369568 -0.19149888 -0.22774434
000370 06 78 7a 3e a8 b9 3e 3e a1 78 96 3e 98 5f 15 be
       0.24459848 0.1862551 0.29388908 -0.14587247
000380 86 e5 9e 3d 6e 21 5d bd 49 c3 7f bd d4 b2 96 3d
       0.07758622 -0.05398696 -0.062442098 0.073583275
000390 6c 08 d2 3d 8c bd 86 be 43 96 1f be e4 10 33 3e
       0.102555126 -0.26316488 -0.15584664 0.17486912
0003a0 ba aa f2 bb e2 40 a7 3e e2 5b 88 be 6c a7 66 3e
       -0.007405606 0.3266669 -0.266326 0.22524804
0003b0 f9 29 31 3e b4 f6 53 be 8c 11 a2 3e 63 c5 af 3e
       0.17301168 -0.20699579 0.31654012 0.34330282
0003c0 26 e4 70 be 9c d8 18 3e b3 58 7d bd 29 c2 9f be
       -0.23524532 0.1492638 -0.06185217 -0.3120282
0003d0 2c 5c cf bd 69 a3 8a 3e 40 29 83 be e7 e7 92 bd
       -0.10125002 0.27077797 -0.2561741 -0.07173138
0003e0 66 08 3d 3e 35 29 83 3d e3 d1 1f bc 46 59 3b 3e
       0.18460235 0.06404344 -0.009754631 0.18295774
0003f0 a5 20 d5 bd 40 54 a3 3e 07 16 69 3e c2 37 0a be
       -0.10406617 0.31900215 0.22762309 -0.13497832

bias f4 [320]
000000 3d f7 6b be ef d5 9a 3e ae a0 e0 3d e7 38 51 be
       -0.23043533 0.30241343 0.10968147 -0.20431863
000010 9e 4b ea bd 45 31 9b be ef 07 b1 3d e3 e3 96 be
       -0.11440204 -0.30311027 0.08644091 -0.2947074
000020 79 e4 80 be 10 65 c4 3d 24 fd af 3e 2a 68 8e 3e
       -0.2517431 0.09589589 0.34372818 0.27813846
000030 7b a9 94 3c 6c e4 1a be 08 b6 32 3d c6 0b 98 be
       0.01814722 -0.15126199 0.04363063 -0.29696482
000040 06 ab 91 be ac 5d 41 bd bc b0 8f 3d 49 af 11 be
       -0.28450793 -0.047208473 0.07016131 -0.14227022
000050 0c 8f 90 be f8 79 a2 be 7a 30 85 3e 0f 3c 26 be
       -0.28234136 -0.3173368 0.26013547 -0.16233848
000060 43 ba 4f be a0 50 be 3d 00 53 ef 3d 99 7d 16 be
       -0.20285897 0.09292722 0.11685753 -0.14696349
000070 be 0a a7 3e 0c 08 88 3e 5e 1b a3 3e e1 f6 ab 3c
       0.32625383 0.2656864 0.31856817 0.020991744
000080 e1 27 f2 3c f8 88 a9 3e ae fb 41 3c 36 3d f5 bd
       0.029560031 0.3311231 0.01183979 -0.11974566
000090 49 50 90 3d 2d 78 d6 3d ed c3 15 3e 42 33 8d be
       0.07046563 0.104721405 0.14625521 -0.2757817
0000a0 cd d7 83 3c 95 1e 42 3e fb 16 43 3e de a8 90 be
       0.016094113 0.18956979 0.19051735 -0.28253835
0000b0 3a fc 04 3e 33 f1 f7 3d 0e 30 0c 3e 49 f3 1d bd
       0.12986842 0.12106552 0.13690206 -0.038562093
0000c0 10 84 cc bd a9 a7 00 be 23 82 81 bd 59 f0 7c be
       -0.099861264 -0.12563957 -0.0632365 -0.2470106
0000d0 fd 50 2b bc b2 80 ad 3e e5 d8 e4 bd bb 3c 02 be
       -0.010456321 0.3388725 -0.11174182 -0.1271848
0000e0 56 28 72 3e a7 1c d9 3d e5 72 b0 3e 95 70 97 3e
       0.236482 0.10601168 0.34462658 0.2957808
0000f0 a7 52 75 be bf 92 85 3d cd a3 fd bd 2e b9 71 be
       -0.2395731 0.0652213 -0.12384758 -0.23605797
000100 dc 77 8c be 2f 8a 12 be c8 9e 4b 3e 66 66 af 3e
       -0.27435195 -0.14310525 0.19884789 0.3425781
000110 0a 40 17 3e 7b a6 18 3d 99 01 19 be 07 d2 2d be
       0.14770523 0.037268143 -0.14942016 -0.1697465
000120 ff 91 7d 3e 81 50 81 be f7 bb 86 bd 1d 79 29 be
       0.24762724 -0.25256732 -0.0657882 -0.16550107
000130 fb cc 3e 3e 7d 12 5c be 62 e2 4e 3e cf e7 8f be
       0.18632881 -0.21491428 0.20203546 -0.28106543
000140 3f fc 25 bd 01 c0 b1 3e db 74 82 3e 32 cc 53 3e
       -0.040523764 0.347168 0.2547978 0.20683363
000150 45 ca 51 3e 53 af d2 3d 2f 37 84 bd 2f 2d 3d be
       0.20487316 0.10287347 -0.06455838 -0.18474267
000160 1d 9d 31 3d 75 8c 1c be 43 40 64 3e 02 a7 99 bd
       0.043362726 -0.15287955 0.22290139 -0.07502557
000170 4c 22 28 be fb 32 ed 3d 2f 2b 02 3e d2 e2 86 be
       -0.16419333 0.115819894 0.12711786 -0.26344925
000180 2b 73 a4 be 54 c4 ad 3e 78 0e b7 3e ea 89 99 be
       -0.32119116 0.3393885 0.35753226 -0.29988033
000190 98 f2 5c bc ee 7a e4 bc 81 27 df 3d c0 a9 21 3e
       -0.013485573 -0.027890649 0.10896207 0.1578741
0001a0 dc 33 c0 3d 88 af 8b be a4 c7 5a 3c 9d 6c 10 be
       0.093848914 -0.27282357 0.013353262 -0.14103933
0001b0 47 8f 3c be c1 4f 21 be 46 3d 9f 3c e4 d6 31 be
       -0.18414031 -0.1575308 0.019438397 -0.1736713
0001c0 5c 7a a1 3e 1d 24 5b 3d 20 18 58 be a7 99 93 be
       0.31538665 0.053501237 -0.21102953 -0.28828165
0001d0 1b 9d 9d 3e 4d 10 b6 3c 23 f3 d3 3d bf 10 86 3e
       0.30783924 0.02222457 0.10349109 0.2618465
0001e0 41 46 9f 3e 58 fd eb bd d4 6a 6d be 92 3f 5b 3e
       0.31108287 -0.11522931 -0.23185283 0.21410969
0001f0 c8 23 5b be fd 28 71 be 69 cd 61 be a4 11 04 be
       -0.21400368 -0.23550792 -0.22051014 -0.12897354
000200 5e 43 a1 bd 65 d7 e3 3d 9c 33 e7 bd af 31 ed 3d
       -0.078741774 0.111250676 -0.112891406 0.11581742
000210 a8 95 8c be f7 aa aa 3e 86 84 61 be 50 42 4f be
       -0.2745793 0.3333356 -0.2202321 -0.2024014
000220 69 12 aa 3d bb 61 c9 bd 67 3d 9d bd db 1b d0 bd
       0.08304293 -0.09833094 -0.07677727 -0.10161563
000230 e0 c6 7f 3e a3 8d 6d bc de 56 5c be e3 4c 81 bb
       0.24978209 -0.014499101 -0.21517512 -0.003945933
000240 0a 3b 67 bd 2e 15 6f 3d 33 24 20 3d 77 b5 ad bc
       -0.05645279 0.058369808 0.039097022 -0.021204693
000250 2b 0b 5d be 97 d3 14 3e 76 50 5e 3e f2 13 ca bc
       -0.21586291 0.1453384 0.21710381 -0.024667714
000260 fa e8 30 be f1 3c 09 be fc ae 93 3e 04 11 27 be
       -0.17276374 -0.13402154 0.2884444 -0.16315085
000270 cc 3f a0 3e b1 9e e2 3c fc 09 87 3d 58 6d b3 3e
       0.31298673 0.02766356 0.06593701 0.3504436
000280 21 f2 a2 bd d8 95 f2 bd 6b 2d 93 be 54 49 8e be
       -0.07956339 -0.11844987 -0.2874559 -0.2779032
000290 68 07 86 3e e2 d2 96 3d 88 61 64 3e 3a 3d a4 3e
       0.26177526 0.073644415 0.2230283 0.32077962
0002a0 d9 71 1d be 17 c8 ff bd d3 d4 ae 3d ba 5e bc 3d
       -0.1537546 -0.12489336 0.08536687 0.09197755
0002b0 2f df f2 bd 1b 86 24 3e 1c 66 42 be e8 ba 58 be
       -0.11858975 0.16066782 -0.18984264 -0.21165049
0002c0 0c d0 60 be d7 df 66 be ed 37 89 3e 3c 22 a4 be
       -0.21954364 -0.22546326 0.2680048 -0.3205737
0002d0 c3 81 d3 3d 15 15 c4 3d 2c 5a 20 3d 33 44 df 3d
       0.103274845 0.095743336 0.039148495 0.1090168
0002e0 f2 33 2a be e7 83 93 be c1 9b 83 3e 1e ff c3 3d
       -0.16621378 -0.2881157 0.25704768 0.09570144
0002f0 43 d2 9a 3d c1 d6 90 be c1 2a 55 3e 3f 90 99 3e
       0.075596355 -0.28288844 0.2081709 0.29992864
000300 d0 de 97 3c 77 d5 a4 bd 7a b5 97 3e ab 6d f8 3c
       0.018538862 -0.08048528 0.29630643 0.030325731
000310 f1 32 d3 3d 46 34 87 be 0f ae 9b 3e e4 df 8e be
       0.10312451 -0.2640707 0.30406234 -0.2790519
000320 f3 a2 60 be bf e5 a8 3e 80 9d 53 be da 3c 70 3e
       -0.2193716 0.32987782 -0.2066555 0.23460713
000330 b5 88 06 3e 81 a0 a2 3a 4f 55 f8 3d 96 1b 8f be
       0.13138087 0.0012407453 0.12125646 -0.27950734
000340 2e 46 05 be 6e 55 b7 3d d4 56 cc 3d 40 2d 20 3d
       -0.13015053 0.08951841 0.09977499 0.039105654
000350 3d 05 4a 3e 28 8f 8d 3b 7b f2 70 3e d6 10 2d 3e
       0.19728561 0.004320044 0.23529999 0.16900954
000360 5a 7c a1 3e 7d 9a 08 be 63 44 75 3e 75 79 77 be
       0.31540185 -0.13340183 0.23951869 -0.24167426
000370 65 65 20 3e e9 61 3d be 6b 9d 23 3e 89 d6 3f be
       0.15663679 -0.18494381 0.15978019 -0.18734182
000380 31 75 aa 3e 08 93 81 be 80 79 9e 3e 01 c7 d0 3d
       0.33292535 -0.25307488 0.30952072 0.10194207
000390 40 29 b1 bd 74 6b 0a bd d0 8e 2e be 87 38 97 3e
       -0.08650446 -0.03379388 -0.17046666 0.29535314
0003a0 e0 63 bf bd 46 ce 66 bd bf e0 30 be 9d c6 90 bd
       -0.093452215 -0.05634906 -0.17273234 -0.070691325
0003b0 73 b7 52 be 1f 1a 67 3e 69 99 65 be 8d 2e 8f 3e
       -0.20577793 0.22568558 -0.22421803 0.27965203
0003c0 e1 18 2f 3e e9 8e 85 3c 80 f9 1d 3e fd 50 2b be
       0.17099334 0.016303496 0.15427208 -0.16730113
0003d0 a1 bd 70 3e 7b ce 6c be e4 e4 2c 3e c7 b7 09 3d
       0.23509838 -0.23125641 0.1688419 0.03362253
0003e0 b4 3b 09 bd 40 c6 6a 3c 11 e2 90 3e c6 94 81 bd
       -0.033504203 0.014329493 0.28297475 -0.063272044
0003f0 bc e8 85 be 83 5d 56 bd 19 a8 77 be 95 5c 2c 3e
       -0.26154125 -0.052335273 -0.24185218 0.16832192

weight f4 [4, 320]
000000 a4 b5 c0 39 f5 39 f5 bc 8c a5 02 3d 67 33 94 b9
       0.00036756427 -0.029934863 0.03189616 -0.00028267057
000010 b2 dd b2 bc 87 0e 46 3b 18 97 9b bc 4f bc 85 3b
       -0.021834228 0.0030221061 -0.018992946 0.004081286
000020 2c ea c0 b9 68 88 04 3d dd 57 03 bc 3b 8d 58 bd
       -0.00036795565 0.03235665 -0.008016554 -0.052869063
000030 08 16 2c 3d 3c 6b 92 bc 3f 39 85 bc f3 b7 c0 39
       0.042013198 -0.017873399 -0.016262649 0.00036758147
000040 b2 62 ab 3a 8c 46 fa 3c f5 a2 0a bd 09 0c 26 3d
       0.0013075678 0.030551217 -0.033846814 0.04053882
000050 aa fb c0 39 13 a0 07 bd ec 29 b9 3c 9b a3 f5 3c
       0.00036808598 -0.033111643 0.022602998 0.02998524
000060 49 72 3c 3d f1 f1 53 bd 3d f3 e1 3c e7 42 88 ba
       0.04600743 -0.051744405 0.027581805 -0.0010395915
000070 c7 df 11 bd 7a 99 44 3d fc 91 0a 3d 45 b9 b1 bc
       -0.0356138 0.04799793 0.033830628 -0.021694789
000080 d3 8e 45 3d 67 b5 cf 3c 72 12 83 bc 18 e8 4d 3d
       0.04823191 0.025355054 -0.016000006 0.05027017
000090 75 69 06 bd 13 a1 24 3c 07 00 04 bd 17 a9 c0 39
       -0.032815415 0.010048169 -0.03222659 0.00036747076
0000a0 79 e3 87 bc 91 a4 0f bd 16 e4 19 bd 5e 7b b5 39
       -0.01658796 -0.035069052 -0.037571035 0.00034614926
0000b0 47 2b 4f 39 cb bf 07 bd 26 31 e1 bc f1 d7 78 3d
       0.0001975718 -0.033141892 -0.027489256 0.060752813
0000c0 68 4c 00 bd d2 de 8c bd 19 2b c9 bc e0 82 2a 3c
       -0.031322867 -0.06878437 -0.024556683 0.01040718
0000d0 04 2d 09 bd 59 f0 d4 3b d9 59 15 3d 9c a8 23 3d
       -0.033490196 0.0064983782 0.03646264 0.03995572
0000e0 5a 89 34 3c 9e 43 12 bd 02 81 99 3c 32 fc 07 bc
       0.011019075 -0.035709016 0.018738274 -0.008299874
0000f0 18 fe c0 bc 1a e5 62 bd 71 9e 1c 3d 0c 44 18 3d
       -0.023558661 -0.05539427 0.03823704 0.03717427
000100 6b 9b 5b ba cd 93 ae 39 c7 cd b0 bc 1b c4 04 3d
       -0.0008377346 0.00033297986 -0.021582497 0.032413583
000110 24 5a f1 bc b7 d8 1a bd b5 0f 87 bb d7 24 48 b9
       -0.029461928 -0.03780433 -0.0041217455 -0.0001908721
000120 ac 7b ed 3b ca 9e 28 bd fc 86 51 3c 84 8f b7 39
       0.007247409 -0.041167058 0.01278853 0.00035011407
000130 1a c8 16 3d 91 93 b9 3c dc c9 3a bb eb 3a 96 b9
       0.036811925 0.022653373 -0.0028501665 -0.00028654127
000140 de 8f 95 3c 85 61 cc 3c 5a dc d6 3c 32 45 22 bd
       0.018257078 0.024948845 0.026228119 -0.03961677
000150 0f c7 b7 bc 06 bd 37 b9 23 c3 e5 ba 81 9b ff 3c
       -0.022433786 -0.00017522657 -0.0017529469 0.03120208
000160 0d e7 f7 bb 86 c2 38 bd b8 df 38 bd c9 96 2a bd
       -0.007565385 -0.045107387 -0.04513523 -0.041647706
000170 ee 52 c0 b9 7c 27 3f bd 11 0b c4 3b 7c ea 0d bd
       -0.0003668288 -0.046668515 0.0059827645 -0.03464745
000180 e2 bf 5e bc a3 33 f8 3c 3a 73 59 3c 51 04 b8 bc
       -0.013595553 0.03029806 0.013272101 -0.022462996
000190 3d cb 7a bc 8e 51 13 bd 4a 0c 50 3a c8 37 4b 3d
       -0.015307245 -0.03596645 0.00079364015 0.049613744
0001a0 01 88 ba bc 51 bb c0 39 5a c0 ec 3c 8f 0f cc 3a
       -0.02276993 0.00036760655 0.028900314 0.0015568602
0001b0 b4 96 9f bc e6 8d bd bc d3 4d 00 3d d9 1a 46 3d
       -0.01948104 -0.023138952 0.03132422 0.048365448
0001c0 54 0c 0f bd 5f e3 a4 bc 51 53 1c b9 66 51 15 bd
       -0.034923866 -0.02012795 -0.00014908357 -0.03645458
0001d0 40 78 10 3d 72 d4 2b bd ec 89 8e 3b d3 46 a0 bc
       0.03527093 -0.04195065 0.0043499377 -0.019565022
0001e0 8b 39 5c 3d 70 f7 fe 3b 00 54 3a 3d 93 e5 91 bc
       0.053765815 0.0077809617 0.045490265 -0.017809665
0001f0 6c fc fb bc b5 58 f1 3c a1 4e d8 bb 9b 46 d1 bc
       -0.030760013 0.029461244 -0.00660117 -0.025546363
000200 5c fb 34 3c 82 4c a5 bb 4f 3c f0 3c 41 a6 ca bc
       0.011046257 -0.005044521 0.029325632 -0.02473748
000210 8b 7e ac 37 19 e9 48 bc af e0 4a 3d a5 08 a6 b9
       2.0562924e-05 -0.012262606 0.04953068 -0.00031668428
000220 ac 79 10 3d 2a 63 41 3c 90 38 33 3d b6 e8 89 bb
       0.035272285 0.011803428 0.043755114 -0.0042086495
000230 a9 b8 34 3d 2d e0 84 3b 95 39 74 3d df b8 df 3c
       0.04412142 0.004055044 0.059625227 0.027309833
000240 7a 08 4c bc 33 95 c8 3c d8 fe 2f 3d 73 c7 33 3c
       -0.012453193 0.024485206 0.042967647 0.010972845
000250 38 1f c1 39 b4 fe 56 3d 12 c0 d4 3a 61 96 d6 bc
       0.00036835088 0.052488998 0.0016231558 -0.026194753
000260 75 7b 14 bd ea 67 c0 39 9d 86 f0 39 58 32 b1 bc
       -0.03625055 0.00036698516 0.00045876662 -0.021630451
000270 8d 4a 66 3c 61 20 e8 3b 35 95 a0 bc 37 b8 35 3d
       0.01405586 0.007083938 -0.019602397 0.044365134
000280 31 91 db bc d4 f6 b6 b9 ba 4b 51 bd 0f 7f f2 bc
       -0.026802631 -0.00034897646 -0.05109761 -0.029601602
000290 01 1f 01 ba 5a d7 78 3d 81 db 8f 3b e5 21 27 bd
       -0.00049255794 0.06075225 0.0043901806 -0.04080381
0002a0 a8 3f b9 b9 22 2c 85 bd a1 14 77 bb ad 29 b3 bb
       -0.00035333377 -0.06502558 -0.0037701505 -0.0054676146
0002b0 24 37 27 bc c6 ad 3c bd 71 5d 56 ba 7b 93 92 bb
       -0.010206018 -0.04606416 -0.0008177376 -0.0044731474
0002c0 41 bd 76 bb 03 c2 c0 b9 f8 42 0b 3d b6 1b 93 bc
       -0.0037649425 -0.00036765644 0.033999413 -0.01795755
0002d0 3c 95 16 39 4f 45 11 bc 43 3d 43 3d 4d 66 95 3c
       0.00014360709 -0.008866622 0.047665846 0.018237257
0002e0 c6 b8 7c bc 57 9b 35 bd 30 de 36 3d 33 71 69 bd
       -0.015424913 -0.044337597 0.04464549 -0.05699272
0002f0 6d 63 03 bd fa ce 8b 39 13 b3 30 bd 2e aa 4b bd
       -0.03207724 0.00026666356 -0.04313953 -0.049722843
000300 5a 03 09 3d 7b 14 5f bd ed 1a 14 bd dc 3f 3e bd
       0.033450462 -0.05446289 -0.03615849 -0.04644762
000310 13 8e 76 3c cd 08 d1 3b dd f0 f2 bc 49 82 bf 39
       0.015048522 0.006379223 -0.029655868 0.0003652743
000320 d9 48 a4 bc f2 39 20 3d df 71 23 3d 8f d0 95 3c
       -0.020054268 0.03911776 0.039903518 0.018287925
000330 86 ea f5 bc ab 4f b8 3b 9d 3e 2f 3d 41 bf 48 3c
       -0.030019056 0.0056247315 0.042784322 0.01225263
000340 f1 72 8d bc c6 0b 81 bc 84 3f 98 bb af 02 6d bd
       -0.017266722 -0.015752684 -0.0046462435 -0.057863887
000350 7a d7 0e 3c c3 1c 31 bd 48 90 8a bc f9 2c 9c 3c
       0.008718366 -0.04324032 -0.016914502 0.019064413
000360 98 8c c6 bb 84 62 c0 bc 64 ff 0d bd 5c 05 c1 39
       -0.0060592405 -0.023484476 -0.034667388 0.00036815822
000370 20 9e 3e bd 8d a4 b8 bb 0c a8 4b bc e9 0d c8 3c
       -0.04653752 -0.0056348504 -0.012430202 0.024420695
000380 a5 b4 be 3c 8f 89 36 3d d4 1c 6b bc c6 d3 53 bc
       0.023279497 0.04456478 -0.014350135 -0.012928909
000390 2e b5 c2 3c fc 90 be b9 12 28 32 bd 28 8c 82 3c
       0.023768034 -0.00036347646 -0.043495245 0.015935972
0003a0 21 80 a1 39 76 89 70 b9 c3 36 a5 39 6c be c0 39
       0.00030803776 -0.00022939392 0.00031512053 0.0003676297
0003b0 a8 0f c1 b9 60 78 c3 bc 41 cf b4 b9 4b 60 cf bc
       -0.00036823493 -0.02386111 -0.00034486692 -0.02531447
0003c0 ff bf 57 3d e8 7b b2 bc 71 4b 8d bc 4d 7d fd 3b
       0.052673336 -0.021787599 -0.017247887 0.0077358843
0003d0 18 28 ef 3c 57 18 62 bd 5b 18 18 bd d3 d5 7a 3a
       0.029193923 -0.055198994 -0.037132602 0.00095686055
0003e0 ee 25 01 3d 4d a9 eb bb cc 39 90 3c f6 27 0d bd
       0.031530313 -0.007191813 0.017605685 -0.034461938
0003f0 04 3f c0 b9 b5 49 c7 bc c0 55 c0 b9 79 93 6a bc
       -0.00036668044 -0.024327138 -0.00036684982 -0.014317387

bias f4 [4]
000000 b8 a6 b2 bc 57 e1 49 3d 09 1d 1d bc 9e 92 71 3d
       -0.021808013 0.049287166 -0.009589442 0.058977716

weight f4 [4, 8]
000000 0d 37 81 bd c5 23 bb 3d f8 94 4f 3e 5c 0b cc bd
       -0.06309328 0.09137682 0.20271671 -0.09963104
000010 5d e5 95 3e b3 6d 4d 3e 10 2d a7 bc 8d da 78 be
       0.29276553 0.20061378 -0.02040723 -0.2430212
000020 e6 50 41 3e af 84 3d 3b 21 09 15 3e c0 9a 48 be
       0.18878517 0.0028918197 0.14554264 -0.19590282
000030 65 d1 85 be cc 30 08 bd da 81 a2 3d 23 fd 62 3e
       -0.26136318 -0.03324966 0.079349235 0.22166876
000040 d5 20 84 be 10 7f bb 3d d0 da 40 3e 35 b5 01 be
       -0.258063 0.091550946 0.1883347 -0.12666781
000050 52 15 aa bd 41 25 f7 bd 76 a6 ec 3d 00 9c 99 bd
       -0.08304848 -0.120676525 0.115551874 -0.07500458
000060 21 b1 d4 bd 2f 81 b5 be 63 1c 8d bd 6e 34 07 bc
       -0.10385347 -0.35450122 -0.0689018 -0.008252246
000070 1a 1d ba bd 3b c1 a6 be 92 7e a5 3d b2 76 d5 3c
       -0.09087582 -0.32569298 0.08080782 0.026057575

bias f4 [4]
000000 ac c0 fa bc f3 bf 64 be a9 30 a4 3e a2 8c 80 3e
       -0.030609451 -0.22338848 0.32068375 0.25107294

weight f4 [4, 8]
000000 8a 24 5e 3a f9 05 af bb 87 c9 18 3e 56 32 80 3e
       0.00084740727 -0.005341288 0.14920627 0.25038403
000010 86 61 80 3e ff 3a c1 39 6d a1 0a 3e 10 99 b3 39
       0.25074404 0.00036855784 0.13538142 0.0003425558
000020 84 2f 86 be 6d dc 65 bd 07 a2 cc bd 09 52 7b be
       -0.26208127 -0.056118418 -0.09991842 -0.24543013
000030 30 1a 07 3e c3 6c 38 3d 9b b6 fe ba 59 52 43 3e
       0.13193583 0.0450256 -0.0019433083 0.19074382
000040 fe ce 6f bd 5b 7e 63 be 9e c1 44 3e 76 6d 54 bd
       -0.058547013 -0.2221617 0.19214484 -0.051862203
000050 1f 04 5b be ea 33 71 3e 28 9b 81 be d5 51 0b 3d
       -0.21388291 0.2355496 -0.25313687 0.034013588
000060 a4 5d b1 3e a1 22 8f be 6a af 71 3e d4 03 94 be
       0.34641755 -0.27956107 0.23602071 -0.2890917
000070 af c8 4e 3e bd 08 9f 37 7b f5 91 be 3c bb f7 3c
       0.20193742 1.8958346e-05 -0.285076 0.030240647

bias f4 [4]
000000 1f eb 1e be f7 af a8 3d f3 80 88 be 28 b5 9c bd
       -0.15519379 0.08236688 -0.2666088 -0.0765174

weight f4 [10, 2]
000000 f8 43 0c bf f4 df f1 3d df b1 64 be f2 62 be 3d
       -0.5479121 0.11810294 -0.22333477 0.09296216
000010 82 7f 11 be ae 62 4a 3e 27 07 a1 3e 43 9b 92 be
       -0.14208797 0.19764206 0.3145077 -0.2863408
000020 14 7c 07 3f 3a 4d 15 3f 5f 86 91 be 73 e2 c5 bd
       0.52923703 0.58320963 -0.2842283 -0.096623324
000030 3d 38 29 bd 3e 52 13 3f 59 5f 1f bf 77 58 13 3f
       -0.0413134 0.57547367 -0.62254864 0.5755686
000040 15 c7 d1 be b9 93 26 3e 8c cf 85 3e 8e 03 14 be
       -0.409722 0.16267289 0.26134908 -0.14454481

bias f4 [10]
000000 87 a0 25 3f 10 73 ca bd 75 27 e6 be b8 60 2f 3f
       0.6469807 -0.09885228 -0.44951978 0.68506956
000010 f7 65 19 bf eb 9d 1c be bc 12 d4 bb 3b b7 2f bf
       -0.5992121 -0.15294616 -0.00647196 -0.6863896
000020 dc 1a 9e be aa d4 a9 be
       -0.30879867 -0.33170062

weight f4 [10, 2]
000000 52 6c ce bd 78 46 ba be d6 c8 8d be 1f ec 80 3e
       -0.10079254 -0.36381888 -0.27692288 0.25180146
000010 13 c9 78 bc 7f d8 0d 3e 0c 7c 2e 3f 7e d0 25 bf
       -0.015184659 0.13852118 0.6815803 -0.6477126
000020 d4 a1 56 3e 39 87 87 be db 12 e9 3e 33 97 cc 3e
       0.2096017 -0.26470354 0.45522198 0.39959106
000030 a5 e3 e2 3e b4 05 be be ae 95 d8 be d7 6e c0 3e
       0.44314304 -0.37113726 -0.42301697 0.37584564
000040 23 c8 a7 3e ec 1a 25 bd ff 69 e3 3e df 3e 4e 3d
       0.3276988 -0.040308878 0.44416806 0.050352927

bias f4 [10]
000000 6e 4a 8f 3e fb bc 6b bd 14 84 22 bf 1b 47 fb be
       0.27986473 -0.057553273 -0.63482785 -0.49077687
000010 c2 3d 27 3f 4e eb dd 3e 0b 53 84 be eb 53 af 3e
       0.6532861 0.43343586 -0.25844607 0.34243712
000020 e5 91 15 3e 1f ef 03 bf
       0.14606436 -0.51536745

weight f4 [20, 4]
000000 cf 98 02 bf 77 3a e0 be 4e 92 88 3e 26 e3 84 3d
       -0.5101442 -0.43794605 0.26674122 0.064886376
000010 4d 90 e9 be ba 1d 1e bc d3 01 76 bc 6e 45 71 bd
       -0.45617905 -0.009650642 -0.015015083 -0.058904104
000020 be 4a 09 be 66 26 8e 3e 86 8c ac be f0 69 74 3b
       -0.13407418 0.2776367 -0.3370096 0.003729459
000030 0a 4d e0 3d 2a 8f 6f 3e a4 ed b1 be 79 24 33 be
       0.10952194 0.23394457 -0.34751618 -0.17494382
000040 e3 24 00 bf bd ef eb 3e ec f2 b5 3e 58 a3 a0 3e
       -0.50056285 0.46081343 0.35536897 0.3137462
000050 6f 6c 24 be 65 9c b6 3d 4e 4e 3f 3e 94 4d 13 3e
       -0.16056989 0.08916549 0.18682215 0.14385062
000060 a3 49 e6 3e 9e 27 71 3e a3 91 bb 3e 3b 78 d1 3e
       0.44978055 0.23550269 0.3663455 0.4091204
000070 e9 2b 83 3e 7c 7d f2 be e0 e4 47 3e 0d 8c a0 3c
       0.25619438 -0.47361362 0.19520903 0.019598031
000080 0f b9 71 be 8c f5 f5 bd 9f dd e4 3e fc 3e 9a be
       -0.2360575 -0.12009725 0.44700333 -0.30126178
000090 65 c4 5b be dc 71 c8 3e 84 c5 a8 be e3 9d e9 be
       -0.21461637 0.39149368 -0.32963192 -0.4562827
0000a0 db a2 ea be bd 9a cc be c0 21 96 3e f5 44 58 3e
       -0.45827374 -0.39961806 0.29322624 0.21120055
0000b0 03 0a 95 be d8 71 f2 be 75 01 a4 be a5 ec be be
       -0.291092 -0.4735248 -0.32032362 -0.3728992
0000c0 b2 66 b3 3e 43 cd 13 be 88 61 5e be 77 51 7c 3e
       0.35039288 -0.1443377 -0.21716893 0.24640451
0000d0 f2 4a 0e bd 64 90 8e be 78 0c ee 3d 0a 5a 03 be
       -0.034739442 -0.27844536 0.11623472 -0.12827316
0000e0 ce e9 c1 3e ff 5f 6d be a6 bd 8f be 7d 1d ec be
       0.3787369 -0.23181151 -0.28074378 -0.46116248
0000f0 de b0 b5 be 59 e7 8e 3e 2d 51 f5 bd 0c ea e9 3e
       -0.354865 0.2791088 -0.11978374 0.45686376
000100 dd 55 e6 3d 95 55 06 3d c7 a6 d6 be e0 b2 ec be
       0.11246846 0.03279646 -0.41924116 -0.4623022
000110 9c f3 d2 3e f3 68 8d be 6b 36 5c be 7f 7b ae 3e
       0.41201484 -0.27619132 -0.21505134 0.34078595
000120 b1 15 57 3d e8 c6 02 3f a3 27 f9 be 69 97 a1 3e
       0.05251092 0.51084757 -0.48663053 0.3156083
000130 db 07 9d be 15 96 50 3e d9 18 d2 be 4c 0e bb be
       -0.30670056 0.20369752 -0.41034582 -0.36534345

bias f4 [20]
000000 8c ca 51 3b 7e c1 25 3e c7 2c a8 3e 6b c8 9d be
       0.0032011596 0.16187093 0.32846662 -0.3081697
000010 c8 85 48 be 88 69 77 bd 6f 4c 9d be ee d8 fd bd
       -0.19582283 -0.060403377 -0.30722377 -0.12394892
000020 0f f9 f3 3e 7e 83 ea be 67 a2 8d 3e 1a 6c 3f bc
       0.47650954 -0.45803446 0.27662966 -0.011683488
000030 42 1a cc 3e 62 b3 d8 3e da d3 a2 bd 27 da 0e 3d
       0.39863783 0.42324358 -0.07950564 0.034876015
000040 48 77 16 3e 10 3a e6 3e 8d 6b 67 3e 06 dc f1 be
       0.1469394 0.44966173 0.22599621 -0.47238177

G f4 [2, 1]
000000 00 00 00 00 00 00 80 3f
       0.0 1.0

m1x_posterior f4 [2]
000000 50 ec e8 41 0c 83 a2 c1
       29.115387 -20.313988

m1x_posterior_previous f4 [2]
000000 bb d8 2f 41 ee 9f 68 41
       10.990413 14.539045

m1x_prior_previous f4 [2]
000000 54 3c cc 41 9a e1 64 c1
       25.529457 -14.3050785

y_previous f4 [2]
000000 f0 a8 de 3f a8 d4 ed c0
       1.7395306 -7.432209
