KNet/model_KNet.pt (torch, 38469 bytes, 42 tensors)

weight_ih_l0 f4 [12, 10]
-0.46660993 -0.10109651 -0.41908896 0.19198121 0.35964048 -0.15278302 0.1644597 -0.29779804
0.25094032 -0.30902582 0.28772128 -0.124835305 -0.23585914 0.087379284 0.23165077 0.12966828
0.3923979 -0.23214267 0.01032677 -0.3330918 -0.24104844 0.3206081 0.3228777 -0.108936146
-0.45034534 0.43242902 0.06516346 0.3389366 0.14901951 -0.20505214 -0.46424302 -0.27272666
0.20251846 -0.15837333 -0.26849687 -0.16822997 0.1562575 -0.29228425 -0.21771008 -0.18193859
0.28021136 -0.29703677 -0.1935355 -0.4021765 -0.4008706 -0.33951232 -0.4665969 -0.25291377
-0.183948 -0.025198406 -0.25858578 -0.2003988 0.1493446 0.29269198 -0.12068058 0.38433915
0.24938941 -0.26089334 -0.28248832 -0.42101678 0.03163356 0.2778597 -0.3352239 0.26397663
-0.38611022 -0.31827408 -0.051317707 -0.33677378 -0.09900209 0.33696723 0.005414824 -0.4160018
-0.016526366 0.25609285 -0.11537602 0.14204586 -0.39153004 -0.1344957 -0.15566549 0.028701609
0.14965698 0.1814348 -0.30958107 -0.13125366 0.018475726 0.24316825 0.08051478 0.43667915
-0.22707917 0.119582735 0.36282012 0.3223568 -0.18613556 -0.45748332 0.08894077 0.025729526
-0.16061819 0.39359143 0.1359023 -0.22490792 -0.310744 0.10457076 -0.38612872 -0.018908506
0.21374236 0.056271907 0.22798286 -0.13532221 -0.15765834 -0.4506032 0.073348254 -0.28391004
0.42490673 0.21521427 0.057242244 -0.06379123 0.3274152 -0.27797717 0.3865528 0.41844532
00000000: 7fe7 eebe b00b cfbd d492 d6be b996 443e
00000010: cc22 b83e 2773 1cbe 2068 283e fc78 98be
00000020: 407b 803e a238 9ebe 3450 933e a7a9 ffbd
00000030: 0f85 71be e9f3 b23d dc35 6d3e c3c7 043e
00000040: 61e8 c83e cfb6 6dbe 9d31 293c 028b aabe
00000050: 67d5 76be bf26 a43e 3a50 a53e ea19 dfbd
00000060: aa93 e6be 5667 dd3e 6c74 853d 1989 ad3e
00000070: 9298 183e 30f9 51be 43b1 edbe d4a2 8bbe
00000080: 0061 4f3e 9e2c 22be 6c78 89be 7a44 2cbe
00000090: f701 203e 48a6 95be 64ef 5ebe 1c4e 3abe
000000a0: dd77 8f3e 3415 98be 2c2e 46be 14ea cdbe
000000b0: e93e cdbe 8fd4 adbe cae5 eebe ea7d 81be
000000c0: dd5c 3cbe e36c cebc 5b65 84be 5835 4dbe
000000d0: caed 183e b9db 953e 6127 f7bd 1ac8 c43e
000000e0: f05f 7f3e d093 85be 4fa2 90be 838f d7be
000000f0: 3192 013d a043 8e3e 78a2 abbe f227 873e
00000100: 3db0 c5be d2f4 a2be 8432 52bd 9d6d acbe
00000110: 9cc1 cabd f886 ac3e d66e b13b 30fe d4be
00000120: 4d62 87bc 9a1e 833e 434a ecbd 7874 113e
00000130: a076 c8be 3eb9 09be c666 1fbe a31f eb3c
00000140: ae3f 193e 0bca 393e 6981 9ebe 5c67 06be
00000150: 685a 973c 1901 793e efe4 a43d 6994 df3e
00000160: 7187 68be cbe7 f43d 8fc3 b93e f30b a53e
00000170: 529a 3ebe 413b eabe 9426 b63d bac6 d23c
00000180: 1879 24be d184 c93e f929 0b3e 434e 66be
00000190: d619 9fbe 3229 d63d aab2 c5be 03e6 9abc
000001a0: 47df 5a3e 5f7d 663d 5774 693e e891 0abe
000001b0: 3071 21be 76b5 e6be 9c37 963d a85c 91be
000001c0: 608d d93e 2161 5c3e d876 6a3d faa4 82bd
000001d0: f7a2 a73e 0653 8ebe 40ea c53e 773e d63e

weight_hh_l0 f4 [12, 4]
-0.29000795 -0.30133578 0.30006427 0.32301962 -0.2728951 -0.47392398 0.33725554 0.13592044
-0.16864103 0.41948485 0.3858474 -0.06489791 0.26335192 -0.34405053 0.075901985 -0.26959512
0.22702293 0.033380784 0.10552526 0.45386666 -0.39163953 -0.010211461 -0.35337147 -0.1769274
-0.053472776 -0.049727306 -0.041727856 -0.0052604694 0.35467473 -0.08112676 0.12785895 0.30021694
-0.046337415 0.039565038 0.17915879 0.44630694 0.47499952 0.3859674 0.38807318 -0.13303418
0.14108184 0.054050922 -0.12976654 0.12475784 0.16143139 0.44357547 -0.48630187 0.28651974
00000000: ec7b 94be af48 9abe 06a2 993e d462 a53e
00000010: e8b8 8bbe 2aa6 f2be c2ac ac3e ba2e 0b3e
00000020: 3cb0 2cbe b8c6 d63e ca8d c53e 32e9 84bd
00000030: 10d6 863e 6427 b0be 8072 9b3d 5f08 8abe
00000040: b378 683e 4aba 083d a11d d83d 3661 e83e
00000050: fa84 c8be f94d 27bc 1bed b4be 752c 35be
00000060: 4506 5bbd dcae 4bbd d4ea 2abd 0460 acbb
00000070: ed97 b53e c925 a6bd 75ed 023e 09b6 993e
00000080: 4dcc 3dbd f30e 223d 6775 373e 5882 e43e
00000090: 2333 f33e 859d c53e 87b1 c63e 1d3a 08be
000000a0: c277 103e 8064 5d3d 85e1 04be 0a81 ff3d
000000b0: 454e 253e 531c e33e 8ffc f8be b7b2 923e

bias_ih_l0 f4 [12]
0.3463431 -0.107838236 -0.08032617 -0.3324615 0.14639795 0.20921756 0.119602665 0.15520972
-0.12996416 0.03268851 -0.34017408 0.14937182
00000000: e253 b13e 4bda dcbd 0c82 a4bd 6538 aabe
00000010: 58e9 153e 213d 563e 3ef2 f43d 4cef 1e3e
00000020: 5315 05be 63e4 053d 4c2b aebe edf4 183e

bias_hh_l0 f4 [12]
0.38758796 -0.48134607 0.12476427 0.32736337 -0.28731665 0.03526473 0.14886323 -0.41429502
0.06961074 -0.22218041 -0.46944714 -0.096630275
00000000: ee71 c63e fe72 f6be 6984 ff3d 2c9c a73e
00000010: 2b1b 93be c071 103d 9a6f 183e 7a1e d4be
00000020: 1390 8e3d 4383 63be 605b f0be 18e6 c5bd

weight_ih_l0 f4 [12, 14]
-0.19150132 0.3754272 0.23208264 -0.37189695 -0.007965687 -0.38413695 -0.05249531 0.26699826
-0.28519735 -0.27873728 -0.38100767 0.45430493 0.12867835 0.38367555 -0.2950272 -0.40174556
-0.41458005 0.3575266 0.09018814 0.47766975 -0.44326758 -0.4804066 -0.10469746 0.32142636
-0.30934426 0.12172261 0.30064967 0.12306128 0.28476816 -0.12162318 -0.44379357 -0.43539506
-0.20210373 -0.11175213 -0.42471543 0.042418085 0.041677378 0.34459308 0.36473083 -0.37812442
0.33698407 0.085490994 0.1225747 0.27622968 0.2735307 -0.44385922 0.32135722 -0.44084442
0.15541603 -0.24639195 -0.28930187 0.060335565 0.09207589 0.035425037 0.2428946 0.47304055
-0.29024875 -0.3900962 -0.251086 0.28438705 -0.013671133 -0.39897692 -0.33802116 -0.20744233
-0.038492396 0.2418215 0.20981658 -0.039018832 -0.021838138 -0.24874994 0.050223276 -0.34707332
-0.26219207 0.11810918 -0.4830074 -0.11407895 -0.005603535 0.36046144 -0.045469217 -0.47305194
0.16446114 -0.05456569 0.11027866 0.20875703 -0.017685728 -0.052179173 0.030277466 0.21962228
-0.21030134 0.48014307 0.08515033 -0.16448545 0.166606 0.30875006 -0.49047327 -0.3038425
0.15637374 0.25972244 0.39728057 -0.16948764 -0.03549541 -0.23236473 -0.32572642 -0.12695535
-0.0018159122 0.40560874 0.04008688 -0.019575924 -0.036441162 0.068300664 -0.2519991 -0.18478008
0.3400456 0.33150917 -0.030623369 0.23466456 -0.4181786 -0.08185482 -0.10340305 -0.036252815
0.040274955 0.3203497 -0.46860018 -0.30991456 -0.055442173 -0.067945726 0.027285147 0.38567662
0.093222216 0.051392294 0.4122561 0.3418019 -0.14858225 0.44764113 -0.16589698 -0.041639086
-0.20651278 -0.1546484 0.31421784 0.29948682 -0.12239304 -0.4527678 -0.110232696 0.14201596
0.14468539 -0.10404326 0.32535043 -0.24284256 0.3698602 0.03112339 0.36374676 -0.09317638
0.016219834 0.4469699 0.47284985 -0.44148648 0.4770786 0.32751074 0.03015709 -0.28671116
-0.12443956 -0.48621452 -0.39338598 0.46421593 0.30275935 -0.3579822 0.4379645 -0.39212137
00000000: ec18 44be fe37 c03e 12a7 6d3e 4769 bebe
00000010: 8382 02bc 99ad c4be 5205 57bd ffb3 883e
00000020: 6305 92be a7b6 8ebe 7013 c3be a89a e83e
00000030: 42c4 033e 1f71 c43e ce0d 97be 98b1 cdbe
00000040: d643 d4be ba0d b73e 8fb4 b83d 2191 f43e
00000050: f8f3 e2be dbf7 f5be 9f6b d6bd ff91 a43e
00000060: 5f62 9ebe b449 f93d c1ee 993e 8d07 fc3d
00000070: 22cd 913e 9315 f9bd e938 e3be 1aec debe
00000080: 48f4 4ebe 4dde e4bd 4d74 d9be 96be 2d3d
00000090: e6b5 2a3d 816e b03e 00be ba3e 8699 c1be
000000a0: 2d89 ac3e e715 af3d 7208 fb3d fa6d 8d3e
000000b0: 370c 8c3e 8441 e3be ef88 a43e 5cb6 e1be
000000c0: 6125 1f3e 2c4e 7cbe 601f 94be 6d22 773d
000000d0: 4992 bc3d d819 113d 5db9 783e 5f32 f23e
000000e0: 7c9b 94be b0ba c7be 588e 80be 2e9b 913e
000000f0: e3fc 5fbc b446 ccbe 1c11 adbe c36b 54be
00000100: 34aa 1dbd 0ea0 773e 28da 563e 36d2 1fbd
00000110: e5e5 b2bc 4eb8 7ebe ecb6 4d3d 98b3 b1be
00000120: 0a3e 86be 3ae3 f13d bf4c f7be 39a2 e9bd
00000130: dc9d b7bb 678e b83e ee3d 3abd dd33 f2be
00000140: 8068 283e 4680 5fbd c7d9 e13d 67c4 553e
00000150: a9e1 90bc d4b9 55bd 7308 f83c aae4 603e
00000160: 3c59 57be 50d5 f53e 4c63 ae3d e06e 28be
00000170: c39a 2a3e 7d14 9e3e 501f fbbe 3f91 9bbe
00000180: 7020 203e 57fa 843e 5c68 cb3e 2b8e 2dbe
00000190: a363 11bd 05f1 6dbe 9dc5 a6be 9500 02be
000001a0: e703 eeba f3ab cf3e 2432 243d b05d a0bc
000001b0: 5443 15bd 38e1 8b3d 0706 81be fd36 3dbe
000001c0: 751a ae3e 92bb a93e dcdd fabc e84b 703e
000001d0: 811b d6be 80a3 a7bd fac4 d3bd d57d 14bd
000001e0: 5af7 243d e004 a43e 5dec efbe 1fad 9ebe
000001f0: 5517 63bd 2127 8bbd 1a85 df3c 6877 c53e
00000200: 4aeb be3d ba80 523d 3b13 d33e a900 af3e
00000210: f225 18be 3831 e53e e6e0 29be bf8d 2abd
00000220: 1678 53be 265c 1ebe 29e1 a03e 5656 993e
00000230: 34a9 fabd 2ed1 e7be aec1 e1bd a26c 113e
00000240: 6828 143e a214 d5bd 5594 a63e b8ab 78be
00000250: 515e bd3e 7bf6 fe3c 043d ba3e 42d3 bebd
00000260: 75df 843c 3dd9 e43e 6019 f23e 840a e2be
00000270: a543 f43e 7daf a73e 000c f73c cecb 92be
00000280: 2bda febd 1cf1 f8be e369 c9be b6ad ed3e
00000290: 4603 9b3e 7149 b7be e23c e03e 22c4 c8be

weight_hh_l0 f4 [12, 4]
0.37395886 0.23519178 -0.414616 -0.05599828 0.16545336 -0.24131805 0.052333653 0.41016465
0.04421925 0.48636407 -0.16038151 -0.3767844 -0.35599616 0.33265617 0.010441066 0.112774774
0.15855551 -0.071810745 -0.16309598 0.20144704 0.08496468 -0.28465733 -0.24250576 0.27122033
-0.4469827 0.40252763 -0.26944324 -0.039093476 -0.31256196 -0.11851405 0.1751636 -0.335272
0.3469274 0.07009323 0.038975842 0.25705412 0.24990685 -0.43412536 -0.009182257 0.119678065
-0.42490098 0.08813448 -0.13379484 0.3820951 0.4201829 0.3132786 -0.12436449 0.37352136
00000000: 8977 bf3e 1dd6 703e 8c48 d4be 745e 65bd
00000010: 9b6c 293e 141c 77be d05b 563d 1a01 d23e
00000020: 3f1f 353d b604 f93e 0d3b 24be e3e9 c0be
00000030: 2145 b6be e951 aa3e 0111 2b3c 76f6 e63d
00000040: 605c 223e 8311 93bd a202 27be 2248 4e3e
00000050: f601 ae3d 9bbe 91be 6e53 78be 64dd 8a3e
00000060: ebda e4be 1a18 ce3e 77f4 89be 7b20 20bd
00000070: 1f08 a0be 7fb7 f2bd 165e 333e c6a8 abbe
00000080: 78a0 b13e 0a8d 8f3d 22a5 1f3d 999c 833e
00000090: 95e7 7f3e ae45 debe 2d71 16bc c619 f53d
000000a0: 9f8c d9be da7f b43d 8401 09be f8a1 c33e
000000b0: 3722 d73e 0d66 a03e cfb2 febd 313e bf3e

bias_ih_l0 f4 [12]
0.2078262 -0.24246924 -0.07588501 0.048693724 0.3760046 0.298448 -0.30168265 -0.39719933
0.2634248 -0.16723993 0.07209275 0.050834365
00000000: 64d0 543e db49 78be 9a69 9bbd 1273 473d
00000010: ad83 c03e 2dce 983e 2676 9abe b65d cbbe
00000020: 9edf 863e f240 2bbe 5da5 933d b237 503d

bias_hh_l0 f4 [12]
0.20454815 0.29642215 0.2311477 0.07385532 -0.029152691 0.40938455 0.3092784 0.30617648
-0.031478778 -0.36838663 0.054350838 0.24604172
00000000: 1275 513e a5c4 973e fcb1 6c3e 7541 973d
00000010: a0d1 eebc da9a d13e bd59 9e3e 2ac3 9c3e
00000020: e4ef 00bd 2c9d bcbe fc9e 5e3d 5cf2 7b3e

weight_ih_l0 f4 [12, 24]
-0.17108864 -0.2961269 -0.21771672 0.07623787 -0.51509655 0.18596068 0.37582177 0.19262357
-0.50954497 -0.08089116 0.16583115 -0.0637074 -0.1468717 0.16591847 -0.07747202 -0.14412947
0.21300706 -0.37423545 -0.006390017 0.00582135 0.3547327 0.32394132 0.08628894 0.16332269
0.03016925 -0.32374424 -0.46628374 -0.3636594 0.15909517 -0.089333326 0.35348612 0.09280458
0.28241202 -0.1474604 0.045658156 0.4228586 -0.15973794 0.40096575 -0.16714051 0.4453371
-0.47220662 -0.12612861 -0.28075176 0.24830492 0.45098588 0.1021185 -0.27990523 -0.07265243
0.24439937 -0.1256852 -0.45329836 -0.2875747 -0.1819694 -0.077324085 -0.19638248 0.0065620583
-0.2446357 0.40843984 -0.0733737 0.37611926 0.26409096 -0.3548221 0.09852019 -0.31917503
0.4206452 0.023394419 -0.43088716 -0.28237954 -0.0762953 -0.47809967 -0.009758282 -0.19695418
0.2878373 -0.14642721 -0.2761023 0.17973107 -0.0425788 -0.4769875 0.2944153 0.46756396
-0.39212552 0.023150353 -0.4048115 -0.28391528 0.23953325 0.11575078 -0.113835506 -0.008486359
0.10423329 -0.36992854 0.019919716 0.22417973 -0.025272015 -0.2920518 -0.22623757 0.14491774
0.44911394 -0.0001847305 -0.44337687 -4.0303825e-05 0.094597965 0.4560505 0.18061878 -0.2475041
0.2341547 0.3260413 0.41314575 -0.23896784 0.106546946 0.28676182 -0.22422172 0.022604585
0.20546031 0.13924709 0.19323479 -0.39395022 0.4910829 -0.23183364 -0.0010240444 0.42205176
0.42830834 -0.15447612 -0.2839219 -0.020188171 0.24818377 0.19581853 -0.28285262 -0.33658946
-0.43362412 -0.32638893 0.36243963 -0.1647184 0.15244533 -0.06884566 -0.23686089 -0.27767992
-0.26164296 0.12750676 0.18367101 0.018983379 0.29536036 0.33961242 0.11353369 -0.1915276
-0.31367317 -0.13937134 -0.42212012 -0.18365043 -0.2989749 -0.47611034 -0.42646927 -0.1715688
-0.2770613 0.39841208 -0.42207676 -0.4168751 -0.42250663 -0.45310265 0.10498926 0.19520183
-0.4717841 -0.18199518 -0.03569631 0.37203348 0.34442914 -0.07217453 0.11808837 0.14954746
0.45862412 -0.21523118 -0.35285524 0.12074608 0.43348673 -0.31353176 0.17916574 -0.16979527
-0.2959294 -0.37678295 0.049840745 -0.40246168 0.41081294 0.1606874 -0.22799486 0.37880617
-0.41091058 -0.00860379 0.4198724 -0.10289258 0.08228816 -0.10092245 -0.033920363 0.35732764
0.25735325 -0.00031585328 0.028637348 0.27903292 0.33724833 0.31401923 0.35782647 -0.06863212
-0.41034782 0.053170048 0.21406455 -0.4484456 0.42429292 -0.28624916 -0.07443122 -0.13627137
0.039367273 -0.38290274 -0.053498797 0.23045868 0.32604173 0.030997988 0.30844453 -0.44721222
0.38880664 -0.42137262 0.39884704 0.21716236 -0.026675178 -0.37856933 -0.23900025 -0.4432071
0.10886843 -0.3828288 0.25803658 -0.09124377 -0.3365035 -0.28144175 0.3406815 0.05602018
0.35483354 0.18746527 0.011343337 -0.43289262 -0.3741721 0.36636266 0.25080404 0.055111334
-0.05293588 -0.2264253 0.30058634 -0.00036377314 -0.40153584 0.36438337 0.08967346 0.22683778
0.4408682 -0.42839432 0.16415603 -0.24633256 0.50043124 -0.18174873 -0.084085315 0.025833204
00000000: dc31 2fbe f29d 97be 22f1 5ebe 9a22 9c3d
00000010: 5edd 03bf 7a6c 3e3e b66b c03e 1d3f 453e
00000020: 8a71 02bf 44aa a5bd a4cf 293e 0679 82bd
00000030: 8965 16be 88e6 293e a7a9 9ebd ad96 13be
00000040: 861e 5a3e ca9b bfbe 5963 d1bb 06c1 be3b
00000050: 869f b53e a3db a53e 41b8 b03d 103e 273e
00000060: 8125 f73c cec1 a5be bebc eebe 9131 babe
00000070: d8e9 223e 64f4 b6bd 22fc b43e 5410 be3d
00000080: 4f98 903e dcff 16be 0c04 3b3d ec80 d83e
00000090: 5892 23be 624b cd3e e226 2bbe 3903 e43e
000000a0: 11c5 f1be dc27 01be b2be 8fbe a543 7e3e
000000b0: 9fe7 e63e 8123 d13d bd4f 8fbe ccca 94bd
000000c0: d443 7a3e 9fb3 00be b916 e8be fe3c 93be
000000d0: 3056 3abe 175c 9ebd 7d18 49be 8906 d73b
000000e0: c881 7abe 071f d13e f344 96bd b492 c03e
000000f0: ee36 873e 3eab b5be f4c4 c93d e96a a3be
00000100: cf5e d73e a7a5 bf3c 3e9d dcbe 0d94 90be
00000110: b640 9cbd 7bc9 f4be 34e1 1fbc 5bae 49be
00000120: 695f 933e 04f1 15be 485d 8dbe 6c0b 383e
00000130: 1c67 2ebd b537 f4be 9abd 963e 8b64 ef3e
00000140: adc4 c8be cfa5 bd3c 7443 cfbe 585d 91be
00000150: 3448 753e bf0e ed3d 9722 e9bd 5f0a 0bbc
00000160: 4378 d53d 4667 bdbe ac2e a33c 5f8f 653e
00000170: 4207 cfbc d087 95be d2aa 67be 5165 143e
00000180: 43f2 e53e 37b4 41b9 4b02 e3be e70b 29b8
00000190: 94bc c13d 737f e93e 21f4 383e b771 7dbe
000001a0: 40c6 6f3e e3ee a63e d787 d33e fcb3 74be
000001b0: 4935 da3d 72d2 923e 619a 65be 402d b93c
000001c0: 3064 523e ca96 0e3e 57df 453e d8b3 c9be
000001d0: 386f fb3e cc65 6dbe 3a39 86ba 2b17 d83e
000001e0: 3b4b db3e fd2e 1ebe 365e 91be aa61 a5bc
000001f0: e323 7e3e a784 483e 0fd2 90be 7455 acbe
00000200: fb03 debe 731c a7be b091 b93e f1ab 28be
00000210: a11a 1c3e f4fe 8cbd a98b 72be 102c 8ebe
00000220: 11f6 85be 2291 023e 4114 3c3e 0883 9b3c
00000230: 7939 973e aee1 ad3e 5a84 e83d d01f 44be
00000240: c599 a0be 5cb7 0ebe 2120 d8be dc0e 3cbe
00000250: 3d13 99be bcc4 f3be 2e5a dabe bbaf 2fbe
00000260: fbda 8dbe abfc cb3e 721a d8be a770 d5be
00000270: ca52 d8be 12fd e7be 9c04 d73d fde2 473e
00000280: b08d f1be f25c 3abe 4b36 12bd 2c7b be3e
00000290: 0459 b03e 3dd0 93bd 51d8 f13d f822 193e
000002a0: c8d0 ea3e 9065 5cbe 71a9 b4be b949 f73d
000002b0: f9f1 dd3e 3c87 a0be 3977 373e d0de 2dbe
000002c0: 0f84 97be b2e9 c0be cf25 4c3d 750f cebe
000002d0: 1356 d23e 3d8b 243e 7c77 69be e2f2 c13e
000002e0: df62 d2be e9f6 0cbc 84f9 d63e 58b9 d2bd
000002f0: b286 a83d 6eb0 cebd 14f0 0abd a6f3 b63e
00000300: cec3 833e 1c99 a5b9 df98 ea3c 67dd 8e3e
00000310: d0ab ac3e 21c7 a03e 0835 b73e ff8e 8cbd
00000320: 1c19 d2be d6c8 593d bd33 5b3e a99a e5be
00000330: ec3c d93e 408f 92be 656f 98bd b98a 0bbe
00000340: 943f 213d d40b c4be 8e21 5bbd 5cfd 6b3e
00000350: f1ee a63e 7eef fd3c 71ec 9d3e 00f9 e4be
00000360: aa11 c73e 27be d7be ae35 cc3e cf5f 5e3e
00000370: e785 dabc d7d3 c1be 7bbc 74be 0aec e2be
00000380: 69f6 de3d 2302 c4be 5f1d 843e 04de babd
00000390: 304a acbe 2219 90be ce6d ae3e 6b75 653d
000003a0: beac b53e e5f6 3f3e 67d9 393c 1aa4 ddbe
000003b0: 7c93 bfbe e393 bb3e 6369 803e 6cbc 613d
000003c0: 4bd3 58bd 09dc 67be 74e6 993e ceb8 beb9
000003d0: 1b96 cdbe 7590 ba3e b8a6 b73d 2a48 683e
000003e0: 7ab9 e13e 8056 dbbe 8518 283e 9a3e 7cbe
000003f0: 431c 003f 571c 3abe ec34 acbd 28a0 d33c

weight_hh_l0 f4 [12, 4]
-0.15835796 0.5148946 0.4499519 0.12395629 -0.30705836 -0.06426449 0.25785252 -0.02009695
0.29648304 -0.3490894 -0.32123265 0.46695584 -0.2833727 0.2674388 -0.18228406 -0.26723838
0.3373702 -0.04737929 0.3724286 0.3265168 0.4125488 -0.48963988 -0.3410494 -0.037071504
0.45107186 -0.44852716 0.033930156 -0.45782015 -0.03970307 0.19342534 0.48444188 -0.074040085
0.28044167 -0.35291958 0.1979416 -0.44454277 0.26883534 -0.37528878 -0.41712883 -0.09365049
-0.13639764 -0.10951502 0.44414696 -0.11147576 -0.116529234 -0.2547067 -0.02426113 -0.21415746
00000000: 9728 22be 22d0 033f 1860 e63e ccdc fd3d
00000010: c136 9dbe 1a9d 83bd 3f05 843e 5ca2 a4bc
00000020: a0cc 973e d9bb b2be 9b78 a4be d614 ef3e
00000030: 3a16 91be bded 883e aca8 3abe 78d3 88be
00000040: c9bb ac3e c910 42bd f6ae be3e 362d a73e
00000050: 9939 d33e 14b2 fabe 079e aebe 4ad8 17bd
00000060: e4f2 e63e 5aa5 e5be 59fa 0a3d 6767 eabe
00000070: b09f 22bd 4b11 463e c408 f83e 54a2 97bd
00000080: 0d96 8f3e e0b1 b4be 34b1 4a3e 1c9b e3be
00000090: c9a4 893e da25 c0be e991 d5be d4cb bfbd
000000a0: d3ab 0bbe 6949 e0bd 3b67 e33e 674d e4bd
000000b0: e1a6 eebd eb68 82be 47bf c6bc 184c 5bbe

bias_ih_l0 f4 [12]
0.33996028 0.05342505 0.22034368 -0.030608112 0.44599822 -0.03505969 -0.43193835 -0.297253
0.01877933 -0.33371583 -0.028191775 0.32100818
00000000: 460f ae3e 3ad4 5a3d c6a1 613e ddbd fabc
00000010: e159 e43e c09a 0fbd 0627 ddbe 8c31 98be
00000020: 1cd7 993c cddc aabe 70f2 e6bc 2f5b a43e

bias_hh_l0 f4 [12]
-0.041427594 0.35256898 -0.35411328 0.37250006 -0.18014358 -0.089200854 0.39066938 -0.07069768
-0.43218052 0.23299998 -0.05915936 0.07235388
00000000: fbaf 29bd ec83 b43e 564e b5be 54b8 be3e
00000010: 8f77 38be f0ae b6bd d105 c83e f2c9 90bd
00000020: c446 ddbe 8c97 6e3e 1651 72bd 452e 943d

weight f4 [4, 4]
0.15171671 -0.18278456 -0.34631118 0.02277545 0.020309398 0.3755128 -0.42797768 0.0016222512
0.091344975 -0.4265618 -0.1181337 -0.16537543 0.26733428 -0.22336285 -0.37715864 -0.00036692727
00000000: a05b 1b3e e02b 3bbe b34f b1be 9593 ba3c
00000010: e55f a63c 3743 c03e e41f dbbe b8a1 d43a
00000020: 1313 bb3d 4f66 dabe 15f0 f1bd 2d58 29be
00000030: 0ae0 883e 3bb9 64be f01a c1be 2560 c0b9

bias f4 [4]
0.08202285 -0.18033373 0.22659348 -0.4496292
00000000: 99fb a73d 68a9 38be 1f08 683e cc35 e6be

weight f4 [320, 8]
0.037170652 -0.18341364 -0.04605159 -0.2806389 0.27137005 0.29504165 0.10169406 0.14928769
-0.3006925 0.028121473 0.23603737 -0.18513542 0.096907355 0.024729775 0.18778987 0.05153273
0.09876031 0.28618512 -0.17742632 -0.04015453 0.3106684 0.093023255 0.15040515 0.1986839
0.022129726 0.22164933 -0.23516859 -0.108694285 0.35337877 -0.027550008 0.22644196 -0.0024897053
-0.1284936 -0.118059285 -0.08358531 -0.116958894 0.18780546 -0.15022478 -0.20636046 -0.051094025
0.03744705 -0.0030604757 0.010804749 -0.1551697 -0.20858401 0.21012847 0.09123394 -0.055472083
-0.21032336 -0.2133822 -0.25649795 -0.019328687 0.24215317 -0.06438798 0.22946218 -0.022226086
0.22263725 0.12664495 0.13264698 0.20489115 0.14497824 0.21315543 -0.21368521 0.030469075
0.3072361 -0.09154851 -0.21540675 0.28739524 0.07432871 -0.005975885 0.03136274 0.026199978
0.28703937 -0.2543749 0.12669489 -0.20055738 0.23757413 -0.21709526 0.33278883 -0.2731015
-0.091522045 -0.17057273 0.27166998 -0.07356996 -0.225853 0.1324326 -0.08137054 0.23699442
-0.19870053 0.03579862 0.30279693 -0.06624054 0.2659312 0.22635514 0.050290834 0.1598209
0.14562578 -0.030248804 -0.3332979 0.08022746 -0.27312407 0.27404955 0.35529786 0.22321276
0.13279551 -0.2969332 -0.26299343 0.27898866 0.31102738 -0.004390467 -0.33971283 -0.023340292
0.06849841 -0.3064325 -0.16782603 -0.00071802834 -0.104738876 0.3095125 -0.10757642 0.09603301
0.049927585 -0.15388398 0.31925225 0.12817572 0.094652064 0.17251346 -0.111720584 0.27480143
-0.0041689784 -0.13541658 -0.3181648 0.10233012 0.33850425 -0.20468138 0.104691386 -0.01109869
0.18960418 -0.12499165 -0.3213416 -0.2787142 0.24022888 0.29905576 0.25629988 0.17007743
0.20506944 0.026176983 -0.22323096 0.15837549 0.08514553 -0.29992473 -0.10576961 -0.18629923
0.08391765 0.15680131 0.07638488 -0.06215291 0.31471035 -0.04057962 0.2780391 0.21451315
0.17375322 -0.3320988 0.027225064 -0.26575875 -0.13171701 0.003447039 0.2481231 0.22721347
-0.2594612 0.00036794093 -0.00036774584 -0.28980994 -0.020081142 0.07197468 0.08115258 -0.000283242
-0.25939906 -0.05843005 -0.24580908 0.21377838 0.2619575 -0.15536706 -0.17277552 0.037050907
0.069629475 0.3414644 0.29660773 -0.1579256 0.18474284 -0.15289927 -0.1772097 -0.096369095
0.18406102 -0.07110495 0.24110994 0.22301078 0.19501233 -0.29220793 0.117297255 0.0999911
-0.04574725 -0.068391606 -0.0659376 -0.27389714 -0.2182857 0.2239243 -0.113181494 0.030032175
-0.0031777497 0.18309955 -0.2298798 -0.00036824617 0.0003674361 0.1585373 0.25354654 0.15688577
0.20086104 0.047616113 -0.22763434 -0.058224734 0.3176886 0.098695494 0.28604236 0.2509883
-0.29569614 0.117594145 -0.06639712 -0.08926881 -0.012215365 -0.20674685 -0.07023216 -0.24253416
-0.32296368 -0.33184183 0.32787168 -0.024627062 -0.06274056 -0.33533186 0.088434204 -0.23153287
0.10532461 0.048639663 -0.16061604 -0.1543503 -0.16006792 0.00036300585 0.009635878 -0.00034600394
-0.28008905 0.023673184 0.21144335 0.08688741 -0.10942832 -0.10009163 -0.3435114 0.29560012
00000000: 4140 183d c9d0 3bbe 98a0 3cbd e7af 8fbe
00000010: 04f1 8a3e b30f 973e fa44 d03d dfde 183e
00000020: 5ef4 99be 015f e63c c8b3 713e 2494 3dbe
00000030: 5d77 c63d 1996 ca3c fd4b 403e fc13 533d
00000040: d842 ca3d db86 923e 3faf 35be 1479 24bd
00000050: ee0f 9f3e fa82 be3d cf03 1a3e cb73 4b3e
00000060: 6649 b53c 0bf8 623e 09d0 70be 1c9b debd
00000070: 10ee b43e 8eb0 e1bc 67e0 673e 532a 23bb
00000080: d493 03be 11c9 f1bd c62e abbd 2588 efbd
00000090: 1350 403e 86d4 19be 2850 53be f847 51bd
000000a0: 1462 193d 4392 48bb 6706 313c cee4 1ebe
000000b0: 0c97 55be eb2b 573e dcd8 ba3d b236 63bd
000000c0: 025f 57be dd80 5abe b353 83be 3257 9ebc
000000d0: 00f7 773e d8dd 83bd 22f8 6a3e 7b13 b6bc
000000e0: 05fb 633e 37af 013e 9cd4 073e fcce 513e
000000f0: 2d75 143e 6b45 5a3e 4cd0 5abe 489a f93c
00000100: 0d4e 9d3e c97d bbbd 9693 5cbe 7825 933e
00000110: a739 983d 5bd1 c3bb 3776 003d 56a1 d63c
00000120: d3f6 923e 6d3d 82be 4ebc 013e ea5e 4dbe
00000130: a246 733e 384e 5ebe 4c63 aa3e f6d3 8bbe
00000140: e96f bbbd 9eaa 2ebe 5418 8b3e d9ab 96bd
00000150: 0246 67be 699c 073e 99a5 a6bd aaae 723e
00000160: 2778 4bbe 93a1 123d 3308 9b3e 1fa9 87bd
00000170: 2228 883e a4c9 673e c3fd 4d3d 17a8 233e
00000180: ed1e 153e 57cc f7bc 06a6 aabe 4b4e a43d
00000190: ebd6 8bbe 3950 8c3e 9ae9 b53e e391 643e
000001a0: 8cfb 073e a107 98be 13a7 86be 9ad7 8e3e
000001b0: fb3e 9f3e e8dd 8fbb d7ee adbe 2434 bfbc
000001c0: e548 8c3d b8e4 9cbe 96da 2bbe 113a 3cba
000001d0: 5681 d6bd 6c78 9e3e 0751 dcbd f4ac c43d
000001e0: de80 4c3d c393 1dbe 0875 a33e 7f40 033e
000001f0: f1d8 c13d 5ea7 303e c3cd e4bd c6b2 8c3e
00000200: ed9b 88bb a5aa 0abe 7fe6 a2be 7492 d13d
00000210: 6e50 ad3e ff97 51be 7068 d63d 48d7 35bc
00000220: 9927 423e 9ffb ffbd e386 a4be a1b3 8ebe
00000230: 8ffe 753e d61d 993e bd39 833e c728 2e3e
00000240: b9fd 513e 1d71 d63c a896 64be 2f2d 223e
00000250: c860 ae3d bc8f 99be bd9d d8bd 3ac5 3ebe
00000260: 04dd ab3d 8690 203e ad6f 9c3d 0d94 7ebd
00000270: b721 a13e d136 26bd 245b 8e3e 56a9 5b3e
00000280: 5dec 313e db08 aabe 1907 df3c 8811 88be
00000290: d3e0 06be b8e7 613b fb13 7e3e a6aa 683e
000002a0: 19d8 84be 32e8 c039 03ce c0b9 f861 94be
000002b0: 3581 a4bc 7667 933d 5333 a63d 1980 94b9
000002c0: f4cf 84be 5954 6fbd 60b5 7bbe b8e8 5a3e
000002d0: 4b1f 863e 8b18 1fbe 11ec 30be b1c2 173d
000002e0: e699 8e3d 6cd4 ae3e f8dc 973e 40b7 21be
000002f0: 3a2d 3d3e a091 1cbe 7676 35be 295d c5bd
00000300: 7e7a 3c3e 799f 91bd 86e5 763e f05c 643e
00000310: 50b1 473e 479c 95be 8b39 f03d 22c8 cc3d
00000320: 7861 3bbd e610 8cbd 4b0a 87bd 3f3c 8cbe
00000330: 4986 5fbe 694c 653e b3cb e7bd 0906 f63c
00000340: cb41 50bb 737e 3b3e 9c65 6bbe 2a11 c1b9
00000350: 70a4 c039 9a57 223e dad0 813e aaa6 203e
00000360: 84ae 4d3e 1d09 433d fa18 69be 0f7d 6ebd
00000370: 15a8 a23e dd20 ca3d 2574 923e 8a81 803e
00000380: 7c65 97be 33d5 f03d 37fb 87bd 91d2 b6bd
00000390: f422 48bc 72b5 53be e1d5 8fbd e05a 78be
000003a0: 7f5b a5be 2ce7 a9be ccde a73e b1be c9bc
000003b0: 1f7e 80bd 9eb0 abbe fe1c b53d f416 6dbe
000003c0: 6eb4 d73d 623a 473d 8878 24be 010e 1ebe
000003d0: d8e8 23be d251 be39 cddf 1d3c dd67 b5b9
000003e0: d567 8fbe 44ee c13c 9b84 583e 07f2 b13d
000003f0: f41b e0bd d7fc ccbd bae0 afbe e658 973e

bias f4 [320]
-0.059271656 0.10154961 0.025864769 0.24816996 -0.078702495 0.15918697 -0.097605124 0.319849
-0.20671211 -0.27766716 0.116428085 0.09905549 0.10581315 0.13143487 0.117064565 0.26036698
0.22166291 -0.08250578 -0.10575171 0.22663146 0.18885225 -0.26810217 -0.18329042 0.15164585
-0.29544842 0.2843863 -0.2774702 0.18417706 -0.06495472 -0.24833392 -0.29125345 -0.03369163
-0.15091401 -0.16307054 -0.06027801 0.074854046 0.07279565 0.046538033 -0.29283372 -0.062203493
0.30024177 0.06906185 -0.14938541 0.25889137 -0.22665896 -0.14457141 0.30948696 0.108539
-0.1605126 -0.07058543 0.13750042 0.010509203 -0.22256207 0.07287621 0.30196223 -0.19125254
-0.062611856 -0.119203106 0.20759906 0.15933852 -0.13172582 0.036886208 -0.01150102 0.33907646
0.17024769 -0.26947454 0.2866923 0.24544847 0.10386764 -0.08741915 -0.02692147 0.17032507
0.115917146 -0.05776581 -0.11881916 -0.17422071 -0.27816254 -0.1796776 -0.21551913 0.25905105
-0.25667652 0.13387921 0.21391137 0.02583911 -0.032889083 0.041475113 0.12211356 0.25289467
-0.28292555 -0.059970204 0.027337946 -0.1271189 -0.199577 0.05142141 0.06980041 -0.13657445
0.13708602 -0.33961064 0.20339912 -0.10896698 0.01521831 0.2689946 -0.18015742 0.12486818
0.19673017 0.18691124 0.04990073 0.14970055 -0.19438265 -0.23377144 -0.16093268 0.04743825
0.31492546 -0.05338024 -0.074326456 0.3517662 0.0005250725 0.28234938 -0.047826204 -0.088031776
-0.19273317 -0.29773882 -0.27757794 0.17651772 -0.118594244 0.035246998 -0.31556746 0.04887367
-0.2955758 0.20139363 -0.28619868 0.082225695 0.25385946 0.22662464 0.19319311 0.21649946
-0.21920945 0.21811001 -0.08044257 0.05193895 -0.14239399 -0.12153007 -0.2546492 0.23635001
0.18522255 0.06698175 -0.1350931 -0.31547225 -0.007410856 0.030545076 -0.07907494 0.25504413
0.3006409 -0.030491551 -0.20715155 0.3237105 0.25581136 0.2659885 -0.18151464 0.15347765
-0.2442258 -0.27194285 -0.29235 -0.14854132 -0.0650399 -0.2502677 -0.20201059 -0.016460482
0.35037783 -0.036844913 -0.035693597 -0.24918926 -0.00021840494 0.2072644 -0.18533286 0.19781597
-0.07543113 0.04161521 0.28493565 0.31972656 -0.031229116 0.04445063 -0.14125967 0.19979605
0.26180235 -0.002984149 0.2843559 -0.16824009 0.14319012 -0.25531918 0.33227527 0.027779058
-0.2721915 0.1498722 0.04965489 -0.24492313 -0.22854455 0.30100676 0.3272362 -0.11810393
-0.21149997 0.11786013 -0.055407487 0.30148622 0.11720981 0.3187971 -0.18385868 -0.0048228917
-0.24442159 -0.12543693 -0.29532441 0.020924266 -0.26488838 0.099852644 -0.060018476 -0.07003836
-0.15531191 0.25819203 -0.12577379 0.015873604 -0.035879567 -0.13462952 -0.06997149 0.23012781
-0.08250142 0.038694434 0.33889794 -0.10738895 0.19198999 0.33740583 0.34712425 0.31767586
0.0055495086 -0.14168528 -0.12208808 -0.16103518 0.16442089 -0.067973375 0.13904288 -0.23887114
-0.27097535 -0.09336842 -0.28819403 0.23232307 0.05639833 -0.17836724 -0.21888112 0.04034755
-0.104121454 -0.19587547 -0.054718863 -0.121705465 -0.30243906 -0.23360829 0.18434441 -0.17628393
00000000: d6c6 72bd 3ef9 cf3d 5ae2 d33c 4420 7e3e
00000010: c62e a1bd e901 233e 32e5 c7bd 40c3 a33e
00000020: 57ac 53be 642a 8ebe d971 ee3d 9bdd ca3d
00000030: 91b4 d83d dd96 063e 8cbf ef3d d24e 853e
00000040: 9afb 623e caf8 a8bd 5a94 d8bd 1412 683e
00000050: 7c62 413e b044 89be 7cb0 3bbe 0d49 1b3e
00000060: 0445 97be 159b 913e 9310 8ebe e998 3c3e
00000070: fb06 85bd 3f4b 7ebe 2c1f 95be 3c00 0abd
00000080: 3489 1abe f7fb 26be 13e6 76bd 144d 993d
00000090: e315 953d aa9e 3e3d 4dee 95be 17c9 7ebd
000000a0: 4ab9 993e 4d70 8d3d 7df8 18be 698d 843e
000000b0: 4919 68be 870a 14be 1375 9e3e b249 de3d
000000c0: 6a5d 24be 188f 90bd e9cc 0c3e cb2e 2c3c
000000d0: 50e7 63be 1f40 953d cb9a 9a3e b5d7 43be
000000e0: a53a 80bd c220 f4bd d994 543e a329 233e
000000f0: 22e3 06be fe15 173d c66e 3cbc 6e9b ad3e
00000100: 6955 2e3e 91f8 89be 55c9 923e d856 7b3e
00000110: 8fb8 d43d d008 b3bd 6a8a dcbc b269 2e3e
00000120: f865 ed3d d89b 6cbd 7657 f3bd ea66 32be
00000130: 526b 8ebe 68fd 37be 0cb1 5cbe 57a2 843e
00000140: 1b6b 83be a217 093e 950b 5b3e 8bac d33c
00000150: b4b6 06bd cfe1 293d ad16 fa3d 697b 813e
00000160: 9edb 90be 51a3 75bd d4f3 df3c 752b 02be
00000170: ea5d 4cbe 429f 523d 84f3 8e3d 2cda 0bbe
00000180: 4760 0c3e 72e1 adbe dc47 503e 142a dfbd
00000190: 3856 793c a9b9 893e 307b 38be e3ba ff3d
000001a0: a273 493e a965 3f3e b564 4c3d 1a4b 193e
000001b0: 3f0c 47be c861 6fbe 89cb 24be 9c4e 423d
000001c0: e93d a13e 3da5 5abd 7838 98bd b31a b43e
000001d0: 05a5 093a 1990 903e 69e5 43bd 014a b4bd
000001e0: d85b 45be 3971 98be b21e 8ebe 10c1 343e
000001f0: 8ae1 f2bd 285f 103d 0f92 a1be c22f 483d
00000200: b655 97be 223a 4e3e a288 92be f265 a83d
00000210: def9 813e 4a10 683e 6ad4 453e 09b2 5d3e
00000220: 7178 60be 3b58 5f3e 13bf a4bd f0bd 543d
00000230: bbcf 11be c2e4 f8bd 6161 82be bd05 723e
00000240: fbaa 3d3e ba2d 893d d855 0abe 9485 a1be
00000250: c4d6 f2bb ab39 fa3c 0bf2 a1bd 2595 823e
00000260: 9bed 993e 6bc9 f9bc 891f 54be 62bd a53e
00000270: b5f9 823e a52f 883e f9de 39be 3f29 1d3e
00000280: 5416 7abe 183c 8bbe e6ae 95be 371b 18be
00000290: a433 85bd 1723 80be dddb 4ebe 22d8 86bc
000002a0: b964 b33e b1ea 16bd 7333 12bd 782b 7fbe
000002b0: a103 65b9 1e3d 543e e6c7 3dbe 4590 4a3e
000002c0: a37b 9abd b674 2a3d 16e3 913e 33b3 a33e
000002d0: 34d4 ffbc dd11 363d 60a6 10be 5697 4c3e
000002e0: f50a 863e b691 43bb 1997 913e 2147 2cbe
000002f0: 6ea0 123e 32b9 82be fc1f aa3e e890 e33c
00000300: af5c 8bbe 1978 193e ed62 4b3d 21cd 7abe
00000310: 9507 6abe 8f1d 9a3e 818b a73e 79e0 f1bd
00000320: 7393 58be a760 f13d f6f2 62bd 675c 9a3e
00000330: b20b f03d 6039 a33e 7345 3cbe 5909 9ebb
00000340: a749 7abe 8a72 00be c334 97be 5e69 ab3c
00000350: 739f 87be 8b7f cc3d efd5 75bd 4670 8fbd
00000360: 160a 1fbe bf31 843e d8ca 00be 5c09 823c
00000370: 74f6 12bd 52dc 09be 364d 8fbd a0a6 6b3e
00000380: 81f6 a8bd 0e7e 1e3d 0884 ad3e bdee dbbd
00000390: 0699 443e 75c0 ac3e 45ba b13e 69a6 a23e
000003a0: a7d8 b53b f215 11be 5109 fabd 68e6 24be
000003b0: f35d 283e a035 8bbd 4261 0e3e a39a 74be
000003c0: 48bd 8abe f137 bfbd 2b8e 93be 19e6 6d3e
000003d0: ef01 673d e7a5 36be 5f22 60be 7943 253d
000003e0: a13d d5bd 9493 48be e320 60bd b740 f9bd
000003f0: 4bd9 9abe 0337 6fbe c8c4 3c3e c683 34be

weight f4 [4, 320]
0.001166582 0.04341446 0.046468206 -0.03082897 -0.019240526 0.043410648 0.009336274 0.06423389
-0.050717626 0.053620324 0.061939877 0.007640552 0.03987821 -0.052144356 0.012100824 0.04825932
0.019514376 -0.042105276 -0.037050948 0.00029100943 -0.032089837 -0.0003680242 0.030083466 -0.029908156
0.06160682 -0.037870456 -0.00036830653 -0.0030689216 -0.0051594125 -0.015997238 0.00035844976 0.05364479
-0.013639085 -0.031204319 0.0003784963 0.0011074961 0.011081707 -0.017911883 -0.00015426801 -0.056200545
0.02880983 0.048914805 -0.007939831 -0.034801472 -0.00036712195 0.00036837783 0.020262841 -0.027989903
-0.034413055 -0.035502143 0.005414193 0.017649759 -0.035091672 0.00030973202 0.06422278 0.03725906
-0.00014810218 0.0039762994 -0.027472138 0.04080732 -0.05533204 0.052825734 0.022936588 0.01997414
-0.02683724 0.00060005 0.03160993 0.05866463 0.013630553 -0.029257488 -0.019629942 -0.0345742
-0.04487476 -8.336581e-06 0.01119302 0.0038960502 -0.04092235 -0.00042434462 -0.00014560886 0.055234432
0.0023208598 0.04561821 -0.033308413 0.011873407 0.034066904 0.03915061 0.008093453 0.05826692
0.0037033276 0.00020120695 -0.009355641 0.044571906 0.0003116022 0.020902293 0.01315603 -0.00035130256
0.026580691 -0.045793664 0.025570547 -0.011763259 0.021141803 -0.039901465 -0.00033006375 -0.042424027
-0.045364138 0.0473881 0.016820084 -0.009411432 0.00022009344 -0.0035126947 0.014741438 -0.04034841
-0.018408757 0.0616304 -0.04227531 -0.016140115 0.012244951 -0.04096608 0.00033085365 -0.000330661
-0.00031691403 -0.03388514 0.012834848 0.032317813 -0.015630307 -0.045187946 0.029679025 0.028269248
0.00030688444 0.005612085 0.0012835909 0.034002997 0.056294207 0.011410095 0.0065089106 0.052320626
-0.00047330483 0.010008777 0.019940171 0.040466767 -0.00034810996 -0.029217174 0.004242745 -0.025551984
-0.023383617 -0.021210587 0.00031881887 -0.020051999 -0.00031385844 0.05451801 -0.0007659861 0.025851399
0.056173995 0.019711887 -0.010381276 0.032318573 0.056371186 0.048619684 -0.013022747 0.020340933
0.009518344 0.00033106754 -0.0002475002 0.015589773 0.0002922454 0.00031224615 -0.00036826674 0.020431949
0.034345686 0.00031105382 -0.04495461 -0.0044632265 -0.0076380745 0.018078389 0.0002904839 0.013326125
-0.011614595 -0.037236143 -0.0063705468 -0.021377385 -0.022266893 0.025729557 0.0002754598 -0.042017587
0.026491234 0.018169662 -0.017643824 0.06333702 0.02483128 0.010644312 0.0460593 0.0030371526
-0.0002063113 -0.04217365 0.00928395 -0.00041090391 -0.00036056616 0.06503433 -0.004727809 0.00036733635
-0.036745816 0.04743982 0.0146808345 0.007727915 0.017463772 0.056848954 -0.002138984 -0.0024517416
-0.01929753 0.054896835 0.0033658044 0.011705686 0.00036747975 0.03459747 0.020747453 0.05615646
0.01499799 -0.009722739 0.004127517 0.03937403 -0.060856413 0.0003684629 0.03463651 -0.043349996
-0.00036244295 0.033728093 0.05424978 -0.046888694 0.028253451 0.018412879 -0.04236839 0.038572818
0.062128827 -0.041445863 0.0003634926 -0.020873673 0.00011618317 0.0008492876 0.05166667 -0.02990585
-0.0016629555 -0.008052016 0.0075861984 -0.0009996056 0.0636698 0.019603956 0.0039090966 -0.038064163
0.056446537 0.00036704497 0.018034218 0.045406286 -0.0008455936 0.00036761066 -0.049495243 0.00044068007
00000000: ffe7 983a 5cd3 313d 7255 3e3d 098d fcbc
00000010: 4f9e 9dbc 5dcf 313d 2cf7 183c 0f8d 833d
00000020: 49bd 4fbd fca0 5b3d abb4 7d3d 985d fa3b
00000030: 5557 233d 5295 55bd 8942 463c 91ab 453d
00000040: 9ddc 9f3c 9576 2cbd bcc2 17bd a092 9839
00000050: a270 03bd 5ff3 c0b9 9a71 f63c f301 f5bc
00000060: 6f57 7c3d 0d1e 1bbd 4419 c1b9 f61f 49bb
00000070: 4a10 a9bb a40c 83bc 50ee bb39 a4ba 5b3d
00000080: 7876 5fbc 33a0 ffbc ea70 c639 6729 913a
00000090: 0c90 353c f1bb 92bc 01c3 21b9 8b32 66bd
000000a0: 9802 ec3c e45a 483d 1116 02bc fd8b 0ebd
000000b0: 467a c0b9 d622 c139 42fe a53c 154b e5bc
000000c0: b4f4 0cbd b26a 11bd 8b69 b13b 3a96 903c
000000d0: 49bc 0fbd 8763 a239 3c87 833d f59c 183d
000000e0: e04b 1bb9 9e4b 823b 400d e1bc 9425 273d
000000f0: d9a3 62bd cc5f 583d 83e5 bb3c cfa0 a33c
00000100: c6d9 dbbc ad4c 1d3a 6a79 013d 534a 703d
00000110: af52 5f3c 66ad efbc f9ce a0bc ad9d 0dbd
00000120: 99ce 37bd 58dd 0bb7 ee62 373c e054 7f3b
00000130: 329e 27bd 927a deb9 95ae 18b9 803d 623d
00000140: 9119 183b 29da 3a3d 676e 08bd ae88 423c
00000150: bd89 0b3d 645c 203d 679a 043c 4ba9 6e3d
00000160: 87b3 723b 14fb 5239 6748 19bc 0891 363d
00000170: 8a5e a339 493b ab3c 648c 573c 082f b8b9
00000180: c0bf d93c 2392 3bbd 5379 d13c afba 40bc
00000190: 9331 ad3c b86f 23bd 680c adb9 d1c4 2dbd
000001a0: bfcf 39bd 061a 423d 46ca 893c 6832 1abc
000001b0: e2c8 6639 3d35 66bb 1386 713c 6044 25bd
000001c0: f6cd 96bc 2970 7c3d e028 2dbd 4638 84bc
000001d0: 0c9f 483c 0ccc 27bd 6d76 ad39 915c adb9
000001e0: 7b27 a6b9 25cb 0abd 4149 523c af5f 043d
000001f0: 210b 80bc ff16 39bd 6d21 f33c e994 e73c
00000200: 55e5 a039 95e5 b73b 2a3e a83a ba46 0b3d
00000210: c194 663d 68f1 3a3c b348 d53b 274e 563d
00000220: e625 f8b9 dafb 233c 9259 a33c 7bc0 253d
00000230: 8782 b6b9 db58 efbc ba06 8b3b 6552 d1bc
00000240: 008f bfbc d3c1 adbc 2527 a739 1744 a4bc
00000250: 5e8d a4b9 474e 5f3d 75cc 48ba 50c6 d33c
00000260: b416 663d d37a a13c 3a16 2abc 7b60 043d
00000270: 79e5 663d 6f25 473d 5c5d 55bc 07a2 a63c
00000280: d4f2 1b3c 2293 ad39 eac2 81b9 3f6c 7f3c
00000290: 8338 9939 f8b4 a339 ed13 c1b9 e760 a73c
000002a0: 10ae 0c3d f014 a339 5322 38bd 4240 92bb
000002b0: d048 fabb 2119 943c 174c 9839 d255 5a3c
000002c0: 244b 3ebc ed84 18bd 05c0 d0bb a01f afbc
000002d0: 0f69 b6bc cbc6 d23c 976b 9039 a21a 2cbd
000002e0: 2504 d93c 8bd8 943c c889 90bc d7b6 813d
000002f0: f86a cb3c 7b65 2e3c ada8 3c3d f70a 473b
00000300: 4555 58b9 47be 2cbd b51b 183c 976e d7b9
00000310: 5f0a bdb9 b830 853d bdeb 9abb 0d97 c039
00000320: c882 16bd 4250 423d e287 703c 733a fd3b
00000330: 2f10 8f3c 73da 683d 322e 0cbb 66ad 20bb
00000340: db15 9ebc 81db 603d d494 5c3b 35c9 3f3c
00000350: 4caa c039 14b6 0d3d 90f6 a93c 5104 663d
00000360: 21ba 753c 204c 1fbc 1f40 873b aa46 213d
00000370: 9344 79bd 412e c139 03df 0d3d c48f 31bd
00000380: 4506 beb9 7826 0a3d 0435 5e3d 5c0e 40bd
00000390: c873 e73c 9bd6 963c 7a8a 2dbd 88fe 1d3d
000003a0: cc7a 7e3d 23c3 29bd 2793 be39 44ff aabc
000003b0: 5da7 f338 baa2 5e3a 6ea0 533d 1dfd f4bc
000003c0: 87f7 d9ba 9aec 03bc a595 f83b 3305 83ba
000003d0: 5065 823d 7a98 a03c e117 803b 2be9 1bbd
000003e0: 7c34 673d f16f c039 7fbc 933c f1fb 393d
000003f0: d3aa 5dba debb c039 86bb 4abd 140b e739

bias f4 [4]
0.040828824 0.043589614 -0.03524431 0.037213724
00000000: 203c 273d 068b 323d 565c 10bd 6b6d 183d

weight f4 [4, 8]
-0.17960386 -0.1896852 -0.088801816 -0.059375387 -0.2883113 -0.24004415 0.29492813 -0.27626535
-0.22003444 -0.0118619185 -0.27857646 0.0039428864 0.036247704 0.26140818 0.098739915 0.08287274
0.1007185 0.2368534 0.19361456 -0.004509191 -0.12959847 0.22057724 0.13035311 -0.19379272
0.2939191 0.107553765 0.29766458 0.31116745 -0.14682123 -0.04048962 0.13380842 0.17462659
00000000: 13ea 37be d63c 42be badd b5bd 9b33 73bd
00000010: 8a9d 93be 22ce 75be d200 973e a772 8dbe
00000020: b550 61be 7e58 42bc 93a1 8ebe 5433 813b
00000030: 7978 143d 4bd7 853e 2738 ca3d 2fb9 a93d
00000040: 8045 ce3d b389 723e e542 463e d6c1 93bb
00000050: 76b5 04be 00df 613e 497b 053e 9971 46be
00000060: 907c 963e 2645 dc3d 7e67 983e 5751 9f3e
00000070: 4e58 16be 72d8 25bd 1305 093e 50d1 323e

bias f4 [4]
-0.002376716 0.20540158 0.010944793 0.08963359
00000000: adc2 1bbb cb54 523e ca51 333c d191 b73d

weight f4 [4, 8]
-0.21562551 -0.01164201 0.00036259205 -0.2975966 0.10018939 -0.11999602 -0.12790984 -0.21403351
-0.14114885 0.27267364 -0.1496939 0.19862114 -0.27895182 0.25914592 -0.3046224 -0.065475136
-0.19632217 -0.061409023 -0.079843536 -0.1460351 -0.040588338 -0.15379503 -0.14422336 0.16272776
-0.14913002 0.20722535 -0.28440264 -0.3335057 0.22118524 0.056573775 0.24267319 0.24700126
00000000: efcc 5cbe 21be 3ebc 481a be39 955e 98be
00000010: 1830 cd3d 79c0 f5bd ccfa 02be 9a2b 5bbe
00000020: 5389 10be e19b 8b3e 5c49 19be 5763 4b3e
00000030: c6d2 8ebe c6ae 843e 78f7 9bbe d417 86bd
00000040: ae08 49be 0788 7bbd 0285 a3bd 3a8a 15be
00000050: f53f 26bd 727c 1dbe 4aaf 13be 1ba2 263e
00000060: 8ab5 18be e232 543e 399d 91be 42c1 aabe
00000070: 627e 623e e7b9 673d 527f 783e e6ed 7c3e

bias f4 [4]
-0.27337894 0.33653912 0.17127581 -0.049917813
00000000: 53f8 8bbe db4e ac3e ed62 2f3e 9f76 4cbd

weight f4 [10, 2]
0.25729367 0.45695326 -0.62344813 0.37758434 -0.07012541 -0.41951832 0.37679702 0.5135131
0.5020681 0.67424893 -0.3372496 -0.07130084 -0.2984947 -0.27541032 0.19579877 -0.5778193
-0.4024438 -0.07095912 -0.121899135 -0.16060391
00000000: ffbb 833e c7f5 e93e 4c9a 1fbf bc52 c13e
00000010: e99d 8fbd 1bcb d6be 8aeb c03e 9875 033f
00000020: 8987 003f 949b 2c3f fbab acbe 2d06 92bd
00000030: 4cd4 98be 9502 8dbe 797f 483e f7eb 13bf
00000040: 1d0d cebe 0453 91bd 41a6 f9bd 5a75 24be

bias f4 [10]
0.511821 0.70980924 -0.61785537 0.57106143 0.24651565 -0.4274403 0.37653202 -0.16507262
0.1421959 0.57240963
00000000: b306 033f 0fb6 353f c52b 1ebf 1531 123f
00000010: 996e 7c3e 74d9 dabe cec8 c03e cc08 29be
00000020: cd9b 113e 7089 123f

weight f4 [10, 2]
0.004063319 -0.15546545 -0.1661118 -0.16421571 0.52753323 -0.2915135 -0.5972479 -0.32808656
-0.50451756 -0.090039425 0.12914413 0.6207496 -0.31082124 -0.66961926 0.3102267 0.20639187
-0.6617313 -0.24323687 -0.5794468 0.57956
00000000: 9725 853b 5632 1fbe 3619 2abe 2a28 28be
00000010: 6b0c 073f 4241 95be 3de5 18bf f6fa a7be
00000020: 1028 01bf 9766 b8bd 5c3e 043e 72e9 1e3f
00000030: f623 9fbe 2b6c 2bbf 09d6 9e3e 6458 533e
00000040: 3967 29bf 1613 79be a056 14bf 0b5e 143f

bias f4 [10]
0.45718417 0.35957512 -0.3624819 -0.4298341 0.16967383 -0.21577717 -0.1695368 -0.18272696
0.24293943 0.63897485
00000000: 0b14 ea3e 3b1a b83e 3a97 b9be 3713 dcbe
00000010: fabe 2d3e b1f4 5cbe 0e9b 2dbe c71c 3bbe
00000020: 1dc5 783e db93 233f

weight f4 [20, 4]
0.48242974 -0.3963958 -0.030081246 0.1981893 0.11367426 0.2625389 -0.32413933 -0.38284096
-0.1536595 0.24181966 0.4595719 -0.059427105 0.37539446 0.26388896 0.16799596 0.004328486
0.12532103 -0.21983123 0.28675103 0.29788783 -0.3913227 -0.04034585 -0.41425756 -0.44325218
0.03639806 0.056417067 0.00036736153 -0.060597345 0.28280002 -0.20542488 0.062260233 0.08280634
-0.17845233 -0.02956358 -0.21197525 -0.18149136 -0.06511953 0.40420586 -0.4796997 0.07274189
0.41633973 -0.16243501 0.13223048 0.3513014 0.19149855 0.26331535 -0.13944437 -0.44549617
0.38287467 0.12613077 -0.08201247 -0.05602838 -0.21879981 0.2596811 0.20794687 -0.414948
-0.4371777 0.0239718 0.49994454 0.40815568 0.38097796 0.22120897 -0.25321016 0.40738666
0.041072384 0.24771744 0.49865606 0.36860943 0.011046571 -0.39653626 -0.110159084 0.18579969
-0.4042042 0.3863537 -0.2471479 0.43426213 -0.22355571 0.24873775 0.19774213 0.17678913
00000000: 0801 f73e 64f4 cabe f26c f6bc 23f2 4a3e
00000010: 0dce e83d 806b 863e 97f5 a5be bb03 c4be
00000020: ea58 1dbe 939f 773e 024d eb3e d669 73bd
00000030: b433 c03e 741c 873e 2207 2c3e f9d5 8d3b
00000040: 2854 003e 701b 61be 08d1 923e c184 983e
00000050: 735b c8be b141 25bd 9119 d4be f3f1 e2be
00000060: 2216 153d 9515 673d 6e9a c039 ec34 78bd
00000070: 2acb 903e e65a 52be 9604 7f3d 5f96 a93d
00000080: 35bc 36be 522f f2bc 0a10 59be dfd8 39be
00000090: 635d 85bd 12f4 ce3e 339b f5be b3f9 943d
000000a0: 7b2a d53e 5d55 26be 6d67 073e c7dd b33e
000000b0: 3218 443e 45d1 863e 81ca 0ebe 1318 e4be
000000c0: 2608 c43e 6d28 013e 27f6 a7bd 047e 65bd
000000d0: 0f0d 60be ecf4 843e 06f0 543e 1074 d4be
000000e0: c1d5 dfbe 8260 c43c bbf8 ff3e c8f9 d03e
000000f0: 8b0f c33e 9b84 623e c3a4 81be fc94 d03e
00000100: 843b 283d a4a9 7d3e d94f ff3e 60ba bc3e
00000110: adfc 343c cd06 cbbe 169b e1bd 4642 3e3e
00000120: daf3 cebe 27d0 c53e 5714 7dbe 9b57 de3e
00000130: caeb 64be 1cb5 7e3e ea7c 4a3e 3608 353e

bias f4 [20]
-0.016991254 0.396626 0.43866345 -0.28738454 0.25133124 0.3060986 -0.29231977 0.2062996
0.39500156 0.44608438 -0.3180587 0.07323561 -0.1685425 0.3710689 -0.28750667 -0.046086557
0.45220742 0.48760214 -0.0075874086 -0.054019347
00000000: 3e31 8bbc 9012 cb3e 7f98 e03e 1124 93be
00000010: 7dae 803e f5b8 9c3e f0aa 95be 3440 533e
00000020: a53d ca3e 2c65 e43e 97d8 a2be 8dfc 953d
00000030: 6896 2cbe befc bd3e 1334 93be 42c5 3cbd
00000040: bb87 e73e fda6 f93e cc9f f8bb 6443 5dbd

G f4 [2, 1]
0.0 1.0
00000000: 0000 0000 0000 803f

m1x_posterior f4 [2]
2.173758 -0.2658838
00000000: da1e 0b40 ec21 88be

m1x_posterior_previous f4 [2]
0.4894384 0.8760524
00000000: ac97 fa3e f844 603f

m1x_prior_previous f4 [2]
1.3654908 -0.58319783
00000000: 67c8 ae3f 744c 15bf

y_previous f4 [2]
3.367007 -0.7277739
00000000: 0b7d 5740 644f 3abf

KGain_array f4 [100, 2, 2]
0.45188546 0.44657966 0.18732974 0.79808086 0.48363554 0.40317377 0.20860696 0.8252467
0.5218208 0.39353332 0.20673022 0.83600235 0.4887177 0.4817051 0.16949871 0.8443757
0.44313625 0.4964647 0.18559045 0.7860318 0.5066135 0.5411236 0.18413678 0.83050376
0.465155 0.5176045 0.18544799 0.80768806 0.5157139 0.47432175 0.17118609 0.82279783
0.52957475 0.41964424 0.19069031 0.83479244 0.5060799 0.44165513 0.18153992 0.8448945
0.4634234 0.46679598 0.2014159 0.8477371 0.50028706 0.47296908 0.16783938 0.8245073
0.52380705 0.537575 0.1836274 0.8503031 0.46526232 0.5207048 0.20553169 0.7982497
0.50117284 0.5036505 0.16959518 0.81871694 0.5309053 0.43803206 0.18299028 0.8333952
0.48542064 0.43944135 0.19204116 0.8516888 0.53867877 0.42877945 0.20031321 0.8594429
0.43804628 0.5015613 0.21679765 0.8151317 0.4676618 0.54390824 0.23396304 0.7970223
0.4340855 0.5526812 0.22868046 0.7661922 0.43944898 0.5194595 0.19260728 0.781062
0.5113837 0.46289602 0.17174032 0.801164 0.5190673 0.42134228 0.18283936 0.8255171
0.45477992 0.4851702 0.16494611 0.79813725 0.5052676 0.44480485 0.16933739 0.8024211
0.51294225 0.41078225 0.19450223 0.8297793 0.49724185 0.5153622 0.18540564 0.82712454
0.46736103 0.4968764 0.17706186 0.7862129 0.45921838 0.49208114 0.202658 0.8081081
0.51318896 0.5226277 0.19168016 0.8433538 0.53362507 0.47368017 0.18702891 0.83832264
0.5119414 0.5335356 0.20164722 0.8465741 0.49532828 0.5558393 0.23656729 0.8151073
0.44417438 0.5065252 0.19804281 0.7897648 0.46073246 0.43786737 0.2047953 0.8150961
0.47927237 0.52257216 0.22550753 0.8516324 0.47913206 0.505092 0.21294683 0.82186645
0.52218854 0.4548296 0.18922052 0.8400987 0.52281225 0.47015217 0.17654708 0.8517708
0.44934446 0.5128058 0.2037291 0.81173295 0.51152694 0.55506855 0.19490209 0.8228484
0.5044755 0.5624419 0.21529937 0.83919626 0.51748437 0.5478083 0.2082743 0.84739953
0.49980924 0.51810795 0.21529233 0.8475482 0.5053857 0.55232066 0.20927602 0.84659386
0.5264699 0.58184874 0.21213412 0.8479975 0.45863596 0.563977 0.2333957 0.80857915
0.46811643 0.4706141 0.19973385 0.8006426 0.5128913 0.52220595 0.18625546 0.85174674
0.45136845 0.50153416 0.18965656 0.80036145 0.43075645 0.5311411 0.2110003 0.80926204
0.50217634 0.4806352 0.1699869 0.7959358 0.5161691 0.4144883 0.18161622 0.8225815
0.44200742 0.45870575 0.17809296 0.8120418 0.5177535 0.43298668 0.17460382 0.8067489
0.5008717 0.45235643 0.1668467 0.83498544 0.43549165 0.4737634 0.17980498 0.7845702
0.41903892 0.47877994 0.17895162 0.77827907 0.40761185 0.5362893 0.20654804 0.7689995
0.41135746 0.5421787 0.18679157 0.7494455 0.4859494 0.5758867 0.18137977 0.797839
0.44749463 0.5370385 0.17769745 0.7952598 0.50452447 0.55715036 0.17800671 0.82122
00000000: 885d e73e 17a6 e43e 5ed3 3f3e 074f 4c3f
00000010: 149f f73e cb6c ce3e 109d 553e 5e43 533f
00000020: 0c96 053f 337d c93e 16b1 533e 4004 563f
00000030: 3539 fa3e 0da2 f63e 1291 2d3e 0229 583f
00000040: c1e2 e23e 9f30 fe3e 6c0b 3e3e 6139 493f
00000050: 6cb1 013f 1487 0a3f 5a8e 3c3e e59b 543f
00000060: cc28 ee3e ba81 043f 14e6 3d3e a5c4 4e3f
00000070: d305 043f 4dda f23e 684b 2f3e e1a2 523f
00000080: 3692 073f 9cdb d63e 5244 433e f5b4 553f
00000090: 748e 013f 9f20 e23e 9ae5 393e 024b 583f
000000a0: d545 ed3e e2ff ee3e f83f 4e3e 4c05 593f
000000b0: d012 003f 0129 f23e 16de 2b3e e912 533f
000000c0: 3818 063f 849e 093f d208 3c3e 77ad 593f
000000d0: dd36 ee3e e94c 053f e676 523e 185a 4c3f
000000e0: dd4c 003f 3def 003f 5caa 2d3e 6f97 513f
000000f0: 69e9 073f bd45 e03e ce61 3b3e 6359 553f
00000100: 0e89 f83e 75fe e03e 70a6 443e 4708 5a3f
00000110: dae6 093f fb88 db3e e81e 4d3e 7304 5c3f
00000120: 9a47 e03e 5266 003f 3400 5e3e 79ac 503f
00000130: 5e71 ef3e 923d 0b3f 0294 6f3e a709 4c3f
00000140: 7440 de3e 847c 0d3f 362b 6a3e 2c25 443f
00000150: 75ff e03e 4cfb 043f d83a 453e aef3 473f
00000160: 0bea 023f b500 ed3e b2dc 2f3e 1519 4d3f
00000170: 98e1 043f 2dba d73e 3e3a 3b3e 1755 533f
00000180: ead8 e83e 3a68 f83e a2e7 283e b952 4c3f
00000190: 3859 013f 76bd e33e c866 2d3e 786b 4d3f
000001a0: 2f50 033f 0d52 d23e 982b 473e 6b6c 543f
000001b0: 7c96 fe3e c7ee 033f fada 3d3e 6fbe 533f
000001c0: f249 ef3e 9566 fe3e b44f 353e 4045 493f
000001d0: ac1e eb3e 0ff2 fb3e 9485 4f3e 2ce0 4e3f
000001e0: 5a60 033f eeca 053f ce47 443e 09e6 573f
000001f0: a79b 083f 3586 f23e 8284 3f3e 509c 563f
00000200: 970e 033f ca95 083f 9c7c 4e3e 15b9 583f
00000210: ab9b fd3e 7c4b 0e3f b23e 723e dfaa 503f
00000220: d36a e33e a3ab 013f bccb 4a3e 072e 4a3f
00000230: 20e5 eb3e 2730 e03e dcb5 513e 23aa 503f
00000240: 3063 f53e 4ac7 053f 72eb 663e 9504 5a3f
00000250: cc50 f53e b64d 013f bc0e 5a3e d765 523f
00000260: 26ae 053f 6ddf e83e 06c3 413e b510 573f
00000270: 06d7 053f c9b7 f03e c2c8 343e a70d 5a3f
00000280: 7a10 e63e 3e47 033f 5c9e 503e bbcd 4f3f
00000290: 6ef3 023f f918 0e3f 6a94 473e 31a6 523f
000002a0: 4e25 013f 31fc 0f3f 7077 5c3e 91d5 563f
000002b0: db79 043f 2a3d 0c3f dc45 553e 2def 583f
000002c0: ffe6 ff3e b9a2 043f 9875 5c3e ebf8 583f
000002d0: f560 013f e364 0d3f 744c 563e 60ba 583f
000002e0: bbc6 063f 0af4 143f b039 593e 5d16 593f
000002f0: 55d2 ea3e cc60 103f 48ff 6e3e 0bff 4e3f
00000300: f5ac ef3e 55f4 f03e 0887 4c3e eaf6 4c3f
00000310: d84c 033f 4aaf 053f c0b9 3e3e 130c 5a3f
00000320: c419 e73e 8b64 003f 5435 423e 7de4 4c3f
00000330: 1c8c dc3e ddf8 073f 7610 583e cc2b 4f3f
00000340: a18e 003f d115 f63e 0c11 2e3e 73c2 4b3f
00000350: a823 043f cf37 d43e 9af9 393e b494 523f
00000360: cc4e e23e 7bdb ea3e 005e 363e f9e1 4f3f
00000370: 7e8b 043f 6eb0 dd3e 58cb 323e 1987 4e3f
00000380: 2139 003f 439b e73e dcd9 2a3e 9bc1 553f
00000390: c3f8 de3e 1e91 f23e cc1e 383e 98d9 483f
000003a0: 458c d63e a522 f53e 183f 373e 4c3d 473f
000003b0: 80b2 d03e 414a 093f 5481 533e 27dd 443f
000003c0: 729d d23e 39cc 0a3f 4a46 3f3e a9db 3f3f
000003d0: 5cce f83e 506d 133f 9ebb 393e 2d3f 4c3f
000003e0: 041e e53e 5b7b 093f 52f6 353e 2596 4b3f
000003f0: 8428 013f 68a1 0e3f 6447 363e 793b 523f

prior_Q f4 [2, 2]
1.0 0.0 0.0 1.0
00000000: 0000 803f 0000 0000 0000 0000 0000 803f

prior_Sigma f4 [2, 2]
1.0 0.0 0.0 1.0
00000000: 0000 803f 0000 0000 0000 0000 0000 803f

prior_S f4 [2, 2]
1.0 0.0 0.0 1.0
00000000: 0000 803f 0000 0000 0000 0000 0000 803f

h_Q f4 [1, 1, 4]
0.26520967 0.03788398 -0.5879957 0.51252913
00000000: 90c9 873e 3b2c 1b3d e386 16bf 1c35 033f

h_Sigma f4 [1, 1, 4]
0.0 0.40719116 0.10782173 0.0
00000000: 0000 0000 5c7b d03e a4d1 dc3d 0000 0000

h_S f4 [1, 1, 4]
0.116603695 -0.4056699 0.5516656 -0.24769944
00000000: ebcd ee3d f7b3 cfbe f539 0d3f eca4 7dbe

KGain f4 [2, 2]
0.44415456 0.5582889 0.21537349 0.78684884
00000000: 3a68 e33e 05ec 0e3f de8a 5c3e ed6e 493f

x_out f4 [2]
2.173758 -0.2658838
00000000: da1e 0b40 ec21 88be
