KNet/model_KNet_MM_Linear_Dynamics_T100_r2_positive_10dB.pt (torch, 37253 bytes, 42 tensors)

weight_ih_l0 f4 [12, 10]
00000000: 5a05 b0bd 9432 c83c a5f9 d9be 98a4 e83e
00000010: 27ae e73e 9a45 993e 27e8 9dbd 9020 a93e
00000020: 5866 86be 6576 b83e baa6 cbbe e962 e1be
00000030: b9be 2dbd 9079 e33e 55f3 9cbe 97f3 a2be
00000040: e5d2 bf3e f91d a0bd b0cd 1fbe 72b3 363a
00000050: 3518 b13e f730 8cbe 737c 603e 718c 63bd
00000060: 802c 89be 25c8 333e aacd a2be 3efd 6cbd
00000070: e923 023f c4e3 163e 12b4 71be 0f1f 613e
00000080: 2e0a 4d3e cc8f e43e 3556 ddbe 8b43 d1be
00000090: 3a3d 753e 6676 ee3e 4933 f3bd 90cd 6abe
000000a0: 5163 863e 47ed fa3d 88f2 78be 1086 623e
000000b0: 0825 ea3e 459c e7be 1c41 39be 2454 e9be
000000c0: 4d5f 3f3e d8c9 883c 366f f1be 5858 bb3e
000000d0: 79c5 5d38 a170 cc38 aab7 bdbe f058 6ebe
000000e0: bfa8 533d a943 c03e c5cf b13e 8c4d 88be
000000f0: 205a 1b3e b4a2 483e e0c5 45bc 0e2d 7ebc
00000100: 5382 963e 17c1 e23d 66b5 8a3d e4b3 87bd
00000110: 25c4 40be 3af0 083e b23d 32bd c7b7 bfbd
00000120: eafd 1c3e fe31 523e c756 db3d a26a aebe
00000130: c1d7 dc3d bae1 ce3d fe4d 4e3e 5240 a83e
00000140: a0eb ec3e 2e39 173b f9c4 e3be 74a4 e33e
00000150: 6928 7f3e 3cd0 35be 3b39 fa3e c5c2 873e
00000160: 9973 66be 1fd0 a9bd 43b1 dc3d 8642 d6be
00000170: 4835 893e a4d0 133e 6a7e 25be fd9d 663d
00000180: c2c3 c13e 8198 8cbe 69fe 003e 80cd 743e
00000190: ab60 153e 3003 bb3e 5ef7 4b3e 5358 09be
000001a0: a151 f9be 8a94 2d3d f060 6c3e 8933 383e
000001b0: 3c68 923e 683f 2d3d 3085 ddbe 9842 843e
000001c0: d372 93be 5443 04be 3d02 c0bd 73b2 0bbe
000001d0: 2e3b 71bd 5512 2cbe c1c2 e4be 4757 c93c
-0.08594771 0.02443818 -0.42573276 0.45438075 0.45250055 0.29935914 -0.07710295 0.33032656
-0.26249957 0.36027828 -0.3977564 -0.44020775 -0.042418215 0.44428682 -0.30654398 -0.3182647
0.37465587 -0.07818217 -0.15605807 0.00069694885 0.3458878 -0.27381107 0.21922474 -0.055553857
-0.26791763 0.17556818 -0.31797534 -0.057858698 0.50836045 0.14735323 -0.23603848 0.21984504
0.20023414 0.44640958 -0.43229833 -0.40871844 0.23949137 0.46574706 -0.11875016 -0.22929978
0.26247647 0.12252288 -0.24311268 0.22121453 0.45731378 -0.45236412 -0.18091244 -0.45572007
0.18688698 0.01669781 -0.4715516 0.36590838 5.2874417e-05 9.748457e-05 -0.37054187 -0.23276114
0.0516746 0.3755162 0.34728828 -0.26621664 0.15171099 0.19593316 -0.012071103 -0.015513672
0.29396304 0.11071985 0.0677288 -0.06626108 -0.18824823 0.13372889 -0.04351587 -0.093612246
0.15331236 0.20526883 0.10709911 -0.3406573 0.10783339 0.10101648 0.20146939 0.32861573
0.46273518 0.0023074853 -0.44486216 0.44461405 0.24917759 -0.17755216 0.48871788 0.26515785
-0.22505035 -0.08291649 0.107759975 -0.41847628 0.26798463 0.14435059 -0.16161504 0.056303013
0.37844664 -0.274601 0.1259705 0.23906517 0.14587657 0.3652587 0.19918582 -0.134126
-0.4869509 0.042377986 0.23083854 0.17988409 0.2859515 0.042296797 -0.43265676 0.25832057
-0.2879854 -0.12916309 -0.09375427 -0.13642292 -0.05889433 -0.16803868 -0.44679835 0.02457775

weight_hh_l0 f4 [12, 4]
00000000: 741b f93e 3289 9c3e 730f 3cbd f961 3dbe
00000010: b5f6 39be 01fc 0cbe d64b 8f3e 4950 203e
00000020: f077 bfbe ad0f 00be 95be 9ebe f5f8 b23c
00000030: 75b4 003e 1735 c8bc a3ef 51bd 8bc2 c33e
00000040: 85e7 ef3e ec91 a0be 57e4 4f3e 7c81 c8be
00000050: d819 a13e bda0 ad3e deb3 cf3e 40c8 b23e
00000060: 224b 37be 79a9 053d b65d b2be 00c1 703e
00000070: 1d43 67be c8ad 66be df5a 9fbe 8cbb d33e
00000080: a5ae aebe 4244 b33e 03a9 01bf f45e 6f3e
00000090: 309f 813e 7354 bbbe fe23 b6be 48f6 a9be
000000a0: c9cf 703e a5a5 d6be 5b8a ee3e 08bd a2be
000000b0: 328e 02bf 9b13 f4be 7dec ba3e ede1 fb3d
0.48653758 0.30573422 -0.04591317 -0.18494405 -0.18160518 -0.13768007 0.27987546 0.15655626
-0.37396193 -0.1250598 -0.31004778 0.021847228 0.12568839 -0.024439378 -0.051253926 0.38234362
0.46856323 -0.3136133 0.20301948 -0.3916129 0.3146503 0.33911696 0.40566915 0.34918404
-0.17899755 0.032632325 -0.3483712 0.23511124 -0.22584195 -0.2252723 -0.31124017 0.41354024
-0.34117618 0.35013014 -0.50648516 0.23376065 0.25316763 -0.36587867 -0.35574335 -0.3319571
0.23516764 -0.41923252 0.46589932 -0.31784844 -0.5099822 -0.47671208 0.3650855 0.12298951

bias_ih_l0 f4 [12]
00000000: b584 eebe ddc1 833e 73e9 c23e bce8 a63e
00000010: e562 3b3e 6be1 fabd 3c9c 0bbe 99aa 753d
00000020: 7bb9 61be b52b 593e 549b fdbe 6687 873e
-0.46585622 0.25733843 0.38068733 0.32599437 0.18299444 -0.12250026 -0.13633817 0.059977148
-0.22043411 0.21208079 -0.49532568 0.26470488

bias_hh_l0 f4 [12]
00000000: 6ca4 9a3e ab60 c3be 18e2 87be 68d3 ab3e
00000010: 6473 5a3e da72 783e 96d7 88be 081b ca3e
00000020: 0ab4 c0bd 386f d03d 1535 6fbc e309 91be
0.3020357 -0.3815969 -0.26539683 0.33559728 0.2133308 0.24262562 -0.2672698 0.39473748
-0.0940934 0.10177463 -0.014600058 -0.28327855

weight_ih_l0 f4 [12, 14]
00000000: 5e9f 78bd 9279 a73e 7576 db3e 1aee 91be
00000010: 464e 97be fdd4 463d 1d0e ba3e 4a97 8c3c
00000020: 1db1 c8be 2a10 373e cbd6 19be a7df d63d
00000030: 21fe 3f3d f5f7 27bd 148c dcbe febc 3c3e
00000040: bc21 a7be 5ca4 d2be c805 553e bf69 f4be
00000050: 4e7d 973e 15c1 833e c78e bb3e 22f4 40be
00000060: c820 f2be c407 aebd d4f9 c53e 25b7 c7be
00000070: aa86 923d 4c11 433d fbe7 df3e 3957 97be
00000080: da6e 62be f4c0 cc3e 120e ddbe 23df 943e
00000090: 7f1a 313e 6287 8ebd 06fd 6c3e 5486 01be
000000a0: 9165 853e bfdc 0c3d bfea 78be 3280 d2be
000000b0: c0e9 38bd 2fe8 673d 84f5 cb3e 752e 63be
000000c0: 8302 61be 2b12 263d 0d35 2c3e 225f b53e
000000d0: 8891 b53b 578a 41be 4ee0 623e 6bf7 0b3e
000000e0: 3370 fcbd 7996 a73e 17d0 7b3e 29c1 83be
000000f0: 327d bf3e 32aa 9d3e c20d d2bd 4ad0 c9be
00000100: bfc8 a03e 864d 933e 072f 9bbe 319a efbe
00000110: 2e30 d8be 60cd c33e 07c9 e03e 16a6 3cbd
00000120: 6ef0 2dbd 1914 5e3e 5a8a c1be 8d77 e0be
00000130: aa80 09bd 1f00 dfbe 513d 57be 9022 9b3e
00000140: d592 f83e c448 6fbd cfa6 3c3e c72a cdbd
00000150: f278 523e 652a 283e 1c8d f23e 4458 323e
00000160: f926 633e da64 993e d948 07be 62ba c13e
00000170: e21c 05bd 2bd7 babe ec2f 313e ab01 12be
00000180: a257 fbbe 62ad 6fbe 5bf7 a63e 013b f9be
00000190: 126d dbbe 0bfd a73e e7d2 ad3e b9e6 2f3e
000001a0: 6148 ebbd 88f4 95be a5b8 d2be 65e9 93be
000001b0: 9c45 ca3d af7a ac3e 6cdc 01bf 9b83 a2b8
000001c0: 96c4 ddbe 923e e93d 32e3 18be e817 cb3e
000001d0: 0ff4 1cbc 7cc4 ee3e 0a93 683d 84c5 9d3e
000001e0: 31da 5c3e 3593 f5be 3979 73be b00d b1be
000001f0: 57a3 56be b5ec c53e 0d3a d1be a312 e93e
00000200: 4241 3dbe 473d 9f3e 3072 a13e e19e dfbe
00000210: bac5 273e a753 c93e a05e 3dbd d79a fa3e
00000220: 1396 8dbd 94bd d03e 0526 e13e f7f6 563e
00000230: 38ea ecbd 4c66 d73d 7980 e73e dd63 cabe
00000240: 0e04 18be d43c b23e 15bc cdbe b3b8 e03e
00000250: 022b 413e 3cdc e43e 2260 d4ba aa54 7d3e
00000260: c6bd 9fbe 5c4b 863c b462 d6be 0528 de3e
00000270: 7335 013f af19 863e b073 743d 4cc7 c0be
00000280: 4982 db3e 2f2f ae3d 9124 fcbe bf18 d73d
00000290: 8ca5 71bc e715 d93e a5ce 993e 17d4 c1be
-0.06069886 0.32709938 0.42863813 -0.2850197 -0.29551905 0.048542965 0.36338893 0.017161984
-0.39197627 0.1787726 -0.15023343 0.10491877 0.046873216 -0.041007955 -0.4307562 0.1843147
-0.32642925 -0.4114102 0.20802987 -0.47736928 0.29587787 0.25733247 0.36632368 -0.1884313
-0.47290635 -0.08497575 0.38667166 -0.39006916 0.071545914 0.047623917 0.43731675 -0.29558733
-0.22112599 0.39990962 -0.43174797 0.2907649 0.17295264 -0.06959416 0.23143396 -0.12648898
0.26054052 0.034390207 -0.24308299 -0.4111343 -0.045144796 0.056617912 0.3983575 -0.2218569
-0.21973614 0.04054467 0.16817112 0.35424143 0.0055410303 -0.18900429 0.22155878 0.13668601
-0.12326088 0.3273199 0.24591099 -0.25733307 0.37400204 0.3079391 -0.1025653 -0.39416724
0.31403157 0.28770083 -0.30309317 -0.46797326 -0.42224258 0.38242626 0.43903372 -0.04605683
-0.04246562 0.21687354 -0.37800866 -0.4384121 -0.03356997 -0.4355478 -0.21019484 0.30299807
0.48549524 -0.058419004 0.18423007 -0.10017925 0.2055395 0.16422422 0.47373283 0.17416483
0.22182836 0.29959756 -0.13211383 0.3783751 -0.032498248 -0.36492285 0.17303437 -0.14258449
-0.49090296 -0.23405984 0.32610592 -0.4867783 -0.42856652 0.32810244 0.33949968 0.17177857
-0.114884146 -0.29288125 -0.41156498 -0.28889003 0.09876558 0.3368735 -0.5072696 -7.7492754e-05
-0.43314046 0.113888875 -0.14930418 0.39666677 -0.0095796725 0.4663428 0.056780852 0.30814755
0.21567608 -0.47963873 -0.23776712 -0.34580755 -0.20960747 0.38657156 -0.40864602 0.4552203
-0.18481925 0.31101438 0.3153243 -0.43675902 0.1638402 0.39321634 -0.04623282 0.48946258
-0.0691339 0.40769637 0.4397432 0.20992647 -0.11568111 0.105175585 0.45215204 -0.39529315
-0.14845297 0.34812033 -0.40182558 0.43890914 0.18864062 0.44699275 -0.0016202966 0.24739328
-0.31199473 0.016393356 -0.4187218 0.43389907 0.5047218 0.2619147 0.05968064 -0.3765205
0.42872837 0.08505093 -0.49246648 0.10502767 -0.014748942 0.42399523 0.3004047 -0.37857124

weight_hh_l0 f4 [12, 4]
00000000: 38cd 613e 96c3 ebbe 6dbf 0a3d 1a85 6bbe
00000010: 127c fcbc 490d e83d 8a14 98be e417 9cbe
00000020: 4e95 b53e 49a0 9fbe 0fa2 53b8 131f e6be
00000030: ad82 a5be 6f32 e33e 6b8a 84be 09b1 2abe
00000040: 40f3 91be 72ec aebe d8a2 6cbe 36cc bbbe
00000050: 3d3c c93e aa2a f93e 6153 26be 5123 323c
00000060: 5423 d4be db48 3cbd 3404 60be d667 9a3e
00000070: dde1 d93e bc5c e83e c695 01b8 79f6 1fbe
00000080: 1e63 abbe bf5e 513e 489d d53e 0cde 8bbe
00000090: 7373 ad3e b1ff f63d f1f0 0a3e 1c60 ed3d
000000a0: ce32 673e d989 8c3e 18ab c33d 8a00 ef3e
000000b0: 0a6c 8cbe e787 be3e 8685 d73e 32d6 9e3e
0.22050941 -0.46047658 0.033873964 -0.22999993 -0.03082088 0.11330659 -0.2970317 -0.30486977
0.35465473 -0.31176975 -5.045725e-05 -0.44945583 -0.3232626 0.44374415 -0.25886855 -0.16669096
-0.28505898 -0.34164768 -0.23108995 -0.36679238 0.3930377 0.48665363 -0.16242744 0.010872678
-0.41433203 -0.045967918 -0.21876603 0.30157346 0.42555133 0.4538325 -3.0895484e-05 -0.15621366
-0.33474058 0.20446299 0.4172156 -0.27317846 0.33877143 0.12060488 0.13568474 0.11590597
0.22577974 0.2744892 0.09554118 0.466801 -0.27426177 0.3721306 0.42094058 0.31022793

bias_ih_l0 f4 [12]
00000000: 7c74 123e 1f59 d7be 54ba 25be 1b9b 00bf
00000010: cbc9 edbd f736 52be 26af a6be 92df aabe
00000020: 9df1 fe3d 9d1c 34be 8389 a83e 83ed 3abe
0.14302248 -0.42060181 -0.1618436 -0.5023667 -0.116107546 -0.2052878 -0.32555503 -0.33373696
0.12448428 -0.1758904 0.32917413 -0.18254666

bias_hh_l0 f4 [12]
00000000: a09b 88be f080 733e 97e4 893e ebef d73d
00000010: 73dd 15be 3b50 bb3c 0052 973e ad12 cfbe
00000020: f677 18bd 4d5d f2be f097 63be f6c6 dd3e
-0.26681232 0.23779655 0.26932213 0.105438076 -0.14635257 0.022865405 0.2955475 -0.40443936
-0.03722378 -0.47336808 -0.22225928 0.43315858

weight_ih_l0 f4 [12, 24]
00000000: 4af2 a53e d252 6e3d 28eb e53e 2d56 1abe
00000010: 4ec2 eebe d7d1 8abe 6f90 243e 87bc 98be
00000020: 62b9 3cbe 9712 3ebe 92f6 673d a1bc e03e
00000030: 5fcb 62be a3aa fdbe 111f 8cbe 573f a43e
00000040: c3ba cc3e 3f71 a83e 6c3a 823d a46c 413d
00000050: 8ea1 14be 6e76 8b3e 33fe d0be 7e50 bbbe
00000060: 22bb 5e3e c694 20be fe7a 7c3d dd63 c5be
00000070: 4bf3 143e 114d 27be a88e 7dbe 3b85 993e
00000080: 31dd 34be a610 a6bd 626c f5be 912c d53d
00000090: ab9a 4dbe 9141 f1be 3626 7e3e b361 52be
000000a0: ea88 bcbd 8e0d 00be 1335 f2be e84b fb3e
000000b0: a70d 5c3d 37a3 b3be aeb6 fcbc 4871 b23d
000000c0: ec32 abbe b217 41be cec1 093e f636 04be
000000d0: 6987 16be a943 e33d 3e84 6c3e a8f4 213d
000000e0: 4952 c1bd bb7e d73e 4251 f4be e75f e73b
000000f0: df5c c63e 16a3 c9be ea46 aa3e 1bbd 2c3d
00000100: da24 a43e f97a e63e f9f4 8ebe 26bf 043e
00000110: d11e 833e 0d76 b83e 3252 f73d b77e a8be
00000120: a6e7 c13e 78e5 70be 4022 b53e f56c a93e
00000130: 8900 09bb 82ba a3bb 1cc5 82bd 5fbd d1bd
00000140: 0232 ae3d ed83 3ebe 0b43 94bd f553 f0be
00000150: 98a8 f43e 0205 b33e 02cf ff3e b0a5 00be
00000160: 5439 963e 4ec2 c83e 2970 303e 7d7b cbbe
00000170: c21a a3be b64c a93e 160b 59bd e1d4 683d
00000180: b366 433e 2529 80be b25c 9a3e 0aab eebe
00000190: c4cb cabe cc3a f4be 707a 213c e974 273e
000001a0: 238c 75be 1219 c2be 371d f5bd b113 4abe
000001b0: 9b87 0dbd 7ed5 823e 5786 8e3e a5d5 203d
000001c0: 3a57 a63e 103f f0be 98a0 c53e 4476 4cbc
000001d0: f48f b03d 01c8 4e3e 62fe b9bc d9c8 763e
000001e0: 5980 973d 4bc4 ec3e 0792 adbd 1a1f cb3d
000001f0: 0e20 153e a2b7 dabe 62f8 e83e f149 dc3e
00000200: 032c a1bd ebef 5bbe c4f3 a83d 7d11 cb3e
00000210: 0bb6 81be 66b6 9e3e e0f7 b33b f7fe cebe
00000220: 77d6 073e aa8e 333d 9386 f3bd 2d5b 97be
00000230: db74 bbbb 2bef abbe 04c9 2d3d 6319 0bbd
00000240: 63c8 ae3d 3513 a23e 414b 1fbe c829 8cbe
00000250: b136 f7bb 3859 ebbe d972 d4bc 1b53 b53d
00000260: 15cf b0bc eb5e f7be 9e5c 633e 9518 a4be
00000270: ac13 323e aad2 033d cfc7 8bbe 7cd9 9c3e
00000280: 035e 33bd 7a0d 64be c3f1 6d3e 0aea 323e
00000290: b487 20bd 351f f53d 2ca2 d73e 4307 1fbe
000002a0: a098 443d 1531 c23c f6a3 b33e 17bd 093e
000002b0: c696 923d 1f1c 03bf bc27 a93e bcb6 a83e
000002c0: a5cf 953e 6c58 2a3e 38fd b1be 8f74 c53d
000002d0: 2ef5 963d 30d5 edbe 1672 9fbe cc30 9b3e
000002e0: 64fd c53e fddd fa3c 06a3 ec3d dd30 5a3e
000002f0: e5f0 fabe 60d9 63be e73c abbd 8d7e 86be
00000300: 2177 cdbe d8aa 8a3e 5488 f73e 7ce6 423e
00000310: 1fb1 dcbd 98fc 3b3e 3def 00be 34f5 363e
00000320: b952 cbbd eb37 05be 68b9 78be 67af 353e
00000330: 2768 b93d 2fc4 4abe ff8c d4be c145 a4be
00000340: 0f17 963e f783 ddbe 7c40 f7be f4c9 cd3e
00000350: 1ac8 bf3d f7ce 49bd a31c b5be b55f 39be
00000360: 2c41 94be a070 43be f869 82be e786 91bd
00000370: 128e 143e 327e afbe 50e9 f7be 3256 dbbe
00000380: f689 a8be beac 913e 7256 a9be 017c cb3e
00000390: 6bb5 a13e 4729 f8be 397e 75be ba69 9d3e
000003a0: 5f21 21be eb8a b93e b643 f1be 33a0 a73e
000003b0: c175 a83e c7f2 4abe 5694 943e 15d6 9dbe
000003c0: 9bb5 093e bd76 d13e 5b0e 643e 377c efbd
000003d0: 2aa8 62bd 9ae3 e23e d658 573e 225f cc3e
000003e0: 05d9 d7be 09ab 95bb 7ba1 9dbe f072 ea3e
000003f0: ac81 c6be e344 3abe 4407 cebe a03c 41be
0.32411414 0.058184452 0.44905972 -0.15071936 -0.46632618 -0.2711322 0.16070722 -0.29831335
-0.18430093 -0.18561779 0.056631632 0.43893912 -0.22147892 -0.49544248 -0.27367452 0.32079574
0.39986238 0.328989 0.06358799 0.04722275 -0.14514753 0.27238792 -0.4081894 -0.36584848
0.21751073 -0.15681753 0.061640732 -0.38552752 0.14545934 -0.16337992 -0.2476145 0.2998446
-0.17662503 -0.08108644 -0.47934252 0.10408891 -0.20078532 -0.47120336 0.24819264 -0.20545082
-0.09205802 -0.1250517 -0.47306117 0.4908135 0.053723957 -0.3508546 -0.030848827 0.08713013
-0.33437288 -0.18856695 0.13452837 -0.12911591 -0.14700092 0.110968895 0.23097321 0.039539963
-0.09439523 0.42088875 -0.47718245 0.007060993 0.3874273 -0.39382237 0.33257228 0.042172533
0.32059366 0.45015696 -0.27921274 0.12963542 0.2560945 0.36027566 0.120762244 -0.32909176
0.37872046 -0.23525035 0.35377693 0.3309094 -0.002090486 -0.0049965987 -0.06385252 -0.10241198
0.08505632 -0.18605013 -0.0723935 -0.46939054 0.47784877 0.34964758 0.49962622 -0.12563205
0.29340613 0.39210743 0.17230286 -0.39742652 -0.31856352 0.33066338 -0.052989088 0.056843642
0.19082145 -0.2503139 0.30148846 -0.46614867 -0.39608586 -0.47701108 0.0098558515 0.16353191
-0.23979239 -0.37909752 -0.11968463 -0.19734074 -0.03455315 0.25553507 0.27836868 0.039266247
0.32488424 -0.46923113 0.38599086 -0.012479369 0.08621207 0.20193483 -0.022704307 0.24100055
0.07397527 0.4624351 -0.08475118 0.099180415 0.14563009 -0.42718226 0.45502 0.43025163
-0.07869723 -0.2147824 0.082496196 0.3966178 -0.253342 0.30998534 0.0054921955 -0.40428898
0.13265406 0.043837227 -0.11890902 -0.2956175 -0.0057207174 -0.33580908 0.04242803 -0.033959758
0.085343145 0.3165528 -0.15556051 -0.27375627 -0.0075443615 -0.45966506 -0.02593367 0.08853742
-0.02158312 -0.48314604 0.222033 -0.32050005 0.17390317 0.032183327 -0.2730088 0.30634677
-0.04379083 -0.22270766 0.23236756 0.17472091 -0.039191917 0.11968843 0.42115915 -0.15530114
0.047997117 0.023705045 0.3508603 0.13451038 0.07157664 -0.51214784 0.33038127 0.32951915
0.29259983 0.16635293 -0.34763503 0.096413724 0.07370983 -0.46451712 -0.31141728 0.30310667
0.38669884 0.03062343 0.11554532 0.21307702 -0.49011913 -0.2225089 -0.083612256 -0.26268426
-0.4012995 0.27083468 0.48346198 0.19033235 -0.10775971 0.18358076 -0.12591262 0.17866975
-0.099278875 -0.13009612 -0.24289477 0.17742692 0.090530686 -0.198014 -0.4151382 -0.32084468
0.29314467 -0.43264744 -0.48291385 0.4019314 0.09364338 -0.049269643 -0.3537341 -0.18102916
-0.28955972 -0.19085932 -0.25471473 -0.07105809 0.1450732 -0.34275967 -0.4842019 -0.428392
-0.32917756 0.28452104 -0.33073765 0.39743045 0.31583723 -0.48468992 -0.23973931 0.30744725
-0.15735386 0.36238798 -0.47121972 0.3273941 0.3290234 -0.19819175 0.2901942 -0.30827394
0.13448183 0.40910903 0.22271101 -0.11693614 -0.055336155 0.4431427 0.21029982 0.3991633
-0.4215776 -0.004567508 -0.30787262 0.45790815 -0.38770807 -0.1819034 -0.40239918 -0.18870783

weight_hh_l0 f4 [12, 4]
00000000: 3a0f 143e 3ac2 efbe a124 413e af60 93bd
00000010: fda5 433d 7f25 71bd 2755 67bd a900 c4be
00000020: dd22 a2bb 949e f53e 8cec c33e f459 dbbe
00000030: 8fb2 f5be e3d5 f13d dff2 9f3e f946 7b3d
00000040: e095 ad3e a87b 433e 1152 71bd d583 f53e
00000050: e8ad 96be 5da4 cebe 10d8 cb3d 77da 18be
00000060: fc5e 993e 60d3 dabe 94a5 5f3e f50d 043e
00000070: aba0 3f3e 0594 86be 1b91 933e c717 a0bc
00000080: d63c aebc 821d d7bd f3c3 f53e 694f 143e
00000090: 7ea9 a8be d7bc bb3e 72f7 593e 1321 ee3e
000000a0: 721c 723e d38e 9cbe 087e 583e ebcf e63e
000000b0: 952e b0bb e3cd d33e 4e41 803e 35d0 c93e
0.14458933 -0.4682787 0.18861629 -0.07196175 0.04776572 -0.05887365 -0.056477692 -0.38281754
-0.0049480037 0.47972548 0.38266408 -0.42842066 -0.47987792 0.11808374 0.31239983 0.06134698
0.33903408 0.1909014 -0.058916155 0.47952142 -0.29429555 -0.40359774 0.0995332 -0.14927088
0.2995528 -0.4273939 0.21840507 0.12895949 0.18713634 -0.26284805 0.28821644 -0.019542588
-0.021269243 -0.10503675 0.4800106 0.14483418 -0.32941812 0.3666751 0.21285799 0.4650961
0.23643664 -0.30577716 0.21141827 0.45080504 -0.0053766468 0.41368017 0.25049824 0.39416662

bias_ih_l0 f4 [12]
00000000: 8cf1 043e e652 e1bd ee3a dd3e 3b9e f13e
00000010: 1987 843d 5580 adbd 1b85 7bbe 0af4 9c3e
00000020: c7f7 a8be d64a b83e c567 82be ba85 973e
0.12982768 -0.1100214 0.43209022 0.47191033 0.0647108 -0.08471743 -0.24562494 0.30654937
-0.3300154 0.35994595 -0.25469795 0.29594213

bias_hh_l0 f4 [12]
00000000: 2ab7 24be 2822 93bb 7cca 553c 91e7 dbbe
00000010: 9d92 003e 390f d43e 4732 bd3e f9f7 9abe
00000020: f543 b93e 6780 fabe f62d 4a3e 4d3f f5be
-0.16085497 -0.0044901557 0.013048764 -0.4295011 0.12555929 0.41417864 0.3695242 -0.30267313
0.3618466 -0.48926088 0.19744095 -0.47899857

weight f4 [4, 4]
00000000: 3dc5 f33d b1a8 193e 297c 1e3d 89c5 e33e
00000010: 8d1a a23e fc53 87bd a506 43be 6da4 513e
00000020: 9127 3ebd c26d 20be c7bc 66be bba3 573c
00000030: 4ca7 ff3e a68b d63e 7bc0 f1be c2b9 013f
0.119028546 0.15005757 0.038692627 0.44486645 0.31660882 -0.066078156 -0.19045503 0.2047288
-0.046424452 -0.1566687 -0.2253295 0.013161595 0.49932325 0.41903418 -0.47217163 0.5067407

bias f4 [4]
00000000: de6c cd3d 893b c53d 2c80 d83e 7250 613e
0.100305304 0.09630496 0.42285287 0.22003344

weight f4 [320, 8]
00000000: 2f94 2dbc 507c fbb8 2fa6 983e 2ed7 06bd
00000010: 9dc7 0a3e 4761 e3bd 7192 7fb7 dca7 9dbd
00000020: f074 fa3c e319 bbbd 5a35 41be c66c 633e
00000030: 8b59 e9bd e4c4 ec3d 833d b8be a75c 6ebe
00000040: 724d b73d 4682 3e3e f41f 593e 2bf4 913e
00000050: 0959 b13e 7ce7 103e 9e84 72bd 82fc fa3c
00000060: 47fe 82be a80b 983e 9525 2cbe d11c 99be
00000070: d5e1 74bc 307f e8bd c75e e8bd 6198 1a3e
00000080: 3fbc 923e dad0 353e 9157 a1be 37e9 fcbd
00000090: 8cb5 42bd cfa9 da3d 5052 4fbe 6caa 90be
000000a0: d9ab ee3b 3a42 493e 89f4 fa3d d83b 973c
000000b0: 1fca 51b8 456a 9abe 60c4 cb37 1ddd a13d
000000c0: 0b1d b23d e5c3 8abe 31e4 413e 669e 833e
000000d0: 8740 843e 7af5 99bd c20d 973e b193 893e
000000e0: a7a5 b3bd c344 4e3e c912 64be 33bb 87be
000000f0: 43f8 be3d f810 96be 5f99 87be 59f9 a1bd
00000100: 799d 843d 5179 87bd f1f2 56b8 a268 6d3e
00000110: cc2b 4d3e e86a 2db9 e380 823e 7a76 83bd
00000120: 6a07 a43e 35d1 88be 654e 9a3e e21c 2a3e
00000130: d9a8 9e3e 5692 1d3c 6949 5dbe e4b6 433e
00000140: 8fba 2b3e ac6c 8e3e 6dba b5bd 59d2 6a3d
00000150: b51e 17be 3e24 4f3e f2fa f1bd 0576 aebe
00000160: 5ba1 203e 0c9d 2abe fc87 9abe 138f 383e
00000170: b4c3 393d fc69 b73e 7218 b93d 0f40 d33d
00000180: bde5 5c3e 2825 df3c 87fe 7f3e fb75 103e
00000190: 8827 903d 596d 173e e340 0dbe c96b c6bd
000001a0: ef3b 223b 9adc a8be 5dfc 3cbe 286d 86be
000001b0: 3abe 57be 0c7e 1b3e 2651 ab3d 8c92 09bd
000001c0: 3c60 a6bb 8380 fe3d d72e 52be d469 89bd
000001d0: 4992 8abe 6014 aabe 72f0 9a3e 532a 853e
000001e0: 5fff ea3c d6b4 4f3e 6a48 9bbe 8573 903e
000001f0: 0eb3 2bbe 1f3c ba39 6eb4 a23d 810d 41bd
00000200: be6d 173e db82 d13d 8204 98be 6a9d b33c
00000210: 9bf2 2fbc f4b9 6e3e 91e6 9cb8 5743 633d
00000220: 04c9 e0bc 76e0 83bd 2eb1 5abe 6e31 a0be
00000230: f5e6 ba3e 2d3c ad3d 253b 1cbe 22c3 fe3d
00000240: b3b0 c63d ee75 823e 0e14 933e a552 823e
00000250: bac9 24be 5b88 953e 3e01 33be 40e1 7a3d
00000260: 4569 83be c13a 3a3e dccb 7bbe 0ee8 abbe
00000270: 4031 a13e cd6d a93e 596f 393e 1b59 b83c
00000280: 926e bbbd f659 3f3d 779e e5bc 334f 2abe
00000290: 4ee1 4abd db84 97bc 96f4 1b3d 4998 cdbd
000002a0: a76a 863c c75e 9f3e 3ece ba3d 35d4 963e
000002b0: 898a 733e 0011 33be 0623 6c3e 6306 353e
000002c0: 4a0a e83d 686a 91be 2237 98be 3f0b f1bd
000002d0: 8009 823e 7377 abbe ea8d 21be bdbc f6bc
000002e0: 8539 08be a4f5 6abe 06d7 f73d 51a2 55be
000002f0: c010 133e 342c 9f3e 80b3 ca3d 2545 ecbc
00000300: 9b70 e3bd 4043 023e 5401 8b3e f7e7 25be
00000310: 8aa2 5c3e f02f e3bb f82e a5be c66b a4be
00000320: a7ca 313e 1ab1 a6be 7352 5e3e 3b66 733e
00000330: 4963 8cbd a968 8b3e a5fc 56be df44 b23e
00000340: 482f 87be c8b0 343c d5e4 4ebe 84b6 903e
00000350: 9d01 97be 4f11 8dbe 8927 60be 2611 11be
00000360: 5990 afbd bc13 cf3c 1d6a 3abe 5240 59be
00000370: c913 6b3e e2d5 283e 25a2 8e3e b0fb 06be
00000380: f90a a23d 583f 65bd d3b1 80bd 96a4 973d
00000390: 0a1a d23d dfa9 7ebe 9c5f 1fbe f0a2 343e
000003a0: b9e1 44bb 69ad a53e 9fc3 89be 2342 673e
000003b0: e8d9 373e 738c 56be d09d a43e fffd b23e
000003c0: e085 72be 28e1 1a3e 3c79 7bbd 6de9 9fbe
000003d0: d6e7 cfbd b7ef 823e 0b49 83be 77f0 92bd
000003e0: b330 373e 6486 833d 0c36 08bc f949 3b3e
000003f0: 19fb d6bd 492d a43e 1a5f 673e 2635 febd
-0.010594412 -0.00011991768 0.29814288 -0.032920055 0.13552709 -0.111025386 -1.52332805e-05 -0.07698032
0.030573338 -0.09135797 -0.18868008 0.22209463 -0.11394032 0.115609914 -0.3598443 -0.23277532
0.089503184 0.18604383 0.21203595 0.28506598 0.3463824 0.14150804 -0.059208505 0.030637983
-0.25584623 0.29696393 -0.16811211 -0.29904798 -0.014946421 -0.11352384 -0.11346202 0.1509719
0.28659245 0.17755452 -0.3151212 -0.1234917 -0.047536418 0.1067692 -0.20246243 -0.28255022
0.0072836694 0.1965417 0.12253673 0.018461153 -5.0017723e-05 -0.30159202 2.429093e-05 0.07903502
0.08696946 -0.2710258 0.18934704 0.25706786 0.2583048 -0.07517524 0.29502684 0.26870492
-0.0877183 0.20143418 -0.22272791 -0.2651001 0.09324696 -0.2930982 -0.264842 -0.079088874
0.06475348 -0.06614936 -5.1247833e-05 0.23184446 0.20036238 -0.00016538391 0.25488958 -0.06419082
0.32036906 -0.26722112 0.30137935 0.1661258 0.30988196 0.009617409 -0.21610035 0.19112736
0.16770385 0.27817285 -0.088734485 0.05732951 -0.14757808 0.20228669 -0.11815442 -0.34074417
0.15686552 -0.16661471 -0.30181873 0.18023328 0.045352653 0.35823047 0.09037866 0.103149526
0.21572013 0.027239397 0.24999438 0.14107506 0.0703879 0.14787807 -0.13794284 -0.09688527
0.0024754961 -0.32980806 -0.18455644 -0.26255155 -0.2106866 0.15184802 0.08365087 -0.033587024
-0.00507739 0.124268554 -0.2052568 -0.06709638 -0.27064732 -0.3321867 0.3026157 0.26008853
0.028686224 0.20283827 -0.30328685 0.28213134 -0.16767523 0.00035521478 0.079445705 -0.04713202
0.14787957 0.10230037 -0.2969094 0.021925647 -0.010738994 0.23313123 -7.481606e-05 0.055484142
-0.027439602 -0.06439297 -0.21356651 -0.31287712 0.3650433 0.08458743 -0.15256937 0.124395624
0.097016715 0.25480598 0.28726238 0.25453678 -0.16092578 0.29205593 -0.17480943 0.06124997
-0.25666252 0.18186475 -0.24589485 -0.3357548 0.31482887 0.33091584 0.18108882 0.022503426
-0.09151949 0.046716653 -0.028029663 -0.16631775 -0.049531274 -0.018495968 0.038075052 -0.10038812
0.016408278 0.31126997 0.09121369 0.29458776 0.23783316 -0.17486954 0.23060235 0.17678218
0.113300875 -0.28401494 -0.29729563 -0.11769723 0.25397873 -0.3348957 -0.15776792 -0.030119294
-0.13303192 -0.22945267 0.12101559 -0.208627 0.14361858 0.31088412 0.09897518 -0.028841564
-0.11105462 0.12720966 0.2714945 -0.16201769 0.21546379 -0.006933205 -0.32262397 -0.32113475
0.17362462 -0.32556993 0.2171114 0.23769467 -0.06854875 0.27228287 -0.20994814 0.3481817
-0.2640326 0.011028476 -0.2020448 0.28264248 -0.29493418 -0.27552268 -0.21890081 -0.14166698
-0.08572454 0.025277965 -0.18204542 -0.21215943 0.22956766 0.1648784 0.2785808 -0.13181949
0.07912249 -0.055968612 -0.06283917 0.07404439 0.10258873 -0.24869488 -0.15563816 0.1764028
-0.0030041768 0.32358864 -0.2690706 0.22583823 0.17954218 -0.20952015 0.3215165 0.3495941
-0.23683882 0.15124953 -0.061394915 -0.31232777 -0.10151641 0.25573513 -0.25641665 -0.07174771
0.17889671 0.06422117 -0.008313667 0.18289937 -0.10497112 0.320658 0.22594872 -0.12412481

bias f4 [320]
00000000: 4e7a 6cbe dd12 9b3e 70d2 df3d 422a 5cbe
00000010: 16bf febd ce72 9bbe faf9 b83d ac7b 9dbe
00000020: 0226 81be b731 c43d 9330 b03e f774 913e
00000030: b783 963c 0196 1cbe 575a 223d 4f4d 98be
00000040: 8fec 91be d3da 35bd 3ff6 903d 4ca4 0cbe
00000050: 95d0 90be 248a a3be 6d6d 853e d6f5 28be
00000060: b318 4ebe 8feb bd3d 320a f73d 3ad0 09be
00000070: 0cd5 a63e 2432 873e 0451 a33e 8442 b03c
00000080: 5f66 ae3c 7776 aa3e bd6e 7c3c 8b94 eabd
00000090: c8fc 8a3d 2b64 d53d 0087 153e cb74 8dbe
000000a0: b4bb 813c ff61 423e ca93 463e 67ea 90be
000000b0: 47bc 043e d1c3 f83d ddb5 0c3e 7724 10bd
000000c0: 4ab2 cfbd d6b5 fabd 53f4 8fbd 7643 6dbe
000000d0: ee00 c9bb 95a5 ad3e 74d6 dabd c2d9 ecbd
000000e0: 9169 713e 1ef4 d93d 8e9f b03e 8f1f 973e
000000f0: f2d0 82be 2f11 813d 2298 eebd ae5f 71be
00000100: 65b9 8cbe a868 11be a313 513e dcab af3e
00000110: e8ab 153e 1d28 143d 71d6 16be 1755 2ebe
00000120: 1a7e 7d3e 07ad 81be 0286 8abd 2dfc 29be
00000130: 64c3 3c3e 633d 61be 26da 4f3e 8459 8dbe
00000140: 8048 19bd 8dfc b13e 5547 823e de57 533e
00000150: 0463 513e cbd4 d53d 13e9 5fbd b783 3dbe
00000160: a44e 303d 237d 20be b9bc 663e cc98 95bd
00000170: 5ca5 28be 4b8a f03d d486 023e 96a5 86be
00000180: d9d3 b1be 2227 ae3e 6032 b73e 40a5 8cbe
00000190: 9bc0 59bc 8971 dcbc 6389 e13d c436 213e
000001a0: 57fc be3d 11f1 8bbe 2f6f 2a3b d35b 10be
000001b0: 120b 46be 2302 1cbe ef49 ae3c 69bc 2dbe
000001c0: 0955 a13e 1f34 6c3d bfca 4dbe 5133 94be
000001d0: 1170 9d3e 8daf 983c 773e d33d 0d35 863e
000001e0: 5d70 9f3e c266 dcbd 3acf 7cbe 02ec 5b3e
000001f0: dbea 55be b2ba 7ebe 40ae 62be 61a1 dfbd
00000200: 18a1 a3bd a773 e33d e524 e4bd cf30 fc3d
00000210: 31d7 8cbe e8e9 aa3e ab33 62be 61c5 4fbe
00000220: 75e5 aa3d dad1 d0bd c73e 9cbd aecd e1bd
00000230: 0d9c 7e3e 4fbb 79bc 0b8f 5ebe 895f e7bb
00000240: 1ada 64bd 4038 4b3d b9b6 203d f704 eebc
00000250: 3c8e 5dbe 76b9 143e 20a6 5b3e 2937 d9bc
00000260: b8fa 2dbe 01c0 09be f4e7 943e a5a0 28be
00000270: cd89 a03e 0e7d df3c d39c 983d 1bbb b33e
00000280: fc48 aabd f79b f3bd 34da 93be 1a46 8fbe
00000290: 16c4 873e b289 953d 31da 643e 8e48 a33e
000002a0: e9f4 1dbe 43d3 00be 5067 ae3d 1bc1 c33d
000002b0: b1d5 efbd f7b6 223e 2de9 42be 833d 63be
000002c0: bde1 64be e862 67be 5b0d 8a3e 3f0b a1be
000002d0: 4284 d43d 2de1 c43d 2927 1f3d be14 e03d
000002e0: 5738 23be 9dff 94be f9c4 833e 3558 c33d
000002f0: 5be5 953d 4a18 91be 4a48 5b3e 35c2 993e
00000300: 0e84 933c 4d42 a9bd 66eb 973e ddd8 f53c
00000310: 1f54 dd3d 27a6 88be 4876 9b3e 6d21 8fbe
00000320: 3c2e 5fbe dcbb a83e affc 50be ad98 703e
00000330: a486 063e 710e 8d3b 65f7 f73d 31f9 92be
00000340: ec2b fbbd dac8 c33d 1311 cc3d 07cf 213d
00000350: e82c 4c3e 1ea6 e73a c25e 713e 9a5b 2d3e
00000360: 34ba a13e b7f8 09be bd19 763e 86fc 77be
00000370: 6259 1f3e cfd7 40be 821a 233e 0036 3abe
00000380: 153e aa3e d12d 80be bcad 9e3e 5df4 cf3d
00000390: 3766 b9bd 37ce 12bd 19b1 2dbe 25cd 963e
000003a0: fe69 c0bd 78da 68bd cf63 31be b8cc 91bd
000003b0: 843a 53be 1857 673e 7a1c 66be 1daf 8b3e
000003c0: b67a 2f3e b5fb 893c cfef 1f3e caeb 2cbe
000003d0: 30e2 703e f558 6dbe 925e 293e 1588 0a3d
000003e0: 650c 08bd 590c 9c3c 8505 913e 8316 96bd
000003f0: 452a 86be c3b4 49bd 2a2b 78be db53 2b3e
-0.2309353 0.3028783 0.1092881 -0.21500495 -0.124387905 -0.30361027 0.09032054 -0.30758417
-0.2522431 0.09579795 0.3441206 0.2840955 0.018373353 -0.15291597 0.039636936 -0.29746482
-0.28500792 -0.04439814 0.07078218 -0.1373455 -0.28284135 -0.3194133 0.26060048 -0.16500029
-0.2012661 0.09273445 0.120624915 -0.13458338 0.32584417 0.26405442 0.31897748 0.021516092
0.021289049 0.33293507 0.015407261 -0.114541136 0.067864954 0.10419496 0.1460228 -0.27628168
0.015836574 0.18982695 0.19392315 -0.28303835 0.12962447 0.12146724 0.1374125 -0.035191026
-0.10141428 -0.12241714 -0.07029023 -0.23170266 -0.006134144 0.33915392 -0.10685435 -0.115649715
0.23575427 0.10642265 0.3449673 0.29516265 -0.25550038 0.06302106 -0.11650111 -0.23571655
-0.27485195 -0.1420008 0.20417647 0.34310806 0.14616358 0.036171068 -0.1473024 -0.17024647
0.24755135 -0.25327322 -0.06763841 -0.16600104 0.1843391 -0.21996073 0.20298061 -0.27607358
-0.037422657 0.34762993 0.25445047 0.20638987 0.20447928 0.10440978 -0.054665636 -0.18507276
0.043043748 -0.15672736 0.2253293 -0.07304534 -0.1646933 0.11745127 0.12746745 -0.26298207
-0.3473194 0.3401423 0.3578062 -0.27469826 -0.01329055 -0.026909607 0.110125326 0.15743548
0.09325474 -0.27332357 0.0026006212 -0.14097528 -0.1934016 -0.1523519 0.021275489 -0.16966404
0.3151019 0.057666894 -0.20096873 -0.289454 0.30749562 0.018638397 0.103146486 0.2621235
0.31140414 -0.10761787 -0.24688426 0.21476749 -0.20890372 -0.24875906 -0.22136784 -0.109194525
-0.079897106 0.11106043 -0.111398496 0.12313997 -0.27507928 0.3338158 -0.22090022 -0.20290138
0.08344547 -0.10196276 -0.07629161 -0.110255584 0.24864216 -0.015242412 -0.21734254 -0.007060949
-0.05587206 0.04961419 0.039236758 -0.029055102 -0.2163629 0.14523873 0.2145009 -0.02651556
-0.16990173 -0.1345215 0.29083216 -0.16467531 0.31355134 0.02728131 0.07451787 0.35103688
-0.08314702 -0.11894982 -0.28877413 -0.2798317 0.2651679 0.07301654 0.22348858 0.31891292
-0.15425457 -0.1258059 0.08515799 0.09558316 -0.1171068 0.15890108 -0.19034262 -0.22191434
-0.22351737 -0.22596323 0.26963314 -0.31453893 0.10376789 0.09613261 0.038855705 0.10941456
-0.1593946 -0.29101267 0.25736216 0.095383085 0.07319137 -0.28338844 0.21414295 0.3003098
0.018007305 -0.08264599 0.29671782 0.030010635 0.108070605 -0.26689264 0.3036368 -0.2795519
-0.21794981 0.32955825 -0.20408891 0.23495741 0.13137299 0.0043047 0.12107734 -0.28705743
-0.12264237 0.09559794 0.09964194 0.039504077 0.19939005 0.0017673408 0.23571303 0.16929474
0.31587374 -0.13473783 0.24033256 -0.24217424 0.1556144 -0.18832324 0.1592808 -0.18184662
0.3325049 -0.25034955 0.30991924 0.101540305 -0.09052699 -0.035841193 -0.16962089 0.29453388
-0.093952164 -0.056848973 -0.1732323 -0.07119125 -0.2062779 0.22591817 -0.224718 0.27282038
0.17136654 0.016843656 0.15618823 -0.16886821 0.23523784 -0.23178466 0.16539982 0.033821184
-0.033214945 0.019048857 0.28324524 -0.073285125 -0.26204124 -0.049244653 -0.24235216 0.16731207

weight f4 [4, 320]
00000000: 552e 5db8 767c fbbc 924d 153d 2251 41b9
00000010: 2b03 a9bc 60bb 663b f782 89bc 8cbe ba3b
00000020: b413 6438 9e7e 183d fed5 19bc a414 3dbd
00000030: 25f6 2c3d 2482 8bbc 9a2a 46bc de72 5db8
00000040: 778f ec3a e21d 1b3d 65cf 09bd 83d5 1b3d
00000050: 47e5 66b8 4be6 04bd e90a c03c af34 ee3c
00000060: c890 363d cfce 47bd 7ed1 d23c 68ac 42bb
00000070: a96d 10bd 2583 543d 1af2 073d 3cf3 97bc
00000080: cb93 463d d136 ef3c 5ad6 23bc cbb9 613d
00000090: 9c65 0abd dff2 2c3c be91 04bd 19c4 5bb8
000000a0: bb10 88bc c2ee 02bd a012 0ebd d824 00b8
000000b0: 575f 283a 7894 14bd 229a e3bc 4270 793d
000000c0: 41a6 0bbd a9f5 70bd 81c6 acbc c2b3 0cb8
000000d0: 42f1 f7bc 4a45 d43b 2549 193d 419b 413d
000000e0: d8a5 203c fc2d 23bd ec5d 923c 29e1 0bbc
000000f0: a3da cdbc 5aef 5dbd f6d1 093d b9b8 263d
00000100: 18da aeba 0994 4db8 c4fb c6bc c677 fb3c
00000110: 01d3 d1bc cf2b 13bd 5aa9 e3ba ea37 33ba
00000120: f3df d33b 092b 34bd 87bb 9b3c 0df0 08b8
00000130: aa1f 043d 06f6 683c 0b04 64bb e261 4a3b
00000140: ac19 683b 840e b63c 4e3c f43c 30a6 24bd
00000150: df87 c3bc 5903 823b c9a1 9638 f195 de3c
00000160: eadb bfbb 5cd7 26bd 8e60 3cbd c93c 3ebd
00000170: 8482 5338 f14b 41bd abe8 a73b 5994 08bd
00000180: 9421 19bc 5e6e 093d e834 823c 657f ad3a
00000190: e2c5 aabc c78a 20bd 0820 8f3b 3417 443d
000001a0: f28f b1bc 5fd8 5db8 e41f ed3c 3d1b 4f3b
000001b0: 98be a5bc a060 cebc daba f13c 3c3b 343d
000001c0: 1c11 11bd fa06 90bc d7a4 edbb 542c 03bd
000001d0: 866a 0c3d bf62 14bd 954e ba3b 2749 91bc
000001e0: f6bd 713d a5e0 d53b b394 5a3d 5a7a 9fbc
000001f0: d1c1 8bbc a68e 063d 795a 33bb 4fa2 b9bc
00000200: 3aa2 443c 3ccf b7bb b558 be3c 1ed3 f6bc
00000210: eee3 f5b9 490e 4cbc 4cad 403d ccf7 1f39
00000220: 1b6f 133d 4d7d 143b 6a97 333d 71dc 25bb
00000230: e4f2 323d 6bdc 1d3c 97dd 503d c760 de3c
00000240: 6e24 87bc 5897 a13c 35fd 293d b8af 2c3c
00000250: 1f47 6eb8 ed73 673d 65d3 a33b 8fee 08bd
00000260: 7aa2 1ebd 5e55 55b8 7e36 40ba 5363 d1bc
00000270: fd6d 433c a112 903b 0204 82bc 5705 393d
00000280: b74b cabc df45 0638 dea8 56bd e765 d7bc
00000290: 7056 5abb e8cc 683d 265a 193b 205a 28bd
000002a0: d63c 1138 9cea 85bd 7eb9 37bb 199c a4bc
000002b0: 26a0 42bc d87e 4ebd 3739 acba 63e8 8abc
000002c0: 2011 383b c53f 9138 34a9 033d c6db af3a
000002d0: a03c 83bb fc16 0ebc 26cc 433d 9204 9a3c
000002e0: cf46 b1bb b7bc 34bd a0bd 323d 6e32 6abd
000002f0: 097e 03bd 3e46 473a e379 36bd b155 50bd
00000300: e2e6 fe3c f00b 5fbd 83cd 17bd 9765 4bbd
00000310: 8d7f ce3c 3385 af3b 8aa0 e7bc 2a15 45b8
00000320: 633a a1bc a634 393d 12fd 153d 76be 8e3c
00000330: 9a10 03bd 4252 1f3b 4489 2a3d 8c66 683c
00000340: 1569 eabc 5a0f 5fbc 8f13 03bc 1bc3 64bd
00000350: 607c 423c 4030 23bd f274 88bc ecce 9e3c
00000360: 5d8e 80bb e04c adbc 557b 14bd 9fa2 68b8
00000370: 7647 42bd 9b9d cfbb d50a 62bc 063f bd3c
00000380: a975 c03c a0eb 273d 1c85 6cbc a3f5 65bc
00000390: 178e aa3c c198 bf39 5492 30bd e616 843c
000003a0: 79fe 2ab9 f108 1937 22fc 21b9 bf36 5eb8
000003b0: 7dab 6a38 e7f4 b8bc 5822 fb37 e19f ddbc
000003c0: e417 5b3d 9e3e cbbc b1d5 8fbc 8580 c93b
000003d0: 4275 ec3c b4e9 81bd 60e5 01bd 6d61 933b
000003e0: 5d54 fe3c 0256 bcbb 236e 8b3c bbc7 1abd
000003f0: 32dd 5138 5273 e0bc bfbf 5338 ffa1 02bc
-5.2733656e-05 -0.030698996 0.03645093 -0.00018436139 -0.020631393 0.00352069 -0.016786082 0.0056989845
5.4377786e-05 0.037230127 -0.009389399 -0.046162263 0.04222693 -0.01702983 -0.012095118 -5.2797484e-05
0.0018048127 0.037870295 -0.033645052 0.038045418 -5.5049804e-05 -0.032446187 0.023442702 0.029077856
0.044571668 -0.048781212 0.02573466 -0.0029704813 -0.03526083 0.05188288 0.03318987 -0.0185486
0.04848079 0.029200943 -0.009999836 0.055108827 -0.03378831 0.010555952 -0.032365553 -5.23963e-05
-0.01660954 -0.03196598 -0.03468573 -3.055189e-05 0.0006422898 -0.036274403 -0.027783457 0.060898073
-0.0340941 -0.05882803 -0.021090748 -3.3546014e-05 -0.030266408 0.0064779865 0.03742327 0.047267202
0.009805165 -0.039838776 0.017867051 -0.008537569 -0.025128668 -0.05418334 0.0336475 0.04070351
-0.0013340143 -4.9013677e-05 -0.024289973 0.03069676 -0.02561331 -0.03593045 -0.0017369196 -0.000683664
0.006465906 -0.043986354 0.019010318 -3.264849e-05 0.03225676 0.014218813 -0.003479245 0.0030881097
0.0035415692 0.022223718 0.029813912 -0.04019755 -0.0238685 0.003967684 7.182692e-05 0.027171107
-0.005855073 -0.040732726 -0.04599052 -0.046444688 5.0427872e-05 -0.047191564 0.0051241717 -0.0333446
-0.009346385 0.03355252 0.015894368 0.0013236819 -0.020846311 -0.03919485 0.004367832 0.04787369
-0.021675084 -5.2892017e-05 0.02894587 0.0031601929 -0.020232484 -0.025192559 0.029508043 0.044001803
-0.035416707 -0.017581452 -0.0072523165 -0.032024696 0.034281276 -0.036226984 0.0056856372 -0.017735077
0.05901905 0.006527024 0.053364467 -0.019467521 -0.017060192 0.032850884 -0.0027367158 -0.022660403
0.012001568 -0.005609421 0.023235658 -0.030129965 -0.00046899862 -0.012454578 0.04704027 0.00015255733
0.03599463 0.0022657693 0.04384557 -0.0025308395 0.04368867 0.009635071 0.050992575 0.027145756
-0.016496863 0.019725487 0.041501243 0.0105399415 -5.680986e-05 0.05650704 0.0049995654 -0.033430632
-0.03872917 -5.086266e-05 -0.0007332339 -0.025560057 0.011928079 0.004396752 -0.015871052 0.045171108
-0.024694307 3.2013162e-05 -0.052407138 -0.026293708 -0.003331568 0.05683604 0.002339968 -0.041101575
3.4627352e-05 -0.06538889 -0.0028034146 -0.020093964 -0.011879003 -0.050413936 -0.001313961 -0.016956514
0.002808638 6.926017e-05 0.032143787 0.0013416938 -0.00400503 -0.008672472 0.047802113 0.018801007
-0.0054100524 -0.044125285 0.04363787 -0.057177 -0.03210262 0.00076017145 -0.044549834 -0.05086297
0.031115953 -0.054454744 -0.037061226 -0.04965743 0.025207305 0.0053564548 -0.028274793 -4.698817e-05
-0.019681161 0.045216225 0.0366183 0.017424803 -0.031998254 0.0024310504 0.041634813 0.014184605
-0.02861456 -0.0136145 -0.008000269 -0.05585013 0.011870474 -0.039840937 -0.016657326 0.019385777
-0.003923221 -0.02115482 -0.03625043 -5.5464563e-05 -0.04743143 -0.0063359267 -0.013796528 0.023101341
0.023493605 0.040996194 -0.014436033 -0.014035615 0.020819707 0.0003654417 -0.0431083 0.0161242
-0.00016307262 9.1215925e-06 -0.00015448083 -5.297991e-05 5.594966e-05 -0.022577716 2.9937524e-05 -0.027053775
0.05348958 -0.024810132 -0.01755795 0.006149354 0.028864507 -0.063434035 -0.03171289 0.004497698
0.031046087 -0.0057475576 0.01702029 -0.037788134 5.0035487e-05 -0.027398739 5.0484898e-05 -0.007973193

bias f4 [4]
00000000: 5afb b7bc 4334 593d 22f0 34bc 1b09 733d
-0.022458721 0.053028356 -0.01104358 0.059334856

weight f4 [4, 8]
00000000: 875d 8abd a16b c23d 3e23 4b3e 130f d6bd
00000010: 3727 983e ff56 523e 13a6 94bc 2fcc 73be
00000020: e2ed 423e 9b0b b23b 0116 173e 3936 4bbe
00000030: 1e8a 86be 3979 11bd 7d77 a83d d4e0 653e
00000040: 3e5c 88be cb5b c23d 8248 403e 08c2 fbbd
00000050: 0e86 9bbd d55a f1bd 168f ef3d 45ed 8cbd
00000060: 07d9 e8bd 854e b5be f89e a0bd f618 7abc
00000070: 8678 a8bd 75f9 a1be 1f8f b83d 3813 1a3d
-0.0675612 0.09493185 0.19837663 -0.10452094 0.2971742 0.20540999 -0.018145597 -0.23808359
0.19036058 0.0054335124 0.14754488 -0.19844903 -0.2627725 -0.035515998 0.082259156 0.22449046
-0.26632875 0.09490164 0.1877766 -0.12292868 -0.07593928 -0.11784903 0.11697213 -0.06881193
-0.1136952 -0.35411468 -0.07842821 -0.01526474 -0.08226113 -0.31635633 0.09011673 0.037615985

bias f4 [4]
00000000: 818f d5bc 0a16 67be aa77 a53e 91d0 843e
-0.026069405 -0.22567001 0.3231786 0.25940374

weight f4 [4, 8]
00000000: 8d1f b03a 1b61 bfbb 974c 193e df73 803e
00000010: 0fa3 803e 2698 79b8 7d24 0b3e 7365 f2b7
00000020: 5262 8bbe 3d35 6fbd a517 b7bd 28b4 80be
00000030: 1c1e 0d3e ad81 3f3d e0dc b23b 47ec 4c3e
00000040: 31db 71bd 6c01 64be af44 453e a679 56bd
00000050: 3087 5bbe fbb6 713e b1dc 81be f85d 0d3d
00000060: 843b ad3e 70e9 8dbe 4f3f 753e d4cd 94be
00000070: aa1e 483e 9784 053a abc2 8fbe 4fe9 053d
0.0013437137 -0.0058404333 0.14970623 0.25088403 0.25124404 -5.9507925e-05 0.13588138 -2.8895889e-05
-0.2722345 -0.05840038 -0.08940057 -0.25137448 0.13781017 0.046754528 0.0054584593 0.20012008
-0.059046928 -0.22266167 0.19264482 -0.052362107 -0.21438289 0.23604958 -0.25363687 0.034513444
0.3383447 -0.2771716 0.23949932 -0.29063284 0.19542947 0.0005093305 -0.28078207 0.032693204

bias f4 [4]
00000000: 2f6e 1fbe bbe8 b93d 7cc2 88be 9839 95bd
-0.15569375 0.09077593 -0.2671088 -0.07286376

weight f4 [10, 2]
00000000: f7b4 0bbf 361c f03d f485 62be f447 be3d
00000010: 9202 12be bfe5 4a3e 2122 a23e 0f8e 92be
00000020: e086 073f 57dc 153f 8785 90be 12a6 c5bd
00000030: 7c02 07bd 5876 133f f1cf 1fbf 456f 133f
00000040: c30f d0be fcf2 243e 1511 863e 9e86 14be
-0.54573005 0.11724131 -0.22121412 0.09291068 -0.14258793 0.19814204 0.31666663 -0.28624007
0.5294018 0.58539337 -0.28226873 -0.09650816 -0.032961354 0.57602453 -0.6242667 0.5759166
-0.40637025 0.16108316 0.26184908 -0.14504477

bias f4 [10]
00000000: b3ba 253f 86bb cdbd fe68 e6be bd7b 2f3f
00000010: 9502 19bf f75f 1ebe f240 babb fc5f 2fbf
00000020: d047 9fbe 3316 aabe
0.64738005 -0.10045533 -0.45001978 0.68548185 -0.59769565 -0.15466295 -0.0056840116 -0.68505836
-0.31109476 -0.33220062

weight f4 [10, 2]
00000000: e3b9 e2bd a246 b7be c6f2 8abe c7a0 8c3e
00000010: 727c 80bc 8f5b 0e3e 0319 313f 09c9 27bf
00000020: dce5 593e 2c7c 85be 8dda e93e 602b cd3e
00000030: 427d e23e 6e8c bebe c880 d8be 4bda bd3e
00000040: 6746 a63e dfc8 31bd 88ab e33e 0e4b 503d
-0.11070611 -0.35796076 -0.27138346 0.27466413 -0.01568434 0.13902114 0.6917879 -0.6554113
0.2127909 -0.26071298 0.45674554 0.40072155 0.4423619 -0.37216514 -0.42285752 0.37080607
0.32475588 -0.043404456 0.44466805 0.050852828

bias f4 [10]
00000000: 5d7f 8d3e aa9b 23bd d8a4 22bf cc89 f3be
00000010: 1e40 273f 2e2b de3e 8f3f 83be 8104 b13e
00000020: a04e 173e e30f 04bf
0.27636233 -0.039943375 -0.6353278 -0.47566068 0.6533221 0.43392318 -0.2563443 0.3457375
0.14776087 -0.5158674

weight f4 [20, 4]
00000000: 79fe 02bf dc1b dcbe 1eea 903e a000 b83d
00000010: 1332 f1be 4d7f 72bc 4598 25bd 9d4c 87bd
00000020: 738e 0abe 2288 8e3e 456b b0be 77cb 8b3b
00000030: 8566 eb3d 4f40 663e 6743 aebe 1495 2abe
00000040: b3f1 00bf 605b ec3e 1e62 b73e 3305 a13e
00000050: 3c26 23be c7d2 b53d 3e64 3f3e 2a89 143e
00000060: 0969 e53e c16a 703e 3e61 be3e fb5a cf3e
00000070: e4b6 823e 6ad6 f2be 4242 483e 5daa a43c
00000080: 94a0 6ebe 6544 f5bd 43df e53e 4d24 9abe
00000090: 78b7 68be e442 c93e 6cd0 b0be c06c efbe
000000a0: c0bb e9be 8964 cdbe a0e0 953e a4f0 593e
000000b0: 4ebe 94be 55e0 f0be e7ac a3be 52f3 b6be
000000c0: 50fb b93e c5ea 20be e71b 5fbe 4f9f 753e
000000d0: 3dab d1bc 66c0 8bbe 3e8a 003e fa4e eebd
000000e0: dc15 c73e e3de 63be c9bf 88be d1d1 e4be
000000f0: 79b1 b6be c404 8d3e e324 f0bd 7033 e83e
00000100: b5af e73d 2af5 303d 8ef7 d8be e2e1 debe
00000110: 95eb d23e fdd6 8cbe 7462 61be 212d af3e
00000120: d460 7b3d 2eb6 023f e2a1 f8be 2c92 a23e
00000130: 1178 97be 9358 533e c9f6 cbbe 12c8 b4be
-0.51169544 -0.42990005 0.28303617 0.08984494 -0.47108516 -0.014800859 -0.04042842 -0.0660641
-0.13530903 0.27838236 -0.3445684 0.0042661983 0.114941634 0.2248547 -0.340358 -0.16658431
-0.50368804 0.46163464 0.35817045 0.3144928 -0.15932554 0.08878093 0.18690583 0.14505449
0.44806698 0.23478223 0.37183565 0.404991 0.2553016 -0.4742921 0.19556525 0.020100767
-0.23303443 -0.11975936 0.44896898 -0.3010582 -0.22726238 0.39308846 -0.34534013 -0.46762657
-0.45651054 -0.40115765 0.29272938 0.21283203 -0.2905144 -0.47046152 -0.31967852 -0.35732514
0.3632455 -0.15714557 -0.21787988 0.23986553 -0.025594348 -0.27295226 0.12552735 -0.11636157
0.38883865 -0.22252993 -0.2670882 -0.44691327 -0.35682276 0.27542698 -0.117257856 0.45351744
0.1131281 0.043202557 -0.4237637 -0.4353171 0.4119536 -0.27507773 -0.22010213 0.34214118
0.06137164 0.51059234 -0.48561007 0.31752145 -0.2958379 0.20639257 -0.3983672 -0.35308892

bias f4 [20]
00000000: 5790 e83a 5c9a 333e 0614 a93e c0c6 a2be
00000010: 306b 47be 7f93 78bd df3c 9ebe dfc9 ffbd
00000020: bb0b f03e 9b46 e3be e631 913e d19c 48bc
00000030: 58f3 cc3e cd28 d83e 96b6 b2bd b894 013d
00000040: e63f 133e 90aa e63e 0cd9 663e 8c2a f8be
0.0017743212 0.17539352 0.3302309 -0.3179226 -0.19474483 -0.06068754 -0.30905816 -0.12489676
0.4688395 -0.44389805 0.28358382 -0.012244419 0.40029407 0.4221863 -0.08726232 0.03163597
0.14379844 0.45052004 0.22543734 -0.4846996

G f4 [2, 1]
00000000: 0000 0000 0000 803f
0.0 1.0

m1x_posterior f4 [2]
00000000: 4b42 2c41 cc64 50c0
10.766185 -3.2561522

m1x_posterior_previous f4 [2]
00000000: 0493 c9c0 1a8d 8441
-6.2991962 16.568897

m1x_prior_previous f4 [2]
00000000: b250 2441 5cbd acc0
10.269701 -5.398115

y_previous f4 [2]
00000000: 2968 1a41 c8d7 27c0
9.65043 -2.6225452

KGain_array f4 [20, 2, 2]
00000000: d85b 30be fb5d 113e bb46 e03e a0da 4e3f
00000010: 8582 4ebe 183a df3d 0153 ce3e b40b 683f
00000020: 27ae 3cbe 5914 293e 4733 003f b098 5a3f
00000030: 0988 5ebe 2161 053e b5fc ef3e 9a20 643f
00000040: fb2e 4ebe 4a38 033e df8b ec3e 66ad 5c3f
00000050: c1d4 3bbe 42de bd3d 3f84 f23e ee91 633f
00000060: 1b71 31be f89f b53d b59d de3e d6f4 653f
00000070: c792 23be dd96 2b3e f3c4 fe3e cb95 553f
00000080: 6303 58be ea55 c73d c43c d73e bb11 6e3f
00000090: af35 38be cc8c 273e b728 dc3e ee4c 5b3f
000000a0: c937 25be 3ee6 0b3e 8554 d63e dcef 5f3f
000000b0: cb35 1ebe a71c 253e 0919 f63e 22a5 513f
000000c0: 734a 35be e82a c43d e62e ce3e 066f 603f
000000d0: dceb 00be 9504 123e b70c d83e 9137 513f
000000e0: f8dd 1ebe 2bb6 2d3e 6763 e73e bb1a 493f
000000f0: b861 5abe d276 f43d 5377 c83e c0b5 663f
00000100: c066 10be 3cf8 fd3d 5fe5 da3e 6dea 5b3f
00000110: 39be 09be 7bf7 213e 620f f23e b119 4d3f
00000120: 77c4 39be 3a8b f63d 0dc0 ec3e 8463 573f
00000130: abef 54be f4a8 073e ca61 e23e a1d0 5e3f
-0.17222536 0.14196007 0.43803963 0.80802345 -0.20166977 0.108997524 0.40297702 0.9064286
-0.18425809 0.16511668 0.50078243 0.8538923 -0.21731581 0.13025333 0.46872488 0.89112246
-0.20135109 0.12814441 0.46200463 0.86202085 -0.18342878 0.09270908 0.4736652 0.88894546
-0.17328303 0.08868402 0.43479696 0.89826715 -0.1597396 0.16756769 0.49759635 0.8343169
-0.21095042 0.09733184 0.42038548 0.92995805 -0.17989229 0.16362303 0.42999813 0.8566426
-0.16134562 0.13662049 0.41861358 0.8747537 -0.15450208 0.16124211 0.48065975 0.818926
-0.17704181 0.09578496 0.40270156 0.8766941 -0.12589973 0.1425956 0.421972 0.8172541
-0.15514362 0.16964023 0.45193025 0.7855641 -0.21326339 0.11936726 0.39153537 0.9012108
-0.14101696 0.124008626 0.4275312 0.8590458 -0.1345147 0.15817063 0.4727736 0.80117327
-0.18141352 0.12038274 0.46240273 0.84136224 -0.20794551 0.13248044 0.44215232 0.8703709

prior_Q f4 [2, 2]
00000000: 0000 803f 0000 0000 0000 0000 0000 803f
1.0 0.0 0.0 1.0

prior_Sigma f4 [2, 2]
00000000: 0000 803f 0000 0000 0000 0000 0000 803f
1.0 0.0 0.0 1.0

prior_S f4 [2, 2]
00000000: 0000 803f 0000 0000 0000 0000 0000 803f
1.0 0.0 0.0 1.0

h_Q f4 [1, 1, 4]
00000000: 6532 df3e 5b7c 083f 8c78 00bf 981b 22bf
0.43593135 0.5331475 -0.5018394 -0.63323355

h_Sigma f4 [1, 1, 4]
00000000: 0000 0000 0083 7b3e 0000 0000 0000 0000
0.0 0.24561691 0.0 0.0

h_S f4 [1, 1, 4]
00000000: 6d33 e3be 2d6d 95bd 8ca8 2ebf 429e cbbe
-0.44375172 -0.07296214 -0.6822593 -0.3976918

KGain f4 [2, 2]
00000000: abef 54be f4a8 073e ca61 e23e a1d0 5e3f
-0.20794551 0.13248044 0.44215232 0.8703709

x_out f4 [2]
00000000: 4b42 2c41 cc64 50c0
10.766185 -3.2561522
