KNet/model_KNet_MM_Linear_Dynamics_T100_r2_positive_15dB_best_MSE.pt (torch, 37253 bytes, 42 tensors)

weight_ih_l0 f4 [12, 10]
-0.09651881 0.011014475 -0.43917692 0.45182562 0.4523542 0.28629392 -0.07930423 0.32186756
-0.27725175 0.3737125 -0.394875 -0.4375984 -0.05544206 0.4477668 -0.3047237 -0.31849626
0.37645552 -0.074250326 -0.155515 0.011123563 0.34273976 -0.27699432 0.23261827 -0.058928967
-0.2721997 0.17294715 -0.32062 -0.06151198 0.50634134 0.16069765 -0.23959352 0.21568118
0.2136179 0.44290218 -0.4355203 -0.41203016 0.23627178 0.4610846 -0.12255681 -0.24269775
0.26737645 0.12529261 -0.25651634 0.21709386 0.45544207 -0.44157317 -0.17847389 -0.45257497
0.18877563 0.02922838 -0.4801095 0.3628852 0.00010576651 0.0069915717 -0.37221777 -0.2311887
0.04789339 0.36658815 0.35178998 -0.2796283 0.1486494 0.1929746 -0.02437551 -0.011892287
0.2995197 0.10705648 0.064639695 -0.06948772 -0.19034855 0.14705843 -0.03861209 -0.08811656
0.16666251 0.20330583 0.10170774 -0.33776644 0.11231762 0.10733649 0.20747556 0.34204376
0.45899442 -0.0021642998 -0.4583086 0.4410328 0.2459663 -0.18139714 0.4854336 0.2604027
-0.22934742 -0.096151374 0.11083794 -0.4156101 0.28139684 0.14781235 -0.1594693 0.05629385
0.38051552 -0.27033538 0.12676844 0.2524672 0.14912929 0.3687669 0.21256898 -0.13068707
-0.48422885 0.045643587 0.2336641 0.18331638 0.28907737 0.05531951 -0.42907697 0.2625835
-0.3014036 -0.1256562 -0.09049868 -0.1331546 -0.055642888 -0.16326307 -0.44286382 0.037342798
00000000: a7ab c5bd 0e76 343c ccdb e0be b055 e73e
00000010: f89a e73e 1e95 923e 426a a2bd d3cb a43e
00000020: f1f3 8dbe 3f57 bf3e 0e2d cabe e60c e0be
00000030: 3717 63bd b141 e53e bf04 9cbe f111 a3be
00000040: c7be c03e 8e10 98bd 533f 1fbe 9b3f 363c
00000050: 967b af3e 33d2 8dbe 7c33 6e3e 805f 71bd
00000060: c25d 8bbe 0f19 313e 4e28 a4be fcf3 7bbd
00000070: 969f 013f ed8d 243e 0158 75be 87db 5c3e
00000080: a7be 5a3e 13c4 e23e 84fc debe 9ef5 d2be
00000090: 3bf1 713e 4813 ec3e 11ff fabd c285 78be
000000a0: 91e5 883e b54c 003e 1c56 83be da4d 5e3e
000000b0: b42f e93e e115 e2be dcc1 36be e8b7 e7be
000000c0: 664e 413e 5b70 ef3c ead0 f5be 17cc b93e
000000d0: f6ce dd38 8e19 e53b 5493 bebe bbbc 6cbe
000000e0: dc2b 443d 71b1 bb3e d11d b43e 712b 8fbe
000000f0: 8c37 183e 229b 453e 26af c7bc ded7 42bc
00000100: a55a 993e 6e40 db3d d161 843d 944f 8ebd
00000110: bbea 42be 7c96 163e b627 1ebd 7476 b4bd
00000120: 94a9 2a3e 672f 503e 264c d03d b9ef acbe
00000130: c806 e63d 3cd3 db3d 7974 543e 5c20 af3e
00000140: 5101 eb3e edd6 0dbb 6da7 eabe 0dcf e13e
00000150: 97de 7b3e 2cc0 39be c18a f83e 8153 853e
00000160: 0dda 6abe 03eb c4bd 00ff e23d d9ca d4be
00000170: 3f13 903e 1f5c 173e ec4b 23be 6194 663d
00000180: eed2 c23e 6669 8abe 96cf 013e 6143 813e
00000190: 59b5 183e 04cf bc3e afab 593e d5d2 05be
000001a0: d8ec f7be c5f4 3a3d a445 6f3e 4ab7 3b3e
000001b0: f301 943e b696 623d faaf dbbe 5871 863e
000001c0: 9351 9abe 05ac 00be 5f57 b9bd ae59 08be
000001d0: cce9 63bd 6f2e 27be 0cbf e2be c3f4 183d

weight_hh_l0 f4 [12, 4]
0.48421177 0.30281612 -0.042882662 -0.1805646 -0.17813188 -0.13424085 0.27641535 0.15310293
-0.37739474 -0.1283956 -0.30669335 0.025165934 0.12209034 -0.027944036 -0.047780722 0.38589627
0.46093503 -0.3191678 0.19503607 -0.39242572 0.3105758 0.3321076 0.41307503 0.35500306
-0.17754629 0.023257991 -0.34372583 0.24161683 -0.22048515 -0.2242759 -0.31657037 0.421404
-0.3448574 0.3465292 -0.50290775 0.23741591 0.25658268 -0.3624104 -0.35921398 -0.33551288
0.23862916 -0.41585112 0.46250132 -0.3212155 -0.50637776 -0.47320017 0.36161497 0.11942459
00000000: 9bea f73e b70a 9b3e bba5 2fbd ede5 38be
00000010: 3468 36be 6f76 09be 5086 8d3e 04c7 1c3e
00000020: e239 c1be 237a 03be e906 9dbe ca28 ce3c
00000030: 800a fa3d e4ea e4bc b8b5 43bd 3294 c53e
00000040: adff eb3e f669 a3be 89b7 473e 06ec c8be
00000050: cb03 9f3e 020a aa3e 927e d33e f6c2 b53e
00000060: b2ce 35be 8b87 be3c d5fc afbe 676a 773e
00000070: dcc6 61be 95a8 65be 8315 a2be 44c2 d73e
00000080: 2691 b0be 466c b13e 90be 00bf 281d 733e
00000090: ce5e 833e db8d b9be e5ea b7be 58c8 abbe
000000a0: 345b 743e 70ea d4be f9cc ec3e 5c76 a4be
000000b0: f9a1 01bf 4b47 f2be 9925 b93e e194 f43d

bias_ih_l0 f4 [12]
-0.46864614 0.26082438 0.37730512 0.32244805 0.17498915 -0.1277891 -0.14125419 0.060605075
-0.2240711 0.21556757 -0.4918991 0.26825333
00000000: 63f2 efbe c68a 853e 232e c13e e917 a53e
00000010: 5b30 333e 25db 02be f0a4 10be 073d 783d
00000020: e572 65be bfbd 5c3e 33da fbbe 8058 893e

bias_hh_l0 f4 [12]
0.29927146 -0.37811667 -0.26878324 0.33205095 0.20532578 0.23738915 -0.27219436 0.395367
-0.097731516 0.10524596 -0.01116176 -0.27972746
00000000: 1c3a 993e 8298 c1be f59d 89be 9502 aa3e
00000010: ec40 523e 2416 733e 0f5d 8bbe 8b6d ca3e
00000020: 7627 c8bd 328b d73d d1df 36bc 7038 8fbe

weight_ih_l0 f4 [12, 14]
-0.05565561 0.33144897 0.4241686 -0.28957754 -0.29849073 0.05348381 0.37682372 0.022090815
-0.38938108 0.18253754 -0.14651257 0.11766758 0.051157832 -0.0540182 -0.4255193 0.18932885
-0.33221343 -0.4153757 0.20413044 -0.46710172 0.3092982 0.26426685 0.36960885 -0.1851617
-0.46699363 -0.06986235 0.3892492 -0.40350828 0.074962586 0.05071042 0.4342338 -0.29850957
-0.21532974 0.40567458 -0.44519287 0.29797325 0.17620447 -0.06683367 0.23803508 -0.12038462
0.26337808 0.047324568 -0.2397565 -0.40784094 -0.04846966 0.053290408 0.40500346 -0.2124519
-0.23312986 0.048441287 0.17162009 0.35717422 0.013138489 -0.18314236 0.22459474 0.15001899
-0.11951156 0.33056158 0.24285594 -0.26034895 0.37970948 0.31714025 -0.11584705 -0.38855743
0.3172608 0.29058245 -0.29746413 -0.46148178 -0.41949016 0.3958642 0.44458616 -0.040564872
-0.048318565 0.21172144 -0.36992913 -0.4306275 -0.046493247 -0.430322 -0.20442593 0.305703
0.4929588 -0.05333383 0.18945237 -0.11345623 0.20884727 0.1675684 0.47045106 0.17071232
0.22799541 0.30486488 -0.14544138 0.3855261 -0.029174581 -0.36182964 0.17963292 -0.13820285
-0.48782116 -0.24745983 0.33029726 -0.48244068 -0.4328547 0.32353944 0.34646416 0.17959268
-0.12818763 -0.28427356 -0.40691045 -0.28572574 0.10720935 0.34396327 -0.5035555 -0.010140985
-0.4293329 0.1176499 -0.15300766 0.39281553 -0.0034107892 0.47696337 0.069909595 0.31353796
0.21936852 -0.47609308 -0.23225398 -0.3401294 -0.20622833 0.40001014 -0.41365993 0.45056808
-0.17928945 0.31447396 0.31908405 -0.4474314 0.1771995 0.38665724 -0.0490127 0.48610505
-0.07554936 0.39220512 0.43717706 0.22331545 -0.118674755 0.10207513 0.4551921 -0.39203355
-0.15448265 0.3422381 -0.41526645 0.4316115 0.1854724 0.44432372 -0.008295862 0.2437638
-0.3148133 0.028911766 -0.41540268 0.4371883 0.50140274 0.25858963 0.06630301 -0.36706242
0.44217288 0.09295098 -0.48902842 0.10795773 -0.007137799 0.42988482 0.30343413 -0.39200854
00000000: 23f7 63bd aeb3 a93e a02c d93e 8243 94be
00000010: c7d3 98be d711 5b3d 0aef c03e ccf7 b43c
00000020: f55c c7be 1feb 3a3e 6407 16be b3fb f03d
00000030: e08a 513d 3042 5dbd aadd d9be 6cdf 413e
00000040: e117 aabe 20ac d4be 9207 513e f527 efbe
00000050: 555c 9e3e fc4d 873e 5f3d bd3e 079b 3dbe
00000060: ca19 efbe fe13 8fbd ac4b c73e a398 cebe
00000070: fc85 993d bbb5 4f3d e553 de3e 3fd6 98be
00000080: 667f 5cbe 94b4 cf3e 52f0 e3be f38f 983e
00000090: f26e 343e 17e0 88bd 78bf 733e 368c f6bd
000000a0: 7ed9 863e 68d7 413d ba82 75be 87d0 d0be
000000b0: 1f88 46bd 0b47 5a3d 9d5c cf3e fe8c 59be
000000c0: 98b9 6ebe 5f6a 463d 2dbd 2f3e 8adf b63e
000000d0: d142 573c ac89 3bbe 2afc 653e 949e 193e
000000e0: 7ac2 f4bd 5e3f a93e 3aaf 783e 754c 85be
000000f0: 4869 c23e 3560 a23e 3841 edbd 00f1 c6be
00000100: 0270 a23e 39c7 943e 384d 98be 5747 ecbe
00000110: 6ac7 d6be b6ae ca3e cca0 e33e 5a27 26bd
00000120: b0e9 45bd 81cd 583e 5a67 bdbe 357b dcbe
00000130: b46f 3ebd 2a53 dcbe 0855 51be 1b85 9c3e
00000140: 1965 fc3e 9374 5abd cdff 413e bd5b e8bd
00000150: 0fdc 553e 0d97 2b3e f6de f03e 36cf 2e3e
00000160: a177 693e 4017 9c3e 96ee 14be ad63 c53e
00000170: 88ff eebc bc41 b9be b1f1 373e 0c85 0dbe
00000180: b2c3 f9be 1c66 7dbe b91c a93e 7702 f7be
00000190: 229f ddbe f6a6 a53e c063 b13e 25e7 373e
000001a0: 9e43 03be 4e8c 91be 9156 d0be a54a 92be
000001b0: 9390 db3d f41b b03e 03e9 00bf 6026 26bc
000001c0: 86d1 dbbe 6ef2 f03d 0aae 1cbe 1e1f c93e
000001d0: 8c87 5fbb 8b34 f43e c32c 8f3d 0c88 a03e
000001e0: 24a2 603e 79c2 f3be fdd3 6dbe 7125 aebe
000001f0: 852d 53be 21ce cc3e 3ccb d3be dcb0 e63e
00000200: a797 37be bb02 a13e fc5e a33e ba15 e5be
00000210: c973 353e f0f7 c53e 8ac1 48bd c3e2 f83e
00000220: 9fb9 9abd 1ccf c83e acd5 df3e ceac 643e
00000230: c00b f3bd c40c d13d f00e e93e 9fb8 c8be
00000240: b330 1ebe d539 af3e ce9d d4be 2ffc dc3e
00000250: 7aec 3d3e 667e e33e 5eeb 07bc 389d 793e
00000260: 352f a1be 5ed8 ec3c a9af d4be 25d7 df3e
00000270: ee5b 003f dc65 843e dfc9 873d 9bef bbbe
00000280: 7c64 e23e 155d be3d ef61 fabe f118 dd3d
00000290: 33e4 e9bb dd19 dc3e b85b 9b3e 58b5 c8be

weight_hh_l0 f4 [12, 4]
0.2203886 -0.45641154 0.046801403 -0.23014604 -0.030353503 0.11807863 -0.31045234 -0.3073057
0.35743797 -0.3085693 -1.4510468e-05 -0.44679296 -0.3221148 0.44722506 -0.27227786 -0.16522774
-0.28492418 -0.33830848 -0.24448872 -0.36651805 0.39422005 0.492396 -0.17578559 0.011985571
-0.41716745 -0.042432267 -0.23215935 0.29924843 0.42674497 0.45845756 -5.6416953e-05 -0.1550172
-0.3346164 0.20840675 0.43065858 -0.2728507 0.33779246 0.11708452 0.14901659 0.11475476
0.22846547 0.271169 0.10880819 0.46931478 -0.2730886 0.3755754 0.43438408 0.3117577
00000000: 8dad 613e c6ae e9be d4b2 3f3d 67ab 6bbe
00000010: e9a7 f8bc 35d3 f13d 9cf3 9ebe 2c57 9dbe
00000020: 1c02 b73e ccfc 9dbe fc71 73b7 0cc2 e4be
00000030: 3bec a4be affa e43e 0168 8bbe 7631 29be
00000040: 95e1 91be c536 adbe 405b 7abe 41a8 bbbe
00000050: 36d7 c93e 541b fc3e 2301 34be 215f 443c
00000060: f996 d5be 75cd 2dbd 2ebb 6dbe 1737 993e
00000070: 517e da3e f3ba ea3e 3ea1 6cb8 d4bc 1ebe
00000080: d752 abbe 9468 553e 487f dc3e 16b3 8bbe
00000090: 22f3 ac3e 02ca ef3d ce97 183e 8b04 eb3d
000000a0: daf2 693e aad6 8a3e d4d6 de3d 074a f03e
000000b0: 45d2 8bbe 6b4b c03e 9767 de3e b59e 9f3e

bias_ih_l0 f4 [12]
0.14647865 -0.41548955 -0.15862429 -0.49903983 -0.11267836 -0.19975501 -0.32222998 -0.32948622
0.12825666 -0.18071319 0.32611763 -0.17922568
00000000: 80fe 153e 0cbb d4be 686e 22be 2682 ffbe
00000010: e9c3 e6bd 948c 4cbe 54fb a4be 6bb2 a8be
00000020: b755 033e e10c 39be e4f8 a63e f086 37be

bias_hh_l0 f4 [12]
-0.26337907 0.24292211 0.2725421 0.108765416 -0.14292343 0.028400093 0.2988727 -0.40018874
-0.033473466 -0.47736138 -0.22536004 0.43645132
00000000: 9fd9 86be 93c0 783e a38a 8b3e 67c0 de3d
00000010: 855a 12be 50a7 e83c d805 993e 8ae5 ccbe
00000020: 791b 09bd b668 f4be c8c4 66be 8c76 df3e

weight_ih_l0 f4 [12, 24]
0.32790676 0.058088306 0.45225406 -0.14892569 -0.46344742 -0.26712894 0.1639929 -0.28587475
-0.18163507 -0.18304513 0.059673227 0.44105485 -0.21809289 -0.48508736 -0.2710512 0.3268556
0.40287012 0.33219454 0.06802735 0.05002736 -0.13822313 0.27538368 -0.40517804 -0.3606477
0.21399187 -0.15768905 0.05681624 -0.3896334 0.13623694 -0.1722163 -0.25306666 0.28579044
-0.18185285 -0.086003125 -0.48272023 0.10150956 -0.21115652 -0.48319948 0.24161896 -0.21583015
-0.096047014 -0.13289161 -0.48112142 0.48598942 0.045023527 -0.3548191 -0.035428878 0.07784909
-0.33658972 -0.1894964 0.13294223 -0.12995386 -0.15499702 0.10042365 0.22587265 0.022925073
-0.0965256 0.41958123 -0.48232228 0.0048937723 0.3850106 -0.40858936 0.32736364 0.028212737
0.31970814 0.44743288 -0.2846065 0.1291335 0.24497353 0.35908398 0.122743845 -0.3398388
0.37461197 -0.2375151 0.3495402 0.33051088 -0.008067909 -0.012245104 -0.06856943 -0.11370411
0.08086778 -0.1900545 -0.076087944 -0.474183 0.4729866 0.33493888 0.49373397 -0.13439853
0.28949276 0.38743612 0.16571243 -0.40155166 -0.32933944 0.32672969 -0.057003614 0.045712322
0.20650966 -0.2441853 0.29541022 -0.46148184 -0.3929831 -0.47127062 0.0056802477 0.15081494
-0.24553174 -0.38585848 -0.12887165 -0.19337863 -0.03155803 0.24582419 0.28142643 0.043855984
0.3189826 -0.46572915 0.39076114 -0.017139945 0.091508955 0.20153545 -0.02991714 0.2397954
0.07523435 0.45420548 -0.07798783 0.083313346 0.1459802 -0.4143677 0.4646909 0.44190902
-0.072212905 -0.20850551 0.09034886 0.38471627 -0.25766227 0.3195544 -0.0023082958 -0.4107036
0.13892564 0.037200645 -0.1204272 -0.2886103 -0.0020777422 -0.32872444 0.04949827 -0.027158495
0.09001287 0.3082495 -0.15187715 -0.28223655 0.00063640415 -0.4592825 -0.013466076 0.078729026
-0.014758627 -0.4769544 0.22638734 -0.31384727 0.17948732 0.02254367 -0.26807275 0.30465704
-0.043096397 -0.21011129 0.22542255 0.18716998 -0.043535892 0.1183135 0.42914194 -0.17129475
0.05170202 0.024410548 0.36042598 0.13530967 0.07580353 -0.50454074 0.3384051 0.34231687
0.29665944 0.17055851 -0.34492555 0.09541984 0.08018909 -0.4487252 -0.30630746 0.2977101
0.39776844 0.039108075 0.10976696 0.21959041 -0.49284613 -0.21152334 -0.076583184 -0.24969405
-0.39773282 0.27069336 0.48718446 0.19048019 -0.10490236 0.18778354 -0.122123934 0.1900058
-0.095914945 -0.12675767 -0.23946682 0.18026699 0.094989456 -0.18718797 -0.41214752 -0.31403318
0.29654592 -0.42877123 -0.47661138 0.40528423 0.10218756 -0.045872852 -0.35027844 -0.1737374
-0.28619668 -0.19100694 -0.2452788 -0.06796662 0.15630881 -0.33225203 -0.4762108 -0.4170229
-0.3237948 0.28956637 -0.32733285 0.40311217 0.32746294 -0.47617027 -0.23016334 0.3159021
-0.15323867 0.37379414 -0.46503705 0.33235887 0.33542264 -0.19410667 0.29493842 -0.30053747
0.13655074 0.41040263 0.22576538 -0.117163986 -0.050127614 0.45818734 0.21883999 0.41421932
-0.41896325 -0.0013508808 -0.3046982 0.46185124 -0.38328534 -0.16457072 -0.39887616 -0.17382728
00000000: 65e3 a73e 01ee 6d3d d88d e73e fa7f 18be
00000010: fb48 edbe 20c5 88be c1ed 273e 2d5e 92be
00000020: 8bfe 39be 2f70 3bbe ea6b 743d f1d1 e13e
00000030: be53 5fbe 5f5d f8be 39c7 8abe 9e59 a73e
00000040: fe44 ce3e 6715 aa3e ec51 8b3d 7de9 4c3d
00000050: 5d8a 0dbe 17ff 8c3e 7f73 cfbe d1a6 b8be
00000060: af20 5b3e 3d79 21be 25b8 683d 077e c7be
00000070: b281 0b3e 7859 30be f491 81be 2053 923e
00000080: a237 3abe 6822 b0bd 1b27 f7be 3fe4 cf3d
00000090: 6a39 58be ec65 f7be f66a 773e 9402 5dbe
000000a0: 4cb4 c4bd bd14 08be 8c55 f6be 9bd3 f83e
000000b0: 976a 383d d9aa b5be df1d 11bd 586f 9f3d
000000c0: 7d55 acbe 580b 42be 0222 083e a012 05be
000000d0: 8ab7 1ebe eaaa cd3d 294b 673e 5dcd bb3c
000000e0: 37af c5bd 5ad3 d63e f2f2 f6be f05b a03b
000000f0: 1c20 c53e a032 d1be 359c a73e 661e e73c
00000100: c9b0 a33e ec15 e53e f1b7 91be 923b 043e
00000110: 57da 7a3e dbd9 b73e 2061 fb3d 5aff adbe
00000120: 24cd bf3e 2937 73be eff6 b23e b938 a93e
00000130: 432f 04bc b09f 48bc 216e 8cbd b3dd e8bd
00000140: 029e a53d a69d 42be ffd3 9bbd 1dc8 f2be
00000150: 4d2b f23e 1c7d ab3e b3ca fc3e c59f 09be
00000160: 6538 943e 075e c63e 85b0 293e 2e98 cdbe
00000170: 2e9f a8be 1d49 a73e 9f7c 69bd d83c 3b3d
00000180: 4577 533e b60b 7abe 0240 973e 5947 ecbe
00000190: 1535 c9be 624a f1be 5f21 ba3b 3b6f 1a3e
000001a0: ac6c 7bbe 3e8f c5be eef6 03be 0c05 46be
000001b0: fe42 01bd 56b9 7b3e 2017 903e 55a2 333d
000001c0: b051 a33e 0d74 eebe d811 c83e 1269 8cbc
000001d0: 0c69 bb3d 4f5f 4e3e ca14 f5bc ed8c 753e
000001e0: 7814 9a3d 9f8d e83e 15b8 9fbd 30a0 aa3d
000001f0: d57b 153e 0128 d4be f7eb ed3e e641 e23e
00000200: 5ce4 93bd 7882 55be d308 b93d 88f9 c43e
00000210: 4fec 83be a29c a33e c746 17bb be47 d2be
00000220: 8642 0e3e b45f 183d 89a2 f6bd bbc4 93be
00000230: bb2a 08bb 924e a8be b3be 4a3d 7e7b debc
00000240: ab58 b83d e1d2 9d3e af85 1bbe 4f81 90be
00000250: 5cd4 263a 1327 ebbe d1a0 5cbc af3c a13d
00000260: 2bce 71bc 5e33 f4be 15d2 673e 97b0 a0be
00000270: 86cb 373e 81ad b83c d540 89be 02fc 9b3e
00000280: d985 30bd 6a27 57be 2bd5 663e 7da9 3f3e
00000290: b152 32bd 594e f23d 7eb8 db3e e467 2fbe
000002a0: 7fc5 533d a1f8 c73c c189 b83e 9e8e 0a3e
000002b0: e23e 9b3d 9529 01bf 6f43 ad3e 2844 af3e
000002c0: bfe3 973e e4a6 2e3e 159a b0be 7a6b c33d
000002d0: 2d3a a43d 4fbf e5be 55d4 9cbe 756d 983e
000002e0: 4ea8 cb3e ca2f 203d 80cd e03d 4fdc 603e
000002f0: 5456 fcbe 9399 58be a5d7 9cbd ccaf 7fbe
00000300: a3a3 cbbe 5298 8a3e 3e70 f93e 3d0d 433e
00000310: 0cd7 d6bd 544a 403e 1d1c fabd e190 423e
00000320: 0e6f c4bd c3cc 01be ca36 75be e997 383e
00000330: d589 c23d 34ae 3fbe 0005 d3be f5c8 a0be
00000340: ded4 973e e787 dbbe 6806 f4be 6a81 cf3e
00000350: b647 d13d 2ce5 3bbd b257 b3be 38e8 31be
00000360: 5f88 92be 5397 43be 5e2a 7bbe 1532 8bbd
00000370: 6b0f 203e f01c aabe e7d1 f3be 0784 d5be
00000380: 6fc8 a5be 0b42 943e 2c98 a7be b864 ce3e
00000390: 39a9 a73e 97cc f3be f0af 6bbe ecbd a13e
000003a0: 99ea 1cbe f261 bf3e 5619 eebe f12a aa3e
000003b0: 84bc ab3e e6c3 46be 2b02 973e 0ce0 99be
000003c0: f5d3 0b3e 4b20 d23e 0a2f 673e acf3 efbd
000003d0: 9d52 4dbd 8897 ea3e 9717 603e 8e14 d43e
000003e0: 5a82 d6be 0a10 b1ba 6701 9cbe c477 ec3e
000003f0: fa3d c4be 3a85 28be 7f39 ccbe c7ff 31be

weight_hh_l0 f4 [12, 4]
0.14225972 -0.47014213 0.18555658 -0.07528608 0.05302871 -0.057427965 -0.052178036 -0.37857994
0.0022949704 0.480687 0.38718253 -0.42245427 -0.47518533 0.120917715 0.31663457 0.0665485
0.34440708 0.19077414 -0.049718138 0.48467204 -0.30126008 -0.39849153 0.092890404 -0.15008515
0.2943545 -0.4325717 0.20686045 0.11467951 0.18540595 -0.26810345 0.283137 -0.016729655
-0.024976972 -0.10784334 0.47637653 0.14081629 -0.33824515 0.36986122 0.20799324 0.46243834
0.2318989 -0.3054916 0.20795 0.44502524 -0.010239333 0.41170233 0.24622884 0.3888026
00000000: 88ac 113e 78b6 f0be 8b02 3e3e 972f 9abd
00000010: a234 593d 9639 6bbd a3b8 55bd 3bd5 c1be
00000020: 3767 163b 9b1c f63e ca3c c63e ed4b d8be
00000030: 7e4b f3be b5a3 f73d ed1d a23e 944a 883d
00000040: 2056 b03e 4c5a 433e 3fa5 4bbd ef26 f83e
00000050: c33e 9abe 1507 ccbe 533d be3d ecaf 19be
00000060: a2b5 963e 0a7a ddbe 3ad3 533e 17dd ea3d
00000070: 0fdb 3d3e db44 89be 55f7 903e a10c 89bc
00000080: 829c ccbc f8dc dcbd a0e7 f33e 2532 103e
00000090: 782e adbe 735e bd3e 2efc 543e b8c4 ec3e
000000a0: e876 6d3e 6569 9cbe d8f0 543e 59da e33e
000000b0: e0c2 27bc a6ca d23e 6a23 7c3e 2211 c73e

bias_ih_l0 f4 [12]
0.13296433 -0.114701346 0.43094295 0.46770236 0.059864096 -0.078084745 -0.24125566 0.3167621
-0.32634848 0.36812806 -0.25165612 0.300093
00000000: cd27 083e 8ae8 eabd 8ea4 dc3e af76 ef3e
00000010: 0e34 753d e5ea 9fbd b90b 77be a42e a23e
00000020: 2617 a7be 487b bc3e 12d9 80be caa5 993e

bias_hh_l0 f4 [12]
-0.15771896 -0.00916996 0.011900184 -0.4337092 0.120712765 0.42081422 0.37389427 -0.29246125
0.36546224 -0.48207873 0.20047882 -0.47479907
00000000: 1481 21be 9a3d 16bc fdf8 423c 220f debe
00000010: 4138 f73d f674 d73e 126f bf3e 7bbd 95be
00000020: de1d bb3e 06d3 f6be 524a 4d3e dd18 f3be

weight f4 [4, 4]
0.121695794 0.14736038 0.03581522 0.4476394 0.3130574 -0.06960791 -0.19548248 0.20088941
-0.047704596 -0.15509795 -0.22329254 0.009788639 0.49770764 0.4193273 -0.47256365 0.5082295
00000000: a53b f93d a4e5 163e fbb2 123d fe30 e53e
00000010: 0f49 a03e 988e 8ebd 8f2c 48be f4b5 4d3e
00000020: e565 43bd ffd1 1ebe cda6 64be 8760 203c
00000030: 89d3 fe3e 11b2 d63e ddf3 f1be 541b 023f

bias f4 [4]
0.09742261 0.09303624 0.4254217 0.21876408
00000000: 8185 c73d c989 be3d e0d0 d93e b103 603e

weight f4 [320, 8]
-0.022801708 -8.9790636e-05 0.31156373 -0.045834225 0.14885874 -0.12432257 -0.00012716457 -0.09019679
0.03342653 -0.09467052 -0.1921607 0.22636123 -0.11009391 0.12352746 -0.3562361 -0.22876915
0.08676085 0.18931213 0.21535666 0.28180876 0.34292057 0.13565812 -0.06246496 0.026892675
-0.26141232 0.30393514 -0.16959368 -0.30574414 -0.02091891 -0.11998834 -0.11951259 0.15275839
0.2959475 0.1816756 -0.32262686 -0.11619197 -0.039964415 0.09724046 -0.19537607 -0.27596694
0.0191989 0.20992343 0.13585168 0.031056536 -1.88881e-05 -0.3150138 0.00019422309 0.09225814
0.09347538 -0.28427354 0.18140711 0.2618178 0.24746302 -0.067895204 0.3092532 0.26106948
-0.092701316 0.2066844 -0.2241583 -0.27059466 0.09436607 -0.2987839 -0.2700972 -0.08433799
0.07792266 -0.07932472 -9.36002e-06 0.24524352 0.21374622 0.00068464916 0.2682975 -0.077357404
0.3178655 -0.26416713 0.30447373 0.16264716 0.30662823 0.002082242 -0.21929768 0.1876866
0.1704493 0.27495962 -0.09208737 0.061412618 -0.14388902 0.21011084 -0.11466763 -0.33692214
0.15612814 -0.1762543 -0.3048923 0.18863852 0.056097925 0.3482449 0.092383705 0.10487819
0.21950363 0.023983166 0.2465037 0.14529629 0.07418889 0.15648915 -0.13438325 -0.0918207
0.013015551 -0.33041933 -0.19046868 -0.2640385 -0.21069103 0.15189318 0.09139156 -0.026261454
-0.006156653 0.13370638 -0.20137264 -0.06968885 -0.25265867 -0.3308633 0.29479375 0.27066877
0.04153322 0.21622351 -0.3167091 0.29554793 -0.1810376 -0.0029853452 0.09267013 -0.060196295
0.1612245 0.11558158 -0.31033 0.034625746 -0.022956522 0.24653083 -3.5659756e-05 0.06860536
-0.019622566 -0.073606946 -0.2188556 -0.3088852 0.35801703 0.089288324 -0.14151952 0.11724304
0.09965405 0.25163376 0.2840688 0.2586306 -0.15736644 0.2976937 -0.17146665 0.064459436
-0.24553427 0.16784154 -0.26388228 -0.32144475 0.30345008 0.33240193 0.19242689 0.011209718
-0.10477714 0.05977765 -0.040864818 -0.17967902 -0.062613584 -0.031092541 0.051054355 -0.113665484
0.015192003 0.30923182 0.0889102 0.2925815 0.23504417 -0.16347909 0.23302937 0.17538613
0.11795185 -0.288156 -0.30164856 -0.112293564 0.2584319 -0.32607108 -0.15340424 -0.024423515
-0.14602822 -0.22537269 0.12101548 -0.21187799 0.1491015 0.31127685 0.09009714 -0.033730485
-0.10811914 0.123768464 0.2679451 -0.15781344 0.21933039 -0.0034488223 -0.31897026 -0.31661236
0.17132297 -0.32276073 0.21995334 0.23437741 -0.07157657 0.26486394 -0.2129186 0.3450949
-0.26235148 0.009466883 -0.20290996 0.2822975 -0.29480925 -0.2692191 -0.21898687 -0.13479269
-0.10009353 0.036195975 -0.18828605 -0.21717441 0.23459242 0.17697889 0.28365797 -0.14331807
0.076253556 -0.052715108 -0.0594172 0.069992706 0.09894844 -0.25730255 -0.15914467 0.172272
-0.0109055415 0.3280869 -0.263688 0.22263338 0.17199165 -0.21382897 0.31236786 0.34890962
-0.23374495 0.1481802 -0.064695716 -0.30840537 -0.09783693 0.26383376 -0.25301287 -0.067098245
0.18171121 0.05955816 -0.006357628 0.1791664 -0.107278466 0.32321966 0.22424662 -0.13780646
00000000: a6ca babc fb4d bcb8 4885 9f3e abbc 3bbd
00000010: 6d6e 183e d59c febd 7b57 05b9 18b9 b8bd
00000020: 42ea 083d 9ee2 c1bd c6c5 44be 3dcb 673e
00000030: ea78 e1bd f7fb fc3d 9464 b6be 7642 6abe
00000040: acaf b13d 0adb 413e 7586 5c3e 3d49 903e
00000050: 4993 af3e f6e9 0a3e 42db 7fbd 074e dc3c
00000060: d6d7 85be 639d 9b3e f7a9 2dbe 7f8a 9cbe
00000070: 225e abbc 72bc f5bd 04c3 f4bd b26c 1c3e
00000080: 6e86 973e 2b09 3a3e 592f a5be 0ef6 edbd
00000090: bab1 23bd 0226 c73d aa10 48be 8a4b 8dbe
000000a0: 0347 9d3c 2bf6 563e b41c 0b3e 476a fe3c
000000b0: e371 9eb7 7d49 a1be 5da8 4b39 d6f1 bc3d
000000c0: 0570 bf3d 4d8c 91be c9c2 393e fc0c 863e
000000d0: f266 7d3e a40c 8bbd 6f56 9e3e e6aa 853e
000000e0: 30da bdbd 13a5 533e c189 65be 628b 8abe
000000f0: 0043 c13d 34fa 98be 2e4a 8abe 65b9 acbd
00000100: ea95 9f3d 0075 a2bd fb08 1db7 1e21 7b3e
00000110: 4ae0 5a3e 077a 333a 4a5e 893e 8f6d 9ebd
00000120: 44bf a23e ea40 87be fbe3 9b3e fa8c 263e
00000130: 60fe 9c3e 3976 083b 928f 60be eb30 403e
00000140: 438a 2e3e 82c7 8c3e 4e98 bcbd cc8b 7b3d
00000150: a557 13be 4c27 573e ddd6 eabd 0f81 acbe
00000160: 0ee0 1f3e 027c 34be d81a 9cbe 752a 413e
00000170: f0c6 653d 284d b23e ab33 bd3d 60ca d63d
00000180: 8fc5 603e 5878 c43c 776b 7c3e 8dc8 143e
00000190: 58f0 973d b13e 203e c39b 09be 7e0c bcbd
000001a0: 2d3f 553c b92c a9be 390a 43be 0e30 87be
000001b0: 64bf 57be e389 1b3e 802b bb3d 4322 d7bc
000001c0: c0bd c9bb 53ea 083e a134 4ebe 07b9 8ebd
000001d0: 7a5c 81be ea66 a9be 35ef 963e 1995 8a3e
000001e0: bd1e 2a3d b269 5d3e b227 a2be 0f52 973e
000001f0: ec61 39be c8a5 43bb d6c9 bd3d 6490 76bd
00000200: 0918 253e 09b6 ec3d 93e3 9ebe bad3 0d3d
00000210: 510f bcbc 9472 7c3e 5f91 15b8 f880 8c3d
00000220: 81bf a0bc 3dbf 96bd af1b 60be 3326 9ebe
00000230: 024e b73e ccdc b63d 7eea 10be 1e1d f03d
00000240: 6c17 cc3d 24d6 803e 7771 913e 3b6b 843e
00000250: ab24 21be 4f6b 983e f494 2fbe 4f03 843d
00000260: 566d 7bbe a7de 2b3e 941b 87be 6894 a4be
00000270: cf5d 9b3e 9630 aa3e 8e0b 453e f7a8 373c
00000280: 6695 d6bd 69d9 743d de61 27bd c7fd 37be
00000290: 8d3b 80bd c9b5 febc 5f1e 513d 73c9 e8bd
000002a0: e1e7 783c a253 9e3e 8d16 b63d 3ecd 953e
000002b0: 6baf 703e 1067 27be 409f 6e3e 6c98 333e
000002c0: bd90 f13d 2f89 93be ae71 9abe 2bfa e5bd
000002d0: 3051 843e caf2 a6be 0016 1dbe d313 c8bc
000002e0: 6c88 15be 19c8 66be f7d6 f73d 8bf6 58be
000002f0: 10ae 183e ae5f 9f3e d984 b83d fa28 0abd
00000300: 916d ddbd 527a fd3d 1a30 893e d999 21be
00000310: 2598 603e a305 62bb 1250 a3be 041b a2be
00000320: 4a6f 2f3e e540 a5be 733b 613e a200 703e
00000330: bd96 92bd 3f9c 873e 5507 5abe 47b0 b03e
00000340: ef52 86be fc1a 1b3c a1c7 4fbe 4c89 903e
00000350: 3df1 96be 16d7 89be 183e 60be 1807 0abe
00000360: d6fd ccbd 3b42 143d 0fce 40be f862 5ebe
00000370: ff38 703e f439 353e 9e3b 913e f9c1 12be
00000380: d32a 9c3d cceb 57bd 735f 73bd 5658 8f3d
00000390: 7ba5 ca3d 29bd 83be d2f6 22be 1268 303e
000003a0: 28ad 32bc 02fb a73e 1d02 87be 01fa 633e
000003b0: 941e 303e fbf5 5abe aeee 9f3e 48a4 b23e
000003c0: d65a 6fbe 8dbc 173e 307f 84bd 4fe7 9dbe
000003d0: ba5e c8bd 3815 873e e78a 81be ce6a 89bd
000003e0: 8112 3a3e 42f3 733d a653 d0bb 6677 373e
000003f0: d0b4 dbbd 0c7d a53e e8a0 653e 231d 0dbe

bias f4 [320]
-0.244334 0.29922083 0.11258337 -0.21623833 -0.1314696 -0.31703255 0.08223509 -0.30862758
-0.2656501 0.09896674 0.34060404 0.2740641 0.014750679 -0.1583486 0.045998156 -0.3108855
-0.29842526 -0.05018411 0.06744394 -0.14989449 -0.29625806 -0.321648 0.25604397 -0.1706757
-0.20500068 0.09568277 0.1201193 -0.14527874 0.32944304 0.268464 0.31553963 0.024754217
0.025117092 0.3288291 0.0050426414 -0.12295163 0.060297776 0.108263806 0.14918306 -0.28969648
0.019389883 0.1863979 0.18758845 -0.2964551 0.13310933 0.1179098 0.13394777 -0.042420916
-0.09848535 -0.13055864 -0.071856916 -0.2527875 -0.013395406 0.33586866 -0.11233712 -0.12170111
0.23799944 0.10267272 0.34177625 0.29930606 -0.25400087 0.061365735 -0.123377375 -0.23772836
-0.2882664 -0.1553397 0.19803275 0.33937344 0.14876027 0.041151565 -0.14460365 -0.18361084
0.25057337 -0.2528896 -0.05960586 -0.17936209 0.18831185 -0.22569552 0.20733117 -0.27513325
-0.04071934 0.34387398 0.2578912 0.20749238 0.20839055 0.09953794 -0.07974709 -0.18290769
0.047352545 -0.1620398 0.22790892 -0.07644025 -0.17805324 0.110741295 0.12416259 -0.26589215
-0.32758847 0.3363398 0.35441938 -0.30578426 -0.008764674 -0.03128155 0.10748221 0.16094509
0.09738832 -0.2867375 0.0004014817 -0.14434135 -0.18388642 -0.15860374 0.01810199 -0.17105824
0.31868935 0.05059218 -0.20688413 -0.28760865 0.31084904 0.014581039 0.104907975 0.25904062
0.30957124 -0.116596274 -0.23898172 0.21084465 -0.20001118 -0.23650306 -0.22422267 -0.12030646
-0.08481943 0.11428966 -0.11672625 0.11540885 -0.28849375 0.32999358 -0.21683177 -0.21628663
0.079990014 -0.114965454 -0.0805653 -0.118167154 0.25401932 -0.015084781 -0.21044886 -0.0017613411
-0.059634686 0.05710288 0.03589172 -0.028301628 -0.22975503 0.14855197 0.22226183 -0.022593545
-0.17343403 -0.14785193 0.28650036 -0.16032271 0.30997023 0.023177972 0.06208265 0.3472355
-0.08665851 -0.13225959 -0.29238832 -0.28239352 0.26037773 0.07596333 0.21998239 0.31286842
-0.16760558 -0.1355331 0.08880584 0.09122443 -0.12052597 0.16286562 -0.20372066 -0.22572915
-0.22340155 -0.23935977 0.27374685 -0.31970024 0.10004043 0.0932468 0.03571465 0.10542205
-0.18178825 -0.3016084 0.25389877 0.098829366 0.077664986 -0.2968053 0.21347228 0.29685533
0.01754373 -0.08642994 0.29310736 0.03381415 0.09684606 -0.25989276 0.307378 -0.2929677
-0.22094226 0.3343918 -0.21165329 0.23156446 0.12816525 -0.00097512506 0.12408479 -0.28844258
-0.1259982 0.08637012 0.10304348 0.0358555 0.19075172 0.0090892445 0.23200165 0.16599153
0.31271496 -0.1320591 0.24337345 -0.2555775 0.15765671 -0.20157233 0.1540432 -0.18245678
0.3357735 -0.25096673 0.30639327 0.105406396 -0.087503314 -0.042663787 -0.16640691 0.2968175
-0.107215576 -0.069978096 -0.18659884 -0.08438713 -0.21966496 0.22280759 -0.238114 0.28369427
0.16817687 0.013040969 0.15339196 -0.1724865 0.23203127 -0.23655558 0.17256337 0.030187171
-0.03650324 0.009267959 0.2799391 -0.074078135 -0.27545154 -0.058078572 -0.2557555 0.16958839
00000000: b132 7abe 7933 993e 1c92 e63d 956d 5dbe
00000010: f89f 06be 1752 a2be df6a a83d 6f04 9ebe
00000020: 4a03 88be 13af ca3d a763 ae3e 2152 8c3e
00000030: d5ac 713c 2326 22be 9068 3c3d 622c 9fbe
00000040: 32cb 98be da8d 4dbd 0c20 8a3d f17d 19be
00000050: 23af 97be 0caf a4be 3218 833e 9cc5 2ebe
00000060: b3eb 51be 54f5 c33d 1c01 f63d f3c3 14be
00000070: c2ac a83e 1d74 893e 698e a13e 5bc9 ca3c
00000080: 5cc2 cd3c 4a5c a83e be3c a53b 10ce fbbd
00000090: cdfa 763d 6ab9 dd3d 72c3 183e 1953 94be
000000a0: 88d7 9e3c 17df 3e3e 3017 403e f6c8 97be
000000b0: d04d 083e b17a f13d 9b29 093e 8ec1 2dbd
000000c0: b0b2 c9bd 2ab1 05be b829 93bd 5d6d 81be
000000d0: 6878 5bbc faf6 ab3e 0111 e6bd 6e3e f9bd
000000e0: 20b6 733e 1346 d23d 4cfd ae3e a53e 993e
000000f0: 670c 82be a35a 7b3d 47ad fcbd 106f 73be
00000100: a797 93be 5f11 1fbe 19c9 4a3e 5bc2 ad3e
00000110: 9d54 183e 8b8e 283d fb12 14be 7b04 3cbe
00000120: 274b 803e bf7a 81be 4625 74bd b2aa 37be
00000130: d2d4 403e ba1c 67be 9f4e 543e 44de 8cbe
00000140: 53c9 26bd 4010 b03e 510a 843e e278 543e
00000150: 5564 553e 8cda cb3d 7152 a3bd 274c 3bbe
00000160: bef4 413d c3ed 25be f560 693e b58c 9cbd
00000170: 9753 36be 55cc e23d f548 fe3d 0423 88be
00000180: adb9 a7be bb34 ac3e 7576 b53e c18f 9cbe
00000190: b599 0fbc 1521 00bd a21f dc3d cace 243e
000001a0: 8773 c73d 42cf 92be f67d d239 38ce 13be
000001b0: b94c 3cbe 0569 22be a04a 943c e429 2fbe
000001c0: 402b a33e bf39 4f3d 6fd9 53be 7141 93be
000001d0: 9b27 9f3e 4fe5 6e3c fed9 d63d f9a0 843e
000001e0: 1f80 9e3e 07ca eebd a0b7 74be a9e7 573e
000001f0: bbcf 4cbe dc2d 72be a19a 65be 3c63 f6bd
00000200: cfb5 adbd b210 ea3d 2c0e efbd 7a5b ec3d
00000210: 74b5 93be ebf4 a83e 2609 5ebe 3e7a 5dbe
00000220: ced1 a33d 0273 ebbd 6cff a4bd 9f01 f2bd
00000230: d20e 823e 2826 77bc e87f 57be cddc e6ba
00000240: 8043 74bd b6e4 693d 3203 133d d1d8 e7bc
00000250: e744 6bbe 021e 183e 9b98 633e 1916 b9bc
00000260: b198 31be 7f66 17be 2db0 923e a32b 24be
00000270: 6bb4 9e3e bbdf bd3c 604a 7e3d dac8 b13e
00000280: 047a b1bd 0f6f 07be ecb3 95be e295 90be
00000290: 3b50 853e aa92 9b3d 1043 613e 4a30 a03e
000002a0: cca0 2bbe 30c9 0abe d6df b53d e0d3 ba3d
000002b0: 52d6 f6bd 3fc6 263e 269c 50be 8b25 67be
000002c0: 60c3 64be ba1a 75be 8c28 8c3e c0af a3be
000002d0: ffe1 cc3d 2ef8 be3d 8649 123d 84e7 d73d
000002e0: b326 3abe 6b6c 9abe 05ff 813e 0d67 ca3d
000002f0: d20e 9f3d ddf6 97be 7a98 5a3e 6cfd 973e
00000300: deb7 8f3c 2e02 b1bd 2b12 963e b580 0a3d
00000310: 3a57 c63d aa10 85be a660 9d3e ddff 95be
00000320: b03e 62be 6735 ab3e a4bb 58be 3c1f 6d3e
00000330: c03d 033e 899f 7fba 2b20 fe3d bfae 93be
00000340: ac05 01be d1e2 b03d 7608 d33d 37dd 123d
00000350: 6b54 433e 0eeb 143c d791 6d3e aff9 293e
00000360: 2d1c a03e 803a 07be e436 793e 0edb 82be
00000370: c370 213e fa68 4ebe 80bd 1d3e f3d5 3abe
00000380: 81ea ab3e b67e 80be 94df 9c3e 4fdf d73d
00000390: f034 b3bd 39c0 2ebd 9366 2abe 77f8 973e
000003a0: d793 dbbd ad50 8fbd c413 3fbe 29d3 acbd
000003b0: daef 60be ac27 643e 28d4 73be 6040 913e
000003c0: 8f36 2c3e caa9 553c c812 1d3e 4da0 30be
000003d0: 9b99 6d3e a03b 72be 74b4 303e 164b f73c
000003e0: 6c84 15bd a3d8 173c 2d54 8f3e 47b6 97bd
000003f0: fc07 8dbe cce3 6dbd 63f2 82be 94a8 2d3e

weight f4 [4, 320]
-3.334854e-05 -0.021464493 0.043148868 0.011645923 -0.013345207 0.014861978 -0.009941726 0.016125124
-4.6056724e-05 0.04175622 0.00010698852 -0.047000118 0.052480638 -0.018103635 -0.018287089 -3.3523993e-05
0.012686187 0.038589716 -0.02379693 0.033610772 1.270739e-05 -0.02158222 0.029932316 0.03492855
0.05829654 -0.04331894 0.03678887 0.0007138496 -0.02697783 0.05510427 0.042267084 -0.023756696
0.049573418 0.032002486 -0.0051982747 0.05543943 -0.022807566 0.018913874 -0.023656983 5.3562584e-05
-0.008292324 -0.023876522 -0.031204334 -5.6975387e-05 0.008479891 -0.02387921 -0.01725603 0.06385696
-0.020780616 -0.0488879 -0.023400549 0.009811547 -0.02219747 0.014825293 0.04548728 0.050298966
0.018967375 -0.029212592 0.027081706 -0.0013165402 -0.024878822 -0.04488533 0.041208956 0.05092328
0.005588206 -0.000111012065 -0.014434078 0.038121887 -0.023168536 -0.033162158 0.0065677874 0.008692586
0.016852703 -0.029662497 0.023550127 -5.3840304e-05 0.045700945 0.030099444 0.0050652404 0.0111062955
0.018039724 0.03203721 0.03670491 -0.029701946 -0.01560349 0.003789765 -0.0006347369 0.032239016
-0.0145463785 -0.037403956 -0.03596894 -0.032140426 1.4737876e-05 -0.038881164 0.016098283 -0.01986726
0.011290378 0.03603117 0.020969998 -0.017915443 -0.010277358 -0.027876861 0.0090088295 0.057031296
-0.0126034375 -3.86287e-07 0.033091404 0.012825566 -0.009700453 -0.013203421 0.038337182 0.05504337
-0.025403613 -0.012911732 0.00018477271 -0.027102599 0.043711707 -0.030099811 0.009314909 -0.010539529
0.06164713 0.017745437 0.05212213 -0.010003016 -0.02508054 0.043971736 0.0008874039 -0.04011571
0.021718077 0.0031808442 0.03201687 -0.018085845 0.003175061 -0.0038914718 0.05904627 -0.0007038901
0.046168875 0.015527274 0.05647747 0.0004964049 0.051425267 0.014608271 0.053068496 0.023780765
-0.002355047 0.024202423 0.0515124 0.013249662 0.00020792561 0.062476184 0.010001556 -0.024252271
-0.024835574 -2.874554e-05 0.01006912 -0.020429192 0.019941112 0.015647564 -0.018859878 0.052438863
-0.017349577 0.00048514165 -0.039684817 -0.024656137 0.0033976666 0.06190398 0.011952509 -0.030713798
-7.5337804e-05 -0.055775955 0.0034951447 -0.00962521 0.002683959 -0.042897787 -0.012016041 -0.017271558
0.00017755687 7.624448e-05 0.041742496 -0.006718465 0.0066980287 0.0018120492 0.05666207 0.027265038
-0.02991875 -0.037699956 0.053215425 -0.048572563 -0.023226455 -0.0037011537 -0.03723348 -0.041267905
0.03932207 -0.04454736 -0.026440786 -0.03969782 0.029258808 0.002111583 -0.01961624 5.6240195e-05
-0.0057613105 0.044340905 0.04092944 0.02664366 -0.022184348 0.01258488 0.05238321 0.021301068
-0.016309934 -0.00607612 0.0031763874 -0.04700141 0.012047302 -0.036389753 -0.0065778727 0.026816405
0.0042952765 -0.015758222 -0.029940076 3.965189e-05 -0.041123383 0.00056388415 -0.004132184 0.04234454
0.031704854 0.046456207 -0.005879267 -0.0035060586 0.029502215 0.00357691 -0.036717672 0.025755823
0.00067056104 0.00015213006 0.00070254185 -3.418231e-05 -2.170335e-05 -0.014417746 0.00018980207 -0.017765341
0.06315389 -0.013136139 -0.006587311 0.014945626 0.037601717 -0.048536967 -0.029420141 0.012463859
0.041519504 -0.0013454818 0.026276248 -0.030436816 -0.00021543284 -0.01327043 1.4300211e-05 -0.008870132
00000000: b9df 0bb8 4ed6 afbc debc 303d 8bce 3e3c
00000010: dba5 5abc a77f 733c 9fe2 22bc d618 843c
00000020: 082d 41b8 9208 2b3d 065f e038 3283 40bd
00000030: f0f5 563d 134e 94bc cece 95bc 1d9c 0cb8
00000040: bad9 4f3c 4010 1e3d c8f1 c2bc 73ab 093d
00000050: d331 5537 32cd b0bc 9e34 f53c 3d11 0f3d
00000060: 5ac8 6e3d 336f 31bd edaf 163d a321 3b3a
00000070: 9c00 ddbc 04b5 613d 4020 2d3d 679d c2bc
00000080: 7f0d 4b3d 0a15 033d 4a56 aabb 7514 633d
00000090: efd6 babc 45f1 9a3c 4acc c1bc 63a8 6038
000000a0: 87dc 07bc b298 c3bc 3ba0 ffbc dbf8 6eb8
000000b0: 3eef 0a3c 559e c3bc 855c 8dbc 70c7 823d
000000c0: 1c3c aabc ae3e 48bd 82b2 bfbc 9cc0 203c
000000d0: 78d7 b5bc c9e5 723c df50 3a3d 4a06 4e3d
000000e0: 7861 9b3c 3f4f efbc 74da dd3c c28f acba
000000f0: acce cbbc aed9 37bd b9ca 283d ee94 503d
00000100: 451d b73b 26cf e8b8 e97c 6cbc b225 1c3d
00000110: f1cb bdbc 0bd5 07bd 9836 d73b 596b 0e3c
00000120: ae0e 8a3c c4fe f2bc 32ec c03c 96d2 61b8
00000130: ea30 3b3d 1c93 f63c 51fa a53b 2ef7 353c
00000140: 0bc8 933c 7339 033d e357 163d 7f51 f3bc
00000150: c8a5 7fbc b55d 783b 7964 26ba 0f0d 043d
00000160: ef53 6ebc e434 19bd 2b54 13bd aea5 03bd
00000170: b242 7737 db41 1fbd 8ce0 833c aac0 a2bc
00000180: 47fb 383c 6c95 133d 46c9 ab3c 68c3 92bc
00000190: 5d62 28bc 045e e4bc c599 133c a699 693d
000001a0: a67e 4ebc e262 cfb4 da8a 073d 5322 523c
000001b0: a6ee 1ebc 2953 58bc 7307 1d3d 2875 613d
000001c0: 3d1b d0bc bb8b 53bc 8cbf 4139 4506 debc
000001d0: 0c0b 333d e193 f6bc 8f9d 183c fdad 2cbc
000001e0: b381 7c3d e15e 913c 047e 553d b1e3 23bc
000001f0: b475 cdbc b51b 343d aba0 683a 5f50 24bd
00000200: 1cea b13c b675 503b 1f24 033d c428 94bc
00000210: af14 503b 1008 7fbb 80da 713d 4485 38ba
00000220: 931b 3d3d 1c66 7e3c eb54 673d 2b21 023a
00000230: 4da3 523d 8857 6f3c 5a5e 593d e1cf c23c
00000240: 2257 1abb 2944 c63c abfe 523d 1c15 593c
00000250: 9b06 5a39 07e7 7f3d 91dd 233c b3ac c6bc
00000260: f973 cbbc 9422 f1b7 f3f8 243c 1f5b a7bc
00000270: 8b5b a33c 522f 803c 0880 9abc 22ca 563d
00000280: b320 8ebc 9c5a fe39 8c8c 22bd abfb c9bc
00000290: 63ab 5e3b 078f 7d3d 75d4 433c 819b fbbc
000002a0: adfe 9db8 5475 64bd cc0e 653b 0fb3 1dbc
000002b0: 5ce5 2f3b 97b5 2fbd eede 44bc 157d 8dbc
000002c0: 8f2e 3a39 72e5 9f38 2efa 2a3d 9226 dcbb
000002d0: 237b db3b 4882 ed3a 7d16 683d ee5a df3c
000002e0: 2b18 f5bc 456b 1abd 6bf8 593d 06f4 46bd
000002f0: 6845 bebc 0e8f 72bb 2282 18bd 8908 29bd
00000300: 2e10 213d 4b77 36bd 599a d8bc 2e9a 22bd
00000310: 2bb0 ef3c 7c62 0a3b 3db2 a0bc 73e3 6b38
00000320: 60c9 bcbb cf9e 353d a1a5 273d ce43 da3c
00000330: f3bb b5bc d030 4e3c c78f 563d 947f ae3c
00000340: 699c 85bc 301a c7bb f02a 503b 8d84 40bd
00000350: 0c62 453c 6c0d 15bd 328b d7bb 14ae db3c
00000360: 64bf 8c3b 6317 81bc e444 f5bc e54f 2638
00000370: fe70 28bd a0d1 133a 4667 87bb 7871 2d3d
00000380: f3dc 013d dd48 3e3d dea6 c0bb e7c5 65bb
00000390: a1ae f13c 976a 6a3b 4565 16bd e0fd d23c
000003a0: 97c8 2f3a 1a85 1f39 c92a 383a fa5e 0fb8
000003b0: 970f b6b7 6938 6cbc 9b05 4739 9f88 91bc
000003c0: d456 813d f638 57bc 5fda d7bb 80de 743c
000003d0: 4204 1a3d b3ce 46bd 8202 f1bc 3735 4c3c
000003e0: 5b10 2a3d e15a b0ba 4941 d73c a156 f9bc
000003f0: d0e5 61b9 386c 59bc f0ea 6f37 0854 11bc

bias f4 [4]
-0.0135717755 0.05817098 -0.011859475 0.055712495
00000000: 275c 5ebc b244 6e3d 3e4e 42bc c932 643d

weight f4 [4, 8]
-0.065192014 0.09414621 0.20210978 -0.10776883 0.29429612 0.20315866 -0.017595595 -0.24190806
0.20266253 0.014703221 0.15938568 -0.20978442 -0.2752734 -0.04667525 0.09307483 0.23556356
-0.26360053 0.08919843 0.18835987 -0.1191217 -0.07977433 -0.12106581 0.11510404 -0.07330203
-0.11466376 -0.349161 -0.07437387 -0.014907376 -0.086348206 -0.32111102 0.08653231 0.0344256
00000000: 6483 85bd bacf c03d def5 4e3e e8b5 dcbd
00000010: fbad 963e d308 503e a324 90bc bfb6 77be
00000020: c486 4f3e c7e5 703c 0036 233e bad1 56be
00000030: a3f0 8cbe 8c2e 3fbd 049e be3d 9337 713e
00000040: a6f6 86be abad b63d 69e1 403e 14f6 f3bd
00000050: b960 a3bd 5af1 f7bd abbb eb3d 601f 96bd
00000060: d5d4 eabd 3bc5 b2be 5451 98bd 113e 74bc
00000070: 54d7 b0bd aa68 a4be da37 b13d dc01 0d3d

bias f4 [4]
-0.028946918 -0.23728408 0.31993413 0.25607294
00000000: 1622 edbc 99fa 72be 68ce a33e fe1b 833e

weight f4 [4, 8]
-0.0062494515 -0.01757895 0.16305298 0.26429045 0.2646506 -0.00020113305 0.14921342 -0.00015858303
-0.26545832 -0.0625505 -0.09502125 -0.25127986 0.13410062 0.05857679 0.004325302 0.19585343
-0.07218813 -0.23605676 0.20602424 -0.06546387 -0.22777404 0.24945039 -0.26704434 0.04744943
0.3403831 -0.28040066 0.23921295 -0.2914984 0.204458 0.0008122081 -0.2812977 0.031933796
00000000: 33c8 ccbb bb01 90bc 5cf7 263e 1451 873e
00000010: 4980 873e 3ee7 52b9 67cb 183e 4f49 26b9
00000020: 27ea 87be 7a1a 80bd 809a c2bd c1a7 80be
00000030: ac51 093e 37ee 6f3d 43bb 8d3b cd8d 483e
00000040: 5fd7 93bd ddb8 71be 05f8 523e ec11 86bd
00000050: 993d 69be ec6f 7f3e 09ba 88be 555a 423d
00000060: b246 ae3e ad90 8fbe 3df4 743e 473f 95be
00000070: 705d 513e 5dea 543a 4106 90be 03cd 023d

bias f4 [4]
-0.16904606 0.08739914 -0.28052074 -0.072775066
00000000: 691a 2dbe 52fe b23d 6aa0 8fbe 180b 95bd

weight f4 [10, 2]
-0.5486783 0.12105707 -0.22513168 0.09674326 -0.15592742 0.21152464 0.31377846 -0.2821659
0.52615464 0.58243513 -0.28666794 -0.097949885 -0.0376822 0.5714725 -0.6192092 0.57084703
-0.41003576 0.16449836 0.27525932 -0.15838683
00000000: 2e76 0cbf c5ec f73d eb88 66be 5521 c63d
00000010: 70ab 1fbe ea99 583e 92a7 a03e 0d78 90be
00000020: 12b2 063f 781a 153f 24c6 92be f399 c8bd
00000030: a758 1abd 064c 123f 7e84 1ebf 0823 123f
00000040: 35f0 d1be 4272 283e caee 8c3e 2830 22be

bias f4 [10]
0.64373195 -0.09654247 -0.46346682 0.6818779 -0.60078317 -0.15053856 -0.009849426 -0.6901786
-0.30735546 -0.34562945
00000000: 9ecb 243f 0fb8 c5bd 864b edbe 8d8f 2e3f
00000010: edcc 19bf c826 1abe 7d5f 21bc 8baf 30bf
00000020: b25d 9dbe 58f6 b0be

weight f4 [10, 2]
-0.10929241 -0.36887392 -0.28029647 0.2569927 -0.02817318 0.15235677 0.6788367 -0.64370453
0.21021548 -0.2627557 0.45370287 0.39767826 0.43926615 -0.3762072 -0.42431524 0.3705549
0.32647765 -0.043148562 0.4581145 0.06394445
00000000: b3d4 dfbd 0bdd bcbe 0583 8fbe 8c94 833e
00000010: 71cb e6bc 6a03 1c3e 3ec8 2d3f d2c9 24bf
00000020: ba42 573e ea87 86be be4b e83e 7c9c cb3e
00000030: 7ee7 e03e 3b9e c0be d93f d9be 5fb9 bd3e
00000040: 1428 a73e 8cbc 30bd fc8d ea3e 4ff5 823d

bias f4 [10]
0.2829022 -0.055345047 -0.64879 -0.4930038 0.6502879 0.43041292 -0.2588788 0.34174025
0.15059952 -0.52932113
00000000: 8fd8 903e 7db1 62bd 1a17 26bf fe6a fcbe
00000010: 4579 263f 155f dc3e c38b 84be 94f8 ae3e
00000020: c336 1a3e 9781 07bf

weight f4 [20, 4]
-0.5077553 -0.43303752 0.27113962 0.08095991 -0.4604193 -0.0090494035 -0.027239975 -0.072029956
-0.13641152 0.27465326 -0.33971614 0.0007142923 0.109133795 0.23970073 -0.34926954 -0.17827538
-0.49971554 0.4580148 0.35431984 0.31131768 -0.15844972 0.08541128 0.182022 0.14207454
0.45295656 0.23935437 0.37426108 0.40906274 0.25884855 -0.47315386 0.20098235 0.023093037
-0.23213576 -0.11615146 0.45124224 -0.2968012 -0.21122932 0.38731202 -0.3275308 -0.45237777
-0.45929688 -0.40189585 0.2896054 0.21339276 -0.28767833 -0.46966395 -0.31637767 -0.37077633
0.35601154 -0.14960936 -0.22179495 0.24223126 -0.030629508 -0.2764385 0.118172176 -0.1220389
0.37187058 -0.23114856 -0.28699526 -0.46559176 -0.35583025 0.27808073 -0.12166617 0.45540982
0.121361494 0.043374926 -0.4162387 -0.4559595 0.40919486 -0.278862 -0.21927245 0.3386189
0.05609833 0.50632733 -0.4828664 0.31475577 -0.31107116 0.20701703 -0.412366 -0.36986113
00000000: 40fc 01bf 18b7 ddbe d0d2 8a3e 4fce a53d
00000010: 14bc ebbe f343 14bc 5e26 dfbc 7184 93bd
00000020: 76af 0bbe 5a9f 8c3e 46ef adbe 583f 3b3a
00000030: 8a81 df3d 1c74 753e 75d3 b2be d28d 36be
00000040: b7da ffbe ea80 ea3e 6969 b53e 0865 9f3e
00000050: a540 22be 1cec ae3d fa63 3a3e fd7b 113e
00000060: ece9 e73e 5019 753e 269f bf3e ac70 d13e
00000070: cc87 843e 3941 f2be 51ce 4d3e 9c2d bd3c
00000080: ffb4 6dbe d1e0 edbd 3909 e73e 54f6 97be
00000090: 804c 58be c34d c63e 1eb2 a7be 0f9e e7be
000000a0: f628 ebbe 4bc5 cdbe 2947 943e a283 5a3e
000000b0: 934a 93be cb77 f0be 41fc a1be 65d6 bdbe
000000c0: 2547 b63e 3233 19be 371e 63be 790b 783e
000000d0: bcea fabc 5989 8dbe 4104 f23d 88ef f9bd
000000e0: d265 be3e 35b2 6cbe 0bf1 92be 0b62 eebe
000000f0: 622f b6be 9960 8e3e 1d2c f9bd 7a2b e93e
00000100: 608c f83d e8a9 313d 3d1d d5be 8673 e9be
00000110: fd81 d13e 00c7 8ebe f588 60be 755f ad3e
00000120: 5dc7 653d ab9e 013f 443a f7be ab27 a13e
00000130: b844 9fbe 46fc 533e a321 d3be 705e bdbe

bias f4 [20]
-0.00062026724 0.1653408 0.32599407 -0.30428416 -0.19834071 -0.06405631 -0.30482677 -0.1212795
0.47364533 -0.4617308 0.27550304 -0.015756542 0.40296963 0.41878894 -0.07053746 0.033851396
0.13974507 0.44651696 0.22215012 -0.46820673
00000000: 6e99 22ba 194f 293e b2e8 a63e 22cb 9bbe
00000010: d419 4bbe f42f 83bd 4112 9cbe 6361 f8bd
00000020: a481 f23e fb67 ecbe bc0e 8d3e dd13 81bc
00000030: 0952 ce3e 816b d63e f275 90bd c3a7 0a3d
00000040: 5519 0f3e df9d e43e 527b 633e cbb8 efbe

G f4 [2, 1]
0.0 1.0
00000000: 0000 0000 0000 803f

m1x_posterior f4 [2]
9.651424 -1.6473596
00000000: 3c6c 1a41 aedc d2bf

m1x_posterior_previous f4 [2]
-14.581091 22.958332
00000000: 264c 69c1 aaaa b741

m1x_prior_previous f4 [2]
8.377241 -4.0894756
00000000: 2e09 0641 fcdc 82c0

y_previous f4 [2]
9.682917 -0.85534096
00000000: 3aed 1a41 a0f7 5abf

KGain_array f4 [20, 2, 2]
0.2175969 0.31886128 0.38739693 0.5359123 0.21349841 0.30565342 0.40756816 0.6054241
0.21727473 0.35385692 0.40509105 0.5360709 0.2016848 0.30956697 0.43891907 0.6013039
0.1983493 0.31375948 0.43567783 0.5894282 0.1991731 0.3080675 0.43133315 0.6049602
0.19497126 0.30943537 0.43015143 0.6221498 0.18824875 0.3217848 0.44379914 0.62641174
0.18781966 0.30737796 0.42383707 0.6639698 0.17971292 0.3748793 0.41633552 0.55728596
0.20114997 0.32149836 0.4112998 0.6313482 0.19964609 0.35135245 0.40382242 0.5484174
0.21062583 0.30004913 0.40038213 0.62821835 0.19840148 0.33623454 0.35346618 0.5416417
0.18541513 0.33740792 0.3550865 0.52419466 0.1888538 0.32805794 0.35779825 0.5531402
0.22506325 0.33417022 0.34597844 0.5828503 0.21041252 0.3408098 0.35482135 0.53757894
0.2103484 0.3438372 0.39036524 0.5144172 0.2029418 0.31204852 0.4226004 0.5844955
00000000: b9d1 5e3e c941 a33e e458 c63e 8c31 093f
00000010: 549f 5a3e 9b7e 9c3e c6ac d03e 13fd 1a3f
00000020: 447d 5e3e bc2c b53e 1868 cf3e f13b 093f
00000030: 7686 4e3e 907f 9e3e 00ba e03e 0def 193f
00000040: 141c 4b3e 15a5 a03e 2a11 df3e c4e4 163f
00000050: 08f4 4b3e 06bb 9d3e b3d7 dc3e acde 1a3f
00000060: 8ca6 473e 506e 9e3e cf3c dc3e 3645 1f3f
00000070: 48c4 403e fac0 a43e a439 e33e 855c 203f
00000080: cc53 403e a560 9d3e 2c01 d93e edf9 293f
00000090: aa06 383e 2ef0 bf3e ee29 d53e 4baa 0e3f
000000a0: 42fa 4d3e 6f9b a43e e395 d23e 09a0 213f
000000b0: 0670 4c3e 78e4 b33e d0c1 ce3e 1565 0c3f
000000c0: 4cae 573e 0aa0 993e e3fe cc3e ebd2 203f
000000d0: c229 4b3e ef26 ac3e 85f9 b43e 08a9 0a3f
000000e0: 77dd 3d3e bbc0 ac3e e6cd b53e 9f31 063f
000000f0: e462 413e 36f7 a73e 5531 b73e 999a 0d3f
00000100: fb76 663e 5c18 ab3e 1624 b13e ad35 153f
00000110: 6176 573e 9f7e ae3e 25ab b53e c69e 093f
00000120: 9265 573e 6e0b b03e f4dd c73e d8b0 033f
00000130: facf 4f3e d3c4 9f3e 145f d83e 7fa1 153f

prior_Q f4 [2, 2]
1.0 0.0 0.0 1.0
00000000: 0000 803f 0000 0000 0000 0000 0000 803f

prior_Sigma f4 [2, 2]
1.0 0.0 0.0 1.0
00000000: 0000 803f 0000 0000 0000 0000 0000 803f

prior_S f4 [2, 2]
1.0 0.0 0.0 1.0
00000000: 0000 803f 0000 0000 0000 0000 0000 803f

h_Q f4 [1, 1, 4]
0.40350947 0.5321724 -0.5026846 -0.61324024
00000000: cb98 ce3e 733c 083f f0af 00bf 50fd 1cbf

h_Sigma f4 [1, 1, 4]
0.0 0.19399609 0.0 0.0
00000000: 0000 0000 e9a6 463e 0000 0000 0000 0000

h_S f4 [1, 1, 4]
-0.38768548 0.112137385 -0.6601839 -0.16711427
00000000: b67e c6be 49a8 e53d d001 29bf 0120 2bbe

KGain f4 [2, 2]
0.2029418 0.31204852 0.4226004 0.5844955
00000000: facf 4f3e d3c4 9f3e 145f d83e 7fa1 153f

x_out f4 [2]
9.651424 -1.6473596
00000000: 3c6c 1a41 aedc d2bf
