KNet/model_KNet_MM_Linear_Dynamics_T100_r2_negative_5dB_best_MSE.pt (torch, 37253 bytes, 42 tensors)

weight_ih_l0 f4 [12, 10]
00000000: 259c b2bd dc5f c53c fa0b debe 2b8a e73e
00000010: 7d5d e23e d20b 9b3e 99b5 9dbd a8ba a73e
00000020: 969a 86be 9e87 bc3e c5c2 cabe a1c1 e0be
00000030: afd6 4cbd cc3d e43e 7bf3 9bbe b18c a3be
00000040: 2a12 c13e 7451 9bbd ea36 21be 99bd c43b
00000050: b162 b03e dadd 8cbe c695 683e 3d83 69bd
00000060: ecd0 8ebe 7287 323e 00b4 a3be 364f 74bd
00000070: 5fe4 013f 14f2 1e3e 15f4 73be fe96 5e3e
00000080: 5121 553e 1bab e33e 4ed6 debe 525d d2be
00000090: 6b4a 723e f5df ec3e a25a f7bd e3e7 72be
000000a0: bc04 883e 9e00 ff3d 0e87 80be 99cc 603e
000000b0: 6d4f f13e 93f8 e6be bd0d 37be af0d e8be
000000c0: 49ed 403e ec76 c33c 9a90 f1be 7a60 ba3e
000000d0: bb47 2c36 a76e a03c ff16 bebe 6898 65be
000000e0: 5743 513d f74c bc3e 0d72 b53e 3f5c 8cbe
000000f0: f3fb 193e d647 473e 2df1 9bbc 10c0 64bc
00000100: 63af 963e 68e1 e03d ad75 873d 0245 8bbd
00000110: 6ec2 41be 31fb 103e c73f 2dbd 6694 bbbd
00000120: 810d 253e 7362 4f3e 7844 d63d 4bc6 adbe
00000130: 74c5 e03d 03bc d33d 0eaf 503e d950 ac3e
00000140: bec4 eb3e 7851 c2b9 90d7 e7be 29bd e23e
00000150: 9827 7c3e 098e 38be a8c8 f83e 2030 863e
00000160: f1f3 68be 77bb b9bd c33d e03d b0a9 d5be
00000170: 0b44 8d3e da56 153e 4f76 23be 607b 613d
00000180: c908 c33e 446e 8bbe 992f ff3d bbe8 7c3e
00000190: a006 173e bfe2 bb3e 5f0e 543e 83fd 07be
000001a0: e6f7 f7be 7522 353d a86e 6e3e 7a3e 3a3e
000001b0: a21e 933e 5756 4c3d 426a dcbe a58c 853e
000001c0: 3f82 97be 3f81 02be 7916 babd c37d 09be
000001d0: f379 65bd 3ddf 28be 96ae e3be 60d8 023d
-0.087211885 0.02409356 -0.43368512 0.452226 0.4421195 0.30282456 -0.07700653 0.32759595
-0.26289815 0.36822218 -0.39601722 -0.43897727 -0.050009426 0.44578397 -0.30459198 -0.31943277
0.3770917 -0.07583895 -0.15743604 0.006004047 0.34450296 -0.2751301 0.22713384 -0.057009924
-0.2789377 0.17434481 -0.31973267 -0.059645854 0.5073909 0.15522033 -0.23823579 0.21737286
0.2081349 0.4446648 -0.43522877 -0.41086823 0.236612 0.46264616 -0.12077834 -0.2372127
0.26566112 0.124512896 -0.2510304 0.21953048 0.4713091 -0.45111522 -0.17876334 -0.4532294
0.18840517 0.023860417 -0.47180635 0.3640173 2.567175e-06 0.019584013 -0.3712692 -0.2242142
0.05108961 0.3677747 0.35438576 -0.27414128 0.15037517 0.19460997 -0.0190359 -0.013961807
0.29430684 0.10980493 0.06614242 -0.068002716 -0.18921825 0.14158322 -0.04229715 -0.09159164
0.16118433 0.20252399 0.10462278 -0.33940348 0.10975161 0.10338595 0.20379278 0.33655432
0.4604854 -0.00037063262 -0.4528165 0.44284943 0.24624479 -0.18022932 0.4859059 0.2620859
-0.22749306 -0.09068959 0.1094928 -0.41731024 0.27590975 0.14583912 -0.159631 0.0550493
0.3809264 -0.27232563 0.124602504 0.24698155 0.14748621 0.3669643 0.20708607 -0.13280301
-0.4843132 0.044222314 0.232844 0.18187895 0.28734308 0.049887028 -0.43049818 0.26083866
-0.29591557 -0.12744616 -0.090863176 -0.1342688 -0.056024503 -0.16491409 -0.44469136 0.031944633

weight_hh_l0 f4 [12, 4]
00000000: 9cb4 f73e 3092 9b3e 9931 34bd cabd 3bbe
00000010: 323c 38be 0847 0bbe c885 8e3e 1385 1e3e
00000020: 8431 c0be a281 01be 5902 9ebe 9a8f be3c
00000030: 8997 fd3d 982b d7bc 7ab3 4abd 52bb c43e
00000040: 5399 ef3e 8065 a1be d167 483e b00b c4be
00000050: ccf3 a33e 752d af3e 324d cf3e 0d5e ba3e
00000060: 8671 37be ffb8 203d ef3a b2be 0e74 703e
00000070: 1ecb 6bbe 0f1e 6abe 9c3d 9fbe 34aa d33e
00000080: afa1 afbe 0e50 b23e 7a31 01bf 0863 713e
00000090: 986f 823e 2879 babe 0be8 b6be 75e5 aabe
000000a0: b03a 723e c3f7 d5be 9adc ed3e 146a a3be
000000b0: 7c18 02bf f227 f3be fa07 ba3e e001 f83d
0.48379982 0.3038497 -0.043992613 -0.18334118 -0.17991713 -0.13601315 0.27836442 0.15480451
-0.37537777 -0.12647107 -0.30861166 0.023261834 0.12382419 -0.026265904 -0.04948757 0.38424164
0.46796665 -0.3152275 0.19570853 -0.38290167 0.3202194 0.34214368 0.40488583 0.3639988
-0.179144 0.039238926 -0.34810588 0.23481771 -0.23026702 -0.22863029 -0.31101692 0.41340792
-0.34303042 0.34826702 -0.5046612 0.23572934 0.25475764 -0.3642056 -0.3572391 -0.33378187
0.236552 -0.4179059 0.46457368 -0.3191687 -0.5081861 -0.47491413 0.3633421 0.12109733

bias_ih_l0 f4 [12]
00000000: 3697 efbe b097 843e ad32 c23e c5fb a53e
00000010: 02d8 3a3e e678 f2bd 4bdb 0dbe 8ecc 5a3d
00000020: be97 63be 4fda 5a3e 4fec fcbe fc6f 883e
-0.46795052 0.25896978 0.37929288 0.32418647 0.18246463 -0.11839466 -0.13853185 0.053417735
-0.22225854 0.2137234 -0.4939904 0.26647937

bias_hh_l0 f4 [12]
00000000: 8791 993e bb8a c2be d598 88be 70e6 aa3e
00000010: 88e8 593e 7dae 7c3e 28f6 89be 5cbf c63e
00000020: d271 c4bd f0b0 d33d f978 59bc b522 90be
0.2999384 -0.37996468 -0.26679102 0.33378935 0.2128011 0.24675937 -0.26945615 0.3881787
-0.09592022 0.103364825 -0.013273471 -0.2815148

weight_ih_l0 f4 [12, 14]
00000000: be46 5bbd 72b8 a83e bb0d da3e cc70 92be
00000010: e731 91be 332d b53c 661f be3e 82d2 8c3c
00000020: 2835 c5be 797a 393e 596d 0abe 1959 eb3d
00000030: 689d 4a3d 9703 47bd fdba ddbe 0451 3a3e
00000040: ee74 a6be 7bc9 d0be 2a65 3e3e 37f1 e3be
00000050: f68c 9b3e cd27 853e 0c6f b93e f34d 3fbe
00000060: 922d e9be d332 a7bd 6278 c63e eac8 cbbe
00000070: f5e7 953d 4243 493d 4d2b df3e 5f1b 98be
00000080: 9bd6 5dbe 87cf c03e 7b20 e1be 7c41 963e
00000090: eeda 323e 5a65 8cbd 16ff 6f3e c4a3 ffbd
000000a0: 3012 863e 89a3 2b3d c369 77be f3c0 d1be
000000b0: 89c0 3ebd 83bc 613d 3d16 ce3e ad5e 46be
000000c0: e01b 69be 83c6 3c3d 59ed 2d3e d5dd b53e
000000d0: 99dd 313c d337 3ebe b521 643e 2703 143e
000000e0: 54bd f9bd b739 a83e 17b4 7a3e 126f 84be
000000f0: 9083 c13e 02ed 933e 330e e2bd bd03 c2be
00000100: bc6e a13e fbc2 933e 5c1b 97be d81f efbe
00000110: 7dab d7be 02df c73e d28d e33e e84b 26bd
00000120: 497a 43bd f722 583e 8eba b4be 44ff ccbe
00000130: 623d 28bd bb4c dcbe 4373 51be 220a 9c3e
00000140: 1f25 f43e c645 6fbd 1d10 413e 1129 ddbd
00000150: c929 543e 86cc 293e e5cd f13e 6aaa 303e
00000160: 46cd 673e e6fb 8d3e 5e53 0fbe 2430 c53e
00000170: 0d92 fcbc 0735 babe 8abe 373e 153b 11be
00000180: da9c fabe 29c8 77be df35 a83e 84e5 f7be
00000190: 34ad dcbe ed85 a63e 1956 b03e 56af 183e
000001a0: 9a52 fbbd 0cf5 8fbe ca2e d1be f75a 93be
000001b0: 8427 d43d 416b af3e b963 01bf 87e9 a5bb
000001c0: f2c8 dcbe 2437 ed3d 8acc 1abe 220c ca3e
000001d0: 9a76 b1bb f51f e53e f704 843d 8dea 9f3e
000001e0: 70d8 5e3e d7c2 f4be b061 6ebe 8c46 b0be
000001f0: 4df8 54be 6cfe c93e 69e4 cfbe f47a ea3e
00000200: fce5 3ebe 8a21 9d3e 6c8f ab3e 4c45 d0be
00000210: 5fd7 2f3e 7096 c13e f233 2abd 63c1 f93e
00000220: 57c8 9ebd 79e1 ce3e c7a9 e03e 440f 5f3e
00000230: 962b f0bd 4c3b d43d 833e e83e 6891 c9be
00000240: 07aa 1cbe b223 a53e 0cce d1be 9d61 da3e
00000250: 8a6a 3f3e a352 e43e 459e 07bc 4781 7c3e
00000260: 056d a0be 2ae2 c03c 7ba3 d5be 9de6 de3e
00000270: 78d8 003f 5154 853e afd8 823d 3ab1 b2be
00000280: a894 df3e be15 ba3d a049 fbbe f80f d93d
00000290: 8a93 18bc ceb2 da3e 0c6e 9a3e a8e5 c5be
-0.053534262 0.3295322 0.425886 -0.28601682 -0.28358385 0.02211628 0.3713333 0.017190222
-0.38517118 0.18113126 -0.13518275 0.114916034 0.04946652 -0.048587408 -0.43306723 0.18194968
-0.32511085 -0.40778717 0.18593279 -0.4451997 0.30380982 0.26006928 0.36217535 -0.18682079
-0.4554258 -0.08163991 0.3876372 -0.39801723 0.07319633 0.049136408 0.43587723 -0.29708382
-0.21663897 0.3765833 -0.43970093 0.29346836 0.17466328 -0.06855269 0.23437151 -0.12482408
0.2618575 0.041904006 -0.24161439 -0.4096752 -0.046570335 0.05511142 0.4025134 -0.19372053
-0.2276454 0.046087753 0.16985072 0.35520807 0.010856056 -0.18575983 0.22278483 0.14454328
-0.121943146 0.32856533 0.24482761 -0.2586599 0.37795687 0.2889176 -0.110378645 -0.37893477
0.31529796 0.28859696 -0.2951306 -0.46703982 -0.42123023 0.3903733 0.44444138 -0.040599734
-0.047724042 0.21107088 -0.3529858 -0.40038502 -0.041074164 -0.4302729 -0.20454125 0.3047648
0.4768457 -0.05841615 0.18853803 -0.107988484 0.20719065 0.16581926 0.47227398 0.17252508
0.226369 0.27731246 -0.13996646 0.3851329 -0.030831361 -0.36368582 0.17943779 -0.14182694
-0.48947793 -0.24197449 0.328536 -0.48417294 -0.43100893 0.32524052 0.34440687 0.14910635
-0.122716144 -0.28116643 -0.4085601 -0.28780338 0.103590995 0.34261516 -0.5054279 -0.005063239
-0.4312206 0.11582783 -0.15117088 0.39462382 -0.0054157497 0.44750944 0.064462595 0.31233636
0.21762252 -0.478049 -0.23279452 -0.34428823 -0.20797844 0.3945192 -0.4060395 0.4579693
-0.1864242 0.3068965 0.3350786 -0.4067787 0.17172001 0.37810087 -0.041553445 0.48780355
-0.077530555 0.40406397 0.4387953 0.21783167 -0.11727063 0.103628725 0.45360193 -0.3936875
-0.15299235 0.32253796 -0.40977514 0.42652598 0.18692985 0.44594297 -0.0082774805 0.2465869
-0.31333175 0.023545343 -0.41726288 0.4353532 0.50330305 0.2604089 0.06388985 -0.34900838
0.43668103 0.09086178 -0.4907961 0.10598749 -0.00931252 0.42714542 0.30162084 -0.38651776

weight_hh_l0 f4 [12, 4]
00000000: e043 6a3e c3b0 eabe ee7f 293d 7610 63be
00000010: b805 abbc b670 e23d 3d24 9cbe 6dd8 96be
00000020: 6515 b23e 48d6 9ebe fc0f 9838 4e5f e9be
00000030: 9990 a9be 64f9 e33e da98 88be 7b6c 32be
00000040: 922c 96be 663f aebe 56bd 74be c3f1 bfbe
00000050: 0b25 ce3e 1911 fc3e c464 2ebe 3b55 a83c
00000060: 45b2 d0be 7d90 35bd 7a1d 68be 8924 9e3e
00000070: 5ac7 d53e cbc5 e93e 1dcd ae38 0526 28be
00000080: 789a afbe 8865 533e 7daf d93e 43fb 8fbe
00000090: de83 a83e e324 ff3d 6dfc 123e 3857 d93d
000000a0: 724c 603e 55b5 8b3e e7a4 d33d 9f59 eb3e
000000b0: a07e 90be 3c4e bf3e c997 db3e 60fa 9a3e
0.22877455 -0.45837983 0.04138177 -0.22174248 -0.02087675 0.11056654 -0.30496398 -0.29461995
0.34781948 -0.3102286 7.250902e-05 -0.45580524 -0.33118132 0.44526207 -0.26679116 -0.17424195
-0.2933088 -0.34032744 -0.23900351 -0.37489137 0.40262637 0.49231794 -0.17030627 0.020548454
-0.4076101 -0.044327248 -0.22667494 0.3088725 0.41753656 0.45658717 8.335172e-05 -0.16420753
-0.34297538 0.206442 0.425167 -0.28121385 0.32913107 0.124582075 0.14354105 0.10612339
0.21904162 0.27286783 0.10334187 0.45966813 -0.28221607 0.37364376 0.4288924 0.30269146

bias_ih_l0 f4 [12]
00000000: e0fe 163e 888c d8be b129 24be ed3c 00bf
00000010: 4353 ebbd a2a3 4cbe 1ee2 a5be e59a a9be
00000020: 1769 013e 225e 31be 92c2 a73e c176 39be
0.14745665 -0.42294717 -0.16031529 -0.50092965 -0.1149049 -0.19984296 -0.32399076 -0.33125988
0.12637745 -0.17321065 0.32765633 -0.18111707

bias_hh_l0 f4 [12]
00000000: 0b4c 86be 821c 713e e4ac 8a3e 47e1 da3d
00000010: 2da2 14be 91e4 e73c 0b1f 983e fecd cdbe
00000020: ceee 10bd 8796 f0be 8e2c 65be 6382 de3e
-0.2622989 0.23546031 0.2708503 0.106874995 -0.1451499 0.028307231 0.29711184 -0.40196222
-0.035383992 -0.46989843 -0.22380278 0.43458852

weight_ih_l0 f4 [12, 24]
00000000: e62c a63e 162c aa3d 98f0 e63e c370 0abe
00000010: 0dbf edbe 7e13 89be a8ee 263e 1e10 73be
00000020: 6bef 3abe 6774 3cbe 260f 6e3d c2ea e03e
00000030: 1bf9 5fbe bfd6 ddbe e23c 8bbe 8002 a73e
00000040: 6977 cd3e f685 a93e acf9 2d3d 08c2 473d
00000050: 95a1 c7bd 062c 8c3e af26 d0be ad19 9cbe
00000060: 98f0 5e3e 7906 23be a402 7d3d b071 c9be
00000070: 83f3 133e e7d1 26be d9e9 7cbe 8ec1 843e
00000080: 7433 35be f6f3 a6bd 6c5b f5be c061 d03d
00000090: a000 4ebe a590 dabe 1071 7c3e 1dfe 50be
000000a0: 3cf6 bbbd 9c75 00be aedf dabe 4871 fb3e
000000b0: 943d 123d 2583 b3be 7f8c f7bc b549 773d
000000c0: 1a66 a9be ff61 39be 7882 133e c8c4 fabd
000000d0: 4bdd 18be e655 d73d 85ab 6b3e 565b 203b
000000e0: 61d7 bfbd eaf6 d83e 9208 f6be faee 4a3c
000000f0: fe74 ca3e 4c45 bdbe e45b aa3e 8545 233d
00000100: 967c a43e a6dc e93e ef17 7cbe 49a6 063e
00000110: 5432 5c3e 11a1 b93e 0460 f43d 824e 9abe
00000120: b78f c13e 7048 77be d764 b43e defa a73e
00000130: f27f 90bb 7ff5 04bc da75 86bd 4763 99bd
00000140: 81b1 aa3d dc20 40be 66ad 96bd db6d f0be
00000150: 41ac f33e 0fc4 9c3e fd9d fe3e c071 04be
00000160: 139b 953e eaed c73e bb1e 073e c528 ccbe
00000170: 6a23 97be edb0 a83e 5b60 5ebd 55e4 833c
00000180: 1a4b 513e c667 6abe 851e 8f3e 934e e5be
00000190: 3fb2 c9be 1eef f3be 101a 0ebc 3f33 e33d
000001a0: 38bc 7ebe f472 c7be 152a 08be 75fe 48be
000001b0: 77ce 0dbd 4221 553e 9a37 8f3e c743 303d
000001c0: de2e 9b3e e04c efbe 81b3 ba3e 6e98 0cbd
000001d0: cf53 883d 7121 3f3e f230 1cbd 6b7f 563e
000001e0: f3ef 8b3d 3911 e73e bb45 b7bd 5ca2 ac3d
000001f0: f378 113e efe3 dabe 7c73 e43e 9b64 c73e
00000200: 8281 a0bd ba88 5bbe f275 ad3d 5944 c63e
00000210: 3f33 83be 2278 873e 79f7 08bc d1b9 ccbe
00000220: fd41 063e 06fd 1d3d 61cb 92bd 503f 9cbe
00000230: 436b c63b 12d8 abbe c66d 233d 9726 41bb
00000240: 11b4 9e3d 2366 973e 7a7d 1dbe ddea 91be
00000250: e1f1 053b 8a58 f0be 9272 89bc d317 383d
00000260: f2b6 8fbc af83 f5be 55e7 653e 9935 a0be
00000270: f881 2f3e 1617 963b 98c7 8bbe 8579 9c3e
00000280: 89bf 3dbd 9dbe 58be afdf 453e e7b3 3c3e
00000290: 9f7a 1dbc 36e4 e43d 2540 da3e bf82 02be
000002a0: 7910 603d a23c d73c a236 bc3e 2f27 0c3e
000002b0: c920 9a3d 40d8 01bf 51ca b33e 6b99 993e
000002c0: 8eb3 9c3e f8f9 353e bb15 b3be 0ed6 ca3d
000002d0: eb57 943d 870f d7be 958c 9dbe 327b 983e
000002e0: 9e5b cc3e ac67 123d cb27 9d3d 3d8b 6e3e
000002f0: 5586 ebbe d09a 5bbe 00b8 84bd 63f2 62be
00000300: a835 cdbe f34a 973e 7d89 f83e 7d8b 523e
00000310: 2a07 d9bd 07fb 3e3e a079 fdbd d51e 243e
00000320: e3c9 c7bd 9f96 03be 3e04 77be 9c3a 363e
00000330: 02ef be3d c961 14be fcc0 d3be 7e60 a1be
00000340: dfe4 963e 9d6b dcbe a3fc ddbe 538f ce3e
00000350: 11a1 a13d 8884 43bd c142 b4be 181f 03be
00000360: 1e1d 94be 25c4 3fbe d273 82be 054c 81bd
00000370: 4daf 143e ae16 b0be 402d f8be 7ae4 c9be
00000380: a338 a8be b50e 923e ae45 a9be 25b0 cc3e
00000390: 219c a13e 3e30 ecbe 1313 74be 8891 9b3e
000003a0: 1b33 21be 74a0 b93e b158 e6be 1d9d a73e
000003b0: 4c7f 913e f3fb 4abe df65 943e 7300 91be
000003c0: 3cba 0a3e 57ca d53e 23fa 643e 20b8 e2bd
000003d0: 2535 60bd 369a e33e 3ec2 583e 45a6 bd3e
000003e0: 5a2f d7be 67bb 57bb 5e0c 9dbe b9f3 e93e
000003f0: e5f9 c5be b7bb 0fbe 740e cebe b9e4 3dbe
0.3245613 0.0830919 0.45105433 -0.13519578 -0.46434823 -0.26772684 0.16301978 -0.23736617
-0.18255393 -0.18403779 0.058119915 0.43929106 -0.2187237 -0.433279 -0.27194887 0.32619095
0.40130165 0.33110017 0.042474434 0.048769027 -0.09747616 0.27377337 -0.40654513 -0.3048834
0.21771467 -0.15920438 0.061770096 -0.3934455 0.14448361 -0.16291009 -0.24698581 0.2592892
-0.17695409 -0.081520006 -0.47921312 0.10174894 -0.20117426 -0.4268848 0.24652505 -0.20409437
-0.09177825 -0.12544864 -0.4274878 0.49109864 0.035703257 -0.35060993 -0.030218361 0.060373027
-0.3308571 -0.18103789 0.14405239 -0.12244564 -0.14928167 0.10514431 0.23014648 0.0024468503
-0.09367252 0.4237588 -0.48053414 0.012386078 0.39542383 -0.36966932 0.33273232 0.03986122
0.32126302 0.45676154 -0.24618505 0.1314937 0.21503574 0.36255696 0.11932376 -0.30138022
0.37804958 -0.24148726 0.35233185 0.32808584 -0.0044097835 -0.008115171 -0.06565447 -0.07489639
0.083346374 -0.18762535 -0.07357292 -0.46958813 0.47592357 0.3061833 0.4972991 -0.12934017
0.29219875 0.39048702 0.13195316 -0.39874855 -0.29519206 0.32947484 -0.05429111 0.016100088
0.20438805 -0.22891149 0.27952972 -0.4478651 -0.39393803 -0.4764337 -0.008673206 0.11093759
-0.24876487 -0.3895489 -0.13297303 -0.19628318 -0.03462073 0.20813468 0.27972108 0.043033388
0.30309194 -0.46738338 0.36465076 -0.034325056 0.0665661 0.186651 -0.038132615 0.20947044
0.06832876 0.45130327 -0.08948847 0.08429405 0.14206295 -0.42752025 0.44619358 0.38943943
-0.07837202 -0.21438876 0.08469762 0.3872402 -0.25625035 0.26458842 -0.008359783 -0.39985517
0.1311111 0.03857138 -0.07167698 -0.30517054 0.006055267 -0.33563286 0.03989961 -0.0029472464
0.07749189 0.29570112 -0.15379897 -0.284995 0.002043836 -0.4694255 -0.016778264 0.044944596
-0.01754329 -0.4795203 0.22451527 -0.31290892 0.17139423 0.004580389 -0.27300715 0.30561462
-0.04632524 -0.21166463 0.1932361 0.18428002 -0.009611755 0.1117634 0.42627063 -0.12745188
0.05470321 0.02627403 0.36760432 0.13686822 0.075257845 -0.50720596 0.35115293 0.2999986
0.3060574 0.17771137 -0.34977517 0.09904109 0.072433315 -0.42004034 -0.30771318 0.2978149
0.39913648 0.0357434 0.076736055 0.23295303 -0.46000925 -0.21445775 -0.06480408 -0.22162776
-0.4008 0.2954937 0.48542395 0.20561023 -0.105970696 0.18650447 -0.12376714 0.16027386
-0.09755304 -0.12850426 -0.24122712 0.17795795 0.09322931 -0.14490427 -0.41358173 -0.3151893
0.2947149 -0.43050852 -0.4335681 0.40343723 0.07892049 -0.047733814 -0.3520718 -0.1280483
-0.28928465 -0.18727167 -0.2547899 -0.06313328 0.14519997 -0.34392303 -0.48472023 -0.39432126
-0.3285571 0.28526846 -0.33060974 0.39978138 0.3156443 -0.46130556 -0.23835401 0.3038447
-0.15742151 0.3625523 -0.4498954 0.32737055 0.28417432 -0.19822673 0.2898397 -0.28320655
0.13547605 0.41755936 0.22361045 -0.11070275 -0.054738183 0.4445359 0.21167848 0.37040916
-0.42028314 -0.0032918097 -0.30673498 0.45693758 -0.38667217 -0.14036451 -0.40245402 -0.18544282

weight_hh_l0 f4 [12, 4]
00000000: 91d5 113e 8724 ebbe 0f36 3f3e ca6c 99bd
00000010: d5ef 3f3d 7647 77bd 12c7 68bd 6d73 c5be
00000020: aa1c 1b3b 4d58 f13e b0a3 c53e 0240 d8be
00000030: 0de3 f4be 45e4 ea3d 1ea4 a03e eddb 803d
00000040: 045f ae3e aa72 473e ee4a ecbc 0f5c f53e
00000050: f2c6 93be 2466 ccbe 322c dd3d 1527 17be
00000060: 7e08 9a3e a7b6 d4be ba61 563e 2b23 fe3d
00000070: 95fc 363e 6a28 7abe 32e5 913e 65fe 8bbc
00000080: acc2 bebc 0e10 ccbd 3edc f43e 7f2e 123e
00000090: 3714 a8be 3bce bc3e 6530 5a3e dbf0 ef3e
000000a0: 01db 703e 5ead 97be d08e 573e b9d1 e53e
000000b0: 7abe e4bb 253a d73e dc0a 7f3e 64ea c83e
0.14241625 -0.45926306 0.18672965 -0.07491453 0.04685958 -0.060370885 -0.056830473 -0.38564625
0.0023668208 0.4713768 0.38601446 -0.42236334 -0.47829476 0.1146932 0.3137521 0.062919475
0.34056866 0.19477335 -0.028844323 0.47921798 -0.2886272 -0.39921677 0.10799445 -0.14761002
0.30084604 -0.41545603 0.20935717 0.124090515 0.1786979 -0.24429479 0.28495175 -0.017089078
-0.023286186 -0.09964 0.4782428 0.1427555 -0.32827923 0.3687609 0.21307524 0.46863446
0.23521043 -0.29624456 0.21050572 0.44886568 -0.0069807144 0.42036548 0.24906486 0.39241326

bias_ih_l0 f4 [12]
00000000: 78e0 063e 3be6 e0bd a426 e03e 5de6 f03e
00000010: 7c61 353d 5f4f b8bd 5d04 79be cb30 a73e
00000020: 0c03 a8be 403c b83e 8ef2 81be 0d43 983e
0.13171566 -0.10981413 0.4377948 0.47050753 0.04428242 -0.08999514 -0.2431807 0.32654414
-0.32814825 0.35983467 -0.25380367 0.29738656

bias_hh_l0 f4 [12]
00000000: 15c8 22be a056 8cbb eda0 993c 719f dcbe
00000010: d04e d73d 265b d13e 8972 be3e 28bb 90be
00000020: 2f32 ba3e 138a fabe 6c14 4b3e 0380 f4be
-0.15896638 -0.0042827874 0.018753493 -0.43090394 0.10513079 0.40889853 0.37196758 -0.2826779
0.36366412 -0.48933467 0.19832009 -0.47753915

weight f4 [4, 4]
00000000: e204 f53d aff0 183e 348c 1b3d 5d3b e43e
00000010: c879 a23e b47c 88bd eb37 29be 3e8b 4f3e
00000020: 70eb 4cbd cabc 1cbe b68a 61be 92a8 fe3b
00000030: c0b8 f83e 496d d03e 95ac f5be 45aa fc3e
0.11963822 0.14935564 0.037975505 0.4457654 0.31733537 -0.0666441 -0.16525237 0.2026796
-0.05002922 -0.15306392 -0.2202557 0.00777156 0.48578453 0.40708378 -0.47983232 0.49348655

bias f4 [4]
00000000: eadb cb3d a62f fe3d 1549 db3e 5018 593e
0.09954055 0.12411432 0.42829195 0.2120068

weight f4 [320, 8]
00000000: ca25 8fbc fc17 1b3a e8b5 9c3e 9f8b 25bd
00000010: 0dd3 123e aa68 f3bd 07f0 c9b8 e68a adbd
00000020: 3c94 003d 9aa6 bdbd e5c4 42be 401b 663e
00000030: c9f2 e4bd 62d2 eb3d 7f5d b7be 9733 6cbe
00000040: 9899 b53d 8cf8 3f3e 0c91 5a3e cc1f 913e
00000050: 4482 b03e 443f 103e a86a 78bd db91 eb3c
00000060: d106 82be fa88 973e e967 25be b69d 98be
00000070: 0c21 5fbc a30f e6bd cd53 e5bd 97c9 133e
00000080: 0501 883e 6976 3c3e dfd9 9dbe 71b9 d8bd
00000090: a416 f6bc c3e3 a43d e69d 3dbe d7d1 87be
000000a0: c4d8 633c e858 513e f581 053e 845f d23c
000000b0: 7100 9438 197a 9ebe 629c 4a38 27c3 b13d
000000c0: aa25 aa3d 8ccf 89be 92ae 423e e4e8 853e
000000d0: 5b45 843e 5015 9ebd d9f2 943e f3bf 893e
000000e0: e05c 9fbd 7f01 453e 4285 58be 89c3 83be
000000f0: 0f93 aa3d 77ac 91be 22c0 83be 8890 93bd
00000100: 2e6b 943d d149 97bd 1abb 9d38 3283 753e
00000110: f342 553e 608e abb9 298f 863e 0443 93bd
00000120: e4ae a33e 6c35 88be 52f9 9a3e 0720 283e
00000130: 25ca 9d3e 35af 203c f9c7 5ebe 43ef 413e
00000140: 1980 2c3e 2fd3 8d3e b7a7 b8bd c7dc 743d
00000150: 8411 15be eea7 4e3e 15b1 eebd bd74 adbe
00000160: c574 1b3e 6ac2 22be 88ba 9abe 05db 3c3e
00000170: b363 993d f91c a83e d273 b53d c97c ee3d
00000180: c181 5e3e 55f6 d53c 466e 7e3e 54fd 123e
00000190: 374f 943d f818 173e cc96 0bbe df0a c2bd
000001a0: 6954 99ba ccf1 8fbe 38b1 23be 4709 5ebe
000001b0: f766 29be 1112 d93d 1e9c 813d c503 5eb8
000001c0: 20be 123b eb19 f63d 7cbd 51be e38a 91bd
000001d0: f5da 88be 7dd6 a5be 5a5d 9c3e a0ba 863e
000001e0: 0ef7 133d 4dcc 573e 4c58 9fbe c482 943e
000001f0: 64c5 33be e85e 733a 0d9b b23d 164a 60bd
00000200: 2a7c 1f3e 0d83 e13d 3414 9cbe 6b80 ef3c
00000210: d167 90bc a4d4 763e 9c2e 0c3a b759 813d
00000220: f818 fbbc 22fd 7ebd 0611 59be c960 a0be
00000230: 9f49 bb3e da52 a63d 8b13 1fbe 494d 003e
00000240: 9d96 c73d 9b07 823e 6f85 923e 0688 833e
00000250: 6924 23be a210 943e a0a9 31be 345a 803d
00000260: 94ac 82be 4a82 393e 27c5 7ebe b22d acbe
00000270: f5c0 a23e 2f1a ac3e b9ef 373e 024c d53c
00000280: 2d64 cbbd 9393 5e3d d43b 11bd 4961 32be
00000290: 362e 6abd b5aa d2bc 2ae4 3a3d c196 ddbd
000002a0: 0adc b33c 0350 a23e 2746 c63d 5fbc 993e
000002b0: d4a2 783e d33e 22be 827f 793e c7c4 3b3e
000002c0: 27b8 ea3d f4c6 91be 83b4 98be b7a3 ecbd
000002d0: 00b2 823e f734 acbe e36d 20be 0808 f2bc
000002e0: d487 dcbd c339 42be 2fcd b13d 343d 36be
000002f0: d0a2 e53d dbc2 8d3e 3601 703d 544e 46b9
00000300: 7611 e1bd fb99 003e c91e 8a3e 706c 23be
00000310: bbb3 5e3e e098 babb 2f3e a4be 393a a3be
00000320: 3e4b 313e 8339 a6be ed69 5f3e 3293 713e
00000330: 1356 8fbd dea1 8b3e 593a 58be 958a b13e
00000340: 0a95 85be 9c73 063c 6d22 51be 6038 913e
00000350: 6438 97be 552d 8cbe f8f2 5ebe d940 0dbe
00000360: a87d a4bd 9e0f a43c e0cd 2fbe bc74 4cbe
00000370: 8b41 5e3e 575c 233e 0842 883e 2c6d 01be
00000380: 76e8 9f3d 8883 5fbd 60a1 7abd 237e 923d
00000390: 92bb cd3d b42f 7fbe 5d31 21be 1469 323e
000003a0: 5a5c 8dbb 30f7 a53e 6199 89be e05b 6b3e
000003b0: 3b5d 363e 3ffc 4dbe 38de a33e 4dea ae3e
000003c0: 695c 71be 4bac 193e 0cf0 80bd 3da7 9ebe
000003d0: 16f3 cbbd 3ac6 823e 2870 82be 8383 8ebd
000003e0: fcd3 043e da00 4e3c b1c4 363a c51f 003e
000003f0: 59da adbd 9a83 983e d16c 303e c153 cebd
-0.017474074 0.0005916355 0.30607533 -0.040416356 0.14338322 -0.118851975 -9.6291355e-05 -0.084737584
0.031391367 -0.09260292 -0.19020422 0.22471333 -0.1117912 0.11514737 -0.3581352 -0.23066555
0.08867186 0.18747157 0.21344393 0.28344572 0.34474385 0.14086634 -0.06064859 0.028756073
-0.25395826 0.29596692 -0.1615292 -0.29807824 -0.013618719 -0.11233451 -0.11197624 0.14432369
0.26563278 0.18404545 -0.30830285 -0.10582245 -0.030040093 0.080512546 -0.18517265 -0.26527283
0.013906661 0.20444071 0.13037856 0.025680311 7.057272e-05 -0.30952528 4.8306196e-05 0.086798005
0.08307965 -0.26916158 0.19011906 0.26154244 0.25834164 -0.07718909 0.29091528 0.26904258
-0.077813864 0.19238852 -0.21144584 -0.2573512 0.083288305 -0.28451893 -0.25732523 -0.072053015
0.072470054 -0.07387126 7.521194e-05 0.23975828 0.2082632 -0.0003272174 0.26281098 -0.071905166
0.31969368 -0.26603258 0.3026834 0.16418467 0.30818287 0.009807398 -0.21755971 0.18938927
0.1684574 0.27700183 -0.09016364 0.059780862 -0.14557463 0.20181248 -0.116548695 -0.33878127
0.15181263 -0.15894476 -0.30220437 0.18442924 0.07489719 0.32834604 0.088599816 0.11644895
0.21729185 0.026118437 0.24846753 0.1435445 0.072416715 0.14755619 -0.13631743 -0.0947473
-0.001169813 -0.28114164 -0.15985572 -0.21683227 -0.16543184 0.10599149 0.06328605 -5.2932435e-05
0.0022391155 0.12016662 -0.20482439 -0.07106569 -0.2672955 -0.32390204 0.30539972 0.2631426
0.03612428 0.21074028 -0.31122053 0.29006016 -0.17555767 0.00092838565 0.0872098 -0.054758154
0.15574709 0.11011324 -0.30484164 0.02923604 -0.017627629 0.24104553 0.00053475215 0.0631594
-0.030651554 -0.062253125 -0.211979 -0.3132384 0.36579606 0.081212714 -0.15534799 0.12529482
0.09745524 0.25396428 0.28617427 0.25689715 -0.15931858 0.2891894 -0.17349863 0.06267205
-0.25522292 0.18116108 -0.24879895 -0.33628613 0.3178784 0.33613726 0.1796254 0.02603722
-0.099312164 0.054339956 -0.035457447 -0.17419924 -0.057172976 -0.025716165 0.04562775 -0.1081977
0.021955509 0.3170167 0.09681349 0.30026528 0.24280864 -0.15844278 0.24365047 0.18336783
0.114609055 -0.28472102 -0.2982522 -0.11554664 0.25526428 -0.3363416 -0.15666918 -0.029544845
-0.10768095 -0.18967347 0.08681714 -0.17796785 0.11212695 0.27687725 0.058594905 -0.00018911931
-0.109896585 0.12558739 0.26976612 -0.15959334 0.21748249 -0.0056944937 -0.32078692 -0.31880358
0.17313859 -0.32465753 0.21817751 0.23591307 -0.06998839 0.27271932 -0.21116008 0.34676042
-0.2609027 0.008206274 -0.20423289 0.28363323 -0.2953521 -0.27378336 -0.21772373 -0.13794269
-0.080317795 0.020026978 -0.17168379 -0.19966406 0.2170469 0.15953194 0.26612878 -0.12639302
0.0780801 -0.054568797 -0.061189055 0.07152965 0.10045542 -0.24920541 -0.15741487 0.17422897
-0.0043139877 0.32415152 -0.2687483 0.22984266 0.17809002 -0.20115755 0.32005477 0.34163132
-0.23570408 0.15007131 -0.06295785 -0.30986968 -0.09958474 0.2554186 -0.25476193 -0.069586776
0.1297149 0.012573445 0.00069720583 0.12512119 -0.08488912 0.29787904 0.1722901 -0.100745685

bias f4 [320]
00000000: c894 74be 3d26 9a3e fdc5 e23d 9e6b 55be
00000010: 108b efbd b182 9fbe 828c ba3d 602c 98be
00000020: 2f34 85be 312e c73d 0c53 af3e d6ab 8d3e
00000030: c8db 873c 3bc6 04be a7c1 293d 035d 9cbe
00000040: e3fb 95be 7531 31bd 541d 8e3d 2b1b 0abe
00000050: d7df 94be 4caa a0be e3c9 843e 8c8b 02be
00000060: 900e 50be a47b c03d 572f f33d 4365 03be
00000070: 28cd a73e 44f3 863e 6865 a23e a2a9 933b
00000080: a2b7 a6bb e80c a93e 1e4e a83c 67c0 ecbd
00000090: a347 823d 5425 da3d 20f9 163e d683 91be
000000a0: d90f 913c 6ac5 403e 3af1 453e aaf9 94be
000000b0: 817f 063e e5e5 f43d 2732 0b3e fd03 98bc
000000c0: b278 cdbd 956d d0bd 5e82 00bd e0b2 70be
000000d0: 00e5 a5bb d3e2 ac3e db61 bbbd 90d3 e8bd
000000e0: 43c2 713e 2a03 d63d d2f5 af3e bb5e 983e
000000f0: c500 6dbe 177a 703d 7bce c9bd 6506 72be
00000100: 65c8 90be ba75 19be 2b49 4e3e 2aa7 ae3e
00000110: b4fb 153e bbd7 223d 7eb1 1cbe df67 36be
00000120: a1c3 7e3e e136 82be 34d2 86bd 380e 32be
00000130: af04 3f3e d2b2 5dbe 22f8 533e 0ee0 90be
00000140: 33f0 dd3b 28f5 b03e d723 833e a8ee 523e
00000150: 12b0 533e 5401 d23d b754 7fbd fb56 18be
00000160: 34de df3c d1b3 1dbe c85c 6a3e 4485 98bd
00000170: 28b7 30be eef7 863d 5404 013e cbcd 83be
00000180: 82a6 99be f3fb ac3e 6080 b63e eb48 8abe
00000190: 7a2e 39bc da8e eebc c8fa df3d ec03 233e
000001a0: 6d06 c43d 0500 90be bfd5 203c 22ed 11be
000001b0: a291 43be 32d6 0cbe 062c a43c 91f8 0abe
000001c0: bd49 a23e 8fce 6f3d add2 52be fcf9 93be
000001d0: bc21 9e3e 8967 eb3c 949d d53d 16a5 853e
000001e0: c053 9f3e a106 aebd 81bf 70be 44a6 593e
000001f0: 9ecd 3cbe aae8 75be aef5 54be 83d7 afbd
00000200: 9296 a8bd d46b e63d 49d0 dbbd 9180 f73d
00000210: 32e6 90be 06de a93e dec9 35be d9dc 57be
00000220: cb70 a73d 3298 c6bd ad21 a0bd 10f2 ddbd
00000230: 2924 813e d0ba aabc 3c3a 4ebe 284e 3ebb
00000240: d601 6cbd b643 4c3b 215b 1a3d 2aaf 39bc
00000250: 3ea7 65be 8736 163e 47a4 5a3e 0353 c8bc
00000260: 4d02 2fbe 2bcb 11be 6f66 933e b6b2 27be
00000270: 15a1 9f3e c1e5 c93c f42b 983c 0c9b b23e
00000280: 18a5 a1bd 82d4 01be f2a8 94be 1c64 87be
00000290: 2953 863e 64d1 973d a522 633e f98d a13e
000002a0: b204 26be ba91 18be 3357 b23d 4d02 c13d
000002b0: a613 f3bd 90e6 243e 06ff 4abe edfd 67be
000002c0: 2893 45be e87c 6fbe 30a7 8b3e fc3d 93be
000002d0: 8184 d03d bb9e c63d 259d 173d a9d8 db3d
000002e0: 2249 2bbe 9662 92be 63ea 823e cde4 c63d
000002f0: 7184 9a3d 9127 95be 62f5 553e 3df8 983e
00000300: 3ed2 b3b9 4efe adbd f2ff 963e edc3 033d
00000310: 20fe d23d dd4d 88be 0980 9c3e 9630 93be
00000320: 063f 60be c77a aa3e be5e 3dbe abfb 6e3e
00000330: 40dd 043e 9822 ddb9 7274 fa3d c952 92be
00000340: 77d1 d2bd a35e bb3d 9d6f cf3d 0913 1a3d
00000350: b761 493e a7f9 163b 306a 6f3e b4dc 2b3e
00000360: b912 a13e 34cc 08be 4142 793e 030c 80be
00000370: e178 203e faac 42be fdc3 1f3e 48fa 25be
00000380: b007 ab3e 1020 83be a5cc 9d3e 5b6e d43d
00000390: 5ab9 8dbd 2b37 1cbd 016d 2cbe c70b 973e
000003a0: 2d62 d0bd db28 84bd 1377 39be 7ba6 a1bd
000003b0: 6352 5bbe 9411 663e 5a36 6ebe e6d4 8f3e
000003c0: c80c 2e3e 7364 743c 5666 1f3e 6af5 2dbe
000003d0: a67f 6f3e c481 5fbe f8cb 293e cc5e 033d
000003e0: 5204 0ebd 19bd 913c e244 903e 7299 3fbd
000003f0: d138 8abe 8ac7 57bd 5723 80be c591 2a3e
-0.2388488 0.30107298 0.110729195 -0.20841834 -0.11696446 -0.31154397 0.09108831 -0.29721355
-0.26016375 0.09725607 0.34243047 0.27670163 0.016584292 -0.12966244 0.041444447 -0.30539712
-0.29293737 -0.043260057 0.06939188 -0.13486926 -0.29077026 -0.31379926 0.25935277 -0.12748545
-0.20318055 0.093985826 0.11874264 -0.12831597 0.3277371 0.26357472 0.31717992 0.004506306
-0.0050878087 0.3301766 0.020545062 -0.11560135 0.0636132 0.10651651 0.14743471 -0.28420895
0.017707752 0.18825307 0.19330302 -0.2909673 0.13134576 0.119579114 0.1359335 -0.01855659
-0.100327864 -0.10177151 -0.031374328 -0.23505735 -0.0050626993 0.33766803 -0.09149524 -0.11368477
0.23609261 0.10449822 0.34367234 0.29759774 -0.23144825 0.058710184 -0.09853836 -0.23635252
-0.2827789 -0.14986315 0.20145099 0.3411191 0.14646798 0.039756518 -0.15302083 -0.17813061
0.24879314 -0.25432494 -0.06583062 -0.17388237 0.1865413 -0.21650246 0.20700124 -0.2829594
0.0067730187 0.3456204 0.2561328 0.20598853 0.20672634 0.102541596 -0.06233665 -0.1487693
0.027327634 -0.15400626 0.22886956 -0.074472934 -0.17257369 0.065902576 0.12599307 -0.25742945
-0.30009848 0.33785972 0.35644817 -0.27008757 -0.011302585 -0.029120851 0.109365046 0.15919465
0.09571538 -0.28125015 0.009816586 -0.14250615 -0.19098523 -0.13753584 0.020040523 -0.13571383
0.31696883 0.0585466 -0.20588179 -0.2890166 0.30885112 0.028735893 0.10430446 0.26102513
0.31118584 -0.08497358 -0.23510553 0.21254832 -0.18437812 -0.24014536 -0.20796844 -0.085860275
-0.08231844 0.11251035 -0.107330866 0.12085069 -0.28300625 0.33177203 -0.17752787 -0.2108034
0.081758104 -0.09696998 -0.07818923 -0.108371854 0.252229 -0.020841032 -0.20139402 -0.0029038284
-0.05761894 0.0031168289 0.037684564 -0.011333266 -0.22427079 0.14669238 0.2135173 -0.024453646
-0.17090721 -0.14237659 0.28789088 -0.16376767 0.31177583 0.024645688 0.018575646 0.34883916
-0.07892817 -0.12678722 -0.29035145 -0.26443565 0.2623532 0.07412985 0.22181185 0.3155363
-0.16212729 -0.1489934 0.08708038 0.09424267 -0.11868982 0.16103578 -0.19823846 -0.22655459
-0.19294417 -0.23387492 0.2727599 -0.28758228 0.10181523 0.09698244 0.0370151 0.10734684
-0.16727117 -0.2859084 0.25569448 0.09711609 0.075447924 -0.2913175 0.20894387 0.2987689
-0.00034298183 -0.084957704 0.29492146 0.03216927 0.10302377 -0.26621905 0.30566433 -0.28748006
-0.21899042 0.33296797 -0.18493173 0.23338191 0.12975025 -0.0004217818 0.122292414 -0.28578785
-0.102938585 0.0914891 0.101287104 0.03761581 0.19666182 0.0023036988 0.23380351 0.1678341
0.31459597 -0.13359147 0.2434168 -0.25009164 0.15671112 -0.19011298 0.15602107 -0.16208756
0.33404303 -0.256104 0.30820194 0.10372611 -0.06920119 -0.03813855 -0.16838457 0.29501173
-0.101749755 -0.06453105 -0.1811183 -0.07893082 -0.21418147 0.22467643 -0.23262921 0.28092116
0.16997063 0.014916527 0.15566382 -0.1698815 0.23388538 -0.21826845 0.16581714 0.032072827
-0.03467209 0.017790364 0.28177553 -0.046777196 -0.26996472 -0.05268053 -0.25026962 0.16657169

weight f4 [4, 320]
00000000: 2ba2 9838 bdb1 b9bc e0f4 1f3d 675d 6c3b
00000010: cb53 843b c6e5 1d3c fbbf a9bc 893a 223b
00000020: 2ac6 dfb8 ec91 203d 5253 9cba 4087 58bd
00000030: 036a 483d 2cc9 2cba 3d6a 38bc cc2d 9938
00000040: 883c f63b 859e 163d 7ea8 e1bc f25b 313d
00000050: eeae b938 0102 07bd 4e5b f63c d0c9 57ba
00000060: e549 5c3d 8a2d 39bd 1fa1 0c3d 2e6e 90b8
00000070: f12b f0bc 2217 4f3d eb49 233d b949 503b
00000080: 0a1d ae3c 3be2 013d 85d7 81bc 00af 6d3d
00000090: 5d7d ddbc c37b 883c e3ad c8bc f441 e638
000000a0: ac34 28bc 2ca7 e3bc 65a5 f7bc 7d8e ae38
000000b0: 9694 d03b 9874 dcbc 2889 a8bc 4f35 bc3c
000000c0: 7548 cebc 3f5a debc 1309 26bb 56c2 b9b9
000000d0: fa1a 01bd dbed 473c 9a44 003c c56b 533d
000000e0: 78cf 913c 05bb fcbc 50bc d23c 2269 56bb
000000f0: 7572 12bc eddb 46bd b6fd 9b3a ea95 3e3d
00000100: f6de 6f3a 0c89 19b7 7aec f8bc cc07 1c3d
00000110: 5653 ccbc 96de d7bc bc09 a7bb 362b 723b
00000120: dc26 583c dd63 0fbd f182 613c cacf af38
00000130: f4b9 263d 4d32 b93c 8c5d 553b 72b8 79ba
00000140: 0102 5e3b 99b7 ee3c aa54 073d 7a85 08bd
00000150: e911 8bbc b13e b5bb ca27 2eb8 3255 fe3b
00000160: d9a6 e638 c0e8 22bd bda7 21bd c034 19bd
00000170: afd4 97b8 694c 95bc eeb7 603c 7532 91bc
00000180: 7e19 b2bb 2229 173d d747 af3c b9b3 c039
00000190: ee17 3bbc 972c 15bd 0d0b 763b 3ce2 5e3d
000001a0: a20e 84bc cdc6 a838 ad19 e23c 5957 233c
000001b0: 27b3 b1bc a0dc 69bc a401 1c3d 8d16 6c3c
000001c0: 8945 ebbc a264 83bc 7892 373a 6b33 fabc
000001d0: 2e3b 293d b825 2bbd 476e 3f3c 2b12 54bc
000001e0: dd38 793d fa24 403b e7d7 7c3d dd90 54bc
000001f0: 64c1 48bc 4d9a 1e3d 9bb5 ae38 1820 1abc
00000200: ef4a 9c3c 5d8e 213a f0b3 2f3d b71f e5bc
00000210: fc36 59ba eddc c7bb cb53 a13c 89b3 c539
00000220: 948a 2d3d c241 b038 bac2 4f3d a676 22b9
00000230: 2476 4a3d f760 533b faff 913c 1e24 f43c
00000240: 7986 d6bb 8cc4 b8b8 dddc 4f3d 7d2a 4c3c
00000250: 95f1 0339 9939 743d fcd1 183b 97bd cdbc
00000260: fddb f1bc b716 9138 6cd9 d83b 9ec7 80bc
00000270: 8d73 8d3c 3ab9 513c 0519 4239 58f4 4c3d
00000280: 6429 f0bc 4c35 fc37 edb7 39bd 559f 49bb
00000290: af9a e2ba 3921 753d de16 2c3c 7cb5 0cbd
000002a0: 04de 35b9 1dce 36bd eccc a13b bd8e 3c3c
000002b0: 2ff3 13bb df2d 32bd 63f3 e0bb 9a80 7bbc
000002c0: b356 99b8 cee3 0bb8 b96a 243d 40a1 95b8
000002d0: a370 ae3b aa47 f0ba 0fd3 613d 540d ca3c
000002e0: b4b6 41bc 6663 42bd 47d7 4f3d 5bd6 4abd
000002f0: c20d c6bc a787 063a 4ebe 1abd a4b3 2ebd
00000300: 35d9 adb9 2983 65bd 471c f8bc 370a 28bd
00000310: 3b8e e73c 1d0f f83b 2545 bbbc 3778 2839
00000320: 6a9b 38bc f20d 363d dedb 33ba 8a57 d13c
00000330: af9e babc 016f 163c 5e81 4c3d f8d7 873c
00000340: 7d27 c33b 8861 babb e58e 7c3a 4a3b 50bd
00000350: 8270 263c fb7a 2cbd 2b8a 23bc b9f4 d63c
00000360: 470c 543a 2c2a aabc e63e 03bd cd7e d938
00000370: 0a97 25bd cef5 1c3b 5624 9cbb 9305 ec3b
00000380: 3a1f f03c 2263 193d 1480 04bc dd9a b4bb
00000390: 2cbf 8c3b 355b ca3b 0947 10bd 59da b63c
000003a0: 2348 9ab9 511e 8238 dab6 c3b9 4369 9b38
000003b0: 5608 c5b8 8b6d 94bc 6f8a 2238 bbf0 99bc
000003c0: a1cc 713d e66c 78bc 2daf 39bc 1aef 803c
000003d0: 4cdd 143d 9c4d 5ebd f6ee 0abd 06d4 123c
000003e0: 5fb6 1b3d 7890 633c 194f c43c 373d be3a
000003f0: 104d 00b9 a099 94bc 3a47 98b8 9cae 28bc
7.278131e-05 -0.02266776 0.03905189 0.0036066414 0.004038309 0.009637302 -0.020721426 0.0024754128
-0.000106703796 0.039201662 -0.0011926687 -0.05286336 0.048929226 -0.0006591256 -0.011255798 7.304139e-05
0.00751454 0.03677227 -0.027546164 0.043300577 8.8540706e-05 -0.032960895 0.030072834 -0.00082316715
0.05378141 -0.045209445 0.034333345 -6.886978e-05 -0.029317828 0.05055917 0.039865416 0.0031782223
0.021254081 0.03170989 -0.015849838 0.05802822 -0.027037317 0.016660577 -0.024496978 0.000109795394
-0.010266464 -0.027789675 -0.030230233 8.323507e-05 0.006365369 -0.026911065 -0.020573214 0.022974638
-0.025181035 -0.027142642 -0.0025334998 -0.0003543074 -0.031519867 0.012202705 0.007828856 0.05161645
0.017799124 -0.030850897 0.02572456 -0.0032716473 -0.0089384215 -0.04854958 0.0011901173 0.046529688
0.000915035 -9.151419e-06 -0.030386198 0.038093373 -0.024942081 -0.026351254 -0.005097596 0.0036952025
0.013192859 -0.035007346 0.013764129 8.383354e-05 0.040704682 0.022606993 0.003255698 -0.00095260807
0.0033875706 0.02914028 0.033039726 -0.03333042 -0.016976314 -0.005531155 -4.152189e-05 0.007761621
0.000109983324 -0.03977275 -0.03946661 -0.037403822 -7.2398565e-05 -0.018224912 0.013715727 -0.017724255
-0.005435168 0.03690446 0.02139656 0.00036754998 -0.0114192795 -0.036419477 0.0037543208 0.054414973
-0.016120259 8.047894e-05 0.027600134 0.009969556 -0.021691872 -0.0142737925 0.038087502 0.014409673
-0.02871968 -0.016039196 0.00070027215 -0.030542096 0.041316204 -0.04178402 0.011684007 -0.012943785
0.060845245 0.0029318915 0.061729338 -0.012973991 -0.012253139 0.03872137 8.330793e-05 -0.009407066
0.0190787 0.00061628764 0.04289621 -0.027969224 -0.00082860864 -0.0060993345 0.019693276 0.00037708532
0.042368487 8.404582e-05 0.050722815 -0.00015493724 0.049429074 0.003225384 0.017822254 0.029802378
-0.006546792 -8.8104134e-05 0.05074774 0.012461302 0.0001258313 0.059625242 0.002331852 -0.025114818
-0.029523844 6.91837e-05 0.0066177156 -0.015720185 0.017267013 0.012800509 0.00018510602 0.05003771
-0.029316612 3.006556e-05 -0.04534142 -0.0030765135 -0.0017288531 0.059846137 0.010503499 -0.034352764
-0.00017344212 -0.04463016 0.0049377587 0.011508641 -0.0022575369 -0.043500777 -0.0068649515 -0.015350485
-7.3117575e-05 -3.3352342e-05 0.04014084 -7.134909e-05 0.005323486 -0.0018331904 0.05513292 0.024664558
-0.011823345 -0.047458075 0.050742414 -0.04952083 -0.024176482 0.0005131908 -0.037779145 -0.042651787
-0.00033158963 -0.056033287 -0.030286921 -0.041025367 0.028266063 0.007570161 -0.02286012 0.00016066512
-0.011267522 0.044446893 -0.0006861071 0.025554437 -0.022780744 0.009181739 0.04992806 0.016582474
0.005955635 -0.005687896 0.000963433 -0.050837792 0.01015866 -0.04210947 -0.009981672 0.02623974
0.00080889877 -0.020772062 -0.032042406 0.00010370985 -0.040427245 0.0023950222 -0.004765074 0.007202813
0.029311765 0.037448056 -0.008087177 -0.005511625 0.0042952504 0.0061754235 -0.035223994 0.022320913
-0.00029426915 6.20453e-05 -0.00037329533 7.4105825e-05 -9.395245e-05 -0.01811864 3.8752736e-05 -0.018791547
0.05903304 -0.015162682 -0.011333269 0.015739013 0.036343858 -0.054273233 -0.033919297 0.008961683
0.03801572 0.0138894245 0.023963498 0.0014514093 -0.00012235739 -0.01813966 -7.261192e-05 -0.010295536

bias f4 [4]
00000000: 5f78 83bc 0e73 5d3d f8fd 0dbc 2f7f 6b3d
-0.016048608 0.054064803 -0.008666508 0.05749434

weight f4 [4, 8]
00000000: 8dc6 86bd 8a7f 9b3d 6cf2 1c3e 7835 bcbd
00000010: 868e 9d3e 4322 5c3e b2fd 863c 0f9c 43be
00000020: aae9 493e ba59 1b3c 329a 1d3e 7834 51be
00000030: 7821 8abe e2fb 28bd 276f b33d d399 6b3e
00000040: 6f68 8bbe 2f77 b63d b2c3 3b3e 4304 04be
00000050: f353 92bd 6a2c eabd 614f f83d b8f5 84bd
00000060: 7b59 fcbd e92d b3be 8db1 a6bd c05b a4bc
00000070: 6f49 a1bd e5c8 a0be 3b86 c03d 6e76 2e3d
-0.06580839 0.075926855 0.15326852 -0.09189886 0.307728 0.21497445 0.016478393 -0.191025
0.19718042 0.009481842 0.15390852 -0.20430171 -0.2697866 -0.04125584 0.08761435 0.23007898
-0.27228114 0.08909451 0.1833637 -0.1289225 -0.07144918 -0.114342526 0.12124515 -0.0649218
-0.123217545 -0.34995964 -0.08139334 -0.020063281 -0.078753345 -0.3140327 0.094006024 0.042593412

bias f4 [4]
00000000: ea22 813c cf5c 6dbe 5259 a73e 70f1 863e
0.015763719 -0.23179935 0.32685333 0.26356077

weight f4 [4, 8]
00000000: bce0 c1ba 72a6 49bc 6b5b 213e fa81 843e
00000010: 2fb1 843e 0ac6 62b9 0530 133e 56b6 db35
00000020: 2d2e 8bbe 7b30 7abd 111c b4bd 3a95 84be
00000030: 5fb8 153e c5a9 593d 857e 4a3c 49d0 4f3e
00000040: adae 88bd 181b 6cbe d85a 4d3e 26d8 75bd
00000050: fb9f 63be efd1 793e eaea 85be 3b26 2c3d
00000060: 0a59 9a3e b246 7fbe b72e 553e 8903 86be
00000070: af9c 3c3e 2685 94ba f59c 7abe c852 b03b
-0.0014791708 -0.01230775 0.1575753 0.25880414 0.2591643 -0.00021626815 0.14373787 1.6369838e-06
-0.27183667 -0.06108139 -0.08794416 -0.258951 0.14621113 0.05314042 0.012359266 0.20294298
-0.06673942 -0.2305721 0.20054185 -0.06002059 -0.22228996 0.2439649 -0.26155788 0.042028647
0.30146056 -0.24929312 0.20818602 -0.26174572 0.18419145 -0.0011331185 -0.24473937 0.005380962

bias f4 [4]
00000000: 427e 27be d947 c23d 36d1 8cbe f7b4 18bd
-0.16356757 0.0948636 -0.27503365 -0.037281957

weight f4 [10, 2]
00000000: 972e 0cbf 9655 f03d 699d 64be 71a5 c23d
00000010: c50f 1abe 9efc 523e 7325 a13e 58b8 92be
00000020: 420c 073f 69fd 143f dd15 92be 7b33 d8bd
00000030: 9380 08bd 3675 123f 60fa 1ebf 399c 123f
00000040: d4cf d0be 386b 263e 9f1f 8a3e 6594 1cbe
-0.5475859 0.11735074 -0.22325672 0.09504212 -0.15045078 0.20604178 0.31473884 -0.28656268
0.5275308 0.58199173 -0.28532305 -0.10556694 -0.033325743 0.572101 -0.6210079 0.57269627
-0.4078356 0.16251838 0.2697725 -0.15290983

bias f4 [10]
00000000: 113f 253f d707 c9bd a67b eabe 2408 2f3f
00000010: eda2 19bf 3e64 1bbe e00c 15bc b838 30bf
00000020: a180 9ebe d126 aebe
0.64549357 -0.098159485 -0.4579746 0.68371797 -0.6001423 -0.15174958 -0.009097308 -0.68836546
-0.3095751 -0.3401399

weight f4 [10, 2]
00000000: 8243 f9bd 3d07 c5be 2582 7fbe b7c4 7b3e
00000010: 16dd babc e467 163e b84f 2d3f 70b1 23bf
00000020: 0459 593e 0922 85be a329 e93e ed9e cc3e
00000030: cbb8 e03e 2f96 babe 9004 d9be 4b9a be3e
00000040: 3647 a63e f3f6 39bd 1fbe e73e 64a0 6f3d
-0.12171079 -0.38482085 -0.2495199 0.2458676 -0.0228105 0.14688069 0.67699766 -0.63942623
0.21225363 -0.2600253 0.4553958 0.39965 0.43890986 -0.36442706 -0.42386293 0.3722709
0.32476205 -0.045401525 0.45262238 0.05850257

bias f4 [10]
00000000: 61e3 8f3e b654 8dbc 04af 24bf bb38 fabe
00000010: f1ec 263f 3a6d dd3e 4d2e 84be a306 b03e
00000020: 9ec2 183e 9719 06bf
0.28103164 -0.017252307 -0.6432955 -0.48871407 0.65205294 0.43247396 -0.25816575 0.34380063
0.1491799 -0.52382797

weight f4 [20, 4]
00000000: ac8e 01bf e3e2 d7be a089 8f3e 0685 ae3d
00000010: 0351 f0be 85b8 03bc 391b 1dbd dd7e 8fbd
00000020: c9f5 0bbe 2166 8d3e 5844 abbe 5e4f 5c3b
00000030: 5fea 943d 737d 4d3e 3853 a1be ef3f 10be
00000040: dad8 00bf 7957 eb3e 2be8 b63e e53a a03e
00000050: 2abd 26be a9d4 b13d b4d8 3c3e 9784 133e
00000060: 1d77 e63e c93b 733e 7949 bd3e 68a9 d03e
00000070: fc74 7e3e 70c9 f5be 4999 4a3e 12d4 a43c
00000080: 453a 68be 3ade f1bd ae5e e63e 0946 99be
00000090: 754e 40be 504b b03e 1e8e 9abe a1b4 dabe
000000a0: 4eaa ebbe 6da5 d1be d52b 973e a54b 553e
000000b0: f0a4 8ebe f829 eabe 34a5 9bbe 6553 b5be
000000c0: cb89 b83e 4d85 20be 8412 62be 6c5f 773e
000000d0: 49fd 07bd 3f73 8cbe e4a4 003e 924b efbd
000000e0: f7d5 b23e 614d 46be 0524 78be aa23 d5be
000000f0: 9cc3 b6be b506 8e3e e6b8 02be 38a2 e83e
00000100: 937c d23d d3ff b63c 6723 c0be 29f4 d1be
00000110: d9b1 d13e fc5e 8ebe de38 5abe 85b4 ae3e
00000120: 819a 6c3d a3c5 013f 21fd f4be 4c1d a23e
00000130: d682 88be 49e2 313e 74fa bdbe 117c a7be
-0.50608325 -0.42165288 0.28034687 0.08521466 -0.46936807 -0.008039598 -0.03835604 -0.07006619
-0.13667978 0.2761698 -0.3345058 0.0033616642 0.07271265 0.20067386 -0.31508803 -0.14086889
-0.5033089 0.45965174 0.35724005 0.31294933 -0.16283098 0.0868314 0.1844204 0.14406048
0.4501275 0.23753275 0.36970118 0.40754247 0.24849313 -0.48005247 0.19785036 0.020120654
-0.22678478 -0.118099645 0.4499411 -0.29936245 -0.18779929 0.3443246 -0.30186552 -0.42715934
-0.4602837 -0.40946522 0.2952563 0.20829637 -0.27860212 -0.45735145 -0.30399477 -0.35415187
0.36042628 -0.1567585 -0.22077376 0.24157494 -0.033200536 -0.27431676 0.12562901 -0.11684336
0.34928867 -0.19365455 -0.2423249 -0.41628772 -0.35696113 0.27739492 -0.12765846 0.45436263
0.10277667 0.022338783 -0.3752701 -0.41006592 0.40956 -0.27806842 -0.21310756 0.341221
0.057764534 0.50692195 -0.47849372 0.31662977 -0.2666232 0.17371477 -0.37105143 -0.32711843

bias f4 [20]
00000000: 3a55 21bc cf3c 353e 1e58 a83e 843f 8abe
00000010: ed56 49be 0231 7ebd 3fc9 9cbe e0d4 febd
00000020: fdff f03e 92d2 d4be ecf0 8e3e 87a8 e5bc
00000030: e77e ce3e b506 d73e f876 49bd 7432 023d
00000040: c033 be3d 65fc e53e eb39 653e 3aae e2be
-0.00984698 0.17698978 0.32879728 -0.27001584 -0.19662066 -0.062058456 -0.3062229 -0.124429464
0.47070304 -0.41566902 0.27918184 -0.028034462 0.40331194 0.41997305 -0.049185723 0.031786397
0.09287214 0.44919124 0.22385375 -0.4427355

G f4 [2, 1]
00000000: 0000 0000 0000 803f
0.0 1.0

m1x_posterior f4 [2]
00000000: f67a 1b40 5702 40bf
2.42938 -0.7500357

m1x_posterior_previous f4 [2]
00000000: a880 6f3d 4596 1040
0.058472306 2.2591717

m1x_prior_previous f4 [2]
00000000: 4854 1440 583b a2bf
2.3176441 -1.267436

y_previous f4 [2]
00000000: feea 1040 742f 0abf
2.2643428 -0.5397866

KGain_array f4 [20, 2, 2]
00000000: 0454 ef3d 1cb7 143e 89c8 0b3f 7d45 313f
00000010: e606 b53d 52d1 143e ae0a 193f c65d 453f
00000020: 567f a13d 480e 1c3e 9e8f 1c3f e86d 493f
00000030: 1c30 8f3d f210 233e de38 1d3f aad8 4a3f
00000040: 8402 8a3d 90a9 243e bc91 193f 4dde 473f
00000050: 063e 9f3d 4800 173e ebcc 1b3f 6fac 4c3f
00000060: d425 953d fac8 1f3e b0cd 1e3f cfb9 513f
00000070: c479 853d e207 2a3e 044a 203f 44d9 503f
00000080: 9ba0 8a3d 520c 173e 1a9c 183f 4ab7 563f
00000090: f3b3 d03d ea98 4f3e 342e 1c3f 7b1c 3c3f
000000a0: 8a89 943d 24f1 103e 53bf 0e3f f762 533f
000000b0: 4663 fc3d fad8 3f3e e3c3 183f 77ef 353f
000000c0: e2b8 ab3d 5e5c 083e bd1e 0d3f f22c 4b3f
000000d0: 001d f13d 26e8 413e d366 0d3f 83dd 2a3f
000000e0: d8f0 963d ce73 253e 4544 163f 2f94 413f
000000f0: 9aaf a13d 5a9d 173e 761a 133f 4b75 493f
00000100: 6a90 163e 9448 1f3e 8630 043f 1ba1 303f
00000110: 6a17 063e 2d90 333e 860d 0d3f a3df 263f
00000120: 32dc b03d 62b6 1d3e 88d9 173f 6442 3e3f
00000130: 48ed 9f3d a219 233e cdaa 153f 74fe 403f
0.116859466 0.14522976 0.5460287 0.69246656 0.088392064 0.14532974 0.5978192 0.7709621
0.078856155 0.15239823 0.6115664 0.7868333 0.06991598 0.15924433 0.614149 0.79236853
0.06738761 0.16080308 0.59988 0.7807358 0.07775502 0.14746201 0.60859555 0.7995061
0.07282606 0.1560401 0.62032604 0.81924146 0.065173656 0.1660457 0.6261294 0.8158152
0.06768914 0.14750794 0.5961319 0.83873427 0.101905726 0.20273176 0.61008 0.7348096
0.07252796 0.14154488 0.5576069 0.82572883 0.123236224 0.18735114 0.596739 0.7106852
0.08384873 0.13316485 0.5512503 0.79365456 0.117731094 0.18936214 0.5523502 0.6674425
0.07370156 0.16157457 0.5869792 0.75616735 0.078948215 0.14806119 0.5746225 0.786946
0.14703527 0.1555503 0.5163654 0.6899583 0.1309487 0.17535467 0.5509876 0.6518499
0.08635749 0.15401605 0.593163 0.74320054 0.0780893 0.15927747 0.58463746 0.75388265

prior_Q f4 [2, 2]
00000000: 0000 803f 0000 0000 0000 0000 0000 803f
1.0 0.0 0.0 1.0

prior_Sigma f4 [2, 2]
00000000: 0000 803f 0000 0000 0000 0000 0000 803f
1.0 0.0 0.0 1.0

prior_S f4 [2, 2]
00000000: 0000 803f 0000 0000 0000 0000 0000 803f
1.0 0.0 0.0 1.0

h_Q f4 [1, 1, 4]
00000000: ca21 d23e 0a11 083f 1a23 04bf 6e68 1ebf
0.41041404 0.53151 -0.5161606 -0.618781

h_Sigma f4 [1, 1, 4]
00000000: 0000 0000 365e 7d3e 0000 0000 0000 0000
0.0 0.2474297 0.0 0.0

h_S f4 [1, 1, 4]
00000000: 495c dabe 0830 a8bd 44f4 2ebf 6de6 babe
-0.42648533 -0.08212286 -0.6834147 -0.36503926

KGain f4 [2, 2]
00000000: 48ed 9f3d a219 233e cdaa 153f 74fe 403f
0.0780893 0.15927747 0.58463746 0.75388265

x_out f4 [2]
00000000: f67a 1b40 5702 40bf
2.42938 -0.7500357
