KNet/Linear_SS_No_MM/model_KNet_Linear_Dynamics_T100_r2_positive_15dB.pt (torch, 38469 bytes, 42 tensors)

weight_ih_l0 f4 [12, 10]
00000000: fb2d cebd b7d9 463c 943a dabe 0c3d e43e
00000010: 4c5a e03e 6816 953e 2b0b bfbd 39ad 9c3e
00000020: fa5d 87be 38b7 b83e b95d cdbe acdf dcbe
00000030: cea0 2fbd 61b4 e23e 032b 98be e462 a1be
00000040: 8cf4 c03e 232e 8abd 30f6 1abe 68cb 713a
00000050: d5db ac3e 489d 8fbe 36fd 603e 08ca 7abd
00000060: 9bd3 8dbe ee64 293e bf7a a7be 5956 7dbd
00000070: 323c 003f 7463 173e bb6a 75be 9988 5e3e
00000080: bb8a 4d3e dfe5 e23e 66a3 e1be 24a8 d3be
00000090: 9755 703e 74a2 ed3e a120 f7bd 6c4e 6bbe
000000a0: c981 873e ef79 fa3d 8373 79be 020d 603e
000000b0: 602b ec3e ed48 e3be b532 36be 00cf e8be
000000c0: 3036 3e3e a132 8c3c 8980 fabe c1b3 b33e
000000d0: 8b50 9b38 7e9d 34bc cb82 bebe 21d8 68be
000000e0: 4984 313d 6322 b53e 2e19 aa3e 208e 88be
000000f0: 07d4 193e f814 473e d241 4cbc 65ec 46bc
00000100: b64d 993e 9499 db3d 4ead 8c3d ffe4 86bd
00000110: 3c81 41be 966f 093e 2416 30bd 922d bbbd
00000120: ba7d 1d3e 47b2 613e d7eb d53d 3edc acbe
00000130: 184b dc3d 88d0 d03d 7d13 503e 1481 a83e
00000140: b94e eb3e 4835 0eb8 ee05 e4be f778 e23e
00000150: 34a3 773e 559e 39be a2d7 f73e 1c03 873e
00000160: a252 68be a7ca aabd 2db4 dd3d 8d0f d2be
00000170: de75 893e ff67 123e 5ddf 1cbe fbe8 6b3d
00000180: ce53 c23e 6112 87be 30d2 053e 734e 753e
00000190: 2823 183e 7e7d bb3e e777 4c3e d245 07be
000001a0: 97c7 f4be e848 403d f11b 713e 3e69 393e
000001b0: c7d1 923e 6321 2f3d 32b4 dbbe e875 853e
000001c0: 79b3 93be 950e 01be af77 aebd 55ad 06be
000001d0: 6489 5dbd 9cc4 2abe ceb5 e3be e6eb cc3c
-0.10067364 0.012136868 -0.42622817 0.44577825 0.4381889 0.29118657 -0.09328302 0.30600908
-0.26438886 0.36077285 -0.40110567 -0.43139398 -0.042877965 0.44278243 -0.29720315 -0.3152076
0.37686574 -0.06747081 -0.15132976 0.00092237303 0.3376147 -0.28049684 0.21971592 -0.06122783
-0.27700505 0.16542408 -0.32710835 -0.061849926 0.5009185 0.14784032 -0.23966496 0.21731795
0.20072453 0.44316003 -0.44069976 -0.4133922 0.2347015 0.46413004 -0.1206677 -0.22979134
0.26466206 0.12230288 -0.2436047 0.21879962 0.46126842 -0.44391575 -0.1779278 -0.45470428
0.18575358 0.017113985 -0.4892619 0.3509808 7.405978e-05 -0.011023877 -0.37209162 -0.22738697
0.043339048 0.35377797 0.33222336 -0.26670933 0.15022288 0.19441593 -0.012466865 -0.012141322
0.299421 0.10722652 0.06868993 -0.06586646 -0.18896955 0.13421473 -0.042989865 -0.09139551
0.15379992 0.22040664 0.104453735 -0.3376178 0.107565105 0.10196024 0.20319934 0.3291098
0.45958498 -3.390506e-05 -0.44535774 0.44232914 0.24183351 -0.18126805 0.48406702 0.2636956
-0.22687772 -0.08339434 0.108253814 -0.4102749 0.26847738 0.14297484 -0.15319581 0.057595234
0.37954563 -0.2638121 0.13068461 0.23955707 0.14857161 0.3661918 0.19967614 -0.13210228
-0.47808525 0.04694453 0.23545815 0.18106553 0.28675672 0.04275645 -0.42910916 0.26066518
-0.28847864 -0.12603219 -0.085189216 -0.13152058 -0.054086104 -0.16676563 -0.44474643 0.025014829

weight_hh_l0 f4 [12, 4]
00000000: a2da ee3e 794d 973e 7cdf 1abd fb58 2abe
00000010: 5c1d 3bbe 64ad 0dbe c518 8f3e aebd 213e
00000020: d8f7 c3be af74 08be f119 9dbe 7218 fb3c
00000030: 0639 fa3d d484 e4bc fb60 43bd cf89 c53e
00000040: 89eb ee3e 56a7 a1be 49ca 543e 9f85 d3be
00000050: 2228 963e 973e a23e 99fb db3e fd4b b63e
00000060: 3b71 38be 5e04 833c a8a5 afbe ff4a 843e
00000070: c738 5abe 9a89 5fbe ee7e a4be a9f8 d83e
00000080: 5b11 b0be 81ed b13e a012 01bf ee27 723e
00000090: 6510 813e 7baa bbbe 7e28 b6be c540 a9be
000000a0: 9553 733e 8973 d5be 2256 ed3e c7e1 a3be
000000b0: 81b0 01bf 865c f2be b92b b93e 1cf6 f43d
0.4665118 0.29551294 -0.037810788 -0.16635506 -0.18272918 -0.13835675 0.27948585 0.15795013
-0.38275027 -0.13325761 -0.30683854 0.030651305 0.122179076 -0.027895369 -0.04769991 0.38581702
0.46664074 -0.3157298 0.2078029 -0.41312882 0.29327494 0.31688377 0.4296539 0.3560485
-0.18011944 0.015993293 -0.34306073 0.25838467 -0.21310721 -0.21829835 -0.3212809 0.42377213
-0.3438824 0.34751514 -0.50419044 0.23648044 0.2520782 -0.36653504 -0.35577768 -0.33057228
0.23762353 -0.4168971 0.46354777 -0.32008192 -0.5065995 -0.47336215 0.3616617 0.11961004

bias_ih_l0 f4 [12]
00000000: d1be f3be 812f 833e 8696 be3e 7726 a53e
00000010: 278a 373e a152 13be e85a 14be a4d9 8b3d
00000020: 7e65 64be b1cf 573e a868 fcbe 783b 893e
-0.4760652 0.2562218 0.37224215 0.3225591 0.17923795 -0.14386989 -0.14487803 0.06828621
-0.22304341 0.21075322 -0.49298596 0.26803184

bias_hh_l0 f4 [12]
00000000: 66fc 943e 8ee7 c3be c92e 8cbe 1e11 aa3e
00000010: f797 563e 1662 623e e232 8dbe 0055 ce3e
00000020: da04 c6bd 005e ce3d 1cd7 49bc bd57 8fbe
0.29098815 -0.382626 -0.27379444 0.33216184 0.20956407 0.2210773 -0.27577883 0.40299225
-0.09668894 0.10076523 -0.0123193525 -0.27996626

weight_ih_l0 f4 [12, 14]
00000000: c2b0 86bd 0a59 a83e 90e8 d73e caa1 92be
00000010: 17c1 9abe 695f 3c3d f24e ba3e 65f6 bb3c
00000020: b8d1 c6be 1121 3c3e 3157 05be 1a48 da3d
00000030: fe0a 5a3d cdd8 29bd e3d4 dbbe be1f 3d3e
00000040: a9f6 a9be 9e8e d2be a5b3 423e ce77 f3be
00000050: fabd 973e 100e 8c3e 32a6 bb3e 56c3 3fbe
00000060: 737f e9be 8f35 a1bd cfd5 c73e 06f8 c7be
00000070: 44a8 9c3d 668b 563d 0755 dd3e 40d0 99be
00000080: 4432 5dbe 4245 cf3e 034f ddbe f35a 9b3e
00000090: 9b78 363e 18c6 81bd b748 7a3e ac38 f6bd
000000a0: 96c7 883e aab6 0e3d 6a01 76be a322 d1be
000000b0: a436 44bd 5e02 5d3d 4589 cd3e be3d 5ebe
000000c0: 4783 61be 20c0 5d3d f3b5 2f3e 7cfb b73e
000000d0: d59f a23c ab67 3ebe a981 693e db76 0c3e
000000e0: 90d8 f3bd cb9c a93e 8535 783e 07e0 85be
000000f0: aec3 c13e bae7 9f3e 5e0a d3bd 3e97 c3be
00000100: 29a8 a23e 3960 953e f956 95be 8dc9 ecbe
00000110: 9ab7 d6be 3d0e c43e 74dd e73e 0c8b 05bd
00000120: e29b 61bd d9bd 4f3e 3b1f b8be b01f dcbe
00000130: 9159 0bbd 7416 debe e463 48be 65c3 9f3e
00000140: 9afc f93e da82 2fbd e601 4a3e 2d27 cebd
00000150: f4f0 573e 5c7f 2d3e 89ae ef3e bbee 2c3e
00000160: e448 693e 033a 9d3e 2ac8 07be 5a18 c83e
00000170: a905 dcbc 1e9b b7be 4a3e 3e3e 8e8b 0abe
00000180: 221d f8be 492e 70be f114 a83e 2623 f8be
00000190: 7790 dcbe 72c3 a63e d736 af3e e10a 353e
000001a0: f445 ecbd 3626 8fbe 820d d1be c0a1 8fbe
000001b0: aee1 e63d cf59 ac3e d4cf febe ca4b 8eb9
000001c0: d499 dcbe 5236 ee3d 0ec4 20be 30da c93e
000001d0: b1be 4fbb 51d0 f03e 9b7e 6a3d 4ee7 a53e
000001e0: 17d8 643e 8164 f1be c88b 62be 9487 afbe
000001f0: 4dac 4bbe 942d c63e a4dc d1be 62da e83e
00000200: bba5 37be 2f13 9f3e 0893 aa3e 4b98 e0be
00000210: bd45 283e a110 c13e 44e2 3abd e119 fa3e
00000220: 9664 afbd e192 cd3e 2c24 df3e a177 573e
00000230: c550 f7bd a352 cd3d ea23 ea3e bbcd c7be
00000240: 2582 1dbe 2871 af3e fbfc cdbe 1c1c da3e
00000250: 5d9f 3b3e b49e e13e f26d 73bc d9bb 763e
00000260: a935 a3be dab1 893c 3bf9 d4be d979 df3e
00000270: 1b87 003f 09c8 843e 1f62 803d 3b4d bebe
00000280: 39c3 db3e 5a49 ca3d a46c fabe c582 e13d
00000290: 0099 a5b9 4d94 da3e 7820 9d3e f314 c2be
-0.065766826 0.3288043 0.4216962 -0.2863906 -0.3022544 0.045989428 0.36388355 0.022944639
-0.38831878 0.18371989 -0.13021542 0.106582835 0.05323314 -0.041466523 -0.42935857 0.1846914
-0.33196 -0.41124433 0.19013841 -0.4755234 0.29637128 0.2735448 0.36650234 -0.18726858
-0.4560505 -0.078715436 0.3903031 -0.39056414 0.076492816 0.052379034 0.43228933 -0.30041695
-0.21601206 0.40482527 -0.43224344 0.30342826 0.17819445 -0.063366115 0.24441801 -0.12022528
0.26714772 0.03484217 -0.24023977 -0.40846738 -0.04790367 0.053957336 0.4014379 -0.2170324
-0.22022735 0.054138303 0.17159252 0.35934055 0.019851604 -0.18594234 0.22803368 0.13717215
-0.119065404 0.33127436 0.24239166 -0.26147482 0.37844604 0.3123148 -0.10304712 -0.38201326
0.3176892 0.29174975 -0.29167917 -0.4624752 -0.41936952 0.38292113 0.45286143 -0.03260331
-0.055080302 0.20287265 -0.35961327 -0.42992926 -0.034020964 -0.43376505 -0.19569355 0.31203762
0.48825532 -0.0428494 0.19727287 -0.10066066 0.2108801 0.16943115 0.46812847 0.16887943
0.22781712 0.30708322 -0.1325995 0.3908108 -0.026858168 -0.35860533 0.18578449 -0.13529798
-0.48459727 -0.23455156 0.32828477 -0.48464316 -0.43078968 0.32570988 0.34221527 0.17679931
-0.1153678 -0.2795884 -0.40830618 -0.28053093 0.11273514 0.3366227 -0.49767935 -0.00027140818
-0.43086112 0.116314545 -0.15699789 0.39424276 -0.0031699354 0.47033933 0.057249647 0.32403034
0.22348057 -0.4714699 -0.22123635 -0.34283125 -0.19889946 0.38706648 -0.40988648 0.45479113
-0.17934315 0.31069323 0.333153 -0.4386619 0.16432853 0.37708 -0.04562594 0.4884787
-0.08564107 0.40151122 0.43582284 0.21041729 -0.120759524 0.10025527 0.45730525 -0.39024147
-0.15381677 0.3426602 -0.4023207 0.4259957 0.18322511 0.44066393 -0.014857756 0.24095096
-0.31876877 0.016808439 -0.41596398 0.4364765 0.50206155 0.25933865 0.06268715 -0.37168297
0.4292238 0.09877272 -0.4891101 0.110112704 -0.00031585246 0.4269127 0.30688834 -0.37906608

weight_hh_l0 f4 [12, 4]
00000000: 3409 583e d998 e9be b698 0c3d 7792 74be
00000010: 3ace 91bc 1721 e83d 3755 98be 142b 96be
00000020: 6bc6 b73e 0722 9dbe 4377 d2b7 81f4 ddbe
00000030: 493c 9fbe 0c93 e43e f9ca 84be 5a56 1fbe
00000040: ff27 8dbe 10ed acbe b823 6dbe d843 b6be
00000050: 94bb c33e 381c 003f 5ed3 26be 3c69 9c3b
00000060: 75e6 d6be 49c5 26bd f684 60be c9af 943e
00000070: 863c df3e 3d84 e93e 71a6 45b8 2ba7 14be
00000080: 4692 a6be 209f 533e 33de d53e cc3c 87be
00000090: 0c20 b13e 908e f73d 5a70 0b3e c925 f73d
000000a0: 5c2d 6f3e 00ee 893e 0da7 c43d 0de4 f33e
000000b0: ccaf 86be de0c c03e 73c6 d73e e637 a43e
0.2109726 -0.45624426 0.034325324 -0.23883997 -0.017798532 0.113344364 -0.29752514 -0.2932974
0.35893568 -0.30690023 -2.5089486e-05 -0.43350604 -0.3110068 0.44643438 -0.25936106 -0.15560284
-0.27569577 -0.33774614 -0.23158157 -0.35598636 0.38229048 0.5004306 -0.16291568 0.004773287
-0.419727 -0.04071549 -0.2192572 0.29040363 0.43600863 0.45608702 -4.712347e-05 -0.14516895
-0.32533473 0.2066617 0.41771087 -0.26413572 0.34594762 0.120877385 0.13617077 0.12067754
0.23357147 0.26939392 0.09602175 0.47634926 -0.26305997 0.37509817 0.42143592 0.32073897

bias_ih_l0 f4 [12]
00000000: 6663 123e 3303 d7be 47d3 20be dbe3 ffbe
00000010: bd84 e5bd 9d55 44be 0604 a4be a8d2 a9be
00000020: 87a9 013e aabb 34be e603 a63e 1560 38be
0.1429573 -0.41994628 -0.15705596 -0.49978527 -0.112069584 -0.19173284 -0.3203432 -0.3316853
0.12662326 -0.17649713 0.3242485 -0.18005402

bias_hh_l0 f4 [12]
00000000: 127e 88be 0022 743e 1956 8c3e c836 dd3d
00000010: d8ba 11be e427 153d c2fc 993e af05 cebe
00000020: b97a 0fbd df8c f2be a6c0 68be 843f df3e
-0.26658684 0.23841095 0.27409437 0.10801464 -0.14231431 0.036414996 0.3007565 -0.4023871
-0.035029147 -0.473731 -0.2272974 0.43603146

weight_ih_l0 f4 [12, 24]
00000000: fd37 a63e cb2f 613d 4259 e63e ff38 1dbe
00000010: 4bc7 e9be cef4 86be 15f3 2a3e cb91 96be
00000020: 0b03 39be ab3e 3ebe be76 653d e243 e23e
00000030: bff8 5fbe 5f8b f7be f5fc 87be fb7f a93e
00000040: 33c6 cc3e 0ed1 a93e ef24 913d dd41 563d
00000050: bb76 07be c198 8b3e 20f8 d2be 7ced b6be
00000060: a870 573e 828c 1abe 3e09 493d c66b c3be
00000070: a336 0a3e 0cc8 32be 26e1 85be e8ff 903e
00000080: 0254 44be 5866 c3bd 8d68 f9be 8011 c53d
00000090: 338f 59be 6067 f2be fcf5 713e 0661 5cbe
000000a0: fe7e d8bd 976a 0cbe d081 f5be 2408 f43e
000000b0: 979e 403d 30ab babe 68d7 39bd 36dd b03d
000000c0: df25 b3be c6ab 4abe 4b30 f13d b9f0 07be
000000d0: ff00 2ebe b017 ae3d dc6c 563e 8387 553c
000000e0: f0e2 f1bd f2a5 c73e 0cbd fdbe e8aa 54bc
000000f0: b2c8 bd3e fe6e d4be 0377 9f3e dded ac3c
00000100: 44be 9c3e 02c1 dd3e 3f00 95be b9c1 e23d
00000110: 816e 733e ca23 b13e 616a d53d 1d42 b1be
00000120: 3aec b93e 73ea 68be bf6a ac3e 8464 a43e
00000130: a2ee 93bc 3a9b b0bc 0a5a a6bd 0414 f9bd
00000140: 3664 8b3d 5470 4bbe 3577 aebd 4fce f9be
00000150: 3a1c ec3e 7fa8 a83e d0bd f73e 550b 11be
00000160: e2b2 903e 9f8f be3e dabd 1b3e 5436 d2be
00000170: 6c93 afbe 04b7 a33e af6e 82bd 2c30 1e3d
00000180: 4e4b 413e 7cc3 7ebe 5a40 9e3e 39fb eabe
00000190: dbe6 c7be 5134 f1be b5bb 4c3c 2302 263e
000001a0: 5293 79be 3094 ccbe 27c3 fbbd a695 42be
000001b0: dee6 e2bc 008f 813e fdf1 903e 688e 4c3d
000001c0: ba63 ae3e eadc ecbe 21b0 c73e 48ee 41bc
000001d0: 3a39 e03d 3894 663e aeba bdbc d3cc 7e3e
000001e0: 4f6d 8b3d 3bb5 e93e 3a89 98bd 82d0 c23d
000001f0: 05ef 0b3e 599d d3be c347 f03e d60d e23e
00000200: d9de 80bd 7346 5bbe c4e2 b73d dd8f c53e
00000210: dd6c 86be 2bd5 9c3e 8df6 0dbc 5d70 d0be
00000220: a54b 143e 6b2d 1f3d fdff f6bd 4ef9 8fbe
00000230: 7eab 1b3c daa3 a7be b246 693d f2d3 09bd
00000240: 7db3 c33d bfb4 a23e 1f39 14be ad07 87be
00000250: a22c f63b 8f05 e8be 6f9d 62bb fd2a a73d
00000260: fd33 4f3b 1368 ebbe 14d1 713e 66f8 a5be
00000270: 5f7b 3b3e 2ccd 9b3c 2d11 84be 5ef6 973e
00000280: b77a 13bd 6926 5dbe 9555 673e 3c69 4e3e
00000290: ba46 39bd 3d24 013e 38a9 e03e 4ebc 2dbe
000002a0: 9da3 163d fa6a 853c d0d8 b53e 3dea 023e
000002b0: f0d4 983d b1a7 fcbe 4a0d b13e 2da5 b23e
000002c0: 7544 9b3e ad41 2b3e 8de0 bcbe 8c2f cb3d
000002d0: 5349 8d3d 08cb e4be 49c5 9dbe 13e8 9f3e
000002e0: ae8a c83e 0015 153d 9e3e c63d d677 673e
000002f0: 7923 f5be 4270 5dbe a617 91bd fa4c 7dbe
00000300: 38b7 cbbe a695 893e ccee f83e 83c7 3c3e
00000310: 0b73 cdbd 09c9 403e da7a ffbd 7d81 3b3e
00000320: 43bb c7bd 73d2 ffbd 55d6 77be 7ae5 3a3e
00000330: f651 c63d bbd9 42be 2991 d1be bbb3 9fbe
00000340: f4e0 963e fbc2 dabe 0f02 f2be ebf6 d03e
00000350: 60ab d53d 1071 42bd f934 b5be 9987 31be
00000360: 7e90 90be 562b 45be 7fab 78be c3bf 93bd
00000370: c0d3 1d3e a780 aabe 952b f1be 60db d4be
00000380: 0040 a1be d24d 983e 336f a6be effd ce3e
00000390: ad4f a73e 0224 fbbe 283d 6abe 7bfb a03e
000003a0: 83c9 13be a573 bf3e f1f4 eebe 6a90 ae3e
000003b0: c677 aa3e 3468 3dbe 99a3 9b3e e3c4 9fbe
000003c0: b922 123e e8c7 cc3e 175d 703e e91b 02be
000003d0: 0651 23bd 7cc7 ea3e 53d9 643e a8de d43e
000003e0: b314 cfbe 9c25 943c 63fc 98be bba7 f13e
000003f0: 55ec bfbe e6b1 2abe 5fb4 c6be 657d 32be
0.3246459 0.05497722 0.44989973 -0.15353774 -0.4565986 -0.26358646 0.16694291 -0.29408106
-0.18067567 -0.18578593 0.056021444 0.44192415 -0.21872233 -0.4834852 -0.26560178 0.33105454
0.39994964 0.3316731 0.07087123 0.052308906 -0.13228886 0.2726498 -0.4120493 -0.3572806
0.21039069 -0.15092662 0.04908108 -0.38168162 0.13497405 -0.17459124 -0.26148337 0.2832024
-0.19172671 -0.09541005 -0.48712578 0.096224785 -0.21246032 -0.47344494 0.23628992 -0.21521387
-0.10571097 -0.13712536 -0.47950602 0.4766246 0.047026243 -0.3645873 -0.045371443 0.08635943
-0.3498983 -0.19792089 0.11776789 -0.13275422 -0.16992567 0.08500612 0.20939964 0.013032797
-0.11810863 0.38993794 -0.49558294 -0.0129802 0.3706718 -0.4149093 0.31145486 0.021109516
0.3061391 0.43311316 -0.2910175 0.11072106 0.23772623 0.34597617 0.10420681 -0.34620753
0.3631304 -0.22745685 0.3367519 0.32107937 -0.018058125 -0.021558393 -0.08122642 -0.12162021
0.06806223 -0.19867069 -0.08518831 -0.48790213 0.46115285 0.32941052 0.48387003 -0.14164479
0.28261477 0.3721895 0.15209141 -0.41057074 -0.3429216 0.31975567 -0.063687675 0.03862016
0.18876383 -0.24879259 0.3090847 -0.45894793 -0.39043316 -0.47110227 0.012495925 0.16211753
-0.24372604 -0.39956808 -0.12293082 -0.19002399 -0.027697977 0.25304413 0.28309622 0.049940497
0.3406046 -0.46262294 0.39001563 -0.011836596 0.10948415 0.22517478 -0.023160305 0.24882822
0.06807958 0.4564608 -0.07448049 0.09512426 0.13665397 -0.41330984 0.4692975 0.4415118
-0.06292505 -0.21413593 0.08978799 0.3858632 -0.2625493 0.30631384 -0.008664739 -0.40710726
0.14481981 0.038861673 -0.12060545 -0.28119892 0.009501336 -0.32742196 0.056952186 -0.033649392
0.09555719 0.31778523 -0.14474915 -0.26373044 0.007512645 -0.4531674 -0.00345787 0.08162496
0.003161668 -0.4597784 0.23614913 -0.32416075 0.18308781 0.019018732 -0.25794354 0.2968015
-0.036005702 -0.21596684 0.2259124 0.20157331 -0.045233466 0.1261148 0.43879104 -0.16966364
0.036777128 0.016286362 0.35516977 0.12784667 0.074624896 -0.49346688 0.3458045 0.34891644
0.30325666 0.16724272 -0.3689007 0.09921178 0.06898751 -0.4468615 -0.3081458 0.31231746
0.39168304 0.03639698 0.09679912 0.22604308 -0.47878626 -0.21624854 -0.07084589 -0.24736395
-0.39788222 0.26871985 0.48619688 0.18435483 -0.10031708 0.18826689 -0.12474604 0.18311115
-0.09752514 -0.12491312 -0.24202855 0.18251601 0.096836016 -0.1902837 -0.4093106 -0.3119181
0.294685 -0.42726883 -0.47267196 0.40813383 0.10433078 -0.047471106 -0.35391977 -0.17336883
-0.2823524 -0.19254813 -0.2428417 -0.0721431 0.15412807 -0.3330128 -0.47103563 -0.4157362
-0.3149414 0.29746872 -0.32506713 0.4042811 0.32677975 -0.4905091 -0.22874892 0.31441864
-0.1443234 0.37392917 -0.4667125 0.34094554 0.33294505 -0.18496782 0.30398253 -0.312049
0.14271058 0.39996266 0.23473011 -0.1270596 -0.03987219 0.4585532 0.22348528 0.41576123
-0.4044548 0.01808434 -0.29880056 0.4719828 -0.37484995 -0.16669425 -0.38809487 -0.17430647

weight_hh_l0 f4 [12, 4]
00000000: 6800 133e a89c f4be 39ae 3f3e 2812 8abd
00000010: 7cae 783d 360b 8abd 325c 30bd e3f1 b8be
00000020: 126f 0d3b feb4 f23e ffc0 cb3e 020c dcbe
00000030: 6da1 efbe 81dc f73d 7d37 a93e 938c 9b3d
00000040: f0bf ab3e 857e 353e b82c 1cbd 8719 f63e
00000050: 2cb7 9cbe d104 ccbe 7688 bf3d 9fe8 23be
00000060: ead5 8f3e b520 dbbe 0379 4b3e 4a9a e03d
00000070: 6894 2e3e a457 7fbe 5004 8f3e 73e4 fcbb
00000080: fce3 c7bc 6ac7 00be cd0c f43e d7b8 173e
00000090: c407 afbe 5ee5 be3e 1e8b 4c3e 1c82 e63e
000000a0: 9306 653e 88e3 99be 51a7 4b3e 996c e23e
000000b0: cc5d 8fbc db49 d43e 264c 733e ffe4 c03e
0.14355624 -0.4777577 0.18718804 -0.06741744 0.060713276 -0.067404196 -0.043056674 -0.36122045
0.0021581096 0.4740371 0.39795682 -0.4297791 -0.46802846 0.12102605 0.33050147 0.07595172
0.33544874 0.17724045 -0.038128585 0.4806635 -0.306085 -0.39847425 0.093522 -0.16006707
0.2809289 -0.4279839 0.19870381 0.10966928 0.170488 -0.24935776 0.27932978 -0.007717663
-0.024400704 -0.1257607 0.47666016 0.14816605 -0.34185612 0.37284368 0.19974944 0.4502114
0.22365789 -0.30056405 0.19888045 0.44223478 -0.01750078 0.41462597 0.23759517 0.3767471

bias_ih_l0 f4 [12]
00000000: 84ea 053e a726 fbbd 70bc d43e 142d e93e
00000010: 6846 8c3d 2ca8 9bbd 055c 6fbe 67de 9f3e
00000020: 9c7e a7be 266e be3e cd91 78be bbec a03e
0.13077742 -0.12263232 0.41550016 0.45542204 0.068493664 -0.076004356 -0.23374946 0.31224367
-0.32713783 0.37193412 -0.24274369 0.3143061

bias_hh_l0 f4 [12]
00000000: fdbc 23be f218 8cbc 6ca8 61bb 9057 e4be
00000010: 1072 043e 0685 d83e 3b44 c33e d70a 98be
00000020: 7a9a ba3e 054d f4be 4f98 563e 0896 ebbe
-0.15990062 -0.017101739 -0.0034432663 -0.44598055 0.12934136 0.4228899 0.38137993 -0.2969577
0.3644598 -0.4771501 0.20956539 -0.46012902

weight f4 [4, 4]
00000000: 881d fa3d 70b9 173e 8147 123d 4a09 e83e
00000010: f493 983e d808 91bd 990d 47be 4051 523e
00000020: 0f7f 4cbd bd6d 1dbe f159 63be 0619 163c
00000030: 59ba fb3e 6cb5 d43e 2de6 eebe 46b0 023f
0.12212664 0.14816833 0.035712723 0.45319587 0.2980038 -0.07081765 -0.19438781 0.20538807
-0.04992586 -0.15373893 -0.22202279 0.0091612395 0.4916561 0.41544664 -0.46659985 0.5105022

bias f4 [4]
00000000: ae5b c93d 0672 bd3d d32d da3e df84 673e
0.0983194 0.09250264 0.42613086 0.2260928

weight f4 [320, 8]
00000000: 20eb 33bc 97ae 5eb9 dde6 983e 40af 08bd
00000010: 0547 0b3e 925e e4bd d29f 9b37 92a1 9ebd
00000020: 35a3 073d 1352 d3bd 5611 43be d2cc 663e
00000030: ed09 e2bd 591b 083e e464 b7be 51da 71be
00000040: 4db6 b13d 451e 483e 5777 5a3e f115 903e
00000050: eef2 ae3e 7461 ff3d c8f0 7abd a444 f63c
00000060: 0f8b 89be 5a24 9e3e 3097 27be 0b42 9fbe
00000070: 1b6c d3bc 12a7 06be 4b1e 00be 10bf 0d3e
00000080: 2f69 953e 1ede 3a3e f317 a6be 1f7e e9bd
00000090: 0a40 16bd 0441 d73d 0dad 47be e35c 8bbe
000000a0: f479 fa3b bbc2 493e 9df2 fb3d cfb0 9a3c
000000b0: 8181 ccb7 f5aa 9abe 64fb e0b6 1fd7 a23d
000000c0: 014a d23d 6817 97be a81d 2f3e 2608 8c3e
000000d0: 2430 6b3e 4fac 95bd 1b19 9b3e 97ea 763e
000000e0: f8cf a2bd 609d 453e 010d 59be 5585 83be
000000f0: 437a a83d 19fd 91be 444d 83be c41a 91bd
00000100: 1295 853d 3171 88bd 7965 dfb7 84e9 6d3e
00000110: 59ac 4d3e cedd 1eb9 6dc1 823e f56d 84bd
00000120: b39b a33e eada 84be bdff 993e b13b 283e
00000130: b65b 9e3e 0da3 01bc f96e 5cbe d945 463e
00000140: e62c 303e 4866 8b3e 3091 bdbd e575 7c3d
00000150: 870c 12be cedf 623e ac06 ecbd fbd3 afbe
00000160: 24f3 353e a3f3 38be dbce a4be 7e99 4f3e
00000170: b98d 863d 25df ae3e 73aa d83d 8fc5 c03d
00000180: d31c 5c3e 9ff1 013d e008 7f3e 0cef 113e
00000190: 217e 943d ade1 2a3e 039e 0cbe 1b19 ccbd
000001a0: d04b 453c b559 9fbe 0793 56be 4729 7bbe
000001b0: 4494 45be 4757 0b3e 5583 e03d 5394 98bc
000001c0: 8866 7cbc a653 053e fab8 45be a1cb a0bd
000001d0: 0aa2 80be 6417 aabe e331 963e fc6d 8f3e
000001e0: 27a3 ee3c 6b35 503e 1c89 9bbe 27b4 903e
000001f0: 2333 2cbe cfa5 003a 7fae a33d 41f3 42bd
00000200: 71ed 173e 717f d23d 2f45 98be f525 b73c
00000210: 734d 36bc d93a 6f3e bb0d 30b9 3a2e 653d
00000220: 6cb2 f7bb b574 abbd bbf7 5dbe c58a 9fbe
00000230: a210 ad3e bf4f cd3d 2745 1abe 1c3a f03d
00000240: 5a54 da3d b6b9 7a3e de19 8f3e 61bc 843e
00000250: 8311 1dbe ac21 973e 26c2 2bbe 60aa 773d
00000260: 6006 7fbe 5645 2d3e 865e 83be 94a9 a9be
00000270: e699 a03e cc90 ad3e b250 433e f22e a43c
00000280: 1d6a bcbd 6a3f 413d 1040 e9bc 42cf 2abe
00000290: afc8 4cbd 0bfa 9abc 9dd2 1d3d b494 cebd
000002a0: 2fe7 cd3b 5d1e 983e b847 a33d b0b4 903e
000002b0: 727d 673e 6faf 27be 56c8 673e 98e1 293e
000002c0: 7f7a e63d d3b9 90be ca33 98be a2fe ecbd
000002d0: 4d78 823e 360e a5be bf0f 21be f93f f5bc
000002e0: 8991 08be 8f1e 6dbe 4f90 f03d a6d6 58be
000002f0: 9570 153e 74bc 9e3e b45d cd3d 538a 1fbd
00000300: 6156 d2bd e351 f53d dd37 873e 2659 1ebe
00000310: 4c9e 643e 4dbb 573c 6c78 a1be 2140 a2be
00000320: 3981 2f3e 0a01 a5be bd8b 5f3e 1b61 733e
00000330: 05a6 8ebd d769 7a3e 16ef 56be 0fee ae3e
00000340: acd3 8dbe 08ff c63c e806 42be 4879 893e
00000350: aea5 9dbe 46d2 89be cabb 6dbe f71a 20be
00000360: b15f babd b3c0 153d 2d57 33be 4c3d 60be
00000370: afca 713e 30ad 363e a48f 903e 1b0d 12be
00000380: bebe 993d 1a7e 52bd dc48 70bd f4f5 853d
00000390: 3e6e be3d c7b0 8bbe 21da 20be a540 323e
000003a0: 35e0 68bc ab74 aa3e 6b7e 85be 362a 5b3e
000003b0: dbfb 303e a957 5cbe 606d 9f3e 35ba b43e
000003c0: 64c7 75be 15dd 1d3e 4603 80bd a74f 9fbe
000003d0: c75c cbbd e6ec 8d3e 7480 83be de62 95bd
000003e0: f26b 343e ddf4 2a3d 8023 813b 7a03 2d3e
000003f0: 8931 f0bd fc42 a83e 9db0 5d3e ad56 07be
-0.010981351 -0.0002123661 0.29863635 -0.033370256 0.1360131 -0.1115085 1.8551862e-05 -0.07745661
0.03311463 -0.10318389 -0.19049582 0.2253907 -0.110370494 0.13291682 -0.3581916 -0.23618437
0.08677349 0.19542797 0.21334587 0.2814174 0.34169716 0.124697596 -0.061264783 0.030062027
-0.26863906 0.3088711 -0.16366267 -0.31105074 -0.025808385 -0.1314967 -0.12511556 0.13842416
0.2918181 0.18248793 -0.32440147 -0.11401009 -0.036682166 0.105104476 -0.19499607 -0.27219304
0.0076439325 0.1970319 0.12302134 0.018883137 -2.4379e-05 -0.30208555 -6.704986e-06 0.07951187
0.102680214 -0.29510045 0.17101157 0.27349967 0.22967583 -0.07308256 0.3029259 0.24112926
-0.07949823 0.19298315 -0.21196367 -0.25687662 0.082264446 -0.2851341 -0.25644886 -0.07085183
0.065225735 -0.066622145 -2.6630923e-05 0.2323361 0.20085277 -0.00015150683 0.25538197 -0.06466285
0.31954727 -0.25948268 0.30077925 0.1642902 0.30929345 -0.0079124095 -0.21526708 0.19362582
0.17204627 0.27226472 -0.09256208 0.06163587 -0.14262591 0.22155687 -0.1152471 -0.34341416
0.17768532 -0.1806169 -0.32189068 0.20273396 0.0657 0.3415462 0.105793856 0.09412681
0.2149537 0.03172457 0.2490573 0.14251345 0.0725062 0.16687651 -0.13732152 -0.09965726
0.012042001 -0.3112313 -0.20954524 -0.24527465 -0.1929484 0.13607512 0.109625496 -0.018625414
-0.015405305 0.1302019 -0.19308844 -0.07851339 -0.25123626 -0.3322097 0.29334936 0.280136
0.029130531 0.20332877 -0.30378044 0.28262445 -0.16816382 0.000490752 0.07992267 -0.047595266
0.1483667 0.10278214 -0.29740283 0.022356967 -0.011126864 0.23362292 -0.00016789783 0.05595229
-0.0075591113 -0.083718695 -0.21676533 -0.3116056 0.33801752 0.10024976 -0.15065442 0.117298335
0.1066062 0.24484906 0.27949423 0.25924972 -0.15338711 0.29517877 -0.1677328 0.060465217
-0.24904776 0.16920981 -0.25658053 -0.3313719 0.31367415 0.33899534 0.19073752 0.020041917
-0.09199927 0.047179617 -0.02847293 -0.16680625 -0.049996074 -0.018918058 0.038530935 -0.100869566
0.0062836627 0.29710665 0.07972664 0.28262854 0.22606447 -0.16375516 0.22635016 0.16589963
0.11253833 -0.28266773 -0.29727012 -0.11572005 0.25482407 -0.32237405 -0.15728663 -0.029937731
-0.13336767 -0.23156188 0.11746275 -0.21175632 0.14593728 0.31003153 0.10027638 -0.038950276
-0.10270382 0.11978509 0.26409808 -0.15463695 0.2232601 0.013167215 -0.31537187 -0.3168955
0.17139138 -0.32227355 0.2183065 0.23767512 -0.069652595 0.24454437 -0.20989642 0.34166
-0.27700555 0.02429153 -0.18947947 0.26850343 -0.30790466 -0.26918238 -0.23216167 -0.15635286
-0.09100283 0.036560725 -0.17513724 -0.21898383 0.23612474 0.17839503 0.2823459 -0.14262812
0.07507084 -0.05138979 -0.058663234 0.065410525 0.09298371 -0.27283308 -0.1570821 0.17407472
-0.014213611 0.33292136 -0.26073012 0.21402821 0.17283575 -0.21517815 0.31138134 0.35298315
-0.24001843 0.15416367 -0.06250624 -0.31115457 -0.09929805 0.27719802 -0.2568394 -0.07294248
0.17619303 0.041737426 0.0039409995 0.16895857 -0.11728198 0.32863605 0.21649404 -0.13216658

bias f4 [320]
00000000: 2efb 6cbe 6a8f 9a3e f52e e33d a6b3 57be
00000010: 60aa 08be 80b3 9bbe 8eeb 8e3d adc9 97be
00000020: 8966 81be 3a32 c23d 8fb9 ae3e 74b7 843e
00000030: 11ae 8f3c 63a8 35be 7e05 5e3d fc8d 98be
00000040: 332d 92be f66e 44bd 5046 853d f376 0fbe
00000050: 3711 91be f204 a9be c618 853e cdd6 32be
00000060: e03a 55be 74fb bd3d 2f1d 093e 5643 15be
00000070: 098f aa3e 63dd 8a3e e4df a23e 95c1 0b3d
00000080: 1c03 9a3c 1a30 a83e 2c0f 833b 7c4a f2bd
00000090: 2966 7c3d 0708 ec3d 8bd1 163e 68b5 8dbe
000000a0: b652 883c 9a65 403e 36ec 413e 092b 91be
000000b0: ac35 073e cc21 e63d 2fd9 fc3d 0cf1 4cbd
000000c0: cb06 cdbd 5ad3 07be a6e2 99bd d94f 83be
000000d0: 6c08 98bc 4471 ac3e 8a87 eebd 9368 06be
000000e0: fee5 7f3e 48ff d53d 6ab0 af3e f7ac 9c3e
000000f0: 6ca4 7cbe 15a9 2d3d 7af6 febd 7fab 73be
00000100: 01fa 8cbe e0e2 20be fc98 393e 0d1d ac3e
00000110: f524 153e 4819 183d ddef 0dbe 37d5 2ebe
00000120: 38d2 823e 33f8 80be f3aa 8ebd 3a7c 2abe
00000130: c9a5 4d3e 3cdc 6bbe d88d 4a3e eabd 89be
00000140: 6424 fbbc 841e ad3e 8c13 843e 8063 533e
00000150: 4119 5b3e 0e02 cc3d 0702 abbd 8c1b 43be
00000160: 4b16 453d ed4d 26be e155 5f3e a634 b2bd
00000170: 6325 29be 0051 b53d 4ddb ff3d a7a3 8fbe
00000180: 7acb a5be 9178 aa3e 21f6 b53e 35f2 93be
00000190: 743d 2cbc 1fd3 4ebd fb69 f63d 0078 243e
000001a0: 7c34 d43d ac31 8cbe a6b1 2f3c 635f 13be
000001b0: 9e07 43be ee3b 27be 232b c93c b6fe 1dbe
000001c0: 0d68 a43e e16b 283d fe6e 46be 3f91 92be
000001d0: 4608 a43e 6ba3 9f3b 84e5 e03d fb1b 803e
000001e0: bcbb 9f3e c61a 08be 8e22 67be b19b 503e
000001f0: 1efe 58be ce10 73be e1b4 78be 6c7e eebd
00000200: 71fb 99bd 0f4b e63d c4ef edbd bcba d83d
00000210: cd17 8dbe b5c6 a53e 4098 52be f645 50be
00000220: 1c28 a83d da81 f0bd edc6 7fbd 32e9 cebd
00000230: 58de 893e 22bd e5bb f7e8 4fbe d389 b8bb
00000240: 969e 6cbd a37d 6f3d c01c 1b3d ba6e 88bc
00000250: f70e 5ebe a08c 2c3e d15f 693e f5fc 96bc
00000260: 47e4 39be 623f 0abe 8bc3 8f3e f506 24be
00000270: be07 9f3e 6fc6 023d 7aac 533d 4b8c ae3e
00000280: caf2 c0bd d099 f4bd fba5 95be df97 93be
00000290: f4e0 873e 3c4a bd3d 61dd 613e fcb0 9f3e
000002a0: be74 1ebe 6ece 12be bfd6 be3d 9c9a ba3d
000002b0: 814f f8bd 7727 293e 9969 43be 8bd0 71be
000002c0: 95b9 67be bce3 67be 8f92 943e 2d05 98be
000002d0: 27c6 c13d 4934 a13d 6068 e53c 2627 db3d
000002e0: 45b8 23be 7a72 98be 2cb7 823e 3094 c43d
000002f0: 7db6 803d ed58 91be 1a83 583e eaee 913e
00000300: f87d ca3c 11da ddbd 495d 963e 0b64 1e3d
00000310: afea e43d 1db7 75be 0718 a03e 0d62 8fbe
00000320: 3421 64be 938f aa3e 7a37 5cbe ff05 6e3e
00000330: bdbb f53d 0e3a 41ba ec9c 113e 337a 93be
00000340: b36c ecbd 8e4e aa3d c381 cd3d f496 1a3d
00000350: 20df 423e cea1 053b 4836 6f3e 0077 2b3e
00000360: b37b a03e 4b22 06be a9cb 6e3e 7f7d 78be
00000370: 397a 1f3e e743 44be de38 263e 6e89 46be
00000380: 3307 ac3e e866 63be eb1a 9d3e 9c6e e43d
00000390: 2020 a3bd 21dc 04bd 710e 2bbe 80fe 9e3e
000003a0: 4391 e8bd 12c6 6abd fbe3 31be 83c5 92bd
000003b0: 23bb 53be 54b9 643e 4b9d 66be e616 903e
000003c0: 48e2 2d3e cc10 303c b338 0d3e 9a8a 2dbe
000003d0: ce9e 713e c686 76be 4fa2 303e 7eca 013d
000003e0: 61c0 0fbd 02f1 cc3b 2d0b 903e db4d 99bd
000003f0: d66a 86be f8af 80bd 24ac 78be fddc 313e
-0.23142692 0.3018754 0.11092941 -0.21064624 -0.13346243 -0.30410385 0.06978522 -0.29646054
-0.2527354 0.09482236 0.34125945 0.25921214 0.017539056 -0.17740016 0.054204457 -0.29795825
-0.2855011 -0.047957383 0.06507552 -0.1401022 -0.28333446 -0.33011585 0.25995463 -0.17464752
-0.2082324 0.092764765 0.13390039 -0.14576468 0.33312252 0.2712203 0.3181144 0.03412016
0.01880031 0.328492 0.0039996114 -0.11830613 0.061620865 0.115249686 0.14728372 -0.27677464
0.016641002 0.18788758 0.18937764 -0.28353146 0.13204068 0.11236915 0.12346112 -0.050034568
-0.10011061 -0.13264218 -0.07513933 -0.25646856 -0.018558703 0.33680165 -0.11646946 -0.1312583
0.24990079 0.10449082 0.3431428 0.30600712 -0.24672097 0.042397577 -0.124493554 -0.2379589
-0.27534488 -0.15711546 0.18124765 0.33615914 0.14564879 0.037133485 -0.13861032 -0.17073523
0.2555101 -0.2518936 -0.069662 -0.16648951 0.20082773 -0.23033231 0.19780672 -0.26902705
-0.030657 0.33812344 0.25796163 0.20643425 0.21396352 0.099613294 -0.08349996 -0.19053477
0.048116963 -0.16240664 0.21810104 -0.08701448 -0.16518168 0.0885334 0.12493 -0.28054544
-0.32381803 0.3329511 0.35539344 -0.28895727 -0.010512698 -0.05049431 0.12031933 0.16061401
0.10361573 -0.27381647 0.010723507 -0.14391856 -0.19045874 -0.16331455 0.024556702 -0.15429196
0.32110634 0.041118506 -0.19378278 -0.2862644 0.32037562 0.004871776 0.10981277 0.25021347
0.31197917 -0.13291463 -0.22571775 0.20371892 -0.21190688 -0.23736879 -0.2428775 -0.11645207
-0.07518662 0.11244785 -0.11617997 0.10582492 -0.2755722 0.32378164 -0.20565891 -0.20339188
0.08210775 -0.11743517 -0.06244557 -0.10103072 0.26927447 -0.007011072 -0.20303713 -0.0056316643
-0.057768427 0.058469426 0.037869215 -0.016654361 -0.21685396 0.16850519 0.22790457 -0.018431166
-0.18153487 -0.13500741 0.28078875 -0.16018279 0.31060594 0.031927522 0.05167816 0.3409141
-0.09421308 -0.119434 -0.29228196 -0.28826806 0.26538813 0.09242675 0.22057106 0.31189716
-0.15474221 -0.14336559 0.09318303 0.09111521 -0.12124539 0.16518961 -0.19083251 -0.23614709
-0.22629388 -0.22645468 0.29018065 -0.2969145 0.09461623 0.07871301 0.028003871 0.10700826
-0.15988262 -0.2977484 0.25530374 0.09598577 0.06284807 -0.28388157 0.21143761 0.2850259
0.02471827 -0.108326085 0.29368046 0.038669627 0.11177575 -0.23995633 0.3126833 -0.28004494
-0.22278291 0.33312663 -0.21505538 0.23244475 0.11998699 -0.00073710165 0.14220017 -0.28804168
-0.1154417 0.08315764 0.10034516 0.037741616 0.19030428 0.0020390633 0.2336055 0.16744614
0.31344375 -0.13099019 0.23319878 -0.24266623 0.15573968 -0.19166528 0.1623263 -0.19388363
0.33599243 -0.22207224 0.306846 0.111539096 -0.07965112 -0.032436494 -0.16704728 0.31053543
-0.113558315 -0.0573178 -0.17372124 -0.071665786 -0.20676856 0.22336322 -0.2252094 0.2814247
0.1698085 0.010746192 0.1379116 -0.16947404 0.23595735 -0.2407485 0.17249416 0.031687252
-0.035095576 0.0062543163 0.28133526 -0.07485553 -0.26253384 -0.062835634 -0.24284416 0.17369457

weight f4 [4, 320]
00000000: 816b 12b8 ca6f 76bc 3513 523d 2cd6 f2bb
00000010: a5c3 3fbc 48e5 7a3b b23a 73bc 957f ab3b
00000020: 4096 5838 96a9 553d eb57 d03b 51ca 24bd
00000030: 7201 843d 0b16 a9bc 52aa 063a 494e 14b8
00000040: 04b5 073b 96f3 f73c 0334 44bc eccc 3b3d
00000050: 6f30 1ab8 e9d9 e9bc 9faa 183d 8f9b 233d
00000060: 8958 843d f622 f5bc 19ae 283d 3780 1d3b
00000070: 80b4 a2bc ddb6 733d 8a91 493d b3a6 a7bc
00000080: fa8a 513d 40b3 083d d6bb 38bc 5a13 853d
00000090: 2e1c 71bc 5c9d d33c 1ebe 8bbc 16bd 61b8
000000a0: 849b 943b 31cd 68bc a010 9ebc 630d 45b8
000000b0: d2b4 7b3c d3a9 b0bc a9f2 36bc 9bd9 903d
000000c0: 7802 83bc 5575 50bd 47b5 b8bc 68e2 513c
000000d0: 8ad7 e1bc 8cac cd3c f9fe 5d3d f193 573d
000000e0: 934a cf3c 11f9 c7bc 186e 073d a45a be3b
000000f0: e6b3 9ebc aaa4 0fbd e8f2 4d3d f1d3 643d
00000100: 05b5 b2ba 3d63 02ba d61e 21bc d86e 353d
00000110: c79d eebc 70ce d5bc b237 84ba c256 0fba
00000120: 160c b83c 1162 05bd 8cfb 7c3c 057b 48b8
00000130: 2692 373d 5cad 223d 5d4d 4a3c 2639 363b
00000140: 8e39 843c 6481 163d 14c3 403d 0c64 c4bc
00000150: ce79 29bc 46f7 2a3c 3d96 573b f5ca 213d
00000160: 7f22 0a3b 1802 02bd c758 f6bc 91b1 0bbd
00000170: 8805 d237 290e 19bd 6c40 ae3c 7017 78bc
00000180: 15dd bc3c 534d 2e3d 2fb6 e13c 7929 31bc
00000190: 0818 5abc 64a3 bcbc 7627 933c 2276 803d
000001a0: 4859 3eba ba87 feb7 780b 323d b425 bd3c
000001b0: 557e 67bc 1e30 37bc 3e69 343d 8717 683d
000001c0: 1067 a2bc dbe1 86bc ebc9 9b38 b2d6 aebc
000001d0: bb52 4c3d 9dc9 03bd 9470 883c b9d3 3f3b
000001e0: c69d 973d 170f 963c c7b5 863d 575f 9cbb
000001f0: 1eac bebc d756 513d 9487 cebc cefd 06bd
00000200: a2ea 003d 0743 1e3c d807 0e3d db72 81bc
00000210: 7429 1eba f692 633b bc09 843d 4e28 f738
00000220: 8319 6b3d 6dd3 9c3c 6ec5 813d 3692 d1b7
00000230: 85ae 6b3d 4755 443c 7529 493d 70b7 033d
00000240: 6917 c3ba 0e23 0e3d ece7 6b3d 03ac c23c
00000250: 0c74 28b8 90b8 963d 1a05 d43b c651 aabc
00000260: 973c a6bc 569c e5b7 c0fb 773c 7c78 99bc
00000270: 91b1 c93c c6e1 a03c 0dc2 82bc e917 713d
00000280: 699d d3bc 2420 b7b7 4bfa 2abd 7c9f a0bc
00000290: ae41 1cbb 03f7 703d 1c97 903c 136d cabc
000002a0: 9f75 11b7 c812 46bd ce25 263c c37d 87b8
000002b0: 6fd7 e93b 5837 27bd 35f8 ccba e40a 0cbd
000002c0: 5245 323b 3880 a138 e6df 403d 5371 1c39
000002d0: 04c3 343c 2583 4e3c d77c 7e3d 0eaa 1e3d
000002e0: e75d bcbb 0c6b 21bd a124 733d 67fc 29bd
000002f0: 6eb2 88bc b080 673a 627f 04bd dab1 0fbd
00000300: b556 253d 9be2 24bd 6c9d b1bc 17b1 0cbd
00000310: 0d58 1e3d 8827 cbba ab71 23bc e703 ddb6
00000320: f976 3dba 36e7 503d e6ef 4b3d 8713 073d
00000330: 0853 86bc 90af 9f3c 6968 723d 871b c93c
00000340: f8c2 3cbc 0bf2 cf3b c0bc e93b d2d4 18bd
00000350: fd4e 943c 1cad efbc d4af 653b 1ed6 073d
00000360: 414d 813c a6ca 83bc f893 c8bc 61e2 4eb8
00000370: 191e 1fbd 6c31 30b8 4700 013b cd16 3c3d
00000380: 094d 243d e6f3 403d 8507 603a 30b6 ed3a
00000390: 636d e13c 206e 4c3a 9a97 bebc f649 073d
000003a0: 70a5 04ba a88a 4038 88b0 feb8 8fcb 1bb8
000003b0: fb19 2d38 9746 82bb aa23 6735 499d 42bc
000003c0: 6d82 963d f60b cbbb e96c d83a 4db1 d53c
000003d0: 6ab2 333d 9883 0bbd 1ba3 eabc 479b b63c
000003e0: 3190 4e3d 8180 3c3b 55d2 053d 3e38 c9bc
000003f0: a9f6 6d38 41e5 1dbc 2fe3 d237 7ec0 22bb
-3.4909233e-05 -0.015041301 0.05128785 -0.007410785 -0.01170436 0.0038283635 -0.014845537 0.005233715
5.1638344e-05 0.052163683 0.006358137 -0.040232006 0.06445588 -0.020640394 0.0005137074 -3.535886e-05
0.002070726 0.030267518 -0.011975291 0.045849726 -3.676157e-05 -0.02854629 0.037272092 0.039943274
0.06462199 -0.029923897 0.041181657 0.002403272 -0.01986146 0.059500564 0.049211062 -0.02046523
0.05115793 0.03337407 -0.011275252 0.06497832 -0.014716191 0.02583187 -0.017058428 -5.382028e-05
0.0045351405 -0.014209078 -0.019295037 -4.6980927e-05 0.015362935 -0.021565353 -0.011166253 0.07072755
-0.015992388 -0.050893147 -0.022547377 0.012810327 -0.027568597 0.02510669 0.05419824 0.052631322
0.025304114 -0.024410756 0.033063978 0.005809145 -0.019372892 -0.035069145 0.05028048 0.055866186
-0.001363427 -0.0004973894 -0.009834012 0.044295162 -0.029127968 -0.026099414 -0.0010087399 -0.0005467945
0.0224667 -0.032564227 0.015440833 -4.7798287e-05 0.044817112 0.03971611 0.012347546 0.002780506
0.016140725 0.03674449 0.04706104 -0.023973487 -0.010343982 0.010434931 0.0032895945 0.039500196
0.002107769 -0.031740278 -0.03007163 -0.034104887 2.5036526e-05 -0.03736702 0.021270953 -0.015142307
0.023054639 0.04255421 0.027552692 -0.0108131105 -0.013311394 -0.02302713 0.017963152 0.06272532
-0.0007261229 -3.0342362e-05 0.04346797 0.023089267 -0.014129241 -0.011180906 0.04404568 0.056663062
-0.019824535 -0.016465118 7.428586e-05 -0.02134261 0.049883585 -0.032174695 0.016655244 0.0029270484
0.0740314 0.018317742 0.0657764 -0.0047721076 -0.023275431 0.051108208 -0.025211133 -0.03295689
0.031473763 0.009659535 0.03467545 -0.015801838 -0.00060333987 0.0034725047 0.06447169 0.00011785385
0.057397377 0.019143784 0.06336485 -2.4982826e-05 0.05753948 0.011983222 0.049111802 0.03215736
-0.0014884296 0.0347014 0.057594225 0.023763662 -4.01624e-05 0.07359421 0.0064703347 -0.020790946
-0.020292563 -2.7371727e-05 0.0151357055 -0.01873421 0.024620803 0.019638907 -0.015961671 0.058860693
-0.025831895 -2.1830267e-05 -0.041742604 -0.019607298 -0.002384286 0.05882932 0.01765018 -0.024710214
-8.670059e-06 -0.048357755 0.010140849 -6.4607266e-05 0.0071362774 -0.040824264 -0.0015637936 -0.034190074
0.0027201963 7.700961e-05 0.047088526 0.00014919536 0.0110328235 0.0126045095 0.062130775 0.038736396
-0.0057484987 -0.03940873 0.059361104 -0.041500475 -0.016686644 0.00088311266 -0.032348044 -0.03508172
0.040365893 -0.04025517 -0.02168151 -0.034348574 0.03865819 -0.0015499452 -0.009975831 -6.5867675e-06
-0.0007227506 0.05100175 0.04978933 0.032977607 -0.016397014 0.019492894 0.059181605 0.024549259
-0.011521094 0.0063459924 0.0071330965 -0.037312336 0.01810407 -0.02925735 0.0035047429 0.033163182
0.015783908 -0.016087841 -0.02448462 -4.932506e-05 -0.038847063 -4.2007698e-05 0.0019684003 0.045920182
0.04011253 0.0471076 0.00085460424 0.0018135961 0.02751798 0.00077983923 -0.023265649 0.03302952
-0.00050600525 4.59055e-05 -0.00012144545 -3.714446e-05 4.127061e-05 -0.0039757 8.6106104e-07 -0.01187832
0.073490955 -0.006196494 0.001651195 0.02608552 0.04387132 -0.034061044 -0.028642228 0.022290839
0.05043048 0.0028763118 0.03267129 -0.024562951 5.6734923e-05 -0.009637178 2.5139741e-05 -0.0024833973

bias f4 [4]
00000000: f233 ebbb d2bb 663d a0d7 91bc a51a 673d
-0.007177823 0.056331463 -0.017803013 0.056421895

weight f4 [4, 8]
00000000: 1b73 71bd 5168 c53d 05fa 4f3e da3a c4bd
00000010: e2a5 963e afde 483e fc3c d4bc 885b 74be
00000020: 6054 423e f92e 723b d90b 163e 529e 49be
00000030: 7e53 86be 0f16 0cbd 1582 a43d ff00 643e
00000040: 93d1 84be b045 a83d cab9 4a3e de1f 04be
00000050: af64 b2bd 0069 f5bd 5571 e73d c573 9abd
00000060: 627e c5bd 2b2c b9be 544a 89bd cead 7abc
00000070: f29e d2bd a2a7 a7be 9d83 a43d d3ce 9e3c
-0.058947664 0.096390374 0.20310219 -0.095815375 0.29423434 0.19616197 -0.025907986 -0.23863041
0.18977499 0.0036954267 0.14652957 -0.196893 -0.26235574 -0.034200724 0.08032624 0.22266005
-0.25941142 0.08216417 0.19797435 -0.12902781 -0.0871061 -0.11982918 0.11300913 -0.075416125
-0.09643246 -0.3616651 -0.0670363 -0.015300227 -0.10284223 -0.3274508 0.08032916 0.01938573

bias f4 [4]
00000000: 2710 0bbd d3c3 65be 0869 a33e fe9b 7f3e
-0.03395095 -0.22437982 0.3191607 0.2496185

weight f4 [4, 8]
00000000: b2e1 ae3a 55a7 cabb 54cc 193e 65b4 803e
00000010: 95e3 803e 09f4 c2b8 e7a3 0b3e e92c 32b8
00000020: 6c4e 83be b340 93bd 7216 d3bd ddab 7cbe
00000030: e32c 083e 825d 3c3d 70e1 0abb aebe 433e
00000040: e1c7 73bd 3882 64be 23c5 453e c962 58bd
00000050: e607 5cbe e737 723e 391d 82be 0a38 0f3d
00000060: 926b ab3e 7ab0 8dbe 4bb7 6f3e 8056 93be
00000070: 481e 373e 4535 0b3a 7873 91be b57b e53c
0.0013342409 -0.0061844983 0.15019351 0.2513763 0.2517363 -9.296096e-05 0.13636743 -4.2480333e-05
-0.2564577 -0.07190075 -0.103070155 -0.24674936 0.13298373 0.045987613 -0.00211915 0.19115707
-0.05951679 -0.223153 0.19313483 -0.052828584 -0.21487388 0.23654138 -0.2541292 0.034965552
0.33480507 -0.27673703 0.23409764 -0.28776932 0.17882645 0.0005310367 -0.28408408 0.02801309

bias f4 [4]
00000000: 0bee 1fbe 7061 a73d 1103 89be 34f7 97bd
-0.1561815 0.081728816 -0.26760152 -0.07420197

weight f4 [10, 2]
00000000: 6ba5 0cbf f556 f73d ca34 66be d9f4 c13d
00000010: 2682 12be 4566 4b3e e9ae 9d3e d6bf 88be
00000020: 67ba 053f c481 133f 1ad3 91be ee34 cbbd
00000030: 6dfa 2bbd 6580 103f e8e7 1dbf bdbf 113f
00000040: 20d3 d0be 44b0 243e a551 863e 4106 15be
-0.5493991 0.120771326 -0.22481075 0.09470529 -0.1430746 0.19863231 0.30797508 -0.2670886
0.5223755 0.5761988 -0.2848137 -0.09922205 -0.04198687 0.56445915 -0.61681986 0.56933194
-0.40786076 0.16082865 0.26234165 -0.14553167

bias f4 [10]
00000000: cef1 243f 4243 c6bd f5a9 e6be 3bb9 2e3f
00000010: 4e16 1bbf 073d 1cbe 562b 8dbc 792e 31bf
00000020: 0bf1 9ebe f756 aabe
0.64431465 -0.09680797 -0.45051542 0.6825139 -0.6058091 -0.15257655 -0.017232578 -0.69211537
-0.31043276 -0.33269474

weight f4 [10, 2]
00000000: 3559 cfbd 53d9 b9be ac91 95be e570 843e
00000010: 5ddd 83bc 0ddb 0e3e f57c 2d3f 2850 26bf
00000020: c82c 483e 379b 90be 7f6d e63e 55f5 c73e
00000030: 217b dc3e 4027 bdbe 6d50 d7be 64ca ba3e
00000040: 599d af3e f909 f6bc 7dec e33e 4733 523d
-0.10124437 -0.36298618 -0.292127 0.25867382 -0.016096765 0.13950749 0.67768794 -0.6496606
0.19548333 -0.2824342 0.45005414 0.3905436 0.4306269 -0.36944008 -0.42053548 0.36482537
0.34299734 -0.030034052 0.44516364 0.051318433

bias f4 [10]
00000000: 4efd 8f3e 9bc7 43bd 69c5 22bf 82c6 fdbe
00000010: 55bd 263f 911c db3e e390 88be fe31 a63e
00000020: cd70 1c3e 6830 04bf
0.28122944 -0.04779778 -0.63582474 -0.49565512 0.6513265 0.42795232 -0.2667304 0.32460016
0.15277405 -0.5163636

weight f4 [20, 4]
00000000: 7fd5 01bf a6c1 dbbe fd04 8e3e 44b6 8e3d
00000010: b748 ebbe 32e1 40bc e3b7 7cbc addc 80bd
00000020: c678 04be 1b4d 833e 8ace a8be 8cab bd3a
00000030: 1ce5 cb3d 810e 713e 159c b3be 2fdf 3ebe
00000040: 9dfe fabe 2de0 e43e e0ce b53e e4f9 9d3e
00000050: 2022 35be ba0b 8f3d 206e 353e 665c 023e
00000060: 3be9 eb3e 0740 5d3e f5d2 c33e 770e d33e
00000070: df88 873e 20d9 f6be d293 4e3e d137 e83c
00000080: 053a 6ebe 9826 e0bd 7e01 e83e e71d 94be
00000090: ba25 5bbe e4b7 bb3e 4667 a8be d70e e9be
000000a0: 1efb ebbe 95eb d0be e772 8d3e e339 553e
000000b0: 4b67 93be 16e4 eabe 5556 9ebe 7c08 bbbe
000000c0: 72f3 b53e ee1e 13be 66cd 5abe 55f9 6e3e
000000d0: b811 26bd 964a 92be dd4c d93d 373c f2bd
000000e0: 8014 ba3e f7b7 71be c6a8 8dbe dd30 edbe
000000f0: 89a6 b2be f699 983e 61eb dcbd a04f ea3e
00000100: c3ee 113e 36be 2b3d 9c82 d1be cc57 dfbe
00000110: 9caf cf3e 0fbe 92be c921 5cbe 118e aa3e
00000120: 89c1 673d b259 023f 6eda ffbe 1814 9f3e
00000130: 0a34 9fbe 2290 573e fa03 d4be 5f64 bebe
-0.50716394 -0.4292118 0.2773818 0.06968358 -0.45953915 -0.011772441 -0.015424701 -0.062920906
-0.12936696 0.25644764 -0.32970077 0.0014470681 0.099558085 0.23540689 -0.3508002 -0.18639825
-0.4902238 0.44702283 0.35509396 0.30854714 -0.17688799 0.069846585 0.1771779 0.1273056
0.46076378 0.21606456 0.38246885 0.41221973 0.26471612 -0.48212528 0.20173576 0.028346928
-0.2326432 -0.10944861 0.45313638 -0.28929064 -0.2140111 0.36663735 -0.3289129 -0.45519134
-0.46090025 -0.40804735 0.27626726 0.20822863 -0.28789744 -0.4587714 -0.3092524 -0.3652991
0.35537297 -0.14367267 -0.21367416 0.233373 -0.04054424 -0.2857253 0.10610364 -0.11827891
0.36343765 -0.23605333 -0.27667826 -0.46326342 -0.3489268 0.29804963 -0.107870825 0.45763874
0.14251237 0.041929446 -0.4091996 -0.4362167 0.40563667 -0.28660628 -0.21497263 0.33311513
0.056581054 0.50918114 -0.49971336 0.31070018 -0.3109439 0.21051076 -0.41409284 -0.37185952

bias f4 [20]
00000000: a509 67bb eacb 2a3e cf87 9f3e c407 9dbe
00000010: 0f55 56be 62dc 82bd 051a 9abe a976 e5bd
00000020: 9345 fa3e 0142 ebbe 8163 883e 255c 99bc
00000030: 3f05 ce3e bae2 d53e 1274 91bd 2f1c 403d
00000040: be6d 053e 461b df3e b28d 6a3e e8b7 efbe
-0.0035253551 0.1667935 0.311583 -0.30669987 -0.20930885 -0.06389691 -0.30097976 -0.11204273
0.48881206 -0.45948794 0.26638415 -0.018720696 0.40238377 0.4177454 -0.07102217 0.046901878
0.13030145 0.43575495 0.22905615 -0.46819997

G f4 [2, 1]
00000000: 0000 0000 0000 803f
0.0 1.0

m1x_posterior f4 [2]
00000000: df8f 99c0 0008 5a3d
-4.7988124 0.053230286

m1x_posterior_previous f4 [2]
00000000: 16da 0ec1 a0a8 eebe
-8.928244 -0.46613026

m1x_prior_previous f4 [2]
00000000: 5b4f 16c1 5e7e 8840
-9.394374 4.2654257

y_previous f4 [2]
00000000: 4c55 9f40 3848 dac0
4.979162 -6.821316

KGain_array f4 [100, 2, 2]
00000000: ea2f 023f 0865 8b3e eec8 263e 521e fe3e
00000010: cd34 073f 0d3d 883e 0592 0c3e 8efc 0b3f
00000020: f9a7 ec3e 2f06 893e 8e0e 0f3e b2e1 003f
00000030: 4a5d 023f 77da 953e ac22 2e3e c18a 033f
00000040: 8730 043f 49d0 8e3e f113 293e 17d2 033f
00000050: 7445 133f 7fc4 863e 9f2e 143e ccb0 0e3f
00000060: 8da6 073f 04d2 883e e3db 113e 3e20 113f
00000070: 006e f13e 8173 893e 7358 153e 021c 023f
00000080: 907d fd3e 8be8 843e 7fbd 123e b4ff 123f
00000090: 7326 dd3e b950 873e b4ab 0a3e 9596 053f
000000a0: a2bb e63e de2f 803e f3dc 043e 8e3c 0a3f
000000b0: e65b f43e eac4 893e e1f5 1a3e cc94 023f
000000c0: 8aa6 fe3e a516 8a3e d324 1f3e f48f 103f
000000d0: 854d ec3e 8462 863e 886f 0f3e ba16 023f
000000e0: 08f4 ef3e 1d3c 8f3e 7ce7 1b3e 00da 003f
000000f0: e6df e83e b1c8 913e 021f 1e3e d2b4 0a3f
00000100: e2dc f03e e8af 833e 73aa 083e cc08 0a3f
00000110: 82ef f73e e09c 8c3e 876e 173e 15ec 003f
00000120: b875 023f 7352 933e 5dfd 423e 1891 063f
00000130: e2e6 063f c23f 8b3e eba4 283e 2b5f 063f
00000140: 6c5c 053f 16ec 8d3e 1079 3f3e ab91 0b3f
00000150: 78cb 043f fb6c 8c3e a0c1 403e 2887 0c3f
00000160: d17a 133f 8cfb 7f3e e861 0b3e eb66 123f
00000170: 9562 043f e91d 883e 2d0b 1f3e 04c9 0d3f
00000180: 58ae ed3e e611 883e 8ecd 153e dbb9 013f
00000190: 8c9d 013f 8cb6 893e 1960 243e 3223 063f
000001a0: 7c6a 003f 635a 903e faf8 3a3e a68f 053f
000001b0: a19d 013f e830 8d3e fbda 2d3e 7687 093f
000001c0: fcb7 023f c972 8e3e 3661 333e fea5 033f
000001d0: 3404 163f e978 853e a4ca 0f3e 07e5 0f3f
000001e0: 84e2 0d3f b3c3 8d3e 4cb2 2f3e 7ce1 0b3f
000001f0: eb1e 063f ab97 843e 86fc 163e 81a0 123f
00000200: 56d0 023f ee80 863e b630 1d3e 7448 053f
00000210: 0b20 023f 915f 8a3e 3fb3 1e3e b8f7 103f
00000220: 28e9 ed3e e00e 823e 5dab 093e 62d0 023f
00000230: 1aec 0b3f f9b0 863e 90b7 f13d 79f6 143f
00000240: b5b8 f43e 7570 883e 7f75 073e 4d5b 063f
00000250: 8455 eb3e 6273 783e 92ca 043e 2ec7 093f
00000260: 8443 f93e 5d6a 873e 89af 1b3e 032c fe3e
00000270: 3ba8 093f 4bc4 893e f003 253e 90f9 083f
00000280: daad 003f 9377 8e3e feff 323e c0d1 0a3f
00000290: 1610 073f e29e 743e 22d2 f63d 4ab4 103f
000002a0: a832 f63e 8025 8b3e eb6e 0e3e 94ff 063f
000002b0: b0fa f03e 8b3b 863e 4583 223e f8c1 023f
000002c0: 051e f93e 5742 883e 9c47 1c3e 9228 0e3f
000002d0: 5d03 e83e 51b4 8e3e 9019 1e3e 8790 003f
000002e0: a262 ea3e 24ac 913e 66fd 1e3e 48c0 103f
000002f0: 2459 ef3e 7bae 853e c123 103e aac1 0f3f
00000300: 745e f43e b757 8d3e 59b0 243e c822 013f
00000310: ee5e fe3e 887c 8c3e c466 2b3e 4ef1 143f
00000320: e3b7 f63e d3a7 893e 48bf 2f3e a389 033f
00000330: c704 063f c4a9 8a3e 5e82 2b3e 109e 083f
00000340: 6683 1e3f ba74 833e 6683 063e bf71 173f
00000350: 38e2 173f cc48 8a3e a765 263e 7219 0c3f
00000360: 6ac6 1a3f 76e8 853e da12 ec3d ec32 133f
00000370: 4792 063f cb49 8a3e 3910 1f3e 85dc 083f
00000380: 5e68 fb3e 3b8b 853e 47c6 1c3e c755 fe3e
00000390: fea3 fe3e fdd2 8e3e 1658 393e f8b3 063f
000003a0: dc09 fc3e a8c8 903e cf96 453e 5ed4 063f
000003b0: 11e7 f63e 21ae 8a3e 1eec 303e 361a 103f
000003c0: bccc e43e fcc0 823e 9144 173e 3f9b 073f
000003d0: 9a08 e93e 564d 9b3e 04da 203e b4b6 073f
000003e0: f988 ed3e 6a21 933e 5463 293e 1edd 0d3f
000003f0: f803 f33e 1a20 963e 17a5 433e 6271 0c3f
0.5085436 0.27225518 0.16287586 0.49632508 0.5281494 0.26609078 0.13727577 0.5468224
0.46221903 0.2676253 0.13970396 0.50344384 0.509236 0.29268238 0.17005414 0.51383597
0.51636547 0.27893284 0.16511513 0.51492447 0.5752785 0.2632179 0.1447091 0.5573852
0.5298851 0.2672273 0.14244036 0.5668982 0.47154236 0.26845935 0.14584522 0.50823987
0.4950986 0.25958666 0.143301 0.5742142 0.43193397 0.26428774 0.13542062 0.52182895
0.45065027 0.2503652 0.1297491 0.5399865 0.47726363 0.26908046 0.15132858 0.51008296
0.49736434 0.269704 0.15541391 0.56469655 0.46152893 0.26247036 0.1400739 0.5081593
0.4686587 0.2797555 0.15225023 0.5033264 0.4548332 0.28473428 0.15441516 0.5418216
0.4704352 0.25720143 0.13346271 0.5391967 0.48424917 0.27463436 0.14788257 0.5036023
0.50960875 0.2877384 0.19041963 0.52565145 0.5269605 0.2719708 0.16469161 0.52488965
0.5209415 0.27719182 0.18698525 0.54519147 0.5187297 0.27426895 0.18823862 0.5489373
0.5760928 0.24998301 0.13611567 0.5718829 0.51712924 0.2658532 0.15531607 0.5538485
0.46422076 0.26576155 0.14629194 0.5067422 0.5063102 0.26897085 0.16052283 0.52397454
0.5016248 0.2819396 0.1825904 0.52172315 0.5063115 0.27576375 0.16978066 0.5372232
0.5106199 0.2782195 0.17517552 0.5142516 0.58600163 0.2606881 0.14042145 0.56208843
0.5542376 0.2768837 0.17157859 0.54640937 0.5239093 0.25896963 0.14744768 0.5727616
0.51099145 0.2627024 0.15350613 0.5206368 0.50830144 0.27026036 0.15498064 0.5662799
0.46466947 0.25401974 0.13444276 0.51099217 0.5465714 0.26306894 0.1180259 0.5818859
0.4779717 0.26648298 0.13228415 0.52483064 0.4596368 0.24262765 0.129679 0.5381955
0.48684323 0.26448336 0.1520368 0.49642953 0.53772324 0.26907572 0.16114783 0.535058
0.50265276 0.27825603 0.17480466 0.54226303 0.5275892 0.23888734 0.120517984 0.565251
0.48085523 0.27177048 0.139095 0.5273373 0.4706626 0.26217303 0.15870388 0.5107722
0.48655716 0.26613113 0.15261692 0.55530655 0.45315066 0.27871946 0.15439439 0.5022053
0.45778376 0.28451645 0.15526351 0.565434 0.46747696 0.2610968 0.14076139 0.5615488
0.47728312 0.27605984 0.16082896 0.50443697 0.496818 0.2743876 0.1673842 0.581807
0.4818717 0.26885852 0.17162812 0.5138189 0.5235104 0.27082646 0.1674895 0.53366184
0.6191925 0.25674993 0.13136062 0.5915794 0.5932956 0.27008665 0.16249715 0.54726326
0.60459006 0.26153916 0.11527033 0.57499576 0.5256695 0.27009425 0.15533532 0.53461486
0.49103063 0.26082787 0.15310012 0.49674818 0.4973449 0.27895346 0.18100008 0.5261836
0.49226272 0.2827809 0.1929581 0.52667797 0.48223165 0.27085975 0.17277572 0.56289995
0.4468745 0.2553786 0.1477225 0.5297126 0.45514375 0.3033244 0.15708166 0.5301316
0.46393564 0.2873643 0.16541797 0.55415523 0.47463965 0.29321367 0.19105946 0.5486051

prior_Q f4 [2, 2]
00000000: 0000 803f 0000 0000 0000 0000 0000 803f
1.0 0.0 0.0 1.0

prior_Sigma f4 [2, 2]
00000000: 0000 803f 0000 0000 0000 0000 0000 803f
1.0 0.0 0.0 1.0

prior_S f4 [2, 2]
00000000: 0000 803f 0000 0000 0000 0000 0000 803f
1.0 0.0 0.0 1.0

h_Q f4 [1, 1, 4]
00000000: 1288 ec3e f22f fb3e d197 a2be d3d3 31bf
0.46197563 0.49060017 -0.31756452 -0.69463843

h_Sigma f4 [1, 1, 4]
00000000: 0000 0000 78b2 353e 0000 0000 4c8f a33c
0.0 0.17743862 0.0 0.01996579

h_S f4 [1, 1, 4]
00000000: 385a bdbe 45ba e13e a9ee 87be 77e3 563e
-0.36982894 0.44087425 -0.2654927 0.20985208

KGain f4 [2, 2]
00000000: 968a 073f 2b38 8b3e 501e ed3d 6db0 073f
0.5294584 0.2719129 0.11578047 0.5300358

x_out f4 [2]
00000000: df8f 99c0 0008 5a3d
-4.7988124 0.053230286
