KNet/Linear_SS_No_MM/model_KNet_Linear_Dynamics_T100_r2_0dB_best_MSE.pt (torch, 38469 bytes, 42 tensors)

weight_ih_l0 f4 [12, 10]
000000 b5 01 d5 bd 02 6b 65 3a 1c b8 d9 be a6 b4 dc 3e
       -0.10400716 0.0008751602 -0.42523277 0.43106574
000010 6d 57 d4 3e df b2 8a 3e dc a9 aa bd 90 19 93 3e
       0.4147295 0.27089593 -0.08333179 0.2873044
000020 67 94 80 be dc 34 b8 3e b8 aa c9 be 22 4c d7 be
       -0.25113222 0.35977829 -0.3938806 -0.42050272
000030 8f b2 2b bd ac 74 e2 3e 68 fa 90 be 48 af 96 be
       -0.041918334 0.4422964 -0.28316045 -0.29430604
000040 54 d6 be 3e 54 84 77 bd ba 9b 11 be a0 ee 55 39
       0.37272894 -0.060428932 -0.14219561 0.00020402158
000050 5e 8a ae 3e 88 00 87 be 62 f9 5f 3e 56 f4 6f bd
       0.3408994 -0.26367593 0.21872476 -0.058582626
000060 84 c0 85 be 23 b8 1f 3e 7f 7e a2 be 66 0d 4f bd
       -0.2612344 0.15597586 -0.31737134 -0.050549887
000070 cc e3 f8 3e b4 60 16 3e be 02 75 be 08 d9 5a 3e
       0.48611295 0.14685327 -0.23926827 0.21371853
000080 1d 87 4c 3e 69 69 e2 3e 18 9e db be 0f b7 cd be
       0.19973417 0.44221047 -0.42894053 -0.40178725
000090 5c c5 6e 3e 00 8c e6 3e 26 e4 eb bd 7f 4a 6a be
       0.23317474 0.45028687 -0.11518125 -0.2287998
0000a0 dc c5 87 3e e5 7e f5 3d 77 6f 78 be 8c bf 5d 3e
       0.26518142 0.11987094 -0.2426127 0.216551
0000b0 b2 b5 dd 3e 0d a9 dc be 24 9f 32 be 87 63 df be
       0.43302685 -0.43097726 -0.1744352 -0.4363062
0000c0 e8 55 36 3e e5 b1 84 3c 79 be f5 be ee 86 aa 3e
       0.17806208 0.016198108 -0.47996882 0.33306068
0000d0 b4 ba c0 b9 fc ba d0 bb 95 bc b4 be 14 67 5a be
       -0.00036760198 -0.0063699465 -0.35300127 -0.21328384
0000e0 4c 05 2a 3d b5 22 ab 3e 9e 91 a5 3e 03 0c 88 be
       0.041508958 0.33424917 0.3233766 -0.26571664
0000f0 45 48 18 3e 36 a0 41 3e 76 96 3d bc 6e 0f 19 bc
       0.14871319 0.18908772 -0.011571517 -0.009342058
000100 51 a5 90 3e 7c cf c7 3d 21 2e 88 3d 14 e8 81 bd
       0.28251126 0.097563714 0.066494234 -0.063430935
000110 68 7f 39 be 2a 6d 08 3e 35 33 26 bd 9b fb b2 bd
       -0.18115008 0.13322893 -0.04057618 -0.08739396
000120 da 7a 1c 3e a3 2a 5d 3e 0c eb c4 3d 2d 76 a4 be
       0.15281239 0.21598296 0.09615144 -0.3212141
000130 39 79 e6 3d 41 92 c1 3d 29 fa 45 3e c9 fe a7 3e
       0.1125359 0.09451724 0.1933371 0.32811573
000140 df 2e eb 3e ea 3d 50 b9 70 83 e3 be 04 1e e2 3e
       0.45934197 -0.0001985949 -0.44436216 0.44163525
000150 80 f5 74 3e c0 f3 36 be 8a 5f f7 3e 31 04 86 3e
       0.23921776 -0.17866421 0.48315078 0.26175073
000160 a0 3d 66 be 02 ca a8 bd 5f 25 dd 3d 60 b8 d4 be
       -0.22484446 -0.08241655 0.107981436 -0.41546917
000170 bf f3 88 3e bd a9 14 3e 17 f8 18 be 54 77 6c 3d
       0.26748464 0.14517875 -0.14938389 0.057730988
000180 6a 8e c4 3e 8b eb 85 be 69 7a f6 3d 6f 4a 74 3e
       0.38389903 -0.26156268 0.12035067 0.23856519
000190 98 dd 17 3e ec 57 bb 3e 4d 74 4b 3e 89 af 07 be
       0.14830625 0.36590517 0.19868584 -0.13250555
0001a0 c3 d8 f2 be ca f7 39 3d 38 5c 70 3e 32 c2 37 3e
       -0.47431 0.045402326 0.23472679 0.17945173
0001b0 26 e9 91 3e 3e 33 2b 3d 00 b2 db be ca b7 84 3e
       0.2849819 0.041796915 -0.4290924 0.2592147
0001c0 4a 31 93 be d6 78 00 be 81 de ad bd 1c d6 08 be
       -0.28748542 -0.12546095 -0.08489705 -0.13362926
0001d0 74 5d 5a bd 6c bb 28 be 37 c9 e2 be 21 3f c5 3c
       -0.05331178 -0.16477746 -0.4429414 0.024077954

weight_hh_l0 f4 [12, 4]
000000 c2 f0 e3 3e 93 23 8e 3e 8d 7f 1c bd eb cc 18 be
       0.4451962 0.27761516 -0.03820758 -0.1492192
000010 2d ac 36 be 94 6f 0a be 86 e7 8c 3e 9c 27 1e 3e
       -0.17839117 -0.13519126 0.27520388 0.15444797
000020 1a cd be be 52 0d 01 be 00 ec 9c be 57 6a c2 3c
       -0.37265855 -0.12602738 -0.30648804 0.023732347
000030 fb fe f8 3d 05 12 e8 bc ce e2 40 bd 36 8d c5 3e
       0.12158009 -0.028328905 -0.047091298 0.38584298
000040 72 f1 e8 3e 7a 61 a3 be cb 4c 4f 3e 3d 77 cc be
       0.45496708 -0.31910306 0.20244138 -0.39934722
000050 d6 d1 92 3e 8b 23 9f 3e 3d 70 d1 3e c0 17 b0 3e
       0.28675717 0.31081805 0.40905944 0.3439312
000060 71 21 28 be bc c8 d9 3c 8a 00 ad be d4 c7 77 3e
       -0.16419007 0.026584975 -0.33789474 0.24197322
000070 a2 a7 59 be cd f6 5f be 86 1f a1 be 8a be d8 3e
       -0.21255353 -0.21871491 -0.31469363 0.4233287
000080 30 2e b0 be 6b 93 b1 3e f5 cd 00 bf 4c 9a 72 3e
       -0.34410238 0.34682783 -0.50314265 0.23691672
000090 df c4 81 3e 88 56 ba be 3a 66 b6 be ef 11 aa be
       0.25345513 -0.36394143 -0.35624868 -0.33216807
0000a0 ee 84 72 3e 8b a2 d5 be 50 92 ed 3e 14 a1 a3 be
       0.23683521 -0.41725573 0.4640069 -0.3195883
0000b0 88 80 01 bf 57 fd f1 be 42 c3 b8 3e a4 d9 f3 3d
       -0.5058675 -0.47263595 0.3608647 0.11906746

bias_ih_l0 f4 [12]
000000 33 69 ed be 67 91 83 3e ec 4c c1 3e d2 ce a4 3e
       -0.46369323 0.2569687 0.37754 0.3218904
000010 27 56 2f 3e 64 0d 0e be be 39 06 be d8 50 85 3d
       0.17122708 -0.13872296 -0.13107964 0.0650956
000020 92 da 64 be ed d6 59 3e 14 ab fc be 26 76 89 3e
       -0.22349003 0.21273394 -0.49349272 0.26847953

bias_hh_l0 f4 [12]
000000 a3 c5 8c 3e 90 da c1 be 70 4a 88 be a0 b8 a9 3e
       0.27494535 -0.37862062 -0.2661929 0.3314867
000010 83 0f 4e 3e 54 a8 60 3e 91 5a 85 be b9 a5 cb 3e
       0.20123105 0.21939212 -0.2604566 0.39774874
000020 7e fa c6 bd 8c 27 d2 3d 2b b1 52 bc 4b 0b 8f be
       -0.09715746 0.10261449 -0.012859623 -0.27938303

weight_ih_l0 f4 [12, 14]
000000 cb dc 58 bd b1 52 a6 3e 3c 1f cc 3e 0d 8f 90 be
       -0.05294494 0.32484964 0.3986758 -0.2823414
000010 59 ec 8d be 0e 66 1a 3d 94 cc b9 3e 73 80 75 3c
       -0.2771938 0.037694983 0.36288893 0.014984238
000020 98 35 bd be 07 1f 39 3e 36 7a f9 bd 5a 77 cd 3d
       -0.3695495 0.18078242 -0.12181513 0.1003253
000030 47 3d 4d 3d cc eb 25 bd 06 24 db be 79 05 41 3e
       0.050107267 -0.040508077 -0.4280092 0.18849744
000040 58 0a aa be 4e f9 d0 be b0 f7 40 3e e5 6a e9 be
       -0.33211017 -0.40815204 0.18844485 -0.45589367
000050 c5 3b 97 3e 36 53 83 3e da 1c bc 3e f0 98 3a be
       0.29537788 0.25649422 0.36740762 -0.18222404
000060 3b e5 e5 be f6 e4 85 bd cd 71 c1 3e 9c 75 c7 be
       -0.4490145 -0.065378115 0.37782136 -0.38956916
000070 4a 68 9c 3d 24 52 57 3d 66 55 dc 3e 72 81 99 be
       0.07637079 0.05256857 0.43033904 -0.2998157
000080 e2 3b 5b be a4 3f cb 3e 89 cc dc be 39 4e 95 3e
       -0.21409562 0.3969699 -0.43124798 0.29161242
000090 5a 2c 36 3e 71 49 7d bd 68 4d 6c 3e eb fa e8 bd
       0.17790356 -0.061837617 0.23076403 -0.11375984
0000a0 8f 41 88 3e 9c d0 0a 3d a0 5e 76 be dc 33 d1 be
       0.26612517 0.03389035 -0.24059534 -0.40859878
0000b0 43 00 41 bd 17 9d 5e 3d 21 f8 cc 3e 08 de 5a be
       -0.04711939 0.05434903 0.40033057 -0.2137376
0000c0 72 7f 60 be fb 1c 6e 3d ff 51 2f 3e 3d b7 b7 3e
       -0.21923617 0.058133107 0.17121123 0.35881987
0000d0 d3 06 c2 3c c1 67 3d be dc e6 69 3e 5b 74 0b 3e
       0.023684895 -0.1849661 0.22841972 0.13618605
0000e0 99 eb ea bd 0d 56 ac 3e 1d e4 70 3e 1b b7 87 be
       -0.11470718 0.33659402 0.23524518 -0.26506886
0000f0 15 e3 c2 3e d0 f7 9d 3e a4 07 d1 bd 37 13 bf be
       0.38063875 0.30853128 -0.102065355 -0.37319347
000100 98 d0 a5 3e 5d 86 98 3e 9e 56 90 be 98 f1 eb be
       0.32385707 0.2979001 -0.28191084 -0.4608276
000110 2a a7 d2 be d7 8b c3 3e 69 19 e7 3e f0 91 06 bd
       -0.4114316 0.38192627 0.45136574 -0.03285402
000120 55 43 5f bd 7d ab 4f 3e 25 bf b7 be ca 2a d3 be
       -0.054507572 0.20280261 -0.3588802 -0.41243583
000130 88 74 07 bd 97 bc d5 be 54 26 48 be 7e 64 9d 3e
       -0.033070117 -0.41745445 -0.19545871 0.30740732
000140 8f c4 f3 3e 17 e7 32 bd 26 ac 49 3e a9 24 cc bd
       0.476109 -0.043677416 0.19694576 -0.0996793
000150 85 57 58 3e e1 02 2e 3e 83 5a ef 3e d1 56 2c 3e
       0.21127136 0.16993286 0.46748742 0.16829993
000160 dd 7c 68 3e 44 2b 9c 3e c9 c5 06 be fe 9e c8 3e
       0.22703882 0.3050176 -0.13161387 0.391838
000170 33 2b d8 bc 44 46 b7 be f7 a8 3f 3e aa 42 03 be
       -0.026387786 -0.35795796 0.18716799 -0.12818399
000180 87 9d f7 be 51 2a 6f be 21 7d a7 3e 99 50 f8 be
       -0.4836237 -0.23355986 0.32712653 -0.4849899
000190 09 dc db be a6 0a a7 3e 5c 0c af 3e fe bb 3a 3e
       -0.4294131 0.32625312 0.34189117 0.18235776
0001a0 42 42 ea bd 34 1f 8c be 3d 2c d1 be 50 fb 8f be
       -0.11438419 -0.27367556 -0.40854064 -0.28121424
0001b0 8d 25 ed 3d 20 e0 b0 3e ac ac fc be bd 8d bf 39
       0.11579428 0.34545994 -0.49350488 0.00036535962
0001c0 59 b8 d8 be ec 84 fd 3d 6f 1f 23 be c2 09 c6 3e
       -0.42328146 0.123788685 -0.1592996 0.3867932
0001d0 15 34 d5 39 dd 2c f0 3e d8 86 66 3d ed 6d a5 3e
       0.0004066533 0.46909228 0.05628094 0.3231043
0001e0 0c 7b 67 3e 03 9f ef be ef e9 61 be 37 eb ae be
       0.22605532 -0.46801004 -0.22061895 -0.3416383
0001f0 28 c8 49 be 2c ab c5 3e b8 b6 d1 be 7c ba e6 3e
       -0.1970526 0.38607156 -0.40959716 0.4506415
000200 a4 21 36 be 78 57 9e 3e 0a 15 ab 3e ab e5 e2 be
       -0.1778627 0.30926108 0.3341449 -0.44315848
000210 aa 42 27 3e c0 73 c4 3e 9e b4 44 bd 7b ed f7 3e
       0.16334024 0.3836956 -0.048023812 0.4842337
000220 70 be 9c bd eb d9 c6 3e a8 a5 e2 3e e6 73 56 3e
       -0.076535106 0.38838133 0.4426701 0.20942649
000230 d2 c4 f7 bd ea 8f cc 3d 4c 39 ea 3e ad aa c7 be
       -0.12098087 0.09988387 0.4574684 -0.38997403
000240 46 b9 1d be 2d 7e ae 3e 8c 7a cd be 24 1a d8 3e
       -0.15402707 0.3408064 -0.40132558 0.42207444
000250 25 56 3b 3e 46 e7 e0 3e 66 6e 90 bc d3 bb 70 3e
       0.1829458 0.43926448 -0.017630767 0.23509149
000260 75 01 a4 be 6c 33 82 3c b7 49 d5 be 37 31 df 3e
       -0.32032362 0.01589366 -0.41657802 0.43592235
000270 60 b7 00 3f 4b 07 85 3e b2 e2 7d 3d cc 0d be be
       0.5027981 0.25982127 0.06198377 -0.371199
000280 c0 40 db 3e ba d6 d2 3d b8 97 fa be 77 d3 e0 3d
       0.42822838 0.10294862 -0.48943877 0.10977834
000290 1d 38 6d 3b 4b f3 da 3e 15 6d 9d 3e 8e 92 c1 be
       0.0036196776 0.42763743 0.30747285 -0.37807125

weight_hh_l0 f4 [12, 4]
000000 c8 ee 4f 3e 11 3b dc be 4b b3 08 3d d4 3b 60 be
       0.20305932 -0.43013814 0.033374112 -0.21897823
000010 72 14 86 bb dd c1 ed 3d 01 d3 97 be 3d 26 8b be
       -0.0040917927 0.11609242 -0.2965317 -0.2717761
000020 73 d1 ab 3e 9b 4d 9b be 62 54 c0 39 f7 5e d7 be
       0.33558235 -0.30332646 0.00036683964 -0.4206464
000030 d4 ac 97 be 5f e9 e3 3e e2 48 84 be 05 d4 1b be
       -0.29624045 0.44513986 -0.25836855 -0.15217598
000040 ea 2d 8c be fa a1 a9 be c7 1f 6c be d2 4e b5 be
       -0.2737878 -0.3313139 -0.23058997 -0.35411698
000050 cd 43 ba 3e 92 47 fe 3e 51 d0 25 be 3a a2 ee 3b
       0.36379853 0.4966398 -0.16192748 0.0072825225
000060 65 c0 cb be 19 11 24 bd 23 81 5f be 14 3a 8f 3e
       -0.39795223 -0.040055368 -0.21826605 0.27973998
000070 cc 1c d8 3e da 9e e8 3e 4c d8 b5 39 d5 00 17 be
       0.4220947 0.45433694 0.00034684164 -0.14746411
000080 b4 75 a4 be b0 42 5b 3e bf 5b d5 3e e9 23 86 be
       -0.3212105 0.21412158 0.4167156 -0.26199272
000090 9e b9 a2 3e 8b a8 ef 3d e1 6d 0a 3e 69 52 dd 3d
       0.3178224 0.11702069 0.13518478 0.10806734
0000a0 8b 67 5f 3e b7 9b 89 3e fa a4 c2 3d ac de ea 3e
       0.21816842 0.26876613 0.09504123 0.4587301
0000b0 93 75 84 be 9a d9 bf 3e fd 43 d7 3e 41 6f 9b 3e
       -0.25870952 0.37470704 0.42044058 0.30358317

bias_ih_l0 f4 [12]
000000 bb 88 16 3e 92 d5 d3 be e9 33 20 be 2b 01 00 bf
       0.14700596 -0.4137388 -0.15644802 -0.5000178
000010 61 23 db bd 2e 61 44 be dd ae a3 be 71 20 aa be
       -0.10700107 -0.19177696 -0.31969348 -0.33227876
000020 cf 77 09 3e cf ea 38 be b9 d3 a5 3e 16 e4 38 be
       0.1342461 -0.18058322 0.32388094 -0.18055758

bias_hh_l0 f4 [12]
000000 08 eb 7e be 36 b0 78 3e 33 3f 8c 3e e8 3b dc 3d
       -0.24894345 0.24285969 0.27391967 0.10753614
000010 37 87 0c be c6 d1 13 3d e7 3d 9a 3e d0 4f ce be
       -0.13723455 0.036088727 0.30125353 -0.40295267
000020 f9 f3 e0 bc 60 fa f3 be b6 1c 69 be ad 07 df 3e
       -0.027460085 -0.47651958 -0.22764859 0.43560544

weight_ih_l0 f4 [12, 24]
000000 aa 14 a1 3e cf 03 43 3d e1 30 e5 3e 9a 17 08 be
       0.31461078 0.047611054 0.44763854 -0.13290253
000010 d0 c3 e7 be 1d 18 86 be 33 fa 22 3e 32 d8 8f be
       -0.4526658 -0.26190272 0.15915756 -0.2809463
000020 df 25 3f be b4 dd 3a be ef 8b 5b 3d 07 cc e0 3e
       -0.1866679 -0.18248636 0.053600248 0.4390566
000030 22 45 5f be 61 6c f6 be fb 3e 87 be f3 5e a9 3e
       -0.21803716 -0.48129562 -0.26415238 0.33080253
000040 66 a9 cb 3e 69 4c a9 3e a5 e9 90 3d 74 84 36 3d
       0.39777678 0.3306611 0.07075814 0.04455991
000050 f3 40 0c be 95 9f 8a 3e e0 18 d2 be fe cf b5 be
       -0.13696651 0.27074876 -0.41034603 -0.35510248
000060 a2 94 4b 3e 59 05 11 be d4 1d 4b 3d 67 95 be be
       0.19880918 -0.14162196 0.049588993 -0.3722336
000070 b0 7e 0b 3e 0d 5e 31 be f0 29 85 be 90 9a 8e 3e
       0.13622546 -0.17321034 -0.26008558 0.27852297
000080 96 2c 42 be a6 58 bc bd 5f 31 f8 be c0 09 b9 3d
       -0.1896232 -0.09196596 -0.48475167 0.09035063
000090 6d 78 57 be 7f bc f0 be 50 e7 72 3e 72 03 5b be
       -0.21042033 -0.4701881 0.23721051 -0.21388033
0000a0 de 0b d8 bd b3 25 0b be 17 49 f4 be 90 25 f4 3e
       -0.105491385 -0.135886 -0.47712013 0.47684908
0000b0 0c 4a 44 3d 16 69 ba be 9a ca 38 bd a5 58 a9 3d
       0.04792218 -0.364083 -0.04511509 0.08268861
0000c0 fc 31 a9 be 6a 12 36 be b3 a9 ee 3d f5 4f f5 bd
       -0.33045948 -0.17780462 0.11653461 -0.11978141
0000d0 d3 25 27 be 5b 9d b0 3d 8b 5d 58 3e a3 d5 49 3c
       -0.16323023 0.08623763 0.21129434 0.012319001
0000e0 0f 35 e1 bd 56 94 c1 3e 1b c0 f2 be cd 97 14 bc
       -0.10996448 0.37808484 -0.4741219 -0.009069395
0000f0 20 f0 b9 3e 10 d7 c9 be 16 a9 9c 3e 11 de b5 3c
       0.36316013 -0.39421892 0.30597752 0.022200616
000100 30 98 9a 3e 05 ae d9 3e 7d c2 8c be 1a 99 e9 3d
       0.30194235 0.4251558 -0.27492133 0.11406155
000110 c7 97 6e 3e 2a ae ae 3e e4 3f e0 3d 63 a8 a6 be
       0.23300086 0.34117252 0.10949686 -0.32550344
000120 1b 4a b5 3e 4d 38 66 be fe b5 af 3e fe 9b 9f 3e
       0.354081 -0.22482415 0.34318537 0.311737
000130 fc b3 81 bc 26 fa 8d bc a0 8b 97 bd 72 2a e8 bd
       -0.015832894 -0.017331194 -0.07399678 -0.11336221
000140 60 9e 94 3d be 37 47 be 2f 47 a7 bd 8c 54 f6 be
       0.0725677 -0.19454858 -0.08167874 -0.4811138
000150 b3 d1 ed 3e 33 78 a8 3e 1a 37 f9 3e 84 cf 0b be
       0.4644905 0.32904205 0.48674852 -0.1365338
000160 7d 2c 92 3e a6 78 c1 3e ab 94 22 3e af 55 d0 be
       0.28549567 0.3778736 0.15877025 -0.4069037
000170 64 dc ab be 46 27 a5 3e 68 a2 78 bd d1 ce 27 3d
       -0.33566582 0.32256526 -0.060701758 0.04096872
000180 b3 9c 3d 3e 41 4b 62 be d6 d2 a1 3e 3a f6 e0 be
       0.18516807 -0.2209902 0.31606168 -0.43937856
000190 9a 63 c6 be fe 86 ee be af 11 6b 3c c8 53 24 3e
       -0.38747865 -0.46587366 0.014347478 0.16047585
0001a0 e0 45 79 be 20 40 ca be 45 8c e9 bd 32 47 41 be
       -0.24343061 -0.39502048 -0.114037074 -0.18874815
0001b0 a2 cb d1 bc 78 9d 7a 3e fe fa 92 3e 16 9f 51 3d
       -0.025609795 0.24474132 0.28707117 0.051177107
0001c0 3a 63 ad 3e 8b 39 ea be 3d 1d cb 3e aa 3e 16 bc
       0.33864766 -0.45747027 0.39670745 -0.009170214
0001d0 b5 33 e3 3d 5c 9f 63 3e e3 d5 ae bc 68 22 7f 3e
       0.11093847 0.2222876 -0.021342224 0.24915469
0001e0 65 07 7d 3d 01 8f e1 3e d7 28 9b bd 44 61 a4 3d
       0.06177463 0.44054416 -0.07576149 0.080263644
0001f0 4c ef 0c 3e 77 0c d6 be d1 47 ef 3e fe e0 de 3e
       0.1376316 -0.41806385 0.4673448 0.4353103
000200 1a 9d 84 bd af 37 58 be 14 69 aa 3d 9e a5 c3 3e
       -0.06475277 -0.21114992 0.08320823 0.38212293
000210 44 bd 88 be c5 0e 9e 3e b9 6e 42 bc bb 0a cf be
       -0.26706898 0.30870643 -0.011867219 -0.40437874
000220 cf d3 11 3e 16 64 0a 3d dd fa ed bd 3c 63 90 be
       0.14240955 0.033786856 -0.11620114 -0.2820071
000230 a3 c3 82 3c 9b 0c a8 be 30 e1 66 3d f3 2e 06 bd
       0.015962427 -0.32822117 0.0563671 -0.032759618
000240 b4 94 bb 3d 5e d3 98 3e 05 ae 12 be 8d 77 84 be
       0.09159222 0.2984876 -0.14324196 -0.2587246
000250 23 a4 95 3b 85 7d e4 be cc 36 77 ba 6c 54 ac 3d
       0.0045666858 -0.44627014 -0.00094304676 0.0841454
000260 51 93 80 bb a1 84 eb be 51 5f 67 3e d8 80 a4 be
       -0.0039238115 -0.45999625 0.22594954 -0.3212955
000270 8b 86 3c 3e 75 4d b7 3c 72 d0 84 be c9 97 96 3e
       0.18410699 0.022375802 -0.2594028 0.29412678
000280 73 9b 27 bd 56 c9 5f be c5 22 65 3e 0a 59 4a 3e
       -0.040919732 -0.21854147 0.22376545 0.19760528
000290 ec b4 2c bd 37 f4 f4 3d f0 2d e0 3e 29 dc 26 be
       -0.042164728 0.11960643 0.43785048 -0.16294922
0002a0 c9 b8 1d 3d 2c 05 90 3c d7 dc b5 3e 63 ba fd 3d
       0.038506303 0.017580591 0.3552005 0.12389066
0002b0 43 9a 9d 3d 08 7d fc be 17 39 ae 3e 26 26 ac 3e
       0.07695439 -0.4931414 0.3402793 0.33622855
0002c0 73 55 98 3e c1 c7 24 3e b4 f4 b8 be 1e ab d1 3d
       0.29752693 0.16091825 -0.36124194 0.10237716
0002d0 c9 2e 94 3d 54 b3 e3 be b5 72 9c be 48 3c a0 3e
       0.07235486 -0.44472754 -0.30556265 0.3129599
0002e0 12 c7 c9 3e 73 61 24 3d ac fd d8 3d 9a b0 61 3e
       0.3940969 0.040131997 0.10595259 0.22040024
0002f0 15 cb f5 be 34 eb 59 be f5 4d 9d bd f2 81 7c be
       -0.48006502 -0.21281129 -0.07680885 -0.24658945
000300 cb b6 ca be 4f 9e 83 3e 0f 82 f8 3e ef 54 39 3e
       -0.39592585 0.25706717 0.48536727 0.18098806
000310 24 be cd bd 52 41 40 3e 80 fb 00 be 51 71 3a 3e
       -0.10046032 0.18774918 -0.1259594 0.1820729
000320 3d 6d c7 bd bc 2d 00 be 83 1d 79 be db c0 3b 3e
       -0.097376324 -0.12517446 -0.24327664 0.18335287
000330 28 ff c6 3d 4f f7 42 be 6f 9e d1 be d8 ac 9f be
       0.09716636 -0.19039653 -0.40941188 -0.31186557
000340 f1 4c 96 3e bd ac da be b2 a0 f1 be b0 04 cd 3e
       0.29355577 -0.42709914 -0.47192913 0.4004264
000350 d4 06 d5 3d dd 7e 46 bd 3a f2 b5 be 12 1b 33 be
       0.10401693 -0.04846083 -0.35536367 -0.17490795
000360 84 32 8d be 2f 10 3b be cc 43 79 be ad 86 8b bd
       -0.27577603 -0.18267892 -0.24342269 -0.06812797
000370 ef 63 1c 3e 32 f8 aa be f9 ee f1 be c5 4f d5 be
       0.15272497 -0.33392483 -0.47252634 -0.41662422
000380 ba 15 a2 be 6b 3d 97 3e 9a 12 a6 be 58 08 d2 3e
       -0.316572 0.29539046 -0.32436067 0.4102199
000390 20 bd a6 3e fd a3 f8 be 65 79 6b be a7 40 a0 3e
       0.32566166 -0.48562613 -0.22995527 0.31299326
0003a0 52 2e 14 be 6e dc be 3e c7 ca ef be bc ea ad 3e
       -0.14470795 0.3727755 -0.46834394 0.3396815
0003b0 3b c1 a9 3e de 00 3e be a9 58 9b 3e 16 5e 9e be
       0.33155236 -0.18555018 0.3034108 -0.30931157
0003c0 ee c7 11 3e e6 3d c9 3e e7 dc 6c 3e bf be f4 bd
       0.14236423 0.39305037 0.23131143 -0.119504444
0003d0 48 ec 1f bd 4e f4 e8 3e 60 41 5f 3e f6 dc d0 3e
       -0.039043695 0.4549889 0.21802282 0.4079358
0003e0 ce 0e d1 be ec 85 8e 3c 39 cd 99 be 9a 65 f2 3e
       -0.40831608 0.017397843 -0.30039385 0.4734314
0003f0 c5 0f c0 be 7f 2f 2e be b2 f9 c6 be 3f 3e 35 be
       -0.3751203 -0.17010306 -0.38862377 -0.17699526

weight_hh_l0 f4 [12, 4]
000000 1a fc 13 3e c1 27 f6 be 55 40 40 3e 62 e2 87 bd
       0.14451638 -0.48077205 0.1877454 -0.06634976
000010 af 84 76 3d 19 fb 84 bd b7 7d 35 bd 4c 03 b9 be
       0.06018513 -0.064932056 -0.044309344 -0.36135328
000020 35 b9 b0 39 8e d4 e9 3e ae 09 c7 3e 49 20 d5 be
       0.00033707326 0.4566998 0.38874573 -0.41626194
000030 82 6d f2 be 66 14 fe 3d 21 7c a6 3e 44 81 97 3d
       -0.47349173 0.124062344 0.32516578 0.07397702
000040 e0 7a aa 3e 88 18 38 3e d1 4c 3d bd 62 7b f4 3e
       0.3329687 0.17978108 -0.046215836 0.47750384
000050 91 bc 9a be 14 c7 cd be 19 7d be 3d b5 8f 25 be
       -0.3022199 -0.40190947 0.09301204 -0.16168101
000060 64 f5 8e 3e 95 f0 d8 be 86 62 48 3e 7a a1 eb 3d
       0.27921593 -0.4237105 0.19568834 0.115054086
000070 ef 88 2d 3e 5e bf 80 be a0 4d 8d 3e 2b 8d 16 bc
       0.16946767 -0.25146002 0.27598286 -0.0091889305
000080 f1 a9 c1 bc 6b 06 ff bd 96 1a f4 3e 2a 60 18 3e
       -0.023640605 -0.12452396 0.47676533 0.14880434
000090 8e c1 ae be 8a 46 be 3e 8d 00 4e 3e a9 30 e5 3e
       -0.34132046 0.37163192 0.20117398 0.44763687
0000a0 dd c6 67 3e 26 dc 96 be 37 c4 4c 3e 18 f7 e2 3e
       0.22634454 -0.29464835 0.19996725 0.44329143
0000b0 1b 72 50 bc 4b e7 d2 3e 94 72 74 3e 06 83 c1 3e
       -0.012722517 0.41192088 0.23871833 0.37795275

bias_ih_l0 f4 [12]
000000 01 96 04 3e 5c ad f9 bd 95 9e d3 3e 85 11 ec 3e
       0.12947847 -0.12191269 0.41331926 0.46107116
000010 51 fa a2 3d bd c7 9b bd 2b dd 6c be e1 c6 a0 3e
       0.079579 -0.076064564 -0.23131244 0.31401733
000020 53 d6 a7 be 03 0e be 3e 67 c2 7b be 94 98 9d 3e
       -0.32780704 0.37120065 -0.24585877 0.3078047

bias_hh_l0 f4 [12]
000000 e9 ce 24 be bf 8b 86 bc bf 25 01 bb fe 47 e1 be
       -0.16094555 -0.016424058 -0.0019706336 -0.44000238
000010 b0 c5 0f 3e ba 6b d8 3e a6 2e c4 3e 10 c9 96 be
       0.14040256 0.4226969 0.3831684 -0.29450274
000020 2e 38 ba 3e 52 aa f4 be b8 56 53 3e f3 d2 ee be
       0.36370987 -0.47786194 0.2063855 -0.46645316

weight f4 [4, 4]
000000 bd e4 01 3e ad 24 0d 3e c6 f9 f6 3c fb 0a ea 3e
       0.12684913 0.13783522 0.030148398 0.45711502
000010 97 f3 8e 3e d1 a5 83 bd 2c 3b 3c be 7e 6b 4b 3e
       0.2792022 -0.06428111 -0.18381947 0.19865224
000020 84 bb 4f bd 48 6e 1a be 0d c3 62 be aa 68 17 3c
       -0.05071594 -0.15081131 -0.22144718 0.009241262
000030 b0 01 f2 3e a3 72 ca 3e ed d9 eb be e9 41 f9 3e
       0.47266912 0.39540586 -0.46064702 0.48683098

bias f4 [4]
000000 37 a3 b1 3d 97 4f ba 3d e4 41 da 3e 63 aa 60 3e
       0.08673709 0.09097212 0.42628396 0.21939997

weight f4 [320, 8]
000000 02 65 25 bc 4c 18 b3 39 a6 64 98 3e 0d cb 04 bd
       -0.010094883 0.00034159643 0.2976429 -0.032420207
000010 8d 44 0a 3e 28 5b e2 bd e8 44 96 39 c0 a1 9c bd
       0.13502713 -0.11052543 0.0002866157 -0.07648039
000020 e5 b7 0f 3d 77 bf cb bd 38 85 44 be c4 13 66 3e
       0.035087485 -0.099486284 -0.19191444 0.22468477
000030 56 0d df bd 08 d7 09 3e eb df b6 be 7c 8c 71 be
       -0.108912155 0.13460934 -0.3571771 -0.23588747
000040 b9 0e ae 3d 5b f0 40 3e 6c 8d 5b 3e 3f 35 8f 3e
       0.08498902 0.18841688 0.21440667 0.2797031
000050 55 d0 ad 3e 55 33 00 3e b1 29 7f bd 79 b9 e7 3c
       0.33948007 0.12519582 -0.06229562 0.028286682
000060 73 f3 81 be 07 f8 95 3e 7c 9a 19 be 1c b8 99 be
       -0.2538105 0.29290792 -0.15000337 -0.30023277
000070 41 eb cb bc f1 74 01 be 01 59 fa bd 72 60 fe 3d
       -0.024892451 -0.12642266 -0.122240074 0.12420739
000080 2d e8 91 3e 36 5e 36 3e a2 80 a5 be 8d 51 e4 bd
       0.2849745 0.17809376 -0.32324702 -0.11148367
000090 2e 41 0e bd 52 9e df 3d 42 b5 42 be aa 68 86 be
       -0.03473013 0.10918869 -0.19014457 -0.26251727
0000a0 4b 4f de 3b 29 bf 48 3e 6a ee f9 3d d6 23 93 3c
       0.006784355 0.19604172 0.12203677 0.017961424
0000b0 18 3e c0 39 bc 28 9a be 25 f6 ac b9 01 d7 a0 3d
       0.00036667357 -0.30109203 -0.00032989788 0.07853509
0000c0 23 28 c3 3d fb 05 88 be 6a 9d 22 3e 40 6f 87 3e
       0.0952914 -0.26567063 0.15880361 0.26452065
0000d0 c4 ae 70 3e 4a 6d 87 bd b3 98 93 3e 91 9f 78 3e
       0.23504168 -0.06612642 0.28827438 0.2427962
0000e0 d1 7c a0 bd 08 41 44 3e 80 51 58 be 51 d6 82 be
       -0.07836307 0.19165432 -0.2112484 -0.25554135
0000f0 36 2a a7 3d 86 59 91 be 6a 9d 82 be f3 84 8e bd
       0.08162348 -0.28388613 -0.25510722 -0.06958952
000100 5f 97 83 3d 36 73 86 bd 8e 79 c0 39 91 e5 6c 3e
       0.06425356 -0.065649435 0.0003671166 0.23134448
000110 bb a8 4c 3e 01 7d a0 39 5a 3f 82 3e 60 70 82 bd
       0.1998624 0.00030610713 0.25438958 -0.0636909
000120 ef 26 a2 3e 48 2e 87 be 4b c3 9a 3e 0c 96 26 3e
       0.3167033 -0.26402497 0.30227122 0.16268176
000130 27 8a 9c 3e 77 0a b8 bb 79 9e 5e be cc 2b 47 3e
       0.30574152 -0.005616482 -0.2174014 0.19450301
000140 f4 40 30 3e e4 e9 89 3e 9c 1f be bd 72 79 79 3d
       0.17212278 0.26936257 -0.09283373 0.060906835
000150 3f 71 11 be d2 8e 61 3e 1e f4 eb bd 74 cf af be
       -0.14203356 0.22027138 -0.11521171 -0.34337962
000160 ed c4 30 3e c9 92 3b be 1e 1f a5 be 9c b1 4e 3e
       0.17262621 -0.18317713 -0.32250303 0.2018494
000170 f3 5b 86 3d 3d 60 ae 3e ef 6e d4 3d 37 ed c0 3d
       0.06560507 0.340578 0.103727214 0.09420245
000180 4f 8a 54 3e 52 83 b3 3c 1d 50 80 3e 2b b8 0f 3e
       0.20755886 0.021913204 0.25061122 0.14035098
000190 cd 3b 91 3d 54 7c 2a 3e f7 d2 0e be 74 03 ca bd
       0.07091484 0.1664899 -0.13947664 -0.0986394
0001a0 01 c2 62 3c c0 04 9d be c6 46 58 be e3 2b 78 be
       0.013840199 -0.30667686 -0.21120748 -0.24235491
0001b0 d1 b1 42 be b8 85 0b 3e b7 01 e4 3d 5e fa ae bc
       -0.19013144 0.13625228 0.111331396 -0.021359619
0001c0 10 59 b5 bc fd 55 02 3e e8 d7 41 be 4b 14 9f bd
       -0.022137195 0.12728114 -0.18930018 -0.077675425
0001d0 51 d4 80 be 52 b0 a3 be 5a 71 90 3e 26 af 8d 3e
       -0.25161985 -0.3197046 0.2821148 0.2767269
0001e0 29 e7 e6 3c c5 31 4f 3e e1 06 9b be fc 31 90 3e
       0.028186398 0.2023383 -0.30278686 0.28163135
0001f0 fe 2f 2b be 6d 76 09 b9 52 ae a1 3d 54 01 3f bd
       -0.16717526 -0.00013109455 0.07894577 -0.046632126
000200 ae ea 16 3e bd 7c d0 3d f9 c2 97 be 51 85 af 3c
       0.1473796 0.10180042 -0.2964094 0.021425875
000210 68 c3 27 bc e3 36 6e 3e f0 02 c0 39 25 37 61 3d
       -0.01023946 0.23263125 0.00036623282 0.05498423
000220 40 4f 49 bc ec 03 bb bd 9f aa 53 be 5a 17 a1 be
       -0.012286961 -0.091316074 -0.20670556 -0.31463128
000230 de ab ad 3e 2c 95 d8 3d 48 ca 1f be 17 c4 f7 3d
       0.33920187 0.10575327 -0.15604508 0.12097948
000240 55 7f d8 3d ac 59 75 3e f3 d6 8e 3e 62 8b 85 3e
       0.10571162 0.23959988 0.27898368 0.26082903
000250 2a 93 1c be 3b c8 96 3e b3 da 2a be 18 91 73 3d
       -0.15290514 0.2944964 -0.1668499 0.059464544
000260 e8 fb 60 be 9d 40 12 3e b3 eb 6d be 1b 08 a1 be
       -0.21971095 0.1428246 -0.23234443 -0.31451496
000270 39 1b 97 3e 83 34 a2 3e ac d9 2a 3e 07 67 a6 3c
       0.29512957 0.31680688 0.16684598 0.0203128
000280 74 68 ba bd c9 4d 3d 3d 43 86 e1 bc 23 cc 29 be
       -0.09101954 0.04621676 -0.027529841 -0.16581778
000290 1f d5 48 bd d9 6c 93 bc 70 e8 19 3d 2b 92 cc bd
       -0.049031373 -0.017996239 0.037575185 -0.09988817
0002a0 6d df 73 3b 04 f0 8b 3e f8 dc 8a 3d 8d 6f 86 3e
       0.003721203 0.27331555 0.06780428 0.26256981
0002b0 2c 1b 5c 3e a7 80 0b be cc b6 4b 3e b7 18 21 3e
       0.2149474 -0.13623296 0.1989395 0.15732084
0002c0 a6 5a e4 3d 11 a0 93 be 4f 54 97 be 54 88 f0 bd
       0.11150102 -0.28833058 -0.2955651 -0.117447525
0002d0 87 c9 81 3e dd af a4 be ca a2 22 be fd 0e 02 bd
       0.25349066 -0.32165423 -0.15882412 -0.031752575
0002e0 32 2f f0 bd ce 0d 56 be eb 00 df 3d 92 b5 4d be
       -0.11727752 -0.20903704 0.10888847 -0.20088795
0002f0 48 0f 0c 3e 0e ef 99 3e 14 ad b1 3d ed 36 cb bc
       0.13677704 0.30065197 0.0867559 -0.024806464
000300 0d e8 d3 bd a9 1b f3 3d ca 66 87 3e 3c 3d 1f be
       -0.103469945 0.1187051 0.2644561 -0.15550703
000310 b1 32 64 3e b3 a0 a0 3c 17 d4 a1 be de 80 a0 be
       0.22284962 0.019607877 -0.31607124 -0.31348318
000320 5d a3 30 3e 06 9d a3 be a0 5f 5f 3e 58 aa 6b 3e
       0.17249818 -0.31955737 0.21813822 0.230142
000330 f8 60 91 bd 3f 7e 7c 3e 50 03 57 be 66 fa ab 3e
       -0.070985734 0.24657534 -0.20997357 0.33589476
000340 c4 a9 8d be dd f2 82 3c 9f 69 40 be 91 10 88 3e
       -0.27668583 0.015984947 -0.18790291 0.2657514
000350 f8 46 9e be 8c ad 89 be 50 9d 6f be 95 76 1f be
       -0.3091352 -0.26890218 -0.23399854 -0.15572579
000360 de 91 ab bd 0b f9 cb 3c 2c 08 2c be b1 0b 50 be
       -0.08377431 0.024899026 -0.16799992 -0.2031696
000370 61 10 66 3e 96 05 23 3e 9a c0 89 3e 3b 96 09 be
       0.22467186 0.159201 0.26904756 -0.13436215
000380 bf 13 98 3d 02 a7 38 bd 4a 0c 67 bd 4a 1d 87 3d
       0.07425641 -0.045081146 -0.056408204 0.06597383
000390 d0 18 bf 3d 3c 74 8b be ca 79 22 be 31 2e 31 3e
       0.093309045 -0.27237117 -0.15866771 0.17302777
0003a0 52 20 8f bc 8f 13 a9 3e 13 93 81 be 74 21 53 3e
       -0.017471466 0.33022735 -0.2530752 0.2061823
0003b0 b6 55 27 3e cd 05 54 be 23 d5 9b 3e d2 fc ad 3e
       0.1634129 -0.20705338 0.30436048 0.3398195
0003c0 d8 8c 76 be d4 f7 17 3e 90 79 77 bd 62 38 a0 be
       -0.24077165 0.14840633 -0.060418665 -0.31293017
0003d0 22 52 cf bd ca 5a 8d 3e cf a8 84 be 9a 6f 97 bd
       -0.101230875 0.2760833 -0.2591004 -0.07394333
0003e0 4b 83 31 3e 34 8e 33 3d c3 5b 96 3b 9d 7f 2c 3e
       0.1733524 0.043836787 0.0045885756 0.16845556
0003f0 2c 7f f1 bd cf 97 a8 3e 53 ad 5d 3e 2e 04 07 be
       -0.11791834 0.3292832 0.21648149 -0.13185188

bias f4 [320]
000000 3d f7 6b be 2c 16 9a 3e c7 7f e5 3d ca d0 4b be
       -0.23043533 0.3009504 0.11206012 -0.19903865
000010 13 07 0b be 45 31 9b be 61 54 8b 3d e8 70 97 be
       -0.13576917 -0.30311027 0.068032034 -0.29578328
000020 79 e4 80 be 15 c6 c5 3d 0a ca ae 3e 77 a5 84 3e
       -0.2517431 0.09656922 0.3413852 0.2590749
000030 6e c2 a1 3c 40 25 39 be 29 b7 5d 3d c6 0b 98 be
       0.019746032 -0.18080616 0.054129753 -0.29696482
000040 06 ab 91 be de 77 1c bd 8a bb 83 3d 38 3f 0a be
       -0.28450793 -0.03820025 0.064322546 -0.13500679
000050 0c 8f 90 be 85 66 a0 be a3 09 86 3e 6a 56 23 be
       -0.28234136 -0.31328216 0.26179227 -0.15950933
000060 6c 5d 54 be b6 9d bc 3d cf 52 0b 3e 6b fc 10 be
       -0.20738763 0.092097685 0.13605808 -0.1415879
000070 e2 76 aa 3e 8c 80 8e 3e 22 1a a4 3e 53 0b 10 3d
       0.33293825 0.27832448 0.32051188 0.03516705
000080 3a ff b0 3c 1f 9a a9 3e 82 40 56 3b c6 b7 f7 bd
       0.021606077 0.33125398 0.0032692258 -0.12095599
000090 3b 88 7a 3d 1c 98 ea 3d e6 ad 16 3e 42 33 8d be
       0.061165076 0.11454794 0.14714774 -0.2757817
0000a0 03 93 9f 3c d6 58 40 3e 4c 1c 41 3e de a8 90 be
       0.01947928 0.18783888 0.1885845 -0.28253835
0000b0 38 43 06 3e 5e a0 e5 3d fd db fd 3d b1 fb 48 bd
       0.1311158 0.11212228 0.12395475 -0.049068157
0000c0 bd 11 ce bd d0 eb 06 be 31 10 9a bd 65 c3 87 be
       -0.10061977 -0.13175893 -0.075226195 -0.26516262
0000d0 a3 4f 8b bc 13 64 ac 3e 60 5d eb bd f9 6b 09 be
       -0.017005747 0.336701 -0.11492419 -0.13420095
0000e0 54 43 80 3e 43 8d d5 3d d5 1c af 3e 8d 48 9c 3e
       0.25051367 0.10427334 0.34201685 0.30524102
0000f0 75 17 7f be 03 a0 2e 3d 2f 71 00 be 3c d4 75 be
       -0.24911292 0.042633068 -0.12543176 -0.24006742
000100 dc 77 8c be 98 e5 10 be 07 3f 3a 3e d7 c5 ac 3e
       -0.27435195 -0.14150083 0.18188106 0.3374469
000110 a6 37 17 3e f2 19 13 3d d1 4c 10 be 07 d2 2d be
       0.14767322 0.035913415 -0.14091803 -0.1697465
000120 04 00 82 3e 56 ae 81 be 35 3b 7e bd 1d 79 29 be
       0.25390637 -0.2532832 -0.062068183 -0.16550107
000130 3f 3a 4a 3e 5b fc 68 be db 13 4a 3e 1c cc 83 be
       0.19748782 -0.22752516 0.19734137 -0.2574166
000140 83 3c be bc a5 a0 ad 3e 9e 06 84 3e 7b 9f 55 3e
       -0.023222214 0.33911625 0.257863 0.20861618
000150 b4 f8 59 3e f8 fb c8 3d 0c f7 60 bd d1 d0 43 be
       0.21286279 0.09813684 -0.054923102 -0.19122626
000160 2b c5 39 3d e7 b4 25 be c2 2b 5e 3e 02 be b4 bd
       0.04535405 -0.1618229 0.2169638 -0.088253036
000170 4c 22 28 be 95 73 a6 3d 94 a6 ff 3d ca ea 92 be
       -0.16419333 0.08127514 0.12482944 -0.28694755
000180 09 ff a4 be f5 07 ab 3e 25 3f b6 3e d5 f8 85 be
       -0.32225826 0.33404508 0.3559505 -0.26166406
000190 cf 21 0f bc 3e 0d 4d bd 76 30 e4 3d 0d 0b 25 3e
       -0.008736088 -0.050061457 0.11142056 0.16117497
0001a0 3a 3c d2 3d 88 af 8b be d2 30 86 3c 56 db 12 be
       0.102653936 -0.27282357 0.016380701 -0.14341483
0001b0 33 aa 3a be 41 d1 28 be e6 49 d8 3c 9c f5 17 be
       -0.18228988 -0.16486074 0.026402425 -0.14839786
0001c0 f8 23 a4 3e df c9 4c 3d 77 6b 45 be c1 0e 93 be
       0.32058692 0.049997207 -0.19279276 -0.28722194
0001d0 cd ac a3 3e 5c 8e 1d 3c 67 ad e1 3d f5 62 80 3e
       0.31967774 0.009616461 0.11019402 0.25075498
0001e0 6d c0 9f 3e 20 d8 0c be 3a 13 63 be a6 02 51 3e
       0.31201497 -0.1375432 -0.22175303 0.20411167
0001f0 30 e5 5e be 7b 25 76 be b9 ee 78 be 29 44 f1 bd
       -0.21767116 -0.24037735 -0.24309815 -0.11780579
000200 1b 7c 9d bd ea 83 e9 3d b7 38 ee bd de 84 d8 3d
       -0.07689687 0.11402114 -0.11631911 0.105722174
000210 a8 95 8c be 46 12 a6 3e dd c0 50 be 50 42 4f be
       -0.2745793 0.32435817 -0.20386072 -0.2024014
000220 2e 1e a9 3d d7 53 e0 bd 6c b9 71 bd 07 cf cc bd
       0.082577094 -0.10953491 -0.059014723 -0.10000425
000230 9d b8 87 3e 52 fe 0c bc 1f 72 48 be ce d9 0e bc
       0.26508036 -0.008605557 -0.19574784 -0.008718921
000240 03 55 70 bd 73 e8 63 3d bd 13 1d 3d 23 92 24 bc
       -0.058674823 0.055641603 0.038348902 -0.010044607
000250 2b 0b 5d be 6f 6b 2f 3e 1c 2f 68 3e e6 0d a7 bc
       -0.21586291 0.17130826 0.22674221 -0.02039237
000260 4c e7 3f be f1 3c 09 be 13 03 90 3e 9b 9b 22 be
       -0.18740577 -0.13402154 0.28127345 -0.15879671
000270 36 13 9f 3e 06 51 07 3d 42 ed 4c 3d de 08 af 3e
       0.31069344 0.033036254 0.050030954 0.34186453
000280 b8 a2 b6 bd d8 95 f2 bd f8 ee 95 be 34 27 94 be
       -0.08917755 -0.11844987 -0.2928388 -0.2893616
000290 f6 c5 88 3e 63 de b6 3d 73 ef 61 3e 5d 28 9f 3e
       0.26713532 0.08929136 0.22063999 0.31085482
0002a0 d9 71 1d be ed d3 11 be fe 91 bd 3d 9b 96 c2 3d
       -0.1537546 -0.14241 0.092563614 0.09501382
0002b0 86 3d fa bd 9f 38 27 3e 1c 66 42 be 1c 6f 75 be
       -0.12218766 0.16330193 -0.18984264 -0.23968166
0002c0 69 bd 67 be d7 df 66 be 4f fc 93 3e 51 83 93 be
       -0.22630848 -0.22546326 0.28903434 -0.28811124
0002d0 47 77 c2 3d b8 bb a0 3d 47 7b f2 3c 59 2b de 3d
       0.094954066 0.078483045 0.029599799 0.10848112
0002e0 47 b5 22 be 81 2f 95 be 8c 23 83 3e 77 15 cb 3d
       -0.15889464 -0.29137805 0.25613058 0.099162035
0002f0 04 e3 80 3d c1 d6 90 be 92 cf 56 3e 29 7a 91 3e
       0.062933 -0.28288844 0.2097762 0.28413513
000300 42 a7 d5 3c 87 39 e3 bd 0e 88 96 3e 5c f3 15 3d
       0.026080731 -0.11094957 0.29400676 0.03660904
000310 c7 0b e4 3d 9f f6 77 be d1 ad 9f 3e e4 df 8e be
       0.11135059 -0.24215172 0.311873 -0.2790519
000320 4a 8f 66 be 21 97 a9 3e f2 67 5d be 34 13 6e 3e
       -0.22515598 0.33123115 -0.21621683 0.23249513
000330 0c 12 f7 3d 92 4f a6 39 4b 84 11 3e 81 0c 8c be
       0.12063989 0.00031721272 0.14210622 -0.2735329
000340 a0 8e f0 bd d0 4b a7 3d c6 ff ca 3d 66 db 00 3d
       -0.117459536 0.08168757 0.09912066 0.031459235
000350 a0 22 46 3e d0 29 96 b9 4c 1e 6d 3e 15 2c 2a 3e
       0.19349146 -0.00028641382 0.23156089 0.16618378
000360 84 3b a0 3e d1 e3 04 be 56 71 6e 3e 75 79 77 be
       0.31295407 -0.1297753 0.23285422 -0.24167426
000370 60 d7 1d 3e 0c c3 42 be e8 2c 27 3e 96 60 49 be
       0.1541419 -0.19019717 0.16325724 -0.19665751
000380 75 4d ac 3e 60 50 66 be 60 2a 9d 3e 4b d6 e2 3d
       0.33652845 -0.22491598 0.30696392 0.110760294
000390 63 c5 a6 bd bd c8 ee bc d1 ed 2d be 36 f4 9e 3e
       -0.08143117 -0.029148454 -0.16985251 0.31045693
0003a0 fc 72 e6 bd 46 ce 66 bd bf e0 30 be 9d c6 90 bd
       -0.112524 -0.05634906 -0.17273234 -0.070691325
0003b0 73 b7 52 be b3 d4 61 3e 69 99 65 be 63 8d 8f 3e
       -0.20577793 0.22053795 -0.22421803 0.28037557
0003c0 b3 c3 2e 3e 55 f7 3e 3c 0d e9 0e 3e a2 cb 2c be
       0.17066841 0.011655648 0.1395609 -0.16874555
0003d0 fc f7 70 3e 29 83 74 be 86 fd 33 3e c0 a9 d7 3c
       0.23532099 -0.23878159 0.1757718 0.02632606
0003e0 f5 db 0f bd c6 39 f2 3b 38 f7 8f 3e f1 84 9f bd
       -0.035121877 0.007392141 0.281183 -0.077890284
0003f0 bc e8 85 be 35 83 79 bd 19 a8 77 be 30 dc 2f 3e
       -0.26154125 -0.060916144 -0.24185218 0.17173839

weight f4 [4, 320]
000000 a4 b5 c0 39 92 8a 64 bc 75 e4 4d 3d c1 91 ad 3a
       0.00036756427 -0.013949053 0.0502667 0.0013242291
000010 29 74 99 bb 87 0e 46 3b a9 8a 81 bc 22 d3 81 3b
       -0.004683037 0.0030221061 -0.015813189 0.0039619366
000020 2c ea c0 b9 77 0c 48 3d c5 6b f6 3b 64 8b 30 bd
       -0.00036795565 0.048840012 0.0075201713 -0.043101683
000030 8d 4c 82 3d e7 04 e9 bc dc b7 08 bc f3 b7 c0 39
       0.06362257 -0.02844472 -0.008344617 0.00036758147
000040 b2 62 ab 3a 7e b5 f0 3c 9d 96 52 bc c1 97 3c 3d
       0.0013075678 0.029383417 -0.012853292 0.04604316
000050 aa fb c0 39 35 2c 00 bd fe 19 12 3d e9 30 01 3d
       0.00036808598 -0.03129216 0.03566932 0.031540785
000060 2d ab 82 3d f6 cb 03 bd 02 02 3c 3d 61 7d 47 ba
       0.063803054 -0.032176934 0.045900352 -0.00076099305
000070 4e 90 a2 bc ee 6a 77 3d 4c 6f 4a 3d 9b 9a 9a bc
       -0.0198442 0.06040471 0.049422547 -0.01887255
000080 9e a3 49 3d 09 72 02 3d cb 43 3d bc 91 38 81 3d
       0.049228303 0.031847034 -0.011551808 0.06309617
000090 76 f4 4e bc 0e cd d6 3c 49 3b 88 bc 17 a9 c0 39
       -0.012631526 0.026220825 -0.016629832 0.00036747076
0000a0 dd 25 19 bb 75 c9 71 bc 3c 16 a9 bc 5e 7b b5 39
       -0.0023368516 -0.014757504 -0.020640485 0.00034614926
0000b0 ef a3 80 3c 1a d9 8a bc da d7 2c bc fe f7 8c 3d
       0.01570317 -0.016949225 -0.01054951 0.06883238
0000c0 a0 d2 57 bc ca b3 3c bd a6 ad af bc 49 ca 87 3c
       -0.0131727755 -0.046069898 -0.021445107 0.01657595
0000d0 e3 b0 cb bc e2 18 aa 3c d4 37 4a 3d db 8e 53 3d
       -0.02486462 0.020763818 0.049369648 0.05164991
0000e0 0b 60 d5 3c 8b b8 aa bc 97 d6 0c 3d a0 22 91 3b
       0.026046773 -0.02083995 0.034384336 0.0044291764
0000f0 bf 16 b0 bc 20 87 10 bd 77 11 47 3d 30 8d 5a 3d
       -0.021495221 -0.035285115 0.04860064 0.053357303
000100 6b 9b 5b ba 9b 06 c0 39 18 bb 02 bc d8 36 33 3d
       -0.0008377346 0.00036626015 -0.007979177 0.043753475
000110 02 8b 00 bd 30 47 02 bd 7a bd 37 bc d7 24 48 b9
       -0.03138257 -0.03180617 -0.011214608 -0.0001908721
000120 14 22 c1 3c 7a 3c 0b bd 95 4e 74 3a 84 8f b7 39
       0.02357582 -0.03399322 0.0009319571 0.00035011407
000130 8d 75 3e 3d 72 eb 0d 3d a0 3e 35 3c 0f df ef bb
       0.046498824 0.034648366 0.011062294 -0.007320292
000140 cb 06 3b 3c 92 a1 27 3d 70 be 3b 3d 34 19 b7 bc
       0.011415194 0.04092557 0.045835912 -0.022350885
000150 4f 9d 16 bc 46 9e 87 3c ea 9f 09 bb 86 8e 1b 3d
       -0.009192779 0.016554963 -0.0020999857 0.037977718
000160 ef 81 b6 bb 34 fe 09 bd 9d 50 f1 bc 6d fb 08 bd
       -0.0055696885 -0.033689693 -0.029457385 -0.033442903
000170 ee 52 c0 b9 58 a1 13 bd c7 fc c2 3c 68 e0 3e bc
       -0.0003668288 -0.03604254 0.023802174 -0.011650182
000180 23 16 50 3c 2f 50 28 3d 18 8b e2 3c 20 1e a4 b9
       0.01270059 0.041092094 0.027654216 -0.00031302962
000190 1a 71 18 bc 27 e3 b7 bc b1 d1 4e 3c c6 74 82 3d
       -0.009304309 -0.022447182 0.0126232365 0.06369929
0001a0 b3 6a 84 ba 51 bb c0 39 12 41 2f 3d 6e 20 ab 3c
       -0.00101026 0.00036760655 0.042786665 0.020889487
0001b0 04 0f b3 bc 88 f5 1c 39 84 9b 37 3d 25 2b 86 3d
       -0.021857746 0.00014968787 0.044826046 0.06551198
0001c0 37 d2 99 bc 04 40 a0 bc a4 ce c0 b9 db ec cc bc
       -0.018776996 -0.019561775 -0.00036775053 -0.025015285
0001d0 a1 b7 52 3d d5 dd fe bc ef a6 63 3c bd c4 b0 3a
       0.051444653 -0.031111637 0.013894781 0.0013486367
0001e0 df 17 91 3d 34 53 7f 3c 82 dc 7e 3d c1 7d 56 bb
       0.07084631 0.015583802 0.06222201 -0.0032728764
0001f0 fa e2 d1 bc 17 5a 49 3d f2 25 c8 bc 7f b2 33 bd
       -0.025620926 0.049158182 -0.024432156 -0.0438714
000200 83 22 0c 3d ec 25 2d 3c a5 f9 d0 3c ea 9c 6a bc
       0.0342126 0.010568123 0.025509665 -0.014319638
000210 8b 7e ac 37 32 05 42 3b fb 84 6f 3d a5 08 a6 b9
       2.0562924e-05 0.0029605147 0.05847643 -0.00031668428
000220 06 9b 5a 3d c5 3b de 3b b1 20 89 3d be 37 f9 39
       0.053370498 0.0067820274 0.066956885 0.00047534512
000230 4a fe 6b 3d ea e0 24 3c 9d 7b 51 3d fe 42 f7 3c
       0.057615556 0.010063389 0.051143277 0.030183312
000240 a8 6a 11 3b ec 47 14 3d 85 67 72 3d 8b 96 bf 3c
       0.0022188816 0.036201403 0.059180755 0.023387214
000250 38 1f c1 39 b3 1c 95 3d ab 8d a6 3b 1d 90 c5 bc
       0.00036835088 0.072808646 0.005082806 -0.02411657
000260 3b 48 a9 bc ea 67 c0 39 c4 ec 8a 3c 84 81 1a bc
       -0.020664325 0.00036698516 0.016958602 -0.009430293
000270 5c d6 dc 3c e1 2e b7 3c 29 1d 9c bc 6d 04 71 3d
       0.026957683 0.02236122 -0.019056873 0.05884211
000280 1b b9 00 bd d4 f6 b6 b9 3b 3b 40 bd 3c 99 f0 bc
       -0.03142653 -0.00034897646 -0.046931487 -0.029369943
000290 e7 ef 9c bb 63 46 6c 3d 9f 2b 9b 3c e2 f6 be bc
       -0.004789341 0.057684314 0.018941699 -0.023311082
0002a0 a8 3f b9 b9 65 0d 35 bd 99 90 13 3c 2f 4b ec ba
       -0.00035333377 -0.044202227 0.009006643 -0.0018027778
0002b0 d4 74 0a 3c 21 bf 21 bd 71 5d 56 ba bc d3 13 bd
       0.008450706 -0.039488915 -0.0008177376 -0.036090598
0002c0 d5 7d 6e 3b 03 c2 c0 b9 65 07 4c 3d 85 82 36 b9
       0.003639092 -0.00036765644 0.04981174 -0.00017405495
0002d0 f8 cb 76 3c bf 6c 5f 3c 14 17 8d 3d ed 49 19 3d
       0.015063278 0.013636767 0.068891674 0.037424017
0002e0 3e ec a0 bb 14 84 4d bd 83 df 78 3d 52 42 2b bd
       -0.0049109748 -0.050174788 0.060760032 -0.041811295
0002f0 ba 0d 84 bc fa ce 8b 39 ef 10 fd bc eb a8 09 bd
       -0.016119827 0.00026666356 -0.030891864 -0.03360836
000300 28 11 04 3d 7f d6 29 bd 52 6d a1 bc 3d 59 04 bd
       0.032242924 -0.041464325 -0.019705448 -0.032311667
000310 0c b7 10 3d 12 76 9d bb 74 a0 62 bc 49 82 bf 39
       0.035330817 -0.004805335 -0.0138322 0.0003652743
000320 02 35 ca 39 cf f0 46 3d a6 3c 3d 3d 1b 00 0a 3d
       0.00038567936 0.048569497 0.046200417 0.033691507
000330 dd b7 79 bc ee 5a 96 3c 7a ff 76 3d 85 c2 c4 3b
       -0.01524159 0.018353906 0.060302235 0.006004634
000340 66 80 b3 bc 62 25 c8 3b 80 34 38 3c d7 df 1c bd
       -0.021911811 0.006107972 0.011242986 -0.038299408
000350 96 66 85 3c af 0c 2e bd 7a c6 43 38 1a b0 05 3d
       0.016284268 -0.042492565 4.667647e-05 0.032638647
000360 0d 57 76 3c 1a 94 a2 bc a5 63 cb bc 5c 05 c1 39
       0.015035403 -0.019846011 -0.024827788 0.00036815822
000370 28 ca 11 bd fc 8b da b9 6a 79 55 3b 09 63 51 3d
       -0.03559318 -0.00041684497 0.003257359 0.051119838
000380 9c 2a 20 3d ec 7c 43 3d 3c a2 37 3a f2 04 52 3b
       0.039103135 0.047726557 0.0007005071 0.0032046405
000390 db f1 bd 3c ac 43 a7 3a bd 23 e3 bc 99 ed 05 3d
       0.023186615 0.0012761257 -0.027727002 0.032697294
0003a0 ea f6 52 ba 76 89 70 b9 c3 36 a5 39 6c be c0 39
       -0.00080476573 -0.00022939392 0.00031512053 0.0003676297
0003b0 a8 0f c1 b9 ed 2a 96 bb 41 cf b4 b9 ba db 2c bc
       -0.00036823493 -0.004582754 -0.00034486692 -0.010550434
0003c0 fc fc 97 3d f8 bf fb bb 05 0d 8b 3b 74 f9 e6 3c
       0.074213 -0.0076827966 0.0042434954 0.02819512
0003d0 d3 7a 37 3d be 3b 12 bd a0 81 19 bd a2 24 a7 3c
       0.04479487 -0.035701506 -0.037477136 0.02040321
0003e0 5c eb 4e 3d 07 03 b3 3b 14 84 09 3d 5d 7d d7 bc
       0.050517425 0.0054630074 0.033573225 -0.026304895
0003f0 04 3f c0 b9 f0 00 75 bc c0 55 c0 b9 66 70 97 bb
       -0.00036668044 -0.014953837 -0.00036684982 -0.0046215532

bias f4 [4]
000000 e7 f1 d4 bb c8 9e 66 3d 06 62 8c bc 46 bf 6a 3d
       -0.0064985636 0.05630377 -0.017136585 0.05731132

weight f4 [4, 8]
000000 f1 c5 80 bd ae e9 c9 3d d5 89 42 3e 50 7c a6 bd
       -0.06287754 0.09859024 0.18997891 -0.081291795
000010 50 47 94 3e b2 3f 49 3e ce b6 85 bc 22 c7 66 be
       0.28960657 0.19653204 -0.01632252 -0.225369
000020 e6 50 41 3e af 84 3d 3b 21 09 15 3e c0 9a 48 be
       0.18878517 0.0028918197 0.14554264 -0.19590282
000030 65 d1 85 be cc 30 08 bd da 81 a2 3d 23 fd 62 3e
       -0.26136318 -0.03324966 0.079349235 0.22166876
000040 31 d2 89 be a5 22 d1 3d 69 21 3d 3e 8e 15 02 be
       -0.26918176 0.10211686 0.18469776 -0.12703535
000050 94 f2 92 bd c1 ff e3 bd 34 08 f0 3d 4b ae 85 bd
       -0.07175174 -0.111327656 0.117203146 -0.06527384
000060 aa 8d d0 bd c2 c7 b2 be 98 f7 83 bd 3b 35 1e bc
       -0.1018327 -0.34918028 -0.06443709 -0.009656246
000070 fe 1d d0 bd 4b 1c a9 be 03 b9 92 3d e4 3d 98 3c
       -0.101619706 -0.33029398 0.071641944 0.0185842

bias f4 [4]
000000 a3 1a d1 bc f3 bf 64 be be ea a5 3e cc 7d 78 3e
       -0.025525397 -0.22338848 0.32405657 0.24266738

weight f4 [4, 8]
000000 8a 24 5e 3a f9 05 af bb 87 c9 18 3e 56 32 80 3e
       0.00084740727 -0.005341288 0.14920627 0.25038403
000010 86 61 80 3e ff 3a c1 39 6d a1 0a 3e 10 99 b3 39
       0.25074404 0.00036855784 0.13538142 0.0003425558
000020 9b 83 82 be 18 f4 97 bd e6 7b d8 bd 79 46 77 be
       -0.25491032 -0.07419604 -0.10570507 -0.24147977
000030 8f 52 f9 3d c3 6c 38 3d ed 8f 18 bc 56 05 36 3e
       0.1217395 0.0450256 -0.009311658 0.17775473
000040 fe ce 6f bd 5b 7e 63 be 9e c1 44 3e 76 6d 54 bd
       -0.058547013 -0.2221617 0.19214484 -0.051862203
000050 1f 04 5b be ea 33 71 3e 28 9b 81 be d5 51 0b 3d
       -0.21388291 0.2355496 -0.25313687 0.034013588
000060 d3 54 a1 3e 2c 0c 8b be 05 35 6e 3e e5 1b 92 be
       0.31510028 -0.27157724 0.23262413 -0.28536907
000070 91 e5 32 3e bd 08 9f 37 ed 5c 92 be 91 cc c7 3c
       0.17470385 1.8958346e-05 -0.28586522 0.024389537

bias f4 [4]
000000 1f eb 1e be 4c 27 99 3d f3 80 88 be ff 40 9f bd
       -0.15519379 0.074781984 -0.2666088 -0.07776069

weight f4 [10, 2]
000000 24 7f 0d bf cc 7b fa 3d 25 63 66 be ab e9 c2 3d
       -0.55272126 0.12230644 -0.22498758 0.09517225
000010 82 7f 11 be ae 62 4a 3e 89 ed 9c 3e 67 22 89 be
       -0.14208797 0.19764206 0.30649975 -0.2678406
000020 4e 3d 05 3f 28 37 13 3f 1f 00 91 be d9 52 c9 bd
       0.5204667 0.57506037 -0.28320405 -0.09830255
000030 82 10 28 bd ac e5 0f 3f 30 fa 1c bf c0 95 10 3f
       -0.041031368 0.56209826 -0.61319256 0.564785
000040 c7 ec cf be 98 68 26 3e 8c cf 85 3e 8e 03 14 be
       -0.40610334 0.16250837 0.26134908 -0.14454481

bias f4 [10]
000000 2a c0 24 3f e4 9f c5 bd 75 27 e6 be a4 9c 2e 3f
       0.6435572 -0.09649637 -0.44951978 0.68207765
000010 88 e0 1a bf 69 c0 1b be c3 3b 98 bc e7 b9 31 bf
       -0.6049886 -0.15210117 -0.018583184 -0.6942429
000020 fe e7 9e be aa d4 a9 be
       -0.3103637 -0.33170062

weight f4 [10, 2]
000000 72 4b d1 bd 86 cd ba be fc c0 92 be e8 d8 81 3e
       -0.10219468 -0.36484927 -0.2866286 0.253608
000010 13 c9 78 bc 7f d8 0d 3e ac de 2c 3f 20 7f 26 bf
       -0.015184659 0.13852118 0.6752727 -0.6503773
000020 58 ce 40 3e c5 6c 90 be 63 e6 e6 3e b8 ee c7 3e
       0.18828714 -0.28207985 0.45097646 0.39049315
000030 1f 63 db 3e 4d a8 bc be c9 ac d5 be bd 18 bb 3e
       0.4284906 -0.36847153 -0.41733387 0.3654231
000040 fa 6c b2 3e 85 2a e9 bc ff 69 e3 3e df 3e 4e 3d
       0.34848768 -0.028462658 0.44416806 0.050352927

bias f4 [10]
000000 07 b5 8f 3e b8 0a 35 bd 14 84 22 bf 67 70 f9 be
       0.280678 -0.044199675 -0.63482785 -0.4871857
000010 71 e9 26 3f 35 85 da 3e b3 d4 87 be 26 1d a5 3e
       0.65199953 0.42679754 -0.26529464 0.322488
000020 bb 2d 20 3e 1f ef 03 bf
       0.15642445 -0.51536745

weight f4 [20, 4]
000000 1b 4e 01 bf 23 3f db be f5 1e 8e 3e b0 ba 8d 3d
       -0.50509804 -0.42821607 0.27757993 0.069203734
000010 f5 6b eb be 3b 10 87 bc 71 1b 7c bc 5d 80 72 bd
       -0.45980802 -0.016487231 -0.015387402 -0.059204448
000020 54 77 05 be c7 a1 85 3e 66 d8 a9 be 03 15 9a 3a
       -0.13033801 0.2609999 -0.3317291 0.001175553
000030 96 f3 db 3d 71 a7 6e 3e cb 01 b2 be 2e 32 43 be
       0.1073982 0.23306061 -0.34766993 -0.19062111
000040 00 1d fc be 00 f6 e6 3e b4 b8 b2 3e 5f 9a a7 3e
       -0.49240875 0.45109558 0.34906542 0.32734963
000050 a6 d6 32 be 3a 65 95 3d bf ea 35 3e 46 c2 ff 3d
       -0.17464694 0.07294698 0.1776533 0.124882266
000060 32 98 e9 3e eb 8d 69 3e 74 df c2 3e 07 01 d3 3e
       0.45623928 0.22808044 0.38061106 0.4121172
000070 aa 82 87 3e 9e 42 f8 be 5a ce 55 3e a6 fd e0 3c
       0.26466876 -0.48488325 0.20879498 0.027464699
000080 e9 fb 6b be 88 08 e2 bd b8 3c e6 3e 05 7c 96 be
       -0.23045315 -0.110367835 0.449682 -0.29391494
000090 6f a2 5d be a3 ca bb 3e 16 46 ab be c8 15 e9 be
       -0.21643995 0.36678037 -0.3345191 -0.4552443
0000a0 1e 35 ed be 3f 25 cc be d2 bf 8a 3e f0 ac 53 3e
       -0.46329588 -0.39872167 0.27099472 0.20671439
0000b0 09 2e 93 be 81 d1 ec be 60 75 9e be b8 9d ba be
       -0.2874606 -0.4625359 -0.30948925 -0.36448455
0000c0 6d 07 b6 3e 3e e2 15 be 10 05 59 be e0 35 70 3e
       0.3555254 -0.14637086 -0.21193337 0.23458052
0000d0 f7 88 0b bd e2 25 92 be e6 e2 d8 3d 3c 1e f7 bd
       -0.034066167 -0.28544527 0.105901524 -0.120663136
0000e0 bd 55 bb 3e 77 4d 6a be 4d 6c 8e be 7f 2c eb be
       0.3658885 -0.22881113 -0.27817002 -0.45932385
0000f0 6f 51 b1 be b0 62 93 3e b0 2f d3 bd ae 44 e9 3e
       -0.3463244 0.2878623 -0.1031183 0.4556021
000100 8e a2 0e 3e da 68 37 3d 1a 4d d0 be d3 1f df be
       0.13929197 0.04477773 -0.40683824 -0.43578967
000110 26 1b ce 3e 31 97 90 be 83 92 60 be ee 86 aa 3e
       0.40255088 -0.2824035 -0.2193089 0.33306068
000120 16 66 4b 3d 45 dc 02 3f d8 70 ff be 40 0f a0 3e
       0.049657904 0.51117355 -0.4989078 0.31261635
000130 84 86 9c be 0b 46 51 3e a3 10 d1 be a3 10 be be
       -0.30571377 0.20436876 -0.40833005 -0.37122068

bias f4 [20]
000000 17 be 8e bb 29 36 2b 3e c1 46 a1 3e 34 97 9e be
       -0.0043561566 0.16719879 0.31499293 -0.30974734
000010 52 79 50 be 5d 97 81 bd b8 35 9b be 95 67 e7 bd
       -0.2035878 -0.063276984 -0.30314422 -0.112990536
000020 43 d6 f9 3e b5 df e9 be f8 b2 89 3e 07 3a 9f bc
       0.4879628 -0.45678487 0.26894355 -0.01943685
000030 fe 2a ce 3e c0 b6 d5 3e 97 45 a3 bd 4b 7e 28 3d
       0.40267175 0.4174099 -0.079722576 0.041136067
000040 56 d5 08 3e c5 11 e2 3e 40 ef 6a 3e 53 81 f2 be
       0.13362631 0.44154182 0.22942829 -0.47364292

G f4 [2, 1]
000000 00 00 00 00 00 00 80 3f
       0.0 1.0

m1x_posterior f4 [2]
000000 61 2d 56 bf 00 b4 80 3b
       -0.8366299 0.0039277077

m1x_posterior_previous f4 [2]
000000 38 de c8 bf 48 dc b5 bd
       -1.5692816 -0.08879906

m1x_prior_previous f4 [2]
000000 fc 3b d4 bf 5d a6 40 3f
       -1.6580806 0.7525385

y_previous f4 [2]
000000 98 c5 72 3f 04 70 98 bf
       0.94832754 -1.1909184
