KNet/Linear_SS_No_MM/pipeline_KNet_Linear_Dynamics_T100_r2_positive_10dB.pt (torch, 199497 bytes, 351 tensors)

G f4 [2, 1]
000000 00 00 00 00 00 00 80 3f
       0.0 1.0

Q f4 [2, 2]
000000 00 00 20 41 00 00 00 00 00 00 00 00 00 00 20 41
       10.0 0.0 0.0 10.0

R f4 [2, 2]
000000 00 00 20 41 00 00 00 00 00 00 00 00 00 00 20 41
       10.0 0.0 0.0 10.0

prior_Q f4 [2, 2]
000000 00 00 80 3f 00 00 00 00 00 00 00 00 00 00 80 3f
       1.0 0.0 0.0 1.0

prior_Sigma f4 [2, 2]
000000 00 00 80 3f 00 00 00 00 00 00 00 00 00 00 80 3f
       1.0 0.0 0.0 1.0

prior_S f4 [2, 2]
000000 00 00 80 3f 00 00 00 00 00 00 00 00 00 00 80 3f
       1.0 0.0 0.0 1.0

m1x_0 f4 [2]
000000 00 00 20 41 00 00 00 00
       10.0 0.0

x_prev f4 [2]
000000 00 00 20 41 00 00 00 00
       10.0 0.0

m2x_0 f4 [2, 2]
000000 00 00 00 00 00 00 00 00 00 00 00 00 00 00 00 00
       0.0 0.0 0.0 0.0

QT f4 [2, 2]
000000 00 00 80 3f 00 00 00 00 00 00 00 00 00 00 80 3f
       1.0 0.0 0.0 1.0

Qx f4 [2, 2]
000000 00 00 80 3f 00 00 00 00 00 00 00 00 00 00 80 3f
       1.0 0.0 0.0 1.0

L f4 [1, 2]
000000 c0 44 14 3f 40 ea c5 3f
       0.57917404 1.5462112

L f4 [1, 2]
000000 e4 4a 14 3f 28 e4 c5 3f
       0.57926774 1.5460253

L f4 [1, 2]
000000 c0 44 14 3f 40 ea c5 3f
       0.57917404 1.5462112

L f4 [1, 2]
000000 e4 4a 14 3f 28 e4 c5 3f
       0.57926774 1.5460253

L f4 [1, 2]
000000 c0 44 14 3f 40 ea c5 3f
       0.57917404 1.5462112

L f4 [1, 2]
000000 e4 4a 14 3f 28 e4 c5 3f
       0.57926774 1.5460253

L f4 [1, 2]
000000 c0 44 14 3f 40 ea c5 3f
       0.57917404 1.5462112

L f4 [1, 2]
000000 e4 4a 14 3f 28 e4 c5 3f
       0.57926774 1.5460253

L f4 [1, 2]
000000 c0 44 14 3f 40 ea c5 3f
       0.57917404 1.5462112

L f4 [1, 2]
000000 e4 4a 14 3f 28 e4 c5 3f
       0.57926774 1.5460253

L f4 [1, 2]
000000 c0 44 14 3f 40 ea c5 3f
       0.57917404 1.5462112

L f4 [1, 2]
000000 e4 4a 14 3f 28 e4 c5 3f
       0.57926774 1.5460253

L f4 [1, 2]
000000 c0 44 14 3f 40 ea c5 3f
       0.57917404 1.5462112

L f4 [1, 2]
000000 e4 4a 14 3f 28 e4 c5 3f
       0.57926774 1.5460253

L f4 [1, 2]
000000 c0 44 14 3f 40 ea c5 3f
       0.57917404 1.5462112

L f4 [1, 2]
000000 e4 4a 14 3f 28 e4 c5 3f
       0.57926774 1.5460253

L f4 [1, 2]
000000 c0 44 14 3f 40 ea c5 3f
       0.57917404 1.5462112

L f4 [1, 2]
000000 e4 4a 14 3f 28 e4 c5 3f
       0.57926774 1.5460253

L f4 [1, 2]
000000 c0 44 14 3f 40 ea c5 3f
       0.57917404 1.5462112

L f4 [1, 2]
000000 e4 4a 14 3f 28 e4 c5 3f
       0.57926774 1.5460253

L f4 [1, 2]
000000 c0 44 14 3f 40 ea c5 3f
       0.57917404 1.5462112

L f4 [1, 2]
000000 e4 4a 14 3f 28 e4 c5 3f
       0.57926774 1.5460253

L f4 [1, 2]
000000 c0 44 14 3f 40 ea c5 3f
       0.57917404 1.5462112

L f4 [1, 2]
000000 e4 4a 14 3f 28 e4 c5 3f
       0.57926774 1.5460253

L f4 [1, 2]
000000 c0 44 14 3f 40 ea c5 3f
       0.57917404 1.5462112

L f4 [1, 2]
000000 e4 4a 14 3f 28 e4 c5 3f
       0.57926774 1.5460253

L f4 [1, 2]
000000 c0 44 14 3f 40 ea c5 3f
       0.57917404 1.5462112

L f4 [1, 2]
000000 e4 4a 14 3f 28 e4 c5 3f
       0.57926774 1.5460253

L f4 [1, 2]
000000 c0 44 14 3f 40 ea c5 3f
       0.57917404 1.5462112

L f4 [1, 2]
000000 e4 4a 14 3f 28 e4 c5 3f
       0.57926774 1.5460253

L f4 [1, 2]
000000 c0 44 14 3f 40 ea c5 3f
       0.57917404 1.5462112

L f4 [1, 2]
000000 e4 4a 14 3f 28 e4 c5 3f
       0.57926774 1.5460253

L f4 [1, 2]
000000 c0 44 14 3f 40 ea c5 3f
       0.57917404 1.5462112

L f4 [1, 2]
000000 e4 4a 14 3f 28 e4 c5 3f
       0.57926774 1.5460253

L f4 [1, 2]
000000 c0 44 14 3f 40 ea c5 3f
       0.57917404 1.5462112

L f4 [1, 2]
000000 e4 4a 14 3f 28 e4 c5 3f
       0.57926774 1.5460253

L f4 [1, 2]
000000 c0 44 14 3f 40 ea c5 3f
       0.57917404 1.5462112

L f4 [1, 2]
000000 e4 4a 14 3f 28 e4 c5 3f
       0.57926774 1.5460253

L f4 [1, 2]
000000 c0 44 14 3f 40 ea c5 3f
       0.57917404 1.5462112

L f4 [1, 2]
000000 e4 4a 14 3f 28 e4 c5 3f
       0.57926774 1.5460253

L f4 [1, 2]
000000 c0 44 14 3f 40 ea c5 3f
       0.57917404 1.5462112

L f4 [1, 2]
000000 e4 4a 14 3f 28 e4 c5 3f
       0.57926774 1.5460253

L f4 [1, 2]
000000 c0 44 14 3f 40 ea c5 3f
       0.57917404 1.5462112

L f4 [1, 2]
000000 e4 4a 14 3f 28 e4 c5 3f
       0.57926774 1.5460253

L f4 [1, 2]
000000 c0 44 14 3f 40 ea c5 3f
       0.57917404 1.5462112

L f4 [1, 2]
000000 e4 4a 14 3f 28 e4 c5 3f
       0.57926774 1.5460253

L f4 [1, 2]
000000 c0 44 14 3f 40 ea c5 3f
       0.57917404 1.5462112

L f4 [1, 2]
000000 e4 4a 14 3f 28 e4 c5 3f
       0.57926774 1.5460253

L f4 [1, 2]
000000 c0 44 14 3f 40 ea c5 3f
       0.57917404 1.5462112

L f4 [1, 2]
000000 e4 4a 14 3f 28 e4 c5 3f
       0.57926774 1.5460253

L f4 [1, 2]
000000 c0 44 14 3f 40 ea c5 3f
       0.57917404 1.5462112

L f4 [1, 2]
000000 e4 4a 14 3f 28 e4 c5 3f
       0.57926774 1.5460253

L f4 [1, 2]
000000 c0 44 14 3f 40 ea c5 3f
       0.57917404 1.5462112

L f4 [1, 2]
000000 e4 4a 14 3f 28 e4 c5 3f
       0.57926774 1.5460253

L f4 [1, 2]
000000 c0 44 14 3f 40 ea c5 3f
       0.57917404 1.5462112

L f4 [1, 2]
000000 e4 4a 14 3f 28 e4 c5 3f
       0.57926774 1.5460253

L f4 [1, 2]
000000 c0 44 14 3f 40 ea c5 3f
       0.57917404 1.5462112

L f4 [1, 2]
000000 e4 4a 14 3f 28 e4 c5 3f
       0.57926774 1.5460253

L f4 [1, 2]
000000 c0 44 14 3f 40 ea c5 3f
       0.57917404 1.5462112

L f4 [1, 2]
000000 e4 4a 14 3f 28 e4 c5 3f
       0.57926774 1.5460253

L f4 [1, 2]
000000 c0 44 14 3f 40 ea c5 3f
       0.57917404 1.5462112

L f4 [1, 2]
000000 e4 4a 14 3f 28 e4 c5 3f
       0.57926774 1.5460253

L f4 [1, 2]
000000 c0 44 14 3f 40 ea c5 3f
       0.57917404 1.5462112

L f4 [1, 2]
000000 e4 4a 14 3f 28 e4 c5 3f
       0.57926774 1.5460253

L f4 [1, 2]
000000 c0 44 14 3f 40 ea c5 3f
       0.57917404 1.5462112

L f4 [1, 2]
000000 e4 4a 14 3f 28 e4 c5 3f
       0.57926774 1.5460253

L f4 [1, 2]
000000 c0 44 14 3f 40 ea c5 3f
       0.57917404 1.5462112

L f4 [1, 2]
000000 e4 4a 14 3f 28 e4 c5 3f
       0.57926774 1.5460253

L f4 [1, 2]
000000 c0 44 14 3f 40 ea c5 3f
       0.57917404 1.5462112

L f4 [1, 2]
000000 e4 4a 14 3f 28 e4 c5 3f
       0.57926774 1.5460253

L f4 [1, 2]
000000 c0 44 14 3f 40 ea c5 3f
       0.57917404 1.5462112

L f4 [1, 2]
000000 e4 4a 14 3f 28 e4 c5 3f
       0.57926774 1.5460253

L f4 [1, 2]
000000 c0 44 14 3f 40 ea c5 3f
       0.57917404 1.5462112

L f4 [1, 2]
000000 e4 4a 14 3f 28 e4 c5 3f
       0.57926774 1.5460253

L f4 [1, 2]
000000 c0 44 14 3f 40 ea c5 3f
       0.57917404 1.5462112

L f4 [1, 2]
000000 e4 4a 14 3f 28 e4 c5 3f
       0.57926774 1.5460253

L f4 [1, 2]
000000 c0 44 14 3f 40 ea c5 3f
       0.57917404 1.5462112

L f4 [1, 2]
000000 e4 4a 14 3f 28 e4 c5 3f
       0.57926774 1.5460253

L f4 [1, 2]
000000 c0 44 14 3f 40 ea c5 3f
       0.57917404 1.5462112

L f4 [1, 2]
000000 e4 4a 14 3f 28 e4 c5 3f
       0.57926774 1.5460253

L f4 [1, 2]
000000 c0 44 14 3f 40 ea c5 3f
       0.57917404 1.5462112

L f4 [1, 2]
000000 e4 4a 14 3f 28 e4 c5 3f
       0.57926774 1.5460253

L f4 [1, 2]
000000 c0 44 14 3f 40 ea c5 3f
       0.57917404 1.5462112

L f4 [1, 2]
000000 e4 4a 14 3f 28 e4 c5 3f
       0.57926774 1.5460253

L f4 [1, 2]
000000 c0 44 14 3f 40 ea c5 3f
       0.57917404 1.5462112

L f4 [1, 2]
000000 e4 4a 14 3f 28 e4 c5 3f
       0.57926774 1.5460253

L f4 [1, 2]
000000 c0 44 14 3f 40 ea c5 3f
       0.57917404 1.5462112

L f4 [1, 2]
000000 e4 4a 14 3f 28 e4 c5 3f
       0.57926774 1.5460253

L f4 [1, 2]
000000 c0 44 14 3f 40 ea c5 3f
       0.57917404 1.5462112

L f4 [1, 2]
000000 e4 4a 14 3f 28 e4 c5 3f
       0.57926774 1.5460253

L f4 [1, 2]
000000 c0 44 14 3f 40 ea c5 3f
       0.57917404 1.5462112

L f4 [1, 2]
000000 e4 4a 14 3f 28 e4 c5 3f
       0.57926774 1.5460253

L f4 [1, 2]
000000 c0 44 14 3f 40 ea c5 3f
       0.57917404 1.5462112

L f4 [1, 2]
000000 e4 4a 14 3f 28 e4 c5 3f
       0.57926774 1.5460253

L f4 [1, 2]
000000 c0 44 14 3f 40 ea c5 3f
       0.57917404 1.5462112

L f4 [1, 2]
000000 e4 4a 14 3f 28 e4 c5 3f
       0.57926774 1.5460253

L f4 [1, 2]
000000 80 3b 14 3f 00 de c5 3f
       0.5790329 1.5458374

L f4 [1, 2]
000000 cc a2 13 3f f0 85 c5 3f
       0.57670283 1.54315

L f4 [1, 2]
000000 e0 ca 0f 3f 40 51 c3 3f
       0.5616894 1.525917

L f4 [1, 2]
000000 00 a0 e9 3e 8c 94 b4 3f
       0.45629883 1.4107833

S f4 [2, 2]
000000 a4 cb 2a 40 ac 05 dd 3f ac 05 dd 3f b0 58 38 40
       2.6686792 1.7267356 1.7267356 2.880413

S f4 [2, 2]
000000 60 c2 2a 40 e0 d7 dc 3f e0 d7 dc 3f c0 35 38 40
       2.6681137 1.725338 1.725338 2.8782806

S f4 [2, 2]
000000 a4 cb 2a 40 ac 05 dd 3f ac 05 dd 3f b0 58 38 40
       2.6686792 1.7267356 1.7267356 2.880413

S f4 [2, 2]
000000 60 c2 2a 40 e0 d7 dc 3f e0 d7 dc 3f c0 35 38 40
       2.6681137 1.725338 1.725338 2.8782806

S f4 [2, 2]
000000 a4 cb 2a 40 ac 05 dd 3f ac 05 dd 3f b0 58 38 40
       2.6686792 1.7267356 1.7267356 2.880413

S f4 [2, 2]
000000 60 c2 2a 40 e0 d7 dc 3f e0 d7 dc 3f c0 35 38 40
       2.6681137 1.725338 1.725338 2.8782806

S f4 [2, 2]
000000 a4 cb 2a 40 ac 05 dd 3f ac 05 dd 3f b0 58 38 40
       2.6686792 1.7267356 1.7267356 2.880413

S f4 [2, 2]
000000 60 c2 2a 40 e0 d7 dc 3f e0 d7 dc 3f c0 35 38 40
       2.6681137 1.725338 1.725338 2.8782806

S f4 [2, 2]
000000 a4 cb 2a 40 ac 05 dd 3f ac 05 dd 3f b0 58 38 40
       2.6686792 1.7267356 1.7267356 2.880413

S f4 [2, 2]
000000 60 c2 2a 40 e0 d7 dc 3f e0 d7 dc 3f c0 35 38 40
       2.6681137 1.725338 1.725338 2.8782806

S f4 [2, 2]
000000 a4 cb 2a 40 ac 05 dd 3f ac 05 dd 3f b0 58 38 40
       2.6686792 1.7267356 1.7267356 2.880413

S f4 [2, 2]
000000 60 c2 2a 40 e0 d7 dc 3f e0 d7 dc 3f c0 35 38 40
       2.6681137 1.725338 1.725338 2.8782806

S f4 [2, 2]
000000 a4 cb 2a 40 ac 05 dd 3f ac 05 dd 3f b0 58 38 40
       2.6686792 1.7267356 1.7267356 2.880413

S f4 [2, 2]
000000 60 c2 2a 40 e0 d7 dc 3f e0 d7 dc 3f c0 35 38 40
       2.6681137 1.725338 1.725338 2.8782806

S f4 [2, 2]
000000 a4 cb 2a 40 ac 05 dd 3f ac 05 dd 3f b0 58 38 40
       2.6686792 1.7267356 1.7267356 2.880413

S f4 [2, 2]
000000 60 c2 2a 40 e0 d7 dc 3f e0 d7 dc 3f c0 35 38 40
       2.6681137 1.725338 1.725338 2.8782806

S f4 [2, 2]
000000 a4 cb 2a 40 ac 05 dd 3f ac 05 dd 3f b0 58 38 40
       2.6686792 1.7267356 1.7267356 2.880413

S f4 [2, 2]
000000 60 c2 2a 40 e0 d7 dc 3f e0 d7 dc 3f c0 35 38 40
       2.6681137 1.725338 1.725338 2.8782806

S f4 [2, 2]
000000 a4 cb 2a 40 ac 05 dd 3f ac 05 dd 3f b0 58 38 40
       2.6686792 1.7267356 1.7267356 2.880413

S f4 [2, 2]
000000 60 c2 2a 40 e0 d7 dc 3f e0 d7 dc 3f c0 35 38 40
       2.6681137 1.725338 1.725338 2.8782806

S f4 [2, 2]
000000 a4 cb 2a 40 ac 05 dd 3f ac 05 dd 3f b0 58 38 40
       2.6686792 1.7267356 1.7267356 2.880413

S f4 [2, 2]
000000 60 c2 2a 40 e0 d7 dc 3f e0 d7 dc 3f c0 35 38 40
       2.6681137 1.725338 1.725338 2.8782806

S f4 [2, 2]
000000 a4 cb 2a 40 ac 05 dd 3f ac 05 dd 3f b0 58 38 40
       2.6686792 1.7267356 1.7267356 2.880413

S f4 [2, 2]
000000 60 c2 2a 40 e0 d7 dc 3f e0 d7 dc 3f c0 35 38 40
       2.6681137 1.725338 1.725338 2.8782806

S f4 [2, 2]
000000 a4 cb 2a 40 ac 05 dd 3f ac 05 dd 3f b0 58 38 40
       2.6686792 1.7267356 1.7267356 2.880413

S f4 [2, 2]
000000 60 c2 2a 40 e0 d7 dc 3f e0 d7 dc 3f c0 35 38 40
       2.6681137 1.725338 1.725338 2.8782806

S f4 [2, 2]
000000 a4 cb 2a 40 ac 05 dd 3f ac 05 dd 3f b0 58 38 40
       2.6686792 1.7267356 1.7267356 2.880413

S f4 [2, 2]
000000 60 c2 2a 40 e0 d7 dc 3f e0 d7 dc 3f c0 35 38 40
       2.6681137 1.725338 1.725338 2.8782806

S f4 [2, 2]
000000 a4 cb 2a 40 ac 05 dd 3f ac 05 dd 3f b0 58 38 40
       2.6686792 1.7267356 1.7267356 2.880413

S f4 [2, 2]
000000 60 c2 2a 40 e0 d7 dc 3f e0 d7 dc 3f c0 35 38 40
       2.6681137 1.725338 1.725338 2.8782806

S f4 [2, 2]
000000 a4 cb 2a 40 ac 05 dd 3f ac 05 dd 3f b0 58 38 40
       2.6686792 1.7267356 1.7267356 2.880413

S f4 [2, 2]
000000 60 c2 2a 40 e0 d7 dc 3f e0 d7 dc 3f c0 35 38 40
       2.6681137 1.725338 1.725338 2.8782806

S f4 [2, 2]
000000 a4 cb 2a 40 ac 05 dd 3f ac 05 dd 3f b0 58 38 40
       2.6686792 1.7267356 1.7267356 2.880413

S f4 [2, 2]
000000 60 c2 2a 40 e0 d7 dc 3f e0 d7 dc 3f c0 35 38 40
       2.6681137 1.725338 1.725338 2.8782806

S f4 [2, 2]
000000 a4 cb 2a 40 ac 05 dd 3f ac 05 dd 3f b0 58 38 40
       2.6686792 1.7267356 1.7267356 2.880413

S f4 [2, 2]
000000 60 c2 2a 40 e0 d7 dc 3f e0 d7 dc 3f c0 35 38 40
       2.6681137 1.725338 1.725338 2.8782806

S f4 [2, 2]
000000 a4 cb 2a 40 ac 05 dd 3f ac 05 dd 3f b0 58 38 40
       2.6686792 1.7267356 1.7267356 2.880413

S f4 [2, 2]
000000 60 c2 2a 40 e0 d7 dc 3f e0 d7 dc 3f c0 35 38 40
       2.6681137 1.725338 1.725338 2.8782806

S f4 [2, 2]
000000 a4 cb 2a 40 ac 05 dd 3f ac 05 dd 3f b0 58 38 40
       2.6686792 1.7267356 1.7267356 2.880413

S f4 [2, 2]
000000 60 c2 2a 40 e0 d7 dc 3f e0 d7 dc 3f c0 35 38 40
       2.6681137 1.725338 1.725338 2.8782806

S f4 [2, 2]
000000 a4 cb 2a 40 ac 05 dd 3f ac 05 dd 3f b0 58 38 40
       2.6686792 1.7267356 1.7267356 2.880413

S f4 [2, 2]
000000 60 c2 2a 40 e0 d7 dc 3f e0 d7 dc 3f c0 35 38 40
       2.6681137 1.725338 1.725338 2.8782806

S f4 [2, 2]
000000 a4 cb 2a 40 ac 05 dd 3f ac 05 dd 3f b0 58 38 40
       2.6686792 1.7267356 1.7267356 2.880413

S f4 [2, 2]
000000 60 c2 2a 40 e0 d7 dc 3f e0 d7 dc 3f c0 35 38 40
       2.6681137 1.725338 1.725338 2.8782806

S f4 [2, 2]
000000 a4 cb 2a 40 ac 05 dd 3f ac 05 dd 3f b0 58 38 40
       2.6686792 1.7267356 1.7267356 2.880413

S f4 [2, 2]
000000 60 c2 2a 40 e0 d7 dc 3f e0 d7 dc 3f c0 35 38 40
       2.6681137 1.725338 1.725338 2.8782806

S f4 [2, 2]
000000 a4 cb 2a 40 ac 05 dd 3f ac 05 dd 3f b0 58 38 40
       2.6686792 1.7267356 1.7267356 2.880413

S f4 [2, 2]
000000 60 c2 2a 40 e0 d7 dc 3f e0 d7 dc 3f c0 35 38 40
       2.6681137 1.725338 1.725338 2.8782806

S f4 [2, 2]
000000 a4 cb 2a 40 ac 05 dd 3f ac 05 dd 3f b0 58 38 40
       2.6686792 1.7267356 1.7267356 2.880413

S f4 [2, 2]
000000 60 c2 2a 40 e0 d7 dc 3f e0 d7 dc 3f c0 35 38 40
       2.6681137 1.725338 1.725338 2.8782806

S f4 [2, 2]
000000 a4 cb 2a 40 ac 05 dd 3f ac 05 dd 3f b0 58 38 40
       2.6686792 1.7267356 1.7267356 2.880413

S f4 [2, 2]
000000 60 c2 2a 40 e0 d7 dc 3f e0 d7 dc 3f c0 35 38 40
       2.6681137 1.725338 1.725338 2.8782806

S f4 [2, 2]
000000 a4 cb 2a 40 ac 05 dd 3f ac 05 dd 3f b0 58 38 40
       2.6686792 1.7267356 1.7267356 2.880413

S f4 [2, 2]
000000 60 c2 2a 40 e0 d7 dc 3f e0 d7 dc 3f c0 35 38 40
       2.6681137 1.725338 1.725338 2.8782806

S f4 [2, 2]
000000 a4 cb 2a 40 ac 05 dd 3f ac 05 dd 3f b0 58 38 40
       2.6686792 1.7267356 1.7267356 2.880413

S f4 [2, 2]
000000 60 c2 2a 40 e0 d7 dc 3f e0 d7 dc 3f c0 35 38 40
       2.6681137 1.725338 1.725338 2.8782806

S f4 [2, 2]
000000 a4 cb 2a 40 ac 05 dd 3f ac 05 dd 3f b0 58 38 40
       2.6686792 1.7267356 1.7267356 2.880413

S f4 [2, 2]
000000 60 c2 2a 40 e0 d7 dc 3f e0 d7 dc 3f c0 35 38 40
       2.6681137 1.725338 1.725338 2.8782806

S f4 [2, 2]
000000 a4 cb 2a 40 ac 05 dd 3f ac 05 dd 3f b0 58 38 40
       2.6686792 1.7267356 1.7267356 2.880413

S f4 [2, 2]
000000 60 c2 2a 40 e0 d7 dc 3f e0 d7 dc 3f c0 35 38 40
       2.6681137 1.725338 1.725338 2.8782806

S f4 [2, 2]
000000 a4 cb 2a 40 ac 05 dd 3f ac 05 dd 3f b0 58 38 40
       2.6686792 1.7267356 1.7267356 2.880413

S f4 [2, 2]
000000 60 c2 2a 40 e0 d7 dc 3f e0 d7 dc 3f c0 35 38 40
       2.6681137 1.725338 1.725338 2.8782806

S f4 [2, 2]
000000 a4 cb 2a 40 ac 05 dd 3f ac 05 dd 3f b0 58 38 40
       2.6686792 1.7267356 1.7267356 2.880413

S f4 [2, 2]
000000 60 c2 2a 40 e0 d7 dc 3f e0 d7 dc 3f c0 35 38 40
       2.6681137 1.725338 1.725338 2.8782806

S f4 [2, 2]
000000 a4 cb 2a 40 ac 05 dd 3f ac 05 dd 3f b0 58 38 40
       2.6686792 1.7267356 1.7267356 2.880413

S f4 [2, 2]
000000 60 c2 2a 40 e0 d7 dc 3f e0 d7 dc 3f c0 35 38 40
       2.6681137 1.725338 1.725338 2.8782806

S f4 [2, 2]
000000 a4 cb 2a 40 ac 05 dd 3f ac 05 dd 3f b0 58 38 40
       2.6686792 1.7267356 1.7267356 2.880413

S f4 [2, 2]
000000 60 c2 2a 40 e0 d7 dc 3f e0 d7 dc 3f c0 35 38 40
       2.6681137 1.725338 1.725338 2.8782806

S f4 [2, 2]
000000 a4 cb 2a 40 ac 05 dd 3f ac 05 dd 3f b0 58 38 40
       2.6686792 1.7267356 1.7267356 2.880413

S f4 [2, 2]
000000 60 c2 2a 40 e0 d7 dc 3f e0 d7 dc 3f c0 35 38 40
       2.6681137 1.725338 1.725338 2.8782806

S f4 [2, 2]
000000 a4 cb 2a 40 ac 05 dd 3f ac 05 dd 3f b0 58 38 40
       2.6686792 1.7267356 1.7267356 2.880413

S f4 [2, 2]
000000 60 c2 2a 40 e0 d7 dc 3f e0 d7 dc 3f c0 35 38 40
       2.6681137 1.725338 1.725338 2.8782806

S f4 [2, 2]
000000 a4 cb 2a 40 ac 05 dd 3f ac 05 dd 3f b0 58 38 40
       2.6686792 1.7267356 1.7267356 2.880413

S f4 [2, 2]
000000 60 c2 2a 40 e0 d7 dc 3f e0 d7 dc 3f c0 35 38 40
       2.6681137 1.725338 1.725338 2.8782806

S f4 [2, 2]
000000 a4 cb 2a 40 ac 05 dd 3f ac 05 dd 3f b0 58 38 40
       2.6686792 1.7267356 1.7267356 2.880413

S f4 [2, 2]
000000 60 c2 2a 40 e0 d7 dc 3f e0 d7 dc 3f c0 35 38 40
       2.6681137 1.725338 1.725338 2.8782806

S f4 [2, 2]
000000 a4 cb 2a 40 ac 05 dd 3f ac 05 dd 3f b0 58 38 40
       2.6686792 1.7267356 1.7267356 2.880413

S f4 [2, 2]
000000 60 c2 2a 40 e0 d7 dc 3f e0 d7 dc 3f c0 35 38 40
       2.6681137 1.725338 1.725338 2.8782806

S f4 [2, 2]
000000 a4 cb 2a 40 ac 05 dd 3f ac 05 dd 3f b0 58 38 40
       2.6686792 1.7267356 1.7267356 2.880413

S f4 [2, 2]
000000 60 c2 2a 40 e0 d7 dc 3f e0 d7 dc 3f c0 35 38 40
       2.6681137 1.725338 1.725338 2.8782806

S f4 [2, 2]
000000 a4 cb 2a 40 ac 05 dd 3f ac 05 dd 3f b0 58 38 40
       2.6686792 1.7267356 1.7267356 2.880413

S f4 [2, 2]
000000 60 c2 2a 40 e0 d7 dc 3f e0 d7 dc 3f c0 35 38 40
       2.6681137 1.725338 1.725338 2.8782806

S f4 [2, 2]
000000 a4 cb 2a 40 ac 05 dd 3f ac 05 dd 3f b0 58 38 40
       2.6686792 1.7267356 1.7267356 2.880413

S f4 [2, 2]
000000 60 c2 2a 40 e0 d7 dc 3f e0 d7 dc 3f c0 35 38 40
       2.6681137 1.725338 1.725338 2.8782806

S f4 [2, 2]
000000 a4 cb 2a 40 ac 05 dd 3f ac 05 dd 3f b0 58 38 40
       2.6686792 1.7267356 1.7267356 2.880413

S f4 [2, 2]
000000 60 c2 2a 40 e0 d7 dc 3f e0 d7 dc 3f c0 35 38 40
       2.6681137 1.725338 1.725338 2.8782806

S f4 [2, 2]
000000 a4 cb 2a 40 ac 05 dd 3f ac 05 dd 3f b0 58 38 40
       2.6686792 1.7267356 1.7267356 2.880413

S f4 [2, 2]
000000 60 c2 2a 40 e0 d7 dc 3f e0 d7 dc 3f c0 35 38 40
       2.6681137 1.725338 1.725338 2.8782806

S f4 [2, 2]
000000 a4 cb 2a 40 ac 05 dd 3f ac 05 dd 3f b0 58 38 40
       2.6686792 1.7267356 1.7267356 2.880413

S f4 [2, 2]
000000 60 c2 2a 40 e0 d7 dc 3f e0 d7 dc 3f c0 35 38 40
       2.6681137 1.725338 1.725338 2.8782806

S f4 [2, 2]
000000 a4 cb 2a 40 ac 05 dd 3f ac 05 dd 3f b0 58 38 40
       2.6686792 1.7267356 1.7267356 2.880413

S f4 [2, 2]
000000 60 c2 2a 40 e0 d7 dc 3f e0 d7 dc 3f c0 35 38 40
       2.6681137 1.725338 1.725338 2.8782806

S f4 [2, 2]
000000 a4 cb 2a 40 ac 05 dd 3f ac 05 dd 3f b0 58 38 40
       2.6686792 1.7267356 1.7267356 2.880413

S f4 [2, 2]
000000 60 c2 2a 40 e0 d7 dc 3f e0 d7 dc 3f c0 35 38 40
       2.6681137 1.725338 1.725338 2.8782806

S f4 [2, 2]
000000 a4 cb 2a 40 ac 05 dd 3f ac 05 dd 3f b0 58 38 40
       2.6686792 1.7267356 1.7267356 2.880413

S f4 [2, 2]
000000 2c be 2a 40 34 dc dc 3f 34 dc dc 3f a0 3b 38 40
       2.6678572 1.7254701 1.7254701 2.8786392

S f4 [2, 2]
000000 be 96 2a 40 40 99 dc 3f 40 99 dc 3f 80 2e 38 40
       2.6654506 1.7234268 1.7234268 2.8778381

S f4 [2, 2]
000000 6c a6 29 40 ac 9a da 3f ac 9a da 3f 50 17 37 40
       2.6507826 1.7078452 1.7078452 2.860798

S f4 [2, 2]
000000 00 cc 22 40 ba 65 cb 3f ba 65 cb 3f a8 a5 2e 40
       2.5437012 1.589042 1.589042 2.7288609

S f4 [2, 2]
000000 00 00 00 40 00 00 80 3f 00 00 80 3f 00 d0 05 40
       2.0 1.0 1.0 2.0908203

L_infinite f4 [1, 2]
000000 8b 44 14 3f 1b d7 c5 3f
       0.5791709 1.545627

weight_ih_l0 f4 [12, 10]
000000 9b ca e7 bd 97 9c 4a 3b b2 7f db be 73 40 df 3e
       -0.11317941 0.0030916089 -0.4287086 0.43603858
000010 ca b1 db 3e 5b a0 8e 3e bf 4b bf bd 19 81 98 3e
       0.4290908 0.27856717 -0.09340619 0.29785994
000020 d1 ab 87 be e2 fb b9 3e 17 73 cb be 04 32 df be
       -0.26498273 0.36324984 -0.39736244 -0.43592846
000030 b3 2c 39 bd 6e 3d e6 3e c5 d0 94 be 95 e0 a0 be
       -0.045208644 0.44968742 -0.2906553 -0.31421342
000040 e1 8e bf 3e de 5a a0 bd 59 66 1f be c4 54 15 3b
       0.37413695 -0.078298315 -0.15566386 0.002278612
000050 bb 2e ae 3e 49 41 8d be c9 82 63 3e ac 58 8c bd
       0.34020028 -0.2758887 0.2221786 -0.0685285
000060 3f 6b 8a be 6d 3a 2b 3e 5c 29 a4 be a2 70 81 bd
       -0.27034947 0.16721506 -0.32062805 -0.06320311
000070 62 36 fe 3e 7d e4 19 3e 28 22 74 be 2c 50 5f 3e
       0.49650866 0.15028568 -0.23841155 0.21807927
000080 67 0f 50 3e e6 51 e2 3e fc 02 df be 4d 33 d2 be
       0.20318376 0.4420311 -0.43556964 -0.41054764
000090 a5 8c 72 3e 5f 3b ed 3e ab 84 f3 bd 69 d4 6d be
       0.23686464 0.4633436 -0.11890539 -0.2322556
0000a0 14 41 87 3e d5 c1 fd 3d 04 fa 7b be 58 e8 5b 3e
       0.26416838 0.12390486 -0.24607092 0.21475351
0000b0 f7 87 e7 3e e3 86 e2 be 63 c3 37 be 4a c5 e6 be
       0.4522092 -0.44243535 -0.17945628 -0.45072395
0000c0 f9 ec 3e 3e 73 cf 9d 3c 07 25 f8 be 3d 05 af 3e
       0.18645085 0.019263959 -0.4846575 0.34183684
0000d0 b9 7a a7 b8 e8 05 c6 bb 3a 5a bb be ce 5f 60 be
       -7.9860394e-05 -0.0060431845 -0.36592275 -0.21911547
0000e0 34 54 3b 3d 23 e8 b0 3e a2 48 a8 3e c1 d1 89 be
       0.0457346 0.34552106 0.32867914 -0.26917842
0000f0 e3 fa 16 3e 02 10 43 3e 72 1a 6e bc 4c 69 f9 bb
       0.14744143 0.19049075 -0.014532672 -0.0076114293
000100 16 31 9a 3e 94 5e d5 3d 7b 87 85 3d 2e ee 8f bd
       0.30115575 0.1041843 0.065199815 -0.07027851
000110 dc 73 44 be 3c ef 0b 3e a0 6c 2f bd 37 33 bd bd
       -0.19184822 0.1366548 -0.042828202 -0.09238284
000120 4b ff 1f 3e 26 72 58 3e 8f eb c9 3d ca d7 ac be
       0.1562473 0.21137294 0.09859382 -0.33758384
000130 7d 8c dc 3d 00 c1 cc 3d 3e 89 4d 3e 74 c5 a9 3e
       0.107689835 0.09997749 0.20071885 0.33158457
000140 27 4b eb 3e 5b 94 6e 39 28 4b e5 be 61 76 e1 3e
       0.45955774 0.00022752715 -0.44783902 0.44035628
000150 d5 55 74 3e 03 5b 39 be 62 1a f8 3e bc 9f 86 3e
       0.23860867 -0.18101124 0.48457628 0.26293743
000160 c1 6c 67 be 54 b8 af bd 80 ad dc 3d c6 69 d6 be
       -0.2260008 -0.0858008 0.1077528 -0.41877574
000170 84 b9 8a 3e 9b 21 1a 3e 2a 5b 1b be d1 59 66 3d
       0.27094662 0.15051882 -0.15171495 0.056238
000180 eb e9 c1 3e 49 05 8d be 82 b5 fd 3d cf d4 77 3e
       0.37873778 -0.27543095 0.123881355 0.24202274
000190 45 07 1b 3e 01 5a bd 3e 86 fc 4e 3e 77 9b 02 be
       0.15139492 0.3698273 0.20213518 -0.12754618
0001a0 23 0e f3 be c6 cf 44 3d ba c6 71 3e 14 6f 3c 3e
       -0.47471723 0.04804971 0.23610964 0.18401748
0001b0 45 9e 94 3e da ac 38 3d 13 52 dc be b2 ca 84 3e
       0.29027 0.04508672 -0.43031368 0.25935894
0001c0 65 f7 94 be 14 cc ff bd a2 7f b1 bd f8 5d 08 be
       -0.29094997 -0.12490097 -0.08666922 -0.13317096
0001d0 a1 f7 66 bd 7b 5d 2b be 59 47 e4 be 06 3e df 3c
       -0.0563885 -0.16734879 -0.44585684 0.027251255

weight_hh_l0 f4 [12, 4]
000000 37 e1 e9 3e bc d9 91 3e f2 4a 04 bd cc fb 22 be
       0.45679638 0.2848643 -0.032298036 -0.15916365
000010 28 38 35 be c7 a8 08 be 6b b6 8d 3e 7f ec 1b 3e
       -0.17697203 -0.13345633 0.27678236 0.15226935
000020 ef 65 c5 be ab 78 0c be 37 32 98 be ba 21 0b 3d
       -0.38554332 -0.13717906 -0.2972581 0.03396771
000030 5c d6 f9 3d 49 09 e7 bc 81 59 42 bd b7 9b c5 3e
       0.12199089 -0.02820267 -0.04744864 0.38595363
000040 95 d7 ea 3e 82 3b a7 be b7 6c 5a 3e 92 31 cd be
       0.458676 -0.32662588 0.21330534 -0.40076882
000050 6e 99 99 3e c8 e3 a6 3e 79 82 d5 3e 60 d1 b0 3e
       0.2999987 0.32595658 0.41701105 0.3453474
000060 a8 0e 2e be da ae db 3c 47 e7 b0 be cf 41 7d 3e
       -0.16997778 0.026816774 -0.3455145 0.24732135
000070 d1 77 5d be 79 5e 63 be 91 19 a2 be 63 bc d7 3e
       -0.21627738 -0.22204007 -0.3166013 0.42135915
000080 67 b0 b0 be cd 24 b1 3e 18 91 00 bf 5d 8f 73 3e
       -0.34509584 0.3459839 -0.50221395 0.23785158
000090 c6 5e 84 3e ca a4 b8 be b0 ae b7 be 53 79 ac be
       0.25853556 -0.36063224 -0.35875463 -0.33686313
0000a0 32 f0 76 3e fc 8c d3 be 21 5f eb 3e c1 cc a5 be
       0.24115065 -0.413185 0.45971015 -0.32382777
0000b0 6b 98 01 bf c5 13 f2 be 11 eb b8 3e 3f 07 f4 3d
       -0.50623196 -0.47280708 0.3611684 0.119154446

bias_ih_l0 f4 [12]
000000 4e 5c f7 be 7f 6a 85 3e 49 8e bc 3e d8 09 a5 3e
       -0.4831261 0.26057813 0.36827305 0.32234073
000010 7b 1f 2f 3e a0 7b 09 be 76 c2 09 be 84 08 83 3d
       0.17101853 -0.13426065 -0.13453087 0.063981086
000020 c8 b3 65 be e6 af 5c 3e 27 7e fa be bc 5e 89 3e
       -0.22431862 0.21551475 -0.48924372 0.2683009

bias_hh_l0 f4 [12]
000000 ae 0d 90 3e 39 5c c1 be d8 10 8e be 59 f4 a9 3e
       0.28135437 -0.37765673 -0.27747226 0.33194235
000010 68 28 4e 3e 96 8b 6b 3e b4 de 87 be 85 0b cc 3e
       0.20132601 0.23002467 -0.26537097 0.3985254
000020 4a de c8 bd 1b 0f da 3d af 93 0c bc 14 25 8f be
       -0.09808023 0.106474124 -0.008580132 -0.27957976

weight_ih_l0 f4 [12, 14]
000000 eb f4 80 bd 2d c2 a5 3e 42 91 d6 3e 02 94 93 be
       -0.062967144 0.32374707 0.41907698 -0.28823858
000010 c1 00 98 be 72 35 49 3d a2 93 bb 3e 20 bd 6f 3c
       -0.29688075 0.049123235 0.36636072 0.014632493
000020 05 ef c6 be 09 c3 35 3e 5d 64 07 be f6 ec de 3d
       -0.38854232 0.17750181 -0.1322188 0.108850405
000030 ba 21 38 3d 89 5f 33 bd 09 a9 dc be f7 ba 3b 3e
       0.04495404 -0.04379228 -0.43097714 0.1833304
000040 6e 4b aa be 8f bd d1 be 87 f4 43 3e 7a 79 ef be
       -0.33260673 -0.40964934 0.19136249 -0.46772367
000050 00 02 99 3e 85 55 8a 3e b1 44 ba 3e a5 f0 3e be
       0.29884338 0.2701837 0.36380532 -0.18646486
000060 ac a8 e9 be f4 73 94 bd b2 cf c6 3e e9 3c c9 be
       -0.456365 -0.07248679 0.38830334 -0.39304283
000070 a0 87 9c 3d e0 38 58 3d 7e a1 dc 3e 73 de 99 be
       0.07643056 0.052788615 0.4309196 -0.30052528
000080 0e fe 5c be fd 25 c8 3e 2a 94 de be 45 d8 99 3e
       -0.21581289 0.39091483 -0.43472415 0.30047813
000090 f9 b6 37 3e bb 07 7a bd 36 4f 76 3e f0 ce f9 bd
       0.17940892 -0.06104253 0.24053654 -0.12197673
0000a0 70 18 8a 3e 8d 20 18 3d 98 01 73 be 7c 60 cf be
       0.2697177 0.037140418 -0.23731077 -0.405033
0000b0 14 60 55 bd 08 7b 4f 3d 5f 01 cf 3e c4 e9 5f be
       -0.05209358 0.05065444 0.40430734 -0.21866518
0000c0 df 08 64 be df bb 5a 3d ac 69 33 3e 9c 21 ba 3e
       -0.22269009 0.053401824 0.1752078 0.36353767
0000d0 38 cd 97 3c e2 4c 3b be 79 ff 6c 3e d3 f6 0e 3e
       0.018530473 -0.18291047 0.2314433 0.13961343
0000e0 86 b7 f4 bd 2f a4 a9 3e 2a a4 76 3e 26 a6 85 be
       -0.11949067 0.33133075 0.24086061 -0.26103324
0000f0 b6 65 be 3e 2b 31 9c 3e ca 00 d8 bd 13 43 c4 be
       0.37186974 0.30506262 -0.105470255 -0.38332424
000100 16 55 a3 3e 89 7b 97 3e 96 31 96 be dc 1d ee be
       0.31900853 0.29586437 -0.29334706 -0.46507156
000110 24 73 d3 be 12 53 c5 3e 04 36 e6 3e b8 bb 14 bd
       -0.41298783 0.3853994 0.44963086 -0.036311835
000120 fc 4b 43 bd 6b af 52 3e 55 b1 b8 be ac 30 dc be
       -0.047679886 0.20574729 -0.36072794 -0.43005884
000130 39 bf 14 bd 88 6b de be 50 c8 4a be c4 ff 9b 3e
       -0.036315177 -0.43441415 -0.19802976 0.3046857
000140 59 95 f6 3e 92 4a 47 bd ea 02 41 3e b4 1c d3 bd
       0.48160818 -0.0486551 0.18848768 -0.10308209
000150 42 70 56 3e 1e 77 2c 3e c0 d9 ef 3e ad 19 2e 3e
       0.2094126 0.16842315 0.46845818 0.17001982
000160 a4 f0 67 3e b4 ac 94 3e a1 47 0a be 8e f7 c6 3e
       0.22650391 0.29038012 -0.13503887 0.38860744
000170 70 8d db bc 7f 22 b7 be 65 33 3b 3e 53 30 0d be
       -0.026800841 -0.35768506 0.18281324 -0.13787965
000180 02 13 f7 be 75 b4 72 be 12 81 a9 3e 0e 82 f6 be
       -0.4825669 -0.23701651 0.33106285 -0.481461
000190 e5 4a de be 0e 2c a5 3e 5b 52 b1 3e 30 74 2d 3e
       -0.43416515 0.32260174 0.34633145 0.16938853
0001a0 6b 40 f1 bd 4d 39 8f be dc 2a cf be 9b 94 8e be
       -0.11779865 -0.27973405 -0.40462387 -0.27847752
0001b0 80 11 e5 3d d0 4c ae 3e 26 9c fd be c5 84 c3 ba
       0.111849785 0.34042978 -0.49533194 -0.0014916888
0001c0 63 65 dd be 17 13 eb 3d 14 25 1a be 13 b6 ca 3e
       -0.43241414 0.114782505 -0.15053207 0.39592037
0001d0 25 65 14 bc 87 7c ec 3e 23 32 74 3d b4 4d a3 3e
       -0.009057318 0.46188757 0.059618127 0.3189522
0001e0 98 35 5f 3e e2 63 f2 be 06 71 68 be 8b b0 b1 be
       0.21797788 -0.4734183 -0.22699365 -0.34705004
0001f0 9a cb 4c be 71 72 c7 3e cc cd d0 be f7 b6 e9 3e
       -0.19999543 0.389545 -0.4078201 0.45647404
000200 87 07 37 be e9 2e 9e 3e 1d ef a9 3e 86 86 e3 be
       -0.17873965 0.30895165 0.3319024 -0.4443857
000210 26 c8 2a 3e 6e 1c c2 3e c1 23 31 bd 15 a1 f9 3e
       0.16677913 0.37912315 -0.04324699 0.48755708
000220 48 f8 a9 bd 98 61 ca 3e 5b 03 e0 3e c8 fc 59 3e
       -0.08299309 0.39527583 0.4375256 0.21287835
000230 38 0d f7 bd 7a 96 cc 3d 95 ab ea 3e cd b6 c7 be
       -0.12063068 0.099896386 0.45834032 -0.39006653
000240 4a 7c 1d be ff 47 b6 3e f2 41 cf be 94 16 db 3e
       -0.15379444 0.35601804 -0.4048 0.42790663
000250 57 67 3a 3e d3 7b e0 3e 4e 12 45 bc a4 b4 78 3e
       0.18203484 0.4384447 -0.01202829 0.24287659
000260 be 8c a4 be 36 45 9b 3c 70 8e d3 be 24 24 e1 3e
       -0.32138628 0.0189539 -0.4131961 0.43972886
000270 64 f6 fe 3e 92 29 83 3e 39 13 86 3d 67 55 bf be
       0.49797356 0.25617653 0.06546635 -0.37369844
000280 5c 08 dd 3e 8b 91 c8 3d dd 9f f8 be 5e 1b ea 3d
       0.4317044 0.09793385 -0.48559466 0.11431001
000290 0f 9b e2 ba eb 08 dc 3e 70 e0 9e 3e c1 59 c3 be
       -0.0017288643 0.42975554 0.31030607 -0.38154414

weight_hh_l0 f4 [12, 4]
000000 a7 8d 50 3e 1c 04 e2 be f6 ff 15 3d de b9 78 be
       0.20366536 -0.4414376 0.036621056 -0.24289653
000010 79 d6 37 bc e8 32 e5 3d 41 99 99 be cc 6e 90 be
       -0.011220568 0.1119135 -0.29999736 -0.2820953
000020 95 d0 b2 3e 7a 90 9c be 65 7d 06 38 0c f3 db be
       0.3492476 -0.30578977 3.2064872e-05 -0.42958868
000030 4b bb 9d be 7f 46 e6 3e 7c 0e 86 be 4d a5 1c be
       -0.30806956 0.4497566 -0.26182926 -0.15297432
000040 68 d9 89 be 15 b9 ac be c6 a9 6f be 05 2c b3 be
       -0.2692368 -0.33734956 -0.23404607 -0.34994522
000050 3d e0 be 3e 79 8f fe 3e ac 55 29 be a8 19 17 bb
       0.37280455 0.49718836 -0.16536587 -0.0023056064
000060 33 84 d2 be 95 b4 29 bd 84 0a 63 be 2a 5c 97 3e
       -0.41116485 -0.041431982 -0.2217198 0.29562503
000070 a1 68 de 3e 3f 14 eb 3e cf 00 7b 38 a1 03 15 be
       0.434392 0.45913884 5.9843816e-05 -0.14552166
000080 a9 1b a3 be c9 98 52 3e 45 23 d7 3e 1e b6 82 be
       -0.3185704 0.20566095 0.42019096 -0.2552957
000090 99 ee b1 3e 07 c6 fb 3d 37 f0 0d 3e b8 44 00 3e
       0.34752348 0.1229363 0.13861166 0.12526214
0000a0 3b 58 68 3e a0 a8 89 3e b9 9a c9 3d 77 6f ef 3e
       0.22689907 0.26886463 0.09843964 0.46764728
0000b0 4d 6d 86 be c2 ed c1 3e 8a 0b d9 3e 4d 15 a4 3e
       -0.26255265 0.37876707 0.42391616 0.320475

bias_ih_l0 f4 [12]
000000 7a 45 14 3e 14 a1 d7 be b5 3f 20 be 4e 11 fe be
       0.14479628 -0.4211508 -0.15649302 -0.49622577
000010 d5 60 e5 bd 67 fd 47 be 10 78 a4 be 9a 32 a8 be
       -0.1120011 -0.19530259 -0.3212285 -0.32851106
000020 31 63 00 3e 31 14 33 be b0 ca a5 3e 84 e4 34 be
       0.12537839 -0.17488171 0.323812 -0.17665297

bias_hh_l0 f4 [12]
000000 ef b2 86 be 26 cc 72 3e 54 91 8c 3e 91 70 e4 3d
       -0.2630839 0.23710689 0.27454627 0.11154283
000010 82 a8 11 be 8c 5f 06 3d ee 85 99 3e 06 65 cc be
       -0.14224437 0.032805964 0.29984993 -0.39920825
000020 8f 4c 14 bd 60 7f f1 be a3 2a 69 be 85 27 e1 3e
       -0.036205824 -0.47167492 -0.22770171 0.43975464

weight_ih_l0 f4 [12, 24]
000000 8f 8c a5 3e 07 d2 60 3d b8 fd e5 3e 98 14 16 be
       0.323338 0.054887798 0.44920135 -0.14656293
000010 3d 8a e7 be 55 93 86 be 42 10 28 3e e3 82 95 be
       -0.45222655 -0.2628428 0.16412452 -0.2920142
000020 67 c5 3e be 80 91 3f be cd af 5f 3d 15 35 e4 3e
       -0.1862999 -0.18707848 0.054611016 0.44571748
000030 ff a4 5c be aa 31 f6 be 82 9a 86 be 90 8d ac 3e
       -0.21547316 -0.48084766 -0.26289755 0.33701754
000040 02 98 cb 3e f5 42 ab 3e d2 12 9a 3d 0b 29 4a 3d
       0.3976441 0.33449522 0.07523121 0.049355548
000050 e1 10 03 be 53 76 8a 3e 9c ee d2 be ed 5c b5 be
       -0.12799408 0.270434 -0.4119767 -0.3542246
000060 00 22 4c 3e 25 a3 1a be 8d 6e 2d 3d e2 13 c3 be
       0.19934845 -0.15101297 0.042341758 -0.38101107
000070 a4 47 04 3e 22 73 3b be 5a bb 8a be 54 38 8f 3e
       0.12917954 -0.18305638 -0.27096063 0.27972662
000080 05 8f 49 be 03 87 cb bd bc 88 fb be 41 0b b6 3d
       -0.19683464 -0.09937861 -0.49127758 0.08888865
000090 45 ad 5b be f9 fc ef be 88 76 6a 3e 2d a5 60 be
       -0.21452816 -0.4687269 0.22896779 -0.2193801
0000a0 ff 61 e3 bd 17 1f 12 be 3b b3 f8 be 4c 40 f0 3e
       -0.11102676 -0.14269672 -0.48574242 0.46924055
0000b0 33 4c 2f 3d 13 4d bd be a7 94 55 bd c3 8d b2 3d
       0.04279728 -0.36972865 -0.05214372 0.08718445
0000c0 f6 4b ae be df 17 41 be 6e 86 ee 3d c1 81 01 be
       -0.3404233 -0.18856762 0.11646734 -0.12647153
0000d0 01 9a 2e be 99 a0 a8 3d 30 e5 54 3e db a5 91 3c
       -0.17050935 0.082337566 0.20790553 0.017779281
0000e0 5b a3 ff bd 3a 82 c5 3e d1 28 f9 be 0b ec 10 bc
       -0.124823295 0.38575917 -0.48663953 -0.0088453395
0000f0 cb 88 bc 3e a5 2a d0 be 62 e5 9d 3e c2 59 a2 3c
       0.36823115 -0.40657535 0.30839068 0.01981819
000100 d8 65 9c 3e d5 67 dc 3e 7b 66 94 be a0 23 df 3d
       0.3054645 0.43047968 -0.28984436 0.10895467
000110 b8 ed 71 3e 39 b1 b0 3e 2c a9 d4 3d 5b b8 ad be
       0.23625839 0.3451021 0.103838295 -0.33929715
000120 af d7 bb 3e 86 aa 6c be 1f bf ad 3e 50 db a1 3e
       0.3668799 -0.23111925 0.33934876 0.31612635
000130 55 33 73 bc 40 73 d0 bc 0b 36 a0 bd 87 07 f4 bd
       -0.0148437815 -0.02544558 -0.07822808 -0.11915498
000140 73 6f 8c 3d 0a 21 49 be 11 ce ae bd 9f b6 f7 be
       0.06857195 -0.1964151 -0.08535398 -0.48381516
000150 ff 2e eb 3e 5d 02 a7 3e 5b 90 f6 3e 84 bb 13 be
       0.45934293 0.3261899 0.4815701 -0.14427
000160 2d 4a 90 3e d2 3e c0 3e 11 b4 1b 3e 68 b9 d1 be
       0.28181592 0.37547928 0.15205409 -0.40961766
000170 b2 85 ae be ee 57 a3 3e a3 45 83 bd 25 61 0d 3d
       -0.34086376 0.31903023 -0.064097665 0.034516472
000180 d5 01 45 3e 28 d2 7a be 47 e4 9d 3e 4d 62 e9 be
       0.1923898 -0.24494231 0.30838224 -0.4558281
000190 23 79 c5 be de 9b f0 be 59 e0 10 3c 2e 15 28 3e
       -0.38568982 -0.46993917 0.008842551 0.1641433
0001a0 4b f4 7a be a2 e5 c6 be 0b 31 ea bd fe 0f 3f be
       -0.24507253 -0.3884707 -0.114351355 -0.18658444
0001b0 82 b0 be bc 64 9d 81 3e 1b 94 93 3e 4c f4 46 3d
       -0.023277525 0.25315392 0.28823933 0.048572823
0001c0 4f 7a ad 3e 49 c3 ea be 4e 96 cd 3e 50 70 74 bc
       0.33882377 -0.45852116 0.40153736 -0.0149193555
0001d0 c3 03 d6 3d fd 39 63 3e 52 bb 9c bc b3 ee 81 3e
       0.10449936 0.2219009 -0.01913229 0.25377426
0001e0 35 dd 89 3d 0d e4 e4 3e 4c 36 a9 bd 38 0e bf 3d
       0.06731645 0.4470524 -0.082623094 0.09328884
0001f0 64 5e 0e 3e 7b 7b d5 be 00 61 ee 3e 4c b4 de 3e
       0.13903195 -0.4169577 0.4655838 0.4349693
000200 1e ba 78 bd 36 76 53 be 8e d2 c3 3d 7a 75 c3 3e
       -0.06072437 -0.20650563 0.095616445 0.38175565
000210 e6 bf 87 be e8 58 9c 3e 67 9c 26 bc dc b7 ce be
       -0.26513594 0.3053658 -0.010169125 -0.4037465
000220 3d 48 0d 3e 5f 4b 13 3d ad 86 f2 bd 13 92 8e be
       0.13797088 0.03596055 -0.118420936 -0.2784582
000230 54 90 25 3c 65 cd ab be a6 73 79 3d 87 75 10 bd
       0.010105211 -0.3355514 0.060901307 -0.035268333
000240 e4 72 c0 3d 88 1e 9d 3e 11 2c 11 be 13 48 85 be
       0.09396914 0.30687356 -0.14176966 -0.2603155
000250 5e 75 4e 3b 63 b2 e5 be c9 27 9e ba 00 80 ab 3d
       0.0031503062 -0.4486266 -0.00120663 0.083740234
000260 c9 29 ad 3b d1 49 ea be d2 ba 73 3e 63 b0 a7 be
       0.005284522 -0.45759442 0.23801735 -0.3275176
000270 b3 39 3d 3e e2 8e 94 3c 11 0f 85 be f5 35 98 3e
       0.18479042 0.018134538 -0.25988057 0.29728666
000280 87 8a 11 bd 9a fe 5e be fa 6c 59 3e 53 a1 4f 3e
       -0.0355325 -0.2177681 0.21232978 0.20276384
000290 bb 97 5a bd 84 eb 00 3e 0d dd e2 3e 1a de 2f be
       -0.053367358 0.12589842 0.44309273 -0.17174569
0002a0 4f 34 20 3d 7e bf c7 3c 05 15 b6 3e 4f 45 07 3e
       0.039112385 0.024383303 0.35562912 0.13210033
0002b0 24 27 9d 3d 2c e8 fc be 86 6d b3 3e ab c4 b0 3e
       0.07673481 -0.49395883 0.35044497 0.34525046
0002c0 fc 32 9b 3e 60 b2 2d 3e 2b 2f ba be b1 19 d2 3d
       0.30312335 0.16962576 -0.3636411 0.102588065
0002d0 15 2b 92 3d b4 e5 e0 be 01 a6 9d be 88 2b 9d 3e
       0.071371235 -0.4392525 -0.30790713 0.30697274
0002e0 67 56 c8 3e ed d1 1d 3d 58 4b d6 3d e1 4c 6c 3e
       0.3912842 0.03853028 0.104635894 0.23076202
0002f0 d0 45 f3 be fd a1 5d be bb e1 87 bd d0 47 75 be
       -0.475142 -0.21643825 -0.066348515 -0.23953176
000300 f1 f4 ca be 23 46 8a 3e 8d 92 f8 3e 53 0a 3d 3e
       -0.3964 0.27006635 0.4854931 0.1846097
000310 22 5c c9 bd 49 e0 3f 3e 45 b4 01 be 20 76 3a 3e
       -0.09832026 0.18737902 -0.12666424 0.18209124
000320 3b db c9 bd 4b 29 03 be d4 4b 78 be 8c 5f 3f 3e
       -0.09856268 -0.12808721 -0.24247676 0.18688792
000330 72 33 ca 3d 44 fb 3b be 1a 12 d1 be 20 23 9b be
       0.09873094 -0.18357569 -0.40834123 -0.30300236
000340 ae 5b 96 3e 43 ab d9 be b0 17 f0 be 11 06 d0 3e
       0.2936682 -0.42513475 -0.46893072 0.40629628
000350 45 63 d9 3d d5 0e 46 bd db 85 b6 be 42 2a 2c be
       0.10614637 -0.04835399 -0.35649 -0.16812995
000360 67 fb 8b be be 83 3f be a6 52 71 be 56 57 8a bd
       -0.27340242 -0.187026 -0.23566684 -0.06754939
000370 42 30 21 3e 3c ce a7 be e9 08 ef be c8 1c d3 be
       0.15741065 -0.32774532 -0.46686485 -0.41232896
000380 2d 25 9f be b8 da 99 3e 13 f3 a1 be ba ef d2 3e
       -0.3108305 0.30049682 -0.31630763 0.41198522
000390 79 04 a9 3e 76 00 fb be 81 dd 64 be 5b 70 a1 3e
       0.33011225 -0.4902379 -0.22350122 0.31531033
0003a0 a9 b2 0d be ce 28 c2 3e 11 07 ec be 65 5d b2 3e
       -0.13837685 0.37921757 -0.4609914 0.3483688
0003b0 74 0e aa 3e 77 c2 37 be fd cf 9f 3e e8 ca 9f be
       0.33214152 -0.17945276 0.3121337 -0.31209493
0003c0 3c 79 1b 3e b9 31 cd 3e 77 ac 71 3e d5 50 f9 bd
       0.15182966 0.40076998 0.23600946 -0.121736206
0003d0 5b 12 1f bd 89 9e eb 3e d5 05 66 3e f3 47 d7 3e
       -0.038835865 0.4601939 0.22463162 0.4204708
0003e0 f6 92 cb be ea 07 9b 3c 56 a5 95 be 98 93 f4 3e
       -0.3976056 0.018924672 -0.29227704 0.47768855
0003f0 e2 0c bf be 42 a6 29 be 23 d4 c5 be 29 28 30 be
       -0.37314516 -0.16567329 -0.3863841 -0.1720282

weight_hh_l0 f4 [12, 4]
000000 f2 a6 13 3e 2d b4 f7 be 6a 2c 40 3e aa f8 95 bd
       0.14419153 -0.4837965 0.18766943 -0.073228195
000010 76 e9 8c 3d 00 5e 8b bd 75 4f 16 bd d3 02 b9 be
       0.06880467 -0.068050385 -0.03669687 -0.36134967
000020 7e 24 1d 3b b3 47 f1 3e f8 a6 cb 3e c2 5b d9 be
       0.002397805 0.47125015 0.39775825 -0.42452818
000030 d3 5d ed be 22 90 f6 3d e0 ba a7 3e 5a 92 9b 3d
       -0.46360645 0.1203921 0.32759762 0.07596274
000040 3f bb ae 3e 48 8e 36 3e a7 8d 20 bd 81 91 f7 3e
       0.34127232 0.17827713 -0.03919759 0.48353198
000050 91 d8 97 be d2 38 cd be 8a 31 ca 3d 7b c3 20 be
       -0.29657415 -0.40082413 0.0987273 -0.1569957
000060 a6 ac 8d 3e eb 09 d9 be 67 2c 4b 3e 40 2c e3 3d
       0.27670783 -0.4239038 0.19841157 0.110924244
000070 8e 9f 33 3e 21 17 7b be 15 9e 8d 3e f9 9f b3 bb
       0.17541334 -0.24520542 0.2765967 -0.0054817167
000080 26 54 c0 bc 0c fe fc bd 68 ee f3 3e c5 b0 13 3e
       -0.023477625 -0.12353143 0.47642827 0.14422901
000090 b0 fd b2 be b6 87 c4 3e a0 b5 46 3e 62 fc e7 3e
       -0.34959173 0.3838479 0.19405222 0.4530974
0000a0 45 18 63 3e 82 4c 98 be 3c 38 49 3e a1 c7 df 3e
       0.22177227 -0.2974587 0.19650358 0.43706992
0000b0 15 5d c6 bc c6 24 d5 3e 46 09 6f 3e a0 6b c1 3e
       -0.024214307 0.41629618 0.23343381 0.37777424

bias_ih_l0 f4 [12]
000000 0e 5a 05 3e 9e 86 04 be 86 fb d3 3e 12 39 ea 3e
       0.13022634 -0.12941977 0.41402835 0.45746666
000010 64 3c 93 3d eb 99 aa bd 0f f9 6c be 76 a3 a0 3e
       0.07189253 -0.08330139 -0.23141883 0.3137471
000020 26 c8 a7 be 80 0a c2 3e 12 ee 76 be a2 b0 9f 3e
       -0.3276989 0.37898636 -0.24114254 0.31189448

bias_hh_l0 f4 [12]
000000 9b 42 24 be a3 c0 c3 bc f1 d6 97 bb 86 47 e3 be
       -0.16041033 -0.023895567 -0.0046337773 -0.44390506
000010 a2 ec 07 3e 42 c7 d4 3e cc 6f c4 3e 90 3b 97 be
       0.13273862 0.41558272 0.38366544 -0.2953763
000020 5c 6f ba 3e 3b ce f0 be e7 24 58 3e e9 e6 ec be
       0.36413085 -0.4703234 0.21107827 -0.4626992

weight f4 [4, 4]
000000 df fe 05 3e 9c d5 0d 3e c2 63 de 3c a9 d9 e8 3e
       0.13085507 0.13851017 0.027147178 0.45478562
000010 4e 27 9e 3e 8b 8e 9c bd db f7 43 be 75 be 49 3e
       0.30889362 -0.076443754 -0.19137518 0.1970156
000020 35 dd 4c bd fc a6 1a be 03 09 64 be 8d 05 2d 3c
       -0.050015647 -0.15102762 -0.22269063 0.010560405
000030 32 fe f5 3e ca 04 d0 3e 1a 68 f0 be 02 e0 00 3f
       0.48045498 0.40628654 -0.46954423 0.5034181

bias f4 [4]
000000 d4 31 b6 3d 98 c1 c7 3d 17 9c d9 3e e9 d1 60 3e
       0.08896223 0.09753722 0.425019 0.21955074

weight f4 [320, 8]
000000 5d 2b 55 bc b5 4a 09 ba e8 2a 9a 3e 6f 11 12 bd
       -0.013010827 -0.00052372675 0.3011086 -0.035661157
000010 de c6 0d 3e dd 57 e9 bd 92 88 2b b8 cd 8b a3 bd
       0.13845393 -0.11393712 -4.0896768e-05 -0.07985649
000020 c9 40 36 3d f8 ce dc bd 4f cd 48 be 3b 43 6b 3e
       0.044495378 -0.10781664 -0.19609569 0.22974865
000030 a4 12 d5 bd 90 94 04 3e e6 5c b5 be 6b 18 70 be
       -0.10403946 0.12947297 -0.35422438 -0.23446815
000040 1e 5a b1 3d cc 60 4a 3e f9 2c 5b 3e e0 82 91 3e
       0.086597666 0.19763488 0.21403874 0.28420162
000050 c9 c4 af 3e 8b 63 f7 3d d5 ad 77 bd 49 d5 f3 3c
       0.34329823 0.12079533 -0.060468514 0.029764788
000060 6a 82 86 be 7f 03 9b 3e ab 4a 27 be ed 06 9d be
       -0.26271373 0.30276105 -0.16337077 -0.30669346
000070 75 72 c5 bc 4f 96 04 be d6 5e fa bd 39 cb 0f 3e
       -0.024102429 -0.12947963 -0.1222512 0.14042367
000080 9f 42 8f 3e 52 4f 3a 3e c4 1f a4 be c4 4a db bd
       0.27980515 0.18194321 -0.32055485 -0.1070762
000090 ab 00 02 bd 7c 8a bd 3d 0a 9c 3e be 8c 49 86 be
       -0.03173892 0.092549294 -0.18614212 -0.26227987
0000a0 90 b0 1c 3c 36 47 4c 3e 9b 77 00 3e ee 7f ac 3c
       0.00956358 0.1994904 0.12545626 0.021057095
0000b0 32 2d 02 38 0d ef 9b be eb 21 a5 37 98 c2 a7 3d
       3.1036507e-05 -0.3045582 1.9685327e-05 0.08191413
0000c0 84 05 b4 3d 8c ce 8c be 37 93 36 3e 1f 46 88 3e
       0.087901145 -0.27501333 0.17829596 0.26615998
0000d0 16 e6 76 3e ed f2 87 bd cb 80 96 3e b1 50 82 3e
       0.24111208 -0.06638131 0.29395136 0.25452188
0000e0 30 7d a8 bd 1c b0 48 3e 5f 13 5b be 20 0d 85 be
       -0.082270026 0.1959843 -0.21394108 -0.25986576
0000f0 65 85 ac 3d fc 80 93 be 1c d0 84 be 81 13 97 bd
       0.084238805 -0.28809345 -0.25940025 -0.07376767
000100 6f 76 8a 3d b8 53 8d bd 32 89 0e 38 9a 6f 70 3e
       0.06760871 -0.06900734 3.398321e-05 0.23480073
000110 07 31 50 3e d4 56 22 39 e0 04 84 3e d6 4e 89 bd
       0.20331202 0.0001548187 0.2578497 -0.0670449
000120 e2 ed a2 3e 77 ba 83 be ce 51 9b 3e 76 7b 23 3e
       0.31822115 -0.257282 0.3033585 0.15965065
000130 9b bf 9a 3e 5d d4 99 bb 5b 04 60 be 4d 10 41 3e
       0.30224308 -0.004694505 -0.21876661 0.18853875
000140 96 2b 33 3e b1 85 89 3e 91 d1 c2 bd b9 90 83 3d
       0.17497095 0.2685981 -0.09512628 0.06424088
000150 5b 24 0e be b3 7f 5d 3e 8e cc e7 bd 2f f1 ae be
       -0.13881056 0.21630745 -0.113183126 -0.34168383
000160 fa fd 2d 3e 97 c1 35 be d8 25 a2 be e6 e1 3e 3e
       0.16991416 -0.1774963 -0.31669497 0.18640861
000170 a3 53 5d 3d e3 65 af 3e 56 19 c6 3d e4 d5 c1 3d
       0.05403484 0.3425742 0.09672801 0.094646245
000180 e8 25 52 3e f9 29 f9 3c f9 65 85 3e fb 00 0d 3e
       0.20522273 0.030415522 0.2605436 0.13769905
000190 cd 68 89 3d d1 0c 2e 3e 01 9e 17 be 5b 67 c6 bd
       0.06709442 0.16997077 -0.14806367 -0.09687682
0001a0 cf 5a 47 3c 7a bb a1 be ed df 54 be 14 c5 7e be
       0.012167647 -0.31588346 -0.20788546 -0.24879867
0001b0 24 3f 48 be 15 09 0e 3e 6c 5d d9 3d a0 23 b9 bc
       -0.19555336 0.13870652 0.10613522 -0.022599995
0001c0 b4 39 8d 38 c5 71 17 3e 66 68 4b be 93 6c 92 bd
       6.734152e-05 0.14789493 -0.19864044 -0.07149615
0001d0 9d 21 7a be d0 d7 af be 92 af 98 3e a8 16 91 3e
       -0.24426885 -0.3434434 0.2982145 0.28337598
0001e0 16 9a 00 3d 3a ba 52 3e 39 cd 9c be 01 f8 91 3e
       0.031396948 0.20578852 -0.30625322 0.28509524
0001f0 d5 b5 2e be 1a 10 94 3a 37 9a a8 3d 74 8e 4c bd
       -0.17061551 0.0011296303 0.08232539 -0.04994054
000200 85 6e 1a 3e c2 75 d7 3d 38 89 99 be 0f 46 c9 3c
       0.15081222 0.105205074 -0.29987502 0.02456954
000210 c1 9d 57 bc fc c0 71 3e 7f dc 06 ba ec de 6e 3d
       -0.01316017 0.23608774 -0.0005144551 0.058318064
000220 f2 23 96 bc 74 80 b4 bd 63 28 5f be 4a 64 a1 be
       -0.018327687 -0.08813563 -0.2179275 -0.31521827
000230 ed 44 aa 3e 49 1f d5 3d 87 7b 1b be 89 07 f3 3d
       0.3325571 0.10406358 -0.1518384 0.118666716
000240 46 e0 e7 3d 40 a7 73 3e 97 47 8e 3e 45 49 87 3e
       0.11322074 0.2379427 0.27788994 0.26423088
000250 b7 bf 19 be 3b a6 9a 3e 5c 94 2a be 1b a8 79 3d
       -0.1501454 0.3020495 -0.16658157 0.060951333
000260 d1 fe 6f be ac ad 24 3e 66 a1 83 be de e2 a2 be
       -0.23437048 0.16081876 -0.25709075 -0.3181371
000270 0c 43 9a 3e 33 87 a6 3e 38 41 3a 3e 1c 2a 4a 3c
       0.30129278 0.32525024 0.18188941 0.012339141
000280 0b 5c c1 bd 61 d9 4a 3d 04 c8 fb bc da 51 2d be
       -0.09441384 0.049523715 -0.030735023 -0.16925755
000290 b4 6a 56 bd 17 ca ac bc 99 4d 27 3d 4e 8a d3 bd
       -0.052347854 -0.021092458 0.040845487 -0.10329114
0002a0 17 1a bf 3b ae 88 93 3e 98 7d a0 3d 09 6d 8e 3e
       0.0058319676 0.28815216 0.07836455 0.27817562
0002b0 b5 01 65 3e 9b b9 1e be 4a c6 59 3e 97 4e 29 3e
       0.22363932 -0.1550049 0.21267048 0.16533886
0002c0 c9 53 dd 3d 68 ad 96 be 94 99 94 be 86 22 f9 bd
       0.108069964 -0.29429173 -0.2902342 -0.12164788
0002d0 b4 2e 7d 3e 53 61 a4 be db bc 28 be a1 86 00 bd
       0.24724847 -0.32105502 -0.16478293 -0.031378392
0002e0 2f bc 0b be e3 01 6f be 3b 18 ff 3d 41 9d 65 be
       -0.13646005 -0.23340563 0.124557935 -0.22423269
0002f0 09 55 12 3e 00 2e a4 3e aa a6 a2 3d 74 e3 a7 bc
       0.14290251 0.32066345 0.07941945 -0.0204942
000300 50 db e4 bd 28 34 02 3e 63 b1 8b 3e 88 db 24 be
       -0.11174643 0.12715209 0.27283773 -0.1609937
000310 78 18 5c 3e da e1 85 3c b7 6a a5 be a6 f7 a4 be
       0.21493709 0.016343046 -0.3230798 -0.3222019
000320 7e c6 2d 3e 8a 6b a4 be 32 9d 61 3e a8 82 6e 3e
       0.1697025 -0.32113296 0.22032622 0.23292029
000330 a4 54 96 bd 1d 1c 7e 3e 7f 5e 5a be 18 97 ad 3e
       -0.07340363 0.24815412 -0.2132511 0.33904338
000340 35 73 94 be b0 69 e2 3c f8 fe 39 be 6b 6e 84 3e
       -0.28994146 0.027638286 -0.18163669 0.25865492
000350 7f d2 a2 be 18 c4 86 be 06 1a 76 be 35 e7 1d be
       -0.3180122 -0.26321483 -0.24033365 -0.1542023
000360 01 7c 9a bd 9b 53 95 3c b3 dc 2a be 7d ce 4a be
       -0.07543183 0.018228343 -0.16685753 -0.19805332
000370 36 c6 5d 3e 0a d6 21 3e 5a ad 86 3e a1 31 02 be
       0.21657643 0.15804306 0.26304132 -0.12714244
000380 b7 f2 97 3d 29 16 3e bd 47 1a 74 bd b0 4b 97 3d
       0.07419341 -0.046407852 -0.059595373 0.07387483
000390 7f a6 c8 3d 26 92 8a be c5 31 21 be a4 5a 36 3e
       0.097973816 -0.27064627 -0.15741642 0.17808014
0003a0 e9 ea 59 bc 74 f6 a9 3e 21 fd 83 be e7 50 54 3e
       -0.013300636 0.3319584 -0.2577906 0.20733987
0003b0 b6 90 27 3e 67 fa 58 be 59 0c a0 3e 85 93 ab 3e
       0.16363797 -0.21189271 0.3125942 0.33510986
0003c0 61 29 77 be aa 44 1f 3e 0f b7 5e bd bd 36 a0 be
       -0.24136879 0.15553537 -0.054373797 -0.31291762
0003d0 4b 82 d9 bd ed a5 8f 3e c5 c4 86 be 69 35 89 bd
       -0.106205545 0.2805628 -0.26321998 -0.0669964
0003e0 1e 84 30 3e df af 2f 3d 8b ce 23 3b 80 35 2b 3e
       0.17237899 0.042892333 0.0024994935 0.16719627
0003f0 0c 7b ec bd 9a d3 a9 3e f4 e5 5c 3e 19 c4 05 be
       -0.11546907 0.33169252 0.21572095 -0.13063087
