KNet/Linear_SS_No_MM/pipeline_KNet_Linear_Dynamics_T100_r2_positive_25dB.pt (torch, 199497 bytes, 351 tensors)

G f4 [2, 1]
0	0x00000000	0.0
1	0x3f800000	1.0

Q f4 [2, 2]
0	0x439e1d28	316.22778
1	0x00000000	0.0
2	0x00000000	0.0
3	0x439e1d28	316.22778

R f4 [2, 2]
0	0x439e1d28	316.22778
1	0x00000000	0.0
2	0x00000000	0.0
3	0x439e1d28	316.22778

prior_Q f4 [2, 2]
0	0x3f800000	1.0
1	0x00000000	0.0
2	0x00000000	0.0
3	0x3f800000	1.0

prior_Sigma f4 [2, 2]
0	0x3f800000	1.0
1	0x00000000	0.0
2	0x00000000	0.0
3	0x3f800000	1.0

prior_S f4 [2, 2]
0	0x3f800000	1.0
1	0x00000000	0.0
2	0x00000000	0.0
3	0x3f800000	1.0

m1x_0 f4 [2]
0	0x41200000	10.0
1	0x00000000	0.0

x_prev f4 [2]
0	0x41200000	10.0
1	0x00000000	0.0

m2x_0 f4 [2, 2]
0	0x00000000	0.0
1	0x00000000	0.0
2	0x00000000	0.0
3	0x00000000	0.0

QT f4 [2, 2]
0	0x3f800000	1.0
1	0x00000000	0.0
2	0x00000000	0.0
3	0x3f800000	1.0

Qx f4 [2, 2]
0	0x3f800000	1.0
1	0x00000000	0.0
2	0x00000000	0.0
3	0x3f800000	1.0

L f4 [1, 2]
0	0x3f1444c0	0.57917404
1	0x3fc5ea40	1.5462112

L f4 [1, 2]
0	0x3f144ae4	0.57926774
1	0x3fc5e428	1.5460253

L f4 [1, 2]
0	0x3f1444c0	0.57917404
1	0x3fc5ea40	1.5462112

L f4 [1, 2]
0	0x3f144ae4	0.57926774
1	0x3fc5e428	1.5460253

L f4 [1, 2]
0	0x3f1444c0	0.57917404
1	0x3fc5ea40	1.5462112

L f4 [1, 2]
0	0x3f144ae4	0.57926774
1	0x3fc5e428	1.5460253

L f4 [1, 2]
0	0x3f1444c0	0.57917404
1	0x3fc5ea40	1.5462112

L f4 [1, 2]
0	0x3f144ae4	0.57926774
1	0x3fc5e428	1.5460253

L f4 [1, 2]
0	0x3f1444c0	0.57917404
1	0x3fc5ea40	1.5462112

L f4 [1, 2]
0	0x3f144ae4	0.57926774
1	0x3fc5e428	1.5460253

L f4 [1, 2]
0	0x3f1444c0	0.57917404
1	0x3fc5ea40	1.5462112

L f4 [1, 2]
0	0x3f144ae4	0.57926774
1	0x3fc5e428	1.5460253

L f4 [1, 2]
0	0x3f1444c0	0.57917404
1	0x3fc5ea40	1.5462112

L f4 [1, 2]
0	0x3f144ae4	0.57926774
1	0x3fc5e428	1.5460253

L f4 [1, 2]
0	0x3f1444c0	0.57917404
1	0x3fc5ea40	1.5462112

L f4 [1, 2]
0	0x3f144ae4	0.57926774
1	0x3fc5e428	1.5460253

L f4 [1, 2]
0	0x3f1444c0	0.57917404
1	0x3fc5ea40	1.5462112

L f4 [1, 2]
0	0x3f144ae4	0.57926774
1	0x3fc5e428	1.5460253

L f4 [1, 2]
0	0x3f1444c0	0.57917404
1	0x3fc5ea40	1.5462112

L f4 [1, 2]
0	0x3f144ae4	0.57926774
1	0x3fc5e428	1.5460253

L f4 [1, 2]
0	0x3f1444c0	0.57917404
1	0x3fc5ea40	1.5462112

L f4 [1, 2]
0	0x3f144ae4	0.57926774
1	0x3fc5e428	1.5460253

L f4 [1, 2]
0	0x3f1444c0	0.57917404
1	0x3fc5ea40	1.5462112

L f4 [1, 2]
0	0x3f144ae4	0.57926774
1	0x3fc5e428	1.5460253

L f4 [1, 2]
0	0x3f1444c0	0.57917404
1	0x3fc5ea40	1.5462112

L f4 [1, 2]
0	0x3f144ae4	0.57926774
1	0x3fc5e428	1.5460253

L f4 [1, 2]
0	0x3f1444c0	0.57917404
1	0x3fc5ea40	1.5462112

L f4 [1, 2]
0	0x3f144ae4	0.57926774
1	0x3fc5e428	1.5460253

L f4 [1, 2]
0	0x3f1444c0	0.57917404
1	0x3fc5ea40	1.5462112

L f4 [1, 2]
0	0x3f144ae4	0.57926774
1	0x3fc5e428	1.5460253

L f4 [1, 2]
0	0x3f1444c0	0.57917404
1	0x3fc5ea40	1.5462112

L f4 [1, 2]
0	0x3f144ae4	0.57926774
1	0x3fc5e428	1.5460253

L f4 [1, 2]
0	0x3f1444c0	0.57917404
1	0x3fc5ea40	1.5462112

L f4 [1, 2]
0	0x3f144ae4	0.57926774
1	0x3fc5e428	1.5460253

L f4 [1, 2]
0	0x3f1444c0	0.57917404
1	0x3fc5ea40	1.5462112

L f4 [1, 2]
0	0x3f144ae4	0.57926774
1	0x3fc5e428	1.5460253

L f4 [1, 2]
0	0x3f1444c0	0.57917404
1	0x3fc5ea40	1.5462112

L f4 [1, 2]
0	0x3f144ae4	0.57926774
1	0x3fc5e428	1.5460253

L f4 [1, 2]
0	0x3f1444c0	0.57917404
1	0x3fc5ea40	1.5462112

L f4 [1, 2]
0	0x3f144ae4	0.57926774
1	0x3fc5e428	1.5460253

L f4 [1, 2]
0	0x3f1444c0	0.57917404
1	0x3fc5ea40	1.5462112

L f4 [1, 2]
0	0x3f144ae4	0.57926774
1	0x3fc5e428	1.5460253

L f4 [1, 2]
0	0x3f1444c0	0.57917404
1	0x3fc5ea40	1.5462112

L f4 [1, 2]
0	0x3f144ae4	0.57926774
1	0x3fc5e428	1.5460253

L f4 [1, 2]
0	0x3f1444c0	0.57917404
1	0x3fc5ea40	1.5462112

L f4 [1, 2]
0	0x3f144ae4	0.57926774
1	0x3fc5e428	1.5460253

L f4 [1, 2]
0	0x3f1444c0	0.57917404
1	0x3fc5ea40	1.5462112

L f4 [1, 2]
0	0x3f144ae4	0.57926774
1	0x3fc5e428	1.5460253

L f4 [1, 2]
0	0x3f1444c0	0.57917404
1	0x3fc5ea40	1.5462112

L f4 [1, 2]
0	0x3f144ae4	0.57926774
1	0x3fc5e428	1.5460253

L f4 [1, 2]
0	0x3f1444c0	0.57917404
1	0x3fc5ea40	1.5462112

L f4 [1, 2]
0	0x3f144ae4	0.57926774
1	0x3fc5e428	1.5460253

L f4 [1, 2]
0	0x3f1444c0	0.57917404
1	0x3fc5ea40	1.5462112

L f4 [1, 2]
0	0x3f144ae4	0.57926774
1	0x3fc5e428	1.5460253

L f4 [1, 2]
0	0x3f1444c0	0.57917404
1	0x3fc5ea40	1.5462112

L f4 [1, 2]
0	0x3f144ae4	0.57926774
1	0x3fc5e428	1.5460253

L f4 [1, 2]
0	0x3f1444c0	0.57917404
1	0x3fc5ea40	1.5462112

L f4 [1, 2]
0	0x3f144ae4	0.57926774
1	0x3fc5e428	1.5460253

L f4 [1, 2]
0	0x3f1444c0	0.57917404
1	0x3fc5ea40	1.5462112

L f4 [1, 2]
0	0x3f144ae4	0.57926774
1	0x3fc5e428	1.5460253

L f4 [1, 2]
0	0x3f1444c0	0.57917404
1	0x3fc5ea40	1.5462112

L f4 [1, 2]
0	0x3f144ae4	0.57926774
1	0x3fc5e428	1.5460253

L f4 [1, 2]
0	0x3f1444c0	0.57917404
1	0x3fc5ea40	1.5462112

L f4 [1, 2]
0	0x3f144ae4	0.57926774
1	0x3fc5e428	1.5460253

L f4 [1, 2]
0	0x3f1444c0	0.57917404
1	0x3fc5ea40	1.5462112

L f4 [1, 2]
0	0x3f144ae4	0.57926774
1	0x3fc5e428	1.5460253

L f4 [1, 2]
0	0x3f1444c0	0.57917404
1	0x3fc5ea40	1.5462112

L f4 [1, 2]
0	0x3f144ae4	0.57926774
1	0x3fc5e428	1.5460253

L f4 [1, 2]
0	0x3f1444c0	0.57917404
1	0x3fc5ea40	1.5462112

L f4 [1, 2]
0	0x3f144ae4	0.57926774
1	0x3fc5e428	1.5460253

L f4 [1, 2]
0	0x3f1444c0	0.57917404
1	0x3fc5ea40	1.5462112

L f4 [1, 2]
0	0x3f144ae4	0.57926774
1	0x3fc5e428	1.5460253

L f4 [1, 2]
0	0x3f1444c0	0.57917404
1	0x3fc5ea40	1.5462112

L f4 [1, 2]
0	0x3f144ae4	0.57926774
1	0x3fc5e428	1.5460253

L f4 [1, 2]
0	0x3f1444c0	0.57917404
1	0x3fc5ea40	1.5462112

L f4 [1, 2]
0	0x3f144ae4	0.57926774
1	0x3fc5e428	1.5460253

L f4 [1, 2]
0	0x3f1444c0	0.57917404
1	0x3fc5ea40	1.5462112

L f4 [1, 2]
0	0x3f144ae4	0.57926774
1	0x3fc5e428	1.5460253

L f4 [1, 2]
0	0x3f1444c0	0.57917404
1	0x3fc5ea40	1.5462112

L f4 [1, 2]
0	0x3f144ae4	0.57926774
1	0x3fc5e428	1.5460253

L f4 [1, 2]
0	0x3f1444c0	0.57917404
1	0x3fc5ea40	1.5462112

L f4 [1, 2]
0	0x3f144ae4	0.57926774
1	0x3fc5e428	1.5460253

L f4 [1, 2]
0	0x3f1444c0	0.57917404
1	0x3fc5ea40	1.5462112

L f4 [1, 2]
0	0x3f144ae4	0.57926774
1	0x3fc5e428	1.5460253

L f4 [1, 2]
0	0x3f1444c0	0.57917404
1	0x3fc5ea40	1.5462112

L f4 [1, 2]
0	0x3f144ae4	0.57926774
1	0x3fc5e428	1.5460253

L f4 [1, 2]
0	0x3f1444c0	0.57917404
1	0x3fc5ea40	1.5462112

L f4 [1, 2]
0	0x3f144ae4	0.57926774
1	0x3fc5e428	1.5460253

L f4 [1, 2]
0	0x3f1444c0	0.57917404
1	0x3fc5ea40	1.5462112

L f4 [1, 2]
0	0x3f144ae4	0.57926774
1	0x3fc5e428	1.5460253

L f4 [1, 2]
0	0x3f1444c0	0.57917404
1	0x3fc5ea40	1.5462112

L f4 [1, 2]
0	0x3f144ae4	0.57926774
1	0x3fc5e428	1.5460253

L f4 [1, 2]
0	0x3f1444c0	0.57917404
1	0x3fc5ea40	1.5462112

L f4 [1, 2]
0	0x3f144ae4	0.57926774
1	0x3fc5e428	1.5460253

L f4 [1, 2]
0	0x3f1444c0	0.57917404
1	0x3fc5ea40	1.5462112

L f4 [1, 2]
0	0x3f144ae4	0.57926774
1	0x3fc5e428	1.5460253

L f4 [1, 2]
0	0x3f143b80	0.5790329
1	0x3fc5de00	1.5458374

L f4 [1, 2]
0	0x3f13a2cc	0.57670283
1	0x3fc585f0	1.54315

L f4 [1, 2]
0	0x3f0fcae0	0.5616894
1	0x3fc35140	1.525917

L f4 [1, 2]
0	0x3ee9a000	0.45629883
1	0x3fb4948c	1.4107833

S f4 [2, 2]
0	0x402acba4	2.6686792
1	0x3fdd05ac	1.7267356
2	0x3fdd05ac	1.7267356
3	0x403858b0	2.880413

S f4 [2, 2]
0	0x402ac260	2.6681137
1	0x3fdcd7e0	1.725338
2	0x3fdcd7e0	1.725338
3	0x403835c0	2.8782806

S f4 [2, 2]
0	0x402acba4	2.6686792
1	0x3fdd05ac	1.7267356
2	0x3fdd05ac	1.7267356
3	0x403858b0	2.880413

S f4 [2, 2]
0	0x402ac260	2.6681137
1	0x3fdcd7e0	1.725338
2	0x3fdcd7e0	1.725338
3	0x403835c0	2.8782806

S f4 [2, 2]
0	0x402acba4	2.6686792
1	0x3fdd05ac	1.7267356
2	0x3fdd05ac	1.7267356
3	0x403858b0	2.880413

S f4 [2, 2]
0	0x402ac260	2.6681137
1	0x3fdcd7e0	1.725338
2	0x3fdcd7e0	1.725338
3	0x403835c0	2.8782806

S f4 [2, 2]
0	0x402acba4	2.6686792
1	0x3fdd05ac	1.7267356
2	0x3fdd05ac	1.7267356
3	0x403858b0	2.880413

S f4 [2, 2]
0	0x402ac260	2.6681137
1	0x3fdcd7e0	1.725338
2	0x3fdcd7e0	1.725338
3	0x403835c0	2.8782806

S f4 [2, 2]
0	0x402acba4	2.6686792
1	0x3fdd05ac	1.7267356
2	0x3fdd05ac	1.7267356
3	0x403858b0	2.880413

S f4 [2, 2]
0	0x402ac260	2.6681137
1	0x3fdcd7e0	1.725338
2	0x3fdcd7e0	1.725338
3	0x403835c0	2.8782806

S f4 [2, 2]
0	0x402acba4	2.6686792
1	0x3fdd05ac	1.7267356
2	0x3fdd05ac	1.7267356
3	0x403858b0	2.880413

S f4 [2, 2]
0	0x402ac260	2.6681137
1	0x3fdcd7e0	1.725338
2	0x3fdcd7e0	1.725338
3	0x403835c0	2.8782806

S f4 [2, 2]
0	0x402acba4	2.6686792
1	0x3fdd05ac	1.7267356
2	0x3fdd05ac	1.7267356
3	0x403858b0	2.880413

S f4 [2, 2]
0	0x402ac260	2.6681137
1	0x3fdcd7e0	1.725338
2	0x3fdcd7e0	1.725338
3	0x403835c0	2.8782806

S f4 [2, 2]
0	0x402acba4	2.6686792
1	0x3fdd05ac	1.7267356
2	0x3fdd05ac	1.7267356
3	0x403858b0	2.880413

S f4 [2, 2]
0	0x402ac260	2.6681137
1	0x3fdcd7e0	1.725338
2	0x3fdcd7e0	1.725338
3	0x403835c0	2.8782806

S f4 [2, 2]
0	0x402acba4	2.6686792
1	0x3fdd05ac	1.7267356
2	0x3fdd05ac	1.7267356
3	0x403858b0	2.880413

S f4 [2, 2]
0	0x402ac260	2.6681137
1	0x3fdcd7e0	1.725338
2	0x3fdcd7e0	1.725338
3	0x403835c0	2.8782806

S f4 [2, 2]
0	0x402acba4	2.6686792
1	0x3fdd05ac	1.7267356
2	0x3fdd05ac	1.7267356
3	0x403858b0	2.880413

S f4 [2, 2]
0	0x402ac260	2.6681137
1	0x3fdcd7e0	1.725338
2	0x3fdcd7e0	1.725338
3	0x403835c0	2.8782806

S f4 [2, 2]
0	0x402acba4	2.6686792
1	0x3fdd05ac	1.7267356
2	0x3fdd05ac	1.7267356
3	0x403858b0	2.880413

S f4 [2, 2]
0	0x402ac260	2.6681137
1	0x3fdcd7e0	1.725338
2	0x3fdcd7e0	1.725338
3	0x403835c0	2.8782806

S f4 [2, 2]
0	0x402acba4	2.6686792
1	0x3fdd05ac	1.7267356
2	0x3fdd05ac	1.7267356
3	0x403858b0	2.880413

S f4 [2, 2]
0	0x402ac260	2.6681137
1	0x3fdcd7e0	1.725338
2	0x3fdcd7e0	1.725338
3	0x403835c0	2.8782806

S f4 [2, 2]
0	0x402acba4	2.6686792
1	0x3fdd05ac	1.7267356
2	0x3fdd05ac	1.7267356
3	0x403858b0	2.880413

S f4 [2, 2]
0	0x402ac260	2.6681137
1	0x3fdcd7e0	1.725338
2	0x3fdcd7e0	1.725338
3	0x403835c0	2.8782806

S f4 [2, 2]
0	0x402acba4	2.6686792
1	0x3fdd05ac	1.7267356
2	0x3fdd05ac	1.7267356
3	0x403858b0	2.880413

S f4 [2, 2]
0	0x402ac260	2.6681137
1	0x3fdcd7e0	1.725338
2	0x3fdcd7e0	1.725338
3	0x403835c0	2.8782806

S f4 [2, 2]
0	0x402acba4	2.6686792
1	0x3fdd05ac	1.7267356
2	0x3fdd05ac	1.7267356
3	0x403858b0	2.880413

S f4 [2, 2]
0	0x402ac260	2.6681137
1	0x3fdcd7e0	1.725338
2	0x3fdcd7e0	1.725338
3	0x403835c0	2.8782806

S f4 [2, 2]
0	0x402acba4	2.6686792
1	0x3fdd05ac	1.7267356
2	0x3fdd05ac	1.7267356
3	0x403858b0	2.880413

S f4 [2, 2]
0	0x402ac260	2.6681137
1	0x3fdcd7e0	1.725338
2	0x3fdcd7e0	1.725338
3	0x403835c0	2.8782806

S f4 [2, 2]
0	0x402acba4	2.6686792
1	0x3fdd05ac	1.7267356
2	0x3fdd05ac	1.7267356
3	0x403858b0	2.880413

S f4 [2, 2]
0	0x402ac260	2.6681137
1	0x3fdcd7e0	1.725338
2	0x3fdcd7e0	1.725338
3	0x403835c0	2.8782806

S f4 [2, 2]
0	0x402acba4	2.6686792
1	0x3fdd05ac	1.7267356
2	0x3fdd05ac	1.7267356
3	0x403858b0	2.880413

S f4 [2, 2]
0	0x402ac260	2.6681137
1	0x3fdcd7e0	1.725338
2	0x3fdcd7e0	1.725338
3	0x403835c0	2.8782806

S f4 [2, 2]
0	0x402acba4	2.6686792
1	0x3fdd05ac	1.7267356
2	0x3fdd05ac	1.7267356
3	0x403858b0	2.880413

S f4 [2, 2]
0	0x402ac260	2.6681137
1	0x3fdcd7e0	1.725338
2	0x3fdcd7e0	1.725338
3	0x403835c0	2.8782806

S f4 [2, 2]
0	0x402acba4	2.6686792
1	0x3fdd05ac	1.7267356
2	0x3fdd05ac	1.7267356
3	0x403858b0	2.880413

S f4 [2, 2]
0	0x402ac260	2.6681137
1	0x3fdcd7e0	1.725338
2	0x3fdcd7e0	1.725338
3	0x403835c0	2.8782806

S f4 [2, 2]
0	0x402acba4	2.6686792
1	0x3fdd05ac	1.7267356
2	0x3fdd05ac	1.7267356
3	0x403858b0	2.880413

S f4 [2, 2]
0	0x402ac260	2.6681137
1	0x3fdcd7e0	1.725338
2	0x3fdcd7e0	1.725338
3	0x403835c0	2.8782806

S f4 [2, 2]
0	0x402acba4	2.6686792
1	0x3fdd05ac	1.7267356
2	0x3fdd05ac	1.7267356
3	0x403858b0	2.880413

S f4 [2, 2]
0	0x402ac260	2.6681137
1	0x3fdcd7e0	1.725338
2	0x3fdcd7e0	1.725338
3	0x403835c0	2.8782806

S f4 [2, 2]
0	0x402acba4	2.6686792
1	0x3fdd05ac	1.7267356
2	0x3fdd05ac	1.7267356
3	0x403858b0	2.880413

S f4 [2, 2]
0	0x402ac260	2.6681137
1	0x3fdcd7e0	1.725338
2	0x3fdcd7e0	1.725338
3	0x403835c0	2.8782806

S f4 [2, 2]
0	0x402acba4	2.6686792
1	0x3fdd05ac	1.7267356
2	0x3fdd05ac	1.7267356
3	0x403858b0	2.880413

S f4 [2, 2]
0	0x402ac260	2.6681137
1	0x3fdcd7e0	1.725338
2	0x3fdcd7e0	1.725338
3	0x403835c0	2.8782806

S f4 [2, 2]
0	0x402acba4	2.6686792
1	0x3fdd05ac	1.7267356
2	0x3fdd05ac	1.7267356
3	0x403858b0	2.880413

S f4 [2, 2]
0	0x402ac260	2.6681137
1	0x3fdcd7e0	1.725338
2	0x3fdcd7e0	1.725338
3	0x403835c0	2.8782806

S f4 [2, 2]
0	0x402acba4	2.6686792
1	0x3fdd05ac	1.7267356
2	0x3fdd05ac	1.7267356
3	0x403858b0	2.880413

S f4 [2, 2]
0	0x402ac260	2.6681137
1	0x3fdcd7e0	1.725338
2	0x3fdcd7e0	1.725338
3	0x403835c0	2.8782806

S f4 [2, 2]
0	0x402acba4	2.6686792
1	0x3fdd05ac	1.7267356
2	0x3fdd05ac	1.7267356
3	0x403858b0	2.880413

S f4 [2, 2]
0	0x402ac260	2.6681137
1	0x3fdcd7e0	1.725338
2	0x3fdcd7e0	1.725338
3	0x403835c0	2.8782806

S f4 [2, 2]
0	0x402acba4	2.6686792
1	0x3fdd05ac	1.7267356
2	0x3fdd05ac	1.7267356
3	0x403858b0	2.880413

S f4 [2, 2]
0	0x402ac260	2.6681137
1	0x3fdcd7e0	1.725338
2	0x3fdcd7e0	1.725338
3	0x403835c0	2.8782806

S f4 [2, 2]
0	0x402acba4	2.6686792
1	0x3fdd05ac	1.7267356
2	0x3fdd05ac	1.7267356
3	0x403858b0	2.880413

S f4 [2, 2]
0	0x402ac260	2.6681137
1	0x3fdcd7e0	1.725338
2	0x3fdcd7e0	1.725338
3	0x403835c0	2.8782806

S f4 [2, 2]
0	0x402acba4	2.6686792
1	0x3fdd05ac	1.7267356
2	0x3fdd05ac	1.7267356
3	0x403858b0	2.880413

S f4 [2, 2]
0	0x402ac260	2.6681137
1	0x3fdcd7e0	1.725338
2	0x3fdcd7e0	1.725338
3	0x403835c0	2.8782806

S f4 [2, 2]
0	0x402acba4	2.6686792
1	0x3fdd05ac	1.7267356
2	0x3fdd05ac	1.7267356
3	0x403858b0	2.880413

S f4 [2, 2]
0	0x402ac260	2.6681137
1	0x3fdcd7e0	1.725338
2	0x3fdcd7e0	1.725338
3	0x403835c0	2.8782806

S f4 [2, 2]
0	0x402acba4	2.6686792
1	0x3fdd05ac	1.7267356
2	0x3fdd05ac	1.7267356
3	0x403858b0	2.880413

S f4 [2, 2]
0	0x402ac260	2.6681137
1	0x3fdcd7e0	1.725338
2	0x3fdcd7e0	1.725338
3	0x403835c0	2.8782806

S f4 [2, 2]
0	0x402acba4	2.6686792
1	0x3fdd05ac	1.7267356
2	0x3fdd05ac	1.7267356
3	0x403858b0	2.880413

S f4 [2, 2]
0	0x402ac260	2.6681137
1	0x3fdcd7e0	1.725338
2	0x3fdcd7e0	1.725338
3	0x403835c0	2.8782806

S f4 [2, 2]
0	0x402acba4	2.6686792
1	0x3fdd05ac	1.7267356
2	0x3fdd05ac	1.7267356
3	0x403858b0	2.880413

S f4 [2, 2]
0	0x402ac260	2.6681137
1	0x3fdcd7e0	1.725338
2	0x3fdcd7e0	1.725338
3	0x403835c0	2.8782806

S f4 [2, 2]
0	0x402acba4	2.6686792
1	0x3fdd05ac	1.7267356
2	0x3fdd05ac	1.7267356
3	0x403858b0	2.880413

S f4 [2, 2]
0	0x402ac260	2.6681137
1	0x3fdcd7e0	1.725338
2	0x3fdcd7e0	1.725338
3	0x403835c0	2.8782806

S f4 [2, 2]
0	0x402acba4	2.6686792
1	0x3fdd05ac	1.7267356
2	0x3fdd05ac	1.7267356
3	0x403858b0	2.880413

S f4 [2, 2]
0	0x402ac260	2.6681137
1	0x3fdcd7e0	1.725338
2	0x3fdcd7e0	1.725338
3	0x403835c0	2.8782806

S f4 [2, 2]
0	0x402acba4	2.6686792
1	0x3fdd05ac	1.7267356
2	0x3fdd05ac	1.7267356
3	0x403858b0	2.880413

S f4 [2, 2]
0	0x402ac260	2.6681137
1	0x3fdcd7e0	1.725338
2	0x3fdcd7e0	1.725338
3	0x403835c0	2.8782806

S f4 [2, 2]
0	0x402acba4	2.6686792
1	0x3fdd05ac	1.7267356
2	0x3fdd05ac	1.7267356
3	0x403858b0	2.880413

S f4 [2, 2]
0	0x402ac260	2.6681137
1	0x3fdcd7e0	1.725338
2	0x3fdcd7e0	1.725338
3	0x403835c0	2.8782806

S f4 [2, 2]
0	0x402acba4	2.6686792
1	0x3fdd05ac	1.7267356
2	0x3fdd05ac	1.7267356
3	0x403858b0	2.880413

S f4 [2, 2]
0	0x402ac260	2.6681137
1	0x3fdcd7e0	1.725338
2	0x3fdcd7e0	1.725338
3	0x403835c0	2.8782806

S f4 [2, 2]
0	0x402acba4	2.6686792
1	0x3fdd05ac	1.7267356
2	0x3fdd05ac	1.7267356
3	0x403858b0	2.880413

S f4 [2, 2]
0	0x402ac260	2.6681137
1	0x3fdcd7e0	1.725338
2	0x3fdcd7e0	1.725338
3	0x403835c0	2.8782806

S f4 [2, 2]
0	0x402acba4	2.6686792
1	0x3fdd05ac	1.7267356
2	0x3fdd05ac	1.7267356
3	0x403858b0	2.880413

S f4 [2, 2]
0	0x402ac260	2.6681137
1	0x3fdcd7e0	1.725338
2	0x3fdcd7e0	1.725338
3	0x403835c0	2.8782806

S f4 [2, 2]
0	0x402acba4	2.6686792
1	0x3fdd05ac	1.7267356
2	0x3fdd05ac	1.7267356
3	0x403858b0	2.880413

S f4 [2, 2]
0	0x402ac260	2.6681137
1	0x3fdcd7e0	1.725338
2	0x3fdcd7e0	1.725338
3	0x403835c0	2.8782806

S f4 [2, 2]
0	0x402acba4	2.6686792
1	0x3fdd05ac	1.7267356
2	0x3fdd05ac	1.7267356
3	0x403858b0	2.880413

S f4 [2, 2]
0	0x402ac260	2.6681137
1	0x3fdcd7e0	1.725338
2	0x3fdcd7e0	1.725338
3	0x403835c0	2.8782806

S f4 [2, 2]
0	0x402acba4	2.6686792
1	0x3fdd05ac	1.7267356
2	0x3fdd05ac	1.7267356
3	0x403858b0	2.880413

S f4 [2, 2]
0	0x402ac260	2.6681137
1	0x3fdcd7e0	1.725338
2	0x3fdcd7e0	1.725338
3	0x403835c0	2.8782806

S f4 [2, 2]
0	0x402acba4	2.6686792
1	0x3fdd05ac	1.7267356
2	0x3fdd05ac	1.7267356
3	0x403858b0	2.880413

S f4 [2, 2]
0	0x402ac260	2.6681137
1	0x3fdcd7e0	1.725338
2	0x3fdcd7e0	1.725338
3	0x403835c0	2.8782806

S f4 [2, 2]
0	0x402acba4	2.6686792
1	0x3fdd05ac	1.7267356
2	0x3fdd05ac	1.7267356
3	0x403858b0	2.880413

S f4 [2, 2]
0	0x402ac260	2.6681137
1	0x3fdcd7e0	1.725338
2	0x3fdcd7e0	1.725338
3	0x403835c0	2.8782806

S f4 [2, 2]
0	0x402acba4	2.6686792
1	0x3fdd05ac	1.7267356
2	0x3fdd05ac	1.7267356
3	0x403858b0	2.880413

S f4 [2, 2]
0	0x402ac260	2.6681137
1	0x3fdcd7e0	1.725338
2	0x3fdcd7e0	1.725338
3	0x403835c0	2.8782806

S f4 [2, 2]
0	0x402acba4	2.6686792
1	0x3fdd05ac	1.7267356
2	0x3fdd05ac	1.7267356
3	0x403858b0	2.880413

S f4 [2, 2]
0	0x402abe2c	2.6678572
1	0x3fdcdc34	1.7254701
2	0x3fdcdc34	1.7254701
3	0x40383ba0	2.8786392

S f4 [2, 2]
0	0x402a96be	2.6654506
1	0x3fdc9940	1.7234268
2	0x3fdc9940	1.7234268
3	0x40382e80	2.8778381

S f4 [2, 2]
0	0x4029a66c	2.6507826
1	0x3fda9aac	1.7078452
2	0x3fda9aac	1.7078452
3	0x40371750	2.860798

S f4 [2, 2]
0	0x4022cc00	2.5437012
1	0x3fcb65ba	1.589042
2	0x3fcb65ba	1.589042
3	0x402ea5a8	2.7288609

S f4 [2, 2]
0	0x40000000	2.0
1	0x3f800000	1.0
2	0x3f800000	1.0
3	0x4005d000	2.0908203

L_infinite f4 [1, 2]
0	0x3f14448b	0.5791709
1	0x3fc5d71b	1.545627

weight_ih_l0 f4 [12, 10]
0	0xbde06404	-0.109565765
1	0x3c21a99a	0.009867096
2	0xbeda7b8b	-0.4267238
3	0x3edfcedb	0.43712506
4	0x3ede2e30	0.43394613
5	0x3e98e849	0.2986472
6	0xbdd06906	-0.10176282
7	0x3e9e8427	0.309602
8	0xbe8cc9b4	-0.27497637
9	0x3eb8f814	0.3612677
10	0xbece43ce	-0.40286106
11	0xbedd0a73	-0.43172035
12	0xbd31852e	-0.0433399
13	0x3ee5bb89	0.4486964
14	0xbe99261c	-0.29911888
15	0xbea613a3	-0.32436857
16	0x3ec1eb5f	0.37874886
17	0xbd80cb48	-0.06288773
18	0xbe17c07e	-0.14819524
19	0x3a9878de	0.0011632701
20	0x3eaf2aa7	0.3421223
21	0xbe8da7dd	-0.27667132
22	0x3e617e18	0.22020757
23	0xbd87972b	-0.0662063
24	0xbe914edd	-0.2838048
25	0x3e32bdba	0.17455187
26	0xbea5845e	-0.3232755
27	0xbd756bc7	-0.059917238
28	0x3f0191b2	0.5061294
29	0x3e17e351	0.14832808
30	0xbe7571f3	-0.2396925
31	0x3e5df775	0.21676429
32	0x3e4e0b69	0.2012154
33	0x3ee26001	0.4421387
34	0xbee18fe3	-0.4405509
35	0xbed1aba3	-0.4095126
36	0x3e701d23	0.23448615
37	0x3eec694a	0.4617408
38	0xbdf99ad9	-0.12187738
39	0xbe6bcf66	-0.23028335
40	0x3e87932e	0.26479477
41	0x3dff8f51	0.12478507
42	0xbe79f49a	-0.24409714
43	0x3e5e84bb	0.2173032
44	0x3ef0a193	0.4699827
45	0xbee9c7a4	-0.45660126
46	0xbe3531bc	-0.17694753
47	0xbee7e319	-0.4529045
48	0x3e410760	0.1885047
49	0x3c8fa560	0.017534912
50	0xbefceda4	-0.49400055
51	0x3eb29516	0.3487937
52	0x389b5767	7.407256e-05
53	0xbbcd6b71	-0.0062689115
54	0xbebfeba8	-0.3748448
55	0xbe78e3b1	-0.24305607
56	0x3d3afc59	0.045650814
57	0x3eb78955	0.35846964
58	0x3eaea207	0.34107992
59	0xbe88cec1	-0.2672024
60	0x3e19663a	0.14980403
61	0x3e45f8e6	0.19333228
62	0xbc52d6df	-0.012868612
63	0xbc06e5d8	-0.00823351
64	0x3e99916b	0.29993758
65	0x3de1b333	0.11020508
66	0x3d814892	0.0631267
67	0xbd8be26f	-0.06830298
68	0xbe42e104	-0.19031149
69	0x3e09ef24	0.13470131
70	0xbd2a6e55	-0.041609127
71	0xbdba337e	-0.090918526
72	0x3e1dfdb6	0.15428814
73	0x3e5f16e5	0.21786077
74	0x3dd53f9e	0.10412525
75	0xbeaf7f91	-0.34277013
76	0x3de1831b	0.110113345
77	0x3dd746a6	0.10511522
78	0x3e51a291	0.2047217
79	0x3ea8c1e0	0.32960415
80	0x3eeb33fe	0.45938104
81	0xba49a4b3	-0.00076920836
82	0xbee446eb	-0.44585356
83	0x3ee1d8a8	0.44110608
84	0x3e77acd3	0.24187021
85	0xbe379419	-0.17927589
86	0x3ef7c5bc	0.48393047
87	0x3e86162d	0.26188794
88	0xbe699b97	-0.22813259
89	0xbdabc5cd	-0.08387337
90	0x3dd078f2	0.101793185
91	0xbed1ba3a	-0.40962392
92	0x3e89b680	0.2689705
93	0x3e180bef	0.14848302
94	0xbe1db5a6	-0.15401325
95	0x3d536f6a	0.051619925
96	0x3ec3b1d9	0.38221624
97	0xbe84b5ec	-0.25920045
98	0x3e098499	0.13429488
99	0x3e75cf82	0.24004939
100	0x3e194fb7	0.14971815
101	0x3ebc8a91	0.36824468
102	0x3e4cf892	0.20016697
103	0xbe04aaba	-0.12955752
104	0xbef49098	-0.47766566
105	0x3d38fd18	0.045163244
106	0x3e716aea	0.2357594
107	0x3e39f3ca	0.18159404
108	0x3e93999b	0.2882813
109	0x3d3105aa	0.043218292
110	0xbedba234	-0.4289719
111	0x3e85da78	0.2614324
112	0xbe93f42b	-0.28897223
113	0xbdffc77a	-0.12489219
114	0xbdaf29ba	-0.085528806
115	0xbe0ae7b2	-0.13564947
116	0xbd5c9a01	-0.053857807
117	0xbe27f7de	-0.16403148
118	0xbee31e1e	-0.44358915
119	0x3cd087de	0.025455412

weight_hh_l0 f4 [12, 4]
0	0x3eeb155b	0.4591473
1	0x3e9014ce	0.28140873
2	0xbd1284bb	-0.035771113
3	0xbe20a486	-0.1568776
4	0xbe37329e	-0.17890403
5	0xbe09b44c	-0.13447684
6	0x3e8d29fa	0.27571088
7	0x3e1ddf79	0.1541728
8	0xbec21b86	-0.37911624
9	0xbe05cb60	-0.13065863
10	0xbe9be92b	-0.3045133
11	0x3ce04ae0	0.027379453
12	0x3df8f0ea	0.12155326
13	0xbce9aca5	-0.028524706
14	0xbd40d5b8	-0.047078818
15	0x3ec5dda6	0.38645667
16	0x3eed863e	0.4639148
17	0xbea5c04d	-0.32373276
18	0x3e595a7c	0.21225923
19	0xbecf8b27	-0.40535852
20	0x3e99851c	0.29984367
21	0x3ea5234a	0.32253486
22	0x3ed97588	0.42472482
23	0x3eb4d9b2	0.35322338
24	0xbe2b6bb6	-0.16740307
25	0x3cf6fa82	0.030148748
26	0xbeb0c548	-0.34525514
27	0x3e7ad079	0.24493589
28	0xbe531f99	-0.20617522
29	0xbe594eb9	-0.21221437
30	0xbea2a39f	-0.31765458
31	0x3ed77da8	0.42088056
32	0xbeb07dd2	-0.34470993
33	0x3eb17505	0.3465959
34	0xbf00c874	-0.5030587
35	0x3e731aa1	0.23740627
36	0x3e834bcc	0.25643766
37	0xbeb95686	-0.36198825
38	0xbeb89d23	-0.36057386
39	0xbeab95a2	-0.33512598
40	0x3e7506f7	0.23928438
41	0xbed48bf1	-0.41513017
42	0x3eec777a	0.46184903
43	0xbea4d6a0	-0.32194996
44	0xbf017abc	-0.505779
45	0xbef1f22a	-0.4725507
46	0x3eb8bc69	0.36081246
47	0x3df356ff	0.118818276

bias_ih_l0 f4 [12]
0	0xbefb1b36	-0.49044198
1	0x3e85306f	0.26013514
2	0x3ec027dc	0.3753041
3	0x3ea4d008	0.32189965
4	0x3e316b1d	0.17326017
5	0xbe0dcb66	-0.13847122
6	0xbe0719ed	-0.13193484
7	0x3d90b5b6	0.070659086
8	0xbe654411	-0.22389247
9	0x3e5b7006	0.21429452
10	0xbefb7cd6	-0.4911868
11	0x3e89a21b	0.2688149

bias_hh_l0 f4 [12]
0	0x3e8e05c6	0.2773878
1	0xbec1f13a	-0.37879354
2	0xbe8aa338	-0.2707765
3	0x3ea9bab2	0.3315025
4	0x3e507b65	0.20359571
5	0x3e682023	0.22668509
6	0xbe86971e	-0.26287168
7	0x3ecf91d8	0.40540957
8	0xbdc7e6dc	-0.0976083
9	0x3dd79012	0.10525526
10	0xbc2ce0e2	-0.010551663
11	0xbe8ee722	-0.27910715

weight_ih_l0 f4 [12, 14]
0	0xbd78be3c	-0.060728297
1	0x3ea85b19	0.32882002
2	0x3ed9e20a	0.42555267
3	0xbe9079c8	-0.28217912
4	0xbe9b3757	-0.30315658
5	0x3d41e5b1	0.04733819
6	0x3eba8fd0	0.36437845
7	0x3cb7fc4d	0.022459174
8	0xbec7a986	-0.38996524
9	0x3e3da08c	0.18518275
10	0xbe1222b4	-0.1427105
11	0x3ddff3b8	0.109351575
12	0x3d611c11	0.054958407
13	0xbd2bbc03	-0.04192735
14	0xbede8a26	-0.43464774
15	0x3e389453	0.18025331
16	0xbea91165	-0.33021083
17	0xbed02a94	-0.40657485
18	0x3e3f4429	0.18678345
19	0xbef2d768	-0.47429967
20	0x3e97feb2	0.29686505
21	0x3e856a1c	0.26057518
22	0x3eb8b4ba	0.36075383
23	0xbe3f30fd	-0.18671031
24	0xbef11200	-0.47084045
25	0xbd9cf440	-0.076637745
26	0x3ec68584	0.3877374
27	0xbec838ef	-0.39105937
28	0x3d9dd00e	0.07705699
29	0x3d5964c8	0.053074628
30	0x3edd03e4	0.4316703
31	0xbe9a11ea	-0.30091792
32	0xbe5d44d2	-0.21608284
33	0x3ecc12a0	0.3985796
34	0xbedd8ffc	-0.43273914
35	0x3e9c6dfd	0.30552664
36	0x3e376620	0.17910051
37	0xbd80071c	-0.06251356
38	0x3e7bd429	0.24592651
39	0xbdf7d822	-0.12101771
40	0x3e89c69a	0.26909333
41	0x3d109359	0.03529677
42	0xbe747896	-0.23874125
43	0xbed03943	-0.40668687
44	0xbd4cd21f	-0.050005075
45	0x3d5644e1	0.05231178
46	0x3ece8deb	0.4034265
47	0xbe5fbab9	-0.21848573
48	0xbe62042a	-0.22071901
49	0x3d63abd4	0.05558379
50	0x3e3172a0	0.17328882
51	0x3eb92266	0.36159056
52	0x3ca7214e	0.020401623
53	0xbe3c2eaf	-0.18377183
54	0x3e6bd015	0.23028596
55	0x3e0cf67b	0.137659
56	0xbdf45ae3	-0.11931398
57	0x3ea9a49b	0.33133397
58	0x3e77cf02	0.24200061
59	0xbe85eaff	-0.2615585
60	0x3ec16170	0.3776965
61	0x3e9fcdf5	0.3121182
62	0xbdd4077b	-0.10352989
63	0xbec3d15c	-0.38245666
64	0x3ea2d4d6	0.31803006
65	0x3e959524	0.29215348
66	0xbe94998e	-0.29023403
67	0xbeecf875	-0.46283308
68	0xbed60c57	-0.4180629
69	0x3ec44f23	0.38341627
70	0x3ee90b5b	0.45516476
71	0xbcf8a7a3	-0.030353373
72	0xbd6ac4b1	-0.057316486
73	0x3e4d9c6a	0.20079198
74	0xbeb7377a	-0.35784513
75	0xbedde7b5	-0.4334084
76	0xbd0d354b	-0.034474652
77	0xbede492f	-0.4341521
78	0xbe46ad53	-0.19402055
79	0x3e9f7cd9	0.3114994
80	0x3efa63bd	0.4890422
81	0xbd33b224	-0.04387106
82	0x3e4a45fe	0.19753262
83	0xbdcf2417	-0.101143055
84	0x3e58364b	0.21114461
85	0x3e2de1fd	0.16980739
86	0x3eef923e	0.4679126
87	0x3e2cab83	0.16862302
88	0x3e680d43	0.22661309
89	0x3e98d8da	0.29852945
90	0xbe0847ad	-0.13308592
91	0x3ec85b72	0.39132267
92	0xbcd66283	-0.02617002
93	0xbeb75ac3	-0.35811433
94	0x3e3e6236	0.18592152
95	0xbe0b28f8	-0.13589847
96	0xbef7486e	-0.48297447
97	0xbe70af4d	-0.23504372
98	0x3ea8e99f	0.3299074
99	0xbef71828	-0.48260617
100	0xbeddb052	-0.43298584
101	0x3ea5cda1	0.32383445
102	0x3eb0a4bd	0.34500685
103	0x3e3470c2	0.17621139
104	0xbded43fa	-0.11585231
105	0xbe8d40d4	-0.27588522
106	0xbecfe7d5	-0.4060656
107	0xbe8ecd35	-0.27890936
108	0x3dece407	0.1156693
109	0x3eac799f	0.3368654
110	0xbefcf606	-0.4940645
111	0xb9fcc514	-0.0004821202
112	0xbedc8334	-0.4306885
113	0x3deddbd7	0.11614197
114	0xbe1d2b9e	-0.1534867
115	0x3ec9c006	0.39404315
116	0xbbcd56f9	-0.0062664715
117	0x3ef126e7	0.47099993
118	0x3d6c6bee	0.057720117
119	0x3ea62441	0.32449535
120	0x3e5f97f8	0.21835315
121	0xbef1cd47	-0.47226927
122	0xbe620261	-0.2207122
123	0xbeaff739	-0.34368303
124	0xbe4bf8b2	-0.19919088
125	0x3ec66e7c	0.38756168
126	0xbecf2537	-0.4045808
127	0x3eeb4b80	0.4595604
128	0xbe399003	-0.18121342
129	0x3e9c8a10	0.30574083
130	0x3eac3bc0	0.33639336
131	0xbee163e0	-0.4402151
132	0x3e28c5e9	0.16481747
133	0x3ec7cd48	0.39023805
134	0xbd24d698	-0.040243715
135	0x3ef9c39c	0.4878205
136	0xbd92ce9c	-0.07168314
137	0x3ecbc172	0.39796025
138	0x3ee099bb	0.43867287
139	0x3e57f86b	0.21090858
140	0xbdf86af5	-0.121297754
141	0x3dcbf34e	0.09958516
142	0x3eea73a9	0.45791367
143	0xbec79148	-0.38978028
144	0xbe1d71b1	-0.15375401
145	0x3eb2dc6f	0.34933802
146	0xbece3de9	-0.4028161
147	0x3ed93095	0.42419878
148	0x3e3ab83b	0.18234341
149	0x3ee136d1	0.43987134
150	0xbc83b7de	-0.016078886
151	0x3e77a4a4	0.24183899
152	0xbea42d13	-0.3206564
153	0x3c8d2272	0.017228339
154	0xbed43378	-0.41445518
155	0x3ee066b2	0.4382835
156	0x3efff37a	0.49990445
157	0x3e83ee97	0.25767967
158	0x3d845aec	0.064626545
159	0xbebe66d4	-0.37187827
160	0x3edc0431	0.42971948
161	0x3dcd2a33	0.100178145
162	0xbef98fad	-0.48742428
163	0x3de6397c	0.11241433
164	0x3958a59f	0.00020661064
165	0x3edbb590	0.4291196
166	0x3e9e47d0	0.30914164
167	0xbec255d8	-0.3795612

weight_hh_l0 f4 [12, 4]
0	0x3e595e08	0.21227276
1	0xbeeb45f9	-0.45951822
2	0x3d0e74cc	0.034779355
3	0xbe73dcf7	-0.2381476
4	0xbce66156	-0.028122585
5	0x3de04823	0.10951259
6	0xbe9895f0	-0.29801893
7	0xbea06b53	-0.31331882
8	0x3ebab3a9	0.36465195
9	0xbe9ccba9	-0.3062413
10	0x375ce9f3	1.3167492e-05
11	0xbee0b9e2	-0.43891817
12	0xbea36691	-0.3191419
13	0x3ee56ae8	0.44808125
14	0xbe850b94	-0.25985396
15	0xbe2639e7	-0.16233025
16	0xbe8dc229	-0.27687195
17	0xbeacec4f	-0.3377404
18	0xbe6da4b6	-0.23207363
19	0xbeb7520c	-0.35804784
20	0x3ec63d08	0.38718438
21	0x3f00967a	0.5022961
22	0xbe275384	-0.16340452
23	0x3ba4d13c	0.0050298255
24	0xbed95528	-0.42447782
25	0xbd2510d4	-0.04029925
26	0xbe6105d7	-0.21974884
27	0x3e953e3e	0.2914905
28	0x3edbdc71	0.4294162
29	0x3eea82d8	0.4580295
30	0xb82f3aef	-4.1778138e-05
31	0xbe1c0117	-0.1523479
32	0xbea72cfb	-0.32651505
33	0x3e53debf	0.2069044
34	0x3ed61f27	0.41820642
35	0xbe8749dc	-0.26423538
36	0x3eb06179	0.34449366
37	0x3e0063f4	0.12538129
38	0x3e0beff4	0.13665754
39	0x3df8a446	0.12140708
40	0x3e718c49	0.23588671
41	0x3e898cdd	0.26865283
42	0x3dc5a38c	0.09650335
43	0x3ef3f0f8	0.47644782
44	0xbe8a5e0f	-0.27024886
45	0x3ec0e9ff	0.37678525
46	0x3ed80768	0.4219315
47	0x3ea107f2	0.31451374

bias_ih_l0 f4 [12]
0	0x3e162047	0.1466075
1	0xbed94993	-0.42438945
2	0xbe202451	-0.15638854
3	0xbefef9f1	-0.49800065
4	0xbde5a274	-0.11212626
5	0xbe421792	-0.18954304
6	0xbea3d3de	-0.3199758
7	0xbea8d6d1	-0.32976392
8	0x3e01c012	0.12670925
9	0xbe300248	-0.1718837
10	0x3ea5aeb2	0.32359844
11	0xbe36867b	-0.17824738

bias_hh_l0 f4 [12]
0	0xbe86c21c	-0.2631997
1	0x3e6fa1bd	0.23401542
2	0x3e8caf65	0.27477565
3	0x3de0e0c3	0.1098037
4	0xbe11c9c3	-0.14237122
5	0x3d1e269e	0.038611047
6	0x3e9a2d3b	0.30112633
7	0xbecd09eb	-0.4004663
8	0xbd0e9df5	-0.03481861
9	0xbeeff7bf	-0.46868703
10	0xbe6977dc	-0.22799629
11	0x3ee02d1a	0.4378441

weight_ih_l0 f4 [12, 24]
0	0x3ea6e68e	0.32597774
1	0x3d7221ea	0.059114374
2	0x3ee60ad0	0.44930124
3	0xbe1c540e	-0.1526644
4	0xbeec8178	-0.46192527
5	0xbe868602	-0.26274115
6	0x3e23d527	0.1599928
7	0xbe9687ae	-0.2940039
8	0xbe40bf83	-0.18823056
9	0xbe4086e9	-0.18801464
10	0x3d6309b3	0.05542917
11	0x3ee384ea	0.44437343
12	0xbe5e63b5	-0.21717723
13	0xbef7403f	-0.48291203
14	0xbe8ae0aa	-0.2712453
15	0x3eaaf101	0.33386996
16	0x3ecc83e9	0.3994439
17	0x3eaa6807	0.33282492
18	0x3d9517ac	0.07279906
19	0x3d372ee2	0.044722445
20	0xbe0bf29f	-0.13666771
21	0x3e8b62eb	0.27223906
22	0xbed201e9	-0.41017082
23	0xbeb64901	-0.35602573
24	0x3e5057b6	0.20345959
25	0xbe29693d	-0.16544051
26	0x3d467b32	0.048457332
27	0xbec8db0c	-0.3922962
28	0x3e09c42d	0.13453741
29	0xbe3452d6	-0.17609724
30	0xbe865ef7	-0.26244327
31	0x3e9275fc	0.2860564
32	0xbe44a068	-0.19201815
33	0xbdc33dda	-0.095332816
34	0xbefc7660	-0.49309063
35	0x3dba7851	0.0910498
36	0xbe57e3b3	-0.21082954
37	0xbef0f8a2	-0.47064692
38	0x3e713705	0.23556145
39	0xbe5c0661	-0.21486808
40	0xbdd979d8	-0.10618943
41	0xbe0bc811	-0.13650538
42	0xbef44322	-0.47707468
43	0x3ef35a43	0.47529802
44	0x3d41bc2f	0.047298606
45	0xbebadee9	-0.36498192
46	0xbd3cf0ef	-0.04612821
47	0x3daf9a83	0.08574393
48	0xbeafdd02	-0.34348303
49	0xbe433b74	-0.19065648
50	0x3df9f667	0.12205201
51	0xbe01df68	-0.12682879
52	0xbe2a03fd	-0.16603084
53	0x3dbe7271	0.09299172
54	0x3e5e1e5e	0.21691272
55	0x3cad0bfa	0.021123875
56	0xbdee986e	-0.116501674
57	0x3ec91b07	0.39278433
58	0xbef96b5e	-0.48714727
59	0xb8aec6b7	-8.33398e-05
60	0x3ebea4dc	0.37235153
61	0xbed0705c	-0.40710723
62	0x3ea1e18c	0.3161739
63	0x3cfdf27a	0.03099941
64	0x3e9ee307	0.31032583
65	0x3edff169	0.4373887
66	0xbe929399	-0.28628233
67	0x3dedbc5c	0.11608192
68	0x3e7cb1ec	0.24677247
69	0x3eb3380f	0.35003707
70	0x3de0203f	0.109436505
71	0xbeacb849	-0.33734348
72	0x3eba31ab	0.3636602
73	0xbe76503a	-0.24054042
74	0x3eaec288	0.3413279
75	0x3ea60d04	0.32431805
76	0xbc7d7563	-0.015469882
77	0xbca0ca4a	-0.019627709
78	0xbd99929a	-0.07498665
79	0xbdf47627	-0.11936598
80	0x3d8d63d3	0.069038056
81	0xbe4953dd	-0.19660898
82	0xbdaf2515	-0.08551995
83	0xbef86dc6	-0.4852125
84	0x3eecd661	0.46257308
85	0x3ea98aa1	0.33113578
86	0x3ef8f127	0.48621485
87	0xbe10ee2b	-0.14153354
88	0x3e904142	0.28174788
89	0x3ec225ea	0.3791955
90	0x3e21d341	0.15803243
91	0xbed0ad13	-0.40757045
92	0xbeac2394	-0.33620894
93	0x3ea3429b	0.31886753
94	0xbd8804c5	-0.06641535
95	0x3d258fc2	0.0404203
96	0x3e427768	0.18990862
97	0xbe7a01af	-0.24414705
98	0x3e9da645	0.30790916
99	0xbeeb822f	-0.4599776
100	0xbec6cd89	-0.38828686
101	0xbef10c9f	-0.47079942
102	0x3c48406e	0.0122223925
103	0x3e24b5dd	0.16085
104	0xbe7ac320	-0.24488497
105	0xbecbe9c5	-0.3982679
106	0xbdf71131	-0.12063826
107	0xbe40694a	-0.18790165
108	0xbcce558f	-0.025187282
109	0x3e7fb698	0.24971998
110	0x3e9239dc	0.28559768
111	0x3d3c9a91	0.046045844
112	0x3eab9881	0.3351479
113	0xbeebf873	-0.4608799
114	0x3ec85f30	0.39135122
115	0xbc350014	-0.011047382
116	0x3dd75e9a	0.10516091
117	0x3e5f2037	0.21789633
118	0xbcbb9dad	-0.022902334
119	0x3e7f0e83	0.2490788
120	0x3d857c94	0.06517902
121	0x3eec8e3a	0.4620226
122	0xbd9c691d	-0.07637236
123	0x3dbdb536	0.09263079
124	0x3e0d6e0b	0.1381151
125	0xbed4fd95	-0.41599718
126	0x3ef153df	0.471343
127	0x3ee0a005	0.43872085
128	0xbd7f9d2a	-0.062405743
129	0xbe569803	-0.20956425
130	0x3dbffb2a	0.093740776
131	0x3ec3127e	0.38100046
132	0xbe888444	-0.2666341
133	0x3e9c09a9	0.3047612
134	0xbc3df848	-0.011594839
135	0xbecd8174	-0.40137827
136	0x3e13f4a5	0.14448793
137	0x3d0e9bf0	0.034816682
138	0xbdefbe8a	-0.11706264
139	0xbe8eed8a	-0.27915603
140	0x3c1db551	0.009625749
141	0xbea8a040	-0.3293476
142	0x3d706716	0.05869206
143	0xbd0e3eab	-0.034727734
144	0x3dcacd09	0.099023886
145	0x3ea60794	0.32427657
146	0xbe0c938d	-0.13728161
147	0xbe8780a8	-0.26465344
148	0x3beecc8e	0.0072875684
149	0xbee2b9dc	-0.44282424
150	0x3b4a3119	0.0030852018
151	0x3db872d2	0.09006275
152	0x3b68d908	0.0035529751
153	0xbeea0937	-0.45710155
154	0x3e6f7ba2	0.23387006
155	0xbea33ba6	-0.31881446
156	0x3e466ecf	0.19378208
157	0x3cf3dbbb	0.029767862
158	0xbe811341	-0.25210002
159	0x3e9d0940	0.3067112
160	0xbd055e40	-0.032560587
161	0xbe55d6c9	-0.20882715
162	0x3e6c19d7	0.23056732
163	0x3e503345	0.20332058
164	0xbd1cb13a	-0.038254954
165	0x3e0373d3	0.12837152
166	0x3ee368fc	0.44416034
167	0xbe253ca5	-0.16136415
168	0x3d2bcd47	0.041943815
169	0x3cd26cae	0.025686588
170	0x3eb96ea8	0.36217237
171	0x3e0fc2a5	0.14039095
172	0x3da63701	0.0811596
173	0xbefc4eae	-0.49278778
174	0x3eb1d9d1	0.34736493
175	0x3eb2dcd8	0.34934115
176	0x3e9c11d2	0.30482346
177	0x3e25bc32	0.16185072
178	0xbebd0398	-0.36916804
179	0x3dd15359	0.102209754
180	0x3d954032	0.07287635
181	0xbee3e29e	-0.44508833
182	0xbe9b06c6	-0.30278605
183	0x3ea2c13f	0.3178806
184	0x3ec9f656	0.39445752
185	0x3d262c01	0.04056931
186	0x3dd2cfd5	0.10293547
187	0x3e672db1	0.22576024
188	0xbef18581	-0.47172168
189	0xbe5a9324	-0.21345192
190	0xbd86609e	-0.06561397
191	0xbe7b6ca0	-0.24553156
192	0xbecb6814	-0.39727843
193	0x3e8b5cac	0.2721914
194	0x3ef8c9f1	0.4859157
195	0x3e3f8858	0.18704355
196	0xbdccc6fa	-0.09998889
197	0x3e3fdb4f	0.18736003
198	0xbe008445	-0.12550457
199	0x3e3bda30	0.1834495
200	0xbdca279f	-0.098708384
201	0xbe019bbc	-0.12657064
202	0xbe775bd9	-0.24156131
203	0x3e3d659f	0.18495797
204	0x3dc902eb	0.0981501
205	0xbe3d4254	-0.18482333
206	0xbed1b4dd	-0.409583
207	0xbe9f6413	-0.31131038
208	0x3e96cb90	0.2945218
209	0xbeda3d30	-0.42624807
210	0xbef10273	-0.4707218
211	0x3ecd0d55	0.40049234
212	0x3dd6b7a9	0.10484249
213	0xbd42a98c	-0.047524974
214	0xbeb584b4	-0.35452807
215	0xbe2b4d6f	-0.16728757
216	0xbe8d5d50	-0.27610254
217	0xbe3abb52	-0.1823552
218	0xbe77ad1d	-0.24187131
219	0xbd82d48d	-0.06388197
220	0x3e1db17e	0.15399739
221	0xbea9b05b	-0.3314236
222	0xbef044c8	-0.46927476
223	0xbed64a0a	-0.41853362
224	0xbea0e91b	-0.31427845
225	0x3e989e47	0.29808256
226	0xbea25f8f	-0.3171353
227	0x3ed1afe2	0.409545
228	0x3ea6a240	0.32545662
229	0xbefb18f8	-0.49042487
230	0xbe69cc6e	-0.2283189
231	0x3ea0e6ee	0.31426185
232	0xbe12cea4	-0.1433664
233	0x3ebf0c3c	0.37314022
234	0xbeeff5a4	-0.46867096
235	0x3eafa7c6	0.34307688
236	0x3eaad0f2	0.33362538
237	0xbe3cb67d	-0.18428989
238	0x3e9c7e9e	0.3056535
239	0xbe9f0d5c	-0.3106488
240	0x3e167152	0.14691666
241	0x3ed0c97e	0.40778726
242	0x3e6ec3c7	0.2331687
243	0xbdf2570e	-0.118330106
244	0xbd26b7c9	-0.040702615
245	0x3ee9e7a7	0.4568455
246	0x3e6343ba	0.22193804
247	0x3ed2ae97	0.41148826
248	0xbeceb5b2	-0.40372998
249	0x3c9d8561	0.01922864
250	0xbe9689b2	-0.29401928
251	0x3ef2fc2a	0.4745801
252	0xbec0790d	-0.37592354
253	0xbe30a3be	-0.17249963
254	0xbec755e1	-0.38932708
255	0xbe3849e5	-0.17996939

weight_hh_l0 f4 [12, 4]
0	0x3e135035	0.14386065
1	0xbef769fa	-0.4832304
2	0x3e3fcdcc	0.18730849
3	0xbd910cd8	-0.07082528
4	0x3d7aa4c8	0.061192304
5	0xbd832a37	-0.06404536
6	0xbd30fb59	-0.043208454
7	0xbeba70b3	-0.36414108
8	0x3b1314e8	0.002244288
9	0x3ef211c1	0.4727917
10	0x3ecba0b3	0.3977104
11	0xbed6fe05	-0.41990677
12	0xbef03591	-0.46915868
13	0x3dfb341b	0.12265798
14	0x3ea87363	0.32900533
15	0x3d9ad5ba	0.07560296
16	0x3eafa9c3	0.34309205
17	0x3e374339	0.17896737
18	0xbd20bd4a	-0.03924302
19	0x3ef714a8	0.48257947
20	0xbe9afa83	-0.3026925
21	0xbece376b	-0.40276656
22	0x3dc27326	0.09494619
23	0xbe25d2e0	-0.16193724
24	0x3e8c9210	0.27455187
25	0xbed64eec	-0.41857088
26	0x3e4491e8	0.19196284
27	0x3de13b3a	0.10997625
28	0x3e2e9dad	0.17052336
29	0xbe7f26ad	-0.24917097
30	0x3e8cb9fa	0.2748564
31	0xbb626c1c	-0.0034549301
32	0xbcc7a8a5	-0.024372408
33	0xbe0067c6	-0.12539586
34	0x3ef3c94e	0.4761452
35	0x3e14df0e	0.14538214
36	0xbeaf7f78	-0.34276938
37	0x3ec15b8d	0.3776516
38	0x3e4c66fc	0.1996116
39	0x3ee68b76	0.45028275
40	0x3e671ac9	0.22568811
41	0xbe98b6c7	-0.29826948
42	0x3e4cb4b7	0.19990812
43	0x3ee0c0da	0.43897134
44	0xbc862ebf	-0.016379712
45	0x3ed312ba	0.41225225
46	0x3e6f34f3	0.23360042
47	0x3ec22ea3	0.37926206

bias_ih_l0 f4 [12]
0	0x3e055bed	0.13023348
1	0xbdfc5759	-0.12321348
2	0x3ed6d1ca	0.4195693
3	0x3eea900a	0.45813018
4	0x3d9328f4	0.071855456
5	0xbd9d412b	-0.076784454
6	0xbe67ec54	-0.22648746
7	0x3ea27ae5	0.31734386
8	0xbea7966d	-0.32731953
9	0x3ebee27f	0.37282178
10	0xbe79ff6a	-0.24413839
11	0x3e9e933a	0.309717

bias_hh_l0 f4 [12]
0	0xbe244cc0	-0.16044903
1	0xbc90da61	-0.017682256
2	0x3a0e6869	0.00054324284
3	0xbee2f59c	-0.4432801
4	0x3e07e390	0.13270402
5	0x3ed81f5c	0.42211425
6	0x3ec6fe69	0.38865975
7	0xbe9570ed	-0.29187718
8	0x3ebaa733	0.36455688
9	0xbef3c355	-0.47609964
10	0x3e551208	0.2080766
11	0xbeee3940	-0.46528053

weight f4 [4, 4]
0	0x3e061c02	0.13096622
1	0x3e0df0d2	0.13861397
2	0x3cdbf3f6	0.026849728
3	0x3ee8c24e	0.45460743
4	0x3e9a360f	0.30119368
5	0xbd9d645d	-0.076851584
6	0xbe46e38c	-0.1942274
7	0x3e4dd87e	0.20102116
8	0xbd4ba69c	-0.049719438
9	0xbe1c1f6e	-0.15246364
10	0xbe63467a	-0.22194853
11	0x3c15301d	0.009105709
12	0x3efcf0c9	0.49402454
13	0x3ed254e4	0.4108039
14	0xbef63f1d	-0.48095027
15	0x3f012559	0.50447613

bias f4 [4]
0	0x3db5faa9	0.088857
1	0x3dc1f355	0.0947024
2	0x3eda229c	0.4260453
3	0x3e5d8ef6	0.21636567

weight f4 [320, 8]
0	0xbc3a5d6b	-0.011374812
1	0xb99e2100	-0.00030160695
2	0x3e992796	0.29913014
3	0xbd0a8a30	-0.033823192
4	0x3e0bc69e	0.13649985
5	0xbde55c54	-0.11199251
6	0x384355fd	4.6571706e-05
7	0xbd9f9bf1	-0.07793415
8	0x3d29ae1d	0.041425813
9	0xbdd8c239	-0.1058392
10	0xbe45f349	-0.19331087
11	0x3e68fa8e	0.22751829
12	0xbddb9d54	-0.10723367
13	0x3e09d7bb	0.13461201
14	0xbeb64039	-0.35595873
15	0xbe714a77	-0.23563562
16	0x3da9ee3b	0.08297392
17	0x3e479027	0.19488584
18	0x3e5f74da	0.21821919
19	0x3e8fb1b6	0.2806527
20	0x3eacdef3	0.33763847
21	0x3e02ef95	0.12786706
22	0xbd82d324	-0.06387928
23	0x3cee0b06	0.02905799
24	0xbe884797	-0.2661712
25	0x3e9cd1e3	0.3062888
26	0xbe2a4612	-0.16628292
27	0xbe9e2e70	-0.30894804
28	0xbcc826eb	-0.02443262
29	0xbe0ca614	-0.13735229
30	0xbdfb6d40	-0.12276697
31	0x3e099f6e	0.13439724
32	0x3e9427d2	0.2893663
33	0x3e462358	0.1934942
34	0xbea51e18	-0.32249522
35	0xbdf018bd	-0.117234685
36	0xbd220766	-0.039557837
37	0x3dc95cae	0.0983213
38	0xbe4906e9	-0.19631542
39	0xbe8d2e87	-0.2757456
40	0x3c034629	0.008012333
41	0x3e4a435e	0.19752261
42	0x3dfcf11d	0.12350676
43	0x3c9e2f01	0.019309523
44	0x37690f0b	1.3891385e-05
45	0xbe9aebb1	-0.30257943
46	0xb81e234e	-3.7703016e-05
47	0x3da3d1c6	0.079989955
48	0x3dbe1651	0.092816
49	0xbe915129	-0.28382233
50	0x3e3a30ed	0.18182726
51	0x3e82b0d1	0.25525525
52	0x3e8066e8	0.2507851
53	0xbd8ee0ba	-0.06976457
54	0x3e9ca56b	0.30594954
55	0x3e867cbe	0.26267046
56	0xbda39efd	-0.07989309
57	0x3e4609b5	0.1933964
58	0xbe59a368	-0.21253741
59	0xbe83bb99	-0.25729063
60	0x3da9b1c4	0.08285859
61	0xbe923419	-0.28555372
62	0xbe837f35	-0.2568299
63	0xbd91f186	-0.07126145
64	0x3d868d72	0.06569947
65	0xbd8969d4	-0.06709638
66	0x3740076a	1.1445818e-05
67	0x3e6e6a83	0.23282818
68	0x3e4e2d08	0.20134366
69	0xb8f1d654	-0.00011531697
70	0x3e830204	0.25587475
71	0xbd856639	-0.06513638
72	0x3ea17bae	0.31539673
73	0xbe8450e9	-0.2584298
74	0x3e9cc811	0.3062139
75	0x3e24db80	0.16099358
76	0x3e9b58e0	0.30341244
77	0xbbda114c	-0.006654894
78	0xbe619208	-0.22028363
79	0x3e450550	0.19240308
80	0x3e307093	0.17230444
81	0x3e8a8456	0.2705409
82	0xbdbf37ac	-0.093367904
83	0x3d801497	0.06253927
84	0xbe107c8e	-0.14110014
85	0x3e609745	0.21932705
86	0xbdea083a	-0.1142735
87	0xbeb068ac	-0.34454858
88	0x3e374c1e	0.1790013
89	0xbe3f1f6d	-0.18664332
90	0xbea52f8a	-0.32262832
91	0x3e4ee2ea	0.20203748
92	0x3d8706b8	0.065930784
93	0x3eadb199	0.3392456
94	0x3dd2c66c	0.10291752
95	0x3dbb98c1	0.09159995
96	0x3e55b95f	0.20871495
97	0x3d022dc8	0.03178194
98	0x3e8072e9	0.2508767
99	0x3e10f6b3	0.14156608
100	0x3d927312	0.07150854
101	0x3e2b9dfc	0.16759485
102	0xbe0ec94e	-0.13943979
103	0xbdc7a01a	-0.09747334
104	0x3c434b86	0.011919862
105	0xbe9dc5e5	-0.30815044
106	0xbe5841a6	-0.21118793
107	0xbe7a50be	-0.24444863
108	0xbe44aa6c	-0.19205636
109	0x3e0a43ad	0.13502379
110	0x3de36ae3	0.111043714
111	0xbcae1418	-0.021249816
112	0xbc59deb5	-0.013297726
113	0x3e09f62c	0.13472813
114	0xbe494298	-0.1965431
115	0xbd911c1d	-0.0708544
116	0xbe7ffb9d	-0.24998327
117	0xbeae624c	-0.3405937
118	0x3e95d972	0.2926746
119	0x3e8c3e42	0.2739125
120	0x3cf24d64	0.029577918
121	0x3e50b621	0.20381977
122	0xbe9bc9d9	-0.30427435
123	0x3e90f4d5	0.28311792
124	0xbe2cb360	-0.16865301
125	0x3a24924b	0.0006277903
126	0x3da4a934	0.080400854
127	0xbd44db17	-0.048060503
128	0x3e186d51	0.14885451
129	0x3dd37c88	0.10326487
130	0xbe9885e7	-0.2978966
131	0x3cbab691	0.022792133
132	0xbc3cc368	-0.011521198
133	0x3e6fbbdb	0.23411505
134	0xb98863ad	-0.00026014206
135	0x3d671ae9	0.056422148
136	0xbcc20c5e	-0.023687538
137	0xbdabf8a6	-0.08397035
138	0xbe590fbb	-0.21197407
139	0xbea2d674	-0.3180424
140	0x3eaf581e	0.34246916
141	0x3dc4b8cc	0.0960556
142	0xbe1ffeac	-0.15624493
143	0x3df73239	0.12070126
144	0x3ddf85e2	0.10914208
145	0x3e798db8	0.24370468
146	0x3e8fdbd8	0.28097415
147	0x3e867ffe	0.26269525
148	0xbe1c8cb7	-0.15288053
149	0x3e974f2f	0.295526
150	0xbe2d665f	-0.16933583
151	0x3d7ae575	0.061253984
152	0xbe7d9c1d	-0.24766584
153	0x3e33b07e	0.17547795
154	0xbe8487e0	-0.25884914
155	0xbea31fcf	-0.31860206
156	0x3e9c8c75	0.3057591
157	0x3eab1710	0.33416033
158	0x3e411cbe	0.1885862
159	0x3c68f2e3	0.014218065
160	0xbdbd6638	-0.09248012
161	0x3d4326f8	0.047644585
162	0xbcece83f	-0.028919337
163	0xbe2b4f79	-0.16729535
164	0xbd4eb20f	-0.05046278
165	0xbc9e7873	-0.019344544
166	0x3d1fb32a	0.038989224
167	0xbdcf91a2	-0.10135199
168	0x3aaecef2	0.0013336821
169	0x3e96ff8e	0.29491848
170	0x3d997b16	0.0749418
171	0x3e8ea082	0.27856833
172	0x3e62769d	0.2211556
173	0xbe29ff27	-0.16601239
174	0x3e6334b6	0.22188076
175	0x3e256070	0.16150069
176	0x3df3c402	0.1190262
177	0xbe931b93	-0.28731975
178	0xbe979a9c	-0.29610145
179	0xbdef5d26	-0.116876885
180	0x3e8302c1	0.2558804
181	0xbea4535a	-0.32094842
182	0xbe22add9	-0.1588663
183	0xbcec7e36	-0.028868776
184	0xbe154bb4	-0.1457966
185	0xbe66d8be	-0.22543618
186	0x3e014c2e	0.12626716
187	0xbe5b2422	-0.21400502
188	0x3e1419f1	0.14463021
189	0x3e9fc7ef	0.31207225
190	0x3dc76b70	0.09737289
191	0xbcfc20b1	-0.030777307
192	0xbde3fd3c	-0.11132285
193	0x3dfcd37d	0.12345026
194	0x3e89248d	0.267857
195	0xbe20e3a2	-0.15711835
196	0x3e5cd23e	0.21564576
197	0x3cb36abc	0.02190148
198	0xbea3e6d2	-0.3201204
199	0xbea18090	-0.31543398
200	0x3e303351	0.17207076
201	0xbea4ec3c	-0.32211483
202	0x3e5ec8d7	0.21756302
203	0x3e6f8b75	0.23393042
204	0xbd8e3a3d	-0.06944702
205	0x3e7bc94d	0.24588509
206	0xbe57a207	-0.21057902
207	0x3eaf472e	0.34233993
208	0xbe92bc96	-0.28659505
209	0x3cdbf4ab	0.026850065
210	0xbe3f529b	-0.18683855
211	0x3e88becb	0.26708063
212	0xbe9eb6ea	-0.30998927
213	0xbe88ee57	-0.2674434
214	0xbe70a668	-0.23500979
215	0xbe1d7df1	-0.15380074
216	0xbde0e219	-0.10980625
217	0x3d47bf35	0.048766334
218	0xbe4c055a	-0.19923916
219	0xbe68407e	-0.22680852
220	0x3e79f643	0.24410348
221	0x3e3cc6fb	0.1843528
222	0x3e9603a1	0.29299644
223	0xbe21327c	-0.15741915
224	0x3d9a0db7	0.07522147
225	0xbd514c08	-0.0510979
226	0xbd78d857	-0.060753193
227	0x3d859c24	0.06523922
228	0x3dc28131	0.094972976
229	0xbe8b549e	-0.27212995
230	0xbe20c9c2	-0.15701964
231	0x3e3108c4	0.172885
232	0xbcc0a4a2	-0.023516003
233	0x3eac2cf6	0.33628052
234	0xbe831047	-0.25598356
235	0x3e569717	0.20956074
236	0x3e2c70f4	0.16839963
237	0xbe500eed	-0.20318194
238	0x3e9d7991	0.3075681
239	0x3eb8d236	0.36097878
240	0xbe759741	-0.2398348
241	0x3e1e2994	0.15445548
242	0xbd744001	-0.05963135
243	0xbe9f8725	-0.31157795
244	0xbdccdea3	-0.10003402
245	0x3e8e39e9	0.27778557
246	0xbe84ddff	-0.2595062
247	0xbd95973a	-0.07304235
248	0x3e316566	0.17323837
249	0x3d326c02	0.043560036
250	0x3b640cf9	0.0034797771
251	0x3e2b38f3	0.16720943
252	0xbdf2209a	-0.118226245
253	0x3ea990f4	0.33118403
254	0x3e5f40b1	0.21802022
255	0xbe0205d9	-0.12697543

bias f4 [320]
0	0xbe6d7c2b	-0.23191898
1	0x3e993a45	0.2992727
2	0x3de97241	0.11398745
3	0xbe5a74c0	-0.21333599
4	0xbe059342	-0.13044456
5	0xbe9bf43d	-0.30459777
6	0x3db23a89	0.08702571
7	0xbe981541	-0.29703715
8	0xbe81a71e	-0.25322813
9	0x3dcc72d5	0.0998284
10	0x3eae5129	0.34046295
11	0x3e84c6ce	0.25932926
12	0x3c9adb01	0.018903257
13	0xbe377260	-0.17914724
14	0x3d4059f6	0.046960793
15	0xbe98ceb5	-0.29845205
16	0xbe926de3	-0.28599462
17	0xbd27938b	-0.040912192
18	0x3d855332	0.06510009
19	0xbe19185e	-0.14950702
20	0xbe9151e5	-0.28382793
21	0xbeabc838	-0.33551192
22	0x3e85de21	0.26146033
23	0xbe29ff8a	-0.16601387
24	0xbe523b0d	-0.20530339
25	0x3dbd1485	0.092324294
26	0x3e0b6f66	0.13616714
27	0xbe235508	-0.15950406
28	0x3ea9c38b	0.33157
29	0x3e8d8db8	0.27647185
30	0x3ea36eed	0.31920567
31	0x3d12497f	0.035714623
32	0x3c9114e7	0.017710162
33	0x3ea8f1e6	0.32997054
34	0x3c2f8cd8	0.010714732
35	0xbdfff192	-0.12497248
36	0x3d813d6b	0.06310543
37	0x3de9ad71	0.114100344
38	0x3e1785e9	0.14797176
39	0xbe8df611	-0.27726796
40	0x3c821245	0.015877852
41	0x3e3eed98	0.18645322
42	0x3e3f3352	0.18671921
43	0xbe916bb7	-0.28402492
44	0x3e07e5b0	0.13271213
45	0x3de14519	0.109995075
46	0x3e026ebd	0.12737556
47	0xbd511f32	-0.05105514
48	0xbdbfdab7	-0.093678884
49	0xbe08a5c7	-0.13344489
50	0xbd9aa2c5	-0.07550577
51	0xbe842e7d	-0.25816718
52	0xbcb7c504	-0.022432812
53	0x3eabc68f	0.33549926
54	0xbdeede48	-0.116634905
55	0xbe0a36a3	-0.13497405
56	0x3e7dd375	0.24787696
57	0x3dd43759	0.10362119
58	0x3eaf8c24	0.34286606
59	0x3e9c0dc2	0.30479246
60	0xbe8113bd	-0.25210372
61	0x3d2aaaec	0.04166691
62	0xbdfdaa10	-0.123859525
63	0xbe7234c1	-0.23652937
64	0xbe8d3aa9	-0.27583817
65	0xbe21131a	-0.15729943
66	0x3e38ac42	0.18034461
67	0x3eac67cb	0.33672938
68	0x3e16be67	0.1472107
69	0x3d1b3849	0.037895475
70	0xbe13136e	-0.1436288
71	0xbe2f557e	-0.17122456
72	0x3e844977	0.258373
73	0xbe81da09	-0.2536166
74	0xbd8e01a8	-0.0693391
75	0xbe2afc70	-0.1669786
76	0x3e501f5d	0.20324464
77	0xbe6e6041	-0.23278905
78	0x3e4b40bc	0.19848913
79	0xbe87394f	-0.2641091
80	0xbd1cae2a	-0.038252033
81	0x3eada5f6	0.3391568
82	0x3e847b97	0.25875542
83	0x3e56b6ef	0.20968221
84	0x3e59f783	0.21285824
85	0x3dca3367	0.098730855
86	0xbd86afc7	-0.065764956
87	0xbe47284e	-0.19448969
88	0x3d414784	0.047187343
89	0xbe28c172	-0.16480044
90	0x3e5debe5	0.21672018
91	0xbdb40866	-0.087906644
92	0xbe29a593	-0.16567068
93	0x3daf2096	0.08551137
94	0x3dfd6282	0.123723045
95	0xbe91d8ac	-0.2848562
96	0xbea8a663	-0.32939443
97	0x3eaac12e	0.3335051
98	0x3eb5d60c	0.35514867
99	0xbe8f5525	-0.27994648
100	0xbc2bdfdc	-0.010490384
101	0xbd4edd01	-0.050503734
102	0x3de28071	0.110596545
103	0x3e271209	0.16315474
104	0x3dd1ba86	0.10240655
105	0xbe8c7253	-0.27430972
106	0x3c8ae65e	0.01695555
107	0xbe143778	-0.14474285
108	0xbe429f72	-0.19006136
109	0xbe2a05ba	-0.16603747
110	0x3cb372c3	0.021905309
111	0xbe1ba5c4	-0.15199953
112	0x3ea3874c	0.3193916
113	0x3d47723e	0.048692934
114	0xbe46ef97	-0.19427334
115	0xbe9268e5	-0.28595653
116	0x3ea4bde8	0.32176137
117	0x3ca0bca3	0.019621199
118	0x3de6ae9b	0.11263772
119	0x3e8110a6	0.25208014
120	0x3e9f5fbf	0.31127736
121	0xbe075830	-0.13217235
122	0xbe5e53d4	-0.21711665
123	0x3e51a4a5	0.20472963
124	0xbe59c0d0	-0.21264958
125	0xbe71a4a3	-0.2359796
126	0xbe78b96c	-0.24289483
127	0xbdf3e13f	-0.11908197
128	0xbd9e4b2d	-0.077291824
129	0x3deaaa3a	0.114582494
130	0xbdec87c0	-0.1154933
131	0x3dd3461a	0.10316105
132	0xbe8d5875	-0.2760655
133	0x3ea650fa	0.32483655
134	0xbe5098ad	-0.20370741
135	0xbe50c6ac	-0.20388287
136	0x3da8bd23	0.082392
137	0xbdf67240	-0.1203351
138	0xbd6454c5	-0.055744905
139	0xbdcfe624	-0.10151318
140	0x3e8a6be1	0.2703543
141	0xbc9ffcb0	-0.01952967
142	0xbe4b5087	-0.19854937
143	0xbbd46cb0	-0.006482683
144	0xbd75f513	-0.060048174
145	0x3d62af74	0.055343106
146	0x3d18fdf0	0.03735155
147	0xbc376d86	-0.011195546
148	0xbe5e8fd2	-0.2173455
149	0x3e2f5ff5	0.17126448
150	0x3e60de0e	0.21959707
151	0xbca5e2a6	-0.020249676
152	0xbe40d311	-0.18830515
153	0xbe0abef5	-0.13549407
154	0x3e9085c8	0.28227067
155	0xbe23edc4	-0.16008669
156	0x3e9fd973	0.31220588
157	0x3cf31f92	0.02967814
158	0x3d4b6342	0.049655207
159	0x3eaf366d	0.3422121
160	0xbdcc8a18	-0.09987277
161	0xbdf59819	-0.11991901
162	0xbe974ea0	-0.29552174
163	0xbe94e129	-0.29078034
164	0x3e87645b	0.26443753
165	0x3db27c63	0.08715131
166	0x3e617e09	0.22020735
167	0x3ea0498d	0.31306115
168	0xbe1ef4be	-0.15523049
169	0xbe125561	-0.14290382
170	0x3dbac820	0.09120202
171	0x3db457db	0.088058196
172	0xbdf966a1	-0.12177778
173	0x3e28462c	0.16433018
174	0xbe43ea29	-0.19132294
175	0xbe74c6e8	-0.23904002
176	0xbe6aad1e	-0.22917601
177	0xbe6864ae	-0.22694656
178	0x3e953448	0.2914145
179	0xbea9424d	-0.33058396
180	0x3dc315e1	0.095256574
181	0x3da6e416	0.08148973
182	0x3cf2f2e8	0.029656842
183	0x3dde2b6b	0.10848125
184	0xbe2d85b2	-0.16945532
185	0xbe9b43f0	-0.3032527
186	0x3e82cf1c	0.25548637
187	0x3dc4b68d	0.09605131
188	0x3d7c0fe0	0.061538577
189	0xbe91999c	-0.28437507
190	0x3e56ff4b	0.20995824
191	0x3e945652	0.28972107
192	0x3cf5bb99	0.02999668
193	0xbde92cb6	-0.11385481
194	0x3e961527	0.29313013
195	0x3d193b56	0.037410103
196	0x3dd1be68	0.10241395
197	0xbe813ed1	-0.25243238
198	0x3e9f83ae	0.3115515
199	0xbe8fa2b9	-0.28053835
200	0xbe664ae2	-0.22489503
201	0x3eaaddb6	0.33372277
202	0xbe5e0977	-0.21683298
203	0x3e6d423c	0.23169798
204	0x3df8533d	0.121252514
205	0xba0c02c0	-0.0005340986
206	0x3e0e2d04	0.1388436
207	0xbe93bae5	-0.28853527
208	0xbdf9f1ec	-0.12204346
209	0x3da92f3d	0.08260963
210	0x3dce4a77	0.10072797
211	0x3cfbe6c1	0.03074968
212	0x3e451f0c	0.19250125
213	0x3afa26eb	0.0019085085
214	0x3e6f36aa	0.23360696
215	0x3e2a1feb	0.16613738
216	0x3e9f93cf	0.31167457
217	0xbdffbe54	-0.12487474
218	0x3e6f6077	0.23376642
219	0xbe78fe94	-0.24315864
220	0x3e1e40a0	0.1545434
221	0xbe44b0ed	-0.19208117
222	0x3e2270c1	0.15863325
223	0xbe431d49	-0.1905414
224	0x3ead153f	0.33805272
225	0xbe62f10c	-0.22162265
226	0x3e9cd2a0	0.30629444
227	0x3de24e7b	0.11050125
228	0xbdae65fe	-0.08515547
229	0xbd0f4598	-0.03497848
230	0xbe2c0659	-0.16799296
231	0x3e9d9372	0.30776554
232	0xbde9c0f8	-0.11413759
233	0xbd6cb36d	-0.0577883
234	0xbe32644e	-0.17421076
235	0xbd93bf04	-0.07214168
236	0xbe543be3	-0.2072597
237	0x3e6150a9	0.22003426
238	0xbe671e3a	-0.22570124
239	0x3e8f5745	0.2799627
240	0x3e2e821d	0.17041822
241	0x3c3c4592	0.011491196
242	0x3e13d978	0.14438426
243	0xbe30eeb7	-0.17278562
244	0x3e70d209	0.23517622
245	0xbe72b18a	-0.23700538
246	0x3e35f9ae	0.17771026
247	0x3d04aa73	0.032389116
248	0xbd137fd1	-0.036010567
249	0x3bdb104e	0.0066852933
250	0x3e8f55ee	0.27995247
251	0xbda4962f	-0.08036458
252	0xbe86ab73	-0.2630268
253	0xbd65550b	-0.055989306
254	0xbe792d3a	-0.24333659
255	0x3e34058b	0.1758024
