KNet/Linear_SS_With_MM/model_KNet_MM_Linear_Dynamics_T100_v_positive_20dB.pt (torch, 37253 bytes, 42 tensors)

weight_ih_l0 f4 [12, 10]
0.027680526 0.24842787 0.17031878 0.072721936 -0.35386094 -0.43233445 0.041913554 -0.4808449
-0.43991217 0.3810506 -0.18198952 0.34632066 -0.15375717 -0.28920716 0.38698396 -0.07649691
-0.31487697 0.21186356 -0.14788826 0.3649348 0.25149304 0.22016631 0.08956359 -0.17812794
-0.31331077 0.16866457 0.2431519 -0.41931897 -0.2567374 -0.24628766 -0.29934642 -0.44867927
-0.43194714 0.31806615 0.37679717 0.4430733 0.3506587 0.29989228 0.39630815 0.3729153
0.47852758 0.29367173 0.42890087 -0.30558795 -0.3761358 0.051280096 -0.08921938 -0.44532052
-0.19075203 0.19003494 -0.16514611 0.14961691 -0.08404812 -0.1453005 -0.42413813 -0.19970682
-0.06060633 0.075658716 -0.27963278 0.15658972 0.1606156 -0.2617963 0.09291653 0.00015801916
-0.39490324 0.41314143 -0.40897194 -0.18573734 0.4194523 0.29264438 -0.36490622 -0.11981358
-0.034835227 -0.013718187 0.47527453 -0.4215923 0.12471291 -0.35084763 -0.43043303 -0.43953314
-0.18052265 -0.37704298 0.14305633 -0.015557945 0.4064297 0.16173792 -0.32012448 0.18879668
-0.31370842 -0.04676018 0.22850846 -0.3292144 0.12355795 0.064330235 -0.13527821 -0.43660915
-0.4070819 0.02342844 -0.4484295 -0.31690034 -0.08848198 0.3962608 0.27177843 0.2962254
-0.09429464 -0.435142 -0.42841896 -0.34593025 0.21088926 -0.35354516 0.49894196 -0.38753048
0.2118999 -0.3260447 -0.4506427 -0.40959075 0.24936326 0.3908194 0.42815733 -0.19560236
00000000: 45c2 e23c e063 7e3e 0c68 2e3e 3def 943d
00000010: 432d b5be f15a ddbe 8cad 2b3d 4d31 f6be
00000020: 2b3c e1be 1019 c33e 765b 3abe f150 b13e
00000030: 8572 1dbe f612 94be c322 c63e 69aa 9cbd
00000040: 8e37 a1be c3f2 583e 0570 17be bcd8 ba3e
00000050: b2c3 803e 4773 613e 1e6d b73d 2c67 36be
00000060: 456a a0be 68b6 2c3e d0fc 783e fab0 d6be
00000070: 1673 83be d532 7cbe ef43 99be 4ab9 e5be
00000080: 2d28 ddbe 91d9 a23e 8feb c03e 81da e23e
00000090: 8a89 b33e 7b8b 993e e7e8 ca3e c1ee be3e
000000a0: 9101 f53e 245c 963e e598 db3e 0676 9cbe
000000b0: df94 c0be 140b 523d a6b8 b6bd 0d01 e4be
000000c0: 8054 43be 8598 423e 101c 29be 2d35 193e
000000d0: 6c21 acbd a7c9 14be a228 d9be f27f 4cbe
000000e0: 583e 78bd f5f2 9a3d 072c 8fbe 0e59 203e
000000f0: 6a78 243e 2a0a 86be 064b be3d f2b1 2539
00000100: c230 cabe 4687 d33e c564 d1be ee31 3ebe
00000110: 74c2 d63e 7cd5 953e fdd4 babe d260 f5bd
00000120: 62af 0ebd 3fc2 60bc 2f57 f33e f2da d7be
00000130: 7b69 ff3d 4da2 b3be b861 dcbe 7d0a e1be
00000140: eeda 38be c70b c1be 5c7d 123e c0e6 7ebc
00000150: 8e17 d03e a09e 253e 5be7 a3be eb53 413e
00000160: 649e a0be 9a87 3fbd 1ffe 693e ca8e a8be
00000170: f30b fd3d 92bf 833d 5f86 0abe 3c8b dfbe
00000180: 0a6d d0be 00ed bf3c 8d98 e5be c340 a2be
00000190: 0a36 b5bd b2e2 ca3e 8b26 8b3e dbaa 973e
000001a0: 8c1d c1bd efca debe bb59 dbbe c51d b1be
000001b0: 5bf3 573e df03 b5be 5275 ff3e 656a c6be
000001c0: 4afc 583e 55ef a6be a4ba e6be e1b5 d1be
000001d0: 1559 7f3e 7b19 c83e 7037 db3e fc4b 48be

weight_hh_l0 f4 [12, 4]
0.49099305 -0.39091614 -0.38878077 0.263983 0.35470474 0.11582796 -0.342626 0.3244145
0.44796336 -0.12688085 -0.375527 -0.30245724 -0.39947516 0.3031258 -0.14204846 -0.06489042
0.10262155 -0.3548494 0.24911311 -0.11525541 -0.210934 -0.20574342 -0.17005037 0.39543763
0.38195628 0.2866995 -0.05824984 -0.26711497 -0.4042256 0.35102186 -0.4928745 -0.32138994
0.31258616 -0.32424292 -0.4119 0.33483568 0.32621643 -0.27664348 -0.4454714 -0.13208984
-0.34905377 -0.39032948 0.20079944 -0.5039543 -0.37825787 -0.3705358 -0.1407264 0.18684559
00000000: 7163 fb3e 2926 c8be 460e c7be c828 873e
00000010: dc9b b53e 3637 ed3d ad6c afbe a819 a63e
00000020: 745b e53e 0eed 01be 1345 c0be addb 9abe
00000030: 0288 ccbe 4e33 9b3e 2775 11be 45e5 84bd
00000040: 3f2b d23d d2ae b5be 8217 7f3e 070b ecbd
00000050: 15ff 57be 67ae 52be af21 2ebe cd76 ca3e
00000060: c68f c33e 47ca 923e 6297 6ebd 4bc3 88be
00000070: a8f6 cebe 23b9 b33e 0c5a fcbe 398d a4be
00000080: 4b0b a03e 2b03 a6be 8fe4 d2be 956f ab3e
00000090: d705 a73e 37a4 8dbe d414 e4be 8f42 07be
000000a0: 2db7 b2be 44d9 c7be 5e9e 4d3e 2603 01bf
000000b0: 04ab c1be deb6 bdbe 951a 10be 7354 3f3e

bias_ih_l0 f4 [12]
0.41894946 -0.13918835 0.0811463 -0.007472111 0.07743008 -0.27528542 -0.43512082 0.5000932
0.052235533 -0.09644205 0.113244325 0.237078
00000000: 8b80 d63e 6487 0ebe 0830 a63d 9cd8 f4bb
00000010: a993 9e3d 36f2 8cbe 28c8 debe 1c06 003f
00000020: edf4 553d 6983 c5bd a4ec e73d 93c4 723e

bias_hh_l0 f4 [12]
0.50334555 0.09977007 0.3766096 0.31926185 0.30745488 -0.28255242 -0.47440496 0.2528313
0.14486891 0.2108238 -0.009621555 -0.061439384
00000000: 41db 003f 4054 cc3d f9d2 c03e 4a76 a33e
00000010: ba6a 9d3e b6aa 90be 35e5 f2be 1b73 813e
00000020: 8458 143e 32e2 573e baa3 1dbc dda7 7bbd

weight_ih_l0 f4 [12, 14]
-0.031567354 0.21748362 0.23265122 0.17258362 0.34047908 -0.39282688 0.25354692 -0.30748007
-0.22291866 -0.3268241 0.21189016 0.12196126 -0.45290995 -0.35060358 0.015821384 -0.14200974
0.37812212 -0.00036344596 -0.48434922 -0.00399264 -0.15814231 0.40901628 0.30841506 0.39471424
-0.42818245 -0.11385519 -0.10501517 -0.3921828 -0.015749246 -0.36747116 -0.008751023 0.3413546
-0.15217975 -0.015475181 0.45670727 0.47094226 0.0405055 -0.19235864 -0.07907695 0.36846897
0.3206391 0.12810315 0.23927382 0.24099061 0.35512403 0.39046976 0.4843056 0.11938071
-0.40123832 0.3165136 0.23677127 0.34354162 -0.43077213 -0.20683958 -0.2990181 -0.18550776
-0.15783677 0.35762382 0.47167227 -0.15899818 -0.09501144 -0.026675342 -0.409644 0.16180263
-0.19944209 -0.27693054 -0.21128134 -0.09932627 0.065792985 -0.030207627 -0.26413828 0.26452675
0.12398929 0.27145523 0.3741364 0.4283902 -0.19505028 0.14326152 -0.23378862 -0.30718172
0.268633 0.48362464 0.16556916 0.061865132 0.33792043 0.17025033 0.11408103 -0.47291592
-0.29800358 -0.06926947 0.3800329 0.40288723 0.13402823 0.2836152 0.2075651 0.026200758
-0.33694628 0.06502269 -0.04424346 0.13845979 0.2653007 0.0036120373 -0.31721574 0.061288282
-0.29300702 0.30701083 -0.18181717 -0.26555577 -0.23322386 -0.42357653 0.13331512 0.40618923
-0.17866817 -0.07556969 -0.45624566 0.16508591 0.3590002 -0.39430174 0.38524956 0.16684912
0.17754114 0.19967408 0.16887957 -0.41633436 0.35588643 0.16052015 0.37214252 -0.13760926
-0.11259632 -0.32443315 -0.367132 -0.022405919 -0.18808818 0.50692844 0.09295377 -0.18271159
0.28192845 -0.2568293 0.49076134 -0.34427464 0.43524304 -0.25533614 0.23366047 0.33552974
0.39306712 0.073416844 0.23581225 -0.36958688 0.08435165 0.4617459 -0.17604938 0.35142776
-0.35932866 -0.4146206 -0.38175532 -0.48026946 -0.46352813 -0.10907787 -0.34331957 -0.34006128
-0.45151436 0.30737323 -0.3359117 -0.022062728 -0.11057167 0.3094276 0.22757916 0.42239067
00000000: c54c 01bd 07b4 5e3e 1f3c 6e3e c3b9 303e
00000010: 4653 ae3e 9b20 c9be e7d0 813e 076e 9dbe
00000020: ca44 64be 7d55 a7be bcf9 583e d3c6 f93d
00000030: d0e3 e7be 5082 b3be d99b 813c 006b 11be
00000040: 3999 c13e e48c beb9 9ffc f7be b1d4 82bb
00000050: 0ff0 21be 956a d13e 94e8 9d3e fc17 ca3e
00000060: bb3a dbbe e92c e9bd 3212 d7bd 2fcc c8be
00000070: 9004 81bc 2e25 bcbe 7360 0fbc 08c6 ae3e
00000080: 02d5 1bbe 9d8b 7dbc 89d5 e93e 581f f13e
00000090: 18e9 253d aaf9 44be 19f3 a1bd f7a7 bc3e
000000a0: cf2a a43e 792d 033e 3204 753e 3ec6 763e
000000b0: d1d2 b53e a7eb c73e e7f6 f73e e07d f43d
000000c0: 1c6f cdbe 120e a23e 2b74 723e b0e4 af3e
000000d0: 2a8e dcbe c1cd 53be e718 99be bff5 3dbe
000000e0: f69f 21be 781a b73e 077f f13e 6bd0 22be
000000f0: 5c95 c2bd 3f86 dabc dcbc d1be 97af 253e
00000100: 8c3a 4cbe d7c9 8dbe 235a 58be 926b cbbd
00000110: 79be 863d fc75 f7bc 223d 87be 0d70 873e
00000120: 19ee fd3d 2efc 8a3e ce8e bf3e f655 db3e
00000130: 43bb 47be 26b3 123e 4966 6fbe ec46 9dbe
00000140: 448a 893e a69d f73e f68a 293e 4b66 7d3d
00000150: e803 ad3e 1a56 2e3e 51a3 e93d 0922 f2be
00000160: ed93 98be 27dd 8dbd ac93 c23e 3c47 ce3e
00000170: b23e 093e 0336 913e f28b 543e f9a2 d63c
00000180: 3984 acbe 9e2a 853d a138 35bd 67c8 0d3e
00000190: 7ed5 873e eeb7 6c3b 1a6a a2be 6c09 7b3d
000001a0: 0405 96be 8630 9d3e 482e 3abe edf6 87be
000001b0: 3cd2 6ebe 06df d8be c283 083e 09f8 cf3e
000001c0: caf4 36be 48c4 9abd 0899 e9be 480c 293e
000001d0: e0ce b73e ebe1 c9be 6e3f c53e 7fda 2a3e
000001e0: 58cd 353e 5d77 4c3e c4ee 2c3e c729 d5be
000001f0: bf36 b63e 655f 243e 7789 be3e 71e9 0cbe
00000200: e698 e6bd 1a1c a6be baf8 bbbe 9e8c b7bc
00000210: 309a 40be 10c6 013f 8c5e be3d bf18 3bbe
00000220: ed58 903e 217f 83be 1245 fb3e c444 b0be
00000230: 2dd8 de3e 6bbb 82be b144 6f3e 8eca ab3e
00000240: 1840 c93e 925b 963d c478 713e 7e3a bdbe
00000250: 8fc0 ac3d f569 ec3e 4a46 34be 57ee b33e
00000260: edf9 b7be 2749 d4be 6f75 c3be e1e5 f5be
00000270: 8f53 edbe 3864 dfbd 95c7 afbe 831c aebe
00000280: e42c e7be 0660 9d3e 9efc abbe e5bc b4bc
00000290: 6673 e2bd 4b6d 9e3e 830a 693e 9743 d83e

weight_hh_l0 f4 [12, 4]
-0.24327147 0.39474955 0.3533809 -0.18903184 0.32728967 0.31394058 -0.13819125 -0.14598618
-0.46977016 0.19439706 0.33358797 -0.08765321 -0.4376025 -0.04276803 0.048295107 0.49482614
-0.43883684 0.025765186 -0.49300125 -0.2755163 0.25478917 -0.032316174 0.22682 0.3979831
0.115785316 -0.18047999 -0.11527434 0.049293656 -0.317569 -0.50342095 0.28518498 0.020656265
0.50742495 0.35121015 -0.27176028 0.5021018 0.24472947 -0.39425012 0.26503673 0.19903481
-0.44605732 0.48943028 0.28053883 -0.42994106 0.26650786 -0.09497323 -0.4416404 -0.5095496
00000000: 281c 79be 9d1c ca3e 57ee b43e 9091 41be
00000010: 8392 a73e d2bc a03e 0282 0dbe 677d 15be
00000020: b785 f0be 0610 473e 0bcc aa3e 8783 b3bd
00000030: 6f0d e0be 882d 2fbd 17d1 453d da59 fd3e
00000040: 39af e0be 8311 d33c a96a fcbe 7910 8dbe
00000050: ba73 823e f75d 04bd 8143 683e 71c4 cb3e
00000060: da20 ed3d bfcf 38be f414 ecbd 25e8 493d
00000070: 6798 a2be 32e0 00bf c403 923e 5437 a93c
00000080: 9ae6 013f d1d1 b33e 2a24 8bbe be89 003f
00000090: 5d9a 7a3e 27db c9be e5b2 873e c8cf 4b3e
000000a0: a061 e4be 9b96 fa3e c9a2 8f3e 3c21 dcbe
000000b0: b873 883e 5381 c2bd b11e e2be d871 02bf

bias_ih_l0 f4 [12]
0.21834756 0.009707981 0.4318753 -0.3660058 -0.2790605 0.31494796 0.23189355 0.12955646
0.25318643 -0.24875803 0.50745296 -0.2528847
00000000: 8196 5f3e 390e 1f3c c21e dd3e 1d65 bbbe
00000010: 05e1 8ebe dc40 a13e 8175 6d3e 73aa 043e
00000020: a7a1 813e 6dba 7ebe 70e8 013f 1a7a 81be

bias_hh_l0 f4 [12]
-0.025869703 -0.050871555 -0.47985816 -0.42826805 -8.441744e-05 -0.15851614 -0.058997683 0.44366738
-0.088907115 -0.32552484 0.47413906 -0.4202761
00000000: b3ec d3bc b15e 50bd f8af f5be f345 dbbe
00000010: 4509 b1b8 0e52 22be 8ea7 71bd 5f28 e33e
00000020: ef14 b6bd 31ab a6be 5bc2 f23e 6e2e d7be

weight_ih_l0 f4 [12, 24]
0.24637048 -0.39936158 -0.14313866 0.39778575 0.100083284 -0.44743344 0.04858743 -0.0282521
0.072080836 0.0543577 -0.15026012 -0.04153153 -0.0016561118 0.2758793 0.008228574 0.21298823
-0.21919239 0.2810606 0.074778065 -0.23177452 -0.44231597 0.272375 0.47400355 -0.238314
-0.22091968 0.4217998 0.14208257 0.0118691055 -0.12733673 -0.4289613 -0.3369821 0.20270775
0.054032866 0.10314952 -0.19932453 -0.20535769 0.01116946 0.16423507 -0.3819329 -0.14907153
0.44991076 -0.20262417 -0.37744355 0.18087743 0.36984456 0.11719057 0.023032993 0.36503303
-1.7399062e-06 0.41464156 -0.271382 -0.23068628 0.19612183 -0.31843925 -0.31555575 -0.37819707
-0.17627151 0.3961433 -0.095203154 0.40873542 -0.16455121 -0.31470346 -0.15842436 0.40474918
-0.20093976 -0.1616859 -0.47337532 -0.06498528 -0.019437075 -0.10080072 0.33333582 -0.4528884
-0.34233925 0.07752608 -0.03642179 0.11820594 -0.07297649 0.362708 0.47412962 -0.19379018
-0.3918573 0.19752266 0.043789305 0.37748435 0.3121574 -0.31083825 -0.4868777 -0.46781373
0.05831353 -0.15980026 -0.040357143 -0.45425203 0.19385783 0.20915946 -0.34817937 0.16319667
0.27972457 -0.086580046 0.24775481 0.079777144 0.13089879 -0.3370634 0.02415532 0.20847768
0.48517305 -0.4773317 -0.37468678 0.009927539 -0.052840874 0.12400608 -0.36996302 -0.47259745
0.36239353 -0.1815989 -0.0029480725 0.27239317 0.24572167 -0.39872983 0.030208757 0.41224745
-0.4134459 -0.4928047 -0.076023966 -0.31848338 -0.30641136 0.4550077 -0.4890225 -0.50313866
-0.09463973 0.2859429 -0.3330182 -0.43638757 -0.5059385 0.02089785 0.037716433 0.084943905
-0.2581703 -0.33975625 0.18800128 0.42260912 0.43427542 -0.31990972 0.27494678 -0.479701
-0.23176011 -0.27701804 -0.11531653 -0.35450974 0.4504917 0.4918523 -0.4298401 0.07309961
0.09911782 0.25164 -0.25033808 0.34012806 -0.08144996 -0.4358731 -0.5130566 -0.02003589
0.33600256 0.32902214 -0.3244613 0.24792859 -0.22544332 -0.085564665 -0.4794466 0.005461925
0.35124597 0.4548361 0.24086155 -0.040130533 -0.107335575 -0.04194418 0.4539368 -0.3561056
-0.1528767 -0.21805601 0.19351044 -0.16358177 0.428779 -0.25850856 0.06503192 -0.37051013
0.03689033 -0.015633179 0.28673592 0.15376382 -0.3651931 -0.0714903 -0.3342897 -0.37919092
-0.2869198 0.018411646 -0.31972453 -0.1702025 0.2035402 0.20509247 -0.47624338 0.51200974
-0.45854455 0.0041070175 -0.011188753 0.037667047 -0.4001722 0.34331283 0.22170483 0.028299525
0.4751586 0.0135995075 0.038333233 -0.2799479 -0.19218485 0.3078475 0.22841276 0.30653143
0.4156714 0.24295126 0.014825605 0.062364493 0.22696395 0.30495757 -0.4307884 0.20256989
-0.44063708 -0.23104367 0.013255115 0.32797074 0.020338237 -0.043326493 -0.2601601 -0.40261045
-0.46522078 -0.074419245 0.28449953 0.110096835 -0.15004362 0.17736034 0.068747856 0.40268573
-0.3614977 0.42610386 -0.36596644 -0.45969695 -0.0922536 -0.22547188 -0.36059088 0.10708539
-0.07404077 -0.37416363 0.15906453 0.11554381 -0.37356454 0.38910198 0.42281494 -0.26400596
00000000: 8b48 7c3e 1f79 ccbe f192 12be 93aa cb3e
00000010: 77f8 cc3d ff15 e5be 9d03 473d f370 e7bc
00000020: 1e9f 933d 2ea6 5e3d cadd 19be f71c 2abd
00000030: e411 d9ba 0d40 8d3e 24d1 063c 9619 5a3e
00000040: f873 60be 2de7 8f3e 3e25 993d 4d56 6dbe
00000050: 3d77 e2be bc74 8b3e 98b0 f23e 9608 74be
00000060: c538 62be 25f6 d73e 187e 113e a376 423c
00000070: 8f64 02be d1a0 dbbe eb88 acbe 9f92 4f3e
00000080: 9151 5d3d 0e40 d33d bb1b 4cbe 4949 52be
00000090: 1c00 373c 3d2d 283e b68c c3be 35a6 18be
000000a0: b45a e63e b67c 4fbe 4840 c1be ef37 393e
000000b0: 445c bd3e 9c01 f03d b0af bc3c 9ce5 ba3e
000000c0: b986 e9b5 e64b d43e 95f2 8abe 0639 6cbe
000000d0: 29d4 483e 780a a3be 8690 a1be 0ca3 c1be
000000e0: 8580 34be 4bd3 ca3e dff9 c2bd c545 d13e
000000f0: 1d80 28be d020 a1be ff39 22be 493b cf3e
00000100: 27c3 4dbe fd90 25be 405e f2be 0117 85bd
00000110: 803a 9fbc 9c70 cebd feaa aa3e fde0 e7be
00000120: 1747 afbe fec5 9e3d 042f 15bd f515 f23d
00000130: b374 95bd ddb4 b93e 1ec1 f23e ef70 46be
00000140: 85a1 c8be 6143 4a3e 6a5c 333d a145 c13e
00000150: 18d3 9f3e 3126 9fbe 0948 f9be 4885 efbe
00000160: 2bda 6e3d aea2 23be 884d 25bd b993 e8be
00000170: ab82 463e e62d 563e 9144 b2be 071d 273e
00000180: 0f38 8f3e e150 b1bd 70b3 7d3e 3362 a33d
00000190: 550a 063e 9393 acbe 61e1 c53c 2c7b 553e
000001a0: 9a68 f83e d264 f4be f2d6 bfbe 1ea7 223c
000001b0: ac6f 58bd e6f6 fd3d cb6b bdbe 4bf8 f1be
000001c0: a58b b93e 10f5 39be 7334 41bb 1e77 8b3e
000001d0: 769e 7b3e 5126 ccbe 5b78 f73c 1912 d33e
000001e0: 2eaf d3be e650 fcbe 74b2 9bbd 4110 a3be
000001f0: f3e1 9cbe c5f6 e83e 2861 fabe b2cd 00bf
00000200: 7ad2 c1bd 1c67 923e 5d81 aabe 316e dfbe
00000210: 2f85 01bf f831 ab3c 8c7c 1a3d 12f7 ad3d
00000220: e62e 84be 88f4 adbe 6883 403e 3960 d83e
00000230: 5959 de3e 35cb a3be d3c5 8c3e 5f9b f5be
00000240: 8652 6dbe 4fd5 8dbe 132b ecbd 4d82 b5be
00000250: d9a6 e63e 11d4 fb3e 0014 dcbe 40b5 953d
00000260: 49fe ca3d f5d6 803e 502c 80be 4425 ae3e
00000270: 3dcf a6bd c22a dfbe ad57 03bf 4f22 a4bc
00000280: 8708 ac3e 9775 a83e cb1f a6be fee0 7d3e
00000290: 9dda 66be 873c afbd 067a f5be f3f9 b23b
000002a0: 83d6 b33e 47e0 e83e 69a4 763e ea5f 24bd
000002b0: c1d2 dbbd a9cd 2bbd 676a e83e 7953 b6be
000002c0: b68b 1cbe 134a 5fbe 9a27 463e fb81 27be
000002d0: ec88 db3e 3c5b 84be 752f 853d 81b3 bdbe
000002e0: 511a 173d 2711 80bc 0dcf 923e 4374 1d3e
000002f0: 97fa babe 8269 92bd 0528 abbe 5025 c2be
00000300: 27e7 92be 05d4 963c efb2 a3be 9049 2ebe
00000310: d86c 503e c303 523e 2cd6 f3be 1213 033f
00000320: 5ac6 eabe 2994 863b 0851 37bc c348 1a3d
00000330: 5fe3 ccbe b3c6 af3e 9706 633e 68d4 e73c
00000340: fd47 f33e 78d0 5e3c 4f03 1d3d 5555 8fbe
00000350: 1bcc 44be 309e 9d3e 09e5 693e b0f1 9c3e
00000360: e2d2 d43e 37c8 783e 18e7 723c e971 7f3d
00000370: 3d69 683e 6623 9c3e 4c90 dcbe 7b6e 4f3e
00000380: 2f9b e1be b696 6cbe fb2b 593c c8eb a73e
00000390: 609c a63c 1f77 31bd b433 85be f522 cebe
000003a0: 6b31 eebe 1e69 98bd eca9 913e 737a e13d
000003b0: 09a5 19be f39d 353e adcb 8c3d d32c ce3e
000003c0: 3a16 b9be 492a da3e f45f bbbe 665d ebbe
000003d0: 75ef bcbd 1ae2 66be 5e9f b8be 964f db3d
000003e0: b0a2 97bd 6092 bfbe d0e1 223e 3ca2 ec3d
000003f0: da43 bfbe 6038 c73e 337b d83e ca2b 87be

weight_hh_l0 f4 [12, 4]
0.4672191 0.16176896 -0.1981988 -0.019157382 -0.39771047 0.20151034 -0.45445243 0.30608
0.19535781 0.4347612 0.23065229 -0.38995394 0.34253788 -0.07837881 -0.110143304 0.1816261
-0.18722762 -0.11633063 0.007888867 0.10586959 -0.4772262 0.18700778 0.19390628 -0.06692642
0.07332999 -0.17604727 0.47388732 0.3030756 0.15355366 0.37378144 0.2627385 -0.5011963
-0.20185612 0.44567502 0.39020288 -0.1042692 0.20523989 -0.3030176 -0.05945351 0.06232552
0.3482435 -0.49540314 -0.27181152 0.45288867 -0.42014426 0.30014676 -0.38667607 0.09476135
00000000: 5837 ef3e c3a6 253e a0f4 4abe f1ef 9cbc
00000010: b5a0 cbbe ba58 4e3e fdad e8be 85b6 9c3e
00000020: e10b 483e 0599 de3e 1d30 6c3e 0ba8 c7be
00000030: 2061 af3e 1285 a0bd d092 e1bd 31fc 393e
00000040: 99b8 3fbe c13e eebd 4e40 013c 28d2 d83d
00000050: fe56 f4be f87e 3f3e 5e8f 463e b810 89bd
00000060: 092e 963d bc45 34be 5ca1 f23e ba2c 9b3e
00000070: 2c3d 1d3e 4860 bf3e a985 863e 674e 00bf
00000080: 5fb3 4ebe 842f e43e acc8 c73e 178b d5bd
00000090: 682a 523e 1f25 9bbe 8685 73bd 0b49 7f3d
000000a0: f94c b23e 7ba5 fdbe e12a 8bbe 06e1 e73e
000000b0: 261d d7be d6ac 993e 68fa c5be 3d12 c23d

bias_ih_l0 f4 [12]
0.48644295 0.20505367 0.45464435 -0.4426569 0.21235158 -0.30031914 0.00944573 0.29817197
0.2876136 0.4742044 -0.035203945 0.21490505
00000000: 0d0f f93e 97f9 513e 25c7 e83e eda3 e2be
00000010: b172 593e 6ec3 99be 43c2 1a3c ffa9 983e
00000020: 1742 933e ebca f23e 0332 10bd 1210 5c3e

bias_hh_l0 f4 [12]
0.14791119 -0.2900383 0.4347064 -0.14500977 0.118712924 0.48853955 0.08312022 0.04913988
0.22163127 -0.0027542014 -0.039113067 0.4423339
00000000: 0876 173e e67f 94be d691 de3e 717d 14be
00000010: c31f f33d db21 fa3e ef3a aa3d e646 493d
00000020: 4ff3 623e d57f 34bb 0635 20bd 9779 e23e

weight f4 [4, 4]
-0.40399522 0.3294462 0.24210712 0.11907058 0.21269743 -0.17254373 0.42964607 0.463217
-0.0506226 -0.03541332 0.06621915 0.11432854 0.06033504 0.41845062 0.23048149 0.29524675
00000000: 76d8 cebe 2cad a83e eeea 773e 47db f33d
00000010: 5bcd 593e 4eaf 30be 92fa db3e c72a ed3e
00000020: a559 4fbd 8f0d 11bd e89d 873d 1525 ea3d
00000030: e021 773d 293f d63e 5703 6c3e 952a 973e

bias f4 [4]
-0.36975288 -0.1716119 0.3744646 -0.20393047
00000000: 4050 bdbe 08bb 2fbe d3b9 bf3e 26d3 50be

weight f4 [320, 8]
0.139989 0.28487614 0.3004416 0.08415043 -0.119992785 -0.06734299 0.30140045 0.043893524
-0.1999989 -0.22933708 -0.10361154 -0.2253958 -0.02698953 0.08578555 -0.23606959 0.014108303
0.35846493 -0.21519184 -0.07586307 -0.28220394 0.0456488 -0.15067025 0.18963279 -0.2251256
-0.3131796 -0.09987801 0.34408587 -0.2975912 0.31911933 0.31155583 0.1295186 -0.04200786
-0.32440886 -0.117830954 0.24479894 0.31337333 0.008592215 0.09710543 -0.048716545 0.1824431
-0.29789913 -0.29629487 0.2755564 0.14948955 0.34418687 0.08642252 0.1497306 0.034101393
-0.14912124 0.22456147 0.21129863 0.25816914 -0.26861057 0.068125404 0.28082794 0.01207318
-0.29591542 0.03756188 0.024000105 0.22347473 0.000868408 -0.06936002 0.2924034 -0.11616163
-0.2628153 -0.13598688 -0.26998827 0.1736128 0.0012277439 0.30506974 -0.08279809 0.25318727
0.29947624 0.13114601 0.1653499 -0.116308026 0.32208002 -0.070845805 0.18642978 -0.13900036
0.26582578 -0.27167758 -0.13840292 -0.23443763 0.27098686 -0.32767534 0.21803296 0.23794027
-0.043521937 -0.062050115 -0.21290565 0.07332974 -0.055433337 -0.009327864 -0.23472258 0.25125495
-0.00027431286 -0.30379257 0.08183245 0.26828003 -0.04237144 0.17818063 0.00024890306 -0.06689114
0.19374402 -0.20727764 0.050633468 -0.2863711 0.0874269 -0.19452786 -0.10478173 -0.19700944
-0.09669599 0.26490715 -0.11553389 -0.21164522 -0.0028980013 -0.07441812 0.30384475 -0.04473858
0.2866401 0.31858608 -0.066780664 0.26805466 0.21555422 -0.32641572 0.31716624 -0.112935476
0.13243051 -0.21225023 0.21183388 0.116751246 0.024866644 -0.22125563 0.15669686 0.014975862
-0.24699306 -0.28350255 0.14896543 0.2402909 -0.2857104 0.29449075 -6.671163e-05 -0.24479072
-0.15890892 -0.28988498 -7.17146e-05 0.171413 -0.045163896 1.928766e-05 -0.27259105 -0.08657956
0.25382942 0.34951603 0.009648163 0.27320206 0.27401736 -0.04850837 -0.11915695 0.064085774
-0.06620658 0.018340547 0.25205034 0.28575498 0.24081458 0.047828745 -0.2448925 -0.08897501
0.2597484 -0.30109668 6.991956e-05 0.055495005 0.0011921228 -0.060065515 -0.06754757 -0.0014058143
0.1385729 0.2927054 -0.20391035 -0.014642931 -0.07444321 0.29167327 0.15382281 -0.35871813
0.18989936 -0.234763 -0.23743708 0.16238433 0.22460718 0.3256228 -0.28639364 0.0386385
0.14560719 -0.17708108 0.0016728379 -0.15376085 0.22924711 -0.29293057 -0.11479859 -0.084858924
-0.26420265 -0.037188318 0.24903677 -0.16383824 -0.2059294 -0.23382464 -0.19925447 -0.24712393
0.19860092 0.038823545 0.022997813 -0.25895113 0.19209045 -0.31203845 -0.10175061 0.098478004
-2.7156879e-05 -0.10884567 0.06275454 -0.15218039 -0.00010450499 -0.04437782 6.6053675e-05 -0.09335272
-0.12316176 0.30866897 -0.3027649 0.094164066 0.13869153 0.32194534 -0.11532941 -0.31510067
0.0028836208 -0.078225605 -0.15585335 -0.0024342234 -0.11445214 -0.28313816 -0.19400357 0.21698019
0.04180004 0.21984875 -0.16169995 -0.084396385 0.25088057 0.25868398 0.19178171 0.112174764
-0.2139816 0.24799658 0.3128659 -0.29866347 -0.043091457 0.3294254 0.297875 -0.014026153
00000000: 4759 0f3e 49db 913e 7bd3 993e 1057 ac3d
00000010: c7be f5bd 1feb 89bd 2951 9a3e b2c9 333d
00000020: 83cc 4cbe 57d7 6abe 4932 d4bd 28ce 66be
00000030: 2619 ddbc 56b0 af3d 3abc 71be 8326 673c
00000040: b788 b73e 405b 5cbe 195e 9bbd 097d 90be
00000050: 3cfa 3a3d 4d49 1abe 192f 423e 5387 66be
00000060: 1459 a0be d88c ccbd 062c b03e e05d 98be
00000070: 9c63 a33e 3f84 9f3e 86a0 043e 6f10 2cbd
00000080: eb18 a6be 5b51 f1bd 93ac 7a3e 7872 a03e
00000090: 5dc6 0c3c 36df c63d 008b 47bd 5dd2 3a3e
000000a0: 3c86 98be f6b3 97be ba15 8d3e ca13 193e
000000b0: 4339 b03e 4afe b03d fa52 193e e7ad 0b3d
000000c0: 3db3 18be 71f3 653e ab5e 583e bf2e 843e
000000d0: 5387 89be 5585 8b3d aec8 8f3e 96ce 453c
000000e0: 3a82 97be 7cda 193d de9b c43c 8fd6 643e
000000f0: e0a5 633a a00c 8ebd e6b5 953e 26e6 edbd
00000100: ba8f 86be 2540 0bbe e73b 8abe 8ec7 313e
00000110: 40ec a03a 1a32 9c3e 0c92 a9bd c3a1 813e
00000120: f354 993e 244b 063e 7c51 293e e732 eebd
00000130: ace7 a43e 9b17 91bd 73e7 3e3e 1c56 0ebe
00000140: 511a 883e 5319 8bbe 7fb9 0dbe 6b10 70be
00000150: cabe 8a3e 10c5 a7be 0844 5f3e 9da6 733e
00000160: 0f44 32bd 4328 7ebd f003 5abe e72d 963d
00000170: 110e 63bd e6d3 18bc 1e5b 70be 7da4 803e
00000180: a6d1 8fb9 b38a 9bbe c697 a73d 005c 893e
00000190: ad8d 2dbd fc74 363e 347f 8239 39fe 88bd
000001a0: d564 463e 9740 54be 0a65 4f3d 3c9f 92be
000001b0: e00c b33d 5032 47be ce97 d6bd d8bc 49be
000001c0: 8c08 c6bd e9a1 873e 089d ecbd 86b9 58be
000001d0: 65ec 3dbb 8768 98bd 8a91 9b3e cd3f 37bd
000001e0: 7ec2 923e b71d a33e 4dc4 88bd 763e 893e
000001f0: 3fba 5c3e f61f a7be 9d63 a23e b74a e7bd
00000200: dd9b 073e 2058 59be fbea 583e 471b ef3d
00000210: 22b5 cb3c d690 62be 2475 203e 515d 753c
00000220: c0eb 7cbe 3f27 91be 658a 183e d10e 763e
00000230: a248 92be 7ec7 963e 89e7 8bb8 6baa 7abe
00000240: 05b9 22be ce6b 94be 7c65 96b8 e486 2f3e
00000250: c7fd 38bd efcb a137 0e91 8bbe a050 b1bd
00000260: eef5 813e c4f3 b23e 5413 1e3c 24e1 8b3e
00000270: 014c 8c3e b6b0 46bd 8f08 f4bd 673f 833d
00000280: 5197 87bd ea3e 963c be0c 813e 7a4e 923e
00000290: 1998 763e 13e8 433d 19c5 7abe 8838 b6bd
000002a0: befd 843e 5829 9abe c7a1 9238 bb4e 633d
000002b0: 0141 9c3a 4207 76bd 6156 8abd 4d43 b8ba
000002c0: 0ee6 0d3e 7bdd 953e e0cd 50be e7e8 6fbc
000002d0: af75 98bd 3356 953e ba83 1d3e e7a9 b7be
000002e0: fa74 423e b665 70be b522 73be 1448 263e
000002f0: 6dff 653e 08b8 a63e 30a2 92be 6743 1e3d
00000300: 0d1a 153e be54 35be 2043 db3a 7c73 1dbe
00000310: c1bf 6a3e fffa 95be 861b ebbd 84ca adbd
00000320: 9245 87be c752 18bd 7f03 7f3e 36c5 27be
00000330: 28df 52be ba6f 6fbe 5d09 4cbe 0e0e 7dbe
00000340: 0a5e 4b3e 7005 1f3d e965 bc3c 3e95 84be
00000350: 5cb3 443e 81c3 9fbe a062 d0bd d6ae c93d
00000360: f4ce e3b7 7bea debd 7485 803d 2dd5 1bbe
00000370: b029 dbb8 84c5 35bd 4c86 8a38 b62f bfbd
00000380: 3c3c fcbd dc09 9e3e 0004 9bbe 17d9 c03d
00000390: 2705 0e3e 05d6 a43e d331 ecbd e054 a1be
000003a0: 21fb 3c3b bf34 a0bd 0598 1fbe 7e87 1fbb
000003b0: e265 eabd 7cf7 90be dfa8 46be 0e30 5e3e
000003c0: 8536 2b3d 0820 613e ac94 25be 03d8 acbd
000003d0: 6b73 803e 3a72 843e 6d62 443e e2bb e53d
000003e0: fe1d 5bbe d1f2 7d3e f62f a03e 6bea 98be
000003f0: ab80 30bd 72aa a83e 1283 983e f3cd 65bc

bias f4 [320]
-0.30650583 0.15341882 -0.086050615 0.34379342 -0.11836297 0.026705073 -0.00036103174 -0.14592202
-0.1769577 -0.23492883 0.18084225 0.017334634 -0.20136438 -0.006717274 0.29823574 0.017580949
-0.052015107 -0.16549659 -0.24422805 -0.12260895 -0.08796566 -0.2115202 -0.05747897 -0.06016604
0.31438884 -0.07103787 0.16778836 -0.18772422 0.16481729 0.017061193 0.116565086 0.06853978
-0.010177038 0.28326595 -0.07061545 -0.039940048 0.027189987 0.17687982 0.18977706 0.09984036
0.30021948 -0.13505505 -0.21661064 -0.07705508 -0.118219376 -0.23005599 -0.18034986 -0.17719121
-0.19972864 0.048920535 0.09307585 -0.119302146 -0.22410174 -0.02473705 0.16161202 0.22456056
-0.16272648 -0.045551725 0.36280724 0.010831155 -0.18895248 0.03510658 -0.20770335 -0.34399357
0.29246053 -0.20826915 -0.20083751 0.095522426 0.011005082 -0.20883301 0.16555011 0.18243337
0.23229663 -0.17312728 0.017699733 -0.25235212 0.35113168 0.058870275 0.33016065 0.08799887
0.096766554 -0.10033695 0.025152255 0.10451524 -0.18390505 0.16041711 -0.053700976 -0.18399829
0.064093575 0.09388528 -0.13194141 -0.05831352 0.047178984 -0.26371077 0.23242585 -0.27896827
0.08194132 0.08962907 0.3156652 0.24435288 -0.28807706 -0.2913599 0.12812704 -0.3578422
0.11759582 0.0078295525 0.07874667 0.30630988 -0.08616801 0.1771867 0.081166126 0.30715525
0.2511203 -0.051364094 0.21761437 -0.27011022 -0.2784604 -0.08808954 0.017718695 0.27166885
-0.13513511 -0.058252927 0.075887285 -0.1648665 0.33146754 0.19442151 0.34000933 -0.23518339
-0.19885936 -0.26958093 -0.2424267 -0.15289484 0.02003796 -0.042697497 0.07486001 0.33326596
0.09387634 -0.19301407 0.24578841 -0.002414956 -0.17286052 -0.22130165 -0.097005345 -0.06445567
-0.23272145 -0.13132168 -0.19827415 -0.2862849 -0.28987858 -0.26196864 0.20912099 0.01434513
-0.14584553 0.32210717 6.856326e-05 -0.23916961 0.3552291 -0.24748205 -0.32847875 -0.2322937
-0.021366203 -0.25802487 0.10929206 0.22718883 0.17102724 -0.2656762 0.18317282 0.1450593
0.20139731 0.27181283 -0.027383063 0.3628277 -0.2596159 -0.023023602 0.3091172 -0.1757722
-0.0836183 0.25762808 0.08844897 -0.24067633 -0.007127707 0.034525193 0.009021957 0.2451508
-0.053947415 0.04490087 0.34269887 0.24766117 -0.21347739 0.030315941 -0.2947381 0.030407479
-0.2171305 0.05176263 0.010306389 -0.24861352 0.20780502 0.056763675 0.339658 0.246924
0.0436425 -0.1642207 -0.059829112 -0.16275153 -0.19409041 -0.27509734 0.05642354 -0.061543304
0.24846241 -0.16337162 0.20628104 -0.0013226314 0.12054593 0.28284898 0.026267674 0.3125115
0.20851885 0.29599693 -0.15291812 -0.20562342 -0.24964735 0.20508404 -0.36502388 0.32007694
0.29703602 -0.24375941 0.2936475 0.31691858 0.19666757 -0.11910152 0.14401136 0.2817435
-0.042317215 0.101231724 0.2910674 0.14150295 0.35759795 -0.1336191 -0.20538233 -0.11529425
-0.13853984 -0.21931319 0.33677158 0.32397407 0.12994406 -0.33613425 0.11977961 0.26162004
0.2749857 0.25532442 -0.016541764 -0.23694873 0.11099223 -0.056721613 -0.23903644 0.2349381
00000000: 55ee 9cbe d319 1d3e 4e3b b0bd b105 b03e
00000010: 4968 f2bd 99c4 da3c dc48 bdb9 956c 15be
00000020: 6634 35be 2f91 70be b62e 393e 5d01 8e3c
00000030: 7732 4ebe 941c dcbb 5bb2 983e ec05 903c
00000040: cb0d 55bd f077 29be eb16 7abe 671a fbbd
00000050: 5727 b4bd c098 58be 126f 6bbd aa70 76bd
00000060: 93f7 a03e 4e7c 91bd b6d0 2b3e c73a 40be
00000070: ddc5 283e eac3 8b3c adb9 ee3d 965e 8c3d
00000080: 97bd 26bc 3c08 913e d59e 90bd 2d98 23bd
00000090: 89bd de3c fc1f 353e eb54 423e 1a79 cc3d
000000a0: 5eb6 993e df4b 0abe 2ecf 5dbe 0ecf 9dbd
000000b0: 001d f2bd cc93 6bbe a2ad 38be 9d71 35be
000000c0: aa85 4cbe e660 483d 8d9e be3d af54 f4bd
000000d0: ed7a 65be 5ba5 cabc 9f7d 253e 34f3 653e
000000e0: c5a1 26be 7294 3abd dfc1 b93e 2875 313c
000000f0: c27c 41be ebcb 0f3d 30b0 54be ed1f b0be
00000100: 63bd 953e 8244 55be 59a8 4dbe 43a1 c33d
00000110: a94e 343c 52d8 55be f885 293e d0cf 3a3e
00000120: 2bdf 6d3e 4748 31be 08ff 903c 4c34 81be
00000130: 88c7 b33e f521 713d d10a a93e c038 b43d
00000140: 8b2d c63d 757d cdbd 1a0c ce3c 160c d63d
00000150: 9b51 3cbe 6244 243e 8ef5 5bbd 0c6a 3cbe
00000160: 7e43 833d ed46 c03d a61b 07be 28da 6ebd
00000170: c03e 413d 1905 87be 0b01 6e3e eed4 8ebe
00000180: dad0 a73d 728f b73d de9e a13e a437 7a3e
00000190: d67e 93be 202d 95be bc33 033e 1837 b7be
000001a0: 14d6 f03d 8647 003c ef45 a13d a6d4 9c3e
000001b0: db78 b0bd 6e70 353e 6d3a a63d 7443 9d3e
000001c0: d792 803e 2863 52bd 4dd6 5e3e e34b 8abe
000001d0: 5d92 8ebe 4a68 b4bd cc26 913c 2e18 8b3e
000001e0: dc60 0abe 9f9a 6ebd cb6a 9b3d c4d2 28be
000001f0: 1db6 a93e 6f16 473e b415 ae3e ead3 70be
00000200: caa1 4bbe 8306 8abe b43e 78be 7790 1cbe
00000210: a626 a43c 92e3 2ebd 3450 993d d6a1 aa3e
00000220: 3d42 c03d 7ba5 45be f5af 7b3e 3d44 1ebb
00000230: 5902 31be e69c 62be bdaa c6bd 5601 84bd
00000240: 884e 6ebe 3179 06be 6108 4bbe ef93 92be
00000250: f76a 94be c120 86be d023 563e d607 6b3c
00000260: 8858 15be 3beb a43e 9fc9 8f38 e1e8 74be
00000270: 97e0 b53e ef6b 7dbe 5e2e a8be 66de 6dbe
00000280: 2d08 afbc d61b 84be 84d4 df3d 30a4 683e
00000290: c421 2f3e b606 88be a891 3b3e 6d8a 143e
000002a0: 193b 4e3e 0d2b 8b3e 7252 e0bc 8dc4 b93e
000002b0: 60ec 84be fe9b bcbc 9c44 9e3e a1fd 33be
000002c0: 1240 abbd d4e7 833e bc24 b53d db73 76be
000002d0: 8a8f e9bb 4a6a 0d3d d5d0 133c d008 7b3e
000002e0: f7f7 5cbd fae9 373d 3a76 af3e e49a 7d3e
000002f0: d199 5abe 2359 f83c eae7 96be 1b19 f93c
00000300: 7557 5ebe 0d05 543d 21dc 283c 8b94 7ebe
00000310: d7ca 543e 0781 683d a7e7 ad3e a5d9 7c3e
00000320: 7ac2 323d 7929 28be 5f0f 75bd 56a8 26be
00000330: a3bf 46be 8fd9 8cbe 5f1c 673d d514 7cbd
00000340: ee6c 7e3e e44a 27be 563b 533e 255c adba
00000350: c9e0 f63d 95d1 903e 4e2f d73c 8201 a03e
00000360: f785 553e e98c 973e 9196 1cbe f28e 52be
00000370: 8ea3 7fbe 8d01 523e 69e4 babe 20e1 a33e
00000380: 1b15 983e 119c 79be f758 963e 2743 a23e
00000390: 3963 493e 7feb f3bd b777 133e af40 903e
000003a0: d154 2dbd 9452 cf3d c906 953e 26e6 103e
000003b0: 1417 b73e 72d3 08be bf4f 52be 641f ecbd
000003c0: 63dd 0dbe a393 60be 536d ac3e eedf a53e
000003d0: 0e10 053e ca19 acbe 034f f53d 10f3 853e
000003e0: edca 8c3e e2b9 823e 9882 87bc b0a2 72be
000003f0: e54f e33d ec54 68bd f8c5 74be 9d93 703e

weight f4 [4, 320]
0.0070018712 0.04082408 -0.0072064176 -0.0060771103 -0.009217512 0.06426204 0.0046978286 -6.2569445e-05
-0.0074316585 -0.033183206 0.053334482 -0.043433808 0.0018709286 0.00975251 -0.008932405 0.041397788
-0.038999505 3.7406448e-05 -3.7513208e-05 0.059781477 -0.022679642 6.6011744e-05 -0.043818727 0.016506579
-0.035092216 4.6948637e-05 -0.028620796 -6.562207e-05 0.05824467 -0.00010458953 -0.036430925 0.059644308
-0.023131981 -0.02874678 0.006623178 -0.012057656 -0.0052931383 0.05312079 -0.03140589 -0.016854381
-0.046440884 0.001389757 0.008848012 -0.008178597 -4.868201e-05 0.00011969806 -0.045853805 0.027424527
-1.0252674e-05 0.05060909 0.060957786 0.030167708 0.03866453 -0.037696693 -0.0065530757 -0.037638005
0.00012519039 0.037692927 0.049064904 -5.440449e-05 -4.6311063e-05 0.027671501 -0.0010282865 0.04334421
-0.016887423 -0.00010698153 6.4260916e-05 -0.034646023 0.0023444293 5.7164554e-05 0.05084305 -0.022497555
-0.04320838 3.464691e-05 0.02119455 -0.009647275 0.03171379 0.020583896 -0.043495283 6.5131e-05
-0.017611837 4.707877e-05 -0.031170862 0.029557426 0.0005269266 0.0570478 0.021887142 0.010851864
-0.029793628 0.038662508 0.00749196 -0.04085434 0.03727852 -0.006980049 -0.0005065985 -6.832392e-05
-0.006694877 0.0056524356 0.05084884 -0.028971976 0.006189858 -0.00096625066 0.055810664 -0.0124129765
0.0499944 -0.025940819 0.008109257 0.046776846 -0.006299143 -0.019533157 -0.010238561 -0.01918628
0.04639511 0.00025254537 0.0039819903 -0.015937602 -0.004001196 0.011166621 0.0020847875 0.009898338
0.018113745 -0.031689394 0.062006403 -0.016398929 0.02005888 0.022482462 0.06038852 -0.027541569
-0.015033503 -6.459751e-05 0.03165136 -0.026966972 -5.4163404e-05 0.048764773 -0.020733537 0.06173909
0.00208965 6.104005e-05 0.03201709 0.038600683 -0.0005905621 0.0044137486 0.00041532837 -0.01813115
0.00014457779 -1.574606e-05 0.024224028 0.00095651427 5.398805e-05 -0.001390266 0.044451848 -0.00016210483
-0.00016538538 0.0134618385 -1.449502e-05 -0.004904198 0.024702853 -8.020805e-05 0.003946845 -0.005350526
0.027333282 6.408665e-05 0.0057302346 0.030898005 0.023732454 9.05494e-05 0.024618328 -0.020596135
0.013616384 -0.003015076 -0.00921106 0.041148152 5.3445376e-05 -6.615705e-05 -0.004523798 -0.0026550917
-0.01102598 0.033086132 0.04908401 -6.955368e-05 0.028342644 -0.01662244 -0.049971633 0.0046729473
-0.008289939 0.00021805728 0.03930122 -0.032036033 5.0837996e-05 0.021106796 7.164893e-05 0.00061263127
0.006814846 -0.00019835982 -0.020750789 0.024383407 0.057893243 -0.04535376 -0.024203144 -0.025002098
0.03163678 0.044778075 0.048711374 0.025270937 0.007861541 0.0007424478 0.020867053 0.033836868
-0.040095314 -0.01938262 -0.012448234 -0.0044615655 -0.035726193 -0.008692936 0.013261793 -0.043186706
-0.0016944293 -0.02816901 0.00012670123 -6.6760236e-05 0.03950844 -0.0014314341 -0.0032282558 0.054410893
-0.0376306 0.0016658298 -0.03590993 0.04129435 -0.00010148331 -0.031695105 -0.002679451 0.047457792
-0.027731705 0.020944033 -0.023628233 -0.013922557 0.062149458 -0.027218005 0.007710736 0.05879636
-0.00095595204 -0.025757996 0.06319322 0.025536133 0.060796034 -0.062473327 -0.024096372 -0.017997056
0.007214922 0.06153528 -0.040958077 0.00034068152 -0.022334373 -0.0065136044 1.9947041e-05 0.019850025
00000000: f46f e53b 2737 273d d023 ecbb 7f22 c7bb
00000010: 0c05 17bc d19b 833d 3ef0 993b b737 83b8
00000020: 4585 f3bb 1deb 07bd 4275 5a3d a6e7 31bd
00000030: f239 f53a fec8 1f3c 3959 12bc ba90 293d
00000040: f2bd 1fbd dee4 1c38 8057 1db8 6cdd 743d
00000050: a8ca b9bc c96f 8a38 447b 33bd ce38 873c
00000060: dbbc 0fbd b7ea 4438 2976 eabc 959e 89b8
00000070: f791 6e3d 1457 dbb8 9838 15bd 974d 743d
00000080: 487f bdbc 5e7e ebbc 3e07 d93b 7a8d 45bc
00000090: 1072 adbb 2f95 593d 76a3 00bd 3312 8abc
000000a0: cc38 3ebd 8228 b63a 41f7 103c 86ff 05bc
000000b0: e92f 4cb8 6806 fb38 33d1 3bbd 67a9 e03c
000000c0: e602 2cb7 7a4b 4f3d dfae 793d 4522 f73c
000000d0: b35e 1e3d d967 1abd 2fbb d6bb 4f2a 1abd
000000e0: 8a45 0339 e663 1a3d 48f8 483d 6030 64b8
000000f0: 203e 42b8 58af e23c 92c7 86ba b389 313d
00000100: 7e57 8abc 465b e0b8 d1c3 8638 fde8 0dbd
00000110: ffa4 193b f9c3 6f38 cd40 503d cb4c b8bc
00000120: 45fb 30bd d651 1138 31a0 ad3c 9b0f 1ebc
00000130: 52e6 013d 8f9f a83c 1c28 32bd f096 8838
00000140: b346 90bc 7276 4538 095a ffbc 6a22 f23c
00000150: 7221 0a3a f4aa 693d aa4c b33c 04cc 313c
00000160: c411 f4bc 945c 1e3d 1e7f f53b e156 27bd
00000170: 5db1 183d e5b8 e4bb 40cd 04ba 2049 8fb8
00000180: b360 dbbb 1138 b93b e046 503d a356 edbc
00000190: 4bd4 ca3b fc4b 7dba b999 643d cc5f 4bbc
000001a0: eec6 4c3d d781 d4bc b0dc 043c 1499 3f3d
000001b0: 0b69 cebb 0004 a0bc a3bf 27bc 8c2c 9dbc
000001c0: cd08 3e3d 1168 8439 5b7b 823b 938f 82bc
000001d0: 771c 83bb 34f4 363c eea0 083b a32c 223c
000001e0: 4763 943c bdcc 01bd 6dfa 7d3d 0c57 86bc
000001f0: 8552 a43c 242d b83c f459 773d db9e e1bc
00000200: 154f 76bc 8678 87b8 dba4 013d d7e9 dcbc
00000210: 832d 63b8 92bd 473d 61d9 a9bc 21e2 7c3d
00000220: 82f2 083b a102 8038 5a24 033d c01b 1e3d
00000230: f4cf 1aba 35a1 903b 6ec0 d939 c787 94bc
00000240: ce99 1739 6816 84b7 7871 c63c 96be 7a3a
00000250: 3a71 6238 9639 b6ba 2413 363d affa 29b9
00000260: 4d6b 2db9 0b8f 5c3c a32f 73b7 65b3 a0bb
00000270: a35d ca3c 5e35 a8b8 8954 813b 7753 afbb
00000280: 0cea df3c 4266 8638 b1c4 bb3b d01d fd3c
00000290: 906a c23c 57e5 bd38 60ac c93c 3ab9 a8bc
000002a0: 4117 5f3c 9598 45bb fce9 16bc f78a 283d
000002b0: 892a 6038 ccbd 8ab8 5e3c 94bb 0c01 2ebb
000002c0: 50a6 34bc 5385 073d 510c 493d 59dd 91b8
000002d0: d52e e83c c92b 88bc 0eaf 4cbd 861f 993b
000002e0: 86d2 07bc 4ea6 6439 51fa 203d 3738 03bd
000002f0: e23a 5538 29e8 ac3c 3a42 9638 fd98 203a
00000300: 124f df3b cffe 4fb9 8ffd a9bc b6bf c73c
00000310: 7721 6d3d ddc4 39bd ac45 c6bc 33d1 ccbc
00000320: 9195 013d 3769 373d 9485 473d ff04 cf3c
00000330: b1cd 003c d4a0 423a 62f1 aa3c 8798 0a3d
00000340: fc3a 24bd 4dc8 9ebc adf3 4bbc 5332 92bb
00000350: a155 12bd d16c 0ebc fe47 593c 8be4 30bd
00000360: 9d17 deba b2c2 e6bc 1adb 0439 a101 8cb8
00000370: 9ad3 213d f59e bbba 2591 53bb f5dd 5e3d
00000380: 8b22 1abd f957 da3a 4a16 13bd 4424 293d
00000390: 70d3 d4b8 bad2 01bd ba99 2fbb 1a63 423d
000003a0: 9a2d e3bc d292 ab3c ff8f c1bc 701b 64bc
000003b0: 6e90 7e3d 4bf8 debc 57aa fc3b 74d4 703d
000003c0: db98 7aba 6f02 d3bc 726b 813d 2731 d13c
000003d0: 4305 793d 08e4 7fbd c165 c5bc 906e 93bc
000003e0: 276b ec3b 6b0c 7c3d a8c3 27bd 809d b239
000003f0: 93f6 b6bc 1370 d5bb f253 a737 859c a23c

bias f4 [4]
0.019195078 0.048093554 -0.027718302 0.04138586
00000000: ff3e 9d3c bffd 443d 7e11 e3bc 3884 293d

weight f4 [4, 8]
0.060010806 -0.119868636 -0.16911277 0.06401915 -0.25277004 0.2818323 -0.004001301 -0.12439341
-0.30594862 0.1535539 -0.19640014 -0.019654678 -0.046040535 0.18113823 -0.16904378 0.2530613
0.06896045 0.012623578 5.1177736e-05 -0.24107005 -0.26454392 0.05244466 0.29146585 -0.2539597
-0.22334537 -0.2525332 0.19427876 -0.23085059 0.26494274 0.007655841 0.015326641 0.059929393
00000000: e4cd 753d b07d f5bd e62b 2dbe 791c 833d
00000010: 136b 81be 534c 903e 581d 83bb f9c1 febd
00000020: 4ca5 9cbe 3c3d 1d3e 1e1d 49be d902 a1bc
00000030: 0095 3cbd 4d7c 393e d019 2dbe 4091 813e
00000040: 233b 8d3d 20d3 4e3c ada7 5638 11db 76be
00000050: 4d72 87be 36d0 563d 033b 953e 0107 82be
00000060: a6b4 64be 084c 81be 03f1 463e 1964 6cbe
00000070: 93a6 873e d9dd fa3b 971c 7b3c 8678 753d

bias f4 [4]
-0.0443028 -0.17388718 -0.261935 0.15947285
00000000: da76 35bd 7b0f 32be 581c 86be da4c 233e

weight f4 [4, 8]
-0.19826753 -0.27523422 0.27933255 -0.06728062 -4.587241e-05 -0.07978199 -0.07949647 -0.104031175
0.087976135 0.055746756 0.28571334 -0.3019429 -0.046361417 0.21343084 -6.6618006e-05 0.29114592
-0.17341293 -0.33290464 -0.11919631 0.04196105 0.078080535 0.2911447 0.25633347 0.3330512
0.16458149 0.10399508 -0.018694645 0.30472383 0.29412723 0.166485 -0.05887951 0.22826403
00000000: a506 4bbe 80eb 8cbe ad04 8f3e 6cca 89bd
00000010: 2067 40b8 bd64 a3bd 0ccf a2bd 4c0e d5bd
00000020: d52c b43d b656 643d 0549 923e 4398 9abe
00000030: 78e5 3dbd 9d8d 5a3e 45b5 8bb8 1411 953e
00000040: 2993 31be 7a72 aabe 321d f4bd 5adf 2b3d
00000050: b0e8 9f3d eb10 953e 243e 833e b085 aa3e
00000060: 0d88 283e 5ffb d43d 8325 99bc c304 9c3e
00000070: d897 963e 0b7b 2a3e a42b 71bd 0cbe 693e

bias f4 [4]
-0.26430774 0.19302733 0.1920208 -0.22368677
00000000: 5853 87be f5a8 453e 1aa1 443e 250e 65be

weight f4 [10, 2]
-0.25317213 0.4612059 -0.056012683 0.20182239 0.10036409 -0.43853268 0.05889216 0.55656916
-0.65419865 -0.17430203 -0.47003567 -0.24158667 0.5175908 0.013749823 0.64770925 -0.28467909
0.35765028 -0.3219682 0.44272676 0.30014253
00000000: c79f 81be 2e23 ec3e 8e6d 65bd 87aa 4e3e
00000010: b08b cd3d 5b87 e0be e838 713d 517b 0e3f
00000020: 9079 27bf 3b7c 32be 84a8 f0be 7f62 77be
00000030: d580 043f f046 613c 46d0 253f 75c1 91be
00000040: f01d b73e 04d9 a4be 15ad e23e 48ac 993e

bias f4 [10]
0.19140014 0.66100335 -0.341546 -0.643145 0.32666704 -0.60085326 0.29927626 0.6396854
0.40994817 0.5459909
00000000: 66fe 433e 8437 293f 1edf aebe 27a5 24bf
00000010: e740 a73e 85d1 19bf bd3a 993e 6cc2 233f
00000020: bae4 d13e 0fc6 0b3f

weight f4 [10, 2]
0.32552466 0.6564762 -0.036410384 0.692186 -0.3410658 -0.3589511 0.2715439 0.39875445
0.18649536 0.2132719 -0.342409 0.38873374 -0.0011590641 -0.1972308 -0.5177319 -0.21499942
0.23305246 0.39449218 0.086760126 -0.68037766
00000000: 2bab a63e d30e 283f 0e23 15bd 1a33 313f
00000010: 2da0 aebe 70c8 b7be cd07 8b3e 8b29 cc3e
00000020: a4f8 3e3e f363 5a3e 3c50 afbe 1c08 c73e
00000030: bdeb 97ba dff6 49be 148a 04bf cf28 5cbe
00000040: 4ea5 6e3e e1fa c93e 4baf b13d 3b2d 2ebf

bias f4 [10]
0.3302296 0.4038088 -0.440492 0.44095054 0.48332554 0.14339253 -0.3685339 -0.11990414
0.6423233 -0.26114598
00000000: db13 a93e 07c0 ce3e 2b88 e1be 45c4 e13e
00000010: 7276 f73e 7ed5 123e 7ab0 bcbe 4d90 f5bd
00000020: 4d6f 243f edb4 85be

weight f4 [20, 4]
0.3971389 0.18367048 -0.22409758 -0.20846032 -0.22861257 -0.42082474 -0.4017389 -0.2781597
-0.22200245 -0.07768974 0.029633567 0.38730013 0.4203028 0.17521647 -0.120084554 0.3557763
-0.27584693 0.22650778 -0.22616647 -0.06322733 -0.08178672 0.28147644 -0.069075346 -0.45776537
0.20068112 -0.26882818 0.20918116 0.27592823 0.35013252 -0.19713247 -0.35274422 -0.3219356
0.3001404 0.08689327 -0.01508069 0.33180124 -0.509257 -0.009543285 0.08703214 -0.35837856
-0.31836805 0.1901769 0.18269828 -0.12718812 0.4824254 0.038736977 -0.09077196 -0.20227848
-0.2736777 0.4700724 0.34971488 -0.117436334 -0.053801596 0.30156955 -0.11356505 -0.41228396
-0.3454923 -0.118259184 0.24539301 -0.2333552 -0.0017354001 -0.0058032786 0.32434553 0.47756973
0.06848429 7.046718e-05 0.18960878 -0.00029454113 -0.31768495 0.18470076 -0.4869992 0.22160678
-0.39796093 -0.2141403 0.1557351 0.32230037 0.30713138 -0.46714145 0.29916674 0.37438482
00000000: ca55 cb3e 1d14 3c3e d679 65be 9f76 55be
00000010: 6a19 6abe 5776 d7be b9b0 cdbe f36a 8ebe
00000020: 9c54 63be cc1b 9fbd 18c2 f23c 344c c63e
00000030: ee31 d73e f26b 333e e4ee f5bd 5028 b63e
00000040: cf3b 8dbe a8f1 673e 2f98 67be 557d 81bd
00000050: cc7f a7bd ae1d 903e 6077 8dbd 3960 eabe
00000060: 5a7f 4d3e d9a3 89be 9633 563e 7746 8d3e
00000070: 9244 b33e 18dd 49be e49a b4be bed4 a4be
00000080: 01ac 993e 19f5 b13d 0015 77bc dae1 a93e
00000090: ab5e 02bf 705b 1cbc e83d b23d 657d b7be
000000a0: 2301 a3be bcbd 423e 4215 3b3e 9a3d 02be
000000b0: 7600 f73e aaaa 1e3d a6e6 b9bd 1722 4fbe
000000c0: 7c1f 8cbe 54ad f03e d40d b33e 7682 f0bd
000000d0: 105f 5cbd 5367 9a3e cb94 e8bd e216 d3be
000000e0: 5ee4 b0be df31 f2bd 4e48 7b3e aaf4 6ebe
000000f0: 5d76 e3ba 6e29 bebb 9e10 a63e 0584 f43e
00000100: 7e41 8c3d c7c7 9338 ce28 423e a46c 9ab9
00000110: 9aa7 a2be 3222 3d3e f657 f9be e3ec 623e
00000120: 89c1 cbbe 9847 5bbe 0679 1f3e 8e04 a53e
00000130: 5340 9d3e 2a2d efbe 622c 993e 5eaf bf3e

bias f4 [20]
0.40940735 -0.0010697118 -0.46384203 0.14165658 0.3570454 -0.44425035 0.29621008 0.42206046
-0.4386299 0.23527654 0.43545896 -0.098202154 0.00013724815 -0.4064291 0.02057827 -0.36825967
-0.45233348 0.09999605 -0.43787745 -0.040585298
00000000: d79d d13e 9235 8cba b47c edbe 6c0e 113e
00000010: a8ce b63e c874 e3be d9a8 973e 4f18 d83e
00000020: 1994 e0be 55ec 703e 7af4 de3e 361e c9bd
00000030: 45ea 0f39 7a17 d0be c393 a83c 888c bcbe
00000040: 4198 e7be bbca cc3d 7931 e0be c53c 26bd

G f4 [2, 1]
0.0 1.0
00000000: 0000 0000 0000 803f

m1x_posterior f4 [2]
3.4604592 1.127842
00000000: 2a78 5d40 205d 903f

m1x_posterior_previous f4 [2]
1.4482887 0.3515736
00000000: 8661 b93f 7401 b43e

m1x_prior_previous f4 [2]
1.7998623 -1.030915
00000000: e361 e63f 06f5 83bf

y_previous f4 [2]
1.4219854 1.1453371
00000000: 9e03 b63f 689a 923f

KGain_array f4 [20, 2, 2]
0.49387985 0.8195195 0.18707754 1.059903 0.51386595 0.8451419 0.19516967 1.0971783
0.4875074 0.8430624 0.19233164 0.98901784 0.48409802 0.84842575 0.20549572 1.0621066
0.4753575 0.83385694 0.1920158 0.967986 0.48297632 0.8492876 0.19533995 1.0838103
0.49493548 0.839061 0.1968979 1.1078111 0.47502428 0.8234504 0.16260831 0.86035585
0.46453622 0.8424113 0.18087304 1.0621543 0.47045192 0.81140965 0.18840335 1.0196583
0.46110278 0.8111918 0.15035218 0.8317702 0.46506053 0.8521982 0.17482182 1.110892
0.49787053 0.85208946 0.19393148 1.1183641 0.49358568 0.81010896 0.1606493 0.8953872
0.46958742 0.828673 0.18278448 1.052954 0.48815948 0.8199179 0.16971992 0.88711846
0.50672984 0.8141645 0.15803967 0.9283273 0.46589553 0.82162523 0.16045474 0.8398392
0.46871966 0.84271884 0.18430418 1.0816715 0.49063334 0.8482455 0.20637217 1.0277947
00000000: d2dd fc3e 08cc 513f 4191 3f3e e7aa 873f
00000010: b88c 033f 385b 583f 8fda 473e 5770 8c3f
00000020: 929a f93e f0d2 573f 96f2 443e 4630 7d3f
00000030: b2db f73e 6e32 593f 786d 523e 1cf3 873f
00000040: 0f62 f33e a677 553f ca9f 443e eecd 773f
00000050: ac48 f73e ea6a 593f 3207 483e 4cba 8a3f
00000060: 2f68 fd3e b4cc 563f 9a9f 493e c1cc 8d3f
00000070: 6236 f33e a5cd 523f cb82 263e 4840 5c3f
00000080: b1d7 ed3e 44a8 573f c836 393e acf4 873f
00000090: 13df f03e 8bb8 4f3f cfec 403e 2a84 823f
000000a0: aa15 ec3e 44aa 4f3f ecf5 193e e4ee 543f
000000b0: 6a1c ee3e a929 5a3f 7e04 333e b631 8e3f
000000c0: e3e8 fe3e 8922 5a3f f995 463e 8e26 8f3f
000000d0: 43b7 fc3e 4d63 4f3f 4081 243e 1838 653f
000000e0: c36d f03e ea23 543f db2b 3b3e 32c7 863f
000000f0: 0af0 f93e 24e6 513f 0fcb 2d3e 321a 633f
00000100: 0cb9 013f 166d 503f 27d5 213e dca6 6d3f
00000110: dc89 ee3e 0856 523f 3f4e 243e b4ff 563f
00000120: 06fc ef3e 6cbc 573f 3cba 3c3e 3674 8a3f
00000130: 4b34 fb3e 9e26 593f 3a53 533e c78e 833f

prior_Q f4 [2, 2]
1.0 0.0 0.0 1.0
00000000: 0000 803f 0000 0000 0000 0000 0000 803f

prior_Sigma f4 [2, 2]
1.0 0.0 0.0 1.0
00000000: 0000 803f 0000 0000 0000 0000 0000 803f

prior_S f4 [2, 2]
1.0 0.0 0.0 1.0
00000000: 0000 803f 0000 0000 0000 0000 0000 803f

h_Q f4 [1, 1, 4]
-0.010823471 -0.6224184 -0.4761364 0.61337847
00000000: ed54 31bc d056 1fbf 26c8 f3be 5f06 1d3f

h_Sigma f4 [1, 1, 4]
0.0 0.4830823 0.0 0.0
00000000: 0000 0000 9056 f73e 0000 0000 0000 0000

h_S f4 [1, 1, 4]
0.76611316 0.33171386 0.36244735 0.46559998
00000000: fe1f 443f 66d6 a93e b392 b93e 1f63 ee3e

KGain f4 [2, 2]
0.49063334 0.8482455 0.20637217 1.0277947
00000000: 4b34 fb3e 9e26 593f 3a53 533e c78e 833f

x_out f4 [2]
3.4604592 1.127842
00000000: 2a78 5d40 205d 903f
