KNet/Linear_SS_With_MM/model_KNet_MM_Linear_Dynamics_T100_v_positive_25dB_best_MSE.pt (torch, 37253 bytes, 42 tensors)

weight_ih_l0 f4 [12, 10]
0	0xbecaaa59	-0.3958309
1	0xbe96f6c8	-0.29485154
2	0x3e51f421	0.20503284
3	0xbe928e28	-0.28624082
4	0x3e1753dc	0.14778084
5	0xbe213822	-0.15744069
6	0xbe9f12a4	-0.3106891
7	0xbe958661	-0.29204085
8	0x3ef78352	0.48342377
9	0x3e876400	0.2644348
10	0xbe905c82	-0.28195578
11	0x3ec36b70	0.38167906
12	0xbe81ba3a	-0.25337392
13	0xbd0fecae	-0.035137825
14	0xbe65e3e1	-0.2245021
15	0xbec00494	-0.37503493
16	0x3ec0f02f	0.37683246
17	0x3dcea193	0.100894116
18	0xbe5b2aac	-0.21402997
19	0x3e00af99	0.12566985
20	0xbe289797	-0.16464077
21	0x3e3718f4	0.17880613
22	0xbcc6ca45	-0.024266372
23	0x3e2465b1	0.16054417
24	0xbe8e7439	-0.27823046
25	0xbeb48a55	-0.3526179
26	0x3ee01dbe	0.4377269
27	0x3cbdee0c	0.023184799
28	0x3ec65d25	0.3874294
29	0x3ecdb707	0.401787
30	0x3e28cb35	0.16483767
31	0xbe7673cf	-0.24067615
32	0x3c9ed187	0.01938702
33	0x3e5a5dba	0.21324816
34	0xbec3cb6e	-0.38241142
35	0xbec6b64e	-0.38810962
36	0x3eabe966	0.33576506
37	0x3dc93025	0.09823636
38	0xbeede130	-0.46460867
39	0xbdb0fdfe	-0.08642195
40	0x3ea63fee	0.3247065
41	0x3e07d5c3	0.13265137
42	0xbeccc355	-0.39992777
43	0xbe451d1c	-0.19249386
44	0x3e0de0d1	0.13855292
45	0xbef17a62	-0.47163683
46	0x3b8e75a8	0.004347522
47	0x3e3d400d	0.18481465
48	0xbee58e6a	-0.44835216
49	0x3e50d742	0.20394614
50	0x3e900872	0.28131443
51	0x3eeec409	0.46633938
52	0x3ec2a4bc	0.38016307
53	0xbe01b956	-0.12668356
54	0x3e102628	0.14077055
55	0xbe4ac684	-0.1980229
56	0x3ee6dbc8	0.45089555
57	0x3e3b76ca	0.18307033
58	0x3ea6b758	0.32561755
59	0xbe2ccd8c	-0.16875285
60	0xbeff9f01	-0.49925998
61	0xbec4b5e5	-0.38420025
62	0x3d34daba	0.044153906
63	0x3baf9b60	0.0053590983
64	0xbe70159d	-0.23445745
65	0x3ea069dd	0.31330767
66	0xbebc9eab	-0.36839804
67	0x3ed96643	0.42460832
68	0x3ed8340c	0.4222721
69	0xbd19e636	-0.037573062
70	0xbe3fd947	-0.18735228
71	0xbe7e4365	-0.24830396
72	0x3e183ad5	0.14866193
73	0xbd034eb8	-0.032057494
74	0xbd071bf3	-0.03298564
75	0xbe3523dd	-0.17689462
76	0xbeba5996	-0.36396474
77	0xbe6ee3a8	-0.23329031
78	0x3e9fe4ab	0.31229147
79	0xbdd09f42	-0.10186626
80	0x3d8172da	0.06320734
81	0xbf00b2a6	-0.50272596
82	0x3e00bae0	0.12571287
83	0xbe50d70d	-0.20394535
84	0xbeb15878	-0.3463781
85	0x3d91844e	0.07105313
86	0x3e9a9e62	0.30198961
87	0xbe97282c	-0.29522836
88	0x3d786830	0.060646236
89	0x3d8cc458	0.06873387
90	0x3ec794bc	0.38980663
91	0x3d0a68bc	0.03379129
92	0x3e983a40	0.2973194
93	0xbdc59782	-0.096480384
94	0xbe756cc4	-0.23967272
95	0xbefc20ba	-0.49243718
96	0xbd0fcedc	-0.035109386
97	0xbec7137c	-0.38882053
98	0xbd441410	-0.047870696
99	0xbdf1bb73	-0.11803331
100	0xbeadc989	-0.33942822
101	0xbeba68ba	-0.36408025
102	0x3c33f68f	0.010984077
103	0x3e40ea0a	0.18839279
104	0xbde711be	-0.11282681
105	0x3e481a9f	0.19541405
106	0xbee23cbd	-0.44186965
107	0x3e9a09af	0.30085513
108	0xbed00024	-0.40625107
109	0x3ee8f192	0.45496804
110	0x3e54a9c0	0.2076788
111	0xbdebf829	-0.11521942
112	0x3eb4b4ec	0.35294282
113	0xbc77fe56	-0.015136322
114	0xbe11b833	-0.14230423
115	0x3e76c73c	0.2409944
116	0x3e84ab50	0.2591195
117	0x3e148d4c	0.14507025
118	0x3e79fdb0	0.2441318
119	0x3ee8e1df	0.45484826

weight_hh_l0 f4 [12, 4]
0	0x3e26cec3	0.16289811
1	0xbc15fa7f	-0.009153961
2	0x3de500a0	0.1118176
3	0x3e197eff	0.14989851
4	0xbee5b287	-0.44862768
5	0xbef229c7	-0.472975
6	0x3db9d179	0.09073157
7	0xbe351f07	-0.17687617
8	0xbe306818	-0.17227209
9	0xbeb02f8d	-0.34411278
10	0x3ecae8dc	0.39630783
11	0x3eb1d02b	0.34729132
12	0xbeb1b647	-0.3470938
13	0x3d9b95b7	0.07596915
14	0xbecf16b9	-0.40447024
15	0x3db4a7de	0.088210806
16	0xbd7003aa	-0.058597244
17	0xbe3e20c6	-0.1856719
18	0xbec02984	-0.37531674
19	0xbd035664	-0.03206481
20	0x3eba4b0c	0.3638538
21	0x3ee55278	0.4478948
22	0xbed57d52	-0.41697174
23	0x3e258809	0.16165175
24	0x3ec435ef	0.38322398
25	0xbe83f133	-0.25769958
26	0xbdce47c1	-0.1007228
27	0x3edfb0f8	0.43689704
28	0x3e8a6130	0.27027273
29	0xbef8bf5a	-0.4858349
30	0x3d31d76d	0.043418337
31	0xbe334555	-0.17506917
32	0xbe68b201	-0.22724153
33	0xbe2811ba	-0.16413012
34	0xbd71ba46	-0.059015535
35	0x3e1fdaa0	0.15610743
36	0xbe91009e	-0.28320783
37	0x3ead8868	0.33893132
38	0x3ec44e5e	0.3834104
39	0xb7143954	-8.834835e-06
40	0xbdbbe85b	-0.09175178
41	0x3e1bff9b	0.15234224
42	0x3d6bc18a	0.05755762
43	0xbee7475b	-0.45171627
44	0x3dafa036	0.0857548
45	0xbe38a0cc	-0.18030089
46	0xbeef9390	-0.4679227
47	0x3ec1a3af	0.37820193

bias_ih_l0 f4 [12]
0	0x3e5a2c7a	0.21306029
1	0x3dcbdcc1	0.09954215
2	0xbcc2a259	-0.023759054
3	0x3e06ebc2	0.13175872
4	0x3eaa90f3	0.33313712
5	0x3e0f5b70	0.13999724
6	0xbb189365	-0.0023281213
7	0xbe48e88e	-0.19619963
8	0xbea96c0a	-0.3309024
9	0x3ebd2e9b	0.3694962
10	0xbea88977	-0.32917377
11	0x3ef15b75	0.4714009

bias_hh_l0 f4 [12]
0	0x3d198c5f	0.037487384
1	0xbe12f47a	-0.14351073
2	0xbec75932	-0.38935238
3	0x3ecd6285	0.40114227
4	0x3efc4438	0.49270797
5	0xbe29f190	-0.16596055
6	0x3ecac596	0.3960387
7	0x3debaaef	0.11507212
8	0x3e4c5ca9	0.19957222
9	0xbdf19d47	-0.117975764
10	0x3e954bc1	0.29159358
11	0xbd8e4961	-0.0694759

weight_ih_l0 f4 [12, 14]
0	0x3c54db15	0.012991686
1	0xbecd0010	-0.4003911
2	0xbce549d1	-0.0279893
3	0xbebc9539	-0.36832598
4	0xbf02d463	-0.51105326
5	0xbea231bc	-0.3167857
6	0x3c9300bf	0.017944692
7	0xbe4e0f96	-0.20123133
8	0x3e6200fe	0.22070691
9	0xbe84b8e5	-0.25922313
10	0xbd9f946f	-0.07791983
11	0x3ecff2f5	0.4061505
12	0xbde27c63	-0.11058881
13	0x3d850a40	0.06496096
14	0xbeb51b06	-0.3537218
15	0x3dc02259	0.09381551
16	0xbe6c03a5	-0.23048265
17	0x3ee903c2	0.4551068
18	0xbe9312ea	-0.28725368
19	0xbe4ef71b	-0.20211451
20	0x3ee54e00	0.44786072
21	0x3dcc0db8	0.09963554
22	0x3ef85b52	0.48507172
23	0x3d542c47	0.05180004
24	0x3dedee45	0.11617712
25	0xbcd1c80c	-0.025608085
26	0x38497372	4.802965e-05
27	0xbe82b0c5	-0.2552549
28	0x3c0fb790	0.008771792
29	0xbe8aa559	-0.27079275
30	0xbefe4394	-0.49660933
31	0xbe61e51b	-0.22060053
32	0xbe4b8eee	-0.19878742
33	0xbeeb1a2f	-0.45918414
34	0x3e88aa18	0.2669227
35	0x3e68a738	0.22720039
36	0xbeb07b34	-0.34468997
37	0x3e22e1dd	0.15906473
38	0x3ecbbb4c	0.39791334
39	0xbed60f65	-0.4180862
40	0x3c13e957	0.0090278005
41	0x3e1a37c2	0.15060332
42	0x3ea574ad	0.3231558
43	0x3ed97343	0.4247075
44	0xbe8f3a8e	-0.2797436
45	0x3d797986	0.06090691
46	0x3eb2c624	0.34916794
47	0xbe52d9ef	-0.20590948
48	0xbdd968a6	-0.10615663
49	0x3d56f46e	0.0524792
50	0xbe977301	-0.2957993
51	0xbeb1f6d8	-0.3475864
52	0xbec25e8e	-0.37962765
53	0xbcc11539	-0.02356969
54	0xbe9dd786	-0.30828494
55	0x3e334f99	0.17510833
56	0xbd47a3d9	-0.04874024
57	0x3e89686f	0.2683749
58	0x3d0e0cf8	0.034680337
59	0xbe16b93b	-0.14719097
60	0xbe1b9305	-0.15192802
61	0xbe59c5bf	-0.2126684
62	0xbe8192d6	-0.2530734
63	0x3ec8a4c7	0.39188215
64	0x3e048f6c	0.12945336
65	0xbce6f781	-0.028194191
66	0xbdcad813	-0.09904494
67	0xbec838b2	-0.39105755
68	0xbc884814	-0.016635932
69	0x3ef1e223	0.4724284
70	0x3dbffecf	0.09374773
71	0xbec0ebc7	-0.37679884
72	0xbd55919e	-0.052140824
73	0xbd43c956	-0.04779943
74	0x3e0f3afa	0.13987342
75	0x3df205f3	0.11817541
76	0xbea6b833	-0.32562408
77	0x3e8b2494	0.27176344
78	0xbe0cae94	-0.13738471
79	0xbd01e89d	-0.031715978
80	0x3ef95ffe	0.4870605
81	0xbdecf75c	-0.115706176
82	0xbeafe207	-0.34352133
83	0x3d072719	0.03299627
84	0x3e069f38	0.13146675
85	0xbd3cba30	-0.046076
86	0xbdb24745	-0.08705
87	0x3ec42e2e	0.38316482
88	0x3ec34915	0.38141695
89	0x3e930fb4	0.28722918
90	0x3eee6f8a	0.46569473
91	0x3db1fbf3	0.086906336
92	0x3db21f01	0.0869732
93	0xbed835ea	-0.42228633
94	0xbe3421fb	-0.17591088
95	0xbe324aa6	-0.17411289
96	0xbeb2f9dc	-0.34956253
97	0x3e4177b7	0.18893324
98	0xbe77eb31	-0.24210812
99	0x3e283cf7	0.16429506
100	0xbe81f41d	-0.25381556
101	0xbe4d9e1b	-0.20079844
102	0xbeace386	-0.33767337
103	0xbe9145f7	-0.2837369
104	0xbe89f62a	-0.2694562
105	0xbe826503	-0.2546769
106	0xbec9dbd8	-0.3942554
107	0xbd10088a	-0.035164393
108	0xbcbb3bc0	-0.02285564
109	0xbeb28be7	-0.34872362
110	0xbeac17be	-0.33611864
111	0xbecfb33f	-0.4056644
112	0xbd364abe	-0.044504873
113	0x3dc4516c	0.095858425
114	0xbee3d913	-0.44501552
115	0xbe85de9c	-0.261464
116	0x3e89b46a	0.26895458
117	0xbeadbc2b	-0.33932623
118	0x3ec4a60f	0.38407943
119	0x3d79c025	0.06097426
120	0x3da47105	0.08029369
121	0xbb9971db	-0.004682762
122	0x3e979941	0.2960911
123	0xbee59ad0	-0.44844675
124	0xbe35403b	-0.17700283
125	0xbe823b09	-0.25435665
126	0x3d1aeb85	0.037822265
127	0xbecc0eab	-0.3985494
128	0xbf00f10c	-0.5036781
129	0xbee59e7d	-0.4484748
130	0xbe3ab77a	-0.18234053
131	0xbe1b4e53	-0.15166597
132	0x3d5784a3	0.052616727
133	0xbef8390b	-0.4848102
134	0x3f008b89	0.50212914
135	0xbda8fb03	-0.08251002
136	0xbd9b202e	-0.07574497
137	0xbeedd0e5	-0.46448436
138	0xbebe1996	-0.37128896
139	0x3da5e097	0.08099478
140	0xbedec4a6	-0.43509406
141	0xbd88e02e	-0.06683384
142	0x3d7ceca9	0.061749134
143	0xbe466c54	-0.19377261
144	0x3e6575ed	0.22408266
145	0x3dbf59e6	0.09343319
146	0x3e9d44e1	0.30716613
147	0xbebcb393	-0.36855754
148	0xbec49f6b	-0.38402876
149	0x3e5e6cc8	0.21721184
150	0xbef6b554	-0.48185217
151	0xbe544db9	-0.20732774
152	0xbdb46c69	-0.0880974
153	0xbe17f862	-0.14840844
154	0x3eb64f67	0.35607454
155	0x3eb273b8	0.3485391
156	0xbdcb020b	-0.09912499
157	0x3cbf44b6	0.023348194
158	0x3e478cea	0.19487348
159	0xbe7ffb5d	-0.24998231
160	0xbd4b6ad6	-0.049662434
161	0xbec1cf4c	-0.37853467
162	0xbe987485	-0.29776397
163	0xbe70d485	-0.2351857
164	0xbe988ac3	-0.29793367
165	0x3e712d98	0.23552549
166	0x3e3e47e3	0.1858211
167	0x3ebde5d6	0.37089413

weight_hh_l0 f4 [12, 4]
0	0xbe4b57b7	-0.1985768
1	0xbed8a9e2	-0.4231711
2	0xbebe5368	-0.3717301
3	0xbe2b4c03	-0.16728215
4	0xbedfe534	-0.43729556
5	0xbeae08fd	-0.33991233
6	0xbe6bab7e	-0.23014638
7	0x3eb3ff8f	0.35155913
8	0x3c0e6930	0.008692071
9	0xbe6b2614	-0.22963744
10	0xbdfc0b8d	-0.12306891
11	0xbea47d2a	-0.32126743
12	0xbecc8ddb	-0.39951977
13	0xbe6472c2	-0.22309402
14	0x3ef4a081	0.47778705
15	0xbe8b07ae	-0.27154297
16	0xbe437e92	-0.19091251
17	0xbe80d0d9	-0.25159338
18	0x3ed74a6e	0.42048973
19	0x3eb0db76	0.34542435
20	0xbeda8d71	-0.42686036
21	0xbce81061	-0.028328123
22	0xbed2d3c3	-0.41177186
23	0x3e89f570	0.26945066
24	0xbede9d02	-0.43479162
25	0xbe306a85	-0.17228134
26	0x3e471470	0.1944139
27	0xbd957be4	-0.07299021
28	0xbe8005a0	-0.25004292
29	0x3ed439c7	0.4145033
30	0x3eaf0681	0.3418465
31	0x3dfb4f0c	0.12270936
32	0xbeb531cb	-0.35389552
33	0xbdc4a134	-0.096010596
34	0x3d1ac538	0.03778574
35	0x3c717cc8	0.014739223
36	0x3edc3d72	0.4301563
37	0x3ecd61fa	0.40113813
38	0xbe006580	-0.12538719
39	0xbee85c06	-0.45382708
40	0x3e85b1bc	0.26112163
41	0x3eea2792	0.45733315
42	0xbef39cc5	-0.47580543
43	0x3e2913c1	0.16511442
44	0x3d8d2904	0.06892589
45	0xbed95b28	-0.4245236
46	0xbdde8dee	-0.10866915
47	0x3e144626	0.14479885

bias_ih_l0 f4 [12]
0	0xbefc1953	-0.4923807
1	0xbe51f7db	-0.20504706
2	0xbe9a1c17	-0.30099556
3	0xbe1df5fc	-0.15425867
4	0xbd882098	-0.06646842
5	0x3e100bea	0.14067045
6	0xbd3e5eb4	-0.046477035
7	0x3e866bee	0.2625422
8	0xbe2caf42	-0.1686373
9	0x3ca2c893	0.019871032
10	0x3ed8a99e	0.42316908
11	0xbeb72672	-0.3577152

bias_hh_l0 f4 [12]
0	0x3e581b2d	0.21104117
1	0xbdcba036	-0.09942667
2	0xbdd928f8	-0.10603517
3	0xbe2ba786	-0.16763124
4	0x3e925f05	0.2858812
5	0xbddc4afe	-0.10756491
6	0x3dc20a31	0.094746
7	0x3e346984	0.17618376
8	0xbc9372a4	-0.017999
9	0x3ec2d67f	0.38054273
10	0xbedc7344	-0.4305669
11	0xbe0876d4	-0.1332658

weight_ih_l0 f4 [12, 24]
0	0x3eed8686	0.46391696
1	0xbe84a9cd	-0.25910798
2	0xbe66dc66	-0.22545013
3	0xbe881063	-0.26575002
4	0xbeb2c93f	-0.34919164
5	0xbc7327bb	-0.014841015
6	0xbe347fba	-0.17626849
7	0xbd89cb13	-0.067281865
8	0x3e95962d	0.29216138
9	0xbecb9084	-0.39758694
10	0xbdbb9940	-0.091600895
11	0x3e8f966c	0.2804445
12	0x3e939a53	0.28828678
13	0x3edcf10e	0.4315266
14	0xbeaf6247	-0.34254667
15	0xbe516fa8	-0.2045275
16	0xbe1cfb98	-0.1533035
17	0xbe4b94d2	-0.19880989
18	0xbe05d2f9	-0.13068761
19	0xbeab676e	-0.33477348
20	0x3ed0ac67	0.40756533
21	0xbe2a007d	-0.16601749
22	0x3df0395d	0.11729691
23	0xbd1078dc	-0.03527151
24	0x3e8263a2	0.2546664
25	0x3ecf3709	0.40471676
26	0xb85af042	-5.2199008e-05
27	0xbe01ee36	-0.12688527
28	0xbea24444	-0.31692708
29	0xbeda1fb1	-0.42602304
30	0x3e30ec2e	0.17277595
31	0x3e228237	0.15869986
32	0x3e861440	0.26187325
33	0x3e9527ef	0.2913203
34	0xbebf8b76	-0.37411088
35	0xbe7dc47c	-0.24781984
36	0x3d18b560	0.037282348
37	0xbde30f68	-0.11086923
38	0xbf045bd9	-0.5170265
39	0xbee6af77	-0.45055744
40	0x3ec6d80b	0.38836703
41	0xbdc217b9	-0.09477181
42	0x3eb51551	0.35367826
43	0x3ed189eb	0.40925536
44	0xbea9049f	-0.33011338
45	0xbea26167	-0.31714937
46	0x3b288ae4	0.002571755
47	0xbe2e3cc6	-0.1701537
48	0x3c7f9db2	0.015601562
49	0x3edbbe59	0.4291866
50	0xbe5cf723	-0.2157865
51	0xbe24bd7b	-0.16087906
52	0x3e1caaea	0.15299574
53	0x3e1fd7a3	0.15609603
54	0xbe390d38	-0.18071449
55	0xbed73db8	-0.42039275
56	0x3df1e945	0.11812071
57	0x3e49f90b	0.19723909
58	0x3d05c391	0.03265721
59	0x3d2f12a1	0.042742375
60	0xbea82b99	-0.32845762
61	0xbea6149f	-0.32437608
62	0x3e81a36f	0.25320002
63	0xbea494b7	-0.3214471
64	0xbca9bc36	-0.020719629
65	0x3ca77422	0.020441119
66	0xbc31f561	-0.010861726
67	0x3ebb32ce	0.36562198
68	0xbe9d0b44	-0.30672657
69	0x3e3fb6d5	0.18722089
70	0x3e264e68	0.16240847
71	0x3eaa3988	0.33247018
72	0x3d0842fc	0.033267006
73	0x3ece5c56	0.40304822
74	0xb833b945	-4.284947e-05
75	0xbed5549b	-0.4166611
76	0xbec7fae9	-0.39058617
77	0xbef0ca1e	-0.47029203
78	0x3ee91898	0.45526576
79	0xbcfb78f2	-0.03069732
80	0xbe37fe4f	-0.17968105
81	0xbed1ca6b	-0.40974745
82	0x3e540e9c	0.20708698
83	0xbb74910b	-0.0037317898
84	0xbec55523	-0.38541517
85	0x3d9ddf3b	0.077085935
86	0xbe801625	-0.25016895
87	0xbea69858	-0.32538104
88	0x3ec21eb5	0.37914053
89	0xbdda9c8a	-0.10674389
90	0xbe1ef0c2	-0.1552153
91	0x3e87fd75	0.2656056
92	0x3e9d23c7	0.30691358
93	0xbdecd2fc	-0.115636796
94	0x3e3ca10e	0.18420812
95	0xbe57ae85	-0.21062668
96	0x3cbceb22	0.023061339
97	0xbee72193	-0.45142803
98	0x3edb80ef	0.42871806
99	0x3eb886b7	0.3604028
100	0xbed2f12c	-0.41199625
101	0xbe8df96c	-0.27729356
102	0x3e804f67	0.2506058
103	0x3ea1ed18	0.316262
104	0xbe1e4287	-0.15455066
105	0x3e73cf99	0.23809661
106	0xbec08a2a	-0.3760541
107	0x3d6a2249	0.057161603
108	0xbda8bbfb	-0.082389794
109	0x3ec6d868	0.3883698
110	0xbe95ce5d	-0.29259005
111	0x3eaaa253	0.3332697
112	0x3d9c7fed	0.076415874
113	0x3edd1379	0.4317892
114	0xbcebd697	-0.028788848
115	0x3e92a468	0.28641057
116	0xbee661a5	-0.44996372
117	0xbdc17a3f	-0.09447145
118	0xbd4d301a	-0.0500947
119	0x3e73e8df	0.23819302
120	0x3e96c51b	0.29447255
121	0x3ece0ced	0.40244237
122	0x39713fda	0.00023007338
123	0xbcbbdb8e	-0.02293184
124	0x3e518b95	0.20463403
125	0xbef086fa	-0.4697798
126	0x3ee1250a	0.4397357
127	0xbeb70933	-0.35749206
128	0x3ed90a95	0.42390886
129	0xbdab5388	-0.08365542
130	0xbeed2444	-0.4631673
131	0xbe520f06	-0.20513543
132	0x3eb7b9d1	0.35883954
133	0x3d59a06c	0.053131506
134	0xbe7ec62b	-0.24880283
135	0x3e1f933f	0.15583514
136	0x3d3e7ca6	0.046505593
137	0x3da35d10	0.07976735
138	0xbdee89f1	-0.11647404
139	0x3ec8a08f	0.39184996
140	0x3ed0ef8e	0.40807766
141	0xbeca03bc	-0.39455974
142	0xbe44e7a4	-0.19228989
143	0x3e205deb	0.15660827
144	0x3ee37e2d	0.44432202
145	0xbee31208	-0.44349694
146	0xbdd90b0e	-0.10597812
147	0x3ee6fd17	0.45114967
148	0x3ed6dfa1	0.4196749
149	0x3dd1c273	0.10242166
150	0x3deb04ab	0.114755
151	0x3ee10daa	0.43955737
152	0x3ef78c63	0.48349294
153	0x3cae27a8	0.021259144
154	0xbea5ac1f	-0.3235788
155	0x3dbbdc8e	0.09172927
156	0x3dbf7a87	0.09349542
157	0x3eab0444	0.33401692
158	0xbea31e38	-0.31858993
159	0x3c8093e2	0.015695516
160	0xbe6c4a23	-0.23075156
161	0xbed439aa	-0.41450244
162	0x3ed89718	0.42302775
163	0xbe9771c9	-0.29579
164	0xbee89b2c	-0.45430887
165	0x3e8bab6a	0.27279216
166	0xbe8de9a9	-0.2771733
167	0xbea1426f	-0.31495997
168	0x3ef74b94	0.4829985
169	0x3ed9ce87	0.4254038
170	0xbd135f60	-0.03597963
171	0xbe994457	-0.29934952
172	0x3ef802d6	0.48439664
173	0x3f021d7e	0.5082625
174	0xbe1c4949	-0.15262331
175	0x3e93fab3	0.28902206
176	0xbe42b62d	-0.19014807
177	0xbd54901d	-0.05189525
178	0x3d9843b6	0.0743479
179	0x3de89c9d	0.113579966
180	0xbe625967	-0.22104417
181	0xbe657202	-0.22406772
182	0x3dfff5f3	0.12498083
183	0x3e68d9e3	0.22739367
184	0xbedf62e5	-0.43630138
185	0xbe9b6cc7	-0.30356428
186	0x3e707e6b	0.23485725
187	0xbc57bcb2	-0.013167547
188	0x3e9ba847	0.30401823
189	0xbe3a110a	-0.18170562
190	0x3e1f2ef1	0.1554525
191	0xbd8ddb4d	-0.06926594
192	0xbec767c3	-0.3894635
193	0x3df1efe4	0.11813334
194	0x3e4732c8	0.19452965
195	0xbdf88143	-0.1213403
196	0x3ad880b0	0.0016517844
197	0xbe9f0f84	-0.31066525
198	0x3de9e226	0.114200875
199	0xbe43bfe5	-0.1911617
200	0xbe676d5c	-0.22600311
201	0xbefcefc5	-0.4940168
202	0xbe9413b1	-0.28921273
203	0x3d3c1f4b	0.04592828
204	0xbe75948e	-0.2398245
205	0xbeb46733	-0.35234985
206	0x3ec44e0e	0.383408
207	0xbf034cdb	-0.5128915
208	0x3eea64a5	0.4577991
209	0xbe35b6f6	-0.17745575
210	0xbea4a83c	-0.32159603
211	0xbecb2bab	-0.39681754
212	0x3eae39c5	0.3402845
213	0x3dc41113	0.09573569
214	0x3ea2a50a	0.3176654
215	0x3ee16f77	0.44030353
216	0x3d636dae	0.05552452
217	0x3d70c308	0.058779746
218	0x3e85296e	0.2600817
219	0xbe359cb6	-0.17735562
220	0x3dcd16d8	0.10014123
221	0x3ecf6b4e	0.40511554
222	0xbe1266dc	-0.1429705
223	0xbef2d3d0	-0.47427225
224	0xbef94aec	-0.48689973
225	0xbec1cedb	-0.3785313
226	0x3eb81db7	0.3596017
227	0x3e8fd080	0.2808876
228	0xbe5928ec	-0.21207017
229	0xbe7355dd	-0.23763223
230	0xbe31b0f1	-0.17352654
231	0x3b88ab32	0.0041707987
232	0xbed1afbd	-0.4095439
233	0xbeb7043d	-0.3574542
234	0x3bc9bf0e	0.0061568087
235	0x3e06cf24	0.13164955
236	0xbf020ce2	-0.5080091
237	0x3d35583e	0.044273607
238	0xbe19112e	-0.1494796
239	0x3edc6398	0.43044734
240	0xbdf04146	-0.117312
241	0x3f016d0f	0.50557035
242	0x3cd915e4	0.026499696
243	0x3ecb3ce1	0.39694884
244	0xbed7ae96	-0.42125386
245	0x3d4b1712	0.04958255
246	0x3ecbc57c	0.39799106
247	0x3ed4ac2f	0.41537616
248	0xbe3cd5cc	-0.18440932
249	0xbed18ef9	-0.40929392
250	0x3d92b686	0.0716372
251	0xbe81dc7b	-0.25363526
252	0xbd98e1eb	-0.074649654
253	0x3d3677a7	0.044547703
254	0x3e6886b1	0.2270763
255	0x3eeceb33	0.46273193

weight_hh_l0 f4 [12, 4]
0	0xbeb70dd4	-0.35752738
1	0x3ee071d9	0.4383686
2	0xbe08b675	-0.13350852
3	0x3ef12738	0.47100234
4	0x3e5c7eb4	0.21532708
5	0x3ef0793a	0.4696749
6	0x3df8144b	0.121132456
7	0x3e24f7cb	0.1611015
8	0xbe767141	-0.2406664
9	0x3eafe1bd	0.34351912
10	0xbe7cd308	-0.24689877
11	0xbe27a820	-0.16372728
12	0x3c1d8b5d	0.009615746
13	0x3e4e07df	0.2012019
14	0x3eec98e3	0.46210393
15	0x3e8619e3	0.26191625
16	0xbe9458a0	-0.28973866
17	0xbe96b88a	-0.29437667
18	0xbe38f1c6	-0.18060979
19	0x3df56799	0.1198265
20	0x3dbaae0b	0.09115227
21	0xbe4fef95	-0.20306237
22	0xbe40b8d7	-0.18820511
23	0xbec44a9c	-0.38338172
24	0xbe666b50	-0.22501874
25	0xbebcc335	-0.3686768
26	0x3ea805ed	0.3281702
27	0x3edeecaf	0.4353995
28	0xbe4726b7	-0.19448362
29	0x3ea80086	0.328129
30	0xbec7a7be	-0.38995165
31	0x3eb2ca06	0.34919757
32	0xbba5a5b0	-0.005055152
33	0x3eb2db82	0.34933096
34	0xbeb4d33c	-0.3531741
35	0xbec28a70	-0.37996244
36	0xbbd99d94	-0.006641099
37	0x3e4894e5	0.19588049
38	0x3e45fdff	0.19335173
39	0xbeb6782c	-0.3563856
40	0xbec83074	-0.39099467
41	0xbf000383	-0.5000536
42	0x3eb329b4	0.34992754
43	0xbe129aff	-0.14316939
44	0xbe9bc9ce	-0.30427402
45	0xbe9e5c83	-0.30929956
46	0xbec0530d	-0.37563363
47	0x3c118ebc	0.008884128

bias_ih_l0 f4 [12]
0	0x3d4683a8	0.0484654
1	0xbe1cd044	-0.15313822
2	0xbe3fabca	-0.18717876
3	0xbe698a35	-0.22806628
4	0xbdf54d4b	-0.11977633
5	0x3d8a132b	0.06741937
6	0x3ed53e41	0.41649058
7	0x3ee92b81	0.45541003
8	0x3e0c07d4	0.13674861
9	0xbe2b5d41	-0.16734792
10	0x3e83bcd5	0.25730005
11	0xbefd0bf0	-0.4942317

bias_hh_l0 f4 [12]
0	0x3eb0b6d9	0.34514502
1	0x3e4c7fb8	0.19970596
2	0x3ebb63cd	0.3659958
3	0xbd9fbcdf	-0.07799696
4	0x3eb0983a	0.3449114
5	0xbeec8af2	-0.46199757
6	0xbedd136a	-0.43178874
7	0x3ee3f931	0.44526055
8	0xbeceac73	-0.40365943
9	0xbad19653	-0.0015990235
10	0xbebc602e	-0.3679213
11	0xbe3d954f	-0.18513988

weight f4 [4, 4]
0	0x3ebd4dd2	0.36973435
1	0x3c750143	0.014953914
2	0xbee2d416	-0.44302434
3	0xbebccb48	-0.3687384
4	0xbcac6073	-0.021042084
5	0xbeb65829	-0.35614136
6	0x3ebe64a0	0.37186146
7	0xbe9ed2d1	-0.31020215
8	0xbe620f0a	-0.2207605
9	0xbeb02cc6	-0.3440916
10	0xbed82a71	-0.4221988
11	0xbe9299c0	-0.28632927
12	0x3ecfa8c5	0.40558448
13	0xbdc8ac37	-0.097984724
14	0xbe67a3e2	-0.2262111
15	0xbefd57bf	-0.49481007

bias f4 [4]
0	0x3ed70bd9	0.42001227
1	0x3d8f20e8	0.06988698
2	0xbe83b79f	-0.2572603
3	0x3e360a49	0.17777361

weight f4 [320, 8]
0	0x3e15c0cf	0.14624332
1	0xbce8874f	-0.028384833
2	0x3e1ddfc7	0.15417396
3	0xbcdc0d6c	-0.026861869
4	0x3deca210	0.115543485
5	0x3de80606	0.11329274
6	0xbcdab75f	-0.026698766
7	0xbdaf7aac	-0.0856832
8	0x3eab7b36	0.3349244
9	0x3e9442c4	0.28957188
10	0xbe390144	-0.18066889
11	0xbe5ea32e	-0.21741936
12	0x3e1386f5	0.14406951
13	0x3e9e6eef	0.3094401
14	0x3e59f9ae	0.21286651
15	0xbcc25169	-0.02372046
16	0xbe913030	-0.28357077
17	0xbc7c455a	-0.015397394
18	0xbe6010f6	-0.2188147
19	0x3e82416a	0.25440532
20	0x3b8cef6d	0.0043010027
21	0x3ddb8087	0.10717874
22	0x3e84355f	0.2582197
23	0x3e0a40e0	0.1350131
24	0xbd878ef6	-0.066190645
25	0x3c081df3	0.008307922
26	0x3e37e65f	0.17958973
27	0x3d097e99	0.033568
28	0xbe50c175	-0.20386298
29	0x3eade67e	0.33964914
30	0x3e6bf20c	0.23041552
31	0xbeac7a6e	-0.33687156
32	0xbe71f329	-0.23627914
33	0xbe1e1326	-0.15436992
34	0xbe4c3a70	-0.19944167
35	0x3e99a88c	0.30011404
36	0xbc9072eb	-0.017632922
37	0xbe881ec7	-0.2658598
38	0xbd79be54	-0.060972527
39	0x3d8ced62	0.06881215
40	0xbea83e21	-0.328599
41	0xbea40a3d	-0.3203906
42	0x3cdaacf6	0.026693802
43	0x3e96db54	0.2946421
44	0xbe9ce6a9	-0.3064473
45	0x3c63ba61	0.013899417
46	0x3e17ec72	0.1483629
47	0x3e3618af	0.17782854
48	0xbd138a8f	-0.03602081
49	0x3e2a4ddc	0.16631263
50	0xbca15729	-0.019694882
51	0x3e9b76f0	0.3036418
52	0xbca8f688	-0.020625368
53	0xbceb4a05	-0.028721819
54	0xbdae9e87	-0.085263304
55	0xbea9a077	-0.33130237
56	0xbe1edfa0	-0.15514994
57	0xbbe8557a	-0.0070902677
58	0xbe79fcf9	-0.24412908
59	0xbeb7fad0	-0.35933542
60	0x3d01039e	0.03149759
61	0xbe2d4543	-0.16920952
62	0x3cbe9f88	0.02326943
63	0x3e98f735	0.29876104
64	0x3da9ffe5	0.08300761
65	0xbdcdf807	-0.10057073
66	0x3d8ab66d	0.06773076
67	0xbdd7aa8e	-0.105305776
68	0xbea4967f	-0.3214607
69	0xbdc7ad68	-0.097498715
70	0x3c35786f	0.011076077
71	0xbeb1b484	-0.34708035
72	0x3e6abe69	0.22924198
73	0xbe6beb46	-0.23038968
74	0x3dff6a8f	0.12471496
75	0xbe5c2c08	-0.21501172
76	0x3ea798af	0.32733676
77	0x3d8f9a30	0.07011831
78	0xbd74e1df	-0.05978572
79	0x3e0f9d38	0.14024818
80	0xbe5bd846	-0.2146922
81	0x3d8610f3	0.065462016
82	0x3e84d206	0.25941485
83	0xbe3ee47b	-0.18641846
84	0xbd1d7e5a	-0.038450576
85	0x3e62f694	0.22164375
86	0xbe876917	-0.26447365
87	0xbe8ffd76	-0.28123063
88	0x3e3058f7	0.17221437
89	0x3daa2e65	0.0830963
90	0x3e22e108	0.15906155
91	0x3eb45639	0.35222033
92	0xbd53e614	-0.05173309
93	0x3e8ed202	0.27894598
94	0xbdb41fca	-0.08795126
95	0x3e817d3c	0.2529086
96	0xbde7741c	-0.11301443
97	0xbd36bae7	-0.044611838
98	0xbd3d6a40	-0.046243906
99	0x3e652f7a	0.22381392
100	0x3e50deaa	0.2039744
101	0x3de12560	0.10993457
102	0xbd9bb3c2	-0.076026455
103	0x3e89b810	0.2689824
104	0xbe99a012	-0.30004936
105	0xbeab4838	-0.33453536
106	0x3e5c1dea	0.21495786
107	0x3c80a0f5	0.01570175
108	0xbd61ca82	-0.055124767
109	0xbc9cf213	-0.019158399
110	0xbe106af0	-0.14103293
111	0x3e4c994f	0.19980358
112	0x3d8ced8a	0.068812445
113	0x3df3101f	0.11868309
114	0x38d696f1	0.0001023243
115	0xb75394da	-1.2611237e-05
116	0xbc640d55	-0.013919194
117	0x3e9b6222	0.30348307
118	0xbe7921e1	-0.2432933
119	0xbc9286d9	-0.017886566
120	0xbea14e73	-0.31505165
121	0xbdd33e03	-0.10314562
122	0xbe888924	-0.2666713
123	0x3e3ed951	0.18637587
124	0x3e961191	0.29310277
125	0xbe8b2165	-0.27173916
126	0xbe48a340	-0.19593525
127	0xbe755c41	-0.23960973
128	0x3e9a9daf	0.30198428
129	0xbe99e85e	-0.30060095
130	0xbe7de136	-0.24792942
131	0x3d23cc3a	0.039989688
132	0xbea0848d	-0.31351128
133	0xbe567f0e	-0.20946905
134	0x3e9abffa	0.30224591
135	0xbe88913a	-0.266733
136	0xbb1da83c	-0.0024056574
137	0x3c45fa55	0.01208361
138	0xbe727439	-0.23677148
139	0xbe97189d	-0.29510966
140	0x3dffafab	0.12484678
141	0x3e67b4b7	0.22627531
142	0xbe671dff	-0.22570036
143	0x3ceb3be6	0.028715085
144	0x3e061e9f	0.13097619
145	0xbdda18c8	-0.10649258
146	0x3df96bcb	0.12178763
147	0xbd3ae9d5	-0.045633156
148	0x3dd104ca	0.102059916
149	0xbe88eac0	-0.267416
150	0x3d1e10df	0.03859031
151	0x3e64e6a9	0.22353615
152	0xbe5aca76	-0.21366295
153	0x3e7e605f	0.2484145
154	0x3ea4d113	0.3219076
155	0x3e1fbb52	0.15598801
156	0x3e678227	0.22608243
157	0xbdf7cb5c	-0.120993346
158	0xbe6ec2c1	-0.2331648
159	0x3e9ec037	0.31006023
160	0x3dcdbc76	0.10045712
161	0x3ea9e997	0.33186027
162	0xbea83e9d	-0.3286027
163	0xbd34cbdd	-0.04413973
164	0xbd03ce55	-0.032179195
165	0xbe549f1c	-0.2076382
166	0xbe59d51c	-0.21272701
167	0xbdb07634	-0.086162955
168	0xbe658513	-0.22414045
169	0xbe9bb7a5	-0.30413547
170	0x3eba17e4	0.36346352
171	0xbe27cc59	-0.16386546
172	0xbda00654	-0.07813707
173	0x3e9a1ce9	0.30100182
174	0x3e41f0f3	0.18939571
175	0xbd58ecd8	-0.052960247
176	0xbe85b162	-0.26111895
177	0xb8508a22	-4.971971e-05
178	0xbe109f1f	-0.141232
179	0x3dbf39b4	0.09337178
180	0x3e09c0e7	0.13452493
181	0x3df8bd12	0.12145437
182	0xb7c0e2f5	-2.2993869e-05
183	0x3e57dc0e	0.21080038
184	0x3c8045c0	0.01565826
185	0x3e28ecb1	0.1649654
186	0xbd84806a	-0.064698055
187	0x3e9f8c16	0.31161565
188	0x3e9c5e6b	0.30540785
189	0x3dc26ae9	0.09493048
190	0x3d333176	0.04374834
191	0x3da23afd	0.07921407
192	0x3e5f5d40	0.21812916
193	0xbd238b04	-0.039927498
194	0x3da8047d	0.08203981
195	0x3df679f2	0.12034978
196	0xbe7f79fd	-0.24948879
197	0xbd54c8d6	-0.051949345
198	0x3bd6c1e4	0.0065538753
199	0x3e056d71	0.1303003
200	0x3e7db450	0.24775815
201	0xbe7d9326	-0.24763164
202	0x3ea7651f	0.32694337
203	0xbdc7aa6b	-0.097493015
204	0xbe9b8e0e	-0.30381817
205	0x3b6e42fd	0.0036355846
206	0xbdaeabf7	-0.085288934
207	0x3e516b32	0.20451048
208	0xbcb78675	-0.022402981
209	0xbe1181f2	-0.14209726
210	0xbe7a2974	-0.24429876
211	0xbeaeb72f	-0.34124133
212	0xbe8852ef	-0.26625773
213	0xbeb979a0	-0.36225605
214	0xbe804bfd	-0.25057974
215	0x3dcbc775	0.09950153
216	0xbdfbc1f1	-0.12292851
217	0xbe609dcc	-0.21935195
218	0xbe8033dc	-0.25039566
219	0xbe87a4ff	-0.2649307
220	0x3e6e55df	0.23274945
221	0xbc2dde32	-0.0106120575
222	0xb9d6ace4	-0.00040946074
223	0xbdf9a3fd	-0.121894814
224	0x3e0b78f9	0.13620366
225	0x3c49d680	0.012319207
226	0x3ea717ae	0.32635254
227	0xbe12bb93	-0.14329366
228	0x3d01bbf9	0.031673405
229	0x3e933eab	0.2875875
230	0xbe85d074	-0.261356
231	0x3eada5da	0.33915597
232	0xbea1f5d4	-0.31632864
233	0xbd11d3a7	-0.035602238
234	0xbde8a0a7	-0.11358767
235	0xbd0f6e5f	-0.035017367
236	0xbe8cd663	-0.27507314
237	0x3ea5c3b9	0.32375887
238	0x3deedae6	0.11662845
239	0x3e5c9f15	0.2154506
240	0x3c2c6af1	0.010523544
241	0xbe0a31c0	-0.1349554
242	0xbeb9afa5	-0.3626682
243	0xbcbeb82d	-0.023281181
244	0xbe59884f	-0.21243404
245	0x3c67e3de	0.014153449
246	0xbe3f6900	-0.18692398
247	0x3e686e7a	0.22698393
248	0xbd38107f	-0.044937607
249	0xbe6884a0	-0.22706842
250	0x3e4ed12e	0.20196983
251	0xbe8065a5	-0.2507755
252	0x3e869791	0.2628751
253	0xbe98a90b	-0.2981647
254	0x3e707319	0.23481406
255	0x3e2b5608	0.16732037

bias f4 [320]
0	0x3e2db700	0.1696434
1	0xbdd688fe	-0.10475348
2	0xbcfcfef4	-0.03088329
3	0x3e8d50ba	0.27600652
4	0x3e20ff8a	0.1572248
5	0xbde45691	-0.11149324
6	0x3e75df81	0.24011041
7	0x3e32d026	0.17462215
8	0x3e85171f	0.25994202
9	0x3df4f545	0.11960844
10	0x3e54ffa0	0.20800638
11	0x3e0ee4d2	0.13954476
12	0xbbd16a30	-0.0063908324
13	0x3e981451	0.29703
14	0xbc13d7fa	-0.009023661
15	0x3e461992	0.19345692
16	0xbea81aed	-0.32833043
17	0x38124155	3.4869958e-05
18	0x3e3cba00	0.18430328
19	0x3e7d1e9d	0.2471871
20	0x3e24c9cf	0.16092609
21	0x3d8977db	0.06712314
22	0xbe033253	-0.12812166
23	0xbd949bab	-0.07256254
24	0x3e977e04	0.2958833
25	0x3e324d18	0.17412221
26	0x3db0e72b	0.08637842
27	0xbe47edd5	-0.1952432
28	0xbe13bbbc	-0.14427084
29	0x3e90f76a	0.28313762
30	0x3cc1a8c3	0.023640042
31	0x3ea0fe55	0.3144404
32	0xbda62751	-0.08112968
33	0x3e9e9b52	0.30977875
34	0xbe6b2c90	-0.22966218
35	0xbdb610c9	-0.0888992
36	0x3e8a5e09	0.27024868
37	0x3dd135d9	0.10215349
38	0x3d0f1693	0.034933638
39	0x3e04dd9f	0.12975167
40	0x3d1f50a8	0.03889528
41	0xbd23507b	-0.039871674
42	0x3e5f4801	0.21804811
43	0xbd8eae1f	-0.06966805
44	0x3eba9160	0.36439037
45	0x3e92e455	0.2868983
46	0x3e8cba78	0.27486014
47	0xbe46973a	-0.19393626
48	0x3d8f8c1f	0.07009148
49	0x3ebc4d4b	0.3677772
50	0x3ea0a505	0.313759
51	0x3dc88e6a	0.09792788
52	0xbe74ad92	-0.23894337
53	0x3e735efa	0.237667
54	0x3dfafa82	0.12254812
55	0x3e171155	0.14752705
56	0xbd012d22	-0.031537183
57	0x3e88fda3	0.2675601
58	0x3ded6479	0.11591429
59	0x3e3c7801	0.18405153
60	0x3d88e523	0.06684329
61	0x3da89cb6	0.08233015
62	0xbe339080	-0.17535591
63	0x3d4ed6f0	0.05049795
64	0x3c2a8560	0.010407776
65	0xbcf4992b	-0.029858192
66	0xbd6c5a3b	-0.057703238
67	0x3d8ed624	0.06974438
68	0x3ea165a1	0.3152285
69	0xbcb0c5ca	-0.021578688
70	0xbd0266a2	-0.03183616
71	0x3d545490	0.051838458
72	0x3e310a8c	0.1728918
73	0xbdaca3f6	-0.084297106
74	0xbc7089a6	-0.014681255
75	0x3d1d2398	0.038364023
76	0xbe39baf7	-0.18137728
77	0xbe0eca34	-0.13944322
78	0x3baa52ec	0.0051978733
79	0xbe31c38f	-0.17359756
80	0x3d5d74b6	0.054066382
81	0xbe8c9e7d	-0.27464667
82	0x3e891413	0.26773128
83	0x3bc10496	0.0058904393
84	0xbdfc0374	-0.12305346
85	0x3e8113ef	0.2521052
86	0x3e9a6137	0.30152294
87	0x3e54943e	0.20759675
88	0x3d18d121	0.037308816
89	0xbdde8f93	-0.10867228
90	0x3eabca38	0.33552718
91	0x3bd6f219	0.006559622
92	0x3d9cb770	0.076521754
93	0xbe7b0d7b	-0.24516861
94	0xbe19e01c	-0.15026897
95	0xbe6991f3	-0.22809581
96	0x3ea9e4b2	0.33182293
97	0x3ca783ef	0.020448653
98	0x3e6c52d1	0.23078467
99	0x3e4d023e	0.20020387
100	0x3e1d6a2d	0.15372534
101	0xbe028f03	-0.12749867
102	0xbddc7dd3	-0.107661866
103	0xbe812834	-0.25225985
104	0x3e491baa	0.19639459
105	0xbe4939b7	-0.19650923
106	0xbde8fe0f	-0.11376583
107	0x3e435eda	0.19079152
108	0xbe155bb8	-0.14585769
109	0xbdf0e07e	-0.117615685
110	0x3cefcdd5	0.029272953
111	0xbe33c4e2	-0.17555574
112	0x3eaca6ab	0.33720908
113	0xbe879345	-0.26479545
114	0xbe7693e9	-0.24079861
115	0x3e0c6745	0.13711269
116	0x3eb512d2	0.3536592
117	0xbe733b82	-0.23753169
118	0xbe152c9b	-0.14567797
119	0x3eac38da	0.33637124
120	0xbe0761a3	-0.13220839
121	0x3e281230	0.16413188
122	0x3ddf74d1	0.10910953
123	0xbe136f92	-0.1439803
124	0xbe834090	-0.25635195
125	0x3e1b3e57	0.151605
126	0x3e6c986c	0.2310502
127	0x3e4b2a73	0.19840412
128	0xbe419ef2	-0.18908289
129	0x3e3dae0e	0.18523428
130	0xbda125b5	-0.0786852
131	0xbe3ba5ec	-0.18325013
132	0x3e170bee	0.14750645
133	0x3eaf44c7	0.3423216
134	0xbe1ff4b3	-0.15620689
135	0x3df0f900	0.11766243
136	0x3e984a79	0.29744318
137	0xbd6eeb0c	-0.058329627
138	0x3eae29bd	0.3401622
139	0xbe84a0b1	-0.25903848
140	0x3e35fa85	0.17771347
141	0xbe5d1781	-0.21590997
142	0xbe8c5b9b	-0.2741364
143	0x3d019745	0.031638402
144	0xbe1b0723	-0.15139441
145	0x3e90d441	0.28286937
146	0xbe3fe52b	-0.18739764
147	0xbe7bb001	-0.24578859
148	0x3da64d04	0.08120158
149	0x3e3b0fec	0.18267792
150	0xbe511e1b	-0.2042164
151	0xbcc05ad5	-0.023480812
152	0x3ead9b5e	0.33907598
153	0xbe00e058	-0.1258558
154	0x3d23b90e	0.039971404
155	0xbe43aab3	-0.19108085
156	0x3d37956e	0.04482024
157	0x3e76c66f	0.24099134
158	0x3e8926cb	0.2678741
159	0x3eaa0eb5	0.33214346
160	0xbd5c6d6c	-0.05381529
161	0x3dfa31ba	0.12216516
162	0x3d0de8e8	0.034645945
163	0x3da77696	0.08176915
164	0xbdd627c1	-0.10456801
165	0xbe63f3d4	-0.22260982
166	0x3e73f026	0.23822078
167	0xbe60768b	-0.2192022
168	0x3d9593d8	0.073035896
169	0x3c753277	0.014965645
170	0x3dd00dba	0.10158868
171	0x3db3a858	0.087723434
172	0x3d8b99b5	0.06816427
173	0xbe488b00	-0.19584274
174	0x3eaa0cd3	0.3321291
175	0x3e89fed7	0.2695224
176	0x3cd8e15c	0.026474647
177	0x3e014175	0.12622626
178	0xbe3be483	-0.18348889
179	0xbd8ce314	-0.06879249
180	0xbd8812d2	-0.06644215
181	0x3d21da5c	0.039514884
182	0xbd9a1482	-0.07523443
183	0x3e7aac20	0.24479723
184	0x3e5674fc	0.20943063
185	0xbdf4a98c	-0.11946401
186	0x3e6f4a47	0.23368178
187	0xbe6346d6	-0.2219499
188	0xbe6fd4f6	-0.23421082
189	0xbd8deddb	-0.06930133
190	0xbd24ce5d	-0.040235866
191	0xbe5bd274	-0.21467
192	0xbe2cb15a	-0.16864529
193	0xbe1dab3c	-0.15397352
194	0xbe3b2de6	-0.18279228
195	0x3dcb05d7	0.09913223
196	0x3dc737c8	0.09727436
197	0xbe79a827	-0.24380551
198	0x3d405cc1	0.046963457
199	0x3e838680	0.25688553
200	0x3e79b30d	0.24384709
201	0xbd377972	-0.044793554
202	0x3e261234	0.16217881
203	0xbe8dea7f	-0.2771797
204	0x3e866531	0.26249078
205	0xbe1c3bad	-0.1525714
206	0x3e186778	0.1488322
207	0xbdfef1c2	-0.124484554
208	0x3e64cddd	0.22344156
209	0xbe4cb584	-0.19991118
210	0x3dd2071c	0.10255262
211	0xbe3e1030	-0.18560863
212	0xbd907d6f	-0.070551746
213	0xbd68467d	-0.056707848
214	0x3e725069	0.23663487
215	0x3e2707ff	0.16311644
216	0xbcb22a66	-0.021748733
217	0x3e7854a7	0.24251042
218	0x3e90f8cb	0.28314814
219	0x3d0abc1b	0.033870798
220	0xbd608f9c	-0.054824457
221	0xbeba6d32	-0.36411434
222	0xbd7d2f2f	-0.061812576
223	0xbe88caa0	-0.2671709
224	0xbded472b	-0.1158584
225	0x3e1ed5f1	0.155113
226	0xbe780772	-0.2422159
227	0x3dc2b3fd	0.09506986
228	0x3e5b834e	0.21436808
229	0xbe9534c4	-0.2914182
230	0x3dc328df	0.0952928
231	0x3e995c56	0.2995326
232	0xbe859f3c	-0.2609805
233	0x3da8a1a4	0.082339555
234	0x3e21e028	0.15808165
235	0xbe7dc982	-0.247839
236	0x3dfe3aa4	0.124135286
237	0x3cf2d8bb	0.02964436
238	0x39a240ed	0.0003094742
239	0x3dccec57	0.10006016
240	0xbe058465	-0.13038786
241	0x3dd2f1f5	0.10300056
242	0xbe98bd48	-0.2983191
243	0x3d82bc10	0.06383526
244	0x3e6cee9e	0.231379
245	0x3e9da7ac	0.30791986
246	0xbe454c4e	-0.19267389
247	0x3e8f973a	0.28045064
248	0xbe3464aa	-0.17616525
249	0xba893369	-0.0010467592
250	0xbe8be5b5	-0.2732369
251	0x3e95dd99	0.29270628
252	0x3ea717d4	0.32635367
253	0xbdf59d50	-0.119928956
254	0xbe6d8720	-0.23196077
255	0x3e310c14	0.17289764

weight f4 [4, 320]
0	0xbb7e0c7d	-0.0038764768
1	0x3d79d194	0.060990885
2	0xbd1cc63e	-0.038274996
3	0xbd2407fc	-0.040046677
4	0xbd09aa5b	-0.03360973
5	0xba82935c	-0.0009962129
6	0xbca38da5	-0.019965002
7	0xbd1da37c	-0.03848599
8	0xbce6c1d5	-0.028168598
9	0x3cbe441e	0.02322584
10	0xbd1a95e7	-0.037740614
11	0xbc1b14bd	-0.009465394
12	0x3b7b1214	0.0038310336
13	0x3bc3fb1f	0.0059808637
14	0x382c5cdc	4.1094478e-05
15	0x3ae9c6be	0.0017835719
16	0xbc96e220	-0.018418372
17	0x389cb54f	7.472431e-05
18	0x3d0d7245	0.034532804
19	0xbd3ed962	-0.04659403
20	0xbc05fbca	-0.008177707
21	0x3bac0edd	0.0052507953
22	0x3851d25f	5.0025406e-05
23	0xbc73810e	-0.014862312
24	0xbd34ba53	-0.044123005
25	0x3d591b67	0.05300465
26	0x3c837abf	0.01604974
27	0x3a9ea4bc	0.0012103538
28	0x3ab45069	0.0013756874
29	0xbd0be41a	-0.03415308
30	0xbcdbd489	-0.026834743
31	0xbbc13c23	-0.0058970614
32	0x3a0e8ae7	0.0005437568
33	0x3d2a3f2f	0.041564163
34	0x39afb1cc	0.0003351107
35	0xbb2ba78e	-0.00261924
36	0xbd574da4	-0.05256428
37	0xbca9c570	-0.020724028
38	0x3cf4dfa6	0.0298918
39	0xbd5da1bf	-0.05410933
40	0xbd341492	-0.04396493
41	0xbc1254b9	-0.008931332
42	0xbd365f32	-0.04452438
43	0xbd52c004	-0.05145265
44	0xbcc0163f	-0.023448108
45	0x3c68caa2	0.014208468
46	0xbcd0d783	-0.025493389
47	0x3bc1c05a	0.0059128227
48	0x3cd75771	0.026286812
49	0x3b166454	0.0022947984
50	0x3c30a2b7	0.010780982
51	0x3d33e911	0.04392344
52	0xb85006be	-4.9597344e-05
53	0xbbe12c3e	-0.006871729
54	0x3c9beb24	0.019033022
55	0xbc572659	-0.013131701
56	0x3c9aed99	0.018912124
57	0xbd5ae0f4	-0.05343719
58	0x3c0ce355	0.008599122
59	0x3b7bab44	0.0038401643
60	0xbcb474ef	-0.022028415
61	0x3c536cd2	0.012904363
62	0x3d6be12e	0.057587795
63	0x3d602f91	0.054732863
64	0x3d09159a	0.033467866
65	0x384d0d47	4.8888174e-05
66	0x3c00d0e1	0.007862301
67	0xbc58cec7	-0.013232893
68	0xbc68b4fb	-0.014203305
69	0xbcccbc45	-0.024992118
70	0xbcbeadb3	-0.023276186
71	0x3c6ee465	0.014580821
72	0xbc83ff56	-0.016112965
73	0xbd674a7a	-0.05646751
74	0x3cd8b6b6	0.02645431
75	0x3bddb3a2	0.0067657987
76	0xbd5544f2	-0.052067704
77	0x3d2a5b32	0.041590877
78	0x3c9bc0c6	0.01901282
79	0x3d7a1e21	0.06106389
80	0x3d32b167	0.043626215
81	0x3a458eb2	0.0007536217
82	0xbc8b7888	-0.017025247
83	0xbcdb9074	-0.026802279
84	0xbcba3fe1	-0.022735538
85	0x3b4f44b4	0.0031626644
86	0xbd17ed06	-0.037091278
87	0x3c984c2e	0.018591013
88	0x3d4ac78f	0.04950672
89	0xbcffe180	-0.031235456
90	0x3d232161	0.039826754
91	0xbc79e2b2	-0.015251802
92	0x3cac8928	0.021061495
93	0x3c89c511	0.016817601
94	0x3d11e126	0.03561511
95	0xbd2c74b7	-0.042103495
96	0x3d159199	0.036515806
97	0x3bff132c	0.007784268
98	0x3cb02ab1	0.021504732
99	0xbc6ef2e7	-0.01458428
100	0xbd47b729	-0.04875866
101	0x3ba4aeb4	0.005025709
102	0x3d126ab1	0.03574628
103	0xb927a648	-0.00015988306
104	0x3c8cf1ec	0.017205201
105	0x3cda3775	0.026637772
106	0xb841fb1c	-4.624865e-05
107	0x3d408a31	0.04700679
108	0x3bb7ad67	0.005605388
109	0x3d07eaa3	0.03318275
110	0xbd2d07b8	-0.04224369
111	0xbc268e31	-0.010165737
112	0xbd195008	-0.03742984
113	0xb841787c	-4.6126996e-05
114	0xb81d29fd	-3.747082e-05
115	0x3d41899a	0.047250368
116	0xbb8812cd	-0.004152632
117	0x3797636a	1.8046896e-05
118	0xbc51a8d3	-0.0127965985
119	0xbc17de53	-0.009269315
120	0x38f81ab5	0.00011830536
121	0xbd2dcffb	-0.042434674
122	0x3d458481	0.04822207
123	0xb816795d	-3.5875815e-05
124	0x3c733e78	0.014846437
125	0x3d07335e	0.033007972
126	0xbc134b6c	-0.00899015
127	0xbd3ef1bc	-0.046617255
128	0xbcb90b7a	-0.02258848
129	0x3c0378c5	0.008024399
130	0xb61c5cd1	-2.3299838e-06
131	0xbc884231	-0.016633125
132	0x3b09e863	0.0021043054
133	0xbcfb5ce0	-0.030683935
134	0x3ca25760	0.019817054
135	0xbbd21de8	-0.0064122565
136	0xbd1c3a16	-0.038141333
137	0xbc046b44	-0.008082215
138	0xbc9b5958	-0.0189635
139	0x34a8ca07	3.1439433e-07
140	0xbceb8f57	-0.028754873
141	0x3c7c3e61	0.015395732
142	0x3c8b2625	0.016985962
143	0xbcbf1cd2	-0.023329172
144	0x3852c94f	5.0255385e-05
145	0xbd2f867c	-0.042852864
146	0x3be8b16a	0.0071012275
147	0x3998dbea	0.00029155548
148	0x3c310fb8	0.01080697
149	0xbcf60b62	-0.030034725
150	0xb763b1fe	-1.3571696e-05
151	0x3d4fec29	0.05076233
152	0xbcc4b184	-0.024010427
153	0xbcc882c1	-0.02447641
154	0x3d08ea13	0.033426356
155	0xba0d1c3e	-0.00053829316
156	0xbd48f8fa	-0.049065568
157	0xbd3b28c4	-0.045693174
158	0x3cbe3e48	0.023223057
159	0xbc174a82	-0.009234073
160	0xb9e5d45b	-0.000438365
161	0x3d4c8f38	0.04994127
162	0x3d3c16bd	0.045920122
163	0xbcfd2dfa	-0.030905712
164	0xbcca90b6	-0.024727207
165	0xb8ae50d0	-8.312019e-05
166	0x3d2e11b2	0.042497344
167	0xbcd12f7f	-0.025535343
168	0xbb4e667a	-0.0031494186
169	0xbd3118e3	-0.043236624
170	0x3d4b9a6e	0.049707823
171	0xbd29950f	-0.04140192
172	0x3d4a98dd	0.049462188
173	0xbcd79105	-0.026314268
174	0xbd43a4a2	-0.047764428
175	0xbd18975b	-0.03725372
176	0x3c9a6d7d	0.018851036
177	0xbb404ad5	-0.0029341478
178	0x3c4d17d3	0.012517887
179	0x3cbfa52d	0.023394192
180	0xbcd7736c	-0.026300155
181	0x3c653ba6	0.013991272
182	0x3d2fe5be	0.04294371
183	0x3d3e2b16	0.04642781
184	0xbc90807d	-0.017639393
185	0xbd70241b	-0.058628183
186	0xbc3df12e	-0.011593146
187	0xbd1ec2ef	-0.038760122
188	0x3c94701c	0.018119864
189	0x3ce6391a	0.0281034
190	0x3c1e4e5a	0.009662235
191	0xb9827f67	-0.00024890454
192	0xb7ea2ba4	-2.7915296e-05
193	0x3c5c8c74	0.013461221
194	0x3c3033f2	0.010754572
195	0x3c7b6211	0.015343205
196	0xbcac9d63	-0.021071142
197	0xbba22330	-0.0049480423
198	0xbd22d7b6	-0.0397565
199	0x3c657774	0.014005531
200	0xbd3b901a	-0.045791723
201	0x37c9dae8	2.4063003e-05
202	0xbce7ac39	-0.028280364
203	0xbd83c3d2	-0.06433834
204	0xbcf7e1e8	-0.030259088
205	0xbd06ac3b	-0.032879096
206	0xbd549d0e	-0.05190759
207	0x3c0e878f	0.008699312
208	0x3c814805	0.015781412
209	0x3badcd91	0.0053040464
210	0x3d25ec21	0.040508393
211	0xbd0cdaee	-0.034388475
212	0x3cd00a82	0.025395636
213	0x3c1d7b63	0.009611937
214	0x3b87d454	0.0041451845
215	0x3b8e2280	0.004337609
216	0x3c54ea89	0.012995371
217	0x3c4d1a92	0.012518542
218	0xbd143ec2	-0.036192663
219	0xbd17345b	-0.036915164
220	0x3803af1e	3.1395924e-05
221	0x3c55ea43	0.013056341
222	0x3c8605b0	0.016360134
223	0x3ab30521	0.0013658145
224	0x3abcbc8b	0.0014399452
225	0xbd42a0e8	-0.047516733
226	0x3cb5a21d	0.022172028
227	0x3bb59d77	0.005542453
228	0x3c692cf9	0.014231914
229	0x38321285	4.2455755e-05
230	0xbccbfffd	-0.024902338
231	0xbd2c000f	-0.041992243
232	0xbd30e2fb	-0.043185215
233	0xba996121	-0.001170192
234	0xbb80b805	-0.003928187
235	0x3c5a6c03	0.013331416
236	0x3cca99bd	0.024731511
237	0x3d0d9d4f	0.03457385
238	0xbc9006b1	-0.017581316
239	0xbd2e30a0	-0.04252684
240	0xbca67f54	-0.020324387
241	0xbc51986f	-0.012792691
242	0xb840aa56	-4.5935005e-05
243	0x3d44c6b5	0.048041064
244	0xbd163137	-0.03666803
245	0x3c11d1c7	0.0089001125
246	0x3d6d4a97	0.057932463
247	0x3c5c6224	0.013451133
248	0xb7b532aa	-2.1600474e-05
249	0x3d20ce59	0.03925929
250	0x3664a37e	3.4069813e-06
251	0x3c2bad72	0.010478364
252	0x3cc1d0bc	0.023659103
253	0x3c9fffc4	0.019531138
254	0x3d23eefe	0.040022843
255	0x3cbd304e	0.023094323

bias f4 [4]
0	0xbc1583eb	-0.00912569
1	0x3d13e346	0.036105417
2	0x3d8c8afa	0.06862445
3	0xbc746639	-0.01491695

weight f4 [4, 8]
0	0xbda3eadb	-0.080037795
1	0xbe883060	-0.26599407
2	0x3e898894	0.26862013
3	0x3d5ffeed	0.054686476
4	0xbea39bcd	-0.31954804
5	0x3d85fd6b	0.06542476
6	0xbe73a757	-0.23794304
7	0x3d2c6631	0.042089645
8	0x3e8f68f5	0.28009763
9	0xbd1016bd	-0.035177935
10	0x3d5d2943	0.05399443
11	0x3d89e0c3	0.06732323
12	0xbd4c15cd	-0.04982548
13	0xbdbaaec9	-0.09115369
14	0x3e86126f	0.2618594
15	0xbe374be0	-0.17900038
16	0x3d9421ce	0.0723301
17	0xbbf3de60	-0.0074422807
18	0xbe9e308d	-0.30896416
19	0x3e35079e	0.17678687
20	0xbe3d52d0	-0.18488622
21	0xbdd2bdd8	-0.10290116
22	0xbe58ec2e	-0.21183845
23	0xbe44d20e	-0.19220755
24	0x3e47e63b	0.1952142
25	0x3daa5b3b	0.08318182
26	0xbe71cf29	-0.23614182
27	0xbe1f162e	-0.15535805
28	0x3e1f5dff	0.155632
29	0xbd9a005a	-0.07519598
30	0x3e30524c	0.17218894
31	0xbe6fbbcd	-0.23411484

bias f4 [4]
0	0xbe63f57c	-0.22261614
1	0x3b023297	0.001986658
2	0x3e23558e	0.15950605
3	0xbdf70098	-0.1206066

weight f4 [4, 8]
0	0x3c47ca2e	0.0121941995
1	0xbe73f3d4	-0.23823482
2	0xbcf130a6	-0.029442143
3	0x3e293fa9	0.1652819
4	0x3dc5a18c	0.09649953
5	0x3e96f1f8	0.29481483
6	0xbdcca647	-0.099926524
7	0xbe1e13ab	-0.1543719
8	0x3d52175e	0.051291816
9	0x3ea5c625	0.32377735
10	0x3e4a5d76	0.19762215
11	0xbe7ba12f	-0.24573205
12	0x3e750874	0.23929006
13	0x3eb4b87e	0.35297006
14	0x3e8f416a	0.27979594
15	0xbe9c6d9d	-0.30552378
16	0x3ea64c04	0.3247987
17	0x3e576500	0.21034622
18	0x3d0515b1	0.03249139
19	0x3e548a8e	0.2075598
20	0x3e3c4adf	0.18387936
21	0x3ea9eb63	0.33187398
22	0xbe1b920b	-0.1519243
23	0xbe80f8c4	-0.25189793
24	0x3c7f29e5	0.015573953
25	0xbe84c06b	-0.25928053
26	0xbe00e21f	-0.12586258
27	0xbeac1616	-0.336106
28	0x3d58b0e8	0.052903086
29	0xbe350156	-0.17676291
30	0x3e2f4127	0.17114697
31	0x3e1ff12d	0.15619345

bias f4 [4]
0	0xbe967278	-0.29384208
1	0x3e0d2a92	0.1378577
2	0x3e91a62c	0.28447092
3	0xbe063f8a	-0.13110176

weight f4 [10, 2]
0	0x3effd484	0.49966824
1	0xbebcb646	-0.36857814
2	0x3e486cf0	0.19572806
3	0xbdfccedc	-0.12344143
4	0x3e96d792	0.29461342
5	0x3f0a63b6	0.54058397
6	0x3dbdd5ef	0.0926932
7	0x3ccdc432	0.025117967
8	0xbf251072	-0.6447822
9	0xbf114d1c	-0.56758285
10	0x3edf65b0	0.4363227
11	0x3f15f471	0.58576113
12	0xbf24f71c	-0.6443956
13	0xbf08c986	-0.534325
14	0xb83ee425	-4.5512006e-05
15	0xbed0b8e3	-0.40766057
16	0x3f1e51f1	0.6184378
17	0x3e2a6e83	0.1664372
18	0xbf099a9b	-0.53751534
19	0x3f156aef	0.5836629

bias f4 [10]
0	0xbea46ffe	-0.32116693
1	0x3f0e4a79	0.55582386
2	0x3e5eb0a0	0.21747065
3	0xbc99a69d	-0.018756205
4	0xbf23626d	-0.6382206
5	0xbef52eab	-0.47887167
6	0xbe3ecd22	-0.1863294
7	0xbf1fff2c	-0.62498736
8	0x3e4d87b6	0.20071301
9	0x3ec79e51	0.38987973

weight f4 [10, 2]
0	0x3f355232	0.70828545
1	0xbe4d0cc6	-0.20024404
2	0x3dd5e214	0.104435116
3	0xbe51a42a	-0.2047278
4	0x3e94b827	0.29046747
5	0xbe993b34	-0.2992798
6	0x3e4d2083	0.20031933
7	0x3f20e275	0.62845546
8	0xbdb484ae	-0.08814369
9	0x3edfd6b2	0.43718487
10	0xbee9b3ad	-0.45644894
11	0x3ea924cd	0.3303589
12	0xbe8fd604	-0.28092968
13	0x3f168f98	0.58812857
14	0x3f0e1534	0.55501103
15	0xba7ef353	-0.0009725589
16	0x3dd777c0	0.105208874
17	0xbec32d14	-0.3812033
18	0xbefd283a	-0.49444753
19	0xbe2e4081	-0.17016794

bias f4 [10]
0	0xbd08a6f9	-0.033362363
1	0x3da4bc1f	0.08043694
2	0x3ead7c3d	0.3388385
3	0xbd8a20f6	-0.06744568
4	0x3e2ddb2b	0.16978137
5	0xbeeee8d2	-0.46662003
6	0x3e2b38e9	0.16720928
7	0xbed447e7	-0.41461107
8	0xbf02d485	-0.5110553
9	0xbe49a79b	-0.19692843

weight f4 [20, 4]
0	0x3da85d8c	0.08220968
1	0x3e949b08	0.2902453
2	0x3e9a6114	0.3015219
3	0x3eeb46bb	0.459524
4	0x3f0227a5	0.5084174
5	0xbddfba25	-0.10924176
6	0x3d4273c9	0.047473703
7	0x3e1be5b8	0.1522435
8	0x3ebac3f8	0.36477637
9	0xbebbddb9	-0.36692598
10	0x3e246a22	0.16056111
11	0xbea0e794	-0.3142668
12	0x3eab2b92	0.3343168
13	0xbc95ce52	-0.018286858
14	0xbc322ac8	-0.010874458
15	0xbeea03b1	-0.4570594
16	0x3da76da4	0.08175209
17	0x3ef8bc27	0.4858105
18	0x3e934bad	0.28768674
19	0x3dd2d88a	0.10295208
20	0x3e7fb2fe	0.24970624
21	0x3ec9ac4b	0.39389262
22	0x3e22b1c0	0.15888119
23	0x3ec5d585	0.38639465
24	0xbee5cdc3	-0.44883546
25	0x3e6d2103	0.23157124
26	0x3effdbb9	0.49972323
27	0xbe5e4388	-0.21705449
28	0x3e1a29ad	0.1505496
29	0x3da3bffb	0.07995602
30	0x3ecee20e	0.4040684
31	0x3e871252	0.26381165
32	0x3e8cae0e	0.27476543
33	0xbe04c267	-0.12964784
34	0xbeab7e9a	-0.33495027
35	0xbed11812	-0.40838677
36	0xbed88a45	-0.4229299
37	0xbf038c9f	-0.51386446
38	0xbd312a93	-0.043253493
39	0xbf038fc2	-0.5139123
40	0xbebffe6c	-0.37498796
41	0x3eba80a2	0.36426264
42	0x3e35071c	0.17678493
43	0x3cd9c06f	0.026581017
44	0xbeba85f9	-0.36430338
45	0x3e360753	0.17776231
46	0x3e0eaaaa	0.1393229
47	0x3ea152f5	0.31508604
48	0xbef0ed72	-0.47056156
49	0xbc5f0dca	-0.013614127
50	0xbe6b00bc	-0.22949499
51	0xbeeeb00a	-0.46618682
52	0xbee78e35	-0.45225683
53	0x3f02c14e	0.5107621
54	0xbebafb2f	-0.36519763
55	0xbef666e2	-0.48125368
56	0xbe0814c5	-0.13289173
57	0x3da22320	0.07916856
58	0xbe1de2a9	-0.15418495
59	0x3ee82f69	0.4534867
60	0x3ceb6c1b	0.028738072
61	0x3eac51b5	0.33656088
62	0xbeb92017	-0.36157295
63	0xbe874885	-0.26422516
64	0x3e8aac01	0.27084354
65	0xbe787290	-0.24262452
66	0xbd12fba1	-0.035884503
67	0x3efe5bd2	0.49679428
68	0xbe80fd43	-0.25193223
69	0x3ea9c4ec	0.33158052
70	0xbe8db35c	-0.27675903
71	0x3e5cda52	0.21567658
72	0x3e91eeee	0.285026
73	0x3c9d09f7	0.01916979
74	0xbe28abf8	-0.16471851
75	0x3de81b3c	0.113333195
76	0x3e410547	0.1884967
77	0xbeddb6ae	-0.43303436
78	0xbeec4a2e	-0.46150345
79	0xbec296ee	-0.38005775

bias f4 [20]
0	0x3e10c720	0.1413846
1	0xbeb44b79	-0.3521383
2	0xbd1e97be	-0.03871893
3	0xbe8922e6	-0.26784438
4	0x3ed904b5	0.42386404
5	0xbe76a30d	-0.24085636
6	0x3ef91bc6	0.48654002
7	0xbeda13be	-0.42593187
8	0xbee3e349	-0.44509342
9	0xbeeba30b	-0.4602283
10	0x3e72cd6f	0.23711179
11	0x3dcaed2d	0.09908519
12	0xbed60f07	-0.4180834
13	0xbea5a4c3	-0.32352266
14	0x3da5222d	0.08063159
15	0x3ee9b2e2	0.4564429
16	0xbebbc4af	-0.36673495
17	0xbe307ba0	-0.17234659
18	0x3edcfc35	0.4316117
19	0xbefe6d98	-0.49692988

G f4 [2, 1]
0	0x00000000	0.0
1	0x3f800000	1.0

m1x_posterior f4 [2]
0	0x3ffdafb5	1.9819247
1	0xc009131f	-2.141792

m1x_posterior_previous f4 [2]
0	0xbe9c2b26	-0.3050167
1	0x4000f276	2.0147986

m1x_prior_previous f4 [2]
0	0x3fdada22	1.7097819
1	0xbf6c66e0	-0.92344475

y_previous f4 [2]
0	0x3f1d7923	0.61512965
1	0xbf83eb60	-1.0306206

KGain_array f4 [20, 2, 2]
0	0xbe63595a	-0.22202054
1	0xbeb61236	-0.3556077
2	0x3f7fa777	0.99864906
3	0x3f77a96f	0.9674291
4	0xbe66a6e0	-0.22524595
5	0xbed33b85	-0.41256347
6	0x3f92082a	1.1408741
7	0x3f891b67	1.0711488
8	0xbe66d55f	-0.22542332
9	0xbece3cdf	-0.40280816
10	0x3f8b42af	1.0879725
11	0x3f8470c4	1.0346913
12	0xbe5db9fd	-0.2165298
13	0xbede6dd5	-0.4344317
14	0x3f8fe6ba	1.1242287
15	0x3f89f86e	1.077894
16	0xbe60eebc	-0.2196607
17	0xbee44113	-0.44580898
18	0x3f946d77	1.1595906
19	0x3f8bb2f4	1.0913987
20	0xbe66f3f3	-0.22553997
21	0xbed13987	-0.40864202
22	0x3f8cc279	1.0996848
23	0x3f846be0	1.0345421
24	0xbe65cc1d	-0.22441144
25	0xbec8bc09	-0.3920596
26	0x3f896a31	1.0735532
27	0x3f82c8a0	1.0217476
28	0xbe5e84a3	-0.21730284
29	0xbec5141b	-0.38491902
30	0x3f87a7e8	1.0598116
31	0x3f838e7e	1.027786
32	0xbe55310a	-0.20819488
33	0xbed358d5	-0.4127871
34	0x3f8fc4e3	1.123196
35	0x3f853c9f	1.0409125
36	0xbe687eef	-0.22704671
37	0xbebd8363	-0.37014303
38	0x3f8d7053	1.1049904
39	0x3f80a90b	1.0051588
40	0xbe631f95	-0.22180016
41	0xbec1813b	-0.37793908
42	0x3f875527	1.0572861
43	0x3f808b71	1.0042554
44	0xbe580efd	-0.21099468
45	0xbec1842b	-0.3779615
46	0x3f782765	0.9693511
47	0x3f791cd7	0.9730963
48	0xbe58d4d7	-0.21174942
49	0xbecb68c6	-0.39728373
50	0x3f8bbfbf	1.0917891
51	0x3f87bd69	1.0604678
52	0xbe6bcc6a	-0.23027197
53	0xbeae19a7	-0.34003946
54	0x3f85ef75	1.0463701
55	0x3f8087fa	1.0041497
56	0xbe662d96	-0.22478327
57	0xbeaac858	-0.33355975
58	0x3f7bb20d	0.9831856
59	0x3f7a2fff	0.97729486
60	0xbe5a7b2c	-0.21336049
61	0xbeb51921	-0.35370734
62	0x3f7a076b	0.9766757
63	0x3f7ece23	0.9953329
64	0xbe58e173	-0.21179752
65	0xbec4afa3	-0.3841525
66	0x3f8d42d8	1.1036024
67	0x3f8854eb	1.0650915
68	0xbe670263	-0.22559504
69	0xbeaecaa3	-0.34138975
70	0x3f812fed	1.0092751
71	0x3f7b79c7	0.9823269
72	0xbe566692	-0.20937565
73	0xbec5175b	-0.3849438
74	0x3f8cb2eb	1.0992101
75	0x3f8592cb	1.0435423
76	0xbe5c0082	-0.21484569
77	0xbeb09281	-0.34486774
78	0x3f823463	1.0172237
79	0x3f7a6c54	0.97821546

prior_Q f4 [2, 2]
0	0x3f800000	1.0
1	0x00000000	0.0
2	0x00000000	0.0
3	0x3f800000	1.0

prior_Sigma f4 [2, 2]
0	0x3f800000	1.0
1	0x00000000	0.0
2	0x00000000	0.0
3	0x3f800000	1.0

prior_S f4 [2, 2]
0	0x3f800000	1.0
1	0x00000000	0.0
2	0x00000000	0.0
3	0x3f800000	1.0

h_Q f4 [1, 1, 4]
0	0xbe9189c7	-0.28425428
1	0x3ebf2847	0.37335417
2	0xbe852e7f	-0.26012036
3	0x3f50337c	0.8132856

h_Sigma f4 [1, 1, 4]
0	0x00000000	0.0
1	0x3e79b4d8	0.24385393
2	0x3e80da68	0.2516663
3	0x00000000	0.0

h_S f4 [1, 1, 4]
0	0xbf20de51	-0.6283923
1	0xbe6f19fe	-0.23349759
2	0x3f08e220	0.5347004
3	0xbe67a003	-0.22619633

KGain f4 [2, 2]
0	0xbe5c0082	-0.21484569
1	0xbeb09281	-0.34486774
2	0x3f823463	1.0172237
3	0x3f7a6c54	0.97821546

x_out f4 [2]
0	0x3ffdafb5	1.9819247
1	0xc009131f	-2.141792
