KNet/Linear_SS_With_MM/model_KNet_MM_Linear_Dynamics_T100_v_positive_20dB_best_MSE.pt (torch, 37253 bytes, 42 tensors)

weight_ih_l0 f4 [12, 10]
000000 b7 33 e4 3c c5 97 7e 3e 4d 75 2e 3e f1 0c 90 3d
       0.02785669 0.24862583 0.17036934 0.070337184
000010 e2 10 b5 be f3 15 dc be b1 89 2c 3d 1b 13 f6 be
       -0.35364443 -0.42985496 0.0421235 -0.4806145
000020 7c 1d e1 be 3b 32 c3 3e 49 85 3a be 86 2f b1 3e
       -0.43967807 0.3812426 -0.18214907 0.3460657
000030 bb 55 1d be 48 cf 92 be f0 00 c6 3e 54 c5 97 bd
       -0.15364735 -0.28673768 0.3867259 -0.07410684
000040 a4 5a a1 be 2e 98 58 3e cf c4 17 be 48 b4 ba 3e
       -0.31514466 0.21151802 -0.1482117 0.3646567
000050 8b d3 80 3e 5a be 61 3e 1d a6 b6 3d a6 e4 33 be
       0.25161394 0.2204527 0.08918402 -0.17567691
000060 ec 3c a0 be 96 34 2a 3e 1e 54 79 3e 82 68 d6 be
       -0.3129648 0.16621622 0.24348494 -0.41876608
000070 10 2e 83 be 28 b9 7b be 03 22 99 be 22 99 e5 be
       -0.2562108 -0.2458235 -0.2990876 -0.44843394
000080 74 b4 dc be 86 95 a1 3e f5 fd c0 3e 73 95 e1 3e
       -0.43106425 0.3155939 0.37693754 0.44059333
000090 06 9f b3 3e 2f a4 99 3e 15 fd ca 3e d5 08 bf 3e
       0.35082263 0.30008075 0.3964621 0.37311426
0000a0 2b df f4 3e 63 52 96 3e fc cd da 3e 21 32 9b be
       0.47826514 0.2935973 0.4273528 -0.30311683
0000b0 58 a3 c0 be 5c 74 48 3d d1 8f b6 bd ee f0 e3 be
       -0.3762462 0.048939094 -0.089141496 -0.44519752
0000c0 fe 2c 43 be 3b a0 42 3e 09 e5 28 be d3 5c 19 3e
       -0.19060132 0.19006436 -0.1649362 0.14976816
0000d0 d4 b5 ab bd ed 49 12 be ed 08 d9 be 13 fc 49 be
       -0.0838429 -0.14286013 -0.42389622 -0.19725065
0000e0 82 f8 78 bd 18 8c 9a 3d 53 40 8f be 17 21 20 3e
       -0.06078387 0.07546252 -0.27978763 0.15637623
0000f0 a3 8e 24 3e 4a e8 85 be 6c fc ba 3d e4 89 aa b7
       0.16070037 -0.26153785 0.09130177 -2.032979e-05
000100 03 0d ca be 69 42 d2 3e 0b 6e d1 be bf 64 3e be
       -0.39463052 0.41066292 -0.4090427 -0.18593119
000110 c0 75 d6 3e 04 a3 95 3e fd c7 ba be f2 2d f5 bd
       0.4188671 0.29225934 -0.36480704 -0.11971654
000120 ec 33 0f bd c7 88 3f bc 05 5f f3 3e 06 96 d6 be
       -0.034961626 -0.011690325 0.47533432 -0.41911334
000130 1a 3d ff 3d ed ad b3 be 19 6e dc be 43 06 e1 be
       0.12462826 -0.35093632 -0.43052748 -0.4395009
000140 10 b5 38 be eb f3 c0 be 52 a6 12 3e b6 ff 5c bc
       -0.1803782 -0.37686095 0.14321259 -0.013488701
000150 af 2d d0 3e 5d 1d 23 3e 90 ce a3 be b6 86 41 3e
       0.40659854 0.1592917 -0.31993532 0.18899044
000160 68 84 a0 be 12 cb 3e bd a3 d1 69 3e 8c ab a8 be
       -0.31351018 -0.04658038 0.22833876 -0.3294338
000170 8b 6f fc 3d 23 c9 7d 3d 27 bf 0a be 38 46 de be
       0.12325963 0.061959397 -0.13549481 -0.43412948
000180 60 92 d0 be f4 6c bd 3c 84 c1 e5 be aa 5e a2 be
       -0.40736675 0.023123242 -0.44874203 -0.31712848
000190 2f af b5 bd 74 bc ca 3e 98 03 8b 3e 13 67 96 3e
       -0.08871304 0.39596903 0.2715118 0.29375514
0001a0 cb a8 c1 bd ec 85 dd be 12 86 db be 00 49 b1 be
       -0.09456023 -0.43266237 -0.42875725 -0.34626007
0001b0 df 9d 57 3e 49 2d b5 be e6 80 ff 3e e1 59 c6 be
       0.21056317 -0.35386112 0.4990303 -0.38740447
0001c0 23 1b 59 3e 33 ab a5 be b6 ad e6 be 09 71 d0 be
       0.21201758 -0.32357177 -0.45054406 -0.4071124
0001d0 ec 83 7f 3e 7d 2f c8 3e 9d 4d db 3e fb 26 48 be
       0.24952668 0.3909873 0.42832652 -0.1954612

weight_hh_l0 f4 [12, 4]
000000 f6 79 fb 3e 21 3f c8 be aa 29 c7 be 8a 46 87 3e
       0.49116486 -0.39110664 -0.38898975 0.26421005
000010 99 6c b5 3e 0f c2 ed 3d 1f 25 af be 91 ed a5 3e
       0.35434416 0.11609279 -0.3420801 0.3240781
000020 db 5d e5 3e e1 43 02 be f8 65 c0 be 81 a3 9a be
       0.4479817 -0.12721206 -0.37577796 -0.3020287
000030 02 11 cc be c6 15 9b 3e 6d a5 11 be cd 7e 84 bd
       -0.39856726 0.3029005 -0.14223261 -0.06469498
000040 d3 75 d2 3d 5d 4d b5 be c2 3f 7f 3e 9f 71 ec bd
       0.102763794 -0.35410586 0.24926665 -0.11545109
000050 5b 4c 58 be 66 ec 52 be 56 66 2e be 12 8f ca 3e
       -0.21122877 -0.20597991 -0.17031226 0.3956228
000060 2a f8 c2 3e 25 98 92 3e fc c2 6f bd 68 96 88 be
       0.3807996 0.28631702 -0.05853556 -0.2667725
000070 8b e6 ce be bc a8 b3 3e 3d 67 fc be 03 7b a4 be
       -0.40410265 0.35089672 -0.49297515 -0.321251
000080 b4 28 a0 3e 9f 1c a6 be 70 0b d3 be 0f 8e ab 3e
       0.31281054 -0.3244371 -0.41219664 0.3350682
000090 1a e3 a6 3e 9b 82 8d be 44 d6 e3 be e7 8d 07 be
       0.3259514 -0.27638707 -0.4449941 -0.13237725
0000a0 2c de b2 be 02 b1 c7 be 1e fa 4d 3e 57 16 01 bf
       -0.3493513 -0.39002234 0.20114943 -0.5042471
0000b0 71 98 c1 be a6 ca bd be bc 64 10 be 0e 86 3f 3e
       -0.37811616 -0.3706867 -0.14100927 0.18703482

bias_ih_l0 f4 [12]
000000 a5 9a d6 3e 39 c9 0e be 98 df a6 3d 8a f6 ed bb
       0.4191486 -0.13943948 0.08148116 -0.0072620558
000010 56 88 9e 3d 0e c9 8c be 59 a2 de be ed 07 00 3f
       0.07740848 -0.27497143 -0.43483236 0.50012094
000020 9e b7 56 3d 4e ff c5 bd ee 50 e7 3d 48 e7 72 3e
       0.052421205 -0.09667836 0.11294733 0.2372104

bias_hh_l0 f4 [12]
000000 26 e8 00 3f 4f cc cb 3d 0f fa c0 3e d2 8f a3 3e
       0.5035423 0.09951078 0.3769078 0.31945664
000010 da 64 9d 3e 16 81 90 be 9f bd f2 be 68 78 81 3e
       0.30741006 -0.28223485 -0.47410294 0.25287175
000020 d7 89 14 3e 74 a3 57 3e b6 7b 22 bc 85 15 7b bd
       0.14505707 0.21058446 -0.00991719 -0.06129982

weight_ih_l0 f4 [12, 14]
000000 5b 2a ff bc 7f 6e 5e 3e aa 9b 6d 3e 7b f9 30 3e
       -0.031148126 0.21721838 0.23203912 0.17282669
000010 5c 64 ae 3e ba 04 c9 be 24 8a 80 3e b6 50 9d be
       0.34060943 -0.3926142 0.25105393 -0.3072564
000020 a0 07 64 be 1b 35 a7 be 37 75 56 3e d8 06 f4 3d
       -0.22268534 -0.32657704 0.20943151 0.11915368
000030 6b c4 e7 be ee 5d b2 be 24 d8 7a 3c a7 05 11 be
       -0.45267043 -0.34837288 0.015310321 -0.14162312
000040 0c c8 c1 3e 66 ba 3f ba 39 19 f8 be cc 2d 8b bb
       0.37847936 -0.00073138473 -0.48456743 -0.004247403
000050 f9 dd 21 be bd 48 d1 3e 44 c1 9d 3e a9 ea c9 3e
       -0.15807332 0.40875807 0.30811512 0.39436844
000060 c3 f5 d9 be fc 06 eb bd d8 a5 d7 bd 49 e0 c8 be
       -0.42570314 -0.114759415 -0.10529679 -0.39233616
000070 fa c1 7e bc 77 3c bc be 8e 39 13 bc 12 e0 ae 3e
       -0.015549177 -0.3676488 -0.00898589 0.34155327
000080 6d b2 1b be d3 3a 7b bc 6b 8f e8 3e d6 31 f1 3e
       -0.15204783 -0.015333849 0.4542192 0.47108334
000090 9e 89 26 3d 38 d3 44 be 3e 0c 9d bd a7 c7 bb 3e
       0.040658586 -0.19221199 -0.07668351 0.3667576
0000a0 51 3e a4 3e 3f 39 01 3e 9f 0a 75 3e 74 b1 76 3e
       0.32078794 0.12619494 0.23929833 0.2409113
0000b0 fe bc b5 3e 70 f8 c7 3e 17 04 f8 3e 23 b3 f4 3d
       0.35495752 0.3905673 0.4844062 0.1194823
0000c0 64 ec cc be 0c 1c a2 3e 52 8c 72 3e f4 ea af 3e
       -0.40024102 0.31662023 0.2368634 0.34358943
0000d0 30 49 db be 18 ce 55 be 7e 0b 99 be 96 b6 3f be
       -0.42829275 -0.208794 -0.2989158 -0.18721995
0000e0 e6 d0 21 be 10 2e b7 3e 1c 94 f1 3e fe fc 22 be
       -0.15802345 0.3577733 0.4718331 -0.15916821
0000f0 27 d4 c2 bd 2f 8e db bc 45 7c d0 be b6 8d 25 3e
       -0.09513121 -0.026801197 -0.4071981 0.1616734
000100 9e 5d 4c be b8 d9 8d be a6 d5 55 be 3a b4 c6 bd
       -0.19957587 -0.2770517 -0.20882282 -0.09702344
000110 dc 78 86 3d ce 50 e4 bc b6 eb 86 be d8 35 87 3e
       0.06566021 -0.027870562 -0.26351708 0.26408267
000120 45 2e fd 3d ec 2f 8b 3e 5a ad bf 3e 34 79 db 3e
       0.12362341 0.27185 0.37436944 0.42865908
000130 58 a7 46 be 7b f8 12 3e 96 10 6f be e2 14 9d be
       -0.19399774 0.143526 -0.23346171 -0.30679995
000140 e2 46 88 3e c6 17 f8 3e ab db 29 3e 57 28 80 3d
       0.2661658 0.48455638 0.16587703 0.06257694
000150 d6 e7 ac 3e 75 85 2e 3e 7d 26 ea 3d 9a 3c f2 be
       0.33770627 0.17043097 0.11433122 -0.4731186
000160 72 a5 98 be cf 25 8e bd e4 b5 c2 3e b0 33 ce 3e
       -0.29813725 -0.06940805 0.38029397 0.4027381
000170 b4 15 09 3e 24 26 91 3e a5 07 52 3e 4b e9 e2 3c
       0.13387185 0.2834941 0.20510729 0.027699133
000180 41 98 ac be c5 41 88 3d d7 7f 35 bd f7 e4 0d 3e
       -0.3370991 0.066531695 -0.04431137 0.13856874
000190 0d f3 87 3e cc e9 62 3b 89 76 a2 be bc ab 7a 3d
       0.2655262 0.0034624217 -0.3173106 0.061198935
0001a0 27 08 95 be 60 23 9d 3e 7b 47 3a be c5 fd 87 be
       -0.29107782 0.3069105 -0.1819133 -0.26560798
0001b0 bd 4c 6c be d9 d7 d7 be 77 6a 08 3e 70 76 d0 3e
       -0.23076148 -0.42156866 0.13321863 0.4071536
0001c0 c1 c1 36 be ee 1e 9b bd 98 bf e9 be 61 41 29 3e
       -0.17847349 -0.07574259 -0.45653987 0.16528846
0001d0 a5 e0 b7 3e 46 cf c9 be 34 75 c4 3e 61 02 2b 3e
       0.35913578 -0.3941595 0.3837067 0.16700126
0001e0 e7 f5 35 3e 98 95 4c 3e ed 6c 2a 3e 41 33 d6 be
       0.17769586 0.1997894 0.16643114 -0.4183598
0001f0 dd 4a b6 3e 2f 20 22 3e a6 cd be 3e bc 4f 0d be
       0.3560399 0.1583259 0.37266272 -0.13799948
000200 22 6f e7 bd dd ea a5 be ee da bb be 70 6e b5 bc
       -0.11300494 -0.3240575 -0.36690468 -0.022147387
000210 94 a7 3f be c3 d6 01 3f be fb be 3d dc c0 3a be
       -0.1871627 0.50718325 0.0932536 -0.18237633
000220 57 15 8f 3e cf 00 83 be b4 6a fb 3e 72 e0 af be
       0.27945969 -0.25586554 0.49104846 -0.34350926
000230 dd f9 de 3e b4 d3 82 be 75 04 6f 3e 1e e6 ab 3e
       0.43550006 -0.25552142 0.23341544 0.33574003
000240 9c 51 c9 3e a2 a7 96 3d bf 71 70 3e e3 26 bd be
       0.39320076 0.07356192 0.2348089 -0.3694373
000250 a2 13 ad 3d f5 7c ec 3e ea c3 31 be a0 49 b3 3e
       0.0845101 0.46189085 -0.17359892 0.3501711
000260 6f e5 b7 be 09 13 d5 be 61 79 c3 be 8e dc f5 be
       -0.3591723 -0.41616085 -0.38178542 -0.48019832
000270 73 40 ed be 13 9a df bd cb d5 af be 52 2a ae be
       -0.46338233 -0.10918059 -0.343428 -0.34016663
000280 89 53 e6 be 23 51 9d 3e 2b 09 ac be 11 3a b5 bc
       -0.44985607 0.30725965 -0.33600745 -0.022122415
000290 58 7d dd bd f1 76 9f 3e e4 ef 68 3e fe 30 d9 3e
       -0.10814923 0.31145433 0.22747761 0.4242019

weight_hh_l0 f4 [12, 4]
000000 35 4f 78 be 0c 24 ca 3e c2 a4 b3 3e eb cb 40 be
       -0.24248965 0.39480627 0.35086638 -0.18827789
000010 12 51 a6 3e f1 89 a0 3e 6c 3e 0e be f7 a0 13 be
       0.32483727 0.3135524 -0.13891 -0.14416872
000020 87 9d f0 be fd 3b 47 3e ff 7d aa 3e 2f 94 b4 bd
       -0.46995184 0.19456477 0.33299252 -0.08817326
000030 e1 ac df be 8c f0 2e bd 98 67 41 3d 65 17 fd 3e
       -0.43686584 -0.042709872 0.047217935 0.4943191
000040 87 2d e0 be 70 e0 d1 3c fa f1 fb be 07 9c 8c be
       -0.43784735 0.025619715 -0.4920805 -0.2746279
000050 c3 01 82 3e 23 87 02 bd 80 26 69 3e 99 40 cb 3e
       0.2539197 -0.031867158 0.22768593 0.39697722
000060 e4 c5 eb 3d 06 fa 38 be 8b 55 ec bd d3 43 47 3d
       0.11512354 -0.18064126 -0.115397535 0.048648667
000070 2c ac a2 be 96 e5 00 bf e4 73 92 3e bc 85 a7 3c
       -0.31771982 -0.5035032 0.28604043 0.020449512
000080 45 04 02 3f 91 e4 b3 3e c6 27 8b be 6f a7 00 3f
       0.50787765 0.3513532 -0.27178782 0.50255483
000090 39 ff 7a 3e 83 a8 c9 be 47 26 88 3e 30 3d 4c 3e
       0.24511422 -0.39386377 0.26591703 0.19945216
0000a0 16 08 e4 be 50 ac fa 3e 2a 90 8f 3e 4c c8 db be
       -0.4453742 0.4895959 0.28039676 -0.42926252
0000b0 a7 47 88 3e e2 a7 c2 bd 22 6f e1 be ee 6d 02 bf
       0.26617166 -0.09504677 -0.440301 -0.5094899

bias_ih_l0 f4 [12]
000000 4c cc 5f 3e 6d ca 18 3c ba 34 dd 3e b8 5c bb be
       0.21855277 0.009325606 0.4320429 -0.36594176
000010 35 f4 8e be ad 7b a1 3e 09 49 6d 3e e5 92 04 3e
       -0.2792069 0.3153967 0.23172392 0.12946661
000020 19 b6 81 3e b3 53 7e be 1a f4 01 3f 6c 81 81 be
       0.25334242 -0.24836616 0.50763094 -0.25294054

bias_hh_l0 f4 [12]
000000 18 11 d2 bc dd ee 51 bd 13 99 f5 be 7b 3d db be
       -0.025642917 -0.05125319 -0.4796835 -0.42820343
000010 4a 93 72 b9 cf db 21 be 1b 59 72 bd 81 1c e3 3e
       -0.00023133788 -0.15806507 -0.05916701 0.44357684
000020 a7 c3 b5 bd 04 78 a6 be 31 d9 f2 3e 7c 38 d7 be
       -0.08875208 -0.3251344 0.4743133 -0.42035282

weight_ih_l0 f4 [12, 24]
000000 89 c2 79 3e f5 e1 cb be af 61 12 be 8e 97 cb 3e
       0.24390616 -0.3982083 -0.14295076 0.39764065
000010 3a 31 cd 3d 24 ff e4 be 58 d3 47 3d 6a 10 e6 bc
       0.10019155 -0.44725907 0.048785537 -0.028083999
000020 11 ed 93 3d 1f 76 5e 3d 3e a3 19 be 2a 81 29 bd
       0.07222951 0.054311868 -0.15003678 -0.041382946
000030 66 04 cb ba 4a 4d 8d 3e d2 81 09 3c c6 2a 5a 3e
       -0.0015488982 0.2759803 0.008392768 0.2130538
000040 ba 48 60 be 2b 41 8f 3e 19 dd 98 3d d8 17 6d be
       -0.21902743 0.27979407 0.07464046 -0.23153627
000050 30 32 e1 be 3d 89 8b 3e 55 cc f2 3e 47 c3 73 be
       -0.43983603 0.27253142 0.47421518 -0.23804961
000060 d1 b3 5f be f5 c9 d6 3e d6 3b 11 3e 59 1e 3f 3c
       -0.21845938 0.41950956 0.14182982 0.01166495
000070 28 93 02 be 65 68 db be ab 1a ac be f7 45 4f 3e
       -0.12751448 -0.42853084 -0.33614096 0.20241533
000080 16 87 5c 3d d4 95 ce 3d 56 2c 4c be f3 59 52 be
       0.053839765 0.10087171 -0.19938788 -0.20542125
000090 b8 e3 35 3c 7e ce 27 3e 68 98 c3 be b7 53 18 be
       0.011101656 0.16387364 -0.38202214 -0.14875685
0000a0 a8 35 e6 3e 13 18 4d be 23 2e c0 be 5e df 38 3e
       0.4496281 -0.20028715 -0.375352 0.18053958
0000b0 b8 17 bc 3e 6e 8d ef 3d 47 8c ba 3c 49 cc ba 3e
       0.36736846 0.116968974 0.022771968 0.36483982
0000c0 d9 27 f4 37 2e 36 d3 3e 6c ed 8a be 5d 98 6a be
       2.9105622e-05 0.41252273 -0.27134264 -0.22909684
0000d0 00 a9 48 3e ff 26 a3 be 3f 4f a1 be cc 94 c1 be
       0.19595718 -0.3186569 -0.31505772 -0.37808836
0000e0 00 8f 34 be d2 90 c9 3e 69 b8 c2 bd 9a 20 d1 3e
       -0.17632675 0.39368302 -0.0950783 0.40845186
0000f0 25 4c 28 be 3c 3c a1 be ad 42 22 be 71 d3 ce 3e
       -0.16435297 -0.31491268 -0.15845747 0.40395692
000100 81 a9 4d be 84 05 24 be 4c 3d f2 be a1 9e 84 bd
       -0.20084192 -0.16017729 -0.4731239 -0.064755686
000110 f0 b9 8d bc e9 8e ce bd c2 ae aa 3e 2e c3 e7 be
       -0.017300576 -0.10085852 0.33336455 -0.45266098
000120 cc 02 ae be 14 68 a0 3d 83 c2 13 bd c5 f6 f1 3d
       -0.3398651 0.07832351 -0.036074173 0.11814646
000130 c6 9e 94 bd a1 e3 b9 3e 7a a4 f2 3e ef 29 46 be
       -0.07256846 0.3630648 0.4739111 -0.19351934
000140 42 71 c8 be ab e4 47 3e fe a6 34 3d 39 7a c1 3e
       -0.3914891 0.19520824 0.04410457 0.3778856
000150 ff c0 9f 3e 8c e6 9e be 39 13 f9 be 3b 08 ef be
       0.31201932 -0.31035268 -0.48647478 -0.46685967
000160 88 40 70 3d 76 e6 21 be 76 bc 23 bd 22 66 e8 be
       0.05865529 -0.1581057 -0.039974652 -0.4539042
000170 21 ff 43 3e 3a 85 56 3e 08 06 b2 be 8a 70 27 3e
       0.19140293 0.2094926 -0.34770226 0.16351524
000180 82 f4 8d 3e 97 75 b0 bd 8c 9c 7e 3e 4a 89 a3 3d
       0.27725607 -0.086161785 0.24864405 0.0798517
000190 7d ea 05 3e 3a 6f ac be 57 5c c7 3c 85 67 55 3e
       0.13077731 -0.3367861 0.024336023 0.20840271
0001a0 f7 95 f8 3e cd ad f3 be f6 82 bf be fe 56 26 3c
       0.48551914 -0.47593537 -0.37404603 0.0101525765
0001b0 37 d2 58 bd d8 68 fe 3d 0d 17 bd be ef f4 f1 be
       -0.05293485 0.12422341 -0.3693165 -0.47257182
0001c0 ad 75 b9 3e 2e 8b 39 be f1 e5 27 bb 89 69 8b 3e
       0.36222592 -0.18119499 -0.0025619233 0.27228954
0001d0 7a 18 79 3e e8 f8 cb be 8a 54 f9 3c 9c 53 d3 3e
       0.24325743 -0.39838338 0.03043582 0.41274726
0001e0 4f 6a d2 be 38 20 fc be dc 4b 9b bd d7 cb a2 be
       -0.41096732 -0.4924333 -0.075828284 -0.31796142
0001f0 73 bc 9c be 5f 15 e9 3e ed 43 fa be 2d d6 00 bf
       -0.30612525 0.45524117 -0.48879948 -0.50326806
000200 ad 74 c1 bd 0f 5f 92 3e 05 9e aa be 41 69 df be
       -0.09446082 0.2858815 -0.33323684 -0.4363499
000210 e6 85 01 bf 41 8f ad 3c 54 38 1b 3d 51 41 ae 3d
       -0.5059494 0.021186473 0.037895516 0.08508552
000220 79 18 84 be bd 83 ad be 84 63 41 3e b3 2a d8 3e
       -0.2579992 -0.3388957 0.18885618 0.42220077
000230 58 14 dd 3e fb b4 a3 be a5 c4 8c 3e 56 ba f5 be
       0.43179584 -0.31974015 0.27493778 -0.47993726
000240 17 cd 6a be 2a d7 8d be c5 78 ec bd 4c e7 b4 be
       -0.22929798 -0.2770322 -0.115464725 -0.35332716
000250 67 81 e6 3e 9f 94 fb 3e 17 0b dc be f4 75 95 3d
       0.450206 0.49136826 -0.4297721 0.072978884
000260 a9 c5 ca 3d 7c b9 80 3e 2f 26 80 be 9f fd ad 3e
       0.09900982 0.25141513 -0.25029132 0.3398256
000270 15 9d a6 bd c2 20 df be 9f 58 03 bf 52 50 a6 bc
       -0.0813543 -0.4357968 -0.513071 -0.020301972
000280 56 0a ac 3e 75 35 a8 3e f8 c9 a5 be 2d c6 7d 3e
       0.33601636 0.32853284 -0.32380652 0.2478263
000290 73 55 64 be 2f 92 af bd f9 61 f5 be 16 9a b8 3b
       -0.22298221 -0.08572804 -0.4792631 0.005633603
0002a0 22 92 b2 3e a7 ae e8 3e 55 bc 76 3e f1 b2 23 bd
       0.34877115 0.4544575 0.2409528 -0.039965574
0002b0 7d e4 da bd 61 54 2a bd 32 1e e8 3e da f3 b5 be
       -0.10688112 -0.041584376 0.45335537 -0.35537606
0002c0 5a eb 1c be 75 8c 5f be c8 bf 46 3e 87 fc 26 be
       -0.15324154 -0.21830924 0.19409096 -0.16307269
0002d0 e9 81 db 3e d2 ae 84 be d7 7e 84 3d ab 49 bd be
       0.4287255 -0.25914627 0.06469505 -0.36970267
0002e0 45 ae 15 3d aa 36 85 bc bb 4c 92 3e 0a 13 1e 3e
       0.03654315 -0.016261417 0.28574166 0.1543695
0002f0 15 b6 b9 be 01 0d 93 bd fa 58 aa be c9 e9 c1 be
       -0.3627173 -0.07180215 -0.3327101 -0.37873676
000300 7f a3 91 be a6 be 9a 3c d6 9b a3 be 20 23 2e be
       -0.2844505 0.018889736 -0.3195483 -0.17005587
000310 ba 89 50 3e bd 28 52 3e d2 bb f3 be 7c 1d 03 3f
       0.20365039 0.20523353 -0.47604233 0.51216865
000320 3e b3 ea be bc 9f 90 3b 4b e6 33 bc c7 de 1a 3d
       -0.45839876 0.004413573 -0.010980199 0.037810113
000330 b8 d4 cc be 6e d6 af 3e d7 2f 63 3e b3 f9 e8 3c
       -0.40006042 0.34343284 0.22186218 0.028439378
000340 4a 5b f3 3e 4e 21 65 3c 0a cc 1c 3d ad 3a 8f be
       0.47530586 0.013984991 0.038280524 -0.27974454
000350 aa 48 42 be 40 b2 9d 3e 3a 25 6a 3e ac 11 9d 3e
       -0.18973032 0.30800056 0.22865763 0.30677545
000360 00 8e d3 3e 20 31 79 3e ec fd 75 3c 1a db 7f 3d
       0.41319275 0.24335146 0.015014153 0.06246481
000370 bc 81 68 3e 71 3d 9c 3e 70 6f dc be ab 96 4f 3e
       0.2270574 0.30515626 -0.4305377 0.20272319
000380 ce 85 e1 be 69 0d 6c be 8e e5 5c 3c a0 fb a7 3e
       -0.44047397 -0.2305199 0.0134824645 0.32809162
000390 21 51 a7 3c 59 d0 30 bd 96 1c 85 be 0f 1f ce be
       0.020424427 -0.043167446 -0.25998372 -0.4025807
0003a0 4c 1b ee be 13 2f 97 bd a7 95 91 3e c8 e4 e1 3d
       -0.465052 -0.073820256 0.28434488 0.11029965
0003b0 d6 24 17 be 96 ca 35 3e 44 7c 8d 3d 49 52 ce 3e
       -0.14760146 0.17753062 0.069084674 0.40297154
0003c0 c2 d1 b7 be 56 12 da 3e 58 54 bb be 20 51 eb be
       -0.3590222 0.42592114 -0.36587787 -0.4596033
0003d0 7e 27 bd bd 72 f3 66 be c1 82 b8 be a0 89 db 3d
       -0.09236048 -0.22553805 -0.36037257 0.10719609
0003e0 9d 89 97 bd c4 82 bf be 2d 10 23 3e 84 72 ec 3d
       -0.073992945 -0.37404454 0.1592414 0.115452796
0003f0 2b 38 bf be 9c 30 c7 3e 17 82 d8 3e 39 51 87 be
       -0.3734754 0.38904274 0.4228675 -0.26429155

weight_hh_l0 f4 [12, 4]
000000 3b 4f ef 3e 3a d9 25 3e da c1 4a be 67 84 9b bc
       0.46740136 0.16196147 -0.19800511 -0.018984033
000010 16 ae cb be 11 22 4e 3e 5b 85 e8 be a3 99 9c 3e
       -0.39781255 0.20130183 -0.45414242 0.30585966
000020 5a 0a 48 3e d9 52 de 3e bd 22 6c 3e 40 a4 c7 be
       0.19535199 0.43422583 0.23060127 -0.389925
000030 c2 8d af 3e 3a cb 9f bd e0 c8 e0 bd 25 59 3a 3e
       0.3428784 -0.07802434 -0.10975814 0.18198068
000040 3b a3 3e be c6 ed ed bd 22 f8 05 3c c3 8c da 3d
       -0.18616955 -0.11617617 0.008176835 0.106713794
000050 e1 3b f4 be 54 ad 3f 3e ef f2 46 3e 7f ae 88 bd
       -0.47701934 0.18718463 0.1942861 -0.066739075
000060 dd c0 95 3d fe 43 34 be 92 81 f2 3e fb f6 9a 3e
       0.073121764 -0.17604062 0.4736448 0.30266556
000070 c8 76 1d 3e e7 33 bf 3e 0e c9 86 3e a6 15 00 bf
       0.15377343 0.37344286 0.26325268 -0.5003303
000080 12 85 4e be 67 47 e4 3e d5 de c7 3e 10 34 d5 bd
       -0.2016795 0.44585726 0.39037195 -0.10410321
000090 c7 5c 52 3e 78 0b 9b be 7c ba 72 bd a2 04 80 3d
       0.20543204 -0.30282187 -0.059259877 0.06250884
0000a0 d5 57 b2 3e de 97 fd be fe 23 8b be 4a e8 e7 3e
       0.34832636 -0.49529928 -0.27175897 0.4529441
0000b0 2d e3 d6 be 42 e1 99 3e 24 b8 c5 be d0 fe c2 3d
       -0.41970196 0.3005467 -0.3861705 0.09521258

bias_ih_l0 f4 [12]
000000 8b 26 f9 3e d2 bb 51 3e d3 c5 e8 3e a1 75 e2 be
       0.48662218 0.20481804 0.45463428 -0.4423037
000010 f2 54 5a 3e ec a6 99 be 33 94 17 3c 22 b7 98 3e
       0.21321467 -0.30010164 0.009251642 0.2982722
000020 d8 58 93 3e 61 e3 f2 3e cd d6 0f bd ec 78 5c 3e
       0.2877872 0.474391 -0.03511696 0.21530503

bias_hh_l0 f4 [12]
000000 b1 a5 17 3e 46 95 94 be 9d 90 de 3e b7 22 14 be
       0.148093 -0.29020137 0.43469706 -0.14466368
000010 d7 e9 f4 3d d6 3c fa 3e f8 d2 a9 3d b7 be 49 3d
       0.11958664 0.4887454 0.08292192 0.049254145
000020 3e 20 63 3e 26 3a 28 bb 8c dd 1f bd b4 b0 e2 3e
       0.22180268 -0.0025669425 -0.039029643 0.4427544

weight f4 [4, 4]
000000 a9 93 cd be 03 69 a7 3e 15 65 75 3e 71 e2 ee 3d
       -0.40151718 0.32697305 0.23964341 0.11664284
000010 a0 36 5a 3e 1a 4b 30 be c2 32 dc 3e d8 f5 ec 3e
       0.213099 -0.17216149 0.43007475 0.46281314
000020 22 65 4f bd 37 19 11 bd 47 ac 87 3d b5 1f ea 3d
       -0.050633557 -0.035424437 0.06624656 0.11431829
000030 64 90 76 3d db 2d d6 3e 78 df 6b 3e 55 3b 97 3e
       0.060196295 0.4183186 0.23034465 0.29537454

bias f4 [4]
000000 b5 0b bc be 75 46 2f be 38 be bf 3e 84 f6 50 be
       -0.36727682 -0.17116721 0.37449813 -0.20406538

weight f4 [320, 8]
000000 b0 4d 0f 3e f5 d4 91 3e 8f ce 99 3e c2 47 ac 3d
       0.13994479 0.28482786 0.30040404 0.08412124
000010 c7 c7 f5 bd c3 ff 8a bd 69 4e 9a 3e 41 a9 33 3d
       -0.12000995 -0.06787064 0.30137947 0.043862585
000020 1e c4 4b be 8f 77 69 be 56 96 d2 bd 03 92 67 be
       -0.19899032 -0.22799514 -0.102825806 -0.22614293
000030 73 f6 d6 bc c9 89 b1 3d 9d fd 70 be 51 94 74 3c
       -0.026240563 0.086688586 -0.23534246 0.0149279395
000040 d3 a3 b7 3e 2f 22 5c be bd ed 9a bd 53 99 90 be
       0.35867175 -0.21497415 -0.07564876 -0.28241977
000050 48 e0 3b 3d fe 0b 1a be 4f 69 42 3e 69 4d 66 be
       0.04586819 -0.15043637 0.18985485 -0.22490467
000060 c1 3a a0 be eb 20 cc bd b1 4a b0 3e 07 77 98 be
       -0.31294826 -0.09967216 0.34431985 -0.2977831
000070 fb 82 a3 3e 2d a6 9f 3e 10 df 04 3e 87 25 2b bd
       0.31935868 0.3118147 0.12975717 -0.041783836
000080 4e 7e a6 be d0 8f f2 bd 78 b4 79 3e ae cb a0 3e
       -0.32518238 -0.11843836 0.2438525 0.31405395
000090 4c 5a fc 3b 6d 04 c5 3d f1 0e 4b bd 96 dc 39 3e
       0.007701194 0.09619985 -0.049574796 0.18150553
0000a0 25 6b 98 be bf 9a 97 be f7 2f 8d 3e 2c e5 18 3e
       -0.29769245 -0.2961025 0.27575657 0.14931172
0000b0 f9 53 b0 3e 9f 72 b1 3d 8c 86 19 3e c8 70 0c 3d
       0.34439066 0.0866444 0.14992732 0.034287244
0000c0 d1 b0 18 be 76 e7 65 3e 6f 6b 58 3e 83 33 84 3e
       -0.149112 0.22451577 0.21134733 0.2582055
0000d0 69 7e 89 be 1e a6 8b 3d 0e d4 8f 3e 1d 80 46 3c
       -0.26854256 0.06818794 0.28091472 0.0121155055
0000e0 74 3e 96 be 2f 79 10 3d e5 a4 b2 3c 7c 51 62 3e
       -0.29344523 0.03527182 0.021807143 0.22101396
0000f0 70 e3 a7 3a 0e 2d 89 bd 2c 72 94 3e 38 ee e8 bd
       0.001280887 -0.066980466 0.28993356 -0.113735616
000100 6f 4c 85 be 74 c1 08 be 7f f8 88 be 5b 45 2f 3e
       -0.26034877 -0.13355047 -0.26752087 0.17116301
000110 6e 31 2c 3a 37 ee 9a 3e d6 a8 a4 bd a3 5e 80 3e
       0.0006568645 0.30259869 -0.080400154 0.25072202
000120 93 2d 99 3e 85 03 06 3e ae f1 28 3e d8 92 ed bd
       0.29917583 0.1308728 0.16498443 -0.11600274
000130 d3 b5 a4 3e 0c d6 91 bd 6c 6e 3e 3e 88 c1 0e be
       0.3216997 -0.07120904 0.1859681 -0.13941014
000140 19 0d 88 3e 3c 26 8b be cd cb 0d be e1 fb 6f be
       0.26572493 -0.27177608 -0.13847275 -0.23435928
000150 45 b6 8a 3e c5 cf a7 be 9b 3c 5f 3e c7 9a 73 3e
       0.27092186 -0.32775703 0.21800463 0.23789512
000160 f3 da 2d bd 54 a3 75 bd 35 aa 57 be 32 24 95 3d
       -0.042445134 -0.059970215 -0.21061023 0.07282294
000170 23 29 5e bd 96 e0 07 bc 5d 06 6e be 3f 47 80 3e
       -0.05423845 -0.008293292 -0.23244615 0.25054356
000180 b4 7c 0b ba d5 46 9a be 27 af a2 3d 9f 18 88 3e
       -0.00053210114 -0.30132166 0.07943564 0.26581284
000190 28 16 24 bd 76 f2 33 3e 2a 72 09 39 d2 20 84 bd
       -0.040060192 0.1757296 0.00013107868 -0.064515725
0001a0 e3 ba 46 3e a0 da 53 be f3 c9 50 3d c2 cc 92 be
       0.19407229 -0.20688868 0.050973844 -0.28671843
0001b0 95 c6 b3 3d 1e d9 46 be df b0 d5 bd a3 5a 49 be
       0.08778111 -0.19418761 -0.10434126 -0.19663481
0001c0 21 8a c6 bd f3 83 87 3e f1 36 ed bd b3 77 58 be
       -0.09694315 0.26467857 -0.11582745 -0.21139412
0001d0 04 e6 51 bb 64 02 99 bd f4 61 9b 3e e9 94 38 bd
       -0.003202797 -0.07471159 0.3034817 -0.045063887
0001e0 28 e0 92 3e bc 38 a3 3e b3 43 88 bd 0b 23 89 3e
       0.28686643 0.31879222 -0.066535376 0.26784548
0001f0 47 fc 5c 3e 1f fe a6 be 42 87 a2 3e 78 c7 e6 bd
       0.21580611 -0.32615754 0.3174382 -0.112685144
000200 7f 43 07 3e e8 a1 59 be 28 78 58 3e 3a c4 ef 3d
       0.13209341 -0.21253169 0.21139586 0.11707349
000210 c5 e9 c7 3c 3a 24 63 be 3d e7 1f 3e 67 a7 6d 3c
       0.024403462 -0.22181788 0.15615554 0.014505244
000220 b9 65 7a be a4 e3 8f be 4c 0a 16 3e 0a 89 73 3e
       -0.24452867 -0.28103364 0.14652365 0.23782745
000230 ff 04 91 be bd 83 95 3e 8e e8 5d 38 78 24 78 be
       -0.28324124 0.2920207 5.290709e-05 -0.24232662
000240 00 38 20 be 1c 28 93 be 6a ff 6a 38 db 04 2d 3e
       -0.15646362 -0.2874154 5.602782e-05 0.16896383
000250 4b 7b 2f bd ee c5 15 39 9b 4d 8a be 35 65 ac bd
       -0.04284219 0.00014283482 -0.27012333 -0.08417741
000260 b3 10 82 3e 86 0c b3 3e 64 9e 21 3c 2e c8 8b 3e
       0.25403365 0.34970492 0.009864423 0.27301162
000270 00 69 8c 3e af c1 45 bd 82 8d f3 bd f4 b0 83 3d
       0.2742386 -0.048280414 -0.11892225 0.064302355
000280 a0 b4 87 bd 73 81 95 3c 35 0b 81 3e 86 58 92 3e
       -0.06626248 0.018250203 0.25203863 0.28583163
000290 4f 98 76 3e a2 d1 43 3d 64 b6 7a be f0 37 b6 bd
       0.24081539 0.047807343 -0.24483639 -0.08897388
0002a0 81 ba 83 3e 80 e5 98 be aa 05 96 b8 72 ac 59 3d
       0.2572823 -0.29862595 -7.1536124e-05 0.053142972
0002b0 2d 12 1d 3a 1c 5a 6c bd 63 78 85 bd 09 79 97 ba
       0.0005991783 -0.057703122 -0.065171026 -0.0011556457
0002c0 db 8e 0d 3e 71 b5 95 3e bb 27 51 be 7f 3b 6b bc
       0.13824026 0.2923999 -0.20425312 -0.014357447
0002d0 dc 2a 99 bd 61 29 95 3e 62 10 1d 3e 18 d9 b7 be
       -0.07478878 0.29133132 0.15338281 -0.35907817
0002e0 86 67 42 3e 26 75 70 be 8a 28 73 be 8a 53 26 3e
       0.18984804 -0.23482189 -0.23745933 0.16242805
0002f0 74 fa 65 3e 5d b4 a6 3e 96 9f 92 be 2d 3c 1e 3d
       0.22458822 0.3255948 -0.2863738 0.038631607
000300 3a 42 15 3e 54 2f 35 be a5 e8 ed 3a 57 94 1d be
       0.14576045 -0.17693835 0.0018150999 -0.15388618
000310 ed e4 6a 3e 2d e6 95 be 04 da ea bd a8 88 ad bd
       0.22938891 -0.29277173 -0.114673644 -0.08473331
000320 42 02 86 be 69 f3 0e bd 63 7d 7c 3e c7 43 25 be
       -0.26173598 -0.034900103 0.24657206 -0.16139136
000330 f1 5a 50 be 36 ea 6c be 83 85 49 be 06 88 7a be
       -0.20347191 -0.2313622 -0.19679837 -0.24465951
000340 24 83 4b 3e 09 92 1f 3d 33 70 bd 3c 9f a4 84 be
       0.19874245 0.03895763 0.02312479 -0.25906846
000350 4a d4 44 3e 06 b1 9f be 0f 2b d0 bd 0f e8 c9 3d
       0.19221607 -0.31189746 -0.10164463 0.09858715
000360 2f 01 3a 36 0b f5 d9 bd 0c 58 77 3d c4 54 19 be
       2.7716849e-06 -0.10642441 0.060386702 -0.14973742
000370 a6 9e 2b 39 fe 45 2c bd 38 ee 59 b8 c3 40 ba bd
       0.00016366932 -0.042058937 -5.195869e-05 -0.090943836
000380 07 7b fb bd 6f 34 9e 3e 08 cc 9a be 5b 24 c0 3d
       -0.12279325 0.3089938 -0.30233788 0.09381934
000390 bc 76 0e 3e e0 0c a5 3e 60 18 eb bd 74 17 a1 be
       0.13912481 0.32236385 -0.114792585 -0.31463206
0003a0 40 8d c0 3a 77 4e 9b bd 46 17 1d be e0 d4 8d ba
       0.0014690533 -0.07583325 -0.1534091 -0.0010820888
0003b0 81 6e e5 bd e1 b3 8f be 53 25 44 be 49 ab 5b 3e
       -0.112027176 -0.28066924 -0.19154863 0.21452059
0003c0 df 7e 2b 3d c5 32 61 3e 79 8d 25 be ab ed ac bd
       0.04186904 0.21992023 -0.16167249 -0.08443769
0003d0 bb 75 80 3e f5 76 84 3e 71 5a 44 3e ed b8 e5 3d
       0.2508982 0.25872007 0.19175126 0.112169124
0003e0 bc 33 5b be 06 dc 7d 3e 5c 29 a0 3e 19 e2 98 be
       -0.21406454 0.24790964 0.31281555 -0.2986
0003f0 00 ad 30 bd 8a a2 a8 3e a0 82 98 3e 80 2d 66 bc
       -0.043133736 0.32936507 0.2978716 -0.014048934

bias f4 [320]
000000 76 ee 9c be d3 dd 1d 3e 6e cb af bd b6 24 b0 3e
       -0.3065068 0.1541665 -0.08583723 0.34403008
000010 4d 38 f4 bd a1 6f dc 3c ae 9c a8 b9 cb ec 12 be
       -0.11924801 0.026908698 -0.00032160192 -0.14348142
000020 f5 b1 32 be 93 f1 70 be 40 1c 39 3e 11 6e 94 3c
       -0.17450698 -0.23529653 0.18077183 0.01811889
000030 7f ae 4b be ab be d0 bb 71 8b 98 3e b9 0c 92 3c
       -0.19890784 -0.0063703856 0.29793885 0.017828332
000040 90 dc 56 bd 5d f6 26 be ff 90 77 be b2 a7 fa bd
       -0.05245644 -0.16304918 -0.24176405 -0.122390166
000050 01 2c b4 bd 40 14 56 be 5b d2 6c bd bf 8a 76 bd
       -0.087974556 -0.20906162 -0.057817798 -0.060190912
000060 54 0a a1 3e 58 9b 8c bd 41 f2 2b 3e 9c b7 3d be
       0.31453192 -0.06865567 0.16791631 -0.18527073
000070 97 35 29 3e f6 27 75 3c e8 c7 ee 3d a5 44 8c 3d
       0.16524349 0.014963141 0.11659223 0.068490304
000080 cc c8 1b bc fa f7 90 3e 38 be 8b bd aa 94 22 bd
       -0.009508323 0.2831419 -0.06823391 -0.03969256
000090 4e d5 df 3c 6d 97 35 3e 39 87 42 3e 5f 3f cc 3d
       0.027323391 0.17733546 0.18996896 0.099730246
0000a0 d5 9b 99 3e 5c 75 08 be f2 9a 5d be 94 e9 98 bd
       0.30001703 -0.13326019 -0.21641138 -0.074664265
0000b0 6c 24 ed bd 6f 0e 69 be 3c b7 38 be 9c 4f 35 be
       -0.115792125 -0.22759412 -0.18038648 -0.1770615
0000c0 ca 01 4a be 99 21 4d 3d 49 4e bf 3d e5 24 f4 bd
       -0.19727245 0.05008087 0.093411036 -0.119210996
0000d0 1f 43 65 be c7 3e c9 bc d5 b9 25 3e 62 7e 65 3e
       -0.22388886 -0.024566067 0.1618417 0.22411492
0000e0 6b 20 24 be 07 2f 3b bd 69 d6 b9 3e c6 9a 11 3c
       -0.16027991 -0.045699146 0.36296394 0.0088869985
0000f0 85 f9 3e be 96 df 12 3d 8b 8d 54 be cf fe af be
       -0.18649872 0.03585776 -0.2075712 -0.3437409
000100 d2 af 95 3e 2c c0 52 be 69 24 4b be 6b d0 c2 3d
       0.29235703 -0.2058112 -0.19838108 0.09512409
000110 ef 13 36 3c f4 53 53 be cf 87 29 3e 78 6d 3a 3e
       0.011113151 -0.20637494 0.16555713 0.18205822
000120 7f ac 6d 3e 1e c6 2e be 61 e5 90 3c 5d e2 7f be
       0.23210333 -0.17067763 0.017687501 -0.24988694
000130 00 df b3 3e 72 34 71 3d 3a 1a a9 3e 8c 4c af 3d
       0.35131073 0.058887906 0.33027822 0.08559522
000140 fd 91 c6 3d 5a 8b c8 bd e0 86 d1 3c 41 ac d3 3d
       0.09695814 -0.09792204 0.025577009 0.10335589
000150 b0 ce 39 be d0 66 24 3e 31 2c 5b bd 6c 33 3c be
       -0.18145251 0.16054845 -0.05350894 -0.18378991
000160 26 59 83 3d 41 a5 c0 3d 73 9d 04 be 6a b7 6e bd
       0.06413488 0.0940652 -0.12950687 -0.058280386
000170 3d 9c 41 3d 7d fb 85 be b5 df 6d 3e 65 91 8d be
       0.04726814 -0.26168433 0.23229869 -0.2764999
000180 e2 f5 a7 3d ff 86 b9 3d 92 9e a1 3e 6f 16 7a 3e
       0.08201195 0.090589516 0.31566292 0.2442262
000190 28 6c 93 be 69 e9 93 be 94 57 03 3e 13 56 b7 be
       -0.28793454 -0.28889015 0.12826377 -0.35807857
0001a0 62 df f0 3d 98 21 15 3c 80 20 a1 3d 82 b0 9c 3e
       0.11761357 0.009102248 0.07867527 0.30603415
0001b0 97 5a b0 bd 58 1f 35 3e 1a c0 a4 3d cf 73 9d 3e
       -0.08611029 0.17687738 0.08044453 0.30752417
0001c0 6e 7f 80 3e 32 cc 48 bd c1 fb 5e 3e 3d 6b 8a be
       0.2509722 -0.04902286 0.21775724 -0.2703494
0001d0 d4 4e 8d be d0 6b b4 bd a2 b2 90 3c 7e 32 8b 3e
       -0.27599204 -0.08809626 0.017663304 0.2718696
0001e0 60 b8 09 be 8a 3a 6e bd 5c 1a 9b 3d 1a b6 28 be
       -0.1344924 -0.058161296 0.07573387 -0.16475716
0001f0 ca b4 a9 3e bc 32 47 3e ee 41 ae 3e 07 c7 70 be
       0.33145744 0.19452947 0.34034675 -0.23513423
000200 4d 14 49 be 1d c3 88 be 92 a7 78 be 78 be 1c be
       -0.1963665 -0.2671136 -0.24282673 -0.15307033
000210 14 94 92 3c df c6 2e bd f6 ee 98 3d 1d bc aa 3e
       0.017892875 -0.042670127 0.07467453 0.33346644
000220 73 a8 c0 3d ff 21 43 be 47 d3 7b 3e f3 d2 34 ba
       0.09407129 -0.19055937 0.24592315 -0.0006897889
000230 35 80 2e be ed 17 60 be 4e be c5 bd 04 b8 82 bd
       -0.17041095 -0.21884127 -0.09655438 -0.063827544
000240 0f c9 6b be 12 fb 03 be 17 d0 4a be 4a 50 91 be
       -0.23025917 -0.12888744 -0.19805942 -0.28381568
000250 45 27 93 be 7a dd 84 be d1 80 56 3e 9d 8f 49 3c
       -0.28740898 -0.25950223 0.20947577 0.0123023065
000260 37 58 15 be 3b da a4 3e 96 8f 62 b8 87 63 72 be
       -0.14584433 0.32197747 -5.4016324e-05 -0.23670779
000270 e1 03 b6 3e e3 e5 7a be dc c0 a7 be f2 58 6b be
       0.35549834 -0.24501757 -0.32764328 -0.22983149
000280 3c 63 ae bc a0 d8 82 be f5 97 df 3d 72 3f 69 3e
       -0.021287553 -0.25555897 0.109176554 0.22778109
000290 06 01 2f 3e 60 c3 86 be 9f da 3b 3e 9d a1 14 3e
       0.17090234 -0.26320934 0.18345116 0.14514776
0002a0 e4 52 4e 3e 9f 89 8b 3e 6f 08 df bc b6 e0 b9 3e
       0.20148808 0.27253434 -0.027225701 0.36304253
0002b0 23 a9 83 be 2b bb aa bc 8e 55 9e 3e 61 51 34 be
       -0.2571498 -0.020841202 0.30924648 -0.17609169
0002c0 67 dd aa bd 10 e0 83 3e cb 65 b7 3d 11 ee 73 be
       -0.083430104 0.25756884 0.08954962 -0.23821284
0002d0 05 cc fb bb f7 04 0e 3d 37 93 0f 3c 83 e6 7a 3e
       -0.007684233 0.034672704 0.008763126 0.24501996
0002e0 ba a0 60 bd 79 68 2e 3d 6d 74 af 3e 24 c8 7d 3e
       -0.05484078 0.0425801 0.34268513 0.24783379
0002f0 37 15 58 be ec 3b 00 3d 27 a4 95 be b7 ae e6 3c
       -0.21101843 0.031307146 -0.292268 0.028159482
000300 af d2 5b be ed 6c 4a 3d c7 7a 2b 3c 9f b0 7e be
       -0.21467088 0.049420286 0.010466284 -0.24872063
000310 41 ef 54 3e e5 9f 67 3d 96 e0 ad 3e 43 fd 7c 3e
       0.20794393 0.05654897 0.33960408 0.24705987
000320 3e df 37 3d 8d 39 27 be 8f f9 75 bd ec bd 27 be
       0.044890635 -0.16330548 -0.06005245 -0.16381043
000330 16 3c 44 be 13 96 8b be 61 a5 67 3d 9b b2 76 bd
       -0.19163546 -0.27262935 0.056554202 -0.060228925
000340 e6 52 7e 3e 4e 03 26 be e8 da 52 3e f8 da ac ba
       0.2483631 -0.16212198 0.20591319 -0.0013187816
000350 53 27 f6 3d 48 e8 90 3e 59 29 d9 3c f1 ed 9f 3e
       0.12019219 0.28302217 0.026508974 0.31236222
000360 b4 8f 55 3e 5b 86 97 3e 18 16 1a be be 0a 50 be
       0.208556 0.29594693 -0.1504749 -0.20316598
000370 74 5a 7d be 2e e8 50 3e c8 92 bb be c3 24 a4 3e
       -0.24741536 0.2040107 -0.36635423 0.32059297
000380 22 fe 97 3e 29 16 77 be 9e 61 96 3e 7f 65 a2 3e
       0.29686075 -0.24129547 0.2937135 0.3171806
000390 71 da 46 3e 99 56 f3 bd a9 61 13 3e 37 4f 90 3e
       0.19419266 -0.118817516 0.14392723 0.28185436
0003a0 19 f8 2c bd 80 f7 d1 3d bb f6 94 3e d5 b4 10 3e
       -0.042228792 0.10252285 0.2909449 0.14131482
0003b0 1e 34 b7 3e b0 ea 09 be b8 e2 52 be a8 df eb bd
       0.3578195 -0.13468432 -0.20594299 -0.115172684
0003c0 66 5e 0b be 43 49 61 be 03 63 ac 3e b1 fb a5 3e
       -0.13610229 -0.22000603 0.3366929 0.32418588
0003d0 05 00 05 3e 7e 31 ac be 9f d7 f4 3d 08 13 86 3e
       0.12988289 -0.3363151 0.11955189 0.26186395
0003e0 95 cd 8c 3e 96 28 82 3e 08 b5 8f bc 0c 1d 70 be
       0.27500597 0.2542159 -0.017542377 -0.2344858
0003f0 bf d9 e2 3d e1 aa 67 bd 3e 40 72 be 71 ac 70 3e
       0.11076688 -0.056559447 -0.23657319 0.23503281

weight f4 [4, 320]
000000 74 2f 0d 3c 2f 8b 2d 3d de b5 b8 bb 3b 3b a1 bb
       0.008617271 0.042369064 -0.0056369146 -0.004920391
000010 60 95 04 bc 57 7d 86 3d 98 c5 cc 3b a0 71 41 38
       -0.008092254 0.065668754 0.006249141 4.6120607e-05
000020 b5 9c b8 bb 9b f9 03 bd 59 0f 5f 3d e5 88 32 bd
       -0.0056339153 -0.032220464 0.054457996 -0.043587584
000030 37 83 1f 3a 81 1a 2b 3c 16 dc 00 bc 9d 23 2e 3d
       0.0006084921 0.010443331 -0.007864973 0.042514432
000040 ea 50 1a bd da ab 2e 38 cc b3 e1 37 01 b5 78 3d
       -0.037674822 4.1644882e-05 2.6905815e-05 0.060719494
000050 c4 19 b1 bc 67 c9 59 b8 3b 0a 31 bd 0b 07 8e 3c
       -0.021618731 -5.1924402e-05 -0.043222647 0.017337343
000060 63 1c 0b bd 88 d5 75 b8 7e df e1 bc 5e 74 58 38
       -0.03396262 -5.861142e-05 -0.02757239 5.160679e-05
000070 eb 6e 72 3d 54 a9 92 38 f3 b2 10 bd 3b aa 78 3d
       0.05918781 6.993362e-05 -0.03532691 0.06070922
000080 50 c0 b0 bc e5 42 e2 bc 33 a8 9f 3b 44 2f 3c bc
       -0.021576077 -0.027619788 0.004872346 -0.011485878
000090 92 52 96 bb 72 ae 5e 3d 88 8d f9 bc 50 51 82 bc
       -0.00458748 0.054365583 -0.030462995 -0.015907913
0000a0 d4 17 3b bd 62 f9 a5 3a 84 6d 24 3c 50 d4 cf bb
       -0.04567702 0.0012662823 0.010035876 -0.0063424483
0000b0 24 39 34 38 ce c6 28 b9 69 10 37 bd 91 2b e7 3c
       4.296856e-05 -0.00016095789 -0.044693384 0.028219016
0000c0 26 10 a5 38 b6 23 54 3d 7c b3 7e 3d 47 f5 fe 3c
       7.870821e-05 0.05179187 0.06218289 0.031122817
0000d0 bc fc 1e 3d da 2b 17 bd 22 dc a5 bb 0b 91 18 bd
       0.038815245 -0.036907054 -0.0050616423 -0.0372477
0000e0 b7 9d 5f 38 1e 1b 1e 3d 8e 66 4d 3d 04 d6 32 38
       5.3314227e-05 0.03860008 0.050146632 4.2637825e-05
0000f0 98 33 d1 37 b6 80 ec 3c 60 35 a3 38 17 25 36 3d
       2.4938767e-05 0.028869968 7.7823875e-05 0.044468965
000100 72 52 81 bc b1 8a a0 b8 29 f0 53 b8 f4 1f 09 bd
       -0.015786383 -7.655228e-05 -5.0529987e-05 -0.03347774
000110 37 ec 65 3b f0 f3 22 b8 88 12 52 3d e5 32 af bc
       0.0035083422 -3.8850994e-05 0.051287204 -0.021386573
000120 7a 02 2d bd dc 15 2b b7 7e 5c b5 3c aa d7 fd bb
       -0.04223869 -1.0197484e-05 0.02213883 -0.0077466564
000130 a2 6c 06 3d b7 28 b1 3c 9f bb 2d bd 07 37 5a b8
       0.032818444 0.02162586 -0.042415258 -5.20265e-05
000140 87 d1 87 bc 4b 81 d9 b7 d4 b1 f6 bc 3f e8 fa 3c
       -0.016579403 -2.5928623e-05 -0.030114092 0.030628322
000150 c2 c1 b0 39 15 55 6e 3d 02 de bd 3c 04 43 3d 3c
       0.00033713697 0.05818661 0.02317715 0.011551622
000160 30 98 eb bc 6a fc 23 3d 2c 7b ba 3b a5 49 21 bd
       -0.028759092 0.040035643 0.0056909528 -0.039376874
000170 ad 78 1d 3d 34 fe b8 bb 73 24 42 ba cf be 61 38
       0.038445164 -0.0056455377 -0.0007405944 5.3821885e-05
000180 5b c9 b7 bb f1 d6 dc 3b b2 a9 54 3d 9a 59 e4 bc
       -0.0056087202 0.00673949 0.051919647 -0.027874757
000190 96 0c f7 3b 88 2f ac ba 6e 65 69 3d 32 60 3f bc
       0.007539342 -0.0013136724 0.056981497 -0.01168065
0001a0 d7 e0 52 3d da e8 c6 bc 04 13 17 3c dc 48 44 3d
       0.051483955 -0.024280954 0.009220842 0.047921047
0001b0 0d 22 ad bb 64 17 98 bc f7 e8 1e bc 5e 53 94 bc
       -0.0052836 -0.018565841 -0.009699098 -0.018106159
0001c0 aa 7b 42 3d 22 8a 48 b8 c7 a9 a5 3b 65 80 6c bc
       0.047481216 -4.7812362e-05 0.0050556394 -0.0144349085
0001d0 30 14 21 bb 55 6f 4b 3c 06 7b 4b 3b 92 44 3a 3c
       -0.0024578683 0.01241668 0.003104867 0.0113688875
0001e0 4f ce 9b 3c a4 01 f9 bc be 8b 81 3d 4b e5 80 bc
       0.019019274 -0.03039629 0.06325482 -0.015734335
0001f0 41 7b ad 3c c4 e9 bd 3c c1 73 7b 3d 20 ae d5 bc
       0.021176936 0.023182757 0.06138969 -0.026084006
000200 9d e5 52 bc da 05 55 38 a9 6b 02 3d 1a 66 d6 bc
       -0.012872127 5.0788607e-05 0.031840954 -0.026171733
000210 ce ac 12 38 a1 2c 4c 3d 57 94 a4 bc 44 a9 80 3d
       3.497005e-05 0.04984725 -0.020090265 0.06282285
000220 91 e9 57 3b 43 98 38 b8 d2 2c 08 3d fb 49 25 3d
       0.0032945613 -4.4010823e-05 0.03324587 0.040353756
000230 17 b9 97 ba 3f 7e 39 3b aa e7 12 3a 94 21 8a bc
       -0.0011575547 0.0028304008 0.00056039786 -0.016861714
000240 cb 12 21 b9 2b 53 08 b7 09 7c c8 3c 30 cd ab 3a
       -0.00015361157 -8.125596e-06 0.024473207 0.0013107415
000250 d8 a3 1d b8 e0 2d a2 ba 32 8e 39 3d 83 00 09 ba
       -3.758431e-05 -0.0012373291 0.045301624 -0.00052262115
000260 21 ab 85 3a 0f 32 70 3c 5b 08 33 b6 14 9a 53 bb
       0.0010198095 0.014660372 -2.6677942e-06 -0.0032287883
000270 60 28 d2 3c ae 6c e2 38 c8 6f 9e 3b 69 ae 71 bb
       0.025654018 0.00010796763 0.0048351027 -0.0036877638
000280 9e 80 db 3c 53 64 53 b8 77 00 b8 3b 3a 39 00 3d
       0.026794728 -5.0399754e-05 0.00561529 0.031304576
000290 fd 1e cb 3c ed 29 e5 b8 b3 d6 d2 3c 39 b0 9e bc
       0.02479505 -0.0001092738 0.025737142 -0.019371139
0002a0 61 af 70 3c 4a 63 02 bb 62 24 0a bc 32 ad 2c 3d
       0.014690251 -0.0019895607 -0.008431526 0.04215736
0002b0 ef d2 0e b8 74 ad 5d 38 a4 cd 65 bb 61 4c 0c bb
       -3.4051885e-05 5.2852047e-05 -0.0035065198 -0.002140783
0002c0 3a 72 30 bc 48 c8 0b 3d de c3 4e 3d 24 e1 65 38
       -0.010769421 0.03412655 0.050479762 5.4807533e-05
0002d0 e5 1a ee 3c bd a9 7d bc 00 89 4b bd 7e be 9e 3b
       0.029065559 -0.015482363 -0.0496912 0.004844486
0002e0 32 43 e4 bb 23 ec d7 b8 3a b0 23 3d bc ea fc bc
       -0.006966018 -0.00010295983 0.039962985 -0.030873649
0002f0 81 f1 00 b8 53 21 b7 3c 6c 88 6c b8 16 6f c8 b9
       -3.0742496e-05 0.022354757 -5.6393837e-05 -0.00038229738
000300 0e 8e a5 3b 0a 75 0a ba 29 34 a1 bc ad ea c6 3c
       0.0050523346 -0.00052817224 -0.019678192 0.024281824
000310 ac a1 71 3d bc b2 34 bd bd e1 bc bc 27 bc c4 bc
       0.058992073 -0.044115767 -0.02305686 -0.0240155
000320 03 67 07 3d 21 f4 3d 3d 48 fc 4b 3d 9d da d4 3c
       0.033057224 0.046375398 0.04980114 0.02598315
000330 01 f5 c5 3b 01 2b a1 3a 4b d0 b3 3c bb 56 11 3d
       0.0060411696 0.0012296141 0.021949908 0.035483103
000340 1f 6b 20 bd 84 9a 95 bc 1d ad 44 bc 50 56 3c bb
       -0.03916466 -0.018262155 -0.012004164 -0.002873797
000350 b1 5c 0c bd 7c 9f f5 bb 8c 54 6f 3c ef 94 2c bd
       -0.034268085 -0.0074958187 0.01460756 -0.04213422
000360 be 75 16 ba 64 14 de bc 8c 01 27 b9 06 5d 5c 38
       -0.0005739591 -0.027109332 -0.00015926937 5.2538722e-05
000370 b3 ba 18 3d 50 0d be ba 92 d7 00 bb 93 73 63 3d
       0.037287425 -0.0014499817 -0.001965974 0.055530142
000380 f5 2a 15 bd 59 9a e6 39 f7 05 0f bd dd e7 2d 3d
       -0.03641792 0.00043984017 -0.034917798 0.04245745
000390 90 ca e6 b8 b1 46 fb bc 0d 9a d3 ba a6 20 46 3d
       -0.00011004985 -0.030673357 -0.0016143933 0.04837098
0003a0 48 fb d9 bc 11 c8 b7 3c 1c 50 b4 bc df d0 53 bc
       -0.026609078 0.022434266 -0.022010855 -0.012928217
0003b0 9e 98 81 3d de 42 d6 bc db 41 14 3c 4f 07 73 3d
       0.063279375 -0.026154932 0.009048904 0.059333142
0003c0 6f c7 ab ba 2e 62 cc bc bb 23 84 3d e2 e0 d9 3c
       -0.00131057 -0.02494916 0.064521275 0.02659649
0003d0 6c b6 7c 3d 2c 24 81 bd 47 d4 bb bc b8 f0 87 bc
       0.06169741 -0.06305727 -0.02292837 -0.016594276
0003e0 ad 43 0a 3c fa 46 80 3d 7a 58 23 bd 06 9a 97 b9
       0.008438987 0.06263538 -0.0398793 -0.0002891572
0003f0 46 a9 ad bc cf 6f a4 bb 00 2b 1b b6 9c 3f aa 3c
       -0.02119888 -0.0050182114 -2.312183e-06 0.020782284

bias f4 [4]
000000 50 3d a6 3c 4b fc 45 3d 07 79 df bc 06 26 2a 3d
       0.020292908 0.04833631 -0.02727939 0.04154017

weight f4 [4, 8]
000000 7e b7 73 3d 15 0a f2 bd 28 11 2c be 96 e4 81 3d
       0.059501164 -0.11818329 -0.1680342 0.063424274
000010 01 64 80 be 9c a4 8f 3e a3 7b 87 bb 63 0e fe bd
       -0.25076297 0.28055274 -0.0041346117 -0.12405088
000020 26 c3 9c be 78 ca 1c 3e 26 ac 49 be 5f d2 a4 bc
       -0.30617636 0.1531161 -0.19694576 -0.020119844
000030 d8 0f 3f bd c0 fa 38 3e f0 8e 2d be 30 54 81 3e
       -0.04664597 0.18064404 -0.16949058 0.25259542
000040 e8 5b 88 3d a0 11 2e 3c 9b be 02 b8 42 55 74 be
       0.06658155 0.010624319 -3.117193e-05 -0.23860648
000050 fb 2e 86 be 22 36 4d 3d 4c f7 93 3e dd c3 80 be
       -0.26207718 0.050100453 0.2889961 -0.25149432
000060 70 89 64 be ea 2f 81 be 18 1c 47 3e c7 3e 6c be
       -0.22318053 -0.25231868 0.1944431 -0.23070823
000070 85 b5 87 3e e8 0c 00 3c 5f 21 7d 3c d5 2d 76 3d
       0.26505676 0.007815577 0.015449851 0.060102303

bias f4 [4]
000000 2b e0 35 bd 69 5e 32 be 11 d9 84 be c9 76 23 3e
       -0.044403236 -0.17418827 -0.2594686 0.15963282

weight f4 [4, 8]
000000 d9 82 48 be 04 a8 8b be 21 c1 8d 3e aa ec 84 bd
       -0.19581164 -0.27276623 0.27686408 -0.064904526
000010 b2 e1 72 38 6c 7d 9e bd ea e7 9d bd ad 1a d0 bd
       5.790749e-05 -0.07738766 -0.0771025 -0.10161338
000020 1a a7 b4 3d ff 35 65 3d f1 68 92 3e cf b3 9a be
       0.088209346 0.055959698 0.2859569 -0.30215308
000030 66 29 38 bd b9 32 59 3e 67 df 5b 38 0c 1d 95 3e
       -0.044961356 0.21210755 5.242173e-05 0.29123724
000040 86 38 31 be ba b4 aa be 9b 95 f3 bd 29 0d 2c 3d
       -0.17306718 -0.33341008 -0.11893769 0.042004738
000050 7d e3 9c 3d 57 e3 93 3e f5 fa 81 3e 46 0b aa 3e
       0.076605774 0.28884384 0.25386778 0.33211726
000060 d8 62 28 3e 74 93 d4 3d b0 21 9a bc 74 e9 9b 3e
       0.16443956 0.10379687 -0.018814892 0.30451548
000070 19 54 95 3e 64 f9 27 3e 29 81 67 bd c3 38 67 3e
       0.29165724 0.16403729 -0.05651966 0.22580247

bias f4 [4]
000000 08 10 86 be fc e6 45 3e a4 d9 44 3e cc 2a 65 be
       -0.26184106 0.19326395 0.19223648 -0.22379607

weight f4 [10, 2]
000000 15 71 81 be f2 29 ec 3e 54 d1 65 bd 47 78 4f 3e
       -0.25281587 0.46125752 -0.056107834 0.20260726
000010 bf 01 ce 3d 73 8c e0 be 66 8e 67 3d 86 d8 0d 3f
       0.10058927 -0.43857154 0.056532286 0.55408514
000020 6d 88 27 bf e7 86 32 be 4f 63 ef be ab dc 74 be
       -0.65442544 -0.17434274 -0.46755454 -0.23912303
000030 31 9d 04 3f 7b 99 5f 3c bf de 25 3f b1 eb 91 be
       0.51802355 0.013647432 0.6479301 -0.2850013
000040 c8 33 b7 3e 51 d6 a4 be 75 7c e2 3e c2 93 99 3e
       0.35781693 -0.3219476 0.44235578 0.29995543

bias f4 [10]
000000 83 1c 44 3e 9e 2c 29 3f c8 d4 ae be 38 02 24 bf
       0.19151501 0.66083705 -0.34146714 -0.64065886
000010 2e 39 a7 3e a7 2e 19 bf 19 5c 99 3e 43 ce 23 3f
       0.32660812 -0.5983681 0.29953077 0.63986605
000020 66 f9 d1 3e b7 1f 0c 3f
       0.41010588 0.54735893

weight f4 [10, 2]
000000 21 b9 a6 3e b0 14 28 3f 0d ba 14 bd 98 3a 31 3f
       0.32563117 0.65656567 -0.036310244 0.6923003
000010 7c cf ad be eb 06 b7 be 8e f5 8a 3e 00 1e cc 3e
       -0.3394736 -0.35747465 0.27140468 0.39866638
000020 55 26 3f 3e 7b 8a 5a 3e c5 35 af be af 13 c7 3e
       0.18666966 0.21341889 -0.3422071 0.38882205
000030 30 df 0d b8 23 73 47 be 35 1e 05 bf 09 0b 5e be
       -3.382488e-05 -0.19477515 -0.5199922 -0.21683897
000040 c0 aa 6e 3e 1a 0a ca 3e f2 98 af 3d 47 a2 2e bf
       0.23307323 0.39460832 0.08574094 -0.68216366

bias f4 [10]
000000 e9 27 a9 3e fd d1 ce 3e 8b 4e e2 be 05 bd e1 3e
       0.33038262 0.40394583 -0.4420055 0.44089523
000010 9f 80 f7 3e 35 e0 12 3e f2 6b bb be 1c 0c f1 bd
       0.48340318 0.1434334 -0.36605793 -0.11769888
000020 19 93 24 3f 46 cd 84 be
       0.64286953 -0.2593786

weight f4 [20, 4]
000000 7f 59 cb 3e f5 2d 3c 3e 35 2b 65 be 7d 45 55 be
       0.39716718 0.18376906 -0.22379763 -0.20827289
000010 42 84 6a be f0 8b d7 be ea dc cd be 04 3f 8e be
       -0.22902015 -0.4209895 -0.40207607 -0.27782452
000020 55 1b 63 be 73 b6 9d bd f3 e2 f4 3c 3b 2b c6 3e
       -0.22178395 -0.07700815 0.029893374 0.38704857
000030 4c 12 d7 3e 2a a0 32 3e 5b 1a f6 bd 22 41 b6 3e
       0.42006147 0.1744391 -0.12016746 0.35596567
000040 04 26 8d be 27 f7 67 3e bb 8f 67 be 3a d6 81 bd
       -0.27568066 0.22652875 -0.22613423 -0.063396886
000050 d8 a9 a8 bd cf 51 90 3e ec d7 8b bd 8a 8f ea be
       -0.0823552 0.28187415 -0.06828293 -0.45812637
000060 82 17 4d 3e fa 7f 89 be e9 ac 55 3e cb 25 8d 3e
       0.20028499 -0.2685545 0.20866741 0.27567896
000070 18 23 b3 3e ee 29 4a be a2 97 b4 be 23 b3 a4 be
       0.34987712 -0.19742557 -0.35271937 -0.3216792
000080 30 a4 99 3e 66 c2 b1 3d 42 b1 75 bc 34 d5 a9 3e
       0.30008078 0.08679657 -0.014995875 0.33170474
000090 31 67 02 bf 1c 4d 1c bc d0 1e b2 3d c9 65 b7 be
       -0.5093871 -0.009539869 0.08697283 -0.35819843
0000a0 85 00 a3 be 36 e9 41 3e 3d 13 3b 3e d2 25 02 be
       -0.31836334 0.18936619 0.18269058 -0.1270974
0000b0 08 09 f7 3e b3 fb 18 3d e2 8e b9 bd 34 48 4f be
       0.48249078 0.037349414 -0.09060456 -0.20242387
0000c0 ba 01 8c be 35 8c f0 3e 8b 67 b3 3e f7 bc f0 bd
       -0.27345067 0.4698197 0.35039935 -0.11754792
0000d0 58 4e 5c bd 52 47 9a 3e b2 5b e6 bd 95 0a d3 be
       -0.053785652 0.30132538 -0.11247958 -0.4121901
0000e0 c6 fd b0 be 63 53 f2 bd a4 ff 7a 3e a4 a4 6e be
       -0.34568614 -0.11832311 0.24511582 -0.23304993
0000f0 ec 35 db ba 93 b0 99 bb 85 be a5 3e 58 68 f4 3e
       -0.0016724444 -0.0046902387 0.32371917 0.47735858
000100 ac 62 87 3d c5 c9 68 b8 87 a5 3f 3e c6 4c 82 ba
       0.06610617 -5.5501023e-05 0.18715487 -0.0009941093
000110 1f c2 a2 be b1 e8 3c 3e 1f 64 f9 be 9d 1d 63 3e
       -0.31788728 0.1844814 -0.487092 0.22179265
000120 ea d9 cb be 1b 92 5b be 03 45 1f 3e 1b 20 a5 3e
       -0.39814693 -0.21442454 0.1555367 0.32251057
000130 4d 37 9d 3e 48 59 ef be b8 24 99 3e b0 d3 bf 3e
       0.30706254 -0.46747804 0.29910827 0.37466192

bias f4 [20]
000000 df b5 d1 3e d7 2b 4c ba b0 9d ed be b3 3d 11 3e
       0.4095907 -0.0007788515 -0.4640937 0.14183693
000010 e9 be b6 3e 05 2f e3 be 6e 5c 97 3e c2 21 d8 3e
       0.35692528 -0.4437181 0.29562706 0.42213255
000020 bc 9e e0 be b8 0c 71 3e ab d9 de 3e e3 d7 c8 bd
       -0.43871105 0.23540008 0.43525442 -0.09806802
000030 d6 9c 60 b6 a3 22 d0 be cc d8 a9 3c c8 a8 bc be
       -3.3469892e-06 -0.40651426 0.02073326 -0.3684752
000040 25 53 e6 be be 26 cd 3d 9f 16 e0 be be 22 25 bd
       -0.4498531 0.10017155 -0.4376726 -0.040316336

G f4 [2, 1]
000000 00 00 00 00 00 00 80 3f
       0.0 1.0

m1x_posterior f4 [2]
000000 2b e2 55 40 ff 17 8f 3f
       3.3419292 1.1179198

m1x_posterior_previous f4 [2]
000000 d6 7b c0 3f 40 67 6d 3e
       1.5037792 0.23183918

m1x_prior_previous f4 [2]
000000 be 28 de 3f 02 68 7f bf
       1.7356184 -0.9976808

y_previous f4 [2]
000000 7b df a7 3f 9a 50 90 3f
       1.3115076 1.1274598
