KNet/Linear_SS_With_MM/model_KNet_MM_Linear_Dynamics_T100_v_negative_10dB_best_LQR.pt (torch, 37189 bytes, 42 tensors)

weight_ih_l0 f4 [12, 10]
-0.0852323 0.024958655 -0.42523277 0.45257425 0.43834272 0.30377683 -0.07654224 0.32814336
-0.2600455 0.35977829 -0.3967698 -0.43967763 -0.041918334 0.44557413 -0.30728996 -0.32113847
0.37630367 -0.076726295 -0.1578812 0.00020402158 0.34444997 -0.27530035 0.21872476 -0.057088632
-0.26930863 0.17415288 -0.31954142 -0.06003149 0.506836 0.14685327 -0.23740412 0.21794856
0.19973417 0.4451751 -0.43314 -0.4087287 0.23796979 0.46325636 -0.12076935 -0.2287998
0.26372716 0.12410277 -0.2426127 0.22015259 0.4589685 -0.45030198 -0.1793178 -0.45313427
0.1885939 0.016198108 -0.47575307 0.3579912 -0.00036760198 0.004047735 -0.36855176 -0.23043607
0.049462263 0.3688508 0.34224424 -0.26571664 0.15021202 0.19430217 -0.011571517 -0.013595033
0.29475716 0.11146261 0.06601581 -0.068485305 -0.18953477 0.13322893 -0.044032034 -0.092764735
0.15281239 0.1940211 0.10700047 -0.34046644 0.107500516 0.102098554 0.20255378 0.32811573
0.46102354 -0.00013043202 -0.44436216 0.4432554 0.24789318 -0.18003315 0.48703364 0.2623945
-0.22761177 -0.08241655 0.10888391 -0.41803533 0.26748464 0.14565852 -0.16223797 0.053599685
0.38020915 -0.273189 0.12412032 0.23856519 0.14774036 0.36737508 0.19868584 -0.13244915
-0.48510078 0.043476943 0.2327626 0.18245487 0.28784254 0.041796915 -0.43129885 0.2602778
-0.28748542 -0.12794743 -0.09286451 -0.13526438 -0.057350345 -0.16553661 -0.4446689 0.024077954
00000000: 468e aebd 1876 cc3c 1cb8 d9be d0b7 e73e
00000010: 756e e03e a388 9b3e 2ec2 9cbd 6802 a83e
00000020: af24 85be dc34 b83e 6925 cbbe 6d1d e1be
00000030: 8fb2 2bbd 4b22 e43e 1c55 9dbe 436c a4be
00000040: e0aa c03e ad22 9dbd 9cab 21be a0ee 5539
00000050: bf5b b03e 2bf4 8cbe 62f9 5f3e c5d5 69bd
00000060: d2e2 89be 2255 323e ef9a a3be 94e3 75bd
00000070: 01c0 013f b460 163e 111a 73be e82d 5f3e
00000080: 1d87 4c3e feed e33e 87c4 ddbe e344 d1be
00000090: 5aae 733e f02f ed3e ec55 f7bd 7f4a 6abe
000000a0: 3f07 873e 9829 fe3d 776f 78be ae6f 613e
000000b0: ebfd ea3e fb8d e6be 169f 37be 3701 e8be
000000c0: c21e 413e e5b1 843c e895 f3be 9f4a b73e
000000d0: b4ba c0b9 dda2 843b d1b2 bcbe 6ff7 6bbe
000000e0: f198 4a3d 03da bc3e a33a af3e 030c 88be
000000f0: 2ed1 193e 26f7 463e 7696 3dbc b4bd 5ebc
00000100: 69ea 963e 8246 e43d 4c33 873d 0642 8cbd
00000110: 6715 42be 2a6d 083e ef5a 34bd 70fb bdbd
00000120: da7a 1c3e 78ad 463e 1023 db3d 9e51 aebe
00000130: 3b29 dc3d 0c19 d13d 426a 4f3e c9fe a73e
00000140: 470b ec3e 94c4 08b9 7083 e3be 5ff2 e23e
00000150: b6d7 7d3e 9c5a 38be 795c f93e 9258 863e
00000160: 0f13 69be 02ca a8bd 87fe de3d ba08 d6be
00000170: bff3 883e 8227 153e b621 26be 588b 5b3d
00000180: c6aa c23e 6edf 8bbe cb32 fe3d 6f4a 743e
00000190: 4049 173e 9618 bc3e 4d74 4b3e c0a0 07be
000001a0: 215f f8be e114 323d 5259 6e3e 73d5 3a3e
000001b0: 1960 933e 3e33 2b3d 34d3 dcbe 2243 853e
000001c0: 4a31 93be a704 03be c02f bebd bf82 0abe
000001d0: 32e8 6abd 6e82 29be a4ab e3be 213f c53c

weight_hh_l0 f4 [12, 4]
0.4837619 0.3053327 -0.04548192 -0.18544076 -0.1801413 -0.13616504 0.27840653 0.15497614
-0.37541175 -0.12667347 -0.3084615 0.023663497 0.12444475 -0.025753917 -0.049995616 0.383779
0.46929124 -0.31283718 0.1994307 -0.3814873 0.3108285 0.33843708 0.40727192 0.35037082
-0.17129868 0.033803537 -0.34935537 0.23457213 -0.23180827 -0.23225237 -0.3086593 0.41110384
-0.34254438 0.34862986 -0.5050576 0.23546869 0.254693 -0.3643412 -0.35721177 -0.3335271
0.23688263 -0.41744328 0.4641975 -0.31982288 -0.50881815 -0.47540122 0.36383474 0.121503174
00000000: a4af f73e 9154 9c3e 404b 3abd 2fe4 3dbe
00000010: f676 38be d96e 0bbe 4d8b 8e3e 11b2 1e3e
00000020: f835 c0be b1b6 01be aaee 9dbe f3d9 c13c
00000030: e4dc fe3d e1f9 d2bc 34c8 4cbd ae7e c43e
00000040: f146 f03e 322c a0be 9037 4c3e 4e52 c3be
00000050: ea24 9f3e a047 ad3e f285 d03e ce63 b33e
00000060: ec68 2fbe 9475 0a3d b5de b2be ad33 703e
00000070: 265f 6dbe 91d3 6dbe 9708 9ebe 347c d23e
00000080: fa61 afbe 9d7f b23e 744b 01bf b41e 713e
00000090: 1f67 823e ee8a babe 76e4 b6be 10c4 aabe
000000a0: 5c91 723e 20bb d5be 4bab ed3e d3bf a3be
000000b0: e841 02bf ca67 f3be 8c48 ba3e a8d6 f83d

bias_ih_l0 f4 [12]
-0.4667998 0.2588586 0.37913325 0.3246942 0.18508573 -0.12489007 -0.13138995 0.048998505
-0.22188239 0.213651 -0.4935817 0.2659854
00000000: 6200 efbe 1d89 843e c11d c23e 513e a63e
00000010: 1d87 3d3e 5dc6 ffbd 168b 06be a8b2 483d
00000020: 2335 63be 54c7 5a3e beb6 fcbe 3d2f 883e

bias_hh_l0 f4 [12]
0.30100358 -0.38006768 -0.26694107 0.33429703 0.2154215 0.24016689 -0.26232085 0.38375705
-0.09553903 0.10333369 -0.012845464 -0.28201884
00000000: 241d 9a3e 3b98 c2be 80ac 88be fb28 ab3e
00000010: 7497 5c3e 4fee 753e eb4e 86be ce7b c43e
00000020: f8a9 c3bd 9da0 d33d c875 52bc c664 90be

weight_ih_l0 f4 [12, 14]
-0.048696343 0.329012 0.42550483 -0.28646216 -0.28571698 0.043832455 0.36288893 0.019652726
-0.38487935 0.18101342 -0.14761588 0.12152087 0.049581636 -0.040508077 -0.42148328 0.19337913
-0.33623534 -0.41959628 0.20012498 -0.4703169 0.29537788 0.26331738 0.3743824 -0.17818233
-0.46632844 -0.07874981 0.39709944 -0.38956916 0.07262567 0.048611235 0.4363227 -0.2964876
-0.21926974 0.3976333 -0.43124798 0.29131958 0.17301759 -0.06852319 0.23160148 -0.12468041
0.26049823 0.03389035 -0.24177733 -0.40974075 -0.046439324 0.055134315 0.4001888 -0.21700765
-0.21923617 0.04047197 0.16846298 0.35555837 0.0054090535 -0.18625522 0.22160389 0.13618605
-0.12211642 0.32837513 0.24489206 -0.25835007 0.3777181 0.30818528 -0.102065355 -0.390425
0.31511298 0.28879914 -0.29952726 -0.4658354 -0.42120296 0.38192627 0.4382203 -0.047098726
-0.04121744 0.21780463 -0.36578462 -0.420908 -0.033070117 -0.43677694 -0.2111613 0.31154454
0.48250365 -0.052592937 0.18878281 -0.0996793 0.20654708 0.16532104 0.47269717 0.1729985
0.22378209 0.2979097 -0.13161387 0.3801367 -0.031382974 -0.36383465 0.17440702 -0.14102535
-0.49086452 -0.23355986 0.32763606 -0.48509476 -0.43000913 0.326205 0.3417811 0.17436141
-0.11438419 -0.29371467 -0.41091305 -0.28759295 0.09781188 0.34096786 -0.5075325 0.00036535962
-0.4319706 0.115101494 -0.15040363 0.39534196 -0.007505557 0.46706864 0.05628094 0.30935633
0.21694408 -0.478557 -0.23645256 -0.3445496 -0.20847583 0.38607156 -0.41757235 0.44641274
-0.17517786 0.31893227 0.32310268 -0.44344196 0.16334024 0.38719812 -0.053836893 0.47915888
-0.07557331 0.3984895 0.42916596 0.20942649 -0.11653402 0.10416967 0.45312363 -0.39419726
-0.14984831 0.35020858 -0.40132558 0.43821633 0.18864879 0.44593936 -0.0019114225 0.24616349
-0.31194314 0.01589366 -0.41744468 0.43527615 0.5034466 0.2604363 0.06148655 -0.37158406
0.42822838 0.08496947 -0.49219897 0.106333 -0.014881715 0.4267503 0.3004316 -0.37807125
00000000: d175 47bd 4374 a83e c5db d93e 2bab 92be
00000010: 7f49 92be a989 333d 94cc b93e c1fe a03c
00000020: e80e c5be 955b 393e 9e28 17be efdf f83d
00000030: 1d16 4b3d cceb 25bd a8cc d7be 2e05 463e
00000040: 0a27 acbe 53d5 d6be 90ed 4c3e 60cd f0be
00000050: c53b 973e 89d1 863e 0daf bf3e 6e75 36be
00000060: 9ac2 eebe 9547 a1bd 9e50 cb3e 9c75 c7be
00000070: c4bc 943d 931c 473d b065 df3e 39cd 97be
00000080: 3f88 60be 9896 cb3e 89cc dcbe d727 953e
00000090: 862b 313e e355 8cbd f028 6d3e 7158 ffbd
000000a0: 0660 853e 9cd0 0a3d 7a94 77be 8ac9 d1be
000000b0: 2937 3ebd 85d4 613d 8ce5 cc3e 4137 5ebe
000000c0: 727f 60be f0c5 253d 8f81 2c3e bf0b b63e
000000d0: 6e3e b13b b0b9 3ebe 21ec 623e 5b74 0b3e
000000e0: 2c18 fabd c920 a83e fcc4 7a3e 7646 84be
000000f0: 4464 c13e 76ca 9d3e a407 d1bd c9e5 c7be
00000100: 7d56 a13e 7bdd 933e a35b 99be fa81 eebe
00000110: eaa7 d7be d78b c33e 695e e03e 98ea 40bd
00000120: 9ed3 28bd 2d08 5f3e 1f48 bbbe 4181 d7be
00000130: 8874 07bd 3aa1 dfbe ab3a 58be c482 9f3e
00000140: b80a f73e b16b 57bd 4850 413e a924 ccbd
00000150: 1481 533e eb49 293e 5d05 f23e 8526 313e
00000160: 2227 653e 9f87 983e c9c5 06be 47a1 c23e
00000170: 6f8b 00bd 8948 babe c197 323e f368 10be
00000180: 9852 fbbe 512a 6fbe eabf a73e 575e f8be
00000190: 282a dcbe 5704 a73e effd ae3e cc8b 323e
000001a0: 4242 eabd c561 96be 3263 d2be 623f 93be
000001b0: 9851 c83d 5793 ae3e a6ed 01bf bd8d bf39
000001c0: 402b ddbe 55ba eb3d 6903 1abe 436a ca3e
000001d0: 2df1 f5bb 9f23 ef3e d886 663d f463 9e3e
000001e0: 9726 5e3e 6c05 f5be 9f20 72be ce68 b0be
000001f0: b07a 55be 2cab c53e 0bcc d5be 3690 e43e
00000200: d361 33be 174b a33e b76d a53e d30a e3be
00000210: aa42 273e d53e c63e 1384 5cbd 5054 f53e
00000220: 2ec6 9abd d106 cc3e a4bb db3e e673 563e
00000230: 63a9 eebd e856 d53d d2ff e73e 39d4 c9be
00000240: d671 19be 8a4e b33e 8c7a cdbe e45d e03e
00000250: 262d 413e 2a52 e43e b288 faba 4812 7c3e
00000260: 03b7 9fbe 6c33 823c 4fbb d5be 84dc de3e
00000270: e0e1 003f e857 853e 52d9 7b3d 4440 bebe
00000280: c040 db3e 7904 ae3d 8101 fcbe 1ec5 d93d
00000290: 70d2 73bc 047f da3e 2cd2 993e 8e92 c1be

weight_hh_l0 f4 [12, 4]
0.22602695 -0.4585104 0.033374112 -0.22446041 -0.02616484 0.122182384 -0.2965317 -0.29849052
0.357108 -0.3106472 0.00036683964 -0.44669074 -0.32795033 0.44533244 -0.25836855 -0.1710781
-0.29057708 -0.34043184 -0.23058997 -0.37218264 0.39800945 0.48567837 -0.16192748 0.015969448
-0.4169056 -0.044705715 -0.21826605 0.2996749 0.42079058 0.454788 0.00034684164 -0.16095135
-0.34025583 0.2058184 0.4167156 -0.27852634 0.3337647 0.1125724 0.13518478 0.110804856
0.228258 0.27331406 0.09504123 0.46883306 -0.2789827 0.37365523 0.42044058 0.30584583
00000000: 9c73 673e e0c1 eabe 4bb3 083d f3d8 65be
00000010: a657 d6bc c23a fa3d 01d3 97be c0d3 98be
00000020: dcd6 b63e 260d 9fbe 6254 c039 a6b4 e4be
00000030: 1be9 a7be 9d02 e43e e248 84be 192f 2fbe
00000040: 85c6 94be 154d aebe c71f 6cbe b98e bebe
00000050: e5c7 cb3e d6aa f83e 51d0 25be 5cd2 823c
00000060: a774 d5be 571d 37bd 2381 5fbe fd6e 993e
00000070: dd71 d73e f9d9 e83e 4cd8 b539 6ed0 24be
00000080: 0336 aebe 0fc2 523e bf5b d53e 019b 8ebe
00000090: 35e3 aa3e 5c8c e63d e16d 0a3e a8ed e23d
000000a0: 77bc 693e d2ef 8b3e faa4 c23d e30a f03e
000000b0: d2d6 8ebe bd4f bf3e fd43 d73e d397 9c3e

bias_ih_l0 f4 [12]
0.14925906 -0.41144952 -0.16079192 -0.50100857 -0.11501665 -0.20628035 -0.32447845 -0.3321712
0.12568042 -0.1847548 0.32820782 -0.1812109
00000000: 5ed7 183e 83a9 d2be a3a6 24be 1942 00bf
00000010: d98d ebbd 283b 53be 0a22 a6be 5812 aabe
00000020: 5eb2 003e 5d30 3dbe db0a a83e 5a8f 39be

bias_hh_l0 f4 [12]
-0.26051348 0.24694028 0.27037245 0.10679524 -0.14526172 0.02186818 0.29662398 -0.4028735
-0.036064137 -0.48170978 -0.22323349 0.43445128
00000000: 0662 85be eadd 7c3e 426e 8a3e 76b7 da3d
00000010: 7dbf 14be e624 b33c 19df 973e 6f45 cebe
00000020: fdb7 13bd aaa2 f6be 5297 64be 6670 de3e

weight_ih_l0 f4 [12, 24]
0.32424176 0.058580242 0.4492722 -0.14511123 -0.46699378 -0.2711443 0.16112839 -0.28486162
-0.18468669 -0.18617035 0.056906007 0.43812868 -0.22149827 -0.4932698 -0.27380705 0.32269448
0.40013048 0.32907814 0.06433148 0.047196094 -0.1432839 0.272633 -0.40796915 -0.36597654
0.21689175 -0.14796084 0.061348498 -0.37872002 0.1443291 -0.16435815 -0.24858569 0.29878724
-0.17653921 -0.08096761 -0.47901666 0.10339431 -0.19967096 -0.45869157 0.24675985 -0.2057982
-0.09263788 -0.12549336 -0.46740046 0.48997208 0.055942573 -0.35148433 -0.031434927 0.091379814
-0.3356243 -0.18917164 0.13823651 -0.12955217 -0.1512042 0.10481355 0.22959818 0.030415274
-0.09482854 0.42216393 -0.47062415 0.009997176 0.39365464 -0.39741373 0.33143783 0.034346472
0.3249519 0.4538197 -0.28433496 0.13020632 0.2472907 0.36476737 0.12449022 -0.32501647
0.37746358 -0.23034757 0.35226306 0.33251572 -0.003930687 -0.0068710097 -0.065391384 -0.0885002
0.083864495 -0.18714724 -0.07371426 -0.47160354 0.4763154 0.34977296 0.49743557 -0.11993083
0.29183447 0.390421 0.17550896 -0.39882758 -0.31510013 0.3290762 -0.05446331 0.06570139
0.19625194 -0.24453057 0.29115027 -0.45977384 -0.39532903 -0.47754887 -0.0062933546 0.14621511
-0.24201421 -0.3797037 -0.11823266 -0.19946134 -0.0329868 0.24030219 0.27834344 0.042256113
0.30987436 -0.46854407 0.388968 -0.020882757 0.08791881 0.18613261 -0.022916974 0.23223814
0.07156473 0.45278078 -0.082134224 0.08960674 0.1483979 -0.4237334 0.45497322 0.41179004
-0.07836981 -0.2142867 0.086293146 0.39716184 -0.24723236 0.29513353 -0.0009437059 -0.39912868
0.13604221 0.04781511 -0.10514605 -0.29524985 0.0041943123 -0.33470294 0.043101452 -0.050951976
0.092787206 0.30625722 -0.15810743 -0.272256 -0.0130861895 -0.46886584 -0.022331942 0.087217055
-0.02091119 -0.4825218 0.22253148 -0.32059643 0.16688076 0.031607825 -0.2831741 0.30331585
-0.04950365 -0.23039033 0.22988056 0.18160723 -0.041798495 0.112115934 0.42366114 -0.1590517
0.049674343 0.02365337 0.3594931 0.1346888 0.07180511 -0.5102554 0.3342888 0.3164474
0.30262056 0.18092744 -0.34938127 0.098013595 0.072443336 -0.46700913 -0.31098232 0.2922905
0.39904007 0.03319749 0.10386668 0.21740124 -0.5038924 -0.21332882 -0.07476098 -0.27375302
-0.40002707 0.26709542 0.48437446 0.1953557 -0.106469736 0.18531382 -0.12495863 0.17757238
-0.098903164 -0.1298452 -0.24228173 0.17809677 0.091794275 -0.19401011 -0.41428462 -0.31751835
0.29398236 -0.43147525 -0.479395 0.4024952 0.09806431 -0.048431776 -0.35303265 -0.17864503
-0.28902107 -0.20061412 -0.25467774 -0.07747408 0.14501782 -0.34298345 -0.48350993 -0.43179327
-0.3293477 0.28436095 -0.33099094 0.39773417 0.31380966 -0.50081354 -0.23902315 0.30536374
-0.1568232 0.36223543 -0.4787054 0.32815513 0.32397902 -0.1976197 0.29074854 -0.31570658
0.13351952 0.40828115 0.22292809 -0.11799787 -0.05404512 0.4440761 0.21034786 0.3847591
-0.4222361 -0.0050122715 -0.30783904 0.45667717 -0.38794133 -0.18247338 -0.40183946 -0.18576078
00000000: 0403 a63e d6f1 6f3d 0107 e63e 0a98 14be
00000010: cf19 efbe 6dd3 8abe d7fe 243e 62d9 91be
00000020: 821e 3dbe 71a3 3ebe 4616 693d 6752 e03e
00000030: 71d0 62be dc8d fcbe 7030 8cbe 3638 a53e
00000040: e7dd cc3e ee7c a83e 39c0 833d b150 413d
00000050: 04b9 12be 8d96 8b3e 55e1 d0be 4761 bbbe
00000060: df18 5e3e 0c83 17be 9048 7b3d 97e7 c1be
00000070: 02cb 133e 814d 28be 3f8d 7ebe a4fa 983e
00000080: b2c6 34be 59d2 a5bd ac41 f5be 65c0 d33d
00000090: 8b76 4cbe 9fd9 eabe 9dae 7c3e c3bc 52be
000000a0: eeb8 bdbd 5581 00be 1d4f efbe 9fdd fa3e
000000b0: 0a24 653d c1f5 b3be e9c1 00bd 5725 bb3d
000000c0: f3d6 abbe 36b6 41be df8d 0d3e 53a9 04be
000000d0: 46d5 1abe 7da8 d63d c91b 6b3e 7429 f93c
000000e0: 7735 c2bd df25 d83e a6f5 f0be 32cb 233c
000000f0: 1a8d c93e d079 cbbe 38b2 a93e e3ae 0c3d
00000100: 1860 a63e 0e5b e83e 5a94 91be ce54 053e
00000110: c639 7d3e cac2 ba3e baf4 fe3d 8f68 a6be
00000120: e842 c13e 3ce0 6bbe d35b b43e 803f aa3e
00000130: fecc 80bb 3526 e1bb ebeb 85bd 983f b5bd
00000140: 26c1 ab3d 87a3 3fbe 80f7 96bd 0576 f1be
00000150: 9ddf f33e 7115 b33e e0af fe3e 4c9e f5bd
00000160: 546b 953e 43e5 c73e 9fb8 333e 2133 ccbe
00000170: ce54 a1be ad7c a83e eb14 5fbd 738e 863d
00000180: 45f6 483e 3966 7abe a611 953e 7a67 ebbe
00000190: 9168 cabe 4981 f4be 7c38 cebb 6ab9 153e
000001a0: 93d2 77be 8668 c2be f723 f2bd 983f 4cbe
000001b0: 2b1d 07bd c711 763e 0883 8e3e bf14 2d3d
000001c0: daa7 9e3e 02e5 efbe d026 c73e 5112 abbc
000001d0: c70e b43d 8c99 3e3e 61bc bbbc d6cf 6d3e
000001e0: 8790 923d e2d2 e73e fd35 a8bd bd83 b73d
000001f0: 9ef5 173e 96f3 d8be 40f2 e83e 25d6 d23e
00000200: 5a80 a0bd f96d 5bbe 76ba b03d cc58 cb3e
00000210: 7b2a 7dbe be1b 973e 0863 77ba 985a ccbe
00000220: a64e 0b3e c7d9 433d d056 d7bd fd2a 97be
00000230: 7170 893b 2f5e abbe 268b 303d 05b3 50bd
00000240: 3807 be3d bfcd 9c3e eae6 21be 2365 8bbe
00000250: 7567 56bc 2f0f f0be 7af1 b6bc db9e b23d
00000260: f24d abbc 190d f7be 4bdf 633e 3725 a4be
00000270: cae2 2a3e 3577 013d 32fc 90be 374c 9b3e
00000280: 57c4 4abd 71eb 6bbe cf65 6b3e 3ff7 393e
00000290: e634 2bbd 0a9d e53d 1dea d83e 73de 22be
000002a0: 5377 4b3d b6c4 c13c 7b0f b83e dceb 093e
000002b0: 8f0e 933d 19a0 02bf e727 ab3e 6505 a23e
000002c0: 15f1 9a3e 0b45 393e 1ae2 b2be 5abb c83d
000002d0: 2c5d 943d d21b efbe 1339 9fbe 1aa7 953e
000002e0: fb4e cc3e 17fa 073d 0eb8 d43d 6e9e 5e3e
000002f0: 18ff 00bf df72 5abe 491c 99bd 5b29 8cbe
00000300: 59d0 ccbe bbc0 883e eeff f73e 530b 483e
00000310: ce0c dabd e8c2 3d3e 4fea ffbd 89d5 353e
00000320: be8d cabd 24f6 04be b418 78be 005f 363e
00000330: a3fe bb3d 96aa 46be 1d1d d4be c491 a2be
00000340: db84 963e 53ea dcbe 4373 f5be da13 ce3e
00000350: f1d5 c83d 6660 46bd b2c0 b4be b9ee 36be
00000360: 92fa 93be ca6d 4dbe 1f65 82be bbaa 9ebd
00000370: 8d7f 143e 879b afbe 9d8e f7be 0214 ddbe
00000380: 43a0 a8be c297 913e a577 a9be d0a3 cb3e
00000390: a9ab a03e 5135 00bf 7cc2 74be a358 9c3e
000003a0: 4396 20be ec76 b93e e018 f5be f303 a83e
000003b0: 94e0 a53e d25c 4abe fedc 943e 4ba4 a1be
000003c0: 57b9 083e 3a0a d13e 4347 643e dea8 f1bd
000003d0: 6a5e 5dbd f15d e33e 6e65 573e 25ff c43e
000003e0: 552f d8be fb3d a4bb 149d 9dbe 97d1 e93e
000003f0: 3fa0 c6be 4dda 3abe e7bd cdbe 1338 3ebe

weight_hh_l0 f4 [12, 4]
0.14397097 -0.4715125 0.18812844 -0.07379451 0.047058653 -0.05556405 -0.056109596 -0.387381
-0.0010899975 0.47689474 0.37672976 -0.42552626 -0.47830427 0.11758707 0.31392342 0.06334381
0.33864105 0.19244851 -0.057023626 0.47699866 -0.29493567 -0.4087073 0.09743654 -0.15133126
0.3013268 -0.4342947 0.21348105 0.12507181 0.18976459 -0.25720066 0.28912556 -0.019802518
-0.022332385 -0.10239532 0.47905532 0.14410172 -0.32814327 0.36114165 0.21256934 0.4718741
0.23498826 -0.30578122 0.21073218 0.4473819 -0.0069003003 0.41471806 0.24902745 0.39189276
00000000: 206d 133e 166a f1be bea4 403e 9321 97bd
00000010: 93c0 403d 2197 63bd 2dd3 65bd cd56 c6be
00000020: 3fde 8eba 8c2b f43e b9e2 c03e 94de d9be
00000030: 4ce4 f4be 7dd1 f03d 92ba a03e 66ba 813d
00000040: 5c62 ad3e 3911 453e 9b91 69bd 2b39 f43e
00000050: cf01 97be 1542 d1be cf8c c73d 95f6 1abe
00000060: 8247 9a3e e05b debe c79a 5a3e d312 003e
00000070: a651 423e ceaf 83be 4408 943e e438 a2bc
00000080: 68f2 b6bc a3b4 d1bd bd46 f53e 678f 133e
00000090: 6502 a8be 8fe7 b83e c7ab 593e 7b99 f13e
000000a0: c3a0 703e 5b8f 9cbe 2dca 573e 3e0f e53e
000000b0: ea1b e2bb ed55 d43e 0d01 7f3e 2ba6 c83e

bias_ih_l0 f4 [12]
0.13001028 -0.11038535 0.43535233 0.47039467 0.05601812 -0.08244109 -0.24780779 0.3156676
-0.329132 0.36008653 -0.2544038 0.29731944
00000000: 6a21 053e b711 e2bd 80e6 de3e 92d7 f03e
00000010: 4273 653d e0d6 a8bd 53c1 7dbe 2f9f a13e
00000020: fd83 a8be 435d b83e 3741 82be 413a 983e

bias_hh_l0 f4 [12]
-0.16067082 -0.0048542074 0.016312547 -0.43101645 0.11686603 0.416451 0.36734045 -0.2935536
0.3627644 -0.48900786 0.19775426 -0.47760206
00000000: e486 24be 0b10 9fbb e4a1 853c 30ae dcbe
00000010: 7557 ef3d 1139 d53e 0c14 bc3e a84c 96be
00000020: 41bc b93e 3d5f fabe 1880 4a3e 4288 f4be

weight f4 [4, 4]
0.11866428 0.15021873 0.039070472 0.4445595 0.30194813 -0.07441918 -0.19512951 0.20168257
-0.045222454 -0.15797526 -0.2262721 0.013194958 0.492305 0.41220123 -0.47122234 0.49381
00000000: 4206 f33d f0d2 193e 5c08 203d 4e9d e33e
00000010: f298 9a3e 1569 98bd 08d0 47be e085 4e3e
00000020: 2e3b 39bd 44c4 21be e0b3 67be aa2f 583c
00000030: 670f fc3e 0a0c d33e 0e44 f1be aad4 fc3e

bias f4 [4]
0.10068364 0.092959546 0.42218098 0.2223318
00000000: 3933 ce3d 9361 be3d 1b28 d83e f3aa 633e

weight f4 [320, 8]
-0.010094883 0.00034159643 0.2976429 -0.032420207 0.13502713 -0.11052543 0.0002866157 -0.07648039
0.031859353 -0.09272564 -0.1899761 0.22359155 -0.112140626 0.114558965 -0.35867125 -0.23068437
0.08997235 0.18583366 0.2116023 0.2853423 0.34577805 0.14153136 -0.05879456 0.030421551
-0.25974697 0.30162543 -0.16995464 -0.303284 -0.019050976 -0.1174921 -0.11769474 0.1542796
0.289972 0.18272331 -0.31550822 -0.12356821 -0.047496952 0.100929305 -0.20278153 -0.28339225
0.006784355 0.19604172 0.12203677 0.017961424 0.00036667357 -0.30109203 -0.00032989788 0.07853509
0.08515931 -0.27025732 0.19070677 0.26169297 0.258383 -0.08173814 0.29105264 0.26932025
-0.07466628 0.19058067 -0.20837945 -0.25602934 0.079503626 -0.28340578 -0.2557905 -0.07043893
0.06425356 -0.065649435 0.0003671166 0.23134448 0.1998624 0.00030610713 0.25438958 -0.0636909
0.3200036 -0.26658264 0.30173823 0.16569327 0.30946302 0.009988177 -0.2164413 0.19014536
0.16892743 0.27686918 -0.08997234 0.05877701 -0.14583184 0.20120998 -0.11702191 -0.3387176
0.15406348 -0.17268604 -0.30138227 0.1818798 0.062453654 0.33929095 0.08560051 0.101222016
0.21726969 0.025556512 0.2482049 0.14248966 0.07264134 0.14696799 -0.13605833 -0.09579273
0.009183685 -0.2918855 -0.18793942 -0.22599022 -0.17379096 0.1166005 0.08979677 -0.0036732855
-0.00080748054 0.1204769 -0.20519313 -0.071449354 -0.2674234 -0.31973755 0.30418247 0.26134953
0.028186398 0.2023383 -0.30278686 0.28163135 -0.16717526 -0.00013109455 0.07894577 -0.046632126
0.1473796 0.10180042 -0.2964094 0.021425875 -0.01023946 0.23263125 0.00036623282 0.05498423
-0.025239471 -0.06363528 -0.21234751 -0.31238896 0.36521187 0.07635261 -0.15618427 0.12557352
0.09924219 0.2525854 0.28532606 0.2562237 -0.15810521 0.2891452 -0.17346187 0.06482469
-0.24060558 0.16509269 -0.26210678 -0.32483673 0.30415502 0.33483648 0.17982817 0.01168343
-0.09101954 0.04621676 -0.027529841 -0.16581778 -0.049031373 -0.017996239 0.037575185 -0.09988817
0.020813992 0.315606 0.096649066 0.30009824 0.24250536 -0.17739515 0.22553965 0.18262851
0.11504153 -0.28609827 -0.29946288 -0.1154951 0.2558793 -0.33403847 -0.15541247 -0.029304601
-0.11943973 -0.20022261 0.09841026 -0.18831159 0.1269045 0.28784686 0.07517059 -0.009826816
-0.10971245 0.12560369 0.2698957 -0.1599185 0.21742727 -0.0071736276 -0.32092607 -0.31877968
0.17258386 -0.3244619 0.21818414 0.23738617 -0.0700852 0.27331084 -0.21097341 0.34736997
-0.24913193 0.005257116 -0.21728325 0.2941256 -0.27959338 -0.28287554 -0.2062574 -0.13258849
-0.07207385 0.012514808 -0.16330403 -0.1912675 0.20864208 0.15116136 0.2577064 -0.11805618
0.07762036 -0.054455206 -0.061128795 0.07168306 0.100404456 -0.24782537 -0.15746781 0.17444688
-0.00973257 0.32644108 -0.26739633 0.22280061 0.17130178 -0.20836483 0.32152194 0.34365645
-0.23542441 0.150013 -0.0625685 -0.3117886 -0.10098109 0.25469524 -0.25623658 -0.0711006
0.14173679 0.06904191 0.029152168 0.15801929 -0.1349138 0.35416636 0.18507166 -0.1362254
00000000: 0265 25bc 4c18 b339 a664 983e 0dcb 04bd
00000010: 8d44 0a3e 285b e2bd e844 9639 c0a1 9cbd
00000020: f47e 023d f1e6 bdbd 1889 42be 2ff5 643e
00000030: fca9 e5bd e49d ea3d c2a3 b7be 8638 6cbe
00000040: 6c43 b83d 2e4b 3e3e 46ae 583e 6318 923e
00000050: d209 b13e 99ed 103e 91d2 70bd 9e36 f93c
00000060: 8efd 84be a66e 9a3e 9708 2ebe 0a48 9bbe
00000070: cb10 9cbc b39f f0bd f109 f1bd 79fb 1d3e
00000080: 3677 943e d21b 3b3e 4b8a a1be 5411 fdbd
00000090: 2a8c 42bd 06b4 ce3d f6a5 4fbe ca18 91be
000000a0: 4b4f de3b 29bf 483e 6aee f93d d623 933c
000000b0: 183e c039 bc28 9abe 25f6 acb9 01d7 a03d
000000c0: 0168 ae3d 2b5f 8abe a348 433e 9ffc 853e
000000d0: c74a 843e 5366 a7bd da04 953e 58e4 893e
000000e0: a2ea 98bd 9427 433e 6c61 55be 4716 83be
000000f0: ccd2 a23d 901a 91be f9f6 82be 4942 90bd
00000100: 5f97 833d 3673 86bd 8e79 c039 91e5 6c3e
00000110: bba8 4c3e 017d a039 5a3f 823e 6070 82bd
00000120: 83d7 a33e 857d 88be 6f7d 9a3e 7fab 293e
00000130: f071 9e3e 73a5 233c caa2 5dbe 77b5 423e
00000140: 50fb 2c3e ccc1 8d3e 6b43 b8bd 29c0 703d
00000150: f154 15be fd09 4e3e 2fa9 efbd 656c adbe
00000160: d1c2 1d3e 9cd4 30be c74e 9abe b33e 3a3e
00000170: 67cf 7f3d 8bb7 ad3e 524f af3d 7d4d cf3d
00000180: f27b 5e3e e45b d13c 6d29 7e3e cfe8 113e
00000190: fcc4 943d c77e 163e e052 0bbe fb2e c4bd
000001a0: 2b77 163c 0472 95be 3173 40be fb69 67be
000001b0: 42f6 31be 3ecc ee3d 5ee7 b73d 81bb 70bb
000001c0: 1aad 53ba 98bc f63d 261e 52be 0a54 92bd
000001d0: b8eb 88be a4b4 a3be cebd 9b3e 9bcf 853e
000001e0: 29e7 e63c c531 4f3e e106 9bbe fc31 903e
000001f0: fe2f 2bbe 6d76 09b9 52ae a13d 5401 3fbd
00000200: aeea 163e bd7c d03d f9c2 97be 5185 af3c
00000210: 68c3 27bc e336 6e3e f002 c039 2537 613d
00000220: 02c3 cebc 3753 82bd a071 59be 72f1 9fbe
00000230: 0dfd ba3e c25e 9c3d c5ee 1fbe 5896 003e
00000240: 7d3f cb3d e052 813e 4216 923e c12f 833e
00000250: 55e6 21be d70a 943e fd9f 31be cfc2 843d
00000260: 4f61 76be 0f0e 293e dc32 86be 0051 a6be
00000270: 35ba 9b3e b06f ab3e e024 383e db6b 3f3c
00000280: 7468 babd c94d 3d3d 4386 e1bc 23cc 29be
00000290: 1fd5 48bd d96c 93bc 70e8 193d 2b92 ccbd
000002a0: 1b82 aa3c 1c97 a13e f2ef c53d 7aa6 993e
000002b0: 5353 783e 13a7 35be def3 663e f802 3b3e
000002c0: e59a eb3d 797b 92be 3353 99be b288 ecbd
000002d0: 9d02 833e 1707 abbe 7224 1fbe 3410 f0bc
000002e0: d19c f4bd 2807 4dbe 528b c93d c1d4 40be
000002f0: 41f3 013e aa60 933e 0af3 993d a700 21bc
00000300: ecb0 e0bd 419e 003e c52f 8a3e adc1 23be
00000310: 41a5 5e3e c010 ebbb 6c50 a4be 1737 a3be
00000320: d3b9 303e df1f a6be aa6b 5f3e 5c15 733e
00000330: d488 8fbd 66ef 8b3e 6a09 58be 7ada b13e
00000340: 711c 7fbe e343 ac3b 807f 5ebe a197 963e
00000350: dd26 8fbe 10d5 90be 2435 53be 47c5 07be
00000360: 749b 93bd e90a 4d3c 2c39 27be a1db 43be
00000370: 45a6 553e 0bca 1a3e 18f2 833e 70c7 f1bd
00000380: 6cf7 9e3d 6c0c 5fbd 3062 7abd 91ce 923d
00000390: daa0 cd3d efc5 7dbe 3e3f 21be 34a2 323e
000003a0: 5b75 1fbc 4923 a73e 2ce8 88be d825 643e
000003b0: bc69 2f3e 975d 55be 869e a43e bdf3 af3e
000003c0: 1913 71be 029d 193e ea23 80bd c1a2 9fbe
000003d0: 2ccf cebd 6a67 823e 7131 83be 319d 91bd
000003e0: 7323 113e d865 8d3d 87d0 ee3c cfcf 213e
000003f0: d826 0abe 4b55 b53e 6d83 3d3e ac7e 0bbe

bias f4 [320]
-0.23043533 0.30158558 0.10884273 -0.21681392 -0.124401435 -0.30311027 0.09142474 -0.29350963
-0.2517431 0.09615114 0.3428833 0.27789074 0.016390331 -0.15651646 0.040027432 -0.29696482
-0.28450793 -0.043371394 0.06914535 -0.14724633 -0.28234136 -0.31393477 0.257921 -0.14568523
-0.2030099 0.09382356 0.107306466 -0.11997671 0.32773536 0.26363197 0.31872123 0.05668519
0.011998546 0.33140248 0.019198017 -0.11355296 0.06473527 0.10601951 0.14692913 -0.2757817
0.017063273 0.1887907 0.19354552 -0.28253835 0.13046545 0.11997805 0.1377341 -0.04309745
-0.10197366 -0.10747779 -0.063056864 -0.22664525 -0.004743428 0.33826208 -0.11811319 -0.10734986
0.23322569 0.105306186 0.34361246 0.297483 -0.25709406 0.06403581 -0.10240824 -0.23552443
-0.27435195 -0.14150083 0.20212513 0.34151894 0.14314835 0.03704115 -0.15092868 -0.1697465
0.24649459 -0.2475118 -0.061460994 -0.16550107 0.18592891 -0.22310987 0.2094327 -0.28073215
-0.026656711 0.34597513 0.25570104 0.2074285 0.20672394 0.10185311 -0.05416573 -0.14655322
0.03909931 -0.15951039 0.23024209 -0.072315104 -0.16419333 0.11651923 0.12633345 -0.2615747
-0.34444705 0.34110862 0.3565625 -0.29892305 -0.012872967 -0.027016355 0.1068794 0.15872854
0.09565241 -0.27282357 0.01105272 -0.14220618 -0.18492115 -0.15409265 0.021639112 -0.14868212
0.3164717 0.060744707 -0.19988874 -0.28882852 0.30841923 0.025689686 0.101178564 0.26280743
0.31192887 -0.09092665 -0.25093138 0.2126412 -0.19092956 -0.23703839 -0.19952412 -0.10210424
-0.082523145 0.110612266 -0.11324238 0.12176037 -0.2745793 0.33223733 -0.21906675 -0.2024014
0.08188103 -0.092670985 -0.0762866 -0.11104056 0.25237444 -0.020862188 -0.21598075 -0.0037452758
-0.057373054 0.03450996 0.038313664 -0.017737178 -0.21586291 0.14395052 0.21561833 -0.024479548
-0.17130037 -0.13402154 0.28650516 -0.16367118 0.3119019 0.025528774 0.05181508 0.34876755
-0.078409456 -0.11844987 -0.2895897 -0.27289996 0.26399443 0.07296105 0.22190253 0.31733146
-0.1537546 -0.1249836 0.08630138 0.09484509 -0.11815343 0.16104136 -0.18984264 -0.2239935
-0.23242572 -0.22546326 0.2676166 -0.2791541 0.10160314 0.10014858 0.037572753 0.107688315
-0.163104 -0.285113 0.2561728 0.096960835 0.07315636 -0.28288844 0.21059029 0.29975113
0.0026305064 -0.09051879 0.29542843 0.03160449 0.101534136 -0.26426488 0.3054805 -0.2790519
-0.21830712 0.3309359 -0.21820052 0.23377575 0.1302542 0.0015687504 0.1199513 -0.27980855
-0.103531234 0.09001613 0.09922015 0.038274854 0.19777976 0.0010691686 0.23437189 0.16847923
0.31427428 -0.13515364 0.24332757 -0.24167426 0.15844 -0.187525 0.15551181 -0.1951603
0.33382812 -0.25290912 0.30859274 0.103304446 -0.0849639 -0.037224166 -0.16779377 0.29241565
-0.093451396 -0.05634906 -0.17273234 -0.070691325 -0.20577793 0.22510521 -0.22421803 0.27743834
0.1691685 0.015539422 0.15658669 -0.16979183 0.23571105 -0.23136887 0.1637143 0.032322835
-0.034208275 0.013703498 0.28242052 -0.064348586 -0.26154125 -0.046223845 -0.24185218 0.16390538
00000000: 3df7 6bbe 6d69 9a3e f0e8 de3d 7804 5ebe
00000010: 2ec6 febd 4531 9bbe e53c bb3d e546 96be
00000020: 79e4 80be e4ea c43d 668e af3e b247 8e3e
00000030: 0445 863c da45 20be cef3 233d c60b 98be
00000040: 06ab 91be 34a6 31bd 149c 8d3d bec7 16be
00000050: 0c8f 90be 0fbc a0be 390e 843e 822e 15be
00000060: d4e1 4fbe 9126 c03d 7ec3 db3d 59b6 f5bd
00000070: eecc a73e c5fa 863e 6e2f a33e bb2e 683d
00000080: 8d95 443c 96ad a93e 2945 9d3c 748e e8bd
00000090: ed93 843d c220 d93d 9774 163e 4233 8dbe
000000a0: 47c8 8b3c 5952 413e cc30 463e dea8 90be
000000b0: bc98 053e 0db7 f53d 2b0a 0d3e f486 30bd
000000c0: 91d7 d0bd 511d dcbd f523 81bd b115 68be
000000d0: c26e 9bbb b030 ad3e 54e5 f1bd 3eda dbbd
000000e0: b7d2 6e3e c5aa d73d f9ed af3e b14f 983e
000000f0: d5a1 83be 3525 833d 69bb d1bd 512d 71be
00000100: dc77 8cbe 98e5 10be e4f9 4e3e 92db ae3e
00000110: 7b95 123e 76b8 173d 0c8d 1abe 07d2 2dbe
00000120: 1469 7c3e bc73 7dbe 86be 7bbd 1d79 29be
00000130: 2664 3e3e ea76 64be 8775 563e 20bc 8fbe
00000140: 2d5f dabc a723 b13e 3feb 823e 2368 543e
00000150: 71af 533e 5d98 d03d e2dc 5dbd 0c12 16be
00000160: 9926 203d b156 23be 95c4 6b3e f119 94bd
00000170: 4c22 28be a2a1 ee3d 8e5d 013e 1eed 85be
00000180: 5d5b b0be caa5 ae3e 5c8f b63e 710c 99be
00000190: 23e9 52bc 6751 ddbc 96e3 da3d bc89 223e
000001a0: 69e5 c33d 88af 8bbe 7816 353c 7f9e 11be
000001b0: f85b 3dbe 77ca 1dbe 8244 b13c 2040 18be
000001c0: 9408 a23e 71cf 783d a2af 4cbe 55e1 93be
000001d0: 20e9 9d3e 2d73 d23c b536 cf3d b28e 863e
000001e0: 24b5 9f3e c037 babd 147a 80be 9dbe 593e
000001f0: 0a83 43be 31ba 72be 0d50 4cbe 071c d1bd
00000200: e501 a9bd af88 e23d 9feb e7bd 805d f93d
00000210: a895 8cbe 031b aa3e 0953 60be 5042 4fbe
00000220: 3eb1 a73d 49ca bdbd 263c 9cbd 3c69 e3bd
00000230: 3937 813e 2ee7 aabc 0f2a 5dbe 4d73 75bb
00000240: 0200 6bbd 515a 0d3d caee 1c3d 8f4d 91bc
00000250: 2b0b 5dbe c467 133e 0dcb 5c3e 5589 c8bc
00000260: 5d69 2fbe f13c 09be ceb0 923e 6b99 27be
00000270: 9bb1 9f3e b821 d13c 0d3c 543d a991 b23e
00000280: 2395 a0bd d895 f2bd 1a45 94be 8bb9 8bbe
00000290: 472a 873e 9a6c 953d 6b3a 633e 4579 a23e
000002a0: d971 1dbe 67f7 ffbd c7be b03d 243e c23d
000002b0: 6dfa f1bd 07e8 243e 1c66 42be 8d5e 65be
000002c0: 0201 6ebe d7df 66be 0b05 893e 49ed 8ebe
000002d0: 4f15 d03d b31a cd3d e3e5 193d b18b dc3d
000002e0: bc04 27be 55fa 91be 1529 833e 6793 c63d
000002f0: 00d3 953d c1d6 90be fba4 573e fb78 993e
00000300: 9364 2c3b ea61 b9bd 6542 973e b673 013d
00000310: 21f1 cf3d ba4d 87be f167 9c3e e4df 8ebe
00000320: e78b 5fbe 6e70 a93e f56f 5fbe e962 6f3e
00000330: 5b61 053e 879e cd3a 07a9 f53d 1143 8fbe
00000340: 2f08 d4bd 605a b83d ef33 cb3d 18c6 1c3d
00000350: c786 4a3e 5823 8c3a 2fff 6f3e d285 2c3e
00000360: 8fe8 a03e b765 0abe dd2a 793e 7579 77be
00000370: 183e 223e 8e06 40be 7d3e 1f3e 1ad8 47be
00000380: 85eb aa3e 4e7d 81be deff 9d3e 4891 d33d
00000390: 8e01 aebd 5e78 18bd 21d2 2bbe 81b7 953e
000003a0: 7263 bfbd 46ce 66bd bfe0 30be 9dc6 90bd
000003b0: 73b7 52be fb81 663e 6999 65be 660c 8e3e
000003c0: 823a 2d3e 0f99 7e3c 4358 203e e9dd 2dbe
000003d0: 3d5e 713e f6eb 6cbe b9a4 273e f364 043d
000003e0: fa1d 0cbd a384 603c 6c99 903e 31c9 83bd
000003f0: bce8 85be 3755 3dbd 19a8 77be d0d6 273e

weight f4 [4, 320]
0.00036756427 -0.03413104 0.03339462 0.005995882 -0.026452249 0.0030221061 -0.02154934 0.00012820226
-0.00036795565 0.032456152 -0.012617872 -0.053736296 0.03897456 -0.012747472 -0.029543813 0.00036758147
0.0013075678 0.028569253 -0.037148595 0.030683711 0.00036808598 -0.033252787 0.020168409 0.015172221
0.04307832 -0.05486062 0.023244014 -0.00036675684 -0.03850449 0.04732868 0.02979389 -0.042189207
0.03640027 0.021241054 -0.021368766 0.04877182 -0.03541971 0.007198524 -0.035793953 0.00036747076
-0.01931691 -0.035147876 -0.037027583 0.00034614926 -0.0038377119 -0.03853546 -0.030504456 0.048584677
-0.034256827 -0.063077725 -0.037340734 0.0003093726 -0.039787598 0.0055944 0.032850135 0.044076428
0.006218808 -0.04161279 0.014255921 -0.011830864 -0.015793253 -0.05729956 0.0053520077 0.036331244
-0.0008377346 0.00036626015 -0.044443194 0.026608188 -0.031651266 -0.042960424 -0.0058951476 -0.0001908721
0.0037526966 -0.04426031 0.0010289974 0.00035011407 0.03146054 0.013191992 -0.005787254 -0.000809894
-0.0035756151 0.019140452 0.025907677 -0.04287498 -0.027990073 -0.0058898376 -0.00036706845 0.005956313
-0.01781424 -0.04272562 -0.04909867 -0.046410695 -0.0003668288 -0.06603692 0.0025969823 -0.039012466
-0.0015513478 0.027135164 0.008901154 -0.026678542 -0.024126304 -0.051861823 0.0007767639 0.04440758
-0.025179775 0.00036760655 0.025585711 0.000103101294 -0.020284625 -0.03107534 0.02772815 0.036699556
-0.03862111 -0.020193266 -0.013211652 -0.03714514 0.031437863 -0.042317934 -0.0011270485 -0.022052174
0.054294065 -0.012894062 0.04986029 -0.022360787 -0.016223876 0.029790225 0.0004057166 -0.018799054
0.016272133 -0.0092199575 0.021256464 -0.041857548 2.0562924e-05 -0.016243864 0.04327299 -0.00031668428
0.033533864 -0.0012316466 0.0420876 -0.011915515 0.040093698 0.00064337114 0.05962004 0.010694352
-0.01749606 0.0031080444 0.038301677 0.004593101 0.00036835088 0.052140743 0.0010386318 -0.035281688
-0.03996977 0.00036698516 -0.0033016666 -0.029094558 0.008329238 0.0012371793 -0.015755694 0.040189132
-0.029956194 -0.00034897646 -0.0532822 -0.0163992 -0.004208692 0.052411817 -0.00036469672 -0.04371641
-0.00035333377 -0.065207444 -0.008626199 -0.030466821 -0.013264134 -0.05339976 -0.0008177376 -0.018484065
0.004754686 -0.00036765644 0.029104082 -0.00036742658 -0.0061264983 -0.011297134 0.043513387 0.01509868
-0.011001103 -0.045937385 0.040638495 -0.060590744 -0.035419814 0.00026666356 -0.04971812 -0.053879082
-0.00014116813 -0.055629864 -0.03957001 -0.05140271 0.019094184 0.0012129887 -0.031391814 0.0003652743
-0.021389578 0.036921304 0.028632442 0.013902583 -0.036393456 -0.010559268 0.039227016 0.010307107
-0.032947317 -0.0136565715 -0.009353767 -0.060314205 0.005971734 -0.045412734 -0.019405313 0.015539286
-0.007857359 -0.02419815 -0.038486775 0.00036815822 -0.061561164 -0.0030545811 -0.015987335 0.028834062
0.019796476 0.043660067 -0.01828267 -0.016982859 0.00651492 -0.007400507 -0.056414146 0.013045999
-0.00015839137 -0.00022939392 0.00031512053 0.0003676297 -0.00036823493 -0.025639862 -0.00034486692 -0.02934549
0.050951328 -0.025438895 -0.019721342 -0.0017545237 0.024669731 -0.060331076 -0.038302094 0.0017631938
0.028057752 -0.03471636 0.01373099 -0.015802357 -0.00036668044 -0.028526355 -0.00036684982 -0.015068662
00000000: a4b5 c039 fdcc 0bbd ccc8 083d 1b79 c43b
00000010: 63b2 d8bc 870e 463b 3e88 b0bc 086e 0639
00000020: 2cea c0b9 bef0 043d 31bb 4ebc 971a 5cbd
00000030: caa3 1f3d c6da 50bc de05 f2bc f3b7 c039
00000040: b262 ab3a 110a ea3c 2029 18bd 685c fb3c
00000050: aafb c039 1334 08bd 3838 a53c e894 783c
00000060: e472 303d 88b5 60bd 3b6a be3c 4549 c0b9
00000070: e2b6 1dbd b8db 413d 5112 f43c 97ce 2cbd
00000080: 7318 153d b801 ae3c 8d0d afbc f6c4 473d
00000090: 4214 11bd 99e1 eb3b ae9c 12bd 17a9 c039
000000a0: 7f3e 9ebc 38f7 0fbd 3caa 17bd 5e7b b539
000000b0: 1f82 7bbb 5cd7 1dbd 7be4 f9bc ba00 473d
000000c0: e350 0cbd e52e 81bd 99f2 18bd 4a33 a239
000000d0: 52f8 22bd 3b51 b73b dd8d 063d 7c89 343d
000000e0: 24c7 cb3b 2c72 2abd ab91 693c 3dd6 41bc
000000f0: da60 81bc f2b2 6abd e55f af3b 12d0 143d
00000100: 6b9b 5bba 9b06 c039 110a 36bd 6af9 d93c
00000110: c2a4 01bd 45f7 2fbd 152c c1bb d724 48b9
00000120: cdef 753b 4c4a 35bd 6cdf 863a 848f b739
00000130: c4dc 003d 3a23 583c 01a3 bdbb 114f 54ba
00000140: de54 6abb 70cc 9c3c 563c d43c ad9d 2fbd
00000150: 704b e5bc 8aff c0bb 1873 c0b9 2d2d c33b
00000160: 2bef 91bc 0f01 2fbd b01b 49bd 2419 3ebd
00000170: ee52 c0b9 5d3e 87bd 2232 2a3b 89cb 1fbd
00000180: 9856 cbba 904a de3c 25d6 113c f58c dabc
00000190: 87a4 c5bc 106d 54bd be9f 4b3a b9e4 353d
000001a0: d145 cebc 51bb c039 2099 d13c 1638 d838
000001b0: f12b a6bc b691 febc 2526 e33c 4652 163d
000001c0: 2b31 1ebd 596c a5bc af75 58bc 8125 18bd
000001d0: fdc4 003d 9255 2dbd 79b9 93ba c3a6 b4bc
000001e0: 7463 5e3d 9e41 53bc 4e3a 4c3d f82d b7bc
000001f0: efe7 84bc a10a f43c 5cb6 d439 7900 9abc
00000200: 234d 853c 4e0f 17bc 0922 ae3c d272 2bbd
00000210: 8b7e ac37 da11 85bc 053f 313d a508 a6b9
00000220: ce5a 093d 346f a1ba 0c64 2c3d 4b39 43bc
00000230: 4a39 243d e8a7 283a 2534 743d 5d37 2f3c
00000240: e653 8fbc 55b0 4b3b 38e2 1c3d b981 963b
00000250: 381f c139 8891 553d b322 883a 8883 10bd
00000260: 57b7 23bd ea67 c039 c660 58bb b657 eebc
00000270: 5b77 083c d928 a23a 1612 81bc 5c9d 243d
00000280: b166 f5bc d4f6 b6b9 703e 5abd 9d57 86bc
00000290: 11e9 89bb c6ad 563d c434 bfb9 fa0f 33bd
000002a0: a83f b9b9 7b8b 85bd e754 0dbc 8e95 f9bc
000002b0: cf51 59bc b5b9 5abd 715d 56ba e56b 97bc
000002c0: 32cd 9b3b 03c2 c0b9 af6b ee3c 29a3 c0b9
000002d0: cbc0 c8bb 9d17 39bc 183b 323d 7460 773c
000002e0: f83d 34bc d728 3cbd 8d74 263d 002e 78bd
000002f0: 5e14 11bd face 8b39 3aa5 4bbd 50b0 5cbd
00000300: 8806 14b9 24dc 63bd 2a14 22bd a68b 52bd
00000310: 686b 9c3c 26fd 9e3a b494 00bd 4982 bf39
00000320: 3239 afbc cb3a 173d 958e ea3c a9c7 633c
00000330: 4e11 15bd c800 2dbc 82ac 203d 24df 283c
00000340: c4f3 06bd d0bf 5fbc 8b40 19bc 070c 77bd
00000350: 89ae c33b b402 3abd e4f7 9ebc 7d98 7e3c
00000360: 27bc 00bc 333b c6bc 4fa4 1dbd 5c05 c139
00000370: 8f27 7cbd 5e2f 48bb dff7 82bc 6935 ec3c
00000380: 382c a23c e6d4 323d 8ac5 95bc a31f 8bbc
00000390: 1c7b d53b f47f f2bb 8512 67bd e3be 553c
000003a0: dc15 26b9 7689 70b9 c336 a539 6cbe c039
000003b0: a80f c1b9 b00a d2bc 41cf b4b9 f465 f0bc
000003c0: 57b2 503d 3b65 d0bc a78e a1bc 0cf8 e5ba
000003d0: 2d18 ca3c b81d 77bd a8e2 1cbd f71a e73a
000003e0: 5fd9 e53c be32 0ebd f2f7 603c f273 81bc
000003f0: 043f c0b9 1ab0 e9bc c055 c0b9 8de2 76bc

bias f4 [4]
-0.025854006 0.047802478 -0.008013135 0.05806431
00000000: c8cb d3bc 88cc 433d 8649 03bc d8d4 6d3d

weight f4 [4, 8]
-0.0677848 0.09113602 0.18896829 -0.10353819 0.30055577 0.21041752 -0.0067143305 -0.22671431
0.19084278 0.004560075 0.14748442 -0.2003043 -0.26404804 -0.034942508 0.08435332 0.22634198
-0.25892314 0.09193402 0.19546781 -0.116540596 -0.07979071 -0.1258336 0.10931142 -0.07691091
-0.11199419 -0.35615385 -0.071452424 -0.009840409 -0.08870514 -0.324141 0.08361058 0.032081712
00000000: c2d2 8abd 86a5 ba3d e780 413e d50b d4bd
00000010: 72e2 993e b177 573e e303 dcbb cc27 68be
00000020: 4a6c 433e ae6c 953b 2806 173e 921c 4dbe
00000030: 4e31 87be e01f 0fbd 6fc1 ac3d 31c6 673e
00000040: 9391 84be e747 bc3d b728 483e d6ac eebd
00000050: 5069 a3bd 86da 00be aade df3d 7883 9dbd
00000060: 365d e5bd cc59 b6be a655 92bd ab39 21bc
00000070: 0aab b5bd cff5 a5be 063c ab3d 1d68 033d

bias f4 [4]
-0.01502433 -0.22598635 0.3151934 0.25343344
00000000: 9b28 76bc f768 67be 0861 a13e 07c2 813e

weight f4 [4, 8]
0.00084740727 -0.005341288 0.14920627 0.25038403 0.25074404 0.00036855784 0.13538142 0.0003425558
-0.26155218 -0.070729986 -0.098259725 -0.24894 0.13743411 0.048257567 0.0014660066 0.19267122
-0.058547013 -0.2221617 0.19214484 -0.051862203 -0.21388291 0.2355496 -0.25313687 0.034013588
0.32635856 -0.2727932 0.23499408 -0.28626046 0.1733421 1.8958346e-05 -0.28500733 0.027597737
00000000: 8a24 5e3a f905 afbb 87c9 183e 5632 803e
00000010: 8661 803e ff3a c139 6da1 0a3e 1099 b339
00000020: 2bea 85be e2da 90bd 653c c9bd 21ea 7ebe
00000030: 87bb 0c3e baa9 453d 0527 c03a 9b4b 453e
00000040: fece 6fbd 5b7e 63be 9ec1 443e 766d 54bd
00000050: 1f04 5bbe ea33 713e 289b 81be d551 0b3d
00000060: 7818 a73e 8dab 8bbe 4aa2 703e bb90 92be
00000070: 9780 313e bd08 9f37 7bec 91be a614 e23c

bias f4 [4]
-0.15519379 0.08470263 -0.2666088 -0.077259235
00000000: 1feb 1ebe 9378 ad3d f380 88be 173a 9ebd

weight f4 [10, 2]
-0.5465451 0.11600042 -0.22376853 0.094525225 -0.14208797 0.19764206 0.3157775 -0.28787407
0.52826476 0.58349496 -0.2853834 -0.09852471 -0.034564108 0.57423335 -0.62211686 0.57408804
-0.4089394 0.16369218 0.26134908 -0.14454481
00000000: 61ea 0bbf a191 ed3d 9423 65be 7196 c13d
00000010: 827f 11be ae62 4a3e 97ad a13e 3b64 93be
00000020: 5c3c 073f ed5f 153f c61d 92be 53c7 c9bd
00000030: 1893 0dbd f500 133f 0d43 1fbf 6ff7 123f
00000040: 8160 d1be ec9e 273e 8ccf 853e 8e03 14be

bias f4 [10]
0.6460629 -0.09831429 -0.44951978 0.6840258 -0.597959 -0.15210424 -0.0077835456 -0.6870079
-0.30838758 -0.33170062
00000000: 6164 253f 0159 c9bd 7527 e6be 511c 2f3f
00000010: d713 19bf 37c1 1bbe 1d0d ffbb c0df 2fbf
00000020: fae4 9dbe aad4 a9be

weight f4 [10, 2]
-0.11873253 -0.3627539 -0.27292523 0.2660946 -0.015184659 0.13852118 0.68747383 -0.65734273
0.212891 -0.26325297 0.45668176 0.3999729 0.44150442 -0.37593234 -0.42675546 0.36575234
0.32465702 -0.039892115 0.44416806 0.050352927
00000000: 0a2a f3bd e1ba b9be dbbc 8bbe 8d3d 883e
00000010: 13c9 78bc 7fd8 0d3e 49fe 2f3f 9d47 28bf
00000020: 1900 5a3e 18c9 86be 31d2 e93e 3fc9 cc3e
00000030: de0c e23e 347a c0be b17f dabe e443 bb3e
00000040: 7239 a63e ea65 23bd ff69 e33e df3e 4e3d

bias f4 [10]
0.2795037 -0.043649517 -0.63482785 -0.48361468 0.6520653 0.43301588 -0.25780332 0.34513628
0.14838164 -0.51536745
00000000: 1c1b 8f3e d6c9 32bd 1484 22bf 589c f7be
00000010: c0ed 263f 42b4 dd3e ccfe 83be b4b5 b03e
00000020: 5bf1 173e 1fef 03bf

weight f4 [20, 4]
-0.5088829 -0.4343527 0.27576417 0.09579071 -0.47192422 -0.016310582 -0.04328269 -0.069740325
-0.14073321 0.27772328 -0.34509888 0.0028622088 0.11805907 0.21405122 -0.3281435 -0.15207675
-0.50269043 0.46127948 0.35916495 0.3140166 -0.16072628 0.08835765 0.18604366 0.14493656
0.45153272 0.23950335 0.3785185 0.40994328 0.25503835 -0.4629684 0.18970034 0.020384012
-0.22312266 -0.11770637 0.45637915 -0.30048418 -0.22860336 0.38487718 -0.34073564 -0.47453928
-0.45171073 -0.39432204 0.30263814 0.2122614 -0.28519112 -0.46608996 -0.3077056 -0.3426273
0.3653134 -0.15690272 -0.21280646 0.23910835 -0.029594053 -0.27223086 0.12640099 -0.11585536
0.387231 -0.22467317 -0.27255756 -0.43795276 -0.35149753 0.2752768 -0.1260811 0.4538198
0.10894791 0.028684909 -0.43060753 -0.4299858 0.4114686 -0.27833736 -0.20911302 0.34095123
0.059853647 0.51281846 -0.47569025 0.31714475 -0.29616514 0.21412927 -0.4007736 -0.35082138
00000000: 2646 02bf 7a63 debe f630 8d3e eb2d c43d
00000010: 0da0 f1be c59d 85bc 3149 31bd 04d4 8ebd
00000020: 5e1c 10be bf31 8e3e cdb0 b0be e593 3b3b
00000030: f4c8 f13d 3e30 5b3e 6d02 a8be 02ba 1bbe
00000040: 52b0 00bf d32c ec3e 78e4 b73e c9c6 a03e
00000050: 6e95 24be dbf4 b43d 3b82 3e3e 406a 143e
00000060: 4c2f e73e 5e40 753e 2dcd c13e 16e4 d13e
00000070: 6394 823e 320a edbe ce40 423e 5ffc a63c
00000080: 447a 64be 0a10 f1bd 87aa e93e 10d9 99be
00000090: 0017 6abe 9f0e c53e e774 aebe d0f6 f2be
000000a0: a146 e7be 94e4 c9be 63f3 9a3e 0d5b 593e
000000b0: 9204 92be 58a3 eebe 978b 9dbe d86c afbe
000000c0: 5c0a bb3e 1bab 20be f0e9 59be d2d8 743e
000000d0: 3a6f f2bc d861 8bbe 436f 013e 9345 edbd
000000e0: 2443 c63e b910 66be aa8c 8bbe 583b e0be
000000f0: 7cf7 b3be 15f1 8c3e 671b 01be 125b e83e
00000100: 1520 df3d 9dfc ea3c 9778 dcbe 1927 dcbe
00000110: 03ac d23e 3c82 8ebe b921 56be 2991 ae3e
00000120: 1929 753d 1248 033f ac8d f3be cc60 a23e
00000130: f5a2 97be b444 5b3e 3332 cdbe dc9e b3be

bias f4 [20]
0.0021189977 0.17985573 0.32884094 -0.31648123 -0.19525272 -0.06097422 -0.30276394 -0.12365527
0.46966124 -0.44328848 0.28175122 -0.016370727 0.39889365 0.42240924 -0.085722156 0.032028582
0.14736965 0.44926134 0.22542176 -0.48279396
00000000: e2de 0a3b 1a2c 383e d75d a83e d409 a2be
00000010: 54f0 47be 1bc0 79bd e003 9bbe f93e fdbd
00000020: 7077 f03e b5f6 e2be b241 903e e71b 86bc
00000030: ca3b cc3e 0646 d83e 198f afbd 6730 033d
00000040: 12e8 163e 9505 e63e f6d4 663e c530 f7be

G f4 [2, 1]
0.0 1.0
00000000: 0000 0000 0000 803f

m1x_posterior f4 [2]
3.4104338 -3.3799467
00000000: 8c44 5a40 0c51 58c0

m1x_posterior_previous f4 [2]
-2.7993014 4.577343
00000000: c127 33c0 9879 9240

m1x_prior_previous f4 [2]
1.7780416 -0.8778
00000000: de96 e33f 80b7 60bf

y_previous f4 [2]
-3.078597 -1.2880278
00000000: bc07 45c0 18de a4bf

KGain_array f4 [20, 2, 2]
-0.31342006 -0.11037098 0.5297811 0.7464458 -0.31296843 -0.091012806 0.623371 0.75600743
-0.33262044 -0.13623042 0.5452639 0.7931299 -0.33656615 -0.12646414 0.57990354 0.791275
-0.27994645 -0.15003675 0.54254955 0.7435199 -0.2842551 -0.08656143 0.6118907 0.70213556
-0.2842633 -0.14270261 0.56158316 0.74676955 -0.2860707 -0.17182954 0.54279727 0.75758064
-0.2294061 -0.087088525 0.61108035 0.68281806 -0.27923632 -0.14045013 0.45833653 0.7264055
-0.26890457 -0.08437449 0.5918808 0.70219946 -0.32288927 -0.1544555 0.47682983 0.78103316
-0.2612154 -0.14289238 0.5333555 0.7359309 -0.28824103 -0.11353496 0.48404408 0.72296476
-0.299645 -0.09333265 0.48100227 0.72735834 -0.2984047 -0.068170145 0.56467986 0.727702
-0.25364262 -0.11492126 0.4685698 0.69488525 -0.26602817 -0.109415576 0.47555217 0.6978779
-0.27409482 -0.06849973 0.56235135 0.6965457 -0.3240469 -0.1428802 0.44988686 0.7732501
00000000: 9878 a0be 2e0a e2bd bc9f 073f 1217 3f3f
00000010: 663d a0be ec64 babd 3e95 1f3f b489 413f
00000020: 3a4d aabe fd7f 0bbe 6a96 0b3f 900a 4b3f
00000030: 6652 acbe d17f 01be 8f74 143f 0091 4a3f
00000040: 2455 8fbe 3ca3 19be 87e4 0a3f 5257 3e3f
00000050: e289 91be 1e47 b1bd dea4 1c3f 28bf 333f
00000060: f68a 91be a220 12be eac3 0f3f 4a2c 3f3f
00000070: dc77 92be 15f4 2fbe c3f4 0a3f cef0 413f
00000080: 6fe9 6abe 785b b2bd c36f 1c3f 2acd 2e3f
00000090: 10f8 8ebe 29d2 0fbe 16ab ea3e b6f5 393f
000000a0: dcad 89be 88cc acbd 8085 173f 58c3 333f
000000b0: be51 a5be 9529 1ebe 0a23 f43e caf1 473f
000000c0: 06be 85be 6152 12be fc89 083f f865 3c3f
000000d0: 5494 93be 0485 e8bd a0d4 f73e 3814 393f
000000e0: 126b 99be 3025 bfbd ee45 f63e 2834 3a3f
000000f0: 80c8 98be ca9c 8bbd dc8e 103f ae4a 3a3f
00000100: 72dd 81be d65b ebbd 61e8 ef3e 00e4 313f
00000110: d834 88be 4615 e0bd 937b f33e 20a8 323f
00000120: 2856 8cbe 9649 8cbd 42f6 0f3f d250 323f
00000130: 7ae9 a5be 304f 12be 9257 e63e b8f3 453f

prior_Q f4 [2, 2]
1.0 0.0 0.0 1.0
00000000: 0000 803f 0000 0000 0000 0000 0000 803f

prior_Sigma f4 [2, 2]
1.0 0.0 0.0 1.0
00000000: 0000 803f 0000 0000 0000 0000 0000 803f

prior_S f4 [2, 2]
1.0 0.0 0.0 1.0
00000000: 0000 803f 0000 0000 0000 0000 0000 803f

h_Q f4 [1, 1, 4]
0.4768836 0.5429925 -0.33792257 -0.6808159
00000000: 162a f43e 8e01 0b3f 3004 adbe f349 2ebf

h_Sigma f4 [1, 1, 4]
0.0 0.22768134 0.0 0.0
00000000: 0000 0000 4c25 693e 0000 0000 0000 0000

h_S f4 [1, 1, 4]
-0.57490665 0.007900778 -0.5395005 -0.4030288
00000000: 152d 13bf 4472 013c b41c 0abf ca59 cebe

KGain f4 [2, 2]
-0.3240469 -0.1428802 0.44988686 0.7732501
00000000: 7ae9 a5be 304f 12be 9257 e63e b8f3 453f

x_out f4 [2]
3.4104338 -3.3799467
00000000: 8c44 5a40 0c51 58c0
