KNet/Linear_SS_With_MM/pipeline_KNet_MM_Linear_Dynamics_T100_v_positive_35dB.pt (torch, 199561 bytes, 351 tensors)

G f4 [2, 1]
0	0x00000000	0.0
1	0x3f800000	1.0

Q f4 [2, 2]
0	0x3f800000	1.0
1	0x00000000	0.0
2	0x00000000	0.0
3	0x3f800000	1.0

R f4 [2, 2]
0	0x39a5cb60	0.0003162278
1	0x00000000	0.0
2	0x00000000	0.0
3	0x39a5cb60	0.0003162278

prior_Q f4 [2, 2]
0	0x3f800000	1.0
1	0x00000000	0.0
2	0x00000000	0.0
3	0x3f800000	1.0

prior_Sigma f4 [2, 2]
0	0x3f800000	1.0
1	0x00000000	0.0
2	0x00000000	0.0
3	0x3f800000	1.0

prior_S f4 [2, 2]
0	0x3f800000	1.0
1	0x00000000	0.0
2	0x00000000	0.0
3	0x3f800000	1.0

m1x_0 f4 [2]
0	0x41200000	10.0
1	0x00000000	0.0

x_prev f4 [2]
0	0x41200000	10.0
1	0x00000000	0.0

m2x_0 f4 [2, 2]
0	0x00000000	0.0
1	0x00000000	0.0
2	0x00000000	0.0
3	0x00000000	0.0

QT f4 [2, 2]
0	0x3f800000	1.0
1	0x00000000	0.0
2	0x00000000	0.0
3	0x3f800000	1.0

Qx f4 [2, 2]
0	0x3f800000	1.0
1	0x00000000	0.0
2	0x00000000	0.0
3	0x3f800000	1.0

L f4 [1, 2]
0	0x3f1444c0	0.57917404
1	0x3fc5ea40	1.5462112

L f4 [1, 2]
0	0x3f144ae4	0.57926774
1	0x3fc5e428	1.5460253

L f4 [1, 2]
0	0x3f1444c0	0.57917404
1	0x3fc5ea40	1.5462112

L f4 [1, 2]
0	0x3f144ae4	0.57926774
1	0x3fc5e428	1.5460253

L f4 [1, 2]
0	0x3f1444c0	0.57917404
1	0x3fc5ea40	1.5462112

L f4 [1, 2]
0	0x3f144ae4	0.57926774
1	0x3fc5e428	1.5460253

L f4 [1, 2]
0	0x3f1444c0	0.57917404
1	0x3fc5ea40	1.5462112

L f4 [1, 2]
0	0x3f144ae4	0.57926774
1	0x3fc5e428	1.5460253

L f4 [1, 2]
0	0x3f1444c0	0.57917404
1	0x3fc5ea40	1.5462112

L f4 [1, 2]
0	0x3f144ae4	0.57926774
1	0x3fc5e428	1.5460253

L f4 [1, 2]
0	0x3f1444c0	0.57917404
1	0x3fc5ea40	1.5462112

L f4 [1, 2]
0	0x3f144ae4	0.57926774
1	0x3fc5e428	1.5460253

L f4 [1, 2]
0	0x3f1444c0	0.57917404
1	0x3fc5ea40	1.5462112

L f4 [1, 2]
0	0x3f144ae4	0.57926774
1	0x3fc5e428	1.5460253

L f4 [1, 2]
0	0x3f1444c0	0.57917404
1	0x3fc5ea40	1.5462112

L f4 [1, 2]
0	0x3f144ae4	0.57926774
1	0x3fc5e428	1.5460253

L f4 [1, 2]
0	0x3f1444c0	0.57917404
1	0x3fc5ea40	1.5462112

L f4 [1, 2]
0	0x3f144ae4	0.57926774
1	0x3fc5e428	1.5460253

L f4 [1, 2]
0	0x3f1444c0	0.57917404
1	0x3fc5ea40	1.5462112

L f4 [1, 2]
0	0x3f144ae4	0.57926774
1	0x3fc5e428	1.5460253

L f4 [1, 2]
0	0x3f1444c0	0.57917404
1	0x3fc5ea40	1.5462112

L f4 [1, 2]
0	0x3f144ae4	0.57926774
1	0x3fc5e428	1.5460253

L f4 [1, 2]
0	0x3f1444c0	0.57917404
1	0x3fc5ea40	1.5462112

L f4 [1, 2]
0	0x3f144ae4	0.57926774
1	0x3fc5e428	1.5460253

L f4 [1, 2]
0	0x3f1444c0	0.57917404
1	0x3fc5ea40	1.5462112

L f4 [1, 2]
0	0x3f144ae4	0.57926774
1	0x3fc5e428	1.5460253

L f4 [1, 2]
0	0x3f1444c0	0.57917404
1	0x3fc5ea40	1.5462112

L f4 [1, 2]
0	0x3f144ae4	0.57926774
1	0x3fc5e428	1.5460253

L f4 [1, 2]
0	0x3f1444c0	0.57917404
1	0x3fc5ea40	1.5462112

L f4 [1, 2]
0	0x3f144ae4	0.57926774
1	0x3fc5e428	1.5460253

L f4 [1, 2]
0	0x3f1444c0	0.57917404
1	0x3fc5ea40	1.5462112

L f4 [1, 2]
0	0x3f144ae4	0.57926774
1	0x3fc5e428	1.5460253

L f4 [1, 2]
0	0x3f1444c0	0.57917404
1	0x3fc5ea40	1.5462112

L f4 [1, 2]
0	0x3f144ae4	0.57926774
1	0x3fc5e428	1.5460253

L f4 [1, 2]
0	0x3f1444c0	0.57917404
1	0x3fc5ea40	1.5462112

L f4 [1, 2]
0	0x3f144ae4	0.57926774
1	0x3fc5e428	1.5460253

L f4 [1, 2]
0	0x3f1444c0	0.57917404
1	0x3fc5ea40	1.5462112

L f4 [1, 2]
0	0x3f144ae4	0.57926774
1	0x3fc5e428	1.5460253

L f4 [1, 2]
0	0x3f1444c0	0.57917404
1	0x3fc5ea40	1.5462112

L f4 [1, 2]
0	0x3f144ae4	0.57926774
1	0x3fc5e428	1.5460253

L f4 [1, 2]
0	0x3f1444c0	0.57917404
1	0x3fc5ea40	1.5462112

L f4 [1, 2]
0	0x3f144ae4	0.57926774
1	0x3fc5e428	1.5460253

L f4 [1, 2]
0	0x3f1444c0	0.57917404
1	0x3fc5ea40	1.5462112

L f4 [1, 2]
0	0x3f144ae4	0.57926774
1	0x3fc5e428	1.5460253

L f4 [1, 2]
0	0x3f1444c0	0.57917404
1	0x3fc5ea40	1.5462112

L f4 [1, 2]
0	0x3f144ae4	0.57926774
1	0x3fc5e428	1.5460253

L f4 [1, 2]
0	0x3f1444c0	0.57917404
1	0x3fc5ea40	1.5462112

L f4 [1, 2]
0	0x3f144ae4	0.57926774
1	0x3fc5e428	1.5460253

L f4 [1, 2]
0	0x3f1444c0	0.57917404
1	0x3fc5ea40	1.5462112

L f4 [1, 2]
0	0x3f144ae4	0.57926774
1	0x3fc5e428	1.5460253

L f4 [1, 2]
0	0x3f1444c0	0.57917404
1	0x3fc5ea40	1.5462112

L f4 [1, 2]
0	0x3f144ae4	0.57926774
1	0x3fc5e428	1.5460253

L f4 [1, 2]
0	0x3f1444c0	0.57917404
1	0x3fc5ea40	1.5462112

L f4 [1, 2]
0	0x3f144ae4	0.57926774
1	0x3fc5e428	1.5460253

L f4 [1, 2]
0	0x3f1444c0	0.57917404
1	0x3fc5ea40	1.5462112

L f4 [1, 2]
0	0x3f144ae4	0.57926774
1	0x3fc5e428	1.5460253

L f4 [1, 2]
0	0x3f1444c0	0.57917404
1	0x3fc5ea40	1.5462112

L f4 [1, 2]
0	0x3f144ae4	0.57926774
1	0x3fc5e428	1.5460253

L f4 [1, 2]
0	0x3f1444c0	0.57917404
1	0x3fc5ea40	1.5462112

L f4 [1, 2]
0	0x3f144ae4	0.57926774
1	0x3fc5e428	1.5460253

L f4 [1, 2]
0	0x3f1444c0	0.57917404
1	0x3fc5ea40	1.5462112

L f4 [1, 2]
0	0x3f144ae4	0.57926774
1	0x3fc5e428	1.5460253

L f4 [1, 2]
0	0x3f1444c0	0.57917404
1	0x3fc5ea40	1.5462112

L f4 [1, 2]
0	0x3f144ae4	0.57926774
1	0x3fc5e428	1.5460253

L f4 [1, 2]
0	0x3f1444c0	0.57917404
1	0x3fc5ea40	1.5462112

L f4 [1, 2]
0	0x3f144ae4	0.57926774
1	0x3fc5e428	1.5460253

L f4 [1, 2]
0	0x3f1444c0	0.57917404
1	0x3fc5ea40	1.5462112

L f4 [1, 2]
0	0x3f144ae4	0.57926774
1	0x3fc5e428	1.5460253

L f4 [1, 2]
0	0x3f1444c0	0.57917404
1	0x3fc5ea40	1.5462112

L f4 [1, 2]
0	0x3f144ae4	0.57926774
1	0x3fc5e428	1.5460253

L f4 [1, 2]
0	0x3f1444c0	0.57917404
1	0x3fc5ea40	1.5462112

L f4 [1, 2]
0	0x3f144ae4	0.57926774
1	0x3fc5e428	1.5460253

L f4 [1, 2]
0	0x3f1444c0	0.57917404
1	0x3fc5ea40	1.5462112

L f4 [1, 2]
0	0x3f144ae4	0.57926774
1	0x3fc5e428	1.5460253

L f4 [1, 2]
0	0x3f1444c0	0.57917404
1	0x3fc5ea40	1.5462112

L f4 [1, 2]
0	0x3f144ae4	0.57926774
1	0x3fc5e428	1.5460253

L f4 [1, 2]
0	0x3f1444c0	0.57917404
1	0x3fc5ea40	1.5462112

L f4 [1, 2]
0	0x3f144ae4	0.57926774
1	0x3fc5e428	1.5460253

L f4 [1, 2]
0	0x3f1444c0	0.57917404
1	0x3fc5ea40	1.5462112

L f4 [1, 2]
0	0x3f144ae4	0.57926774
1	0x3fc5e428	1.5460253

L f4 [1, 2]
0	0x3f1444c0	0.57917404
1	0x3fc5ea40	1.5462112

L f4 [1, 2]
0	0x3f144ae4	0.57926774
1	0x3fc5e428	1.5460253

L f4 [1, 2]
0	0x3f1444c0	0.57917404
1	0x3fc5ea40	1.5462112

L f4 [1, 2]
0	0x3f144ae4	0.57926774
1	0x3fc5e428	1.5460253

L f4 [1, 2]
0	0x3f1444c0	0.57917404
1	0x3fc5ea40	1.5462112

L f4 [1, 2]
0	0x3f144ae4	0.57926774
1	0x3fc5e428	1.5460253

L f4 [1, 2]
0	0x3f1444c0	0.57917404
1	0x3fc5ea40	1.5462112

L f4 [1, 2]
0	0x3f144ae4	0.57926774
1	0x3fc5e428	1.5460253

L f4 [1, 2]
0	0x3f1444c0	0.57917404
1	0x3fc5ea40	1.5462112

L f4 [1, 2]
0	0x3f144ae4	0.57926774
1	0x3fc5e428	1.5460253

L f4 [1, 2]
0	0x3f1444c0	0.57917404
1	0x3fc5ea40	1.5462112

L f4 [1, 2]
0	0x3f144ae4	0.57926774
1	0x3fc5e428	1.5460253

L f4 [1, 2]
0	0x3f1444c0	0.57917404
1	0x3fc5ea40	1.5462112

L f4 [1, 2]
0	0x3f144ae4	0.57926774
1	0x3fc5e428	1.5460253

L f4 [1, 2]
0	0x3f1444c0	0.57917404
1	0x3fc5ea40	1.5462112

L f4 [1, 2]
0	0x3f144ae4	0.57926774
1	0x3fc5e428	1.5460253

L f4 [1, 2]
0	0x3f143b80	0.5790329
1	0x3fc5de00	1.5458374

L f4 [1, 2]
0	0x3f13a2cc	0.57670283
1	0x3fc585f0	1.54315

L f4 [1, 2]
0	0x3f0fcae0	0.5616894
1	0x3fc35140	1.525917

L f4 [1, 2]
0	0x3ee9a000	0.45629883
1	0x3fb4948c	1.4107833

S f4 [2, 2]
0	0x402acba4	2.6686792
1	0x3fdd05ac	1.7267356
2	0x3fdd05ac	1.7267356
3	0x403858b0	2.880413

S f4 [2, 2]
0	0x402ac260	2.6681137
1	0x3fdcd7e0	1.725338
2	0x3fdcd7e0	1.725338
3	0x403835c0	2.8782806

S f4 [2, 2]
0	0x402acba4	2.6686792
1	0x3fdd05ac	1.7267356
2	0x3fdd05ac	1.7267356
3	0x403858b0	2.880413

S f4 [2, 2]
0	0x402ac260	2.6681137
1	0x3fdcd7e0	1.725338
2	0x3fdcd7e0	1.725338
3	0x403835c0	2.8782806

S f4 [2, 2]
0	0x402acba4	2.6686792
1	0x3fdd05ac	1.7267356
2	0x3fdd05ac	1.7267356
3	0x403858b0	2.880413

S f4 [2, 2]
0	0x402ac260	2.6681137
1	0x3fdcd7e0	1.725338
2	0x3fdcd7e0	1.725338
3	0x403835c0	2.8782806

S f4 [2, 2]
0	0x402acba4	2.6686792
1	0x3fdd05ac	1.7267356
2	0x3fdd05ac	1.7267356
3	0x403858b0	2.880413

S f4 [2, 2]
0	0x402ac260	2.6681137
1	0x3fdcd7e0	1.725338
2	0x3fdcd7e0	1.725338
3	0x403835c0	2.8782806

S f4 [2, 2]
0	0x402acba4	2.6686792
1	0x3fdd05ac	1.7267356
2	0x3fdd05ac	1.7267356
3	0x403858b0	2.880413

S f4 [2, 2]
0	0x402ac260	2.6681137
1	0x3fdcd7e0	1.725338
2	0x3fdcd7e0	1.725338
3	0x403835c0	2.8782806

S f4 [2, 2]
0	0x402acba4	2.6686792
1	0x3fdd05ac	1.7267356
2	0x3fdd05ac	1.7267356
3	0x403858b0	2.880413

S f4 [2, 2]
0	0x402ac260	2.6681137
1	0x3fdcd7e0	1.725338
2	0x3fdcd7e0	1.725338
3	0x403835c0	2.8782806

S f4 [2, 2]
0	0x402acba4	2.6686792
1	0x3fdd05ac	1.7267356
2	0x3fdd05ac	1.7267356
3	0x403858b0	2.880413

S f4 [2, 2]
0	0x402ac260	2.6681137
1	0x3fdcd7e0	1.725338
2	0x3fdcd7e0	1.725338
3	0x403835c0	2.8782806

S f4 [2, 2]
0	0x402acba4	2.6686792
1	0x3fdd05ac	1.7267356
2	0x3fdd05ac	1.7267356
3	0x403858b0	2.880413

S f4 [2, 2]
0	0x402ac260	2.6681137
1	0x3fdcd7e0	1.725338
2	0x3fdcd7e0	1.725338
3	0x403835c0	2.8782806

S f4 [2, 2]
0	0x402acba4	2.6686792
1	0x3fdd05ac	1.7267356
2	0x3fdd05ac	1.7267356
3	0x403858b0	2.880413

S f4 [2, 2]
0	0x402ac260	2.6681137
1	0x3fdcd7e0	1.725338
2	0x3fdcd7e0	1.725338
3	0x403835c0	2.8782806

S f4 [2, 2]
0	0x402acba4	2.6686792
1	0x3fdd05ac	1.7267356
2	0x3fdd05ac	1.7267356
3	0x403858b0	2.880413

S f4 [2, 2]
0	0x402ac260	2.6681137
1	0x3fdcd7e0	1.725338
2	0x3fdcd7e0	1.725338
3	0x403835c0	2.8782806

S f4 [2, 2]
0	0x402acba4	2.6686792
1	0x3fdd05ac	1.7267356
2	0x3fdd05ac	1.7267356
3	0x403858b0	2.880413

S f4 [2, 2]
0	0x402ac260	2.6681137
1	0x3fdcd7e0	1.725338
2	0x3fdcd7e0	1.725338
3	0x403835c0	2.8782806

S f4 [2, 2]
0	0x402acba4	2.6686792
1	0x3fdd05ac	1.7267356
2	0x3fdd05ac	1.7267356
3	0x403858b0	2.880413

S f4 [2, 2]
0	0x402ac260	2.6681137
1	0x3fdcd7e0	1.725338
2	0x3fdcd7e0	1.725338
3	0x403835c0	2.8782806

S f4 [2, 2]
0	0x402acba4	2.6686792
1	0x3fdd05ac	1.7267356
2	0x3fdd05ac	1.7267356
3	0x403858b0	2.880413

S f4 [2, 2]
0	0x402ac260	2.6681137
1	0x3fdcd7e0	1.725338
2	0x3fdcd7e0	1.725338
3	0x403835c0	2.8782806

S f4 [2, 2]
0	0x402acba4	2.6686792
1	0x3fdd05ac	1.7267356
2	0x3fdd05ac	1.7267356
3	0x403858b0	2.880413

S f4 [2, 2]
0	0x402ac260	2.6681137
1	0x3fdcd7e0	1.725338
2	0x3fdcd7e0	1.725338
3	0x403835c0	2.8782806

S f4 [2, 2]
0	0x402acba4	2.6686792
1	0x3fdd05ac	1.7267356
2	0x3fdd05ac	1.7267356
3	0x403858b0	2.880413

S f4 [2, 2]
0	0x402ac260	2.6681137
1	0x3fdcd7e0	1.725338
2	0x3fdcd7e0	1.725338
3	0x403835c0	2.8782806

S f4 [2, 2]
0	0x402acba4	2.6686792
1	0x3fdd05ac	1.7267356
2	0x3fdd05ac	1.7267356
3	0x403858b0	2.880413

S f4 [2, 2]
0	0x402ac260	2.6681137
1	0x3fdcd7e0	1.725338
2	0x3fdcd7e0	1.725338
3	0x403835c0	2.8782806

S f4 [2, 2]
0	0x402acba4	2.6686792
1	0x3fdd05ac	1.7267356
2	0x3fdd05ac	1.7267356
3	0x403858b0	2.880413

S f4 [2, 2]
0	0x402ac260	2.6681137
1	0x3fdcd7e0	1.725338
2	0x3fdcd7e0	1.725338
3	0x403835c0	2.8782806

S f4 [2, 2]
0	0x402acba4	2.6686792
1	0x3fdd05ac	1.7267356
2	0x3fdd05ac	1.7267356
3	0x403858b0	2.880413

S f4 [2, 2]
0	0x402ac260	2.6681137
1	0x3fdcd7e0	1.725338
2	0x3fdcd7e0	1.725338
3	0x403835c0	2.8782806

S f4 [2, 2]
0	0x402acba4	2.6686792
1	0x3fdd05ac	1.7267356
2	0x3fdd05ac	1.7267356
3	0x403858b0	2.880413

S f4 [2, 2]
0	0x402ac260	2.6681137
1	0x3fdcd7e0	1.725338
2	0x3fdcd7e0	1.725338
3	0x403835c0	2.8782806

S f4 [2, 2]
0	0x402acba4	2.6686792
1	0x3fdd05ac	1.7267356
2	0x3fdd05ac	1.7267356
3	0x403858b0	2.880413

S f4 [2, 2]
0	0x402ac260	2.6681137
1	0x3fdcd7e0	1.725338
2	0x3fdcd7e0	1.725338
3	0x403835c0	2.8782806

S f4 [2, 2]
0	0x402acba4	2.6686792
1	0x3fdd05ac	1.7267356
2	0x3fdd05ac	1.7267356
3	0x403858b0	2.880413

S f4 [2, 2]
0	0x402ac260	2.6681137
1	0x3fdcd7e0	1.725338
2	0x3fdcd7e0	1.725338
3	0x403835c0	2.8782806

S f4 [2, 2]
0	0x402acba4	2.6686792
1	0x3fdd05ac	1.7267356
2	0x3fdd05ac	1.7267356
3	0x403858b0	2.880413

S f4 [2, 2]
0	0x402ac260	2.6681137
1	0x3fdcd7e0	1.725338
2	0x3fdcd7e0	1.725338
3	0x403835c0	2.8782806

S f4 [2, 2]
0	0x402acba4	2.6686792
1	0x3fdd05ac	1.7267356
2	0x3fdd05ac	1.7267356
3	0x403858b0	2.880413

S f4 [2, 2]
0	0x402ac260	2.6681137
1	0x3fdcd7e0	1.725338
2	0x3fdcd7e0	1.725338
3	0x403835c0	2.8782806

S f4 [2, 2]
0	0x402acba4	2.6686792
1	0x3fdd05ac	1.7267356
2	0x3fdd05ac	1.7267356
3	0x403858b0	2.880413

S f4 [2, 2]
0	0x402ac260	2.6681137
1	0x3fdcd7e0	1.725338
2	0x3fdcd7e0	1.725338
3	0x403835c0	2.8782806

S f4 [2, 2]
0	0x402acba4	2.6686792
1	0x3fdd05ac	1.7267356
2	0x3fdd05ac	1.7267356
3	0x403858b0	2.880413

S f4 [2, 2]
0	0x402ac260	2.6681137
1	0x3fdcd7e0	1.725338
2	0x3fdcd7e0	1.725338
3	0x403835c0	2.8782806

S f4 [2, 2]
0	0x402acba4	2.6686792
1	0x3fdd05ac	1.7267356
2	0x3fdd05ac	1.7267356
3	0x403858b0	2.880413

S f4 [2, 2]
0	0x402ac260	2.6681137
1	0x3fdcd7e0	1.725338
2	0x3fdcd7e0	1.725338
3	0x403835c0	2.8782806

S f4 [2, 2]
0	0x402acba4	2.6686792
1	0x3fdd05ac	1.7267356
2	0x3fdd05ac	1.7267356
3	0x403858b0	2.880413

S f4 [2, 2]
0	0x402ac260	2.6681137
1	0x3fdcd7e0	1.725338
2	0x3fdcd7e0	1.725338
3	0x403835c0	2.8782806

S f4 [2, 2]
0	0x402acba4	2.6686792
1	0x3fdd05ac	1.7267356
2	0x3fdd05ac	1.7267356
3	0x403858b0	2.880413

S f4 [2, 2]
0	0x402ac260	2.6681137
1	0x3fdcd7e0	1.725338
2	0x3fdcd7e0	1.725338
3	0x403835c0	2.8782806

S f4 [2, 2]
0	0x402acba4	2.6686792
1	0x3fdd05ac	1.7267356
2	0x3fdd05ac	1.7267356
3	0x403858b0	2.880413

S f4 [2, 2]
0	0x402ac260	2.6681137
1	0x3fdcd7e0	1.725338
2	0x3fdcd7e0	1.725338
3	0x403835c0	2.8782806

S f4 [2, 2]
0	0x402acba4	2.6686792
1	0x3fdd05ac	1.7267356
2	0x3fdd05ac	1.7267356
3	0x403858b0	2.880413

S f4 [2, 2]
0	0x402ac260	2.6681137
1	0x3fdcd7e0	1.725338
2	0x3fdcd7e0	1.725338
3	0x403835c0	2.8782806

S f4 [2, 2]
0	0x402acba4	2.6686792
1	0x3fdd05ac	1.7267356
2	0x3fdd05ac	1.7267356
3	0x403858b0	2.880413

S f4 [2, 2]
0	0x402ac260	2.6681137
1	0x3fdcd7e0	1.725338
2	0x3fdcd7e0	1.725338
3	0x403835c0	2.8782806

S f4 [2, 2]
0	0x402acba4	2.6686792
1	0x3fdd05ac	1.7267356
2	0x3fdd05ac	1.7267356
3	0x403858b0	2.880413

S f4 [2, 2]
0	0x402ac260	2.6681137
1	0x3fdcd7e0	1.725338
2	0x3fdcd7e0	1.725338
3	0x403835c0	2.8782806

S f4 [2, 2]
0	0x402acba4	2.6686792
1	0x3fdd05ac	1.7267356
2	0x3fdd05ac	1.7267356
3	0x403858b0	2.880413

S f4 [2, 2]
0	0x402ac260	2.6681137
1	0x3fdcd7e0	1.725338
2	0x3fdcd7e0	1.725338
3	0x403835c0	2.8782806

S f4 [2, 2]
0	0x402acba4	2.6686792
1	0x3fdd05ac	1.7267356
2	0x3fdd05ac	1.7267356
3	0x403858b0	2.880413

S f4 [2, 2]
0	0x402ac260	2.6681137
1	0x3fdcd7e0	1.725338
2	0x3fdcd7e0	1.725338
3	0x403835c0	2.8782806

S f4 [2, 2]
0	0x402acba4	2.6686792
1	0x3fdd05ac	1.7267356
2	0x3fdd05ac	1.7267356
3	0x403858b0	2.880413

S f4 [2, 2]
0	0x402ac260	2.6681137
1	0x3fdcd7e0	1.725338
2	0x3fdcd7e0	1.725338
3	0x403835c0	2.8782806

S f4 [2, 2]
0	0x402acba4	2.6686792
1	0x3fdd05ac	1.7267356
2	0x3fdd05ac	1.7267356
3	0x403858b0	2.880413

S f4 [2, 2]
0	0x402ac260	2.6681137
1	0x3fdcd7e0	1.725338
2	0x3fdcd7e0	1.725338
3	0x403835c0	2.8782806

S f4 [2, 2]
0	0x402acba4	2.6686792
1	0x3fdd05ac	1.7267356
2	0x3fdd05ac	1.7267356
3	0x403858b0	2.880413

S f4 [2, 2]
0	0x402ac260	2.6681137
1	0x3fdcd7e0	1.725338
2	0x3fdcd7e0	1.725338
3	0x403835c0	2.8782806

S f4 [2, 2]
0	0x402acba4	2.6686792
1	0x3fdd05ac	1.7267356
2	0x3fdd05ac	1.7267356
3	0x403858b0	2.880413

S f4 [2, 2]
0	0x402ac260	2.6681137
1	0x3fdcd7e0	1.725338
2	0x3fdcd7e0	1.725338
3	0x403835c0	2.8782806

S f4 [2, 2]
0	0x402acba4	2.6686792
1	0x3fdd05ac	1.7267356
2	0x3fdd05ac	1.7267356
3	0x403858b0	2.880413

S f4 [2, 2]
0	0x402ac260	2.6681137
1	0x3fdcd7e0	1.725338
2	0x3fdcd7e0	1.725338
3	0x403835c0	2.8782806

S f4 [2, 2]
0	0x402acba4	2.6686792
1	0x3fdd05ac	1.7267356
2	0x3fdd05ac	1.7267356
3	0x403858b0	2.880413

S f4 [2, 2]
0	0x402ac260	2.6681137
1	0x3fdcd7e0	1.725338
2	0x3fdcd7e0	1.725338
3	0x403835c0	2.8782806

S f4 [2, 2]
0	0x402acba4	2.6686792
1	0x3fdd05ac	1.7267356
2	0x3fdd05ac	1.7267356
3	0x403858b0	2.880413

S f4 [2, 2]
0	0x402ac260	2.6681137
1	0x3fdcd7e0	1.725338
2	0x3fdcd7e0	1.725338
3	0x403835c0	2.8782806

S f4 [2, 2]
0	0x402acba4	2.6686792
1	0x3fdd05ac	1.7267356
2	0x3fdd05ac	1.7267356
3	0x403858b0	2.880413

S f4 [2, 2]
0	0x402ac260	2.6681137
1	0x3fdcd7e0	1.725338
2	0x3fdcd7e0	1.725338
3	0x403835c0	2.8782806

S f4 [2, 2]
0	0x402acba4	2.6686792
1	0x3fdd05ac	1.7267356
2	0x3fdd05ac	1.7267356
3	0x403858b0	2.880413

S f4 [2, 2]
0	0x402ac260	2.6681137
1	0x3fdcd7e0	1.725338
2	0x3fdcd7e0	1.725338
3	0x403835c0	2.8782806

S f4 [2, 2]
0	0x402acba4	2.6686792
1	0x3fdd05ac	1.7267356
2	0x3fdd05ac	1.7267356
3	0x403858b0	2.880413

S f4 [2, 2]
0	0x402ac260	2.6681137
1	0x3fdcd7e0	1.725338
2	0x3fdcd7e0	1.725338
3	0x403835c0	2.8782806

S f4 [2, 2]
0	0x402acba4	2.6686792
1	0x3fdd05ac	1.7267356
2	0x3fdd05ac	1.7267356
3	0x403858b0	2.880413

S f4 [2, 2]
0	0x402ac260	2.6681137
1	0x3fdcd7e0	1.725338
2	0x3fdcd7e0	1.725338
3	0x403835c0	2.8782806

S f4 [2, 2]
0	0x402acba4	2.6686792
1	0x3fdd05ac	1.7267356
2	0x3fdd05ac	1.7267356
3	0x403858b0	2.880413

S f4 [2, 2]
0	0x402ac260	2.6681137
1	0x3fdcd7e0	1.725338
2	0x3fdcd7e0	1.725338
3	0x403835c0	2.8782806

S f4 [2, 2]
0	0x402acba4	2.6686792
1	0x3fdd05ac	1.7267356
2	0x3fdd05ac	1.7267356
3	0x403858b0	2.880413

S f4 [2, 2]
0	0x402ac260	2.6681137
1	0x3fdcd7e0	1.725338
2	0x3fdcd7e0	1.725338
3	0x403835c0	2.8782806

S f4 [2, 2]
0	0x402acba4	2.6686792
1	0x3fdd05ac	1.7267356
2	0x3fdd05ac	1.7267356
3	0x403858b0	2.880413

S f4 [2, 2]
0	0x402abe2c	2.6678572
1	0x3fdcdc34	1.7254701
2	0x3fdcdc34	1.7254701
3	0x40383ba0	2.8786392

S f4 [2, 2]
0	0x402a96be	2.6654506
1	0x3fdc9940	1.7234268
2	0x3fdc9940	1.7234268
3	0x40382e80	2.8778381

S f4 [2, 2]
0	0x4029a66c	2.6507826
1	0x3fda9aac	1.7078452
2	0x3fda9aac	1.7078452
3	0x40371750	2.860798

S f4 [2, 2]
0	0x4022cc00	2.5437012
1	0x3fcb65ba	1.589042
2	0x3fcb65ba	1.589042
3	0x402ea5a8	2.7288609

S f4 [2, 2]
0	0x40000000	2.0
1	0x3f800000	1.0
2	0x3f800000	1.0
3	0x4005d000	2.0908203

L_infinite f4 [1, 2]
0	0x3f14448b	0.5791709
1	0x3fc5d71b	1.545627

weight_ih_l0 f4 [12, 10]
0	0x3b9e15ea	0.0048243897
1	0x3ed96032	0.42456204
2	0x3c9c94dc	0.01911395
3	0xbe832285	-0.25612274
4	0xbda359bf	-0.07976102
5	0xbe1a1af2	-0.15049341
6	0x3e88b7ec	0.2670282
7	0xbe2b7c56	-0.16746649
8	0x3de1556e	0.110026225
9	0x3e8e4964	0.27790368
10	0xbe4b66cb	-0.19863431
11	0x3e83a7fe	0.25714105
12	0x3e15a537	0.14613806
13	0xbd5de7ae	-0.054176025
14	0x3eaa77f2	0.33294636
15	0xbe9ebb6e	-0.31002373
16	0xbeffe169	-0.49976662
17	0xbedfc6c5	-0.43706337
18	0xbeca03f5	-0.39456144
19	0x3e998480	0.29983902
20	0x3ef313f8	0.47476172
21	0xbe996bd6	-0.29965085
22	0x3b9c4a60	0.0047696084
23	0xbde6bc68	-0.112664044
24	0x3d915440	0.070961475
25	0x3ebf094c	0.3731178
26	0xbed35081	-0.41272357
27	0x3ed0096e	0.40632194
28	0x3e5918d1	0.21200873
29	0xbeeab167	-0.45838472
30	0xbdca06e7	-0.09864598
31	0xbeb44924	-0.35212052
32	0x3efa69fc	0.48908985
33	0x3afdc8e7	0.0019362242
34	0x3ed7bedd	0.42137805
35	0xbe2b0f96	-0.16705164
36	0xbe5bd9c4	-0.2146979
37	0x3e055690	0.13021302
38	0xbeb914db	-0.36148724
39	0x3ebd0ae8	0.36922383
40	0x3e851eb6	0.25999993
41	0x3d9329b6	0.0718569
42	0xbe9f23e5	-0.31082073
43	0x3de808da	0.11329813
44	0x3ed31fca	0.4123519
45	0x3e8b001c	0.2714852
46	0xbe57271e	-0.21011016
47	0x3e2221e3	0.1583324
48	0x3eae628b	0.34059557
49	0x3ddd3947	0.108019404
50	0xbed38e62	-0.41319567
51	0xbe5ee42e	-0.21766731
52	0xbeb3097b	-0.3496817
53	0xbd9823d9	-0.074287124
54	0xbef4eb00	-0.4783554
55	0xbe254056	-0.16137823
56	0x3eb18788	0.34673715
57	0xbd88ffe5	-0.06689433
58	0x3e2644fd	0.16237254
59	0x3e720ee5	0.23638494
60	0xbec55aef	-0.3854594
61	0x3e5c06d2	0.21486977
62	0x3808363d	3.247544e-05
63	0xbe26aeb8	-0.16277587
64	0xbe75def1	-0.24010827
65	0x3e5397f5	0.20663436
66	0xbee4d3f3	-0.44692954
67	0x3dd6e536	0.10492937
68	0x3ecae11f	0.3962488
69	0xbe815af3	-0.252647
70	0xbd598a9d	-0.053110708
71	0xbe96acfd	-0.29428855
72	0xbecffab4	-0.4062096
73	0xbee554a0	-0.44791126
74	0x3edc53c2	0.43032652
75	0x3e9185f0	0.284225
76	0xbe0c52ef	-0.13703512
77	0x3d802c48	0.06258446
78	0xbe30176e	-0.17196438
79	0xbdff3216	-0.12460725
80	0xbece012c	-0.4023527
81	0x3ea36ba2	0.31918055
82	0xbed1dc84	-0.40988553
83	0x3ecd9b60	0.40157604
84	0x3ee070d8	0.43836093
85	0x3e7ff39d	0.24995275
86	0x3eedbb65	0.46432033
87	0xbe626273	-0.22107868
88	0x3e8439bd	0.258253
89	0xbde3a91f	-0.11116242
90	0xbed20266	-0.41017455
91	0xbeb8937c	-0.36050022
92	0xbdba7d79	-0.09105963
93	0x3ecf0d28	0.40439725
94	0x3ea9d7f9	0.33172587
95	0x3e43943b	0.19099514
96	0xbeb112f9	-0.34584787
97	0x3de7c4a2	0.113168016
98	0xbe2eab82	-0.17057613
99	0xbe87f2e4	-0.26552498
100	0x3bf6e76c	0.007534912
101	0x3ed82ef4	0.42223322
102	0x3de8d0d2	0.11367954
103	0x3dd6095a	0.104510024
104	0xbeb4f853	-0.35345706
105	0x3ebb581b	0.36590657
106	0x3e3704e7	0.17872964
107	0xbd56e379	-0.05246303
108	0xbe11d582	-0.14241603
109	0x3e5ba95e	0.21451327
110	0xbd15ca7e	-0.036570065
111	0x3e383257	0.17987953
112	0x3eae506b	0.3404573
113	0xbe86a8f1	-0.26300767
114	0xbe80e103	-0.2517167
115	0xbed6546f	-0.41861293
116	0x3ee32030	0.44360495
117	0x3e8a4daf	0.27012393
118	0x3e61bb43	0.22044091
119	0x3e3aa310	0.18226266

weight_hh_l0 f4 [12, 4]
0	0xbeacb17f	-0.3372917
1	0xbe450c17	-0.19242893
2	0x3e0e5e2d	0.13903113
3	0x3cfc4c8a	0.030798215
4	0x3eb5c33d	0.35500517
5	0xbea5112f	-0.32239673
6	0xbd6d0aa4	-0.057871476
7	0xbeb91566	-0.36149138
8	0xbee51e35	-0.4474961
9	0xbeddc38e	-0.4331326
10	0xbe3d9a32	-0.18515852
11	0xbd942300	-0.07233238
12	0xbedb6856	-0.4285304
13	0x3ebf564d	0.3737053
14	0xbe5006f9	-0.2031516
15	0x3ec88ff5	0.3917233
16	0xbec1608e	-0.37768978
17	0xbea00d44	-0.3126012
18	0x3e8b4d37	0.27207348
19	0x3e00bc3f	0.1257181
20	0xbe894c53	-0.26816043
21	0xbe066866	-0.13125762
22	0x3da51ad1	0.080617554
23	0xbe5d0a11	-0.21585871
24	0x3eef0d36	0.46689767
25	0x3ef231b6	0.4730355
26	0xbdd0b185	-0.10190109
27	0xbe7ab0de	-0.24481532
28	0xbdf2b360	-0.11850619
29	0x3e8e4106	0.27783984
30	0xbed49b5a	-0.41524774
31	0x3d16ea56	0.036844574
32	0x3ed9231e	0.42409605
33	0x3ebf9457	0.37417862
34	0xbe7d09dc	-0.24710792
35	0x3e7a77d8	0.2445978
36	0x3e3911eb	0.18073241
37	0x3d324f6d	0.043532778
38	0x3ed31dd8	0.41233706
39	0xbdd104d9	-0.10206003
40	0xbdecb120	-0.115572214
41	0xbef0901f	-0.46984956
42	0x3e77b6c4	0.24190813
43	0x3e5b66c3	0.21425919
44	0x3ea9466f	0.3306155
45	0x3e7be21a	0.2459797
46	0xbea2ca5c	-0.31795013
47	0x3b4260b2	0.0029659686

bias_ih_l0 f4 [12]
0	0xbeb7b631	-0.3588119
1	0x3e181d73	0.14854984
2	0x3ed6b499	0.4193466
3	0xbeed5b65	-0.4635879
4	0x3f02acf6	0.5104517
5	0xbe20c81c	-0.15701336
6	0x3eca07e7	0.39459154
7	0xbe94fab5	-0.29097524
8	0xbe67679f	-0.22598122
9	0xbeb1aacc	-0.3470062
10	0xbe8b8aec	-0.27254426
11	0x3e9b58da	0.30341226

bias_hh_l0 f4 [12]
0	0xbec05de8	-0.37571645
1	0x3ec89daf	0.39182803
2	0xbef59942	-0.4796849
3	0xbef22b36	-0.47298592
4	0xbed2b7a6	-0.41155738
5	0x3eb382d0	0.3506074
6	0xbd2613ba	-0.040546156
7	0xbea6b326	-0.32558554
8	0x3e24d15b	0.16095488
9	0xbe149e83	-0.14513592
10	0xbe8d94c8	-0.27652574
11	0x3e6f2385	0.23353393

weight_ih_l0 f4 [12, 14]
0	0x3c9a0553	0.018801367
1	0x3e98d538	0.29850173
2	0x3e1e0547	0.154317
3	0xbe328fd5	-0.1743768
4	0xbed79c39	-0.42111376
5	0xbd8254a8	-0.06363803
6	0x3e5a1b7e	0.2129955
7	0xbeb848a3	-0.35992917
8	0xbd9462b5	-0.07245389
9	0xbe10e08f	-0.14148162
10	0xbec97d77	-0.39353535
11	0x3e232a54	0.15934116
12	0x3ea77596	0.32706898
13	0xbd7e296a	-0.062051214
14	0x3e21379d	0.15743871
15	0x3e7a05ae	0.24416229
16	0xbef4e165	-0.47828212
17	0x3e7ada0a	0.24497238
18	0xbea21621	-0.31657508
19	0xbee20f21	-0.44152167
20	0xbe5f7ab3	-0.2182415
21	0x3e4e3aeb	0.20139663
22	0x3e9dd245	0.30824485
23	0x3e16cd09	0.14726652
24	0xbe8fe450	-0.28103876
25	0x3e8375c2	0.2567578
26	0x3ef8e8cc	0.4861511
27	0xbeb347cc	-0.35015714
28	0x3e5e500b	0.21710221
29	0xbe292183	-0.1651669
30	0xbea88853	-0.32916507
31	0xbeaf82d6	-0.34279507
32	0x3ebe9fb4	0.3723122
33	0xbedae145	-0.42749992
34	0x3e6537a2	0.22384503
35	0x3d4c2310	0.049838126
36	0xbefe4bff	-0.49667355
37	0xbec3e931	-0.38263848
38	0xbd997c49	-0.07494409
39	0xbec15032	-0.37756497
40	0xbc22d45e	-0.009938328
41	0xbe067cf9	-0.13133611
42	0x3ef452cc	0.4771942
43	0xbee58803	-0.4483033
44	0x3ed7ecd6	0.4217288
45	0xbe47840f	-0.1948397
46	0x3db2575a	0.08708067
47	0x3eb2c1e8	0.34913564
48	0xbc2a8702	-0.010408165
49	0xbe0a16a9	-0.13485207
50	0xbe545148	-0.20734131
51	0xbe5682d9	-0.20948352
52	0xbdc039b2	-0.093860045
53	0x3e86d2cc	0.263327
54	0x3eea0e5f	0.4571409
55	0x3dca4f55	0.09878413
56	0x3eaaab20	0.33333683
57	0x3e7cabae	0.24674866
58	0xbe42f1d6	-0.19037566
59	0xb946e276	-0.00018967115
60	0x3d936661	0.071972616
61	0xbe18f5c1	-0.14937498
62	0xbdb9b9b9	-0.09068627
63	0xbe610d94	-0.21977836
64	0x3e09ee62	0.13469842
65	0xbe5241b7	-0.2053288
66	0xbe5a6c31	-0.21330334
67	0x3e5c80ed	0.21533556
68	0x3aa1ccf0	0.0012344401
69	0xbee28cc8	-0.44248033
70	0x3e1fccf4	0.15605527
71	0xbec7718e	-0.38953823
72	0x3e5359a2	0.20639661
73	0xbea19b6d	-0.31563893
74	0x3e83f228	0.25770688
75	0xbdff59f0	-0.12468326
76	0xbe139c9f	-0.14415215
77	0xbe3912f1	-0.18073632
78	0xbe447b36	-0.19187626
79	0x3e9a8f04	0.30187237
80	0xbe465128	-0.19366896
81	0x3e4b5325	0.19855936
82	0xbe676b18	-0.22599447
83	0xbd831af9	-0.06401629
84	0xbe1f54c7	-0.15559684
85	0x3ea1f8a8	0.31635022
86	0xbdf03e03	-0.11730578
87	0x3c8c7e9e	0.01715022
88	0x3d86f8e3	0.0659044
89	0xbf02cd28	-0.51094294
90	0x3eba8d5f	0.36435983
91	0xbde32488	-0.11090952
92	0xbcacffad	-0.02111801
93	0x3de869d4	0.1134831
94	0xbefa00cb	-0.4882873
95	0xbeb42289	-0.35182598
96	0x3e5e12af	0.21686815
97	0x3e9a008b	0.3007854
98	0xbe5b183f	-0.21395968
99	0x3ec7209a	0.3889206
100	0x3ea2383c	0.31683528
101	0xbeb5666e	-0.3542971
102	0x3ecb71a7	0.39735147
103	0x3ec5a15e	0.38599676
104	0x3dd5e2ca	0.10443647
105	0x3e9ff509	0.31241634
106	0xbd9dd9b3	-0.077075385
107	0xbde53f4c	-0.111937135
108	0xbede218e	-0.43384975
109	0xbdcd955c	-0.10038254
110	0x3ce3974e	0.027782109
111	0xbeb4faff	-0.35347745
112	0x3e3bda5b	0.18345015
113	0x3e97e113	0.29663906
114	0xbeec9437	-0.4620683
115	0xbee9b533	-0.45646057
116	0x3f031d76	0.5121683
117	0x3db36c38	0.087608755
118	0xbeaef2d9	-0.34169653
119	0x3e9b090d	0.30280343
120	0x3ebdeb55	0.37093607
121	0xbee9ce19	-0.45665053
122	0x3eb52a7d	0.35383978
123	0xbd8d3dea	-0.06896575
124	0x3d9119ac	0.07084975
125	0x3ec7d228	0.39027524
126	0xbe4170dd	-0.1889071
127	0x3e209049	0.1568004
128	0x3e32a9fb	0.17447655
129	0xbe5decf8	-0.21672428
130	0x3e2b822c	0.16748875
131	0xbc784850	-0.015153959
132	0x3ee1afc7	0.4407942
133	0xbec86035	-0.391359
134	0xbee700e3	-0.45117864
135	0x3d601187	0.054704215
136	0xbea25e8a	-0.31712753
137	0x3eef4254	0.46730292
138	0xbe7d0103	-0.24707417
139	0xbe114c06	-0.14189157
140	0xbe682f8d	-0.22674389
141	0xbe7eae30	-0.24871135
142	0xbeec9d4e	-0.46213764
143	0xbe9aea1b	-0.30256733
144	0x3ee85408	0.4537661
145	0xbdf31481	-0.11869145
146	0xbd49ebb0	-0.049297035
147	0xb9c04734	-0.00036674144
148	0x3e9e77c3	0.30950746
149	0xbed3fb4a	-0.41402656
150	0xbef296fa	-0.4738081
151	0x3eb9fdb9	0.36326388
152	0xbd2c17f1	-0.04201502
153	0x3e929990	0.28632784
154	0x3de50ee5	0.111844815
155	0xbeef7a1b	-0.46772847
156	0x3edb5921	0.42841437
157	0xbdbf6b5a	-0.093466476
158	0xbedd5348	-0.432276
159	0xbd29b99b	-0.041436773
160	0x3ea486d3	0.32134113
161	0xbc7715a0	-0.015080839
162	0x3d808e6e	0.06277166
163	0x3eeae874	0.45880473
164	0xbe5f3ff2	-0.21801737
165	0x3d5e6b52	0.054301567
166	0xbecaa7a3	-0.39581022
167	0x3ec7f7d0	0.39056253

weight_hh_l0 f4 [12, 4]
0	0x3dc55f88	0.09637362
1	0x3e29e033	0.16589431
2	0x3e473308	0.1945306
3	0x3e24bf68	0.1608864
4	0x3e28d78d	0.16488476
5	0x3e835705	0.25652328
6	0x3ef48459	0.47757223
7	0x3e6d62dc	0.23182243
8	0xbef11d99	-0.47092894
9	0x3ec32e3d	0.38121215
10	0x3ed9b84a	0.42523414
11	0xbb57baee	-0.0032917815
12	0xbe097bd2	-0.1342614
13	0xbdc45523	-0.09586551
14	0x3eabe33c	0.33571804
15	0xbe57555e	-0.21028659
16	0xbeb6ab15	-0.356774
17	0xbe837f34	-0.25682986
18	0x3f03d7b5	0.5150102
19	0x3f01b5a9	0.50667816
20	0xbe8fb3ab	-0.28066763
21	0x3e8024a4	0.25027955
22	0xbe9886e6	-0.2979042
23	0xbed69bc2	-0.4191571
24	0xbe729813	-0.23690824
25	0x3ed73ce1	0.42038634
26	0x3e52c960	0.20584631
27	0x3d880e47	0.06643348
28	0xbe089142	-0.13336661
29	0x3dee49f6	0.11635201
30	0xbee23e80	-0.4418831
31	0xbea1e191	-0.31617406
32	0x3eef3c13	0.4672552
33	0x3e99af33	0.3001648
34	0xbe563676	-0.20919213
35	0x3efaafa5	0.4896213
36	0xbe098147	-0.13428222
37	0x3e8e96e7	0.27849504
38	0xbe30ca19	-0.17264594
39	0x3df0916a	0.117464855
40	0xbd1b2a3c	-0.037882075
41	0xbe79430f	-0.24341987
42	0x3ebc569d	0.3678483
43	0x3e99f869	0.30072334
44	0xbc8bad35	-0.017050365
45	0x3d7d3091	0.061813895
46	0xbecc1502	-0.39859778
47	0xbe350d35	-0.1768082

bias_ih_l0 f4 [12]
0	0xbe2aaf6a	-0.16668478
1	0xbdb84dab	-0.08999189
2	0x3e326441	0.17421056
3	0xbe7a57af	-0.24447511
4	0xbea9d8d0	-0.33173227
5	0x3ef61cbf	0.48068807
6	0xbe88b544	-0.26700795
7	0x3eb94cdf	0.3619146
8	0x3d95e919	0.073198505
9	0xbe549a81	-0.20762064
10	0xbeae0bc0	-0.3399334
11	0xbec15bbd	-0.37765303

bias_hh_l0 f4 [12]
0	0x3ed1fe8f	0.41014525
1	0xbe9d4f6c	-0.30724657
2	0x3e3a7cac	0.18211621
3	0xbe21249c	-0.15736622
4	0xbeccece9	-0.40024498
5	0x3e0acfcd	0.13555832
6	0xbe21cec5	-0.15801533
7	0x3edbd1fd	0.42933646
8	0x3e334b17	0.17509113
9	0xbe3af010	-0.18255639
10	0xbd41140e	-0.047138266
11	0xbead6457	-0.33865616

weight_ih_l0 f4 [12, 24]
0	0xbd60e36e	-0.054904394
1	0x3c7cdedd	0.015433994
2	0x3d8836f0	0.066511035
3	0xbd863958	-0.06553906
4	0xbe89ad75	-0.2689015
5	0xbacbbcff	-0.0015543996
6	0xbe4d5165	-0.20050581
7	0xbdd4d8c6	-0.10392909
8	0x3e1398fb	0.14413826
9	0xbeb01b21	-0.34395698
10	0xbe685c1c	-0.22691387
11	0x3e8ee0f7	0.2790601
12	0xbe242ad6	-0.16031966
13	0x3e0fb2bf	0.1403303
14	0x3ebe2937	0.3714082
15	0x3ef9d683	0.48796472
16	0x3d401442	0.04689432
17	0xbeb27a23	-0.34858808
18	0x3dd1c6d1	0.10242999
19	0xbea0e26a	-0.3142274
20	0xbe11ca3a	-0.142373
21	0x3ef1b715	0.47209993
22	0x3efd7c8a	0.49509078
23	0xbe15dc54	-0.1463483
24	0xbcd4a4aa	-0.025957424
25	0xbeb2471b	-0.34819874
26	0xbe828686	-0.25493258
27	0xbe09fa2e	-0.13474342
28	0x3e950670	0.29106474
29	0x3e9e1435	0.30874792
30	0x3d4af178	0.04954669
31	0xbc76199b	-0.015020753
32	0xbe9fa7cf	-0.31182715
33	0xbc88aef0	-0.01668498
34	0x3e45d70d	0.19320317
35	0x3eaa6032	0.33276516
36	0xbe43ea81	-0.19132425
37	0x3ef08f74	0.46984446
38	0xbdd2cfdb	-0.102935515
39	0xbd70d435	-0.058796126
40	0xbe3ed399	-0.18635406
41	0x3e3ffb74	0.18748266
42	0x3e0aed11	0.13566996
43	0x3ebaf0c3	0.36511812
44	0x3def0118	0.116701305
45	0xbe6ad039	-0.22930993
46	0x3eea4ead	0.4576315
47	0xbe8da864	-0.27667534
48	0xbd2cb73e	-0.04216694
49	0xbed4d14d	-0.41565934
50	0x3edb5aa1	0.42842582
51	0xbe944034	-0.28955233
52	0x3edf8502	0.43656164
53	0xbdbbeec5	-0.09176401
54	0x3e119d1b	0.14220087
55	0x3e9a8385	0.30178466
56	0x3e7ca5d2	0.2467263
57	0xbe8f3f2d	-0.27977887
58	0xbdfa384d	-0.1221777
59	0xbef22ef1	-0.47301438
60	0x3d814ed0	0.063138604
61	0xbedde4b3	-0.43338546
62	0xbd18fda5	-0.03735127
63	0xbd6c2d75	-0.05766054
64	0xbedfa656	-0.43681592
65	0x3e674c1c	0.22587627
66	0xbe7bcc89	-0.24589743
67	0xbea5a53b	-0.32352623
68	0x3e9b6ce3	0.3035651
69	0xbe46e07d	-0.19421573
70	0xbd81bb27	-0.063345246
71	0x3ef408e6	0.4766304
72	0xbe397fe7	-0.18115197
73	0xbea18fc7	-0.31555006
74	0x3dab7885	0.08372597
75	0x3e5dbc7d	0.21653934
76	0x3e7b6f0b	0.24554078
77	0x3d01be34	0.031675532
78	0x3ee53902	0.44770056
79	0x3eeda677	0.46416065
80	0x3edcf33a	0.43154317
81	0xbee61291	-0.4493604
82	0x3e44c835	0.19216998
83	0x3d7433f3	0.059619855
84	0xbd7fde9c	-0.062468156
85	0xbebc56fe	-0.3678512
86	0xbe40b705	-0.18819816
87	0xbe88cc58	-0.26718402
88	0x3ed0a22b	0.40748724
89	0x3e4437d4	0.19161922
90	0xbd8f6ea3	-0.07003524
91	0xbe753eab	-0.23949687
92	0x3dc767ec	0.097366184
93	0xbc9ce771	-0.019153329
94	0xbeecbe88	-0.46239114
95	0xbeb5cd10	-0.35508013
96	0xbeb3482d	-0.35016003
97	0x3e98b7b5	0.29827657
98	0xb9dc3a52	-0.00042005122
99	0xbd6cae00	-0.057783127
100	0xbc6f182e	-0.014593167
101	0x3d83d01b	0.06436177
102	0xbed53c79	-0.416477
103	0xbe26835d	-0.16261049
104	0x3ec97759	0.39348868
105	0xbe788eac	-0.24273175
106	0x3e91c77a	0.284725
107	0x3ebcf440	0.36905098
108	0xbe47b523	-0.19502692
109	0xbdd8568f	-0.10563385
110	0xbe7ec472	-0.24879625
111	0xbd1ae845	-0.037819166
112	0xbe913e14	-0.28367674
113	0x3ee1a8e8	0.44074178
114	0x3e0ef09a	0.1395897
115	0xbcfaff47	-0.030639304
116	0x3ed52e86	0.41637057
117	0xbeb1022d	-0.34571972
118	0xbe96fa8d	-0.2948803
119	0xbef2d33b	-0.4742678
120	0x3e9308c3	0.28717622
121	0xbeeb7eb3	-0.459951
122	0xbe89e76c	-0.26934373
123	0xbe2d7734	-0.16940004
124	0xbe52d974	-0.20590764
125	0x3ecc361b	0.3988503
126	0x3ed54125	0.41651264
127	0xbee23048	-0.4417746
128	0xbdd202eb	-0.10254463
129	0x3e98d57d	0.2985038
130	0x3ed509fc	0.4160918
131	0x3e81f155	0.25379434
132	0xbd505de7	-0.050870802
133	0xbefa42e5	-0.4887916
134	0x3ec35bd7	0.38156006
135	0xbda0ed47	-0.07857757
136	0x3e85eefb	0.2615889
137	0xbec60327	-0.3867428
138	0xbeabb4ce	-0.3353638
139	0x3e0eeebe	0.1395826
140	0x3ec231b6	0.3792855
141	0x3ea21768	0.31658483
142	0xbe28f8d9	-0.16501178
143	0xbea118d5	-0.31464258
144	0xbea2d127	-0.31800196
145	0xbef9c68e	-0.48784298
146	0x3e98b227	0.2982342
147	0xbdde5a8a	-0.10857113
148	0xbda51e26	-0.08062391
149	0x3ed55152	0.41663605
150	0xbe38ffab	-0.1806628
151	0x3e55a71d	0.2086453
152	0xbee7efa2	-0.45300013
153	0x3e79aff0	0.24383521
154	0x3de88e7a	0.113553
155	0xbe739435	-0.23787005
156	0xbedf78e8	-0.43646932
157	0x3d619359	0.055072162
158	0xbeb6ca14	-0.35701048
159	0xbe4a5166	-0.19757614
160	0xbecb8186	-0.39747256
161	0x3d881fac	0.06646666
162	0xbdf32d47	-0.1187387
163	0xbe0f49cf	-0.13993
164	0xbc79a3d5	-0.0152368145
165	0x3db1971e	0.086714014
166	0x3efea46b	0.49734816
167	0x3ea74625	0.32670704
168	0x3ec108e1	0.37702087
169	0xbe064740	-0.13113117
170	0xbeac98b1	-0.33710244
171	0xbe85f42f	-0.2616286
172	0xbe5c7bc2	-0.21531585
173	0x3e1db97a	0.15402785
174	0x3e094ab7	0.13407408
175	0x3d759201	0.059953693
176	0xbe4a284f	-0.19741939
177	0xbe59e6c7	-0.21279441
178	0x3d97c40b	0.07410439
179	0xbce04387	-0.02737595
180	0x3ea8eb63	0.32992086
181	0xbe8b7cae	-0.2724356
182	0x3ec39484	0.38199246
183	0xbe9cd91f	-0.306344
184	0xbe1b64bb	-0.15175144
185	0x3eb750e5	0.35803905
186	0xbed8f140	-0.4237156
187	0xbe45cc73	-0.19316272
188	0xbe3951a7	-0.18097554
189	0xbec0168a	-0.37517196
190	0x3d6cd814	0.057823256
191	0xbee8d2a4	-0.45473206
192	0x3de3bcca	0.11119993
193	0xbbe50ee2	-0.0069902996
194	0xbde4d4db	-0.111734115
195	0x3e8aa812	0.27081352
196	0xbe1d64e1	-0.15370513
197	0xbcc0fff3	-0.023559546
198	0x3daff950	0.085924745
199	0x3e60ac62	0.21940759
200	0xbe7ec580	-0.24880028
201	0xbda1b0cd	-0.0789505
202	0xbe923427	-0.28555414
203	0xbeb63334	-0.3558594
204	0x3e0d9630	0.13826823
205	0xbe2c0869	-0.16800083
206	0x3ec6c643	0.38823137
207	0x3ea44b25	0.3208858
208	0x3da66a8f	0.08125793
209	0x3e2cbad0	0.16868138
210	0xbe7d0637	-0.24709402
211	0xbe8b5a46	-0.2721731
212	0x3e56fcbb	0.20994847
213	0x3d12a3ed	0.035800863
214	0x3eab2d15	0.33432832
215	0xbef37c03	-0.4755555
216	0x3ef0ee79	0.4705694
217	0x3d8e3d3b	0.069452725
218	0x3ca09f05	0.019607076
219	0xbe1ced85	-0.15324982
220	0x3eb5590d	0.35419503
221	0x3ef2980b	0.47381625
222	0xbdd54af6	-0.10414688
223	0x3ee433be	0.44570726
224	0xbef57c42	-0.47946364
225	0xbeeebd52	-0.46628815
226	0x3ed9635f	0.42458627
227	0x3edbcf91	0.42931798
228	0x3f040ead	0.51584893
229	0x3df40602	0.119152084
230	0xbc270ed6	-0.010196408
231	0x3e8b6ce5	0.27231517
232	0x3d47ddd7	0.048795547
233	0xbef17a41	-0.47163585
234	0xbe323a32	-0.17405012
235	0x3e1dcac2	0.15409377
236	0x3e8e34bd	0.2777461
237	0xbea069b4	-0.31330645
238	0xbee423ca	-0.44558555
239	0x3ee61abd	0.44942275
240	0x3e6fb6ac	0.23409528
241	0x3eceefd4	0.4041735
242	0xbed62126	-0.41822165
243	0xbed3e7d1	-0.413878
244	0x3da3809d	0.079835154
245	0xbd3ee06e	-0.04660075
246	0x3ee51967	0.44745943
247	0x3e4f54ba	0.20247164
248	0x3d3d6841	0.046242002
249	0xbebd280a	-0.3694461
250	0xbeb79610	-0.35856676
251	0x3daebce2	0.0853212
252	0x3e28744a	0.16450611
253	0xbe931ea8	-0.28734326
254	0xbdb607f6	-0.08888237
255	0x3ebbc09f	0.36670396

weight_hh_l0 f4 [12, 4]
0	0xbdcccc4a	-0.099999025
1	0xbe7f2d30	-0.24919581
2	0xbeb3945a	-0.3507412
3	0x3ee3cb18	0.44490886
4	0x3dbcc87e	0.09217928
5	0xbeb651da	-0.35609323
6	0xbd0b9cf4	-0.03408523
7	0x3ee1afb7	0.44079372
8	0xbe335137	-0.1751145
9	0xbc322a7b	-0.010874386
10	0x3e019fea	0.12658659
11	0x3eedc9d8	0.46443057
12	0xbe390689	-0.18068899
13	0x3dd7f0f3	0.10544004
14	0xbc020fda	-0.00793835
15	0x3e5fd25b	0.21857588
16	0xbea82b7a	-0.3284567
17	0x3e7d639d	0.2474503
18	0xbeb3671c	-0.35039604
19	0xbd4e3cc2	-0.050350912
20	0x3e9cfac4	0.3066007
21	0x3dd8d423	0.10587337
22	0xbd0036cc	-0.03130226
23	0xbe9ec350	-0.31008387
24	0xbed05fde	-0.4069814
25	0xbe3f3c2e	-0.186753
26	0x3e211fcb	0.15734784
27	0x3ee255c3	0.44206056
28	0xbc5a6108	-0.013328798
29	0x3ea701b0	0.32618475
30	0x3ef6cbaa	0.48202258
31	0x3e83e628	0.25761533
32	0xbd89f1e7	-0.06735592
33	0x3efadbc3	0.4899579
34	0x3e592d86	0.21208772
35	0x3e709b54	0.23496753
36	0xbe2e13b8	-0.1699971
37	0x3effd990	0.49970675
38	0x3ed7b3b2	0.42129284
39	0xbc0f8e73	-0.00876199
40	0x3eccbfaa	0.39989978
41	0xbefea997	-0.49738762
42	0xbe79990c	-0.24374789
43	0xbebe8d56	-0.37217206
44	0xbefebba8	-0.49752545
45	0xbeb86c99	-0.36020353
46	0x3e416ec3	0.18889908
47	0x3ea60d64	0.3243209

bias_ih_l0 f4 [12]
0	0xbd4bc613	-0.049749445
1	0xbee5ca08	-0.448807
2	0xbec1a1cf	-0.37818763
3	0x3ed31392	0.41225868
4	0xbdc2781a	-0.09495564
5	0x3e7fb308	0.24970639
6	0xbd82e7f8	-0.06391901
7	0x3e4afe34	0.19823533
8	0xbb259a99	-0.002526915
9	0x3e9ba2dd	0.30397692
10	0x3e49ca5b	0.19706099
11	0xbe447f70	-0.19189239

bias_hh_l0 f4 [12]
0	0x3e8997fb	0.26873764
1	0x3e82d4ca	0.2555297
2	0x3ed2486a	0.41070873
3	0xbec792f5	-0.38979307
4	0xbe1ec43b	-0.15504543
5	0xbda0eaa1	-0.07857252
6	0x3eb5a2c6	0.3547575
7	0xbe38b903	-0.18039326
8	0x3ef863ed	0.48513737
9	0xbd1429dd	-0.036172736
10	0x3ea86543	0.32889757
11	0x3e8ed39b	0.27895817

weight f4 [4, 4]
0	0x3eeb2bfd	0.45931998
1	0x3e5bf8e1	0.21481659
2	0xbdc05baa	-0.093924835
3	0xbe5c02d5	-0.21485455
4	0x3e647833	0.22311477
5	0x3d1a910a	0.037735976
6	0xbef4fc0f	-0.47848555
7	0x3e991e7c	0.2990607
8	0xbe783623	-0.24239402
9	0x3ec8af48	0.3919623
10	0xbe065015	-0.13116486
11	0xbe499559	-0.19685878
12	0xbd5479bd	-0.05187391
13	0x3e64787e	0.22311589
14	0x3ed2e101	0.4118729
15	0xbef262a1	-0.47340873

bias f4 [4]
0	0x3e668dab	0.2251498
1	0x3e07da01	0.13266756
2	0xbed1f300	-0.41005707
3	0x3ebc78e9	0.36810997

weight f4 [320, 8]
0	0xbdacc452	-0.08435883
1	0x3e8f6901	0.280098
2	0xbe6b9217	-0.23004948
3	0xbe9d0114	-0.30664885
4	0xbe0956bf	-0.13411997
5	0x3d4d704f	0.050155934
6	0x3d338446	0.043827318
7	0x3df573e0	0.11984992
8	0x3d05050b	0.032475512
9	0xbe875d89	-0.2643855
10	0x3e88aaa5	0.2669269
11	0xbe7aa838	-0.24478233
12	0x3e8bcd44	0.27305043
13	0xbe017076	-0.12640557
14	0xbe5bf704	-0.21480948
15	0x3e8008af	0.25006625
16	0xbe54deaa	-0.20788065
17	0x3e7ec1c8	0.24878609
18	0x3e74d0d6	0.2390779
19	0xbd2eafbb	-0.04264806
20	0xbe16b2a0	-0.14716578
21	0x3dc08f60	0.094023466
22	0x3e4e6407	0.20155345
23	0xbc324497	-0.010880611
24	0xbd8012a2	-0.06253554
25	0xbe911183	-0.28333673
26	0x3dbf0064	0.093262464
27	0xbcdd0e0a	-0.026984233
28	0xbe23b453	-0.15986757
29	0xbe6ef913	-0.23337202
30	0xbe8f5d0e	-0.28000683
31	0x3b8c3e6b	0.0042799017
32	0xbe50360e	-0.2033312
33	0x39b91106	0.00035298633
34	0x3dc418f1	0.0957507
35	0x3d697324	0.056994572
36	0xbdaf6615	-0.085643925
37	0xbe8d75bf	-0.27628896
38	0xbe87fb6a	-0.26559
39	0xbcdd71da	-0.027031828
40	0x3d14e6bd	0.03635286
41	0xbe5138eb	-0.20431869
42	0x3e9c2ba2	0.3050204
43	0xbe3e75ed	-0.18599673
44	0xbd648ffa	-0.05580137
45	0xbe8f0b22	-0.2793818
46	0x3e7d16de	0.24715754
47	0xbd20c268	-0.0392479
48	0xbd196121	-0.037446145
49	0x3d9c6d01	0.07637978
50	0xbe93b4aa	-0.28848773
51	0xbda55c13	-0.080742024
52	0xba4f2a9f	-0.00079027744
53	0xbe858ff7	-0.260864
54	0xbe9a41b5	-0.30128255
55	0x3dcaad97	0.09896391
56	0xbb7bb245	-0.0038405817
57	0x3e530bf1	0.20610024
58	0x3d70553d	0.05867504
59	0xbdc09ce4	-0.094049245
60	0xbe0d81ec	-0.13819093
61	0xbe16d4f5	-0.14729674
62	0xbc5f2da4	-0.013621721
63	0x3e859480	0.2608986
64	0x3d1fbdc1	0.038999323
65	0xbe92c330	-0.2866454
66	0xbe0b3d3f	-0.13597582
67	0xbd0489d2	-0.032358
68	0x3ca3193a	0.01990949
69	0xbe7709d1	-0.24124838
70	0xbb44c58d	-0.0030024976
71	0xbe377501	-0.17915727
72	0xbe20ba21	-0.15696003
73	0xbeabf059	-0.33581808
74	0x3e55a2df	0.20862912
75	0x3e821cee	0.25412697
76	0x3ea143dd	0.31497088
77	0x3df46cdd	0.119348265
78	0xbe4d5f4d	-0.20055886
79	0xbd0bf5e1	-0.034170035
80	0xbe0680d1	-0.13135077
81	0xbdd67af1	-0.10472668
82	0x3e3eb270	0.18622756
83	0xbe9db385	-0.30801025
84	0xbda0b199	-0.07846374
85	0xbcaee5b5	-0.021349767
86	0x3d3da063	0.046295535
87	0xbe4ec800	-0.20193481
88	0x3d8b0235	0.0678753
89	0xbdccba43	-0.09996464
90	0xbdb1d742	-0.08683635
91	0xbe36043f	-0.17775057
92	0x3eb04dc4	0.3443433
93	0xbea371f6	-0.31922883
94	0x3ba41583	0.005007447
95	0x3da9d7ff	0.08293151
96	0x3d25663c	0.0403807
97	0xbea1a99f	-0.31574723
98	0x3e6e1fd9	0.23254336
99	0xbda74b3d	-0.081686474
100	0x3eac5b69	0.3366349
101	0xbda32f60	-0.079680204
102	0x3dc336b8	0.09531921
103	0x3df1bafc	0.118032426
104	0x3a600ced	0.0008546848
105	0xbe6ab060	-0.22918844
106	0xbd4eef75	-0.050521333
107	0xb9bafb66	-0.0003566399
108	0xbe803003	-0.2503663
109	0x3d9b5f35	0.07586519
110	0xbd9f449d	-0.07776759
111	0xbd881816	-0.06645219
112	0x3eb1d1e8	0.34730458
113	0x3e43c4f0	0.19118094
114	0xbe6a94bc	-0.229083
115	0x3e4e464c	0.20144004
116	0xbe2c0247	-0.16797744
117	0x3c8898a4	0.016674347
118	0xbeafad7f	-0.34312055
119	0x3de4a2d8	0.111638725
120	0xb83e451f	-4.5363904e-05
121	0x3cbd433d	0.02310335
122	0xbd0d2032	-0.034454532
123	0x3e0ca9d3	0.13736658
124	0xbcc42c95	-0.02394704
125	0xbe9b5466	-0.30337828
126	0xbbfe6d7b	-0.007764516
127	0x3e7f5cb4	0.24937707
128	0x39b729cd	0.00034935624
129	0x3d9cc5dd	0.07654927
130	0x3e3809a6	0.1797243
131	0x3e869b19	0.26290205
132	0x3dd2c7c4	0.102920085
133	0x3d8c558a	0.06852253
134	0xbe7974c8	-0.24360955
135	0x3e411774	0.18856603
136	0xbe62f800	-0.22164917
137	0x3ddbf74c	0.107405275
138	0xbe007d38	-0.12547767
139	0x3e51da69	0.20493473
140	0x3d8ab2ed	0.06772409
141	0xbceb2adf	-0.028706966
142	0xbcb83633	-0.022486782
143	0xbe855642	-0.26042372
144	0xbeacfc34	-0.33786166
145	0xbe69448c	-0.22780055
146	0x3db2262c	0.08698687
147	0x3e6d5993	0.23178701
148	0xbe040fdd	-0.12896676
149	0x3e800a90	0.2500806
150	0x3e8fbe09	0.28074673
151	0xbe3ee588	-0.18642247
152	0xbe97ff26	-0.2968685
153	0x3e82d3b8	0.25552154
154	0x3cf0fc04	0.029417045
155	0xbe40d40a	-0.18830886
156	0x3e6515b7	0.22371565
157	0x3de961df	0.113956206
158	0xbe9d149c	-0.30679786
159	0xbe961ccb	-0.29318842
160	0x3d98e8fc	0.07466313
161	0x3e447a03	0.19187169
162	0xbd3c954e	-0.046040826
163	0x3dcf1dd6	0.10113113
164	0x3e26692f	0.16251062
165	0x3e3adf6f	0.18249296
166	0xbdf1507b	-0.117829286
167	0xbd658b21	-0.056040887
168	0xbd24ccd5	-0.040234406
169	0xbe81f9bb	-0.25385842
170	0x3e96a920	0.29425907
171	0x3e31f233	0.17377548
172	0xbe5a2e6c	-0.21306771
173	0x3e837928	0.25678372
174	0xbcc1b2f6	-0.023644906
175	0x3de24798	0.11048812
176	0x3e9d2240	0.30690193
177	0xbcbb27e5	-0.022846172
178	0x3e46ed20	0.19426394
179	0xbe126e6a	-0.14299932
180	0x3dfac9fd	0.122455575
181	0x3e898ec7	0.26866743
182	0x3d2bc2ce	0.041933827
183	0x3dc1457e	0.09437083
184	0x3e2919d7	0.16513763
185	0x3e953e45	0.2914907
186	0x3d75fe3e	0.060056917
187	0xbc3c6d7f	-0.011500715
188	0xbe8900be	-0.2675838
189	0x3d06f476	0.03294798
190	0x3c398192	0.011322396
191	0x3d3299f8	0.043603867
192	0xbd9030e8	-0.07040578
193	0xbe755eaa	-0.23961893
194	0xbcbde805	-0.023181925
195	0xbea726bc	-0.3264674
196	0xbca87d9b	-0.020567706
197	0xbeaa3687	-0.33244726
198	0xbdd64898	-0.10463065
199	0x3e072d94	0.1320098
200	0x3dfbe493	0.122994564
201	0xbdbd3f82	-0.09240629
202	0x3e91dca8	0.2848866
203	0x3d767269	0.060167704
204	0x3ea0463c	0.31303585
205	0xbe555e30	-0.20836711
206	0xbe3e830c	-0.18604678
207	0xbbbfdc87	-0.0058551463
208	0xbdd2a0b4	-0.10284558
209	0xbe6218d6	-0.22079787
210	0xbdf2eb19	-0.118612476
211	0x3cc0af5c	0.023521118
212	0xbe7d8a08	-0.24759686
213	0xbe86542e	-0.262361
214	0x3d213b9d	0.039363492
215	0x3dc4226d	0.09576879
216	0x3e5a6bdb	0.21330206
217	0xbe28e10f	-0.16492103
218	0xbe6adb69	-0.22935261
219	0xbe9cc240	-0.3061695
220	0x3e09e837	0.13467489
221	0x3df59c65	0.119927205
222	0xbda739dd	-0.081653334
223	0xbe0d9d44	-0.13829523
224	0xbeabbcc0	-0.33542442
225	0xbeb22a8e	-0.34798092
226	0x3d479f33	0.04873581
227	0xbde3f9ba	-0.11131616
228	0x3e10a360	0.14124823
229	0x3e19e400	0.15028381
230	0x3d7450af	0.05964726
231	0xbda96d03	-0.082727455
232	0xbc8fcf5c	-0.017554931
233	0x3e39e5c5	0.18154056
234	0x3dbb7782	0.09153654
235	0xbe8da2d5	-0.27663293
236	0xbd99e0c5	-0.075135745
237	0xbe39c1c3	-0.1814032
238	0x3cac3936	0.021023374
239	0xbc08cf8a	-0.008350262
240	0x3def16c9	0.11674268
241	0xbe582d9c	-0.21111149
242	0xbd39a64e	-0.045324616
243	0x3dbafe53	0.0913054
244	0x3e898058	0.2685573
245	0xbc3b7a0d	-0.011442673
246	0xbda05256	-0.07828204
247	0xbe9ce641	-0.3064442
248	0x3dc6f17a	0.09714027
249	0x3b8c2eb0	0.0042780265
250	0xbe7af7f5	-0.2450865
251	0xbc80c891	-0.015720638
252	0x3e98a8c9	0.29816273
253	0xbe75bc8b	-0.23997705
254	0xbea066ec	-0.31328523
255	0x3dba4e95	0.090970196

bias f4 [320]
0	0x3d0a8277	0.033815827
1	0xbd92243d	-0.07135818
2	0xbe06da10	-0.13169122
3	0x3e486667	0.19570313
4	0xbe4803c6	-0.1953269
5	0xbd46c60c	-0.048528716
6	0xbd6d1e6d	-0.057890344
7	0x3d37df17	0.04489049
8	0x3d95c55e	0.073130354
9	0xbcf83018	-0.03029637
10	0xbb31f10d	-0.0027151734
11	0xbb9ed808	-0.0048475303
12	0xbd828cdd	-0.06374524
13	0xbe7ef8e0	-0.24899626
14	0x3ea54f6c	0.32287157
15	0x3e38afb2	0.18035772
16	0xbe35f082	-0.17767528
17	0xbdb25cab	-0.08709081
18	0x3b95d536	0.004572536
19	0xbdaab438	-0.08335155
20	0xbe32a78a	-0.17446724
21	0xbe290a80	-0.16507912
22	0x3d4b4554	0.049626663
23	0xbdf94b04	-0.12172511
24	0x3e6774dd	0.22603174
25	0xbd4e564f	-0.05037528
26	0x3e430b9d	0.19047399
27	0x3e35df54	0.17760974
28	0xbe856335	-0.2605225
29	0xba8c83e7	-0.0010720462
30	0x3e96d03c	0.29455745
31	0xbe872add	-0.2639989
32	0xbe7e4d15	-0.24834092
33	0xbe728510	-0.23683572
34	0x3ea40c23	0.3204051
35	0x3dba688a	0.091019705
36	0xbd4c1e4b	-0.049833577
37	0xbe090558	-0.13380945
38	0x3e395c6e	0.18101665
39	0xbd3deab7	-0.04636642
40	0xbcf49880	-0.029857874
41	0x3e3878d2	0.1801484
42	0xbe84852e	-0.25882858
43	0xbe5f9ed2	-0.21837929
44	0xbc5ef8fd	-0.013609168
45	0xbe5264e7	-0.20546304
46	0x3e7372ae	0.23774216
47	0x3e274909	0.16336454
48	0x3ea1759a	0.31535035
49	0xbddd799b	-0.1081421
50	0xbd9c26c2	-0.0762458
51	0x3d95bd13	0.07311454
52	0x3d8dc205	0.06921772
53	0x3e91afb6	0.2845437
54	0x3e6e23cd	0.23255844
55	0xb9c57588	-0.00037662336
56	0xbe30d480	-0.17268562
57	0x3d935eff	0.071958534
58	0x3e155a3e	0.14585206
59	0x3e9ebca2	0.3100329
60	0xbc5cdcb9	-0.013480359
61	0xbd10f8d0	-0.035393536
62	0xbd27ae8d	-0.04093795
63	0xbdab5efe	-0.08367728
64	0x3d3daee4	0.046309367
65	0x3de54ea4	0.1119664
66	0x3a890562	0.0010453875
67	0xbe538a17	-0.20658146
68	0x3e109d9a	0.1412262
69	0x3eb187f2	0.3467403
70	0xbe666068	-0.22497714
71	0x3e7550c6	0.23956594
72	0xbdcf6288	-0.10126215
73	0xbe532b2b	-0.20621936
74	0xbd569f38	-0.052397937
75	0xbb08cba5	-0.0020873335
76	0x3e8544a6	0.26028937
77	0x3e4bcf90	0.19903398
78	0x3de62371	0.11237229
79	0x3ba25cc3	0.0049549057
80	0x3d760f39	0.06007311
81	0xbe46c79f	-0.19412087
82	0xbd4d879a	-0.050178148
83	0xbe88debd	-0.26732436
84	0xbd518fc9	-0.051162515
85	0x3c78ab4a	0.015177557
86	0xbdcc403c	-0.09973189
87	0xbe788b63	-0.24271922
88	0x3e3782dd	0.17921014
89	0x3e6d2092	0.23156956
90	0xbcd30ba8	-0.025762394
91	0x3ea2f5a1	0.31828025
92	0xbddb8b17	-0.10719889
93	0x3e81b328	0.25331998
94	0xbe03bc59	-0.12864818
95	0x3e190c93	0.14946203
96	0xbcd00251	-0.02539173
97	0xbe730d95	-0.2373565
98	0x3e8441ee	0.2583155
99	0x3ea451b0	0.32093573
100	0x3de7348c	0.112893194
101	0xbe1a9106	-0.15094385
102	0x3e886e06	0.2664644
103	0xbe6365e7	-0.22206841
104	0x3e066f22	0.13128331
105	0x3da3ead8	0.08003777
106	0x3a9e16b9	0.0012061215
107	0x3e1a3ac8	0.15061486
108	0xbe4b0650	-0.19826627
109	0x3ccea466	0.025224876
110	0xbddba929	-0.10725624
111	0xbe98f58f	-0.29874846
112	0xbe398427	-0.18116818
113	0x3e1904af	0.14943193
114	0xbc829b38	-0.015943155
115	0x3e3da0ad	0.18518324
116	0xbdac323b	-0.08408018
117	0xbdb714f4	-0.08939543
118	0x3da0e807	0.07856756
119	0xbe4679bd	-0.19382377
120	0xbe05ed21	-0.13078739
121	0x3ebd22ad	0.36940518
122	0xbdcb3e7a	-0.09924026
123	0x3ea868af	0.32892367
124	0xbe86eb31	-0.26351312
125	0x3e91e62b	0.28495917
126	0x3ea6591c	0.3248986
127	0xbe9452e3	-0.28969488
128	0xbe406a1b	-0.18790476
129	0xbd3b4427	-0.045719292
130	0x3e65722a	0.22406831
131	0x3eaae6e4	0.3337928
132	0x3de6a545	0.112619914
133	0xbd04af42	-0.0323937
134	0xbe6c3680	-0.23067665
135	0x3e9adab4	0.30244982
136	0xbdd4edbd	-0.103969075
137	0xbe594dc9	-0.21221079
138	0x3db0d1e0	0.086337805
139	0xbdb4339d	-0.08798907
140	0x3e5c3ff9	0.21508779
141	0x3e5f51c4	0.21808535
142	0x3ea3bbe8	0.319793
143	0x3e9d21ca	0.30689842
144	0xbe305da1	-0.17223217
145	0x3c526acb	0.012842844
146	0x3e88e6f1	0.26738694
147	0x3e4dfa34	0.20114976
148	0x3e0c4795	0.13699181
149	0x3e9ff976	0.3124501
150	0x3e9a4b0f	0.3013539
151	0x3e005a9b	0.12534563
152	0x3d38d22a	0.045122303
153	0xbe23247e	-0.1593189
154	0xbe05b0df	-0.13055752
155	0xbe4034ec	-0.18770188
156	0xbe995bf2	-0.2995296
157	0x3e14c0ac	0.14526623
158	0xbdd1718f	-0.10226738
159	0x3eb7c411	0.35891774
160	0x3dd5326a	0.10410006
161	0xbe324658	-0.17409647
162	0xbd6b954a	-0.05751542
163	0x3d890661	0.0669067
164	0xbe6b9382	-0.23005489
165	0xbe97501a	-0.295533
166	0x3e972b8c	0.2952541
167	0x3e87a11a	0.26490098
168	0x3c6a3821	0.014295609
169	0x3900a9b6	0.00012270254
170	0x3b47e31f	0.0030500365
171	0xbe3e8cc9	-0.18608393
172	0x3e0085f3	0.12551098
173	0x3e9eb49f	0.30997178
174	0x3e83b98b	0.25727496
175	0x3dbd9db0	0.09258592
176	0x3dcee497	0.10102194
177	0x3e4f39b4	0.20236856
178	0x3d21dc14	0.039516523
179	0x3d75fb18	0.060053915
180	0x3bcc6524	0.006237643
181	0x3ccd57c0	0.025066257
182	0x3ccce7b5	0.02501283
183	0xbdfaa637	-0.12238734
184	0xbe6334a5	-0.22188051
185	0xbe03792f	-0.12839197
186	0x3de1ce1b	0.110256396
187	0x3e8d85aa	0.2764104
188	0x3e99593f	0.29950902
189	0x3e7380af	0.23779558
190	0xbe066441	-0.13124181
191	0x3e575859	0.21029796
192	0x3dc74b5a	0.09731169
193	0xbe196635	-0.14980395
194	0x3e2cf2dc	0.16889518
195	0x3e58f0b7	0.21185575
196	0xbe2836a2	-0.16427091
197	0xbce0d566	-0.027445506
198	0xbe895b43	-0.2682744
199	0x3e5382f8	0.2065543
200	0x3da5e5d9	0.081004806
201	0xbd5cb719	-0.053885553
202	0xbdaf8f4a	-0.08572252
203	0xbdf8de84	-0.121518165
204	0x3d42ab43	0.04752661
205	0x3ea3e5f7	0.32011387
206	0x3e74caa4	0.23905426
207	0xbe3ec8f9	-0.18631352
208	0x3e33f54e	0.17574045
209	0x3e29bea4	0.1657663
210	0x3e1ec241	0.1550379
211	0x3e9534b4	0.29141772
212	0xbd83591a	-0.06413479
213	0xbe84c892	-0.25934273
214	0xbd1cf8b5	-0.038323123
215	0x3e1cfe99	0.15331496
216	0xbd9b2af5	-0.07576553
217	0xbe055e87	-0.1302434
218	0xbe37ee64	-0.17962033
219	0xbddbc54a	-0.10730989
220	0xbcb2a190	-0.021805555
221	0x3d6cfb8e	0.05785709
222	0xbd473fef	-0.048644956
223	0x3d0d9a77	0.034571137
224	0xbd98a8cd	-0.07454071
225	0xbe567219	-0.20941962
226	0xbc6d7b52	-0.014494734
227	0xbe8a4753	-0.2700754
228	0xbe0b8bd0	-0.13627553
229	0xbe219b09	-0.15781797
230	0xbe977325	-0.29580036
231	0xbd9c6cf4	-0.07637969
232	0x3dc15426	0.09439878
233	0x3e65d5bc	0.22444814
234	0xbd636303	-0.055514347
235	0x3e4f8fed	0.20269747
236	0xbd550f56	-0.05201658
237	0xbde01225	-0.10940961
238	0xbc853106	-0.016258728
239	0x3e9ff955	0.31244913
240	0xbd8eaab9	-0.069661565
241	0x3e91dbae	0.28487915
242	0xbe76d126	-0.24103221
243	0xbe2dcd2a	-0.16972795
244	0x3e51fe41	0.20507146
245	0xbe4a8ecb	-0.19781034
246	0xbe262c18	-0.16227758
247	0xbe6fd275	-0.23420127
248	0x3de04eb4	0.109525114
249	0xbe80bffc	-0.25146472
250	0x3db39f81	0.08770657
251	0x3ceac4de	0.028658327
252	0x3ead90da	0.33899575
253	0xbd2fe61d	-0.042944063
254	0xbdb32085	-0.08746437
255	0x3d8f3cc3	0.06994011
