KNet/Linear_SS_With_MM/pipeline_KNet_MM_Linear_Dynamics_T100_v_positive_5dB.pt (torch, 199561 bytes, 351 tensors)

G f4 [2, 1]
0.0 1.0
00000000: 0000 0000 0000 803f

Q f4 [2, 2]
1.0 0.0 0.0 1.0
00000000: 0000 803f 0000 0000 0000 0000 0000 803f

R f4 [2, 2]
0.31622776 0.0 0.0 0.31622776
00000000: 9be8 a13e 0000 0000 0000 0000 9be8 a13e

prior_Q f4 [2, 2]
1.0 0.0 0.0 1.0
00000000: 0000 803f 0000 0000 0000 0000 0000 803f

prior_Sigma f4 [2, 2]
1.0 0.0 0.0 1.0
00000000: 0000 803f 0000 0000 0000 0000 0000 803f

prior_S f4 [2, 2]
1.0 0.0 0.0 1.0
00000000: 0000 803f 0000 0000 0000 0000 0000 803f

m1x_0 f4 [2]
10.0 0.0
00000000: 0000 2041 0000 0000

x_prev f4 [2]
10.0 0.0
00000000: 0000 2041 0000 0000

m2x_0 f4 [2, 2]
0.0 0.0 0.0 0.0
00000000: 0000 0000 0000 0000 0000 0000 0000 0000

QT f4 [2, 2]
1.0 0.0 0.0 1.0
00000000: 0000 803f 0000 0000 0000 0000 0000 803f

Qx f4 [2, 2]
1.0 0.0 0.0 1.0
00000000: 0000 803f 0000 0000 0000 0000 0000 803f

L f4 [1, 2]
0.57917404 1.5462112
00000000: c044 143f 40ea c53f

L f4 [1, 2]
0.57926774 1.5460253
00000000: e44a 143f 28e4 c53f

L f4 [1, 2]
0.57917404 1.5462112
00000000: c044 143f 40ea c53f

L f4 [1, 2]
0.57926774 1.5460253
00000000: e44a 143f 28e4 c53f

L f4 [1, 2]
0.57917404 1.5462112
00000000: c044 143f 40ea c53f

L f4 [1, 2]
0.57926774 1.5460253
00000000: e44a 143f 28e4 c53f

L f4 [1, 2]
0.57917404 1.5462112
00000000: c044 143f 40ea c53f

L f4 [1, 2]
0.57926774 1.5460253
00000000: e44a 143f 28e4 c53f

L f4 [1, 2]
0.57917404 1.5462112
00000000: c044 143f 40ea c53f

L f4 [1, 2]
0.57926774 1.5460253
00000000: e44a 143f 28e4 c53f

L f4 [1, 2]
0.57917404 1.5462112
00000000: c044 143f 40ea c53f

L f4 [1, 2]
0.57926774 1.5460253
00000000: e44a 143f 28e4 c53f

L f4 [1, 2]
0.57917404 1.5462112
00000000: c044 143f 40ea c53f

L f4 [1, 2]
0.57926774 1.5460253
00000000: e44a 143f 28e4 c53f

L f4 [1, 2]
0.57917404 1.5462112
00000000: c044 143f 40ea c53f

L f4 [1, 2]
0.57926774 1.5460253
00000000: e44a 143f 28e4 c53f

L f4 [1, 2]
0.57917404 1.5462112
00000000: c044 143f 40ea c53f

L f4 [1, 2]
0.57926774 1.5460253
00000000: e44a 143f 28e4 c53f

L f4 [1, 2]
0.57917404 1.5462112
00000000: c044 143f 40ea c53f

L f4 [1, 2]
0.57926774 1.5460253
00000000: e44a 143f 28e4 c53f

L f4 [1, 2]
0.57917404 1.5462112
00000000: c044 143f 40ea c53f

L f4 [1, 2]
0.57926774 1.5460253
00000000: e44a 143f 28e4 c53f

L f4 [1, 2]
0.57917404 1.5462112
00000000: c044 143f 40ea c53f

L f4 [1, 2]
0.57926774 1.5460253
00000000: e44a 143f 28e4 c53f

L f4 [1, 2]
0.57917404 1.5462112
00000000: c044 143f 40ea c53f

L f4 [1, 2]
0.57926774 1.5460253
00000000: e44a 143f 28e4 c53f

L f4 [1, 2]
0.57917404 1.5462112
00000000: c044 143f 40ea c53f

L f4 [1, 2]
0.57926774 1.5460253
00000000: e44a 143f 28e4 c53f

L f4 [1, 2]
0.57917404 1.5462112
00000000: c044 143f 40ea c53f

L f4 [1, 2]
0.57926774 1.5460253
00000000: e44a 143f 28e4 c53f

L f4 [1, 2]
0.57917404 1.5462112
00000000: c044 143f 40ea c53f

L f4 [1, 2]
0.57926774 1.5460253
00000000: e44a 143f 28e4 c53f

L f4 [1, 2]
0.57917404 1.5462112
00000000: c044 143f 40ea c53f

L f4 [1, 2]
0.57926774 1.5460253
00000000: e44a 143f 28e4 c53f

L f4 [1, 2]
0.57917404 1.5462112
00000000: c044 143f 40ea c53f

L f4 [1, 2]
0.57926774 1.5460253
00000000: e44a 143f 28e4 c53f

L f4 [1, 2]
0.57917404 1.5462112
00000000: c044 143f 40ea c53f

L f4 [1, 2]
0.57926774 1.5460253
00000000: e44a 143f 28e4 c53f

L f4 [1, 2]
0.57917404 1.5462112
00000000: c044 143f 40ea c53f

L f4 [1, 2]
0.57926774 1.5460253
00000000: e44a 143f 28e4 c53f

L f4 [1, 2]
0.57917404 1.5462112
00000000: c044 143f 40ea c53f

L f4 [1, 2]
0.57926774 1.5460253
00000000: e44a 143f 28e4 c53f

L f4 [1, 2]
0.57917404 1.5462112
00000000: c044 143f 40ea c53f

L f4 [1, 2]
0.57926774 1.5460253
00000000: e44a 143f 28e4 c53f

L f4 [1, 2]
0.57917404 1.5462112
00000000: c044 143f 40ea c53f

L f4 [1, 2]
0.57926774 1.5460253
00000000: e44a 143f 28e4 c53f

L f4 [1, 2]
0.57917404 1.5462112
00000000: c044 143f 40ea c53f

L f4 [1, 2]
0.57926774 1.5460253
00000000: e44a 143f 28e4 c53f

L f4 [1, 2]
0.57917404 1.5462112
00000000: c044 143f 40ea c53f

L f4 [1, 2]
0.57926774 1.5460253
00000000: e44a 143f 28e4 c53f

L f4 [1, 2]
0.57917404 1.5462112
00000000: c044 143f 40ea c53f

L f4 [1, 2]
0.57926774 1.5460253
00000000: e44a 143f 28e4 c53f

L f4 [1, 2]
0.57917404 1.5462112
00000000: c044 143f 40ea c53f

L f4 [1, 2]
0.57926774 1.5460253
00000000: e44a 143f 28e4 c53f

L f4 [1, 2]
0.57917404 1.5462112
00000000: c044 143f 40ea c53f

L f4 [1, 2]
0.57926774 1.5460253
00000000: e44a 143f 28e4 c53f

L f4 [1, 2]
0.57917404 1.5462112
00000000: c044 143f 40ea c53f

L f4 [1, 2]
0.57926774 1.5460253
00000000: e44a 143f 28e4 c53f

L f4 [1, 2]
0.57917404 1.5462112
00000000: c044 143f 40ea c53f

L f4 [1, 2]
0.57926774 1.5460253
00000000: e44a 143f 28e4 c53f

L f4 [1, 2]
0.57917404 1.5462112
00000000: c044 143f 40ea c53f

L f4 [1, 2]
0.57926774 1.5460253
00000000: e44a 143f 28e4 c53f

L f4 [1, 2]
0.57917404 1.5462112
00000000: c044 143f 40ea c53f

L f4 [1, 2]
0.57926774 1.5460253
00000000: e44a 143f 28e4 c53f

L f4 [1, 2]
0.57917404 1.5462112
00000000: c044 143f 40ea c53f

L f4 [1, 2]
0.57926774 1.5460253
00000000: e44a 143f 28e4 c53f

L f4 [1, 2]
0.57917404 1.5462112
00000000: c044 143f 40ea c53f

L f4 [1, 2]
0.57926774 1.5460253
00000000: e44a 143f 28e4 c53f

L f4 [1, 2]
0.57917404 1.5462112
00000000: c044 143f 40ea c53f

L f4 [1, 2]
0.57926774 1.5460253
00000000: e44a 143f 28e4 c53f

L f4 [1, 2]
0.57917404 1.5462112
00000000: c044 143f 40ea c53f

L f4 [1, 2]
0.57926774 1.5460253
00000000: e44a 143f 28e4 c53f

L f4 [1, 2]
0.57917404 1.5462112
00000000: c044 143f 40ea c53f

L f4 [1, 2]
0.57926774 1.5460253
00000000: e44a 143f 28e4 c53f

L f4 [1, 2]
0.57917404 1.5462112
00000000: c044 143f 40ea c53f

L f4 [1, 2]
0.57926774 1.5460253
00000000: e44a 143f 28e4 c53f

L f4 [1, 2]
0.57917404 1.5462112
00000000: c044 143f 40ea c53f

L f4 [1, 2]
0.57926774 1.5460253
00000000: e44a 143f 28e4 c53f

L f4 [1, 2]
0.57917404 1.5462112
00000000: c044 143f 40ea c53f

L f4 [1, 2]
0.57926774 1.5460253
00000000: e44a 143f 28e4 c53f

L f4 [1, 2]
0.57917404 1.5462112
00000000: c044 143f 40ea c53f

L f4 [1, 2]
0.57926774 1.5460253
00000000: e44a 143f 28e4 c53f

L f4 [1, 2]
0.57917404 1.5462112
00000000: c044 143f 40ea c53f

L f4 [1, 2]
0.57926774 1.5460253
00000000: e44a 143f 28e4 c53f

L f4 [1, 2]
0.57917404 1.5462112
00000000: c044 143f 40ea c53f

L f4 [1, 2]
0.57926774 1.5460253
00000000: e44a 143f 28e4 c53f

L f4 [1, 2]
0.57917404 1.5462112
00000000: c044 143f 40ea c53f

L f4 [1, 2]
0.57926774 1.5460253
00000000: e44a 143f 28e4 c53f

L f4 [1, 2]
0.57917404 1.5462112
00000000: c044 143f 40ea c53f

L f4 [1, 2]
0.57926774 1.5460253
00000000: e44a 143f 28e4 c53f

L f4 [1, 2]
0.57917404 1.5462112
00000000: c044 143f 40ea c53f

L f4 [1, 2]
0.57926774 1.5460253
00000000: e44a 143f 28e4 c53f

L f4 [1, 2]
0.57917404 1.5462112
00000000: c044 143f 40ea c53f

L f4 [1, 2]
0.57926774 1.5460253
00000000: e44a 143f 28e4 c53f

L f4 [1, 2]
0.57917404 1.5462112
00000000: c044 143f 40ea c53f

L f4 [1, 2]
0.57926774 1.5460253
00000000: e44a 143f 28e4 c53f

L f4 [1, 2]
0.5790329 1.5458374
00000000: 803b 143f 00de c53f

L f4 [1, 2]
0.57670283 1.54315
00000000: cca2 133f f085 c53f

L f4 [1, 2]
0.5616894 1.525917
00000000: e0ca 0f3f 4051 c33f

L f4 [1, 2]
0.45629883 1.4107833
00000000: 00a0 e93e 8c94 b43f

S f4 [2, 2]
2.6686792 1.7267356 1.7267356 2.880413
00000000: a4cb 2a40 ac05 dd3f ac05 dd3f b058 3840

S f4 [2, 2]
2.6681137 1.725338 1.725338 2.8782806
00000000: 60c2 2a40 e0d7 dc3f e0d7 dc3f c035 3840

S f4 [2, 2]
2.6686792 1.7267356 1.7267356 2.880413
00000000: a4cb 2a40 ac05 dd3f ac05 dd3f b058 3840

S f4 [2, 2]
2.6681137 1.725338 1.725338 2.8782806
00000000: 60c2 2a40 e0d7 dc3f e0d7 dc3f c035 3840

S f4 [2, 2]
2.6686792 1.7267356 1.7267356 2.880413
00000000: a4cb 2a40 ac05 dd3f ac05 dd3f b058 3840

S f4 [2, 2]
2.6681137 1.725338 1.725338 2.8782806
00000000: 60c2 2a40 e0d7 dc3f e0d7 dc3f c035 3840

S f4 [2, 2]
2.6686792 1.7267356 1.7267356 2.880413
00000000: a4cb 2a40 ac05 dd3f ac05 dd3f b058 3840

S f4 [2, 2]
2.6681137 1.725338 1.725338 2.8782806
00000000: 60c2 2a40 e0d7 dc3f e0d7 dc3f c035 3840

S f4 [2, 2]
2.6686792 1.7267356 1.7267356 2.880413
00000000: a4cb 2a40 ac05 dd3f ac05 dd3f b058 3840

S f4 [2, 2]
2.6681137 1.725338 1.725338 2.8782806
00000000: 60c2 2a40 e0d7 dc3f e0d7 dc3f c035 3840

S f4 [2, 2]
2.6686792 1.7267356 1.7267356 2.880413
00000000: a4cb 2a40 ac05 dd3f ac05 dd3f b058 3840

S f4 [2, 2]
2.6681137 1.725338 1.725338 2.8782806
00000000: 60c2 2a40 e0d7 dc3f e0d7 dc3f c035 3840

S f4 [2, 2]
2.6686792 1.7267356 1.7267356 2.880413
00000000: a4cb 2a40 ac05 dd3f ac05 dd3f b058 3840

S f4 [2, 2]
2.6681137 1.725338 1.725338 2.8782806
00000000: 60c2 2a40 e0d7 dc3f e0d7 dc3f c035 3840

S f4 [2, 2]
2.6686792 1.7267356 1.7267356 2.880413
00000000: a4cb 2a40 ac05 dd3f ac05 dd3f b058 3840

S f4 [2, 2]
2.6681137 1.725338 1.725338 2.8782806
00000000: 60c2 2a40 e0d7 dc3f e0d7 dc3f c035 3840

S f4 [2, 2]
2.6686792 1.7267356 1.7267356 2.880413
00000000: a4cb 2a40 ac05 dd3f ac05 dd3f b058 3840

S f4 [2, 2]
2.6681137 1.725338 1.725338 2.8782806
00000000: 60c2 2a40 e0d7 dc3f e0d7 dc3f c035 3840

S f4 [2, 2]
2.6686792 1.7267356 1.7267356 2.880413
00000000: a4cb 2a40 ac05 dd3f ac05 dd3f b058 3840

S f4 [2, 2]
2.6681137 1.725338 1.725338 2.8782806
00000000: 60c2 2a40 e0d7 dc3f e0d7 dc3f c035 3840

S f4 [2, 2]
2.6686792 1.7267356 1.7267356 2.880413
00000000: a4cb 2a40 ac05 dd3f ac05 dd3f b058 3840

S f4 [2, 2]
2.6681137 1.725338 1.725338 2.8782806
00000000: 60c2 2a40 e0d7 dc3f e0d7 dc3f c035 3840

S f4 [2, 2]
2.6686792 1.7267356 1.7267356 2.880413
00000000: a4cb 2a40 ac05 dd3f ac05 dd3f b058 3840

S f4 [2, 2]
2.6681137 1.725338 1.725338 2.8782806
00000000: 60c2 2a40 e0d7 dc3f e0d7 dc3f c035 3840

S f4 [2, 2]
2.6686792 1.7267356 1.7267356 2.880413
00000000: a4cb 2a40 ac05 dd3f ac05 dd3f b058 3840

S f4 [2, 2]
2.6681137 1.725338 1.725338 2.8782806
00000000: 60c2 2a40 e0d7 dc3f e0d7 dc3f c035 3840

S f4 [2, 2]
2.6686792 1.7267356 1.7267356 2.880413
00000000: a4cb 2a40 ac05 dd3f ac05 dd3f b058 3840

S f4 [2, 2]
2.6681137 1.725338 1.725338 2.8782806
00000000: 60c2 2a40 e0d7 dc3f e0d7 dc3f c035 3840

S f4 [2, 2]
2.6686792 1.7267356 1.7267356 2.880413
00000000: a4cb 2a40 ac05 dd3f ac05 dd3f b058 3840

S f4 [2, 2]
2.6681137 1.725338 1.725338 2.8782806
00000000: 60c2 2a40 e0d7 dc3f e0d7 dc3f c035 3840

S f4 [2, 2]
2.6686792 1.7267356 1.7267356 2.880413
00000000: a4cb 2a40 ac05 dd3f ac05 dd3f b058 3840

S f4 [2, 2]
2.6681137 1.725338 1.725338 2.8782806
00000000: 60c2 2a40 e0d7 dc3f e0d7 dc3f c035 3840

S f4 [2, 2]
2.6686792 1.7267356 1.7267356 2.880413
00000000: a4cb 2a40 ac05 dd3f ac05 dd3f b058 3840

S f4 [2, 2]
2.6681137 1.725338 1.725338 2.8782806
00000000: 60c2 2a40 e0d7 dc3f e0d7 dc3f c035 3840

S f4 [2, 2]
2.6686792 1.7267356 1.7267356 2.880413
00000000: a4cb 2a40 ac05 dd3f ac05 dd3f b058 3840

S f4 [2, 2]
2.6681137 1.725338 1.725338 2.8782806
00000000: 60c2 2a40 e0d7 dc3f e0d7 dc3f c035 3840

S f4 [2, 2]
2.6686792 1.7267356 1.7267356 2.880413
00000000: a4cb 2a40 ac05 dd3f ac05 dd3f b058 3840

S f4 [2, 2]
2.6681137 1.725338 1.725338 2.8782806
00000000: 60c2 2a40 e0d7 dc3f e0d7 dc3f c035 3840

S f4 [2, 2]
2.6686792 1.7267356 1.7267356 2.880413
00000000: a4cb 2a40 ac05 dd3f ac05 dd3f b058 3840

S f4 [2, 2]
2.6681137 1.725338 1.725338 2.8782806
00000000: 60c2 2a40 e0d7 dc3f e0d7 dc3f c035 3840

S f4 [2, 2]
2.6686792 1.7267356 1.7267356 2.880413
00000000: a4cb 2a40 ac05 dd3f ac05 dd3f b058 3840

S f4 [2, 2]
2.6681137 1.725338 1.725338 2.8782806
00000000: 60c2 2a40 e0d7 dc3f e0d7 dc3f c035 3840

S f4 [2, 2]
2.6686792 1.7267356 1.7267356 2.880413
00000000: a4cb 2a40 ac05 dd3f ac05 dd3f b058 3840

S f4 [2, 2]
2.6681137 1.725338 1.725338 2.8782806
00000000: 60c2 2a40 e0d7 dc3f e0d7 dc3f c035 3840

S f4 [2, 2]
2.6686792 1.7267356 1.7267356 2.880413
00000000: a4cb 2a40 ac05 dd3f ac05 dd3f b058 3840

S f4 [2, 2]
2.6681137 1.725338 1.725338 2.8782806
00000000: 60c2 2a40 e0d7 dc3f e0d7 dc3f c035 3840

S f4 [2, 2]
2.6686792 1.7267356 1.7267356 2.880413
00000000: a4cb 2a40 ac05 dd3f ac05 dd3f b058 3840

S f4 [2, 2]
2.6681137 1.725338 1.725338 2.8782806
00000000: 60c2 2a40 e0d7 dc3f e0d7 dc3f c035 3840

S f4 [2, 2]
2.6686792 1.7267356 1.7267356 2.880413
00000000: a4cb 2a40 ac05 dd3f ac05 dd3f b058 3840

S f4 [2, 2]
2.6681137 1.725338 1.725338 2.8782806
00000000: 60c2 2a40 e0d7 dc3f e0d7 dc3f c035 3840

S f4 [2, 2]
2.6686792 1.7267356 1.7267356 2.880413
00000000: a4cb 2a40 ac05 dd3f ac05 dd3f b058 3840

S f4 [2, 2]
2.6681137 1.725338 1.725338 2.8782806
00000000: 60c2 2a40 e0d7 dc3f e0d7 dc3f c035 3840

S f4 [2, 2]
2.6686792 1.7267356 1.7267356 2.880413
00000000: a4cb 2a40 ac05 dd3f ac05 dd3f b058 3840

S f4 [2, 2]
2.6681137 1.725338 1.725338 2.8782806
00000000: 60c2 2a40 e0d7 dc3f e0d7 dc3f c035 3840

S f4 [2, 2]
2.6686792 1.7267356 1.7267356 2.880413
00000000: a4cb 2a40 ac05 dd3f ac05 dd3f b058 3840

S f4 [2, 2]
2.6681137 1.725338 1.725338 2.8782806
00000000: 60c2 2a40 e0d7 dc3f e0d7 dc3f c035 3840

S f4 [2, 2]
2.6686792 1.7267356 1.7267356 2.880413
00000000: a4cb 2a40 ac05 dd3f ac05 dd3f b058 3840

S f4 [2, 2]
2.6681137 1.725338 1.725338 2.8782806
00000000: 60c2 2a40 e0d7 dc3f e0d7 dc3f c035 3840

S f4 [2, 2]
2.6686792 1.7267356 1.7267356 2.880413
00000000: a4cb 2a40 ac05 dd3f ac05 dd3f b058 3840

S f4 [2, 2]
2.6681137 1.725338 1.725338 2.8782806
00000000: 60c2 2a40 e0d7 dc3f e0d7 dc3f c035 3840

S f4 [2, 2]
2.6686792 1.7267356 1.7267356 2.880413
00000000: a4cb 2a40 ac05 dd3f ac05 dd3f b058 3840

S f4 [2, 2]
2.6681137 1.725338 1.725338 2.8782806
00000000: 60c2 2a40 e0d7 dc3f e0d7 dc3f c035 3840

S f4 [2, 2]
2.6686792 1.7267356 1.7267356 2.880413
00000000: a4cb 2a40 ac05 dd3f ac05 dd3f b058 3840

S f4 [2, 2]
2.6681137 1.725338 1.725338 2.8782806
00000000: 60c2 2a40 e0d7 dc3f e0d7 dc3f c035 3840

S f4 [2, 2]
2.6686792 1.7267356 1.7267356 2.880413
00000000: a4cb 2a40 ac05 dd3f ac05 dd3f b058 3840

S f4 [2, 2]
2.6681137 1.725338 1.725338 2.8782806
00000000: 60c2 2a40 e0d7 dc3f e0d7 dc3f c035 3840

S f4 [2, 2]
2.6686792 1.7267356 1.7267356 2.880413
00000000: a4cb 2a40 ac05 dd3f ac05 dd3f b058 3840

S f4 [2, 2]
2.6681137 1.725338 1.725338 2.8782806
00000000: 60c2 2a40 e0d7 dc3f e0d7 dc3f c035 3840

S f4 [2, 2]
2.6686792 1.7267356 1.7267356 2.880413
00000000: a4cb 2a40 ac05 dd3f ac05 dd3f b058 3840

S f4 [2, 2]
2.6681137 1.725338 1.725338 2.8782806
00000000: 60c2 2a40 e0d7 dc3f e0d7 dc3f c035 3840

S f4 [2, 2]
2.6686792 1.7267356 1.7267356 2.880413
00000000: a4cb 2a40 ac05 dd3f ac05 dd3f b058 3840

S f4 [2, 2]
2.6681137 1.725338 1.725338 2.8782806
00000000: 60c2 2a40 e0d7 dc3f e0d7 dc3f c035 3840

S f4 [2, 2]
2.6686792 1.7267356 1.7267356 2.880413
00000000: a4cb 2a40 ac05 dd3f ac05 dd3f b058 3840

S f4 [2, 2]
2.6681137 1.725338 1.725338 2.8782806
00000000: 60c2 2a40 e0d7 dc3f e0d7 dc3f c035 3840

S f4 [2, 2]
2.6686792 1.7267356 1.7267356 2.880413
00000000: a4cb 2a40 ac05 dd3f ac05 dd3f b058 3840

S f4 [2, 2]
2.6681137 1.725338 1.725338 2.8782806
00000000: 60c2 2a40 e0d7 dc3f e0d7 dc3f c035 3840

S f4 [2, 2]
2.6686792 1.7267356 1.7267356 2.880413
00000000: a4cb 2a40 ac05 dd3f ac05 dd3f b058 3840

S f4 [2, 2]
2.6681137 1.725338 1.725338 2.8782806
00000000: 60c2 2a40 e0d7 dc3f e0d7 dc3f c035 3840

S f4 [2, 2]
2.6686792 1.7267356 1.7267356 2.880413
00000000: a4cb 2a40 ac05 dd3f ac05 dd3f b058 3840

S f4 [2, 2]
2.6681137 1.725338 1.725338 2.8782806
00000000: 60c2 2a40 e0d7 dc3f e0d7 dc3f c035 3840

S f4 [2, 2]
2.6686792 1.7267356 1.7267356 2.880413
00000000: a4cb 2a40 ac05 dd3f ac05 dd3f b058 3840

S f4 [2, 2]
2.6681137 1.725338 1.725338 2.8782806
00000000: 60c2 2a40 e0d7 dc3f e0d7 dc3f c035 3840

S f4 [2, 2]
2.6686792 1.7267356 1.7267356 2.880413
00000000: a4cb 2a40 ac05 dd3f ac05 dd3f b058 3840

S f4 [2, 2]
2.6681137 1.725338 1.725338 2.8782806
00000000: 60c2 2a40 e0d7 dc3f e0d7 dc3f c035 3840

S f4 [2, 2]
2.6686792 1.7267356 1.7267356 2.880413
00000000: a4cb 2a40 ac05 dd3f ac05 dd3f b058 3840

S f4 [2, 2]
2.6681137 1.725338 1.725338 2.8782806
00000000: 60c2 2a40 e0d7 dc3f e0d7 dc3f c035 3840

S f4 [2, 2]
2.6686792 1.7267356 1.7267356 2.880413
00000000: a4cb 2a40 ac05 dd3f ac05 dd3f b058 3840

S f4 [2, 2]
2.6681137 1.725338 1.725338 2.8782806
00000000: 60c2 2a40 e0d7 dc3f e0d7 dc3f c035 3840

S f4 [2, 2]
2.6686792 1.7267356 1.7267356 2.880413
00000000: a4cb 2a40 ac05 dd3f ac05 dd3f b058 3840

S f4 [2, 2]
2.6681137 1.725338 1.725338 2.8782806
00000000: 60c2 2a40 e0d7 dc3f e0d7 dc3f c035 3840

S f4 [2, 2]
2.6686792 1.7267356 1.7267356 2.880413
00000000: a4cb 2a40 ac05 dd3f ac05 dd3f b058 3840

S f4 [2, 2]
2.6681137 1.725338 1.725338 2.8782806
00000000: 60c2 2a40 e0d7 dc3f e0d7 dc3f c035 3840

S f4 [2, 2]
2.6686792 1.7267356 1.7267356 2.880413
00000000: a4cb 2a40 ac05 dd3f ac05 dd3f b058 3840

S f4 [2, 2]
2.6681137 1.725338 1.725338 2.8782806
00000000: 60c2 2a40 e0d7 dc3f e0d7 dc3f c035 3840

S f4 [2, 2]
2.6686792 1.7267356 1.7267356 2.880413
00000000: a4cb 2a40 ac05 dd3f ac05 dd3f b058 3840

S f4 [2, 2]
2.6678572 1.7254701 1.7254701 2.8786392
00000000: 2cbe 2a40 34dc dc3f 34dc dc3f a03b 3840

S f4 [2, 2]
2.6654506 1.7234268 1.7234268 2.8778381
00000000: be96 2a40 4099 dc3f 4099 dc3f 802e 3840

S f4 [2, 2]
2.6507826 1.7078452 1.7078452 2.860798
00000000: 6ca6 2940 ac9a da3f ac9a da3f 5017 3740

S f4 [2, 2]
2.5437012 1.589042 1.589042 2.7288609
00000000: 00cc 2240 ba65 cb3f ba65 cb3f a8a5 2e40

S f4 [2, 2]
2.0 1.0 1.0 2.0908203
00000000: 0000 0040 0000 803f 0000 803f 00d0 0540

L_infinite f4 [1, 2]
0.5791709 1.545627
00000000: 8b44 143f 1bd7 c53f

weight_ih_l0 f4 [12, 10]
0.17809002 0.40698087 -0.18561529 -0.38044047 -0.05430181 -0.07977373 0.0006143672 -0.37411848
0.09065425 -0.1410119 -0.33038828 -0.44683215 0.14949994 0.27024433 0.11795301 0.47779375
-0.022063456 0.20435338 -2.5665258e-05 -0.21407202 -0.45353204 -0.33096725 0.03411649 0.39539433
0.26013276 0.11452859 0.428688 -0.250079 -0.12100353 0.31971523 0.21073362 0.489649
0.20383567 0.14670399 -0.0849347 0.002081659 -0.25438708 0.49601966 -0.12811184 0.100327194
-0.3270434 -0.25010407 0.2627178 0.063526325 -0.209821 0.4920757 0.10465463 0.31270677
0.41358387 0.27408627 0.094293036 0.011788861 -0.46422735 0.30254367 -0.07884287 -0.2897238
0.28791928 -0.09599269 -0.3953193 -0.34918547 0.31325534 -0.15188885 0.37859303 -0.21595772
-0.02204759 0.20068681 0.3253081 0.0585691 0.0073218127 -0.3480879 -0.19228977 -0.10348821
-0.4612911 0.35314357 0.18068506 0.12834686 0.069358654 -0.08608221 -0.10313944 -0.24393749
0.48087522 0.24623422 0.15967312 0.24644187 -0.004550888 -0.23096918 -0.24991995 0.070913605
0.2383446 -0.22550422 -0.050581597 0.07892849 -0.060789153 -0.46771562 -0.041023318 0.49762133
0.1716132 0.13207915 -0.10083088 0.075013265 -0.42172223 -0.10192031 0.16598745 0.12922497
-0.058291998 -0.45531833 0.5029506 -0.061916944 -0.42826542 0.045818463 0.4295854 -0.28579357
-0.30980662 0.08403619 0.25589895 -0.44604963 0.3936366 0.09628348 0.11756343 0.015302173
00000000: 3b5d 363e cc5f d03e ef11 3ebe 18c9 c2be
00000010: 936b 5ebd 6960 a3bd 7c0d 213a 758c bfbe
00000020: efa8 b93d 6c65 10be a728 a9be 2fc7 e4be
00000030: 8316 193e 775d 8a3e 5991 f13d 62a1 f43e
00000040: 6cbe b4bc 0342 513e b94b d7b7 b235 5bbe
00000050: 5a35 e8be 8a74 a9be bcbd 0b3d 2071 ca3e
00000060: 1f30 853e f78d ea3d fe7c db3e 5b0a 80be
00000070: b3d0 f7bd b7b1 a33e 8eca 573e 46b3 fa3e
00000080: 4cba 503e 9239 163e 3ef2 adbd 716c 083b
00000090: 063f 82be 4af6 fd3e c02f 03be 5878 cd3d
000000a0: 3c72 a7be a40d 80be f382 863e 171a 823d
000000b0: 51db 56be 59f1 fb3e 2b55 d63d 1a1b a03e
000000c0: 44c1 d33e 0955 8c3e b51c c13d 1126 413c
000000d0: 35af edbe 01e7 9a3e 5f78 a1bd ae56 94be
000000e0: 286a 933e d197 c4bd 4b67 cabe 70c8 b2be
000000f0: 0163 a03e c088 1bbe f2d6 c13e 0524 5dbe
00000100: 269d b4bc d880 4d3e c98e a63e 27e6 6f3d
00000110: d1eb ef3b 9438 b2be 9ce7 44be a0f1 d3bd
00000120: 592e ecbe 3ccf b43e 8105 393e 5c6d 033e
00000130: e90b 8e3d df4b b0bd c53a d3bd c0ca 79be
00000140: 4735 f63e d324 7c3e 5a81 233e 425b 7c3e
00000150: 9e1f 95bb 2f83 6cbe 04eb 7fbe 273b 913d
00000160: 9b10 743e 94ea 66be a62e 4fbd 43a5 a13d
00000170: 0cfe 78bd 6c78 efbe 1108 28bd 39c8 fe3e
00000180: 5fbb 2f3e c23f 073e 6c80 cebd 8ea0 993d
00000190: faeb d7be 98bb d0bd 9df8 293e 8d53 043e
000001a0: 97c3 6ebd 7c1f e9be 5fc1 003f 9f9c 7dbd
000001b0: 9b45 dbbe 24ac 3b3d 9ef2 db3e 8953 92be
000001c0: f99e 9ebe 2a1b ac3d 3005 833e 9e60 e4be
000001d0: bd8a c93e 4630 c53d 18c5 f03d f7b5 7a3c

weight_hh_l0 f4 [12, 4]
0.44169164 -0.15008411 0.32002914 0.24808495 0.45449826 0.24521668 0.43630594 0.13212588
0.06981366 -0.32933033 -0.032189902 0.3911447 -0.45831057 -0.18527487 -0.23918682 -0.14126486
-0.10504709 -0.26245415 -0.12993816 -0.22667351 0.1736213 -0.34243968 -0.094920315 -0.35376188
-0.43635166 -0.042606607 0.24154542 -0.22770402 -0.114192076 -0.20724344 -0.45389834 -0.38458335
-0.48655927 0.26259062 0.1251355 -0.36414284 -0.42892188 0.49137244 0.23095734 -0.26170623
0.41132614 -0.32100353 -0.16345929 0.1717066 -0.17213388 -0.3160822 -0.20306124 -0.04253507
00000000: 6825 e23e a6af 19be dcda a33e fb09 7e3e
00000010: ffb3 e83e 151a 7b3e 7e63 df3e 024c 073e
00000020: 77fa 8e3d fc9d a8be 8fd9 03bd 1e44 c83e
00000030: afa7 eabe b2b8 3dbe 64ed 74be bca7 10be
00000040: ee22 d7bd 6460 86be 820e 05be 1a1d 68be
00000050: c8c9 313e 4154 afbe 9565 c2bd 4720 b5be
00000060: 7c69 dfbe 4484 2ebd af57 773e 3e2b 69be
00000070: 89dd e9bd a037 54be 5d65 e8be 1ce8 c4be
00000080: 4c1e f9be 4772 863e 8523 003e ee70 babe
00000090: a69b dbbe 2b95 fb3e 1580 6c3e 5cfe 85be
000000a0: 5799 d23e 935a a4be df61 27be dbd3 2f3e
000000b0: dd43 30be 87d5 a1be 49ef 4fbe 4139 2ebd

bias_ih_l0 f4 [12]
-0.11268193 -0.28051263 0.13235521 0.2931071 0.16619119 -0.2284347 -0.0043379115 -0.03660205
-0.021184845 -0.2973032 -0.22048235 0.4508502
00000000: c9c5 e6bd 5a9f 8fbe 2088 073e 2212 963e
00000010: 062e 2a3e c9ea 69be 0a25 8ebb 08ec 15bd
00000020: d78b adbc 2038 98be 20c6 61be d6d5 e63e

bias_hh_l0 f4 [12]
-0.403735 -0.010230559 0.0996607 0.36239937 0.018410202 0.05172184 0.053327758 -0.2696059
0.41698727 -0.12503687 0.42286468 0.2743886
00000000: 5bb6 cebe 139e 27bc e91a cc3d 698c b93e
00000010: fed0 963c 48da 533d 356e 5a3d c909 8abe
00000020: 5b7f d53e aa09 00be b881 d83e aa7c 8c3e

weight_ih_l0 f4 [12, 14]
-0.07092986 0.06465246 0.38116175 -0.38152406 0.3371213 0.3476485 0.3545408 0.38001058
0.3421733 0.4398645 0.24368177 -0.14891595 -0.09701981 -0.025973115 0.31552365 -0.2455929
0.22034967 -0.44729516 -0.07316526 -0.460016 -0.07308612 0.2678183 -0.4089534 -0.12625355
-0.16342767 -0.34006938 -0.31040546 0.36163348 0.27185032 0.07505831 0.27805504 -0.25728065
-0.0364497 -0.0015275999 0.44673413 -0.22668244 -0.25850382 -0.021531723 -0.18107063 0.024710607
0.37993753 0.2757818 0.06881069 -0.4763556 -0.43046165 -0.13958262 0.3820809 0.22418848
0.23308772 0.21620865 0.50556225 0.47930577 -0.34109294 -0.04834631 0.25833917 0.08375553
-0.29829642 -0.3391865 0.32493812 -0.20448168 0.40342867 -0.049163055 -0.40693998 -0.3927082
-0.23405215 -0.37866443 -0.24166384 -0.004774813 0.48967466 -0.063432574 -0.4579418 -0.49244753
0.017550487 -0.46303752 0.33898982 -0.4591004 -0.3718535 -0.20297258 -0.5011836 0.42963424
-0.30414674 -0.4332422 -0.31401962 0.37391275 -0.06473409 0.45441377 -0.025248567 -0.24991103
0.17370138 0.4112933 0.3423526 -0.45533332 -0.34580714 -0.36757433 0.35221872 0.1100068
-0.15687872 0.18558949 0.27458552 -0.15022354 -0.1893726 -0.4710424 -0.12916519 -0.3249262
0.3996922 -0.31193605 0.205586 -0.069800176 -0.25771534 -0.36640772 -0.23434323 0.33453253
-0.37205404 0.49939623 -0.13397153 -0.179743 -0.44197926 -0.16542095 0.22583872 -0.16662793
-0.24493481 0.07594608 0.36692002 -0.20185015 0.4385296 0.012889761 0.30608386 0.19053435
-0.15745553 -0.21648757 0.1894254 0.38594177 0.37641045 0.5068165 0.3962593 -0.038554963
-0.3703604 -0.1100513 -0.3678025 0.47772774 -0.10135609 -0.17424428 0.018111793 0.34341016
0.14627047 0.38094988 -0.29178917 0.41682127 0.038577102 0.15912704 -0.32229307 -0.054217484
0.014404929 -0.11936067 0.28484946 -0.45636314 -0.43713436 -0.40737066 -0.3930139 -0.32375035
-0.33013862 0.22266006 -0.2369102 -0.15260857 -0.06703061 0.36963952 -0.45329434 -0.24864613
00000000: ad43 91bd 8268 843d a227 c33e 1f57 c3be
00000010: 2a9b ac3e fcfe b13e 5f86 b53e bf90 c23e
00000020: 5731 af3e eb35 e13e b787 793e 6c7d 18be
00000030: 52b2 c6bd 92c5 d4bc 518c a13e b57c 7bbe
00000040: 58a3 613e df03 e5be abd7 95bd 3887 ebbe
00000050: 2dae 95bd 7b1f 893e 5762 d1be 9c48 01be
00000060: 9559 27be 931d aebe 77ed 9ebe 0628 b93e
00000070: f72f 8b3e 2cb8 993d 3b5d 8e3e 4aba 83be
00000080: 484c 15bd bf39 c8ba 56ba e43e 711f 68be
00000090: 9d5a 84be 4c63 b0bc 946a 39be e66d ca3c
000000a0: 2c87 c23e 4633 8d3e 9eec 8c3d e2e4 f3be
000000b0: 7865 dcbe bfee 0ebe 1ca0 c33e aa91 653e
000000c0: 8cae 6e3e cd65 5d3e 876c 013f 9167 f53e
000000d0: bca3 aebe c806 46bd 0845 843e 0588 ab3d
000000e0: 4fba 98be daa9 adbe 4a5e a63e a563 51be
000000f0: 348e ce3e 335f 49bd 705a d0be 0d11 c9be
00000100: 5eab 6fbe 4ee0 c1be ba76 77be 0976 9cbb
00000110: a3b6 fa3e f0e8 81bd 5977 eabe 1522 fcbe
00000120: 0ac6 8f3c 4113 edbe 1390 ad3e 350f ebbe
00000130: 9563 bebe 0bd8 4fbe 924d 00bf 05f9 db3e
00000140: 1fb9 9bbe ecd1 ddbe 2ec7 a0be 7e71 bf3e
00000150: 4e93 84bd eca8 e83e 15d6 cebc ade8 7fbe
00000160: c6de 313e 0995 d23e d748 af3e 7321 e9be
00000170: a20d b1be b432 bcbe 0356 b43e 3f4b e13d
00000180: d1a4 20be 2c0b 3e3e 7996 8c3e 33d4 19be
00000190: e4ea 41be 782c f1be e143 04be ba5c a6be
000001a0: 75a4 cc3e 15b6 9fbe 2385 523e 65f3 8ebd
000001b0: 44f3 83be cb99 bbbe acf7 6fbe d947 ab3e
000001c0: de7d bebe ddb0 ff3e d52f 09be 8d0e 38be
000001d0: 1b4b e2be 1c64 29be 4442 673e 83a0 2abe
000001e0: 31d0 7abe 9e89 9b3d f1dc bb3e ceb1 4ebe
000001f0: f486 e03e 932f 533c 06b7 9c3e 701b 433e
00000200: 063c 21be ebae 5dbe bbf8 413e 299a c53e
00000210: dfb8 c03e babe 013f 80e2 ca3e cfeb 1dbd
00000220: e19f bdbe 9362 e1bd 9c50 bcbe bb98 f43e
00000230: c893 cfbd 186d 32be 2f5f 943c 75d3 af3e
00000240: edc7 153e dd0b c33e 6465 95be 9969 d53e
00000250: 0603 1e3d 33f2 223e 9903 a5be 2713 5ebd
00000260: a702 6c3c 5e73 f4bd cad7 913e 6ea8 e9be
00000270: 13d0 dfbe e392 d0be 1e39 c9be 9bc2 a5be
00000280: ee07 a9be 0001 643e 9698 72be 6c45 1cbe
00000290: 5847 89bd 6441 bd3e 3216 e8be 179d 7ebe

weight_hh_l0 f4 [12, 4]
-0.16604112 0.22586852 0.44684407 -0.3858774 -0.015121813 -0.21538548 0.1805975 0.18552391
0.15185785 0.09164189 -0.40513518 0.073633134 0.41757163 -0.079726025 0.2157427 0.12252451
-0.09624868 -0.35267097 0.3897438 0.40136504 0.35484558 -0.44561678 -0.39828116 -0.2951312
-0.42000127 -0.47254178 0.015036132 0.25027943 -0.48438448 0.10567875 -0.25934 -0.11852801
0.22320917 -0.38457957 0.26416484 0.052624915 0.35418713 -0.24817125 -0.007821189 -0.07228388
-0.059128206 0.14765796 -0.32978177 -0.42973545 0.17471878 0.2576947 -0.07928009 -0.026005834
00000000: af06 2abe 144a 673e bfc8 e43e b991 c5be
00000010: 7bc1 77bc 038e 5cbe 8dee 383e fbf9 3d3e
00000020: a080 1b3e beae bb3d e16d cfbe f8cc 963d
00000030: f3cb d53e 6647 a3bd a8eb 5c3e 21ee fa3d
00000040: 071e c5bd 4a91 b4be 808c c73e b87f cd3e
00000050: 52ae b53e e227 e4be 82eb cbbe 701b 97be
00000060: 680a d7be fff0 f1be 1c5a 763c a024 803e
00000070: 3e01 f8be 1a6e d83d 36c8 84be d0be f2bd
00000080: f290 643e 9de7 c4be 9d40 873e 398d 573d
00000090: 0458 b53e 9b20 7ebe 7224 00bc 9209 94bd
000000a0: 6b30 72bd a633 173e 28d9 a8be 4906 dcbe
000000b0: 7be9 323e 8ff0 833e 9a5d a2bd 300a d5bc

bias_ih_l0 f4 [12]
0.021054821 -0.19451854 -0.12613636 0.22088435 -0.049047597 0.0810888 0.1947737 -0.07352859
-0.33265653 0.49568164 -0.1650671 -0.20508637
00000000: 297b ac3c de2f 47be e429 01be 822f 623e
00000010: 22e6 48bd e311 a63d c272 473e 2896 96bd
00000020: f551 aabe fcc9 fd3e 5a07 29be 2902 52be

bias_hh_l0 f4 [12]
-0.12625119 -0.21056625 -0.2600418 -0.36173448 0.08005634 0.019680392 0.035102613 0.038610134
-0.21423176 -0.4178932 -0.14895742 -0.40745986
00000000: fe47 01be ae9e 57be 3324 85be 4335 b9be
00000010: 94f4 a33d c638 a13c c2c7 0f3d a925 1e3d
00000020: 925f 5bbe 19f6 d5be 4b88 18be 949e d0be

weight_ih_l0 f4 [12, 24]
-0.34000152 0.45092115 0.19038384 0.27520218 0.15328075 -0.2986575 0.08991983 -0.2954799
-0.16361463 0.46065852 0.19290778 -0.35513857 0.13489862 -0.15120536 -0.34096327 0.19589342
0.022057919 0.43703115 -0.052923646 -0.3934129 0.27860534 -0.24580325 -0.2167482 0.24367999
0.18312857 0.07751042 -0.2167775 -0.00036795513 0.18522468 -0.39725026 -0.10303492 0.38093638
0.19554138 -0.22880378 -0.22748473 0.4882713 -0.32682663 -0.24144483 -0.45739707 -0.32673115
0.37262818 0.23895095 0.39824545 -0.08346394 0.43019116 -0.036275487 0.29369897 0.26917773
0.36866936 -0.10922996 0.18314952 -0.10832376 0.3444987 -0.16369006 0.0404305 0.122913025
-0.36652556 0.21944474 0.14412849 -0.3252868 0.086986475 -0.19296455 0.15852845 0.09233384
0.08350048 -0.21413694 -0.30745012 -0.21319611 0.10658943 -0.27084407 0.47303104 0.22795503
0.2945735 0.06602026 0.24173348 0.23803954 0.19805731 -0.22626066 -0.2845254 -0.0775553
-0.14112762 -0.13711977 0.0719766 -0.038876336 0.44462827 -0.1345371 0.056847796 0.47974163
0.015863 0.050842285 0.33938405 -0.001899904 -0.33181527 -7.307342e-05 -0.49281117 -0.42484176
0.19084035 -0.37854746 -0.4809711 0.418481 0.3057045 0.18777445 -0.2601419 0.42682078
-0.13532268 0.3362314 -0.41763186 -0.08778832 -0.40500674 0.39500725 -0.35177213 0.30279365
-0.43274605 -0.20495002 0.10224274 -0.25621384 -0.41475952 0.1581111 -0.13077185 0.13671216
-0.35478947 0.17936353 -0.15021022 -0.12753902 0.28137413 -0.13520654 0.5090968 -0.1507668
-0.453267 0.14997748 -0.48229104 -0.021696301 -0.3906816 -0.12530963 -0.14142162 0.31952775
-0.032561537 -0.46925762 0.18413818 0.35671237 0.4656888 -0.2736022 0.41902953 -0.009351183
-0.41653514 -0.50817204 -0.4215806 -0.2712416 -0.2884188 -0.22672097 -0.041546028 0.015907347
0.4766216 0.07201317 -0.1397934 0.28481507 0.11686875 -0.2505556 0.3367006 -0.1295814
-0.4420054 0.37179655 -0.06522237 0.31242853 0.082000226 0.29022884 0.2587054 -0.25439185
0.36919963 0.34277216 0.02155089 -0.13075985 -0.20772389 -0.34837255 -0.3381242 0.3015988
-0.4283125 -0.3149028 0.03337125 0.40631565 -0.15237477 0.044099748 0.26980782 -0.10639445
-0.01868549 0.044233337 0.27539772 -0.3062379 0.14328776 -0.10434633 0.37709227 0.3818857
-0.22629502 0.023641227 -0.36743292 -0.39771718 0.35425597 -0.425403 0.3880066 -0.36360943
0.4672031 -0.031249283 -0.30502254 0.06845915 -0.1710161 0.39500466 -0.30395156 0.12261945
0.2031071 0.043607347 0.21427241 -0.4834005 -0.09314779 0.3146663 -0.48574734 -0.30451676
0.4973865 0.021850707 0.47946543 0.3471008 -0.36134598 0.019279666 -0.3736264 -0.19867618
-0.2986046 -0.29189593 0.080601506 0.24384831 -0.4032119 0.3328659 0.43600434 -0.06920779
-0.28928873 0.16837665 0.20079413 -0.002110332 -0.41207197 0.36569607 -0.36570713 0.17898569
-0.100133926 -0.32781377 -0.038490426 0.448669 -0.34784046 0.014226125 0.36375377 -0.39426744
0.47166952 -0.39844522 -0.3434122 0.13049005 -0.34495643 0.47588685 -0.45377624 0.20998237
00000000: ae14 aebe 23df e63e fbf3 423e 4de7 8c3e
00000010: a1f5 1c3e a3e9 98be e327 b83d 2449 97be
00000020: 988a 27be 6fdb eb3e 9e89 453e b9d4 b5be
00000030: dd22 0a3e 94d5 1abe bd92 aebe 4998 483e
00000040: cfb2 b43c 8cc2 df3e 77c6 58bd 6a6d c9be
00000050: 5ca5 8e3e d9b3 7bbe 3df3 5dbe 3f87 793e
00000060: 0e86 3b3e c8bd 9e3d ecfa 5dbe 1aea c0b9
00000070: 8aab 3d3e 6364 cbbe f903 d3bd 180a c33e
00000080: 003c 483e 8a4b 6abe c2f1 68be b2fe f93e
00000090: d255 a7be 503d 77be f32f eabe 4e49 a7be
000000a0: 1fc9 be3e 8faf 743e d4e6 cb3e 24ef aabd
000000b0: 0442 dc3e 9b95 14bd b65f 963e aad1 893e
000000c0: 3bc2 bc3e f5b3 dfbd 8c8b 3b3e d9d8 ddbd
000000d0: 2262 b03e 5e9e 27be 749a 253d d3b9 fb3d
000000e0: 3da9 bbbe 1fb6 603e 6b96 133e fe8b a6be
000000f0: f725 b23d 8098 45be 4855 223e 8619 bd3d
00000100: 4d02 ab3d b746 5bbe 1a6a 9dbe 1550 5abe
00000110: 8f4b da3d 13ac 8abe 2031 f23e 0b6d 693e
00000120: 56d2 963e a135 873d fb88 773e a3c0 733e
00000130: 89cf 4a3e e0b0 67be 50ad 91be 50d5 9ebd
00000140: c283 10be 2069 0cbe 7868 933d cb3c 1fbd
00000150: 51a6 e33e 18c4 09be 3cd9 683d b2a0 f53e
00000160: 1ff3 813c 0040 503d bfc3 ad3e 3306 f9ba
00000170: b1e3 a9be fe3e 99b8 bf51 fcbe dc84 d9be
00000180: a76b 433e f9d0 c1be d841 f6be 2443 d63e
00000190: 4d85 9c3e f247 403e 5231 85be 4188 da3e
000001a0: 0792 0abe 8626 ac3e d8d3 d5be 5dca b3bd
000001b0: 0b5d cfbe 643e ca3e 7a1b b4be c507 9b3e
000001c0: e490 ddbe 6bde 51be a464 d13d 762e 83be
000001d0: 5c5b d4be e0e7 213e 0ee9 05be 46fe 0b3e
000001e0: f7a6 b5be 13ab 373e b5d0 19be 9799 02be
000001f0: 4510 903e 9573 0abe 2b54 023f 9d62 1abe
00000200: 9d12 e8be b293 193e daee f6be 71bc b1bc
00000210: 6b07 c8be 2b51 00be d4d0 10be 2499 a33e
00000220: 3f5f 05bd 8942 f0be b88e 3c3e 01a3 b63e
00000230: c36e ee3e 9615 8cbe 0a8b d63e b435 19bc
00000240: 1844 d5be 9017 02bf 6ad9 d7be 2ee0 8abe
00000250: a1ab 93be 8b29 68be 2b2c 2abd 2050 823c
00000260: bf07 f43e a47b 933d 0026 0fbe 48d3 913e
00000270: e258 ef3d d348 80be 0564 ac3e fdb0 04be
00000280: 884e e2be 1e5c be3e 4e93 85bd a2f6 9f3e
00000290: bcef a73d e098 943e 0975 843e a63f 82be
000002a0: bc07 bd3e d57f af3e 7e8b b03c e9e5 05be
000002b0: 92b5 54be e35d b2be 9d1e adbe 286b 9a3e
000002c0: c74b dbbe f13a a1be 4bb0 083d 9b08 d03e
000002d0: 2208 1cbe f0a1 343d 4024 8a3e 55e5 d9bd
000002e0: 5012 99bc 042e 353d ee00 8d3e 37cb 9cbe
000002f0: 07ba 123e 87b3 d5bd 3d12 c13e 8686 c33e
00000300: e2b9 67be 3fab c13c 2b20 bcbe 96a1 cbbe
00000310: 0a61 b53e 6cce d9be cda8 c63e 042b babe
00000320: 3f35 ef3e 7ffe ffbc ea2b 9cbe 5034 8c3d
00000330: d81e 2fbe 0d3e ca3e 8a9f 9bbe e81f fb3d
00000340: 4ffb 4f3e 9e9d 323d 3a6a 5b3e 4580 f7be
00000350: 45c4 bebd f11b a13e e0b3 f8be 9fe9 9bbe
00000360: 71a9 fe3e 4100 b33c 7e7c f53e 32b7 b13e
00000370: 5702 b9be 64f0 9d3c f64b bfbe c571 4bbe
00000380: b4e2 98be 6273 95be 6712 a53d 5fb3 793e
00000390: ca71 cebe 666d aa3e f63b df3e d0bc 8dbd
000003a0: a71d 94be ee6a 2c3e fa9c 4d3e 7f4d 0abb
000003b0: 19fb d2be 843c bb3e f73d bbbe 0648 373e
000003c0: 0413 cdbd 35d7 a7be 23a8 1dbd f1b7 e53e
000003d0: 2518 b2be b114 693c ef3d ba3e 6cdd c9be
000003e0: ab7e f13e 0301 ccbe b9d3 afbe 2f9f 053e
000003f0: 219e b0be 71a7 f33e 5c55 e8be 9e05 573e

weight_hh_l0 f4 [12, 4]
-0.08094 -0.3904238 0.37917465 -0.033170942 0.17666341 0.24963403 0.11688102 0.50561947
0.028521696 0.17272778 -0.23570786 0.25533715 0.34601334 0.09947247 0.0951456 0.27613178
0.1612643 0.14077964 0.3859368 -0.038978297 -0.057849444 -0.08019738 -0.49103203 -0.27567458
-0.14416061 -0.12159838 -0.3347919 0.33376917 0.04927563 0.41707957 -0.3035781 -0.41904745
0.3885449 -0.15849712 0.09898909 -0.026009932 -0.35326487 0.4511901 0.31643283 0.24202405
0.11450357 -0.23268951 0.41873 0.21237971 -0.47171578 -0.14641505 0.45015398 -0.19589357
00000000: dfc3 a5bd a1e5 c7be 2e23 c23e 41de 07bd
00000010: 41e7 343e 10a0 7f3e 515f ef3d 4770 013f
00000020: 55a6 e93c 8ddf 303e 675d 71be 8dbb 823e
00000030: a928 b13e 39b8 cb3d b2db c23d 2561 8d3e
00000040: 7822 253e 8a28 103e 8299 c53e b5a7 1fbd
00000050: 8af3 6cbd 863e a4bd 8d68 fbbe 3825 8dbe
00000060: d79e 13be 9208 f9bd d869 abbe cbe3 aa3e
00000070: 3ed5 493d 748b d53e 976e 9bbe 638d d6be
00000080: 5bef c63e 124d 22be cbba ca3d c812 d5bc
00000090: 22df b4be 6402 e73e 7c03 a23e 27d5 773e
000000a0: d980 ea3d 2946 6ebe c763 d63e 117a 593e
000000b0: bb84 f1be d4ed 15be 957a e63e 5398 48be

bias_ih_l0 f4 [12]
0.14684948 -0.027029816 -0.05282291 -0.37983435 0.042106543 0.42917067 -0.27715138 0.11966211
-0.06867203 -0.09327554 0.24865054 -0.48282152
00000000: b65f 163e a26d ddbc d65c 58bd a679 c2be
00000010: e977 2c3d 42bc db3e c9e6 8dbe 6911 f53d
00000020: eca3 8cbd 3f07 bfbd 3f9e 7e3e 6234 f7be

bias_hh_l0 f4 [12]
-0.4602777 0.436662 0.0047254325 -0.19880944 -0.23665494 0.5104506 -0.078466825 -0.41507292
0.038166717 0.31217766 0.12405829 0.26477256
00000000: 85a9 ebbe 2992 df3e cdd7 9a3b b494 4bbe
00000010: ac55 72be e4ac 023f 37b3 a0bd 7084 d4be
00000020: b454 1c3d c0d5 9f3e 4612 fe3d 4590 873e

weight f4 [4, 4]
-0.17039326 0.1820331 0.24596214 -0.30488673 -0.090649046 -0.26174676 -0.45913112 -0.12964983
0.07815242 0.080002576 -0.33941513 0.23163073 0.19170931 -0.4072281 0.34734094 0.15598221
00000000: 927b 2ebe e366 3a3e 80dd 7b3e 1d1a 9cbe
00000010: 35a6 b9bd ac03 86be 3c13 ebbe edc2 04be
00000020: 600e a03d 64d8 a33d d2c7 adbe 9b30 6d3e
00000030: 724f 443e 3480 d0be acd6 b13e cdb9 1f3e

bias f4 [4]
0.13559324 0.38090527 -0.019748997 -0.3953645
00000000: f4d8 0a3e 0406 c33e a6c8 a1bc 376d cabe

weight f4 [320, 8]
0.15748864 -0.07552146 -0.082695335 0.289627 0.27833712 0.13517404 -0.2353266 -0.34309572
0.23975956 -0.080366455 0.019587334 -0.097847596 -0.16011328 0.29548398 0.30437347 0.047627524
-0.06531616 0.1629719 0.2721914 -0.3362853 0.29420963 -0.2767725 -0.05173739 0.27322888
-0.12275687 0.079058655 -0.27816573 -0.013799785 -0.056635838 0.23888247 -0.28796968 -0.2681557
-0.3627586 0.09422594 0.25237304 -0.1630091 -0.14833343 0.30430418 -0.020252248 0.06231669
-0.24882157 0.086491086 0.3438345 0.3314965 0.20573246 -0.18371464 0.2525482 0.2029714
-0.23635526 0.2756458 -0.0003676434 0.017888308 -0.19050287 0.04355387 0.2926586 0.1358184
0.17229572 0.019628597 -0.23112765 0.2514751 0.14244416 0.11427201 0.2856018 0.1595569
0.25932172 0.03692167 -0.07587339 -0.0435509 -0.22137102 -0.13351241 -0.34636733 0.28278324
0.26555514 0.22687687 -0.14376086 -0.2717514 0.31495005 -0.115846016 -0.055641185 0.29600394
0.29808137 -0.22204624 0.16937569 0.0003671618 -0.22405927 -0.08229319 -0.12197198 0.19266376
-0.32104158 0.19282408 -0.2052722 -0.12402337 0.24297008 -0.2541455 0.24184781 -0.2650344
0.1241029 -0.26083165 0.29240122 -0.1481685 -0.16636488 -0.0979266 -0.21799335 -0.22782533
-0.11954229 0.1648316 0.10808468 0.30474633 -0.27373636 -0.31274527 0.11199155 0.31501743
0.022955835 0.18032429 -0.22163495 0.071462266 -0.16794893 0.09517588 0.23776267 0.02019237
0.010668325 -0.26279026 -0.107063316 0.049394682 -0.24374181 -0.0017058228 -0.29556078 -0.028290832
0.009533361 0.16757695 -0.22156124 -0.3016631 0.030546732 -0.29879808 -0.14571477 0.15921278
0.097858645 -0.26356128 1.7293325e-05 0.016510636 -0.13780895 0.14008647 -0.00084891054 -0.04281008
0.19367255 -0.0029065283 -0.19706307 -0.20506461 0.25378147 0.13986048 0.31741562 -0.24611606
0.2285984 -0.008929144 0.2015571 0.13335522 -0.11615538 -0.035607282 -0.23951101 0.2495993
-0.25559133 -0.31587037 -0.0011408585 -0.1828701 -0.024268068 -0.3009257 -0.027647778 0.14726633
-0.0551979 -0.07491234 0.074828975 -0.00055866904 -0.13366573 0.15324758 -0.14762083 0.060068555
0.019191189 -0.25923046 0.16984457 -0.06812905 0.15034924 -0.36211476 0.3246223 -0.35549968
-0.07320031 0.086243 -0.13962796 0.06232652 0.08560155 -0.0074877325 0.20852661 -0.075678214
0.27098233 0.09332436 -0.28985417 0.09998074 0.35577667 -0.0955803 0.025960611 -0.19980945
-0.026407214 -0.33232498 0.14608766 -0.227282 0.18360114 0.0044912975 0.31024587 -0.2293448
0.19686182 -0.032479692 -0.015040631 -0.19985522 0.17896606 0.14483733 0.24170835 0.23176941
-0.24677907 -0.28385037 0.064548306 0.27103993 0.21833882 -0.021043962 0.06700844 -0.1892663
0.044883434 0.2606223 -0.32291964 0.34661016 -0.225134 -0.14434326 0.146943 0.05503611
-0.16629438 0.17918926 -0.07415885 -0.24513349 -0.2693828 0.1443178 0.13861741 0.14083144
0.29559413 -0.18921563 2.9876776e-06 0.27994558 -0.1140745 0.1097738 -0.024521483 -0.0003668864
0.07240782 -0.19721843 0.2462135 0.00014146695 -0.27837142 0.1805991 -0.09837239 0.23014018
00000000: b444 213e ffaa 9abd 2c5c a9bd fd49 943e
00000010: 3482 8e3e 106b 0a3e 75f9 70be 3eaa afbe
00000020: 8883 753e 2b97 a4bd 9e75 a03c 5264 c8bd
00000030: bcf4 23be ad49 973e d7d6 9b3e 1415 433d
00000040: 7bc4 85bd 1be2 263e ac5c 8b3e 962d acbe
00000050: a5a2 963e 20b5 8dbe 96ea 53bd a8e4 8b3e
00000060: f467 fbbd 81e9 a13d bd6b 8ebe 7e18 62bc
00000070: fbfa 67bd 9b9d 743e c370 93be b44b 89be
00000080: 7fbb b9be 88f9 c03d 0a37 813e dceb 26be
00000090: b8e4 17be c2cd 9b3e 0be8 a5bc c93f 7f3d
000000a0: 15cb 7ebe 3d22 b13d 130b b03e e9b9 a93e
000000b0: 88ab 523e b11f 3cbe ff4d 813e bcd7 4f3e
000000c0: 1d07 72be 7221 8d3e 43c0 c0b9 808a 923c
000000d0: 2f13 43be 8b65 323d 59d7 953e fb13 0b3e
000000e0: 4a6e 303e 27cc a03c baac 6cbe 58c1 803e
000000f0: e2dc 113e 7207 ea3d 663a 923e e262 233e
00000100: d1c5 843e 2d3b 173d 8263 9bbd 6e62 32bd
00000110: 16af 62be 7ab7 08be 0f57 b1be f7c8 903e
00000120: d8f6 873e 6952 683e 0c36 13be 0023 8bbe
00000130: 2241 a13e ad40 edbd 03e8 63bd d48d 973e
00000140: 1f9e 983e 1760 63be d270 2d3e 9f7f c039
00000150: cb6f 65be 5589 a8bd 72cc f9bd a649 453e
00000160: 905f a4be ad73 453e e032 52be f7ff fdbd
00000170: 26cd 783e 5c1f 82be f4a6 773e 97b2 87be
00000180: a929 fe3d ba8b 85be 9db5 953e 7cb9 17be
00000190: 8e5b 2abe be8d c8bd a639 5fbe 0b4b 69be
000001a0: 97d2 f4bd 9dc9 283e 805b dd3d b607 9c3e
000001b0: 2c27 8cbe 2620 a0be d35b e53d f749 a13e
000001c0: e00d bc3c eea6 383e 46f4 62be cf5a 923d
000001d0: cefa 2bbe 92eb c23d 0f78 733e 786a a53c
000001e0: 33ca 2e3c 728c 86be 0344 dbbd 1452 4a3d
000001f0: 7497 79be ea95 dfba be53 97be 2dc2 e7bc
00000200: d031 1c3c 4b99 2b3e f3e0 62be 9673 9abe
00000210: 243d fa3c 10fc 98be 4136 15be ad08 233e
00000220: 1d6a c83d 81f1 86be 2211 9137 5041 873c
00000230: ca1d 0dbe d472 0f3e 6c89 5eba 9f59 2fbd
00000240: 1952 463e 747b 3ebb e7ca 49be 75fc 51be
00000250: a5ef 813e 9637 0f3e 4d84 a23e d905 7cbe
00000260: b315 6a3e 8b4b 12bc fc64 4e3e 458e 083e
00000270: dfe2 edbd f1d8 11bd 6042 75be f596 7f3e
00000280: dedc 82be c3b9 a1be dc88 95ba 4d42 3bbe
00000290: d4cd c6bc ef12 9abe 987d e2bc fccc 163e
000002a0: 3117 62bd a46b 99bd ef3f 993d a573 12ba
000002b0: abdf 08be efec 1c3e ea29 17be 720a 763d
000002c0: d736 9d3c dbb9 84be bceb 2d3e 3e87 8bbd
000002d0: 27f5 193e 1b67 b9be e534 a63e 0e04 b6be
000002e0: 0bea 95bd 2ca0 b03d a2fa 0ebe 184a 7f3d
000002f0: de4f af3d a75b f5bb 0088 553e 2efd 9abd
00000300: 32be 8a3e d820 bf3d c467 94be b4c2 cc3d
00000310: 5c28 b63e 9bbf c3bd 59ab d43c d99a 4cbe
00000320: f153 d8bc 8026 aabe 0198 153e 9dbc 68be
00000330: f001 3c3e bc2b 933b 8cd8 9e3e 5dd9 6abe
00000340: 2596 493e 6d09 05bd fb6c 76bc d9a6 4cbe
00000350: e142 373e 3d50 143e 6582 773e f654 6d3e
00000360: a7b3 7cbe d654 91be e731 843d bfc5 8a3e
00000370: 3694 5f3e 6364 acbc b93b 893d 06cf 41be
00000380: b1d7 373d 4970 853e b955 a5be e376 b13e
00000390: 8789 66be b8ce 13be 3a78 163e 8b6d 613d
000003a0: 1349 2abe 647d 373e 98e0 97bd 4604 7bbe
000003b0: 8bec 89be 0cc8 133e b9f1 0d3e 1e36 103e
000003c0: 1d58 973e bec1 41be e97f 4836 0755 8f3e
000003d0: e49f e9bd 16d1 e03d 47e1 c8bc a95a c0b9
000003e0: 8d4a 943d a1f3 49be 641f 7c3e bf56 1439
000003f0: b386 8ebe f8ee 383e 7777 c9bd dea9 6b3e

bias f4 [320]
0.097851 0.14963856 -0.31562674 0.3026986 -0.019019289 0.29753053 -0.19072565 0.20202737
0.08589203 0.31075615 -0.0850367 -0.078658506 -0.09348357 0.19336814 -0.00036344433 -0.1149658
-0.064455695 -0.1771527 0.3195105 -0.061001267 -0.17823683 0.26490468 0.23897785 -0.22125836
0.31566197 -0.20382671 0.29659796 0.040070146 0.15941967 -0.1668643 -0.24632952 -0.02105564
-0.00036699392 -0.2227386 -0.17658511 -0.0151988445 -0.0003680464 -0.009974864 -0.27505842 -0.17067954
0.18018918 0.25476813 -0.12640023 0.21701321 -0.096125945 -0.06376843 -0.31226835 0.09318654
0.16867831 -0.14734977 -0.26754096 -0.21620177 0.20052 0.20664077 0.2008663 0.27230436
0.21865506 -0.20684955 0.3487139 0.32762843 0.021691352 0.0890937 0.23760366 0.16172893
0.07218541 -0.2512913 0.258965 0.113863625 0.092339285 -0.1005382 -0.24201016 -0.2593118
0.2901571 -0.15507743 -0.23135777 -0.2710829 -0.055484045 0.054631427 0.34197193 0.24539818
-0.27793753 0.328895 0.17118192 -0.06979275 0.29195246 0.28877974 0.25373062 0.14532644
0.34503093 -0.122292906 -0.09115449 0.35948908 0.22079563 0.28951433 0.116101325 -0.2899943
0.28753266 0.11830713 0.24906547 -0.18956713 0.00034469648 0.10875023 0.22326685 -0.055337388
0.17395082 0.17563088 0.00718521 0.34150258 -0.021045929 0.19516201 0.1165346 -0.026412237
-0.21039435 0.29535514 -0.32722306 -0.010873051 0.13627794 0.31408682 0.23888376 -0.18659852
-0.25254947 0.09267365 -0.022060359 0.18427886 -0.07469488 -0.093099125 -0.035996966 -0.1440263
0.09020821 0.24172765 -0.12888156 0.17911267 -0.07264005 -0.16258073 0.20917705 -0.309193
0.023622004 -0.28625074 -0.056422267 0.24551593 0.08844811 -0.22197904 -0.21077338 0.3287166
0.06406549 0.29167855 -0.1780053 -0.16634363 -0.2831472 -0.14261536 -0.2482349 0.2992513
-0.24063817 -0.29542035 0.29723907 0.0025232735 0.2551203 -0.23210545 -0.110999934 0.28310984
-0.24073945 0.112365104 0.063395016 -0.00050170056 0.28471825 0.15750918 0.22110471 0.11936411
0.03441041 -0.04957031 -0.16286804 0.2332438 0.015942996 -0.12962085 0.023778165 -0.0061123935
-0.054086894 -0.27894232 -0.0031186424 0.010997391 0.026519705 -0.2031147 -0.19303986 0.3370248
-0.11520693 0.091101736 -0.0029007257 0.22057056 -0.02240318 0.06905231 0.2417287 -0.27562347
0.00036684718 -0.16011696 0.30555934 0.06440338 0.101908416 0.039615102 -0.1427712 -0.2868034
0.31298178 -0.28268194 0.059890144 0.33502394 -0.18449348 0.04660707 -0.11775826 0.013520045
0.12193902 0.02332893 -0.067425765 0.33802506 0.29016432 0.3262786 -0.18919143 -0.2808099
0.25963816 -0.038898896 -0.28544724 -0.0210128 0.20715077 -0.118145 0.303103 0.26133272
0.2725546 -0.19789925 -0.22541608 0.1828242 0.17129837 0.3366239 0.24559766 0.26709753
-0.20920402 0.28492004 -0.08994463 -0.18853636 -0.030521167 0.15672503 -0.0038378306 -0.22925492
0.006182959 -0.023538547 -0.1605683 -0.00036434547 -0.024877641 0.000555147 0.2583931 0.10691327
0.2586158 0.20467032 0.14473006 0.25893286 -0.20684746 0.004645143 0.14435863 0.03348156
00000000: 1b66 c83d da3a 193e d499 a1be 50fb 9a3e
00000010: 57ce 9bbc ec55 983e 964d 43be 43e0 4e3e
00000020: 29e8 af3d 6e1b 9f3e b927 aebd b617 a1bd
00000030: 5074 bfbd 4c02 463e ac8c beb9 3073 ebbd
00000040: 5901 84bd 8467 35be e196 a33e 77dc 79bd
00000050: b783 36be 96a1 873e 9cb6 743e 8d91 62be
00000060: 729e a13e f3b7 50be b0db 973e 9820 243d
00000070: e93e 233e 7ade 2abe ce3d 7cbe e17c acbc
00000080: 1769 c0b9 9615 64be bad2 34be 9304 79bc
00000090: 5af6 c0b9 9d6d 23bc 75d4 8cbe 9ec6 2ebe
000000a0: 8383 383e f870 823e 106f 01be b638 5e3e
000000b0: aedd c4bd 0699 82bd a3e1 9fbe 96d8 be3d
000000c0: 02ba 2c3e dce2 16be 21fb 88be ff63 5dbe
000000d0: 1d55 4d3e a399 533e e5af 4d3e 7a6b 8b3e
000000e0: 1de7 5f3e 5ed0 53be a18a b23e eabe a73e
000000f0: 10b2 b13c c276 b63d 604e 733e 459c 253e
00000100: f2d5 933d 41a9 80be 0f97 843e 5531 e93d
00000110: 611c bd3d f9e6 cdbd 83d1 77be 84c4 84be
00000120: 798f 943e 9ecc 1ebe 0de9 6cbe 61cb 8abe
00000130: 3d43 63bd 34c5 5f3d f216 af3e a949 7b3e
00000140: d44d 8ebe ed64 a83e 504a 2f3e 80ef 8ebd
00000150: cb7a 953e f0da 933e fbe8 813e 74d0 143e
00000160: e5a7 b03e b474 fabd 35af babd f40e b83e
00000170: 4018 623e 393b 943e 88c6 ed3d 227a 94be
00000180: 7b37 933e 024b f23d 050b 7f3e e31d 42be
00000190: 61b8 b439 71b8 de3d 11a0 643e 75a9 62bd
000001a0: 2a20 323e 95d8 333e e971 eb3b 6dd9 ae3e
000001b0: 8368 acbc 8dd8 473e b1a9 ee3d 7a5e d8bc
000001c0: 9e71 57be ca38 973e c889 a7be e224 32bc
000001d0: 728c 0b3e fdcf a03e f29d 743e af13 3fbe
000001e0: 2a4e 81be afcb bd3d edb7 b4bc 99b3 3c3e
000001f0: a1f9 98bd c1aa bebd 8e71 13bd a17b 13be
00000200: 15bf b83d 7487 773e 87f9 03be 5069 373e
00000210: 4ec4 94bd 907b 26be 8232 563e 8b4e 9ebe
00000220: ef82 c13c 758f 92be 091b 67bd 8768 7b3e
00000230: 4824 b53d 794e 63be fad4 57be 8b4d a83e
00000240: c534 833d e456 953e 0547 36be fc55 2abe
00000250: abf8 90be c309 12be 4a31 7ebe 7737 993e
00000260: da69 76be 5641 97be b82f 983e 815d 253b
00000270: 219f 823e 0dad 6dbe ef53 e3bd c6f3 903e
00000280: 6784 76be ad1f e63d 3fd5 813d 8e84 03ba
00000290: 97c6 913e 164a 213e 4669 623e 2c75 f43d
000002a0: eef1 0c3d 3d0a 4bbd e1c6 26be 76d7 6e3e
000002b0: e39a 823c 54bb 04be 6dca c23c 794a c8bb
000002c0: 388a 5dbd 87d1 8ebe 2362 4cbb 672e 343c
000002d0: da3f d93c 4dfd 4fbe 3eac 45be 848e ac3e
000002e0: 9cf1 ebbd 8c93 ba3d 1a1a 3ebb 40dd 613e
000002f0: e086 b7bc 4c6b 8d3d ba87 773e 851e 8dbe
00000300: 6555 c039 b3f5 23be 4672 9c3e ebe5 833d
00000310: 5cb5 d03d 7243 223d 9d32 12be e5d7 92be
00000320: 263f a03e b0bb 90be 5e4f 753d 4288 ab3e
00000330: dceb 3cbe 0ee7 3e3d 3e2b f1bd 2e83 5d3c
00000340: 2abb f93d 501c bf3c 8516 8abd 9f11 ad3e
00000350: 6b90 943e fd0d a73e 66bb 41be 51c6 8fbe
00000360: 4bef 843e 7354 1fbd 2426 92be 0923 acbc
00000370: 551f 543e 01f6 f1bd 5130 9b3e 67cd 853e
00000380: 478c 8b3e 1aa6 4abe 79d3 66be 4436 3b3e
00000390: d768 2f3e f859 ac3e f47d 7b3e 02c1 883e
000003a0: 9439 56be 0ae1 913e e434 b8bd ad0f 41be
000003b0: 8707 fabc 877c 203e 1d84 7bbb cdc1 6abe
000003c0: 6b9a ca3b e9d3 c0bc 046c 24be 9f05 bfb9
000003d0: 32cc cbbc 4987 113a 1a4c 843e 58f5 da3d
000003e0: 4a69 843e 1995 513e 1e34 143e d992 843e
000003f0: d2cf 53be 4936 983b c0d2 133e f623 093d
