KNet/Linear_SS_With_MM/pipeline_KNet_MM_Linear_Dynamics_T100_v_negative_5dB.pt (torch, 199561 bytes, 351 tensors)

G f4 [2, 1]
0	0x00000000	0.0
1	0x3f800000	1.0

Q f4 [2, 2]
0	0x3f800000	1.0
1	0x00000000	0.0
2	0x00000000	0.0
3	0x3f800000	1.0

R f4 [2, 2]
0	0x404a62c2	3.1622777
1	0x00000000	0.0
2	0x00000000	0.0
3	0x404a62c2	3.1622777

prior_Q f4 [2, 2]
0	0x3f800000	1.0
1	0x00000000	0.0
2	0x00000000	0.0
3	0x3f800000	1.0

prior_Sigma f4 [2, 2]
0	0x3f800000	1.0
1	0x00000000	0.0
2	0x00000000	0.0
3	0x3f800000	1.0

prior_S f4 [2, 2]
0	0x3f800000	1.0
1	0x00000000	0.0
2	0x00000000	0.0
3	0x3f800000	1.0

m1x_0 f4 [2]
0	0x41200000	10.0
1	0x00000000	0.0

x_prev f4 [2]
0	0x41200000	10.0
1	0x00000000	0.0

m2x_0 f4 [2, 2]
0	0x00000000	0.0
1	0x00000000	0.0
2	0x00000000	0.0
3	0x00000000	0.0

QT f4 [2, 2]
0	0x3f800000	1.0
1	0x00000000	0.0
2	0x00000000	0.0
3	0x3f800000	1.0

Qx f4 [2, 2]
0	0x3f800000	1.0
1	0x00000000	0.0
2	0x00000000	0.0
3	0x3f800000	1.0

L f4 [1, 2]
0	0x3f1444c0	0.57917404
1	0x3fc5ea40	1.5462112

L f4 [1, 2]
0	0x3f144ae4	0.57926774
1	0x3fc5e428	1.5460253

L f4 [1, 2]
0	0x3f1444c0	0.57917404
1	0x3fc5ea40	1.5462112

L f4 [1, 2]
0	0x3f144ae4	0.57926774
1	0x3fc5e428	1.5460253

L f4 [1, 2]
0	0x3f1444c0	0.57917404
1	0x3fc5ea40	1.5462112

L f4 [1, 2]
0	0x3f144ae4	0.57926774
1	0x3fc5e428	1.5460253

L f4 [1, 2]
0	0x3f1444c0	0.57917404
1	0x3fc5ea40	1.5462112

L f4 [1, 2]
0	0x3f144ae4	0.57926774
1	0x3fc5e428	1.5460253

L f4 [1, 2]
0	0x3f1444c0	0.57917404
1	0x3fc5ea40	1.5462112

L f4 [1, 2]
0	0x3f144ae4	0.57926774
1	0x3fc5e428	1.5460253

L f4 [1, 2]
0	0x3f1444c0	0.57917404
1	0x3fc5ea40	1.5462112

L f4 [1, 2]
0	0x3f144ae4	0.57926774
1	0x3fc5e428	1.5460253

L f4 [1, 2]
0	0x3f1444c0	0.57917404
1	0x3fc5ea40	1.5462112

L f4 [1, 2]
0	0x3f144ae4	0.57926774
1	0x3fc5e428	1.5460253

L f4 [1, 2]
0	0x3f1444c0	0.57917404
1	0x3fc5ea40	1.5462112

L f4 [1, 2]
0	0x3f144ae4	0.57926774
1	0x3fc5e428	1.5460253

L f4 [1, 2]
0	0x3f1444c0	0.57917404
1	0x3fc5ea40	1.5462112

L f4 [1, 2]
0	0x3f144ae4	0.57926774
1	0x3fc5e428	1.5460253

L f4 [1, 2]
0	0x3f1444c0	0.57917404
1	0x3fc5ea40	1.5462112

L f4 [1, 2]
0	0x3f144ae4	0.57926774
1	0x3fc5e428	1.5460253

L f4 [1, 2]
0	0x3f1444c0	0.57917404
1	0x3fc5ea40	1.5462112

L f4 [1, 2]
0	0x3f144ae4	0.57926774
1	0x3fc5e428	1.5460253

L f4 [1, 2]
0	0x3f1444c0	0.57917404
1	0x3fc5ea40	1.5462112

L f4 [1, 2]
0	0x3f144ae4	0.57926774
1	0x3fc5e428	1.5460253

L f4 [1, 2]
0	0x3f1444c0	0.57917404
1	0x3fc5ea40	1.5462112

L f4 [1, 2]
0	0x3f144ae4	0.57926774
1	0x3fc5e428	1.5460253

L f4 [1, 2]
0	0x3f1444c0	0.57917404
1	0x3fc5ea40	1.5462112

L f4 [1, 2]
0	0x3f144ae4	0.57926774
1	0x3fc5e428	1.5460253

L f4 [1, 2]
0	0x3f1444c0	0.57917404
1	0x3fc5ea40	1.5462112

L f4 [1, 2]
0	0x3f144ae4	0.57926774
1	0x3fc5e428	1.5460253

L f4 [1, 2]
0	0x3f1444c0	0.57917404
1	0x3fc5ea40	1.5462112

L f4 [1, 2]
0	0x3f144ae4	0.57926774
1	0x3fc5e428	1.5460253

L f4 [1, 2]
0	0x3f1444c0	0.57917404
1	0x3fc5ea40	1.5462112

L f4 [1, 2]
0	0x3f144ae4	0.57926774
1	0x3fc5e428	1.5460253

L f4 [1, 2]
0	0x3f1444c0	0.57917404
1	0x3fc5ea40	1.5462112

L f4 [1, 2]
0	0x3f144ae4	0.57926774
1	0x3fc5e428	1.5460253

L f4 [1, 2]
0	0x3f1444c0	0.57917404
1	0x3fc5ea40	1.5462112

L f4 [1, 2]
0	0x3f144ae4	0.57926774
1	0x3fc5e428	1.5460253

L f4 [1, 2]
0	0x3f1444c0	0.57917404
1	0x3fc5ea40	1.5462112

L f4 [1, 2]
0	0x3f144ae4	0.57926774
1	0x3fc5e428	1.5460253

L f4 [1, 2]
0	0x3f1444c0	0.57917404
1	0x3fc5ea40	1.5462112

L f4 [1, 2]
0	0x3f144ae4	0.57926774
1	0x3fc5e428	1.5460253

L f4 [1, 2]
0	0x3f1444c0	0.57917404
1	0x3fc5ea40	1.5462112

L f4 [1, 2]
0	0x3f144ae4	0.57926774
1	0x3fc5e428	1.5460253

L f4 [1, 2]
0	0x3f1444c0	0.57917404
1	0x3fc5ea40	1.5462112

L f4 [1, 2]
0	0x3f144ae4	0.57926774
1	0x3fc5e428	1.5460253

L f4 [1, 2]
0	0x3f1444c0	0.57917404
1	0x3fc5ea40	1.5462112

L f4 [1, 2]
0	0x3f144ae4	0.57926774
1	0x3fc5e428	1.5460253

L f4 [1, 2]
0	0x3f1444c0	0.57917404
1	0x3fc5ea40	1.5462112

L f4 [1, 2]
0	0x3f144ae4	0.57926774
1	0x3fc5e428	1.5460253

L f4 [1, 2]
0	0x3f1444c0	0.57917404
1	0x3fc5ea40	1.5462112

L f4 [1, 2]
0	0x3f144ae4	0.57926774
1	0x3fc5e428	1.5460253

L f4 [1, 2]
0	0x3f1444c0	0.57917404
1	0x3fc5ea40	1.5462112

L f4 [1, 2]
0	0x3f144ae4	0.57926774
1	0x3fc5e428	1.5460253

L f4 [1, 2]
0	0x3f1444c0	0.57917404
1	0x3fc5ea40	1.5462112

L f4 [1, 2]
0	0x3f144ae4	0.57926774
1	0x3fc5e428	1.5460253

L f4 [1, 2]
0	0x3f1444c0	0.57917404
1	0x3fc5ea40	1.5462112

L f4 [1, 2]
0	0x3f144ae4	0.57926774
1	0x3fc5e428	1.5460253

L f4 [1, 2]
0	0x3f1444c0	0.57917404
1	0x3fc5ea40	1.5462112

L f4 [1, 2]
0	0x3f144ae4	0.57926774
1	0x3fc5e428	1.5460253

L f4 [1, 2]
0	0x3f1444c0	0.57917404
1	0x3fc5ea40	1.5462112

L f4 [1, 2]
0	0x3f144ae4	0.57926774
1	0x3fc5e428	1.5460253

L f4 [1, 2]
0	0x3f1444c0	0.57917404
1	0x3fc5ea40	1.5462112

L f4 [1, 2]
0	0x3f144ae4	0.57926774
1	0x3fc5e428	1.5460253

L f4 [1, 2]
0	0x3f1444c0	0.57917404
1	0x3fc5ea40	1.5462112

L f4 [1, 2]
0	0x3f144ae4	0.57926774
1	0x3fc5e428	1.5460253

L f4 [1, 2]
0	0x3f1444c0	0.57917404
1	0x3fc5ea40	1.5462112

L f4 [1, 2]
0	0x3f144ae4	0.57926774
1	0x3fc5e428	1.5460253

L f4 [1, 2]
0	0x3f1444c0	0.57917404
1	0x3fc5ea40	1.5462112

L f4 [1, 2]
0	0x3f144ae4	0.57926774
1	0x3fc5e428	1.5460253

L f4 [1, 2]
0	0x3f1444c0	0.57917404
1	0x3fc5ea40	1.5462112

L f4 [1, 2]
0	0x3f144ae4	0.57926774
1	0x3fc5e428	1.5460253

L f4 [1, 2]
0	0x3f1444c0	0.57917404
1	0x3fc5ea40	1.5462112

L f4 [1, 2]
0	0x3f144ae4	0.57926774
1	0x3fc5e428	1.5460253

L f4 [1, 2]
0	0x3f1444c0	0.57917404
1	0x3fc5ea40	1.5462112

L f4 [1, 2]
0	0x3f144ae4	0.57926774
1	0x3fc5e428	1.5460253

L f4 [1, 2]
0	0x3f1444c0	0.57917404
1	0x3fc5ea40	1.5462112

L f4 [1, 2]
0	0x3f144ae4	0.57926774
1	0x3fc5e428	1.5460253

L f4 [1, 2]
0	0x3f1444c0	0.57917404
1	0x3fc5ea40	1.5462112

L f4 [1, 2]
0	0x3f144ae4	0.57926774
1	0x3fc5e428	1.5460253

L f4 [1, 2]
0	0x3f1444c0	0.57917404
1	0x3fc5ea40	1.5462112

L f4 [1, 2]
0	0x3f144ae4	0.57926774
1	0x3fc5e428	1.5460253

L f4 [1, 2]
0	0x3f1444c0	0.57917404
1	0x3fc5ea40	1.5462112

L f4 [1, 2]
0	0x3f144ae4	0.57926774
1	0x3fc5e428	1.5460253

L f4 [1, 2]
0	0x3f1444c0	0.57917404
1	0x3fc5ea40	1.5462112

L f4 [1, 2]
0	0x3f144ae4	0.57926774
1	0x3fc5e428	1.5460253

L f4 [1, 2]
0	0x3f1444c0	0.57917404
1	0x3fc5ea40	1.5462112

L f4 [1, 2]
0	0x3f144ae4	0.57926774
1	0x3fc5e428	1.5460253

L f4 [1, 2]
0	0x3f1444c0	0.57917404
1	0x3fc5ea40	1.5462112

L f4 [1, 2]
0	0x3f144ae4	0.57926774
1	0x3fc5e428	1.5460253

L f4 [1, 2]
0	0x3f1444c0	0.57917404
1	0x3fc5ea40	1.5462112

L f4 [1, 2]
0	0x3f144ae4	0.57926774
1	0x3fc5e428	1.5460253

L f4 [1, 2]
0	0x3f1444c0	0.57917404
1	0x3fc5ea40	1.5462112

L f4 [1, 2]
0	0x3f144ae4	0.57926774
1	0x3fc5e428	1.5460253

L f4 [1, 2]
0	0x3f1444c0	0.57917404
1	0x3fc5ea40	1.5462112

L f4 [1, 2]
0	0x3f144ae4	0.57926774
1	0x3fc5e428	1.5460253

L f4 [1, 2]
0	0x3f143b80	0.5790329
1	0x3fc5de00	1.5458374

L f4 [1, 2]
0	0x3f13a2cc	0.57670283
1	0x3fc585f0	1.54315

L f4 [1, 2]
0	0x3f0fcae0	0.5616894
1	0x3fc35140	1.525917

L f4 [1, 2]
0	0x3ee9a000	0.45629883
1	0x3fb4948c	1.4107833

S f4 [2, 2]
0	0x402acba4	2.6686792
1	0x3fdd05ac	1.7267356
2	0x3fdd05ac	1.7267356
3	0x403858b0	2.880413

S f4 [2, 2]
0	0x402ac260	2.6681137
1	0x3fdcd7e0	1.725338
2	0x3fdcd7e0	1.725338
3	0x403835c0	2.8782806

S f4 [2, 2]
0	0x402acba4	2.6686792
1	0x3fdd05ac	1.7267356
2	0x3fdd05ac	1.7267356
3	0x403858b0	2.880413

S f4 [2, 2]
0	0x402ac260	2.6681137
1	0x3fdcd7e0	1.725338
2	0x3fdcd7e0	1.725338
3	0x403835c0	2.8782806

S f4 [2, 2]
0	0x402acba4	2.6686792
1	0x3fdd05ac	1.7267356
2	0x3fdd05ac	1.7267356
3	0x403858b0	2.880413

S f4 [2, 2]
0	0x402ac260	2.6681137
1	0x3fdcd7e0	1.725338
2	0x3fdcd7e0	1.725338
3	0x403835c0	2.8782806

S f4 [2, 2]
0	0x402acba4	2.6686792
1	0x3fdd05ac	1.7267356
2	0x3fdd05ac	1.7267356
3	0x403858b0	2.880413

S f4 [2, 2]
0	0x402ac260	2.6681137
1	0x3fdcd7e0	1.725338
2	0x3fdcd7e0	1.725338
3	0x403835c0	2.8782806

S f4 [2, 2]
0	0x402acba4	2.6686792
1	0x3fdd05ac	1.7267356
2	0x3fdd05ac	1.7267356
3	0x403858b0	2.880413

S f4 [2, 2]
0	0x402ac260	2.6681137
1	0x3fdcd7e0	1.725338
2	0x3fdcd7e0	1.725338
3	0x403835c0	2.8782806

S f4 [2, 2]
0	0x402acba4	2.6686792
1	0x3fdd05ac	1.7267356
2	0x3fdd05ac	1.7267356
3	0x403858b0	2.880413

S f4 [2, 2]
0	0x402ac260	2.6681137
1	0x3fdcd7e0	1.725338
2	0x3fdcd7e0	1.725338
3	0x403835c0	2.8782806

S f4 [2, 2]
0	0x402acba4	2.6686792
1	0x3fdd05ac	1.7267356
2	0x3fdd05ac	1.7267356
3	0x403858b0	2.880413

S f4 [2, 2]
0	0x402ac260	2.6681137
1	0x3fdcd7e0	1.725338
2	0x3fdcd7e0	1.725338
3	0x403835c0	2.8782806

S f4 [2, 2]
0	0x402acba4	2.6686792
1	0x3fdd05ac	1.7267356
2	0x3fdd05ac	1.7267356
3	0x403858b0	2.880413

S f4 [2, 2]
0	0x402ac260	2.6681137
1	0x3fdcd7e0	1.725338
2	0x3fdcd7e0	1.725338
3	0x403835c0	2.8782806

S f4 [2, 2]
0	0x402acba4	2.6686792
1	0x3fdd05ac	1.7267356
2	0x3fdd05ac	1.7267356
3	0x403858b0	2.880413

S f4 [2, 2]
0	0x402ac260	2.6681137
1	0x3fdcd7e0	1.725338
2	0x3fdcd7e0	1.725338
3	0x403835c0	2.8782806

S f4 [2, 2]
0	0x402acba4	2.6686792
1	0x3fdd05ac	1.7267356
2	0x3fdd05ac	1.7267356
3	0x403858b0	2.880413

S f4 [2, 2]
0	0x402ac260	2.6681137
1	0x3fdcd7e0	1.725338
2	0x3fdcd7e0	1.725338
3	0x403835c0	2.8782806

S f4 [2, 2]
0	0x402acba4	2.6686792
1	0x3fdd05ac	1.7267356
2	0x3fdd05ac	1.7267356
3	0x403858b0	2.880413

S f4 [2, 2]
0	0x402ac260	2.6681137
1	0x3fdcd7e0	1.725338
2	0x3fdcd7e0	1.725338
3	0x403835c0	2.8782806

S f4 [2, 2]
0	0x402acba4	2.6686792
1	0x3fdd05ac	1.7267356
2	0x3fdd05ac	1.7267356
3	0x403858b0	2.880413

S f4 [2, 2]
0	0x402ac260	2.6681137
1	0x3fdcd7e0	1.725338
2	0x3fdcd7e0	1.725338
3	0x403835c0	2.8782806

S f4 [2, 2]
0	0x402acba4	2.6686792
1	0x3fdd05ac	1.7267356
2	0x3fdd05ac	1.7267356
3	0x403858b0	2.880413

S f4 [2, 2]
0	0x402ac260	2.6681137
1	0x3fdcd7e0	1.725338
2	0x3fdcd7e0	1.725338
3	0x403835c0	2.8782806

S f4 [2, 2]
0	0x402acba4	2.6686792
1	0x3fdd05ac	1.7267356
2	0x3fdd05ac	1.7267356
3	0x403858b0	2.880413

S f4 [2, 2]
0	0x402ac260	2.6681137
1	0x3fdcd7e0	1.725338
2	0x3fdcd7e0	1.725338
3	0x403835c0	2.8782806

S f4 [2, 2]
0	0x402acba4	2.6686792
1	0x3fdd05ac	1.7267356
2	0x3fdd05ac	1.7267356
3	0x403858b0	2.880413

S f4 [2, 2]
0	0x402ac260	2.6681137
1	0x3fdcd7e0	1.725338
2	0x3fdcd7e0	1.725338
3	0x403835c0	2.8782806

S f4 [2, 2]
0	0x402acba4	2.6686792
1	0x3fdd05ac	1.7267356
2	0x3fdd05ac	1.7267356
3	0x403858b0	2.880413

S f4 [2, 2]
0	0x402ac260	2.6681137
1	0x3fdcd7e0	1.725338
2	0x3fdcd7e0	1.725338
3	0x403835c0	2.8782806

S f4 [2, 2]
0	0x402acba4	2.6686792
1	0x3fdd05ac	1.7267356
2	0x3fdd05ac	1.7267356
3	0x403858b0	2.880413

S f4 [2, 2]
0	0x402ac260	2.6681137
1	0x3fdcd7e0	1.725338
2	0x3fdcd7e0	1.725338
3	0x403835c0	2.8782806

S f4 [2, 2]
0	0x402acba4	2.6686792
1	0x3fdd05ac	1.7267356
2	0x3fdd05ac	1.7267356
3	0x403858b0	2.880413

S f4 [2, 2]
0	0x402ac260	2.6681137
1	0x3fdcd7e0	1.725338
2	0x3fdcd7e0	1.725338
3	0x403835c0	2.8782806

S f4 [2, 2]
0	0x402acba4	2.6686792
1	0x3fdd05ac	1.7267356
2	0x3fdd05ac	1.7267356
3	0x403858b0	2.880413

S f4 [2, 2]
0	0x402ac260	2.6681137
1	0x3fdcd7e0	1.725338
2	0x3fdcd7e0	1.725338
3	0x403835c0	2.8782806

S f4 [2, 2]
0	0x402acba4	2.6686792
1	0x3fdd05ac	1.7267356
2	0x3fdd05ac	1.7267356
3	0x403858b0	2.880413

S f4 [2, 2]
0	0x402ac260	2.6681137
1	0x3fdcd7e0	1.725338
2	0x3fdcd7e0	1.725338
3	0x403835c0	2.8782806

S f4 [2, 2]
0	0x402acba4	2.6686792
1	0x3fdd05ac	1.7267356
2	0x3fdd05ac	1.7267356
3	0x403858b0	2.880413

S f4 [2, 2]
0	0x402ac260	2.6681137
1	0x3fdcd7e0	1.725338
2	0x3fdcd7e0	1.725338
3	0x403835c0	2.8782806

S f4 [2, 2]
0	0x402acba4	2.6686792
1	0x3fdd05ac	1.7267356
2	0x3fdd05ac	1.7267356
3	0x403858b0	2.880413

S f4 [2, 2]
0	0x402ac260	2.6681137
1	0x3fdcd7e0	1.725338
2	0x3fdcd7e0	1.725338
3	0x403835c0	2.8782806

S f4 [2, 2]
0	0x402acba4	2.6686792
1	0x3fdd05ac	1.7267356
2	0x3fdd05ac	1.7267356
3	0x403858b0	2.880413

S f4 [2, 2]
0	0x402ac260	2.6681137
1	0x3fdcd7e0	1.725338
2	0x3fdcd7e0	1.725338
3	0x403835c0	2.8782806

S f4 [2, 2]
0	0x402acba4	2.6686792
1	0x3fdd05ac	1.7267356
2	0x3fdd05ac	1.7267356
3	0x403858b0	2.880413

S f4 [2, 2]
0	0x402ac260	2.6681137
1	0x3fdcd7e0	1.725338
2	0x3fdcd7e0	1.725338
3	0x403835c0	2.8782806

S f4 [2, 2]
0	0x402acba4	2.6686792
1	0x3fdd05ac	1.7267356
2	0x3fdd05ac	1.7267356
3	0x403858b0	2.880413

S f4 [2, 2]
0	0x402ac260	2.6681137
1	0x3fdcd7e0	1.725338
2	0x3fdcd7e0	1.725338
3	0x403835c0	2.8782806

S f4 [2, 2]
0	0x402acba4	2.6686792
1	0x3fdd05ac	1.7267356
2	0x3fdd05ac	1.7267356
3	0x403858b0	2.880413

S f4 [2, 2]
0	0x402ac260	2.6681137
1	0x3fdcd7e0	1.725338
2	0x3fdcd7e0	1.725338
3	0x403835c0	2.8782806

S f4 [2, 2]
0	0x402acba4	2.6686792
1	0x3fdd05ac	1.7267356
2	0x3fdd05ac	1.7267356
3	0x403858b0	2.880413

S f4 [2, 2]
0	0x402ac260	2.6681137
1	0x3fdcd7e0	1.725338
2	0x3fdcd7e0	1.725338
3	0x403835c0	2.8782806

S f4 [2, 2]
0	0x402acba4	2.6686792
1	0x3fdd05ac	1.7267356
2	0x3fdd05ac	1.7267356
3	0x403858b0	2.880413

S f4 [2, 2]
0	0x402ac260	2.6681137
1	0x3fdcd7e0	1.725338
2	0x3fdcd7e0	1.725338
3	0x403835c0	2.8782806

S f4 [2, 2]
0	0x402acba4	2.6686792
1	0x3fdd05ac	1.7267356
2	0x3fdd05ac	1.7267356
3	0x403858b0	2.880413

S f4 [2, 2]
0	0x402ac260	2.6681137
1	0x3fdcd7e0	1.725338
2	0x3fdcd7e0	1.725338
3	0x403835c0	2.8782806

S f4 [2, 2]
0	0x402acba4	2.6686792
1	0x3fdd05ac	1.7267356
2	0x3fdd05ac	1.7267356
3	0x403858b0	2.880413

S f4 [2, 2]
0	0x402ac260	2.6681137
1	0x3fdcd7e0	1.725338
2	0x3fdcd7e0	1.725338
3	0x403835c0	2.8782806

S f4 [2, 2]
0	0x402acba4	2.6686792
1	0x3fdd05ac	1.7267356
2	0x3fdd05ac	1.7267356
3	0x403858b0	2.880413

S f4 [2, 2]
0	0x402ac260	2.6681137
1	0x3fdcd7e0	1.725338
2	0x3fdcd7e0	1.725338
3	0x403835c0	2.8782806

S f4 [2, 2]
0	0x402acba4	2.6686792
1	0x3fdd05ac	1.7267356
2	0x3fdd05ac	1.7267356
3	0x403858b0	2.880413

S f4 [2, 2]
0	0x402ac260	2.6681137
1	0x3fdcd7e0	1.725338
2	0x3fdcd7e0	1.725338
3	0x403835c0	2.8782806

S f4 [2, 2]
0	0x402acba4	2.6686792
1	0x3fdd05ac	1.7267356
2	0x3fdd05ac	1.7267356
3	0x403858b0	2.880413

S f4 [2, 2]
0	0x402ac260	2.6681137
1	0x3fdcd7e0	1.725338
2	0x3fdcd7e0	1.725338
3	0x403835c0	2.8782806

S f4 [2, 2]
0	0x402acba4	2.6686792
1	0x3fdd05ac	1.7267356
2	0x3fdd05ac	1.7267356
3	0x403858b0	2.880413

S f4 [2, 2]
0	0x402ac260	2.6681137
1	0x3fdcd7e0	1.725338
2	0x3fdcd7e0	1.725338
3	0x403835c0	2.8782806

S f4 [2, 2]
0	0x402acba4	2.6686792
1	0x3fdd05ac	1.7267356
2	0x3fdd05ac	1.7267356
3	0x403858b0	2.880413

S f4 [2, 2]
0	0x402ac260	2.6681137
1	0x3fdcd7e0	1.725338
2	0x3fdcd7e0	1.725338
3	0x403835c0	2.8782806

S f4 [2, 2]
0	0x402acba4	2.6686792
1	0x3fdd05ac	1.7267356
2	0x3fdd05ac	1.7267356
3	0x403858b0	2.880413

S f4 [2, 2]
0	0x402ac260	2.6681137
1	0x3fdcd7e0	1.725338
2	0x3fdcd7e0	1.725338
3	0x403835c0	2.8782806

S f4 [2, 2]
0	0x402acba4	2.6686792
1	0x3fdd05ac	1.7267356
2	0x3fdd05ac	1.7267356
3	0x403858b0	2.880413

S f4 [2, 2]
0	0x402ac260	2.6681137
1	0x3fdcd7e0	1.725338
2	0x3fdcd7e0	1.725338
3	0x403835c0	2.8782806

S f4 [2, 2]
0	0x402acba4	2.6686792
1	0x3fdd05ac	1.7267356
2	0x3fdd05ac	1.7267356
3	0x403858b0	2.880413

S f4 [2, 2]
0	0x402ac260	2.6681137
1	0x3fdcd7e0	1.725338
2	0x3fdcd7e0	1.725338
3	0x403835c0	2.8782806

S f4 [2, 2]
0	0x402acba4	2.6686792
1	0x3fdd05ac	1.7267356
2	0x3fdd05ac	1.7267356
3	0x403858b0	2.880413

S f4 [2, 2]
0	0x402ac260	2.6681137
1	0x3fdcd7e0	1.725338
2	0x3fdcd7e0	1.725338
3	0x403835c0	2.8782806

S f4 [2, 2]
0	0x402acba4	2.6686792
1	0x3fdd05ac	1.7267356
2	0x3fdd05ac	1.7267356
3	0x403858b0	2.880413

S f4 [2, 2]
0	0x402ac260	2.6681137
1	0x3fdcd7e0	1.725338
2	0x3fdcd7e0	1.725338
3	0x403835c0	2.8782806

S f4 [2, 2]
0	0x402acba4	2.6686792
1	0x3fdd05ac	1.7267356
2	0x3fdd05ac	1.7267356
3	0x403858b0	2.880413

S f4 [2, 2]
0	0x402ac260	2.6681137
1	0x3fdcd7e0	1.725338
2	0x3fdcd7e0	1.725338
3	0x403835c0	2.8782806

S f4 [2, 2]
0	0x402acba4	2.6686792
1	0x3fdd05ac	1.7267356
2	0x3fdd05ac	1.7267356
3	0x403858b0	2.880413

S f4 [2, 2]
0	0x402ac260	2.6681137
1	0x3fdcd7e0	1.725338
2	0x3fdcd7e0	1.725338
3	0x403835c0	2.8782806

S f4 [2, 2]
0	0x402acba4	2.6686792
1	0x3fdd05ac	1.7267356
2	0x3fdd05ac	1.7267356
3	0x403858b0	2.880413

S f4 [2, 2]
0	0x402ac260	2.6681137
1	0x3fdcd7e0	1.725338
2	0x3fdcd7e0	1.725338
3	0x403835c0	2.8782806

S f4 [2, 2]
0	0x402acba4	2.6686792
1	0x3fdd05ac	1.7267356
2	0x3fdd05ac	1.7267356
3	0x403858b0	2.880413

S f4 [2, 2]
0	0x402ac260	2.6681137
1	0x3fdcd7e0	1.725338
2	0x3fdcd7e0	1.725338
3	0x403835c0	2.8782806

S f4 [2, 2]
0	0x402acba4	2.6686792
1	0x3fdd05ac	1.7267356
2	0x3fdd05ac	1.7267356
3	0x403858b0	2.880413

S f4 [2, 2]
0	0x402ac260	2.6681137
1	0x3fdcd7e0	1.725338
2	0x3fdcd7e0	1.725338
3	0x403835c0	2.8782806

S f4 [2, 2]
0	0x402acba4	2.6686792
1	0x3fdd05ac	1.7267356
2	0x3fdd05ac	1.7267356
3	0x403858b0	2.880413

S f4 [2, 2]
0	0x402ac260	2.6681137
1	0x3fdcd7e0	1.725338
2	0x3fdcd7e0	1.725338
3	0x403835c0	2.8782806

S f4 [2, 2]
0	0x402acba4	2.6686792
1	0x3fdd05ac	1.7267356
2	0x3fdd05ac	1.7267356
3	0x403858b0	2.880413

S f4 [2, 2]
0	0x402ac260	2.6681137
1	0x3fdcd7e0	1.725338
2	0x3fdcd7e0	1.725338
3	0x403835c0	2.8782806

S f4 [2, 2]
0	0x402acba4	2.6686792
1	0x3fdd05ac	1.7267356
2	0x3fdd05ac	1.7267356
3	0x403858b0	2.880413

S f4 [2, 2]
0	0x402abe2c	2.6678572
1	0x3fdcdc34	1.7254701
2	0x3fdcdc34	1.7254701
3	0x40383ba0	2.8786392

S f4 [2, 2]
0	0x402a96be	2.6654506
1	0x3fdc9940	1.7234268
2	0x3fdc9940	1.7234268
3	0x40382e80	2.8778381

S f4 [2, 2]
0	0x4029a66c	2.6507826
1	0x3fda9aac	1.7078452
2	0x3fda9aac	1.7078452
3	0x40371750	2.860798

S f4 [2, 2]
0	0x4022cc00	2.5437012
1	0x3fcb65ba	1.589042
2	0x3fcb65ba	1.589042
3	0x402ea5a8	2.7288609

S f4 [2, 2]
0	0x40000000	2.0
1	0x3f800000	1.0
2	0x3f800000	1.0
3	0x4005d000	2.0908203

L_infinite f4 [1, 2]
0	0x3f14448b	0.5791709
1	0x3fc5d71b	1.545627

weight_ih_l0 f4 [12, 10]
0	0x3df24961	0.11830402
1	0xbd0ced15	-0.034405787
2	0xbec74461	-0.38919356
3	0x3e730059	0.23730601
4	0xbdaee1ac	-0.08539137
5	0x3ee72087	0.45142004
6	0xbe554cba	-0.2083005
7	0xbe0aeba8	-0.13566458
8	0x3eef4044	0.46728718
9	0x3e1ba2ae	0.15198776
10	0xbe23cd8d	-0.1599638
11	0x3e3649a4	0.17801529
12	0x3c8103e7	0.015748931
13	0xbe33d51c	-0.17561764
14	0xbd44e805	-0.048072834
15	0x3b507d7a	0.003181307
16	0x3eeb6a53	0.45979556
17	0xbf01c68d	-0.5069359
18	0xbefb881f	-0.4912729
19	0x3ead0208	0.33790612
20	0xbe05b8c5	-0.13058765
21	0xbec4b6bb	-0.38420662
22	0xbef32d43	-0.4749547
23	0xbe85567c	-0.26042545
24	0xbe8ef79a	-0.2792328
25	0xbe9a2c38	-0.3011186
26	0xbeea1c2e	-0.45724624
27	0x3ebbe831	0.36700585
28	0xbd3e363e	-0.046438448
29	0x3d6b5ae5	0.05745973
30	0x3e81c445	0.25345054
31	0x3e4915db	0.19637243
32	0xbe095e44	-0.13414866
33	0xbcee755f	-0.029108701
34	0x3e8fd49e	0.28091902
35	0xbee68144	-0.45020497
36	0x3ef5a268	0.4797547
37	0xbe47490e	-0.19461462
38	0x3ed3e1c6	0.4138319
39	0x3e20bb11	0.1569636
40	0x3ea8c4e9	0.3296273
41	0xbefd93e1	-0.49526885
42	0x3d93cb9e	0.07216571
43	0x3eaa31d9	0.33241156
44	0xbebe5d38	-0.37180495
45	0x3b804966	0.003915
46	0x3e4b064f	0.19826625
47	0xbdde38eb	-0.108507
48	0xbec31660	-0.38103008
49	0xbeeeeaa1	-0.46663383
50	0xbe030228	-0.12793791
51	0x3efcd2a0	0.49379444
52	0x3ec218b5	0.37909475
53	0x3d49095e	0.0490812
54	0xbe8094c0	-0.25113487
55	0xbeab34c1	-0.33438686
56	0xbeb0cd9a	-0.34531862
57	0xbea91a3a	-0.33027822
58	0x3e8b8554	0.2725016
59	0xbdf0020d	-0.11719141
60	0xbe22d062	-0.15899804
61	0x3ede0ec0	0.43370628
62	0xbec32d50	-0.38120508
63	0x3ebcf763	0.3690749
64	0x3e6c8807	0.23098765
65	0xbed165a9	-0.40897873
66	0x3ee13467	0.43985292
67	0x3bc3ffee	0.005981437
68	0xbd3552b8	-0.04426834
69	0xbd3e7767	-0.04650059
70	0x3ea9edbe	0.33189195
71	0xbe91ccd3	-0.2847658
72	0xbee5f75f	-0.44915292
73	0xbed8966b	-0.4230226
74	0xbdd6ed20	-0.10494447
75	0xbd00dd33	-0.031460952
76	0xbefb0ed9	-0.49034765
77	0x3ee84ebc	0.4537257
78	0xbedad359	-0.4273937
79	0xbebc7942	-0.36811262
80	0xbeb50af6	-0.35359925
81	0xbc87fd9d	-0.016600424
82	0x3eeef505	0.4667131
83	0x3e8e8f1a	0.27843553
84	0x3e8b2998	0.2718017
85	0x3d83aacc	0.06429061
86	0x3e9d171b	0.3068169
87	0xbdd87caa	-0.10570653
88	0xbec503e0	-0.3847952
89	0xbf01c42d	-0.50689965
90	0xbe700d83	-0.23442654
91	0x3db6fc5c	0.089348525
92	0x3eeef43b	0.46670708
93	0x3ea66242	0.3249684
94	0x3c6f55bc	0.014607843
95	0xbe34daa4	-0.1766153
96	0xbec5dc88	-0.38644814
97	0xbe5ac4b2	-0.21364096
98	0xbea2578c	-0.31707418
99	0xbeb94d93	-0.36191997
100	0xbef6fac3	-0.4823819
101	0xbe2c9c42	-0.16856483
102	0xbe517f59	-0.20458736
103	0xbe477970	-0.19479918
104	0xbed55597	-0.41666862
105	0xbe8db2fe	-0.27675623
106	0x3ef9f45d	0.48819247
107	0x3d92c54a	0.07166536
108	0xbeb53263	-0.35390005
109	0xbe889bd5	-0.2668139
110	0xbe84c914	-0.2593466
111	0xbe4f27a0	-0.2022996
112	0xbdc1a8fe	-0.09456061
113	0xbe9df1cc	-0.3084854
114	0x3e696c27	0.22795163
115	0xbed18041	-0.40918162
116	0xbeedd73b	-0.4645327
117	0x3f0428b0	0.51624584
118	0x3ef207f4	0.47271693
119	0x3e4203c5	0.1894675

weight_hh_l0 f4 [12, 4]
0	0x3e315cbd	0.17320533
1	0x3ec55a92	0.38545662
2	0xbc968fec	-0.018379174
3	0x3efce0d5	0.49390283
4	0xbdc4831a	-0.09595318
5	0x3ebe735a	0.3719738
6	0x3bbf384e	0.0058355695
7	0x3ebdf5d6	0.3710162
8	0xbe6207fe	-0.22073361
9	0xbeb12b86	-0.34603518
10	0x3ebe5f8a	0.37182266
11	0xbe7a2906	-0.24429712
12	0xbe21cdbe	-0.1580114
13	0xbde5f7ae	-0.11228882
14	0xbe427ce4	-0.18992954
15	0x3edfc864	0.43707573
16	0x3ef3c468	0.47610784
17	0x3eb6c134	0.35694277
18	0x3e06de32	0.13170698
19	0xbe8c1911	-0.27362874
20	0x3dfe4a4f	0.12416517
21	0xbef76d38	-0.48325515
22	0x3cccfa81	0.025021793
23	0x3ec339ab	0.38129935
24	0xbea8ac2c	-0.32943857
25	0xbef12ee4	-0.47106087
26	0x3ed9ad86	0.425152
27	0x3e36919c	0.17828983
28	0x3d80b89c	0.062852114
29	0xbe9c3a67	-0.30513307
30	0xbebdcd6f	-0.37070796
31	0x3e16954b	0.14705388
32	0xbd02bf9d	-0.031921018
33	0x3c33d7b1	0.010976718
34	0x3ed493df	0.41519067
35	0x3ef1b8d1	0.47211316
36	0xbe54e23e	-0.2078943
37	0xbe1327d7	-0.14370666
38	0xbe7000ab	-0.23437755
39	0xbef8abda	-0.48568612
40	0x3eba848a	0.36429244
41	0x3dcdaf1a	0.100431636
42	0x3e1c013a	0.15234843
43	0x3e9ff3bb	0.3124064
44	0x3dcf4109	0.10119826
45	0xbe5345ee	-0.20632145
46	0x3eea0707	0.45708486
47	0x3de723da	0.11286135

bias_ih_l0 f4 [12]
0	0x3ee5fcbd	0.44919387
1	0xbeac4138	-0.33643508
2	0x3ea5c04d	0.32373276
3	0x3d922073	0.071350954
4	0xbed5fc79	-0.41794184
5	0xbeef8bd2	-0.46786362
6	0x3e71f401	0.23628236
7	0xbe07e917	-0.1327251
8	0xbe90e8b8	-0.2830255
9	0x3ed264fe	0.41092676
10	0x3e6c6cd9	0.23088397
11	0xbe65de5b	-0.22448103

bias_hh_l0 f4 [12]
0	0xbd4a8989	-0.04944757
1	0x3d7123c1	0.05887199
2	0xbd270056	-0.040771805
3	0x3dfbe82a	0.12300141
4	0xbd562f6f	-0.05229133
5	0x3e55c50f	0.20875953
6	0x3e062426	0.13099727
7	0x3d8cc0a6	0.06872682
8	0x3ee300bc	0.44336498
9	0x3ec7548b	0.3893169
10	0x3eb042db	0.34426007
11	0x3dbb158f	0.09134971

weight_ih_l0 f4 [12, 14]
0	0x3ddfbe6c	0.10924992
1	0x3d54a42f	0.05191439
2	0xbee911b5	-0.45521322
3	0x3dcd0029	0.10009796
4	0x3e12ce30	0.14336467
5	0x3ea89140	0.32923317
6	0xbe390c90	-0.18071198
7	0xbe13d605	-0.1443711
8	0x3c71f3b3	0.014767575
9	0xbe5b2549	-0.21400942
10	0x3e20bbbf	0.1569662
11	0x3eedd6b6	0.46452874
12	0xbe760082	-0.24023631
13	0x3ec266e2	0.37969118
14	0xbe7e8e06	-0.24858865
15	0xbed82ac2	-0.42220122
16	0x3bad91c2	0.0052969167
17	0xbdc8a376	-0.09796803
18	0x3e659cc0	0.22423077
19	0xbd9010ec	-0.070344776
20	0x3ed436f5	0.4144818
21	0x3e1875e9	0.14888729
22	0x3ec51ecd	0.38500062
23	0xbecdcba6	-0.40194434
24	0xbeae296e	-0.34015983
25	0xbe577af1	-0.21042992
26	0x3dd49439	0.10379834
27	0xbe2e9ac3	-0.17051224
28	0xbe927fbc	-0.2861308
29	0xbe472a25	-0.1944967
30	0xbe859755	-0.2609202
31	0x3e3ad742	0.18246177
32	0xbeea5075	-0.4576451
33	0xba523d9f	-0.00080200465
34	0xbe94295e	-0.2893781
35	0x3b7d3a1f	0.003863938
36	0x3c94cdb9	0.018164502
37	0xbbaef644	-0.0053394157
38	0x3d70834d	0.05871897
39	0x3e0488b1	0.12942769
40	0x3e4942a5	0.19654329
41	0xbebd23bc	-0.36941326
42	0x3dee4c34	0.11635628
43	0x3ec72ef2	0.38903004
44	0x3c7d960d	0.015477669
45	0xbd4cadeb	-0.04997055
46	0x3e2f36ee	0.17110798
47	0xbeca6503	-0.3953019
48	0xbe24ce8a	-0.16094413
49	0x3e3f3080	0.18670845
50	0xbc8d632c	-0.017259203
51	0x3d832a34	0.06404534
52	0xbeb0b521	-0.3451319
53	0x3e05b48b	0.13057153
54	0xbe25dde3	-0.16197924
55	0xbe2d53e0	-0.16926527
56	0xbecec382	-0.40383536
57	0xbe00c33c	-0.12574476
58	0x3ee727b8	0.4514749
59	0x3e3bf0d3	0.18353586
60	0x3e978a06	0.2959749
61	0xbe9a6957	-0.30158493
62	0xbe88275c	-0.2659253
63	0xbeaaf70f	-0.33391616
64	0xbf0523d2	-0.5200778
65	0x3df0ede5	0.11764125
66	0x3ec73479	0.3890722
67	0x3e739e5a	0.23790875
68	0x3e6283b2	0.2212055
69	0xbe92d77b	-0.28680024
70	0xbe08e578	-0.13368785
71	0xbef2e282	-0.47438437
72	0xbec14e80	-0.37755203
73	0xbe8083a2	-0.25100428
74	0xbeb608f8	-0.35553718
75	0x3db0c6f4	0.08631697
76	0x3efa45ca	0.4888137
77	0x3f023bbf	0.50872415
78	0x3c3fe2a1	0.011711747
79	0x3dfe5d21	0.12420107
80	0x3ef3697b	0.47541413
81	0xbe1a4ca7	-0.15068303
82	0xbea5dfb8	-0.32397246
83	0x3df82092	0.12115587
84	0x3ecd7580	0.40128708
85	0x3db8b256	0.0901839
86	0x3ec879b6	0.39155358
87	0x3ee271ef	0.4422755
88	0x3d2afd41	0.041745428
89	0x3e39428f	0.18091796
90	0xbeaa8ca1	-0.33310416
91	0xbed287e8	-0.41119313
92	0xbecfc969	-0.4058335
93	0xbe86c19a	-0.2631958
94	0x3d0b0164	0.033936873
95	0xbe71778f	-0.23580764
96	0x3de6a8b2	0.11262645
97	0xbeb2ebef	-0.34945628
98	0x3eee0054	0.46484625
99	0xbda5f4f0	-0.08103359
100	0xbc9af10c	-0.018913768
101	0xbe480d15	-0.1953624
102	0x3eaee701	0.34160617
103	0xbea6eff7	-0.32604954
104	0x3ea0f663	0.31437978
105	0x3cca74e5	0.024713943
106	0xbdf03e5f	-0.11730646
107	0x3e32ca97	0.17460094
108	0xbdf4cdaa	-0.1195329
109	0x3dde7626	0.10862379
110	0xbe5378e1	-0.2065158
111	0x3ec2ae10	0.38023424
112	0x3eb34655	0.35014597
113	0x3e393a1c	0.18088573
114	0xbe0cd209	-0.13751997
115	0x3e8b85c3	0.2725049
116	0x3e16be69	0.14721073
117	0xbd4f23b6	-0.050571166
118	0x3e91e5d9	0.28495672
119	0x3eddc582	0.4331475
120	0x3e91f7c8	0.28509355
121	0x3ee0cd8b	0.43906817
122	0x3e5163a2	0.20448163
123	0xbdf0d294	-0.117589146
124	0x3e455878	0.1927203
125	0x3d0804d7	0.03320774
126	0xbf01497d	-0.5050276
127	0xbd296f44	-0.041365877
128	0x3dbabe0c	0.0911828
129	0x3e8bdb9e	0.27315992
130	0x3d7fa6f2	0.06241507
131	0x3a30bcbd	0.00067419914
132	0x3e3eaa40	0.18619633
133	0x3d951d7b	0.072810136
134	0x3efa9644	0.4894277
135	0xbe24d94f	-0.16098522
136	0xbd25172d	-0.040305305
137	0x3e6a6a47	0.22892104
138	0x3ef52143	0.4787694
139	0xbeba9538	-0.3644197
140	0x3c7b7127	0.015346802
141	0x3ed957f5	0.42449918
142	0xbe7ea606	-0.2486802
143	0x3e8aa074	0.2707554
144	0x3ef994fb	0.48746476
145	0x3e04769b	0.1293587
146	0x3d63cc85	0.055614967
147	0x3edc7736	0.430597
148	0x3e165afd	0.14683147
149	0xbdfd57d3	-0.12370267
150	0x3ebfbc3a	0.37448293
151	0xbda4fa66	-0.08055572
152	0x3ed0be11	0.4077001
153	0x3df644d9	0.120248504
154	0x3d66363b	0.056204062
155	0xbe970fb2	-0.29504162
156	0xbef616fe	-0.48064417
157	0xbde074fa	-0.109598115
158	0x3e91451b	0.28373036
159	0xbea97fd5	-0.3310534
160	0x3e38ac14	0.18034393
161	0x3d4b55ca	0.04964236
162	0xbe705fcd	-0.23474045
163	0xbd364068	-0.044495016
164	0xbeaccef9	-0.33751658
165	0x3e41c86e	0.18924114
166	0x3ec7000c	0.38867223
167	0xbeb82ec9	-0.35973194

weight_hh_l0 f4 [12, 4]
0	0xbefc2ec3	-0.49254426
1	0xbebfdd84	-0.3747369
2	0x3e314f1b	0.17315333
3	0x3e86f2ec	0.2635721
4	0x3e801274	0.2501408
5	0xbebcaa24	-0.36848557
6	0x3db645e9	0.08900053
7	0xbe54e8e2	-0.20791963
8	0x3af8ed71	0.0018991661
9	0x39b7360e	0.00034944754
10	0x3e31af07	0.17351924
11	0xbcabaa35	-0.020955184
12	0xbe4cec6f	-0.20012067
13	0x3f0130f0	0.504653
14	0x3f00f75e	0.5037745
15	0x3ee57dbb	0.44822487
16	0xbc8210de	-0.015877184
17	0xbe369f91	-0.17834307
18	0x3e9517fe	0.29119867
19	0xbe56e160	-0.20984411
20	0xbd3d0664	-0.046148673
21	0x3eff5114	0.49866545
22	0x3e972e77	0.29527637
23	0xbe54494e	-0.20731089
24	0xbebdf612	-0.371018
25	0x3dd2fbb3	0.10301914
26	0xbe9ceeff	-0.3065109
27	0x3db74777	0.08949178
28	0x3ca78869	0.020450788
29	0xbee42e53	-0.44566593
30	0xbc089602	-0.008336546
31	0x3e15824a	0.14600483
32	0xbc9274bd	-0.01787793
33	0x3c984e87	0.018592132
34	0x3cb214b7	0.021738393
35	0xbe2d593f	-0.16928576
36	0xbea115eb	-0.31462035
37	0x3d91990b	0.07109269
38	0xbe54ceba	-0.20781985
39	0xbe4c24f0	-0.19935966
40	0x3e9ddfd3	0.30834827
41	0x3df664a1	0.12030912
42	0x3ec22efd	0.37926474
43	0x3da03d6d	0.07824216
44	0xbb9ff405	-0.0048813843
45	0xbe236f21	-0.15960361
46	0x3f013867	0.5047669
47	0x3df0ddac	0.117610306

bias_ih_l0 f4 [12]
0	0x3e82f35d	0.25576296
1	0xbe695c47	-0.22789107
2	0x3ec8a52e	0.39188522
3	0x3ee6d2bd	0.45082656
4	0x3e447364	0.19184643
5	0xbeced775	-0.40398756
6	0xbde1c4e4	-0.11023882
7	0x3eea1a93	0.457234
8	0x3eeab2d9	0.45839575
9	0xbea5fd08	-0.3241961
10	0x3e770524	0.24123055
11	0x3e83a0eb	0.25708708

bias_hh_l0 f4 [12]
0	0xbe0d2318	-0.13782918
1	0xbefd7f86	-0.49511355
2	0xbd5bb75b	-0.05364166
3	0x3e9b1f9d	0.30297557
4	0x3ec237c5	0.37933174
5	0x3eee851a	0.46585923
6	0xbe4c8d30	-0.19975734
7	0xbee56d83	-0.44810113
8	0xbe62f1f1	-0.22162606
9	0xbc80757e	-0.015681025
10	0xbef385fc	-0.4756316
11	0x3ee7ab71	0.45247987

weight_ih_l0 f4 [12, 24]
0	0x3eb1d72d	0.3473448
1	0xbe74c0ee	-0.23901722
2	0x3ec340da	0.38135415
3	0xbe155839	-0.14584436
4	0x3ec0d562	0.37662798
5	0x3ebb9757	0.366389
6	0xbe8ecb0b	-0.27889284
7	0xbe175e14	-0.14781982
8	0x3ed3f85f	0.4140043
9	0x3efcfb9f	0.49410722
10	0xbd3ae6ce	-0.04563027
11	0xbec15ea4	-0.37767518
12	0x3dd65a2a	0.10466416
13	0x3ea94512	0.3306051
14	0x3e8b398e	0.27192348
15	0xbe789b16	-0.2427791
16	0x3edfdc4d	0.43722764
17	0xbe6ff9bd	-0.23435111
18	0x3e58d0fb	0.2117347
19	0xbea99193	-0.33118877
20	0xbe6bbf86	-0.23022279
21	0x3e8e62ac	0.27809656
22	0x3e044c17	0.12919651
23	0x3e3a5a07	0.18198405
24	0xbecc960a	-0.3995822
25	0x3ddbaeea	0.107267216
26	0x3f019ddb	0.50631493
27	0x3ebe3613	0.3715063
28	0x3e508b75	0.20365699
29	0xbeade48b	-0.33963427
30	0x3e651268	0.22370303
31	0xbedf0dbd	-0.4356517
32	0xbe819492	-0.25308663
33	0x3ec02a8b	0.37532458
34	0x3e226f50	0.15862775
35	0x3eb7e62b	0.35917792
36	0x3eaf51c2	0.34242064
37	0xbecb23cb	-0.39675745
38	0x3e827b0b	0.254845
39	0x3cd9d688	0.026591554
40	0xbd8bbd12	-0.06823172
41	0xbeb6fdb2	-0.3574043
42	0x3db2578b	0.08708104
43	0xbc900500	-0.01758051
44	0x3e1c6745	0.15273769
45	0x3ed0840b	0.4072574
46	0xbe555594	-0.20833427
47	0x3ef475f0	0.4774623
48	0x3d1c89e2	0.038217433
49	0xbe4e5270	-0.20148635
50	0x3de659d0	0.11247599
51	0x3ebc3550	0.36759424
52	0xbe270509	-0.16310515
53	0xbd3a3cd3	-0.045468163
54	0x3e727c59	0.23680247
55	0x3e984035	0.29736486
56	0x3eb37e89	0.35057476
57	0x3cb87b68	0.022519782
58	0x3dcde98a	0.1005431
59	0x3e11e7af	0.14248537
60	0x3e34e71a	0.17666283
61	0x3ef445b6	0.47709435
62	0x3e9daa8c	0.3079418
63	0x3c531506	0.01288343
64	0xbe84dfa5	-0.25951877
65	0xbdb21f52	-0.0869738
66	0xbc80913b	-0.015694251
67	0x3e84bf68	0.2592728
68	0x3e430355	0.1904424
69	0x3de8965d	0.113568045
70	0xbec74e40	-0.38926888
71	0xbeb839e2	-0.3598166
72	0xbe92727e	-0.28602976
73	0xbe98d3a2	-0.29848963
74	0x3e2eeeea	0.17083326
75	0x39c097e6	0.00036734267
76	0x3ee7b51b	0.4525536
77	0x3edfa9f2	0.43684345
78	0x3edba7a3	0.42901334
79	0xbee00157	-0.43751022
80	0x3d6f729b	0.058458906
81	0xbe7406de	-0.23830745
82	0x3d6077a6	0.054801606
83	0x3eef929f	0.4679155
84	0xbd6254e1	-0.055256728
85	0xbefd82d4	-0.49513876
86	0x3e13a38f	0.14417861
87	0x3eafb785	0.34319702
88	0x3ed75387	0.42055914
89	0xbef3cc27	-0.47616693
90	0x3ed245e2	0.4106894
91	0x3e0015b4	0.12508279
92	0x3e16ed29	0.14738907
93	0xbe74c608	-0.23903668
94	0xbe2b3554	-0.16719562
95	0x3d6bea08	0.057596236
96	0x3ebdffef	0.37109324
97	0x3e5c4f3a	0.21514598
98	0x3df4fb64	0.119620115
99	0xbecc0c76	-0.39853257
100	0xbef8f912	-0.48627526
101	0xbe5bade6	-0.21453056
102	0xbd89d988	-0.06730944
103	0xbec2390a	-0.37934142
104	0xbee9b816	-0.4564826
105	0x3ea7b7e2	0.3275748
106	0xbeb78a95	-0.35847917
107	0xbebbb127	-0.36658594
108	0x3e80fa5a	0.25191003
109	0xbe8b54f5	-0.27213255
110	0x3e0642f5	0.1311148
111	0x3e928286	0.28615206
112	0xbea08416	-0.31350774
113	0xbe864fa5	-0.2623264
114	0x3ed45507	0.4147112
115	0x3e687db1	0.22704197
116	0x3ea650f0	0.32483625
117	0x3da08601	0.07838059
118	0x3ed7ebe6	0.42172164
119	0xbdc1cf0e	-0.09463321
120	0xbe83556c	-0.2565111
121	0x3ed0d83c	0.40789974
122	0x3e3a3240	0.18183231
123	0x3ea5a494	0.32352126
124	0x3ebfed46	0.37485713
125	0xbed0904f	-0.407351
126	0x3e0ce120	0.13757753
127	0xbeeb1ed2	-0.45921952
128	0x3e8fd8fc	0.28095233
129	0x3e93b7d9	0.28851202
130	0x3d3c6338	0.04599306
131	0x3e3382ae	0.17530319
132	0xbedf94e0	-0.4366827
133	0xbe9d6e0f	-0.3074803
134	0xbea6eae8	-0.32601094
135	0xbe2c6fe4	-0.16839558
136	0x3e7e6cc6	0.24846181
137	0xbe725ff8	-0.23669422
138	0xbeebce74	-0.4605595
139	0x3eb2e03c	0.34936702
140	0x3eafbd29	0.34324005
141	0x3ea23148	0.31678224
142	0xb81b24fc	-3.6989324e-05
143	0x3d8f5259	0.069981284
144	0x3ddfd785	0.10929779
145	0x3e7f5ce4	0.24937779
146	0x3ea6acec	0.32553804
147	0x3dc7485e	0.097306
148	0x3e54934e	0.20759317
149	0x3ea981ba	0.33106786
150	0x3ee3dc58	0.44504046
151	0xbeac5f86	-0.3366663
152	0x3c6d9529	0.014500895
153	0xbcc7ff0d	-0.02441361
154	0x3e93a493	0.28836498
155	0xbcddf6dc	-0.02709525
156	0x3ea92104	0.33033
157	0x3e6089fd	0.21927638
158	0x3e8c7ad0	0.27437449
159	0x3cf2c62e	0.029635515
160	0xbe67bee6	-0.22631416
161	0x3ecc353c	0.39884365
162	0xbe87d5c3	-0.26530275
163	0x3e899206	0.2686922
164	0xbdb00fe8	-0.08596784
165	0xbe6cf34f	-0.2313969
166	0xbebb045f	-0.36526772
167	0xbd17766c	-0.03697817
168	0x3d652091	0.05593926
169	0xb9ab0554	-0.0003261963
170	0xbdfaa32d	-0.122381546
171	0x3ee06a77	0.43831226
172	0x3b5db449	0.0033829382
173	0x3e66ea3a	0.22550288
174	0xbc9ef7cf	-0.019405274
175	0xbd7a4283	-0.061098587
176	0x3df7059f	0.12061619
177	0xbec4aba6	-0.38412207
178	0x3d6b116c	0.05738966
179	0xbea83faa	-0.32861072
180	0xbd5897bb	-0.052879076
181	0xbdb0299c	-0.08601686
182	0xbeea2174	-0.45728648
183	0xbd8fb98e	-0.070178136
184	0x3e9556a7	0.29167673
185	0x3ec68189	0.38770702
186	0x3ea997ce	0.3312363
187	0x3ee9b540	0.45646095
188	0xbda763f6	-0.08173363
189	0xbe789460	-0.2427535
190	0x3c9a8914	0.018864192
191	0xbe53a14b	-0.20666997
192	0x3eb865e8	0.36015248
193	0x39b56689	0.00034599405
194	0x3ea1a0c6	0.31567973
195	0xbd0e5949	-0.034753118
196	0xbef18fdb	-0.47180066
197	0x3e96f7c5	0.29485908
198	0xbe67f434	-0.2265175
199	0x3e8bb761	0.27288345
200	0x3c8649df	0.016392646
201	0xbeaf310b	-0.34217104
202	0xbd63ea6a	-0.055643477
203	0xbe4be8cb	-0.19913022
204	0x3e57eb6c	0.210859
205	0x3f0082ac	0.5019939
206	0xbe205b63	-0.15659861
207	0xbdc0848a	-0.0940028
208	0x3ec6bfa1	0.38818076
209	0xbdeab058	-0.11459416
210	0xbe363e36	-0.17797169
211	0xbec26401	-0.37966922
212	0x3ad70d5f	0.0016407183
213	0x3e0015aa	0.12508264
214	0xbd7e99c2	-0.062158354
215	0xbe1d1243	-0.15338998
216	0xbe31f877	-0.17379938
217	0x3e125cac	0.14293164
218	0xbef2134b	-0.47280344
219	0x3d813115	0.0630819
220	0xbe50053d	-0.20314498
221	0xbe2d0302	-0.16895679
222	0x3ebe37ae	0.37151855
223	0x3df00324	0.11719349
224	0x3ecab17d	0.39588538
225	0x3e523964	0.20529705
226	0xbe4c7857	-0.19967781
227	0xbedd715b	-0.43250546
228	0xbe902f3c	-0.28161037
229	0xbf001902	-0.5003816
230	0xbe8064ad	-0.2507681
231	0x3e938030	0.28808737
232	0x3e825625	0.25456348
233	0x3e84bbde	0.2592458
234	0x3e7d137e	0.24714467
235	0xbcbebbdc	-0.023282938
236	0x3e95d7a5	0.29266086
237	0x3e1e9984	0.15488249
238	0xbe9d2b59	-0.30697134
239	0x3e90de0c	0.28294408
240	0x3e8beb80	0.2732811
241	0xbed6a74d	-0.41924515
242	0xbe0fe85d	-0.14053483
243	0x3de67022	0.112518564
244	0xbe8d6060	-0.2761259
245	0xbe84ebb2	-0.2596107
246	0xbe80fde5	-0.25193706
247	0x3ed0338d	0.4066433
248	0xbc1a0718	-0.009401105
249	0x3ebc0dc2	0.36729246
250	0x3ec3a386	0.38210696
251	0xbeadcdb9	-0.33946016
252	0x3ef947e9	0.48687676
253	0xbea0ac0e	-0.31381267
254	0xbd0adf02	-0.033904083
255	0xbedfe90a	-0.43732482

weight_hh_l0 f4 [12, 4]
0	0xbeb3fa16	-0.35151738
1	0x3e8fb17a	0.2806509
2	0x3ee8d72c	0.45476663
3	0x3d44f2b7	0.048083033
4	0x3dc7a22f	0.09747731
5	0x3eb6a617	0.35673591
6	0x3e99d1aa	0.30042773
7	0x3e4844ee	0.19557545
8	0xbddbfe79	-0.10741896
9	0xbe9c19b7	-0.3048837
10	0xbce4294b	-0.027851721
11	0xbe9532b4	-0.29140246
12	0xbe36818e	-0.17822859
13	0x3d5bf398	0.053699106
14	0xbe8f7ed6	-0.28026456
15	0xbe44dce9	-0.19224896
16	0xbdd8d972	-0.105883494
17	0x3da03869	0.078232594
18	0x3e8a79d6	0.27046078
19	0x3d1e378b	0.03862719
20	0xbef4f85b	-0.4784573
21	0x3eead787	0.4586756
22	0xbe2f91a8	-0.17145407
23	0xbd1b51f9	-0.037919972
24	0xbea83e20	-0.32859898
25	0x3dffc871	0.12489403
26	0xbea38d4f	-0.31943747
27	0xbea8843b	-0.32913384
28	0x3e016634	0.12636644
29	0x3d371bbc	0.044704184
30	0xbee4de93	-0.4470106
31	0xbef012ef	-0.46889445
32	0x3ef08ba0	0.46981525
33	0xbe7d25e5	-0.24721487
34	0xbeca1149	-0.39466313
35	0xbece0217	-0.4023597
36	0xbec5a3e6	-0.38601607
37	0xbedf379a	-0.43597108
38	0x3d8a8088	0.06762797
39	0x3e717689	0.23580374
40	0x3edcb49a	0.43106538
41	0x3e8d8bcb	0.27645716
42	0xbdc62385	-0.096747436
43	0xbecad580	-0.39616013
44	0x3c5c0366	0.013428545
45	0x3ce053db	0.027383735
46	0xbe9717bf	-0.29510304
47	0xbd9a0cbc	-0.0752196

bias_ih_l0 f4 [12]
0	0x3e0bba7f	0.13645361
1	0xbecc650f	-0.39920852
2	0xbe90c9ea	-0.28279048
3	0x3b948ded	0.0045335204
4	0x3e93eed2	0.28893143
5	0xbe1369cb	-0.14395826
6	0x3e5bc0f1	0.2146032
7	0x3ed56b9c	0.41683662
8	0x3e645288	0.22297108
9	0xbef33161	-0.4749861
10	0x3e94e2a2	0.29079157
11	0xbed554ae	-0.41666168

bias_hh_l0 f4 [12]
0	0xbe615ec5	-0.22008808
1	0x3e85fb29	0.26168182
2	0x3d4afe40	0.049558878
3	0xbdbbf756	-0.09178035
4	0xbeb90aa7	-0.3614094
5	0xbc4c7d8a	-0.012481103
6	0xbe70dcdb	-0.2352175
7	0xbeb4e959	-0.3533428
8	0xbdcf4025	-0.101196565
9	0xbdab21a9	-0.083560295
10	0x3f031381	0.51201636
11	0x3eb4d572	0.35319096

weight f4 [4, 4]
0	0xbeed5f1d	-0.46361628
1	0xbeca1821	-0.39471534
2	0x3e4217f5	0.18954451
3	0x3eba9789	0.36443737
4	0xbeb7919c	-0.3585328
5	0xbdefbe6a	-0.117062405
6	0x3d9b64b8	0.0758757
7	0xbec9e29d	-0.39430705
8	0xbda68188	-0.08130175
9	0xbda93aff	-0.08263206
10	0xbe62f32c	-0.22163075
11	0xbe2179d7	-0.15769134
12	0xbea73243	-0.32655534
13	0x3e8a33d9	0.26992682
14	0xbe89343f	-0.26797673
15	0xbe642540	-0.22279835

bias f4 [4]
0	0x3cf449a7	0.029820276
1	0xbd11eac9	-0.0356243
2	0x3e86483e	0.2622699
3	0xbe3a75c0	-0.1820898

weight f4 [320, 8]
0	0x3dac7fcf	0.08422815
1	0x3e2fffe8	0.17187464
2	0x3db420c9	0.08795316
3	0x3e888a7e	0.2666816
4	0x3e71ffc2	0.2363272
5	0xbe4691b2	-0.19391516
6	0xbe11141d	-0.14167829
7	0x3ddde2a2	0.108342424
8	0x3daa0b7f	0.08302974
9	0x3e56024e	0.20899317
10	0x3e997eae	0.2997946
11	0x3eaa3eee	0.33251137
12	0xbe1fe6be	-0.15615365
13	0x3e985b2c	0.2975706
14	0x3e6f2e20	0.23357439
15	0xbd894af0	-0.06703746
16	0xb9a25784	-0.00030964252
17	0xbd965e70	-0.07342231
18	0x39c0b0f9	0.0003675295
19	0x3e486fbf	0.19573878
20	0xbe912b40	-0.2835331
21	0xbdb1368f	-0.08652984
22	0xbd1deaf7	-0.038554158
23	0xbcd247a6	-0.02566893
24	0xbdfc9398	-0.12332839
25	0x3dc2e163	0.09515645
26	0x3c87ec5f	0.016592203
27	0xbd00ee4f	-0.03147727
28	0x3e924d9a	0.2857483
29	0x3e8c2303	0.27370462
30	0xbdff9dbf	-0.124812596
31	0x3c709693	0.014684337
32	0x3d7d029b	0.061770063
33	0x3d58e319	0.052950952
34	0x3d602981	0.05472708
35	0xbe03c262	-0.1286712
36	0x3e885de4	0.26634133
37	0xbea7d81b	-0.32782063
38	0xbe05c0e7	-0.13061868
39	0xbe6aa40d	-0.22914143
40	0x3e1590d7	0.14606033
41	0xbe963c1b	-0.29342732
42	0xbd825b7f	-0.06365108
43	0x3ce666ee	0.028125253
44	0xbc442acc	-0.011973094
45	0xbe2f0e85	-0.17095383
46	0xbdb80bc8	-0.08986622
47	0xbe464808	-0.19363415
48	0x3e35af1d	0.17742582
49	0x3e3d9cc4	0.18516833
50	0x3e97c81c	0.2964486
51	0x3eb133e8	0.34609914
52	0x3eb393fc	0.3507384
53	0xbe98896d	-0.29792348
54	0xbe16ec27	-0.14738522
55	0xbcc3f639	-0.023921119
56	0xbe1ad81d	-0.15121503
57	0x3e2604b8	0.16212738
58	0x3e85490d	0.26032296
59	0x3eabfa47	0.33589384
60	0xbe8537c5	-0.2601911
61	0x3e6387c0	0.22219753
62	0x3dae1e32	0.08501853
63	0x3e74750c	0.23872775
64	0x3df71896	0.12065236
65	0xbe4b12d9	-0.19831409
66	0xbd5c2ded	-0.053754736
67	0x3d386554	0.04501851
68	0xbea0f00d	-0.31433144
69	0xbe719d4d	-0.23595162
70	0x3e99c784	0.3003503
71	0x3db7abcf	0.08968317
72	0x3e9acb27	0.30233118
73	0x3e805a55	0.25068918
74	0x3d7b75b8	0.061391562
75	0x3e26a1bf	0.16272639
76	0xbe154a0e	-0.14579031
77	0x3e414122	0.18872502
78	0x3daa2df4	0.08309546
79	0xbe852400	-0.26004028
80	0x3e95287d	0.29132453
81	0xbd54772f	-0.051871475
82	0xbd622690	-0.055212557
83	0x3e2c3bb9	0.16819657
84	0x3e4b6786	0.1986371
85	0xbe8b6a0a	-0.2722934
86	0x3e3f4e43	0.18682198
87	0xbe4f4f9e	-0.20245215
88	0x3dc3b4d2	0.09555973
89	0x3e635360	0.22199774
90	0x3e227769	0.15865864
91	0x3e39a2a5	0.1812845
92	0x3e897de9	0.26853874
93	0x3e3b0a50	0.18265653
94	0xbc73eb05	-0.014887576
95	0x3dad5f38	0.08465427
96	0xbdaba217	-0.083805256
97	0x3df23ae2	0.11827637
98	0x3de93a33	0.11388054
99	0x3d26e95c	0.040749893
100	0x3e94ce17	0.29063484
101	0x3e90ebcc	0.283049
102	0x3e2b44ff	0.16725539
103	0x3e5581a9	0.20850243
104	0x3e93f752	0.28899628
105	0x3e0cf2e9	0.13764538
106	0x3c10569c	0.008809712
107	0xbd840595	-0.06446377
108	0xbcb38ad4	-0.021916784
109	0xbbd61c2c	-0.00653412
110	0xbe87aa42	-0.26497084
111	0x3e3e561c	0.18587536
112	0x3e57d04a	0.2107555
113	0x3e58e12f	0.2117965
114	0x3c503bcb	0.012709568
115	0xbea99b49	-0.33126286
116	0x3ddca963	0.107744955
117	0x3e5dcd4a	0.21660343
118	0x3e92d2c4	0.28676426
119	0x3de5c1df	0.112186186
120	0xbda861c4	-0.08221772
121	0x3d83a883	0.064286254
122	0xbd3182d5	-0.04333766
123	0x3e8e6e1e	0.27818388
124	0xbe916389	-0.28396252
125	0x3e611810	0.21981835
126	0x3b456593	0.0030120357
127	0xbe1fb5be	-0.15596673
128	0x3e572bdf	0.21012829
129	0x3e4acddc	0.19805092
130	0xbdc6659c	-0.09687349
131	0x3e9cdf79	0.30639246
132	0xbdf057a8	-0.11735469
133	0xbe991d47	-0.2990515
134	0xbea80992	-0.32819802
135	0xbd98ec88	-0.0746699
136	0x3e4bd718	0.1990627
137	0x3e70258a	0.2345182
138	0xbd89fd7f	-0.06737804
139	0x3e120331	0.1425903
140	0xbda43e0b	-0.08019646
141	0xbe16caa0	-0.14725733
142	0x3eb28018	0.34863353
143	0xbe914d06	-0.28379077
144	0xbe695565	-0.22786482
145	0xbdc43577	-0.0958051
146	0x3e9181bb	0.2841929
147	0xbda5e581	-0.08100415
148	0x3d9f554c	0.07779941
149	0xbcf31943	-0.029675132
150	0x3ea7788d	0.3270916
151	0x3cb095bb	0.021555772
152	0xbea98c0d	-0.33114663
153	0x3e926151	0.28589872
154	0x3e23e2a2	0.16004422
155	0x3e939187	0.28821966
156	0xbd678c66	-0.05653038
157	0x3e26b353	0.16279344
158	0x3e94c5fc	0.290573
159	0xbcf46f4f	-0.029838232
160	0x3de8f2d0	0.11374438
161	0x3e910f6e	0.28332084
162	0x3c72316f	0.014782294
163	0xbe180bec	-0.14848298
164	0xbdb12dd3	-0.086513184
165	0x3e9f78ba	0.31146795
166	0xbda7faf8	-0.08202165
167	0xbba60646	-0.005066666
168	0xbdfd96ca	-0.12382276
169	0xbe53ea90	-0.20694947
170	0x3d63d239	0.055620406
171	0xbe80b362	-0.25136858
172	0x3d994070	0.074829936
173	0x3a83ad97	0.0010046241
174	0xbe723cd3	-0.23656015
175	0x3e013dbd	0.12621208
176	0x3e740bd4	0.23832637
177	0x3df66e88	0.12032801
178	0x3ea0cee8	0.31407857
179	0x3d1af869	0.03783456
180	0x3e672d92	0.22575977
181	0xbe236f04	-0.15960318
182	0x3e37bac7	0.17942344
183	0x3d63c9e1	0.05561245
184	0x3ccb5ccd	0.024824524
185	0x3e3a3a61	0.18186332
186	0xbdf99d60	-0.1218822
187	0xb9792b87	-0.00023762706
188	0xbe29ed1c	-0.16594356
189	0xbe493597	-0.19649349
190	0xbd1cf781	-0.038321976
191	0xbe2ccbad	-0.16874571
192	0x3e810b89	0.25204113
193	0xbc93dec3	-0.018050557
194	0x3e398d74	0.18120366
195	0x3e9cda63	0.30635366
196	0x3ac5b4f6	0.0015083838
197	0x3dc775dc	0.09739277
198	0x3ea7de87	0.32786962
199	0xbde34f29	-0.11099083
200	0x3e014c46	0.12626752
201	0x3d845540	0.06461573
202	0x3e8ce9de	0.27522177
203	0x3df485be	0.11939572
204	0x3e347ba6	0.17625293
205	0x3e574438	0.21022117
206	0x3d043030	0.032272518
207	0xbd2f8f8f	-0.042861518
208	0x3e83ed4d	0.25766984
209	0x3e6ef020	0.23333788
210	0x3d9339db	0.071887694
211	0x3e53311b	0.20624201
212	0x3e15fe66	0.14647827
213	0x3e87969d	0.26482096
214	0xbe7e4e75	-0.24834616
215	0x3dad1941	0.084520824
216	0xbced2bff	-0.028951643
217	0x3def22e3	0.11676576
218	0xbe814057	-0.252444
219	0x3d63c74a	0.05560998
220	0x3e6b9676	0.23006615
221	0xbe349d26	-0.17638072
222	0x3e534bf4	0.20634443
223	0x3eb961c7	0.3620741
224	0x3da76e51	0.08175338
225	0xbe170ad4	-0.14750224
226	0xbc619f2a	-0.013770858
227	0xbe754d64	-0.23955303
228	0xbe5ff41d	-0.21870466
229	0x3e553c8e	0.20823881
230	0x3e2402cd	0.16016693
231	0x3e8df9dd	0.27729693
232	0xbe695bfc	-0.22788996
233	0xbe6455e4	-0.2229839
234	0xbc8eb289	-0.017419117
235	0xbe700811	-0.23440577
236	0xbe52462a	-0.20534578
237	0x3e005500	0.12532425
238	0xbe164bd3	-0.14677362
239	0xbe453aec	-0.19260758
240	0x3eb0f6b2	0.34563214
241	0x3e5407a0	0.20706034
242	0xbe5dd8f3	-0.21664791
243	0x3e7ab966	0.24484786
244	0x3cf51a4a	0.029919762
245	0x3e12bc24	0.14329582
246	0x3e5c2a57	0.21500526
247	0xbc4820c2	-0.012214841
248	0xbe9ae1e6	-0.30250472
249	0x3d7a6ee8	0.061140925
250	0xbe2f496f	-0.17117856
251	0xbc8d4e14	-0.017249145
252	0x3e890292	0.26759773
253	0xbe7007c2	-0.2344046
254	0x3e377d45	0.1791888
255	0xbe40c310	-0.1882441

bias f4 [320]
0	0xbeae67e4	-0.34063637
1	0xbe533167	-0.20624314
2	0xbde8de6e	-0.1137055
3	0xbc5294cc	-0.012852859
4	0xbdad36a0	-0.084576845
5	0x3e479f5b	0.19494383
6	0xbe4cfaf6	-0.20017609
7	0xbc60aacc	-0.013712596
8	0x3eacaf34	0.3372742
9	0x3e9d038c	0.3066677
10	0x3e80955c	0.25113952
11	0x3d66675b	0.05625091
12	0x3ea41dc1	0.3205395
13	0xbd8cf9c1	-0.06883574
14	0xbcccd14c	-0.025002144
15	0xbe59b018	-0.2125858
16	0x3d9fa82b	0.07795747
17	0xbe69df44	-0.22839075
18	0x3e384ef9	0.17998876
19	0x3e94fa5f	0.29097268
20	0x3dc33aa8	0.09532672
21	0xbdf60994	-0.12013546
22	0xbe99b6ea	-0.30022365
23	0xbde5fc29	-0.11229736
24	0xbeba8054	-0.36426032
25	0x3e53894d	0.20657845
26	0x3d044d87	0.0323005
27	0x3e29ab21	0.16569187
28	0x3e66db3d	0.2254457
29	0xbe4d5330	-0.20051265
30	0xbd1d1ea1	-0.038359288
31	0xbdbb53d9	-0.09146852
32	0x3ea753b0	0.32681036
33	0xbe9b3dc6	-0.30320567
34	0xbe9aec01	-0.30258182
35	0x3e0f0591	0.13966967
36	0xbe1bf315	-0.15229447
37	0x39b36cb4	0.0003422253
38	0x3e724368	0.23658526
39	0xbd0f2e64	-0.03495635
40	0xbe28cc72	-0.1648424
41	0x3ddbd051	0.107330926
42	0xbe770847	-0.24124251
43	0x3ea523a3	0.3225375
44	0xbdd5bb14	-0.10436073
45	0xbe32e69b	-0.17470782
46	0x3dc64cd8	0.096826255
47	0xbe2e21dc	-0.17005104
48	0x3d4c8285	0.04992916
49	0xbdad00b7	-0.08447402
50	0xbe758dda	-0.23979893
51	0x3e58a4ca	0.21156612
52	0x3e5e280b	0.21694963
53	0xbba301da	-0.004974586
54	0x3e336e97	0.17522655
55	0x3ccf02fe	0.025269981
56	0x3e664a6f	0.22489332
57	0xbdbb130b	-0.091344915
58	0xbe217252	-0.15766266
59	0x3d630e69	0.055433664
60	0x3e40eb61	0.1883979
61	0x3d719a6b	0.058985155
62	0xbe15d88e	-0.1463339
63	0xbe7940f6	-0.24341187
64	0xbd65d201	-0.05610848
65	0x3d23ebd4	0.040019825
66	0xbe8d6e88	-0.2762339
67	0xbe958a0f	-0.29206893
68	0xbe440d6a	-0.19145742
69	0xbc6ed395	-0.014576812
70	0x3e542129	0.20715775
71	0x3e4bc695	0.19899972
72	0x3be976b2	0.0071247453
73	0x3e2a7cba	0.16649142
74	0x3de724b0	0.112862945
75	0xbdf1371d	-0.1177809
76	0xbe2a202d	-0.16613837
77	0xbe4bd5b2	-0.19905737
78	0xbd6b3ffb	-0.057434063
79	0xbddf65e2	-0.109081045
80	0xbe3da413	-0.1851962
81	0x3ddc7145	0.10763792
82	0xbe66714c	-0.22504157
83	0xbde0d0c6	-0.109773204
84	0x3e864def	0.26231334
85	0x3dc9bc1e	0.09850334
86	0xbe6af363	-0.22944407
87	0x3e949548	0.29020143
88	0xbd2ff8ea	-0.042961992
89	0x3e9e364d	0.30900803
90	0x3c457513	0.012051838
91	0xbd084167	-0.033265498
92	0xbe506e26	-0.20354518
93	0xbea67069	-0.32507637
94	0x3da72994	0.08162227
95	0x3e57e159	0.21082057
96	0x3df14faf	0.117827766
97	0x3d80a69c	0.06281778
98	0x3e91bc31	0.2846389
99	0xbe589918	-0.2115215
100	0xbe86f861	-0.26361373
101	0x3e1ddc15	0.15415986
102	0xbe3f7d0e	-0.18700048
103	0x3e437651	0.19088103
104	0xbc930ba0	-0.01794988
105	0xbcf63eff	-0.030059336
106	0x3e8cf8fb	0.27533707
107	0x3de4e126	0.11175756
108	0x3e746d0e	0.23869726
109	0xbe0ec653	-0.13942842
110	0x3e6a4125	0.22876413
111	0xbd189a3b	-0.03725646
112	0x3d322b4f	0.043498334
113	0x3e0bf415	0.13667329
114	0x3e597c2f	0.21238779
115	0x3e748747	0.23879729
116	0xbe7de7a4	-0.24795395
117	0x3e89f740	0.2694645
118	0x3e99eea7	0.3006489
119	0x3dca4229	0.098759
120	0xbe27a43a	-0.16371241
121	0xbc359802	-0.011083605
122	0xbe2ad210	-0.16681695
123	0xbd2f6972	-0.04282517
124	0xbe8cfda3	-0.2753726
125	0x3e71e8f6	0.23624024
126	0xbd8ff831	-0.07029761
127	0x3e3981e4	0.18115956
128	0xbe69a7f0	-0.2281797
129	0xbe4ceeef	-0.20013021
130	0xbe7e04b0	-0.24806476
131	0x3d08d2a3	0.033404004
132	0xbd4b21d2	-0.0495928
133	0x3e3f24ef	0.18666433
134	0x39b56be9	0.0003460341
135	0xbe880944	-0.2656957
136	0xbe8010f0	-0.25012922
137	0x3e43dc82	0.19127086
138	0x3e903bc4	0.28170598
139	0x399ff1ed	0.00030507092
140	0x3deb783f	0.114975445
141	0xbd8b2ede	-0.067960486
142	0xbdc9a71e	-0.09846328
143	0xbe2ef8cf	-0.170871
144	0xbdf09b05	-0.11748318
145	0xbdd3120f	-0.10306179
146	0x3dc01552	0.093790665
147	0xbe7565e1	-0.23964645
148	0x3d0a6035	0.033783156
149	0x3e866c68	0.26254582
150	0xbe139579	-0.14412488
151	0xbe0e2d7a	-0.13884535
152	0xbdbe52da	-0.092931464
153	0x3ea5fa90	0.32417727
154	0x3db1c219	0.08679599
155	0xbe7cc59f	-0.24684761
156	0x3e22a550	0.15883374
157	0x3e61e120	0.22058535
158	0xbe4532e7	-0.19257699
159	0x3e6c0067	0.23047028
160	0x3cd7d40a	0.026346225
161	0x3d0f94f3	0.03505416
162	0x3cabca2d	0.020970428
163	0xbb5b904e	-0.003350276
164	0xbd69e2b3	-0.057100963
165	0x3e40113f	0.18756579
166	0x3e0b14cf	0.13582157
167	0x3c2403f4	0.010010708
168	0xbe18d987	-0.1492673
169	0xbead563b	-0.3385485
170	0xbe897642	-0.26848036
171	0x3e84e315	0.259545
172	0x3e7e1d8c	0.24815959
173	0xbbdfbcce	-0.006827927
174	0x3e885b0d	0.26631966
175	0x3ebd0ed8	0.36925387
176	0xbd8d8ea1	-0.0691197
177	0xbe548fb8	-0.2075795
178	0xbe83d14f	-0.25745627
179	0x3eba4fe1	0.36389068
180	0xbde28040	-0.11059618
181	0xbd8e7c17	-0.06957262
182	0xbd55beba	-0.052183844
183	0x3c5afc09	0.013365754
184	0x3e2f70d4	0.17132884
185	0x3e04aa02	0.12955478
186	0x3cb5bfc0	0.02218616
187	0x3d9eb890	0.07750046
188	0x3e75da53	0.24009065
189	0x3da4ae9c	0.080411166
190	0xbdf210ec	-0.11819634
191	0x3e8fd658	0.2809322
192	0xbe8b06fb	-0.27153763
193	0xbe730ef1	-0.23736168
194	0x3e03f6fd	0.12887187
195	0x3e8358b8	0.25653625
196	0x3e9cf0db	0.30652508
197	0xbdb0c795	-0.08631817
198	0x3dc0ced3	0.094144486
199	0xbe53d8bf	-0.20688151
200	0xbe4ff1e6	-0.2030712
201	0xbd8acd6d	-0.06777463
202	0x3e187266	0.1488739
203	0xbc35de55	-0.011100371
204	0x3e1fd7d4	0.15609676
205	0xbe53d1d4	-0.20685512
206	0xbdc234ff	-0.094827645
207	0x3e39951c	0.18123287
208	0x3e96a8eb	0.2942575
209	0xbe345298	-0.17609632
210	0xbc4961dd	-0.012291399
211	0x3e7713ed	0.24128695
212	0x3d94fd51	0.07274879
213	0xbd338279	-0.0438256
214	0x3eb45727	0.35222742
215	0xbe296fa0	-0.16546488
216	0x3eb63a33	0.35591277
217	0xbcf570b8	-0.029960975
218	0xbe086016	-0.13317904
219	0x39be09dd	0.00036246973
220	0xbe90c3ad	-0.2827429
221	0x3ae2329f	0.0017257518
222	0x3e243317	0.16035114
223	0xbe8ffba0	-0.28121662
224	0x3d1064f0	0.03525251
225	0xbd8575dc	-0.065166205
226	0x3ea2c8cf	0.3179383
227	0xbe8c73f6	-0.2743222
228	0xba841d5c	-0.001007955
229	0x3eaa9eaf	0.3332419
230	0xbe9e18ca	-0.30878288
231	0xbe8a0913	-0.26960048
232	0xbd82c9c4	-0.0638614
233	0xbe85fc13	-0.2616888
234	0xb9c08aae	-0.00036724418
235	0x3e959897	0.2921798
236	0xbe5d835a	-0.21632138
237	0xbc5c11bd	-0.0134319635
238	0x3d09e849	0.03366879
239	0x3e82743e	0.2547931
240	0xbd70d7d0	-0.058799565
241	0x3e91449c	0.28372657
242	0xbe5cb4fd	-0.21553417
243	0x3c5cd753	0.013479072
244	0x3ebb7558	0.36612964
245	0xbe9921db	-0.29908642
246	0x3dffef09	0.12496764
247	0xbcf4850c	-0.029848598
248	0x39a1b522	0.00030843267
249	0xbe0466ec	-0.12929887
250	0xbdf708f7	-0.12062257
251	0xbe6ab27d	-0.2291965
252	0xbe5ba1fb	-0.2144851
253	0x3dea36a2	0.11436202
254	0xbe772b12	-0.24137524
255	0xbd95bad2	-0.07311024
