KNet/Linear_SS_With_MM/pipeline_KNet_MM_Linear_Dynamics_T100_v_positive_25dB.pt (torch, 199561 bytes, 351 tensors)

G f4 [2, 1]
0.0 1.0
00000000: 0000 0000 0000 803f

Q f4 [2, 2]
1.0 0.0 0.0 1.0
00000000: 0000 803f 0000 0000 0000 0000 0000 803f

R f4 [2, 2]
0.0031622774 0.0 0.0 0.0031622774
00000000: 363e 4f3b 0000 0000 0000 0000 363e 4f3b

prior_Q f4 [2, 2]
1.0 0.0 0.0 1.0
00000000: 0000 803f 0000 0000 0000 0000 0000 803f

prior_Sigma f4 [2, 2]
1.0 0.0 0.0 1.0
00000000: 0000 803f 0000 0000 0000 0000 0000 803f

prior_S f4 [2, 2]
1.0 0.0 0.0 1.0
00000000: 0000 803f 0000 0000 0000 0000 0000 803f

m1x_0 f4 [2]
10.0 0.0
00000000: 0000 2041 0000 0000

x_prev f4 [2]
10.0 0.0
00000000: 0000 2041 0000 0000

m2x_0 f4 [2, 2]
0.0 0.0 0.0 0.0
00000000: 0000 0000 0000 0000 0000 0000 0000 0000

QT f4 [2, 2]
1.0 0.0 0.0 1.0
00000000: 0000 803f 0000 0000 0000 0000 0000 803f

Qx f4 [2, 2]
1.0 0.0 0.0 1.0
00000000: 0000 803f 0000 0000 0000 0000 0000 803f

L f4 [1, 2]
0.57917404 1.5462112
00000000: c044 143f 40ea c53f

L f4 [1, 2]
0.57926774 1.5460253
00000000: e44a 143f 28e4 c53f

L f4 [1, 2]
0.57917404 1.5462112
00000000: c044 143f 40ea c53f

L f4 [1, 2]
0.57926774 1.5460253
00000000: e44a 143f 28e4 c53f

L f4 [1, 2]
0.57917404 1.5462112
00000000: c044 143f 40ea c53f

L f4 [1, 2]
0.57926774 1.5460253
00000000: e44a 143f 28e4 c53f

L f4 [1, 2]
0.57917404 1.5462112
00000000: c044 143f 40ea c53f

L f4 [1, 2]
0.57926774 1.5460253
00000000: e44a 143f 28e4 c53f

L f4 [1, 2]
0.57917404 1.5462112
00000000: c044 143f 40ea c53f

L f4 [1, 2]
0.57926774 1.5460253
00000000: e44a 143f 28e4 c53f

L f4 [1, 2]
0.57917404 1.5462112
00000000: c044 143f 40ea c53f

L f4 [1, 2]
0.57926774 1.5460253
00000000: e44a 143f 28e4 c53f

L f4 [1, 2]
0.57917404 1.5462112
00000000: c044 143f 40ea c53f

L f4 [1, 2]
0.57926774 1.5460253
00000000: e44a 143f 28e4 c53f

L f4 [1, 2]
0.57917404 1.5462112
00000000: c044 143f 40ea c53f

L f4 [1, 2]
0.57926774 1.5460253
00000000: e44a 143f 28e4 c53f

L f4 [1, 2]
0.57917404 1.5462112
00000000: c044 143f 40ea c53f

L f4 [1, 2]
0.57926774 1.5460253
00000000: e44a 143f 28e4 c53f

L f4 [1, 2]
0.57917404 1.5462112
00000000: c044 143f 40ea c53f

L f4 [1, 2]
0.57926774 1.5460253
00000000: e44a 143f 28e4 c53f

L f4 [1, 2]
0.57917404 1.5462112
00000000: c044 143f 40ea c53f

L f4 [1, 2]
0.57926774 1.5460253
00000000: e44a 143f 28e4 c53f

L f4 [1, 2]
0.57917404 1.5462112
00000000: c044 143f 40ea c53f

L f4 [1, 2]
0.57926774 1.5460253
00000000: e44a 143f 28e4 c53f

L f4 [1, 2]
0.57917404 1.5462112
00000000: c044 143f 40ea c53f

L f4 [1, 2]
0.57926774 1.5460253
00000000: e44a 143f 28e4 c53f

L f4 [1, 2]
0.57917404 1.5462112
00000000: c044 143f 40ea c53f

L f4 [1, 2]
0.57926774 1.5460253
00000000: e44a 143f 28e4 c53f

L f4 [1, 2]
0.57917404 1.5462112
00000000: c044 143f 40ea c53f

L f4 [1, 2]
0.57926774 1.5460253
00000000: e44a 143f 28e4 c53f

L f4 [1, 2]
0.57917404 1.5462112
00000000: c044 143f 40ea c53f

L f4 [1, 2]
0.57926774 1.5460253
00000000: e44a 143f 28e4 c53f

L f4 [1, 2]
0.57917404 1.5462112
00000000: c044 143f 40ea c53f

L f4 [1, 2]
0.57926774 1.5460253
00000000: e44a 143f 28e4 c53f

L f4 [1, 2]
0.57917404 1.5462112
00000000: c044 143f 40ea c53f

L f4 [1, 2]
0.57926774 1.5460253
00000000: e44a 143f 28e4 c53f

L f4 [1, 2]
0.57917404 1.5462112
00000000: c044 143f 40ea c53f

L f4 [1, 2]
0.57926774 1.5460253
00000000: e44a 143f 28e4 c53f

L f4 [1, 2]
0.57917404 1.5462112
00000000: c044 143f 40ea c53f

L f4 [1, 2]
0.57926774 1.5460253
00000000: e44a 143f 28e4 c53f

L f4 [1, 2]
0.57917404 1.5462112
00000000: c044 143f 40ea c53f

L f4 [1, 2]
0.57926774 1.5460253
00000000: e44a 143f 28e4 c53f

L f4 [1, 2]
0.57917404 1.5462112
00000000: c044 143f 40ea c53f

L f4 [1, 2]
0.57926774 1.5460253
00000000: e44a 143f 28e4 c53f

L f4 [1, 2]
0.57917404 1.5462112
00000000: c044 143f 40ea c53f

L f4 [1, 2]
0.57926774 1.5460253
00000000: e44a 143f 28e4 c53f

L f4 [1, 2]
0.57917404 1.5462112
00000000: c044 143f 40ea c53f

L f4 [1, 2]
0.57926774 1.5460253
00000000: e44a 143f 28e4 c53f

L f4 [1, 2]
0.57917404 1.5462112
00000000: c044 143f 40ea c53f

L f4 [1, 2]
0.57926774 1.5460253
00000000: e44a 143f 28e4 c53f

L f4 [1, 2]
0.57917404 1.5462112
00000000: c044 143f 40ea c53f

L f4 [1, 2]
0.57926774 1.5460253
00000000: e44a 143f 28e4 c53f

L f4 [1, 2]
0.57917404 1.5462112
00000000: c044 143f 40ea c53f

L f4 [1, 2]
0.57926774 1.5460253
00000000: e44a 143f 28e4 c53f

L f4 [1, 2]
0.57917404 1.5462112
00000000: c044 143f 40ea c53f

L f4 [1, 2]
0.57926774 1.5460253
00000000: e44a 143f 28e4 c53f

L f4 [1, 2]
0.57917404 1.5462112
00000000: c044 143f 40ea c53f

L f4 [1, 2]
0.57926774 1.5460253
00000000: e44a 143f 28e4 c53f

L f4 [1, 2]
0.57917404 1.5462112
00000000: c044 143f 40ea c53f

L f4 [1, 2]
0.57926774 1.5460253
00000000: e44a 143f 28e4 c53f

L f4 [1, 2]
0.57917404 1.5462112
00000000: c044 143f 40ea c53f

L f4 [1, 2]
0.57926774 1.5460253
00000000: e44a 143f 28e4 c53f

L f4 [1, 2]
0.57917404 1.5462112
00000000: c044 143f 40ea c53f

L f4 [1, 2]
0.57926774 1.5460253
00000000: e44a 143f 28e4 c53f

L f4 [1, 2]
0.57917404 1.5462112
00000000: c044 143f 40ea c53f

L f4 [1, 2]
0.57926774 1.5460253
00000000: e44a 143f 28e4 c53f

L f4 [1, 2]
0.57917404 1.5462112
00000000: c044 143f 40ea c53f

L f4 [1, 2]
0.57926774 1.5460253
00000000: e44a 143f 28e4 c53f

L f4 [1, 2]
0.57917404 1.5462112
00000000: c044 143f 40ea c53f

L f4 [1, 2]
0.57926774 1.5460253
00000000: e44a 143f 28e4 c53f

L f4 [1, 2]
0.57917404 1.5462112
00000000: c044 143f 40ea c53f

L f4 [1, 2]
0.57926774 1.5460253
00000000: e44a 143f 28e4 c53f

L f4 [1, 2]
0.57917404 1.5462112
00000000: c044 143f 40ea c53f

L f4 [1, 2]
0.57926774 1.5460253
00000000: e44a 143f 28e4 c53f

L f4 [1, 2]
0.57917404 1.5462112
00000000: c044 143f 40ea c53f

L f4 [1, 2]
0.57926774 1.5460253
00000000: e44a 143f 28e4 c53f

L f4 [1, 2]
0.57917404 1.5462112
00000000: c044 143f 40ea c53f

L f4 [1, 2]
0.57926774 1.5460253
00000000: e44a 143f 28e4 c53f

L f4 [1, 2]
0.57917404 1.5462112
00000000: c044 143f 40ea c53f

L f4 [1, 2]
0.57926774 1.5460253
00000000: e44a 143f 28e4 c53f

L f4 [1, 2]
0.57917404 1.5462112
00000000: c044 143f 40ea c53f

L f4 [1, 2]
0.57926774 1.5460253
00000000: e44a 143f 28e4 c53f

L f4 [1, 2]
0.57917404 1.5462112
00000000: c044 143f 40ea c53f

L f4 [1, 2]
0.57926774 1.5460253
00000000: e44a 143f 28e4 c53f

L f4 [1, 2]
0.57917404 1.5462112
00000000: c044 143f 40ea c53f

L f4 [1, 2]
0.57926774 1.5460253
00000000: e44a 143f 28e4 c53f

L f4 [1, 2]
0.57917404 1.5462112
00000000: c044 143f 40ea c53f

L f4 [1, 2]
0.57926774 1.5460253
00000000: e44a 143f 28e4 c53f

L f4 [1, 2]
0.57917404 1.5462112
00000000: c044 143f 40ea c53f

L f4 [1, 2]
0.57926774 1.5460253
00000000: e44a 143f 28e4 c53f

L f4 [1, 2]
0.57917404 1.5462112
00000000: c044 143f 40ea c53f

L f4 [1, 2]
0.57926774 1.5460253
00000000: e44a 143f 28e4 c53f

L f4 [1, 2]
0.57917404 1.5462112
00000000: c044 143f 40ea c53f

L f4 [1, 2]
0.57926774 1.5460253
00000000: e44a 143f 28e4 c53f

L f4 [1, 2]
0.57917404 1.5462112
00000000: c044 143f 40ea c53f

L f4 [1, 2]
0.57926774 1.5460253
00000000: e44a 143f 28e4 c53f

L f4 [1, 2]
0.5790329 1.5458374
00000000: 803b 143f 00de c53f

L f4 [1, 2]
0.57670283 1.54315
00000000: cca2 133f f085 c53f

L f4 [1, 2]
0.5616894 1.525917
00000000: e0ca 0f3f 4051 c33f

L f4 [1, 2]
0.45629883 1.4107833
00000000: 00a0 e93e 8c94 b43f

S f4 [2, 2]
2.6686792 1.7267356 1.7267356 2.880413
00000000: a4cb 2a40 ac05 dd3f ac05 dd3f b058 3840

S f4 [2, 2]
2.6681137 1.725338 1.725338 2.8782806
00000000: 60c2 2a40 e0d7 dc3f e0d7 dc3f c035 3840

S f4 [2, 2]
2.6686792 1.7267356 1.7267356 2.880413
00000000: a4cb 2a40 ac05 dd3f ac05 dd3f b058 3840

S f4 [2, 2]
2.6681137 1.725338 1.725338 2.8782806
00000000: 60c2 2a40 e0d7 dc3f e0d7 dc3f c035 3840

S f4 [2, 2]
2.6686792 1.7267356 1.7267356 2.880413
00000000: a4cb 2a40 ac05 dd3f ac05 dd3f b058 3840

S f4 [2, 2]
2.6681137 1.725338 1.725338 2.8782806
00000000: 60c2 2a40 e0d7 dc3f e0d7 dc3f c035 3840

S f4 [2, 2]
2.6686792 1.7267356 1.7267356 2.880413
00000000: a4cb 2a40 ac05 dd3f ac05 dd3f b058 3840

S f4 [2, 2]
2.6681137 1.725338 1.725338 2.8782806
00000000: 60c2 2a40 e0d7 dc3f e0d7 dc3f c035 3840

S f4 [2, 2]
2.6686792 1.7267356 1.7267356 2.880413
00000000: a4cb 2a40 ac05 dd3f ac05 dd3f b058 3840

S f4 [2, 2]
2.6681137 1.725338 1.725338 2.8782806
00000000: 60c2 2a40 e0d7 dc3f e0d7 dc3f c035 3840

S f4 [2, 2]
2.6686792 1.7267356 1.7267356 2.880413
00000000: a4cb 2a40 ac05 dd3f ac05 dd3f b058 3840

S f4 [2, 2]
2.6681137 1.725338 1.725338 2.8782806
00000000: 60c2 2a40 e0d7 dc3f e0d7 dc3f c035 3840

S f4 [2, 2]
2.6686792 1.7267356 1.7267356 2.880413
00000000: a4cb 2a40 ac05 dd3f ac05 dd3f b058 3840

S f4 [2, 2]
2.6681137 1.725338 1.725338 2.8782806
00000000: 60c2 2a40 e0d7 dc3f e0d7 dc3f c035 3840

S f4 [2, 2]
2.6686792 1.7267356 1.7267356 2.880413
00000000: a4cb 2a40 ac05 dd3f ac05 dd3f b058 3840

S f4 [2, 2]
2.6681137 1.725338 1.725338 2.8782806
00000000: 60c2 2a40 e0d7 dc3f e0d7 dc3f c035 3840

S f4 [2, 2]
2.6686792 1.7267356 1.7267356 2.880413
00000000: a4cb 2a40 ac05 dd3f ac05 dd3f b058 3840

S f4 [2, 2]
2.6681137 1.725338 1.725338 2.8782806
00000000: 60c2 2a40 e0d7 dc3f e0d7 dc3f c035 3840

S f4 [2, 2]
2.6686792 1.7267356 1.7267356 2.880413
00000000: a4cb 2a40 ac05 dd3f ac05 dd3f b058 3840

S f4 [2, 2]
2.6681137 1.725338 1.725338 2.8782806
00000000: 60c2 2a40 e0d7 dc3f e0d7 dc3f c035 3840

S f4 [2, 2]
2.6686792 1.7267356 1.7267356 2.880413
00000000: a4cb 2a40 ac05 dd3f ac05 dd3f b058 3840

S f4 [2, 2]
2.6681137 1.725338 1.725338 2.8782806
00000000: 60c2 2a40 e0d7 dc3f e0d7 dc3f c035 3840

S f4 [2, 2]
2.6686792 1.7267356 1.7267356 2.880413
00000000: a4cb 2a40 ac05 dd3f ac05 dd3f b058 3840

S f4 [2, 2]
2.6681137 1.725338 1.725338 2.8782806
00000000: 60c2 2a40 e0d7 dc3f e0d7 dc3f c035 3840

S f4 [2, 2]
2.6686792 1.7267356 1.7267356 2.880413
00000000: a4cb 2a40 ac05 dd3f ac05 dd3f b058 3840

S f4 [2, 2]
2.6681137 1.725338 1.725338 2.8782806
00000000: 60c2 2a40 e0d7 dc3f e0d7 dc3f c035 3840

S f4 [2, 2]
2.6686792 1.7267356 1.7267356 2.880413
00000000: a4cb 2a40 ac05 dd3f ac05 dd3f b058 3840

S f4 [2, 2]
2.6681137 1.725338 1.725338 2.8782806
00000000: 60c2 2a40 e0d7 dc3f e0d7 dc3f c035 3840

S f4 [2, 2]
2.6686792 1.7267356 1.7267356 2.880413
00000000: a4cb 2a40 ac05 dd3f ac05 dd3f b058 3840

S f4 [2, 2]
2.6681137 1.725338 1.725338 2.8782806
00000000: 60c2 2a40 e0d7 dc3f e0d7 dc3f c035 3840

S f4 [2, 2]
2.6686792 1.7267356 1.7267356 2.880413
00000000: a4cb 2a40 ac05 dd3f ac05 dd3f b058 3840

S f4 [2, 2]
2.6681137 1.725338 1.725338 2.8782806
00000000: 60c2 2a40 e0d7 dc3f e0d7 dc3f c035 3840

S f4 [2, 2]
2.6686792 1.7267356 1.7267356 2.880413
00000000: a4cb 2a40 ac05 dd3f ac05 dd3f b058 3840

S f4 [2, 2]
2.6681137 1.725338 1.725338 2.8782806
00000000: 60c2 2a40 e0d7 dc3f e0d7 dc3f c035 3840

S f4 [2, 2]
2.6686792 1.7267356 1.7267356 2.880413
00000000: a4cb 2a40 ac05 dd3f ac05 dd3f b058 3840

S f4 [2, 2]
2.6681137 1.725338 1.725338 2.8782806
00000000: 60c2 2a40 e0d7 dc3f e0d7 dc3f c035 3840

S f4 [2, 2]
2.6686792 1.7267356 1.7267356 2.880413
00000000: a4cb 2a40 ac05 dd3f ac05 dd3f b058 3840

S f4 [2, 2]
2.6681137 1.725338 1.725338 2.8782806
00000000: 60c2 2a40 e0d7 dc3f e0d7 dc3f c035 3840

S f4 [2, 2]
2.6686792 1.7267356 1.7267356 2.880413
00000000: a4cb 2a40 ac05 dd3f ac05 dd3f b058 3840

S f4 [2, 2]
2.6681137 1.725338 1.725338 2.8782806
00000000: 60c2 2a40 e0d7 dc3f e0d7 dc3f c035 3840

S f4 [2, 2]
2.6686792 1.7267356 1.7267356 2.880413
00000000: a4cb 2a40 ac05 dd3f ac05 dd3f b058 3840

S f4 [2, 2]
2.6681137 1.725338 1.725338 2.8782806
00000000: 60c2 2a40 e0d7 dc3f e0d7 dc3f c035 3840

S f4 [2, 2]
2.6686792 1.7267356 1.7267356 2.880413
00000000: a4cb 2a40 ac05 dd3f ac05 dd3f b058 3840

S f4 [2, 2]
2.6681137 1.725338 1.725338 2.8782806
00000000: 60c2 2a40 e0d7 dc3f e0d7 dc3f c035 3840

S f4 [2, 2]
2.6686792 1.7267356 1.7267356 2.880413
00000000: a4cb 2a40 ac05 dd3f ac05 dd3f b058 3840

S f4 [2, 2]
2.6681137 1.725338 1.725338 2.8782806
00000000: 60c2 2a40 e0d7 dc3f e0d7 dc3f c035 3840

S f4 [2, 2]
2.6686792 1.7267356 1.7267356 2.880413
00000000: a4cb 2a40 ac05 dd3f ac05 dd3f b058 3840

S f4 [2, 2]
2.6681137 1.725338 1.725338 2.8782806
00000000: 60c2 2a40 e0d7 dc3f e0d7 dc3f c035 3840

S f4 [2, 2]
2.6686792 1.7267356 1.7267356 2.880413
00000000: a4cb 2a40 ac05 dd3f ac05 dd3f b058 3840

S f4 [2, 2]
2.6681137 1.725338 1.725338 2.8782806
00000000: 60c2 2a40 e0d7 dc3f e0d7 dc3f c035 3840

S f4 [2, 2]
2.6686792 1.7267356 1.7267356 2.880413
00000000: a4cb 2a40 ac05 dd3f ac05 dd3f b058 3840

S f4 [2, 2]
2.6681137 1.725338 1.725338 2.8782806
00000000: 60c2 2a40 e0d7 dc3f e0d7 dc3f c035 3840

S f4 [2, 2]
2.6686792 1.7267356 1.7267356 2.880413
00000000: a4cb 2a40 ac05 dd3f ac05 dd3f b058 3840

S f4 [2, 2]
2.6681137 1.725338 1.725338 2.8782806
00000000: 60c2 2a40 e0d7 dc3f e0d7 dc3f c035 3840

S f4 [2, 2]
2.6686792 1.7267356 1.7267356 2.880413
00000000: a4cb 2a40 ac05 dd3f ac05 dd3f b058 3840

S f4 [2, 2]
2.6681137 1.725338 1.725338 2.8782806
00000000: 60c2 2a40 e0d7 dc3f e0d7 dc3f c035 3840

S f4 [2, 2]
2.6686792 1.7267356 1.7267356 2.880413
00000000: a4cb 2a40 ac05 dd3f ac05 dd3f b058 3840

S f4 [2, 2]
2.6681137 1.725338 1.725338 2.8782806
00000000: 60c2 2a40 e0d7 dc3f e0d7 dc3f c035 3840

S f4 [2, 2]
2.6686792 1.7267356 1.7267356 2.880413
00000000: a4cb 2a40 ac05 dd3f ac05 dd3f b058 3840

S f4 [2, 2]
2.6681137 1.725338 1.725338 2.8782806
00000000: 60c2 2a40 e0d7 dc3f e0d7 dc3f c035 3840

S f4 [2, 2]
2.6686792 1.7267356 1.7267356 2.880413
00000000: a4cb 2a40 ac05 dd3f ac05 dd3f b058 3840

S f4 [2, 2]
2.6681137 1.725338 1.725338 2.8782806
00000000: 60c2 2a40 e0d7 dc3f e0d7 dc3f c035 3840

S f4 [2, 2]
2.6686792 1.7267356 1.7267356 2.880413
00000000: a4cb 2a40 ac05 dd3f ac05 dd3f b058 3840

S f4 [2, 2]
2.6681137 1.725338 1.725338 2.8782806
00000000: 60c2 2a40 e0d7 dc3f e0d7 dc3f c035 3840

S f4 [2, 2]
2.6686792 1.7267356 1.7267356 2.880413
00000000: a4cb 2a40 ac05 dd3f ac05 dd3f b058 3840

S f4 [2, 2]
2.6681137 1.725338 1.725338 2.8782806
00000000: 60c2 2a40 e0d7 dc3f e0d7 dc3f c035 3840

S f4 [2, 2]
2.6686792 1.7267356 1.7267356 2.880413
00000000: a4cb 2a40 ac05 dd3f ac05 dd3f b058 3840

S f4 [2, 2]
2.6681137 1.725338 1.725338 2.8782806
00000000: 60c2 2a40 e0d7 dc3f e0d7 dc3f c035 3840

S f4 [2, 2]
2.6686792 1.7267356 1.7267356 2.880413
00000000: a4cb 2a40 ac05 dd3f ac05 dd3f b058 3840

S f4 [2, 2]
2.6681137 1.725338 1.725338 2.8782806
00000000: 60c2 2a40 e0d7 dc3f e0d7 dc3f c035 3840

S f4 [2, 2]
2.6686792 1.7267356 1.7267356 2.880413
00000000: a4cb 2a40 ac05 dd3f ac05 dd3f b058 3840

S f4 [2, 2]
2.6681137 1.725338 1.725338 2.8782806
00000000: 60c2 2a40 e0d7 dc3f e0d7 dc3f c035 3840

S f4 [2, 2]
2.6686792 1.7267356 1.7267356 2.880413
00000000: a4cb 2a40 ac05 dd3f ac05 dd3f b058 3840

S f4 [2, 2]
2.6681137 1.725338 1.725338 2.8782806
00000000: 60c2 2a40 e0d7 dc3f e0d7 dc3f c035 3840

S f4 [2, 2]
2.6686792 1.7267356 1.7267356 2.880413
00000000: a4cb 2a40 ac05 dd3f ac05 dd3f b058 3840

S f4 [2, 2]
2.6681137 1.725338 1.725338 2.8782806
00000000: 60c2 2a40 e0d7 dc3f e0d7 dc3f c035 3840

S f4 [2, 2]
2.6686792 1.7267356 1.7267356 2.880413
00000000: a4cb 2a40 ac05 dd3f ac05 dd3f b058 3840

S f4 [2, 2]
2.6681137 1.725338 1.725338 2.8782806
00000000: 60c2 2a40 e0d7 dc3f e0d7 dc3f c035 3840

S f4 [2, 2]
2.6686792 1.7267356 1.7267356 2.880413
00000000: a4cb 2a40 ac05 dd3f ac05 dd3f b058 3840

S f4 [2, 2]
2.6681137 1.725338 1.725338 2.8782806
00000000: 60c2 2a40 e0d7 dc3f e0d7 dc3f c035 3840

S f4 [2, 2]
2.6686792 1.7267356 1.7267356 2.880413
00000000: a4cb 2a40 ac05 dd3f ac05 dd3f b058 3840

S f4 [2, 2]
2.6681137 1.725338 1.725338 2.8782806
00000000: 60c2 2a40 e0d7 dc3f e0d7 dc3f c035 3840

S f4 [2, 2]
2.6686792 1.7267356 1.7267356 2.880413
00000000: a4cb 2a40 ac05 dd3f ac05 dd3f b058 3840

S f4 [2, 2]
2.6681137 1.725338 1.725338 2.8782806
00000000: 60c2 2a40 e0d7 dc3f e0d7 dc3f c035 3840

S f4 [2, 2]
2.6686792 1.7267356 1.7267356 2.880413
00000000: a4cb 2a40 ac05 dd3f ac05 dd3f b058 3840

S f4 [2, 2]
2.6681137 1.725338 1.725338 2.8782806
00000000: 60c2 2a40 e0d7 dc3f e0d7 dc3f c035 3840

S f4 [2, 2]
2.6686792 1.7267356 1.7267356 2.880413
00000000: a4cb 2a40 ac05 dd3f ac05 dd3f b058 3840

S f4 [2, 2]
2.6681137 1.725338 1.725338 2.8782806
00000000: 60c2 2a40 e0d7 dc3f e0d7 dc3f c035 3840

S f4 [2, 2]
2.6686792 1.7267356 1.7267356 2.880413
00000000: a4cb 2a40 ac05 dd3f ac05 dd3f b058 3840

S f4 [2, 2]
2.6681137 1.725338 1.725338 2.8782806
00000000: 60c2 2a40 e0d7 dc3f e0d7 dc3f c035 3840

S f4 [2, 2]
2.6686792 1.7267356 1.7267356 2.880413
00000000: a4cb 2a40 ac05 dd3f ac05 dd3f b058 3840

S f4 [2, 2]
2.6681137 1.725338 1.725338 2.8782806
00000000: 60c2 2a40 e0d7 dc3f e0d7 dc3f c035 3840

S f4 [2, 2]
2.6686792 1.7267356 1.7267356 2.880413
00000000: a4cb 2a40 ac05 dd3f ac05 dd3f b058 3840

S f4 [2, 2]
2.6681137 1.725338 1.725338 2.8782806
00000000: 60c2 2a40 e0d7 dc3f e0d7 dc3f c035 3840

S f4 [2, 2]
2.6686792 1.7267356 1.7267356 2.880413
00000000: a4cb 2a40 ac05 dd3f ac05 dd3f b058 3840

S f4 [2, 2]
2.6678572 1.7254701 1.7254701 2.8786392
00000000: 2cbe 2a40 34dc dc3f 34dc dc3f a03b 3840

S f4 [2, 2]
2.6654506 1.7234268 1.7234268 2.8778381
00000000: be96 2a40 4099 dc3f 4099 dc3f 802e 3840

S f4 [2, 2]
2.6507826 1.7078452 1.7078452 2.860798
00000000: 6ca6 2940 ac9a da3f ac9a da3f 5017 3740

S f4 [2, 2]
2.5437012 1.589042 1.589042 2.7288609
00000000: 00cc 2240 ba65 cb3f ba65 cb3f a8a5 2e40

S f4 [2, 2]
2.0 1.0 1.0 2.0908203
00000000: 0000 0040 0000 803f 0000 803f 00d0 0540

L_infinite f4 [1, 2]
0.5791709 1.545627
00000000: 8b44 143f 1bd7 c53f

weight_ih_l0 f4 [12, 10]
-0.39402083 -0.29463935 0.20370756 -0.28432196 0.14633518 -0.15570566 -0.30997607 -0.29005995
0.48207775 0.2634269 -0.27990428 0.3813859 -0.25205395 -0.033421293 -0.22276805 -0.37300935
0.37588122 0.09894737 -0.21273753 0.12556018 -0.16310364 0.1779079 -0.025237815 0.15865782
-0.27601805 -0.35061723 0.4365607 0.021379922 0.3861548 0.40073565 0.1638363 -0.24172992
0.01807831 0.21157432 -0.3802532 -0.3860608 0.3348155 0.09629096 -0.46564245 -0.08763344
0.32391065 0.1332822 -0.39887458 -0.1906624 0.13699248 -0.46963125 0.0032391113 0.18284446
-0.44708318 0.20345573 0.28098404 0.46532115 0.3794164 -0.125608 0.139504 -0.19654733
0.4498343 0.18110043 0.32535228 -0.16873561 -0.50034064 -0.38529226 0.04524125 0.005430238
-0.23540026 0.31191984 -0.36928618 0.4226215 0.42115638 -0.036532395 -0.18694134 -0.24930042
0.14840294 -0.031521995 -0.033720948 -0.17503877 -0.3635679 -0.2313141 0.3111583 -0.10205163
0.06407542 -0.5026196 0.12451413 -0.203178 -0.34678513 0.07090354 0.30232874 -0.29324722
0.060741834 0.067802176 0.38991743 0.032886304 0.29740468 -0.09628793 -0.2395763 -0.49236575
-0.034920577 -0.38683495 -0.04784617 -0.11790468 -0.3405041 -0.3652172 0.00978002 0.18741041
-0.11390546 0.19415712 -0.44281122 0.29887366 -0.40747657 0.45380914 0.20789976 -0.11629673
0.35161504 -0.014922988 -0.14330706 0.2396325 0.25827542 0.14310792 0.2429125 0.45359918
00000000: 19bd c9be f8da 96be b798 503e a692 91be
00000010: e4d8 153e 4e71 1fbe 2fb5 9ebe bd82 94be
00000020: e5d2 f63e e4df 863e 9d4f 8fbe 0345 c33e
00000030: 370d 81be c4e4 08bd 4f1d 64be 15fb bebe
00000040: 8173 c03e eba4 ca3d ded7 59be d992 003e
00000050: a404 27be 7d2d 363e 89bf cebc 3277 223e
00000060: 3d52 8dbe 1a84 b3be e284 df3e f224 af3c
00000070: 15b6 c53e 392d cd3e b4c4 273e 0c88 77be
00000080: f718 943c f0a6 583e 8cb0 c2be c3a9 c5be
00000090: f06c ab3e 3234 c53d b068 eebe 2979 b3bd
000000a0: 9ed7 a53e 217b 083e 4a39 ccbe 013d 43be
000000b0: c247 0c3e 8273 f0be 4547 543b 943b 3b3e
000000c0: 16e8 e4be b356 503e 24dd 8f3e 933e ee3e
000000d0: de42 c23e 629f 00be 23da 0e3e b443 49be
000000e0: ae50 e63e 6472 393e 9394 a63e 07c9 2cbe
000000f0: 5316 00bf 0745 c5be e44e 393d 23f0 b13b
00000100: c40c 71be f5b3 9f3e 1413 bdbe d861 d83e
00000110: cfa1 d73e fea2 15bd 8d6d 3fbe 9c48 7fbe
00000120: f1f6 173e 351d 01bd fa1e 0abd 5d3d 33be
00000130: 9225 babe 9add 6cbe 2450 9f3e 7200 d1bd
00000140: f939 833d aeab 00bf 4401 ff3d e50d 50be
00000150: d28d b1be e035 913d d5ca 9a3e 8024 96be
00000160: 6ecc 783d dedb 8a3d 42a3 c73e cab3 063d
00000170: 6d45 983e 9b32 c5bd 7d53 75be 5d17 fcbe
00000180: e108 0fbd 3b0f c6be 58fa 43bd 0278 f1bd
00000190: 8e56 aebe c0fd babe 613c 203c 84e8 3f3e
000001a0: 4447 e9bd 20d1 463e 27b8 e2be f805 993e
000001b0: c5a0 d0be ac59 e83e ade3 543e fb2c eebd
000001c0: e306 b43e 8c7f 74bc 16bf 12be 3962 753e
000001d0: ad3c 843e e28a 123e 0ebe 783e 273e e83e

weight_hh_l0 f4 [12, 4]
0.1627142 -0.010095377 0.111691914 0.14893956 -0.448544 -0.47160378 0.09066528 -0.17681205
-0.17120053 -0.3448861 0.39710736 0.3463685 -0.3459556 0.07489456 -0.40332565 0.08710238
-0.057956446 -0.18483941 -0.3744082 -0.03135454 0.36316025 0.44657835 -0.4159603 0.16027918
0.381957 -0.2586683 -0.10178506 0.43568394 0.26877376 -0.4854219 0.042550758 -0.17630444
-0.2262392 -0.16510195 -0.058047563 0.15514259 -0.28226066 0.33803037 0.38331667 -0.000906066
-0.090603255 0.15123528 0.05868815 -0.45284632 0.08683514 -0.18135728 -0.4668386 0.3771087
00000000: 8d9e 263e 1567 25bc bbbe e43d 9d83 183e
00000010: 8fa7 e5be 0d76 f1be b8ae b93d 380e 35be
00000020: 314f 2fbe e994 b0be a851 cb3e 3657 b13e
00000030: 1821 b1be 5262 993d b380 cebe bc62 b23d
00000040: bd63 6dbd 8b46 3dbe 6eb2 bfbe 9e6d 00bd
00000050: 24f0 b93e eba5 e43e c0f8 d4be 3a20 243e
00000060: de8f c33e 2c70 84be af74 d0bd f711 df3e
00000070: b79c 893e 3889 f8be b449 2e3d 2789 34be
00000080: 40ab 67be 7c10 29be 48c3 6dbd b3dd 1e3e
00000090: 7884 90be 5112 ad3e 1542 c43e 0f85 6dba
000000a0: 338e b9bd 6cdd 1a3e fc62 703d 79db e7be
000000b0: 9fd6 b13d b9b5 39be 7805 efbe 6414 c13e

bias_ih_l0 f4 [12]
0.21210738 0.09951809 -0.024635775 0.1306562 0.33268937 0.13860445 -0.0034885167 -0.19741286
-0.3318271 0.3686011 -0.33031073 0.4702998
00000000: ad32 593e 24d0 cb3d f7d0 c9bc bdca 053e
00000010: 4356 aa3e 53ee 0d3e 999f 64bb 9926 4abe
00000020: 3ee5 a9be 49b9 bc3e 7d1e a9be 23cb f03e

bias_hh_l0 f4 [12]
0.03656414 -0.14346203 -0.3901757 0.400026 0.49219894 -0.16727094 0.39485765 0.11378528
0.1986167 -0.11887409 0.290461 -0.07056079
00000000: 48c4 153d b6e7 12be 1cc5 c7be 35d0 cc3e
00000010: 8001 fc3e 1349 2bbe c82a ca3e 4208 e93d
00000020: 2d62 4b3e 4274 f3bd 4eb7 943e 2d82 90bd

weight_ih_l0 f4 [12, 14]
0.012695306 -0.40122887 -0.027032053 -0.36928257 -0.5102836 -0.31645545 0.01690809 -0.20092714
0.21978359 -0.25767976 -0.07875747 0.40424466 -0.10863763 0.06392187 -0.3550108 0.09504191
-0.23174389 0.45635945 -0.28795278 -0.20043612 0.4497197 0.09949873 0.48607016 0.051542435
0.11713575 -0.025330568 0.00036685195 -0.25416833 0.009421839 -0.27136138 -0.49581337 -0.2212034
-0.19734417 -0.45784777 0.26650527 0.2265098 -0.34534726 0.15778281 0.39716935 -0.4161283
0.007406602 0.14955251 0.3234104 0.42442125 -0.27948818 0.060644623 0.34852433 -0.20635362
-0.10654001 0.05215356 -0.29603416 -0.34664747 -0.37988162 -0.022880359 -0.30630302 0.17475478
-0.04764245 0.2685985 0.03445719 -0.14648627 -0.1515532 -0.21170378 -0.2517355 0.3919311
0.12961204 -0.028059024 -0.098902486 -0.38975945 -0.014887449 0.4714412 0.09260212 -0.3757186
-0.053280614 -0.04671213 0.13911931 0.119463235 -0.32383546 0.27158335 -0.13647762 -0.031019099
0.48691657 -0.11426819 -0.34153762 0.0338091 0.13067755 -0.045369174 -0.087968014 0.3838774
0.38234493 0.28828925 0.46672097 0.08757238 0.08767187 -0.4211857 -0.17520164 -0.17242002
-0.34757853 0.18837321 -0.24235633 0.16458397 -0.25405037 -0.20049977 -0.3370372 -0.28323877
-0.26907283 -0.25434667 -0.39395773 -0.034844067 -0.022553723 -0.34782058 -0.3341353 -0.4054144
-0.04546499 0.0968034 -0.44599673 -0.26049638 0.26862267 -0.33846825 0.38506556 0.06077829
0.081192635 -0.0039449763 0.29695648 -0.447612 -0.17503393 -0.25351 0.0365492 -0.3973473
-0.5049173 -0.44724444 -0.18319598 -0.150038 0.054467753 -0.48494646 0.50312245 -0.081735894
-0.074799374 -0.46308228 -0.369304 0.08190633 -0.43581623 -0.066238776 0.061054632 -0.19319715
0.222794 0.09241363 0.30742815 -0.3679203 -0.38334003 0.21689984 -0.48116255 -0.20657986
-0.0861579 -0.14769529 0.35582483 0.3488208 -0.09938457 0.023640528 0.19544846 -0.24949476
-0.04924685 -0.3782051 -0.29749224 -0.23485358 -0.2976483 0.23487683 0.18385075 0.37009513
00000000: f9ff 4f3c df6d cdbe 5372 ddbc 9b12 bdbe
00000010: f2a1 02bf 7306 a2be d682 8a3c d8bf 4dbe
00000020: f30e 613e 9aee 83be 994b a1bd 28f9 ce3e
00000030: 687d debd 78e9 823d fac3 b5be 55a5 c23d
00000040: 454e 6dbe f2a7 e93e 8c6e 93be 203f 4dbe
00000050: a941 e63e fdc5 cb3d 30de f83e 291e 533d
00000060: dee4 ef3d 0d82 cfbc 0956 c039 5a22 82be
00000070: 0f5e 1a3c e1ef 8abe 40db fdbe 2583 62be
00000080: 9714 4abe 066b eabe 6173 883e 2ff2 673e
00000090: 5bd1 b0be d191 213e c859 cb3e c50e d5be
000000a0: 15b3 f23b 4b24 193e 0c96 a53e be4d d93e
000000b0: 1319 8fbe 7f66 783d c871 b23e 5d4e 53be
000000c0: a631 dabd f99e 553d ca91 97be c77b b1be
000000d0: d87f c2be 976f bbbc c0d3 9cbe ebf2 323e
000000e0: bb24 43bd be85 893e fc22 0d3d 7f00 16be
000000f0: c330 1bbe e0c8 58be 7ae3 80be 31ab c83e
00000100: 05b9 043e 0adc e5bc 638d cabd 8d8e c7be
00000110: 7dea 73bc be60 f13e 2ea6 bd3d 305e c0be
00000120: c63c 5abd 3855 3fbd 4b75 0e3e 24a9 f43d
00000130: c3cd a5be f90c 8b3e cac0 0bbe c41b febc
00000140: 214d f93e 7105 eabd 05de aebe 697b 0a3d
00000150: 56d0 053e 07d5 39bd 9328 b4bd 948b c43e
00000160: b7c2 c33e a69a 933e 0df6 ee3e 2659 b33d
00000170: 4f8d b33d a7a5 d7be 0f68 33be e08e 30be
00000180: d0f5 b1be e8e4 403e 422c 78be b388 283e
00000190: e412 82be d04f 4dbe 2490 acbe ac04 91be
000001a0: eac3 89be ba39 82be d4b4 c9be a7b8 0ebd
000001b0: 96c2 b8bc 8a15 b2be c813 abbe 7a92 cfbe
000001c0: 7f39 3abd dc40 c63d af59 e4be c85f 85be
000001d0: e988 893e b64b adbe 5027 c53e a8f2 783d
000001e0: 5348 a63d dc44 81bb ae0a 983e 662d e5be
000001f0: 183c 33be 10cc 81be 9db4 153d 1b71 cbbe
00000200: 4342 01bf 39fd e4be ba97 3bbe 90a3 19be
00000210: 9419 5f3d e74a f8be a2cc 003f 2665 a7bd
00000220: 6a30 99bd 1f19 edbe 6a15 bdbe 82be a73d
00000230: 4e23 dfbe 32a8 87bd 6c14 7a3d 79d5 45be
00000240: 1c24 643e 5b43 bd3d 3967 9d3e 0d60 bcbe
00000250: 2545 c4be fe1a 5e3e f05a f6be ac89 53be
00000260: 8e73 b0bd 6f3d 17be ac2e b63e a498 b23e
00000270: 238a cbbd c8a9 c13c a423 483e 8e7b 7fbe
00000280: 11b7 49bd 19a4 c1be e750 98be 757d 70be
00000290: 5c65 98be 8d83 703e 5f43 3c3e 1c7d bd3e

weight_hh_l0 f4 [12, 4]
-0.1999269 -0.4229766 -0.37254307 -0.16864255 -0.43800446 -0.33858347 -0.22887643 0.350244
0.007831606 -0.23028097 -0.123713456 -0.31920475 -0.39770487 -0.22332834 0.47750878 -0.2697918
-0.18948373 -0.2514452 0.42059496 0.34683815 -0.42546642 -0.027186649 -0.4106628 0.26805043
-0.43280935 -0.17142071 0.19522668 -0.07179339 -0.24864234 0.41476312 0.3421044 0.12408872
-0.35242987 -0.095005065 0.038760595 0.016177934 0.428991 0.40241206 -0.12416061 -0.45488122
0.25999463 0.45802373 -0.47509256 0.1640086 0.070306964 -0.42425537 -0.108405925 0.14617036
00000000: a3b9 4cbe 6490 d8be f7bd bebe a2b0 2cbe
00000010: 1f42 e0be d05a adbe 955e 6abe 2e53 b33e
00000020: 2350 003c c6ce 6bbe 7b5d fdbd ce6e a3be
00000030: f99f cbbe 2fb0 64be 087c f43e 2722 8abe
00000040: 0608 42be 6dbd 80be 3958 d73e c594 b13e
00000050: bcd6 d9be 89b6 debc 6542 d2be e83d 893e
00000060: 3099 ddbe e988 2fbe 81e9 473e 6a08 93bd
00000070: 199c 7ebe d55b d43e 4f28 af3e 3a22 fe3d
00000080: b071 b4be 0492 c2bd 6ec3 1e3d 9687 843c
00000090: b5a4 db3e f408 ce3e eb47 febd 31e6 e8be
000000a0: 041e 853e 1682 ea3e 553f f3be dff1 273e
000000b0: 19fd 8f3d 0038 d9be ed03 debd afad 153e

bias_ih_l0 f4 [12]
-0.4933311 -0.20378496 -0.3016166 -0.15451513 -0.06592983 0.14176407 -0.045716558 0.2628308
-0.16766684 0.021101661 0.42376328 -0.3574272
00000000: e595 fcbe 01ad 50be 7e6d 9abe 3739 1ebe
00000010: 3806 87bd 9a2a 113e 4941 3bbd c291 863e
00000020: dbb0 2bbe 64dd ac3c 80f7 d83e b300 b7be

bias_hh_l0 f4 [12]
0.21005134 -0.0981657 -0.106666565 -0.1678875 0.28640914 -0.10646857 0.09550421 0.17647249
-0.017020073 0.38176528 -0.4299379 -0.13298064
00000000: b317 573e 190b c9bd 0074 dabd b3ea 2bbe
00000010: 38a4 923e 320c dabd b697 c33d 34b5 343e
00000020: ae6d 8bbc bd76 c33e d220 dcbe 142c 08be

weight_ih_l0 f4 [12, 24]
0.46372038 -0.25926432 -0.22347471 -0.26594833 -0.34938905 -0.015112674 -0.17651148 -0.06732461
0.291883 -0.3978773 -0.09185973 0.27998558 0.2879791 0.43121818 -0.34278977 -0.20362797
-0.15364678 -0.19914928 -0.129713 -0.33507448 0.40858918 -0.16622414 0.11713344 -0.035590183
0.2550104 0.40499663 -0.00014845187 -0.12652817 -0.316599 -0.42556828 0.17307587 0.15871648
0.26224646 0.291686 -0.37372407 -0.24728929 0.036393188 -0.11048257 -0.516635 -0.4502336
0.38876665 -0.094363004 0.35391688 0.4096366 -0.33098912 -0.3167611 0.0028751304 -0.16979462
0.01677873 0.43036708 -0.21381216 -0.15969472 0.15410128 0.156094 -0.17943235 -0.41868937
0.11923365 0.19828066 0.033789996 0.042540237 -0.3268029 -0.3232201 0.25432044 -0.32022554
-0.019726655 0.021464808 -0.00959858 0.3667242 -0.3054089 0.18834795 0.16360104 0.33378556
0.03194816 0.40172845 0.00030731747 -0.41792443 -0.39176172 -0.46927398 0.45380253 -0.032166462
-0.18102776 -0.4107031 0.20588854 -0.005014001 -0.38339728 0.07586134 -0.25133938 -0.32666254
0.37786976 -0.10783463 -0.15651682 0.26439598 0.30569065 -0.116805844 0.18283908 -0.21207216
0.023190666 -0.45024538 0.42673114 0.35944983 -0.41179398 -0.27748275 0.25034586 0.3160203
-0.15539189 0.23829387 -0.37691903 0.05774858 -0.08171216 0.3876851 -0.2934459 0.33243513
0.07546768 0.43083984 -0.028541774 0.2855336 -0.4488941 -0.09541904 -0.04894248 0.23767562
0.29481494 0.40293172 -2.1708498e-05 -0.022549434 0.2049975 -0.46953464 0.44041514 -0.35629344
0.42426082 -0.08329782 -0.4626935 -0.20455521 0.35829204 0.053016465 -0.24843508 0.1562125
0.04689455 0.08010314 -0.11617307 0.39216128 0.40712935 -0.39430183 -0.19198056 0.15624496
0.4421858 -0.44516122 -0.10402895 0.4490287 0.41942185 0.10161815 0.113450974 0.43792877
0.4843553 0.021142377 -0.32389137 0.091508396 0.09213244 0.33269367 -0.31774563 0.015177714
-0.23036698 -0.41358867 0.42133373 -0.29601145 -0.4555291 0.27255055 -0.27891037 -0.3162354
0.48395538 0.424953 -0.034115296 -0.29847258 0.4855826 0.5090509 -0.15149215 0.29047027
-0.18883175 -0.05080973 0.07548975 0.11507121 -0.22020496 -0.22534686 0.12574898 0.22855009
-0.437873 -0.30469176 0.2359408 -0.014125225 0.30493265 -0.18259439 0.1566015 -0.071094096
-0.3892417 0.11832791 0.19255802 -0.121112764 0.001873789 -0.31037652 0.114460886 -0.19108343
-0.22571322 -0.493711 -0.28893363 0.04636288 -0.23960352 -0.3520442 0.38367668 -0.51374626
0.4581522 -0.17710446 -0.32252282 -0.39650077 0.3392995 0.09597538 0.31785622 0.44061792
0.05580719 0.05903802 0.2581031 -0.1770629 0.10041015 0.40546024 -0.14267628 -0.47419277
-0.48656592 -0.37818366 0.35993603 0.28136504 -0.21291135 -0.23726194 -0.17320679 0.004388596
-0.40912205 -0.35706192 0.005305236 0.13200328 -0.5089556 0.04455002 -0.1492342 0.4307339
-0.11630471 0.5065994 0.024674928 0.3979605 -0.42028195 0.05050028 0.399092 0.41676244
-0.18343113 -0.4083484 0.07261388 -0.25385824 -0.07339859 0.045501284 0.22804923 0.46375725
00000000: c26c ed3e 4bbe 84be 8ed6 64be 612a 88be
00000010: 1fe3 b2be 269b 77bc 6dbf 34be 7ce1 89bd
00000020: b071 953e 93b6 cbbe f420 bcbd 455a 8f3e
00000030: ff71 933e a1c8 dc3e 2482 afbe da83 50be
00000040: 9555 1dbe caed 4bbe 7cd3 04be e28e abbe
00000050: 9a32 d13e a936 2abe a8e3 ef3d 03c7 11bd
00000060: b990 823e b85b cf3e bfa9 1bb9 9a90 01be
00000070: 4419 a2be 16e4 d9be cd3a 313e 9386 223e
00000080: 2b45 863e de57 953e c358 bfbe 6739 7dbe
00000090: 0611 153d b044 e2bd 3142 04bf 0585 e6be
000000a0: 6c0c c73e 6441 c1bd 9834 b53e e3bb d13e
000000b0: 6877 a9be 832e a2be af6c 3c3b a4de 2dbe
000000c0: 8c73 893c 1359 dc3e 93f1 5abe 0387 23be
000000d0: bacc 1d3e 1bd7 1f3e 1dbd 37be 745e d6be
000000e0: c630 f43d 160a 4b3e 6167 0a3d ac3e 2e3d
000000f0: b652 a7be 1b7d a5be 4a36 823e 9af4 a3be
00000100: cb99 a1bc f7d6 af3c 5d43 1dbc 46c3 bb3e
00000110: 8e5e 9cbe 49de 403e 0887 273e f1e5 aa3e
00000120: 13dc 023d 5aaf cd3e 741f a139 31fa d5be
00000130: fe94 c8be ae44 f0be ce58 e83e fbc0 03bd
00000140: 575f 39be ad47 d2be 72d4 523e 7d4c a4bb
00000150: a64c c4be 315d 9b3d 8eaf 80be 5040 a7be
00000160: 2578 c13e 67d8 dcbd f245 20be e95e 873e
00000170: 7c83 9c3e e737 efbd 2b3a 3b3e 7229 59be
00000180: 5afa bd3c 9086 e6be 817c da3e cf09 b83e
00000190: a9d6 d2be 3812 8ebe 552d 803e 6acd a13e
000001a0: 0d1f 1fbe 4f03 743e 88fb c0be c689 6c3d
000001b0: b458 a7bd a97e c63e 8a3e 96be f034 aa3e
000001c0: cd8e 9a3d 0a97 dc3e 70d0 e9bc 7631 923e
000001d0: 73d5 e5be 0f6b c3bd e977 48bd 3d61 733e
000001e0: fcf1 963e 114d ce3e a51a b6b7 97b9 b8bc
000001f0: ddea 513e d866 f0be 187e e13e 186c b6be
00000200: b738 d93e 0c98 aabd 2ae6 ecbe ec76 51be
00000210: 0e72 b73e cb27 593d c465 7ebe 2bf6 1f3e
00000220: 8014 403d 1d0d a43d 26ec edbd 5dc9 c83e
00000230: 4273 d03e eee1 c9be 8d96 44be aefe 1f3e
00000240: 2d66 e23e 2cec e3be 210d d5bd 17e7 e53e
00000250: 76be d63e 2d1d d03d fc58 e83d 3338 e03e
00000260: 6bfd f73e c732 ad3c 17d5 a5be c168 bb3d
00000270: efaf bc3d d356 aa3e 8eaf a2be f2ab 783c
00000280: 52e5 6bbe e5c1 d3be 0eb9 d73e d08e 97be
00000290: 1c3b e9be bf8b 8b3e 57cd 8ebe 9be9 a1be
000002a0: 00c9 f73e 7193 d93e 7bbc 0bbd 66d1 98be
000002b0: 489e f83e 2951 023f c220 1bbe 85b8 943e
000002c0: 1c5d 41be dd1d 50bd 5f9a 9a3d 74aa eb3d
000002d0: 697d 61be 54c1 66be 57c4 003e 0909 6a3e
000002e0: e430 e0be 8f00 9cbe 779a 713e 7d6d 67bc
000002f0: 2220 9c3e 06fa 3abe 255c 203e c899 91bd
00000300: b04a c7be e755 f23d ee2d 453e f809 f8bd
00000310: ed99 f53a ace9 9ebe 786a ea3d 60ab 43be
00000320: 5e21 67be b0c7 fcbe 1cef 93be 01e7 3d3d
00000330: a05a 75be 233f b4be 4571 c43e e084 03bf
00000340: ed92 ea3e df5a 35be b621 a5be 2602 cbbe
00000350: aab8 ad3e bd8e c43d 0dbe a23e ac98 e13e
00000360: 1496 643d dad1 713d 1726 843e fa4f 35be
00000370: d6a3 cd3d 7c98 cf3e bb19 12be 65c9 f2be
00000380: 2b1f f9be 4aa1 c1be 8949 b83e 140f 903e
00000390: 6f05 5abe cbf4 72be 1f5d 31be 36ce 8f3b
000003a0: 7278 d1be d2d0 b6be 8cd7 ad3b de2b 073e
000003b0: ea4a 02bf 157a 363d dad0 18be 2789 dc3e
000003c0: 2a31 eebd 80b0 013f 1323 ca3c 7bc1 cb3e
000003d0: 322f d7be 62d9 4e3d c955 cc3e e361 d53e
000003e0: 5fd5 3bbe 0b13 d1be 96b6 943d b5f9 81be
000003f0: 0052 96bd 8e5f 3a3d bd85 693e 9771 ed3e

weight_hh_l0 f4 [12, 4]
-0.35736054 0.43749526 -0.13365346 0.4712015 0.21503092 0.4693913 0.12143374 0.16081959
-0.24186869 0.3422414 -0.2456538 -0.16483404 0.010874495 0.20268226 0.4607354 0.26288763
-0.29051676 -0.294977 -0.18025252 0.11908422 0.09037203 -0.20421468 -0.18771136 -0.38418424
-0.22300252 -0.36701554 0.3263639 0.43727162 -0.19311991 0.32858482 -0.3909769 0.35048288
-0.0052386974 0.3501803 -0.35300893 -0.38017958 -0.006946365 0.1956439 0.19362327 -0.35672337
-0.39203572 -0.50114477 0.350982 -0.14413826 -0.30577093 -0.3109275 -0.37413692 0.007558836
00000000: f6f7 b6be 61ff df3e 74dc 08be 5341 f13e
00000010: 1131 5c3e 0e54 f03e 41b2 f83d e4ad 243e
00000020: 6dac 77be 443a af3e ab8c 7bbe 41ca 28be
00000030: f02a 323c f08b 4f3e 83e5 eb3e 3599 863e
00000040: 9dbe 94be 3a07 97be 1e94 38be 6de2 f33d
00000050: f914 b93d a71d 51be 6837 40be ccb3 c4be
00000060: c65a 64be 76e9 bbbe 2b19 a73e 11e2 df3e
00000070: 3ac1 45be 453c a83e 202e c8be 7e72 b33e
00000080: 61a9 abbb d54a b33e 96bd b4be e6a6 c2be
00000090: 559e e3bb e056 483e 2e45 463e 72a4 b6be
000000a0: e8b8 c8be 064b 00bf eab3 b33e fb98 13be
000000b0: 028e 9cbe e431 9fbe e08e bfbe 1db0 f73b

bias_ih_l0 f4 [12]
0.048288245 -0.1528107 -0.18599443 -0.22933498 -0.11942737 0.0677994 0.41438046 0.45652315
0.13695583 -0.16708274 0.2583082 -0.49279463
00000000: e5c9 453d 687a 1cbe 5375 3ebe cad6 6abe
00000010: 5696 f4bd 69da 8a3d ad29 d43e 67bd e93e
00000020: 263e 0c3e bd17 2bbe f940 843e 944f fcbe

bias_hh_l0 f4 [12]
0.34496716 0.20003101 0.36717582 -0.079271056 0.34525385 -0.4616098 -0.4338958 0.44637385
-0.40346417 -0.0013317353 -0.36691767 -0.18374047
00000000: 899f b03e eed4 4c3e 78fe bb3e dd58 a2bd
00000010: 1dc5 b03e 1f58 ecbe 9727 debe 1d8b e43e
00000020: db92 cebe 9f8d aeba a2dc bbbe 7626 3cbe

weight f4 [4, 4]
0.37088287 0.01610076 -0.44193533 -0.3695825 -0.019366192 -0.3541535 0.3732047 -0.31191653
-0.21878558 -0.34210783 -0.42021206 -0.2843487 0.4065757 -0.096809424 -0.225177 -0.49570096
00000000: 5ce4 bd3e bee5 833c 5945 e2be eb39 bdbe
00000010: d9a5 9ebc 9c53 b5be b014 bf3e 86b3 9fbe
00000020: 5409 60be c228 afbe 0926 d7be 2796 91be
00000030: b12a d03e 0544 c6bd cd94 66be 84cc fdbe

bias f4 [4]
0.4208974 0.07149791 -0.25528187 0.1786812
00000000: dd7f d73e 7f6d 923d 4eb4 82be 34f8 363e

weight f4 [320, 8]
0.14728871 -0.027020225 0.15555452 -0.02792458 0.11444478 0.11218265 -0.025499595 -0.086720966
0.3359111 0.29068324 -0.18160284 -0.21837074 0.14307415 0.30757132 0.21385129 -0.024578094
-0.28444466 -0.014105704 -0.21937056 0.2529127 0.003019628 0.10772665 0.25926465 0.1339205
-0.064947814 0.010062259 0.18048526 0.03231341 -0.20519497 0.33822793 0.23166993 -0.337826
-0.23526303 -0.15351073 -0.19878088 0.29949638 -0.018282138 -0.26654118 -0.060341336 0.06825892
-0.32646707 -0.31851023 0.028687067 0.2925043 -0.30858222 0.011768907 0.1504929 0.17590581
-0.03714823 0.16490956 -0.021062165 0.30474043 -0.019482438 -0.027530173 -0.086487524 -0.33025128
-0.15539475 -0.0060743117 -0.24426621 -0.3591152 0.031707443 -0.16901109 0.023127185 0.29896966
0.08281478 -0.09957487 0.067291 -0.10507737 -0.32122487 -0.0972907 0.010872978 -0.34682792
0.23060468 -0.22920196 0.12531087 -0.21396053 0.32636857 0.06880905 -0.058176022 0.1416114
-0.21532173 0.06403378 0.25794712 -0.18530174 -0.03727869 0.22291811 -0.2657216 -0.28017613
0.17373608 0.08392214 0.1585264 0.3515687 -0.052754443 0.27700883 -0.086261466 0.25450087
-0.11196035 -0.04520779 -0.045111734 0.22467272 0.2047164 0.10896711 -0.07474819 0.2699026
-0.2979318 -0.33229184 0.21657099 0.013800714 -0.05718186 -0.02102178 -0.13894522 0.1978197
0.066888556 0.116728745 0.0002369275 0.00035193888 -0.012204976 0.30150142 -0.24131611 -0.016124927
-0.31365612 -0.1020447 -0.26557562 0.18646052 0.29216236 -0.2727066 -0.19489996 -0.23949791
0.30092284 -0.30242318 -0.24954276 0.041770753 -0.31171432 -0.207627 0.30042443 -0.26507208
-0.0010901471 0.010398377 -0.23479491 -0.29312852 0.122890286 0.2242998 -0.22372492 0.02687914
0.12899446 -0.10867948 0.1202635 -0.043883633 0.104146905 -0.26551047 0.036454856 0.22549708
-0.21449825 0.24935523 0.32140014 0.15490381 0.225178 -0.121949434 -0.23238447 0.31048778
0.10241453 0.33377248 -0.32707632 -0.045907762 -0.033872556 -0.20941566 -0.21098919 -0.08774282
-0.22194254 -0.30194575 0.36486548 -0.16588517 -0.08008138 0.29895794 0.19131483 -0.054757725
-0.25914025 -0.00036687133 -0.13927065 0.09142906 0.13256541 0.119499035 -0.00036740638 0.20882662
0.016826456 0.16358435 -0.06318516 0.31266105 0.30624762 0.093773805 0.04499814 0.080366224
0.2194979 -0.038278136 0.08352319 0.118939474 -0.25088334 -0.05331983 0.008058367 0.1289594
0.24590258 -0.24972774 0.32538518 -0.09544149 -0.30187964 0.0055638505 -0.087253675 0.206413
-0.022826452 -0.1422513 -0.24460569 -0.34089437 -0.26591146 -0.36194256 -0.25088245 0.09984036
-0.120972656 -0.2173772 -0.24841784 -0.26295167 0.23077327 -0.008954704 -3.955545e-05 -0.11993932
0.13616458 0.011418983 0.32558867 -0.14229803 0.031560965 0.28654557 -0.2602004 0.33910143
-0.31813744 -0.03765899 -0.1149589 -0.03325087 -0.27338675 0.3258025 0.114988215 0.216829
0.011833329 -0.1350346 -0.36226887 -0.022928342 -0.2121634 0.013230379 -0.18711126 0.22843741
-0.04535038 -0.2261141 0.20195596 -0.25048956 0.26314878 -0.29791188 0.2346082 0.16758898
00000000: dad2 163e 8559 ddbc af49 1f3e 17c2 e4bc
00000010: 0662 ea3d 04c0 e53d 87e4 d0bc c39a b1bd
00000020: 8afc ab3e 6fd4 943e 18f6 39be 949c 5fbe
00000030: 0882 123e fd79 9d3e d5fb 5a3e 0058 c9bc
00000040: bba2 91be 9c1b 67bc ada2 60be c67d 813e
00000050: f4e4 453b ca9f dc3d 56be 843e 7522 093e
00000060: 5c03 85bd 2cdc 243c 21d1 383e 115b 043d
00000070: a11e 52be 362c ad3e e23a 6d3e 88f7 acbe
00000080: cbe8 70be eb31 1dbe 378d 4bbe 9757 993e
00000090: 6cc4 95bc 1678 88be 7a28 77bd 55cb 8b3d
000000a0: b126 a7be c613 a3be 2401 eb3c 20c3 953e
000000b0: 7dfe 9dbe 60d2 403c d01a 1a3e a720 343e
000000c0: be28 18bd 0dde 283e 908a acbc f006 9c3e
000000d0: a299 9fbc f586 e1bc 5f20 b1bd b216 a9be
000000e0: cd1f 1fbe 050b c7bb ec20 7abe f3dd b7be
000000f0: aadf 013d 3e11 2dbe 3975 bd3c 8d12 993e
00000100: cc9a a93d e9ed cbbd ddcf 893d ce32 d7bd
00000110: 9677 a4be 5940 c7bd 9324 323c 6e93 b1be
00000120: a223 6c3e ebb3 6abe 7e51 003e 7818 5bbe
00000130: c819 a73e c2eb 8c3d fb49 6ebd 9402 113e
00000140: 4d7d 5cbe 2424 833d a511 843e bdbf 3dbe
00000150: 8ab1 18bd a544 643e a90c 88be 3f73 8fbe
00000160: dfe7 313e 5fdf ab3d bf54 223e d000 b43e
00000170: 0b15 58bd 1ad4 8d3e daa9 b0bd f04d 823e
00000180: 784b e5bd ce2b 39bd 15c7 38bd 9b10 663e
00000190: 2da1 513e 262a df3d 9415 99bd ac30 8a3e
000001a0: 848a 98be 2822 aabe c9c4 5d3e 641c 623c
000001b0: 8737 6abd de35 acbc a847 0ebe 3f91 4a3e
000001c0: defc 883d 7b0f ef3d be6f 7839 7084 b839
000001d0: 61f7 47bc 655e 9a3e 921b 77be 6c18 84bc
000001e0: 8997 a0be d0fc d0bd 87f9 87be 82ef 3e3e
000001f0: 4e96 953e 33a0 8bbe db93 47be f13e 75be
00000200: 8f12 9a3e 36d7 9abe 2388 7fbe cf17 2b3d
00000210: 0599 9fbe 2c9c 54be 3bd1 993e 87b7 87be
00000220: 44e3 8eba f45d 2a3c 146e 70be f114 96be
00000230: e7ad fb3d d9ae 653e 2518 65be a431 dc3c
00000240: 2017 043e 5993 debd b64c f63d 53bf 33bd
00000250: f94a d53d fdf0 87be b051 153d b5e8 663e
00000260: 6ea5 5bbe fa56 7f3e 8f8e a43e 1b9f 1e3e
00000270: 1095 663e a0c0 f9bd 32f6 6dbe 41f8 9e3e
00000280: b6be d13d 3ae4 aa3e 8c76 a7be c709 3cbd
00000290: f3bd 0abd 0f71 56be 8d0d 58be 82b2 b3bd
000002a0: e844 63be a298 9abe a6cf ba3e cddd 29be
000002b0: b501 a4bd 0411 993e 09e8 433e a349 60bd
000002c0: 08ae 84be a358 c0b9 f79c 0ebe 293f bb3d
000002d0: 3abf 073e e9bb f43d 73a0 c0b9 a5d6 553e
000002e0: a3d7 893c a882 273e 3967 81bd 1c15 a03e
000002f0: 7dcc 9c3e 7b0c c03d f84f 383d 0c97 a43d
00000300: 0fc4 603e 89c9 1cbd 350e ab3d 8a96 f33d
00000310: c873 80be e565 5abd 3e07 043c ef0d 043e
00000320: e3cd 7b3e a1b8 7fbe e398 a63e d476 c3bd
00000330: f88f 9abe f650 b63b 0eb2 b2bd ee5d 533e
00000340: 8afe babc 53aa 11be ea79 7abe b589 aebe
00000350: 8c25 88be 8950 b9be aa73 80be 1a79 cc3d
00000360: 83c0 f7bd 2198 5ebe 3f61 7ebe 9aa1 86be
00000370: d44f 6c3e c0b6 12bc 57e8 25b8 bfa2 f5bd
00000380: ba6e 0b3e b016 3b3c 8fb3 a63e 93b6 11be
00000390: 1246 013d 1ab6 923e fd38 85be b49e ad3e
000003a0: e9e2 a2be 5040 1abd 926f ebbd 1032 08bd
000003b0: 59f9 8bbe 96cf a63e f17e eb3d 6c08 5e3e
000003c0: 94e0 413c 8346 0abe 4e7b b9be 38d4 bbbc
000003d0: 5d41 59be 3bc4 583c 189a 3fbe 7feb 693e
000003e0: 52c1 39bd 748a 67be 8bcd 4e3e 2b40 80be
000003f0: 70bb 863e e887 98be 223d 703e 729c 2b3e

bias f4 [320]
0.17074625 -0.10382403 -0.03141555 0.27725407 0.15781865 -0.10935843 0.23897767 0.1744309
0.25970694 0.120963626 0.206844 0.14133346 -0.005403398 0.29904997 -0.0074025667 0.19443174
-0.33011118 0.00036271533 0.18226531 0.24796252 0.1625873 0.0690086 -0.1261641 -0.07139405
0.2972732 0.17221151 0.0860586 -0.19327146 -0.14329334 0.28152263 0.024529392 0.31419474
-0.07919503 0.3084791 -0.22768633 -0.08823623 0.27135828 0.10099985 0.034734506 0.13093537
0.03986301 -0.03894584 0.21713465 -0.06883494 0.36390018 0.28514665 0.27422252 -0.1919647
0.07037104 0.36923426 0.31478474 0.09773892 -0.23696661 0.23671727 0.12215313 0.14650035
-0.032203194 0.26925144 0.11684456 0.18517967 0.068179816 0.08210382 -0.17699666 0.05156258
0.011429148 -0.02801702 -0.05579263 0.06862835 0.31627783 -0.021731915 -0.031164365 0.053173672
0.17386307 -0.08404555 -0.014008591 0.03941476 -0.17952977 -0.1397722 0.006506889 -0.17493191
0.054637313 -0.27266693 0.26937565 0.007171518 -0.12210501 0.25396115 0.30287057 0.20672338
0.035591118 -0.10738423 0.3353412 0.008532912 0.07544899 -0.24640545 -0.14912923 -0.22662477
0.3298618 0.019351646 0.2297384 0.20180961 0.15299685 -0.1255413 -0.10826231 -0.25028187
0.19588082 -0.19740178 -0.11181336 0.18968478 -0.14389516 -0.118475124 0.03022438 -0.17358707
0.3385743 -0.26281643 -0.23882167 0.13832858 0.35524327 -0.23555505 -0.1448475 0.33752507
-0.13024957 0.16524994 0.1104712 -0.14201823 -0.25592512 0.15199806 0.22929649 0.20008355
-0.18883976 0.18628979 -0.07675243 -0.18341988 0.14643198 0.3434974 -0.15511398 0.1183768
0.2983091 -0.056418143 0.34182304 -0.25705996 0.17755538 -0.21538262 -0.27489617 0.03044184
-0.14943056 0.2848261 -0.18542705 -0.24381118 0.08038131 0.18311721 -0.20224348 -0.024437075
0.3402268 -0.12763567 0.038860995 -0.18901281 0.045312963 0.24075386 0.2667816 0.33172056
-0.051910494 0.12196494 0.0356821 0.0826233 -0.10540261 -0.22200198 0.23935366 -0.2188895
0.07398505 0.015193781 0.1018693 0.08886533 0.066818595 -0.19565389 0.3333999 0.2703584
0.025823696 0.12718451 -0.18317436 -0.06961843 -0.06714552 0.04000509 -0.07692765 0.24298348
0.2091231 -0.118475616 0.23557067 -0.22066441 -0.23309754 -0.0682224 -0.03936279 -0.21269579
-0.16667789 -0.15276523 -0.181466 0.09806094 0.09629258 -0.24182828 0.045070983 0.25666827
0.24455406 -0.042905677 0.16257426 -0.2768363 0.26152986 -0.15325944 0.15071611 -0.12317822
0.22530773 -0.20066224 0.10207911 -0.18411271 -0.07134941 -0.055826027 0.23454154 0.16261096
-0.020653436 0.24228182 0.28449798 0.03490339 -0.052918077 -0.3658079 -0.06268934 -0.2651917
-0.11420832 0.1574096 -0.2409035 0.09592417 0.21414042 -0.2894373 0.0962033 0.3012321
-0.25996116 0.0831581 0.15674181 -0.2464073 0.12230284 0.029389316 0.00026147946 0.10123865
-0.12905969 0.103317395 -0.29633778 0.06320432 0.23240077 0.30880228 -0.19186045 0.27953878
-0.17419648 -6.4298947e-06 -0.27125725 0.29088354 0.32752407 -0.12038962 -0.23177184 0.17379296
00000000: 1bd8 2e3e b1a1 d4bd 97ad 00bd 3ff4 8d3e
00000010: 369b 213e 50f7 dfbd 90b6 743e 049e 323e
00000020: 4ff8 843e c7bb f73d eace 533e b8b9 103e
00000030: fd0e b1bb 141d 993e 3b91 f2bb 1d19 473e
00000040: 5504 a9be d42a be39 c2a3 3a3e e3e9 7d3e
00000050: 497d 263e 6254 8d3d 2931 01be 0b37 92bd
00000060: 3134 983e 3758 303e 7e3f b03d f4e8 45be
00000070: 7dbb 12be bc23 903e ddf1 c83c 22de a03e
00000080: 0131 a2bd f9f0 9d3e 9b26 69be 32b5 b4bd
00000090: 79ef 8a3e 02d9 ce3d c545 0e3d ec13 063e
000000a0: 6547 233d ac85 1fbd 8c58 5e3e 55f9 8cbd
000000b0: 2051 ba3e befe 913e e566 8c3e 6592 44be
000000c0: b11e 903d 460c bd3e 772b a13e 582b c83d
000000d0: 60a7 72be 0366 723e 6c2b fa3d 3004 163e
000000e0: 7fe7 03bd 53db 893e 334c ef3d bd9f 3d3e
000000f0: dca1 8b3d 0c26 a83d 9d3e 35be 4933 533d
00000100: 5241 3b3c f383 e5bc d086 64bd 058d 8c3d
00000110: 2bef a13e 2107 b2bc 694c ffbc a3cc 593d
00000120: 2909 323e 1320 acbd 4a84 65bc 5f71 213d
00000130: a7d6 37be 7220 0fbe be37 d53b 5a21 33be
00000140: 60cb 5f3d 009b 8bbe 9beb 893e 0eff ea3b
00000150: 3112 fabd 3207 823e da11 9b3e 4baf 533e
00000160: fec7 113d 43ec dbbd d7b1 ab3e a0cd 0b3c
00000170: 0085 9a3d b651 7cbe 55b5 18be 5310 68be
00000180: a5e3 a83e 5887 9e3c 8b40 6b3e 2ea7 4e3e
00000190: 35ab 1c3e e68d 00be a1b8 ddbd f224 80be
000001a0: fb94 483e b123 4abe 67fe e4bd ba3c 423e
000001b0: 4159 13be 16a3 f2bd 1e99 f73c cfc0 31be
000001c0: 9c59 ad3e e08f 86be ab8d 74be 02a6 0d3e
000001d0: 72e2 b53e 5835 71be e752 14be 16d0 ac3e
000001e0: 2560 05be 4837 293e b93e e23d 3a6d 11be
000001f0: 9e08 83be 61a5 1b3e b3cc 6a3e b4e2 4c3e
00000200: 365f 41be c0c2 3e3e 6130 9dbd 6cd2 3bbe
00000210: 44f2 153e e4de af3e 33d6 1ebe 896f f23d
00000220: f8bb 983e b616 67bd 6e03 af3e 5d9d 83be
00000230: 14d1 353e 438d 5cbe 31bf 8cbe 2a61 f93c
00000240: 5304 19be bad4 913e 97e0 3dbe a3a9 79be
00000250: f59e a43d 1483 3b3e ea18 4fbe 4330 c8bc
00000260: 3532 ae3e edb2 02be b52c 1f3d 938c 41be
00000270: 169a 393d 2e88 763e 9997 883e 47d7 a93e
00000280: 19a0 54bd c1c8 f93d 6527 123d 6836 a93d
00000290: 53dd d7bd 7d54 63be 2019 753e 9224 60be
000002a0: 7985 973d 56ef 783c daa0 d03d 07ff b53d
000002b0: 30d8 883d 7e59 48be 64b3 aa3e 6b6c 8a3e
000002c0: 378c d33c a83c 023e 0f92 3bbe 1c94 8ebd
000002d0: 9783 89bd 61dc 233d 3e8c 9dbd a9d0 783e
000002e0: 5e24 563e 58a3 f2bd 7039 713e daf5 61be
000002f0: 1fb1 6ebe 30b8 8bbd e03a 21bd edcc 59be
00000300: 9cad 2abe 7d6e 1cbe 39d2 39be 2dd4 c83d
00000310: 0b35 c53d d5a1 77be 5a9c 383d 066a 833e
00000320: 616c 7a3e ddbd 2fbd de79 263e 7dbd 8dbe
00000330: 3ee7 853e 0bf0 1cbe 5355 1a3e dd44 fcbd
00000340: 12b7 663e 677a 4dbe da0e d13d 0b88 3cbe
00000350: a41f 92bd d5a9 64bd a82b 703e 7d83 263e
00000360: 6531 a9bc ba18 783e b8a9 913e dbf6 0e3d
00000370: a0c0 58bd 2c4b bbbe 4563 80bd 35c7 87be
00000380: 0de6 e9bd fb2f 213e 68af 76be e473 c43d
00000390: a047 5b3e 2031 94be 3c06 c53d 183b 9a3e
000003a0: a119 85be cb4e aa3d ed80 203e 3252 7cbe
000003b0: e979 fa3d ddc1 f03c 2e17 8939 3656 cf3d
000003c0: 3928 04be 1298 d33d 96b9 97be 4471 813d
000003d0: 78fa 6d3e 551b 9e3e 1177 44be b51f 8f3e
000003e0: 9060 32be 60c0 d7b6 3be2 8abe b0ee 943e
000003f0: 3cb1 a73e d58e f6bd 9955 6dbe c8f6 313e
