KNet/Linear_SS_With_MM/pipeline_KNet_MM_Linear_Dynamics_T100_v_positive_15dB.pt (torch, 199561 bytes, 351 tensors)

G f4 [2, 1]
00000000: 0000 0000 0000 803f
0.0 1.0

Q f4 [2, 2]
00000000: 0000 803f 0000 0000 0000 0000 0000 803f
1.0 0.0 0.0 1.0

R f4 [2, 2]
00000000: e386 013d 0000 0000 0000 0000 e386 013d
0.03162278 0.0 0.0 0.03162278

prior_Q f4 [2, 2]
00000000: 0000 803f 0000 0000 0000 0000 0000 803f
1.0 0.0 0.0 1.0

prior_Sigma f4 [2, 2]
00000000: 0000 803f 0000 0000 0000 0000 0000 803f
1.0 0.0 0.0 1.0

prior_S f4 [2, 2]
00000000: 0000 803f 0000 0000 0000 0000 0000 803f
1.0 0.0 0.0 1.0

m1x_0 f4 [2]
00000000: 0000 2041 0000 0000
10.0 0.0

x_prev f4 [2]
00000000: 0000 2041 0000 0000
10.0 0.0

m2x_0 f4 [2, 2]
00000000: 0000 0000 0000 0000 0000 0000 0000 0000
0.0 0.0 0.0 0.0

QT f4 [2, 2]
00000000: 0000 803f 0000 0000 0000 0000 0000 803f
1.0 0.0 0.0 1.0

Qx f4 [2, 2]
00000000: 0000 803f 0000 0000 0000 0000 0000 803f
1.0 0.0 0.0 1.0

L f4 [1, 2]
00000000: c044 143f 40ea c53f
0.57917404 1.5462112

L f4 [1, 2]
00000000: e44a 143f 28e4 c53f
0.57926774 1.5460253

L f4 [1, 2]
00000000: c044 143f 40ea c53f
0.57917404 1.5462112

L f4 [1, 2]
00000000: e44a 143f 28e4 c53f
0.57926774 1.5460253

L f4 [1, 2]
00000000: c044 143f 40ea c53f
0.57917404 1.5462112

L f4 [1, 2]
00000000: e44a 143f 28e4 c53f
0.57926774 1.5460253

L f4 [1, 2]
00000000: c044 143f 40ea c53f
0.57917404 1.5462112

L f4 [1, 2]
00000000: e44a 143f 28e4 c53f
0.57926774 1.5460253

L f4 [1, 2]
00000000: c044 143f 40ea c53f
0.57917404 1.5462112

L f4 [1, 2]
00000000: e44a 143f 28e4 c53f
0.57926774 1.5460253

L f4 [1, 2]
00000000: c044 143f 40ea c53f
0.57917404 1.5462112

L f4 [1, 2]
00000000: e44a 143f 28e4 c53f
0.57926774 1.5460253

L f4 [1, 2]
00000000: c044 143f 40ea c53f
0.57917404 1.5462112

L f4 [1, 2]
00000000: e44a 143f 28e4 c53f
0.57926774 1.5460253

L f4 [1, 2]
00000000: c044 143f 40ea c53f
0.57917404 1.5462112

L f4 [1, 2]
00000000: e44a 143f 28e4 c53f
0.57926774 1.5460253

L f4 [1, 2]
00000000: c044 143f 40ea c53f
0.57917404 1.5462112

L f4 [1, 2]
00000000: e44a 143f 28e4 c53f
0.57926774 1.5460253

L f4 [1, 2]
00000000: c044 143f 40ea c53f
0.57917404 1.5462112

L f4 [1, 2]
00000000: e44a 143f 28e4 c53f
0.57926774 1.5460253

L f4 [1, 2]
00000000: c044 143f 40ea c53f
0.57917404 1.5462112

L f4 [1, 2]
00000000: e44a 143f 28e4 c53f
0.57926774 1.5460253

L f4 [1, 2]
00000000: c044 143f 40ea c53f
0.57917404 1.5462112

L f4 [1, 2]
00000000: e44a 143f 28e4 c53f
0.57926774 1.5460253

L f4 [1, 2]
00000000: c044 143f 40ea c53f
0.57917404 1.5462112

L f4 [1, 2]
00000000: e44a 143f 28e4 c53f
0.57926774 1.5460253

L f4 [1, 2]
00000000: c044 143f 40ea c53f
0.57917404 1.5462112

L f4 [1, 2]
00000000: e44a 143f 28e4 c53f
0.57926774 1.5460253

L f4 [1, 2]
00000000: c044 143f 40ea c53f
0.57917404 1.5462112

L f4 [1, 2]
00000000: e44a 143f 28e4 c53f
0.57926774 1.5460253

L f4 [1, 2]
00000000: c044 143f 40ea c53f
0.57917404 1.5462112

L f4 [1, 2]
00000000: e44a 143f 28e4 c53f
0.57926774 1.5460253

L f4 [1, 2]
00000000: c044 143f 40ea c53f
0.57917404 1.5462112

L f4 [1, 2]
00000000: e44a 143f 28e4 c53f
0.57926774 1.5460253

L f4 [1, 2]
00000000: c044 143f 40ea c53f
0.57917404 1.5462112

L f4 [1, 2]
00000000: e44a 143f 28e4 c53f
0.57926774 1.5460253

L f4 [1, 2]
00000000: c044 143f 40ea c53f
0.57917404 1.5462112

L f4 [1, 2]
00000000: e44a 143f 28e4 c53f
0.57926774 1.5460253

L f4 [1, 2]
00000000: c044 143f 40ea c53f
0.57917404 1.5462112

L f4 [1, 2]
00000000: e44a 143f 28e4 c53f
0.57926774 1.5460253

L f4 [1, 2]
00000000: c044 143f 40ea c53f
0.57917404 1.5462112

L f4 [1, 2]
00000000: e44a 143f 28e4 c53f
0.57926774 1.5460253

L f4 [1, 2]
00000000: c044 143f 40ea c53f
0.57917404 1.5462112

L f4 [1, 2]
00000000: e44a 143f 28e4 c53f
0.57926774 1.5460253

L f4 [1, 2]
00000000: c044 143f 40ea c53f
0.57917404 1.5462112

L f4 [1, 2]
00000000: e44a 143f 28e4 c53f
0.57926774 1.5460253

L f4 [1, 2]
00000000: c044 143f 40ea c53f
0.57917404 1.5462112

L f4 [1, 2]
00000000: e44a 143f 28e4 c53f
0.57926774 1.5460253

L f4 [1, 2]
00000000: c044 143f 40ea c53f
0.57917404 1.5462112

L f4 [1, 2]
00000000: e44a 143f 28e4 c53f
0.57926774 1.5460253

L f4 [1, 2]
00000000: c044 143f 40ea c53f
0.57917404 1.5462112

L f4 [1, 2]
00000000: e44a 143f 28e4 c53f
0.57926774 1.5460253

L f4 [1, 2]
00000000: c044 143f 40ea c53f
0.57917404 1.5462112

L f4 [1, 2]
00000000: e44a 143f 28e4 c53f
0.57926774 1.5460253

L f4 [1, 2]
00000000: c044 143f 40ea c53f
0.57917404 1.5462112

L f4 [1, 2]
00000000: e44a 143f 28e4 c53f
0.57926774 1.5460253

L f4 [1, 2]
00000000: c044 143f 40ea c53f
0.57917404 1.5462112

L f4 [1, 2]
00000000: e44a 143f 28e4 c53f
0.57926774 1.5460253

L f4 [1, 2]
00000000: c044 143f 40ea c53f
0.57917404 1.5462112

L f4 [1, 2]
00000000: e44a 143f 28e4 c53f
0.57926774 1.5460253

L f4 [1, 2]
00000000: c044 143f 40ea c53f
0.57917404 1.5462112

L f4 [1, 2]
00000000: e44a 143f 28e4 c53f
0.57926774 1.5460253

L f4 [1, 2]
00000000: c044 143f 40ea c53f
0.57917404 1.5462112

L f4 [1, 2]
00000000: e44a 143f 28e4 c53f
0.57926774 1.5460253

L f4 [1, 2]
00000000: c044 143f 40ea c53f
0.57917404 1.5462112

L f4 [1, 2]
00000000: e44a 143f 28e4 c53f
0.57926774 1.5460253

L f4 [1, 2]
00000000: c044 143f 40ea c53f
0.57917404 1.5462112

L f4 [1, 2]
00000000: e44a 143f 28e4 c53f
0.57926774 1.5460253

L f4 [1, 2]
00000000: c044 143f 40ea c53f
0.57917404 1.5462112

L f4 [1, 2]
00000000: e44a 143f 28e4 c53f
0.57926774 1.5460253

L f4 [1, 2]
00000000: c044 143f 40ea c53f
0.57917404 1.5462112

L f4 [1, 2]
00000000: e44a 143f 28e4 c53f
0.57926774 1.5460253

L f4 [1, 2]
00000000: c044 143f 40ea c53f
0.57917404 1.5462112

L f4 [1, 2]
00000000: e44a 143f 28e4 c53f
0.57926774 1.5460253

L f4 [1, 2]
00000000: c044 143f 40ea c53f
0.57917404 1.5462112

L f4 [1, 2]
00000000: e44a 143f 28e4 c53f
0.57926774 1.5460253

L f4 [1, 2]
00000000: c044 143f 40ea c53f
0.57917404 1.5462112

L f4 [1, 2]
00000000: e44a 143f 28e4 c53f
0.57926774 1.5460253

L f4 [1, 2]
00000000: c044 143f 40ea c53f
0.57917404 1.5462112

L f4 [1, 2]
00000000: e44a 143f 28e4 c53f
0.57926774 1.5460253

L f4 [1, 2]
00000000: c044 143f 40ea c53f
0.57917404 1.5462112

L f4 [1, 2]
00000000: e44a 143f 28e4 c53f
0.57926774 1.5460253

L f4 [1, 2]
00000000: c044 143f 40ea c53f
0.57917404 1.5462112

L f4 [1, 2]
00000000: e44a 143f 28e4 c53f
0.57926774 1.5460253

L f4 [1, 2]
00000000: c044 143f 40ea c53f
0.57917404 1.5462112

L f4 [1, 2]
00000000: e44a 143f 28e4 c53f
0.57926774 1.5460253

L f4 [1, 2]
00000000: c044 143f 40ea c53f
0.57917404 1.5462112

L f4 [1, 2]
00000000: e44a 143f 28e4 c53f
0.57926774 1.5460253

L f4 [1, 2]
00000000: c044 143f 40ea c53f
0.57917404 1.5462112

L f4 [1, 2]
00000000: e44a 143f 28e4 c53f
0.57926774 1.5460253

L f4 [1, 2]
00000000: c044 143f 40ea c53f
0.57917404 1.5462112

L f4 [1, 2]
00000000: e44a 143f 28e4 c53f
0.57926774 1.5460253

L f4 [1, 2]
00000000: c044 143f 40ea c53f
0.57917404 1.5462112

L f4 [1, 2]
00000000: e44a 143f 28e4 c53f
0.57926774 1.5460253

L f4 [1, 2]
00000000: c044 143f 40ea c53f
0.57917404 1.5462112

L f4 [1, 2]
00000000: e44a 143f 28e4 c53f
0.57926774 1.5460253

L f4 [1, 2]
00000000: 803b 143f 00de c53f
0.5790329 1.5458374

L f4 [1, 2]
00000000: cca2 133f f085 c53f
0.57670283 1.54315

L f4 [1, 2]
00000000: e0ca 0f3f 4051 c33f
0.5616894 1.525917

L f4 [1, 2]
00000000: 00a0 e93e 8c94 b43f
0.45629883 1.4107833

S f4 [2, 2]
00000000: a4cb 2a40 ac05 dd3f ac05 dd3f b058 3840
2.6686792 1.7267356 1.7267356 2.880413

S f4 [2, 2]
00000000: 60c2 2a40 e0d7 dc3f e0d7 dc3f c035 3840
2.6681137 1.725338 1.725338 2.8782806

S f4 [2, 2]
00000000: a4cb 2a40 ac05 dd3f ac05 dd3f b058 3840
2.6686792 1.7267356 1.7267356 2.880413

S f4 [2, 2]
00000000: 60c2 2a40 e0d7 dc3f e0d7 dc3f c035 3840
2.6681137 1.725338 1.725338 2.8782806

S f4 [2, 2]
00000000: a4cb 2a40 ac05 dd3f ac05 dd3f b058 3840
2.6686792 1.7267356 1.7267356 2.880413

S f4 [2, 2]
00000000: 60c2 2a40 e0d7 dc3f e0d7 dc3f c035 3840
2.6681137 1.725338 1.725338 2.8782806

S f4 [2, 2]
00000000: a4cb 2a40 ac05 dd3f ac05 dd3f b058 3840
2.6686792 1.7267356 1.7267356 2.880413

S f4 [2, 2]
00000000: 60c2 2a40 e0d7 dc3f e0d7 dc3f c035 3840
2.6681137 1.725338 1.725338 2.8782806

S f4 [2, 2]
00000000: a4cb 2a40 ac05 dd3f ac05 dd3f b058 3840
2.6686792 1.7267356 1.7267356 2.880413

S f4 [2, 2]
00000000: 60c2 2a40 e0d7 dc3f e0d7 dc3f c035 3840
2.6681137 1.725338 1.725338 2.8782806

S f4 [2, 2]
00000000: a4cb 2a40 ac05 dd3f ac05 dd3f b058 3840
2.6686792 1.7267356 1.7267356 2.880413

S f4 [2, 2]
00000000: 60c2 2a40 e0d7 dc3f e0d7 dc3f c035 3840
2.6681137 1.725338 1.725338 2.8782806

S f4 [2, 2]
00000000: a4cb 2a40 ac05 dd3f ac05 dd3f b058 3840
2.6686792 1.7267356 1.7267356 2.880413

S f4 [2, 2]
00000000: 60c2 2a40 e0d7 dc3f e0d7 dc3f c035 3840
2.6681137 1.725338 1.725338 2.8782806

S f4 [2, 2]
00000000: a4cb 2a40 ac05 dd3f ac05 dd3f b058 3840
2.6686792 1.7267356 1.7267356 2.880413

S f4 [2, 2]
00000000: 60c2 2a40 e0d7 dc3f e0d7 dc3f c035 3840
2.6681137 1.725338 1.725338 2.8782806

S f4 [2, 2]
00000000: a4cb 2a40 ac05 dd3f ac05 dd3f b058 3840
2.6686792 1.7267356 1.7267356 2.880413

S f4 [2, 2]
00000000: 60c2 2a40 e0d7 dc3f e0d7 dc3f c035 3840
2.6681137 1.725338 1.725338 2.8782806

S f4 [2, 2]
00000000: a4cb 2a40 ac05 dd3f ac05 dd3f b058 3840
2.6686792 1.7267356 1.7267356 2.880413

S f4 [2, 2]
00000000: 60c2 2a40 e0d7 dc3f e0d7 dc3f c035 3840
2.6681137 1.725338 1.725338 2.8782806

S f4 [2, 2]
00000000: a4cb 2a40 ac05 dd3f ac05 dd3f b058 3840
2.6686792 1.7267356 1.7267356 2.880413

S f4 [2, 2]
00000000: 60c2 2a40 e0d7 dc3f e0d7 dc3f c035 3840
2.6681137 1.725338 1.725338 2.8782806

S f4 [2, 2]
00000000: a4cb 2a40 ac05 dd3f ac05 dd3f b058 3840
2.6686792 1.7267356 1.7267356 2.880413

S f4 [2, 2]
00000000: 60c2 2a40 e0d7 dc3f e0d7 dc3f c035 3840
2.6681137 1.725338 1.725338 2.8782806

S f4 [2, 2]
00000000: a4cb 2a40 ac05 dd3f ac05 dd3f b058 3840
2.6686792 1.7267356 1.7267356 2.880413

S f4 [2, 2]
00000000: 60c2 2a40 e0d7 dc3f e0d7 dc3f c035 3840
2.6681137 1.725338 1.725338 2.8782806

S f4 [2, 2]
00000000: a4cb 2a40 ac05 dd3f ac05 dd3f b058 3840
2.6686792 1.7267356 1.7267356 2.880413

S f4 [2, 2]
00000000: 60c2 2a40 e0d7 dc3f e0d7 dc3f c035 3840
2.6681137 1.725338 1.725338 2.8782806

S f4 [2, 2]
00000000: a4cb 2a40 ac05 dd3f ac05 dd3f b058 3840
2.6686792 1.7267356 1.7267356 2.880413

S f4 [2, 2]
00000000: 60c2 2a40 e0d7 dc3f e0d7 dc3f c035 3840
2.6681137 1.725338 1.725338 2.8782806

S f4 [2, 2]
00000000: a4cb 2a40 ac05 dd3f ac05 dd3f b058 3840
2.6686792 1.7267356 1.7267356 2.880413

S f4 [2, 2]
00000000: 60c2 2a40 e0d7 dc3f e0d7 dc3f c035 3840
2.6681137 1.725338 1.725338 2.8782806

S f4 [2, 2]
00000000: a4cb 2a40 ac05 dd3f ac05 dd3f b058 3840
2.6686792 1.7267356 1.7267356 2.880413

S f4 [2, 2]
00000000: 60c2 2a40 e0d7 dc3f e0d7 dc3f c035 3840
2.6681137 1.725338 1.725338 2.8782806

S f4 [2, 2]
00000000: a4cb 2a40 ac05 dd3f ac05 dd3f b058 3840
2.6686792 1.7267356 1.7267356 2.880413

S f4 [2, 2]
00000000: 60c2 2a40 e0d7 dc3f e0d7 dc3f c035 3840
2.6681137 1.725338 1.725338 2.8782806

S f4 [2, 2]
00000000: a4cb 2a40 ac05 dd3f ac05 dd3f b058 3840
2.6686792 1.7267356 1.7267356 2.880413

S f4 [2, 2]
00000000: 60c2 2a40 e0d7 dc3f e0d7 dc3f c035 3840
2.6681137 1.725338 1.725338 2.8782806

S f4 [2, 2]
00000000: a4cb 2a40 ac05 dd3f ac05 dd3f b058 3840
2.6686792 1.7267356 1.7267356 2.880413

S f4 [2, 2]
00000000: 60c2 2a40 e0d7 dc3f e0d7 dc3f c035 3840
2.6681137 1.725338 1.725338 2.8782806

S f4 [2, 2]
00000000: a4cb 2a40 ac05 dd3f ac05 dd3f b058 3840
2.6686792 1.7267356 1.7267356 2.880413

S f4 [2, 2]
00000000: 60c2 2a40 e0d7 dc3f e0d7 dc3f c035 3840
2.6681137 1.725338 1.725338 2.8782806

S f4 [2, 2]
00000000: a4cb 2a40 ac05 dd3f ac05 dd3f b058 3840
2.6686792 1.7267356 1.7267356 2.880413

S f4 [2, 2]
00000000: 60c2 2a40 e0d7 dc3f e0d7 dc3f c035 3840
2.6681137 1.725338 1.725338 2.8782806

S f4 [2, 2]
00000000: a4cb 2a40 ac05 dd3f ac05 dd3f b058 3840
2.6686792 1.7267356 1.7267356 2.880413

S f4 [2, 2]
00000000: 60c2 2a40 e0d7 dc3f e0d7 dc3f c035 3840
2.6681137 1.725338 1.725338 2.8782806

S f4 [2, 2]
00000000: a4cb 2a40 ac05 dd3f ac05 dd3f b058 3840
2.6686792 1.7267356 1.7267356 2.880413

S f4 [2, 2]
00000000: 60c2 2a40 e0d7 dc3f e0d7 dc3f c035 3840
2.6681137 1.725338 1.725338 2.8782806

S f4 [2, 2]
00000000: a4cb 2a40 ac05 dd3f ac05 dd3f b058 3840
2.6686792 1.7267356 1.7267356 2.880413

S f4 [2, 2]
00000000: 60c2 2a40 e0d7 dc3f e0d7 dc3f c035 3840
2.6681137 1.725338 1.725338 2.8782806

S f4 [2, 2]
00000000: a4cb 2a40 ac05 dd3f ac05 dd3f b058 3840
2.6686792 1.7267356 1.7267356 2.880413

S f4 [2, 2]
00000000: 60c2 2a40 e0d7 dc3f e0d7 dc3f c035 3840
2.6681137 1.725338 1.725338 2.8782806

S f4 [2, 2]
00000000: a4cb 2a40 ac05 dd3f ac05 dd3f b058 3840
2.6686792 1.7267356 1.7267356 2.880413

S f4 [2, 2]
00000000: 60c2 2a40 e0d7 dc3f e0d7 dc3f c035 3840
2.6681137 1.725338 1.725338 2.8782806

S f4 [2, 2]
00000000: a4cb 2a40 ac05 dd3f ac05 dd3f b058 3840
2.6686792 1.7267356 1.7267356 2.880413

S f4 [2, 2]
00000000: 60c2 2a40 e0d7 dc3f e0d7 dc3f c035 3840
2.6681137 1.725338 1.725338 2.8782806

S f4 [2, 2]
00000000: a4cb 2a40 ac05 dd3f ac05 dd3f b058 3840
2.6686792 1.7267356 1.7267356 2.880413

S f4 [2, 2]
00000000: 60c2 2a40 e0d7 dc3f e0d7 dc3f c035 3840
2.6681137 1.725338 1.725338 2.8782806

S f4 [2, 2]
00000000: a4cb 2a40 ac05 dd3f ac05 dd3f b058 3840
2.6686792 1.7267356 1.7267356 2.880413

S f4 [2, 2]
00000000: 60c2 2a40 e0d7 dc3f e0d7 dc3f c035 3840
2.6681137 1.725338 1.725338 2.8782806

S f4 [2, 2]
00000000: a4cb 2a40 ac05 dd3f ac05 dd3f b058 3840
2.6686792 1.7267356 1.7267356 2.880413

S f4 [2, 2]
00000000: 60c2 2a40 e0d7 dc3f e0d7 dc3f c035 3840
2.6681137 1.725338 1.725338 2.8782806

S f4 [2, 2]
00000000: a4cb 2a40 ac05 dd3f ac05 dd3f b058 3840
2.6686792 1.7267356 1.7267356 2.880413

S f4 [2, 2]
00000000: 60c2 2a40 e0d7 dc3f e0d7 dc3f c035 3840
2.6681137 1.725338 1.725338 2.8782806

S f4 [2, 2]
00000000: a4cb 2a40 ac05 dd3f ac05 dd3f b058 3840
2.6686792 1.7267356 1.7267356 2.880413

S f4 [2, 2]
00000000: 60c2 2a40 e0d7 dc3f e0d7 dc3f c035 3840
2.6681137 1.725338 1.725338 2.8782806

S f4 [2, 2]
00000000: a4cb 2a40 ac05 dd3f ac05 dd3f b058 3840
2.6686792 1.7267356 1.7267356 2.880413

S f4 [2, 2]
00000000: 60c2 2a40 e0d7 dc3f e0d7 dc3f c035 3840
2.6681137 1.725338 1.725338 2.8782806

S f4 [2, 2]
00000000: a4cb 2a40 ac05 dd3f ac05 dd3f b058 3840
2.6686792 1.7267356 1.7267356 2.880413

S f4 [2, 2]
00000000: 60c2 2a40 e0d7 dc3f e0d7 dc3f c035 3840
2.6681137 1.725338 1.725338 2.8782806

S f4 [2, 2]
00000000: a4cb 2a40 ac05 dd3f ac05 dd3f b058 3840
2.6686792 1.7267356 1.7267356 2.880413

S f4 [2, 2]
00000000: 60c2 2a40 e0d7 dc3f e0d7 dc3f c035 3840
2.6681137 1.725338 1.725338 2.8782806

S f4 [2, 2]
00000000: a4cb 2a40 ac05 dd3f ac05 dd3f b058 3840
2.6686792 1.7267356 1.7267356 2.880413

S f4 [2, 2]
00000000: 60c2 2a40 e0d7 dc3f e0d7 dc3f c035 3840
2.6681137 1.725338 1.725338 2.8782806

S f4 [2, 2]
00000000: a4cb 2a40 ac05 dd3f ac05 dd3f b058 3840
2.6686792 1.7267356 1.7267356 2.880413

S f4 [2, 2]
00000000: 60c2 2a40 e0d7 dc3f e0d7 dc3f c035 3840
2.6681137 1.725338 1.725338 2.8782806

S f4 [2, 2]
00000000: a4cb 2a40 ac05 dd3f ac05 dd3f b058 3840
2.6686792 1.7267356 1.7267356 2.880413

S f4 [2, 2]
00000000: 60c2 2a40 e0d7 dc3f e0d7 dc3f c035 3840
2.6681137 1.725338 1.725338 2.8782806

S f4 [2, 2]
00000000: a4cb 2a40 ac05 dd3f ac05 dd3f b058 3840
2.6686792 1.7267356 1.7267356 2.880413

S f4 [2, 2]
00000000: 60c2 2a40 e0d7 dc3f e0d7 dc3f c035 3840
2.6681137 1.725338 1.725338 2.8782806

S f4 [2, 2]
00000000: a4cb 2a40 ac05 dd3f ac05 dd3f b058 3840
2.6686792 1.7267356 1.7267356 2.880413

S f4 [2, 2]
00000000: 60c2 2a40 e0d7 dc3f e0d7 dc3f c035 3840
2.6681137 1.725338 1.725338 2.8782806

S f4 [2, 2]
00000000: a4cb 2a40 ac05 dd3f ac05 dd3f b058 3840
2.6686792 1.7267356 1.7267356 2.880413

S f4 [2, 2]
00000000: 60c2 2a40 e0d7 dc3f e0d7 dc3f c035 3840
2.6681137 1.725338 1.725338 2.8782806

S f4 [2, 2]
00000000: a4cb 2a40 ac05 dd3f ac05 dd3f b058 3840
2.6686792 1.7267356 1.7267356 2.880413

S f4 [2, 2]
00000000: 60c2 2a40 e0d7 dc3f e0d7 dc3f c035 3840
2.6681137 1.725338 1.725338 2.8782806

S f4 [2, 2]
00000000: a4cb 2a40 ac05 dd3f ac05 dd3f b058 3840
2.6686792 1.7267356 1.7267356 2.880413

S f4 [2, 2]
00000000: 60c2 2a40 e0d7 dc3f e0d7 dc3f c035 3840
2.6681137 1.725338 1.725338 2.8782806

S f4 [2, 2]
00000000: a4cb 2a40 ac05 dd3f ac05 dd3f b058 3840
2.6686792 1.7267356 1.7267356 2.880413

S f4 [2, 2]
00000000: 60c2 2a40 e0d7 dc3f e0d7 dc3f c035 3840
2.6681137 1.725338 1.725338 2.8782806

S f4 [2, 2]
00000000: a4cb 2a40 ac05 dd3f ac05 dd3f b058 3840
2.6686792 1.7267356 1.7267356 2.880413

S f4 [2, 2]
00000000: 60c2 2a40 e0d7 dc3f e0d7 dc3f c035 3840
2.6681137 1.725338 1.725338 2.8782806

S f4 [2, 2]
00000000: a4cb 2a40 ac05 dd3f ac05 dd3f b058 3840
2.6686792 1.7267356 1.7267356 2.880413

S f4 [2, 2]
00000000: 60c2 2a40 e0d7 dc3f e0d7 dc3f c035 3840
2.6681137 1.725338 1.725338 2.8782806

S f4 [2, 2]
00000000: a4cb 2a40 ac05 dd3f ac05 dd3f b058 3840
2.6686792 1.7267356 1.7267356 2.880413

S f4 [2, 2]
00000000: 2cbe 2a40 34dc dc3f 34dc dc3f a03b 3840
2.6678572 1.7254701 1.7254701 2.8786392

S f4 [2, 2]
00000000: be96 2a40 4099 dc3f 4099 dc3f 802e 3840
2.6654506 1.7234268 1.7234268 2.8778381

S f4 [2, 2]
00000000: 6ca6 2940 ac9a da3f ac9a da3f 5017 3740
2.6507826 1.7078452 1.7078452 2.860798

S f4 [2, 2]
00000000: 00cc 2240 ba65 cb3f ba65 cb3f a8a5 2e40
2.5437012 1.589042 1.589042 2.7288609

S f4 [2, 2]
00000000: 0000 0040 0000 803f 0000 803f 00d0 0540
2.0 1.0 1.0 2.0908203

L_infinite f4 [1, 2]
00000000: 8b44 143f 1bd7 c53f
0.5791709 1.545627

weight_ih_l0 f4 [12, 10]
00000000: eef3 ed3e b6c0 423e 1503 cd3e 4285 30be
00000010: 854f dcbe a701 c0be 4ae2 fa3e b5eb 94bd
00000020: 2d26 973e 3b5d e93d 8476 3d3c 7d58 85be
00000030: 393d 813e 92ac 21be be08 843e 976d ccbe
00000040: d11d 24be e3c7 21be c5d1 9cbd 5f7b 58be
00000050: 8361 b63e 1fd9 2e3e 142e 40be 6b9b 553e
00000060: ea58 d1b8 68fd 98be 38ca e6be d819 d9be
00000070: 93e8 833c df06 ca3e ef33 c33e bcbb 8e3e
00000080: bbd1 a53e 2b9b e3be 6514 9c3e 6dbc 75be
00000090: 10bb eebd a909 943d bef5 2fbe 805c 0c3e
000000a0: 225f a6bd 0089 333e 9769 a4bd 35b9 d8bd
000000b0: d584 b93e 90bc 143e 6bd4 bd3d 46b8 63bd
000000c0: 146f 5bbc 0141 c2be 66a3 25be 54f4 52be
000000d0: 0c85 09be c333 1cbb 6ad2 65be f599 4ebe
000000e0: f654 333e 4207 d03e 9058 b2bd f369 e93e
000000f0: 6285 90be 792c a83e fc15 213d 99da d2bd
00000100: 597f 633e 3f6c 46be 58d6 363d 58dd 2d3e
00000110: 1e4a 3b3c 36c1 d8be 44d4 3cbd 95f2 dfbd
00000120: 9cd7 a6be 6bca b13d 2246 0ebc 6238 4b3e
00000130: 91be e1bd 1cc4 b8be 7830 b03e dd5a fb3d
00000140: c686 c43d 5f57 903e 734a a03e 219f a33e
00000150: 7bb6 6f3e d065 32be 999a c5be 6e29 d63c
00000160: 52b6 91be 7d77 b53e 84b7 97be eb9c 203e
00000170: cc3b dd3e 31d9 403e ee79 b8be 5b9b 7d3e
00000180: 558d ad3e 24d5 9e3e 6677 9bbe 2d9f 7bbe
00000190: 8e92 f13e c9b3 eabe 0e0d 17be b5aa 5dbd
000001a0: 1367 e13e 4211 e93e 7b8a ba3e d189 a93d
000001b0: 7b5f ff3b 3114 1e3e 4a54 473d a764 ce3e
000001c0: d14f 86be 5694 483e edb5 92be 94bd ae3d
000001d0: 76e8 d8bd f55a b3be 06d0 073d 74c1 123b
0.46475166 0.19018826 0.40041414 -0.17238334 -0.4302942 -0.3750126 0.4900077 -0.0727152
0.29521313 0.113947354 0.011563901 -0.26044074 0.25242022 -0.15788487 0.2578792 -0.3992736
-0.16026999 -0.15798907 -0.07657198 -0.21140812 0.3562127 0.17075013 -0.18767577 0.20860069
-9.982458e-05 -0.29880834 -0.45076156 -0.4240253 0.016102111 0.39458367 0.3812556 0.27877605
0.32386574 -0.4445432 0.3048431 -0.2399766 -0.11656773 0.07228405 -0.17183587 0.13707161
-0.08123614 0.1753273 -0.08027952 -0.105822004 0.36234155 0.14525056 0.09269031 -0.05559566
-0.013393182 -0.3794022 -0.16175613 -0.20601016 -0.1342966 -0.0023834563 -0.22443548 -0.20175917
0.17512879 0.40630537 -0.08708298 0.45588645 -0.28226763 0.3284643 0.039327607 -0.102956004
0.22216548 -0.1937723 0.044638008 0.16978967 0.011431245 -0.42334908 -0.04610087 -0.10934941
-0.32586372 0.08681186 -0.008683713 0.19845727 -0.11022676 -0.3608712 0.3441198 0.1227319
0.095960185 0.2819166 0.313068 0.31957343 0.23409455 -0.17421651 -0.3859451 0.026142802
-0.28459412 0.35442725 -0.296322 0.1568486 0.43209684 0.18832852 -0.36030525 0.24766295
0.3389689 0.31021988 -0.3036453 -0.2457244 0.47182125 -0.4584029 -0.14751074 -0.054117877
0.44023952 0.4552098 0.36433777 0.082782395 0.0077933646 0.1543739 0.04866437 0.40311167
-0.2623277 0.19587836 -0.28654423 0.08532253 -0.105912134 -0.35030332 0.03315737 0.002239314

weight_hh_l0 f4 [12, 4]
00000000: b5f2 a6be a3ab ac3e 2f5c 6f3e 4a85 c73d
00000010: b588 903a 1bd4 cdbd cf06 383e 88df 3abe
00000020: 3c28 943c 8ea4 5cbe a24e 50bc fd37 3abc
00000030: 1b03 a0be d5ae d0be 9896 ddbe 49c7 e4be
00000040: 97fb e4be 8c9c b63e 4c14 393e 87b9 61bd
00000050: ce68 2abe 0f6b 423e dbef a83d 61f8 7e3e
00000060: 1a2c f33e 54b4 bdbe e831 3fbe 8ea5 e43e
00000070: 5fb9 adbe 6e4a fd3e ed80 bebe dfe5 abbe
00000080: c317 24be 9402 533e 5d13 acbe 4892 6b3e
00000090: 75c2 a73c 9eec b3be 5b51 f33d 70ab e4be
000000a0: 3a40 c8be e0ee a53e bccb c33d b3d0 ed3e
000000b0: 970f ab3d 6b7b f23e 06ff d8be 2ae5 fb3d
-0.32607046 0.33724698 0.23375009 0.0974222 0.001102707 -0.100502215 0.17971347 -0.18249333
0.018085591 -0.21547148 -0.01271406 -0.011365888 -0.3125237 -0.40758386 -0.43278956 -0.44683293
-0.44723198 0.3566631 0.18074149 -0.055108573 -0.16641542 0.18986152 0.08248874 0.24899437
0.47494584 -0.37051642 -0.18671381 0.44657558 -0.3393049 0.49470848 -0.37207738 -0.33573815
-0.1602469 0.20606452 -0.33608523 0.2300502 0.020478467 -0.35141462 0.11880752 -0.44662046
-0.391115 0.3240881 0.095603436 0.46448287 0.08352583 0.47359785 -0.42382067 0.12299569

bias_ih_l0 f4 [12]
00000000: da1b 2d3b 20bc 1abd 4d02 fabe 3fc1 d43e
00000010: 8b88 cbbe 968b 46be 9b57 0dbe 087a 50be
00000020: 15dd a4bd 13d9 7fbe 5741 923e 7295 0e3c
0.0026414306 -0.037777066 -0.4882988 0.41553685 -0.39752612 -0.19389185 -0.1380295 -0.20359051
-0.080499806 -0.24985151 0.28565475 0.008702623

bias_hh_l0 f4 [12]
00000000: e46d babe 2fe8 ce3e 7aea aa3d 87ac 40be
00000010: 9808 cb3e 7e39 cc3e 281a b9be b6db c1bd
00000020: b4ed 83be ad6a d33e 1f14 5abe 33d3 93be
-0.36411965 0.40411517 0.08345504 -0.18815814 0.39654994 0.39887613 -0.36152768 -0.09465735
-0.2576729 0.41292325 -0.21296738 -0.2887207

weight_ih_l0 f4 [12, 14]
00000000: 0b8e 82be 1eba a23e e12a c23e b220 0c3e
00000010: 5ae0 bb3e 4673 edbe eb86 eabe 688b a83e
00000020: 6330 82be e5f9 c73e 036c cd3e 6dfe ba3e
00000030: 030d 7a3e 8325 d43e 8b07 d43e 0b27 86bc
00000040: d409 5f3e 3108 98bd b072 8dbd 5175 a43e
00000050: 6a3b 07be 919d c8be 21eb 11be eeb5 aa3e
00000060: aa53 523e 2468 5cbd b0b1 a63e ff6d 643e
00000070: ae54 24be 9a85 c43e b96d eabe f9ab 473e
00000080: aae5 31be 5d5e 2a3c 840f b8be 6910 a039
00000090: 6e17 dabe fa7d 80be eeeb f13e 9ec1 e73d
000000a0: 757e 853b c91f 38be b458 f7be d517 5ebc
000000b0: 6169 903c 1504 483d 3bb7 52be 7eb5 d0be
000000c0: 578e 8bbe 21fd bebe bebc d33e 0562 0a3c
000000d0: b1fb c2be d5d2 ad3e 21fd 663e 8554 9bbd
000000e0: a5e0 e03e 8554 89be 9a5c 1a3e 43ad d4be
000000f0: 48d7 f13e 7685 f03e 1f57 98be ad30 a5be
00000100: 7ee6 fcba e6b6 c8be b525 0fbe e5c6 b1bd
00000110: 6663 48bc a821 c03d df2d caba 8061 f33e
00000120: bf65 e73e 0dcc f83e 927d 5a3e c5c3 933e
00000130: 11f7 38be 249f 6d3e 25a2 d03e 134d 2abe
00000140: ce54 fbbe 79be 9c3e 556e aa3e f07b 9a3e
00000150: 2541 cb3e 36e3 f8be 3603 b4bb 659d 8a3e
00000160: b851 78be c56e e0be 9385 ebbd 29d6 33be
00000170: 6d71 aabe eb48 f73e 1c60 a1bd 7715 af3e
00000180: 7f73 2a3b cf10 943d 225e b13d 8514 ff3e
00000190: 8683 90be ba9e 473e 726f 3ebd 3647 4e3e
000001a0: adba 1c3e e9ea 80be bdc5 4c3e a524 953e
000001b0: 7492 8d3e 0cbd 1dbd 6cc1 4f3d 9b11 a63e
000001c0: f2a2 e0be 3eaa cbbe 282f fe3e 91bf a0be
000001d0: 15bc 173e b527 813e 1532 ad3e d9c9 d93e
000001e0: 6f88 f73e ca68 91be bcdd e33e 5e31 073e
000001f0: de85 593e 1a52 b1bd 916a 8d3e 3a53 e03d
00000200: 4426 493e 0a2c 36be bd94 103d 1862 c93e
00000210: a29a 8ebe 1e5a 33bc 5603 73bc fba3 a23b
00000220: edab 783e d050 c9be 2a54 b43e 46c1 e43e
00000230: b095 b4bc 5036 08bd 8c0e 89be e59a cfbe
00000240: 3272 37be 4e78 be3e bdc1 cbbe b3cc 45bd
00000250: 33c9 cb3e 4572 81be aa25 7b3e a413 843d
00000260: a7e6 903e 7f3c a43e e077 a73e 4f23 453e
00000270: 4ab4 c1be 8953 fdbe 8e63 e53e d174 8f3c
00000280: b786 8e3e 1631 d6be ea59 e63e 8f72 c7be
00000290: 08f4 e93e bce9 c7be 92fc 34be 5283 d23e
-0.25498995 0.3178262 0.3792334 0.13684347 0.36694604 -0.4637701 -0.4580606 0.3291886
-0.2542754 0.39057842 0.4012147 0.36522236 0.24419026 0.4143487 0.41412005 -0.016376039
0.21781093 -0.074234374 -0.069066405 0.32120755 -0.13206258 -0.39182714 -0.14249851 0.33341926
0.20539728 -0.053810254 0.3255744 0.22307585 -0.16047928 0.3838318 -0.45786837 0.19499196
-0.17372766 0.0103984745 -0.35949337 0.00030529805 -0.42596 -0.25096112 0.47250313 0.113162264
0.0040739127 -0.17980875 -0.48309863 -0.013555487 0.017628374 0.048832018 -0.2057771 -0.40763468
-0.27257034 -0.37302497 0.41354936 0.008446221 -0.3808265 0.33949915 0.22557499 -0.0758448
0.4392139 -0.26822296 0.15074387 -0.41538438 0.4723456 0.46976823 -0.29753968 -0.322637
-0.0019294766 -0.3920204 -0.13979228 -0.08680514 -0.01223073 0.093814194 -0.0015425048 0.47535324
0.45194814 0.48593178 0.21336964 0.28860298 -0.18062998 0.23205239 0.40748706 -0.16630964
-0.49088138 0.3061407 0.33287302 0.30172682 0.3969814 -0.48610848 -0.005493547 0.27073207
-0.24249923 -0.4383451 -0.11500087 -0.17562164 -0.33289662 0.4829782 -0.078796595 0.34196064
0.0026008782 0.072297685 0.086605325 0.49820343 -0.28225344 0.19494143 -0.046493 0.20144352
0.15305586 -0.25179222 0.19997306 0.2912952 0.27650797 -0.038510367 0.05072157 0.32435307
-0.43874317 -0.39778322 0.49645352 -0.31396154 0.14817841 0.25225607 0.33827272 0.4253681
0.48346278 -0.2840026 0.44505107 0.13202426 0.21242473 -0.08658238 0.27620366 0.10953374
0.19643503 -0.17790237 0.035298098 0.39332652 -0.2785235 -0.010946779 -0.014832338 0.0049633957
0.24284334 -0.39319468 0.35220462 0.44678706 -0.022044033 -0.03325492 -0.2676891 -0.40547863
-0.17914656 0.3720116 -0.39796248 -0.04829092 0.3980194 -0.25282493 0.24526086 0.06449059
0.28300974 0.32077405 0.32708645 0.1925175 -0.37832862 -0.49477795 0.44802517 0.017511757
0.27837154 -0.41834325 0.44990474 -0.3895459 0.45693994 -0.39045513 -0.17674473 0.41115814

weight_hh_l0 f4 [12, 4]
00000000: aa36 76be 20d4 373e 9a52 0b3b 2474 d73e
00000010: 5fea 503d 47b9 33be 6c06 a43e 65cf 00be
00000020: c038 bf3d 8171 d1be 1dd9 0bbe 5007 fabd
00000030: ae14 c3be e170 8cbe 9bb4 333e bc39 b7be
00000040: 2d06 c63d 9286 df3d 966d 893e c0da c73e
00000050: 551f e93e 6b9c 87be 6408 773e 36b0 583e
00000060: d537 9ebe 5b9e 6f3e 668c 8dbd 081b 0dbd
00000070: 6374 ba3e dc48 cdbe 07cc b43e 4538 1c3e
00000080: ca91 e3be ebf6 933e 3bc3 ed3a dcac 223e
00000090: 7375 b73e 299f 63be 7152 1c3a 1847 7bbe
000000a0: a804 d8be eeb6 843e 5f3b 383e 6714 15be
000000b0: d6d4 dbbe 7234 f63e f094 953e b5ab 85bd
-0.2404429 0.17952013 0.0021258951 0.42080796 0.051004764 -0.17551146 0.3203615 -0.12579115
0.09336996 -0.4090691 -0.13657041 -0.12208426 -0.38101715 -0.2742987 0.17549364 -0.35786235
0.09669147 0.10914339 0.2684142 0.3903408 0.45531717 -0.26486525 0.24124295 0.21160969
-0.3090197 0.23400252 -0.069115445 -0.034449607 0.3641692 -0.4009465 0.3531191 0.1525584
-0.44447166 0.2889932 0.0018139848 0.15886253 0.35831794 -0.22228684 0.00059632125 -0.24538839
-0.42191052 0.25920814 0.17991398 -0.14558564 -0.42935818 0.48086888 0.29215193 -0.06526891

bias_ih_l0 f4 [12]
00000000: 9e3e 023f b5d8 c23e 9d7d 1bbe 5cab a9bd
00000010: 68dc d83e e55d e7bd ecef 603e bfec e23d
00000020: 3043 163e dcae 743e 87c0 e83e 7f5d 85be
0.50876796 0.3805596 -0.15184636 -0.08284637 0.42355657 -0.11297206 0.21966523 0.11080312
0.14674067 0.23894829 0.45459387 -0.26047894

bias_hh_l0 f4 [12]
00000000: 23b0 ac3e ec2a c3be 08a9 573e 48a4 073e
00000010: 991a c7be dcde 35be 0456 fcbe da10 f6be
00000020: 55fd df3e 6111 90be 5303 93be ecaf 94be
0.33728132 -0.38118684 0.21060574 0.13246262 -0.3888748 -0.17760795 -0.49284375 -0.48059732
0.43747965 -0.2813826 -0.28713474 -0.29040468

weight_ih_l0 f4 [12, 24]
00000000: d503 cbbd c546 94be a7a4 f83d ac16 15b9
00000010: dc64 633e 3cb3 acbe 060b fbbe 7867 febe
00000020: e05b bbbe 548b 613e 9fcd 4a3d f0d6 e53c
00000030: 1350 1a3e 6fdf 63be 6974 283e 625b 00bf
00000040: 8b36 813d b690 f5bd c16e 903c f6b9 ec3e
00000050: 4b14 a0be 8118 2ebd 986c c93d c322 a9be
00000060: 40d1 ddbe b034 103e b5c5 bc3e 26f9 3bbd
00000070: 788a 93be 1a04 24be f790 0cbe 15f7 d73e
00000080: 51bd 9abe f85c 88bd 1e26 3fbd 56ba b8be
00000090: 1017 aebe 52a8 103e 2190 84be 76fc 22be
000000a0: b42e f53e 3adf 02bf 18a2 8f3e 4b4d dbbc
000000b0: 7344 c03e dd1a adbe 62eb 783e 2352 a4bd
000000c0: 5708 d73d 51b8 ea3e fff3 a53e 7a15 89bd
000000d0: 9e57 bfbe 1a57 f23e 516b 053e 605e 703e
000000e0: d0ef 8cbe 9994 adbe 47c9 d53e b7d2 003f
000000f0: e585 8e3e a130 c8be e9a8 32b8 dace 083e
00000100: 5ed3 a1be 2316 7abd 301c c83d dbc2 df3d
00000110: 5597 ddbc f9c3 75be f5d4 d93b 29a9 883d
00000120: 57ed 77be db42 843e d0b9 e83d 73bf e9be
00000130: 2bbf c03d 9a2b cc3e f557 68be 2297 d73e
00000140: 5ea6 8fbe f49c 75be 40ec 353e 3313 fa3a
00000150: 88d2 9c3e cb5d cdbe cb74 c6be 9daa d4be
00000160: 7af2 ecbd 6811 eb3e 1ed0 e9bd ef25 c33e
00000170: c9f4 823e 5961 28be f21a 0a3e 1aa6 d03e
00000180: 9030 89be a5ba 343e 6928 a8be 5853 b23e
00000190: a07d ec3e 2c39 023f 1bce 99be b863 4f3e
000001a0: 1566 b83e 5f7f 6dbe 7a4f 0bbe f6fb b03d
000001b0: 4492 cc3d 886b e83e fc4d e93e fba8 c2bd
000001c0: 1632 ba3e 4757 933c 0b0e 773e a044 df3e
000001d0: 160f 8d3e 64e2 76be 8100 d33e 0eae b8be
000001e0: d13c d1be c79b a1be 6b77 f9be b28a 373e
000001f0: 4f12 cabd 90fb 913d 1af6 ca3c 11c6 bbbe
00000200: 72b6 91be 43eb a83e e155 adbe 848b b03e
00000210: f7d6 4cbe 7b1b 473e 8932 9d3e 1faa 54bd
00000220: 4d10 cfbe 5017 2c3e a793 d8be ae65 d0be
00000230: a8ea debe 758c cabe b732 a23e 4850 2abd
00000240: 09d1 afbe 42cb 2d3e a276 b3be 6227 e7be
00000250: bf2a f6be 97b0 fabe 1848 7f3c a2a6 b43c
00000260: 4f27 ff3e edef da3d 2978 b4be 5da8 b73e
00000270: 161f 6ebe d601 bb3e 902b 55be 2cba 9cbe
00000280: c35b 113c 67df dd3d 468a c13e 9a19 363c
00000290: c272 78be 2f9f 60be c1ee 63bd 681a fdbc
000002a0: 8caf edbd ab4d e3be 5e94 93be 458a 2c3e
000002b0: 3080 cc3e 86ac f43e 00d6 2abe 0107 ba3e
000002c0: 4426 1d3e 7efa a13e 0b50 c0bc 9943 72be
000002d0: a8c0 39bd c241 a73e 2f85 9bbe 43f8 dc3c
000002e0: b9f9 88be 0019 52be 4c9b c3be 2f3a 5bbd
000002f0: 38cd c13e b0f6 c93e a007 bd3d d1c5 de3e
00000300: c0f4 ed3e a1da 2f3e b7ad e03e abd2 3c3c
00000310: ed57 ed3d fa2c 3e3e f6ba 003f c509 b5bd
00000320: 9b7d c73d 91df babe 634c 58be ffdc 4a3e
00000330: cfb0 033f 3cdf d83b 50fe 2f3d 9a8a b43e
00000340: 93a5 89be 8def efbe 60b4 b2be b4b0 73be
00000350: cb22 f73e a2d2 c6be a943 d7be 823a c23d
00000360: 0def f43e 24de a0be f05f c53d 7337 9a3e
00000370: f705 8fbc a64e 923e 0390 833e 4d96 373e
00000380: d3fd d63b 496d 60be e91d b63e 76be b93e
00000390: e0c2 2ebc 6913 c33d 2cee 2bbd 34fe 1cbe
000003a0: dc12 8bbe 271c 90bd 5af6 8d3e 356f babd
000003b0: a851 8dbe 170c 86be 43d0 203c acf2 95be
000003c0: f5b0 9ebe 4db3 e23c abb3 793e 12ec 39b9
000003d0: f40f 80be 99c6 883d 8412 a83e a47a a13e
000003e0: ae28 33bd 6f8f b1bd 2239 ff3c cda2 30be
000003f0: fe18 d73e 721e 10be 6f7a a53e 28c7 c73d
-0.0991284 -0.28960243 0.1214078 -0.00014218193 0.22206444 -0.33730495 -0.49031848 -0.49688315
-0.36593533 0.22025806 0.0495125 0.028056592 0.15069608 -0.22253202 0.16450657 -0.5013944
0.06309231 -0.11990492 0.017630937 0.46235627 -0.31265482 -0.042503837 0.09835166 -0.33034334
-0.43323708 0.14082599 0.36869588 -0.045891903 -0.2881658 -0.1601719 -0.13727175 0.42180696
-0.30222562 -0.066583574 -0.04666721 -0.36079663 -0.3400197 0.14126709 -0.25891212 -0.15916619
0.47887194 -0.51121867 0.28053355 -0.026770255 0.37552223 -0.33809558 0.24308541 -0.08023479
0.104996376 0.45843747 0.32412717 -0.066935495 -0.37371534 0.47332078 0.13029219 0.23473501
-0.27526712 -0.33902434 0.41755125 0.50321525 0.27836528 -0.390996 -4.2595817e-05 0.13360158
-0.31606573 -0.061056267 0.09771001 0.109258376 -0.0270497 -0.24000539 0.006647701 0.0667289
-0.24211632 0.25832257 0.11363566 -0.45653877 0.094114624 0.39877015 -0.22689803 0.42107493
-0.28056616 -0.23985654 0.17765903 0.0019079208 0.30629373 -0.4011062 -0.3876098 -0.41536418
-0.11569686 0.45911717 -0.11416648 0.3811488 0.2557738 -0.16443385 0.13486841 0.40751725
-0.26794863 0.17649324 -0.3284333 0.3482921 0.46189594 0.5086849 -0.30040058 0.20252883
0.36015382 -0.2319312 -0.13604537 0.08641808 0.099888355 0.4539454 0.4556731 -0.09504887
0.36366338 0.017985953 0.2412645 0.43607044 0.27550572 -0.24109799 0.41211322 -0.36070293
-0.40866712 -0.3156416 -0.4872392 0.17924002 -0.09866773 0.0712806 0.024775553 -0.3667455
-0.28459507 0.3299199 -0.33854583 0.34481442 -0.20003878 0.19444077 0.30702618 -0.051920053
-0.40442124 0.16805768 -0.4230015 -0.40702575 -0.43538404 -0.39560285 0.31679317 -0.04158047
-0.3433917 0.16972068 -0.35051447 -0.45147234 -0.48079488 -0.48962852 0.015581153 0.022052113
0.49834678 0.106902935 -0.35247925 0.35870638 -0.23254046 0.36524838 -0.20817399 -0.30610788
0.008871975 0.10833626 0.37800807 0.011114502 -0.24262527 -0.21935724 -0.055647615 -0.03089638
-0.116057485 -0.44395193 -0.28824133 0.1684962 0.3994155 0.47787875 -0.16683197 0.3633347
0.15346628 0.31636423 -0.023475667 -0.23658599 -0.045349747 0.32667357 -0.3037505 0.02697385
-0.26753023 -0.20517349 -0.3820442 -0.053522285 0.37851882 0.3944602 0.0922997 0.43510297
0.46475792 0.17173244 0.43882534 0.0115248365 0.11589036 0.18571845 0.5028528 -0.08839754
0.09740754 -0.36498693 -0.21122889 0.19810866 0.51441664 0.0066184085 0.04296714 0.35261995
-0.26884136 -0.4686245 -0.3490324 -0.23797876 0.48268732 -0.38832575 -0.42043808 0.09483816
0.4783863 -0.3141948 0.09637439 0.3012043 -0.017458899 0.2857563 0.2569581 0.17928429
0.00656102 -0.21916689 0.35569695 0.36278123 -0.010666579 0.095251866 -0.041975185 -0.15331346
-0.27162826 -0.0703662 0.27727014 -0.09103242 -0.2760136 -0.261811 0.009815278 -0.29286706
-0.30994383 0.027673388 0.24384944 -0.00017730918 -0.2501217 0.066785045 0.32826626 0.3153888
-0.043739967 -0.08669936 0.031155173 -0.17249604 0.42011255 -0.14074114 0.32319972 0.09754783

weight_hh_l0 f4 [12, 4]
00000000: 271e 8dbe bd53 a8be 439d bb3e 86cc 0c3e
00000010: ff9e 5b3e 757e fabc 2213 94be b393 323e
00000020: a145 aebe 7da7 9a3e 9c71 dfbe cbb3 59bb
00000030: c77d a43e eb19 1e3d 3aa7 f53e 6352 6fbe
00000040: 2649 483d a4c5 753d c9aa bebe 2604 d33e
00000050: f5df 01bf c6c3 c83d e489 f1bd b69b f6be
00000060: 0be2 b4be 125f 4c3e 753d b0be 4729 993e
00000070: 343b b2bd 7279 dfbe 434e 9bbd d8ec 5c3c
00000080: c211 79bd 64aa d2be 2cf7 b03d c576 5b3e
00000090: 5b9a b6bc 50d3 e63e 8321 cbbe 9e12 b1be
000000a0: 8cfc eebe 4026 003e 6ad8 cdbe ca21 e3bd
000000b0: 5da5 94be 740a 873a 301d c33e 0af7 a6be
-0.27562067 -0.32876387 0.3664342 0.13749894 0.21447371 -0.030577878 -0.28920847 0.17439155
-0.34037498 0.30205908 -0.43641365 -0.0033218737 0.3212721 0.038598936 0.47979146 -0.23371272
0.048897885 0.060002938 -0.37239674 0.41214103 -0.50732356 0.09802966 -0.11793879 -0.48165673
-0.35328707 0.19958141 -0.34421888 0.29914305 -0.08702698 -0.43647343 -0.075832866 0.013484202
-0.06080795 -0.41145623 0.08640894 0.21432026 -0.0222904 0.45083094 -0.39674005 -0.34584516
-0.46677053 0.12514591 -0.40204173 -0.11090429 -0.29032412 0.0010302798 0.38108206 -0.3261035

bias_ih_l0 f4 [12]
00000000: 61dc 9cbd 9a42 b83e fe0b 883e e96c b4be
00000010: 757e f13e 2eb1 8a3e d58f a4be c6aa d93d
00000020: 2734 e23e 2435 44be c61d 21bd 1c2d 5e3e
-0.076592214 0.35988313 0.2657165 -0.35239342 0.47166792 0.27088302 -0.32140985 0.106282756
0.44180414 -0.19160897 -0.039335035 0.21696895

bias_hh_l0 f4 [12]
00000000: b8ac f2bd d046 58be dfd2 fcbc 4b73 003e
00000010: 448c e7be 882b 44be 9eb8 87bd 22b6 0cbe
00000020: 8dfa 70be 579a 3e3d 17b2 d23d 7012 253e
-0.1184935 -0.21120763 -0.03086227 0.12543981 -0.45224202 -0.19157231 -0.0662701 -0.13741353
-0.23533078 0.04653391 0.10287874 0.16120315

weight f4 [4, 4]
00000000: 6980 ca3e 488b c0be c131 9fbe 60f7 ca3e
00000010: 31cd 82bc 9640 ce3d d978 04bd 5a6d bd3e
00000020: 46b0 fc3e 0492 6bbe c0c7 963e 8e14 f7be
00000030: f887 733e 045c 63be 33ff d0bd 928b c93d
0.39551094 -0.37606263 -0.31092647 0.39641857 -0.015966984 0.100709125 -0.03234181 0.3699749
0.49353236 -0.2300492 0.29449272 -0.4825787 0.23782337 -0.2220307 -0.102049254 0.09841074

bias f4 [4]
00000000: ff5c a83e c196 c7be acc7 f93e c26f c1be
0.3288345 -0.38982204 0.4878515 -0.37780577

weight f4 [320, 8]
00000000: dd8a 51bd 5060 65bd fd75 973d c9d6 8d3e
00000010: d31e 98be 7591 debc 60c7 37be 4e49 85be
00000020: 1775 5ebd c161 09be 0197 dc3d 41f8 033e
00000030: df3f 013d 2ea7 92be bb7b b43e f2b5 00be
00000040: 9b8a 653d 2cb2 9939 f8c1 853e 3f27 083d
00000050: 4771 a0be fd2d be3d 68cf 183c 8e64 8fbe
00000060: dd82 68be e453 16be df65 373e 2e4e 88be
00000070: 2940 453d eb3f 2539 b89c 82be 0448 ebbd
00000080: cfc2 69ba 1282 0fbe f70b cabd b009 62bc
00000090: 235b 42be ce89 0f3e e75c 86be 31cb 2dbe
000000a0: 3299 163c 309a 1a3e 38cc 7b3e 3479 e6bd
000000b0: 7412 b0be 7b98 59be 2f0c a3bd 7fe1 f73d
000000c0: c3f0 b73e d3b3 053d c769 a5be 2e22 a23e
000000d0: e9f0 803e 3de0 60bd 2cc7 dc3c a64e 57be
000000e0: 5d4d 823d 2e1b 54be c544 aa3e 6940 1bbe
000000f0: a581 ab3e bce7 aebe 72a1 38bd 1058 4fbe
00000100: 6307 b1be 0691 6d3e 55a5 b03d 361a ee3d
00000110: be9d a23e ce8a 06be 7e2d 9b3e 22d6 ee3d
00000120: 177d 13be 3dd2 f23d 7aa2 ad3e 0866 ebbd
00000130: 4fb8 6e3e 3a68 05be 56af e7bc 98d4 943b
00000140: dacd b63d faa9 0fbe 679d 733e af92 5cbe
00000150: d0eb 5e3e 116b 8abc 339e 803e 5372 273e
00000160: 188d 7c3d 7363 893e e660 4e3e c736 043e
00000170: 3bed 493e cf20 493e a809 87be 845d 9bbe
00000180: cc81 493d 9242 063e ed06 97be 10de 85be
00000190: e099 ac3d f30e 0ebe 49e1 8d3e 0de6 af3e
000001a0: 9f4a 44bd b831 303e 555c 88be 7050 203b
000001b0: 61c4 4cbd 0aaf 5c3e 9366 553d c266 7abe
000001c0: 3c17 8dbd c41a 2abe cd8f b8b8 5e23 2f3e
000001d0: b982 79be 7c96 623a 6356 433e 05fc b03c
000001e0: c8f0 2dbd db21 f03d 938f 0d3e cda6 83be
000001f0: 30c1 7bbe 8bb3 513e 5748 46be eafc 253e
00000200: f035 2bbd 96ef 86be 6d0e 36bd 0e16 a13d
00000210: 33ea 89be f723 15bd 8671 01be 7a3e 15b9
00000220: 261c 5d3e 5561 63be acb5 83be 71d6 ec3c
00000230: f3b8 68be a2a2 263e 3f79 d73d a700 aa3c
00000240: 85d8 08be 0798 a43e 4e24 2d3d bdd3 2a3e
00000250: 86dc 583e 3a0e 75be de7a 94bd f425 173e
00000260: 7947 89be ff26 5e3e 3e54 68be 4a14 d53d
00000270: 8e60 a7bc a39e 823e b12c 653e f7ca 243e
00000280: 02de 1ebe b293 853e 3ef2 86be bb5c 0e3e
00000290: cd85 9dbd bed2 b63e a9ee cf3d 5683 543d
000002a0: a3c1 46bb 366a b43e f3d5 463e 101f 8abe
000002b0: 75c1 263e 91b7 b93d 0421 2f3d 9519 e53d
000002c0: a477 283d 27aa 6cbe 73ee 6a3a c695 2dbe
000002d0: 993d 7bbe d8ac 733e 6865 933e 6c44 8c3e
000002e0: 828b 763e 4ebc b73e 7224 873e b02d 88be
000002f0: e4bf 3bbd c779 27be 8c25 7a3e ba01 2ebe
00000300: fda3 08be be9a aebe 9efc a13e 57a5 8a3e
00000310: da07 903d 0d5a 0fbc ebff 4dbe de80 843e
00000320: da96 18bd 8a95 85be 309a 5a3e ca5c cc3d
00000330: e53e 93be 396d 0abe 2c68 90be a604 46be
00000340: efd8 f2bd 668d e8bd 8a71 3ebe b1e3 39be
00000350: b7d4 b63e 4c2a 163e fc94 41be 8981 2cbd
00000360: 8abb 573e 828a a2bd 08e4 09be 52c1 9dbe
00000370: 1bce 47be 0528 953e 5bb7 883e 4fd5 263d
00000380: aa5a 193e 60ce 233d 3de1 a43e 8b7a 253e
00000390: 0c4f 683e 241e 913e ecd6 a0bd 8ae5 1cbc
000003a0: 5ba8 b83b e24c 683e 7a7d 0b3e e4d6 8ebd
000003b0: d241 7d3d 88da 673d 3b16 ea3d 14c8 01be
000003c0: 8a04 103e ed98 37be 3878 753e d720 71be
000003d0: 1423 4dbd a11d 4bbe 2f69 1b3e a8f0 8a3e
000003e0: 5bc5 f0bc 5904 8cbd 536d 70be 76e0 98be
000003f0: 69b8 943d de39 09be dda1 a9bd c0a1 5d3d
-0.05115782 -0.056000054 0.07395551 0.2770293 -0.29711017 -0.027168969 -0.1794715 -0.2603249
-0.054310884 -0.13416196 0.10770989 0.1288767 0.031555053 -0.28643173 0.3525065 -0.12569407
0.056040388 0.00029315182 0.2612455 0.033240553 -0.31336424 0.09286115 0.009326793 -0.28006405
-0.2270617 -0.14680439 0.17909954 -0.26622146 0.04815689 0.00015759438 -0.25510192 -0.11488345
-0.00089172734 -0.14014462 -0.09865563 -0.013796255 -0.18980078 0.14017412 -0.26242754 -0.16972043
0.009191798 0.1509788 0.24589622 -0.112535864 -0.3438908 -0.21249573 -0.07961308 0.12103557
0.35925874 0.032642197 -0.32307264 0.31666702 0.251838 -0.05490135 0.026950441 -0.21026096
0.06362412 -0.20713493 0.33255592 -0.1516129 0.33497348 -0.34161174 -0.04507584 -0.20248437
-0.34575948 0.23199853 0.086252846 0.11626093 0.31760973 -0.13138887 0.30308145 0.11661936
-0.14403187 0.11856506 0.33913022 -0.1149407 0.23312496 -0.1302804 -0.028281849 0.0045419447
0.08925982 -0.14029685 0.23790513 -0.2154033 0.21769643 -0.016896756 0.25120696 0.16352205
0.061657995 0.26833686 0.20154151 0.12911521 0.19719402 0.19641422 -0.26374555 -0.30344784
0.04919605 0.13111332 -0.2949747 -0.26145983 0.08427787 -0.1387289 0.2771094 0.34355202
-0.047922727 0.17206466 -0.26632944 0.0024462007 -0.04999197 0.21551147 0.052099776 -0.24453261
-0.06889197 -0.16611773 -8.800589e-05 0.17103335 -0.24366273 0.000864364 0.19075923 0.021604547
-0.042465955 0.117252074 0.138243 -0.25713196 -0.24585414 0.20478646 -0.19363533 0.1620976
-0.041799486 -0.26354665 -0.04444735 0.07865535 -0.26936492 -0.036411252 -0.12640962 -0.00014233022
0.21592769 -0.22205098 -0.25724542 0.028910847 -0.22726803 0.16272977 0.10521173 0.020752264
-0.13363846 0.32147238 0.04227095 0.16682334 0.21177873 -0.23931208 -0.072499976 0.14760572
-0.26812342 0.21694563 -0.22688386 0.104042605 -0.020431783 0.25511655 0.2238033 0.1609305
-0.15514377 0.26089245 -0.2635669 0.13902561 -0.07691536 0.3570766 0.10152943 0.051883064
-0.0030327819 0.35237283 0.19417553 -0.26976824 0.16284736 0.09068216 0.042756096 0.1118652
0.041129723 -0.23111783 0.00089619233 -0.16951665 -0.24535216 0.23796403 0.28788304 0.27395952
0.24076656 0.35885853 0.26394993 -0.26597357 -0.045837298 -0.16355048 0.24428385 -0.16992846
-0.13343807 -0.34102434 0.31638044 0.2707927 0.070327476 -0.008749497 -0.20117156 0.25879568
-0.03725324 -0.26090652 0.2134788 0.099786356 -0.28758922 -0.13518228 -0.28204477 -0.1933771
-0.11857783 -0.113550946 -0.18597999 -0.18153264 0.35709164 0.14664572 -0.1890449 -0.04211572
0.21067634 -0.079365745 -0.13465893 -0.30811554 -0.19512217 0.29132095 0.2670239 0.04073077
0.14975992 0.039991736 0.32203093 0.16160028 0.22686404 0.28343308 -0.07853493 -0.009576211
0.005635304 0.22685578 0.13622084 -0.06974581 0.06183035 0.056604892 0.114300214 -0.1267398
0.14064232 -0.1792943 0.23971641 -0.23547684 -0.05008228 -0.19835521 0.15176843 0.2713673
-0.029390981 -0.06836767 -0.23479204 -0.2985875 0.07261736 -0.13400981 -0.08282826 0.054109335

bias f4 [320]
00000000: abc9 2e3e c1ee 3b3b ed58 9aba fbe4 09be
00000010: 7d13 243e 39c9 f53a 7b41 b23c 7fab 9cbc
00000020: 5686 4f3d f123 a2be 90b0 6abe fe42 933c
00000030: c07a 76be 593e 2bbe 824a e4bd 386d e33d
00000040: 51e7 4d3d 8df7 67be 8441 ebbd 6c3e 3d3e
00000050: 48a0 433e 1535 85be 9e7e 4ebe 3e4e 9c3e
00000060: edac 4dbd 7dae 44be 344e 843e c65c 71be
00000070: b6e9 293e 0a3a b33e 2193 85be 255d bc3e
00000080: 7774 87bc b84c 19bd 987e 8f3e 9dd7 4a3e
00000090: 8a5f b03d 1763 81be cccd 9cbe e8e6 803e
000000a0: a3a5 a1b9 3d8b 97be 7351 7c3e 1e88 e03c
000000b0: e70e 453d a835 4fbb f75a 74be 7c58 5e3e
000000c0: 821f 6cbe 860e 01be 25ba b83e 2f74 3fbe
000000d0: 7b65 39be c2aa 22be d64b debc df4a 07be
000000e0: e351 91bd 786a 83be a59f a13e 8828 433d
000000f0: 26de c5bd c683 273e ae66 343e 0064 6fbe
00000100: 9da5 80be a2a9 0fbe c76e 1fbe 7581 45bd
00000110: 423b 91ba 319e 4abe ad26 47be ea51 2f3e
00000120: abf6 66be b5d7 1a3d 56e5 7fbe 178d 333d
00000130: 8a9d 63be b9ff 2f3e 0556 d4bd 2682 c53d
00000140: f20a d73d 2f51 bcbd 9380 403e 7f89 ec3c
00000150: 005b 7cbe 6b1c a33e 2325 09be 1ac2 ac3d
00000160: 7239 1b3e e66c 0cbe 8802 85be a522 593e
00000170: f6e7 323e fd6e 5a3e d0a8 00bc 376c 843d
00000180: 6cf9 85be ec4f 99be 5248 743e e90a b4bb
00000190: 460c 7dbe 6de6 8fbd cd54 40be cb2b 6d3e
000001a0: 995b e638 4af6 393e b93d adbb 542f f43d
000001b0: 542e 8d3e fe3b aa3e 1155 883d 0cbd 183e
000001c0: 1e63 35bd c618 b83e 1a5d 9e3d 0c5f aebe
000001d0: 4aec 58be 7af1 84be 5d53 63bd 4690 a9be
000001e0: 3352 50bd 8f33 e238 f9d4 6fbd 5c1f d2bd
000001f0: af07 c8bc 1d56 6b3e c904 2eba 028d 4abe
00000200: ad7e 553e d051 2abe 9a25 8d3e d390 553d
00000210: d2a9 5f3e 6da0 f8b8 4c87 bebd d3f4 843e
00000220: 5511 b03e 768d eebd cd76 72be aaf7 92bd
00000230: c2ec 51be aae4 193e 7931 2b3d 4a35 8f3e
00000240: 798d 953d a4e8 98be 6009 543e d3b3 843e
00000250: d918 fcbd 18cb 3e3e e773 8a3e 28a7 2c3d
00000260: 6470 323e 9ad3 d43b 1147 86bd 2ebc ecbd
00000270: ad7e 4e3e 13a3 813d 561b 95be 6ff0 ba3e
00000280: e0b5 7d3e bf76 793e dca0 7a3e e733 8fbe
00000290: df06 0f3d 5d64 b83e 3579 773e 69e6 773d
000002a0: 20ce 75be c7bf a73d ab37 083e 7833 a7bd
000002b0: 1793 d23d 62cb fb3d 9f82 7dbc 2f76 0fbe
000002c0: 8eac 01be 3a5f 63be 50bc 0abd 963d 813d
000002d0: 01b2 92be bdaf 73bd d82e 97bd fe72 1d3e
000002e0: f3bc 8ebe d43f 953e 142c ebbd 8fa5 82be
000002f0: 0999 443e 73b8 97bd e62a 233e a51c 33be
00000300: 4ed3 81be 8f1e 453e df18 84be b5dd 5cbc
00000310: 91d7 9fbe 7425 613d ea39 9c3e 2649 21be
00000320: 2edb dfbd a7aa 903e 8669 e9bd ae13 9ebd
00000330: 6028 93be 565b 6fbe a836 aabe 14db 52be
00000340: 823b a0be c845 013d e076 56be 6f98 4bbb
00000350: 3c85 2c3e 52bb 3a3e 4b1d 933e bec9 34be
00000360: e261 9dbe 4e0d 70be 8d26 52be 66d2 0f3d
00000370: a350 763e bb94 79be f63c 95be a72c b73d
00000380: 9024 08be 08f0 d338 d985 0cbe d35f 8dbe
00000390: bc56 b73e b9d2 8abe 8c94 523e 0c85 6b3e
000003a0: 9075 debd 06cd 713e a685 a6bc 8571 5dbe
000003b0: 10d0 85bd 1686 b4be b81a 99be 3333 683d
000003c0: b26e 89be 5a7f 473e 1693 81bd c3c2 b73e
000003d0: ecfb 8dbe 303a 833e c1ae 7a3e a432 a23e
000003e0: f0e2 b5be c5b0 333e 429b 7fbe 97c5 8dbe
000003f0: cfa5 9bbd 9473 d83d 022c 8cbe 187b 503e
0.17069118 0.0028676244 -0.001177577 -0.13466255 0.16023059 0.0018751986 0.02175974 -0.019124744
0.050665222 -0.31668046 -0.22918916 0.01797628 -0.24070263 -0.16723002 -0.11147024 0.11104816
0.05026943 -0.22653027 -0.114871055 0.18480843 0.19104111 -0.2601706 -0.20165488 0.30528444
-0.050213743 -0.19207187 0.25840914 -0.23570547 0.1659306 0.35005218 -0.26088813 0.36789814
-0.016535027 -0.03742668 0.2802627 0.19808812 0.08611973 -0.25270912 -0.3062576 0.25176167
-0.00030831722 -0.29598418 0.24640445 0.027408656 0.048109915 -0.0031617675 -0.23862825 0.21713442
-0.23058894 -0.12603197 0.36079517 -0.18696664 -0.18105118 -0.15885451 -0.02713577 -0.13212155
-0.07095697 -0.25667167 0.31567112 0.047646075 -0.09661512 0.16358861 0.17617294 -0.2337799
-0.25126353 -0.14029554 -0.15569602 -0.048219163 -0.0011080282 -0.19786908 -0.19448347 0.17121091
-0.22555034 0.03780337 -0.24989828 0.043835726 -0.22228065 0.17187394 -0.103679694 0.096439645
0.105001345 -0.09195172 0.18799047 0.028874157 -0.24644089 0.3185762 -0.13393073 0.084354594
0.15158632 -0.13713416 -0.25978494 0.21204622 0.17471299 0.21331401 -0.007852748 0.06465953
-0.26166856 -0.29943788 0.23855713 -0.0054944647 -0.24711713 -0.07026372 -0.18782349 0.23161237
0.00010984316 0.18160358 -0.005286899 0.119230896 0.27574408 0.33248895 0.0665685 0.14915866
-0.04428398 0.359564 0.077326015 -0.3405689 -0.21183887 -0.25965482 -0.055499423 -0.33117884
-0.05085964 0.00010786123 -0.058552716 -0.102598876 -0.024417726 0.22982068 -0.0006638286 -0.19780353
0.20849104 -0.16632771 0.2756775 0.05214007 0.21842125 -0.00011855443 -0.093031496 0.25968036
0.34388223 -0.11648075 -0.23678131 -0.071761444 -0.20500472 0.15028635 0.041795228 0.27970344
0.073023744 -0.2986499 0.20706701 0.25918445 -0.12309427 0.18632162 0.2704155 0.0421516
0.17425686 0.0064949514 -0.065565236 -0.1155933 0.2016551 0.06329932 -0.29122418 0.3651156
0.24776411 0.24361704 0.24475425 -0.27969286 0.034918662 0.3601407 0.2416733 0.06052247
-0.24004412 0.081908755 0.13302486 -0.08164114 0.102819614 0.122946516 -0.015473037 -0.14009927
-0.1266348 -0.22204295 -0.033870995 0.06310575 -0.2865143 -0.05949377 -0.073819816 0.15375897
-0.27878532 0.2915026 -0.114830166 -0.25516936 0.19199003 -0.07408228 0.15934333 -0.17491396
-0.25356525 0.19249938 -0.25800225 -0.013480593 -0.31219152 0.05496736 0.30512935 -0.1575056
-0.10930477 0.28255197 -0.1139708 -0.07718597 -0.2874174 -0.23374686 -0.33244824 -0.20591384
-0.312954 0.03156069 -0.20943785 -0.00310662 0.168477 0.1823552 0.28733286 -0.17655084
-0.3073874 -0.23442575 -0.20522518 0.03511276 0.24054198 -0.24373142 -0.29148072 0.08944064
-0.13295197 0.00010105973 -0.13722934 -0.2761217 0.3580836 -0.27113894 0.20564479 0.22999972
-0.10862267 0.23613366 -0.0203274 -0.21625336 -0.065338254 -0.3525855 -0.29903197 0.056689452
-0.26842266 0.19482175 -0.063268825 0.3589078 -0.27731264 0.2563033 0.24480726 0.3167926
-0.35524702 0.17547901 -0.2496157 -0.27689812 -0.07599985 0.1056892 -0.27377325 0.20359457
